tmp/ddpg_backup/target_critic_ddpg.pth (torch, 507777 bytes, 11 tensors)

fc1.weight f4 [400, 7]
000000 b3 c3 c3 3b 80 24 80 bb 4d f1 c6 3c 73 25 07 bc
       0.005974257 -0.003910601 0.024284983 -0.008248675
000010 93 00 54 bc 97 63 de bc dd 6a 36 bd ed a3 0e bc
       -0.01293959 -0.027147098 -0.044535507 -0.008706075
000020 ab 62 21 bd ad ec 7b 3c 5a 7f fb bb 0f 5d 0c 3d
       -0.039400738 0.015376252 -0.0076750936 0.034268435
000030 e0 11 e7 bc 13 71 cb bc 8b 34 1f bd 77 1b 18 bd
       -0.028206766 -0.024834191 -0.03886847 -0.037135568
000040 e7 b8 54 3c cd c7 39 3d 1d ef ba 3c ea cb f6 3c
       0.012983537 0.04535656 0.022819096 0.03012653
000050 13 5c 62 3c e0 b5 6f bc dd 98 ff bc 2a cf 81 3c
       0.0138158975 -0.014630765 -0.03120082 0.015845854
000060 a3 f3 de bc 37 66 f7 3c 5f 6d 03 3d 45 b1 0a 3d
       -0.027215784 0.030200107 0.032086726 0.033860464
000070 3a b7 0e 3c 67 52 ca 3b 93 5a 8f bc 4d b5 0d bb
       0.008710677 0.006174374 -0.017499244 -0.0021622956
000080 2b 51 44 3d fd 55 c5 3c aa 42 f4 bc 33 fd 2b 3b
       0.04792897 0.024088854 -0.029816944 0.0026243448
000090 7a 76 10 bd 3a ac 94 bc 8d 44 9c 3c 9a d0 70 bb
       -0.035269238 -0.01814853 0.019075656 -0.003674543
0000a0 dd d5 11 bd e7 9a ed 3b cd 3d d2 3b ba 08 e1 3c
       -0.035604347 0.007251132 0.0064160586 0.027469981
0000b0 67 0a ec 3b 7a 0f 4a bc cd 35 32 3b 4d 37 03 bc
       0.0072033885 -0.012332791 0.0027192712 -0.00800879
0000c0 ea bd ab bc f3 97 16 3c 3d 01 0b 3d 1a 3d 54 bc
       -0.020964582 0.009191501 0.033936728 -0.012954021
0000d0 53 53 b4 3c fb 0e 02 bd 97 53 23 3d 3d 0a 2c 3d
       0.022012388 -0.031752568 0.03987464 0.04200195
0000e0 a3 95 d9 bc d2 bd 2d 3d 80 78 81 bc c5 1c 1a bd
       -0.02656061 0.042417355 -0.01580453 -0.037625093
0000f0 6d d0 25 3d cd 33 8d 3c 7b 9b 21 bd e7 68 0d 3c
       0.040481973 0.017236615 -0.03945492 0.008630968
000100 8d ec a5 bc 57 ae b7 3c bb 5f 07 3d a7 93 3d bc
       -0.020254398 0.022421999 0.03305028 -0.011570848
000110 9a 9d b8 3c bb 24 3b 3d b2 0e 0a bd e0 57 0c 3c
       0.022536088 0.045689326 -0.03370542 0.008565873
000120 90 48 41 3d 5a f1 0c 3c 8d 93 a0 3b 80 97 2d 3d
       0.04718834 0.008602465 0.004900402 0.04238081
000130 33 67 34 ba 53 bf ea 3c ba 7d 14 3d c0 1f 4e bc
       -0.0006881833 0.028655684 0.036252715 -0.012580812
000140 4f c6 36 3d 00 30 3f 39 a7 04 e5 3c c0 05 0d 3c
       0.044622716 0.00018233061 0.02795632 0.008607328
000150 53 b9 60 3c ff 76 31 bd 53 e2 a8 bc cd 84 30 bc
       0.01371606 -0.043326374 -0.020615732 -0.01077385
000160 9a 0a 29 bd 28 34 2a 3d 80 91 dc 3b 2d 6a c2 3c
       -0.041269876 0.041553646 0.006731212 0.02373227
000170 7a f9 35 3d 7a 87 b5 3c 23 11 e1 bc ad c0 79 3c
       0.044427373 0.022159327 -0.027473992 0.015243691
000180 4b fa 49 3d 47 53 15 3d 4d 19 7f 3b 6d ed 97 bc
       0.049310964 0.036456373 0.0038924993 -0.01854583
000190 0d ed cb bc 4d 20 ab 3c ad c5 52 bc 27 b2 f9 bb
       -0.024893308 0.020889426 -0.012864512 -0.0076201144
0001a0 cd 77 02 3d 67 3e f9 bb 33 7b 47 bd b0 6f 09 3d
       0.031852532 -0.007606316 -0.048701476 0.03355378
0001b0 2b 5d 3a 3d 4d 60 53 bb cd 7c cb 3c 67 63 b5 3c
       0.04549901 -0.0032253445 0.024839783 0.022142125
0001c0 0d 6f 09 3c e8 38 2d bd f3 f9 07 3c 13 3d ec 3c
       0.008388293 -0.0422906 0.008299339 0.028837716
0001d0 ba f0 bd 3c 23 a6 84 3c 1a cc 87 3b ad 70 10 bc
       0.023186076 0.016192501 0.004144204 -0.0088159265
0001e0 e3 72 e5 3c e2 3a 1f 3d d0 38 a5 3c 48 94 47 bd
       0.028008884 0.038874514 0.020168692 -0.048725396
0001f0 9a e7 f3 ba 87 98 f7 bc 57 94 98 3c c2 34 07 bd
       -0.0018608451 -0.030224098 0.018625421 -0.0330093
000200 37 75 3e bd 97 3f e5 3c ed 22 54 3c 20 80 47 3c
       -0.046498504 0.027984424 0.01294778 0.0121765435
000210 2a 0a fc bc 9a 47 04 bc 83 a2 80 bc e0 7b 66 bc
       -0.030766565 -0.008073712 -0.015702492 -0.01406762
000220 a3 eb f0 bc fd 0b 2e bd 20 9b 96 3c 80 9b 26 bc
       -0.029409235 -0.0424919 0.018384516 -0.01016891
000230 bd 51 ee bc 62 ff 31 bd 60 17 1a bc 1a ad 46 3c
       -0.02909171 -0.043456443 -0.009404987 0.012126232
000240 42 8f 42 3d 1a c3 12 bd 67 a6 16 38 50 6e 8b 3c
       0.047499903 -0.035830595 3.591776e-05 0.017020375
000250 da 28 85 bc 70 34 ed 3c cf 6e 28 bd 27 15 ff bc
       -0.016254831 0.028955668 -0.0411213 -0.031138016
000260 73 f1 82 bc 37 ab 13 bd 33 a9 71 bb 1d 97 16 bd
       -0.015984273 -0.036051955 -0.0036874532 -0.036765207
000270 0d af 4f 3c d7 49 0f 3d da e1 32 bd e0 b4 78 bc
       0.012676013 0.03498253 -0.04367242 -0.015179843
000280 b0 4c f4 bc f3 c2 29 3d e0 eb 14 bc d3 43 aa bc
       -0.029821724 0.041445684 -0.00908944 -0.020784294
000290 d7 96 bd 3c 93 81 8c 3c 00 b8 47 3a 4d 14 aa bb
       0.023143215 0.01715163 0.00076186657 -0.0051904083
0002a0 4f 34 0d bd 37 a6 1d 3d fd 3a 15 3d 00 bb c5 3b
       -0.034473713 0.038488593 0.03643321 0.006034255
0002b0 33 04 2e bb 80 fd 16 3c da 36 d7 bb 27 e0 41 bd
       -0.0026552796 0.009215713 -0.006567818 -0.04733291
0002c0 c7 82 33 bd 9a 39 31 bb 67 e0 bc 3b 3a 1e 5a bc
       -0.04382589 -0.002704239 0.0057640555 -0.013312871
0002d0 87 50 a4 3c 87 e8 33 bc 2b 6a 13 3d cd ff 57 bb
       0.02005793 -0.010980732 0.03598992 -0.0032958866
0002e0 67 00 65 3c e7 86 bc 3c 82 1a 42 3d 4d 66 d7 bb
       0.013977147 0.023013545 0.04738856 -0.0065734745
0002f0 0a ae a8 bc a7 63 c8 3b 03 29 2a bd 9a e0 2b 3d
       -0.0205908 0.006115395 -0.041543018 0.041962244
000300 fb d0 07 bd e5 ac 02 bd 63 b0 ca bc 9a 46 66 bb
       -0.033158284 -0.031903166 -0.02474231 -0.0035137297
000310 8d be 68 3c e0 17 27 3d d7 07 86 bc ed 64 46 3c
       0.014205587 0.040794253 -0.01636116 0.0121090235
000320 4b 6a 4b 3d 58 e0 02 3d 90 e5 d2 3c 80 47 17 bc
       0.049661916 0.031952232 0.02574423 -0.0092333555
000330 23 87 f5 3c 93 03 ab 3c 65 a9 40 bd 9a bf bd 3a
       0.029971665 0.020875728 -0.047036547 0.0014476657
000340 d2 89 17 bd 9a 2f 02 bc 37 b4 97 3c a7 75 a1 bb
       -0.03699667 -0.007945919 0.01851855 -0.0049273553
000350 3b 1a 23 bd 07 9a 1f bc 6a a8 b3 3c ed 5d 3b 3d
       -0.039819937 -0.009741313 0.021930892 0.04574387
000360 33 43 ff 3b f3 e7 3a bc a0 38 4a bc dd 09 dd bc
       0.007789993 -0.01140784 -0.012342602 -0.026982242
000370 9f 80 24 3d c8 a6 3e bd a5 49 2e bd a7 a3 f2 bb
       0.040161725 -0.046545774 -0.0425507 -0.007404763
000380 c7 9c 19 bd c0 ec 9b bc 5b a0 35 3d ea 23 ab bc
       -0.03750303 -0.01903379 0.04434238 -0.020891149
000390 88 5f 27 3d e7 a8 2e bb 4d d4 3b 3c d5 59 04 bd
       0.04086259 -0.0026650967 0.011464191 -0.032312233
0003a0 9a d2 c6 ba 33 7b ad 3b 40 f3 a4 3c c2 64 49 bd
       -0.0015168965 0.0052942275 0.020135522 -0.049168356
0003b0 f5 b8 2f bd 6d 02 3e bd b3 2d 3f 3d 43 37 14 bd
       -0.042901 -0.046389032 0.04667444 -0.036185514
0003c0 c0 74 38 3d fa 6d 15 bd 6d 89 15 3c fa ba 07 3c
       0.045033216 -0.036481835 0.009127003 0.008284325
0003d0 3f e1 26 bd 53 49 13 bd 0a c8 0f 3d b3 c5 7c bb
       -0.040742155 -0.0359586 0.03510288 -0.0038569986
0003e0 b3 7b fd bc cd 63 42 3d 67 1d 1b 3c f3 c7 63 3c
       -0.030942773 0.04745846 0.009467459 0.013902652
0003f0 77 a4 1d 3d d7 33 aa 3c 02 8c 24 3d 2a db 4b bd
       0.038486924 0.020776672 0.040172584 -0.049769558

fc1.bias f4 [400]
000000 d7 7b d9 bc b3 99 62 bc 0a f0 3a bd ed 8e 7d bc
       -0.02654831 -0.01383059 -0.045639075 -0.015475971
000010 b0 0f 29 3d 0a 69 03 3d 1a a3 0e 3c fa 7a 22 bd
       0.041274726 0.032082595 0.008705879 -0.03966806
000020 4a 24 2b bd f8 17 21 bd 33 91 63 3a 0a 99 11 3d
       -0.041782655 -0.0393295 0.0008680999 0.03554634
000030 b3 22 08 3b 1a 97 b1 bc 70 a9 96 3c 20 13 67 bc
       0.0020772635 -0.021678496 0.018391341 -0.014103681
000040 ea 1b f0 3c 9d 01 e5 bc 2f 71 1f bd 00 3f 2d 3c
       0.029310185 -0.02795487 -0.0389263 0.010574102
000050 32 43 4a bd e3 bd 38 bd 63 af 45 bd 4d 65 29 3d
       -0.04938049 -0.045102965 -0.048262965 0.041356374
000060 07 36 39 3c d7 c2 31 3d 50 bc 17 bd 60 0b 36 bc
       0.011304385 0.043398704 -0.037044823 -0.01111111
000070 e7 29 62 3b 93 d6 a9 bc 00 ce b7 3b 73 fc 25 3c
       0.003450984 -0.0207322 0.005609274 0.010130989
000080 a7 82 d0 3c a0 a8 19 3c 0d a9 89 bc e7 79 aa bb
       0.025452925 0.009378582 -0.016804243 -0.00520252
000090 f3 60 aa 3b 9d 39 83 bc e2 fe 23 3d 0f d5 1f 3d
       0.0051995455 -0.016018683 0.040037997 0.039021548
0000a0 75 7d 0e 3d 1a 99 49 3d cd b3 ac 3c b3 24 e9 3b
       0.034787614 0.049218275 0.02108183 0.0071149706
0000b0 da 15 d2 bc 00 fa 76 3a 9a 9c 46 3d fa 5d cc bc
       -0.025645185 0.0009421408 0.04848919 -0.024947155
0000c0 fa 1b f1 3c 6a 13 e9 bc ca c8 20 bd 7a 13 b7 3c
       0.029432286 -0.02845164 -0.039253987 0.022348154
0000d0 da af 51 3c 33 97 4b ba 9a 59 0e b9 2a 73 c4 3c
       0.012798274 -0.0007766366 -0.00013575554 0.023980696
0000e0 93 53 3f 3d 7d f5 14 3d f2 f9 46 3d 8f 27 00 3d
       0.046710562 0.03636693 0.04857821 0.031287726
0000f0 82 38 21 3d 27 1f d1 bc ab 4c 2f 3d 00 27 33 3d
       0.03936053 -0.02552755 0.042797726 0.043738365
000100 00 34 87 bb 1a 7b 5e bb 32 a8 15 bd 40 82 d9 bc
       -0.004126072 -0.0033947886 -0.036537357 -0.026551366
000110 97 2a 8c 3c d2 79 31 3d 20 1b e1 3c 23 e1 03 3d
       0.017110152 0.043329068 0.027478755 0.03219713
000120 97 81 32 bd 6a fe 84 bc 13 7e c2 bc dd 62 b7 bc
       -0.043580618 -0.016234595 -0.023741757 -0.022386009
000130 7a d8 e2 3c 83 de f5 bc 9a 28 ed 3c 72 4c 2f 3d
       0.027691115 -0.030013328 0.028950024 0.042797513
000140 ad bc 46 bc ea 7f ac bc 6d 56 70 bc da b2 03 bd
       -0.012129945 -0.021057088 -0.014669043 -0.032152988
000150 1d c8 b7 3c 07 a2 05 3d c7 0a 02 bc a7 2f fe 3c
       0.022434289 0.032625224 -0.00793714 0.031028582
000160 2d 6c 90 3c cd 0e d3 bb 67 d8 1b 3c 48 36 17 3d
       0.017629707 -0.0064409734 0.009512044 0.036917
000170 00 02 53 bb 67 6f 40 bb ca 76 e2 3c 35 cc 29 bd
       -0.0032197237 -0.0029363276 0.027644534 -0.041454513
000180 f7 f2 49 3d 4d 43 b7 3b 13 fa a7 3c 8a cf 09 3d
       0.049303975 0.0055927397 0.020504987 0.03364519
000190 23 9e ad 3c 8a b1 f9 bc 1a 73 fa bb e7 be 08 3d
       0.02119357 -0.030480165 -0.0076431157 0.033385184
0001a0 85 2f 0e bd ba ba 6c 3c fd 1d 4b 3d b7 a1 a4 3c
       -0.034713287 0.014448816 0.049589146 0.020096643
0001b0 e0 16 60 3c c3 8c c2 bc 80 d3 bb 3b a7 90 0c 3c
       0.013677329 -0.023748761 0.005732 0.00857941
0001c0 d7 8a 91 3c 33 e1 cd bc ab 4e 01 bd 58 84 45 3d
       0.0177664 -0.025131797 -0.031569164 0.048221916
0001d0 ff d6 02 3d 80 58 ec bc f7 d3 12 bd 37 6b d6 3c
       0.031943318 -0.028850794 -0.035846677 0.02617417
0001e0 5a 82 89 bb 8d fd e6 bb 5f f4 07 3d a0 0c a7 bc
       -0.0041964473 -0.0070492686 0.033192035 -0.020391762
0001f0 4d 4e 2f bd 50 20 d5 bc df a1 41 bd 7a 23 d2 bc
       -0.042799283 -0.026016384 -0.047273513 -0.025651682
000200 dd a0 05 bd 00 49 b1 bc e7 d9 ae 3c 70 a1 95 bc
       -0.032624114 -0.021641254 0.021344138 -0.018265456
000210 67 c3 f2 3c 93 9d 7f 3c c0 f8 35 3c 93 3c 48 bc
       0.02963419 0.015601533 0.01110667 -0.012221473
000220 a0 e5 bf 3c a2 56 2f 3d e3 02 bf 3c 53 93 1c 3d
       0.023424923 0.04280723 0.023316806 0.038226437
000230 b0 f4 d9 3c e7 c4 64 bb d7 cd e7 bc 3a 03 28 bc
       0.026605934 -0.0034907402 -0.028296394 -0.0102546755
000240 c3 df 2f 3d 80 c5 8e 3c ed 9e 54 bc ba 1e 0a 3d
       0.042938005 0.01742816 -0.012977344 0.03372071
000250 27 73 8b 3b d3 f8 7f bc 37 98 19 3d 0d 09 2d 3c
       0.0042556706 -0.015623289 0.03749868 0.01056124
000260 67 3e eb ba 4a 55 ba 3c 53 2f 0d 3c 13 51 5a bc
       -0.0017947674 0.022745747 0.00861724 -0.013324994
000270 b7 f8 83 bc ca 17 8b 3c e8 70 2a 3d bd 94 94 bc
       -0.016109807 0.016979117 0.041611582 -0.01813733
000280 a3 dd f9 3c 9d 95 d6 3c 3d 11 8c bc e8 c3 3b bd
       0.030501192 0.026194388 -0.017098064 -0.045841128
000290 87 aa d4 bc c0 43 43 bc a7 49 2e bc 40 14 8a 3c
       -0.02596022 -0.011918008 -0.010637677 0.01685536
0002a0 2a 0c f8 bc 73 3d c7 bb 4d 65 ae 3b 4d 96 2f 3d
       -0.030279238 -0.0060803234 0.0053221346 0.042867947
0002b0 1d 84 33 3d 9a e5 16 ba 9a 0b 1e 3c 28 1f 27 bd
       0.043827165 -0.0005756259 0.009646321 -0.040801197
0002c0 4f e8 1b 3d 8d d0 33 bc c0 bc 2b bd 47 3c 36 3c
       0.038063344 -0.010975015 -0.041928053 0.01112277
0002d0 ed 9c 3a bd 05 c1 3f 3d 90 4d 36 bd 00 b3 35 3c
       -0.045559812 0.046814937 -0.044507563 0.01109004
0002e0 97 c0 3f bd 23 42 1a 3d 57 c4 a8 3c c7 30 31 3c
       -0.046814527 0.03766073 0.020601435 0.010814852
0002f0 a2 e1 0a bd 97 52 03 3d 02 9a 3e 3d a3 ea c0 bc
       -0.033906586 0.032061186 0.046533592 -0.023549384
000300 47 c3 59 bc 40 84 ef bb b3 d7 0a bd e0 4f cd 3c
       -0.013291187 -0.0073094666 -0.033897113 0.025062501
000310 08 26 12 3d b3 64 5b bc 9a 4f 3d bb 1a 93 e4 3c
       0.0356808 -0.013390708 -0.0028886558 0.027902175
000320 47 34 3a bc 2d af c4 3c 0d a9 15 3c 2a d1 e6 3c
       -0.011365003 0.024009312 0.009134543 0.02817591
000330 b7 10 92 3c 5d 22 93 3c 1d 8b 42 bd 8f cd 40 3d
       0.017830236 0.017960722 -0.04749595 0.047071036
000340 ed 37 1f 3d ea 19 ce bc 15 85 36 3d f3 cc 87 bb
       0.038871694 -0.025158841 0.04456051 -0.004144305
000350 da f5 3e bd 00 dc 48 bc 73 40 3c bd 95 87 0e bd
       -0.04662118 -0.012259483 -0.0459599 -0.03479727
000360 b3 92 03 3d 00 ad b5 bc af c6 2e 3d 1d e7 2e 3d
       0.032122325 -0.02217722 0.04266995 0.042700876
000370 77 d8 94 bc 70 da 37 3d a8 a4 19 bd 13 d3 13 bd
       -0.018169625 0.044886053 -0.037510544 -0.036089968
000380 33 12 33 bb 73 69 38 3d a2 4e 12 3d d3 6b 5b bc
       -0.002732408 0.04502244 0.03571952 -0.0133924065
000390 f7 4f ab bc d8 65 2d bd 20 8d b6 3c 13 64 14 3d
       -0.020912154 -0.042333454 0.02228409 0.03622825
0003a0 f3 67 d1 bc 67 a9 cd ba 9a f4 0d bd 67 fd f2 bb
       -0.025562262 -0.0015690745 -0.0346571 -0.007415462
0003b0 b0 17 91 bc 27 a4 98 3c 23 b4 eb 3c e7 95 31 bc
       -0.01771149 0.018632961 0.02877242 -0.010838962
0003c0 ad 19 45 3c b7 6e 93 bc d3 c2 9e 3c e3 66 95 bc
       0.012030047 -0.017997129 0.019380009 -0.018237537
0003d0 5a 16 4a bd e5 f5 38 bd b5 00 47 bd 87 2f bf bc
       -0.049337722 -0.04515638 -0.04858466 -0.023338092
0003e0 33 93 d2 b9 07 ba 7c 3c ed 1c 38 3d f5 dc 2c bd
       -0.00040163993 0.015425212 0.04494946 -0.04220291
0003f0 6a 32 eb 3c ed 20 2f 3c 80 62 e1 bc 45 da 10 bd
       0.028710563 0.010689002 -0.027512789 -0.035364408

fc2.weight f4 [300, 400]
000000 8b bf 3e 3d ec 26 4f bd 08 3f e0 3c cf 0f f8 bc
       0.04656939 -0.05057423 0.027373806 -0.030280976
000010 82 6e 3d bd 5f b0 ad bc 6b 10 56 3d c7 8c 5e bc
       -0.046247967 -0.021202264 0.05226175 -0.013583369
000020 83 ce 0c 3d 3f f9 a8 3c 44 cc 3e bd 2d 4c 17 bd
       0.034376632 0.020626662 -0.04658152 -0.03693788
000030 e6 0b 77 bc 5c 6c e4 bc 71 78 0a 3d 47 83 4c 3c
       -0.01507852 -0.027883701 0.033806268 0.012482471
000040 46 a6 5c bd e5 2b 95 bc 8b 4e 40 3b d1 a1 b9 bb
       -0.05386951 -0.018209407 0.002934369 -0.005665042
000050 b0 2e 3d 3d 15 8a 08 bc 65 8d 5d bd d5 ec 5a bc
       0.046187103 -0.008333703 -0.054089922 -0.013362129
000060 11 30 5a 3c 05 c6 3c 3d 4d 6d ca 3c 2d dc 28 bb
       0.013317124 0.046087284 0.024710322 -0.0025766
000070 d0 d4 3a 3d 17 1d 4a 3b 30 9d 5c 3d 73 a7 4b bc
       0.04561311 0.0030840093 0.053860843 -0.01243006
000080 8d eb 72 ba a1 0e ac 3c 60 c5 29 bd 32 8d a8 3b
       -0.0009266667 0.02100307 -0.041447997 0.005143785
000090 e2 55 f8 bc d5 70 37 bd d1 00 44 bd 4d a8 0b 3d
       -0.03031439 -0.04478534 -0.04785234 0.03409605
0000a0 f8 81 61 3d ed 67 3d 3c 23 c7 b1 ba 0f b6 4a bd
       0.05505559 0.011560422 -0.0013563376 -0.04949003
0000b0 4a e1 c0 bc e1 95 7a bc 11 9a 18 3d da 42 a1 3a
       -0.023544926 -0.015294523 0.037256304 0.0012303249
0000c0 1e c2 d7 bb 82 93 08 bd 1d 41 4b 3a f8 b5 41 3c
       -0.00658442 -0.0333438 0.0007753538 0.01182317
0000d0 03 75 ce 3c 33 b5 52 3c 4e fe 92 b8 0d a0 1f bd
       0.02520228 0.012860584 -7.0091904e-05 -0.038970996
0000e0 b4 72 07 bc a5 96 38 bd 3b 08 cb bc 50 39 ce bb
       -0.008267093 -0.04506554 -0.024784198 -0.0062934533
0000f0 00 82 10 bd 49 83 a1 3b d4 86 4c 3c 42 e2 84 bc
       -0.035280228 0.0049289805 0.012483317 -0.01622117
000100 9e f2 39 3c 32 90 d1 3b 5b 61 0e 3d d6 c3 36 3d
       0.011349348 0.0063953632 0.034760814 0.044620357
000110 92 1f d5 3c e2 78 82 3c dc bd 48 bc b3 21 ce bc
       0.02601603 0.015926782 -0.012252297 -0.025162553
000120 fe 55 42 bd 97 f5 36 3d 51 37 3b 3c 48 a6 07 bd
       -0.04744529 0.044667806 0.011426763 -0.033117563
000130 a4 6e 98 bb 1c 31 8f 3c 48 c2 3c 3d fa d3 1f bd
       -0.0046518613 0.017479472 0.04608372 -0.039020516
000140 96 42 d5 3b 53 d3 5e 3d b5 22 44 3d 62 d7 bc bb
       0.006508182 0.054400753 0.04788466 -0.0057629803
000150 4a 4f 21 bd 44 46 ee bc 2a c1 28 bd 76 9e ed bc
       -0.039382257 -0.02908624 -0.04119984 -0.029006224
000160 e7 e6 4b 3c ae 94 61 bd 60 6b cc 3c 38 de 52 3c
       0.012445188 -0.055073433 0.024953544 0.012870364
000170 32 96 b4 3c fd af 46 3d 1d 32 c3 3c d8 18 c1 bb
       0.022044275 0.04850768 0.023827607 -0.005892854
000180 88 3a 5a 3d fc bb 59 bd c6 94 26 3d aa c1 57 bd
       0.053278476 -0.05315779 0.040669225 -0.052674927
000190 67 65 c0 bc 1b ac 44 bd cb 01 28 bd 88 d6 01 bd
       -0.023485852 -0.048015695 -0.041017335 -0.031698734
0001a0 d2 74 e8 3c f9 fc 39 3d 2a 48 3f bc 15 16 69 bd
       0.028376017 0.04540727 -0.01167492 -0.056905825
0001b0 33 5f b5 3c 68 52 5a 3d 53 5e 2a 3d 26 e7 59 3d
       0.022140121 0.053301245 0.04159386 0.053198956
0001c0 8a 51 10 bd 35 d5 7c 3c 28 10 2a 3d 6a 19 e2 bc
       -0.03523401 0.015431692 0.041519314 -0.027600009
0001d0 d6 cc 8e bc d5 a0 57 bc 5d 77 83 3c ef 30 b2 bc
       -0.017431658 -0.013160904 0.016048128 -0.021751849
0001e0 44 56 b0 3c f3 cf 90 bb 3a 27 fb 3c 69 70 9b 3c
       0.02152551 -0.0044193207 0.030658353 0.0189745
0001f0 67 89 42 3d ea 0c 5a 3d 74 50 d2 b9 fc 18 2e bd
       0.04749432 0.053234972 -0.00040114264 -0.042504296
000200 c6 a6 3c 3d c8 4f 41 3c 7a 4b 69 3c d9 98 cf bc
       0.046057485 0.0117988065 0.014239186 -0.025341438
000210 03 26 42 3d ab bb 22 3d da 65 22 bd 9f a7 22 bd
       0.047399532 0.039729755 -0.039647914 -0.039710637
000220 46 84 5a bd 4f af 7b bc 90 a8 ca 3c 06 0d 50 bd
       -0.053348802 -0.015361621 0.02473858 -0.05079367
000230 1f a3 e8 3c 5e ed 99 bc fd ab 51 3d a3 15 09 3d
       0.028398095 -0.018789943 0.05118941 0.0334679
000240 bf 3f 2f 3d 03 32 ff 3b 1f 8f 46 3d 98 a5 3a 3d
       0.042785402 0.0077879443 0.048476335 0.04556808
000250 39 3f 29 3c 33 e9 15 bd 6a 5c 12 3b a7 06 2f bd
       0.010330015 -0.03659935 0.0022332915 -0.042730954
000260 0b 29 d9 3c 70 51 49 3d f5 c1 62 3d d4 1b c8 3b
       0.026508829 0.04914993 0.055360753 0.006106833
000270 8c a1 a3 3c b1 fa 9d bb 7a c1 68 3d ea a8 44 bd
       0.019974492 -0.0048211445 0.05682514 -0.04801265
000280 35 d7 ef bc 5f 97 73 3a 77 5d 98 3c 46 f7 71 bc
       -0.029277423 0.00092922704 0.018599255 -0.014768427
000290 48 34 30 bd d2 ec b1 bc bf 16 54 bd 01 ad a9 3b
       -0.04301861 -0.02171937 -0.051779505 0.0051780944
0002a0 6f 67 f9 3c 83 60 42 3d 50 0f 22 bd 6b a6 5a 3d
       0.030444829 0.047455322 -0.039565384 0.053381365
0002b0 14 44 62 3c d4 ac 7a bb 29 25 6a 3d 04 da 89 3c
       0.013810176 -0.0038249986 0.057164345 0.01682759
0002c0 81 f5 3e bd e1 b6 35 bd a7 09 c4 bc ea d7 51 bd
       -0.04662085 -0.04436386 -0.023930384 -0.051231302
0002d0 ae 5a a7 3b 62 20 54 bc c4 b9 33 bc 93 6d 15 3d
       0.0051072454 -0.012947174 -0.010969583 0.03648145
0002e0 26 14 1b 3d bb 20 0e bb 27 62 01 bc fe a6 84 bb
       0.037861012 -0.002168699 -0.0078969365 -0.0040482273
0002f0 72 11 c4 36 a0 e6 cb bc e4 da a8 bc a5 b9 82 bb
       5.843286e-06 -0.024890244 -0.020612188 -0.0039894157
000300 d9 58 40 bc b1 de 98 bc b3 61 50 3d 5c f7 ba 3c
       -0.011739933 -0.018660875 0.050874423 0.022823028
000310 eb 1e a9 bb b6 1a b0 bc 5f 47 0b bd 8b 75 01 3d
       -0.0051611564 -0.021497112 -0.03400361 0.03160624
000320 70 be 4a 3d 93 bf ce 3c 79 56 01 3d 18 b7 2b 3d
       0.04949802 0.025237834 0.031576607 0.04192266
000330 ab ca f8 3c d5 6d bc 3c f6 ef 9a ba 4b 6d 0e 3d
       0.030370077 0.02300159 -0.0011820782 0.0347722
000340 90 c2 3f 3c 02 7d e1 3c 7d 45 2d 3d 57 03 e4 bc
       0.011704102 0.027525429 0.042302597 -0.027833624
000350 39 8e 3d bd 18 55 1d bd 06 9b da 3a cb 87 40 3d
       -0.046278212 -0.03841123 0.0016678281 0.047004502
000360 78 de 68 3d 35 df 8f bc b0 6b 39 3c 8b 48 25 3d
       0.056852788 -0.017562488 0.011317179 0.040352385
000370 a3 1d 23 3d e5 33 85 bc 41 d6 4f 3d 60 1d e0 bc
       0.039823186 -0.016260097 0.050741438 -0.027357757
000380 d7 23 15 bd 43 d0 4b 3d 7a de 53 bb 9f 70 98 3c
       -0.036411133 0.04975916 -0.0032328651 0.01860839
000390 d3 b0 c4 3c 51 01 37 bb 63 7b 10 3d d5 57 fe 3c
       0.024010098 -0.0027924369 0.03527392 0.031047741
0003a0 c1 af 9c 3b 47 f2 27 3d 86 75 6b bd dd 36 b3 bc
       0.0047816937 0.041002538 -0.057485126 -0.021876747
0003b0 f7 4b 7e bc 9c aa f8 3c fa 3d be 3c 4f 72 22 ba
       -0.015521041 0.03035479 0.023222912 -0.0006196843
0003c0 ca cf 13 3d 93 85 28 bb ab 19 20 bd 4a d1 6b bd
       0.036086835 -0.0025714382 -0.03908698 -0.05757264
0003d0 b3 96 1e 3d 11 24 66 3d 32 d5 93 bb 35 bd 62 3d
       0.038717937 0.05618674 -0.004511499 0.055356223
0003e0 62 f9 f5 bc 8c 59 5b ba 03 e8 50 bc b7 f7 01 bc
       -0.030026142 -0.00083675305 -0.012750628 -0.007932595
0003f0 08 27 49 3d ef d7 32 3c 19 02 57 bd ac c3 98 3c
       0.04910949 0.01091574 -0.052492235 0.018647991

fc2.bias f4 [300]
000000 c5 a1 38 bd 5e d8 14 3d d0 f3 82 3c 2e c2 01 bd
       -0.04507615 0.036339156 0.0159854 -0.031679325
000010 b6 d0 52 bd 4b 04 27 3d 9c 67 a8 bc d5 c1 fe 3c
       -0.051468574 0.04077558 -0.020557217 0.031098286
000020 84 ce b4 bb c4 d0 67 bc f3 c5 12 bd 2d d8 42 bb
       -0.0055177826 -0.014148895 -0.03583331 -0.0029730902
000030 d5 fb ca 3a a8 6d ae 3c 1b a6 33 bb 7c eb 2d bd
       0.0015486429 0.021292523 -0.002741224 -0.042460904
000040 d0 d2 06 3d 35 cc cd 3c 14 8d 01 3c e5 04 6a 3d
       0.03291589 0.025121788 0.007907171 0.057133574
000050 e4 3b fd bb 6e ed fb bb 7d ce f0 bc a8 36 f1 3c
       -0.007728087 -0.007688216 -0.029395336 0.029445007
000060 da 77 a2 3b 4b 5e 0f bd 10 96 2e 3d 48 e8 0f 3d
       0.004958135 -0.035002034 0.04262358 0.03513363
000070 e8 40 e1 bc f8 d8 6f 3a d1 8b 08 bd c1 56 e8 3c
       -0.02749677 0.00091494573 -0.033336464 0.02836168
000080 44 2b 15 bd 5c e0 47 3b 43 13 16 3d 82 dd d4 3c
       -0.036418214 0.003049872 0.036639463 0.02598453
000090 f6 e3 2c bd cd bc a7 bc 82 14 b0 3b 45 5e 8f 3b
       -0.042209588 -0.02047577 0.0053735385 0.0043752515
0000a0 eb 2f 9b bc b1 63 3a bc 4d 0d 36 3d ea b4 49 bd
       -0.018943748 -0.011376307 0.04444628 -0.0492448
0000b0 ba d4 ee bc 8a 8d 9f 3c bd ff 60 3d 38 26 63 bd
       -0.02915417 0.01947667 0.05493139 -0.05545637
0000c0 df 01 0d 3d b4 0a 4f bd b6 43 1f 3d 90 7e 59 bd
       0.034425613 -0.050547317 0.038882934 -0.053099215
0000d0 7b 72 6b 3d 0e 95 4e 3b 4f b9 67 bd 5b a9 df bc
       0.057482224 0.003152195 -0.05657321 -0.027302435
0000e0 e4 54 41 bd 30 b6 1c bd 32 fa f9 bb f5 3f 49 3d
       -0.0472001 -0.038259685 -0.0076287026 0.04913326
0000f0 5b 63 de 3b e0 98 98 3c c6 75 c9 3c e9 2a 22 3d
       0.0067867464 0.018627584 0.024592292 0.039591704
000100 c3 34 5e 3d c1 70 e1 bc 50 f2 27 bd bf 0e a1 bc
       0.054249536 -0.027519586 -0.04100257 -0.019660352
000110 27 df 4a bd cb e9 44 bd af ad 5f 3c 43 bf 20 3d
       -0.04952922 -0.048074525 0.013652249 0.0392449
000120 68 64 16 3d fe 44 00 3d cf 6e 3d bd 10 fc 99 bc
       0.03671685 0.031315796 -0.046248253 -0.01879695
000130 f1 f2 6a 3d 4d 32 34 bd 8b 61 2f 3d a4 c4 44 3d
       0.057360593 -0.043993283 0.042817634 0.048039094
000140 ba fa f0 bc db e2 82 3c b6 47 50 bd 01 52 27 bd
       -0.02941643 0.015977314 -0.05084964 -0.04084969
000150 61 ce 4f 3d e3 ea 36 3c 36 5a 52 bd 54 cc 43 3d
       0.050733928 0.0111644 -0.051355563 0.047802284
000160 70 d1 28 bc 5d ef ba bc c1 c9 04 bd cf 5d df bc
       -0.01030384 -0.022819215 -0.03241897 -0.027266411
000170 ad b9 06 3d 5c bb a6 bc 1b a7 c0 3a f2 3c 1e 3d
       0.032891918 -0.020353012 0.0014698239 0.03863234
000180 57 e5 a9 bc f6 31 b1 3c 51 21 da 3a a2 fd 53 bd
       -0.02073924 0.021630269 0.0016642009 -0.051755555
000190 54 5d 40 3d fe 67 57 3b 55 7d d0 bc 81 43 17 3d
       0.046964005 0.003286838 -0.025450388 0.03692961
0001a0 a2 1c c4 3c 87 87 24 3d 14 a9 81 bc 35 d4 8b bc
       0.023939434 0.04016831 -0.015827693 -0.017068962
0001b0 7f 53 d8 bb 6b 19 fe bb 34 ba 76 bc eb 9e bc 3c
       -0.0066017504 -0.007754495 -0.015059043 0.023024997
0001c0 e0 14 69 bd b4 ed 89 bc 76 21 0f bd 0e 47 55 bd
       -0.056904674 -0.016836978 -0.03494402 -0.052069716
0001d0 16 ee 24 3c b2 78 82 3c f0 ed a0 bc 79 65 24 bd
       0.01006653 0.015926693 -0.019644707 -0.040135834
0001e0 51 7f ff bb 62 3c 8e 3b 5b e5 3f bd 99 32 24 3d
       -0.0077971597 0.0043406943 -0.04684959 0.040087316
0001f0 a3 1e 3b 3c 17 65 ec bc 5f 48 02 3a 04 4b 8b bc
       0.011420879 -0.028856797 0.00049698906 -0.017003544
000200 36 54 32 3d ff 72 95 bc 45 6d 02 bd cf 97 04 3b
       0.04353734 -0.018243311 -0.03184249 0.0020232087
000210 7d 25 03 bd bb 64 2b 3d c5 2e a8 3c 13 08 4b bd
       -0.032018173 0.04184411 0.020530114 -0.049568247
000220 a5 d8 44 bd f7 df e2 bc ea 12 9e 3c 4f 8c f5 bc
       -0.04805817 -0.027694685 0.019296128 -0.02997413
000230 ff 8d 4b bd 14 b4 64 3c 48 16 0a 3d 3f 03 09 3d
       -0.049695965 0.01395895 0.033712655 0.03345036
000240 ec c7 a4 bc e4 6b 96 3c 94 13 98 3c 55 ca 6b 3d
       -0.020114861 0.018361993 0.018564023 0.057566006
000250 b5 0c 63 3c a5 f4 98 bb 11 f4 2c bd 01 8a 1e bd
       0.01385801 -0.004667836 -0.042224947 -0.03870583
000260 ee 15 ad bc 0c fe 57 bc f8 fc cc bc 8e f2 10 bd
       -0.021128621 -0.013183128 -0.025022969 -0.03538757
000270 b7 5d 06 bd 9f 06 0d bd 31 11 2e bd 0a eb 3d 3c
       -0.032804217 -0.034430142 -0.042496864 0.011591682
000280 18 a5 24 3d 97 81 00 bc d2 0c 69 bd 43 7b ba 3c
       0.04019651 -0.007843397 -0.056896992 0.022763854
000290 8e ba 91 3c 90 e6 4d bd 4c 7d 39 3c f4 4a 45 3d
       0.017789152 -0.05026871 0.011321377 0.048167184
0002a0 51 0e 3e 3c 42 10 2c bd 8e be 6a 3d 67 98 26 bd
       0.011600093 -0.042007692 0.057310633 -0.040672686
0002b0 73 0f 94 bb 2b 66 bc bb 50 e1 24 bd 86 59 fd 3c
       -0.0045184433 -0.005749484 -0.040253937 0.030926477
0002c0 00 09 fc 3c fa 4f aa 3c eb e8 b3 3c dd c9 ed bc
       0.03076601 0.020790089 0.02196165 -0.02902692
0002d0 ce ef fe bc ad da 37 bd 66 20 1c 3c 80 b0 ad 3c
       -0.031120207 -0.04488628 0.009529209 0.021202326
0002e0 02 f1 40 3c 2c f6 df bb 1c 68 16 3d ad 5f 6c bc
       0.011776211 -0.006834766 0.03672038 -0.014427108
0002f0 85 e1 1d 3c 50 0f 82 3c 8f 5d e6 ba 38 d2 f3 3c
       0.009636288 0.015876442 -0.001757549 0.029763326
000300 4b 80 1d 3a 74 19 13 bd 2b d8 e2 bc 0b 27 2f 3d
       0.0006008192 -0.035912946 -0.027690968 0.042761844
000310 f5 49 6b bd 18 f0 64 3c 06 58 43 3d 81 14 42 3d
       -0.057443578 0.013973258 0.047691368 0.047382835
000320 27 0e ac 3c fc cd f4 3c 66 f6 1f bd b5 90 2c bd
       0.021002842 0.029883377 -0.039053343 -0.04213019
000330 e0 0b 76 bc 6a 96 0c bd 51 1d 65 bd 45 20 5d bb
       -0.01501748 -0.034323134 -0.05593616 -0.0033741158
000340 c0 25 2a bd 90 51 c9 bc ea 87 5e bd e2 83 5d bd
       -0.041539907 -0.024575025 -0.054328837 -0.05408085
000350 66 34 00 bd 12 59 f4 3c 7b 53 53 3c 0f a7 9a 3c
       -0.03129997 0.029827628 0.012898321 0.018878488
000360 65 36 9d 3a 35 cb 1f 3d b4 45 a9 bc 77 22 55 bd
       0.001199436 0.039012153 -0.02066312 -0.05203482
000370 16 36 3a 3d d1 09 4f 3d 8a c3 5e bd 07 4a f1 bc
       0.045461737 0.05054647 -0.0543857 -0.029454244
000380 2b eb 07 bc 31 d0 05 bd 7f de 24 3c 2b ee 44 bd
       -0.0082958145 -0.03266925 0.010062813 -0.048078697
000390 c0 bc 9b bc 51 cf 34 bd 5a eb 60 3d 26 62 5c 3d
       -0.019010901 -0.044143025 0.05491195 0.05380454
0003a0 16 95 66 bd 7c 50 fd 3c 86 62 02 3d b5 f3 51 3d
       -0.056294523 0.030922167 0.03183224 0.051257808
0003b0 4e 8f 54 3d 3b fa 60 bd 29 15 5e 3d e8 97 6d bc
       0.05189448 -0.05492614 0.0542194 -0.014501549
0003c0 24 54 a2 3c 54 8d 54 bd f9 97 9a bc 01 c6 29 bc
       0.019815512 -0.051892594 -0.018871294 -0.010362149
0003d0 6f 47 1a 3d f5 cb 63 bb fc 64 4d 3d 89 a1 6b 3d
       0.03766578 -0.003475902 0.050145134 0.0575271
0003e0 11 d5 e7 bb 40 a6 90 bc 29 e8 2e 3d 06 c7 f1 3c
       -0.00707496 -0.0176574 0.042701874 0.029513847
0003f0 26 4c 50 bd 67 cc bb 3c 14 24 2e 3d 5b 78 47 3d
       -0.05085387 0.022924615 0.042514876 0.048698764

bn1.weight f4 [400]
000000 00 00 80 3f 00 00 80 3f 00 00 80 3f 00 00 80 3f
       1.0 1.0 1.0 1.0
000010 00 00 80 3f 00 00 80 3f 00 00 80 3f 00 00 80 3f
       1.0 1.0 1.0 1.0
000020 00 00 80 3f 00 00 80 3f 00 00 80 3f 00 00 80 3f
       1.0 1.0 1.0 1.0
000030 00 00 80 3f 00 00 80 3f 00 00 80 3f 00 00 80 3f
       1.0 1.0 1.0 1.0
000040 00 00 80 3f 00 00 80 3f 00 00 80 3f 00 00 80 3f
       1.0 1.0 1.0 1.0
000050 00 00 80 3f 00 00 80 3f 00 00 80 3f 00 00 80 3f
       1.0 1.0 1.0 1.0
000060 00 00 80 3f 00 00 80 3f 00 00 80 3f 00 00 80 3f
       1.0 1.0 1.0 1.0
000070 00 00 80 3f 00 00 80 3f 00 00 80 3f 00 00 80 3f
       1.0 1.0 1.0 1.0
000080 00 00 80 3f 00 00 80 3f 00 00 80 3f 00 00 80 3f
       1.0 1.0 1.0 1.0
000090 00 00 80 3f 00 00 80 3f 00 00 80 3f 00 00 80 3f
       1.0 1.0 1.0 1.0
0000a0 00 00 80 3f 00 00 80 3f 00 00 80 3f 00 00 80 3f
       1.0 1.0 1.0 1.0
0000b0 00 00 80 3f 00 00 80 3f 00 00 80 3f 00 00 80 3f
       1.0 1.0 1.0 1.0
0000c0 00 00 80 3f 00 00 80 3f 00 00 80 3f 00 00 80 3f
       1.0 1.0 1.0 1.0
0000d0 00 00 80 3f 00 00 80 3f 00 00 80 3f 00 00 80 3f
       1.0 1.0 1.0 1.0
0000e0 00 00 80 3f 00 00 80 3f 00 00 80 3f 00 00 80 3f
       1.0 1.0 1.0 1.0
0000f0 00 00 80 3f 00 00 80 3f 00 00 80 3f 00 00 80 3f
       1.0 1.0 1.0 1.0
000100 00 00 80 3f 00 00 80 3f 00 00 80 3f 00 00 80 3f
       1.0 1.0 1.0 1.0
000110 00 00 80 3f 00 00 80 3f 00 00 80 3f 00 00 80 3f
       1.0 1.0 1.0 1.0
000120 00 00 80 3f 00 00 80 3f 00 00 80 3f 00 00 80 3f
       1.0 1.0 1.0 1.0
000130 00 00 80 3f 00 00 80 3f 00 00 80 3f 00 00 80 3f
       1.0 1.0 1.0 1.0
000140 00 00 80 3f 00 00 80 3f 00 00 80 3f 00 00 80 3f
       1.0 1.0 1.0 1.0
000150 00 00 80 3f 00 00 80 3f 00 00 80 3f 00 00 80 3f
       1.0 1.0 1.0 1.0
000160 00 00 80 3f 00 00 80 3f 00 00 80 3f 00 00 80 3f
       1.0 1.0 1.0 1.0
000170 00 00 80 3f 00 00 80 3f 00 00 80 3f 00 00 80 3f
       1.0 1.0 1.0 1.0
000180 00 00 80 3f 00 00 80 3f 00 00 80 3f 00 00 80 3f
       1.0 1.0 1.0 1.0
000190 00 00 80 3f 00 00 80 3f 00 00 80 3f 00 00 80 3f
       1.0 1.0 1.0 1.0
0001a0 00 00 80 3f 00 00 80 3f 00 00 80 3f 00 00 80 3f
       1.0 1.0 1.0 1.0
0001b0 00 00 80 3f 00 00 80 3f 00 00 80 3f 00 00 80 3f
       1.0 1.0 1.0 1.0
0001c0 00 00 80 3f 00 00 80 3f 00 00 80 3f 00 00 80 3f
       1.0 1.0 1.0 1.0
0001d0 00 00 80 3f 00 00 80 3f 00 00 80 3f 00 00 80 3f
       1.0 1.0 1.0 1.0
0001e0 00 00 80 3f 00 00 80 3f 00 00 80 3f 00 00 80 3f
       1.0 1.0 1.0 1.0
0001f0 00 00 80 3f 00 00 80 3f 00 00 80 3f 00 00 80 3f
       1.0 1.0 1.0 1.0
000200 00 00 80 3f 00 00 80 3f 00 00 80 3f 00 00 80 3f
       1.0 1.0 1.0 1.0
000210 00 00 80 3f 00 00 80 3f 00 00 80 3f 00 00 80 3f
       1.0 1.0 1.0 1.0
000220 00 00 80 3f 00 00 80 3f 00 00 80 3f 00 00 80 3f
       1.0 1.0 1.0 1.0
000230 00 00 80 3f 00 00 80 3f 00 00 80 3f 00 00 80 3f
       1.0 1.0 1.0 1.0
000240 00 00 80 3f 00 00 80 3f 00 00 80 3f 00 00 80 3f
       1.0 1.0 1.0 1.0
000250 00 00 80 3f 00 00 80 3f 00 00 80 3f 00 00 80 3f
       1.0 1.0 1.0 1.0
000260 00 00 80 3f 00 00 80 3f 00 00 80 3f 00 00 80 3f
       1.0 1.0 1.0 1.0
000270 00 00 80 3f 00 00 80 3f 00 00 80 3f 00 00 80 3f
       1.0 1.0 1.0 1.0
000280 00 00 80 3f 00 00 80 3f 00 00 80 3f 00 00 80 3f
       1.0 1.0 1.0 1.0
000290 00 00 80 3f 00 00 80 3f 00 00 80 3f 00 00 80 3f
       1.0 1.0 1.0 1.0
0002a0 00 00 80 3f 00 00 80 3f 00 00 80 3f 00 00 80 3f
       1.0 1.0 1.0 1.0
0002b0 00 00 80 3f 00 00 80 3f 00 00 80 3f 00 00 80 3f
       1.0 1.0 1.0 1.0
0002c0 00 00 80 3f 00 00 80 3f 00 00 80 3f 00 00 80 3f
       1.0 1.0 1.0 1.0
0002d0 00 00 80 3f 00 00 80 3f 00 00 80 3f 00 00 80 3f
       1.0 1.0 1.0 1.0
0002e0 00 00 80 3f 00 00 80 3f 00 00 80 3f 00 00 80 3f
       1.0 1.0 1.0 1.0
0002f0 00 00 80 3f 00 00 80 3f 00 00 80 3f 00 00 80 3f
       1.0 1.0 1.0 1.0
000300 00 00 80 3f 00 00 80 3f 00 00 80 3f 00 00 80 3f
       1.0 1.0 1.0 1.0
000310 00 00 80 3f 00 00 80 3f 00 00 80 3f 00 00 80 3f
       1.0 1.0 1.0 1.0
000320 00 00 80 3f 00 00 80 3f 00 00 80 3f 00 00 80 3f
       1.0 1.0 1.0 1.0
000330 00 00 80 3f 00 00 80 3f 00 00 80 3f 00 00 80 3f
       1.0 1.0 1.0 1.0
000340 00 00 80 3f 00 00 80 3f 00 00 80 3f 00 00 80 3f
       1.0 1.0 1.0 1.0
000350 00 00 80 3f 00 00 80 3f 00 00 80 3f 00 00 80 3f
       1.0 1.0 1.0 1.0
000360 00 00 80 3f 00 00 80 3f 00 00 80 3f 00 00 80 3f
       1.0 1.0 1.0 1.0
000370 00 00 80 3f 00 00 80 3f 00 00 80 3f 00 00 80 3f
       1.0 1.0 1.0 1.0
000380 00 00 80 3f 00 00 80 3f 00 00 80 3f 00 00 80 3f
       1.0 1.0 1.0 1.0
000390 00 00 80 3f 00 00 80 3f 00 00 80 3f 00 00 80 3f
       1.0 1.0 1.0 1.0
0003a0 00 00 80 3f 00 00 80 3f 00 00 80 3f 00 00 80 3f
       1.0 1.0 1.0 1.0
0003b0 00 00 80 3f 00 00 80 3f 00 00 80 3f 00 00 80 3f
       1.0 1.0 1.0 1.0
0003c0 00 00 80 3f 00 00 80 3f 00 00 80 3f 00 00 80 3f
       1.0 1.0 1.0 1.0
0003d0 00 00 80 3f 00 00 80 3f 00 00 80 3f 00 00 80 3f
       1.0 1.0 1.0 1.0
0003e0 00 00 80 3f 00 00 80 3f 00 00 80 3f 00 00 80 3f
       1.0 1.0 1.0 1.0
0003f0 00 00 80 3f 00 00 80 3f 00 00 80 3f 00 00 80 3f
       1.0 1.0 1.0 1.0

bn1.bias f4 [400]
000000 00 00 00 00 00 00 00 00 00 00 00 00 00 00 00 00
       0.0 0.0 0.0 0.0
000010 00 00 00 00 00 00 00 00 00 00 00 00 00 00 00 00
       0.0 0.0 0.0 0.0
000020 00 00 00 00 00 00 00 00 00 00 00 00 00 00 00 00
       0.0 0.0 0.0 0.0
000030 00 00 00 00 00 00 00 00 00 00 00 00 00 00 00 00
       0.0 0.0 0.0 0.0
000040 00 00 00 00 00 00 00 00 00 00 00 00 00 00 00 00
       0.0 0.0 0.0 0.0
000050 00 00 00 00 00 00 00 00 00 00 00 00 00 00 00 00
       0.0 0.0 0.0 0.0
000060 00 00 00 00 00 00 00 00 00 00 00 00 00 00 00 00
       0.0 0.0 0.0 0.0
000070 00 00 00 00 00 00 00 00 00 00 00 00 00 00 00 00
       0.0 0.0 0.0 0.0
000080 00 00 00 00 00 00 00 00 00 00 00 00 00 00 00 00
       0.0 0.0 0.0 0.0
000090 00 00 00 00 00 00 00 00 00 00 00 00 00 00 00 00
       0.0 0.0 0.0 0.0
0000a0 00 00 00 00 00 00 00 00 00 00 00 00 00 00 00 00
       0.0 0.0 0.0 0.0
0000b0 00 00 00 00 00 00 00 00 00 00 00 00 00 00 00 00
       0.0 0.0 0.0 0.0
0000c0 00 00 00 00 00 00 00 00 00 00 00 00 00 00 00 00
       0.0 0.0 0.0 0.0
0000d0 00 00 00 00 00 00 00 00 00 00 00 00 00 00 00 00
       0.0 0.0 0.0 0.0
0000e0 00 00 00 00 00 00 00 00 00 00 00 00 00 00 00 00
       0.0 0.0 0.0 0.0
0000f0 00 00 00 00 00 00 00 00 00 00 00 00 00 00 00 00
       0.0 0.0 0.0 0.0
000100 00 00 00 00 00 00 00 00 00 00 00 00 00 00 00 00
       0.0 0.0 0.0 0.0
000110 00 00 00 00 00 00 00 00 00 00 00 00 00 00 00 00
       0.0 0.0 0.0 0.0
000120 00 00 00 00 00 00 00 00 00 00 00 00 00 00 00 00
       0.0 0.0 0.0 0.0
000130 00 00 00 00 00 00 00 00 00 00 00 00 00 00 00 00
       0.0 0.0 0.0 0.0
000140 00 00 00 00 00 00 00 00 00 00 00 00 00 00 00 00
       0.0 0.0 0.0 0.0
000150 00 00 00 00 00 00 00 00 00 00 00 00 00 00 00 00
       0.0 0.0 0.0 0.0
000160 00 00 00 00 00 00 00 00 00 00 00 00 00 00 00 00
       0.0 0.0 0.0 0.0
000170 00 00 00 00 00 00 00 00 00 00 00 00 00 00 00 00
       0.0 0.0 0.0 0.0
000180 00 00 00 00 00 00 00 00 00 00 00 00 00 00 00 00
       0.0 0.0 0.0 0.0
000190 00 00 00 00 00 00 00 00 00 00 00 00 00 00 00 00
       0.0 0.0 0.0 0.0
0001a0 00 00 00 00 00 00 00 00 00 00 00 00 00 00 00 00
       0.0 0.0 0.0 0.0
0001b0 00 00 00 00 00 00 00 00 00 00 00 00 00 00 00 00
       0.0 0.0 0.0 0.0
0001c0 00 00 00 00 00 00 00 00 00 00 00 00 00 00 00 00
       0.0 0.0 0.0 0.0
0001d0 00 00 00 00 00 00 00 00 00 00 00 00 00 00 00 00
       0.0 0.0 0.0 0.0
0001e0 00 00 00 00 00 00 00 00 00 00 00 00 00 00 00 00
       0.0 0.0 0.0 0.0
0001f0 00 00 00 00 00 00 00 00 00 00 00 00 00 00 00 00
       0.0 0.0 0.0 0.0
000200 00 00 00 00 00 00 00 00 00 00 00 00 00 00 00 00
       0.0 0.0 0.0 0.0
000210 00 00 00 00 00 00 00 00 00 00 00 00 00 00 00 00
       0.0 0.0 0.0 0.0
000220 00 00 00 00 00 00 00 00 00 00 00 00 00 00 00 00
       0.0 0.0 0.0 0.0
000230 00 00 00 00 00 00 00 00 00 00 00 00 00 00 00 00
       0.0 0.0 0.0 0.0
000240 00 00 00 00 00 00 00 00 00 00 00 00 00 00 00 00
       0.0 0.0 0.0 0.0
000250 00 00 00 00 00 00 00 00 00 00 00 00 00 00 00 00
       0.0 0.0 0.0 0.0
000260 00 00 00 00 00 00 00 00 00 00 00 00 00 00 00 00
       0.0 0.0 0.0 0.0
000270 00 00 00 00 00 00 00 00 00 00 00 00 00 00 00 00
       0.0 0.0 0.0 0.0
000280 00 00 00 00 00 00 00 00 00 00 00 00 00 00 00 00
       0.0 0.0 0.0 0.0
000290 00 00 00 00 00 00 00 00 00 00 00 00 00 00 00 00
       0.0 0.0 0.0 0.0
0002a0 00 00 00 00 00 00 00 00 00 00 00 00 00 00 00 00
       0.0 0.0 0.0 0.0
0002b0 00 00 00 00 00 00 00 00 00 00 00 00 00 00 00 00
       0.0 0.0 0.0 0.0
0002c0 00 00 00 00 00 00 00 00 00 00 00 00 00 00 00 00
       0.0 0.0 0.0 0.0
0002d0 00 00 00 00 00 00 00 00 00 00 00 00 00 00 00 00
       0.0 0.0 0.0 0.0
0002e0 00 00 00 00 00 00 00 00 00 00 00 00 00 00 00 00
       0.0 0.0 0.0 0.0
0002f0 00 00 00 00 00 00 00 00 00 00 00 00 00 00 00 00
       0.0 0.0 0.0 0.0
000300 00 00 00 00 00 00 00 00 00 00 00 00 00 00 00 00
       0.0 0.0 0.0 0.0
000310 00 00 00 00 00 00 00 00 00 00 00 00 00 00 00 00
       0.0 0.0 0.0 0.0
000320 00 00 00 00 00 00 00 00 00 00 00 00 00 00 00 00
       0.0 0.0 0.0 0.0
000330 00 00 00 00 00 00 00 00 00 00 00 00 00 00 00 00
       0.0 0.0 0.0 0.0
000340 00 00 00 00 00 00 00 00 00 00 00 00 00 00 00 00
       0.0 0.0 0.0 0.0
000350 00 00 00 00 00 00 00 00 00 00 00 00 00 00 00 00
       0.0 0.0 0.0 0.0
000360 00 00 00 00 00 00 00 00 00 00 00 00 00 00 00 00
       0.0 0.0 0.0 0.0
000370 00 00 00 00 00 00 00 00 00 00 00 00 00 00 00 00
       0.0 0.0 0.0 0.0
000380 00 00 00 00 00 00 00 00 00 00 00 00 00 00 00 00
       0.0 0.0 0.0 0.0
000390 00 00 00 00 00 00 00 00 00 00 00 00 00 00 00 00
       0.0 0.0 0.0 0.0
0003a0 00 00 00 00 00 00 00 00 00 00 00 00 00 00 00 00
       0.0 0.0 0.0 0.0
0003b0 00 00 00 00 00 00 00 00 00 00 00 00 00 00 00 00
       0.0 0.0 0.0 0.0
0003c0 00 00 00 00 00 00 00 00 00 00 00 00 00 00 00 00
       0.0 0.0 0.0 0.0
0003d0 00 00 00 00 00 00 00 00 00 00 00 00 00 00 00 00
       0.0 0.0 0.0 0.0
0003e0 00 00 00 00 00 00 00 00 00 00 00 00 00 00 00 00
       0.0 0.0 0.0 0.0
0003f0 00 00 00 00 00 00 00 00 00 00 00 00 00 00 00 00
       0.0 0.0 0.0 0.0

bn2.weight f4 [300]
000000 00 00 80 3f 00 00 80 3f 00 00 80 3f 00 00 80 3f
       1.0 1.0 1.0 1.0
000010 00 00 80 3f 00 00 80 3f 00 00 80 3f 00 00 80 3f
       1.0 1.0 1.0 1.0
000020 00 00 80 3f 00 00 80 3f 00 00 80 3f 00 00 80 3f
       1.0 1.0 1.0 1.0
000030 00 00 80 3f 00 00 80 3f 00 00 80 3f 00 00 80 3f
       1.0 1.0 1.0 1.0
000040 00 00 80 3f 00 00 80 3f 00 00 80 3f 00 00 80 3f
       1.0 1.0 1.0 1.0
000050 00 00 80 3f 00 00 80 3f 00 00 80 3f 00 00 80 3f
       1.0 1.0 1.0 1.0
000060 00 00 80 3f 00 00 80 3f 00 00 80 3f 00 00 80 3f
       1.0 1.0 1.0 1.0
000070 00 00 80 3f 00 00 80 3f 00 00 80 3f 00 00 80 3f
       1.0 1.0 1.0 1.0
000080 00 00 80 3f 00 00 80 3f 00 00 80 3f 00 00 80 3f
       1.0 1.0 1.0 1.0
000090 00 00 80 3f 00 00 80 3f 00 00 80 3f 00 00 80 3f
       1.0 1.0 1.0 1.0
0000a0 00 00 80 3f 00 00 80 3f 00 00 80 3f 00 00 80 3f
       1.0 1.0 1.0 1.0
0000b0 00 00 80 3f 00 00 80 3f 00 00 80 3f 00 00 80 3f
       1.0 1.0 1.0 1.0
0000c0 00 00 80 3f 00 00 80 3f 00 00 80 3f 00 00 80 3f
       1.0 1.0 1.0 1.0
0000d0 00 00 80 3f 00 00 80 3f 00 00 80 3f 00 00 80 3f
       1.0 1.0 1.0 1.0
0000e0 00 00 80 3f 00 00 80 3f 00 00 80 3f 00 00 80 3f
       1.0 1.0 1.0 1.0
0000f0 00 00 80 3f 00 00 80 3f 00 00 80 3f 00 00 80 3f
       1.0 1.0 1.0 1.0
000100 00 00 80 3f 00 00 80 3f 00 00 80 3f 00 00 80 3f
       1.0 1.0 1.0 1.0
000110 00 00 80 3f 00 00 80 3f 00 00 80 3f 00 00 80 3f
       1.0 1.0 1.0 1.0
000120 00 00 80 3f 00 00 80 3f 00 00 80 3f 00 00 80 3f
       1.0 1.0 1.0 1.0
000130 00 00 80 3f 00 00 80 3f 00 00 80 3f 00 00 80 3f
       1.0 1.0 1.0 1.0
000140 00 00 80 3f 00 00 80 3f 00 00 80 3f 00 00 80 3f
       1.0 1.0 1.0 1.0
000150 00 00 80 3f 00 00 80 3f 00 00 80 3f 00 00 80 3f
       1.0 1.0 1.0 1.0
000160 00 00 80 3f 00 00 80 3f 00 00 80 3f 00 00 80 3f
       1.0 1.0 1.0 1.0
000170 00 00 80 3f 00 00 80 3f 00 00 80 3f 00 00 80 3f
       1.0 1.0 1.0 1.0
000180 00 00 80 3f 00 00 80 3f 00 00 80 3f 00 00 80 3f
       1.0 1.0 1.0 1.0
000190 00 00 80 3f 00 00 80 3f 00 00 80 3f 00 00 80 3f
       1.0 1.0 1.0 1.0
0001a0 00 00 80 3f 00 00 80 3f 00 00 80 3f 00 00 80 3f
       1.0 1.0 1.0 1.0
0001b0 00 00 80 3f 00 00 80 3f 00 00 80 3f 00 00 80 3f
       1.0 1.0 1.0 1.0
0001c0 00 00 80 3f 00 00 80 3f 00 00 80 3f 00 00 80 3f
       1.0 1.0 1.0 1.0
0001d0 00 00 80 3f 00 00 80 3f 00 00 80 3f 00 00 80 3f
       1.0 1.0 1.0 1.0
0001e0 00 00 80 3f 00 00 80 3f 00 00 80 3f 00 00 80 3f
       1.0 1.0 1.0 1.0
0001f0 00 00 80 3f 00 00 80 3f 00 00 80 3f 00 00 80 3f
       1.0 1.0 1.0 1.0
000200 00 00 80 3f 00 00 80 3f 00 00 80 3f 00 00 80 3f
       1.0 1.0 1.0 1.0
000210 00 00 80 3f 00 00 80 3f 00 00 80 3f 00 00 80 3f
       1.0 1.0 1.0 1.0
000220 00 00 80 3f 00 00 80 3f 00 00 80 3f 00 00 80 3f
       1.0 1.0 1.0 1.0
000230 00 00 80 3f 00 00 80 3f 00 00 80 3f 00 00 80 3f
       1.0 1.0 1.0 1.0
000240 00 00 80 3f 00 00 80 3f 00 00 80 3f 00 00 80 3f
       1.0 1.0 1.0 1.0
000250 00 00 80 3f 00 00 80 3f 00 00 80 3f 00 00 80 3f
       1.0 1.0 1.0 1.0
000260 00 00 80 3f 00 00 80 3f 00 00 80 3f 00 00 80 3f
       1.0 1.0 1.0 1.0
000270 00 00 80 3f 00 00 80 3f 00 00 80 3f 00 00 80 3f
       1.0 1.0 1.0 1.0
000280 00 00 80 3f 00 00 80 3f 00 00 80 3f 00 00 80 3f
       1.0 1.0 1.0 1.0
000290 00 00 80 3f 00 00 80 3f 00 00 80 3f 00 00 80 3f
       1.0 1.0 1.0 1.0
0002a0 00 00 80 3f 00 00 80 3f 00 00 80 3f 00 00 80 3f
       1.0 1.0 1.0 1.0
0002b0 00 00 80 3f 00 00 80 3f 00 00 80 3f 00 00 80 3f
       1.0 1.0 1.0 1.0
0002c0 00 00 80 3f 00 00 80 3f 00 00 80 3f 00 00 80 3f
       1.0 1.0 1.0 1.0
0002d0 00 00 80 3f 00 00 80 3f 00 00 80 3f 00 00 80 3f
       1.0 1.0 1.0 1.0
0002e0 00 00 80 3f 00 00 80 3f 00 00 80 3f 00 00 80 3f
       1.0 1.0 1.0 1.0
0002f0 00 00 80 3f 00 00 80 3f 00 00 80 3f 00 00 80 3f
       1.0 1.0 1.0 1.0
000300 00 00 80 3f 00 00 80 3f 00 00 80 3f 00 00 80 3f
       1.0 1.0 1.0 1.0
000310 00 00 80 3f 00 00 80 3f 00 00 80 3f 00 00 80 3f
       1.0 1.0 1.0 1.0
000320 00 00 80 3f 00 00 80 3f 00 00 80 3f 00 00 80 3f
       1.0 1.0 1.0 1.0
000330 00 00 80 3f 00 00 80 3f 00 00 80 3f 00 00 80 3f
       1.0 1.0 1.0 1.0
000340 00 00 80 3f 00 00 80 3f 00 00 80 3f 00 00 80 3f
       1.0 1.0 1.0 1.0
000350 00 00 80 3f 00 00 80 3f 00 00 80 3f 00 00 80 3f
       1.0 1.0 1.0 1.0
000360 00 00 80 3f 00 00 80 3f 00 00 80 3f 00 00 80 3f
       1.0 1.0 1.0 1.0
000370 00 00 80 3f 00 00 80 3f 00 00 80 3f 00 00 80 3f
       1.0 1.0 1.0 1.0
000380 00 00 80 3f 00 00 80 3f 00 00 80 3f 00 00 80 3f
       1.0 1.0 1.0 1.0
000390 00 00 80 3f 00 00 80 3f 00 00 80 3f 00 00 80 3f
       1.0 1.0 1.0 1.0
0003a0 00 00 80 3f 00 00 80 3f 00 00 80 3f 00 00 80 3f
       1.0 1.0 1.0 1.0
0003b0 00 00 80 3f 00 00 80 3f 00 00 80 3f 00 00 80 3f
       1.0 1.0 1.0 1.0
0003c0 00 00 80 3f 00 00 80 3f 00 00 80 3f 00 00 80 3f
       1.0 1.0 1.0 1.0
0003d0 00 00 80 3f 00 00 80 3f 00 00 80 3f 00 00 80 3f
       1.0 1.0 1.0 1.0
0003e0 00 00 80 3f 00 00 80 3f 00 00 80 3f 00 00 80 3f
       1.0 1.0 1.0 1.0
0003f0 00 00 80 3f 00 00 80 3f 00 00 80 3f 00 00 80 3f
       1.0 1.0 1.0 1.0

bn2.bias f4 [300]
000000 00 00 00 00 00 00 00 00 00 00 00 00 00 00 00 00
       0.0 0.0 0.0 0.0
000010 00 00 00 00 00 00 00 00 00 00 00 00 00 00 00 00
       0.0 0.0 0.0 0.0
000020 00 00 00 00 00 00 00 00 00 00 00 00 00 00 00 00
       0.0 0.0 0.0 0.0
000030 00 00 00 00 00 00 00 00 00 00 00 00 00 00 00 00
       0.0 0.0 0.0 0.0
000040 00 00 00 00 00 00 00 00 00 00 00 00 00 00 00 00
       0.0 0.0 0.0 0.0
000050 00 00 00 00 00 00 00 00 00 00 00 00 00 00 00 00
       0.0 0.0 0.0 0.0
000060 00 00 00 00 00 00 00 00 00 00 00 00 00 00 00 00
       0.0 0.0 0.0 0.0
000070 00 00 00 00 00 00 00 00 00 00 00 00 00 00 00 00
       0.0 0.0 0.0 0.0
000080 00 00 00 00 00 00 00 00 00 00 00 00 00 00 00 00
       0.0 0.0 0.0 0.0
000090 00 00 00 00 00 00 00 00 00 00 00 00 00 00 00 00
       0.0 0.0 0.0 0.0
0000a0 00 00 00 00 00 00 00 00 00 00 00 00 00 00 00 00
       0.0 0.0 0.0 0.0
0000b0 00 00 00 00 00 00 00 00 00 00 00 00 00 00 00 00
       0.0 0.0 0.0 0.0
0000c0 00 00 00 00 00 00 00 00 00 00 00 00 00 00 00 00
       0.0 0.0 0.0 0.0
0000d0 00 00 00 00 00 00 00 00 00 00 00 00 00 00 00 00
       0.0 0.0 0.0 0.0
0000e0 00 00 00 00 00 00 00 00 00 00 00 00 00 00 00 00
       0.0 0.0 0.0 0.0
0000f0 00 00 00 00 00 00 00 00 00 00 00 00 00 00 00 00
       0.0 0.0 0.0 0.0
000100 00 00 00 00 00 00 00 00 00 00 00 00 00 00 00 00
       0.0 0.0 0.0 0.0
000110 00 00 00 00 00 00 00 00 00 00 00 00 00 00 00 00
       0.0 0.0 0.0 0.0
000120 00 00 00 00 00 00 00 00 00 00 00 00 00 00 00 00
       0.0 0.0 0.0 0.0
000130 00 00 00 00 00 00 00 00 00 00 00 00 00 00 00 00
       0.0 0.0 0.0 0.0
000140 00 00 00 00 00 00 00 00 00 00 00 00 00 00 00 00
       0.0 0.0 0.0 0.0
000150 00 00 00 00 00 00 00 00 00 00 00 00 00 00 00 00
       0.0 0.0 0.0 0.0
000160 00 00 00 00 00 00 00 00 00 00 00 00 00 00 00 00
       0.0 0.0 0.0 0.0
000170 00 00 00 00 00 00 00 00 00 00 00 00 00 00 00 00
       0.0 0.0 0.0 0.0
000180 00 00 00 00 00 00 00 00 00 00 00 00 00 00 00 00
       0.0 0.0 0.0 0.0
000190 00 00 00 00 00 00 00 00 00 00 00 00 00 00 00 00
       0.0 0.0 0.0 0.0
0001a0 00 00 00 00 00 00 00 00 00 00 00 00 00 00 00 00
       0.0 0.0 0.0 0.0
0001b0 00 00 00 00 00 00 00 00 00 00 00 00 00 00 00 00
       0.0 0.0 0.0 0.0
0001c0 00 00 00 00 00 00 00 00 00 00 00 00 00 00 00 00
       0.0 0.0 0.0 0.0
0001d0 00 00 00 00 00 00 00 00 00 00 00 00 00 00 00 00
       0.0 0.0 0.0 0.0
0001e0 00 00 00 00 00 00 00 00 00 00 00 00 00 00 00 00
       0.0 0.0 0.0 0.0
0001f0 00 00 00 00 00 00 00 00 00 00 00 00 00 00 00 00
       0.0 0.0 0.0 0.0
000200 00 00 00 00 00 00 00 00 00 00 00 00 00 00 00 00
       0.0 0.0 0.0 0.0
000210 00 00 00 00 00 00 00 00 00 00 00 00 00 00 00 00
       0.0 0.0 0.0 0.0
000220 00 00 00 00 00 00 00 00 00 00 00 00 00 00 00 00
       0.0 0.0 0.0 0.0
000230 00 00 00 00 00 00 00 00 00 00 00 00 00 00 00 00
       0.0 0.0 0.0 0.0
000240 00 00 00 00 00 00 00 00 00 00 00 00 00 00 00 00
       0.0 0.0 0.0 0.0
000250 00 00 00 00 00 00 00 00 00 00 00 00 00 00 00 00
       0.0 0.0 0.0 0.0
000260 00 00 00 00 00 00 00 00 00 00 00 00 00 00 00 00
       0.0 0.0 0.0 0.0
000270 00 00 00 00 00 00 00 00 00 00 00 00 00 00 00 00
       0.0 0.0 0.0 0.0
000280 00 00 00 00 00 00 00 00 00 00 00 00 00 00 00 00
       0.0 0.0 0.0 0.0
000290 00 00 00 00 00 00 00 00 00 00 00 00 00 00 00 00
       0.0 0.0 0.0 0.0
0002a0 00 00 00 00 00 00 00 00 00 00 00 00 00 00 00 00
       0.0 0.0 0.0 0.0
0002b0 00 00 00 00 00 00 00 00 00 00 00 00 00 00 00 00
       0.0 0.0 0.0 0.0
0002c0 00 00 00 00 00 00 00 00 00 00 00 00 00 00 00 00
       0.0 0.0 0.0 0.0
0002d0 00 00 00 00 00 00 00 00 00 00 00 00 00 00 00 00
       0.0 0.0 0.0 0.0
0002e0 00 00 00 00 00 00 00 00 00 00 00 00 00 00 00 00
       0.0 0.0 0.0 0.0
0002f0 00 00 00 00 00 00 00 00 00 00 00 00 00 00 00 00
       0.0 0.0 0.0 0.0
000300 00 00 00 00 00 00 00 00 00 00 00 00 00 00 00 00
       0.0 0.0 0.0 0.0
000310 00 00 00 00 00 00 00 00 00 00 00 00 00 00 00 00
       0.0 0.0 0.0 0.0
000320 00 00 00 00 00 00 00 00 00 00 00 00 00 00 00 00
       0.0 0.0 0.0 0.0
000330 00 00 00 00 00 00 00 00 00 00 00 00 00 00 00 00
       0.0 0.0 0.0 0.0
000340 00 00 00 00 00 00 00 00 00 00 00 00 00 00 00 00
       0.0 0.0 0.0 0.0
000350 00 00 00 00 00 00 00 00 00 00 00 00 00 00 00 00
       0.0 0.0 0.0 0.0
000360 00 00 00 00 00 00 00 00 00 00 00 00 00 00 00 00
       0.0 0.0 0.0 0.0
000370 00 00 00 00 00 00 00 00 00 00 00 00 00 00 00 00
       0.0 0.0 0.0 0.0
000380 00 00 00 00 00 00 00 00 00 00 00 00 00 00 00 00
       0.0 0.0 0.0 0.0
000390 00 00 00 00 00 00 00 00 00 00 00 00 00 00 00 00
       0.0 0.0 0.0 0.0
0003a0 00 00 00 00 00 00 00 00 00 00 00 00 00 00 00 00
       0.0 0.0 0.0 0.0
0003b0 00 00 00 00 00 00 00 00 00 00 00 00 00 00 00 00
       0.0 0.0 0.0 0.0
0003c0 00 00 00 00 00 00 00 00 00 00 00 00 00 00 00 00
       0.0 0.0 0.0 0.0
0003d0 00 00 00 00 00 00 00 00 00 00 00 00 00 00 00 00
       0.0 0.0 0.0 0.0
0003e0 00 00 00 00 00 00 00 00 00 00 00 00 00 00 00 00
       0.0 0.0 0.0 0.0
0003f0 00 00 00 00 00 00 00 00 00 00 00 00 00 00 00 00
       0.0 0.0 0.0 0.0
