tmp/ddpg/actor_ddpg.pth (torch, 511239 bytes, 10 tensors)

fc1.weight f4 [400, 11]
000000 7a 05 67 bd cb 84 5a be 98 a4 a3 3e 81 99 ec 3d
       -0.056401707 -0.21339719 0.31961513 0.11552716
000010 47 ea 9e 3e 21 0e 11 3f 17 57 bd 3e b8 7f b5 3e
       0.31038114 0.56662184 0.36980507 0.35449004
000020 10 6c e9 3e c4 d3 f0 3e 5d 0d d7 3e a7 89 97 3e
       0.45590258 0.47036564 0.42002383 0.29597208
000030 4d 84 b3 be 03 e9 94 3e 04 72 7f 3d 83 19 8b 3e
       -0.35061875 0.29084024 0.062364593 0.271679
000040 2e a0 3b 3f 60 b8 05 3f a1 5a 85 3e 45 f9 d9 3e
       0.7329129 0.5223446 0.26045707 0.4257299
000050 44 7f c4 3e a0 0e b8 3e 1b 90 e0 3e 72 61 bc be
       0.38378346 0.35948658 0.43859944 -0.36793095
000060 bc d1 e2 3d 82 34 1e 3d 14 c2 d8 3e a4 6a 73 3f
       0.1107516 0.038624294 0.4233557 0.95084596
000070 67 1e 74 3e ca 46 ed 3d 77 1f 2f 3e 4b 61 40 3e
       0.23839723 0.115857676 0.17101847 0.18787114
000080 b4 f6 0d 3e d2 20 d2 3e 27 9d c5 be da a2 19 3d
       0.13863641 0.41040665 -0.3859646 0.037508823
000090 71 f3 b3 3d c6 f3 a0 3e af 90 2d bf 2e c2 45 3d
       0.08786667 0.31435984 -0.67798895 0.048280887
0000a0 66 a0 22 3e 90 dc 76 be de 49 0d bc be c9 0e be
       0.158815 -0.24107575 -0.008623568 -0.13944146
0000b0 db dd b0 be 3a a4 63 bb 06 86 73 3d ba 74 af bd
       -0.34544262 -0.0034735338 0.059453987 -0.08567186
0000c0 82 3a cc be eb 10 4c 3e 71 95 76 bd 01 7f ee 3e
       -0.39888388 0.19928329 -0.060201112 0.4658127
0000d0 64 96 e0 3e a0 7f e9 3e d0 14 03 3f e5 ad 9e be
       0.4386474 0.45605183 0.5120363 -0.30992046
0000e0 12 d8 23 be fa 03 10 3f e7 19 17 3e 1d 4f 0f 3f
       -0.16000393 0.5625607 0.14755975 0.5598009
0000f0 5f f3 f5 3e 08 17 86 3e 85 62 ac 3e ef 25 ea 3e
       0.4803724 0.26189446 0.33668914 0.45732066
000100 50 b8 be 3e ce 87 e3 3e 8a d9 6c 3e 79 73 9d bd
       0.37249994 0.44439548 0.2312986 -0.0768804
000110 6e 5c 29 3e 9e 5e 2c 3d a4 ea cd 3e dc 33 02 3f
       0.16539165 0.04208242 0.4021808 0.5086038
000120 84 49 3f 3f a2 3f 13 3f 9b 3f f1 3e 85 38 f5 3e
       0.7472155 0.5751897 0.4711884 0.47894683
000130 e0 e9 dd 3e 17 a6 bb 3e fb 0b b8 be 91 0a f0 3c
       0.43342495 0.36650154 -0.3594664 0.029301913
000140 7e 93 7c 3d 73 d9 8d 3e 16 35 43 3d 06 54 b5 3e
       0.061664097 0.27704963 0.04765805 0.35415667
000150 8d 33 91 3e cc f1 9d be b8 79 36 be 81 21 33 be
       0.28359643 -0.3084854 -0.1781987 -0.1749325
000160 14 6c b7 3e fd 91 5f be 15 ea 81 3e 7d 57 ec bb
       0.35824645 -0.21833034 0.25373903 -0.007212578
000170 66 df eb 3e 82 e5 54 3f 20 57 08 3f b1 fc eb 3d
       0.46068877 0.831627 0.5325794 0.115228064
000180 55 45 6a 3e bd 2f 86 3e 55 81 53 3e a0 ba 8b 3e
       0.2287801 0.26208296 0.20654805 0.2729082
000190 0b e7 7c be 0d 7d e0 3e 0a 2b 77 3d e8 79 db 3d
       -0.24697511 0.43845406 0.06034378 0.10716611
0001a0 16 02 6c 3f ab 32 25 3f 55 0f 15 3f 04 5c e9 3e
       0.9219068 0.6453044 0.5822652 0.45578015
0001b0 c7 9d f6 3e 55 92 e8 3e 03 2a 78 3e 4e bf 7d be
       0.4816725 0.45424142 0.24234776 -0.24780008
0001c0 d7 b2 8a 3e 71 94 56 3d f2 f8 a5 3e e8 1c eb 3e
       0.2708957 0.05238766 0.32416493 0.4592049
0001d0 8e 03 27 3f 7c 00 05 3f 92 c7 8c 3e a3 93 8a 3e
       0.652398 0.51953864 0.2749601 0.27065763
0001e0 59 0d 98 3e 43 d2 80 3e 01 8e aa be 79 cd ce 3e
       0.29697683 0.25160417 -0.33311465 0.40391138
0001f0 8a ff 10 3c f1 40 6b bd 76 e4 34 bf e4 68 4a 3e
       0.008849988 -0.05743498 -0.70661104 0.19766575
000200 e9 e5 a5 3e c1 75 eb 3e ec 23 eb 3e 5e f6 d0 3e
       0.3240197 0.45988277 0.45925844 0.40812963
000210 78 9f e4 3c ad 04 a1 be 9f c1 54 3e 1e f1 c0 bc
       0.027908072 -0.3144888 0.20776986 -0.023552474
000220 0b c2 3d 3e f3 ed 15 bf 09 13 11 3f e2 0e f2 3d
       0.18531053 -0.58566207 0.5666967 0.11819245
000230 6f bd d0 3d d7 fa 18 3e 95 6f 3e 3e cf cd 19 3e
       0.101923816 0.14939438 0.18597253 0.15019916
000240 bb 51 ad be c0 f3 f0 3e e8 67 87 3d b5 48 83 3e
       -0.33851418 0.47060966 0.066116154 0.2564141
000250 b2 15 8b 3f 6a 3a c8 3e 8b ae d2 3c fe 22 0f 3f
       1.0865996 0.39107066 0.025717994 0.5591277
000260 5b e9 25 3f 04 97 02 3f b1 25 2d be 39 b0 75 bd
       0.648092 0.5101168 -0.1690891 -0.059982512
000270 4c 8c 9d 3d a4 ce 33 3e 4c 1e ec 3d 92 d4 af 3e
       0.07692775 0.17559296 0.11529216 0.34341866
000280 23 f1 00 3f c3 b1 58 3e f6 1b 99 3e 0d c8 bd 3e
       0.50367945 0.2116156 0.29904145 0.3706669
000290 13 7b 64 3e a5 5e 9b 3e 44 a9 8a be 73 4e 77 3e
       0.22312574 0.30345646 -0.27082264 0.2415102
0002a0 89 48 d1 3d 1c 59 e9 3e 7b 58 a5 3e 1d e1 b5 3e
       0.10218913 0.45575798 0.32294068 0.3552331
0002b0 75 dd 0d 3f 7b 03 40 bf 66 33 0f bf 48 ad ed be
       0.5541604 -0.7500531 -0.559378 -0.46421266
0002c0 03 9a 70 3e df 7e 0f bf c6 6c 75 3e 0b 0a cb 3d
       0.23496251 -0.56052965 0.23967275 0.09914025
0002d0 31 89 c8 3e 14 67 85 be bf 17 aa 3e f1 5f d8 bd
       0.3916717 -0.26055205 0.33221242 -0.10565174
0002e0 74 6b 9e 3d 41 d7 ff 3d 53 13 1c 3d 23 63 5a be
       0.07735339 0.12492228 0.038104367 -0.2132688
0002f0 4c 1f e8 3d ab 70 9d bd 5c eb 00 be a5 7a 57 be
       0.113340944 -0.07687505 -0.12589782 -0.21042879
000300 16 ba d7 3e 47 e4 69 3e 57 c2 ec 3e 66 36 20 3e
       0.4213416 0.22840987 0.4624202 0.15645751
000310 0a d4 2d 3e 01 77 4b 3e 56 4c 88 3e 86 3b a8 be
       0.16975418 0.19869615 0.2662074 -0.32857913
000320 7c b1 ee 3e bc c5 86 3d c2 7f 21 3e a8 cf 18 3f
       0.46619785 0.065806836 0.15771392 0.5969186
000330 86 a8 2f 3f 67 54 54 3f 7f 6c c7 3e 96 a7 a8 3e
       0.6861652 0.8294129 0.38949963 0.32940358
000340 cc e0 ac 3e 24 7a 20 3f c9 1d 2c bf a7 bf d7 3e
       0.33765256 0.6268637 -0.6723295 0.42138407
000350 85 41 1b 3d 31 d8 37 3f 9c 4f 2b 3f f6 70 8d 3e
       0.03790428 0.71814257 0.6691835 0.27625245
000360 35 e3 43 3e a1 04 05 3f 89 bf 2b 3f ec d3 0e 3f
       0.19129641 0.5196019 0.67089134 0.5579212
000370 02 04 d3 3e f0 56 c4 be 41 83 8c 3e 09 1f a4 3d
       0.41213995 -0.38347578 0.2744389 0.08013732
000380 9f 2d d7 3e 30 1b 42 3f 3a f1 1a 3f d5 aa 0e 3e
       0.42026994 0.75822735 0.6052433 0.13932355
000390 ae e3 34 3e 5f e2 91 3e 6d cf 13 3e fe 7c 2b 3e
       0.17664978 0.2849302 0.14434595 0.167469
0003a0 9e 1f c1 bd ea d8 e7 3e 9c 6c 6d 3d 21 04 02 be
       -0.094298586 0.4528268 0.057964906 -0.12696888
0003b0 6b da 0b 3f de 4c d7 3e 3d 76 2b 3f 6f 93 35 3f
       0.54630154 0.42050833 0.6697729 0.7092809
0003c0 3f 6e 1f 3f 57 c6 20 3f 21 05 96 bd 4a bc fd be
       0.622776 0.6280264 -0.07325197 -0.49557716
0003d0 ea b1 1e 3d 64 7e d9 3d b6 1c 88 3e 65 13 18 3e
       0.03874389 0.1061981 0.26584405 0.14851148
0003e0 bb 4f 9d 3e 23 eb df bc c4 7b 8a bd 74 8d af bd
       0.30724892 -0.027333802 -0.06761888 -0.08571902
0003f0 37 08 fa bc a5 7c 93 3e d1 be 60 be 0c 02 7d 3e
       -0.030521495 0.28806034 -0.2194779 0.24707812

fc1.bias f4 [400]
000000 23 7f 54 3e e0 90 8d 3e 83 c6 c9 3b 05 a8 84 3e
       0.20751624 0.27649593 0.0061576976 0.2590944
000010 50 6f 8c 3d c9 b8 0d 3f 94 8e 33 3e a9 5a 87 3e
       0.06857169 0.55360085 0.17534858 0.26436356
000020 e3 d3 09 3e 01 3d ad 3e f6 99 53 3e 5b 8d ce 3e
       0.13459735 0.33835605 0.206642 0.4034222
000030 fa cb 79 3e 0c b3 b4 3e c4 10 2b 3e cf 0c d2 3e
       0.24394217 0.35292852 0.16705614 0.41025397
000040 17 31 95 3e a2 9d 9d bd 84 0c b6 3e 05 95 db 3e
       0.29139015 -0.07696082 0.35556424 0.4288713
000050 5f dd 6a 3e ec 40 b8 3e 74 4e 5b 3d c6 a0 f1 3d
       0.22936009 0.3598703 0.053541616 0.11798243
000060 e2 06 6c 3e 81 3c 97 3e de 00 d0 3e ce 74 6c 3e
       0.230495 0.29538348 0.40625662 0.23091432
000070 a0 5a 46 3e 5b b9 ea 3e 1e 70 d7 3e 3c 73 db 3e
       0.19370508 0.4584454 0.42077726 0.42861354
000080 32 46 88 3e 2c e3 bd 3e 3c 50 d3 3e 5c 03 a4 3e
       0.26616055 0.3708738 0.4127215 0.32033813
000090 7e f4 b1 3e 1f ac 44 3e c9 c8 95 3e cb 7d 09 3f
       0.34756845 0.19206284 0.2925475 0.5370757
0000a0 a3 39 66 3e d3 a5 bc 3e a2 af 84 3e ac 82 a8 3e
       0.22482924 0.36845264 0.25915247 0.32912195
0000b0 6c 33 99 3e e9 7c b5 3e b1 69 ce 3e c9 3c d4 3e
       0.29922044 0.3544686 0.4031501 0.41452625
0000c0 1c b7 36 3e d4 4d 5a 3e fc aa a1 3e ca 9d 46 3e
       0.17843288 0.21318752 0.31575763 0.19396129
0000d0 c0 01 8e be ca a8 36 3e 48 7d b6 3e d1 33 a8 3e
       -0.2773571 0.17837825 0.35642457 0.32852033
0000e0 9a 3f 68 3e b7 a0 52 3e 49 d0 0b 3e fc 7d 87 3e
       0.22680512 0.2056912 0.13653673 0.26463306
0000f0 68 74 e8 3e ca 54 26 3e 8d aa 7d 3e 32 e5 65 3e
       0.4540131 0.16243282 0.24772091 0.22450712
000100 f2 f3 e8 3d b2 7e 6d 3e 62 32 9b 3e 44 64 28 3e
       0.11374654 0.23192862 0.30311877 0.16444498
000110 d1 26 b1 3e c1 0e d1 3e 13 2b 7f 3e 98 e1 5a 3e
       0.34599927 0.4083157 0.24918775 0.2137512
000120 b2 f7 ba 3e 0f dd a8 3e 18 1d dc 3e 58 2b cf 3d
       0.36517102 0.32981154 0.42990947 0.10115689
000130 7a 63 84 be e1 13 ac 3e 33 49 fc 3e 7b 62 a5 3e
       -0.25857145 0.33608916 0.49274597 0.32301697
000140 03 93 c9 3d 7b 0e 7c 3e 21 bc 96 3e 8c a8 c3 3e
       0.098424934 0.24614899 0.29440406 0.3821453
000150 b8 6d 3a 3e bd 4e d6 3e 01 e3 97 3e 11 b8 34 3e
       0.18205917 0.41856948 0.29665378 0.17648341
000160 06 f8 09 3e 76 2e fa 3e a3 db 89 3e 79 97 df 3d
       0.1347352 0.48863572 0.26925382 0.10917563
000170 77 ee bb 3e 1a 00 4e 3e ff f9 63 3e 6c 57 a6 3e
       0.36705372 0.20117226 0.22263335 0.32488573
000180 ca b9 7b 3e b6 63 a2 3e ad 27 ad 3e 8a ff 59 3e
       0.24582592 0.31716698 0.33819333 0.21288887
000190 87 4d c4 3e 58 0c 90 3e 99 a9 3a 3e 55 d8 40 3e
       0.383404 0.28134418 0.18228759 0.18832524
0001a0 4e 86 a1 3e 3e b9 2e 3e 54 c7 e1 3e 73 c9 a5 3e
       0.3154778 0.17062852 0.44097388 0.32380256
0001b0 09 7f c9 3e e4 f4 23 3e 98 4a 5d 3e 6f 34 9b 3e
       0.39354733 0.16011387 0.21610487 0.3031344
0001c0 a9 75 38 3e 63 8b 31 3e 08 de ef 3e 8f 18 d9 3e
       0.18013634 0.17338328 0.46849084 0.4240155
0001d0 b1 02 c8 3e dc ed b0 3e b2 32 96 3d 91 fc b2 3e
       0.39064553 0.34556472 0.07333888 0.34958318
0001e0 8e 9a c0 3e 3a a8 9e 3e fb c7 81 3e fa d5 81 3e
       0.37617916 0.30987722 0.25347885 0.25358564
0001f0 ce f2 93 3e 64 d7 1c 3d f8 91 11 3e cc 72 a0 3e
       0.28896183 0.03829135 0.14215839 0.31337583
000200 1b a5 35 3e 09 f9 e5 3d 8d d0 8d 3e ea af 60 3e
       0.17738764 0.1122914 0.27698174 0.21942106
000210 af 4e cb 3e d1 42 c1 3e a6 a5 bd 3e aa 13 ab 3e
       0.39708468 0.3774629 0.37040442 0.3341344
000220 96 37 81 bd 80 47 9c 3e 91 92 01 3f 4b d2 21 3e
       -0.0630943 0.305233 0.5061427 0.15802877
000230 c5 af 14 3e f3 38 e4 3d d3 c0 95 3e 72 a0 7a 3e
       0.14520176 0.11143675 0.29248676 0.24475268
000240 f7 b0 41 3e 93 73 4a 3e b8 57 31 3e 0f 53 b5 3e
       0.18915163 0.1977065 0.17318618 0.3541493
000250 e8 30 2d 3c cf a3 f5 3e 3d 14 8b 3e 0e 11 8d 3e
       0.010570742 0.4797654 0.27163878 0.27552074
000260 76 1f c2 3d f2 96 19 3e 76 f3 9b 3e 95 d5 dd 3e
       0.09478657 0.14998987 0.30459183 0.43327013
000270 66 e9 ac 3e d4 6c 88 3e 9a da bb 3e 87 73 20 3d
       0.3377182 0.2664553 0.36690217 0.039172675
000280 c2 68 d7 3e 91 b2 f1 3e 53 c6 74 3e a3 0b 8f 3e
       0.4207211 0.47206548 0.2390378 0.27938566
000290 5b 00 aa 3e 2b 92 c4 3e 72 99 49 3e ca 99 09 3e
       0.33203396 0.38392767 0.19687441 0.13437572
0002a0 ed 71 40 3e 10 6b f7 3d 7a 21 c1 3e 25 97 b3 3c
       0.18793459 0.120809674 0.37720853 0.021922657
0002b0 22 1e 4e 3e 0e ec 43 3e 0b d2 27 3e 1d 39 66 3d
       0.20128682 0.19133016 0.16388719 0.05620681
0002c0 08 fa 5b 3e ad 4e d6 3d 1c 25 6d 3e a0 6d 7e 3e
       0.21482098 0.10464225 0.23158687 0.24846506
0002d0 06 2f fc 3d d5 5d 8b 3e 47 74 c9 3e b6 8c 32 3e
       0.123136565 0.27220026 0.39346525 0.1743649
0002e0 c0 2b c6 3e 65 12 87 3e 62 4a 21 3f 47 6d c2 3e
       0.38705254 0.2638122 0.63004124 0.37973997
0002f0 a4 b2 91 3e 1b 29 51 bc 1c d7 91 3e 1c 1b 4b 3e
       0.28456604 -0.012766148 0.28484428 0.1983456
000300 9c e5 ae 3e e7 b2 58 3e c9 8d b2 3e d0 76 41 3e
       0.34159553 0.21161996 0.34873798 0.1889298
000310 17 2d ea 3d fe 5e 1a 3e 85 4f d7 3e e9 ca fd 3d
       0.114343815 0.15075299 0.42052856 0.12392218
000320 e9 c7 52 3e 53 1e 11 3f 66 fc 2d 3f 6d 44 64 3e
       0.20584072 0.56686896 0.67963254 0.22291727
000330 db f0 a7 3e 72 90 c0 3e d1 b8 68 3e d1 44 45 3f
       0.32800946 0.37610203 0.22726752 0.7705813
000340 8a 5e db 3e e9 c4 3d 3d 0f ec 21 3e 7d 12 05 3e
       0.42845565 0.046330366 0.15812705 0.12995334
000350 3a d3 b0 3e ac 1a d4 3e ab 7e b8 3e 84 9f 12 3e
       0.34536153 0.414266 0.3603414 0.14318663
000360 2c f1 1b 3e 84 8f a1 3e c3 ab 6d 3e a4 54 2e 3e
       0.15228719 0.31554806 0.23210053 0.17024475
000370 4c 80 b0 3d 2b d7 b9 3e 4a f6 87 3d 04 28 67 3e
       0.08618221 0.36296973 0.06638773 0.22573858
000380 3d ee 56 3e f8 c5 59 3e 15 49 69 3e 8d 96 91 3e
       0.20989318 0.21266925 0.22781785 0.28435174
000390 f6 bf ad 3e 97 f5 32 3e ea 49 c9 3e e0 ef d0 3e
       0.33935517 0.17476498 0.39314204 0.4080801
0003a0 10 e9 b0 3e 04 d6 87 3e 07 46 98 3e 26 76 e5 3e
       0.34552813 0.26530468 0.29740927 0.44816703
0003b0 45 22 be 3e de 01 f7 3d 47 a2 98 3e 0f 5a 64 3b
       0.3713552 0.12060903 0.29811308 0.0034843718
0003c0 f8 87 04 3f 1c e1 a8 3e 75 6f 99 3e d8 e8 06 3f
       0.5176997 0.32984245 0.29967847 0.5269904
0003d0 4c 62 7a 3d 20 74 84 3d 15 1e 8a 3e ba 70 c0 3e
       0.0611289 0.064674616 0.26976076 0.37586004
0003e0 73 3c 80 3d 3e 81 9f 3e 27 1b 8d 3e dd 56 a0 3e
       0.0626153 0.3115329 0.27559778 0.3131627
0003f0 b1 3d 7b 3e cc 2b 95 3e 7e 0b 9e 3e 9b c4 16 3f
       0.24535252 0.29134977 0.30868143 0.58893746

fc2.weight f4 [300, 400]
000000 0b 6c 6a 3f 34 9b 99 3e 22 2e 66 3f 46 89 a6 3d
       0.9157111 0.30001223 0.89914143 0.081316516
000010 96 bd 6e 3f e9 fa 4a 3f 0c 94 b2 3f de fd 7f 3e
       0.93258035 0.7928911 1.395143 0.24999186
000020 fd 80 87 3f 54 53 b3 3f 49 ae 04 3f 74 19 34 3f
       1.0586239 1.4009805 0.5182844 0.7035134
000030 1d a6 1b 3f e5 06 83 3f 2f 18 2c 3f 76 1f 15 3f
       0.60800344 1.0236479 0.672244 0.5825113
000040 da 71 b1 3e 1a a3 63 3f 6d 3d 36 3f 5d 70 51 3f
       0.34657174 0.8892075 0.7118748 0.8181208
000050 8f c0 25 3f 84 df 99 3f e2 41 b7 3d 6d 79 64 3f
       0.64746946 1.2021337 0.08948113 0.8924778
000060 2d 25 55 3f 99 7c 77 3f c9 0d 7d 3f 3b 4a b2 3f
       0.8325985 0.96674496 0.9884916 1.3928903
000070 d9 c5 5d 3f ea d4 19 3f c5 0f 7c 3f 97 59 d4 3e
       0.86630017 0.60090506 0.9846156 0.41474602
000080 21 17 34 3f 07 16 82 3f 01 5a b8 3f 9e 3a 89 3f
       0.7034779 1.0162972 1.4402467 1.0721014
000090 83 c0 16 3e 8c 22 86 3f 8b 8c 5f 3f c6 a9 2a 3f
       0.14721875 1.0479293 0.87323827 0.66665304
0000a0 4d 2d 92 3e e4 7c a1 3f d3 85 17 3f bf 1b 85 3f
       0.28550187 1.2616239 0.59188575 1.0399092
0000b0 26 eb 29 3f 8b 94 61 3f 40 ac 72 3f cb 54 f3 3e
       0.66374433 0.88117284 0.9479408 0.4752563
0000c0 5e e0 94 3f bc db 17 3f b3 b4 7d 3f 5a 5f 62 3f
       1.1630971 0.59319663 0.9910385 0.88426745
0000d0 74 a2 07 3f f0 ab 23 3f 84 6e ec 3f 04 38 25 3f
       0.5298226 0.6393423 1.8471227 0.645386
0000e0 78 7a 84 3f 49 73 03 3f ac ca 93 3e 6e 9d a9 3f
       1.0349874 0.51347786 0.28865564 1.3251169
0000f0 9f 92 6b 3f 43 45 10 3f 9d 8b c1 3e 18 d5 c9 3e
       0.920206 0.56355685 0.3780183 0.3942039
000100 0b 54 97 3f 20 e8 3d 3f d6 2f 69 3f 29 5c 9d 3f
       1.1822523 0.7418232 0.91088617 1.229375
000110 7c e8 13 3f 81 c4 40 3f 50 cf 4b 3f 43 e3 91 3e
       0.5777662 0.7529984 0.7961321 0.284937
000120 5a 30 83 3f 73 de 2e bf c6 10 c5 3e 4c ea 86 3f
       1.0249131 -0.6830818 0.3848936 1.0540252
000130 60 ec 31 3f f8 aa 75 3f 1a b0 b8 3e 27 ac 90 3f
       0.69501305 0.95964 0.36071855 1.1302537
000140 17 07 59 3f ea 3a 84 3f 48 e4 5c be fd 7e a6 3f
       0.84776443 1.0330479 -0.21571457 1.3007504
000150 53 fd 14 3f 7a d4 28 3f 16 3a 62 3f 92 d2 6e 3f
       0.5819904 0.65949214 0.8836988 0.93290055
000160 34 80 6d 3f 9c 1c 31 3e 75 d4 81 3f 74 d4 97 3f
       0.9277375 0.1729607 1.0142962 1.186171
000170 68 aa 0b 3f da b0 87 3f 5f 64 67 3f 77 85 9c 3e
       0.54556894 1.0600846 0.9038753 0.30570576
000180 4f ae df 3e 80 fa df 3e 95 93 bf 3f b1 56 52 3f
       0.43687674 0.43745804 1.4966913 0.8216353
000190 77 1c 5e 3f cd 58 a7 3f e0 ee 85 3f a0 89 52 3f
       0.86762184 1.3073975 1.0463524 0.8224125
0001a0 e6 a8 11 3f b9 69 48 3f 3a ff 90 3f c4 31 a7 3f
       0.56898344 0.7828632 1.1327889 1.3062062
0001b0 a6 a5 5f 3f 10 aa 59 3f a0 dd 37 3f 14 c1 94 3e
       0.87362134 0.8502512 0.7182255 0.29053557
0001c0 bf ee 75 3f 83 e4 44 3f 61 33 3b 3f 53 bf 13 3f
       0.9606742 0.7691118 0.73125273 0.5771381
0001d0 6b 2f 50 3f ac 3d e9 3e cc cb 7c 3f e7 70 b0 3e
       0.81322354 0.45554864 0.9874847 0.34461138
0001e0 2f af 68 3f fa 7d ff 3e d5 97 11 3e 1c 7b 81 3e
       0.9089231 0.499008 0.14218076 0.25289237
0001f0 e8 7b 3e 3f 17 b6 3a 3f 61 0d 37 3f 6f f0 e7 3b
       0.74407816 0.729341 0.7150479 0.0070782225
000200 b3 bc 09 3f 82 1c 0d 3f df 78 5f 3f 43 c8 4a 3f
       0.5380356 0.55121624 0.8729381 0.79211825
000210 5c 5e 60 3f 26 9d 5a 3f 3f 0b 15 3f 61 c9 2c 3f
       0.8764398 0.8539604 0.58220285 0.6749478
000220 72 e8 58 3f 10 8f 9a 3e cc 11 a1 3f 2e 37 41 3f
       0.84729683 0.30187273 1.2583556 0.7547482
000230 51 33 98 3d 09 65 7b 3f 2d 66 a6 3e f3 f6 97 3e
       0.07431663 0.9820104 0.3249983 0.29680595
000240 dd 7a 1f 3e 0c c9 1d 3f be e0 6f 3f c4 d9 72 3f
       0.15574212 0.616349 0.93702304 0.94863534
000250 b4 88 7c 3f fe 05 7a 3f ff e4 2f 3f 7a a7 61 3f
       0.9864609 0.97665393 0.68708795 0.88146174
000260 3d 78 67 3f f0 0b 65 3f 8d 92 2d 3f 37 bd 4c 3f
       0.90417844 0.8947134 0.67801744 0.7997622
000270 6b 34 60 3f 65 92 b8 3e 44 2d 31 3f 06 c3 17 3f
       0.87579983 0.3604919 0.69209695 0.5928196
000280 0e e0 1c 3f dd 14 64 3f e9 88 07 3f 84 94 30 3f
       0.6127938 0.89094335 0.52943283 0.68976617
000290 7e 48 93 3f 2c 45 36 be 3b 09 da 3d c0 4a 35 3f
       1.1506498 -0.17799824 0.10646292 0.70817184
0002a0 b5 28 10 3f 6b 76 4f 3f 04 89 be 3d f9 c2 29 3f
       0.56312114 0.81040066 0.093034774 0.6631313
0002b0 be 62 6d 3f 24 0f c0 3f 56 92 ad 3f 9d 41 41 3f
       0.92728794 1.500462 1.3560283 0.7549074
0002c0 dc ce ef 3e 28 31 ed 3e ba 68 bd 3e de e3 34 3f
       0.4683751 0.46326566 0.36993963 0.706602
0002d0 4d 68 5e 3f 93 cf ce 3e bf f1 b5 3f 7e 2f 33 3f
       0.868779 0.40392742 1.42144 0.6999434
0002e0 24 22 ff bd 9e 71 63 3f b4 a6 95 be eb cf 73 3f
       -0.12457684 0.8884524 -0.29228747 0.9523913
0002f0 ba f6 54 3f cf 85 b2 3f a5 cc bb 3f 28 72 6a 3f
       0.83188975 1.3947085 1.4671828 0.9158044
000300 3d 84 4f 3f c5 e0 e4 3e 72 a8 40 3f 8d 2c 8a 3f
       0.81061155 0.44702736 0.7525703 1.0794846
000310 97 71 b4 3e 53 bf 6f 3f 8b c4 21 3f ec 74 6d 3f
       0.35242912 0.9365131 0.63190526 0.92756534
000320 2e d6 fa 3e 8e ff 39 3f 0f d9 77 3f 1a f1 a7 3f
       0.4899153 0.7265557 0.9681558 1.3120453
000330 35 77 4a 3f 35 04 57 3f 31 9e 94 3f 4f 8c 0c 3e
       0.79088145 0.83990794 1.1610776 0.13725398
000340 7b 69 e6 3e 13 9e 79 3f 15 b4 22 3f a6 36 97 3f
       0.4500235 0.9750683 0.63556033 1.1813552
000350 66 5f 96 3f 50 f2 97 3e 1a f1 7d 3f bf a1 dd 3e
       1.1747863 0.29677057 0.99196017 0.43287465
000360 87 ca df 3e 99 5f a4 3e f4 ec 00 3f 79 c8 0f 3f
       0.43709204 0.32104185 0.5036156 0.5616527
000370 e1 cb 70 3f da f3 ea 3e 7e 8b 8c 3f 40 05 00 3f
       0.94061095 0.4588917 1.098007 0.5000801
000380 54 f5 b8 3f a6 41 0a 3f a4 27 64 3f a6 d7 5c 3f
       1.4449868 0.5400642 0.89122987 0.86266553
000390 fc a8 29 3f 27 36 7f 3f 27 2c 5b 3f d2 a0 57 3f
       0.66273475 0.99692005 0.85614246 0.8422977
0003a0 0a d9 7c 3f bc fa 8e 3f 72 fc 9d 3f bd 33 83 3f
       0.98768675 1.1170268 1.2342665 1.0250164
0003b0 e7 10 0f bf 9b ce 59 3f 9c 0c a9 3e 4c f7 6a 3f
       -0.55885166 0.8508088 0.33017433 0.91783595
0003c0 c1 5a 3f 3f d0 f2 d6 3e cc 47 82 3f c4 24 5e 3f
       0.74747854 0.41982126 1.0178161 0.8677485
0003d0 86 e2 38 3f 16 99 99 3f 55 83 f0 3e 3e 90 7d 3f
       0.7222065 1.1999843 0.46975198 0.9904822
0003e0 52 6f 68 3f 89 27 9e 3f 98 77 5f 3f 9a 0c 12 bf
       0.9079486 1.2355815 0.8729186 -0.5705048
0003f0 d5 95 b4 3f bc 32 4c be 50 bb 08 3f ee c1 1d 3f
       1.4108225 -0.19941229 0.53410816 0.6162404

fc2.bias f4 [300]
000000 6e 6b 42 3f a5 73 78 3f 3e 84 71 3f 9f a7 1b 3f
       0.75945175 0.9705146 0.9434241 0.60802644
000010 f1 a3 80 3f 50 eb 7c 3f 5b cb 94 3f be 29 88 3f
       1.0050031 0.9879656 1.1624559 1.0637739
000020 22 de 58 3f be b2 81 3f b9 ea 77 3f 27 7b 93 3f
       0.8471395 1.0132673 0.96842533 1.1521958
000030 29 2d 5d 3f 1e 21 80 3f 20 79 88 3f 54 3e 8b 3f
       0.86397034 1.0010107 1.0661964 1.0878396
000040 55 f2 3f 3f 56 5f 86 3f 82 3c 33 3f 97 1c 61 3f
       0.74979144 1.0497844 0.700142 0.8793425
000050 3c c1 9b 3f 1a cb 8c 3f 2c 27 2f 3f 28 ad 49 3f
       1.2168345 1.0999482 0.68419147 0.7877984
000060 78 01 96 3f 33 43 7c 3f c7 e5 a2 3f e1 f3 80 3f
       1.1719198 0.9854004 1.2726372 1.0074426
000070 b3 3b 67 3f 69 f6 6c 3f 2b 27 34 3f bc 25 87 3f
       0.9032547 0.9256349 0.70372266 1.0558391
000080 26 f4 40 3f 16 42 44 3f 13 b5 80 3f a9 ee 34 3f
       0.7537254 0.7666334 1.005526 0.70676666
000090 74 4d 88 3f d4 2a 8b 3f d2 c4 69 3f 9e f1 41 3f
       1.0648637 1.0872445 0.9131595 0.75759304
0000a0 ce 15 26 3f dd 26 7b 3f 33 09 89 3f 66 c4 89 3f
       0.6487702 0.98106176 1.0705932 1.0763061
0000b0 b5 03 6b 3f 1a 20 79 3f 8f 17 31 3f c3 2d 6f 3f
       0.9180253 0.9731461 0.6917657 0.934292
0000c0 bb 14 72 3f fb 50 45 3f 6f b2 7e 3f e1 c3 76 3f
       0.9456288 0.7707669 0.9949102 0.9639264
0000d0 1b ae 67 3f 95 a4 9a 3f e8 d0 6f 3f e4 45 74 3f
       0.9050004 1.2081476 0.9367814 0.95419145
0000e0 2d c1 79 3f 6c 1b 65 3f a2 c7 91 3f 16 9a 4e 3f
       0.9756039 0.8949497 1.1389048 0.80703866
0000f0 82 5c 8f 3f de cc 90 3f 44 52 7a 3f aa 42 41 3f
       1.1200106 1.131252 0.9778178 0.75492346
000100 94 2b 92 3f 8c 4c 88 3f 0b 0b 6a 3f 94 dc 4c 3f
       1.1419549 1.064836 0.914231 0.80024076
000110 1a 60 74 3f a5 f7 5e 3f 4b c0 7e 3f 71 99 5b 3f
       0.9545914 0.87096626 0.99512166 0.8578101
000120 4f 18 64 3f fb bf 84 3f 17 4b 70 3f b5 a2 85 3f
       0.8909959 1.0371088 0.9386458 1.0440279
000130 f5 d6 86 3f f6 81 7f 3f b2 5c 75 3f 1f 00 4d 3f
       1.053435 0.9980768 0.95844567 0.8007831
000140 40 37 21 3f c7 dd 5a 3f b9 4e 85 3f d9 42 82 3f
       0.6297493 0.85494655 1.0414649 1.017665
000150 a6 fd 8f 3f a9 dd 78 3f 52 2f 94 3f 17 0c 50 3f
       1.1249282 0.97213227 1.1576941 0.8126845
000160 71 01 72 3f 60 20 4a 3f c6 14 73 3f f4 c7 88 3f
       0.9453345 0.7895565 0.9495357 1.0686021
000170 34 f5 97 3f 4a c0 76 3f 17 e9 16 3f 24 9d 56 3f
       1.1871705 0.9638716 0.58949417 0.8383353
000180 a4 fc 87 3f e2 03 8e 3f c4 98 6e 3f 8a de 6b 3f
       1.0623975 1.1094935 0.9320185 0.9213644
000190 9c 39 4b 3f 63 2b 96 3f 6d 65 67 3f bc f4 42 3f
       0.7938478 1.173199 0.9038914 0.76154685
0001a0 61 98 82 3f ca 35 8b 3f 72 52 5c 3f 88 54 80 3f
       1.0202752 1.087579 0.860633 1.0025797
0001b0 ed c5 4e 3f 6e f8 6f 3f e0 76 46 3f 50 ba 58 3f
       0.8077076 0.9373845 0.7752514 0.8465929
0001c0 87 45 60 3f e9 6b 42 3f 5e 7d 4c 3f ef 92 70 3f
       0.8760609 0.7594591 0.79878795 0.939742
0001d0 4e 5d 5e 3f 16 b0 57 3f ce a5 56 3f a8 68 4d 3f
       0.8686112 0.8425306 0.8384675 0.8023782
0001e0 b9 af 67 3f 04 e4 8c 3f 6d 13 62 3f 27 c4 6d 3f
       0.90502506 1.1007085 0.8831089 0.9287743
0001f0 65 7a 87 3f cf e0 17 3f 9c d9 68 3f 22 b9 89 3f
       1.0584227 0.59327406 0.90957046 1.0759623
000200 6b b7 8b 3f 8c d2 7e 3f ba c8 63 3f 6a 7e a0 3f
       1.091535 0.9954002 0.8897816 1.2538579
000210 04 c0 22 3f 77 b4 8f 3f 55 3c 7f 3f cc cd 7a 3f
       0.6357424 1.1226948 0.99701434 0.9797027
000220 1d da 76 3f f9 58 83 3f af f4 66 3f 15 84 8a 3f
       0.96426564 1.0261527 0.9021711 1.0821558
000230 2d 20 19 3f 6d 67 89 3f e6 e6 5d 3f 0d 34 71 3f
       0.5981472 1.0734688 0.8668045 0.9422005
000240 1a 4f 7c 3f 06 eb 6c 3f 8c 44 4e 3f df ff 6f 3f
       0.985582 0.9254612 0.80573344 0.93749803
000250 ce ec 75 3f 8e 82 4e 3f 5b 5b 54 3f d3 19 40 3f
       0.9606446 0.8066796 0.829519 0.75039405
000260 59 d1 3e 3f 8f 26 61 3f 76 fc 8a 3f c0 00 6b 3f
       0.7453819 0.8794946 1.0858295 0.9179802
000270 cf 33 60 3f 1a 21 80 3f f5 80 8a 3f 3d 0b 8a 3f
       0.87579054 1.0010102 1.0820605 1.078468
000280 70 d6 8a 3f 3e a4 5a 3f 0e a1 76 3f 78 ef 5d 3f
       1.0846691 0.85406864 0.963395 0.86693525
000290 61 bd 82 3f f2 d7 4a 3f 5b 16 6d 3f f2 e5 5b 3f
       1.0214044 0.79235756 0.92612237 0.85897744
0002a0 9a e5 84 3f fa 36 65 3f 0d de 8e 3f cf 6b 79 3f
       1.0382569 0.8953701 1.1161515 0.9743013
0002b0 15 d7 6c 3f 6f 86 4b 3f 08 d4 6e 3f 13 4b 43 3f
       0.9251569 0.79502004 0.93292284 0.7628643
0002c0 b1 c6 96 3f 47 99 8c 3f 1d 04 45 3f 66 c2 7b 3f
       1.1779386 1.0984277 0.769594 0.98343503
0002d0 6d 22 8b 3f aa 67 4c 3f 1e cf 63 3f b5 24 87 3f
       1.0869881 0.7984568 0.8898791 1.0558077
0002e0 df da 76 3f 32 00 83 3f 2f 92 73 3f 8d 5b 72 3f
       0.9642772 1.0234435 0.95144933 0.94670945
0002f0 4c 52 90 3f 18 e6 7a 3f aa 7f 88 3f 84 70 58 3f
       1.1275115 0.98007345 1.066396 0.84546685
000300 a4 ba 65 3f c3 ab 53 3f c1 84 8b 3f c5 7f 59 3f
       0.89737916 0.8268396 1.0899888 0.84960586
000310 51 34 88 3f ca de 81 3f 1b b3 4f 3f a6 0f 56 3f
       1.0640966 1.0146115 0.8113267 0.8361763
000320 df 96 8b 3f 6a 01 7a 3f 6c cc 8e 3f 8d d3 54 3f
       1.0905417 0.9765841 1.1156135 0.831353
000330 5e ea 93 3f 87 91 5f 3f bd 55 71 3f 3a 63 84 3f
       1.1555898 0.8733143 0.9427145 1.0342782
000340 b5 cd 3e 3f 9b c5 7e 3f 52 43 94 3f c0 84 79 3f
       0.74532634 0.9952027 1.1583045 0.97468185
000350 6a 4b 45 3f c8 9a 37 3f fa d0 2e 3f bb bd 55 3f
       0.770682 0.7172055 0.6828762 0.8349263
000360 03 88 1a 3f 47 fc 83 3f a9 16 3f 3f 37 f5 82 3f
       0.6036379 1.0311364 0.7464395 1.0231084
000370 c4 cd 59 3f ce ad 82 3f c4 ab 62 3f b3 f0 67 3f
       0.850796 1.0209291 0.88543344 0.9060165
000380 48 e2 67 3f d0 b9 84 3f 96 93 72 3f f0 93 57 3f
       0.9057965 1.0369205 0.9475645 0.8421011
000390 cb d1 5c 3f a8 11 5e 3f 3e 44 5e 3f c9 51 7d 3f
       0.8625762 0.8674569 0.8682288 0.9895292
0003a0 12 e0 43 3f a5 9c 76 3f 81 a9 7a 3f e8 c7 7c 3f
       0.7651378 0.9633277 0.9791489 0.9874253
0003b0 74 c0 48 3f ec 8c 95 3f 55 5d 89 3f 18 83 83 3f
       0.7841866 1.1683631 1.0731608 1.0274382
0003c0 d7 b4 43 3f b6 b8 69 3f 7a 57 7a 3f 9f 57 7b 3f
       0.76447815 0.9129747 0.9778973 0.98180574
0003d0 6a 95 81 3f d8 58 87 3f 2d 7f 89 3f 2c 95 48 3f
       1.0123723 1.0573988 1.0741936 0.7835262
0003e0 5b c2 69 3f fb 51 55 3f b1 87 5b 3f 78 7e 83 3f
       0.9131219 0.8332822 0.85753924 1.027297
0003f0 70 84 70 3f a2 15 30 3f 33 db 61 3f f3 94 56 3f
       0.93952084 0.6878301 0.88225096 0.8382103

bn1.weight f4 [400]
000000 ec 13 87 3f f3 f6 54 3f 64 e6 2c 3f 2a cf e2 3f
       1.0552955 0.83189315 0.6753905 1.7719471
000010 b1 dc fa 3f f0 4e ce 3f f4 30 af 3f f3 0c b4 3f
       1.95986 1.611784 1.3686814 1.4066452
000020 0e 5e 21 3f a5 ae 8e 3f ef e6 86 3f 3d 90 cf 3f
       0.6303414 1.1147047 1.0539225 1.6215893
000030 90 69 8d 3f 25 9b 65 3f 33 c4 9c 3f 0b e1 48 40
       1.104784 0.89689857 1.2247375 3.1387355
000040 a6 44 b1 3f 7d 5d d6 3f d4 70 44 3f d8 ba 81 3e
       1.3849075 1.674728 0.7673466 0.25337863
000050 12 52 27 3f b6 85 14 40 03 fd b8 3f 0e 0c 5e 3f
       0.65359604 2.320661 1.4452213 0.86737144
000060 df 57 36 3f 50 c6 88 3f 29 fe 93 3f 5b 29 a7 3f
       0.7122783 1.068552 1.1561939 1.3059496
000070 d5 aa b6 3e 9a f1 af 3f c3 e7 9b 3f ce 4d 9b 3f
       0.3567721 1.3745606 1.2180103 1.2133119
000080 d9 05 8f 3f 3a c3 8a 3f f9 75 a0 3f c3 38 8c 3f
       1.117366 1.0840828 1.2536002 1.0954822
000090 2c 05 fb 3f e6 b0 98 3f 49 93 04 3f 89 3a f4 3f
       1.9610953 1.1928985 0.5178724 1.9080364
0000a0 e7 e8 da 3f 2b 3d cd 3f 5a 47 f2 3f 3e 90 e6 3e
       1.7102326 1.6034292 1.8928025 0.45031923
0000b0 15 ed a2 3f da 80 92 3f f2 6f 91 3f c8 ea b3 3f
       1.2728602 1.1445572 1.1362288 1.4056025
0000c0 0d 00 66 3f 31 82 41 3f cd a4 a8 3e c0 c6 a2 3f
       0.8984383 0.7558928 0.32938233 1.2716904
0000d0 74 ab 96 3f 85 a7 17 3f 20 60 06 40 21 0d 84 3f
       1.1771073 0.5923999 2.099617 1.0316507
0000e0 87 ea 9b 3f 5f 0e 9b 3f e6 44 b8 3f 4a 5c c2 3f
       1.2180947 1.2113761 1.4396026 1.5184414
0000f0 44 6c d5 3e 0c d8 00 40 56 33 af 3f d0 f2 6c 3f
       0.41684163 2.0131865 1.3687541 0.92558
000100 12 47 f7 3f 02 d9 56 3f e9 18 a7 3f 21 60 51 3f
       1.9318564 0.8392488 1.3054477 0.81787306
000110 9e a5 c1 3f e9 d1 99 3f 78 7d 9d 3f 59 4b b2 3f
       1.5128667 1.2017184 1.2303915 1.3929244
000120 5d 5b 72 3f fa 79 2b 40 de b4 e9 3f ad fe c0 3f
       0.9467066 2.6793199 1.8258321 1.5077721
000130 9d f5 c7 3f f6 ca de 3f 7f 02 e5 3f 22 c6 2a 3f
       1.562183 1.7405689 1.7891387 0.66708577
000140 11 90 99 3f 17 cc 00 3f 3f 06 13 40 1c cb cc 3e
       1.199709 0.50311416 2.2972562 0.3999871
000150 2c 6b a7 3f 94 f3 80 3e 65 0e 2e 3f 1e a6 8c 3f
       1.3079581 0.25185835 0.67990714 1.0988195
000160 da 1f 01 3f 2c a1 f3 3f 3e 69 b9 3f 5e 47 57 3f
       0.50439227 1.9033561 1.4485242 0.8409327
000170 42 4d 5e 3f 78 9d 93 3f f3 a8 81 3f 18 b1 b8 3f
       0.86836636 1.1532431 1.0129684 1.4429045
000180 48 90 8d 3f 45 10 79 3f 89 47 c2 3f 2c d1 4f 3f
       1.1059656 0.9729045 1.5178081 0.81178546
000190 f3 cf 80 3f 65 cc ce 3f 41 8f 94 3f 2e d8 d4 3f
       1.0063461 1.6156126 1.1606218 1.6628473
0001a0 04 9b 90 3f 5f b1 69 3f 53 ce f7 3f d0 ce d0 3f
       1.1297307 0.9128627 1.935984 1.6313114
0001b0 29 6e 9d 3f 40 e0 89 3f a7 e4 a1 3f f7 ef aa 3f
       1.2299243 1.0771561 1.2647904 1.3354481
0001c0 7b dd 7f 3f 96 60 44 3f 83 93 97 3f 9b e2 c7 3f
       0.9994733 0.7670988 1.1841892 1.561603
0001d0 8b 7e c0 3f 48 a8 6b 3f a1 0d 50 3f bc 6d ab 3f
       1.5038618 0.9205365 0.81270796 1.3392863
0001e0 5d cf c5 3e 1f e2 c6 3f c1 d3 b8 3f 11 50 cc 3f
       0.38634768 1.5537757 1.4439622 1.5961934
0001f0 92 bb 71 3f 4f 1a 12 3f 0f 49 8f 3f e4 8e 51 40
       0.94426835 0.57071394 1.1194171 3.2743464
000200 1f 86 ab 3f cf 18 87 3f cc 06 91 3f a2 95 b0 3f
       1.3400306 1.0554446 1.1330199 1.3795664
000210 a0 37 ab 3f 1e 74 81 3f 04 0a 48 3f c1 cf 87 3f
       1.337635 1.0113561 0.7814028 1.0610276
000220 24 ac 91 3f 20 e2 bc 3f c0 d1 f9 3f f1 08 ac 3f
       1.1380658 1.4756508 1.9517136 1.3440229
000230 60 d8 b5 3f e2 ad 4b 3f 2f 80 86 3f 64 4d e9 3f
       1.4206657 0.795622 1.0507869 1.8226743
000240 9b ff 84 3f 65 10 91 3f 71 dd 1c 3f f1 b7 09 3f
       1.0390505 1.1333128 0.6127539 0.537963
000250 39 5c af 3f b7 b3 b1 3f a9 50 b4 3f 63 1c 85 3f
       1.3700019 1.388297 1.4087116 1.0399288
000260 c3 08 91 3f e2 8f 01 3f b6 b5 e8 3f 86 ab 3b 3f
       1.1330799 0.5061017 1.8180454 0.733086
000270 33 3c 87 3f e1 2d 69 3f d8 dd 40 3f 7c 2f 20 3f
       1.0565246 0.9108563 0.75338507 0.62572455
000280 1e 63 6e 3f e1 79 c2 3f 7a 9a 54 3f 42 b8 40 3f
       0.9311999 1.5193444 0.8304821 0.75281155
000290 33 28 90 3f 3b c2 24 40 2c bb a1 3f 69 49 8c 3f
       1.1262268 2.574355 1.2635245 1.0959903
0002a0 12 b7 7b 3f f5 f9 b6 3f 9c c9 d6 3f 44 32 3e 3f
       0.9832622 1.4295031 1.6780276 0.7429545
0002b0 54 6a c3 3f ea ee a5 3f ce 38 af 3f 16 da 3c 3f
       1.5266824 1.2963536 1.368921 0.7377027
0002c0 39 1c 35 40 2e 18 77 3f 72 98 aa 3f 57 50 24 3f
       2.8298476 0.9652127 1.3327773 0.6418509
0002d0 5d 99 d4 3f d5 92 5f 3f 7f f9 b1 3f cf 89 a5 3f
       1.6609303 0.8733342 1.3904265 1.2932681
0002e0 3b 08 c2 3f 8e e3 4f 3f 17 91 3f 40 e2 aa 13 3f
       1.5158762 0.81206596 2.9932306 0.5768262
0002f0 62 51 5a 3f 30 a5 80 3f cb 6a a5 3f 3c 18 9d 3f
       0.8528043 1.0050411 1.2923216 1.2273021
000300 7d ec b9 3f fc ab a0 3f 61 8f b5 3f 15 64 53 3f
       1.4525295 1.2552485 1.4184381 0.8257459
000310 be 20 89 3f 8e 9e 8d 3f 66 25 77 3f c7 50 44 3f
       1.0713117 1.1064012 0.9654144 0.76685756
000320 b0 c7 8d 3f 2f 6c a2 3f 5a 57 8d 3e 10 d3 b6 3f
       1.1076565 1.2689265 0.27605706 1.4283161
000330 44 ff b2 3f e7 7d 84 3f b4 14 4e 3f 84 e7 15 40
       1.3984151 1.0350922 0.8050034 2.3422556
000340 30 57 81 3f d7 b9 dc 3f 2e 3b 81 3f 6d 9f 7f 3f
       1.0104733 1.7244214 1.0096185 0.9985264
000350 6b 21 aa 3e 96 dd a0 3f 0b bb d5 3e 6f 37 08 3f
       0.3322862 1.2567623 0.41744265 0.53209585
000360 e4 23 c6 3f 7b cb e0 3f 9e fb ae 3f 17 ba 55 3f
       1.5479703 1.7562097 1.3670537 0.83487076
000370 ec 46 36 3f e5 b9 b4 3f 22 0f c4 3f 6e a9 76 3f
       0.7120197 1.411923 1.5317118 0.9635228
000380 71 9c 30 3f ed 59 8c 3f 28 03 3c 3f f8 a0 50 3f
       0.6898871 1.0964943 0.73442316 0.8149562
000390 6d 59 3f 40 d2 1c be 3f 82 aa 6d 3f 3d 25 0f 3f
       2.989833 1.4852545 0.928383 0.55916196
0003a0 36 f7 c7 3f a5 1b 0a 3f ab 10 a3 3f fc 5c d2 3f
       1.5622318 0.5394843 1.2739462 1.6434627
0003b0 e6 be 3c 40 41 ae 82 3f 28 b4 8e 3f c3 a5 48 3f
       2.9491515 1.0209428 1.1148729 0.7837793
0003c0 5e 09 8d 3f 65 7c ce 3f b1 03 e9 3e 58 b8 3a 3f
       1.1018484 1.6131712 0.4551063 0.72937536
0003d0 ec b6 35 3f 56 65 85 3f a9 2f 10 3f 2b c0 7c 3f
       0.7098224 1.042155 0.56322724 0.98730725
0003e0 80 e3 a8 3f c0 16 59 3f 02 f0 8b 3f 97 75 3b 40
       1.3194427 0.8480034 1.093262 2.929052
0003f0 a9 e9 cb 3f 0f 51 e8 3f 6f 9b f2 3e 12 5c 51 40
       1.5930682 1.8149737 0.4738421 3.2712445

bn1.bias f4 [400]
000000 bf 92 af be a6 17 33 bf 61 8d ef be 41 a3 3f 3d
       -0.34291646 -0.6995796 -0.4678755 0.04678655
000010 28 e7 15 be 62 fd 49 3e b3 5c 9a be ee 87 b3 be
       -0.1463896 0.19725564 -0.3014885 -0.35064644
000020 11 e8 fd be 08 b6 d7 be a2 51 c8 be 36 a8 a1 bd
       -0.49591115 -0.42131066 -0.3912478 -0.07893412
000030 52 16 a0 be e0 ce 86 be ad a0 8c be b4 a6 98 3d
       -0.3126703 -0.26329708 -0.27466336 0.07453671
000040 e9 7d 45 be d1 b8 50 be b8 a4 e4 be ea 9d 16 bf
       -0.19286312 -0.20383002 -0.4465692 -0.5883471
000050 64 68 14 bf 70 48 c1 bd 34 f5 a9 be 5a 2a 08 be
       -0.5797179 -0.094376445 -0.33194888 -0.13297406
000060 92 5e 27 bf 30 00 44 be 3b b7 77 be bf c2 8d be
       -0.6537868 -0.19140697 -0.2419099 -0.27687642
000070 49 18 2b bf 6b d6 84 be 78 a3 42 be 53 8a 90 3d
       -0.6683393 -0.25944838 -0.19007671 0.07057633
000080 f5 8a 69 be d2 8f dc be 2f f7 65 be fe 1d 93 be
       -0.22806914 -0.43078476 -0.22457574 -0.2873382
000090 1f f2 83 bd 38 fd b4 be a2 69 27 bf 29 b5 7c 3d
       -0.06442665 -0.3534944 -0.6539556 0.061696205
0000a0 d9 e9 c4 bd 4b 13 3c be 84 c7 9c 3d 6a bd 3d bf
       -0.096149154 -0.18366735 0.07655242 -0.7411715
0000b0 4d 77 f6 bd 6e 4c 57 bd bf 33 14 be 95 b7 41 be
       -0.120344736 -0.052563123 -0.14472865 -0.18917687
0000c0 0c ec d7 be 37 27 d4 be 00 df 37 bf 9f b8 0e bc
       -0.42172277 -0.4143617 -0.71824646 -0.008711009
0000d0 d9 7a 26 bf c1 0e d3 be 20 ee 19 be 68 c9 aa be
       -0.650312 -0.41222194 -0.15032244 -0.33356786
0000e0 a6 ae b4 be 0d 0e 42 be 14 95 18 be 09 53 4f be
       -0.35289496 -0.18950672 -0.14900619 -0.20246519
0000f0 8e ca d2 be 14 6b ed bd 03 4a 86 be 5e 2c f3 be
       -0.41170162 -0.11592689 -0.2622834 -0.47494787
000100 d1 01 8a be 6b 3a 1c bf 90 d6 80 be 3d dc b1 be
       -0.2695451 -0.6102664 -0.25163698 -0.3473834
000110 7e d9 47 be 23 a3 79 be 68 b9 30 bd 32 85 30 be
       -0.1951656 -0.24378638 -0.043145567 -0.1723831
000120 de 26 b8 be df 02 0f be 1e 09 e3 3d b7 49 8b be
       -0.35967153 -0.13965939 0.11085723 -0.27204677
000130 ef ca d9 be 7b 97 33 be d9 4c 48 3e 92 34 d8 be
       -0.4253764 -0.17538254 0.19560565 -0.42227608
000140 ee 7e 83 be 33 50 05 bf eb e9 4f 3e 3a 7e 2a bf
       -0.25682777 -0.520755 0.20304076 -0.66598856
000150 12 a5 c0 be 27 6e 3f bf 0b 53 d9 be c6 36 a2 be
       -0.3762594 -0.74777454 -0.4244617 -0.31682414
000160 48 c3 23 bf 04 e6 5a 3e 57 56 03 be c3 e1 df be
       -0.6396985 0.21376806 -0.12825905 -0.4372693
000170 ab 6e 07 bf e4 ee aa be ad 20 7e be d6 17 c0 be
       -0.5290324 -0.33385384 -0.24817152 -0.37518185
000180 97 a6 86 be 61 60 04 bf 4f df 53 be 67 33 f9 be
       -0.26298973 -0.5170956 -0.20690654 -0.4867203
000190 1b 4b a8 be 2a 7c 73 be 66 37 3a be 86 30 2d be
       -0.328698 -0.23777834 -0.18185195 -0.16913041
0001a0 20 44 d0 be e7 f1 ea be 81 f4 8b bd 63 28 9f bd
       -0.40676975 -0.45887682 -0.06833745 -0.07771375
0001b0 6a 42 9c be 16 39 d1 be 30 dd 8e be 45 16 86 be
       -0.3051942 -0.40863866 -0.27903128 -0.26188865
0001c0 58 e6 85 be 74 12 0b bf 5f 9b 13 3c be 4f 34 be
       -0.261523 -0.5432503 0.009009211 -0.17608544
0001d0 de 41 19 be 9a 1d 8e be 7c 78 86 be bd bd bf be
       -0.14966533 -0.2775696 -0.26263797 -0.37449446
0001e0 b3 fd f5 be 80 7d 1f be 7c 0e 0d be 15 e0 f3 3c
       -0.4804512 -0.15575218 -0.13775057 0.029769937
0001f0 1b ad b0 be f2 6d 37 bf 8d 95 c8 be 03 92 1e be
       -0.3450707 -0.7165214 -0.39176598 -0.15485387
000200 a8 8d e0 bd 84 b8 da be 74 87 e3 be 40 4d 86 be
       -0.10964519 -0.427189 -0.4443928 -0.26230812
000210 dc d1 5b be 04 49 1b bf 16 d6 79 be ca 6a ea bd
       -0.21466774 -0.6065829 -0.24398074 -0.1144615
000220 6f 5e 78 be 4d 15 91 be 31 22 2f be a6 b7 f0 be
       -0.24254774 -0.28336564 -0.17102887 -0.47015113
000230 1b 69 c3 be 05 da f2 be c6 13 04 bf ca c2 be be
       -0.38166127 -0.4743196 -0.5159267 -0.37257987
000240 9a 40 0e bf 15 56 d0 be 92 1a d0 be 47 61 f0 be
       -0.55567324 -0.40690675 -0.40645272 -0.46949217
000250 0b a3 8d be 37 65 38 be ee 07 8e bd 2d 0c 56 be
       -0.27663454 -0.1800736 -0.06935106 -0.20903082
000260 9e 2d de be 25 88 19 bf 98 41 ad bd 93 14 b0 be
       -0.43394178 -0.59973365 -0.08459777 -0.34390697
000270 e7 85 4a be 2d 66 d8 be 46 f1 a0 be 9a f9 c6 be
       -0.19777642 -0.42265454 -0.31434077 -0.38862306
000280 7d fd 94 be 45 0a 85 bd 58 bc 18 bf d9 da 25 bf
       -0.29099646 -0.064960994 -0.5966239 -0.6478706
000290 23 d1 75 be ce 29 ab bd d3 2c c5 be 0a a2 2e bf
       -0.2400556 -0.08357583 -0.3851076 -0.68216
0002a0 e6 6f b1 be 2b e7 a2 be 2d c4 f8 bc dc 30 22 bf
       -0.34655684 -0.31816992 -0.030366981 -0.63355803
0002b0 7c c5 73 be b9 53 d3 be a0 d4 99 be 79 5d ef be
       -0.23805803 -0.41274813 -0.30045033 -0.46751
0002c0 d5 11 1e be 4e 5e c1 be 9e 87 8d be f8 d1 00 bf
       -0.1543649 -0.3776726 -0.2764253 -0.50320387
0002d0 e7 43 c1 be 13 bb 38 bf c7 00 83 be 6d 9b 93 be
       -0.37747118 -0.7216045 -0.2558653 -0.28829518
0002e0 08 dc 19 be 6e de fb be 31 a7 f1 3e b2 5d 12 bf
       -0.15025342 -0.49193138 0.4719787 -0.5717422
0002f0 47 89 81 be 0c 29 bd be 5a a7 8d be 60 b5 96 be
       -0.25300047 -0.3694538 -0.27666742 -0.29435253
000300 90 22 2a be 09 64 a3 be bc a0 dc be 7a 7b c7 be
       -0.16614747 -0.31912258 -0.4309138 -0.38961393
000310 d3 23 c0 be f9 8b ba be 0c ca 83 bc ef b5 c7 be
       -0.37527332 -0.36434916 -0.016087554 -0.39005992
000320 55 3c 0c bf 62 b0 c3 3d ab f1 1c bf 8e f7 48 be
       -0.5477956 0.09555127 -0.61306256 -0.19625685
000330 c6 91 33 be b2 56 d1 be 82 53 99 be 56 02 15 3f
       -0.17536077 -0.40886456 -0.29946524 0.5820669
000340 57 83 3b be fc 4b 2a be 82 4c c7 be 4d 0e bd be
       -0.18311821 -0.16630548 -0.38925558 -0.36924973
000350 ee fd 39 bf c2 e3 95 be e2 65 43 bf 64 70 39 bf
       -0.7265309 -0.29275328 -0.76327336 -0.7243712
000360 91 47 c9 be b2 13 90 bd 11 ee 0f bd 61 42 1f bf
       -0.39312413 -0.070350066 -0.035139147 -0.6221066
000370 dd 84 e2 be e6 02 78 be 96 4f 30 be 1d e6 fe be
       -0.44241992 -0.24219856 -0.1721786 -0.49784938
000380 1d c2 0d bf 71 dd bf be 85 96 15 bf ae 21 0f bf
       -0.5537432 -0.37473634 -0.584328 -0.55910766
000390 66 80 dc bd 53 7e 97 be bb e4 d2 be fe a2 97 be
       -0.107666776 -0.29588565 -0.41190132 -0.2961654
0003a0 e6 58 a6 bb aa 91 25 bf dc 79 71 be 32 38 19 be
       -0.0050765155 -0.6467539 -0.23581642 -0.14962843
0003b0 4e c3 a8 3e be 6e db be 3a 7c a9 be ec 92 b4 be
       0.32961506 -0.42857927 -0.3310259 -0.35268342
0003c0 a0 c6 b0 3c 62 44 d9 bd 43 8b 0a bf d3 6b aa be
       0.021579087 -0.10608746 -0.54118747 -0.33285388
0003d0 86 1c 0d bf 77 46 a9 be 48 b8 23 bf 39 40 a4 be
       -0.5512165 -0.33061573 -0.63953066 -0.32080248
0003e0 5f 78 85 be 12 00 e5 be d9 bb ac be dc 55 91 3e
       -0.26068398 -0.44726616 -0.33737066 0.28385818
0003f0 bc 93 5d be 83 10 8a be 33 e4 39 bf 95 48 d0 3d
       -0.21638387 -0.26965722 -0.7261383 0.10170094

bn2.weight f4 [300]
000000 4d 7a d9 3f e1 ce 86 3f e6 24 64 40 2b de 86 3f
       1.6990448 1.0531884 3.564752 1.053655
000010 d5 b8 04 40 45 45 d5 3f 95 68 ca 3f 77 45 17 40
       2.0737813 1.6661764 1.5813166 2.3636148
000020 23 2c e8 3e a0 b8 87 40 da a3 2b 40 4e a9 8d 3f
       0.45346174 4.241287 2.6818757 1.1067293
000030 54 a3 11 40 6f a0 0b 40 9a 7c 80 3f c5 11 30 40
       2.2755938 2.181667 1.0038025 2.7510846
000040 1a fb a2 3f b1 8d 69 3f ef f5 36 40 09 1b 50 40
       1.273288 0.9123183 2.8587606 3.25165
000050 bf e9 9d 3e ee 52 14 40 8e a5 8e 3f d2 31 13 3f
       0.30842397 2.3175616 1.1144273 0.57497895
000060 d5 80 0c 3f b4 82 68 40 bf fa 52 3f d5 a1 b5 3f
       0.5488408 3.6329775 0.8241386 1.4190012
000070 d7 51 92 3f b4 1e 42 40 0f d9 49 40 b3 17 10 40
       1.1431226 3.033124 3.1538732 2.2514465
000080 fa 3a 2e 40 e2 73 2a 40 fd bf a3 3f 32 fd df 3f
       2.7223496 2.663323 1.2792965 1.7499144
000090 6d 7b 78 3f fc bb ba 40 5a f5 2b 40 2e 77 93 40
       0.9706333 5.8354473 2.68685 4.6082983
0000a0 97 10 97 3f a3 69 05 40 41 ba 48 3e a5 b4 42 3e
       1.1801938 2.0845726 0.196023 0.19014223
0000b0 c4 c5 b9 3f c4 3a 0e 40 9e a8 0c 40 21 b7 96 3f
       1.4513478 2.2223368 2.1977916 1.1774637
0000c0 87 31 1a 40 6b da 8c 3f 92 e8 88 3f 0c d8 2a 40
       2.409273 1.1004156 1.0695975 2.6694365
0000d0 ce 12 07 40 16 e7 b9 3f b7 a5 01 40 f8 64 1c 40
       2.1105227 1.4523647 2.0257394 2.4436626
0000e0 c7 e9 ad 3e 92 fd a1 3f 37 e3 4e 3f 50 d9 07 40
       0.3396742 1.2655509 0.8081545 2.1226387
0000f0 c6 a3 c0 3f 92 da 0c 40 c6 28 d4 3f 48 17 01 40
       1.504998 2.2008405 1.6574943 2.017046
000100 34 b4 d0 3f 80 db 49 3f 6a 81 29 40 bf 48 a5 3f
       1.6304994 0.78850555 2.6485238 1.2912825
000110 27 f5 cd 3f 94 9d d0 3f 8c 5a f6 3f 31 8d 0e 40
       1.609044 1.6298089 1.9246383 2.2273676
000120 59 93 15 40 1b b9 9a 3f 40 f6 09 40 13 cf 7b 40
       2.3371184 1.208774 2.155655 3.9345138
000130 2b 45 9c 3f 43 02 e8 3f e6 da ae 3f a9 c6 08 40
       1.2208608 1.812569 1.3660553 2.1371253
000140 37 7a ac 3f bc f3 1c 40 54 53 38 3f 40 a6 a6 3f
       1.3474797 2.4523764 0.7200215 1.3019485
000150 3f ed 75 3e 0c 42 ec 3f 6c d0 ab 3e 3f 79 35 40
       0.24016283 1.8457656 0.3355745 2.8355253
000160 3f 7e ce 3f 79 7b 4d 40 0a 63 37 40 f6 e4 84 3f
       1.6132277 3.2106612 2.8654199 1.0382373
000170 49 1d d8 3f 1a 42 03 40 f9 fc b9 3f 56 89 89 3f
       1.6883937 2.0509095 1.4530326 1.0745037
000180 1a 6d b6 3e 8e b3 c7 3e e0 e4 fc 3f 34 41 0b 40
       0.35630113 0.39004177 1.9757347 2.1758547
000190 52 4e aa 3f 34 cf e2 3f 17 1f f7 3f f4 b1 5f 40
       1.3305151 1.7719483 1.9306363 3.4952364
0001a0 44 b6 e8 3f 38 b3 fd 3f 96 ef f3 3f 91 75 0b 40
       1.8180623 1.9820318 1.9057491 2.1790507
0001b0 92 bd b4 3f 93 68 30 40 3a e3 0b 40 40 e7 00 40
       1.4120352 2.7563827 2.1857438 2.0141144
0001c0 3e 09 98 3f 26 d3 3f 40 32 c9 dc 3f 74 37 87 3f
       1.187782 2.9972625 1.72489 1.0563798
0001d0 cf 67 a2 3f 81 37 50 40 0e c1 06 40 a1 2a 11 40
       1.268793 3.2533877 2.1055331 2.2682269
0001e0 09 ab de 3f 4d 88 f0 3f 10 1e 3b 40 2a 59 b6 3f
       1.7395946 1.8791596 2.9237099 1.4245961
0001f0 9a 13 d4 3f 35 f2 8a 3f 8c 60 c4 3f cf 18 b3 3f
       1.6568482 1.0855166 1.5341964 1.3991946
000200 30 45 43 3e 53 cb 26 40 3c d4 03 40 a0 b8 9b 3e
       0.19069362 2.60616 2.0598288 0.30414295
000210 33 41 92 3f 1e 9d 7e 3f 95 e7 77 3e 58 9f 29 40
       1.1426147 0.9945849 0.24209435 2.6503506
000220 0a fa 1c 40 b3 bf b3 3f 3c 56 2e 40 79 cc be 3f
       2.4527612 1.4042877 2.7240133 1.490615
000230 33 de cf 3f ec 5a ba 3e 7d 9b 1c 40 04 51 c0 3e
       1.6239685 0.36397493 2.4469903 0.3756181
000240 7c 2b ae 3f b0 d7 bb 3f 45 4a e3 3f f1 a9 84 3f
       1.360702 1.4675198 1.775704 1.0364362
000250 00 fe 9d 3e 2c a7 d4 3f 23 fd 5c 40 27 2a b6 3f
       0.3085785 1.6613517 3.4529502 1.4231614
000260 25 19 43 40 82 68 81 3f ea da eb 3f 1c 0f c5 3f
       3.0484097 1.0110018 1.8426182 1.5395236
000270 85 7e e3 3f 98 a8 12 3f b2 82 11 3f 6d 59 8a 3f
       1.7772986 0.57288504 0.5684005 1.080854
000280 cf ce 85 3f e7 d2 49 3f 4b 74 51 3f 1e e0 b8 3e
       1.0453738 0.78837436 0.81818074 0.36108488
000290 3e ba 58 40 b2 8b 07 40 57 44 df 3f fc 72 03 40
       3.3863673 2.1179013 1.7442731 2.053893
0002a0 7a 0b 89 3f 1e 3e 9a 40 f5 95 ac 3f 06 c7 94 3e
       1.0706627 4.8200827 1.3483263 0.29058093
0002b0 67 e2 82 3f 4d 77 31 40 f0 d1 1a 40 42 1a fe 3f
       1.0225343 2.7729065 2.4190636 1.9851763
0002c0 1f 97 b5 3f 89 7f 6b 3f b2 c6 eb 3f f0 73 98 3f
       1.4186743 0.9199148 1.8420012 1.1910381
0002d0 04 65 06 40 77 0f a6 3f bc a5 e4 3f d6 87 7a 3e
       2.0999155 1.297347 1.7863078 0.2446588
0002e0 7f 50 aa 3f 14 5b ed 3f a6 da fa 3f 51 be fc 3f
       1.3305815 1.854342 1.9597976 1.974558
0002f0 e3 e8 8c 3f 12 b3 df 3f 5f 43 79 3f 08 95 7f 3f
       1.1008571 1.7476523 0.97368425 0.9983678
000300 df 52 f2 3f 8f 19 b3 3f 6f 20 a5 3f 98 5d 16 40
       1.893154 1.3992175 1.2900523 2.3494625
000310 fe a7 35 3e a7 0b e1 3f f1 94 09 40 a6 49 2a 40
       0.17739865 1.7581681 2.1497157 2.6607451
000320 1d 14 fb 3f 17 b5 b5 3f 6f c4 65 3e 55 e5 23 40
       1.9615513 1.4195889 0.22438215 2.5608723
000330 18 87 92 3f b1 95 03 40 6f 07 a8 3f 69 a3 e8 3f
       1.1447477 2.0560114 1.3127269 1.8174869
000340 8c 98 38 40 f8 de f1 3f b4 95 c9 3f 6a 16 27 40
       2.8843107 1.889617 1.5748811 2.610743
000350 37 78 fe 3f 65 8b af 3f b6 b1 4a 40 e8 29 45 40
       1.9880437 1.3714415 3.1670966 3.0806828
000360 0b 5d 1d 40 4a 58 d8 3f 30 0f 22 40 1d fa 1e 40
       2.458804 1.6901944 2.532177 2.4840157
000370 22 7b de 3f 0c 70 d3 3f fc 70 1b 40 d2 9d b0 3f
       1.7381327 1.6518569 2.428771 1.3798163
000380 76 90 0e 40 bb 9c 8f 40 59 ce 10 40 30 41 33 3f
       2.2275672 4.487882 2.2625945 0.70021343
000390 d9 87 e7 3f f5 2e b2 3f c8 9a bf 3f d7 89 be 3f
       1.8088332 1.392058 1.496911 1.4885815
0003a0 e3 27 0c 40 e6 ed 99 3f 33 fb ab 3f 74 40 b7 3f
       2.1899345 1.2025726 1.3436035 1.4316545
0003b0 a3 8e 02 40 af 41 37 3f 89 b8 b5 3e 30 1c b0 3f
       2.0399559 0.715846 0.35492352 1.3758602
0003c0 d3 c6 84 3f 6d 5f d5 3f c4 89 a7 3f 86 08 f4 3e
       1.0373176 1.6669747 1.3088918 0.47662753
0003d0 8b 11 12 3f 7f 36 dd 3f ba b0 5c 3f fc 65 07 40
       0.5705802 1.7282256 0.86207163 2.1155996
0003e0 d9 92 cc 3f fc a7 bd 3f b3 46 8d 3f 35 c8 82 3e
       1.5982314 1.481689 1.1037201 0.2554337
0003f0 ee 28 a6 3e 48 96 f1 3f 9a 8f 8b 40 4a 21 42 40
       0.32453102 1.8873987 4.3612795 3.0332818
