tmp/ddpg/actor_ddpg.pth (torch, 511239 bytes, 10 tensors)

fc1.weight f4 [400, 11]
0.034774225 -0.31536305 0.38100207 0.10055821 0.40813032 0.7194213 0.4890519 0.4792115
0.5910004 0.59234005 0.58015895 0.56298125 -0.6786225 0.63948894 -0.052712783 0.5017321
1.0352074 0.8717103 0.54526466 0.7772712 0.7163594 0.7252669 0.64982843 -0.67607534
0.40764087 -0.03650739 0.6873972 1.241185 0.55195445 0.33718723 0.42799878 0.40465847
0.46933338 0.6541341 -0.5591406 0.21270993 -0.025884653 0.58832425 -0.5510596 0.305112
0.4161313 -0.099830724 0.19634448 0.046995405 -0.3446724 0.068650626 -0.15885109 -0.18016657
-0.44552085 0.18353158 -0.16925237 0.40132913 0.42717215 0.36726862 0.49595526 -0.37280905
-0.23017295 0.7025287 0.05582622 0.7461532 0.54319185 0.3378664 0.4389844 0.57905006
0.5465624 0.5553911 0.3671466 -0.14281927 0.3732509 -0.025072968 0.52336186 0.7176487
0.9529555 0.79870844 0.7158198 0.70603824 0.648113 0.5851625 -0.594404 0.20374529
-0.05782959 0.56222796 0.31806394 0.6616387 0.52595884 -0.085386604 0.16332825 0.07794226
0.4810219 -0.37698752 0.4580263 -0.13346079 0.7650444 0.995889 0.807049 0.3655467
0.40691176 0.39486277 0.36974272 0.35888353 -0.37372306 0.537846 0.013145442 0.3380875
1.0636394 0.73759353 0.6829644 0.6486136 0.65914196 0.6244931 0.37777457 -0.49885836
0.44406852 0.010208597 0.37224573 0.7128606 0.9214483 0.78627807 0.48917517 0.447719
0.41973007 0.40175658 -0.4687171 0.5722314 0.0060502384 0.42123014 -0.5150666 0.52334374
0.4141956 0.6268765 0.5867703 0.5927834 0.2863514 -0.53323084 0.47165453 -0.072650045
0.6537303 -0.31015533 0.8215907 0.35407865 0.3538339 0.38701454 0.46047705 0.3613093
-0.47397736 0.7147976 -0.0065034283 0.3069217 1.2641988 0.6961351 0.21970561 0.905727
0.93845344 0.8817662 -0.2086403 0.018871984 0.022039663 0.2558534 0.4518599 0.3209809
0.41100672 0.19363572 0.2477708 0.34504667 0.20192616 0.39175558 -0.3730318 0.5186782
0.10453707 0.74012667 0.46508297 0.5056732 0.6843658 -0.45779756 -0.35651466 -0.22006674
0.28458664 -0.7096557 0.31364176 0.097109765 0.47749647 -0.24283028 0.3260373 0.090566605
0.138527 0.15343878 0.1465856 -0.2404571 0.0964926 -0.0278917 -0.18034394 0.17080578
0.44348 0.18120171 0.48757175 0.3303719 0.21575208 0.36599848 0.48324126 -0.5469588
0.7214418 0.0002441514 0.50128037 0.8238727 1.0431356 1.0971622 0.66848314 0.5924955
0.5414261 1.3853462 -1.41654 1.2504778 -0.29800305 1.5400907 1.3306193 1.0616479
0.99003994 1.3159015 1.5698241 1.3986486 0.7373734 -0.7222188 0.5502883 -0.039209582
0.6898991 1.0519639 0.94659203 0.42381454 0.45863536 0.582435 0.448123 0.31495395
-0.18865344 0.5178269 0.013210287 0.14698334 0.6629026 0.6141613 0.74307215 0.87948895
0.815034 0.7779965 -0.37114158 -0.6128596 0.24426784 0.18051268 0.66218793 0.19419952
0.4503285 0.16402769 0.10934438 0.075311705 0.22371203 0.4576679 -0.4008291 0.3496695
00000000: 6b6f 0e3d 4477 a1be b412 c33e 76f1 cd3d
00000010: 75f6 d03e ff2b 383f 0365 fa3e 365b f53e
00000020: cd4b 173f 99a3 173f 4c85 143f 8a1f 103f
00000030: 34ba 2dbf 8cb5 233f 5ce9 57bd 8471 003f
00000040: ad81 843f 6828 5f3f 7796 0b3f 3ffb 463f
00000050: 5463 373f 17ab 393f 285b 263f 4613 2dbf
00000060: 4eb6 d03e c688 15bd 43f9 2f3f 26df 9e3f
00000070: e34c 0d3f cea3 ac3e a822 db3e 652f cf3e
00000080: 774c f03e 5575 273f d723 0fbf a2d0 593e
00000090: 0d0c d4bc 6b9c 163f 3e12 0dbf a437 9c3e
000000a0: 290f d53e 0d74 ccbd 870e 493e 417e 403d
000000b0: e778 b0be b398 8c3d dca9 22be 967d 38be
000000c0: 4f1b e4be b4ef 3b3e 7e50 2dbe 037b cd3e
000000d0: 4fb6 da3e a20a bc3e d9ed fd3e d4e0 bebe
000000e0: 75b2 6bbe ecd8 333f 09aa 643d e503 3f3f
000000f0: 9f0e 0b3f d3fc ac3e 90c2 e03e a03c 143f
00000100: 83eb 0b3f 1c2e 0e3f a4fa bb3e 373f 12be
00000110: be1a bf3e d365 cdbc 0bfb 053f d3b7 373f
00000120: e4f4 733f 2878 4c3f f73f 373f ecbe 343f
00000130: bcea 253f 36cd 153f dc2a 18bf 9ba2 503e
00000140: b8de 6cbd 2cee 0f3f 47d9 a23e 2761 293f
00000150: 3da5 063f 2cdf aebd 853f 273e 31a0 9f3d
00000160: 8148 f63e 8204 c1be 6c82 ea3e f2a9 08be
00000170: f3d9 433f 95f2 7e3f c39a 4e3f f028 bb3e
00000180: bd56 d03e 742b ca3e eb4e bd3e 95bf b73e
00000190: a158 bfbe 47b0 093f fb5f 573c ce19 ad3e
000001a0: 5625 883f eed2 3c3f c1d6 2e3f 8a0b 263f
000001b0: 87bd 283f c8de 1f3f ab6b c13e 5d6a ffbe
000001c0: f35c e33e f641 273c fe96 be3e 087e 363f
000001d0: 09e4 6b3f 8549 493f 2b75 fa3e 6d3b e53e
000001e0: dce6 d63e 0ab3 cd3e b0fb efbe c27d 123f
000001f0: 1441 c63b 7aab d73e 68db 03bf dbf9 053f
00000200: 7211 d43e fa7a 203f 9436 163f a7c0 173f
00000210: a79c 923e d181 08bf b47c f13e 8cc9 94bd
00000220: de5a 273f aecc 9ebe c553 523f cc49 b53e
00000230: b829 b53e c526 c63e a6c3 eb3e 88fd b83e
00000240: 29ad f2be fafc 363f b61a d5bb d724 9d3e
00000250: 44d1 a13f e935 323f 82fa 603e badd 673f
00000260: 7c3e 703f 6ebb 613f cea5 55be 6b99 9a3c
00000270: 868c b43c 38ff 823e 2e5a e73e 9c57 a43e
00000280: 796f d23e 7148 463e a1b7 7d3e f5a9 b03e
00000290: bbc5 4e3e 3094 c83e 06fe bebe 18c8 043f
000002a0: 8817 d63d f178 3d3f 5b1f ee3e cd73 013f
000002b0: 9932 2f3f 7164 eabe 1789 b6be 2d59 61be
000002c0: 57b5 913e ffab 35bf a795 a03e 7ce1 c63d
000002d0: 6b7a f43e 80a8 78be 5cee a63e fc7a b93d
000002e0: 06da 0d3e 0e1f 1d3e 891a 163e 633a 76be
000002f0: ea9d c53d 227d e4bc 15ac 38be b6e7 2e3e
00000300: d00f e33e f18c 393e 01a3 f93e 8126 a93e
00000310: 1dee 5c3e 2764 bb3e 666b f73e 7e05 0cbf
00000320: 69b0 383f 7201 8039 e953 003f 52e9 523f
00000330: 7885 853f d06f 8c3f b621 2b3f c9ad 173f
00000340: e79a 0a3f 0653 b13f 2f51 b5bf a80f a03f
00000350: db93 98be b121 c53f bc51 aa3f 14e4 873f
00000360: 4273 7d3f 766f a83f ffef c83f eb06 b33f
00000370: 81c4 3c3f 55e3 38bf b2df 0c3f 3a9a 20bd
00000380: 3a9d 303f c1a6 863f db53 723f 38fe d83e
00000390: 41d2 ea3e 761a 153f 6170 e53e a541 a13e
000003a0: 5e2e 41be 4e90 043f f66f 583c cd82 163e
000003b0: fcb3 293f ad39 1d3f fa39 3e3f 3026 613f
000003c0: 11a6 503f c72a 473f 4506 bebe 5ee4 1cbf
000003d0: 5921 7a3e 51d8 383e 2685 293f 3ddc 463e
000003e0: 7591 e63e e0f6 273e f2ef df3d 063d 9a3d
000003f0: c414 653e 7253 ea3e 7939 cdbe e107 b33e

fc1.bias f4 [400]
0.33945146 0.6069883 0.27251735 0.4832078 -0.102865376 0.6790982 0.3738434 0.5154853
0.3284879 0.41252184 0.3999964 0.5409423 0.49887246 0.54917425 0.07858362 0.6736879
0.34719178 -0.12211731 0.6284586 1.2667998 0.501726 0.46186727 0.18560311 0.26012844
0.476868 0.4819996 0.5921739 0.30667752 0.6377511 0.6346179 0.67909646 0.4928316
0.45930803 0.538027 0.6976625 0.528469 0.41174933 0.39804864 0.5960704 0.72049785
0.3722229 0.461121 0.27291286 0.6556918 0.40814853 0.503604 0.5598514 0.5797433
0.4632705 0.48006353 0.6801497 0.31358764 -0.35838407 0.4723923 0.46238735 0.53457
0.35123545 0.38372245 0.31762397 0.3509737 0.78863984 0.19729422 0.4452854 0.5095172
0.28311545 0.4632757 0.477742 0.3933419 0.4691863 0.5845344 0.24430178 0.3783154
0.5257716 0.53946817 0.49157774 0.25252005 -0.4288409 0.5060438 0.7412296 0.61789054
0.2742679 0.5534353 0.40228903 0.9220312 0.43560678 1.0634006 0.47804254 -0.19870922
0.37729508 0.6461518 0.17237805 0.3859137 0.6002866 0.31768596 0.4238969 0.6377017
0.51159203 0.58362794 0.5076437 0.46911478 0.5933645 0.44456306 0.3800807 0.1854635
0.5316256 0.33934453 0.5930296 0.44051886 0.5548113 0.43925565 0.4135836 0.47266832
0.3484998 0.35438326 0.5365836 0.4955454 0.49866498 0.6245617 0.2713216 0.5605375
0.84429693 0.50614476 0.34142587 0.45509553 0.52801776 0.39364484 0.31186804 0.48708028
0.26570037 0.17370719 0.5277371 0.244341 0.59450406 0.595152 0.6327798 0.4844369
-0.25131175 0.4837397 0.6639641 0.33130544 0.19035505 0.2800404 0.5095541 0.4448635
0.32806715 0.4488803 0.4529646 0.69262856 0.25252613 0.6320271 0.5188052 0.46443415
0.38735536 0.37726274 0.2963797 0.68095315 0.54541975 0.45991963 0.46532604 0.3829452
0.6911819 0.6351514 0.6016177 0.53584826 0.530413 0.65718234 0.35717186 0.39486343
0.4890574 0.23746373 0.6092314 0.31216848 0.3626492 0.45240176 0.3683046 0.1905087
0.35213092 0.00051194977 0.35632306 0.46473706 0.33324644 0.5175792 0.62336564 0.43524954
0.530406 0.6119151 0.8229375 0.6914701 0.45628583 -0.16245805 0.46435332 0.32644892
0.46558198 0.38514006 0.5410222 0.5081301 0.32299525 0.3360644 0.6522474 0.30527592
0.40215862 0.6834498 1.4706109 0.36651778 0.37661183 0.62813574 0.55892724 1.0010865
0.6476284 0.09324702 0.3954697 0.22853446 0.8523105 0.63443273 0.7728653 0.45901075
0.352841 0.55019015 0.4537135 0.28783274 0.3197603 0.5641773 0.19022775 0.426697
0.52918386 0.41594863 0.4665298 0.56642157 0.55570173 0.14912203 0.5560314 0.7036207
0.5072254 0.50947386 0.33186638 0.54301125 0.47095835 0.08364764 0.46846613 0.26614422
0.75841266 0.4898349 0.64668894 0.8548281 0.24804673 0.24760568 0.7698496 0.60935384
0.023180885 0.57937044 0.2743667 0.39146337 0.25880688 0.50661176 0.7427481 0.90948004
00000000: 95cc ad3e 9663 1b3f 6587 8b3e 0367 f73e
00000010: 15ab d2bd 61d9 2d3f 6768 bf3e d8f6 033f
00000020: 912f a83e 1036 d33e 54cc cc3e 327b 0a3f
00000030: 366c ff3e af96 0c3f 73f0 a03d cf76 2c3f
00000040: 1fc3 b13e a418 fabd aae2 203f 7f26 a23f
00000050: 1d71 003f de79 ec3e be0e 3e3e 8e2f 853e
00000060: 0b28 f43e a7c8 f63e b598 173f d604 9d3e
00000070: a843 233f 5276 223f 44d9 2d3f 6c54 fc3e
00000080: 6c2a eb3e 23bc 093f 029a 323f bf49 073f
00000090: cfd0 d23e 08cd cb3e 1298 183f 8c72 383f
000000a0: 0094 be3e 0d18 ec3e 3cbb 8b3e 6bdb 273f
000000b0: d8f8 d03e 31ec 003f 6c52 0f3f 0f6a 143f
000000c0: ca31 ed3e e3ca f53e 4a1e 2e3f 8f8e a03e
000000d0: 1e7e b7be 67dd f13e 09be ec3e 94d9 083f
000000e0: 22d5 b33e 4577 c43e 9c9f a23e d3b2 b33e
000000f0: 4de4 493f 7f07 4a3e 73fc e33e b86f 023f
00000100: 82f4 903e 7932 ed3e 999a f43e 1c64 c93e
00000110: 3039 f03e 0ca4 153f 3f2a 7a3e 8eb2 c13e
00000120: f898 063f 961a 0a3f 14b0 fb3e 4f4a 813e
00000130: 0991 dbbe 168c 013f 39c1 3d3f 132e 1e3f
00000140: d86c 8c3e f0ad 0d3f d4f8 cd3e 3d0a 6c3f
00000150: da07 df3e 831d 883f fec1 f43e 6e7a 4bbe
00000160: d22c c13e 346a 253f df83 303e 7b96 c53e
00000170: 62ac 193f bca7 a23e 0409 d93e 6b40 233f
00000180: b2f7 023f a468 153f f0f4 013f d02f f03e
00000190: bce6 173f c59d e33e f099 c23e 25ea 3d3e
000001a0: 9e18 083f 91be ad3e cad0 173f b08b e13e
000001b0: 1d08 0e3f 1ee6 e03e 3bc1 d33e 9501 f23e
000001c0: 916e b23e b971 b53e 8b5d 093f 20b8 fd3e
000001d0: 0451 ff3e 47e3 1f3f aaea 8a3e 637f 0f3f
000001e0: d823 583f b492 013f 5fcf ae3e 4802 e93e
000001f0: 2c2c 073f d18b c93e 2bad 9f3e 9662 f93e
00000200: e109 883e 4ce0 313e c719 073f 8734 7a3e
00000210: 6b31 183f e25b 183f dbfd 213f 1d08 f83e
00000220: efab 80be bbac f73e 8df9 293f dea0 a93e
00000230: 6fec 423e 7561 8f3e 2372 023f 26c5 e33e
00000240: 6bf8 a73e a4d3 e53e faea e73e 1b50 313f
00000250: 1b4b 813e 87cc 213f 6bd0 043f 50ca ed3e
00000260: 7153 c63e 9528 c13e 14bf 973e f252 2e3f
00000270: a1a0 0b3f 967a eb3e 373f ee3e 6511 c43e
00000280: 4cf1 303f 4899 223f 9e03 1a3f 5a2d 093f
00000290: 25c9 073f 1a3d 283f 3bdf b63e 8a2b ca3e
000002a0: bb65 fa3e b129 733e 97f6 1b3f 8cd4 9f3e
000002b0: 28ad b93e 34a1 e73e 6c92 bc3e b614 433e
000002c0: 814a b43e 5e34 063a fa6f b63e 04f2 ed3e
000002d0: 479f aa3e 1280 043f e494 1f3f 07d9 de3e
000002e0: b0c8 073f 78a6 1c3f 08ac 523f 2f04 313f
000002f0: 4c9e e93e 675b 26be b8bf ed3e 5024 a73e
00000300: c360 ee3e 1431 c53e 6e80 0a3f d014 023f
00000310: a25f a53e a210 ac3e b0f9 263f 204d 9c3e
00000320: bce7 cd3e 91f6 2e3f fa3c bc3f 38a8 bb3e
00000330: 44d3 c03e 81cd 203f db15 0f3f 9a23 803f
00000340: faca 253f 4bf8 be3d 017b ca3e f004 6a3e
00000350: 0531 5a3f 2f6a 223f 80da 453f 7503 eb3e
00000360: 93a7 b43e 43d9 0c3f 234d e83e d05e 933e
00000370: 9fb7 a33e ec6d 103f 10cb 423e 0778 da3e
00000380: 9878 073f 38f7 d43e fedc ee3e 0101 113f
00000390: 7842 0e3f 72b3 183e 1358 0e3f 7c20 343f
000003a0: 86d9 013f e16c 023f 64ea a93e c902 0b3f
000003b0: 7421 f13e 744f ab3d cbda ef3e 0e44 883e
000003c0: 5527 423f a4cb fa3e 688d 253f 04d6 5a3f
000003d0: f6ff 7d3e 588c 7d3e dd14 453f 9dfe 1b3f
000003e0: d7e5 bd3c 9f51 143f cb79 8c3e e36d c83e
000003f0: 5682 843e 4fb1 013f bd24 3e3f afd3 683f

fc2.weight f4 [300, 400]
1.5455481 0.27538085 1.2133772 0.12982689 1.1948503 1.2515264 1.6089175 0.4784144
1.4104744 1.8641721 0.87574595 1.1871316 0.64028764 1.725902 1.1385139 0.75105214
0.8150163 1.1610463 1.0319002 1.160072 1.046052 1.8444078 0.5542814 1.0962702
0.7495936 1.6054004 1.4960572 2.0812209 1.3049637 1.0246243 1.6725645 0.948292
0.95155007 1.6897106 2.2144592 1.5859396 0.014655224 1.3219361 1.0534374 1.0294669
0.61715287 1.7936823 0.8362137 1.1643593 0.94653934 1.6168824 1.4408536 0.8554833
1.4514861 0.85840696 0.97004914 1.3120611 0.96796834 0.8327716 2.3002262 0.91193193
1.8626654 0.642961 0.5022581 1.6780665 1.3990928 0.73949003 0.48650834 0.35694164
1.629953 0.97437036 1.5152631 1.5722145 0.85346013 0.9509517 1.301199 0.52355874
1.1707895 -0.5600801 0.51231337 1.5996969 0.8556405 1.4091341 0.65452737 1.6273248
1.4896446 1.3479006 -0.04942059 1.8082052 0.9000301 0.758028 1.2169048 1.0287535
0.4860454 0.40833625 1.2622991 1.4040787 0.4757877 1.7654493 1.4625264 0.47502625
0.72330475 0.64403605 1.8552147 0.8584758 1.4492552 1.15605 1.3788992 1.237474
0.9792995 1.407954 1.656684 1.6968063 1.1512128 1.2355157 0.9379409 0.39857832
1.4917247 0.9281849 1.251619 0.98957324 1.3757981 0.83104414 1.554331 0.6196606
1.3542322 0.6739894 0.3998768 0.9230094 1.2568316 0.9209576 1.0508523 0.5823303
0.5909509 1.0745741 1.0628254 1.3259854 1.1615449 1.2098864 0.6377259 1.0845382
1.2775373 0.55568 1.8455111 0.8949644 0.3619652 1.455417 0.5949521 0.54316527
0.5520435 0.59038085 1.1869482 1.068954 1.3821697 1.3606298 1.0361732 1.5366476
1.238759 0.99321574 1.1950175 1.3591583 1.5674108 0.5227527 1.2426485 0.79468054
0.75814164 1.4233664 0.33949974 0.9328381 1.8214862 -0.0010691426 0.29550362 1.0943884
0.8860398 1.2400877 0.37659186 0.6936221 1.2471048 1.8650724 1.3018954 1.252811
1.0940058 0.73775786 0.4631534 0.92772365 1.3060441 0.3651056 2.117383 0.9391227
0.2651928 1.0555449 -0.32463005 1.1375076 1.2626382 1.6140372 1.993604 1.483114
1.5750055 0.9404922 1.3945391 1.3779622 0.687624 1.1272835 0.88234454 1.1168865
0.63549644 0.99477744 1.1063865 1.853486 0.9888969 1.1908768 1.5932834 0.50955325
0.858879 1.0555784 1.0963281 1.5598309 1.267728 0.67811567 1.2496282 0.42576662
0.6450078 0.6550994 0.92087895 0.67272276 1.327077 0.43512484 1.617345 0.6087453
1.3830248 0.981951 1.3243517 1.2346836 0.97344685 0.814023 1.1187437 1.3278817
1.6349323 1.2923193 1.8366215 1.5608661 -0.41292813 1.2019 0.6145477 1.4647874
1.1075779 0.81119794 1.5823433 1.3460187 1.3241888 1.3322679 0.6520171 1.4755278
1.3233538 1.4393294 1.2481467 -0.3079443 1.8045812 0.17092384 0.810228 0.87703913
00000000: 85d4 c53f b8fe 8c3e f24f 9b3f 57f1 043e
00000010: dbf0 983f 0432 a03f 02f1 cd3f bbf2 f43e
00000020: 6d8a b43f 319d ee3f e330 603f eef3 973f
00000030: e4e9 233f 5bea dc3f d3ba 913f f444 403f
00000040: e9a4 503f 2a9d 943f 4e15 843f 3d7d 943f
00000050: 08e5 853f 8e15 ec3f 63e5 0d3f 9552 8c3f
00000060: 5ee5 3f3f c37d cd3f cd7e bf3f b932 0540
00000070: 0d09 a73f e426 833f 9816 d63f 44c3 723f
00000080: c998 733f 7048 d83f b3b9 0d40 1200 cb3f
00000090: 771c 703c 3435 a93f 09d7 863f 92c5 833f
000000a0: bbfd 1d3f 6297 e53f 1a12 563f ba09 953f
000000b0: 6750 723f 01f6 ce3f e46d b83f f400 5b3f
000000c0: 4cca b93f 8fc0 5b3f 2455 783f 9ef1 a73f
000000d0: c6cc 773f 8530 553f e836 1340 5f74 693f
000000e0: d26b ee3f 1899 243f fd93 003f e2ca d63f
000000f0: 7915 b33f 384f 3d3f 9f17 f93e 0ec1 b63e
00000100: 4da2 d03f 5670 793f 24f4 c13f 533e c93f
00000110: 5d7c 5a3f 9271 733f b08d a63f f207 063f
00000120: 6edc 953f 6961 0fbf f826 033f dec2 cc3f
00000130: 410b 5b3f 825e b43f 1b8f 273f 2e4c d03f
00000140: adac be3f 0288 ac3f 3f6d 4abd 4573 e73f
00000150: 5f68 663f 1f0e 423f 89c3 9b3f 32ae 833f
00000160: f1da f83e 7311 d13e 0493 a13f dab8 b33f
00000170: 729a f33e 3efa e13f 1134 bb3f a436 f33e
00000180: 802a 393f 8cdf 243f ad77 ed3f 12c5 5b3f
00000190: 3281 b93f 72f9 933f c57f b03f 8c65 9e3f
000001a0: 5fb3 7a3f d637 b43f 390e d43f f330 d93f
000001b0: f15a 933f 6125 9e3f e51c 703f 7512 cc3e
000001c0: d6f0 be3f 879d 6d3f 0d35 a03f ac54 7d3f
000001d0: 271a b03f 4fbf 543f 51f4 c63f 14a2 1e3f
000001e0: 7b57 ad3f 928a 2c3f a7bc cc3e 584a 6c3f
000001f0: dcdf a03f e1c3 6b3f 5482 863f 9913 153f
00000200: 8f48 173f a58b 893f aa0a 883f e4b9 a93f
00000210: 81ad 943f 8fdd 9a3f 0142 233f 26d2 8a3f
00000220: 5886 a33f 0b41 0e3f b539 ec3f 631c 653f
00000230: 8153 b93e 1b4b ba3f c84e 183f e10c 0b3f
00000240: b952 0d3f 3323 173f ebed 973f 7cd3 883f
00000250: f0ea b03f 1e29 ae3f 53a1 843f deb0 c43f
00000260: a88f 9e3f 6343 7e3f 55f6 983f e6f8 ad3f
00000270: eba0 c83f 1fd3 053f 1b0f 9f3f 2f70 4b3f
00000280: 9215 423f df30 b63f e9d2 ad3e 7ace 6e3f
00000290: 7626 e93f 7922 8cba 404c 973e eb14 8c3f
000002a0: 81d3 623f 32bb 9e3f a6d0 c03e 3891 313f
000002b0: 21a1 9f3f b1ba ee3f 82a4 a63f 1c5c a03f
000002c0: 6208 8c3f b3dd 3c3f 7122 ed3e 4c7f 6d3f
000002d0: 742c a73f 1fef ba3e 3483 0740 586a 703f
000002e0: 5ac7 873e 181c 873f e935 a6be d999 913f
000002f0: 219e a13f c598 ce3f 6a2e ff3f aed6 bd3f
00000300: c899 c93f 19c4 703f 4280 b23f 1161 b03f
00000310: 2008 303f d34a 903f 55e1 613f 23f6 8e3f
00000320: e5af 223f bca9 7e3f 139e 8d3f 073f ed3f
00000330: 5928 7d3f a76e 983f b6f0 cb3f 1572 023f
00000340: 7fdf 5b3f 311d 873f 7b54 8c3f 8aa8 c73f
00000350: e944 a23f fd98 2d3f d1f3 9f3f 15fe d93e
00000360: 3b1f 253f 98b4 273f b9be 6b3f 8f37 2c3f
00000370: a9dd a93f afc8 de3e 2905 cf3f bbd6 1b3f
00000380: f506 b13f 2461 7b3f 5b84 a93f 1d0a 9e3f
00000390: d033 793f d063 503f fe32 8f3f 07f8 a93f
000003a0: 7645 d13f b86a a53f 6a16 eb3f 76ca c73f
000003b0: 516b d3be dcd7 993f 0053 1d3f 277e bb3f
000003c0: 1dc5 8d3f abaa 4f3f 3a8a ca3f 574a ac3f
000003d0: 057f a93f c187 aa3f 98ea 263f 18de bc3f
000003e0: a863 a93f f23b b83f 45c3 9f3f e0aa 9dbe
000003f0: 84fc e63f a906 2f3e 1a6b 4f3f a385 603f

fc2.bias f4 [300]
1.168909 1.3217816 1.3999456 1.0969218 1.5081873 1.4010205 1.5065697 1.4900814
1.3326237 1.4263853 1.4343635 1.5640687 1.2796441 1.3664948 1.4851335 1.5238949
1.2948653 1.4557408 1.0328329 1.3219049 1.515063 1.6319968 1.179761 1.3448784
1.6378535 1.3721217 1.6455564 1.4735955 1.3784608 1.3305995 1.1271236 1.5193663
1.2109014 1.2115494 1.4132271 1.1998273 1.545862 1.5057788 1.3217576 1.0950056
1.0647874 1.4596475 1.3860974 1.2831186 1.3375103 1.3488733 1.052197 1.3540119
1.4412202 1.3321245 1.3981118 1.398746 1.3704408 1.617667 1.3453618 1.4281092
1.4678607 1.4414692 1.5821269 1.2343245 1.4239949 1.6824902 1.4200451 1.2344568
1.6678531 1.4712546 1.4046515 1.2512753 1.3020681 1.3049501 1.4380925 1.2801098
1.3557168 1.4494963 1.2962877 1.4457828 1.4672791 1.4811374 1.411547 1.1477337
1.098598 1.3250206 1.5609301 1.6008471 1.2711426 1.3437325 1.4471507 1.164535
1.5042127 1.1756202 1.3349782 1.5137489 1.5715979 1.3561293 1.0543271 1.2578171
1.3627074 1.5152912 1.3456348 1.2897279 1.2447522 1.6143036 1.3997973 1.0908531
1.3952138 1.508746 1.2991683 1.4310485 1.3302871 1.4303354 1.2736943 1.3174204
1.2825629 1.1152412 1.2427945 1.3266758 1.2559905 1.276183 1.2619486 1.1478066
1.3338717 1.5451591 1.3187575 1.3879642 1.3932295 1.0078232 1.4051921 1.5484484
1.3807092 1.418818 1.4002267 1.5968724 1.0250129 1.5351994 1.2748609 1.4833612
1.4040672 1.4956801 1.3487561 1.700223 1.0324944 1.520693 1.3468049 1.185185
1.3644172 1.4012398 1.3335139 1.3718446 1.2968976 1.2668182 1.1834052 1.1512955
1.2229148 1.3483484 1.4803541 1.3353617 1.2535396 1.4113138 1.5419915 1.5161062
1.4871668 1.1772503 1.3100821 1.2673872 1.5044489 1.254476 1.3821957 1.3178635
1.5022062 1.2741739 1.4865781 1.3227469 1.2983423 1.2066045 1.4088614 1.2370529
1.6689098 1.4971535 1.2575309 1.4124081 1.5177999 1.283203 1.4104824 1.385455
1.4068481 1.450646 1.3730928 1.4796321 1.5510179 1.4633918 1.5034254 1.266067
1.3440069 1.275632 1.4520123 1.3417215 1.2832942 1.4886823 1.1760337 1.2358474
1.5038922 1.3812203 1.2656205 1.2309144 1.6905893 1.371594 1.3137754 1.5067928
1.2452586 1.4781303 1.6517483 1.3656371 1.1880703 1.1653148 1.1773094 1.2070456
0.9997561 1.4525374 1.2438734 1.4506799 1.3475176 1.4415408 1.37355 1.3590833
1.2294838 1.4790062 1.408171 1.3118855 1.4039212 1.3552727 1.2924498 1.4150195
1.1466444 1.5086399 1.422284 1.4863139 1.1932614 1.6193271 1.4215612 1.4446229
1.2335811 1.2822187 1.4958411 1.3736923 1.4644724 1.3955538 1.5769002 1.1740136
1.376182 1.2186596 1.2454202 1.2923903 1.3066454 1.1139657 1.2350615 1.1931324
00000000: cf9e 953f 2430 a93f 6b31 b33f ef67 8c3f
00000010: 480c c13f a454 b33f 47d7 c03f fdba be3f
00000020: 6a93 aa3f cb93 b63f 3999 b73f 6733 c83f
00000030: 61cb a33f 4de9 ae3f db18 be3f fd0e c33f
00000040: 25be a53f b755 ba3f de33 843f 2e34 a93f
00000050: 96ed c13f 45e5 d03f 6902 973f fa24 ac3f
00000060: 2fa5 d13f afa1 af3f 98a1 d23f c79e bc3f
00000070: 6771 b03f 1651 aa3f 9645 903f 987a c23f
00000080: d1fe 9a3f 0d14 9b3f a0e4 b43f f193 993f
00000090: cede c53f 5cbd c03f 5a2f a93f 2529 8c3f
000000a0: f44a 883f bbd5 ba3f a46b b13f 3b3d a43f
000000b0: 8a33 ab3f e1a7 ac3f 64ae 863f 4350 ad3f
000000c0: e779 b83f 0e83 aa3f 54f5 b23f 1c0a b33f
000000d0: 9b6a af3f b60f cf3f d134 ac3f 48cc b63f
000000e0: dce2 bb3f 1082 b83f 2283 ca3f 58fe 9d3f
000000f0: 7745 b63f d75b d73f 0ac4 b53f ae02 9e3f
00000100: 367c d53f 1252 bc3f 9fcb b33f ca29 a03f
00000110: 2baa a63f 9b08 a73f 6a13 b83f a3da a33f
00000120: 2188 ad3f 1889 b93f c1ec a53f 690f b93f
00000130: cdcf bb3f e995 bd3f 92ad b43f f0e8 923f
00000140: dc9e 8c3f 469a a93f 8fcc c73f 8fe8 cc3f
00000150: cdb4 a23f 6dff ab3f 3c3c b93f 7c0f 953f
00000160: 0b8a c03f b97a 963f 91e0 aa3f 86c2 c13f
00000170: 1f2a c93f a595 ad3f 31f4 863f 2700 a13f
00000180: 326d ae3f 10f5 c13f c33d ac3f ce15 a53f
00000190: 0a54 9f3f 80a1 ce3f 8f2c b33f 13a1 8b3f
000001a0: 5e96 b23f 971e c13f 264b a63f 992c b73f
000001b0: d946 aa3f 3b15 b73f 6a08 a33f 3ba1 a83f
000001c0: 052b a43f 39c0 8e3f e413 9f3f 83d0 a93f
000001d0: 4cc4 a03f f759 a33f 8887 a13f 54eb 923f
000001e0: 4fbc aa3f c6c7 c53f 0ccd a83f d0a8 b13f
000001f0: 5855 b23f 5a00 813f 56dd b33f 8f33 c63f
00000200: 14bb b03f d49b b53f a13a b33f 5166 cc3f
00000210: 9f33 833f 6a81 c43f a42e a33f c8de bd3f
00000220: 79b8 b33f 7272 bf3f 0aa4 ac3f e8a0 d93f
00000230: c728 843f 11a6 c23f 1a64 ac3f 24b4 973f
00000240: 39a5 ae3f d35b b33f 95b0 aa3f 9b98 af3f
00000250: be00 a63f 1927 a23f d279 973f a75d 933f
00000260: 7988 9c3f ae96 ac3f 3e7c bd3f 22ed aa3f
00000270: fc73 a03f eea5 b43f fa5f c53f c50f c23f
00000280: 7b5b be3f 23b0 963f c5b0 a73f be39 a23f
00000290: c891 c03f ab92 a03f caeb b03f c0af a83f
000002a0: 4b48 c03f 2118 a33f 3148 be3f c54f a93f
000002b0: 1530 a63f 0472 9a3f 9255 b43f c057 9e3f
000002c0: d69e d53f baa2 bf3f c6f6 a03f cac9 b43f
000002d0: 4447 c23f ff3f a43f b08a b43f 9756 b13f
000002e0: 9913 b43f c5ae b93f 81c1 af3f 9664 bd3f
000002f0: c187 c63f 6c50 bb3f 3e70 c03f 7c0e a23f
00000300: 6b08 ac3f e947 a33f 8adb b93f 88bd ab3f
00000310: fc42 a43f 248d be3f 4688 963f 3f30 9e3f
00000320: 8a7f c03f d4cb b03f daff a13f 9a8e 9d3f
00000330: 3b65 d83f 6490 af3f cb29 a83f 96de c03f
00000340: a264 9f3f 6033 bd3f 7d6c d33f 32cd ae3f
00000350: b012 983f 0929 953f 13b2 963f 7880 9a3f
00000360: 04f0 7f3f bfec b93f 3e37 9f3f e1af b93f
00000370: 757b ac3f 6984 b83f 7dd0 af3f 71f6 ad3f
00000380: ba5f 9d3f 1350 bd3f f33e b43f ddeb a73f
00000390: b1b3 b33f 9379 ad3f ff6e a53f 5c1f b53f
000003a0: 3ec5 923f 1d1b c13f 670d b63f 893f be3f
000003b0: cabc 983f 1c46 cf3f b8f5 b53f 67e9 b83f
000003c0: fce5 9d3f be1f a43f b977 bf3f 26d5 af3f
000003d0: d573 bb3f 82a1 b23f ded7 c93f 1446 963f
000003e0: bb26 b03f 0afd 9b3f ee69 9f3f 0c6d a53f
000003f0: 2840 a73f 6e96 8e3f 7f16 9e3f 90b8 983f

bn1.weight f4 [400]
1.0385185 0.856532 0.68066233 1.9797435 1.7687764 1.6789814 1.5986872 1.4599745
0.593705 1.1594388 1.0909399 1.7383945 0.9726695 1.0068597 0.9367242 3.1655097
1.3736181 1.335158 0.7354674 0.14274487 0.61663306 2.4941604 1.7010336 0.9433415
0.74558794 1.4056612 1.4595902 1.4435602 0.407904 1.4272842 1.5382442 1.4178272
1.1703557 1.184219 1.6723535 1.2891005 2.0597148 0.96805966 0.5788684 1.8711281
1.8708228 1.6633712 1.9160652 0.4306076 1.5554065 1.5969602 1.1210672 1.4974875
0.87597454 0.7820681 0.3614312 1.538808 1.0752577 0.60498244 2.1240568 1.1241585
1.2996413 1.3468567 1.4853144 1.5544603 0.41647854 2.0262587 1.3068479 0.8896506
2.0486457 0.9011603 1.5783769 0.88599294 1.7994195 1.1030611 1.3010781 1.2753589
1.0334303 2.5527117 1.7173425 1.614766 1.2242125 1.9174278 2.1547577 0.7183069
1.2562617 0.53920937 2.7350054 0.22809751 1.3596566 0.23583029 0.71707606 0.86719733
0.5962608 1.8141359 1.3727646 0.7997873 0.8139049 1.1667639 1.2427491 1.3284483
1.1416417 0.8441888 1.7284582 0.8305945 1.1050551 1.6551082 1.349044 1.7225102
1.1954203 0.946769 2.0170038 1.7072375 1.2656355 1.1382552 1.4042653 1.5172714
1.1926805 0.8729135 1.1889395 1.5884084 1.6494015 1.1919647 0.9914493 1.4685206
0.34432095 1.5091162 1.4352535 1.6205838 1.0464816 0.5400877 1.1821139 3.8211634
1.7444581 1.0497632 1.2059515 1.2876382 1.4523277 1.0570613 0.9026263 1.2501788
1.0734007 1.4730945 2.1596136 1.2581835 1.5063206 0.8835876 1.0382445 2.028437
1.0880158 1.2109268 0.63510364 0.56708723 1.3619138 1.4733573 1.3562361 1.087015
1.0588866 0.57988495 1.6606911 0.79831296 1.3806704 0.8330004 0.65499955 0.5230067
0.8992008 1.7367857 0.76234114 0.6998393 1.4279712 2.6282892 1.3101027 0.9873958
1.0041162 1.5211953 1.7897301 0.8510822 1.6751739 1.4870427 1.2982693 0.72674173
3.4808073 0.907648 1.461534 0.60160565 1.6005805 0.99264175 1.7256547 1.1707306
1.6089294 0.6875645 3.1621213 0.5861624 0.99908656 0.9500686 1.3910911 1.186286
1.6933149 1.2701399 1.4943838 0.73063374 1.0530795 1.085756 1.1187525 0.7769869
1.2249507 1.5001317 0.16571775 1.4548732 1.4798388 1.1418973 1.055424 2.4319851
1.1814777 1.7354225 1.0707192 1.0056237 0.29175207 1.363785 0.4362154 0.4933575
1.517181 1.7787489 1.3145138 0.88158375 0.76636404 1.6006832 1.49025 0.85880375
0.6383988 1.2327222 0.74547404 0.8184293 3.6599963 1.5659858 0.9829626 0.59806126
1.7689058 0.58509654 1.2793403 1.6972959 3.0681024 0.99219066 1.0899665 0.7079499
1.8363519 1.6833962 0.52819186 0.9074388 0.7999674 1.0421644 0.44176573 1.098927
1.2656794 0.7619901 1.0495509 2.8451314 1.5776392 1.8061653 0.39092156 3.4635828
00000000: 2dee 843f ae45 5b3f e33f 2e3f 3c68 fd3f
00000010: 4467 e23f dde8 d63f c8a1 cc3f 72e0 ba3f
00000020: 0dfd 173f 7e68 943f eba3 8b3f b683 de3f
00000030: de00 793f c7e0 803f 28cd 6f3f b697 4a40
00000040: b8d2 af3f 75e6 aa3f 9747 3c3f b62b 123e
00000050: aadb 1d3f 53a0 1f40 78bb d93f d47e 713f
00000060: dade 3e3f b5ec b33f dad3 ba3f 95c6 b83f
00000070: cbd8 d03e 40b1 b63f 30e5 c43f 5d7b b53f
00000080: 37ce 953f 7d94 973f ae0f d63f 3f01 a53f
00000090: 5ed2 0340 c2d2 773f b830 143f 2081 ef3f
000000a0: 1f77 ef3f 59e9 d43f a041 f53f 9978 dc3e
000000b0: 8f17 c73f 3169 cc3f 217f 8f3f acad bf3f
000000c0: de3f 603f 9d35 483f 830d b93e a9f7 c43f
000000d0: 0ba2 893f 21e0 1a3f 8cf0 0740 6de4 8f3f
000000e0: a55a a63f cd65 ac3f c81e be3f 8ef8 c63f
000000f0: ad3c d53e 39ae 0140 cb46 a73f 24c0 633f
00000100: 031d 0340 71b2 663f 4108 ca3f 6fd0 623f
00000110: 6153 e63f 1b31 8d3f ba89 a63f f63e a33f
00000120: 7247 843f a15f 2340 e1d1 db3f a7b0 ce3f
00000130: ffb2 9c3f 466e f53f 8de7 0940 f6e2 373f
00000140: 2fcd a03f a009 0a3f 540a 2f40 6592 693e
00000150: 3a09 ae3f 7f7d 713e 4c92 373f a500 5e3f
00000160: 8ca4 183f 9b35 e83f c0b6 af3f dcbe 4c3f
00000170: 125c 503f 8558 953f 6712 9f3f 980a aa3f
00000180: 5121 923f c21c 583f 1e3e dd3f d7a1 543f
00000190: 7272 8d3f 96da d33f 79ad ac3f 377b dc3f
000001a0: 8803 993f 745f 723f 9716 0140 c286 da3f
000001b0: 5800 a23f 59b2 913f f7be b33f f335 c23f
000001c0: c1a9 983f 4277 5f3f 2b2f 983f f750 cb3f
000001d0: 971f d33f 4d92 983f 9fcf 7d3f 7cf8 bb3f
000001e0: d64a b03e b82a c13f 63b6 b73f 4a6f cf3f
000001f0: 1cf3 853f 3043 0a3f 824f 973f f18d 7440
00000200: 674a df3f a45e 863f 9e5c 9a3f 54d1 a43f
00000210: e0e5 b93f c94d 873f 8412 673f dc05 a03f
00000220: 3265 893f 5c8e bc3f 1c37 0a40 280c a13f
00000230: 1dcf c03f cc32 623f 32e5 843f e9d1 0140
00000240: 1a44 8b3f a6ff 9a3f 2796 223f a12c 113f
00000250: 3153 ae3f f996 bc3f 2599 ad3f 4f23 8b3f
00000260: 9989 873f 5773 143f 8791 d43f 3d5e 4c3f
00000270: cfb9 b03f 843f 553f 0dae 273f c4e3 053f
00000280: 0632 663f fe4e de3f ca28 433f ab28 333f
00000290: c3c7 b63f e435 2840 72b1 a73f f9c5 7c3f
000002a0: e186 803f 87b6 c23f e015 e53f 86e0 593f
000002b0: 196c d63f 6a57 be3f b02d a63f bf0b 3a3f
000002c0: 8cc5 5e40 9f5b 683f 8c13 bb3f d402 1a3f
000002d0: d2df cc3f c51d 7e3f 41e2 dc3f 80da 953f
000002e0: 66f1 cd3f 3a04 303f 3260 4a40 bd0e 163f
000002f0: 23c4 7f3f b237 733f 460f b23f 38d8 973f
00000300: 8bbe d83f f293 a23f f847 bf3f d00a 3b3f
00000310: 4fcb 863f 0dfa 8a3f 4833 8f3f 9de8 463f
00000320: 2fcb 9c3f 5104 c03f eab1 293e 4939 ba3f
00000330: 5c6b bd3f b129 923f 2218 873f a5a5 1b40
00000340: a93a 973f 5322 de3f 540d 893f 47b8 803f
00000350: 8760 953e 8290 ae3f a057 df3e 5b99 fc3e
00000360: fd32 c23f 0bae e33f fd41 a83f 79af 613f
00000370: 6f30 443f 30e3 cc3f 83c0 be3f 90da 5b3f
00000380: 1b6e 233f d7c9 9d3f 63d7 3e3f 9584 513f
00000390: 613d 6a40 3972 c83f 70a3 7b3f 8b1a 193f
000003a0: 816b e23f e3c8 153f 6cc1 a33f fe40 d93f
000003b0: ca5b 4440 3500 7e3f 0684 8b3f 343c 353f
000003c0: 940d eb3f 8779 d73f 9537 073f e94d 683f
000003d0: aaca 4c3f a565 853f 1e2f e23e a4a9 8c3f
000003e0: c801 a23f c811 433f af57 863f a216 3640
000003f0: 15f0 c93f 6d30 e73f df26 c83e 57ab 5d40

bn1.bias f4 [400]
-0.37702388 -0.72267526 -0.48434496 -0.038073316 -0.26978114 0.21410158 -0.22239852 -0.40555352
-0.57402855 -0.46824923 -0.3751625 -0.108163275 -0.47447965 -0.24468645 -0.48344833 0.17945518
-0.19248855 -0.35342225 -0.5051522 -0.7113525 -0.65236914 -0.07894548 -0.2623299 -0.17915985
-0.64094985 -0.11945276 -0.17984198 -0.29155198 -0.6313914 -0.29659444 -0.08324006 0.050610606
-0.24790221 -0.3002344 -0.14222075 -0.2209079 -0.12086802 -0.58066666 -0.6216357 0.106983244
0.0045249714 -0.1658882 0.059508685 -0.76355153 -0.096647225 -0.018055696 -0.19180614 -0.0065755695
-0.47992346 -0.4240101 -0.69492036 0.0852021 -0.6924596 -0.44659662 -0.1658097 -0.4025045
-0.37818182 -0.24415225 -0.25930053 -0.20565696 -0.46869564 -0.0344486 -0.390671 -0.55176014
-0.24228975 -0.56504816 -0.16977432 -0.35175768 -0.22432764 -0.32360542 -0.12007415 -0.3315243
-0.387422 -0.31501925 0.17354596 -0.2169955 -0.75165707 -0.13039392 0.36903322 -0.3733069
-0.2120931 -0.50599504 0.28242385 -0.8628428 -0.37621385 -0.7704926 -0.44431266 -0.6074269
-0.5771085 0.3247435 -0.23849563 -0.523155 -0.59465367 -0.33426914 -0.16527694 -0.5455636
-0.24407046 -0.6710309 -0.14314178 -0.497776 -0.28677362 -0.34125134 -0.048902337 -0.175952
-0.340021 -0.44619516 -0.038957875 -0.009312423 -0.31175736 -0.4582087 -0.26578686 -0.18396866
-0.22795334 -0.43885162 -0.035701405 -0.1876575 -0.098541595 -0.18418302 -0.18862943 -0.41704
-0.5431264 -0.2073232 -0.14108144 0.027481852 -0.35304883 -0.77965456 -0.34396014 -0.056255024
-0.079130165 -0.47534457 -0.43514737 -0.26058003 -0.21819419 -0.6054228 -0.21835405 -0.15182501
-0.2625623 -0.32382402 -0.092628255 -0.5627379 -0.3737596 -0.46464416 -0.546 -0.33278802
-0.5257132 -0.37055886 -0.39919746 -0.45848948 -0.31090662 -0.20080794 0.031134551 -0.21467446
-0.524698 -0.5548535 -0.16827032 -0.30683002 -0.13779965 -0.45464262 -0.4281118 -0.5140936
-0.40079415 -0.16754216 -0.7031296 -0.76981777 -0.17671853 -0.15842158 -0.44991508 -0.8043403
-0.37215337 -0.373751 0.056827776 -0.5348263 -0.2505728 -0.23730782 -0.49132112 -0.48633602
-0.088828325 -0.43503237 -0.23980847 -0.54390603 -0.49651036 -0.60779923 -0.1107098 -0.4198535
-0.16167253 -0.643255 0.67881715 -0.59439605 -0.23515032 -0.49643454 -0.23108134 -0.31820655
-0.06782459 -0.24395147 -0.42375392 -0.49272096 -0.42841357 -0.40210006 0.014390939 -0.38122517
-0.4853817 0.04695456 -0.7427585 -0.23866525 -0.18352813 -0.3540775 -0.19676194 0.8630837
-0.09523906 -0.2118688 -0.45507392 -0.39365724 -0.7676243 -0.30812794 -0.7547126 -0.79193383
-0.48525798 0.06466851 0.10024283 -0.66279805 -0.49138966 -0.20712431 -0.18453185 -0.65652096
-0.634486 -0.24103104 -0.5986377 -0.6090067 0.05615931 -0.34640366 -0.43793893 -0.3133529
0.073462 -0.604981 -0.37891057 -0.21259077 0.39027178 -0.43741074 -0.38139236 -0.440011
0.045693655 -0.15175201 -0.5039586 -0.17607018 -0.47662467 -0.34598452 -0.77215797 -0.24059755
-0.33130914 -0.5767411 -0.3266766 0.35445452 -0.21680754 -0.3208575 -0.791957 0.31280735
00000000: 4609 c1be 3f01 39bf 10fc f7be c4f2 1bbd
00000010: c120 8abe 723d 5b3e 70bc 63be b6a4 cfbe
00000020: 89f3 12bf 5dbe efbe 4d15 c0be b584 ddbd
00000030: ffee f2be 168f 7abe 8a86 f7be 19c3 373e
00000040: b81b 45be c3f3 b4be a851 01bf 331b 36bf
00000050: aa01 27bf 2bae a1bd 1b50 86be ae75 37be
00000060: 4a15 24bf a6a3 f4bd 7f28 38be 4d46 95be
00000070: dea2 21bf 3adb 97be c479 aabd 114d 4f3d
00000080: 14da 7dbe 53b8 99be 51a2 11be ae35 62be
00000090: a789 f7bd 92a6 14bf 8423 1fbf 081a db3d
000000a0: 3646 943b 99de 29be 61bf 733d 1d78 43bf
000000b0: fbee c5bd 8ae9 93bc d468 44be e077 d7bb
000000c0: 87b8 f5be da17 d9be 4de6 31bf 707e ae3d
000000d0: 0845 31bf 50a8 e4be 05ca 29be 1215 cebe
000000e0: 0ca1 c1be 0c03 7abe 0ac3 84be bd97 52be
000000f0: e0f8 efbe fa19 0dbd 0806 c8be 2740 0dbf
00000100: ce1a 78be ffa6 10bf 52d9 2dbe 9519 b4be
00000110: 25b6 65be 9caf a5be 70e9 f5bd 8ebd a9be
00000120: 2d5c c6be 344a a1be 08b6 313e 1134 5ebe
00000130: 996c 40bf fc85 05be ecf1 bc3e 1522 bfbe
00000140: ef2e 59be e488 01bf dc99 903e 44e3 5cbf
00000150: 1a9f c0be 013f 45bf f37c e3be 5480 1bbf
00000160: 62bd 13bf c844 a63e 3338 74be 7ced 05bf
00000170: 393b 18bf 5325 abbe 5c3e 29be 0eaa 0bbf
00000180: 9bed 79be aec8 2bbf c293 12be 7fdc febe
00000190: fed3 92be 7fb8 aebe d14d 48bd c32c 34be
000001a0: 3c17 aebe b173 e4be 4b92 1fbd 2293 18bc
000001b0: a99e 9fbe 559a eabe 3715 88be 4862 3cbe
000001c0: 9a6c 69be 29b1 e0be a33b 12bd 4a29 40be
000001d0: 2dd0 c9bd 799a 3cbe 1328 41be 4486 d5be
000001e0: 550a 0bbf 884c 54be a777 10be 9f21 e13c
000001f0: d1c2 b4be 7197 47bf 8b1b b0be ab6b 66bd
00000200: ff0e a2bd 5d60 f3be a3cb debe bf6a 85be
00000210: 4c6e 5fbe fdfc 1abf 3498 5fbe 0478 1bbe
00000220: 916e 86be 43cc a5be e2b3 bdbd 970f 10bf
00000230: 6b5d bfbe d7e5 edbe a8c6 0bbf 3163 aabe
00000240: 2495 06bf e4b9 bdbe 9c63 ccbe 22bf eabe
00000250: 272f 9fbe 99a0 4dbe e30d ff3c 9fd3 5bbe
00000260: 9c52 06bf e10a 0ebf 0e4f 2cbe d318 9dbe
00000270: 5a1b 0dbe ebc6 e8be 7831 dbbe a39b 03bf
00000280: e434 cdbe 2c90 2bbe 4d00 34bf c712 45bf
00000290: b4f5 34be 4439 22be 455b e6be 3fe9 4dbf
000002a0: e38a bebe 4b5c bfbe 3ec4 683d 60ea 08bf
000002b0: 144b 80be d200 73be 718e fbbe 0901 f9be
000002c0: a0eb b5bd 90bc debe 5a90 75be 6d3d 0bbf
000002d0: 9b36 febe bb98 1bbf d2bb e2bd 0af7 d6be
000002e0: 7c8d 25be 5cac 24bf f6c6 2d3f 572a 18bf
000002f0: 3fcb 70be ab2c febe 96a0 6cbe f8eb a2be
00000300: 9ee7 8abd 6ace 79be 46f6 d8be ec45 fcbe
00000310: 0659 dbbe 0fe0 cdbe f9c7 6b3c f22f c3be
00000320: f383 f8be 6d53 403d 6c25 3ebf aa64 74be
00000330: ccee 3bbe a549 b5be f67b 49be 0ef3 5c3f
00000340: b20c c3bd 22f4 58be 73ff e8be 718d c9be
00000350: 0783 44bf f2c2 9dbe d834 41bf 2dbc 4abf
00000360: bc73 f8be ec70 843d 1d4c cd3d 22ad 29bf
00000370: 6d97 fbbe 6518 54be ebf5 3cbe c211 28bf
00000380: ad6d 22bf d7d0 76be 5240 19bf dde7 1bbf
00000390: 4e07 663d d25b b1be 8839 e0be cb6f a0be
000003a0: 3f73 963d 09e0 1abf 9100 c2be 65b1 59be
000003b0: b4d1 c73e 4df4 dfbe dc45 c3be 1f49 e1be
000003c0: 4529 3b3d e164 1bbe 6e03 01bf be4b 34be
000003d0: 2608 f4be e224 b1be 25ac 45bf 345f 76be
000003e0: 5aa1 a9be 4ea5 13bf 2842 a7be 107b b53e
000003f0: cc02 5ebe 6f47 a4be b2bd 4abf 4928 a03e

bn2.weight f4 [300]
1.8974862 2.5669327 3.2590404 1.1625758 2.0966015 1.9162567 2.4292085 2.9370177
0.63108987 4.180957 3.4713907 0.75905645 2.8583145 3.0835345 1.1028006 3.3265774
1.9413226 2.426794 3.425815 3.5858781 0.37839955 2.0939872 1.4990063 1.027624
0.5603624 3.5009346 1.3061388 1.2772106 1.4213964 3.0284526 3.0272346 3.1411228
2.5500267 2.5067563 1.6809063 1.9627184 1.258115 6.342629 2.8717718 4.6693826
1.3366596 2.8753934 0.24256118 0.15401632 2.0521812 2.3422713 2.2476509 1.4733695
2.3161306 1.3060576 1.127017 2.3361652 2.1263933 1.8147881 2.0030692 2.2579808
0.45849857 1.295396 0.6970313 2.1957479 2.2629642 2.3856153 2.0114958 2.6290703
2.1081088 1.7116786 2.8033466 2.3182967 1.766922 2.4618866 1.9866742 1.8905776
1.8250067 1.1626261 2.4000106 4.9414105 1.5999831 1.8866117 1.6133904 2.234016
1.540449 2.358123 0.6894804 1.396827 0.19370024 2.1207466 0.58550537 3.1478188
2.0043778 3.3030076 2.8224585 1.1092987 1.9129131 2.1785917 2.0214756 1.7539471
0.48485222 0.39459306 1.998721 2.1848674 1.3286525 1.8713624 2.4967833 3.7334683
1.9657389 2.4085798 2.5160487 2.2051394 2.103029 2.745167 2.6633995 2.141048
1.5584555 3.0807896 2.0892215 1.5277079 1.1839038 3.0659182 2.1234426 2.2036784
2.0013335 2.2688975 3.0228674 1.8906372 2.6872668 1.2381988 1.6979536 1.5886725
0.25437507 2.8092067 2.1734002 0.32682154 1.2069241 1.0003145 0.2812253 2.7163186
2.2922432 1.6119713 2.669276 1.4106314 1.887178 0.45262185 1.9423003 0.32750973
1.4420457 2.2000065 1.9371974 1.0146694 0.5143389 1.5132824 3.9747825 1.9439954
2.7465796 1.5855169 2.3226087 1.4403608 1.5223359 0.5181486 0.5485558 1.1631916
1.0278026 1.0602484 0.9737613 0.47317067 3.5747433 1.9148115 2.0454183 1.6456177
1.11992 5.257651 1.2172832 0.31895316 2.5037484 2.6295927 2.204403 2.4107058
1.114342 1.0708488 1.901309 1.0471164 2.1050558 2.0296493 2.118805 0.3584884
1.2612115 1.8356143 1.8194684 2.4587119 1.0286194 2.0639732 1.133657 0.72083366
2.248505 1.4658002 1.656974 2.712502 0.15661195 1.9193099 2.2777314 2.2791777
1.7797531 1.6922295 0.20651846 2.8054235 1.30979 2.0210357 2.1126516 2.054573
2.7935982 2.066282 1.3094754 2.629356 2.91886 1.3236773 2.9952016 3.753909
2.7199168 1.4736304 2.5458932 2.5023236 2.2036111 1.7921492 2.258929 1.8133724
2.557498 4.828523 2.4702353 0.5654562 1.5646927 1.654363 1.45195 1.7179686
2.285599 1.234575 1.319823 1.6163447 2.3112047 0.7963424 0.4410251 1.8317866
1.1821756 1.9316523 0.9345388 0.46168923 0.9066005 2.375735 0.5745163 2.6540513
2.7262516 1.9097888 1.2881483 0.25319502 0.33579767 2.7877593 4.399002 3.3200734
00000000: d4e0 f23f a048 2440 1e94 5040 49cf 943f
00000010: b82e 0640 e647 f53f 2778 1b40 19f8 3b40
00000020: 1b8f 213f 66ca 8540 442b 5e40 8651 423f
00000030: a0ee 3640 a158 4540 9228 8d3f a5e6 5440
00000040: 427d f83f 9850 1b40 8e40 5b40 077f 6540
00000050: 96bd c13e e303 0640 70df bf3f 2f89 833f
00000060: e973 0f3f 500f 6040 8e2f a73f a37b a33f
00000070: 51f0 b53f 2bd2 4140 36be 4140 2808 4940
00000080: a333 2340 b26e 2040 f027 d73f 5b3a fb3f
00000090: ea09 a13f d1f6 ca40 1ccb 3740 956b 9540
000000a0: a917 ab3f 7206 3840 f561 783e 74b6 1d3e
000000b0: f056 0340 c6e7 1540 83d9 0f40 5f97 bc3f
000000c0: 7c3b 1440 e52c a73f 1842 903f bb83 1540
000000d0: d416 0840 fa4a e83f 4932 0040 c282 1040
000000e0: 53c0 ea3e 89cf a53f a570 323f 2287 0c40
000000f0: 68d4 1040 ecad 1840 59bc 0040 b042 2840
00000100: 41eb 0640 4918 db3f 086a 3340 f95e 1440
00000110: 802a e23f 8d8f 1d40 574b fe3f 72fe f13f
00000120: d299 e93f efd0 943f c699 1940 0920 9e40
00000130: 3fcc cc3f 7e7c f13f 9483 ce3f 1efa 0e40
00000140: 6f2d c53f 7deb 1640 ca81 303f 3acb b23f
00000150: 5b59 463e 50ba 0740 aee3 153f dd75 4940
00000160: ba47 0040 7a64 5340 29a3 3440 80fd 8d3f
00000170: 56da f43f 0c6e 0b40 db5f 0140 5781 e03f
00000180: 8d3e f83e 1a08 ca3e 17d6 ff3f ded4 0b40
00000190: 4911 aa3f ce88 ef3f 4ccb 1f40 25f1 6e40
000001a0: 559d fb3f 2c26 1a40 f106 2140 0121 0d40
000001b0: 0798 0640 d1b0 2f40 2375 2a40 ee06 0940
000001c0: 787b c73f a82b 4540 ceb5 0540 ef8b c33f
000001d0: 298a 973f 0138 4440 7ce6 0740 1109 0d40
000001e0: d915 0040 9e35 1140 a976 4140 6600 f23f
000001f0: 2efc 2b40 4c7d 9e3f 8b56 d93f 9f59 cb3f
00000200: 733d 823e 0bca 3340 fd18 0b40 2755 a73e
00000210: 7d7c 9a3f 4e0a 803f c3fc 8f3e 2ad8 2d40
00000220: 1db4 1240 1355 ce3f 6bd5 2a40 928f b43f
00000230: 0c8f f13f 0dbe e73e 4c9d f83f 5baf a73e
00000240: f494 b83f e8cc 0c40 16f6 f73f b0e0 813f
00000250: b7ab 033f 3db3 c13f d662 7e40 d7d4 f83f
00000260: f6c7 2f40 38f2 ca3f 9fa5 1440 be5d b83f
00000270: e7db c23f 63a5 043f 276e 0c3f 76e3 943f
00000280: 098f 833f 38b6 873f 6c48 793f 6d43 f23e
00000290: 98c8 6440 8b18 f53f 22e8 0240 9aa3 d23f
000002a0: 8a59 8f3f ad3e a840 f0cf 9b3f d44d a33e
000002b0: 6a3d 2040 3f4b 2840 f014 0d40 0149 1a40
000002c0: c2a2 8e3f 9311 893f 185e f33f e907 863f
000002d0: 3cb9 0640 c6e5 0140 809a 0740 cb8b b73e
000002e0: 616f a13f 69f5 ea3f 57e4 e83f 895b 1d40
000002f0: cda9 833f 2318 0440 ac1b 913f 8e88 383f
00000300: 82e7 0f40 579f bb3f b917 d43f a299 2d40
00000310: e25e 203e f2ab f53f 5ac6 1140 0cde 1140
00000320: f3ce e33f fa9a d83f 9379 533e 0f8c 3340
00000330: 33a7 a73f a658 0140 af35 0740 207e 0340
00000340: 50ca 3240 f73d 0440 e49c a73f 5e47 2840
00000350: 9ace 3a40 426e a93f 62b1 3f40 0c40 7040
00000360: 1e13 2e40 ec9f bc3f eaef 2240 1226 2040
00000370: f707 0d40 2565 e53f 4b92 1040 961c e83f
00000380: 0cae 2340 4383 9a40 5618 1e40 bdc1 103f
00000390: da47 c83f 2bc2 d33f 7fd9 b93f 65e6 db3f
000003a0: 4147 1240 8e06 9e3f f6ef a83f 62e4 ce3f
000003b0: c7ea 1340 18dd 4b3f 0bce e13e fc77 ea3f
000003c0: 8851 973f 6240 f73f ef3d 6f3f 8862 ec3e
000003d0: f816 683f 0b0c 1840 8013 133f fadb 2940
000003e0: e87a 2e40 f673 f43f 0be2 a43f c7a2 813e
000003f0: aced ab3e a66a 3240 a0c4 8c40 157c 5440

bn2.bias f4 [300]
0.29549423 0.3329022 -0.36216828 -0.16894926 -0.5648052 -0.20658173 -0.31547824 0.19438292
-0.39441797 -0.3596577 0.1835352 -0.73279446 -0.10515304 -0.19609122 -0.5702953 -0.19060989
0.019579139 0.0017356708 -0.06826178 -0.36185154 -0.5963671 -0.6306999 0.083202 -0.45336482
-0.39677605 -0.5351 -0.11478872 -0.5726435 0.108380534 0.13737781 -0.2870333 0.24774453
-0.44863006 -0.6735739 0.35766235 -0.2710771 -0.05860446 0.03140348 -0.18815799 0.24194439
-0.14569879 0.2617104 -0.7016106 -0.8128452 -0.036707785 0.3582178 -0.35948274 -0.08481499
-0.365242 -0.109065145 0.3749263 -0.62956935 -0.19000167 -0.3884097 -0.73084605 -0.4582975
-0.5214518 -0.3497861 -0.9236357 -0.60463953 0.18531533 -0.21488447 0.10401308 0.03357181
-0.2831337 0.0073060794 -0.104032725 0.093332365 -0.23730563 0.26687372 -0.23405455 -0.33971745
-0.53318554 -0.66681725 -0.24861445 0.5166308 -0.28471825 -0.4356911 0.29346287 -0.56582236
-0.19623674 -0.15225138 -0.25315002 -0.44620377 -0.8003 -0.14468096 -0.41104347 -0.19097383
0.43132287 -0.22409166 -0.43238008 -0.39233005 -0.21720524 -0.46112436 0.2400784 0.20237833
-0.54462963 -0.5654091 -0.22158416 0.09706951 -0.75041044 -0.28079557 -0.058078535 0.053867623
-0.32627591 -0.036193125 0.16636978 -0.23401442 0.2532801 -0.23437178 0.059473664 -0.117166325
-0.18955624 0.34109023 0.22067177 -0.20975828 -0.39663032 -0.42030025 -0.6503467 -0.431349
0.01410833 -0.37823847 0.38320944 0.05699895 -0.17559147 -0.21778269 -0.12530369 -0.29715666
-0.6836633 -0.09657715 -0.42675042 -0.67958707 -0.29012555 -0.61502904 -0.6563221 0.035855703
-0.66577727 -0.29110882 0.25007296 -0.5307217 -0.017747136 -0.6080826 -0.5415457 -0.8786195
-0.1744134 0.18495758 -0.28148773 -0.45517996 -0.50756806 -0.6298061 -0.19887833 0.013087445
-0.40501192 0.04927856 -0.48391455 -0.36812985 -1.0870038 -0.3493889 -0.46944338 -0.71715933
-0.46454525 -0.2601343 -0.21054819 -0.6155437 0.48775408 -0.4510078 -0.26461965 -0.7275021
-0.56865436 -0.11088085 -0.81622374 -0.689853 0.07097184 -0.46808058 -0.16565208 0.055981226
-0.8108958 -0.5511108 -0.39262763 -0.76571965 -0.43493065 0.013744709 -0.08316951 -0.6502448
-0.23561564 -0.45718724 -0.67932963 0.05442073 -0.2900623 -0.13185795 0.16460672 0.54080623
0.026281845 -0.1880558 -0.21125832 0.24043714 -0.83125407 -0.38562986 -0.40586525 -0.43593147
-0.6910127 0.0038295754 -0.7996798 0.16399649 -0.35473022 -0.1411248 -0.44409394 -0.4566886
-0.099699914 -0.3043063 -0.5770126 -0.28537452 0.28980437 -0.46087366 -0.3769408 0.36789155
0.15466203 -0.9467706 -0.5675119 0.45108175 0.044553798 -0.58568954 -0.15781012 -0.058742076
-0.5217382 -0.16147625 0.100794695 0.5310883 -0.683385 -0.18495841 -0.32508594 -0.098576315
-0.48447824 -0.37718415 -0.47440454 -0.3063565 0.04521617 -0.5226672 -0.55782765 -0.0031634206
0.19170344 -0.06715539 0.3382556 -0.56153417 -0.34557107 0.07720346 -0.91261846 0.13191697
0.03780377 0.11271914 -0.62805724 -0.7413487 -0.6247927 0.41959333 -0.10867315 -0.0043817456
00000000: 054b 973e 2872 aa3e 1f6e b9be 0901 2dbe
00000010: 1397 10bf 298a 53be 5d86 a1be 510c 473e
00000020: 27f1 c9be 0e25 b8be a7f0 3b3e 6b98 3bbf
00000030: 7a5a d7bd 23cc 48be dffe 11bf 3d2f 43be
00000040: 6e64 a03c 737f e33a d5cc 8bbd 9b44 b9be
00000050: 84ab 18bf 8c75 21bf cf65 aa3d 6f1f e8be
00000060: 3b26 cbbe 50fc 08bf 5916 ebbd c498 12bf
00000070: 9df6 dd3d c5ac 0c3e 07f6 92be beb0 7d3e
00000080: d7b2 e5be 576f 2cbf 851f b73e 9eca 8abe
00000090: 3b0b 70bd efa0 003d 7dac 40be 45c0 773e
000000a0: 1032 15be e8fe 853e c19c 33bf 9f16 50bf
000000b0: e75a 16bd 5368 b73e 1f0e b8be 7bb3 adbd
000000c0: 0001 bbbe 8c5d dfbd 57f6 bf3e 752b 21bf
000000d0: cc8f 42be a3dd c6be ba18 3bbf f8a5 eabe
000000e0: dd7d 05bf 2a17 b3be 6473 6cbf a8c9 1abf
000000f0: 4dc3 3d3e ad0a 5cbe cf04 d53d 9882 093d
00000100: e6f6 90be d667 ef3b 1c0f d5bd 0a25 bf3d
00000110: 3f00 73be aca3 883e ffab 6fbe 72ef adbe
00000120: d97e 08bf 89b4 2abf c994 7ebe eb41 043f
00000130: 97c6 91be e712 dfbe c440 963e bcd9 10bf
00000140: 49f2 48be c9e7 1bbe e19c 81be d274 e4be
00000150: 76e0 4cbf 3f27 14be 4a74 d2be a58e 43be
00000160: 5ad6 dc3e 4978 65be ec60 ddbe 7cdf c8be
00000170: 0d6b 5ebe 7e18 ecbe 1dd7 753e 443c 4f3e
00000180: d96c 0bbf a7be 10bf f5e6 62be 61cc c63d
00000190: e61a 40bf 70c4 8fbe c2e3 6dbd 4ca4 5c3d
000001a0: a30d a7be 3e3f 14bd d75c 2a3e 7aa1 6fbe
000001b0: eead 813e 28ff 6fbe a89a 733d e6f4 efbd
000001c0: 081b 42be 61a3 ae3e c8f7 613e e0ca 56be
000001d0: 2113 cbbe 9831 d7be 1f7d 26bf c7d9 dcbe
000001e0: a026 673c 79a8 c1be 0734 c43e bb77 693d
000001f0: 40ce 33be 6d02 5fbe 9c4f 00be eb24 98be
00000200: 8f04 2fbf 3eca c5bd 087f dabe 6bf9 2dbf
00000210: 568b 94be 8b72 1dbf ba04 28bf 6edd 123d
00000220: 6170 2abf 370c 95be 9009 803e 61dd 07bf
00000230: 7162 91bc 4dab 1bbf bda2 0abf 35ed 60bf
00000240: 6d99 32be 8565 3d3e 291f 90be 590d e9be
00000250: fbef 01bf f93a 21bf c3a6 4bbe b96c 563c
00000260: b95d cfbe 51d8 493d a6c3 f7be 847b bcbe
00000270: f122 8bbf 1ae3 b2be e25a f0be c197 37bf
00000280: e0d8 edbe 5330 85be f299 57be 4694 1dbf
00000290: e7ba f93e 7fea e6be 3a7c 87be 943d 3abf
000002a0: 5593 11bf 8015 e3bd 0af4 50bf 359a 30bf
000002b0: af59 913d 42a8 efbe b3a0 29be 924c 653d
000002c0: de96 4fbf 9915 0dbf 7d06 c9be 3406 44bf
000002d0: 3baf debe 7d31 613c c754 aabd 7176 26bf
000002e0: 3a45 71be 7214 eabe 8ce8 2dbf 45e8 5e3d
000002f0: 0c83 94be c505 07be aa8e 283e 4772 0a3f
00000300: 064d d73c b391 40be 1a54 58be 2735 763e
00000310: 11cd 54bf 4771 c5be 92cd cfbe 6932 dfbe
00000320: 35e6 30bf 9df9 7a3b d1b7 4cbf b2ee 273e
00000330: 339f b5be 0583 10be 4860 e3be 17d3 e9be
00000340: 782f ccbd 09ce 9bbe 19b7 13bf 9c1c 92be
00000350: 3d61 943e a2f7 ebbe 62fe c0be 485c bc3e
00000360: b95f 1e3e 8f5f 72bf 7648 11bf 30f4 e63e
00000370: 0b7e 363d c0ef 15bf fa98 21be 889b 70bd
00000380: a290 05bf 085a 25be 736d ce3d 67f5 073f
00000390: 52f2 2ebf bd65 3dbe aa71 a6be 61e2 c9bd
000003a0: 880d f8be 481e c1be 27e5 f2be c2da 9cbe
000003b0: 9734 393d 85cd 05bf cbcd 0ebf 6451 4fbb
000003c0: e84d 443e c488 89bd d72f ad3e b4c0 0fbf
000003d0: b1ee b0be d91c 9e3d 5da1 69bf 3e15 073e
000003e0: 20d8 1a3d 4bd9 e63d 5cc8 20bf 07c9 3dbf
000003f0: 6af2 1fbf f0d4 d63e 0790 debd bf94 8fbb
