tmp/ddpg/actor_ddpg.pth (torch, 511239 bytes, 10 tensors)

fc1.weight f4 [400, 11]
000000 eb a2 86 bd 34 66 5a be 53 c6 a8 3e aa d9 d4 3d
       -0.06574043 -0.2132805 0.3296381 0.103930786
000010 22 27 9b 3e 56 49 11 3f 43 57 bd 3e f2 0a a8 3e
       0.30303293 0.56752527 0.36980638 0.3282085
000020 e8 0d f2 3e 4d 1b f2 3e c8 46 de 3e b1 76 9b 3e
       0.47276235 0.47286454 0.43413377 0.30363992
000030 3a 78 bb be 64 2b 9b 3e 2d d4 77 3d 51 aa 8f 3e
       -0.36615163 0.30306542 0.06050508 0.2805963
000040 c2 43 40 3f 04 9b 08 3f 72 63 8f 3e 55 46 e4 3e
       0.7510339 0.53361535 0.28005558 0.4458491
000050 6d f7 cf 3e 98 3d c1 3e 2f 9c dd 3e fd cf c4 be
       0.40618458 0.37742305 0.4328322 -0.38439932
000060 27 5f 01 3e c9 ca 78 3d 97 04 d8 3e e2 fc 77 3f
       0.12633954 0.060740266 0.42191002 0.96870244
000070 49 89 86 3e 58 97 05 3e 8b 55 47 3e 88 9f 50 3e
       0.26276615 0.13046014 0.19466226 0.20373356
000080 8c 2b 29 3e 1a 73 dd 3e ef 19 cc be b4 a0 45 3d
       0.16520518 0.43251878 -0.39863536 0.04824896
000090 49 5d b8 3d c1 63 ad 3e db 18 2a bf a0 91 97 3d
       0.09002168 0.3386517 -0.66444176 0.07400823
0000a0 43 78 21 3e 43 00 7e be 95 7a 0a 3c d7 c0 07 be
       0.15768532 -0.24804787 0.008452077 -0.13257156
0000b0 f6 03 9f be 77 73 7e bc ae 3c 4f 3d 1e 00 d7 bd
       -0.3105771 -0.015530459 0.050594978 -0.10498069
0000c0 56 f3 c4 be c6 26 67 3e da 1e 2c bd 28 b9 f7 3e
       -0.384669 0.22573385 -0.04202161 0.4838345
0000d0 06 8a dc 3e 34 eb e1 3e c1 da 06 3f 01 c3 99 be
       0.43074054 0.44124758 0.5267754 -0.3003159
0000e0 5c f6 3b be a8 05 13 3f 1b 79 0d 3e 66 d6 14 3f
       -0.18355697 0.57430506 0.1381573 0.58139646
0000f0 e4 da e9 3e b1 b6 82 3e bb c7 ab 3e ad 1c f1 3e
       0.45674813 0.25530007 0.3355082 0.4709219
000100 d0 ca c3 3e 3f 68 e9 3e db c8 71 3e 75 e4 a6 bd
       0.3824067 0.45587346 0.23611777 -0.081490435
000110 78 54 44 3e 89 63 0b 3d 9a 06 d8 3e f6 5b 06 3f
       0.19172847 0.03403047 0.42192537 0.5248407
000120 99 32 47 3f 97 8e 12 3f ce 73 02 3f 12 cf fd 3e
       0.7781158 0.57248825 0.50957954 0.49572045
000130 e3 3a ee 3e 0a 78 b3 3e eb 41 bf be 4e 09 89 3d
       0.46529302 0.3505252 -0.3735498 0.06691228
000140 8c ec 72 3d 48 de b1 3e 95 4f 05 3d 3d 52 b8 3e
       0.05930762 0.347399 0.0325466 0.36000243
000150 33 c5 96 3e 66 2d 7d be 06 c7 fb bd 05 b6 fc bd
       0.29447326 -0.2472435 -0.1229382 -0.12339405
000160 9e de b3 3e f2 93 43 be 37 83 79 3e 68 c1 a4 3b
       0.3513078 -0.19099405 0.2436646 0.0050279386
000170 11 18 cd 3e 5d 9d 52 3f 5a fe 04 3f 4e 69 d8 3d
       0.40057424 0.8227137 0.5195061 0.1056696
000180 6c 84 5c 3e cc 0f 62 3e ab ce 51 3e 08 e9 93 3e
       0.2153489 0.22076339 0.20488994 0.28888726
000190 2e 71 79 be 8f 1e e4 3e 70 66 77 3d 80 8e 1b 3e
       -0.24359581 0.44554564 0.060400426 0.15191078
0001a0 d0 b3 6e 3f 6d e1 27 3f 44 58 1a 3f b4 c7 ee 3e
       0.9324312 0.6557835 0.6029093 0.46636736
0001b0 b4 9a fa 3e f9 30 ea 3e b5 eb 79 3e 40 67 83 be
       0.48946154 0.45740488 0.24406321 -0.2566471
0001c0 15 18 8a 3e 49 83 9f 3d cb 18 b4 3e 92 0e eb 3e
       0.26971498 0.077887125 0.35175166 0.45909554
0001d0 bb 96 28 3f 3e 58 0d 3f 7a 9f 86 3e 10 83 8e 3e
       0.65854996 0.5521277 0.26293546 0.27834368
0001e0 78 9e 91 3e 0d 55 88 3e 25 21 b1 be 54 d5 da 3e
       0.28441215 0.2662739 -0.345956 0.4274088
0001f0 2c 98 13 3c a9 36 ec bc 30 1c 35 bf e7 14 52 3e
       0.009008449 -0.028834658 -0.70746136 0.20515786
000200 f1 7a aa 3e d2 11 f5 3e f5 05 e8 3e 16 2b de 3e
       0.33296922 0.47865158 0.45317045 0.43392247
000210 95 2f 1a 3d c2 f1 a4 be 46 e5 5d 3e 60 23 21 bd
       0.037643034 -0.32215697 0.21669492 -0.039340377
000220 b1 2c 7a 3e c9 3a 13 bf 1a d7 12 3f a7 29 01 3e
       0.24431111 -0.57511574 0.5735947 0.12613545
000230 4e 60 f2 3d 96 0a 21 3e 50 92 5b 3e 3d 02 1b 3e
       0.11834775 0.15726694 0.21442533 0.15137573
000240 ef 0c b8 be 7e dd f6 3e 6d 72 86 3d ba d7 80 3e
       -0.35947368 0.4821586 0.06564794 0.25164586
000250 c2 e8 89 3f 11 72 c9 3e 73 99 4c 3d 22 e1 16 3f
       1.0774157 0.39344838 0.049951028 0.58937275
000260 de c1 29 3f f6 d2 06 3f ae fd 42 be f3 90 05 bd
       0.6631144 0.5266565 -0.19042084 -0.032608937
000270 f8 58 21 3d 9e c6 1b 3e 8a 12 f1 3d 9d 4d a7 3e
       0.039391488 0.15212485 0.11771114 0.32676402
000280 bf a0 ec 3e 2d 42 37 3e 7f 50 84 3e 18 71 ac 3e
       0.4621639 0.17896338 0.25842664 0.33680034
000290 76 33 3c 3e 16 6f b2 3e 73 7d 95 be 17 10 83 3e
       0.18379006 0.34850377 -0.29197273 0.25598213
0002a0 19 a8 d5 3d 00 56 eb 3e 51 b5 b0 3e 34 6b c0 3e
       0.10432453 0.4596405 0.34513333 0.3758179
0002b0 a7 66 11 3f 62 3b 43 bf 1d a2 0c bf bd e0 ee be
       0.5679726 -0.76262486 -0.54934865 -0.46655837
0002c0 ac de 5d 3e da c0 13 bf 8b 11 7d 3e 64 01 f1 3d
       0.21666974 -0.57716143 0.24713723 0.11767843
0002d0 10 21 bd 3e ec c6 88 be 7b 3d ae 3e 88 3c bc bd
       0.36939287 -0.26714265 0.3403128 -0.09191233
0002e0 2f 6a bc 3d 08 48 14 3e f4 3d 35 3d ed ff 57 be
       0.091999404 0.14480603 0.044248536 -0.21093722
0002f0 8b 9a e7 3d e3 64 9a bd 80 e6 05 be a3 ae 31 be
       0.113087736 -0.07538774 -0.1307621 -0.17351775
000300 91 67 dd 3e c7 c9 6e 3e b0 f7 f0 3e 99 fe 20 3e
       0.43243077 0.2331916 0.4706397 0.15722121
000310 b6 83 31 3e 8c 77 4a 3e cc 40 83 3e a4 bb a3 be
       0.173354 0.19772166 0.25635374 -0.31979096
000320 c3 06 e9 3e a9 3f ac 3d d0 cd 7d 3e 46 f9 17 3f
       0.4551297 0.0841058 0.24785542 0.59364736
000330 06 21 2f 3f a0 8f 55 3f 3d 3d c3 3e bc 50 a3 3e
       0.68409765 0.8342228 0.3813266 0.31897533
000340 08 cb a6 3e 0f 33 1e 3f 88 5a 34 bf 8c 49 e8 3e
       0.32576776 0.6179666 -0.7045064 0.45368612
000350 07 1a 14 3d 0c f1 3c 3f 12 e2 28 3f fb e1 8e 3e
       0.036157634 0.7380531 0.65969956 0.27906784
000360 d0 85 54 3e cf ba 0e 3f 24 61 39 3f 4d 44 18 3f
       0.2075417 0.557538 0.7241385 0.5947922
000370 ad ab ce 3e 51 1b ca be e8 4d 8d 3e c1 22 88 3d
       0.40365353 -0.39473966 0.275985 0.06647254
000380 18 20 e3 3e 8f b4 42 3f 04 0d 1e 3f 1d ba 1e 3e
       0.44360423 0.7605676 0.6173861 0.15500684
000390 aa 51 30 3e 32 e4 92 3e 4d 6b 13 3e af 04 3c 3e
       0.17218652 0.28689724 0.14396401 0.18361162
0003a0 b9 6c f1 bd 93 4e f2 3e 4b 27 7b 3d a4 e7 6e bd
       -0.11788315 0.47325572 0.06131677 -0.05832638
0003b0 42 a1 0d 3f 64 06 e0 3e 99 92 2d 3f 08 5c 40 3f
       0.55324185 0.43754876 0.67801815 0.7514043
0003c0 37 5b 2b 3f 0b 83 2b 3f ed 0f 15 be 36 ed 03 bf
       0.6693606 0.6699683 -0.14556856 -0.5153383
0003d0 cc 32 b1 3d 4a e2 f7 3d c5 ee 9b 3e ad 54 31 3e
       0.08652267 0.12103708 0.30455604 0.17317457
0003e0 01 1d a9 3e 66 8e e9 3b 33 12 18 bd 80 2d 8b bd
       0.3302994 0.007127571 -0.03712673 -0.06795788
0003f0 f3 db d5 3b c2 36 90 3e f9 bd 56 be d2 99 7b 3e
       0.006526464 0.28166777 -0.20970906 0.24570397

fc1.bias f4 [400]
000000 59 04 5c 3e 22 42 91 3e 27 56 83 3c 4b 6a 8e 3e
       0.21486033 0.28370768 0.016032292 0.2781547
000010 bc 8b aa 3d 24 47 11 3f 8b 8a 46 3e 92 55 8e 3e
       0.083274335 0.56749177 0.19388787 0.2779966
000020 cb 79 00 3e 28 09 ad 3e 55 97 5e 3e f8 01 d8 3e
       0.1254646 0.33796048 0.21737416 0.42189002
000030 cc d7 80 3e c6 7b b4 3e a7 74 03 3e d3 4b e3 3e
       0.2516464 0.35250682 0.12837468 0.44393787
000040 be e1 94 3e 3c 35 96 bd 3e 14 b1 3e 1f c0 e8 3e
       0.29078478 -0.073343724 0.34585756 0.45459077
000050 3f 9f 66 3e cd d5 c3 3e 31 f1 a7 3d 20 75 f2 3d
       0.22521685 0.38249055 0.082003005 0.11838746
000060 05 98 5f 3e 6e 26 9a 3e 6f b4 cf 3e ae 2f 85 3e
       0.21835335 0.30107445 0.40567347 0.2601294
000070 48 0d 4b 3e e0 1f ed 3e d2 f1 dd 3e aa 21 dd 3e
       0.19829285 0.4631338 0.43348557 0.43189746
000080 cf e1 89 3e 3c f3 c6 3e 20 62 dc 3e 37 22 ab 3e
       0.2693009 0.38857448 0.43043613 0.3342454
000090 9b f9 a9 3e 96 ad 2d 3e 12 f3 9d 3e 79 65 0b 3f
       0.33198246 0.16960749 0.3084951 0.5445171
0000a0 4a 58 6d 3e dd 7d ba 3e 0f f8 85 3e 3d 44 a6 3e
       0.23178211 0.3642415 0.26165816 0.32473937
0000b0 30 e1 9c 3e 3a 09 be 3e 2c dc d4 3e 84 dc e1 3e
       0.30640554 0.37116414 0.41574228 0.44113553
0000c0 76 a4 48 3e 7d 78 7e 3e 9b c3 af 3e 73 61 34 3e
       0.19593987 0.2485065 0.34328923 0.17615299
0000d0 74 39 a0 be 9a 4b 4e 3e 98 81 b9 3e af c7 b5 3e
       -0.31293833 0.20146027 0.36231685 0.3550391
0000e0 92 4d 76 3e fe bf 5c 3e 45 7f 18 3e bf ad 89 3e
       0.24053028 0.21557614 0.148923 0.2689037
0000f0 22 c2 e8 3e ad 90 22 3e 65 fa 75 3e f0 a3 74 3e
       0.45460612 0.15875502 0.24021299 0.23890662
000100 5c d7 e0 3d bc 5c 6a 3e 90 28 9d 3e 23 e5 22 3e
       0.109785765 0.22886938 0.3069501 0.15907721
000110 1c c2 bd 3e b6 87 ce 3e 39 1d 81 3e 0f 72 52 3e
       0.37062156 0.40337914 0.25217608 0.20551322
000120 85 f6 c8 3e c9 92 99 3e 56 35 d5 3e d7 e3 db 3d
       0.3925058 0.299948 0.41642255 0.107368164
000130 14 2e 93 be bf 0d a9 3e b9 dd 06 3f b3 30 b2 3e
       -0.28746092 0.330183 0.5268207 0.3480278
000140 28 1e 0a 3e e5 4f 83 3e 5a 34 94 3e 42 6a c2 3e
       0.13488066 0.25646892 0.2894619 0.37971693
000150 c9 04 3f 3e 9a b6 e4 3e ea 22 a1 3e 4a 4d 2a 3e
       0.18654169 0.44670564 0.3147195 0.16631046
000160 fc 62 0f 3e 18 79 02 3f 89 f6 92 3e d9 5e f8 3d
       0.14002603 0.50966024 0.28703716 0.12127466
000170 e5 93 bc 3e ee 09 59 3e 9a 14 69 3e 2c 4d af 3e
       0.36831585 0.21195194 0.22761765 0.34238565
000180 38 47 8a 3e 29 78 ad 3e 1a 81 bb 3e 36 0b 6b 3e
       0.2700746 0.33880737 0.36621934 0.22953495
000190 bd e8 d7 3e fa 8d 7f 3e 84 1e 1c 3e 58 81 43 3e
       0.42169753 0.24956504 0.15246016 0.1909231
0001a0 82 05 aa 3e fb 7a 27 3e 2f 17 ec 3e 07 58 b1 3e
       0.33207327 0.16355507 0.46111438 0.34637472
0001b0 54 ca d3 3e 54 3f 4c 3e 48 41 5c 3e c3 20 9d 3e
       0.41365302 0.19946033 0.21509278 0.30689058
0001c0 61 df 51 3e ff cd 52 3e bc ba f5 3e c3 f2 d9 3e
       0.20495369 0.20586394 0.4799403 0.42568025
0001d0 0c f7 d2 3e b3 64 b6 3e a0 ad 93 3d 5c ea ae 3e
       0.41204107 0.35623702 0.07210851 0.34163177
0001e0 6b 58 d2 3e 5c 6b ab 3e 2b e9 82 3e a4 9e 88 3e
       0.41083083 0.33480346 0.25568518 0.26683533
0001f0 e9 2e 9d 3e 69 59 12 3d 33 b8 3a 3e 00 02 97 3e
       0.30699852 0.0357298 0.18234329 0.29493713
000200 e9 5a 38 3e df 6a da 3d 48 57 8e 3e bf b9 54 3e
       0.1800343 0.10664915 0.27800965 0.20773982
000210 40 3c c6 3e 7e 53 c0 3e 90 a4 bf 3e 4e af 98 3e
       0.38717842 0.375637 0.3743024 0.29821247
000220 bb 69 93 bd d6 52 a5 3e c4 04 03 3f f1 43 f8 3d
       -0.07197901 0.3228976 0.51179147 0.12122334
000230 fd 55 11 3e f3 6e e0 3d 44 da 8f 3e 89 9e 7f 3e
       0.14192958 0.10958662 0.2809621 0.2496282
000240 10 79 59 3e 6e 4f 58 3e c3 11 39 3e b3 f2 b6 3e
       0.21237588 0.2112405 0.18073182 0.3573204
000250 5f 5c 4a 3c 5c de 04 3f 54 32 97 3e 7d a3 85 3e
       0.012351125 0.51901793 0.29530585 0.26101294
000260 2e 0b f1 3d 9c 8e 17 3e 81 af a1 3e 96 92 e5 3e
       0.117697105 0.14800495 0.3157921 0.448384
000270 35 8f b2 3e 02 4b 8d 3e de 25 be 3e 99 0c 7e 3d
       0.34874883 0.2759629 0.37138265 0.062023733
000280 21 6d e4 3e 00 0d eb 3e 3a a9 68 3e c8 6a 9c 3e
       0.4461451 0.45908356 0.22720805 0.30550218
000290 34 c4 b0 3e 4d b0 b6 3e ea e5 63 3e ef a9 03 3e
       0.3452469 0.35681382 0.22255674 0.12857793
0002a0 5d 86 38 3e 1b cb 01 3e 1e 77 c9 3e 03 8b 1b 3d
       0.18020006 0.12675135 0.39348692 0.03797437
0002b0 84 82 57 3e d9 df 3e 3e 14 8a 18 3e 68 0f 47 3d
       0.21045882 0.18640079 0.14896423 0.048598677
0002c0 81 34 5c 3e d6 59 c7 3d b0 92 74 3e a7 e6 87 3e
       0.21504404 0.09733932 0.23884082 0.2654316
0002d0 d0 1d 0d 3e 90 74 98 3e 17 19 c7 3e df e8 43 3e
       0.13780904 0.2977643 0.3888633 0.19131802
0002e0 52 87 d6 3e c5 74 7d 3e 87 c5 24 3f 99 84 c9 3e
       0.41900116 0.24751575 0.643639 0.39358976
0002f0 fd d7 8e 3e 6c 1a 4d bd df 8c 97 3e b2 2f 40 3e
       0.2789916 -0.050074026 0.29599664 0.18768194
000300 2e 82 b4 3e 9d 2d 53 3e 51 f6 b1 3e ea c5 3d 3e
       0.3525557 0.20622869 0.34758237 0.1853253
000310 9f 38 fe 3d 21 f8 24 3e 89 d0 dd 3e e5 4e d2 3d
       0.12413143 0.16110279 0.43323162 0.10268954
000320 a6 76 6e 3e d9 11 0d 3f 4a 4f 35 3f 99 e5 60 3e
       0.23287448 0.5510536 0.7082411 0.21962585
000330 49 a1 95 3e 4c 35 c1 3e b7 30 81 3e 5d 6a 48 3f
       0.29224613 0.37735975 0.2523248 0.782873
000340 90 a9 f1 3e dd 46 65 3d 70 9b 38 3e 1a d9 15 3e
       0.47199678 0.055975784 0.18028045 0.14633599
000350 de 1d be 3e 6f d4 d5 3e 67 c1 ca 3e 67 65 11 3e
       0.37132162 0.41763636 0.3960068 0.14198838
000360 88 b4 2c 3e f6 c0 a4 3e da 70 6d 3e e4 70 42 3e
       0.16865742 0.32178468 0.2318758 0.18988377
000370 8b 77 dc 3d 03 af c0 3e 0b f2 4c 3d 45 d3 6c 3e
       0.107649885 0.37633523 0.050035518 0.23127468
000380 54 db 64 3e 99 96 6e 3e bd 44 6f 3e f8 9f 9c 3e
       0.22349292 0.23299636 0.23366065 0.30590796
000390 7a fb ba 3e 1a 01 0a 3e 7e 8b d2 3e da fa cb 3e
       0.36519986 0.13476983 0.4112205 0.39839822
0003a0 ec c3 b3 3e d6 b7 86 3e 92 a3 94 3e cc dd eb 3e
       0.35110414 0.2631213 0.29031044 0.46067655
0003b0 2c 25 bf 3e 5e d5 dd 3d 1c a4 9b 3e 2d 1c 8d 3b
       0.37333047 0.10831712 0.30398643 0.0043063373
0003c0 cf e9 03 3f ee e4 ab 3e 8b 1c 95 3e 78 55 09 3f
       0.5152864 0.33573097 0.2912334 0.5364604
0003d0 d3 04 70 3d f4 97 2b 3d 19 cd 91 3e bc 2b c9 3e
       0.05859835 0.04189296 0.2847679 0.3929118
0003e0 97 a1 6e 3d a0 26 9c 3e a2 6d 8a 3e 4f 2f 9c 3e
       0.058259573 0.3049822 0.27036768 0.30504844
0003f0 f9 7e 6d 3e 79 f7 97 3e 75 15 ad 3e 9a 72 1d 3f
       0.23192967 0.29680994 0.33805433 0.61502993

fc2.weight f4 [300, 400]
000000 f0 5e 72 3f 58 ce a9 3e d5 d6 67 3f eb 53 c2 3d
       0.94676113 0.3316524 0.9056218 0.09488662
000010 5d 8b 77 3f b1 0c 4e 3f 7c 12 b4 3f f0 1d 81 3e
       0.96697026 0.80488116 1.4068141 0.25218153
000020 ca 13 89 3f 34 cc b7 3f ae 14 ee 3e d7 f2 39 3f
       1.0709164 1.4359193 0.46500152 0.7263617
000030 8e d2 19 3f af b3 8a 3f 07 d4 3c 3f 47 e9 09 3f
       0.60086906 1.0836085 0.7376103 0.5387158
000040 82 12 b8 3e 99 99 67 3f d9 65 42 3f ea ea 52 3f
       0.3595162 0.90468746 0.7593666 0.823897
000050 32 94 1f 3f c6 03 a3 3f 89 f8 35 3d 5f 03 7a 3f
       0.62335503 1.2735527 0.044426475 0.97661394
000060 56 e0 58 3f 14 e5 80 3f 1a df 82 3f 2e a5 c8 3f
       0.8471731 1.0069909 1.0224335 1.5675409
000070 23 e8 5d 3f c0 5b 18 3f 8d ce 87 3f 33 fb dc 3e
       0.8668234 0.59515 1.0609909 0.431604
000080 2d 77 34 3f 79 b4 8b 3f 90 2c c0 3f 99 b9 8e 3f
       0.7049435 1.0914451 1.5013599 1.115039
000090 6f 2c ab 3d 0a 25 80 3f 39 d1 5a 3f 32 35 2d 3f
       0.083580844 1.0011303 0.854755 0.67659295
0000a0 e5 ef 5f 3e a5 ac ac 3f 73 90 23 3f 87 c1 82 3f
       0.21868856 1.3490187 0.63892287 1.021531
0000b0 07 b8 2a 3f c5 f3 76 3f 32 e5 76 3f 53 09 fb 3e
       0.66687053 0.9646571 0.96443474 0.4903055
0000c0 bc 21 9d 3f dd 00 0c 3f 2c 77 77 3f 7c af 63 3f
       1.227592 0.5468882 0.96666217 0.8893964
0000d0 fd bd 0b 3f bb 25 1c 3f d1 d5 f4 3f c8 ac 35 3f
       0.54586774 0.6099507 1.9127752 0.7096677
0000e0 70 21 8f 3f bc 5c 07 3f 6c fe 82 3e 84 a4 b0 3f
       1.1182079 0.52875876 0.25584733 1.3800206
0000f0 91 b2 6d 3f e3 7e 0a 3f d7 1d aa 3e 76 23 ce 3e
       0.92850596 0.54099864 0.3322589 0.4026143
000100 d8 96 97 3f dc e8 3e 3f 6d 65 76 3f 0e ca 9f 3f
       1.1842909 0.74574065 0.96248513 1.2483537
000110 7d a2 18 3f 38 44 44 3f b3 8a 4d 3f ad 97 9a 3e
       0.5962294 0.76666594 0.80289763 0.30193844
000120 ae 50 85 3f 03 40 22 bf 89 8c c4 3e a0 b6 8d 3f
       1.0415246 -0.63378924 0.3838847 1.1071358
000130 37 0a 2e 3f 70 fc 8d 3f fc 23 b8 3e f8 74 93 3f
       0.67984337 1.1092663 0.35964954 1.1520071
000140 ee 0a 5f 3f db 83 87 3f d0 72 6d be 6d 1c a8 3f
       0.8712605 1.0587114 -0.23188329 1.3133675
000150 6f 16 16 3f 09 e3 1c 3f c7 02 5c 3f 5b 16 80 3f
       0.5862798 0.6128393 0.8594174 1.0006822
000160 6b 08 67 3f 51 d4 3e 3e a8 0d 87 3f 1a 28 9c 3f
       0.9024722 0.1863568 1.0551043 1.2199738
000170 9d 33 13 3f 1b d1 89 3f e2 59 6e 3f db c5 b1 3e
       0.5750063 1.0766939 0.931059 0.34721264
000180 6f d9 e7 3e 00 ee e0 3e 3f d6 c8 3f 35 42 56 3f
       0.45283076 0.4393158 1.5690383 0.83694774
000190 eb 6e 59 3f 42 c7 a6 3f 3f 20 85 3f 0d 56 59 3f
       0.8493487 1.3029559 1.0400466 0.8489693
0001a0 f2 54 0f 3f 2e 3b 53 3f aa 39 95 3f 7e a7 a9 3f
       0.5598899 0.82512176 1.1658223 1.325424
0001b0 eb e9 6a 3f df 7e 57 3f ab 3e 39 3f e1 18 89 3e
       0.9176318 0.84177965 0.7236125 0.26776794
0001c0 e5 0c 7d 3f c5 7c 35 3f 5d 3c 3f 3f d9 31 30 3f
       0.988478 0.7089351 0.7470148 0.6882606
0001d0 11 b6 68 3f 88 1b fc 3e 92 8a 88 3f 0d fd b0 3e
       0.9090281 0.49239755 1.0667288 0.34568062
0001e0 fc 31 6a 3f 5f 7f 03 3f cb 0b 12 3e 3f 8c 7d 3e
       0.9148252 0.5136623 0.14262311 0.24760531
0001f0 4f a8 50 3f 22 d6 35 3f 2d 68 3b 3f 39 49 b3 bb
       0.8150682 0.71029866 0.73205835 -0.0054713753
000200 e5 c8 02 3f 32 05 17 3f 46 5b 6b 3f 90 1b 50 3f
       0.5108779 0.589923 0.9193615 0.8129206
000210 fb 92 62 3f c9 b2 6b 3f b4 d8 11 3f 40 b2 2f 3f
       0.88505524 0.9206968 0.5697129 0.6863136
000220 03 b7 5d 3f 09 6b a0 3e c3 2f ad 3f 7d d8 3a 3f
       0.8660738 0.3133166 1.3530201 0.72986585
000230 d5 49 a4 3d 5e 1e 84 3f a3 ee a2 3e 46 e4 9e 3e
       0.08021895 1.0321767 0.3182269 0.31033534
000240 06 98 24 3e b5 3b 22 3f 8a 66 6f 3f cb cc 75 3f
       0.16073617 0.63372356 0.9351584 0.96015614
000250 77 3e 84 3f e5 65 85 3f 2d 22 32 3f b6 a2 6d 3f
       1.0331563 1.0421721 0.695834 0.928264
000260 54 9c 6d 3f 1e 58 5b 3f 28 f2 35 3f 1b da 56 3f
       0.9281666 0.8568133 0.71072626 0.8392655
000270 6d da 73 3f 22 46 bf 3e 21 62 30 3f 93 75 13 3f
       0.95255166 0.37358195 0.6889973 0.5760128
000280 3f 96 1e 3f 08 f8 7c 3f 9a 4d 0d 3f 8a 5b 3b 3f
       0.6194801 0.98815966 0.55196536 0.7318655
000290 c3 ac 96 3f 27 44 19 be 73 33 3f 3e 85 a5 56 3f
       1.1771473 -0.14967404 0.1867197 0.8384631
0002a0 62 62 05 3f 68 b4 48 3f d2 78 d6 3d 9c 77 2a 3f
       0.52103245 0.7840028 0.104722634 0.6658876
0002b0 a8 5f 69 3f 6a ca c8 3f f5 e8 b1 3f 3e e3 3e 3f
       0.91161585 1.5686772 1.3899218 0.74565494
0002c0 e2 a2 e6 3e c9 95 0b 3f ed 38 c6 3e e5 67 39 3f
       0.45046145 0.5452543 0.38715306 0.72424155
0002d0 b3 ad 5e 3f cd 01 dc 3e fd 66 bf 3f 66 c6 38 3f
       0.86983794 0.42970124 1.4953305 0.7217773
0002e0 dc 29 f1 bd 9d 39 58 3f be 45 a2 be a4 42 6f 3f
       -0.11775562 0.8446291 -0.31693834 0.9346106
0002f0 98 c8 72 3f 03 87 b9 3f c1 2f c0 3f c7 c7 6e 3f
       0.9483733 1.4494327 1.5014573 0.93273586
000300 41 d9 5a 3f 2d 85 ed 3e b6 e9 46 3f 22 79 89 3f
       0.85487753 0.46390668 0.77700365 1.0740092
000310 3e 23 b3 3e e7 d9 7c 3f df 2e 27 3f 27 1e 72 3f
       0.34987825 0.9876999 0.65305895 0.9457726
000320 99 b6 cf 3e 35 eb 3c 3f 59 c3 7b 3f b5 3d b4 3f
       0.40568998 0.737964 0.9834495 1.4081331
000330 bc bd 56 3f 47 4b 5c 3f a6 9d 99 3f 2b 39 1d 3e
       0.8388326 0.86052364 1.2001235 0.15353839
000340 3e b9 e0 3e a5 cf 7a 3f a4 7c 27 3f f9 3c 9a 3f
       0.4389133 0.9797309 0.6542456 1.2049857
000350 be 67 96 3f 4c 16 ab 3e 72 65 80 3f 7c f3 f0 3e
       1.175041 0.3341545 1.0030959 0.47060764
000360 3e 51 e7 3e 8a 4c a7 3e 28 21 02 3f 26 55 1c 3f
       0.4517917 0.32675582 0.5083184 0.61067426
000370 80 0c 6e 3f d2 b0 eb 3e 13 03 90 3f 80 f0 e6 3e
       0.92987823 0.4603334 1.1250938 0.45105362
000380 d2 3d c7 3f 78 57 0c 3f 85 1a 68 3f e2 1c 6c 3f
       1.5565741 0.54820967 0.90665466 0.9223157
000390 bc 6a 27 3f 9c e1 81 3f f1 78 5e 3f 41 06 5b 3f
       0.6539724 1.0146976 0.8690329 0.8555642
0003a0 04 e5 80 3f d7 cb 93 3f 2a ac a3 3f 76 53 91 3f
       1.006989 1.1546582 1.2786915 1.1353595
0003b0 da 79 0e bf c7 92 67 3f f4 0c ab 3e cf ec 74 3f
       -0.5565468 0.9045834 0.3340832 0.9567384
0003c0 01 4d 44 3f 6c c3 ec 3e 75 6c 86 3f 1b d3 61 3f
       0.7668 0.46242845 1.0501848 0.88212746
0003d0 b1 7e 49 3f 17 78 93 3f c6 38 fb 3e ec c5 80 3f
       0.7870894 1.1521024 0.49066752 1.0060401
0003e0 8e 5f 72 3f b5 77 9f 3f cd 08 62 3f d7 4b 09 bf
       0.94677055 1.2458407 0.8829468 -0.5363135
0003f0 b0 9b c4 3f fa c7 4f be 4f 63 18 3f 2e 5c 1f 3f
       1.5360012 -0.20291129 0.5952653 0.6225003

fc2.bias f4 [300]
000000 e3 34 48 3f f7 4c 7d 3f ab cd 77 3f f3 64 1e 3f
       0.782057 0.98945564 0.967982 0.61872786
000010 e1 9b 83 3f bd 03 83 3f 56 e7 94 3f 80 d8 8a 3f
       1.0281945 1.0235516 1.1633098 1.084732
000020 86 21 60 3f cc a9 84 3f b4 1c 7e 3f f1 7a 9b 3f
       0.8755115 1.0364318 0.9926255 1.2146894
000030 c9 22 68 3f 1a 8d 84 3f 66 bc 8e 3f 7a 43 8f 3f
       0.9067808 1.0355561 1.1151245 1.1192467
000040 8f 17 43 3f 69 5d 89 3f f2 8c 33 3f d1 1b 67 3f
       0.7620782 1.0731632 0.7013694 0.9027682
000050 be 80 a1 3f 85 16 90 3f 70 1f 38 3f 82 e7 4d 3f
       1.2617414 1.1256872 0.7192297 0.8043138
000060 a1 80 9a 3f b0 6c 81 3f 09 e5 a4 3f 9e dd 84 3f
       1.2070504 1.0111294 1.2882396 1.0380132
000070 e7 9e 6c 3f 33 21 70 3f 55 63 3d 3f d2 dd 89 3f
       0.92429966 0.9380066 0.73979694 1.0770819
000080 a9 d6 45 3f ca 33 4b 3f bf da 84 3f 1f e3 3b 3f
       0.7728067 0.793759 1.0379256 0.73393434
000090 35 13 8d 3f 63 c4 8d 3f 14 88 71 3f 62 6c 44 3f
       1.1021487 1.1075557 0.94348264 0.7672788
0000a0 0c 29 25 3f 22 20 80 3f c6 48 8d 3f cf 53 8e 3f
       0.6451576 1.0009806 1.1037834 1.1119326
0000b0 7a e3 6b 3f 04 42 7e 3f d3 33 32 3f 2e 10 74 3f
       0.92143977 0.9931948 0.6961033 0.9533719
0000c0 40 8f 7d 3f 20 15 4c 3f d3 c4 80 3f be f6 78 3f
       0.9904671 0.79719734 1.0060066 0.972515
0000d0 7d c8 6e 3f 49 f2 9c 3f db 19 74 3f 83 75 7e 3f
       0.9327467 1.226144 0.9535195 0.9939806
0000e0 8f 05 7e 3f eb 9f 6a 3f ab b9 94 3f 49 1a 54 3f
       0.9922723 0.91650265 1.1619161 0.8285261
0000f0 cf 8c 91 3f ee 95 93 3f a2 02 80 3f e1 57 44 3f
       1.1371096 1.153013 1.0000803 0.7669659
000100 aa 29 94 3f e9 1b 89 3f 58 b0 6e 3f 9c 6e 56 3f
       1.1575215 1.0711643 0.9323783 0.83762527
000110 9a 9d 6d 3f 02 88 67 3f ec 96 82 3f f2 fc 60 3f
       0.92818606 0.90441906 1.0202308 0.87885964
000120 b1 e8 69 3f 26 7d 83 3f 4e 2d 7e 3f e8 34 89 3f
       0.91370684 1.0272567 0.9928788 1.0719271
000130 3e 16 8b 3f 98 65 82 3f d5 39 79 3f d3 3f 56 3f
       1.0866163 1.0187254 0.9735387 0.8369114
000140 66 34 27 3f 65 f4 5e 3f 36 22 87 3f e8 55 87 3f
       0.6531433 0.87091666 1.0557315 1.0573092
000150 63 a6 94 3f 47 0e 7c 3f 04 94 96 3f cf 35 53 3f
       1.1613277 0.98459285 1.1763921 0.8250398
000160 ab f2 73 3f d3 32 4d 3f 43 ff 77 3f 63 7a 8c 3f
       0.95292157 0.80155677 0.96873873 1.097485
000170 42 c0 9a 3f 25 fe 7a 3f 9c e2 1b 3f c9 ac 5b 3f
       1.2089922 0.98044044 0.60892653 0.85810524
000180 5d 0d 8d 3f 55 52 92 3f 6b 87 74 3f 29 a9 73 3f
       1.1019703 1.1431376 0.9551913 0.9517999
000190 58 e5 50 3f 88 0d 99 3f f0 b9 6c 3f 9c 01 42 3f
       0.8159995 1.1957254 0.9247122 0.75783706
0001a0 e3 a8 87 3f 40 df 90 3f 7c 45 5e 3f d9 7e 81 3f
       1.0598415 1.131813 0.86824775 1.0116836
0001b0 ac b8 58 3f 85 d5 73 3f fb 00 4c 3f 05 37 5f 3f
       0.84656787 0.9524768 0.79688996 0.8719333
0001c0 b2 d9 66 3f df 34 46 3f 9a 24 4f 3f a5 28 76 3f
       0.90175927 0.77424425 0.80915225 0.9615577
0001d0 e0 21 66 3f 42 ff 59 3f 6f 95 5b 3f 1f 0d 56 3f
       0.8989544 0.8515512 0.8577489 0.8361377
0001e0 84 a8 69 3f 92 9a 8e 3f 43 b0 62 3f 42 3a 7e 3f
       0.9127276 1.1140921 0.88550204 0.99307644
0001f0 44 b1 86 3f 87 24 1c 3f 28 3e 6d 3f dd 16 8d 3f
       1.0522847 0.60993236 0.9267297 1.1022602
000200 bc 42 90 3f 28 1a 82 3f 42 f6 6a 3f c5 1a a5 3f
       1.1270366 1.0164232 0.9178201 1.2898794
000210 0a a9 29 3f b0 2f 93 3f 52 4a 82 3f 6f e6 7d 3f
       0.6627356 1.1498928 1.0178931 0.9917974
000220 09 ae 7c 3f 42 6b 89 3f f0 a4 6a 3f b4 cf 8d 3f
       0.98703057 1.0735857 0.91657925 1.1079011
000230 95 ca 1c 3f b1 c2 8d 3f 8a 7e 66 3f 36 11 6e 3f
       0.61246616 1.107504 0.90036833 0.9299501
000240 cf 17 83 3f 84 36 7a 3f 26 56 56 3f f0 4b 70 3f
       1.0241641 0.97739434 0.837252 0.9386587
000250 1b 21 7e 3f 87 9b 55 3f de 48 5b 3f d0 c8 41 3f
       0.99269265 0.8344044 0.8565806 0.7569704
000260 ad 45 41 3f 28 10 67 3f db bd 8a 3f c9 ac 6e 3f
       0.7549694 0.9025903 1.0839189 0.932324
000270 ea 54 62 3f 73 d9 84 3f 93 6d 8d 3f 60 03 8d 3f
       0.8841082 1.037886 1.1049064 1.1016655
000280 a0 b5 8c 3f 51 1d 60 3f 8f ae 7d 3f 26 73 62 3f
       1.0992928 0.87544733 0.9909448 0.8845695
000290 da d7 83 3f bc cd 4e 3f 4a 2a 74 3f 61 28 62 3f
       1.0300248 0.80782676 0.9537703 0.88342863
0002a0 6e c6 87 3f fc b1 6a 3f ec 9b 90 3f cf ed 7f 3f
       1.0607431 0.9167783 1.1297584 0.9997224
0002b0 c5 0c 70 3f a5 fc 4f 3f 49 e6 71 3f 73 b3 48 3f
       0.93769485 0.8124488 0.9449201 0.7839882
0002c0 a1 8f 98 3f 24 7e 8f 3f e5 09 4a 3f ce b1 83 3f
       1.1918832 1.121037 0.7892135 1.0288637
0002d0 df 63 8c 3f 9f bf 50 3f a5 b9 6c 3f d1 eb 8c 3f
       1.0967978 0.8154239 0.9247077 1.1009465
0002e0 8c aa 7b 3f 26 00 85 3f e4 84 7b 3f a6 b2 77 3f
       0.9830711 1.039067 0.9824965 0.9675697
0002f0 5d 4a 97 3f 5a 72 81 3f 85 f3 8b 3f fa 37 67 3f
       1.1819569 1.0113022 1.0933691 0.9031979
000300 29 fa 67 3f 86 3c 54 3f 56 1c 8d 3f 49 8f 5d 3f
       0.9061609 0.8290485 1.1024272 0.8654676
000310 a1 ee 8c 3f b3 0b 85 3f 18 fb 55 3f df d0 57 3f
       1.1010324 1.0394195 0.83586264 0.84303087
000320 a8 48 91 3f f1 8c 7c 3f ba 79 93 3f 6a e6 5a 3f
       1.1350298 0.9865256 1.1521523 0.85507834
000330 38 1f 99 3f 6d 30 63 3f c8 6b 76 3f 8f 1b 8a 3f
       1.1962652 0.88745767 0.9625821 1.078966
000340 5a b1 44 3f bb 92 80 3f 79 60 96 3f c6 5b 7d 3f
       0.76833117 1.0044779 1.1748191 0.9896816
000350 72 d5 40 3f e8 36 3b 3f 6a 13 33 3f dd 46 55 3f
       0.7532569 0.73130655 0.699515 0.83311254
000360 3c 29 1b 3f 0b f6 84 3f 63 ba 4a 3f e9 fc 85 3f
       0.60609794 1.0387586 0.79190654 1.0467807
000370 a7 b9 62 3f d5 61 84 3f c1 11 68 3f 3d 00 6b 3f
       0.88564533 1.0342356 0.9065209 0.9179724
000380 a0 ea 72 3f 41 1d 89 3f 91 12 78 3f fa ec 58 3f
       0.9488926 1.0712053 0.9690333 0.847366
000390 5c b9 64 3f ba 12 67 3f 7d a7 68 3f d8 0c 81 3f
       0.89345336 0.9026295 0.90880567 1.0082045
0003a0 b5 6d 4a 3f d7 e6 7e 3f 3f 19 7e 3f c1 84 80 3f
       0.7907365 0.99570984 0.9925727 1.0040513
0003b0 61 b4 4e 3f 0e 86 9c 3f 7c 55 8d 3f b4 09 84 3f
       0.80743986 1.222841 1.1041713 1.0315461
0003c0 d7 60 4d 3f fe 69 73 3f 6f 2f 83 3f a9 6b 81 3f
       0.8022589 0.95083606 1.024885 1.011098
0003d0 0a ad 83 3f 8e 41 8c 3f 20 aa 8d 3f 91 2b 4c 3f
       1.0287182 1.0957506 1.1067543 0.7975398
0003e0 c4 b5 6f 3f 0a 36 5c 3f 8b b5 65 3f 4a 5a 89 3f
       0.9363673 0.8601996 0.8973014 1.0730679
0003f0 ee ff 77 3f fa ba 36 3f e7 35 68 3f fa d8 59 3f
       0.9687489 0.71379054 0.9070725 0.85096705

bn1.weight f4 [400]
000000 ef 99 85 3f 2b 38 4f 3f f5 06 2a 3f 78 0f e8 3f
       1.0437602 0.8094508 0.66416866 1.8129721
000010 59 23 f8 3f 31 8b c9 3f c2 69 b2 3f 1d eb af 3f
       1.9385787 1.5745603 1.3938525 1.3743626
000020 d8 ad 1c 3f 7e 45 8f 3f a3 d9 85 3f e6 a8 ce 3f
       0.61202765 1.1193082 1.0457042 1.6145294
000030 d1 41 8e 3f c3 0e 65 3f 67 84 97 3f 2c ff 4b 40
       1.1113836 0.8947565 1.1837281 3.1874495
000040 23 20 b3 3f 23 c4 d4 3f f2 17 43 3f c8 40 6d 3e
       1.3994182 1.6622356 0.7620841 0.23169243
000050 e7 60 25 3f 24 c3 14 40 88 88 bf 3f a4 69 5d 3f
       0.64600986 2.3244104 1.4963541 0.8648932
000060 f5 13 31 3f 80 79 89 3f a8 5e 92 3f e9 cc ae 3f
       0.69171077 1.0740204 1.1435137 1.3656284
000070 25 a6 af 3e 72 21 ad 3f 05 df 9c 3f 7d d9 9c 3f
       0.34306446 1.3525832 1.225556 1.2253872
000080 ff a2 8f 3f be ca 8d 3f 67 18 a2 3f e2 9d 8d 3f
       1.1221617 1.1077497 1.2663697 1.1063807
000090 e3 82 f9 3f 6f c8 95 3f 46 81 06 3f c0 c6 f4 3f
       1.9493068 1.1701792 0.52541006 1.9123154
0000a0 2e 40 e0 3f ec df cb 3f 5b 25 ef 3f 20 b1 e0 3e
       1.7519586 1.592771 1.8683275 0.43885136
0000b0 a1 4c a5 3f 21 2c 9a 3f 86 ca 8d 3f b1 72 b5 3f
       1.291401 1.2044717 1.107743 1.4175626
0000c0 4d c8 63 3f 1b 1e 45 3f ce 15 ac 3e 57 5f a1 3f
       0.8897751 0.7699906 0.33610386 1.260722
0000d0 b8 13 93 3f 37 01 18 3f 67 8c 07 40 03 b4 83 3f
       1.1490393 0.59376854 2.1179445 1.028931
0000e0 71 08 9d 3f 10 a0 9b 3f 6b f0 b9 3f 23 44 c1 3f
       1.2268201 1.2158222 1.4526495 1.5098919
0000f0 9c f2 d1 3e 24 3e 01 40 c6 50 ae 3f e8 48 6d 3f
       0.4100541 2.0194178 1.36184 0.9268937
000100 b6 6b f6 3f 39 71 57 3f f0 33 a7 3f 14 2d 4e 3f
       1.9251621 0.8415714 1.3062725 0.80537534
000110 7a b6 c3 3f 42 26 99 3f 0d 59 9d 3f 44 c4 b2 3f
       1.5290062 1.19648 1.2292801 1.3966146
000120 f4 44 78 3f 69 be 29 40 ea b2 ea 3f 12 07 c4 3f
       0.96980214 2.6522467 1.833585 1.5314658
000130 4e 90 c2 3f e7 9b e1 3f 92 56 e4 3f 74 11 2c 3f
       1.5200288 1.7625703 1.7838919 0.6721413
000140 f0 92 9c 3f b0 dc 00 3f 3f b4 13 40 fb 89 c2 3e
       1.2232342 0.5033674 2.3078763 0.37995896
000150 16 24 a7 3f 70 eb 7e 3e b9 d2 30 3f 7c 90 8b 3f
       1.3057888 0.248945 0.6907154 1.0903468
000160 18 67 00 3f 7f 7c f5 3f 05 07 ba 3f 52 a8 57 3f
       0.5015731 1.9178618 1.4533392 0.8424121
000170 ea 37 5d 3f 30 68 90 3f 8a 0a 82 3f c4 88 b7 3f
       0.86413443 1.1281796 1.0159466 1.4338613
000180 01 21 8c 3f 42 8a 7c 3f 4c 89 c6 3f a2 88 4d 3f
       1.0947572 0.98648465 1.551065 0.8028661
000190 8e c8 83 3f 59 f6 c8 3f ee ba 93 3f 22 0b d5 3f
       1.029558 1.5700179 1.1541421 1.6644022
0001a0 61 70 91 3f 9c 94 65 3f da de fb 3f b9 fb d2 3f
       1.136242 0.89679885 1.9677384 1.648307
0001b0 39 5e 9e 3f 77 1f 8d 3f e0 da a1 3f 0b 25 ab 3f
       1.2372504 1.1025227 1.264492 1.337068
0001c0 c8 c3 82 3f 64 e5 43 3f b1 ac 96 3f 06 40 c7 3f
       1.0215998 0.765219 1.1771451 1.5566413
0001d0 73 9a c0 3f b9 1c 6d 3f aa 90 4f 3f bd 84 ad 3f
       1.5047134 0.9262195 0.81080115 1.3556134
0001e0 e4 40 c4 3e d6 b1 c7 3f f5 19 b9 3f da ba ce 3f
       0.38330758 1.5601146 1.4461046 1.6150773
0001f0 0c 8d 72 3f c1 f9 11 3f 8f ca 93 3f b3 bb 53 40
       0.9474647 0.5702172 1.1546191 3.3083313
000200 9d be b1 3f ab 7c 88 3f 5b 2e 91 3f 39 49 ae 3f
       1.3886296 1.0663046 1.1342272 1.3616096
000210 c5 a0 a9 3f 21 5b 7c 3f e1 60 4d 3f d8 fd 86 3f
       1.3252188 0.9857655 0.8022595 1.0546217
000220 db 1c 91 3f da c8 be 3f 9b ff f9 3f c8 1e a6 3f
       1.1336931 1.4905045 1.953113 1.2978144
000230 7d d7 b6 3f ed eb 4e 3f 49 90 85 3f 11 fb ef 3f
       1.4284512 0.80828744 1.0434657 1.8748494
000240 3d fc 84 3f ce c2 91 3f 18 31 1d 3f 3c 7f 04 3f
       1.0389477 1.1387575 0.61403036 0.51756644
000250 fc 57 a9 3f cc e9 b1 3f bc 85 b4 3f 75 49 83 3f
       1.3229976 1.3899474 1.4103312 1.0256792
000260 e5 41 92 3f 34 2c fe 3e 4f 5c e7 3f 72 d2 3d 3f
       1.142636 0.496431 1.8075045 0.7414924
000270 ef b5 86 3f b6 25 69 3f 4e 4c 41 3f c3 04 16 3f
       1.0524272 0.9107317 0.75507057 0.58601016
000280 a0 10 74 3f 46 30 bf 3f 47 cf 4d 3f 0c 7c 44 3f
       0.9533787 1.4936607 0.80394405 0.7675178
000290 e2 a1 90 3f 18 69 23 40 e2 a8 9e 3f ca 46 8c 3f
       1.1299403 2.5532894 1.2395289 1.0959103
0002a0 fa e0 78 3f 58 45 ba 3f fd a6 d9 3f 4c d7 3e 3f
       0.97218287 1.4552412 1.7004086 0.74547267
0002b0 11 e8 c6 3f 56 f2 a4 3f 27 2b af 3f 26 59 38 3f
       1.5539571 1.2886455 1.3685044 0.7201103
0002c0 a9 55 44 40 54 bd 74 3f ad fa ab 3f 17 77 24 3f
       3.0677283 0.9560139 1.3435875 0.64244217
0002d0 56 cb d4 3f 8e a8 63 3f f0 06 b4 3f 65 43 a4 3f
       1.6624553 0.8892907 1.4064617 1.2833067
0002e0 30 41 c4 3f 43 9a 4d 3f b1 80 41 40 a3 43 13 3f
       1.5332394 0.8031351 3.0234797 0.5752508
0002f0 ff eb 5b 3f 44 d0 73 3f fc 95 a7 3f 15 8c 9b 3f
       0.85906976 0.95239663 1.3092647 1.2152125
000300 53 16 c0 3f 41 a8 a2 3f 8a 6f b6 3f 3f 17 4e 3f
       1.5006813 1.2707597 1.4252789 0.8050422
000310 62 0a 8b 3f 44 71 8e 3f 7c ca 79 3f 2f 5f 3d 3f
       1.0862544 1.1128316 0.9757459 0.73973364
000320 b0 85 91 3f 08 f3 9e 3f 53 6e 7b 3e e0 01 b9 3f
       1.1368923 1.2417917 0.24553804 1.4453697
000330 da 63 aa 3f e1 6f 84 3f 71 2a 53 3f ca c4 17 40
       1.3311722 1.0346643 0.82486635 2.371386
000340 43 81 86 3f 41 d6 de 3f 96 57 84 3f fb 92 7d 3f
       1.0508198 1.7409135 1.0339229 0.990524
000350 be d3 aa 3e a4 54 a2 3f b7 d7 d1 3e 0b 2e 09 3f
       0.3336467 1.268208 0.4098489 0.5358588
000360 71 fd ca 3f 81 26 e0 3f 69 16 b0 3f cb e5 56 3f
       1.5858594 1.751175 1.3756839 0.83944386
000370 2f 43 36 3f fc 47 b7 3f 21 45 c1 3f 01 4a 72 3f
       0.71196264 1.4318843 1.5099221 0.9464417
000380 51 b6 31 3f 65 bd 8c 3f af 0b 3d 3f a0 25 58 3f
       0.6941882 1.0995299 0.7384595 0.8443241
000390 4d dc 43 40 21 e2 b8 3f ed a1 71 3f a7 14 09 3f
       3.060321 1.4444009 0.94387704 0.5354714
0003a0 cb 9c c7 3f 5c f9 08 3f a2 d2 a2 3f 60 d8 d6 3f
       1.5594724 0.5350549 1.272053 1.6784782
0003b0 74 e2 3d 40 47 3d 81 3f d4 ca 8d 3f a1 9e 43 3f
       2.9669466 1.0096825 1.1077523 0.76413924
0003c0 e4 9a 8e 3f f1 2b cd 3f 8a 55 e1 3e f9 dd 39 3f
       1.1141019 1.6029035 0.44010574 0.7260433
0003d0 8b 04 37 3f 7a 1d 84 3f 29 17 13 3f 56 81 7e 3f
       0.7149131 1.0321496 0.57457215 0.994161
0003e0 21 f4 a8 3f f5 74 52 3f d2 85 8a 3f 59 55 3c 40
       1.3199502 0.8220971 1.0822089 2.9427092
0003f0 5d db cc 3f 3b 5e ec 3f eb e2 f4 3e 67 80 52 40
       1.6004444 1.8466257 0.47829375 3.289087

bn1.bias f4 [400]
000000 f8 48 b5 be ff 41 3a bf ab e4 f5 be c1 c8 7e 3d
       -0.35407233 -0.7275695 -0.48026022 0.062203173
000010 69 92 01 be 85 d3 58 3e 67 a4 96 be 0f 73 c3 be
       -0.12653507 0.21174438 -0.29422304 -0.3817372
000020 37 9b 05 bf ed 0f d5 be cf a5 ce be 62 9a 8f bd
       -0.52189964 -0.41613713 -0.40360877 -0.07011868
000030 c1 5f 98 be 98 86 85 be 47 c1 a1 be bd 84 c0 3d
       -0.29760554 -0.2607925 -0.3159277 0.09400318
000040 fa f7 45 be 81 33 4b be fc 44 e9 be d5 c9 1c bf
       -0.19332877 -0.19843866 -0.45560443 -0.6124547
000050 1e c6 16 bf ba 26 9d bd 80 a4 a0 be 23 dd 11 be
       -0.5889605 -0.07673402 -0.31375504 -0.14244513
000060 2a c2 2c bf 39 67 4c be dd bc 78 be 2f f3 88 be
       -0.6748377 -0.19961251 -0.24290796 -0.26748034
000070 0c 2c 2f bf 78 61 89 be dd 53 44 be 9c 83 8f 3d
       -0.68426585 -0.26832175 -0.19172616 0.07007524
000080 37 ac 73 be b8 93 d8 be d9 89 61 be fd 45 90 be
       -0.23796163 -0.423002 -0.22025241 -0.28178397
000090 a4 7b 83 bd f2 bf c2 be 97 d3 26 bf 91 e5 86 3d
       -0.06420067 -0.38037068 -0.6516661 0.06586755
0000a0 dd 2c b2 bd 76 d8 38 be 12 f1 ad 3d d0 40 40 bf
       -0.08699963 -0.18051323 0.08493246 -0.75098896
0000b0 ca c5 01 be 8f 49 16 bd 32 18 1c be 18 56 2b be
       -0.12673107 -0.036691245 -0.15243605 -0.16732061
0000c0 e7 f5 db be a1 f4 cc be 0b 3d 36 bf 5f 9a 09 bd
       -0.42961046 -0.40030387 -0.71186894 -0.033594485
0000d0 68 c5 2d bf 62 77 d2 be f5 cd 21 be 98 17 a8 be
       -0.67879343 -0.41106707 -0.15801223 -0.328305
0000e0 ef 2c b2 be 7e c6 39 be 46 ac 17 be 45 b0 4c be
       -0.34799907 -0.18142125 -0.14811811 -0.19989116
0000f0 2b 73 d8 be ff 0f dc bd bf fe 83 be fa e7 f3 be
       -0.42275366 -0.107452385 -0.25780293 -0.47637922
000100 3c bd 89 be c8 aa 1c bf 0a 5a 82 be 1c 39 ba be
       -0.26902187 -0.6119809 -0.2545932 -0.36371696
000110 6d 6b 31 be 2b 2c 7e be 59 b9 43 bd 29 a5 2a be
       -0.17326136 -0.24821536 -0.047784183 -0.16664566
000120 4f ef af be c2 26 39 be 5c 8c e6 3d c7 3f 88 be
       -0.34362265 -0.18081191 0.1125724 -0.26611158
000130 36 d6 ef be 32 38 33 be 8e 84 67 3e 84 47 d3 be
       -0.46843117 -0.17501906 0.2260916 -0.412655
000140 68 b3 69 be a6 5d 05 bf 69 a6 51 3e ed 75 2f bf
       -0.22822344 -0.5209602 0.20473637 -0.68539315
000150 ea b4 c4 be 2c 52 3f bf 35 6a d4 be 74 01 a5 be
       -0.38419276 -0.7473476 -0.4148728 -0.3222767
000160 24 46 24 bf 40 70 69 3e c0 15 f3 bd c5 e5 de be
       -0.64169526 0.22796726 -0.11869383 -0.43534675
000170 0b 54 09 bf 29 d5 ab be 6a a7 80 be 1f c3 c8 be
       -0.53643864 -0.33561066 -0.25127727 -0.39211366
000180 83 bd 81 be 47 4b 01 bf 4c b9 3e be 51 2e ff be
       -0.25339898 -0.5050549 -0.18625373 -0.49840024
000190 91 75 97 be cf 39 96 be eb 6c 62 be 17 46 31 be
       -0.29581884 -0.2934098 -0.22111861 -0.17311893
0001a0 52 fb cf be e6 2d ec be 87 85 55 bd 46 26 7e bd
       -0.4062143 -0.46128768 -0.052129295 -0.06204822
0001b0 64 39 97 be 96 37 c4 be 64 e7 92 be bc 8a 8b be
       -0.29535973 -0.3832366 -0.28692162 -0.27254283
0001c0 3c ff 7d be 8c fb 0b bf 06 1e f1 3a a7 dc 2c be
       -0.24804395 -0.54680705 0.0018395789 -0.16881047
0001d0 a1 c4 05 be e2 aa 90 be 25 86 89 be d8 9b c7 be
       -0.13063289 -0.28255373 -0.26860157 -0.38986087
0001e0 e6 28 f7 be 51 b2 14 be c1 92 0e be f9 34 09 3d
       -0.4827339 -0.14521147 -0.1392317 0.033497784
0001f0 f2 e7 af be 84 8c 39 bf d1 a6 b6 be ed f7 2d be
       -0.34356648 -0.72480035 -0.35674146 -0.16989107
000200 b5 f3 ed bd 08 d3 dd be 15 e8 e0 be 67 80 8f be
       -0.11618749 -0.43325067 -0.43927065 -0.2802765
000210 96 c2 70 be e6 3b 24 bf cd 1b 7b be 22 0a 12 be
       -0.23511729 -0.641539 -0.24522324 -0.14261678
000220 0b f5 74 be 3d 71 89 be 31 ac 23 be 29 8d 04 bf
       -0.23921601 -0.26844206 -0.15983655 -0.51777893
000230 19 ae c9 be a4 9e ef be 44 fb 06 bf 58 c0 bf be
       -0.39390638 -0.4680072 -0.5272715 -0.37451434
000240 e9 cc 0d bf b7 aa d2 be 22 1e ce be 57 1f fc be
       -0.55390793 -0.4114587 -0.40257365 -0.4924266
000250 50 48 a6 be 11 73 1d be 0e 3c 60 bd ff 84 68 be
       -0.32477045 -0.15375926 -0.054744773 -0.22706984
000260 5b df d8 be 23 e0 1c bf 9c 8b a0 bd 8b 32 ad be
       -0.42357907 -0.61279505 -0.078391284 -0.33827624
000270 d3 ab 40 be 64 4f d9 be d6 23 a2 be 73 14 dc be
       -0.18815546 -0.42443383 -0.31667966 -0.42984352
000280 46 1a 8f be f4 09 95 bd 40 ed 20 bf 6e 47 24 bf
       -0.27949733 -0.07277289 -0.62862015 -0.64171493
000290 80 cc 6f be 49 28 cc bd e2 e7 d3 be 81 22 2f bf
       -0.23417854 -0.09968621 -0.4138785 -0.68412024
0002a0 99 d7 b9 be 70 67 a0 be b0 24 04 bd 69 1d 23 bf
       -0.362973 -0.31328917 -0.03226155 -0.6371675
0002b0 84 2f 72 be 1c 10 d2 be b8 db 9f be f1 9f f6 be
       -0.23650938 -0.41027915 -0.3122232 -0.481689
0002c0 87 7b 18 be 83 c3 c4 be c5 f1 88 be f4 4d ff be
       -0.14890872 -0.38430414 -0.26746956 -0.4986416
0002d0 c6 90 b8 be 91 62 34 bf c3 32 85 be 44 6b 93 be
       -0.36047953 -0.704629 -0.2601529 -0.28792775
0002e0 30 bb fe bd e4 0e 02 bf db c4 f9 3e 01 cb 13 bf
       -0.12438047 -0.5080397 0.48783 -0.57731634
0002f0 4f 49 82 be e3 40 d6 be 08 30 87 be 9c 98 9f be
       -0.25446555 -0.4184638 -0.26403832 -0.3117112
000300 35 ec 1d be 6b e4 a5 be ff 5f dc be 26 0c d1 be
       -0.15422137 -0.32400832 -0.4304199 -0.4082958
000310 d0 1f be be 1a f8 b7 be ef 3f aa bc dd 1a d6 be
       -0.37133646 -0.35931474 -0.020782439 -0.4181737
000320 db 87 05 bf d4 ce aa 3d 8f 3f 25 bf be f5 41 be
       -0.52160424 0.083402306 -0.6455011 -0.189414
000330 42 65 7b be 6f 8a cf be 09 e1 93 be 11 bb 18 3f
       -0.24550346 -0.40535304 -0.28882626 0.5966044
000340 dc 9f 17 be 68 b8 25 be c9 de be be e2 e9 b7 be
       -0.14807075 -0.16183627 -0.37279347 -0.35920626
000350 78 a4 39 bf aa 94 95 be d5 ab 45 bf 65 73 39 bf
       -0.72516584 -0.29214984 -0.7721532 -0.72441703
000360 f3 3c c2 be 6e 4a 90 bd c6 bc 19 bd 2a 95 1f bf
       -0.37937126 -0.07045446 -0.037533544 -0.6233698
000370 0c 1c e2 be b9 56 75 be 5b 0b 48 be 15 8a 00 bf
       -0.44162023 -0.23958863 -0.19535582 -0.50210696
000380 de 24 0e bf ce 0a ba be 79 15 15 bf 4e 62 09 bf
       -0.55525005 -0.36336368 -0.5823589 -0.53665626
000390 b5 e0 c5 bd 0e 18 af be ef 50 ce be 89 a0 a8 be
       -0.09662 -0.3419804 -0.40296122 -0.3293498
0003a0 13 bc 16 bb 9d 77 26 bf 9d d8 70 be 20 6b 10 be
       -0.0023000285 -0.65026265 -0.23520131 -0.14103365
0003b0 a9 7a ac 3e 3f 92 df be 1d 1e aa be 67 fa b7 be
       0.33687332 -0.43666264 -0.332261 -0.3593323
0003c0 01 40 64 3c 1d 9e d8 bd 81 30 11 bf 29 fe ad be
       0.013931275 -0.10577033 -0.56714636 -0.3398297
0003d0 e3 4a 0c bf ad d3 b0 be 75 1d 22 bf 82 85 9e be
       -0.5480177 -0.34536496 -0.633262 -0.30961233
0003e0 42 db 8c be 6b e7 f4 be 33 e8 b0 be b1 5d 91 3e
       -0.2751103 -0.47832808 -0.34552154 0.28391793
0003f0 57 db 5c be 7b 02 8b be 30 1d 38 bf 41 2e ed 3d
       -0.21568047 -0.2715033 -0.71919537 0.11581088

bn2.weight f4 [300]
000000 38 99 cd 3f 9d 83 94 3f d5 95 62 40 e5 6c 85 3f
       1.6062384 1.1602665 3.540395 1.0423857
000010 fc d5 03 40 3d 3c d3 3f 06 76 d5 3f 1d b1 1e 40
       2.0599356 1.6502758 1.6676643 2.4795601
000020 0e b6 e8 3e 5e 2b 87 40 b3 7a 2c 40 40 cd 8f 3f
       0.45451397 4.224044 2.694989 1.1234512
000030 99 d5 25 40 47 61 0e 40 eb 4b 7f 3f ba d4 38 40
       2.591162 2.2246873 0.99725217 2.8879838
000040 a8 cd a2 3f a3 50 70 3f 8a 12 36 40 e8 30 4e 40
       1.2719011 0.9387304 2.8448815 3.221735
000050 46 79 a4 3e 04 73 12 40 94 d5 8e 3f af 6d 10 3f
       0.32123774 2.28827 1.1158929 0.56417364
000060 f2 9d 0e 3f 42 b0 66 40 5e 89 53 3f 46 1a b8 3f
       0.55709755 3.604508 0.8263148 1.4383018
000070 a5 ad 96 3f 9d 15 42 40 13 f1 48 40 45 ec 10 40
       1.1771742 3.0325692 3.139714 2.2644207
000080 fa eb 2d 40 5b 89 2a 40 d9 d6 a3 3f 0e ff de 3f
       2.7175279 2.6646335 1.2799941 1.7421587
000090 45 4d 79 3f e9 8f bb 40 d0 2b 30 40 e0 69 94 40
       0.9738353 5.861317 2.752674 4.637924
0000a0 a3 b8 90 3f a1 d1 0c 40 18 ce 57 3e ff f0 3a 3e
       1.1306347 2.2002947 0.21074712 0.18255995
0000b0 e4 c5 bc 3f da c0 10 40 6f ea 0d 40 7b 10 9b 3f
       1.4747891 2.2617707 2.2174337 1.2114404
0000c0 ac 82 1b 40 ae dc 8f 3f 48 28 91 3f 27 f0 2a 40
       2.4298506 1.1239221 1.1340418 2.6709077
0000d0 09 8e 07 40 1a ca b7 3f 60 bb 00 40 56 a4 1e 40
       2.1180441 1.4358552 2.0114365 2.4787803
0000e0 9f a7 b2 3e de 8c 9f 3f 16 92 48 3f 8b 4b 09 40
       0.3489351 1.2464864 0.7834791 2.1452358
0000f0 f8 55 dc 3f 3e 21 0d 40 a6 d5 d0 3f f4 b1 02 40
       1.7213736 2.205154 1.63152 2.0421114
000100 99 2d cf 3f 40 bd 48 3f 44 49 2c 40 d2 e1 ae 3f
       1.618579 0.7841377 2.6919718 1.3662665
000110 dd 72 c6 3f 5d 00 bb 3f e1 22 f6 3f b1 3e 10 40
       1.5503803 1.4609486 1.9229394 2.2538264
000120 56 37 15 40 09 db 96 3f 88 67 11 40 f2 ac 86 40
       2.3315024 1.1785594 2.271944 4.2086115
000130 58 cc 9b 3f 96 56 e8 3f 7a 0d a7 3f 5e e8 05 40
       1.2171736 1.8151424 1.3050988 2.0923076
000140 3e a0 ac 3f 0b 94 1d 40 a9 c7 38 3f fc 8e a8 3f
       1.3486402 2.4621608 0.7217966 1.3168635
000150 49 7f 7f 3e 74 4e ed 3f fb 5d af 3e 64 cd 34 40
       0.24950899 1.8539567 0.3425139 2.825036
000160 85 80 d2 3f 9c c8 4f 40 f8 b3 3a 40 36 a8 85 3f
       1.6445471 3.2466192 2.9172344 1.0441959
000170 8d 55 d9 3f c2 77 01 40 bf 46 ba 3f 4f ec 8b 3f
       1.6979233 2.0229344 1.455284 1.0931491
000180 fb d4 bd 3e 1f 7e c8 3e d8 32 04 40 30 e5 0b 40
       0.37076554 0.39158723 2.0656033 2.1858635
000190 ff 53 a9 3f 9f b2 e4 3f a0 f7 0a 40 df 99 61 40
       1.3228759 1.7867011 2.1713638 3.5250165
0001a0 d4 45 ed 3f a1 5b 00 40 8a 3b fb 3f 31 38 0a 40
       1.8536935 2.0055926 1.9627545 2.1596797
0001b0 ee be ae 3f 82 e6 30 40 6d a8 0f 40 4a 7e 01 40
       1.3652017 2.764069 2.244655 2.023333
0001c0 76 67 98 3f 8c 8b 42 40 28 b6 de 3f 8a aa 8a 3f
       1.1906574 3.0397673 1.739934 1.0833294
0001d0 29 c7 a4 3f aa 6a 4e 40 26 8e 04 40 ea 4a 10 40
       1.2873279 3.2252603 2.071176 2.2545724
0001e0 69 1f e2 3f 7d fa f4 3f b0 b6 3c 40 c2 42 bc 3f
       1.7665836 1.9138943 2.9486504 1.4707873
0001f0 76 a2 db 3f 15 77 8b 3f 03 50 c5 3f d8 20 b0 3f
       1.7158954 1.0895716 1.5415043 1.3760023
000200 30 45 43 3e 98 85 2c 40 70 89 02 40 fe 09 98 3e
       0.19069362 2.695654 2.0396385 0.29695123
000210 7a dc 92 3f 16 93 84 3f 9c c6 74 3e dc 1d 2b 40
       1.1473534 1.0357387 0.23903888 2.6736975
000220 0a 23 1b 40 b2 a2 b7 3f 14 c4 2e 40 3d 2c be 3f
       2.4240136 1.4346526 2.7307177 1.485725
000230 80 41 d0 3f f3 9b ca 3e f8 25 1d 40 0c 0f c9 3e
       1.6269989 0.39572105 2.4554424 0.39269292
000240 eb f7 ad 3f 24 fe c1 3f 45 e1 e2 3f 29 dd 85 3f
       1.3591284 1.5155683 1.7724997 1.0458118
000250 ac 55 a7 3e 51 a2 d1 3f a5 b1 61 40 19 01 b3 3f
       0.3268255 1.637766 3.5264676 1.398471
000260 a5 de 41 40 a0 35 85 3f fe 63 f2 3f 29 de bf 3f
       3.0292141 1.040699 1.8936765 1.4989673
000270 fe 18 e6 3f e5 b4 14 3f 5e 05 10 3f 09 e8 8b 3f
       1.7976377 0.58088523 0.5625819 1.0930187
000280 ce 19 85 3f 09 13 51 3f 1d 9d 4d 3f 16 df bd 3e
       1.03985 0.8166967 0.8031786 0.37084264
000290 a3 fd 5a 40 df f2 07 40 c7 b2 e4 3f 9f 35 02 40
       3.4217308 2.1241987 1.7867059 2.0345228
0002a0 1a 80 87 3f b0 f3 9a 40 69 67 a9 3f 91 0a 9d 3e
       1.0585968 4.842247 1.3234683 0.30672124
0002b0 7e 78 83 3f 91 60 30 40 a4 62 1a 40 44 1e 01 40
       1.0271146 2.755894 2.4122705 2.0174723
0002c0 c4 df ae 3f 3f ea 69 3f 06 ce eb 3f fb f9 9c 3f
       1.3662038 0.91373056 1.8422248 1.2263788
0002d0 84 73 00 40 f9 f0 aa 3f 16 74 e6 3f 12 d9 7b 3e
       2.0070505 1.3354789 1.8004177 0.24594525
0002e0 d3 7a a6 3f 62 f1 ef 3f df 51 f8 3f 02 a7 f5 3f
       1.3006233 1.8745539 1.9399985 1.9191592
0002f0 b9 3c 8e 3f b5 76 e3 3f 3d 7d 80 3f cc 36 76 3f
       1.1112281 1.7770602 1.003822 0.96177363
000300 e7 cf f0 3f b9 81 b0 3f 07 67 a3 3f 5e 7f 1a 40
       1.8813447 1.3789588 1.2765816 2.4140239
000310 e6 e8 2e 3e d7 a6 e0 3f 79 db 07 40 ef f5 2d 40
       0.17081031 1.7550915 2.1227705 2.7181356
000320 35 a9 fb 3f 54 47 b2 3f 87 69 5a 3e c7 37 26 40
       1.9661013 1.3928018 0.21329318 2.5971544
000330 01 16 92 3f 03 9b 04 40 23 a1 aa 3f 76 7b f3 3f
       1.1412965 2.0719612 1.3330425 1.9022052
000340 f7 90 3a 40 72 f6 f0 3f 24 0a c8 3f e9 d3 24 40
       2.915098 1.8825209 1.5628095 2.575434
000350 69 a6 04 40 e7 2f af 3f 58 a7 4a 40 de 96 45 40
       2.0726569 1.3686494 3.1664639 3.0873332
000360 84 e6 1c 40 92 ea d7 3f 41 7c 23 40 ac 66 1e 40
       2.4515696 1.686846 2.5544589 2.4750166
000370 66 fb e1 3f 3b f9 d2 3f 8a 28 1a 40 8e 54 b0 3f
       1.7654846 1.6482309 2.4087243 1.3775804
000380 eb c9 0f 40 31 b1 8f 40 0b d9 12 40 56 72 3c 3f
       2.246699 4.49038 2.2944973 0.7361196
000390 96 16 ea 3f 17 0e b3 3f 17 53 be 3f f5 6d c1 3f
       1.8288143 1.3988675 1.4869107 1.5111681
0003a0 1d d0 08 40 64 f6 99 3f c3 4c ad 3f de 85 b9 3f
       2.1377022 1.2028317 1.3539051 1.4493978
0003b0 de 65 03 40 8a e1 41 3f 4e 85 c2 3e 83 b2 af 3f
       2.0530925 0.7573477 0.37992328 1.3726352
0003c0 28 87 82 3f a1 6d d5 3f 77 fb 90 3f f1 8c f4 3e
       1.0197496 1.6674081 1.1326741 0.4776378
0003d0 57 bc 13 3f 39 a9 e3 3f 37 68 4e 3f 4c de 0a 40
       0.5770926 1.7786018 0.8062777 2.169818
0003e0 41 78 d7 3f f9 dd bc 3f 2d 50 86 3f 37 02 8e 3e
       1.6833574 1.4755241 1.0493218 0.27736065
0003f0 57 ac ad 3e 81 73 eb 3f f4 6e 8c 40 ec 79 40 40
       0.33920547 1.8394624 4.388544 3.0074415
