tmp/ddpg/actor_ddpg.pth (torch, 511239 bytes, 10 tensors)

fc1.weight f4 [400, 11]
0	0x3c0e495b	0.0086844815
1	0xbe976a81	-0.29573444
2	0x3ebb8cc9	0.36630848
3	0x3db07871	0.086167224
4	0x3ed6b4f0	0.4193492
5	0x3f347b97	0.70501083
6	0x3eeeeb07	0.46663687
7	0x3ee639ca	0.44965965
8	0x3f13601e	0.5756854
9	0x3f13171b	0.5745713
10	0x3f10db46	0.56584585
11	0x3f101d73	0.56294936
12	0xbf2d7741	-0.6776009
13	0x3f24b908	0.64344835
14	0xbd73dd33	-0.059537124
15	0x3f00c923	0.5030691
16	0x3f84dc9b	1.0379823
17	0x3f628578	0.8848491
18	0x3f0d4b37	0.55192894
19	0x3f47ee80	0.780983
20	0x3f38309b	0.71949166
21	0x3f3b2055	0.7309621
22	0x3f264023	0.64941615
23	0xbf2d6dd6	-0.6774572
24	0x3ed002c3	0.40627107
25	0xbd114a41	-0.035471205
26	0x3f2ee6ce	0.6832093
27	0x3f9eecc6	1.2416008
28	0x3f0c1b48	0.5472913
29	0x3eae62ec	0.34059846
30	0x3ed9feb2	0.4257713
31	0x3ecd9abe	0.4015712
32	0x3eef1721	0.46697333
33	0x3f29f12b	0.6638362
34	0xbf0fe320	-0.5620594
35	0x3e613fac	0.21996945
36	0xbcf7da92	-0.03025559
37	0x3f153238	0.5827975
38	0xbf0b10c4	-0.5432246
39	0x3e9dd49a	0.30826265
40	0x3ed6355f	0.41837594
41	0xbdc1bba1	-0.094596155
42	0x3e494a36	0.19657215
43	0x3d65633b	0.056002837
44	0xbeb0bd05	-0.3451921
45	0x3d88102f	0.06643712
46	0xbe26f114	-0.16302902
47	0xbe2a972e	-0.16659233
48	0xbee0315f	-0.43787667
49	0x3e3d35fb	0.18477623
50	0xbe32b3a6	-0.17451343
51	0x3eceb1e6	0.403701
52	0x3edb26a1	0.4280291
53	0x3ebe1b9a	0.37130433
54	0x3efd2a85	0.49446502
55	0xbeb9fc30	-0.36325216
56	0xbe74b805	-0.23898323
57	0x3f388b81	0.72087866
58	0x3d930211	0.071781285
59	0x3f406d9d	0.75167257
60	0x3f0d375c	0.55162597
61	0x3eb1e7a7	0.3474705
62	0x3ee4389b	0.44574437
63	0x3f1843a6	0.59478223
64	0x3f0fb2ee	0.561324
65	0x3f129920	0.572649
66	0x3ebac02a	0.36474735
67	0xbe10ec73	-0.14152698
68	0x3ebeb62f	0.3724837
69	0xbc4fca43	-0.0126825
70	0x3f072ea6	0.52805555
71	0x3f384478	0.71979475
72	0x3f729ce5	0.9477065
73	0x3f4bae86	0.79563177
74	0x3f36c05b	0.7138726
75	0x3f33b1d8	0.70193243
76	0x3f251ce5	0.64497215
77	0x3f14cee5	0.58128196
78	0xbf154914	-0.58314633
79	0x3e46d5bd	0.19417472
80	0xbd602a96	-0.054728113
81	0x3f0da590	0.55330753
82	0x3ea2100a	0.31652862
83	0x3f29ebc3	0.6637537
84	0x3f05eeba	0.5231739
85	0xbdc2b562	-0.09507252
86	0x3e1d7959	0.15378322
87	0x3d8ea3e1	0.06964851
88	0x3efbf1d7	0.49207947
89	0xbec87d39	-0.39158037
90	0x3ef3c965	0.4761459
91	0xbe096c44	-0.13420206
92	0x3f4bd7ff	0.7962646
93	0x3f81963f	1.0123976
94	0x3f4fa05a	0.8110405
95	0x3ec07fd6	0.3759753
96	0x3ed8e716	0.42363805
97	0x3ecfc887	0.40582678
98	0x3ec518f5	0.38495603
99	0x3eb87fa7	0.3603489
100	0xbec49218	-0.3839271
101	0x3f0ccf32	0.55003655
102	0x3cb0b24f	0.0215694
103	0x3eb7fa5b	0.35933194
104	0x3f898cb0	1.074606
105	0x3f3c74cf	0.73615736
106	0x3f2f83d2	0.68560517
107	0x3f2851e4	0.65749955
108	0x3f2ab1cc	0.66677547
109	0x3f21c427	0.6318993
110	0x3ecf60c1	0.40503505
111	0xbf05bf0b	-0.52244633
112	0x3eec88f7	0.46198246
113	0x3d0e739f	0.034778234
114	0x3ec85d00	0.39133453
115	0x3f3d18ab	0.73865765
116	0x3f72c344	0.948292
117	0x3f50556a	0.8138033
118	0x3f035688	0.5130391
119	0x3ef282b7	0.47365353
120	0x3edef52d	0.4354643
121	0x3ec715bc	0.3888377
122	0xbee937d8	-0.45550418
123	0x3f0fa672	0.5611335
124	0x3c114ccd	0.008868408
125	0x3edb0d6b	0.42783675
126	0xbf02240c	-0.50836253
127	0x3f024f9a	0.5090271
128	0x3ecabc72	0.39596897
129	0x3f1d57d8	0.61462164
130	0x3f110b28	0.5665765
131	0x3f14a53e	0.5806464
132	0x3e963a2a	0.2934125
133	0xbf0af279	-0.54276234
134	0x3ef797b3	0.48357925
135	0xbd82535e	-0.06363557
136	0x3f2d0360	0.67583275
137	0xbe99d683	-0.30046472
138	0x3f50c7d3	0.8155491
139	0x3eb65f47	0.35619566
140	0x3eba2c1f	0.36361787
141	0x3ecae5c5	0.39628425
142	0x3ef0500c	0.4693607
143	0x3eb320fe	0.3498611
144	0xbef05f4f	-0.46947715
145	0x3f36d349	0.71416146
146	0xbc4862b9	-0.012230569
147	0x3e9a2279	0.30104426
148	0x3fa16044	1.2607503
149	0x3f3166f2	0.6929771
150	0x3e5bc4f9	0.21461858
151	0x3f66e2a8	0.901896
152	0x3f6e2328	0.93022394
153	0x3f61a56f	0.88143057
154	0xbe5030b4	-0.20331079
155	0x3c1ac680	0.00944674
156	0x3d2a2bde	0.04154574
157	0x3e8b47f8	0.27203345
158	0x3eecd565	0.46256557
159	0x3ea6aaff	0.32552335
160	0x3ed8711a	0.4227379
161	0x3e560985	0.20902069
162	0x3e83fedf	0.2578039
163	0x3eb66fe8	0.35632253
164	0x3e5d0d7d	0.21587177
165	0x3ecc1def	0.39866588
166	0xbebf2c46	-0.37338465
167	0x3f067d20	0.52534676
168	0x3ddf4800	0.10902405
169	0x3f40c8b8	0.7530627
170	0x3ef09e83	0.46995935
171	0x3f02e5ac	0.511317
172	0x3f3180e3	0.6933729
173	0xbee666a6	-0.4500019
174	0xbeb110d5	-0.34583154
175	0xbe62720b	-0.22113816
176	0x3e989ef8	0.29808784
177	0xbf38d3cc	-0.72198176
178	0x3ea6e216	0.32594365
179	0x3de1f0ca	0.11032255
180	0x3efbd430	0.49185324
181	0xbe73c916	-0.23807177
182	0x3ead4f75	0.33849683
183	0x3dcd5d74	0.100275904
184	0x3e18cc85	0.14921768
185	0x3e2855fe	0.16439053
186	0x3e271803	0.16317753
187	0xbe7087a4	-0.23489243
188	0x3dae7d57	0.085200004
189	0xbcbabe3f	-0.022795795
190	0xbe30fb84	-0.17283446
191	0x3e411cb9	0.18858613
192	0x3ee81814	0.4533087
193	0x3e39e4c1	0.18153669
194	0x3efdcbae	0.49569458
195	0x3eae0bd6	0.33993405
196	0x3e697fac	0.22802609
197	0x3ebe920f	0.3722081
198	0x3eff7790	0.49895906
199	0xbf107e01	-0.56442267
200	0x3f3b5867	0.73181766
201	0x3bc41d44	0.005984934
202	0x3f0180bf	0.50587076
203	0x3f56c4e1	0.83894163
204	0x3f878a04	1.0588994
205	0x3f8e4fb5	1.1118075
206	0x3f2ff305	0.68730193
207	0x3f1b5a48	0.60684633
208	0x3f0f021a	0.5586258
209	0x3fb1f865	1.3903929
210	0xbfb66a7c	-1.4251246
211	0x3fa1850c	1.2618728
212	0xbe997d81	-0.29978564
213	0x3fc81be6	1.5633514
214	0x3fab73ab	1.3394674
215	0x3f87019a	1.0547364
216	0x3f7dd670	0.9915533
217	0x3fa97700	1.3239441
218	0x3fc9bdcd	1.5761048
219	0x3fb3fbee	1.4061258
220	0x3f3b79b7	0.732326
221	0xbf395394	-0.72393155
222	0x3f0da6e0	0.55332756
223	0xbd0b46f4	-0.034003213
224	0x3f348a67	0.70523685
225	0x3f8703c0	1.054802
226	0x3f731402	0.94952404
227	0x3ed9def0	0.425529
228	0x3eeb38fa	0.45941907
229	0x3f16f0e7	0.5896134
230	0x3ee7e954	0.45295203
231	0x3e9d4151	0.30713895
232	0xbe37c90b	-0.17947786
233	0x3f018a55	0.506017
234	0x39ad8512	0.00033096276
235	0x3e29c39c	0.16578525
236	0x3f26303a	0.6491734
237	0x3f163e77	0.58689064
238	0x3f3a65b8	0.7281146
239	0x3f5dc850	0.8663378
240	0x3f4cc493	0.7998745
241	0x3f43d212	0.76492417
242	0xbebf1026	-0.37317008
243	0xbf1b61b2	-0.60695946
244	0x3e76ad04	0.24089438
245	0x3e33981e	0.17538497
246	0x3f28ed2d	0.659869
247	0x3e3fe283	0.18738751
248	0x3ee2d2f2	0.44301564
249	0x3e212bfb	0.15739433
250	0x3dd11f82	0.10211088
251	0x3d92422f	0.0714153
252	0x3e6215e8	0.22078669
253	0x3eef426c	0.46730363
254	0xbed62de8	-0.418319
255	0x3eba9f3d	0.36449614

fc1.bias f4 [400]
0	0x3ea50b72	0.32235295
1	0x3f1bb292	0.6081935
2	0x3e8af17a	0.27137357
3	0x3efb91a9	0.49134567
4	0xbdd5697a	-0.10420509
5	0x3f323706	0.6961521
6	0x3ebe8f34	0.3721863
7	0x3f01d524	0.5071585
8	0x3eb09dab	0.3449529
9	0x3ed7aeba	0.42125493
10	0x3eda1e2b	0.4260114
11	0x3f075f47	0.52879757
12	0x3f023a73	0.50870436
13	0x3f0b5bb6	0.54436815
14	0x3db1ffcb	0.08691367
15	0x3f2ef96e	0.6834935
16	0x3eb5a1b0	0.3547492
17	0xbdeabedd	-0.114621855
18	0x3f2511f9	0.6448055
19	0x3fa380e8	1.2773714
20	0x3f00c95f	0.5030727
21	0x3ee58128	0.448251
22	0x3e35b020	0.17742968
23	0x3e8ad08b	0.2711223
24	0x3ef50a7f	0.4785957
25	0x3ef93586	0.48673648
26	0x3f178018	0.5917983
27	0x3e932221	0.28736976
28	0x3f22cf7a	0.63597834
29	0x3f22e127	0.63624805
30	0x3f2bd52a	0.6712214
31	0x3efb7d53	0.49119052
32	0x3eee9851	0.46600583
33	0x3f0b7ab8	0.5448413
34	0x3f33052a	0.69929755
35	0x3f088367	0.53325504
36	0x3ed3aa57	0.41340896
37	0x3ec8e68e	0.392384
38	0x3f1da56d	0.61580545
39	0x3f3a18ea	0.72694266
40	0x3ebd0857	0.36920425
41	0x3eebd321	0.46059516
42	0x3e91866e	0.28422874
43	0x3f27e4b2	0.65583336
44	0x3ecc22e4	0.3987037
45	0x3ef637ce	0.4808945
46	0x3f0c1624	0.54721284
47	0x3f117cab	0.56830853
48	0x3eefc69b	0.4683121
49	0x3efc3fb6	0.49267358
50	0x3f32806d	0.6972721
51	0x3ea80d22	0.3282252
52	0xbead20a2	-0.3381396
53	0x3ef8522c	0.48500192
54	0x3ef283fb	0.47366318
55	0x3f0a15ed	0.53939706
56	0x3eb7f318	0.35927653
57	0x3ec90abb	0.39266
58	0x3ea4983f	0.32147405
59	0x3eb97865	0.36224666
60	0x3f4aef22	0.7927114
61	0x3e463aec	0.19358414
62	0x3ee47e1c	0.44627464
63	0x3f0742b4	0.52836156
64	0x3e8d8b17	0.2764518
65	0x3ef10c89	0.47079876
66	0x3ef0bf41	0.47020915
67	0x3ecae209	0.39625576
68	0x3ef214b4	0.4728142
69	0x3f16a934	0.58851933
70	0x3e758cfb	0.23979561
71	0x3ec7fa26	0.39058036
72	0x3f076dce	0.52901924
73	0x3f0c6379	0.54839283
74	0x3ef9eb2c	0.48812234
75	0x3e8825c9	0.26591328
76	0xbedb68f5	-0.42853513
77	0x3f0122e8	0.5044389
78	0x3f3dbece	0.7411927
79	0x3f1d466c	0.6143558
80	0x3e893c39	0.2680376
81	0x3f107f4c	0.5644424
82	0x3ed42cfe	0.41440576
83	0x3f704f0c	0.93870616
84	0x3eddd815	0.4332892
85	0x3f8986ac	1.0744224
86	0x3ef5891f	0.47956178
87	0xbe55f8f9	-0.20895757
88	0x3ec783ce	0.38967746
89	0x3f23e1af	0.6401624
90	0x3e3778d0	0.1791718
91	0x3ec2a309	0.3801501
92	0x3f18cbe1	0.59686095
93	0x3ea6543c	0.3248614
94	0x3ed8ccf7	0.42343876
95	0x3f24da2c	0.64395404
96	0x3f00a736	0.50255144
97	0x3f180599	0.5938354
98	0x3f044dd4	0.51681256
99	0x3ef1fbc0	0.47262383
100	0x3f1a40da	0.60255206
101	0x3ee06c19	0.43832472
102	0x3ebfefa5	0.37487522
103	0x3e30c3c7	0.17262183
104	0x3f0633a7	0.52422565
105	0x3ea8b246	0.32948512
106	0x3f1b84bc	0.6074941
107	0x3edd2e04	0.4319917
108	0x3f0f6890	0.56018925
109	0x3edd0870	0.431705
110	0x3eccff7a	0.40038663
111	0x3ef48d35	0.47763982
112	0x3eb2ad13	0.3489767
113	0x3eb4a45a	0.3528164
114	0x3f0b11a2	0.5432378
115	0x3effcdaf	0.49961612
116	0x3f0207e7	0.5079331
117	0x3f215c6f	0.6303167
118	0x3e85df0b	0.2614673
119	0x3f115bd6	0.56780756
120	0x3f5d4f01	0.86448675
121	0x3f00f73d	0.50377256
122	0x3eb544d0	0.35404062
123	0x3eef9e68	0.46800542
124	0x3f05e144	0.52296853
125	0x3ecdeb5b	0.40218624
126	0x3ea387e4	0.31939614
127	0x3f00547d	0.5012892
128	0x3e863fab	0.2622045
129	0x3e2ea73a	0.1705598
130	0x3f07f479	0.5310741
131	0x3e6ba405	0.23011787
132	0x3f191026	0.59790266
133	0x3f199845	0.5999797
134	0x3f239972	0.63906014
135	0x3efdbdeb	0.49558958
136	0xbe813c2a	-0.25241214
137	0x3ef82a79	0.48469904
138	0x3f2d07c9	0.67590004
139	0x3eafa55c	0.34305847
140	0x3e52a41e	0.20570418
141	0x3e8ca3cc	0.27468717
142	0x3efff187	0.49988958
143	0x3ee1c8a4	0.4409839
144	0x3ea792a4	0.32729065
145	0x3ee5d7d8	0.44891238
146	0x3eea4ee8	0.45763326
147	0x3f328883	0.6973955
148	0x3e80e28c	0.25172842
149	0x3f1d4c90	0.6144495
150	0x3f085966	0.5326141
151	0x3eefe0a6	0.4685108
152	0x3ec7824a	0.3896659
153	0x3ec730b8	0.38904357
154	0x3e934989	0.2876704
155	0x3f2fc25f	0.6865596
156	0x3f0cb637	0.5496554
157	0x3eeb5731	0.4596496
158	0x3eeddb76	0.46456498
159	0x3ec5369e	0.38518232
160	0x3f31ddb1	0.694789
161	0x3f2263f7	0.63433784
162	0x3f1d2144	0.61378884
163	0x3f0ad2d6	0.5422796
164	0x3f071fd4	0.5278294
165	0x3f2adb43	0.66740817
166	0x3eb785db	0.3584431
167	0x3ec71923	0.38886365
168	0x3efc3e84	0.49266446
169	0x3e791427	0.24324094
170	0x3f1e42bd	0.61820585
171	0x3ea638d3	0.32465228
172	0x3eb6cc16	0.3570258
173	0x3eeab9a7	0.45844766
174	0x3ebad3d3	0.36489734
175	0x3e3ca148	0.18420899
176	0x3eb1c412	0.34719902
177	0xba40d6e8	-0.0007356242
178	0x3ebfc203	0.37452707
179	0x3eed6b1d	0.46370783
180	0x3eafd4f0	0.34342146
181	0x3f0758c9	0.5286985
182	0x3f21eb2c	0.6324947
183	0x3ee754ac	0.45181787
184	0x3f09cc76	0.5382761
185	0x3f1e4df8	0.6183772
186	0x3f508b53	0.8146259
187	0x3f336db5	0.70089275
188	0x3ee1be13	0.44090328
189	0xbe270e39	-0.1631402
190	0x3ef19bca	0.4718917
191	0x3ea48aa0	0.32137012
192	0x3ee94796	0.45562428
193	0x3ec7c407	0.39016744
194	0x3f0d85b1	0.5528212
195	0x3f05c600	0.5225525
196	0x3eaf2667	0.34208986
197	0x3ea98641	0.3311024
198	0x3f250a81	0.6446915
199	0x3e98fd03	0.29880533
200	0x3ed2f1a3	0.4119998
201	0x3f2fa317	0.6860823
202	0x3fbd4dd0	1.4789371
203	0x3eb48b94	0.3526274
204	0x3ec82533	0.3909088
205	0x3f22a19b	0.6352784
206	0x3f120433	0.5703766
207	0x3f7f3c85	0.9970172
208	0x3f27be66	0.655249
209	0x3de75c92	0.11296953
210	0x3ec901dd	0.39259234
211	0x3e645e98	0.2230171
212	0x3f5c35da	0.8601967
213	0x3f24c64e	0.6436509
214	0x3f4849ed	0.782378
215	0x3eee9d92	0.46604592
216	0x3ebdcad2	0.37068802
217	0x3f0fcec3	0.5617487
218	0x3eeca5a7	0.46220133
219	0x3e9561bc	0.29176128
220	0x3ead7bbc	0.33883464
221	0x3f1171de	0.5681437
222	0x3e3dea94	0.18546516
223	0x3edbc854	0.42926276
224	0x3f0911c9	0.53542763
225	0x3ed001e5	0.40626445
226	0x3ef19a83	0.47188196
227	0x3f11910d	0.56861955
228	0x3f0d20d0	0.5512819
229	0x3e0b25ad	0.13588591
230	0x3f0db013	0.5534679
231	0x3f33b16f	0.7019262
232	0x3f03f39c	0.51543593
233	0x3f02a682	0.5103532
234	0x3eaed983	0.34150323
235	0x3f08ff6f	0.5351476
236	0x3ef2437c	0.47317111
237	0x3d994f8d	0.07485876
238	0x3ef571e0	0.47938442
239	0x3e8a2418	0.26980662
240	0x3f4808a1	0.78138167
241	0x3efab8ab	0.48969015
242	0x3f23b55a	0.63948596
243	0x3f5a13e7	0.8518662
244	0x3e84b3a3	0.25918302
245	0x3e800328	0.25002408
246	0x3f459174	0.7717507
247	0x3f1d5a92	0.61466324
248	0x3ca51f54	0.02015654
249	0x3f18f195	0.59743625
250	0x3e8f5d6b	0.2800096
251	0x3ed52dfe	0.41636652
252	0x3e8ba8cf	0.27277228
253	0x3f023a3b	0.508701
254	0x3f3e75a4	0.74398255
255	0x3f6ae5d3	0.91756934

fc2.weight f4 [300, 400]
0	0x3fc94b43	1.5726093
1	0x3e8bb937	0.27289745
2	0x3f9dd85a	1.233165
3	0x3e0d4edf	0.13799618
4	0x3f97fa28	1.1873217
5	0x3f9f85e4	1.2462735
6	0x3fcfcef4	1.6235032
7	0x3ef91118	0.48645854
8	0x3fb751e7	1.432187
9	0x3fee1c47	1.860238
10	0x3f5d1be8	0.86370707
11	0x3f978383	1.1837009
12	0x3f245810	0.6419687
13	0x3fdf1eaa	1.7431233
14	0x3f939b9c	1.1531863
15	0x3f410136	0.7539247
16	0x3f51cc8e	0.8195275
17	0x3f938b35	1.1526858
18	0x3f82cb73	1.0218338
19	0x3f947d3d	1.160072
20	0x3f864049	1.0488368
21	0x3feeafde	1.864742
22	0x3f0f3cdc	0.5595224
23	0x3f903098	1.126483
24	0x3f416220	0.7554035
25	0x3fd075dc	1.6285968
26	0x3fc00662	1.5001948
27	0x400692d8	2.1027126
28	0x3fa7f861	1.3122674
29	0x3f844df6	1.0336292
30	0x3fd6ac46	1.6771324
31	0x3f75d906	0.96034276
32	0x3f6f18db	0.933973
33	0x3fd77b91	1.6834584
34	0x400ea15c	2.2285986
35	0x3fcba702	1.5910342
36	0xbc0465f0	-0.008080944
37	0x3faae53e	1.3351209
38	0x3f863d0b	1.0487379
39	0x3f8611c3	1.047417
40	0x3f1f55c3	0.62240237
41	0x3fe68396	1.8008907
42	0x3f5ac868	0.85462046
43	0x3f9631df	1.173397
44	0x3f74ceb7	0.9562792
45	0x3fd27da4	1.6444592
46	0x3fbd42aa	1.4785969
47	0x3f5eb24d	0.86990815
48	0x3fbaf3c4	1.4605641
49	0x3f57aaf0	0.84245205
50	0x3f7a4f94	0.97777677
51	0x3fa9c6c6	1.3263786
52	0x3f796339	0.97417027
53	0x3f5994a8	0.84992456
54	0x40140da5	2.3133328
55	0x3f6728b5	0.9029649
56	0x3ff18a46	1.8870323
57	0x3f206c83	0.62665576
58	0x3f002c85	0.5006793
59	0x3fd8f1e0	1.6948814
60	0x3fb58b8b	1.418321
61	0x3f39e0e3	0.72608775
62	0x3eff0569	0.49808815
63	0x3eb1b9a1	0.34711936
64	0x3fd2de8c	1.6474166
65	0x3f7c557d	0.98567945
66	0x3fc3a63b	1.5285105
67	0x3fcba5b2	1.5909941
68	0x3f591e13	0.84811515
69	0x3f75a566	0.95955503
70	0x3fa6bf4a	1.3027127
71	0x3f063e41	0.5243874
72	0x3f975906	1.1824043
73	0xbf0a2f32	-0.53978264
74	0x3efe4f3c	0.49669826
75	0x3fcd44e5	1.603665
76	0x3f5a4323	0.8525869
77	0x3fb42d12	1.4076254
78	0x3f285994	0.65761685
79	0x3fd2292e	1.6418817
80	0x3fbfc60d	1.4982315
81	0x3fac34c2	1.34536
82	0xbd8b15f6	-0.06791298
83	0x3fe7ab2c	1.8099113
84	0x3f64a272	0.8931037
85	0x3f47274c	0.7779434
86	0x3f9641f2	1.1738875
87	0x3f86325f	1.0484122
88	0x3efb6390	0.49099398
89	0x3ed70b5d	0.42000857
90	0x3fa4d1d2	1.2876532
91	0x3fb6ec02	1.4290774
92	0x3ef68cc4	0.4815427
93	0x3fe2b21e	1.7710607
94	0x3fbc5d7f	1.4716033
95	0x3ef55a89	0.47920635
96	0x3f3c6852	0.7359668
97	0x3f285672	0.65756905
98	0x3fed6355	1.8545939
99	0x3f5deef9	0.8669277
100	0x3fbc0437	1.4688786
101	0x3f95379f	1.1657599
102	0x3fb259b2	1.3933623
103	0x3f9e7911	1.2380697
104	0x3f7e7809	0.9940191
105	0x3fb2dde9	1.3973972
106	0x3fd41141	1.6567765
107	0x3fdae706	1.7101753
108	0x3f91c08f	1.1386889
109	0x3f9d567d	1.2292019
110	0x3f77ba86	0.9676899
111	0x3ed86e56	0.4227168
112	0x3fc166b5	1.5109469
113	0x3f6ff28d	0.9372948
114	0x3fa1c347	1.2637719
115	0x3f7f7070	0.9978094
116	0x3fb2ab9f	1.3958625
117	0x3f554a4d	0.833165
118	0x3fc8fd57	1.5702313
119	0x3f1b7da1	0.6073857
120	0x3fb12235	1.3838564
121	0x3f332b33	0.6998779
122	0x3ecd4def	0.4009852
123	0x3f70c017	0.94043106
124	0x3fa3df6e	1.280256
125	0x3f6cf414	0.92559934
126	0x3f84e064	1.0380979
127	0x3f1a9101	0.6037751
128	0x3f130da1	0.5744267
129	0x3f8de4e2	1.1085474
130	0x3f8925cc	1.071466
131	0x3faa0b0c	1.3284621
132	0x3f94ab23	1.1614727
133	0x3f9bdcd1	1.2176763
134	0x3f250bfa	0.644714
135	0x3f8c071a	1.0939667
136	0x3fa4e482	1.2882235
137	0x3f08d285	0.5344623
138	0x3fecc9ab	1.8499044
139	0x3f65125b	0.89481133
140	0x3ebcfcef	0.36911723
141	0x3fbd2a58	1.4778547
142	0x3f1d18a0	0.613657
143	0x3f0d5b5d	0.55217534
144	0x3f0dcd01	0.55390936
145	0x3f1971b3	0.59939116
146	0x3f9a0c08	1.2034922
147	0x3f8b15a5	1.086598
148	0x3fb12413	1.3839134
149	0x3fae1669	1.3600589
150	0x3f862c76	1.0482318
151	0x3fc6d432	1.5533507
152	0x3fa05063	1.2524532
153	0x3f7fddfb	0.9994809
154	0x3f9ad7cf	1.209711
155	0x3fae23c0	1.360466
156	0x3fca37d6	1.579829
157	0x3f092229	0.5356775
158	0x3fa08a4f	1.2542208
159	0x3f536369	0.8257356
160	0x3f467761	0.7752591
161	0x3fba85fd	1.457214
162	0x3eb4e6c0	0.35332298
163	0x3f6eb34a	0.93242323
164	0x3feb5e01	1.8388063
165	0xbc45ec8e	-0.012080325
166	0x3e9a491a	0.30133897
167	0x3f8dc004	1.1074224
168	0x3f61e3ed	0.8823841
169	0x3f9f490a	1.2444165
170	0x3ec30970	0.38093138
171	0x3f2fea33	0.68716735
172	0x3fa03669	1.2516605
173	0x3ff40625	1.9064375
174	0x3fab6bd8	1.3392286
175	0x3fa295f5	1.2702013
176	0x3f8d7923	1.1052593
177	0x3f4100a1	0.75391585
178	0x3ee90af4	0.4551617
179	0x3f6f3bd7	0.93450683
180	0x3fa31f93	1.2744011
181	0x3ebb085c	0.36529815
182	0x40078abd	2.117843
183	0x3f7687e4	0.963011
184	0x3e8b73cc	0.27236784
185	0x3f88fc3d	1.0701977
186	0xbeac809f	-0.3369188
187	0x3f955571	1.16667
188	0x3fa353fa	1.2760003
189	0x3fd27af7	1.6443776
190	0x4001ffa5	2.0312283
191	0x3fbfeb3f	1.4993666
192	0x3fcae2cb	1.5850462
193	0x3f74c31e	0.95610225
194	0x3fb4f532	1.4137328
195	0x3fb462bd	1.4092633
196	0x3f317ceb	0.69331235
197	0x3f90e5bb	1.1320108
198	0x3f64708a	0.8923422
199	0x3f90411d	1.1269871
200	0x3f243f1f	0.64158815
201	0x3f8033ad	1.001577
202	0x3f8ce906	1.1008613
203	0x3fef35ae	1.8688257
204	0x3f7f3914	0.9969647
205	0x3f9a458b	1.2052473
206	0x3fcbfaf2	1.5935957
207	0x3f049569	0.5179048
208	0x3f5a71f6	0.8533014
209	0x3f89144e	1.0709321
210	0x3f8da088	1.1064615
211	0x3fc916f8	1.5710135
212	0x3fa1bbe0	1.263546
213	0x3f335f9d	0.7006777
214	0x3f9e7686	1.237992
215	0x3ecf7c69	0.40524605
216	0x3f26cba6	0.6515449
217	0x3f299f68	0.6625886
218	0x3f6fbecb	0.936505
219	0x3f2ab740	0.6668587
220	0x3fac9f09	1.3486034
221	0x3ee7a98c	0.45246542
222	0x3fcf81d7	1.6211499
223	0x3f1a8cb1	0.6037093
224	0x3fb34174	1.400435
225	0x3f7e38a1	0.9930516
226	0x3fa9b0a7	1.3257035
227	0x3f9e405e	1.2363393
228	0x3f789297	0.9709868
229	0x3f54252a	0.8286921
230	0x3f92bf19	1.1464568
231	0x3fa92558	1.3214521
232	0x3fd56e65	1.6674315
233	0x3fa61f05	1.2978216
234	0x3febfb3a	1.8436043
235	0x3fca5fed	1.5810524
236	0xbecf308d	-0.4046673
237	0x3f9b97f2	1.2155745
238	0x3f2422ae	0.64115417
239	0x3fb9d158	1.4517012
240	0x3f8d4612	1.1037009
241	0x3f4fa488	0.8111043
242	0x3fcc9d85	1.5985571
243	0x3fadbbca	1.3572934
244	0x3fadadb7	1.3568639
245	0x3fae7638	1.3629827
246	0x3f281055	0.6564992
247	0x3fbca4e9	1.4737827
248	0x3faa7bb0	1.3318996
249	0x3fb67dec	1.4257178
250	0x3fa061c7	1.2529839
251	0xbe9a7d8c	-0.3017391
252	0x3fe77f41	1.808571
253	0x3e2e5471	0.170244
254	0x3f522d6a	0.82100546
255	0x3f6249ed	0.8839405

fc2.bias f4 [300]
0	0x3f96cacf	1.1780642
1	0x3fa983c7	1.324334
2	0x3fb2efe5	1.397946
3	0x3f8cf5fe	1.1012571
4	0x3fc1f526	1.5152938
5	0x3fb386b9	1.4025489
6	0x3fbf7695	1.4958063
7	0x3fbf3315	1.4937464
8	0x3fa9e909	1.3274242
9	0x3fb7ebfd	1.4368893
10	0x3fb8ca4c	1.4436736
11	0x3fc89dcc	1.5673156
12	0x3fa497d5	1.2858835
13	0x3fae10d7	1.3598889
14	0x3fbe0738	1.4845953
15	0x3fc59d30	1.5438595
16	0x3fa453fe	1.2838132
17	0x3fbb423c	1.4629588
18	0x3f836265	1.0264403
19	0x3fa8e909	1.3196117
20	0x3fc02ade	1.5013082
21	0x3fd26789	1.6437846
22	0x3f9762e3	1.1827053
23	0x3faaf26f	1.3355235
24	0x3fd075e1	1.6285974
25	0x3fae6abb	1.3626322
26	0x3fd5f585	1.6715552
27	0x3fbd0b15	1.4769007
28	0x3fae3e8f	1.3612841
29	0x3faa200e	1.3291032
30	0x3f90717b	1.1284631
31	0x3fc38be3	1.5277065
32	0x3f9da954	1.23173
33	0x3f9c0f95	1.2192255
34	0x3fb6ecda	1.4291031
35	0x3f98c414	1.1934838
36	0x3fc4d9d1	1.5378972
37	0x3fc10d62	1.5082209
38	0x3fab301e	1.3374059
39	0x3f8d9c9a	1.1063416
40	0x3f86d186	1.0532691
41	0x3fbc9531	1.473303
42	0x3fb1334b	1.3843778
43	0x3fa37543	1.277016
44	0x3faa140f	1.3287371
45	0x3fac74bf	1.3473128
46	0x3f87e400	1.0616455
47	0x3fafaa62	1.3723872
48	0x3fb9f264	1.4527097
49	0x3fab1fdd	1.3369099
50	0x3fb39234	1.4028993
51	0x3fb397d1	1.4030706
52	0x3fb10fb7	1.3832921
53	0x3fcf41a3	1.6191906
54	0x3fae7e69	1.3632327
55	0x3fb68182	1.4258273
56	0x3fba6c09	1.456422
57	0x3fb9dd1a	1.45206
58	0x3fcb9ad0	1.590662
59	0x3f9f5c35	1.2450014
60	0x3fb6e0cc	1.4287353
61	0x3fd7932b	1.6841787
62	0x3fb80b9d	1.4378544
63	0x3f9f9b86	1.2469337
64	0x3fd70b8c	1.6800399
65	0x3fbcc2df	1.474697
66	0x3fb4a278	1.4112082
67	0x3fa42cc7	1.2826165
68	0x3fa6cf25	1.3031965
69	0x3fa79cdb	1.3094743
70	0x3fb9da2b	1.4519705
71	0x3fa44668	1.2833986
72	0x3fad82d1	1.3555547
73	0x3fb8d4b0	1.4439907
74	0x3fa87fa1	1.3163949
75	0x3fbb4dc7	1.4633111
76	0x3fbc9b64	1.4734921
77	0x3fbe5659	1.4870101
78	0x3fb7d91a	1.4363129
79	0x3f92dea7	1.1474198
80	0x3f8e72c7	1.1128777
81	0x3faa9bb3	1.3328766
82	0x3fc7c3c2	1.5606616
83	0x3fcc9ffd	1.5986325
84	0x3fa26617	1.2687405
85	0x3faccfe8	1.3500948
86	0x3fb742e5	1.431729
87	0x3f96f0cd	1.1792237
88	0x3fbf77d5	1.4958445
89	0x3f95fc1b	1.1717561
90	0x3faab4ae	1.3336389
91	0x3fc09c48	1.5047693
92	0x3fcb2ed3	1.5873665
93	0x3fae9231	1.3638364
94	0x3f863e81	1.0487825
95	0x3f9fea42	1.2493365
96	0x3faecf09	1.3656932
97	0x3fc0e61c	1.5070224
98	0x3fac8d8a	1.3480694
99	0x3fa524a8	1.2901812
100	0x3f9d5169	1.229047
101	0x3fcd74dd	1.6051289
102	0x3fb5cd3b	1.4203256
103	0x3f8b45a0	1.0880623
104	0x3fb411ed	1.406797
105	0x3fc3e133	1.53031
106	0x3fa791d8	1.3091383
107	0x3fb6ca9e	1.4280584
108	0x3faacb71	1.3343335
109	0x3fb6e95a	1.4289963
110	0x3fa34afe	1.2757261
111	0x3faa0785	1.3283545
112	0x3fa64eca	1.2992795
113	0x3f8ea1e1	1.1143152
114	0x3f9d5b9c	1.2293582
115	0x3fa92f48	1.3217554
116	0x3fa1372d	1.2594963
117	0x3fa3a71d	1.2785374
118	0x3fa263d5	1.2686716
119	0x3f93fda7	1.1561784
120	0x3fabb2b9	1.3413917
121	0x3fc5c1d5	1.5449778
122	0x3fa9e02e	1.3271539
123	0x3fb1beb8	1.3886328
124	0x3fb12b23	1.3841289
125	0x3f84faeb	1.0389074
126	0x3fb439a8	1.4080095
127	0x3fc778f8	1.5583792
128	0x3faf9189	1.3716289
129	0x3fb68a8e	1.4261034
130	0x3fb17ace	1.3865602
131	0x3fcb4a5c	1.5882068
132	0x3f85b200	1.0444946
133	0x3fc54792	1.5412467
134	0x3fa44019	1.2832061
135	0x3fbe6adc	1.4876361
136	0x3fb3106d	1.3989388
137	0x3fc2f9b2	1.5232451
138	0x3fad9a51	1.3562719
139	0x3fd973e7	1.6988496
140	0x3f867d6f	1.0507029
141	0x3fc1bb4d	1.5135285
142	0x3faccc61	1.3499871
143	0x3f97e842	1.1867754
144	0x3fae98b9	1.3640357
145	0x3fb3a6eb	1.4035314
146	0x3fa9c7f1	1.3264142
147	0x3fafb69d	1.3727604
148	0x3fa52a32	1.2903502
149	0x3fa2bca9	1.2713825
150	0x3f96c1e6	1.1777923
151	0x3f949703	1.1608585
152	0x3f9be50e	1.2179277
153	0x3fabee61	1.3432122
154	0x3fbc96fe	1.4733579
155	0x3fa99f38	1.3251715
156	0x3f9c955f	1.2233084
157	0x3fb4344f	1.4078463
158	0x3fc461ac	1.5342307
159	0x3fc3882e	1.5275934
160	0x3fbed640	1.4909134
161	0x3f97a7de	1.1848104
162	0x3fa9a3ce	1.3253114
163	0x3fa01ef4	1.2509446
164	0x3fc2e830	1.5227108
165	0x3fa1756a	1.2613957
166	0x3fb18c70	1.3870983
167	0x3fa873e6	1.3160369
168	0x3fbe4e0b	1.4867567
169	0x3fa471da	1.2847245
170	0x3fbe4c1f	1.486698
171	0x3fa9f025	1.3276411
172	0x3fa64b05	1.2991644
173	0x3f9a962b	1.2077078
174	0x3fb59993	1.4187492
175	0x3f9f0d30	1.24259
176	0x3fd60eea	1.6723301
177	0x3fc14d50	1.5101719
178	0x3fa381f9	1.277404
179	0x3fb72c7b	1.4310449
180	0x3fc3d87d	1.5300442
181	0x3fa5ff81	1.2968599
182	0x3fb54783	1.4162449
183	0x3faf42b4	1.3692231
184	0x3fb6f2d4	1.4292855
185	0x3fbba716	1.4660366
186	0x3fb090f1	1.3794233
187	0x3fbdbeae	1.4823816
188	0x3fc70bbe	1.5550458
189	0x3fbc8d14	1.4730554
190	0x3fc1fa30	1.5154476
191	0x3fa4021c	1.2813144
192	0x3fad051d	1.3517185
193	0x3fa43103	1.2827457
194	0x3fbaa63a	1.4581978
195	0x3faba0c9	1.3408443
196	0x3fa3939f	1.2779425
197	0x3fc02105	1.5010077
198	0x3f9495df	1.1608237
199	0x3f9d44f8	1.2286673
200	0x3fc17f97	1.5117062
201	0x3fb2f23a	1.3980172
202	0x3fa13ffc	1.2597651
203	0x3f9e8e7e	1.2387235
204	0x3fd7565b	1.6823229
205	0x3faf9811	1.3718282
206	0x3fa8d66a	1.3190434
207	0x3fc345e4	1.5255704
208	0x3f9efc50	1.242075
209	0x3fbe6226	1.4873703
210	0x3fd2ef7a	1.6479332
211	0x3fafb0d2	1.3725836
212	0x3f98436f	1.1895579
213	0x3f993873	1.1970352
214	0x3f97bb72	1.1854079
215	0x3f9c22d5	1.219813
216	0x3f8232db	1.017177
217	0x3fba45e0	1.4552574
218	0x3f9f9842	1.246834
219	0x3fbb8621	1.4650308
220	0x3facf8ca	1.3513424
221	0x3fb985e1	1.4493982
222	0x3fb2ca22	1.3967936
223	0x3faf2a0e	1.3684709
224	0x3f9ee2f7	1.2413014
225	0x3fbd44ab	1.4786581
226	0x3fb49a42	1.4109576
227	0x3fa96e1f	1.3236731
228	0x3fb47604	1.4098516
229	0x3fae0bcc	1.359735
230	0x3fa79e67	1.3095216
231	0x3fb4d9f2	1.4129012
232	0x3f92c9f5	1.1467882
233	0x3fc13b11	1.5096151
234	0x3fb70bfc	1.4300532
235	0x3fbf28f9	1.4934379
236	0x3f997a54	1.1990457
237	0x3fcdd4f1	1.608061
238	0x3fb4c22d	1.4121758
239	0x3fbaeaf1	1.4602948
240	0x3f9e5056	1.2368267
241	0x3fa5024c	1.2891326
242	0x3fbf00ce	1.492212
243	0x3faf0fe1	1.3676721
244	0x3fba953d	1.4576794
245	0x3fb3e254	1.4053445
246	0x3fca74a5	1.5816847
247	0x3f965bd7	1.1746777
248	0x3faff202	1.374573
249	0x3f9b872f	1.215063
250	0x3f9f5871	1.2448865
251	0x3fa462eb	1.2842687
252	0x3fa644bd	1.2989727
253	0x3f8f2b8b	1.1185163
254	0x3f9e8c99	1.2386657
255	0x3f9a2edf	1.2045554

bn1.weight f4 [400]
0	0x3f82971e	1.0202367
1	0x3f5c1f5c	0.8598535
2	0x3f2da7b0	0.67833996
3	0x3ffd2bd0	1.9778996
4	0x3fe346dd	1.7756001
5	0x3fd6e91f	1.6789893
6	0x3fcd48a5	1.6037794
7	0x3fba7145	1.4565817
8	0x3f1d2222	0.6138021
9	0x3f950f9e	1.1645391
10	0x3f8f6127	1.1201524
11	0x3fdc3729	1.7204334
12	0x3f769bdb	0.96331567
13	0x3f806bd2	1.0032904
14	0x3f739739	0.9515262
15	0x404b59d5	3.177358
16	0x3fb1d66c	1.3893561
17	0x3fab5fd2	1.3388617
18	0x3f3fd2b8	0.74930906
19	0x3e122bb6	0.14274487
20	0x3f1d7d41	0.6151925
21	0x401e9677	2.4779336
22	0x3fd8a4a7	1.6925248
23	0x3f746d87	0.95479625
24	0x3f3efafb	0.74601716
25	0x3fb4334c	1.4078155
26	0x3fbb37ce	1.4626405
27	0x3fb59c27	1.4188279
28	0x3eccf92c	0.40033853
29	0x3fb70e5c	1.4301257
30	0x3fc41402	1.5318606
31	0x3fb52a48	1.4153528
32	0x3f95cc86	1.1703041
33	0x3f98f3fa	1.1949456
34	0x3fd82bf7	1.6888417
35	0x3fa5cd4b	1.2953275
36	0x4004295c	2.0650244
37	0x3f741d42	0.95357144
38	0x3f191aed	0.5980671
39	0x3fef22b7	1.8682469
40	0x3ff1a596	1.8878658
41	0x3fd469ec	1.6594825
42	0x3ff65157	1.9243573
43	0x3edba2c0	0.42897606
44	0x3fc4efe8	1.5385714
45	0x3fcc9cb2	1.598532
46	0x3f8dd62b	1.1080984
47	0x3fbeceac	1.4906821
48	0x3f61d3dd	0.882139
49	0x3f4b5c33	0.7943756
50	0x3ebf08dd	0.3731145
51	0x3fc7e296	1.5616024
52	0x3f8abbfa	1.0838616
53	0x3f1c36d4	0.6102116
54	0x4008e7ae	2.1391406
55	0x3f8effad	1.1171776
56	0x3fa725ec	1.3058448
57	0x3fae2d37	1.3607548
58	0x3fbe3410	1.4859638
59	0x3fc7d02d	1.5610405
60	0x3ed53805	0.41644302
61	0x400170ab	2.0225017
62	0x3fa73839	1.3064033
63	0x3f6723ac	0.90288806
64	0x4002b8a3	2.0425193
65	0x3f68c6c3	0.90928286
66	0x3fc9f3ae	1.577749
67	0x3f63fde8	0.89059305
68	0x3fe78e0a	1.8090222
69	0x3f8c5edf	1.0966452
70	0x3fa5fc74	1.2967668
71	0x3fa2cd5b	1.271892
72	0x3f853c47	1.040902
73	0x40238f70	2.5556297
74	0x3fdc0014	1.7187524
75	0x3fcfe81a	1.6242707
76	0x3f9cab51	1.2239782
77	0x3ff44b32	1.9085448
78	0x400a14b6	2.157514
79	0x3f368c4e	0.7130784
80	0x3fa0b17d	1.2554165
81	0x3f0c70a9	0.54859406
82	0x402f42b9	2.7384474
83	0x3e6e7eb8	0.23290527
84	0x3facfa8e	1.3513963
85	0x3e781824	0.24227959
86	0x3f36991c	0.71327376
87	0x3f5b0d0a	0.8556677
88	0x3f1bea01	0.60903937
89	0x3fe81683	1.813187
90	0x3fb01fa4	1.3759656
91	0x3f4bbac1	0.7958184
92	0x3f5065c6	0.81405294
93	0x3f96d271	1.1782972
94	0x3f9f2548	1.2433252
95	0x3faad050	1.3344822
96	0x3f91c9fb	1.1389765
97	0x3f5b22b7	0.85599846
98	0x3fdc849f	1.7227973
99	0x3f560b1c	0.836107
100	0x3f8da959	1.1067306
101	0x3fd3ac79	1.653701
102	0x3fae7a26	1.3631027
103	0x3fdaf6de	1.7106588
104	0x3f985aa3	1.190266
105	0x3f702ad4	0.9381535
106	0x40024c92	2.0359235
107	0x3fd9cb1a	1.7015107
108	0x3fa269ec	1.2688575
109	0x3f913793	1.1345085
110	0x3fb28a6d	1.3948494
111	0x3fc26303	1.5186466
112	0x3f98fa97	1.1951474
113	0x3f5e1916	0.8675703
114	0x3f9ace01	1.2094117
115	0x3fcc37ce	1.595453
116	0x3fd428d6	1.6574962
117	0x3f9a57d1	1.205805
118	0x3f7bf74d	0.98424226
119	0x3fbbcba8	1.4671526
120	0x3ebac0e6	0.36475295
121	0x3fc0ba43	1.5056843
122	0x3fb77691	1.4333059
123	0x3fcfa71b	1.6222872
124	0x3f856c29	1.0423633
125	0x3f0bbff0	0.5458975
126	0x3f957dd3	1.1679024
127	0x4075480c	3.8325224
128	0x3fe2ba8e	1.7713182
129	0x3f86337b	1.048446
130	0x3f9afbd7	1.2108105
131	0x3fa31fb7	1.2744054
132	0x3fba44a9	1.4552203
133	0x3f881091	1.0630056
134	0x3f68e963	0.9098112
135	0x3fa2275c	1.2668262
136	0x3f897cab	1.0741171
137	0x3fbcad65	1.4740416
138	0x400a5cbd	2.1619103
139	0x3fa1b6a5	1.2633864
140	0x3fc2f44f	1.5230807
141	0x3f5faeaf	0.8737592
142	0x3f83d2a2	1.0298655
143	0x40022ba7	2.0339143
144	0x3f8b039c	1.0860476
145	0x3f9b26c5	1.2121207
146	0x3f24308a	0.64136565
147	0x3f120f16	0.5705427
148	0x3faebe55	1.3651835
149	0x3fbc4eb2	1.4711516
150	0x3fae1b22	1.360203
151	0x3f8b8b8b	1.090196
152	0x3f8733fa	1.0562737
153	0x3f16af9d	0.58861715
154	0x3fd24a98	1.6429014
155	0x3f4e69fb	0.80630463
156	0x3fb3878b	1.402574
157	0x3f556bfb	0.8336789
158	0x3f26b82f	0.6512479
159	0x3f063de1	0.5243817
160	0x3f65f7a0	0.8983097
161	0x3fe06e35	1.7533633
162	0x3f46753e	0.7752265
163	0x3f3400a9	0.7031351
164	0x3fb7f5d2	1.4371893
165	0x40285d1a	2.6306825
166	0x3fa83c98	1.3143492
167	0x3f79dff7	0.9760737
168	0x3f80cf6e	1.0063303
169	0x3fc39d8a	1.5282452
170	0x3fe6f883	1.804459
171	0x3f5cb8cd	0.86219484
172	0x3fd5efc4	1.6713796
173	0x3fbf95c0	1.4967575
174	0x3fa5b4da	1.2945817
175	0x3f378781	0.7169114
176	0x40600598	3.5003414
177	0x3f66f002	0.9020997
178	0x3fbc2be8	1.4700899
179	0x3f19d97f	0.600975
180	0x3fcdcede	1.6078756
181	0x3f8078f9	1.0036918
182	0x3fdd832c	1.7305655
183	0x3f97ebc7	1.1868829
184	0x3fce58a9	1.6120807
185	0x3f2dcc98	0.6789031
186	0x404a8765	3.1645138
187	0x3f17e434	0.59332585
188	0x3f7c3e02	0.98532116
189	0x3f71cba3	0.9445135
190	0x3fb379a9	1.4021503
191	0x3f9719da	1.1804764
192	0x3fd747d3	1.6818794
193	0x3fa355a2	1.2760508
194	0x3fc04d87	1.502366
195	0x3f3e6ec3	0.7438776
196	0x3f888700	1.0666199
197	0x3f8a6343	1.0811542
198	0x3f8d84a7	1.1056107
199	0x3f45fcc6	0.77338827
200	0x3f9eec42	1.241585
201	0x3fbff5f2	1.4996932
202	0x3e1f2472	0.15541247
203	0x3fb855bc	1.4401164
204	0x3fbf082a	1.4924366
205	0x3f9394ad	1.1529747
206	0x3f88d6f1	1.0690595
207	0x401bf957	2.4370935
208	0x3f9796cc	1.1842895
209	0x3fe0f9cd	1.7576233
210	0x3f86f586	1.0543678
211	0x3f802059	1.0009872
212	0x3e8fb885	0.28070465
213	0x3faf481f	1.3693885
214	0x3edd9523	0.43277845
215	0x3efc8a5c	0.4932431
216	0x3fc3cebe	1.5297468
217	0x3fe2a5fb	1.7706903
218	0x3fa7f1c4	1.3120656
219	0x3f62bf02	0.88572705
220	0x3f491c5e	0.7855891
221	0x3fcc5c62	1.5965693
222	0x3fbdaa00	1.4817505
223	0x3f5c4398	0.8604064
224	0x3f216b42	0.6305429
225	0x3f9cfb00	1.2264099
226	0x3f3e1f35	0.7426637
227	0x3f51e55e	0.8199061
228	0x406910f3	3.6416595
229	0x3fc6e11b	1.5537447
230	0x3f7b45ac	0.98153186
231	0x3f18cd20	0.59687996
232	0x3fe7c20e	1.8106096
233	0x3f154729	0.58311707
234	0x3fa09bef	1.2547587
235	0x3fd88b2d	1.6917473
236	0x4044fc4d	3.0778992
237	0x3f7b3391	0.9812556
238	0x3f8c67e9	1.0969211
239	0x3f349853	0.7054493
240	0x3fe9cb62	1.8265193
241	0x3fd6fbd4	1.6795602
242	0x3f05beb3	0.5224411
243	0x3f679cf7	0.90473884
244	0x3f4f90d7	0.81080383
245	0x3f8662c1	1.0498887
246	0x3ee05607	0.43815634
247	0x3f8d8398	1.1055784
248	0x3fa1b88b	1.2634443
249	0x3f489e1b	0.7836625
250	0x3f873034	1.0561585
251	0x40352138	2.8301525
252	0x3fcbec30	1.5931454
253	0x3fe73212	1.8062155
254	0x3ec8f38c	0.39248312
255	0x405ddb21	3.4664996

bn1.bias f4 [400]
0	0xbecaa7a6	-0.3958103
1	0xbf380c01	-0.71893317
2	0xbef91cb6	-0.48654717
3	0xbd0a8aad	-0.033823658
4	0xbe870325	-0.26369587
5	0x3e634d0c	0.2219736
6	0xbe5f1d26	-0.21788463
7	0xbed25668	-0.41081548
8	0xbf0e0893	-0.55481833
9	0xbeed6cb4	-0.46371996
10	0xbeb2b278	-0.34901786
11	0xbe00d382	-0.12580684
12	0xbef7babc	-0.48384655
13	0xbe80e12f	-0.251718
14	0xbef25be6	-0.47335738
15	0x3e3de4bd	0.18544288
16	0xbe398695	-0.18117745
17	0xbeb2b3b6	-0.34902734
18	0xbefcfb48	-0.49410462
19	0xbf361b33	-0.7113525
20	0xbf277237	-0.65408653
21	0xbdc30c1a	-0.095237926
22	0xbe89c0d7	-0.26904938
23	0xbe2cd999	-0.16879882
24	0xbf24164d	-0.6409653
25	0xbde954a0	-0.11393094
26	0xbe3c4418	-0.1838535
27	0xbea22bf1	-0.3167415
28	0xbf23c4c2	-0.63972104
29	0xbe9731b6	-0.29530114
30	0xbdb84b67	-0.08998757
31	0x3d3e841f	0.04651272
32	0xbe7b2f0b	-0.24529664
33	0xbe94bba8	-0.2904942
34	0xbe1026d7	-0.14077316
35	0xbe5fc993	-0.21854238
36	0xbdfa482d	-0.12220798
37	0xbf18558e	-0.59505546
38	0xbf1a4c76	-0.6027292
39	0x3dde47de	0.10853551
40	0x3ba31ece	0.0049780374
41	0xbe2c01a1	-0.16797496
42	0x3d8aba0a	0.067737654
43	0xbf44060e	-0.7657174
44	0xbdd99f89	-0.10626132
45	0xbd12d9ad	-0.035852123
46	0xbe541e0a	-0.20714584
47	0xbc7b381b	-0.015333201
48	0xbef29f00	-0.47386932
49	0xbed27452	-0.4110437
50	0xbf2ee558	-0.683187
51	0x3dc8915f	0.09793352
52	0xbf2c5879	-0.673225
53	0xbee16e05	-0.4402925
54	0xbe23572d	-0.15951224
55	0xbed15241	-0.40883067
56	0xbebec350	-0.37258387
57	0xbe70bd2d	-0.23509665
58	0xbe8364a9	-0.25662735
59	0xbe494bc0	-0.19657803
60	0xbef08838	-0.46978927
61	0xbd0db008	-0.034591705
62	0xbec868da	-0.39142495
63	0xbf09eae7	-0.5387406
64	0xbe7df43c	-0.248002
65	0xbf0e6e4d	-0.55637056
66	0xbe34f687	-0.17672168
67	0xbeb36dc0	-0.3504467
68	0xbe65f689	-0.22457327
69	0xbea9133a	-0.3302248
70	0xbdfe8ae9	-0.12428839
71	0xbeab9701	-0.33513644
72	0xbec62054	-0.3869654
73	0xbe9d1086	-0.3067667
74	0x3e31c851	0.17361571
75	0xbe53ea9a	-0.20694962
76	0xbf408248	-0.75198793
77	0xbe089a1c	-0.13340038
78	0x3ebd2178	0.36939597
79	0xbec17e6d	-0.37791768
80	0xbe5f6ee4	-0.21819645
81	0xbeffa63e	-0.4993152
82	0x3e935c4b	0.2878135
83	0xbf5b8fe6	-0.85766447
84	0xbec45b7b	-0.38351044
85	0xbf43dfc2	-0.765133
86	0xbee58c7f	-0.44833753
87	0xbf1fa5bb	-0.6236226
88	0xbf10410d	-0.5634926
89	0x3ea34704	0.31890118
90	0xbe6f2169	-0.23352589
91	0xbf071d7a	-0.5277935
92	0xbf185125	-0.59498817
93	0xbea7d394	-0.3277861
94	0xbe29926d	-0.16559763
95	0xbf098b07	-0.53727764
96	0xbe803628	-0.25041318
97	0xbf293fb9	-0.6611286
98	0xbe1079c0	-0.14108944
99	0xbefc3cce	-0.4926514
100	0xbe8fb64c	-0.2806877
101	0xbeb04cbc	-0.34433544
102	0xbd5634bd	-0.05229639
103	0xbe3ffb88	-0.18748295
104	0xbeaffabb	-0.3437098
105	0xbee94009	-0.45556667
106	0xbcf0a2a9	-0.029374437
107	0xbc841cb5	-0.01612697
108	0xbe9cbb35	-0.30611578
109	0xbeede756	-0.46465558
110	0xbe8eb87c	-0.27875125
111	0xbe37cb56	-0.1794866
112	0xbe6b989b	-0.23007433
113	0xbee3b502	-0.44474036
114	0xbcfa1f50	-0.03053251
115	0xbe3ffd75	-0.1874903
116	0xbdbf1718	-0.09330577
117	0xbe393ba7	-0.18089162
118	0xbe4d4616	-0.20046267
119	0xbed63e06	-0.41844195
120	0xbf05f212	-0.52322495
121	0xbe54ed08	-0.20793545
122	0xbe1239fa	-0.14279929
123	0x3d228f3c	0.03968738
124	0xbeb7cc02	-0.35897833
125	0xbf463745	-0.77428085
126	0xbeb7728d	-0.35829583
127	0xbd33f616	-0.043935858
128	0xbdaaf349	-0.08347184
129	0xbef43e07	-0.47703573
130	0xbedd15f9	-0.43180826
131	0xbe8c3af0	-0.27388716
132	0xbe5e8dbd	-0.21733756
133	0xbf19a679	-0.6001964
134	0xbe595a7e	-0.21225926
135	0xbe12ae5c	-0.14324325
136	0xbe849343	-0.25893602
137	0xbea52d14	-0.32260954
138	0xbda8fd0a	-0.08251388
139	0xbf0eae02	-0.55734265
140	0xbeb69eb3	-0.35667953
141	0xbef27b5d	-0.47359744
142	0xbf0dddca	-0.5541655
143	0xbeab1076	-0.33410996
144	0xbf078ea0	-0.52952003
145	0xbebda896	-0.37042683
146	0xbec9aabc	-0.39388072
147	0xbee9b0f1	-0.45642808
148	0xbe9f52f9	-0.3111799
149	0xbe5eb767	-0.2174965
150	0x3d31152c	0.04323308
151	0xbe59304d	-0.21209832
152	0xbf06fc1c	-0.5272844
153	0xbf0c209e	-0.5473727
154	0xbe340ced	-0.17583056
155	0xbe9926c8	-0.299124
156	0xbe0e2e45	-0.13884838
157	0xbee8a168	-0.45435643
158	0xbedc1e97	-0.42992088
159	0xbf03736d	-0.51348
160	0xbece520b	-0.4029697
161	0xbe2d52b0	-0.16926074
162	0xbf30a1e6	-0.6899704
163	0xbf44421e	-0.76663387
164	0xbe394685	-0.18093307
165	0xbe1cb8ab	-0.1530482
166	0xbee6514b	-0.44983897
167	0xbf50d182	-0.81569684
168	0xbebef36a	-0.37295085
169	0xbebe824a	-0.37208778
170	0x3d80dc2b	0.06291994
171	0xbf0620a5	-0.5239356
172	0xbe83865d	-0.2568845
173	0xbe6d5253	-0.23175935
174	0xbefe2cb8	-0.49643493
175	0xbefd29c8	-0.4944594
176	0xbdc24944	-0.094866306
177	0xbedf9c26	-0.4367382
178	0xbe612f26	-0.21990642
179	0xbf0b77b1	-0.5447951
180	0xbefaeeef	-0.49010417
181	0xbf1889b4	-0.5958512
182	0xbdcbc420	-0.09949517
183	0xbecf1cc5	-0.40451637
184	0xbe20aa79	-0.1569003
185	0xbf26f75e	-0.652212
186	0x3f2d023f	0.6758155
187	0xbf16d280	-0.5891495
188	0xbe817699	-0.25285795
189	0xbefde19e	-0.49586195
190	0xbe645c33	-0.22300796
191	0xbea90bd6	-0.33016843
192	0xbda24af2	-0.07924451
193	0xbe76fc40	-0.24119663
194	0xbed26851	-0.41095212
195	0xbef5bbc6	-0.47994822
196	0xbed44e57	-0.4146602
197	0xbed08fb1	-0.40734628
198	0x3ba7809a	0.005111766
199	0xbec51526	-0.38492697
200	0xbef00af6	-0.46883363
201	0x3d495ace	0.049158864
202	0xbf40cd44	-0.7531321
203	0xbe820ece	-0.2540192
204	0xbe301b35	-0.17197879
205	0xbeb06387	-0.34450933
206	0xbe422d1f	-0.18962525
207	0x3f5c0bab	0.85955304
208	0xbdb02e22	-0.08602549
209	0xbe450b4c	-0.1924259
210	0xbef20cff	-0.4727554
211	0xbecb6859	-0.39728048
212	0xbf47558b	-0.77864903
213	0xbe9a4667	-0.30131838
214	0xbf4218aa	-0.75818884
215	0xbf4abbf3	-0.7919304
216	0xbef0e275	-0.47047773
217	0x3d9e58ae	0.07731758
218	0x3dde58d6	0.10856788
219	0xbf2901f3	-0.660186
220	0xbef11ee6	-0.47093886
221	0xbe4ed6ab	-0.20199077
222	0xbe42d6b9	-0.19027223
223	0xbf278951	-0.65443903
224	0xbf2481f2	-0.6426078
225	0xbe7eae4b	-0.24871175
226	0xbf19f8f4	-0.601455
227	0xbf1b882b	-0.6075465
228	0x3d592490	0.053013384
229	0xbeb85a1b	-0.36006245
230	0xbee216d2	-0.44158036
231	0xbea05b85	-0.31319824
232	0x3da50ad6	0.080587074
233	0xbf1b7217	-0.6072096
234	0xbececdc3	-0.4039136
235	0xbe5fbc3f	-0.21849154
236	0x3ec475cd	0.38371125
237	0xbee45b1c	-0.4460076
238	0xbebebf48	-0.3725531
239	0xbee32dc8	-0.44370866
240	0x3d931e6d	0.07183538
241	0xbe1be90b	-0.15225618
242	0xbf03a8f2	-0.51429665
243	0xbe3abe02	-0.18236545
244	0xbeee8ba0	-0.465909
245	0xbead4d57	-0.33848068
246	0xbf4688bd	-0.77552396
247	0xbe6e4fd6	-0.23272642
248	0xbeaa6098	-0.3327682
249	0xbf0e87a7	-0.5567574
250	0xbea49df1	-0.3215175
251	0x3ec11fc6	0.37719554
252	0xbe50fb44	-0.2040835
253	0xbea34144	-0.3188573
254	0xbf4a691a	-0.7906662
255	0x3ea3cbd6	0.31991452

bn2.weight f4 [300]
0	0x3ff31a82	1.8992465
1	0x402634a1	2.5969622
2	0x40509f7d	3.2597344
3	0x3f93c168	1.1543398
4	0x40062974	2.09628
5	0x3ff6a882	1.9270175
6	0x4019a336	2.4005866
7	0x403aed12	2.9207196
8	0x3f1eb838	0.61999846
9	0x40857336	4.170314
10	0x405e9d3a	3.4783463
11	0x3f42bb00	0.7606659
12	0x40384852	2.879414
13	0x40455869	3.0835211
14	0x3f8d46c1	1.1037217
15	0x4054c94a	3.3247857
16	0x3ffa0484	1.9532628
17	0x401ca729	2.4477026
18	0x405c79cc	3.444934
19	0x40652272	3.5802274
20	0x3ebcce76	0.36876267
21	0x4006c867	2.1059816
22	0x3fbea831	1.4895078
23	0x3f830772	1.0236647
24	0x3f0f59b0	0.5599623
25	0x40600f98	3.5009518
26	0x3fa8d5b8	1.3190222
27	0x3fa21647	1.2663049
28	0x3fb77ec4	1.4335561
29	0x404255e7	3.036493
30	0x4041aed1	3.026295
31	0x404b818b	3.1797817
32	0x402488f6	2.5708594
33	0x4020a3dc	2.5100012
34	0x3fd48e73	1.6605972
35	0x3ffba6e9	1.9660312
36	0x3fa332e7	1.2749909
37	0x40cadbd1	6.339333
38	0x403ab043	2.9170082
39	0x4095c083	4.67975
40	0x3fab1df2	1.3368514
41	0x40395c9a	2.896277
42	0x3e81f53b	0.25382408
43	0x3e1db674	0.15401632
44	0x40024efd	2.036071
45	0x40161451	2.34499
46	0x40103db1	2.2537653
47	0x3fc14be5	1.5101286
48	0x40141c15	2.314214
49	0x3faa51ae	1.3306177
50	0x3f918d1a	1.1371186
51	0x40158995	2.3365223
52	0x4009872d	2.1488755
53	0x3fe627f6	1.7980945
54	0x4000cc45	2.0124676
55	0x400fc2e1	2.2462695
56	0x3eeb03c8	0.45901322
57	0x3fa4e643	1.288277
58	0x3f3461f5	0.7046197
59	0x400dfd73	2.2185943
60	0x401282ff	2.2892454
61	0x40181c56	2.3767295
62	0x400167bb	2.0219562
63	0x4028394a	2.6284966
64	0x4006e730	2.1078606
65	0x3fdc9e37	1.7235783
66	0x40345152	2.8174634
67	0x401920de	2.392631
68	0x3fe2a28f	1.7705859
69	0x401e0f09	2.4696677
70	0x3ffe7c88	1.9881754
71	0x3ff22b5e	1.8919485
72	0x3fe7f031	1.8120176
73	0x3f965097	1.1743344
74	0x4018e731	2.3891108
75	0x409e3727	4.9442325
76	0x3fcfe12b	1.6240591
77	0x3ff1b7e7	1.8884248
78	0x3fd1aac9	1.6380244
79	0x400f3109	2.2373679
80	0x3fc709eb	1.5549902
81	0x4016ac0d	2.3542511
82	0x3f311ab2	0.6918136
83	0x3fb4734f	1.4097689
84	0x3e49e142	0.19714835
85	0x4008d343	2.1378944
86	0x3f11cecf	0.5695619
87	0x404b3f66	3.1757445
88	0x3fff1bf4	1.9930406
89	0x405366c2	3.3031468
90	0x40353840	2.8315582
91	0x3f8d0ada	1.1018937
92	0x3ff7173a	1.9303963
93	0x400b9f90	2.181614
94	0x40024fe5	2.0361264
95	0x3fe2dece	1.7724245
96	0x3ef67893	0.48138866
97	0x3ecbd5e0	0.3981161
98	0x3ffd4f00	1.9789734
99	0x400ba02b	2.1816509
100	0x3faa0f08	1.3285837
101	0x3ff0b7e0	1.8806114
102	0x402130f9	2.518614
103	0x406e07ed	3.7192338
104	0x3ffc7060	1.9721794
105	0x401b5b0f	2.4274328
106	0x4022d29e	2.544105
107	0x400cbfd6	2.1992087
108	0x40094a91	2.1451762
109	0x402fb294	2.7452745
110	0x402b744e	2.6789737
111	0x40084f08	2.1298237
112	0x3fc6d497	1.5533627
113	0x4045ba4d	3.089496
114	0x40058f9c	2.0868902
115	0x3fc3c23e	1.5293653
116	0x3f9a974d	1.2077423
117	0x40440042	3.0625157
118	0x4007ace1	2.1199267
119	0x400c4c4b	2.1921566
120	0x40007394	2.0070543
121	0x401120c1	2.2676241
122	0x40436ed1	3.0536387
123	0x3ffb379b	1.9626344
124	0x402c2044	2.6894693
125	0x3fa16c1e	1.261112
126	0x3fdb3bb6	1.7127597
127	0x3fcbec91	1.5931569
128	0x3e6f5a81	0.23374368
129	0x40341dd5	2.8143208
130	0x400b42dc	2.1759558
131	0x3ea799e7	0.32734606
132	0x3f9c05e5	1.2189299
133	0x3f813c11	1.0096456
134	0x3e9213a5	0.28530613
135	0x402de9a2	2.7173848
136	0x4012b92d	2.2925522
137	0x3fd23bdd	1.6424519
138	0x402c3baa	2.6911416
139	0x3fb2e56f	1.3976268
140	0x3ff17be4	1.8865933
141	0x3ee6b41e	0.45059294
142	0x3ff76107	1.9326485
143	0x3ea9a6c3	0.33135042
144	0x3fbaf2bd	1.4605328
145	0x401219e7	2.282831
146	0x3ff646a4	1.9240308
147	0x3f81c98d	1.0139633
148	0x3eff7035	0.49890295
149	0x3fc3c100	1.5293274
150	0x408080df	4.0157313
151	0x3ffae1b8	1.9600134
152	0x402f5af6	2.7399268
153	0x3fc9edcb	1.5775694
154	0x40135a3c	2.3023825
155	0x3fb8cfe6	1.4438446
156	0x3fbfa441	1.4972001
157	0x3f06be23	0.52633876
158	0x3f0c4427	0.5479149
159	0x3f94e5f8	1.1632681
160	0x3f83b7ac	1.0290427
161	0x3f898974	1.0745072
162	0x3f7ca748	0.9869275
163	0x3ef16768	0.47149205
164	0x4065328e	3.5812106
165	0x3ff5cf50	1.9203892
166	0x4002f092	2.0459332
167	0x3fd25ca2	1.6434519
168	0x3f8c2cb6	1.0951145
169	0x40a8f861	5.2803197
170	0x3f9bdab1	1.2176114
171	0x3ea3720a	0.31922942
172	0x4020fdde	2.5154948
173	0x4027c880	2.6216125
174	0x400d39c7	2.2066514
175	0x401b64c5	2.4280255
176	0x3f8f7e9b	1.1210512
177	0x3f8b0269	1.086011
178	0x3ff4a145	1.9111716
179	0x3f877855	1.0583597
180	0x4007fc62	2.1247792
181	0x40057d9c	2.0857916
182	0x4007d684	2.122468
183	0x3eb51d54	0.35373938
184	0x3fa45a83	1.2840122
185	0x3fecc33b	1.849708
186	0x3feac1f0	1.8340435
187	0x401e91db	2.4776523
188	0x3f842e00	1.0326538
189	0x400574e1	2.0852587
190	0x3f91eeb1	1.1400968
191	0x3f35a466	0.7095398
192	0x40106529	2.2561743
193	0x3fbefb33	1.492041
194	0x3fd60045	1.6718832
195	0x402e4342	2.722855
196	0x3e205ee2	0.15661195
197	0x3ff74075	1.9316546
198	0x40119601	2.2747805
199	0x4011f425	2.2805264
200	0x3fe367dd	1.7766072
201	0x3fd92226	1.6963546
202	0x3e521876	0.20517144
203	0x4034abce	2.8229861
204	0x3fa883b7	1.3165196
205	0x4001bbb4	2.0270815
206	0x40076625	2.1156094
207	0x400437c7	2.0659044
208	0x40337a7e	2.8043513
209	0x40056253	2.0841262
210	0x3fa7438a	1.3067486
211	0x402922cb	2.6427486
212	0x403cc08d	2.9492524
213	0x3faae3d9	1.3350784
214	0x403ff39a	2.9992433
215	0x406f49bc	3.7388754
216	0x402dc2b5	2.715009
217	0x3fbd37f3	1.4782699
218	0x40234636	2.5511603
219	0x401fa854	2.494649
220	0x400dec2b	2.2175395
221	0x3fe84f14	1.8149133
222	0x40121282	2.2823796
223	0x3fed8098	1.8554869
224	0x40244dff	2.5672605
225	0x409a271d	4.8172746
226	0x401cce99	2.4501097
227	0x3f0b8984	0.5450671
228	0x3fc74be4	1.5570035
229	0x3fd40153	1.6562904
230	0x3fb90575	1.445479
231	0x3fdd3260	1.7280998
232	0x4011ed27	2.2800996
233	0x3f9c5005	1.221192
234	0x3fa971b3	1.3237823
235	0x3fcf18f9	1.6179496
236	0x4019cd0b	2.4031398
237	0x3f4b9449	0.7952314
238	0x3edf7b9f	0.43649003
239	0x3feb7719	1.8395721
240	0x3f9740b9	1.1816627
241	0x3ff6de3f	1.9286574
242	0x3f70b2c2	0.9402276
243	0x3eee2bc8	0.46517777
244	0x3f69bef6	0.9130701
245	0x40164c94	2.348424
246	0x3f10c14d	0.56544954
247	0x402bba1e	2.6832347
248	0x402f725d	2.7413552
249	0x3ff595e8	1.9186373
250	0x3fa53f77	1.2909993
251	0x3e7dcb27	0.24784528
252	0x3ea27166	0.3172714
253	0x4032e2bd	2.795089
254	0x408c1a56	4.378215
255	0x40535229	3.3018897
