tmp/ddpg/actor_ddpg.pth (torch, 511239 bytes, 10 tensors)

fc1.weight f4 [400, 11]
00000000: e325 98bd e3d5 29be f171 723e 934b c33d
00000010: 437e 9c3e 4e20 da3e 6f6f 873e f70b 873e
00000020: fa61 ba3e 70e4 c53e d871 a33e 3054 7e3e
00000030: e187 a1be 4123 933e e972 553d ad65 253e
00000040: f7f9 3c3f 7651 dc3e fe59 4a3e 1f9e b83e
00000050: 3e6f 9e3e 3f9c a13e fd5b b63e c2ed 8cbe
00000060: 85ed 4e3d 430e 953d 71de c03e b876 603f
00000070: 44e1 633e 94d4 9ebb be73 a63d ec5b f63d
00000080: d9b6 213d 447d 9a3e 472d a5be c7a0 c73c
00000090: 810a d03d f6d9 aa3e 8411 2abf 1ba9 48bb
000000a0: 7317 e83d 8d20 7bbe 48f7 91bd b0fd 0dbe
000000b0: d545 78be 37b1 103d 5c59 b33d c01b 88bd
000000c0: 879b 9ebe db86 643e 7ac6 ef3c d87c f93e
000000d0: c31d c13e be53 c03e 29d8 f03e 6e2d 82be
000000e0: 9caa 1ebe 1270 ee3e e814 e73d 94f0 e13e
000000f0: 2be6 e33e 02ac 913e 3c81 a03e f65f bc3e
00000100: a8f5 a33e 9683 b73e 347f 473e 744b 86bd
00000110: 5652 d33d d0ac 8f3d c883 993e 4bb1 fc3e
00000120: ffbd 263f 0b93 053f c184 b33e f8c4 ca3e
00000130: 5a5c ad3e cf99 b93e f011 babe f127 8a3d
00000140: 197d 6a3d 9940 c03d 21ce 513d bcda a73e
00000150: 276d 8a3e de0f 3cbe d50b 74bd 4baa 11be
00000160: 0654 7e3e cf9f 3cbe 509d 0f3e 0ac9 603c
00000170: 8899 c23e 42e2 3a3f 5d5c e63e ca12 4fbc
00000180: 19f8 2b3e 277c 253e fc79 113e 8afe 6d3e
00000190: 7d3e 5fbe 4538 d33e 0071 853d 5fad e4bc
000001a0: e76c 543f 287d 113f 1c30 e23e f4dc cf3e
000001b0: 9c7c de3e 3e6a da3e 7ec3 0e3e ff63 4dbe
000001c0: f4e4 733e 592d 863d 1800 043e 2de6 d23e
000001d0: ccb4 133f fc35 eb3e b61d 683e 1709 263e
000001e0: 1083 6f3e 84c8 853e bc3b 92be 6a0f a93e
000001f0: f1e1 943d cd2d 0dbd b92c 2dbf 2d50 623e
00000200: 3353 a53e 5acc cf3e 2cab be3e 6557 bf3e
00000210: 1ca3 2dbc 1741 81be 3449 253e 139b 2abc
00000220: 70ec 9a3d 6c1a 18bf 3e82 023f b943 bd3d
00000230: 4368 ef3c 66a5 c23d d770 eb3d ab68 d43d
00000240: 5d9f 8fbe 20ff b13e 9141 593d 9176 5d3e
00000250: a01d 713f e13d 9a3e 1d30 a1bd c679 c43e
00000260: ec6d f93e 6d28 c43e cf08 55be 1978 b3bd
00000270: e338 7a3d 9ed7 083e d674 1a3e 9c77 c93e
00000280: bf95 e73e 5f9b 7d3e 79fc 893e 8a5d 9e3e
00000290: 669d 443e a975 873e 2ea2 83be 3404 6d3e
000002a0: 6243 9a3d cda5 e33e 1c73 8d3e 7bdd a03e
000002b0: 28a3 0c3f 1840 29bf 447c 19bf 4541 e0be
000002c0: db21 7b3e 4118 e8be babd 463e f8cf b03d
000002d0: 8b30 b03e 5d3a 7fbe 3cfb 993e 8c05 bbbd
000002e0: f368 d13c a338 413d 3652 77b9 427d 15be
000002f0: d2b0 4b3d 6a16 82bd 666e ffbd 3900 5bbe
00000300: a8eb d23e 0d2b 773e 845a f43e 1f1c 2b3e
00000310: 3bfb 3a3e 82a7 5b3e 5d16 3d3e e580 8bbe
00000320: 1d5f cb3e 2ce0 8b3d 9e91 193e c2b5 f43e
00000330: 5d64 173f fbbf 3c3f 3278 ab3e cb4a 8e3e
00000340: 873e 8b3e 0a3e 073f ba39 e3be 7f19 7e3e
00000350: c73e 6b3d ce27 fa3e 82f2 f53e 102d d63d
00000360: bc8a d1bc 9142 a13e bd05 da3e 00c5 bb3e
00000370: 6460 9f3e d0e7 90be 3b77 263e dc0c eb3c
00000380: 418f 903e e5ad 243f 5543 dc3e 22cb a13c
00000390: 6602 223d c11e f63d 0c69 0b3d 0708 0d3e
000003a0: 3a0a b3bd aad2 053f 6bb8 703d 2b05 3abc
000003b0: a08d 023f 1539 ba3e db56 263f b8c1 3c3f
000003c0: 5e82 233f 124e 283f 5cee 16bd d584 efbe
000003d0: 7b34 64bb e7df d33d 1ccf 443e 53a7 363e
000003e0: c494 9d3e 0d6b 1fbd f42f 2bbe 02ab 19be
000003f0: 2d8f 08be 2b04 813e 7070 58be c77f 6c3e
-0.07429101 -0.16585498 0.23676278 0.09535899 0.3056508 0.42602772 0.26452205 0.26376316
0.36402875 0.38650846 0.31922793 0.24836802 -0.3154898 0.28737834 0.05211154 0.16152067
0.73818916 0.430309 0.19760892 0.36058137 0.30944246 0.3156452 0.35617056 -0.27525145
0.050519485 0.07278111 0.3766971 0.8768115 0.22253901 -0.0048471186 0.08127545 0.120292515
0.039481018 0.30173695 -0.32261106 0.024368657 0.101582535 0.33369416 -0.66432977 -0.0030618373
0.113325976 -0.24524136 -0.07127243 -0.13866305 -0.24245389 0.035325255 0.08757278 -0.06645918
-0.30978033 0.22317068 0.029269446 0.4872806 0.3771802 0.3756389 0.47039917 -0.25425285
-0.1549477 0.46569878 0.112832844 0.4412886 0.44511542 0.28451544 0.31348598 0.36791962
0.32023358 0.3584258 0.19482118 -0.0655736 0.10318439 0.07015383 0.29983354 0.49354014
0.6513366 0.52177495 0.3506222 0.396034 0.3385952 0.3625016 -0.3634181 0.067458995
0.05724821 0.09387321 0.05122197 0.3278407 0.27036402 -0.18365428 -0.059581596 -0.14225118
0.2483674 -0.18420337 0.14024854 0.013719806 0.3800776 0.7300149 0.44992343 -0.012638757
0.1679386 0.16160642 0.1420669 0.2324163 -0.21801181 0.41253868 0.06515694 -0.027914701
0.8297867 0.568316 0.4417733 0.4059826 0.43454444 0.4265918 0.13941762 -0.20057677
0.23817807 0.06551618 0.12890661 0.41191235 0.5769775 0.45939624 0.22667584 0.16214405
0.2338984 0.26129544 -0.285612 0.33019572 0.072696574 -0.034467507 -0.67646366 0.22100897
0.32290038 0.40585595 0.3723997 0.37371364 -0.01059797 -0.25244972 0.16141206 -0.010412949
0.07564628 -0.59415317 0.50979984 0.09241433 0.02922452 0.095042035 0.11496132 0.10371526
-0.28051272 0.34764957 0.053041045 0.2162726 0.9418583 0.30125335 -0.07870505 0.38374156
0.48716676 0.38312092 -0.20804141 -0.08763141 0.061089408 0.13363501 0.15083632 0.39349067
0.45231435 0.247663 0.26950434 0.3093074 0.19200668 0.26456955 -0.2570967 0.23146135
0.075323835 0.44462433 0.27626884 0.31418976 0.54936457 -0.66113424 -0.5995524 -0.43799797
0.24524634 -0.45331004 0.19408312 0.08633417 0.34412035 -0.24924608 0.3007449 -0.09131917
0.025562739 0.047173154 -0.00023586382 -0.14598563 0.049729176 -0.063519314 -0.12472229 -0.21386804
0.41195416 0.24137516 0.47725308 0.16709946 0.182599 0.21450618 0.18465562 -0.27246776
0.39721003 0.06829867 0.14996955 0.4779492 0.5913752 0.7373044 0.3349014 0.27791438
0.27196142 0.5282904 -0.4437998 0.24814413 0.057432916 0.48858494 0.4803658 0.10457814
-0.025578849 0.314961 0.42582503 0.36673737 0.31128228 -0.2830186 0.1625642 0.028692655
0.28234294 0.6432784 0.4302012 0.019750182 0.03955307 0.120175846 0.034035727 0.13772593
-0.08742185 0.5227457 0.058769625 -0.011353771 0.5099735 0.36371675 0.6497628 0.7373309
0.638708 0.65744126 -0.03684841 -0.4678103 -0.003482132 0.1034544 0.19219631 0.17837267
0.30777562 -0.03892045 -0.16717511 -0.1500664 -0.13335867 0.25198492 -0.21136642 0.23095618

fc1.bias f4 [400]
00000000: 3e9e 0a3e 140c 803e 961d 0fbd 27ea 3a3e
00000010: 44b9 0a3e 50f0 ed3e 0348 e43d 6d5e 833e
00000020: be48 263d 8eee 9f3e dfd2 053e 4c28 c13e
00000030: 0782 543e f8b1 883e a1be 0e3e 98ae b13e
00000040: 30c9 793e aa58 0dbd c81e 963e 6824 843e
00000050: 6828 ef3d cb1c cd3e 4de4 263d 301f e23d
00000060: 94e6 113e d19f 7a3e 6c43 d23e d5a0 613e
00000070: 0c07 ae3d b406 8e3e e23d dd3e b5c9 d73e
00000080: f995 663e e1e8 a63e df08 943e 11bc 883e
00000090: ef08 9d3e 02fe 2b3e 3e9d 543e e503 dd3e
000000a0: 760a 343e 4216 9f3e d459 a73e d950 723e
000000b0: babc 853e 5dec c03e 8825 a33e f968 793e
000000c0: 63b7 313e d21c 493e 44ef 843e 9e9d f13d
000000d0: 5d04 08be 5036 523e 739a a03e 912e 7e3e
000000e0: 0c4f 603e 4c15 073e 73fb 873d ce1d 333e
000000f0: 1dd7 aa3e a6c0 393e a8fb 6b3e 02b7 323e
00000100: 690e 9f3d 0ee0 183e 5661 9b3e 7db6 f03d
00000110: f7d5 b33e 597f b43e 80ff 303e 35a5 653e
00000120: dd23 8d3e ee40 953e 455e df3e 2911 ca3d
00000130: 4f7e 15be ffb9 843e c080 043f 7d75 7b3e
00000140: 3dad 093d e5c9 483e 3419 503e 8bf6 643e
00000150: c05e f83d 2575 853e 2a03 6c3e da70 1e3e
00000160: 74ec 873d 767d c13e 7661 613e 68ca e03d
00000170: 0e8f a23e dc3d 593e 97a7 693e 492f a43e
00000180: 54de 283e 2bfa 743e 2d18 a13e 4412 173e
00000190: 1dcb a83e 21ac 933e 1aba 763d 1d94 033e
000001a0: 9c63 403e dee7 1e3e c46b a43e a3d2 143e
000001b0: 2f2f c73e d662 f93d 74f2 043e 0bcb 4d3e
000001c0: 65b8 323e 03ab 0d3e 4eca cc3e f9b3 ca3e
000001d0: 7b65 bd3e fc95 a23e 94e6 413d c928 863e
000001e0: 82d8 8f3e 5bc9 763e 7070 683e bdd5 5c3e
000001f0: f368 a73e 9e76 95bc fe7e 013e 6063 9b3e
00000200: 41c7 f33d 29a3 f13d 353d 513e b72e 573e
00000210: 2774 a83e f921 c23e 42fa a83e 362f 903e
00000220: 6e97 06bd c34c 383e dd2d 043f b832 323e
00000230: f061 b23d 8e6f 9f3d 5d3d 5b3e a722 4e3e
00000240: 8bd6 1a3e aa1f cb3d 5ac4 c23d d1d8 1c3e
00000250: 24e4 65bd 6990 e63e c663 f93d 7d7a 8a3e
00000260: 8787 ff3d 44ae 083e 4e9a 743e b40c c83e
00000270: 15e0 903e f445 383e f07c 923e e4c4 b2bb
00000280: 54a7 ad3e c6a1 f63e db28 523e fa0a 473e
00000290: ac8d 943e b0ef c73e 791c 083e 5bb6 843d
000002a0: a77c 0c3e 327e 8b3c 892c 863e 6301 14bd
000002b0: 483f 1f3e 08c3 4a3e 4609 2d3e f551 573b
000002c0: 14a5 483e f9ad 083e 75da 553e 5126 273e
000002d0: 8b8d ec3d 06ac 2f3e 8349 c13e 710b 933d
000002e0: 0629 9d3e b0e0 5a3e 594b 0d3f 5b2f 883e
000002f0: 94f7 853e 2707 353d 07fc 733e e0bf e63d
00000300: 3313 853e b16d 7e3d 3cbc 913e ad94 bc3d
00000310: d2aa d23d 5eea 003e 193b ef3e 7d3c b23d
00000320: 8a56 4f3e 0d5c 1d3f e615 1b3f afb7 183e
00000330: c631 ac3e fd73 913e f310 3e3e fd6c 2d3f
00000340: c7ec db3e 6faf 6b3d 188d 6b3d d521 4a3d
00000350: c454 3f3e 2eb7 b93e 9bbd 763e 75f8 b93d
00000360: 6880 db3d efa3 773e f9c3 153e 3b2b ee3d
00000370: ffbf 233d 3539 9d3e c525 053d 4f3e 313e
00000380: d645 0c3e 6e79 ec3d b0fa 3b3e 347f 823e
00000390: 71e3 6b3e 54ba 153e 5a41 ac3e 788c be3e
000003a0: 0475 883e ba5d 4c3e 851d 913e c3d2 d83e
000003b0: 0746 903e 7954 0c3e fe43 773e 2ca0 39bd
000003c0: 0bca 263f 7b1e 8e3e 714e 633e 299c e13e
000003d0: 19ca 2e3c d246 303d bebd 5c3e 1b52 a43e
000003e0: d12c eebc c6f8 863e b3e5 353e 95c2 673e
000003f0: bf58 803e ff26 673e f01e 893e a1be ce3e
0.13536927 0.25009215 -0.034940325 0.18253385 0.13547236 0.46472406 0.11146548 0.2565798
0.040596716 0.3123669 0.13068722 0.37726057 0.20752726 0.2669828 0.13939907 0.34703517
0.24393153 -0.034508385 0.2932036 0.25809026 0.11677629 0.4006103 0.04074507 0.11041105
0.14248115 0.24475028 0.41067064 0.22034009 0.08497438 0.2773949 0.43211275 0.42146078
0.22518148 0.32599548 0.28913018 0.26705983 0.30670878 0.16796115 0.20763108 0.43167034
0.17582116 0.3107167 0.3268572 0.23663653 0.2612055 0.3768033 0.31864572 0.2435645
0.17355113 0.196399 0.25963795 0.11797641 -0.13282914 0.20528531 0.31367835 0.24822451
0.21905154 0.13191718 0.06639757 0.17491838 0.33367243 0.18139896 0.23045218 0.17452624
0.077664204 0.1492922 0.303477 0.11753557 0.3512418 0.3525341 0.17284966 0.22426303
0.27566424 0.291511 0.4362661 0.09866554 -0.14598964 0.25923154 0.51758957 0.24556537
0.03361248 0.19608267 0.20322114 0.22359674 0.12127447 0.26065937 0.23048082 0.15472737
0.06636897 0.37791032 0.22009835 0.10976106 0.31749767 0.21215004 0.22817837 0.32067326
0.16491061 0.23923557 0.31463757 0.14753062 0.32967463 0.2884226 0.060236074 0.1284947
0.18787998 0.15518138 0.3211347 0.14533477 0.38903186 0.121770546 0.12983114 0.20096986
0.17453153 0.13834767 0.39998096 0.39590433 0.36991486 0.31755054 0.047339037 0.26202992
0.2809487 0.24100249 0.22699142 0.2156591 0.32697257 -0.018245038 0.126461 0.30349255
0.11903239 0.117986985 0.20433505 0.21013914 0.32901117 0.37916544 0.33003432 0.2816102
-0.03285926 0.17998032 0.5163248 0.1740216 0.08710086 0.07784949 0.21410127 0.20130406
0.15120904 0.09918149 0.09510107 0.15317084 -0.056125775 0.4503205 0.121772334 0.27046576
0.12477022 0.13347727 0.23886988 0.39072192 0.2829596 0.17995435 0.28610945 -0.0054556
0.33916724 0.48170298 0.20523398 0.19437781 0.29014337 0.39050055 0.13292111 0.06480094
0.13719426 0.017027948 0.26205853 -0.036134135 0.15551484 0.19800961 0.16898069 0.0032855247
0.19594222 0.13347615 0.20884116 0.1632321 0.11550435 0.17155465 0.37751397 0.07179917
0.3069536 0.21374774 0.55193096 0.2659863 0.2616545 0.044196274 0.2382661 0.11267066
0.2599121 0.06211633 0.28463924 0.09208045 0.10286488 0.12589404 0.46724775 0.087029435
0.20247856 0.61468583 0.6058029 0.1491382 0.33631724 0.28408805 0.18561153 0.6774443
0.42954084 0.057540353 0.057507604 0.04934867 0.1868468 0.36272568 0.24095766 0.090805925
0.10717851 0.2418363 0.14625539 0.11629339 0.039978024 0.30707708 0.032506723 0.17308925
0.13698515 0.115465984 0.18357348 0.25487673 0.23035981 0.1462186 0.3364361 0.37216544
0.26651776 0.19957629 0.28342834 0.42348298 0.28178427 0.13704099 0.2414703 -0.045318767
0.65152043 0.2775763 0.22197892 0.44064453 0.010668301 0.04303629 0.21556756 0.32093892
-0.029074105 0.26361674 0.17763405 0.22632821 0.25067708 0.2257347 0.26781416 0.40379813

fc2.weight f4 [300, 400]
00000000: 2ba1 2e3f 2d77 893e 899d 503f 4423 dbbb
00000010: f351 1d3f 62ef 1b3f 25d6 a43f 3a67 973e
00000020: 16b9 7b3f 8d36 983f cac7 cc3e 3a26 1a3f
00000030: 27c5 243f 66b0 543f 8646 173f 785e b63e
00000040: bc73 623e 2218 483f afe5 363f 4bee 293f
00000050: f67b 3c3f e28a 413f 6df2 fa3d e1df 303f
00000060: bd26 333f 80c6 3e3f 59b0 5e3f c2ce 843f
00000070: e734 363f 5317 b83e 7339 523f 2420 8c3e
00000080: 205f 153f d694 4c3f 050c 913f 4d59 703f
00000090: 66ed 223e 0c04 533f d87f 663f 57cd 0b3f
000000a0: b5f8 a13e 3831 723f 1985 b13e 73ec 713f
000000b0: 05d8 f53e 9cca 3b3f aee3 5a3f dca3 d03e
000000c0: 0ab7 693f b65f f13e af68 7d3f d8f8 323f
000000d0: da94 ed3e 403d 243f b9f6 993f 4128 153f
000000e0: 0610 873f 7db9 f53e 2fe5 b73e 2b7a 723f
000000f0: c05a 1c3f 63c8 8e3e 9a2d 9e3e 8ded c93e
00000100: b12c 7d3f 5cb8 333f 2ca0 4c3f b5d9 8b3f
00000110: e50c 053f afbe 2d3f 6b14 243f 5648 da3e
00000120: dabb 603f 8e6b 35bf e2c2 a83e 9f8c 8e3f
00000130: 8643 263f 2cf6 323f 3536 423e 1058 793f
00000140: a69f 5a3f e180 713f f918 a1be f5b2 8e3f
00000150: bc4c 193f ddca 4f3f c5ad 563f c309 333f
00000160: 3db3 5f3f efaa 143d 1c82 3f3f 9bb4 773f
00000170: 2f52 f63e 6818 473f e0fe 303f 5184 7e3d
00000180: a9ed dd3e 24b5 8b3e 47f0 883f 8fc6 353f
00000190: 6185 433f 8072 853f a872 5d3f bc59 0a3f
000001a0: 64e9 fa3e 80fc f83e 71a6 783f a82f 873f
000001b0: ea78 5e3f 6726 233f 9e1d 3a3f 33f5 923e
000001c0: a77e 4f3f cacd 0b3f be08 173f 239c bb3e
000001d0: cb09 153f cb77 b33e 0903 233f b9d8 9c3e
000001e0: fb5c 4d3f 8580 e63e 2619 493e 3249 4d3e
000001f0: c9f8 2f3f f22c 153f 5b9f 203f 616a edbd
00000200: c214 fa3e a04b fd3e c824 5b3f 8be9 f53e
00000210: 26ca 4b3f 433f 3b3f 5605 143f 9609 413f
00000220: 5b06 273f b15c 933e 7946 603f 5770 043f
00000230: 5f69 e73d 06bf 783f 03b2 703e 6938 8c3e
00000240: 3d5e 4d3e a604 f43e 3488 4f3f 609a 583f
00000250: c2ba 5a3f ad92 323f 2062 223f fcd5 323f
00000260: cbf3 453f c51c 3e3f 8a4a 213f 5ef5 413f
00000270: 5b57 313f 5bac b53e 059c 013f 488e 113f
00000280: ee83 153f 40d3 393f 68a0 0f3f d86d 303f
00000290: 2d97 653f b7ab 51be f59a 7c3e 8d2e db3e
000002a0: 257e 123f 0bf9 233f ffb2 fbbc 55a6 333f
000002b0: f4fa 463f 82ea a63f a05f 4b3f 73a6 1f3f
000002c0: b144 f03e 726f 963d 63b6 803e 848c 093f
000002d0: a396 483f f201 cf3e 4397 763f 1119 423f
000002e0: de67 39bd 4efa 323f ebe6 48be b081 813f
000002f0: f872 1a3f fafe 6d3f 46e4 9a3f 3c10 3f3f
00000300: a1fc 3c3f 3865 073f 5a20 2b3f 79af 353f
00000310: 34f7 d73e 89f0 373f f792 fe3e 51cd 1d3f
00000320: 73f2 073f b6b7 193f c135 603f fa75 6a3f
00000330: c8ae 0f3f 83a7 2e3f 099d 623f 366a 03bd
00000340: 413c b33e 3749 653f b813 093f 1056 773f
00000350: 4de3 693f fe17 9f3e a746 8d3f a8be 003f
00000360: 0af8 f33e 4b90 8c3e 5627 ad3e b03d 013f
00000370: a830 383f f35c d93e a4fd 6c3f 78d1 0e3f
00000380: 3e67 833f 99bd 003f c4ef 673f 3fb4 463f
00000390: 1420 0b3f 5e23 423f 9e45 2c3f c7d5 333f
000003a0: 677f 483f d50e 5a3f be29 7e3f 5ad2 3a3f
000003b0: 5b6e 1dbf 3431 083f c11e 3d3e 452a 3e3f
000003c0: 9c93 1c3f d512 b43e 1947 5d3f 5532 373f
000003d0: 65e7 243f b0b2 8b3f cbfc 243f c8e0 4f3f
000003e0: 4faa 353f c063 943f 4fb9 2e3f ff3a 14bf
000003f0: 7036 8a3f f88c 1cbe e477 2c3f 24e2 f23e
0.6821467 0.26848736 0.8149038 -0.0066875536 0.6145317 0.60912144 1.2877852 0.29570943
0.98329294 1.1891648 0.39996177 0.6021458 0.6436333 0.8308166 0.59091985 0.3561895
0.22114462 0.78161824 0.7144422 0.6637923 0.7362665 0.75602543 0.1225327 0.6909161
0.69980985 0.74521637 0.86987835 1.0375597 0.7117447 0.35955295 0.8211891 0.2736827
0.58348274 0.79914606 1.1331793 0.9388626 0.15910873 0.8242805 0.90038824 0.546102
0.3163506 0.9460635 0.34671858 0.9450142 0.48016372 0.7335603 0.8550366 0.40750015
0.9129492 0.47143334 0.9898786 0.69910955 0.46402627 0.6415596 1.2028419 0.5826455
1.0551765 0.4799308 0.3591704 0.94717664 0.61075974 0.27887258 0.30894166 0.3943905
0.9889632 0.70203185 0.799319 1.0925814 0.519728 0.67869085 0.64093655 0.42633313
0.8778664 -0.7086724 0.32961184 1.1136664 0.6494678 0.6990688 0.18965991 0.974
0.85399854 0.9433728 -0.31464365 1.1148363 0.5988271 0.8116892 0.838589 0.6993677
0.8738287 0.036295827 0.74807906 0.9675996 0.48109576 0.77771616 0.6913891 0.062137906
0.43345383 0.27286637 1.0698327 0.710061 0.76375395 1.0425568 0.86503077 0.54043174
0.49006188 0.48630142 0.9712897 1.0561419 0.8690325 0.6373047 0.7270144 0.28702697
0.8105263 0.54610884 0.58997715 0.3664256 0.5821807 0.35052332 0.63676506 0.30634096
0.8022 0.45019928 0.196385 0.20047453 0.6873899 0.58271706 0.6274316 -0.11592556
0.48843962 0.4947176 0.85603 0.48029742 0.7960533 0.73143405 0.5782064 0.7540525
0.6524407 0.28781655 0.8760753 0.51733917 0.11299395 0.9716648 0.23505406 0.27386788
0.2005548 0.47659796 0.81067204 0.8461056 0.8544122 0.6975506 0.63430977 0.69857764
0.77325124 0.7426265 0.6300436 0.75765026 0.6927392 0.3548306 0.5062869 0.5685773
0.58404434 0.72587967 0.56104136 0.6891761 0.896838 -0.2047566 0.24668486 0.42808953
0.5722373 0.64051884 -0.030725 0.7017568 0.77726674 1.3040316 0.7944279 0.62363356
0.46927407 0.07345475 0.2513915 0.53730035 0.78354853 0.40431172 0.9632456 0.758195
-0.04526507 0.69913185 -0.19619338 1.0117702 0.6033168 0.9296719 1.2100914 0.74634147
0.7382298 0.5288882 0.6684624 0.70970875 0.4218079 0.718514 0.497215 0.6164141
0.53104323 0.60045946 0.8758202 0.9158627 0.5612607 0.6822435 0.88520867 -0.032083713
0.35006908 0.8956484 0.53545713 0.96615696 0.9136246 0.31072992 1.1037186 0.5029092
0.47650176 0.27453837 0.33819073 0.5048475 0.71949244 0.42453727 0.92574525 0.55788374
1.0265882 0.50289303 0.9060023 0.77618784 0.5434582 0.75835216 0.6729373 0.70248073
0.783194 0.8517888 0.99282444 0.7297722 -0.61496514 0.5320008 0.18468763 0.7428325
0.61162734 0.35170618 0.8643661 0.71561176 0.6441558 1.0913906 0.6444823 0.81202364
0.70962995 1.1592941 0.6825151 -0.5790252 1.0797863 -0.1528815 0.6737044 0.47438157

fc2.bias f4 [300]
00000000: c505 253f 5b12 553f 97c5 503f 4c30 033f
00000010: b030 3f3f 0d28 663f 6d59 783f e557 523f
00000020: 5ff2 383f 2140 573f 4ae4 3f3f bbbc 7b3f
00000030: a9c0 413f 3f0c 573f 64f9 633f 4c43 563f
00000040: 8187 1a3f 699e 623f bc5b 163f 0239 373f
00000050: 3f63 763f fd60 5f3f b3df 113f b4b5 2b3f
00000060: efac 773f 831b 533f 55ae 843f 3653 5d3f
00000070: 365a 383f 6a10 4b3f 9b37 173f 0b7a 593f
00000080: dfca 293f fc80 193f b98d 5e3f 9799 183f
00000090: 4cd3 573f 1df4 633f a8e3 3a3f d8f2 303f
000000a0: ec3b 093f 4dc8 4a3f a885 583f 35e1 5b3f
000000b0: 8028 413f d654 5b3f 4982 1a3f 07f5 3e3f
000000c0: b22f 343f 5605 083f 8e8b 573f 386b 453f
000000d0: 2930 453f 100f 813f 5986 3c3f 5311 443f
000000e0: 21f4 413f 18a1 2e3f 26e1 723f 3a03 2d3f
000000f0: be92 703f 46c9 593f 68e0 573f 1b69 0f3f
00000100: 9cee 633f c005 673f 1119 413f 9b4e 1c3f
00000110: 139f 4e3f d210 353f c4e1 503f ad54 423f
00000120: f326 4c3f b046 573f e86a 493f d443 523f
00000130: 2bc0 4e3f 18ef 493f 488d 4c3f 9dfa 263f
00000140: 46c0 0a3f 781f 433f 8144 5c3f cd1e 503f
00000150: 4dc1 673f c80d 533f ee01 823f 9469 3d3f
00000160: a2e5 423f 3dec 273f ea23 4b3f a9e5 5c3f
00000170: 44d7 713f b471 523f cd8c f23e 552e 453f
00000180: f265 6e3f 9bcf 643f 7336 473f c91d 563f
00000190: 4893 1a3f 0889 793f 750c 403f c975 333f
000001a0: 9ee5 523f 25fc 653f 7e4d 383f 4b5b 573f
000001b0: 8def 243f 3f77 483f 711e 173f 4f54 3e3f
000001c0: 3227 373f 9837 223f a6b1 203f 1e80 4a3f
000001d0: f835 463f 9e7b 333f 849a 3e3f 59d6 2e3f
000001e0: c507 2b3f 82b2 693f 2ffc 453f d3ac 4b3f
000001f0: a2bf 643f 90ca f23e b646 3d3f 38a1 553f
00000200: 40fd 613f e04e 623f bf7a 463f b582 7b3f
00000210: de9b 0d3f 57ad 693f ff2b 543f 7db4 523f
00000220: d76c 513f 5ab0 5a3f 1dbd 403f 5b6e 483f
00000230: 382f 043f a9e9 613f 7563 433f 12ee 5f3f
00000240: 12cd 5d3f 3dcc 523f d345 0a3f 90fb 3d3f
00000250: cb0b 5a3f abf6 273f fd47 3a3f 973d 1e3f
00000260: 95e1 1a3f 5a27 3f3f 5130 6c3f b203 403f
00000270: f96f 383f f472 553f c3ca 613f f78c 613f
00000280: 509d 653f 2abd 3c3f 709e 543f cb06 3e3f
00000290: 7e85 573f 80c4 293f 4180 363f 4661 443f
000002a0: 7c64 5e3f 2dff 443f 5a48 793f e36a 4d3f
000002b0: fbe9 373f a003 383f cb95 3a3f c1cd 1c3f
000002c0: 9807 713f 7bd2 663f 9842 1d3f f401 333f
000002d0: 911e 633f d268 1e3f d1ae 4d3f 51fb 533f
000002e0: 61a1 483f 8936 5c3f d008 463f 58ac 383f
000002f0: f8bf 6b3f bdea 403f 6abd 663f 8c74 413f
00000300: 0b75 3e3f f4d0 353f 2b6a 533f d56b 183f
00000310: 251a 573f 3aaf 473f c674 2b3f 045c 443f
00000320: d7f9 663f 62e4 5b3f 6754 5c3f 785b 2b3f
00000330: d112 5b3f 5e6f 3b3f 5376 413f 9cf9 523f
00000340: d306 333f 72a7 413f d29b 653f 7ba4 3d3f
00000350: d035 253f e393 193f c00c 163f 938a 3e3f
00000360: d5d1 0a3f 854e 413f f69f 283f 65b9 573f
00000370: 77bf 1f3f 9bfb 553f 37cd 393f 06ab 393f
00000380: 912c 433f 5757 533f 4aba 4e3f 752f 2f3f
00000390: 85f9 233f 16ca 313f 2b05 313f eda1 4e3f
000003a0: e126 233f ac27 453f 8b9a 483f aa42 503f
000003b0: 8e36 353f c24d 743f ae3c 5a3f 7a6b 5e3f
000003c0: 74b7 223f 0b74 443f 8f2a 383f d268 493f
000003d0: c939 5b3f 7117 673f cd89 603f dbbf 373f
000003e0: 089d 393f b0b2 3b3f 0a21 323f b006 583f
000003f0: 7bee 4e3f 406a 103f 0fbf 413f a399 353f
0.6446193 0.83231133 0.815515 0.5124557 0.74683666 0.8990486 0.9701145 0.82165366
0.7224483 0.8408223 0.74957716 0.98334855 0.756846 0.8400306 0.89052415 0.83696437
0.6036301 0.88522965 0.58733726 0.7157136 0.9624519 0.8725737 0.5698196 0.6707413
0.9674825 0.82463855 1.0365702 0.86455095 0.7201265 0.7932192 0.5906922 0.8495185
0.6632518 0.5996244 0.86935 0.5960936 0.8430679 0.8904436 0.73003626 0.6912055
0.5360706 0.79211885 0.84578943 0.85890514 0.75452423 0.85676324 0.6035505 0.7459263
0.7038528 0.5313314 0.8419732 0.7711673 0.7702661 1.0082722 0.736425 0.76588935
0.75763136 0.6821456 0.948748 0.6758305 0.9397391 0.85072744 0.8432679 0.56019753
0.89035964 0.9024315 0.75428873 0.6105744 0.8071148 0.7072879 0.8159449 0.75910455
0.7974693 0.84092236 0.7867875 0.8213475 0.80761975 0.78880453 0.7990308 0.65226156
0.54199636 0.7621989 0.8604203 0.81297 0.9052933 0.82442904 1.0156839 0.73989224
0.7613164 0.65594846 0.79351676 0.86287934 0.94469094 0.8220475 0.47373047 0.7702382
0.93124306 0.8937928 0.7781746 0.836392 0.60380983 0.9747472 0.7501901 0.701016
0.8238162 0.8983787 0.71993244 0.84123677 0.64428025 0.78306955 0.59030825 0.74347395
0.7154418 0.6336608 0.6277107 0.7910174 0.774261 0.701105 0.7445452 0.6829582
0.6680873 0.91288006 0.77337927 0.79560584 0.8935491 0.47420168 0.7393602 0.83449125
0.88277054 0.88401604 0.77531046 0.9824632 0.5531596 0.9128012 0.8287963 0.82306653
0.818067 0.8542534 0.75288564 0.7829339 0.5163455 0.8824716 0.76323634 0.8747264
0.8664104 0.8234289 0.54012793 0.7421198 0.85174245 0.6561076 0.72766095 0.6181273
0.6050046 0.7466942 0.92261225 0.7500564 0.72045857 0.8337853 0.88200015 0.8810572
0.89693165 0.7372614 0.83054256 0.74229115 0.8418807 0.6631546 0.7128945 0.7671093
0.86872077 0.7695187 0.97376025 0.8024122 0.718414 0.7188053 0.72884816 0.61251456
0.9415221 0.9016492 0.6142974 0.69924855 0.88718516 0.61878693 0.80344874 0.82805353
0.78371245 0.86020714 0.77357197 0.72137976 0.92089796 0.7535818 0.9013277 0.7556846
0.74397343 0.7102196 0.82583874 0.5953954 0.8402427 0.7800175 0.6697506 0.76702905
0.90224975 0.8589536 0.8606629 0.66936445 0.85575587 0.7321681 0.75571173 0.82412124
0.6993229 0.75646126 0.8969089 0.740791 0.64535236 0.5999128 0.58613205 0.744302
0.5422643 0.75510436 0.6586908 0.84267265 0.6240153 0.83587044 0.7257876 0.72526586
0.7623988 0.82555145 0.80753005 0.6843179 0.6405261 0.69448984 0.6914851 0.8071583
0.637312 0.7701366 0.78360814 0.8135172 0.7078637 0.9543115 0.8524884 0.86882746
0.6356118 0.7673957 0.7193994 0.7867557 0.8563505 0.90270144 0.8771027 0.71777123
0.72505236 0.7331953 0.69581664 0.84385204 0.8083264 0.56412125 0.7568216 0.70937556

bn1.weight f4 [400]
00000000: 6e3a 893f 424b 643f 1619 3d3f b447 d53f
00000010: 5648 0040 345a bf3f a2ff a53f 3392 a73f
00000020: 336f 323f 4c23 893f 16eb 8a3f 5a63 c23f
00000030: 45e5 903f 6d27 5b3f e22f 9f3f a082 3e40
00000040: c6b9 a83f 8cac d73f 05ed 363f cbd9 c33e
00000050: fac8 2f3f 2cd8 0e40 b18a b83f e34d 6c3f
00000060: 29d8 323f e2a7 893f 4f81 913f c99b a13f
00000070: 3a81 d93e 32e7 aa3f 251a 9f3f 4e2b 9c3f
00000080: f88f 893f f0fd 843f 94d1 8d3f 014b 853f
00000090: 3a87 be3f fb7f 943f e13f 0b3f bb2c e93f
000000a0: 2ddd d63f c08f c03f 3405 f13f 8f78 ea3e
000000b0: 7533 9c3f 0087 923f aec8 973f 9b83 ae3f
000000c0: 3f56 7b3f bac8 5e3f 9165 b33e dc9e 9d3f
000000d0: 6db4 a93f 49c2 243f 6665 ff3f a668 753f
000000e0: a2fd 9d3f 2df8 8f3f bfe9 aa3f 391a b73f
000000f0: 8c91 ed3e 3286 f03f 7142 b33f 7f6b 6e3f
00000100: 4fa3 f33f 365f 5c3f 0c73 a63f e8e3 533f
00000110: 89df ca3f fb1f 9f3f e95c 943f fdfe c13f
00000120: cd1e 753f dfa7 2d40 8b8d e23f 020b b53f
00000130: 53cd d23f f069 ca3f 862f e83f 6655 383f
00000140: be71 a43f 2b3b 1a3f a4b2 0940 3d6b c13e
00000150: e5cf a13f d966 993e fb58 2a3f 1cdb 823f
00000160: d582 033f 6a62 e73f 521f b63f 1236 623f
00000170: 6f68 653f a401 9c3f f4eb 823f edef b53f
00000180: f49a 813f 300b 7a3f 6896 bc3f b996 4e3f
00000190: a72a 763f e807 c53f d267 8b3f a35f c33f
000001a0: f5ac 8b3f 69ad 803f 2e1e ef3f f79d b83f
000001b0: 2894 a33f 0d59 8a3f 8e28 9c3f cd92 a33f
000001c0: 7801 7f3f abcd 4d3f 7fc3 973f 00fc b83f
000001d0: 3d80 c03f 7c3c 663f 546e 4e3f 7b79 ab3f
000001e0: 6628 083f ef76 cb3f 883d bf3f c0ad c53f
000001f0: 4003 783f 4602 0e3f cf24 a53f 714f 3b40
00000200: a83c a03f 5879 883f aa96 8f3f 2a33 c23f
00000210: 1834 a13f 7c21 883f 5da3 463f 5b08 703f
00000220: a8c3 9b3f d9eb bb3f 9bf2 e73f 1fa6 aa3f
00000230: 6de5 aa3f 6d4e 423f e468 813f adf1 d93f
00000240: 90fb 873f 297a 983f d51d 273f 3d33 0d3f
00000250: 3b6d ad3f a788 a23f 0d53 a23f b4ab 893f
00000260: 53e7 953f d7fa 093f 7f2c fd3f e2c2 493f
00000270: 2135 793f 18bf 6d3f 05dc 3a3f 78a4 393f
00000280: 0060 593f 9707 c23f 66d5 4f3f b691 433f
00000290: 36c3 863f 4af1 1c40 851b 9d3f e822 913f
000002a0: 4cbc 7e3f a547 ab3f d068 d43f 71e7 413f
000002b0: d438 b33f 6ecd b13f 924d b13f be66 433f
000002c0: c298 2040 ca96 743f 1896 ac3f e47b 363f
000002d0: b3af ca3f 412f 763f 4f6c a93f b4e0 943f
000002e0: d90e b93f 811e 573f 3b80 3240 2c82 0d3f
000002f0: 1f25 5f3f a5a8 823f e09e 9b3f 30c6 9a3f
00000300: 59d4 b43f 17f3 973f 8317 b23f 548c 4e3f
00000310: 09a9 853f 1f93 8f3f af8c 9a3f 363d 4b3f
00000320: aaca 8f3f 7d65 b43f 22db 083f fb58 ac3f
00000330: 6baa a13f d021 813f 60ac 4e3f 09f3 1040
00000340: 1383 783f ebbd d03f 91b9 833f 3485 7d3f
00000350: 4ced ba3e f173 a73f f437 ee3e b48c 093f
00000360: 9eca b43f f0fc dc3f 710a a33f cdd5 583f
00000370: 4a68 3f3f f18b a83f c032 cf3f 6389 673f
00000380: b277 3c3f b285 8e3f a953 433f 350e 5a3f
00000390: 2a46 2840 ed3c b53f ca1e 683f 56e9 3a3f
000003a0: 49e3 c63f daf0 093f 2115 9c3f 9e82 c63f
000003b0: a8fb 3340 9291 863f a742 913f fb72 563f
000003c0: c38a a73f 1e23 d33f 503f 063f 4b3a 433f
000003d0: 75d9 3c3f 9b12 8a3f 15f3 133f 35a4 823f
000003e0: dddd 953f c5e8 4b3f ef9c 853f db45 3140
000003f0: 90b4 c63f 4bc2 e33f 7686 213f 87f5 3a40
1.0720956 0.89177334 0.73866403 1.6662507 2.004415 1.4949403 1.2968638 1.3091491
0.69700927 1.0713897 1.0852993 1.518657 1.1319968 0.85607034 1.2436488 2.9767227
1.3181694 1.6849532 0.71455413 0.382521 0.6866604 2.231944 1.4417325 0.92306346
0.69861084 1.0754359 1.1367587 1.2625667 0.42481405 1.3351805 1.2429854 1.2200716
1.0747061 1.0389996 1.1079583 1.0413514 1.4885018 1.1601557 0.54394346 1.8216776
1.6786247 1.5043869 1.8829713 0.45795104 1.2203203 1.1447449 1.1858118 1.3633913
0.98178476 0.87025034 0.35038427 1.2314105 1.3258187 0.64358956 1.9952819 0.95862806
1.2343028 1.1247612 1.3352584 1.4304878 0.46400106 1.8790953 1.4004651 0.93132776
1.9034213 0.8608278 1.300386 0.8276963 1.5849468 1.2431635 1.1590854 1.5155941
0.95750123 2.713371 1.7699445 1.4143984 1.646891 1.581358 1.8139503 0.7200531
1.2847211 0.60246533 2.1515284 0.3777713 1.2641569 0.2996128 0.66542023 1.0223117
0.5137151 1.8076909 1.4228308 0.88363755 0.8961248 1.2188001 1.0228257 1.4213845
1.0125413 0.9767332 1.47334 0.80698735 0.9615883 1.5393038 1.0891058 1.5263561
1.0912157 1.005292 1.8681085 1.4423207 1.2779589 1.0808426 1.2199876 1.2779175
0.99611616 0.8039195 1.1856536 1.4451904 1.5039135 0.8993604 0.806371 1.3396448
0.53186643 1.5895671 1.4940653 1.5443649 0.9687996 0.5547222 1.2901858 2.9267237
1.2518511 1.0662031 1.1217854 1.5171864 1.2594023 1.0635219 0.7759302 0.9376275
1.2169085 1.468135 1.8120912 1.3331946 1.3351265 0.7590092 1.0110135 1.7026879
1.0623646 1.191228 0.65279895 0.5515631 1.354896 1.2697953 1.2681595 1.0755525
1.171122 0.53898376 1.9779204 0.7881299 0.97346693 0.9286971 0.72991973 0.72516584
0.8491211 1.5158566 0.81184995 0.7639421 1.0528324 2.452227 1.2274023 1.1338778
0.9950607 1.3381239 1.6594486 0.75743777 1.4001718 1.3890817 1.3851798 0.7632865
2.5093236 0.95542586 1.3483305 0.7128279 1.5834869 0.96165854 1.3236178 1.1631074
1.4457656 0.8403092 2.7890766 0.5527675 0.8716602 1.0207716 1.215786 1.2091732
1.4127303 1.187106 1.3913425 0.80682874 1.044221 1.1216773 1.2074183 0.79390275
1.1233723 1.4093472 0.5345937 1.3464655 1.2630132 1.0088444 0.80731773 2.2648337
0.97075003 1.6307958 1.0291005 0.99031377 0.36509168 1.3082258 0.46527064 0.5373032
1.4124334 1.726469 1.2737561 0.84701234 0.7476851 1.3167707 1.6187363 0.9044401
0.7362014 1.113455 0.7629953 0.8517793 2.6292825 1.4159218 0.9067198 0.7301229
1.5538112 0.53883135 1.2193948 1.5508611 2.8122349 1.0513175 1.1348466 0.83769196
1.3089222 1.6495092 0.5244036 0.76260823 0.73769313 1.0786928 0.5779279 1.0206362
1.1708332 0.79652053 1.0438517 2.7698886 1.5523853 1.7793669 0.63095796 2.9212358

bn1.bias f4 [400]
00000000: b825 a8be 534a 1bbf 2e5d d1be f0a8 b9bb
00000010: 293a 14be b567 323e 351a 9cbe 8125 97be
00000020: be6c d1be 1af1 d5be db22 a6be f704 8dbd
00000030: b84b 93be bebd 8abe 0df7 8cbe 7de0 623d
00000040: 3ae9 6dbe 27e9 2fbe 9dbd e5be 9c83 eabe
00000050: 4f3d 02bf 9e4d a0bd 7804 a5be 0ace a3bd
00000060: 5360 27bf 6757 33be 7329 60be 0631 73be
00000070: a46a 1abf dc3c 86be cfcd e4bd c5ae b23d
00000080: 1b79 47be f577 dabe a86b 76be e257 85be
00000090: 8b74 ccbd 643b b9be f755 1abf 03a0 afbb
000000a0: ec88 80bd 6e86 3cbe 25dd d53d a810 3dbf
000000b0: d062 04be 18bf 383b 4083 fdbd 6d4c a1be
000000c0: 4223 adbe 5cd5 95be 453f 2dbf a05b 3fbc
000000d0: 3437 01bf cb9b a2be 5c2b 2dbe 9305 94be
000000e0: abe8 93be a36d 52be 3050 2cbe bc4f 64be
000000f0: 5c1b abbe ef76 10be d00c 82be d1c3 e5be
00000100: f18a 82be e7b9 0abf 33a0 65be 5251 acbe
00000110: 6931 0ebe 4fd7 6dbe 96b4 a2bd 7e8f ddbd
00000120: 2dc6 b0be c127 00be 57d7 df3d 7bf8 77be
00000130: 02b9 b3be c7e0 42be 7659 733e bb5c c3be
00000140: 749d 9bbe 70fd d4be d3d3 0a3e e2db 25bf
00000150: 090f b8be 29d8 2ebf 0cfe ccbe 5035 a7be
00000160: c365 1bbf 711f dd3d 0571 17be fee3 c2be
00000170: 2908 f7be 8758 8ebe 7450 66be becc b4be
00000180: 9a94 6abe 59e0 fbbe ceee 5cbe ab7d f0be
00000190: 61dc a0be 4312 69be 6bc9 87be 7519 54be
000001a0: 84f6 debe b92d d9be 782e 04be ff0f 6ebe
000001b0: 6e93 8cbe fafd cebe 0411 88be c503 4bbe
000001c0: 54e5 3fbe e35a f4be 370f 273c d9b1 37be
000001d0: 06ea 12be d43f 81be e3d5 68be 3482 acbe
000001e0: 4d0d babe 4e60 1ebe 52d6 e0bd e430 603d
000001f0: a393 90be 6600 30bf a311 8dbe 438d 2bbe
00000200: 0214 dbbd d1c2 cfbe 22aa d0be fa28 91be
00000210: d42a 52be 4239 fdbe 98cd 24be 016f 01be
00000220: 3e83 5abe 3392 98be cb61 00be 4911 e7be
00000230: b389 c8be 73ff dabe 4bd1 0abf 1ee8 bbbe
00000240: 123c 03bf 2234 a5be 387d aebe 2b08 efbe
00000250: 1580 71be 3fd3 43be eda6 14be 38ab 1bbe
00000260: 492a cbbe bc63 0bbf a672 21be 62fe 5dbe
00000270: b9b0 3bbe be9d d1be 8d18 9ebe ee53 91be
00000280: bfa6 78be 04e6 86bc 88bd 10bf a5f6 19bf
00000290: f190 60be 51f5 80bd e460 a7be 7382 1dbf
000002a0: d536 a0be 8cd2 aebe a953 c2bd 7122 18bf
000002b0: 5d58 70be 9b43 9abe e1d1 84be 02d6 c9be
000002c0: 39d4 23be c13b b5be 0a44 7abe e714 eebe
000002d0: e04a bcbe 3fb1 1cbf 9d3d 99be 070f 9ebe
000002e0: 5b95 46be 3093 f7be 01f9 c23e 1155 0ebf
000002f0: e853 57be 798c b7be 18d0 8fbe 7e53 b5be
00000300: 5910 48be ed3f c2be d609 d0be 93b9 b9be
00000310: f9da b1be d151 9fbe c238 9b3d fc15 b8be
00000320: ddfd f5be 448b 5f3e bbfc c4be 089f 65be
00000330: c297 25be 18ea cabe e416 80be 5e1b 013f
00000340: 8b51 1abe 0848 0ebe 8a9f babe 7a64 c3be
00000350: 3ea6 32bf 4668 9abe acf3 33bf 2192 32bf
00000360: 4b18 d0be e472 92bd 4457 d8bd efd2 12bf
00000370: a047 cbbe 7ce3 76be 0cae 20be 8645 ecbe
00000380: ca60 00bf 880a c0be 1b22 01bf 466f 04bf
00000390: 3216 14be 64ba 8fbe 4040 d2be 1afb 33be
000003a0: cf4b 27bd 9a56 1dbf 4d07 5fbe 3ccf 15be
000003b0: 9049 773e c4da c0be 5371 a6be 8a85 9fbe
000003c0: 3007 6b3e dd51 81bd b11f f5be 6f30 a3be
000003d0: b584 03bf b473 9dbe 2043 1abf de16 87be
000003e0: afe8 9fbe 92bd cebe 454a d5be 495c 4a3e
000003f0: 2328 41be 3b9c 79be 78a6 0abf ac4f 94bc
-0.32841277 -0.60660285 -0.40891403 -0.005665891 -0.14475311 0.17422374 -0.30488744 -0.295208
-0.40903276 -0.41785508 -0.32448468 -0.068857126 -0.28768706 -0.27097887 -0.27532235 0.05538987
-0.232335 -0.17178784 -0.44871226 -0.45803535 -0.508748 -0.07827304 -0.32229972 -0.07998283
-0.65381354 -0.1751381 -0.21890812 -0.2374917 -0.6031897 -0.26218307 -0.111720674 0.08724741
-0.19479792 -0.42669645 -0.24064505 -0.26043612 -0.09983166 -0.36178124 -0.6028742 -0.005359651
-0.06276116 -0.18410656 0.104425706 -0.7385354 -0.12928319 0.0028190073 -0.123785496 -0.3150362
-0.33815962 -0.29264343 -0.67674667 -0.01167956 -0.5047486 -0.31759486 -0.16911072 -0.28910503
-0.2888845 -0.20549636 -0.16827464 -0.22296041 -0.3341931 -0.1410787 -0.254004 -0.4487596
-0.2549663 -0.54189914 -0.22424392 -0.33655792 -0.13886036 -0.23226665 -0.079446 -0.108183846
-0.34526196 -0.12515165 0.10929745 -0.24215882 -0.35102087 -0.19031058 0.23764595 -0.38156685
-0.30393565 -0.41599607 0.13557367 -0.6478864 -0.3594897 -0.68298584 -0.40037572 -0.32657862
-0.6070215 0.107970126 -0.14789207 -0.3806457 -0.48248413 -0.27801916 -0.22491628 -0.35312456
-0.2290825 -0.491946 -0.21575472 -0.46970877 -0.31418136 -0.22760873 -0.26520857 -0.20712836
-0.43547451 -0.42417696 -0.12908351 -0.2324829 -0.2745623 -0.40428144 -0.26575482 -0.19825657
-0.18739825 -0.4772559 0.010196499 -0.17938937 -0.14347085 -0.2524401 -0.22737841 -0.33693087
-0.36338273 -0.15466425 -0.10978378 0.054734126 -0.28237638 -0.6875061 -0.27552518 -0.16753106
-0.106971756 -0.4057832 -0.407548 -0.28351575 -0.2052415 -0.49457747 -0.16094053 -0.12640001
-0.21339127 -0.2979904 -0.12537305 -0.45130375 -0.39167556 -0.42773017 -0.54225606 -0.3670053
-0.51263535 -0.32266337 -0.3407991 -0.4668592 -0.23584016 -0.19123553 -0.14516802 -0.15202034
-0.396807 -0.5444906 -0.15766391 -0.2167907 -0.18329133 -0.4094066 -0.30878106 -0.28384346
-0.24282359 -0.016467102 -0.565392 -0.60141975 -0.21930291 -0.062967904 -0.3269111 -0.61527175
-0.31291834 -0.3414501 -0.09488613 -0.59427553 -0.23471208 -0.30129704 -0.25941375 -0.39421088
-0.15998925 -0.3539715 -0.24440017 -0.46500322 -0.36775875 -0.61207956 -0.2992982 -0.3087084
-0.19392912 -0.48354483 0.380806 -0.5559855 -0.21028101 -0.3584936 -0.2808845 -0.35415262
-0.19537486 -0.37939397 -0.40632504 -0.36274394 -0.34737375 -0.31117108 0.07579185 -0.35954273
-0.48045245 0.2183047 -0.38474068 -0.22423947 -0.16171172 -0.39631724 -0.25017464 0.50432384
-0.15070169 -0.13894665 -0.36449844 -0.38162595 -0.69784915 -0.3015768 -0.7029369 -0.69754225
-0.40643534 -0.0715082 -0.105635196 -0.5735311 -0.39703083 -0.24110216 -0.15691394 -0.46146792
-0.5014769 -0.37508035 -0.50442666 -0.5173229 -0.14461592 -0.28071892 -0.41064644 -0.17576256
-0.04084378 -0.6146027 -0.21780129 -0.14629835 0.24149156 -0.37666905 -0.32508335 -0.3115657
0.2295196 -0.06314442 -0.4787574 -0.3187289 -0.5137437 -0.30752337 -0.60258675 -0.26384634
-0.3123221 -0.40379006 -0.41658226 0.19761766 -0.18862967 -0.24376003 -0.5416026 -0.018104397

bn2.weight f4 [300]
00000000: 5a1d f43f 3bd4 713f e545 6040 beec 8a3f
00000010: eea1 1340 a9aa d73f 56fb a13f f51a f93f
00000020: 1236 cf3e d667 8840 e5c5 1840 4afc 8e3f
00000030: 33d6 0c40 50e2 f03f eff8 843f 0afc 0840
00000040: 7039 a43f a807 503f 7d24 1b40 cac8 5740
00000050: 8269 833e ac20 2240 742c 873f fb30 eb3e
00000060: 2af7 e33e 0292 6d40 872f 333f 6328 b63f
00000070: 15e6 893f da41 3c40 e0dd 4a40 5195 1540
00000080: e3c1 3140 358e 2940 2d42 b83f f2fe d93f
00000090: 514c 483f 0c0e b640 33fd d03f f0fb 9040
000000a0: 1103 933f 7635 0b40 666d 663e 1177 683e
000000b0: 915b aa3f 7e88 0340 2f68 0c40 f63c 853f
000000c0: a11e e63f d848 8b3f f7f8 6c3f 67ac 2540
000000d0: a4f4 f43f d1aa a23f a295 0140 4e4c 2040
000000e0: f68d 653e 3d87 933f 55e6 793f 372c 1040
000000f0: 1010 9c3f e18d de3f 7507 d83f 557d de3f
00000100: d918 9d3f a042 303f 32d5 1f40 78d8 aa3f
00000110: 8dae a03f d4a6 cb3f 0395 f83f cd3d 0b40
00000120: c4e6 1540 eb45 a73f 35a5 c93f 942a 3040
00000130: ed2a a63f a04d e93f 75ea af3f 2dfa ff3f
00000140: 428f a83f 4d11 1740 7799 1b3f 01c6 a13f
00000150: 1fd7 893e a631 e03f 8acc 853e 13e7 3340
00000160: e88d b03f df87 4640 882d 2740 33b5 613f
00000170: d2cd aa3f cc25 0e40 1c56 b53f 529b 6f3f
00000180: 9d47 923e 3fab a23e aee0 de3f 71ae 0540
00000190: 501d b43f 1be3 f03f 1006 e63f f449 5140
000001a0: 7994 ca3f 1163 d43f 90f7 e13f e9f9 0a40
000001b0: 34cc b53f 4b03 2d40 de0e f93f dd4f ec3f
000001c0: ae47 a43f 8ed1 2540 3bb0 dd3f 85a0 633f
000001d0: 3f87 a23f c0cc 5840 da2c 0140 bcaf 0c40
000001e0: 4350 d93f d2ae b93f d1cb 3540 7623 b53f
000001f0: 073a a63f c592 883f 163c c13f e3b3 bb3f
00000200: 3045 433e 6a2e 2740 0808 1140 67b8 b03e
00000210: 527e 903f deeb 723f 1fd0 653e 959c 1740
00000220: d206 1e40 56fb 9f3f 858a 2340 e81a b33f
00000230: 0620 cc3f 6909 9f3e 76e1 1940 af7d ae3e
00000240: 37a7 9b3f dfa6 ba3f 3344 bf3f a39d 6d3f
00000250: 422f 963e 3d28 e13f 27ee 6340 15be c13f
00000260: c11e 4040 ad92 733f fdb4 d13f 9c4f d63f
00000270: 7e42 eb3f 04c7 ff3e 382e 013f cb22 9e3f
00000280: 98ff 683f 4f61 393f 82fc 4e3f faf0 a83e
00000290: d3b6 4a40 7e64 0a40 1d5a dd3f 88e3 0b40
000002a0: b387 813f bf13 8940 2f82 a83f 77a4 7c3e
000002b0: 561d 7b3f 4bc7 3a40 2aa7 1940 25fd e23f
000002c0: c98b 963f 8763 543f 0b72 fc3f 9b37 9c3f
000002d0: 604f a73f 5059 9d3f 1094 d43f 2a00 823e
000002e0: 3047 973f ae42 e13f 4d9b 0a40 ffeb c83f
000002f0: fa1b 713f e597 c03f bb4c 703f 125d a73f
00000300: 29a1 eb3f eb12 ab3f 8002 8a3f 0d11 0640
00000310: 4c78 533e b14f e13f 64de fd3f a192 1f40
00000320: 14bd f03f aac2 9c3f 40c7 673e c9c3 2240
00000330: df37 903f ce94 f63f bcfe a43f b2cf e23f
00000340: e812 3840 4e00 ef3f b442 bb3f 43e7 2440
00000350: b813 d53f c0de a33f b9f0 4740 d0f0 3040
00000360: 36e2 1940 5ce5 d93f 1311 1a40 bc40 1940
00000370: 8a87 c73f f386 de3f f3b4 1040 659b b33f
00000380: 3f83 1e40 ed18 8140 a902 1040 5084 463f
00000390: 782b ef3f f7d3 ab3f 5cb5 b23f 3a07 ac3f
000003a0: 965a 0d40 4e38 953f 8947 b63f 1736 cd3f
000003b0: 1918 0440 1d98 163f cb32 913e 5c79 b73f
000003c0: b19a 8b3f aed0 c83f 7ec7 9c3f f5c3 ce3e
000003d0: 1db7 ef3e 0cc5 c53f 2902 493f d5c4 e23f
000003e0: 9061 983f db3b b23f dd94 893f d40e 843e
000003f0: 29a6 923e 4ec6 e73f 6b26 8d40 2004 2640
1.9071457 0.94464463 3.504266 1.0853498 2.3067584 1.6848956 1.2654827 1.9461352
0.4047094 4.2626753 2.3870785 1.1170743 2.2005737 1.8819065 1.0388469 2.1403832
1.2830029 0.8126168 2.424102 3.3716302 0.25666434 2.5332441 1.0560441 0.45935807
0.4452451 3.7120366 0.69994396 1.4231075 1.077334 2.9415193 3.1697922 2.3372386
2.777459 2.6493046 1.4395195 1.7030928 0.7824145 5.6892147 1.632727 4.530754
1.1485311 2.175138 0.2250267 0.2270167 1.3309194 2.0552058 2.1938589 1.0409229
1.7978097 1.0881605 0.9256739 2.5886476 1.9137158 1.2708379 2.0247579 2.5046573
0.22417435 1.1525646 0.97617084 2.2526987 1.2192402 1.7387048 1.6877276 1.7381998
1.2273208 0.6885166 2.4973874 1.3347311 1.2553269 1.5910287 1.9420475 2.175647
2.3422098 1.3068212 1.5753542 2.7525988 1.298185 1.8226814 1.3743426 1.9998223
1.3168719 2.360431 0.60781044 1.2638551 0.26921937 1.7515152 0.26132613 2.8109787
1.3793306 3.102043 2.612154 0.88167113 1.3344061 2.221057 1.4166903 0.93596375
0.28570262 0.31771275 1.7412317 2.088772 1.4071445 1.8819307 1.79706 3.2701387
1.582656 1.6592733 1.7653675 2.1715033 1.4202943 2.703326 1.9457662 1.8461872
1.2834375 2.5909152 1.7319406 0.8891681 1.2697524 3.387497 2.0183625 2.198226
1.6977619 1.4506476 2.840565 1.4151447 1.2986459 1.066979 1.5096462 1.4664272
0.19069362 2.612208 2.2661152 0.34515688 1.128855 0.94891155 0.22442673 2.368932
2.4691663 1.2498577 2.5553296 1.3992586 1.5947273 0.31061867 2.404386 0.34080264
1.2160405 1.4582175 1.4942688 0.9281866 0.2933293 1.7590405 3.5614107 1.5136133
3.001877 0.95145684 1.6383358 1.6743045 1.8379667 0.49956524 0.5046115 1.2354368
0.91015005 0.72414106 0.80854046 0.3299635 3.1674087 2.1623836 1.7293125 2.1857624
1.0119537 4.2836604 1.3164729 0.24672113 0.9809164 2.9184139 2.400828 1.7733504
1.1761409 0.82964367 1.9722303 1.220447 1.3071098 1.2292881 1.6607685 0.2539075
1.18186 1.7598474 2.1657288 1.569702 0.94183314 1.5046355 0.9386708 1.3075278
1.8408557 1.3365148 1.0782013 2.0947907 0.20651358 1.7602445 1.9833493 2.4933245
1.8807702 1.2246907 0.22634602 2.5431998 1.126705 1.9264162 1.2890239 1.7719634
2.876154 1.8671968 1.4629731 2.576615 1.6646643 1.2802353 3.1240675 2.764698
2.4044318 1.702312 2.4072921 2.394576 1.5588238 1.7384933 2.2610443 1.4031798
2.4767606 4.0342927 2.2501624 0.7754564 1.8685141 1.3424062 1.3961596 1.3439705
2.208654 1.1657808 1.4240581 1.6032132 2.0639708 0.58825856 0.28359064 1.4333911
1.0906583 1.5688684 1.224838 0.40383878 0.46819392 1.5450759 0.7851892 1.7716318
1.1904774 1.3924516 1.0748554 0.25792563 0.28642395 1.8107393 4.4109397 2.5940018

bn2.bias f4 [300]
00000000: 4c99 573d 0af5 383c 79d1 abbb 6228 52be
00000010: 8058 8cbe 5ed8 fabd 1d6b e5be fb7c 0cbd
00000020: f451 13bf 06c0 10be 9c8d c43d 6355 b2be
00000030: dab8 c9bd cbe0 6fbe dee1 f5be e673 c0be
00000040: ed45 49be df56 96be 4e5b d7bd 15a4 b4bd
00000050: 13d2 2bbf b2b6 1cbe 6b22 bbbd 8abd 0cbf
00000060: 666e f9be 4e91 e8bd 08df f9be 3f05 7bbe
00000070: 5a02 6cbe d454 1a3e 7e1b 80bc 2240 283e
00000080: 98c2 43be 6e61 00bf 26ee 553e 45a5 85be
00000090: fa04 bdbe fb71 183e 972c d5bc bbb2 c03e
000000a0: 09ce 8fbe a230 f93d cb9b 38bf b610 3ebf
000000b0: 0ad6 cdbd 8352 403e 8b19 2bbe 50a2 3abe
000000c0: d4dd 1fbe fc69 9fbe 4985 16bd b4a6 f6bd
000000d0: d474 f4bd 9364 94be 6de9 f7be 5de7 13be
000000e0: 944b 39bf a3e5 b0be 27f8 15bf bf0d c1be
000000f0: 2735 d83c cd3f 8cbe 0b23 cfbd 8288 223d
00000100: a964 0abe 5ee9 b8be ceeb f03d 8a85 92bd
00000110: e384 37be 557c 153e d30b 50be 5b06 1c39
00000120: 2026 1c3e d9c1 d1be 0592 aabe 3dff 543e
00000130: 4cab 4abe feea a8be 28fa 32bc 290f fbbe
00000140: f758 b3bd 2b03 4b3d 30cd 9bbe 0c8f 00bf
00000150: 3a49 33bf d0a5 2dbe 1ac5 25bf 611f 43bd
00000160: 3c70 6f3d 62a1 bfbd e9eb 85be bebe d5be
00000170: 4f5f 7fbe 35f7 89be 9d0f 2abe 73cf 11be
00000180: 3f18 28bf 22fd 22bf 508c 3cbb 8ab8 423d
00000190: ed7d 0ebf 14cb bbbd 3cf8 56bd 7cd7 933e
000001a0: 2a04 bdbe 4316 8b3e 717a 913c db20 54be
000001b0: 41bf f23d 56d3 a8bd 4f7b d5bc 032a c93d
000001c0: 024a f4bd 43bf 113e 0029 4b3d 3244 f8be
000001d0: c2c3 2ebe f9b9 913c 7e7b f5be 7439 34be
000001e0: 413d 663d 2f3e 01bf e636 a33e 9e61 3ebe
000001f0: 3e01 b4be 7499 bcbe 2ed1 c9bd a74a 70be
00000200: 30f5 40bf 98ab d33d 13f7 9dbd a4b1 1ebf
00000210: c6bd 62be 16c7 c3be 47a3 2fbf 07a6 c33d
00000220: ee4d b7be 8494 acbe a6a4 863e 9220 b9be
00000230: 69ac 8fbd 20fa 29bf 70b0 9d3d 3a0f 38bf
00000240: a87d 8ebe f33b 21be 0adf 65be 7a4d bebe
00000250: 4d13 39bf 244f 52be 8e6a 13be 1b30 abbc
00000260: e302 00bc a7f3 f2bd cae6 ddbe 6726 88be
00000270: 6fae 2ebf 9b5b dfbe da54 0cbf 2c2b 1ebf
00000280: 0d8f d6be 864f 95be 8a8e 97be 0049 2cbf
00000290: c04a 863e 6901 dabd b535 ccbe 2917 34be
000002a0: 7c5e ffbe 29c4 48bb be8d 0fbf 6a93 3ebf
000002b0: 7fef 4ebe 4f9e 33be 0419 bd3c fbd4 11be
000002c0: 1cef 90be 2cd2 1abf bda2 33be 98de e5be
000002d0: 7307 b0be cdeb 76be 97c7 48bd e439 34bf
000002e0: dad8 b3be 2f63 e6be 4ca1 91be de37 c6bc
000002f0: f7b5 92be cbf8 0ebe 7317 7fbd 73d3 853e
00000300: 4554 80bd 5d88 1ebe 05f2 91be d085 333e
00000310: 2f80 46bf a20f 86be 726b efbe ea97 aa3d
00000320: fbf7 abbe 414e 67bc 7912 44bf 625a 29bd
00000330: 9da0 c5be 06af 57bc 0cbc adbe 9a1a afbe
00000340: e78a a43d 0d61 9fbe b6b7 ebbd 88d8 83bd
00000350: f693 de3c 5a1b 95be 354c 95bb c018 603e
00000360: d921 c73d 9e5a 12bf c601 bebe 0cb8 bd3e
00000370: 954d f03c a655 bbbe e23b 5abe ccad 27be
00000380: 6700 60be 93d7 6bbd 82f2 8d3e 41bd a63e
00000390: 65d6 b6be a2e8 76be 6cf5 3cbe ead1 8cbe
000003a0: df9c c8be 468c 91be 9746 86be 3ce7 86be
000003b0: bbcd c9bb ca3a 0fbf 5d56 2abf 0673 283d
000003c0: 0757 fe3b cd6a 8abd 478e 82bd a508 25bf
000003d0: aa7f fdbe 1a90 20be d95f 15bf 93f9 643d
000003e0: a0f9 0d3e 1dff a33c 7c09 3cbf 8082 34bf
000003f0: 472f 29bf 1057 503e a45d 553e dda2 bebd
0.05263643 0.011288891 -0.005243477 -0.20523217 -0.2741127 -0.122483 -0.44808283 -0.03429888
-0.57546926 -0.14135751 0.09597322 -0.3483077 -0.09849711 -0.23425595 -0.48023885 -0.37588423
-0.19655581 -0.29363152 -0.10515462 -0.08820359 -0.6711742 -0.15304068 -0.09137424 -0.54976714
-0.4871704 -0.1135584 -0.48802972 -0.2451372 -0.23047772 0.15071422 -0.01563811 0.16430715
-0.191172 -0.50148666 0.20891628 -0.26102653 -0.3691786 0.1488723 -0.026022239 0.3763636
-0.2808688 0.12167479 -0.7211272 -0.7424425 -0.1005059 0.18781476 -0.16708963 -0.1822598
-0.15611964 -0.31135547 -0.036748204 -0.12043515 -0.11936346 -0.28982982 -0.48420277 -0.14443727
-0.7238095 -0.345502 -0.58581775 -0.377058 0.026392533 -0.27392426 -0.10114106 0.039680965
-0.13514961 -0.36115545 0.11763726 -0.07154377 -0.17921786 0.1459821 -0.2031701 0.00014879687
0.15248919 -0.40968207 -0.3331453 0.2080049 -0.19791907 -0.32991785 -0.0109239 -0.49035004
-0.08757203 0.049563568 -0.30429983 -0.5021827 -0.7003361 -0.16957784 -0.6475388 -0.047637347
0.058456644 -0.09356953 -0.26156548 -0.41747087 -0.24938701 -0.26946416 -0.16607518 -0.14239292
-0.65661997 -0.636675 -0.0028770156 0.04753927 -0.556609 -0.091695935 -0.05248283 0.2887534
-0.3691724 0.27165422 0.01775858 -0.20715658 0.11852885 -0.08243434 -0.026059775 0.09822466
-0.11928178 0.14233117 0.049599648 -0.4848953 -0.17066863 0.017788874 -0.4794578 -0.17600042
0.05621076 -0.5048551 0.31877822 -0.18591926 -0.35157198 -0.36835825 -0.09854351 -0.23465978
-0.75374126 0.10335463 -0.07713141 -0.6198981 -0.22142705 -0.38237828 -0.68608516 0.095531516
-0.35801643 -0.33707058 0.26297492 -0.36157662 -0.070153065 -0.66397285 0.076996684 -0.71898234
-0.27830243 -0.15745525 -0.22448364 -0.37168485 -0.72295076 -0.20538002 -0.14396116 -0.020896962
-0.007813188 -0.11862879 -0.4334014 -0.265918 -0.68234915 -0.43624577 -0.54816973 -0.61784625
-0.41906014 -0.29162234 -0.29600936 -0.6729889 0.26228905 -0.106448 -0.39884725 -0.1758696
-0.49876773 -0.0030634499 -0.56075656 -0.74443686 -0.20208548 -0.17540859 0.023083217 -0.14241402
-0.28307426 -0.60476947 -0.17542548 -0.44896388 -0.34380683 -0.24113388 -0.04901847 -0.70400834
-0.35126382 -0.44997546 -0.28443372 -0.024196561 -0.28654453 -0.13962094 -0.062278222 0.26137885
-0.06266073 -0.15481706 -0.2850496 0.17531514 -0.7753934 -0.26183802 -0.46761662 0.083297566
-0.33587632 -0.014117778 -0.7659069 -0.04134596 -0.385991 -0.013164287 -0.3393253 -0.34199983
0.08034306 -0.3112873 -0.115096495 -0.064377844 0.027170163 -0.2912243 -0.0045562037 0.21884441
0.09723253 -0.5716952 -0.37110728 0.3705448 0.029333869 -0.36588782 -0.21311906 -0.16374892
-0.21875153 -0.057578634 0.2772408 0.32566264 -0.35710445 -0.2411218 -0.18452996 -0.27503902
-0.39182183 -0.28427333 -0.2622573 -0.26348293 -0.006158558 -0.5594908 -0.6653803 0.04112532
0.0077618393 -0.06758652 -0.063747935 -0.64466316 -0.49511462 -0.1567997 -0.58349377 0.055902075
0.13864756 0.020019108 -0.7345197 -0.7051163 -0.66087765 0.20345712 0.20836502 -0.093084075
