tmp/ddpg/actor_ddpg.pth (torch, 511239 bytes, 10 tensors)

fc1.weight f4 [400, 11]
0.024917228 -0.23880422 0.37170276 0.12542531 0.31201306 0.62057364 0.4348615 0.41824305
0.55373085 0.56980306 0.5122027 0.46851456 -0.5523965 0.49934015 -0.0116354395 0.25295857
0.90220493 0.7081273 0.4218236 0.63115674 0.584271 0.58915067 0.52030826 -0.52182204
0.27410287 0.009743008 0.5908204 1.1522421 0.49518612 0.22068566 0.3131292 0.31971273
0.2919113 0.5314394 -0.45783934 0.08058609 0.057548337 0.4618299 -0.73413455 0.13535193
0.24356537 -0.263074 0.044373505 -0.12145846 -0.32063922 0.07038811 -0.160063 -0.070860185
-0.5181707 0.109075256 -0.1868187 0.3120951 0.38480043 0.3781711 0.4728603 -0.3585082
-0.19051464 0.5998292 0.090712294 0.6676552 0.48440906 0.3219333 0.40033662 0.49620864
0.416038 0.47231647 0.3188882 -0.13091643 0.3512879 0.042460337 0.48629692 0.67006373
0.87971586 0.76030064 0.67645276 0.6400014 0.60185236 0.45158634 -0.46577784 0.14165264
-0.019716373 0.49417895 0.20277224 0.5490415 0.44363123 -0.22655872 -0.04672756 -0.05205652
0.44621876 -0.32216522 0.39742067 -0.07849909 0.66594607 0.9365853 0.7572852 0.24258317
0.36219883 0.36134592 0.34528598 0.35569167 -0.3132152 0.520185 0.03358088 0.2282424
0.9960313 0.694714 0.6554108 0.5994159 0.5917814 0.5768865 0.32030392 -0.45803246
0.39987257 0.042951602 0.4234586 0.6087809 0.8747984 0.7259183 0.43538934 0.423623
0.468812 0.3374641 -0.41466913 0.46682277 0.023323424 0.17381379 -0.68890464 0.23960885
0.3648332 0.51607597 0.48025262 0.48813668 0.16674638 -0.43058544 0.31997076 -0.038942274
0.41655782 -0.43417934 0.740337 0.24884026 0.1989203 0.24015477 0.31714338 0.26212668
-0.4077931 0.5476966 0.028442854 0.27186736 1.0998578 0.5111841 0.0887782 0.71444595
0.7456563 0.68770725 -0.17499046 -0.0033734841 0.053571977 0.20736894 0.18624441 0.33936808
0.4353565 0.16146334 0.28461614 0.39557222 0.23274314 0.30899242 -0.37276125 0.42274198
0.055655845 0.728273 0.4029549 0.4804556 0.66373235 -0.56939274 -0.42127952 -0.24032259
0.2502447 -0.689439 0.31635183 0.07921657 0.35315827 -0.18321021 0.40556234 0.02677867
0.11696714 0.19516826 0.096061826 -0.24946108 0.10057395 -0.05166353 -0.12914447 -0.04984426
0.40545335 0.20612176 0.4340485 0.29354337 0.2189644 0.33412606 0.3765771 -0.47847918
0.6327888 -0.025546502 0.4789458 0.7121097 0.9116944 1.0008528 0.5562724 0.51246166
0.46771157 1.1302149 -1.1944703 1.0218719 -0.14257967 1.2954655 1.1345992 0.8775788
0.81185 1.0867605 1.3380945 1.1304575 0.5435076 -0.53966033 0.3691836 0.06443089
0.50675976 0.85729325 0.7793134 0.30331013 0.25605163 0.3669423 0.26465958 0.32987106
-0.1999803 0.5233473 0.047535244 0.028400611 0.66472614 0.6096214 0.8011613 0.8842879
0.79951847 0.7741346 -0.43811187 -0.5629218 0.2101123 0.14307141 0.40148878 0.19404016
0.3981148 0.08571377 0.07898452 0.012947426 0.13582638 0.38174486 -0.28549665 0.27874592
00000000: 371f cc3c 1889 74be d34f be3e 7e6f 003e
00000010: 2dc0 9f3e eadd 1e3f 2ba6 de3e f423 d63e
00000020: 4ec1 0d3f 9dde 113f b71f 033f 24e1 ef3e
00000030: db69 0dbf 83a9 ff3e 92a2 3ebc c983 813e
00000040: e7f6 663f d547 353f 43f9 d73e 7d93 213f
00000050: c992 153f 94d2 163f ec32 053f 2196 05bf
00000060: 3657 8c3e 23a1 1f3c 0140 173f ab7c 933f
00000070: 0989 fd3e 6cfb 613e 7852 a03e 63b1 a33e
00000080: 6675 953e 6a0c 083f eb69 eabe 520a a53d
00000090: ceb7 6b3d f874 ec3e 3ef0 3bbf b299 0a3e
000000a0: 3369 793e a3b1 86be fec0 353d 37bf f8bd
000000b0: d32a a4be a427 903d 8ee7 23be 251f 91bd
000000c0: d6a6 04bf d962 df3d 674d 3fbe eeca 9f3e
000000d0: 9004 c53e a49f c13e bf1a f23e 638e b7be
000000e0: 4516 43be 688e 193f 5ec7 b93d 74eb 2a3f
000000f0: 7704 f83e 71d4 a43e ecf8 cc3e 0f0f fe3e
00000100: ef02 d53e 77d3 f13e 5045 a33e f50e 06be
00000110: 02dc b33e e4ea 2d3d e9fb f83e 4c89 2b3f
00000120: 0f35 613f 10a3 423f 022c 2d3f 22d7 233f
00000130: ff12 1a3f 5336 e73e 6f7a eebe 640d 113e
00000140: 3b84 a1bc 0605 fd3e 87a3 4f3e fc8d 0c3f
00000150: a223 e33e 02ff 67be 6665 3fbd 3839 55bd
00000160: c976 e43e d7f2 a4be b97a cb3e 22c4 a0bd
00000170: 717b 2a3f 0ec4 6f3f 71dd 413f b967 783e
00000180: 2072 b93e 5502 b93e 53c9 b03e 381d b63e
00000190: be5d a0be d82a 053f 1b8c 093d 60b8 693e
000001a0: e8fb 7e3f c7d8 313f 01c9 273f 5273 193f
000001b0: fc7e 173f d5ae 133f e0fe a33e 3b83 eabe
000001c0: 19bc cc3e 05ee 2f3d 91cf d83e 11d9 1b3f
000001d0: caf2 5f3f c8d5 393f 5aeb de3e 1de5 d83e
000001e0: 2008 f03e 18c8 ac3e 834f d4be 6503 ef3e
000001f0: c410 bf3c 3efc 313e 0e5c 30bf 065c 753e
00000200: 6bcb ba3e 8e1d 043f ace3 f53e 0ded f93e
00000210: 90bf 2a3e b275 dcbe 35d3 a33e ef81 1fbd
00000220: 1147 d53e c14c debe ba86 3d3f fbcf 7e3e
00000230: c3b1 4b3e 22eb 753e 9e60 a23e 7835 863e
00000240: 42ca d0be d835 0c3f fd00 e93c 3332 8b3e
00000250: 24c8 8c3f f6dc 023f 58d1 b53d eee5 363f
00000260: 55e3 3e3f 950d 303f b330 33be ac15 5dbb
00000270: 4a6e 5b3d 8658 543e dbb6 3e3e a7c1 ad3e
00000280: 0ce7 de3e a556 253e 35b9 913e 7188 ca3e
00000290: 3854 6e3e 4134 9e3e 90da bebe a371 d83e
000002a0: 62f7 633d 1970 3a3f 1b50 ce3e 47fe f53e
000002b0: 5dea 293f b9c3 11bf f3b1 d7be 2017 76be
000002c0: 1320 803e 137f 30bf def8 a13e 4c3c a23d
000002d0: 29d1 b43e 759b 3bbe dea5 cf3e f15e db3c
000002e0: 788c ef3d 30da 473e 10bc c43d ba72 7fbe
000002f0: b7f9 cd3d 239d 53bd 733e 04be 7f29 4cbd
00000300: 9597 cf3e 9511 533e 9b3b de3e 514b 963e
00000310: 3438 603e 9212 ab3e b7ce c03e 39fb f4be
00000320: 72fe 213f e646 d1bc 6238 f53e d24c 363f
00000330: ce64 693f f21b 803f de67 0e3f b030 033f
00000340: e477 ef3e e2aa 903f 67e4 98bf b3cc 823f
00000350: 6800 12be d0d1 a53f 8c3a 913f 01a9 603f
00000360: 67d5 4f3f f81a 8b3f ae46 ab3f d5b2 903f
00000370: 5023 0b3f 2e27 0abf a205 bd3e 58f4 833d
00000380: 02bb 013f 9277 5b3f 1581 473f 774b 9b3e
00000390: 3319 833e dcdf bb3e 7681 873e dce4 a83e
000003a0: a3c7 4cbe 17fa 053f 51b4 423d 66a8 e83c
000003b0: 7e2b 2a3f 2610 1c3f e818 4d3f b160 623f
000003c0: 3ead 4c3f af2d 463f 3350 e0be a51b 10bf
000003d0: ae27 573e 5081 123e f08f cd3e 77b2 463e
000003e0: b4d5 cb3e b38a af3d a3c2 a13d 7121 543c
000003f0: 1216 0b3e 1074 c33e 9e2c 92be c9b7 8e3e

fc1.bias f4 [400]
0.29512525 0.4807888 0.1459533 0.354378 -0.08816119 0.59404206 0.33916995 0.411821
0.25684908 0.37415645 0.36353883 0.45836166 0.37509277 0.4029728 0.13986522 0.57195973
0.3586548 -0.11209553 0.5302305 1.0344275 0.32103506 0.45478418 0.17915012 0.17578864
0.394891 0.37977636 0.4404426 0.27187368 0.4891849 0.56147903 0.51887786 0.4600395
0.4454983 0.50867724 0.6070443 0.44082078 0.32810494 0.2721984 0.4956509 0.6423229
0.32758954 0.4067984 0.2668138 0.5407118 0.43839794 0.4042827 0.4610698 0.6061479
0.38406873 0.43708834 0.5372125 0.30525124 -0.44909954 0.37204874 0.4167666 0.4657328
0.35447335 0.30640578 0.23377882 0.3363493 0.68985707 0.1391342 0.2996301 0.39213303
0.23002432 0.36134928 0.3571007 0.2967319 0.4520143 0.48913968 0.24948499 0.27345103
0.4526822 0.43533936 0.46435642 0.15599135 -0.41258028 0.40665543 0.6672737 0.5208272
0.23308122 0.4371909 0.34406638 0.72879016 0.3426949 0.8208219 0.43300533 -0.05695857
0.26663956 0.5315 0.2062932 0.2849836 0.53684634 0.26683745 0.33956113 0.5128808
0.4524775 0.48356712 0.47001097 0.4178362 0.5166563 0.310123 0.35099396 0.23824748
0.52966005 0.2704438 0.5083021 0.38470328 0.47254956 0.30666372 0.35462222 0.416195
0.25025368 0.31485763 0.49281126 0.4663076 0.4374707 0.48025018 0.21920484 0.50245607
0.67986614 0.402395 0.28793985 0.35155973 0.45427257 0.20500362 0.24237375 0.38688862
0.27627826 0.19374192 0.44049475 0.23506832 0.54793 0.51418024 0.5118666 0.40148097
-0.19278818 0.39451277 0.56459576 0.17798011 0.2124999 0.2196023 0.4287299 0.35656714
0.2980643 0.3389818 0.3326598 0.54741275 0.16308871 0.583947 0.44505814 0.3541839
0.24467756 0.29777572 0.32385886 0.5861175 0.40271372 0.36828378 0.38241675 0.25321367
0.5925874 0.51848817 0.48944855 0.4643561 0.41151378 0.51547813 0.34552968 0.27312493
0.39541245 0.1984676 0.5154252 0.21936266 0.3202482 0.36519086 0.28144938 0.12592569
0.28932104 0.033613812 0.29045928 0.39203006 0.28768262 0.42505366 0.47149956 0.33426198
0.51077586 0.43589255 0.77974796 0.56407225 0.40063104 -0.09143059 0.36629 0.25638223
0.3789416 0.32517534 0.46119788 0.34837443 0.2210391 0.26511806 0.5661989 0.24784999
0.3351416 0.6385522 1.2450718 0.3350098 0.4164093 0.5212456 0.4126582 0.89751655
0.5694654 0.06886964 0.31923 0.23117642 0.680605 0.5194167 0.679201 0.26420125
0.33109036 0.46650478 0.4155719 0.32652473 0.17084274 0.46223655 0.10447276 0.3065052
0.44898447 0.36117485 0.36882788 0.4401286 0.49562693 0.124397665 0.46628138 0.5818379
0.43354723 0.42712525 0.28244781 0.47230953 0.4585926 0.1412765 0.41352385 0.12742901
0.6029708 0.41749376 0.5536437 0.68389666 0.17981134 0.19599515 0.63614863 0.51609784
0.049812846 0.52783567 0.34347123 0.39767912 0.26351026 0.43130144 0.5551709 0.77274185
00000000: a81a 973e f329 f63e c874 153e 0971 b53e
00000010: db8d b4bd 2413 183f afa7 ad3e 34da d23e
00000020: b981 833e 6f91 bf3e c321 ba3e 61ae ea3e
00000030: 290c c03e 7352 ce3e d438 0f3e f46b 123f
00000040: 9aa1 b73e 5792 e5bd 30bd 073f 1f68 843f
00000050: b55e a43e 79d9 e83e 2173 373e f001 343e
00000060: 272f ca3e 0c72 c23e b181 e13e 0733 8b3e
00000070: 7176 fa3e 17bd 0f3f 2ed5 043f 4c8a eb3e
00000080: 5a18 e43e ac38 023f 4167 1b3f 43b3 e13e
00000090: 5ffd a73e 975d 8b3e f4c5 fd3e 466f 243f
000000a0: d1b9 a73e e147 d03e d29b 883e 176c 0a3f
000000b0: b275 e03e 24fe ce3e 5711 ec3e 822c 1b3f
000000c0: a8a4 c43e 0bca df3e c286 093f e449 9c3e
000000d0: 60f0 e5be 2c7d be3e 6f62 d53e 8874 ee3e
000000e0: 887d b53e 38e1 9c3e b763 6f3e fa35 ac3e
000000f0: 799a 303f 3279 0e3e 1e69 993e a9c5 c83e
00000100: 7f8b 6b3e c602 b93e e7d5 b63e 3eed 973e
00000110: 6b6e e73e 8470 fa3e fe78 7f3e c601 8c3e
00000120: f6c5 e73e cde4 de3e 20c0 ed3e 32bc 1f3e
00000130: b93d d3be 2435 d03e 73d2 2a3f ee54 053f
00000140: d8ac 6e3e 7cd7 df3e 7829 b03e fe91 3a3f
00000150: b575 af3e 6221 523f e0b2 dd3e 644d 69bd
00000160: fb84 883e 6210 083f 863e 533e 5fe9 913e
00000170: c36e 093f eb9e 883e f5da ad3e 284c 033f
00000180: 22ab e73e 1c96 f73e 47a5 f03e a0ee d53e
00000190: 9643 043f 71c8 9e3e 7bb5 b33e 26f7 733e
000001a0: cd97 073f 9c77 8a3e 1620 023f d4f7 c43e
000001b0: 04f2 f13e 0703 9d3e 0b91 b53e 8317 d53e
000001c0: 4021 803e 0535 a13e c251 fc3e dfbf ee3e
000001d0: 29fc df3e 5ae3 f53e 3c77 603e f6a0 003f
000001e0: b50b 2e3f b806 ce3e da6c 933e a3ff b33e
000001f0: 6a96 e83e 78ec 513e d330 783e 4416 c63e
00000200: 5874 8d3e 4864 463e 8788 e13e c0b5 703e
00000210: 2445 0c3f 51a1 033f b109 033f ea8e cd3e
00000220: 446a 45be 94fd c93e 5989 103f 6b40 363e
00000230: 9399 593e 6ddf 603e 7c82 db3e f88f b63e
00000240: e29b 983e 068f ad3e 6352 aa3e 3e23 0c3f
00000250: ba00 273e 8d7d 153f a9de e33e 9857 b53e
00000260: c18c 7a3e 0f76 983e d4d0 a53e cc0b 163f
00000270: 7e30 ce3e b18f bc3e 21cc c33e 39a5 813e
00000280: cfb3 173f a4bb 043f 0099 fa3e 15c0 ed3e
00000290: efb1 d23e 60f6 033f 44e9 b03e 08d7 8b3e
000002a0: 8073 ca3e 173b 4b3e e8f2 033f 9ba0 603e
000002b0: 92f7 a33e 4cfa ba3e 221a 903e aaf2 003e
000002c0: e321 943e a3ae 093d 14b7 943e 2ab8 c83e
000002d0: 234b 933e a2a0 d93e 6468 f13e 6324 ab3e
000002e0: 35c2 023f 4f2d df3e 909d 473f 0a67 103f
000002f0: 831f cd3e f63f bbbd 5d8a bb3e 8844 833e
00000300: a204 c23e 627d a63e 2122 ec3e 225e b23e
00000310: 1358 623e 8ebd 873e 69f2 103f 63cc 7d3e
00000320: ae97 ab3e 2878 233f 835e 9f3f 6886 ab3e
00000330: 9a33 d53e 5a70 053f f047 d33e a5c3 653f
00000340: 7cc8 113f 870b 8d3d 1d72 a33e 83b9 6c3e
00000350: 213c 2e3f 7ef8 043f 1ee0 2d3f 6345 873e
00000360: ad84 a93e b7d9 ee3e d7c5 d43e 402e a73e
00000370: 66f1 2e3e 45aa ec3e d0f5 d53d 40ee 9c3e
00000380: 4be1 e53e e9eb b83e 02d7 bc3e 8958 e13e
00000390: d0c2 fd3e 34c4 fe3d 6fbc ee3e 54f3 143f
000003a0: e7f9 dd3e 29b0 da3e 009d 903e 8ed2 f13e
000003b0: a6cc ea3e c9aa 103e 66b9 d33e c07c 023e
000003c0: 4b5c 1a3f bec1 d53e 98bb 0d3f da13 2f3f
000003d0: 7720 383e f4b2 483e a3da 223f fd1e 043f
000003e0: 8e08 4c3d 3d20 073f 76db af3e 999c cb3e
000003f0: d1ea 863e 8bd3 dc3e ae1f 0e3f 69d2 453f

fc2.weight f4 [300, 400]
1.3400927 0.41538835 1.0263444 0.057933997 1.1948729 0.9992859 1.534322 0.42255548
1.3788356 1.8591273 0.76643467 1.0043957 0.7371618 1.4018376 1.1345496 0.543762
0.7103474 1.1802596 1.1268916 1.1301167 0.85188764 1.6728297 0.38433418 0.90643704
1.049169 1.0352919 1.3040835 1.9241941 1.1315469 1.0465426 1.4565872 0.6180589
0.84030145 1.5843797 1.9010164 1.2569867 0.08202635 1.2616823 1.0264918 0.8730071
0.5153003 1.7240595 0.87102854 1.221142 0.74581784 1.3555375 1.0171815 0.6925413
1.242298 0.7707893 1.2016186 1.0814109 0.7649768 0.72347385 2.2881148 0.87220615
1.3519725 0.57881993 0.2579783 1.7312683 1.2369723 0.61696464 0.43001375 0.4169466
1.5262228 0.82961476 1.2588557 1.2908629 0.8394251 0.931128 1.0330224 0.41843274
1.1614916 -0.69540936 0.541739 1.4718614 0.87701774 1.4136239 0.56134987 1.4686736
1.2495874 1.2380372 -0.27984166 1.595827 0.90931416 0.83693844 1.1737928 1.150422
0.9401871 0.32808214 1.3908013 1.0111638 0.45737872 1.3322769 1.3148156 0.4186553
0.6110531 0.43190485 1.8477957 0.9781845 1.1978843 1.2779697 1.2128686 1.1281064
0.7667346 1.3090507 1.510028 1.511764 1.1609275 1.0277624 0.9634456 0.42583224
1.1538624 0.96965545 0.98301286 0.8645774 1.2839297 0.77113634 1.2478112 0.6646347
1.1885599 0.66018206 0.32790077 0.45790923 0.94407135 0.9199129 0.9727129 0.46060333
0.6108628 0.9547086 0.9674706 1.1034616 1.1318477 1.1380275 0.70500237 0.71778923
1.2053428 0.5001848 1.5761313 0.8979015 0.26765937 1.3930779 0.43219936 0.6482492
0.3704547 0.737411 1.086311 1.1484367 1.2216313 1.2920777 0.89199215 1.2162249
1.2926872 1.2509233 1.0652645 1.1644068 1.4049649 0.57228523 0.8589644 0.6406468
0.61798966 1.3446846 0.5169052 0.7593739 1.6312201 -0.1252544 0.17714055 1.0051528
0.71621865 1.1266367 0.23635508 0.86456794 0.9615036 1.7466686 1.3285376 0.98989415
0.95961004 0.74799865 0.60524774 0.81278735 1.0649222 0.66397893 1.8641123 0.76476496
0.09332891 0.900036 -0.20025225 1.2020881 1.1003772 1.7436095 1.777419 1.2134844
1.2982899 0.7563012 1.1708065 1.1659594 0.6153172 1.2019856 0.73996794 0.97947866
0.45399457 0.80142653 1.1347667 1.7566241 0.9083229 0.940413 1.5371659 0.38282588
0.71177554 1.2298731 0.8862563 1.3259127 1.2558355 0.47180268 1.1483747 0.5545557
0.46715975 0.5418769 0.71894026 0.59825754 1.0679902 0.42420924 1.493126 0.56737334
1.3602504 0.8539084 1.2429595 1.228768 0.73809856 0.8539123 0.97044367 1.060485
1.1759244 1.3620906 1.7548141 1.4648663 -0.508477 1.1350083 0.45165148 1.2433907
0.9428809 0.62407863 1.3362873 1.1583868 1.1722976 1.3437423 0.6429067 1.3609947
1.207233 1.474486 1.1290126 -0.3474755 1.7182181 0.037037253 0.7618815 0.77846843
00000000: 2888 ab3f c8ad d43e 415f 833f 334c 6d3d
00000010: 98f1 983f 33d1 7f3f aa64 c43f 3159 d83e
00000020: af7d b03f e2f7 ed3f 1035 443f 0a90 803f
00000030: a3b6 3c3f 6a6f b33f ec38 913f fd33 0b3f
00000040: 54d9 353f bf12 973f fc3d 903f aaa7 903f
00000050: 4f15 5a3f 491f d63f 73c7 c43e 420c 683f
00000060: 2b4b 863f 7284 843f 35ec a63f fe4b f63f
00000070: 87d6 903f 1cf5 853f 7371 ba3f 1c39 1e3f
00000080: ff1d 573f f4cc ca3f 8154 f33f f1e4 a03f
00000090: 6efd a73d ce7e a13f 1564 833f 657d 5f3f
000000a0: b8ea 033f fbad dc3f bafb 5e3f 624e 9c3f
000000b0: ebed 3e3f 4182 ad3f 0133 823f 634a 313f
000000c0: 9f03 9f3f 7352 453f a3ce 993f ac6b 8a3f
000000d0: 85d5 433f 9535 393f 7970 1240 e748 5f3f
000000e0: 6f0d ad3f 8b2d 143f bb15 843e 339a dd3f
000000f0: 1c55 9e3f 65f1 1d3f c32a dc3e 067a d53e
00000100: 455b c33f a261 543f 2f22 a13f ff3a a53f
00000110: 90e4 563f 685e 6e3f 143a 843f d13c d63e
00000120: c2ab 943f 5906 32bf 68af 0a3f f465 bc3f
00000130: 3c84 603f a1f1 b43f a0b4 0f3f 7ffd bb3f
00000140: 7bf2 9f3f 0178 9e3f 6847 8fbe 0f44 cc3f
00000150: d0c8 683f 9941 563f d83e 963f 0741 933f
00000160: 1ab0 703f 62fa a73e c705 b23f d16d 813f
00000170: 8b2d ea3e 0d88 aa3f e14b a83f fd59 d63e
00000180: fa6d 1c3f a222 dd3e 9284 ec3f 4d6a 7a3f
00000190: 4654 993f 8394 a33f 473f 9b3f ca65 903f
000001a0: b848 443f f98e a73f 9948 c13f 7c81 c13f
000001b0: 4699 943f b88d 833f 5fa4 763f af06 da3e
000001c0: c3b1 933f 573b 783f bba6 7b3f f254 5d3f
000001d0: cf57 a43f 3169 453f 47b8 9f3f 8025 2a3f
000001e0: bb22 983f b101 293f 9ce2 a73e 1473 ea3e
000001f0: a9ae 713f 697f 6b3f b603 793f 33d4 eb3e
00000200: 8161 1c3f c867 743f 27ac 773f 3b3e 8d3f
00000210: 63e0 903f e3aa 913f 097b 343f 09c1 373f
00000220: ac48 9a3f 1c0c 003f acbe c93f dfdc 653f
00000230: a60a 893e 6050 b23f 3c49 dd3e a9f3 253f
00000240: 3dac bd3e f8c6 3c3f 3d0c 8b3f f9ff 923f
00000250: 6a5e 9c3f cd62 a53f 9959 643f 42ad 9b3f
00000260: c676 a53f 411e a03f 965a 883f 480b 953f
00000270: e4d5 b33f 4981 123f 17e5 5b3f 6e01 243f
00000280: 9234 1e3f a01e ac3f e653 043f 5466 423f
00000290: d2cb d03f b042 00be 5564 353e d9a8 803f
000002a0: 1b5a 373f a235 903f 1107 723e 5354 5d3f
000002b0: 1a25 763f d692 df3f 850d aa3f b469 7d3f
000002c0: 01a9 753f d77c 3f3f 84f1 1a3f d512 503f
000002d0: 5f4f 883f 86fa 293f 3b9b ee3f a3c7 433f
000002e0: 3a23 bf3d c268 663f ed0e 4dbe 06de 993f
000002f0: 29d9 8c3f 992e df3f 7782 e33f 7553 9b3f
00000300: 5d2e a63f f59c 413f fddc 953f 283e 953f
00000310: 6e85 1d3f aada 993f 8a6e 3d3f 1dbf 7a3f
00000320: fa71 e83e 4a2a 4d3f 0940 913f 0fd9 e03f
00000330: d987 683f e8be 703f dac1 c43f c101 c43e
00000340: ec36 363f 7b6c 9d3f b1e1 623f 82b7 a93f
00000350: 38bf a03f 1f90 f13e f1fd 923f 5df7 0d3f
00000360: 902f ef3e 72b8 0a3f 780c 383f 6827 193f
00000370: e7b3 883f f431 d93e c11e bf3f 613f 113f
00000380: af1c ae3f be99 5a3f 4c19 9f3f 4548 9d3f
00000390: 07f4 3c3f ff99 5a3f ff6e 783f f9bd 873f
000003a0: b184 963f fc58 ae3f c09d e03f bd80 bb3f
000003b0: 8c2b 02bf f447 913f dd3e e73e 6d27 9f3f
000003c0: a560 713f 9ec3 1f3f 760b ab3f 0546 943f
000003d0: d90d 963f bfff ab3f 8995 243f 1335 ae3f
000003e0: 9c86 9a3f f5bb bc3f 7c83 903f 4fe8 b1be
000003f0: 92ee db3f 60b4 173d aa0a 433f b549 473f

fc2.bias f4 [300]
0.9940116 1.1706914 1.2848405 0.8941657 1.3262857 1.3327311 1.364156 1.3436297
1.1148771 1.2570169 1.3134756 1.4952599 1.0821236 1.2507867 1.3772632 1.3713107
1.1101649 1.3671173 0.9042057 1.1914912 1.4975475 1.465491 1.0253873 1.1204041
1.5710311 1.2494165 1.5500596 1.3081645 1.1626917 1.0824974 0.96488297 1.3918191
0.99684054 1.0614848 1.2371517 1.0804045 1.4287944 1.3346487 1.1872644 0.8839903
0.9801405 1.3233641 1.3441894 1.3518927 1.1553934 1.2256643 0.8518836 1.2386928
1.2821088 1.1586881 1.2602801 1.2575221 1.1868254 1.5159525 1.2104994 1.2237817
1.2949709 1.2431152 1.4445778 1.1193185 1.2871006 1.5382358 1.3074979 1.0329232
1.5097885 1.3249105 1.2164434 1.1256242 1.138811 1.137497 1.2738754 1.0619427
1.1458429 1.3540778 1.2136624 1.3201797 1.3330395 1.3358333 1.1898899 1.0440358
0.9439499 1.0622569 1.359385 1.4364057 1.3782663 1.2044318 1.3460245 1.0130165
1.2340033 1.0247949 1.2391481 1.3256367 1.4250417 1.2383264 0.879447 1.0872653
1.2534298 1.4534432 1.2495471 1.0619245 1.0842739 1.4451613 1.2207489 0.85987955
1.2616888 1.3813256 1.091475 1.2505451 1.1257007 1.1698016 1.0947268 1.1718019
1.1599432 0.9584729 1.0759375 1.1750923 1.194661 1.098788 1.1228077 1.0860168
1.2148343 1.4159417 1.1045698 1.2100558 1.2593352 0.87568325 1.2424299 1.4113218
1.4206917 1.2741383 1.2263043 1.6378303 0.8829578 1.3754932 1.2420055 1.2366205
1.2532358 1.3394595 1.1251792 1.4959575 0.8664278 1.444243 1.1213869 1.0801051
1.2233613 1.2364821 1.1370922 1.1864343 1.176313 1.1374131 1.0744163 1.0302378
0.99110997 1.1284213 1.3512464 1.2049639 1.1826538 1.3046317 1.4848658 1.354377
1.3716964 1.0548862 1.2401271 1.1579778 1.2548009 1.0782837 1.1864607 1.1545167
1.3066516 1.1315703 1.3593061 1.2680734 1.1060457 1.0373554 1.2002063 1.0221572
1.5270402 1.3905114 1.1195072 1.2792145 1.4203986 1.1147277 1.2226294 1.3496397
1.2680886 1.321291 1.2509557 1.3066319 1.4085984 1.3021555 1.3397275 1.1130546
1.2109334 1.0708525 1.3292811 1.1439867 1.3638687 1.3275881 1.0915844 1.0131768
1.4023615 1.1872822 1.3940482 1.0906801 1.547546 1.171352 1.2057215 1.3520726
0.95318615 1.3226992 1.5045948 1.2574761 1.0611506 1.060302 0.9461595 1.033195
0.748617 1.3591316 1.0837046 1.2671983 1.1513575 1.3115623 1.2149924 1.1964185
1.1522577 1.3648086 1.1981779 1.0552022 1.2097887 1.2206768 1.1344842 1.2414526
1.0486743 1.2940544 1.2636472 1.282409 1.0448424 1.434664 1.3830664 1.2786899
1.0400414 1.1772974 1.2998327 1.2713776 1.2796373 1.3254882 1.4536662 0.97982967
1.2646633 1.1012734 1.1425277 1.254816 1.2784845 0.92774105 1.1284037 1.0940627
00000000: 8b77 7e3f 37d9 953f a775 a43f 0be8 643f
00000010: bbc3 a93f ef96 aa3f aa9c ae3f 0ffc ab3f
00000020: 4bb4 8e3f eee5 a03f f81f a83f ad64 bf3f
00000030: 0783 8a3f c719 a03f 294a b03f 1c87 af3f
00000040: e219 8e3f b3fd ae3f 067a 673f c982 983f
00000050: a3af bf3f 3695 bb3f e43f 833f 6769 8f3f
00000060: 8c17 c93f e1ec 9f3f 5a68 c63f ef71 a73f
00000070: 15d3 943f 468f 8a3f 9202 773f 2127 b23f
00000080: f130 7f3f bcde 873f fd5a 9e3f b24a 8a3f
00000090: bce2 b63f c5d5 aa3f 48f8 973f 304d 623f
000000a0: 7dea 7a3f ff63 a93f 660e ac3f d20a ad3f
000000b0: eee3 933f 91e2 9c3f 0b15 5a3f 7c8d 9e3f
000000c0: 241c a43f e44f 943f dc50 a13f 7cf6 a03f
000000d0: e5e9 973f bb0a c23f a5f1 9a3f e1a4 9c3f
000000e0: 9bc1 a53f 661e 9f3f ede7 b83f d445 8f3f
000000f0: b6bf a43f e9e4 c43f 175c a73f d436 843f
00000100: c040 c13f ab96 a93f 6bb4 9b3f 7414 903f
00000110: 8fc4 913f 8099 913f 590e a33f bded 873f
00000120: fbaa 923f 6c52 ad3f 4a59 9b3f a6fb a83f
00000130: 0aa1 aa3f 96fc aa3f 504e 983f f7a2 853f
00000140: b3a6 713f 09f8 873f 5400 ae3f 24dc b73f
00000150: 086b b03f d22a 9a3f 884a ac3f 86aa 813f
00000160: d2f3 9d3f 7b2c 833f 689c 9e3f 77ae a93f
00000170: c467 b63f 7b81 9e3f 7023 613f 822b 8b3f
00000180: 6370 a03f 6d0a ba3f 29f1 9f3f 24ed 873f
00000190: 7dc9 8a3f 0cfb b83f 8041 9c3f 1121 5c3f
000001a0: 057f a13f 47cf b03f 74b5 8b3f dd11 a03f
000001b0: f616 903f 0fbc 953f 0220 8c3f 9bfd 953f
000001c0: 0579 943f 7b5e 753f 52b8 893f 6d69 963f
000001d0: a7ea 983f 16a5 8c3f 2ab8 8f3f 9902 8b3f
000001e0: b17f 9b3f 943d b53f 8b62 8d3f 1ce3 9a3f
000001f0: e531 a13f c72c 603f f107 9f3f 31a6 b43f
00000200: 3ad9 b53f f716 a33f 8af7 9c3f 6ca4 d13f
00000210: 8609 623f 2910 b03f 09fa 9e3f 9549 9e3f
00000220: 086a a03f 6973 ab3f df05 903f 897b bf3f
00000230: 36ce 5d3f f4dc b83f 9b89 8f3f e240 8a3f
00000240: 1a97 9c3f 0c45 9e3f 3d8c 913f 14dd 973f
00000250: 6d91 963f c196 913f 7986 893f d5de 833f
00000260: 62b9 7d3f 1c70 903f a4f5 ac3f 423c 9a3f
00000270: 3361 973f 2cfe a63f 1510 be3f 3a5c ad3f
00000280: bf93 af3f 8306 873f 7cbc 9e3f 9e38 943f
00000290: 519d a03f 3305 8a3f f2dd 973f 34c7 933f
000002a0: 5c40 a73f 4cd7 903f befd ad3f 3b50 a23f
000002b0: e892 8d3f 10c8 843f 5ca0 993f 0cd6 823f
000002c0: 0e76 c33f 47fc b13f 034c 8f3f 4dbd a33f
000002d0: 9fcf b53f 66af 8e3f 1f7f 9c3f fec0 ac3f
000002e0: ba50 a23f 1020 a93f 511f a03f b73f a73f
000002f0: f44c b43f 08ad a63f 317c ab3f 9378 8e3f
00000300: deff 9a3f b211 893f e225 aa3f 286e 923f
00000310: 4093 ae3f 68ee a93f 0ab9 8b3f c7af 813f
00000320: 9580 b33f ddf8 973f 2c70 b23f 689b 8b3f
00000330: fd15 c63f ddee 953f 1555 9a3f b710 ad3f
00000340: 0204 743f 354e a93f 9096 c03f faf4 a03f
00000350: c8d3 873f fab7 873f 8237 723f bc3f 843f
00000360: 5da5 3f3f 06f8 ad3f d5b6 8a3f 8e33 a23f
00000370: af5f 933f 46e1 a73f df84 9b3f 3e24 993f
00000380: 2e7d 933f 0cb2 ae3f e55d 993f de10 873f
00000390: 5bda 9a3f 233f 9c3f c736 913f ebe7 9e3f
000003a0: f63a 863f 93a3 a53f 31bf a13f fa25 a43f
000003b0: 65bd 853f 12a3 b73f 5208 b13f 1cac a33f
000003c0: 1420 853f aeb1 963f eb60 a63f 80bc a23f
000003d0: 28cb a33f 99a9 a93f bc11 ba3f 1ed6 7a3f
000003e0: 7de0 a13f 87f6 8c3f 593e 923f d09d a03f
000003f0: 61a5 a33f 7080 6d3f 886f 903f 3f0a 8c3f

bn1.weight f4 [400]
1.0574087 0.8331679 0.68035316 2.1398075 1.7930125 1.5710346 1.5103229 1.5097997
0.5860414 1.1427367 1.0665007 1.7122661 0.9882222 0.8653348 1.0663847 3.215675
1.3871455 1.4742213 0.697108 0.16607693 0.60534024 2.5371559 1.6387864 0.9534306
0.71104133 1.1852186 1.2488655 1.4230925 0.34686285 1.4742098 1.3563802 1.3330923
1.1652281 1.1539906 1.429951 1.2000257 2.0615456 1.1008734 0.55184305 1.9354423
1.8203831 1.6655058 1.8009104 0.42999497 1.5678891 1.4575939 1.0685402 1.5154676
0.8905431 0.79548335 0.3492166 1.310781 1.0508858 0.60887223 2.1921303 1.2326045
1.2054513 1.3230183 1.6245023 1.4801748 0.43412814 1.9163091 1.2763953 0.9087398
1.9625453 0.83978057 1.4099038 0.85912794 1.6244607 1.1299694 1.1220119 1.3130533
0.98727787 2.6528928 1.5345447 1.5980195 1.2863696 1.8086015 1.8747628 0.64429903
1.2094108 0.49338078 2.4531305 0.27588618 1.3516091 0.22177818 0.70859474 0.8205413
0.5263744 1.8937463 1.3745803 0.8148873 0.8057163 1.0788074 1.1187595 1.3767818
1.1980964 0.8582352 1.781119 0.77231634 1.0679407 1.7136415 1.2914569 1.7246566
1.2097827 0.9248812 2.018402 1.7036126 1.221201 1.1633861 1.3688583 1.4899188
1.1006043 0.8039589 1.068252 1.5277722 1.5944992 1.0533837 1.0096301 1.4617128
0.33213308 1.5689691 1.3688375 1.6744803 0.9643754 0.56664777 1.1294702 3.7310019
1.5409089 1.100574 1.1464183 1.2879794 1.2914587 0.9914796 0.8000565 1.1064067
1.0733368 1.5177543 2.041622 1.2973737 1.4906584 0.8481284 1.0173222 1.9794784
1.066558 1.1229174 0.58478796 0.5215785 1.3044266 1.4809405 1.3910481 1.0180609
1.0436836 0.51876193 1.7454674 0.7626233 1.1622311 0.8319243 0.6537452 0.6155521
0.90774786 1.6010689 0.670844 0.8607684 1.2467594 2.647002 1.3038204 1.0088078
0.99558365 1.496574 1.783798 0.8065534 1.5635899 1.4124827 1.2832159 0.69492185
3.3935394 0.8795423 1.3367755 0.5766831 1.6620828 0.9475096 1.534491 1.2629852
1.5692223 0.7381459 3.251814 0.5330687 1.0210375 0.93421537 1.3393086 1.1114329
1.5488185 1.2997438 1.4807462 0.7405083 1.1059846 1.0769079 1.0175356 0.75625104
1.1792047 1.2701958 0.17897038 1.4540118 1.4790773 1.046483 0.94043523 2.4668188
1.1610242 1.7244813 1.1319146 0.9824969 0.29834282 1.3175339 0.45365632 0.5386018
1.5046953 1.7550333 1.3510466 0.89330876 0.7294266 1.532132 1.495348 0.9592391
0.61993235 1.1265916 0.74022645 0.8867999 3.3169365 1.5107218 0.9623008 0.52338517
1.4913534 0.5282486 1.3782018 1.7257122 3.0188992 1.0360183 1.1000698 0.6833365
1.3766598 1.6809568 0.46377584 0.7618889 0.7421928 1.069099 0.4073801 1.0749862
1.2838099 0.7378064 1.0607629 2.9742005 1.5810875 1.7861238 0.45286986 3.5276842
00000000: 2b59 873f 7e4a 553f a02b 2e3f 9bf2 0840
00000010: 6f81 e53f a917 c93f 4352 c13f 1e41 c13f
00000020: cf06 163f 3245 923f 1883 883f 892b db3f
00000030: 21fc 7c3f 9586 5d3f 4b7f 883f 9fcd 4d40
00000040: fc8d b13f 49b3 bc3f ab75 323f 1210 2a3e
00000050: 94f7 1a3f c360 2240 c1c3 d13f 0714 743f
00000060: ce06 363f 3eb5 973f d3da 9f3f e527 b63f
00000070: 0298 b13e e8b2 bc3f de9d ad3f c5a2 aa3f
00000080: 3226 953f f7b5 933f a208 b73f 719a 993f
00000090: 5df0 0340 6be9 8c3f 9645 0d3f 93bc f73f
000000a0: 5002 e93f 4b2f d53f 3b84 e63f 4d28 dc3e
000000b0: 97b0 c83f 7092 ba3f edc5 883f d8fa c13f
000000c0: a2fa 633f cca4 4b3f 85cc b23e acc7 a73f
000000d0: 6d83 863f 0ddf 1b3f dd4b 0c40 fcc5 9d3f
000000e0: 3a4c 9a3f aa58 a93f b1ef cf3f 5e76 bd3f
000000f0: 0b46 de3e 9e49 f53f ec60 a33f 2ca3 683f
00000100: af34 fb3f dcfb 563f ba77 b43f cfef 5b3f
00000110: 54ee cf3f d6a2 903f 169e 8f3f 2112 a83f
00000120: 3ebe 7c3f ffc8 2940 f66b c43f e78b cc3f
00000130: c2a7 a43f 4180 e73f 3af8 ef3f c8f0 243f
00000140: f9cd 9a3f 689c fc3e 1700 1d40 f440 8d3e
00000150: 8701 ad3f d219 633e 7766 353f ff0e 523f
00000160: 79c0 063f 4766 f23f 3ff2 af3f 749c 503f
00000170: 6c43 4e3f 5c16 8a3f 8333 8f3f 633a b03f
00000180: 395b 993f 4db5 5b3f b5fb e33f 86b6 453f
00000190: 48b2 883f 9b58 db3f 764e a53f 8cc1 dc3f
000001a0: 29da 9a3f 04c5 6c3f 802d 0140 fa0f da3f
000001b0: 5050 9c3f d6e9 943f c036 af3f a9b5 be3f
000001c0: 9ae0 8c3f 40d0 4d3f 7bbc 883f 0a8e c33f
000001d0: 8d18 cc3f 47d5 863f 8f3b 813f 6819 bb3f
000001e0: 590d aa3e fbd3 c83f 1136 af3f 5f55 d63f
000001f0: 4ee1 763f d40f 113f 7b92 903f bcc8 6e40
00000200: 813c c53f 9cdf 8c3f d6bd 923f 82dc a43f
00000210: 854e a53f 9bd1 7d3f 81d0 4c3f bc9e 8d3f
00000220: 1a63 893f c645 c23f efa9 0240 5710 a63f
00000230: e5cd be3f f11e 593f 9d37 823f 8c5f fd3f
00000240: f984 883f c2bb 8f3f aab4 153f 2b86 053f
00000250: 73f7 a63f 758f bd3f dd0d b23f d24f 823f
00000260: 6d97 853f 95cd 043f 7a6b df3f 483b 433f
00000270: fdc3 943f fef8 543f d85b 273f d394 1d3f
00000280: 2a62 683f d3ef cc3f 6fbc 2b3f 515b 5c3f
00000290: d095 9f3f 7b68 2940 96e3 a63f 9d20 813f
000002a0: 92de 7e3f bd8f bf3f 7e53 e43f 497a 4e3f
000002b0: b723 c83f 3ccc b43f 6b40 a43f 66e6 313f
000002c0: c02f 5940 af29 613f 761b ab3f 81a1 133f
000002d0: 21bf d43f fd8f 723f 336a c43f 80a9 a13f
000002e0: 47dc c83f 21f7 3c3f b81d 5040 3177 083f
000002f0: 5bb1 823f bd28 6f3f 776e ab3f 6f43 8e3f
00000300: af3f c63f 015e a63f 1789 bd3f f491 3d3f
00000310: e790 8d3f 1ed8 893f 9b3e 823f ab99 413f
00000320: 2ef0 963f c795 a23f 0344 373e 0f1d ba3f
00000330: 6852 bd3f 28f3 853f 5dc0 703f 5ce0 1d40
00000340: 719c 943f cebb dc3f 94e2 903f eb84 7b3f
00000350: 64c0 983e f3a4 a83f a445 e83e cfe1 093f
00000360: db99 c03f eea4 e03f 18ef ac3f e2af 643f
00000370: b4bb 3a3f e71c c43f 9067 bf3f b290 753f
00000380: e3b3 1e3f 2734 903f 7b7f 3d3f 5105 633f
00000390: b048 5440 555f c13f 5859 763f 92fc 053f
000003a0: abe4 be3f 4d3b 073f eb68 b03f 23e4 dc3f
000003b0: a535 4140 3f9c 843f 16cf 8c3f 24ef 2e3f
000003c0: 6336 b03f 9829 d73f 0774 ed3e 270b 433f
000003d0: 5900 3e3f 3cd8 883f 2094 d03e 2699 893f
000003e0: e253 a43f e1e0 3c3f 14c7 873f 4d59 3e40
000003f0: 1361 ca3f b49f e43f 8fde e73e 94c5 6140

bn1.bias f4 [400]
-0.35408857 -0.7463412 -0.47837722 0.114560604 -0.24432017 0.22007047 -0.22512674 -0.3460683
-0.56383365 -0.45540693 -0.40102738 -0.08467645 -0.43536115 -0.31530502 -0.3460868 0.1307872
-0.17595789 -0.21280281 -0.5376778 -0.6887071 -0.659346 -0.033066917 -0.30304772 -0.14199448
-0.6703154 -0.18704717 -0.26470733 -0.3041621 -0.686151 -0.26171467 -0.17869917 0.062674455
-0.17471291 -0.33491755 -0.19579135 -0.29252717 -0.097031206 -0.44683334 -0.6445801 0.09962311
-0.06175611 -0.17757474 0.0495331 -0.76186305 -0.06498026 -0.06870729 -0.21515125 -0.013496913
-0.4447081 -0.39507997 -0.70319724 0.04469504 -0.7711603 -0.42290345 -0.13860708 -0.3020316
-0.39653707 -0.22313721 -0.11264909 -0.24137 -0.42270258 -0.11912618 -0.4057152 -0.5316634
-0.28283054 -0.6298841 -0.23426248 -0.35098055 -0.21714815 -0.26685086 -0.11540761 -0.28038675
-0.37054044 -0.23397543 0.13662615 -0.28913176 -0.6933983 -0.16428523 0.29942873 -0.4339205
-0.23750353 -0.53538656 0.2774639 -0.7884409 -0.37821332 -0.78113425 -0.44773012 -0.60723245
-0.63361377 0.25840572 -0.23199108 -0.50020987 -0.59850776 -0.3438677 -0.215545 -0.4925276
-0.17663595 -0.65286165 -0.1329447 -0.5518037 -0.31518242 -0.27011362 -0.08869872 -0.16189921
-0.3263181 -0.42530665 -0.042523455 -0.032829314 -0.3370363 -0.40706527 -0.2599667 -0.20844524
-0.27325103 -0.50366753 -0.054169867 -0.19611794 -0.13947293 -0.25250444 -0.22569752 -0.39778778
-0.5388986 -0.11943834 -0.13505743 0.05300337 -0.41705447 -0.74865246 -0.36258537 -0.1216014
-0.059701115 -0.42140296 -0.4838583 -0.2990181 -0.30564514 -0.6742691 -0.30775523 -0.17481415
-0.28939718 -0.26446858 -0.16760813 -0.5248249 -0.36979398 -0.49365354 -0.5556102 -0.34792653
-0.5449385 -0.44747585 -0.4459473 -0.4931667 -0.35757405 -0.14266598 0.0041760965 -0.26846516
-0.537179 -0.6000994 -0.13806553 -0.33754134 -0.2081448 -0.45793176 -0.4059497 -0.41959766
-0.39785448 -0.10010881 -0.7817535 -0.6138732 -0.2323372 -0.099939376 -0.42444426 -0.78241855
-0.37856922 -0.38132483 0.011588137 -0.6019496 -0.29494724 -0.25700548 -0.49684772 -0.5170813
-0.10765779 -0.45743033 -0.31638265 -0.56517565 -0.41384536 -0.663033 -0.22330262 -0.30866754
-0.15544471 -0.5909934 0.63770103 -0.6385244 -0.21806315 -0.44952726 -0.29016933 -0.3662366
-0.13731697 -0.27199614 -0.4093625 -0.47273782 -0.34272268 -0.40550685 0.0040758704 -0.40649903
-0.5372466 0.03583852 -0.7251352 -0.25043672 -0.15813088 -0.4056434 -0.25539806 0.74263924
-0.13252667 -0.18370079 -0.3730939 -0.38913533 -0.76024187 -0.31182986 -0.7284936 -0.7432997
-0.48479614 -0.0023917197 0.074735776 -0.6159988 -0.49002987 -0.258776 -0.18641622 -0.54204243
-0.6488874 -0.30810314 -0.60301554 -0.5336912 -0.010181983 -0.3509868 -0.41988108 -0.35977423
0.023340967 -0.65919805 -0.26004148 -0.16515814 0.43433428 -0.4014799 -0.3669984 -0.4459777
-0.023860436 -0.14321811 -0.5387978 -0.30608848 -0.53712815 -0.32452902 -0.80344313 -0.3023839
-0.34504247 -0.57796437 -0.28386778 0.37894297 -0.23753549 -0.33710378 -0.73316216 0.22893608
00000000: 194b b5be 3810 3fbf dced f4be c09e ea3d
00000010: 112f 7abe 275a 613e a087 66be dd2f b1be
00000020: 6757 10bf 192b e9be 7653 cdbe d96a adbd
00000030: a8e7 debe a96f a1be 4a32 b1be 14ed 053e
00000040: 4e2e 34be fbe8 59be 41a5 09bf 1c4f 30bf
00000050: e6ca 28bf 2d71 07bd 1229 9bbe 0067 11be
00000060: ca99 2bbf 4b89 3fbe b887 87be 23bb 9bbe
00000070: 98a7 2fbf 77ff 85be eafc 36be 775b 803d
00000080: f1e7 32be 507a abbe 877d 48be 1fc6 95be
00000090: 4cb8 c6bd 57c7 e4be 3403 25bf 3307 cc3d
000000a0: faf3 7cbd 27d6 35be 38e3 4a3d 7509 43bf
000000b0: 5f14 85bd 68b6 8cbd 9c50 5cbe 2822 5dbc
000000c0: c8b0 e3be ec47 cabe bc04 34bf 2512 373d
000000d0: c36a 45bf cd86 d8be 04ef 0dbe e3a3 9abe
000000e0: e806 cbbe 157e 64be 91b4 e6bd b329 77be
000000f0: 796c d8be 6df8 f3bd e7b9 cfbe 181b 08bf
00000100: 2acf 90be 1640 21bf 81e2 6fbe b9b3 b3be
00000110: 165c 5ebe ada0 88be d35a ecbd da8e 8fbe
00000120: 7ab7 bdbe 4197 6fbe bae7 0b3e 1409 94be
00000130: 8d82 31bf 633a 28be b94e 993e d42a debe
00000140: 2034 73be 180f 09bf c00f 8e3e 43d7 49bf
00000150: 2da5 c1be 6af8 47bf e23c e5be 9673 1bbf
00000160: 8334 22bf c14d 843e 128f 6dbe c10d 00bf
00000170: ce37 19bf 6d0f b0be d4b7 5cbe 942c fcbe
00000180: 0ee0 34be f121 27bf a822 08be 0243 0dbf
00000190: 975f a1be 554c 8abe ada7 b5bd e8c8 25be
000001a0: 2a13 a7be cbc1 d9be 132d 2ebd 0878 06bd
000001b0: 0690 acbe dc6a d0be 5b1a 85be ab72 55be
000001c0: 8fe7 8bbe 5bf0 00bf 39e1 5dbd 24d3 48be
000001d0: fed1 0ebe 4348 81be 401d 67be d7aa cbbe
000001e0: 42f5 09bf 179c f4bd 7f4c 0abe 101a 593d
000001f0: 2a88 d5be b0a7 3fbf caa4 b9be 280a f9bd
00000200: 2889 74bd 21c2 d7be 46bc f7be e718 99be
00000210: 857d 9cbe e69c 2cbf 1892 9dbe 7b02 33be
00000220: de2b 94be 6d68 87be 77a1 2bbe ed5a 06bf
00000230: a355 bdbe 28c0 fcbe 783c 0ebf 6d23 b2be
00000240: 1781 0bbf 8e1b e5be 3453 e4be 5880 fcbe
00000250: f213 b7be 0817 12be a3d7 883b 4474 89be
00000260: 9084 09bf 1da0 19bf 0d61 0dbe 38d2 acbe
00000270: e923 55be 0876 eabe a4d8 cfbe 81d5 d6be
00000280: 95b3 cbbe d905 cdbd ff20 48bf cb26 1dbf
00000290: cee9 6dbe 04ad ccbd c250 d9be 954c 48bf
000002a0: d3d3 c1be 023d c3be 2bdc 3d3c 5e19 1abf
000002b0: 5303 97be 3996 83be d362 febe 715f 04bf
000002c0: b07b dcbd 4f34 eabe e8fc a1be 5aaf 10bf
000002d0: 8ae3 d3be 88bc 29bf 71a9 64be ac09 9ebe
000002e0: e62c 1fbe 584b 17bf 6040 233f 5676 23bf
000002f0: f24b 5fbe 7028 e6be 1391 94be 5d83 bbbe
00000300: d29c 0cbe 1443 8bbe f697 d1be b10a f2be
00000310: 5979 afbe 989e cfbe e18e 853b a420 d0be
00000320: fe88 09bf 69cb 123d 76a2 39bf 3e39 80be
00000330: 10ed 21be 7eb0 cfbe 89c3 82be 9b1d 3e3f
00000340: 12b5 07be 0f1c 3cbe 2a06 bfbe bf3c c7be
00000350: 369f 42bf 2aa8 9fbe 8e7e 3abf e448 3ebf
00000360: 3337 f8be 66be 1cbb 120f 993d 19b2 1dbf
00000370: 32e5 fabe 4a7e 84be e5e3 3ebe 4bc3 0abf
00000380: 7c1d 26bf b2bf 9dbe 3a5f 1abf fd9f 08bf
00000390: 55d2 26bc 8bb4 b3be a7fa d6be 5434 b8be
000003a0: 8e35 bf3c 34c1 28bf 2824 85be 371f 29be
000003b0: 1061 de3e c68e cdbe 37e7 bbbe 3057 e4be
000003c0: f676 c3bc c5a7 12be a7ee 09bf a1b7 9cbe
000003d0: 3b81 09bf ab28 a6be 73ae 4dbf 10d2 9abe
000003e0: 68a9 b0be 79f5 13bf 1e57 91be d004 c23e
000003f0: 813c 73be de98 acbe 84b0 3bbf 386e 6a3e

bn2.weight f4 [300]
1.5522621 1.5963048 3.4685376 1.0621487 2.1842384 1.6881998 2.5260792 3.0901759
0.5322301 4.188446 3.24646 0.84477395 2.6859863 3.0694206 1.0990294 3.4227796
1.6089851 2.3070211 3.028091 3.4154592 0.32214677 2.1981025 1.2688458 0.938855
0.5577708 3.4388363 1.1792318 1.2345289 1.3267465 3.1896722 2.998258 2.552549
2.6452582 2.4788778 1.5474302 1.82695 1.0403633 6.190263 2.6343746 4.6954513
1.161664 2.457089 0.32869264 0.15401632 1.9740684 2.13066 2.3325655 1.1679252
2.2596164 1.1310447 0.8513726 2.6701276 2.0604546 2.096828 2.047737 2.5161498
0.36779687 1.2400566 0.62403846 2.0370934 1.9692177 2.5201583 1.928872 2.4549878
2.2126527 1.4413589 2.75651 1.458545 1.6580077 2.1725836 1.9416698 2.2063055
2.2054048 1.0406007 2.4115365 4.416265 1.4004344 1.824707 1.2454324 2.139814
1.3713423 2.5200393 0.7831006 1.3969303 0.27286637 1.9778203 0.4617946 2.7763548
1.89103 3.327948 2.8442194 1.1288228 1.8650362 1.9485147 1.5554552 1.3644027
0.38080338 0.41788706 1.9616946 2.1523867 1.3100523 1.782507 2.3096995 3.773001
1.9307196 2.1372864 2.0633643 2.1257672 1.4419879 2.8886936 2.4319115 2.0228117
1.4028172 3.0839915 1.8551728 1.379121 1.2603538 3.1826162 2.0779626 2.1181276
1.8414412 2.3084486 3.0416043 1.4043229 2.7412548 1.0656791 1.6843175 1.3743705
0.20746228 2.984821 2.1140757 0.24031931 1.2039418 0.95077395 0.29457426 2.7926233
2.3147943 1.5893238 2.6636481 1.5255291 1.6209633 0.38897237 2.2848332 0.44122675
1.2808751 1.4274892 2.0049489 1.0400741 0.42465678 1.4908508 3.6037712 1.4378933
3.050448 1.4137163 2.4251845 1.3441087 1.5402415 0.6405766 0.5502841 1.1434737
1.105091 0.98937756 0.857278 0.42260343 3.600818 1.9433663 1.922609 1.8322042
1.287085 5.2047076 1.2531797 0.2732441 1.3219078 2.6444578 2.410212 2.2119358
1.3498272 0.93258196 1.9589999 1.0306677 1.8218856 1.4251499 1.8884802 0.24804896
1.1506873 1.8361049 1.8526886 2.0376768 1.065342 1.8192441 1.0607809 0.75202686
1.9528037 1.3555409 1.4754591 2.5921533 0.15661195 1.6846765 2.173833 2.5920084
1.910639 1.5892293 0.23073772 2.8548958 1.1794481 1.9209845 2.3980992 1.9494389
2.8185027 1.9531744 1.5210862 2.4675586 2.4491093 1.2504449 3.200081 3.4642663
2.6505537 1.4634222 2.5490415 2.5433693 1.8798513 1.7054045 2.079922 1.4481357
2.46293 4.9047866 2.3265176 0.6440117 1.6241113 1.3442128 1.4973184 1.7367663
2.213391 1.2694306 1.4237278 1.409597 2.1121237 0.9504342 0.38218144 1.5864661
0.9911777 1.8520339 1.0814782 0.50132746 0.79379886 1.9992898 0.7499817 2.282743
2.2751262 1.7457051 1.2533176 0.28919047 0.24897812 2.6378946 4.3124976 3.2802029
00000000: 86b0 c63f b753 cc3f 85fc 5d40 7df4 873f
00000010: 90ca 0b40 ee16 d83f 48ab 2140 71c5 4540
00000020: 3b40 083f c007 8640 00c6 4f40 1b43 583f
00000030: 33e7 2b40 6371 4440 ffac 8c3f d20e 5b40
00000040: 39f3 cd3f 3ca6 1340 3ecc 4140 e296 5a40
00000050: 6cf0 a43e b6ad 0c40 8a69 a23f cd58 703f
00000060: 11ca 0e3f e515 5c40 11f1 963f 0b05 9e3f
00000070: d4d2 a93f 9723 4c40 76e3 3f40 f65c 2340
00000080: e94b 2940 efa5 1e40 3112 c63f 7fd9 e93f
00000090: a02a 853f a216 c640 9899 2840 2341 9640
000000a0: 68b1 943f f240 1d40 674a a83e 74b6 1d3e
000000b0: 46ae fc3f bc5c 0840 c148 1540 937e 953f
000000c0: 8e9d 1040 13c6 903f 8ef3 593f 5fe3 2a40
000000d0: 7dde 0340 6e32 0640 1f0e 0340 9908 2140
000000e0: df4f bc3e 2dba 9e3f fcc0 1f3f bd5f 0240
000000f0: 530f fc3f 464a 2140 47e5 f63f 851e 1d40
00000100: 1a9c 0d40 737e b83f a96a 3040 9ab1 ba3f
00000110: 9939 d43f 9c0b 0b40 a388 f83f 1c34 0d40
00000120: 5a25 0d40 6732 853f 9d56 1a40 0b52 8d40
00000130: 6f41 b33f 0090 e93f 546a 9f3f b6f2 0840
00000140: 2588 af3f 5348 2140 4879 483f 9dce b23f
00000150: 24b5 8b3e 3729 fd3f 5870 ec3e ccaf 3140
00000160: 450d f23f 1afd 5440 b107 3640 447d 903f
00000170: 82b9 ee3f ee68 f93f 2819 c73f bfa4 ae3f
00000180: a9f8 c23e 4bf5 d53e cf18 fb3f b4c0 0940
00000190: cbaf a73f 3029 e43f 1ed2 1340 d978 7140
000001a0: d221 f73f 4dc9 0840 290e 0440 920c 0840
000001b0: 0f93 b83f 5be0 3840 70a4 1b40 bf75 0140
000001c0: 848f b33f 1e60 4540 4d76 ed3f 0987 b03f
000001d0: 4653 a13f fcaf 4b40 57fd 0440 678f 0740
000001e0: 58b4 eb3f 9fbd 1340 a5a9 4240 dac0 b33f
000001f0: b870 2f40 2c68 883f b797 d73f 5feb af3f
00000200: fe70 543e 4f07 3f40 044d 0740 4416 763e
00000210: c41a 9a3f ec65 733f 70d2 963e 57ba 3240
00000220: 9725 1440 f66e cb3f 3679 2a40 8a44 c33f
00000230: ba7b cf3f 6327 c73e b53a 1240 79e8 e13e
00000240: b7f3 a33f f7b7 b63f 1551 0040 2621 853f
00000250: 9d6c d93e 33d4 be3f 30a4 6640 e30c b83f
00000260: 8a3a 4340 a8f4 b43f 3936 1b40 c10b ac3f
00000270: a226 c53f d4fc 233f 6bdf 0c3f 595d 923f
00000280: 9f73 8d3f d947 7d3f 9276 5b3f 7a5f d83e
00000290: cd73 6640 3ac0 f83f 0d18 f63f ab85 ea3f
000002a0: 34bf a43f f78c a640 3168 a03f a7e6 8b3e
000002b0: 4634 a93f cc3e 2940 ea40 1a40 5b90 0d40
000002c0: 23c7 ac3f b1bd 6e3f 82c0 fa3f ebec 833f
000002d0: 8c33 e93f 506b b63f b8b9 f13f 8c00 7e3e
000002e0: b949 933f 7c05 eb3f e624 ed3f 4c69 0240
000002f0: 205d 883f fedc e83f abc7 873f d584 403f
00000300: 79f5 f93f 5d82 ad3f d8db bc3f d7e5 2540
00000310: e25e 203e 7ba3 d73f 1420 0b40 77e3 2540
00000320: d28f f43f de6b cb3f 8246 6c3e 9db6 3640
00000330: 28f8 963f d2e2 f53f 757a 1940 3787 f93f
00000340: 5962 3440 9e01 fa3f f4b2 c23f 7bec 1d40
00000350: 35be 1c40 940e a03f 21ce 4c40 8ab6 5d40
00000360: aca2 2940 6b51 bb3f 7f23 2340 90c6 2240
00000370: f89e f03f b24a da3f 711d 0540 835c b93f
00000380: a5a0 1d40 03f4 9c40 aae5 1440 f3dd 243f
00000390: e1e2 cf3f 2a0f ac3f 21a8 bf3f 5c4e de3f
000003a0: 33a8 0d40 b47c a23f b63c b63f ad6d b43f
000003b0: 092d 0740 a84f 733f 49ad c33e 5211 cb3f
000003c0: d2bd 7d3f 720f ed3f e16d 8a3f ff56 003f
000003d0: 6736 4b3f bae8 ff3f cdfe 3f3f 7618 1240
000003e0: ab9b 1140 4473 df3f b66c a03f c610 943e
000003f0: 1ff4 7e3e 44d3 2840 fbff 8940 d8ee 5140

bn2.bias f4 [300]
0.25291887 0.23434377 -0.19886228 -0.21961536 -0.48450866 -0.26079956 -0.19662446 0.18169506
-0.45321316 -0.32030144 0.090711154 -0.6098657 -0.11201641 -0.13029465 -0.5558734 -0.099924244
-0.06823465 0.049529877 -0.09420045 -0.37804407 -0.63199276 -0.5030237 0.09823325 -0.46584135
-0.38386276 -0.4857508 -0.17590931 -0.51598394 -0.026363228 0.22152488 -0.29181537 0.31985816
-0.34267873 -0.6704405 0.31991428 -0.24075629 -0.15152241 0.17183618 -0.25496468 0.4282463
-0.1965219 0.15279353 -0.61644566 -0.8128452 0.03895302 0.40175498 -0.2568684 -0.18149005
-0.27484828 -0.2668781 0.29251212 -0.25590298 -0.23744121 -0.098290086 -0.62119067 -0.17135356
-0.61366373 -0.38222736 -0.96940625 -0.733897 0.18323702 -0.104991846 0.0063936277 0.05624283
-0.12806585 -0.11892164 -0.012778638 0.00062101026 -0.16776936 0.339309 -0.22654091 -0.029953746
-0.14677177 -0.7336604 -0.29661 0.32185858 -0.2383531 -0.41896734 0.17943409 -0.55114734
-0.1870845 0.052466642 -0.20464964 -0.45206314 -0.7203307 -0.20819938 -0.5006185 -0.21056102
0.2949562 -0.17619756 -0.34380615 -0.32205766 -0.11270005 -0.5666002 -0.020767426 0.16693057
-0.60489684 -0.53593653 -0.11789352 0.16077583 -0.72275907 -0.24543126 -0.05809751 0.31581122
-0.2906489 -0.024645058 0.057834763 -0.2212236 0.119919345 -0.08110256 0.020835413 -0.041310556
-0.19587508 0.3581442 0.23917893 -0.18731675 -0.26300257 -0.2545644 -0.68897474 -0.36344206
0.004160207 -0.29172695 0.34307787 -0.05524981 -0.11346265 -0.309066 -0.061875902 -0.37911618
-0.7398606 0.07135192 -0.3786673 -0.74734986 -0.22916023 -0.5888315 -0.6430869 0.09496032
-0.62854487 -0.22499676 0.29016826 -0.38405994 0.06025011 -0.6355459 -0.22894369 -0.74603844
-0.2699798 0.08520746 -0.1293364 -0.37984154 -0.5981636 -0.5986122 -0.2927391 0.01072081
-0.08594772 -0.063557334 -0.33788842 -0.3409318 -1.0396544 -0.2411064 -0.45428818 -0.7252782
-0.34911612 -0.29068214 -0.2601455 -0.67940396 0.34386638 -0.3817767 -0.3011355 -0.5313012
-0.38527364 -0.04236508 -0.7542535 -0.7380867 -0.050516266 -0.4636847 -0.076805145 0.021078303
-0.57098377 -0.5852851 -0.27230865 -0.73845077 -0.46841654 -0.10351426 -0.112690724 -0.7499926
-0.3044933 -0.45224065 -0.58288866 -0.11895991 -0.15602349 -0.19814874 0.1293693 0.48670572
-0.024199344 -0.18441848 -0.19435744 0.34777373 -0.83125407 -0.45945695 -0.44289768 -0.14920022
-0.55421907 0.2046276 -0.77023375 0.098090135 -0.45155945 -0.087620765 -0.14374176 -0.45098415
0.07221576 -0.35135493 -0.35285252 -0.29126787 0.21960048 -0.44666713 -0.12455456 0.33838022
0.12146199 -0.9134591 -0.5029732 0.67451936 0.07256571 -0.5793107 -0.23802829 -0.15437092
-0.54710567 -0.033543963 0.42758363 0.45452607 -0.61039877 -0.22947012 -0.13933913 0.02450264
-0.4902074 -0.2750598 -0.3460533 -0.40909404 0.050420538 -0.34093085 -0.5890012 0.011570456
0.14015895 -0.06954377 0.1859399 -0.5278996 -0.37420115 0.04147039 -0.73471797 0.084399946
0.10716415 0.028263763 -0.62511665 -0.69238263 -0.71350783 0.481819 -0.07778022 0.090282686
00000000: 957e 813e d0f7 6f3e 8ea2 4bbe d9e2 60be
00000010: 8511 f8be 8587 85be ec57 49be 450e 3a3e
00000020: 8e0b e8be 8dfe a3be c5c6 b93d 2920 1cbf
00000030: dc68 e5bd f66b 05be b84d 0ebf 15a5 ccbd
00000040: 9cbe 8bbd d7df 4a3d 2aec c0bd fe8e c1be
00000050: 47ca 21bf 29c6 00bf 842e c93d c282 eebe
00000060: a989 c4be 54b4 f8be 9221 34be 8617 04bf
00000070: b2f7 d7bc 6bd7 623e d368 95be 73c4 a33e
00000080: 9673 afbe fda1 2bbf cecb a33e d188 76be
00000090: b128 1bbe d3f5 2f3e bb8a 82be 1943 db3e
000000a0: 093d 49be e875 1c3e 62cf 1dbf 9f16 50bf
000000b0: 348d 1f3d d4b2 cd3e 4184 83be 87d8 39be
000000c0: eab8 8cbe 3fa4 88be 26c4 953e b705 83be
000000d0: ca23 73be 504c c9bd 5a06 1fbf 4f77 2fbe
000000e0: 1119 1dbf 4eb3 c3be 022b 78bf ace0 3bbf
000000f0: 7ca2 3b3e f705 d7bd a381 d13b e25e 663d
00000100: b223 03be 308d f3bd 7e5d 51bc 4bcb 223a
00000110: bbcb 2bbe e9b9 ad3e 57fa 67be 8f61 f5bc
00000120: 574b 16be 2bd1 3bbf 44dd 97be a6ca a43e
00000130: d612 74be e382 d6be 92bd 373e fe17 0dbf
00000140: 1493 3fbe 43e7 563d ad8f 51be d274 e7be
00000150: 9867 38bf 3832 55be 8928 00bf 4f9d 57be
00000160: 8004 973e 226d 34be 5c07 b0be bee4 a4be
00000170: 49cf e6bd b60c 11bf 7320 aabc d9ef 2a3e
00000180: 85da 1abf 2333 09bf 2872 f1bd 6ba2 243e
00000190: bd06 39bf 5552 7bbe a8f7 6dbd 02b2 a13e
000001a0: efcf 94be 6fe4 c9bc 25e4 6c3d 7088 62be
000001b0: 4698 f53d 1919 a6bd 07af aa3c 4235 29bd
000001c0: 7a93 48be ad5e b73e 52eb 743e f6cf 3fbe
000001d0: 46a8 86be 4456 82be a660 30bf 1415 babe
000001e0: 5952 883b 3c5d 95be e7a7 af3e a04d 62bd
000001f0: 1b5f e8bd e63d 9ebe 9671 7dbd 841b c2be
00000200: 8167 3dbf f520 923d aee0 c1be 5252 3fbf
00000210: fba8 6abe a9bd 16bf 58a1 24bf 8e7a c23d
00000220: 51e8 20bf 8d65 66be ef90 943e 81a3 c4be
00000230: d2c8 763d 23b3 22bf 3770 6abe 60fc 3ebf
00000240: cb3a 8abe 4081 ae3d c370 04be 977a c2be
00000250: 4021 19bf a63e 19bf e6e1 95be 56a6 2f3c
00000260: 5c05 b0bd 592a 82bd b6ff acbe 9d8e aebe
00000270: 6513 85bf 99e4 76be 7698 e8be d5ab 39bf
00000280: 59bf b2be 4ad4 94be ca31 85be 6bed 2dbf
00000290: 410f b03e 3c78 c3be 6f2e 9abe 5b03 08bf
000002a0: 9642 c5be 0287 2dbd c216 41bf 40f3 3cbf
000002b0: 25ea 4ebd 1568 edbe 044c 9dbd 68ac ac3c
000002c0: fe2b 12bf 3fd5 15bf 0a6c 8bbe 1c0b 3dbf
000002d0: 4bd4 efbe 49ff d3bd 65ca e6bd 84ff 3fbf
000002e0: 8ce6 9bbe 168c e7be 3138 15bf 41a1 f3bd
000002f0: 9fc4 1fbe 81e7 4abe 6379 043e 7e31 f93e
00000300: b43d c6bc 33d8 3cbe a305 47be 660f b23e
00000310: 11cd 54bf f13d ebbe 7cc3 e2be f1c7 18be
00000320: 4de1 0dbf e689 513e 0a2e 45bf 7be3 c83d
00000330: cd32 e7be 8472 b3bd 0a31 13be 65e7 e6be
00000340: dbe5 933d cbe4 b3be 16a9 b4be 1021 95be
00000350: f3de 603e 8eb1 e4be 7616 ffbd 2c40 ad3e
00000360: 10c1 f83d 75d8 69bf dac2 00bf 4dad 2c3f
00000370: 559d 943d b54d 14bf b0bd 73be 6913 1ebe
00000380: 1e0f 0cbf 6565 09bd 3eec da3e a4b7 e83e
00000390: 1843 1cbf 37fa 6abe ebae 0ebe c3b9 c83c
000003a0: 77fc fabe a3d4 8cbe e62d b1be c674 d1be
000003b0: c485 4e3d 7d8e aebe c8c8 16bf 0392 3d3c
000003c0: d485 0f3e f76c 8ebd 0767 3e3e 6e24 07bf
000003d0: 4b97 bfbe dbdc 293d 7a16 3cbf e1d9 ac3d
000003e0: e178 db3d 6889 e73c a507 20bf fd3f 31bf
000003f0: 73a8 36bf fbb0 f63e 3c4b 9fbd 21e6 b83d
