tmp/ddpg/actor_ddpg.pth (torch, 511239 bytes, 10 tensors)

fc1.weight f4 [400, 11]
-0.079484195 -0.15438034 0.22489303 0.10617073 0.3116299 0.31618616 0.2330824 0.1940559
0.34571925 0.38248855 0.3144078 0.18732513 -0.25093445 0.19945477 0.05316531 0.14079651
0.6497977 0.32870537 0.073495276 0.28402388 0.23707017 0.22306955 0.3363968 -0.2396216
0.017863987 0.05491586 0.29119736 0.848422 0.17174378 -0.043052357 0.058629878 0.10685216
0.011944762 0.28803748 -0.3207896 0.04751008 0.11592154 0.31612623 -0.60740536 -0.018889537
0.1326423 -0.22636499 -0.06792622 -0.12626934 -0.30455616 0.03656071 0.09816985 -0.033382073
-0.25214276 0.21858485 0.04189912 0.487765 0.37742952 0.39159474 0.43195304 -0.35794497
-0.06559009 0.36344546 0.07009968 0.3045737 0.28081548 0.22322895 0.18974875 0.25508684
0.25931033 0.24744901 0.1912438 -0.04866042 0.04560887 0.07202021 0.22408968 0.46388435
0.57559067 0.4154032 0.289578 0.32878387 0.283439 0.31389105 -0.3014401 0.0023725603
0.056313545 0.14409715 -0.004971216 0.25285363 0.19924596 -0.18228467 -0.08366985 -0.1512964
0.18955487 -0.19518293 0.14041755 0.034988143 0.41056496 0.6614597 0.43836224 -0.028598057
0.16127296 0.15906535 0.11580009 0.238265 -0.22239773 0.3678737 0.06690949 -0.064040415
0.776856 0.5054035 0.36645886 0.35940465 0.38854247 0.392172 0.0954932 -0.1770413
0.21394072 0.04782336 0.11232869 0.37315226 0.54575557 0.41611475 0.2567831 0.18905985
0.227797 0.25445986 -0.26119286 0.34846765 0.0939573 0.0056294934 -0.66511846 0.20206599
0.38259658 0.40377608 0.35638598 0.36887974 -0.08524641 -0.23979013 0.13558057 0.009963321
0.1195496 -0.60568297 0.46584892 0.051406518 0.028019117 0.07731311 0.099707425 0.06693887
-0.23434149 0.33033568 0.082001336 0.24277881 0.8245923 0.2842436 -0.13898681 0.3303661
0.42906126 0.3442812 -0.17718446 -0.05562104 0.06135649 0.11017573 0.17442483 0.42478383
0.4137741 0.26758346 0.2815089 0.275741 0.2132948 0.3147709 -0.21705885 0.1696045
0.09786115 0.3434316 0.25161982 0.30589426 0.5540557 -0.70968527 -0.60234505 -0.52621436
0.19345829 -0.37547165 0.13385905 0.105180874 0.24956326 -0.22352903 0.24877909 -0.093453266
-0.040234696 -0.01658503 -0.05722181 -0.1991269 0.046280455 -0.028137757 -0.06746919 -0.2155801
0.37732822 0.20655379 0.45581162 0.2228456 0.22904375 0.2416201 0.14411312 -0.26457393
0.3932631 0.058076788 0.17561005 0.4219642 0.56995386 0.6755704 0.34763736 0.26848242
0.27945635 0.44939476 -0.3866076 0.19898838 0.042973146 0.5155824 0.39954197 0.09245048
-0.06285399 0.25777805 0.37147224 0.29316795 0.26149884 -0.2715881 0.108959444 0.045911755
0.27078402 0.58938646 0.35513395 -0.056234688 0.052087102 0.109240144 0.022238474 0.08974735
-0.039722804 0.49510038 0.0741852 -0.06698853 0.40900254 0.3147291 0.56851417 0.67006856
0.58655655 0.6223651 0.014479142 -0.438169 -0.0074050617 0.08384683 0.17474286 0.1843357
0.30646563 -0.037928294 -0.19670834 -0.1446291 -0.14827143 0.18906145 -0.14524165 0.18581948
00000000: 9cc8 a2bd e115 1ebe 5c4a 663e 0a70 d93d
00000010: f48d 9f3e 27e3 a13e 27ad 6e3e 97b6 463e
00000020: 1d02 b13e 8ad5 c33e 0ffa a03e 29d2 3f3e
00000030: 7b7a 80be df3d 4c3e dec3 593d f62c 103e
00000040: 2459 263f 124c a83e b184 963d 946b 913e
00000050: 86c2 723e 586c 643e 343c ac3e 5d5f 75be
00000060: 7f57 923c 74ef 603d d217 953e 2f32 593f
00000070: 9add 2f3e ab57 30bd e225 703d 4ed5 da3d
00000080: f7b3 433c a679 933e 893e a4be ee99 423d
00000090: 4668 ed3d 4cdb a13e eb7e 1bbf 3bbe 9abc
000000a0: 62d3 073e 39cc 67be e71c 8bbd c04c 01be
000000b0: c9ee 9bbe afc0 153d 460d c93d a4bb 08bd
000000c0: db18 81be b5d4 5f3e 699e 2b3d 56bc f93e
000000d0: 713e c13e 1b7f c83e f328 dd3e 9044 b7be
000000e0: 1954 86bd 8615 ba3e 6c90 8f3d 16f1 9b3e
000000f0: 0cc7 8f3e 2196 643e 7f4d 423e be9a 823e
00000100: 53c4 843e 4663 7d3e 6ad5 433e 2650 47bd
00000110: 5ed0 3a3d 557f 933d c477 653e 4082 ed3e
00000120: e959 133f baaf d43e 9143 943e 5c56 a83e
00000130: eb1e 913e 54b6 a03e 5b56 9abe f57c 1b3b
00000140: 08a9 663d 348e 133e 95e5 a2bb 0876 813e
00000150: 2207 4c3e d5a8 3abe 195b abbd 72ed 1abe
00000160: ac1a 423e 09de 47be 9ec9 0f3e ba4f 0f3d
00000170: 9235 d23e 6c55 293f 0471 e03e 7946 eabc
00000180: bd24 253e 07e2 223e 9928 ed3d bdfb 733e
00000190: 3bbc 63be f159 bc3e d807 893d 9f27 83bd
000001a0: 09e0 463f 2062 013f 7fa0 bb3e e303 b83e
000001b0: 0aef c63e c5ca c83e f091 c33d 514a 35be
000001c0: 4713 5b3e 6de2 433d 960c e63d d00d bf3e
000001d0: a3b6 0b3f fe0c d53e 1379 833e e898 413e
000001e0: 9e43 693e 9048 823e 12bb 85be 5a6a b23e
000001f0: af6c c03d 9d77 b83b 3445 2abf 63ea 4e3e
00000200: b3e3 c33e bdbb ce3e 3978 b63e cedd bc3e
00000210: ab95 aebd 8b8b 75be a2d5 0a3e 323d 233c
00000220: 6cd6 f43d 0a0e 1bbf c083 ee3e a48f 523d
00000230: 5988 e53c 5656 9e3d 6833 cc3d 3f17 893d
00000240: 37f7 6fbe c221 a93e 51f0 a73d 029b 783e
00000250: 7b18 533f 6188 913e 8f52 0ebe bf25 a93e
00000260: ebad db3e a045 b03e d86f 35be e3d2 63bd
00000270: f150 7b3d d0a3 e13d 6c9c 323e 447d d93e
00000280: 33da d33e b300 893e ef21 903e ed2d 8d3e
00000290: f469 5a3e a729 a13e ad44 5ebe cdac 2d3e
000002a0: 6d6b c83d 44d6 af3e 50d4 803e 2c9e 9c3e
000002b0: 98d6 0d3f efad 35bf 4933 1abf fcb5 06bf
000002c0: ee19 463e d23d c0be 5912 093e 1269 d73d
000002d0: 838d 7f3e cbe4 64be f2bf 7e3e 6d64 bfbd
000002e0: 23cd 24bd 54dd 87bc 6b61 6abd ece7 4bbe
000002f0: 9390 3d3d 2781 e6bc 492d 8abd 08c1 5cbe
00000300: 2a31 c13e d682 533e 2460 e93e a331 643e
00000310: 728a 6a3e 426b 773e 6492 133e 3c76 87be
00000320: c859 c93e ede1 6d3d 1fd3 333e b10b d83e
00000330: 7fe8 113f 2ff2 2c3f 86fd b13e 8776 893e
00000340: e714 8f3e 1217 e63e 6ef1 c5be 9cc3 4b3e
00000350: 9c04 303d 35fd 033f c490 cc3e ad56 bd3d
00000360: 98b9 80bd 7cfb 833e 9c31 be3e 1c1a 963e
00000370: 2de3 853e 980d 8bbe 2126 df3d f70d 3c3d
00000380: 34a4 8a3e 08e2 163f 1ed4 b53e 5856 66bd
00000390: 4959 553d 4cb9 df3d 762d b63c 75cd b73d
000003a0: 61b4 22bd cc7d fd3e 69ee 973d 4831 89bd
000003b0: c868 d13e 2c24 a13e 258a 113f 9d89 2b3f
000003c0: 9228 163f 5253 1f3f ec39 6d3c b057 e0be
000003d0: 29a6 f2bb e3b7 ab3d cbef 323e 7fc2 3c3e
000003e0: 10e9 9c3e b35a 1bbd e96d 49be a719 14be
000003f0: 77d4 17be 5399 413e 3aba 14be 7647 3e3e

fc1.bias f4 [400]
0.119774126 0.15490645 -0.04931428 0.17367738 0.1458187 0.36402193 0.06557393 0.19180018
0.03179925 0.28019226 0.10083924 0.3705042 0.18269478 0.24614254 0.12840147 0.31302732
0.17710301 -0.04003413 0.28003246 0.20966 0.06448359 0.36643493 0.041891377 0.060901325
0.10599109 0.2494441 0.4012119 0.1976478 0.0042248634 0.26574337 0.4326 0.3579815
0.21736908 0.29006037 0.32518202 0.23769951 0.30044395 0.13679676 0.120007195 0.3725497
0.14852256 0.329238 0.26332638 0.16405953 0.2410255 0.3889288 0.24348243 0.2145547
0.16714813 0.17597273 0.17826393 0.070516765 -0.02958915 0.24231434 0.31469774 0.22272319
0.19948666 0.11246102 0.040758286 0.2256509 0.33686635 0.22001371 0.26091018 0.112319015
0.076180674 0.12873876 0.3081524 0.10427756 0.33927605 0.24668963 0.11638866 0.19184178
0.1467289 0.30214497 0.4213108 0.15400471 -0.06126094 0.17639472 0.50276 0.22638397
0.06414767 0.15111004 0.16808258 0.13397686 0.10158009 0.20207395 0.21359682 0.13478793
-0.007061906 0.30821925 0.2003259 0.08231633 0.24425681 0.16355045 0.19695468 0.24166602
0.073441565 0.21515323 0.31465417 0.074556366 0.31939662 0.28248003 0.037908558 0.12231197
0.16823131 0.15031911 0.32163125 0.09876638 0.37520137 0.08546973 0.059918746 0.20759477
0.20609204 0.080378234 0.33304045 0.3513887 0.37627554 0.37072095 0.01712512 0.25057673
0.22964747 0.20513536 0.20321679 0.18557271 0.358178 -0.018116504 0.12308237 0.25809327
0.11934101 0.06651548 0.2179713 0.23667869 0.33953676 0.39619797 0.32115826 0.31132105
-0.029117089 0.173347 0.49459842 0.16292928 0.08236482 0.09481339 0.19298685 0.18878528
0.098648414 0.065398134 0.10549199 0.118797265 -0.04508841 0.36218882 0.0855995 0.19965476
0.12008716 0.1245737 0.26436597 0.4301144 0.28262064 0.14089426 0.19898824 -0.030412199
0.30240023 0.4700306 0.13819695 0.16241382 0.2807889 0.37025207 0.09508963 0.030891916
0.09445155 0.009375428 0.22602749 -0.026248943 0.13315602 0.18466683 0.18277949 -0.029185995
0.117201656 0.10463847 0.2045187 0.1507283 0.105059914 0.12905514 0.35798728 0.13235791
0.25374806 0.17954011 0.49268666 0.25226462 0.26397124 0.05780494 0.17143038 0.03398734
0.24405141 0.030650672 0.22390664 0.08182784 0.124922186 0.08194885 0.43639752 0.0471703
0.18112062 0.57543534 0.4704141 0.1392586 0.33083078 0.2984845 0.18811896 0.57095325
0.44218117 0.0073830495 0.05814551 0.028090661 0.11321063 0.40572298 0.16345094 0.029568754
0.07947129 0.15568511 0.09158003 0.08641827 0.033455957 0.33185816 0.0350134 0.13463928
0.16742209 0.11544056 0.19073455 0.21151176 0.21804887 0.106770314 0.30529323 0.32145768
0.19619766 0.15430972 0.3072755 0.4226836 0.23361643 0.10427384 0.19202302 -0.062866695
0.61119527 0.2569948 0.1538483 0.42727053 -0.04206207 0.0421083 0.18192734 0.29477337
-0.023355989 0.2089184 0.09807963 0.17917548 0.23711252 0.21589617 0.23412676 0.29463318
00000000: 234c f53d cc9f 1e3e c5fd 49bd 7cd8 313e
00000010: 7f51 153e 1561 ba3e a04b 863d 4467 443e
00000020: ee3f 023d 5c75 8f3e ce84 ce3d bab2 bd3e
00000030: 5714 3b3e ca0c 7c3e ad7b 033e 1e45 a03e
00000040: 7e5a 353e d4fa 23bd 6a60 8f3e 1cb1 563e
00000050: f90f 843d 5c9d bb3e 4b96 2b3d ab73 793d
00000060: db11 d93d 466e 7f3e a56b cd3e 2f64 4a3e
00000070: b970 8a3b 840f 883e bf7d dd3e 5a49 b73e
00000080: 0096 5e3e cb82 943e 427e a63e 8067 733e
00000090: cad3 993e 7314 0c3e 55c6 f53d d6be be3e
000000a0: 4c16 183e e291 a83e b7d2 863e 39ff 273e
000000b0: 64cf 763e ad21 c73e 7553 793e 3ab4 5b3e
000000c0: e128 2b3e 3232 343e d28a 363e 186b 903d
000000d0: f264 f2bc 4021 783e 1020 a13e 8c11 643e
000000e0: 3b46 4c3e f751 e63d 29f2 263d 0811 673e
000000f0: bf79 ac3e 464b 613e 0596 853e 8307 e63d
00000100: 9d04 9c3d 18d4 033e 27c6 9d3e 798f d53d
00000110: 97b5 ad3e 359c 7c3e 2e5d ee3d 2c72 443e
00000120: 1a40 163e bfb2 9a3e 0db6 d73e 69b3 1d3e
00000130: c0ec 7abd d1a0 343e e1b4 003f 33d1 673e
00000140: db5f 833d 97bc 1a3e d71d 2c3e 3b31 093e
00000150: 3909 d03d 79ec 4e3e 20b9 5a3e d905 0a3e
00000160: 9067 e7bb eace 9d3e 3c22 4d3e 7795 a83d
00000170: 751e 7a3e c579 273e 7dae 493e 4c77 773e
00000180: 8868 963d 2151 5c3e 5a1a a13e 02b1 983d
00000190: f487 a33e 39a1 903e 0146 1b3d b37e fa3d
000001a0: d444 2c3e 41ed 193e daac a43e 0746 ca3d
000001b0: 651a c03e c10a af3d 5c6d 753d b993 543e
000001c0: cb09 533e 589d a43d 4784 aa3e 38e9 b33e
000001d0: 30a7 c03e 23cf bd3e fb49 8c3c 984b 803e
000001e0: b528 6b3e 010f 523e 1018 503e c606 3e3e
000001f0: 1b63 b73e 1069 94bc 9c12 fc3d cd24 843e
00000200: 0f69 f43d 4539 883d de33 5f3e e65b 723e
00000210: c3d7 ad3e 76da ca3e db6e a43e 7965 9f3e
00000220: f686 eebc e081 313e 013c fd3e efd6 263e
00000230: e3ae a83d 862d c23d 589e 453e ee50 413e
00000240: 2e08 ca3d 75ef 853d 2f0c d83d fb4b f33d
00000250: a0ae 38bd d070 b93e ca4e af3d 4c72 4c3e
00000260: 42f0 f53d 7f20 ff3d fa5a 873e f437 dc3e
00000270: a7b3 903e 9646 103e 93c3 4b3e 0123 f9bc
00000280: 34d4 9a3e daa7 f03e 8083 0d3e cf4f 263e
00000290: 90c3 8f3e ae91 bd3e 5abe c23d 0b11 fd3c
000002a0: d06f c13d 659b 193c c073 673e 0608 d7bc
000002b0: 0d5a 083e 4d19 3d3e 8c2a 3b3e 7817 efbc
000002c0: 6c07 f03d b24c d63d 5a6d 513e 8558 1a3e
000002d0: a729 d73d 0827 043e 1c4a b73e d588 073e
000002e0: 44eb 813e 5dd9 373e 6d41 fc3e d428 813e
000002f0: 3d27 873e dfc4 6c3d 728b 2f3e 4f36 0b3d
00000300: 9de8 793e 1e17 fb3c c847 653e 5b95 a73d
00000310: 34d7 ff3d ccd4 a73d 7f6f df3e a535 413d
00000320: af77 393e bb4f 133f 1eda f03e ce99 0e3e
00000330: a762 a93e f6d2 983e 42a2 403e fe29 123f
00000340: 9265 e23e 82ed f13b fc29 6e3d 631e e63c
00000350: fada e73d ecba cf3e af5f 273e 2c3a f23c
00000360: d8c1 a23d eb6b 1f3e 508e bb3d 10fc b03d
00000370: 1d09 093d 50e9 a93e 366a 0f3d e1de 093e
00000380: b270 2b3e 1a6c ec3d eb4f 433e 8a96 583e
00000390: 3448 5f3e 65aa da3d 654f 9c3e 1a96 a43e
000003a0: 0ae8 483e 5e03 1e3e 3753 9d3e fc69 d83e
000003b0: 2539 6f3e 868d d53d afa1 443e 41c0 80bd
000003c0: 4b77 1c3f d394 833e 698a 1d3e 34c3 da3e
000003d0: 4749 2cbd c179 2c3d 294b 3a3e 89ec 963e
000003e0: 0f55 bfbc b4ee 553e f9dd c83d c779 373e
000003f0: a0cd 723e e313 5d3e edbe 6f3e 29da 963e

fc2.weight f4 [300, 400]
0.5051376 0.26052466 0.85347486 -0.03402191 0.429163 0.46593565 1.1077191 0.31704026
0.91978943 1.0715858 0.45572433 0.5292077 0.578307 0.6534214 0.53523225 0.21221483
0.17790988 0.67752737 0.6353737 0.5858781 0.6384114 0.5528011 0.15078829 0.62019384
0.66715324 0.6889842 0.6874107 0.68698114 0.65828836 0.24321851 0.6166358 0.14838926
0.47945327 0.5927652 0.87196606 0.73693717 0.14295815 0.6668402 0.767875 0.45600796
0.22531544 0.75089145 0.20417559 0.7168425 0.33334872 0.60400456 0.782396 0.34350142
0.8033123 0.3975236 0.79874736 0.6212423 0.48198548 0.5634826 0.95465225 0.5522723
0.9226939 0.367379 0.4338249 0.7525704 0.47896653 0.22188742 0.29909283 0.42395702
0.86851007 0.71518093 0.66211903 1.0587502 0.42955837 0.635302 0.5285887 0.34649664
0.76199937 -0.6281701 0.20041849 0.9442986 0.6027775 0.66830343 0.12355324 0.79410434
0.7586483 0.88038254 -0.2165023 0.93229884 0.57461345 0.72495025 0.6707013 0.61322
0.7889691 -0.020321572 0.6139238 0.6796665 0.43611193 0.5576392 0.5238371 0.007019709
0.406291 0.29721606 0.78254443 0.63110715 0.6544065 0.8607244 0.771504 0.535738
0.39898 0.37080666 0.69474846 0.84178936 0.5911275 0.50979024 0.6169022 0.3422373
0.6717775 0.5543942 0.4519256 0.26480538 0.4154229 0.41573507 0.4942963 0.08027693
0.6931185 0.3562202 0.108850494 0.04093367 0.46828133 0.44676593 0.6286133 -0.18613729
0.48700032 0.40962163 0.7969387 0.3520352 0.7361236 0.6023692 0.46515042 0.6297569
0.5666112 0.40554494 0.70380694 0.45628408 0.16685282 0.7309904 0.2180218 0.17317057
0.2360543 0.57621914 0.70554775 0.7234564 0.791517 0.62082875 0.46797982 0.5328535
0.6699637 0.6973291 0.5784741 0.613799 0.53272104 0.35092202 0.52672 0.500735
0.5004136 0.57452416 0.4844596 0.59153575 0.7209129 -0.068252884 0.25115582 0.47011888
0.54537624 0.6340153 -0.13356169 0.6386247 0.706993 1.10747 0.64293987 0.6869278
0.23437397 0.104999006 0.35859486 0.4521928 0.82760024 0.37244812 0.7791308 0.6601188
-0.028438933 0.6203292 -0.18584496 0.8388795 0.45264086 0.8066646 1.0026902 0.56107134
0.63724273 0.50370216 0.5804031 0.56754285 0.34639373 0.60245854 0.38070646 0.5600822
0.5402506 0.49529248 0.75434136 0.90402573 0.46986276 0.59080815 0.70306593 -0.07810144
0.29994997 0.6903727 0.40699124 0.7777788 0.9212211 0.23646384 0.94594496 0.5833513
0.5219868 0.22848496 0.26211607 0.45750463 0.5415414 0.5122809 0.77573526 0.37721178
0.9221181 0.41617447 0.7628971 0.75894976 0.50963086 0.6184633 0.64414376 0.5917522
0.679482 0.6783178 0.7756673 0.5788767 -0.5544463 0.5189117 0.16286525 0.59216636
0.5001225 0.28956226 0.74642724 0.58192503 0.49933565 0.9817972 0.5429043 0.6122849
0.700286 1.0483388 0.61355406 -0.4971096 0.79661864 -0.27854186 0.6453453 0.36358476
00000000: b350 013f 7d63 853e 547d 5a3f 8f5a 0bbd
00000010: 41bb db3e 1e8f ee3e bdc9 8d3f 1a53 a23e
00000020: 5277 6b3f b929 893f b354 e93e 287a 073f
00000030: ed0b 143f a046 273f fb04 093f d84e 593e
00000040: 022e 363e 6f72 2d3f daa7 223f 1bfc 153f
00000050: ee6e 233f 5f84 0d3f 3f68 1a3e 06c5 1e3f
00000060: 8eca 2a3f 4561 303f 26fa 2f3f ffdd 2f3f
00000070: 9685 283f 460e 793e d8db 1d3f 5bf3 173e
00000080: e67a f53e 76bf 173f 2b39 5f3f eaa7 3c3f
00000090: 9f63 123e 0ab6 2a3f 7593 443f e079 e93e
000000a0: 17b9 663e 6c3a 403f 6813 513e fd82 373f
000000b0: afac aa3e 0ba0 1a3f 1b4b 483f 6bdf af3e
000000c0: e0a5 4d3f 3788 cb3e b57a 4c3f bc09 1f3f
000000d0: cdc6 f63e 6540 103f 1764 743f b861 0d3f
000000e0: ab35 6c3f 1a19 bc3e 4c1e de3e 74a8 403f
000000f0: 1a3b f53e 7536 633e b222 993e e510 d93e
00000100: ad56 5e3f 1916 373f a280 293f 2085 873f
00000110: 13ef db3e 27a3 223f 9751 073f 0268 b13e
00000120: 6412 433f c1cf 20bf 813a 4d3e 8ebd 713f
00000130: a04f 1a3f ef15 2b3f 7b09 fd3d 6c4a 4b3f
00000140: c636 423f c060 613f c7b2 5dbe 23ab 6e3f
00000150: de19 133f 5796 393f 15b3 2b3f fcfb 1c3f
00000160: e1f9 493f 6d79 a6bc 1c2a 1d3f a0fe 2d3f
00000170: 104a df3e 71c1 0e3f 301a 063f 9605 e63b
00000180: 6005 d03e b42c 983e d554 483f 3d90 213f
00000190: 2f87 273f 6f58 5c3f 4981 453f 2026 093f
000001a0: 1b47 cc3e 5fda bd3e 09db 313f 827f 573f
000001b0: 2254 173f 9d81 023f 4ded 1d3f ba39 af3e
000001c0: 9cf9 2b3f c7ec 0d3f cb62 e73e 9294 873e
000001d0: 4fb2 d43e 3adb d43e 6814 fd3e 3b68 a43d
000001e0: 3770 313f 7e62 b63e 02ed de3d 10aa 273d
000001f0: 92c2 ef3e 81be e43e cdec 203f c69a 3ebe
00000200: 1b58 f93e edb9 d13e 2d04 4c3f f53d b43e
00000210: 9972 3c3f de34 1a3f 3228 ee3e c037 213f
00000220: 6e0d 113f 96a3 cf3e b12c 343f 119e e93e
00000230: 77db 2a3e 3022 3b3f 1b41 5f3e a053 313e
00000240: 38b8 713e 1983 133f c79e 343f 7034 393f
00000250: dca0 4a3f a2ee 1e3f 0d9b ef3e 1669 083f
00000260: be82 2b3f 2984 323f e116 143f ee21 1d3f
00000270: 6860 083f 0dac b33e 1fd7 063f 2b30 003f
00000280: 1b1b 003f 0414 133f 170b f83e e36e 173f
00000290: bf8d 383f 2bc8 8bbd 7f97 803e 6cb3 f03e
000002a0: c79d 0b3f d44e 223f 65c4 08be e97c 233f
000002b0: 7efd 343f 94c1 8d3f b597 243f 80da 2f3f
000002c0: bbff 6f3e b809 d73d bf99 b73e d185 e73e
000002d0: 9cdd 533f 85b1 be3e 1e75 473f 8cfd 283f
000002e0: c4f8 e8bc e5cd 1e3f 244e 3ebe cfc0 563f
000002f0: 8bc0 e73e 9281 4e3f 2758 803f 5fa2 0f3f
00000300: 5722 233f a0f2 003f 4c95 143f 7d4a 113f
00000310: 855a b13e b93a 1a3f f5eb c23e 8c61 0f3f
00000320: dd4d 0a3f fa96 fd3e 841c 413f 3b6e 673f
00000330: da91 f03e 343f 173f 21fc 333f a6f3 9fbd
00000340: 0b93 993e 44bc 303f 2861 d03e 831c 473f
00000350: 25d5 6b3f 9423 723e 7329 723f 8356 153f
00000360: eda0 053f f6f7 693e 1434 863e 0c3e ea3e
00000370: 75a2 0a3f d724 033f 9696 463f e721 c13e
00000380: ef0f 6c3f d214 d53e 394d 433f 884a 423f
00000390: 2b77 023f 9c53 1e3f 9be6 243f 127d 173f
000003a0: 88f2 2d3f 3ca6 2d3f 2292 463f 4331 143f
000003b0: 31f0 0dbf 66d7 043f 26c6 263e 3798 173f
000003c0: 0708 003f 8141 943e db15 3f3f 0af9 143f
000003d0: eca8 ff3e 1057 7b3f c7fb 0a3f b4be 1c3f
000003e0: f145 333f f72f 863f e111 1d3f 2685 febe
000003f0: 33ef 4b3f 0a9d 8ebe 5935 253f c827 ba3e

fc2.bias f4 [300]
0.5421302 0.67761666 0.7659186 0.4514216 0.5904661 0.81127435 0.8282078 0.681441
0.6410291 0.7302003 0.63028884 0.83411705 0.646906 0.6920824 0.75835556 0.7223799
0.52862865 0.7475713 0.49504605 0.61326116 0.8605577 0.7230864 0.47223356 0.60267454
0.85512394 0.7024973 0.8948364 0.7519514 0.6043373 0.6759426 0.5020523 0.7172913
0.57761174 0.5141074 0.7600947 0.5323461 0.66338795 0.7484061 0.59422505 0.5950804
0.45712647 0.68715245 0.7606919 0.7851306 0.6419283 0.7476567 0.47265598 0.5993711
0.62067497 0.45020103 0.72046214 0.62225586 0.6662799 0.8855001 0.62173635 0.6513716
0.6867055 0.5699615 0.8334924 0.5962069 0.75395477 0.7012445 0.7394879 0.46036544
0.7468199 0.80545676 0.67026556 0.47382048 0.71425277 0.5845242 0.704043 0.66903156
0.6917971 0.71559244 0.68517315 0.7006867 0.6746128 0.6792236 0.7051619 0.53806245
0.486083 0.6672784 0.7656587 0.68068 0.8160454 0.72651964 0.91528934 0.61021423
0.6791479 0.574948 0.6804021 0.7454915 0.79558647 0.708647 0.40480617 0.69190603
0.84190965 0.7895707 0.69300467 0.7358154 0.4624236 0.83857745 0.6362311 0.60958093
0.69089186 0.74570817 0.64108247 0.74126303 0.54632324 0.6898503 0.46252 0.6495836
0.6256357 0.544458 0.49702895 0.6834371 0.66745806 0.6196577 0.64557076 0.6176656
0.52978754 0.8133122 0.6655501 0.71775293 0.77615273 0.40962186 0.65682095 0.6914534
0.80095744 0.7639576 0.65582037 0.8153444 0.4866257 0.749782 0.7462009 0.7016796
0.701476 0.7328988 0.6586854 0.63357604 0.45696953 0.804161 0.6640719 0.7938856
0.7236399 0.7161517 0.38280305 0.6493185 0.7825526 0.51521844 0.6167336 0.52458787
0.5178344 0.6214478 0.80979276 0.6499849 0.60203177 0.76751995 0.7805561 0.75791216
0.7226381 0.66731197 0.7483989 0.659577 0.728506 0.576554 0.62436485 0.6608651
0.7665536 0.67982846 0.868292 0.7473322 0.6187376 0.6530948 0.642076 0.5104139
0.7768907 0.7639119 0.55558413 0.5375759 0.7696081 0.5257266 0.66792524 0.7206716
0.6612583 0.76440656 0.6382722 0.5807442 0.79408246 0.65261334 0.77992886 0.66619223
0.61589515 0.62764865 0.69427747 0.5051601 0.7602669 0.6314564 0.5604291 0.696894
0.80333555 0.74787056 0.7738463 0.5920324 0.6807353 0.60581124 0.723754 0.69465804
0.63667214 0.6418991 0.77147233 0.6214858 0.51254123 0.49610928 0.5093002 0.655357
0.48561564 0.6310538 0.5746394 0.73374784 0.52557355 0.70533097 0.62466806 0.60201526
0.61876565 0.71507114 0.68439317 0.5632402 0.5184326 0.5897599 0.5545471 0.66447896
0.55994254 0.6588653 0.65184265 0.6640224 0.6004006 0.8020562 0.770837 0.76736546
0.5535997 0.6553647 0.5573795 0.7195934 0.7219408 0.781618 0.7555863 0.6561248
0.5935663 0.6327018 0.5694835 0.7855245 0.7130387 0.43831998 0.69276506 0.58787537
00000000: 0bc9 0a3f 4978 2d3f 3e13 443f bb20 e73e
00000010: c928 173f adaf 4f3f 6d05 543f eb72 2e3f
00000020: 7c1a 243f 68ee 3a3f 9c5a 213f b288 553f
00000030: a29b 253f 502c 313f 9723 423f e4ed 383f
00000040: 3554 073f d560 3f3f ad76 fd3e affe 1c3f
00000050: 824d 5c3f 311c 393f 99c8 f13e e148 1a3f
00000060: 67e9 5a3f ddd6 333f 0014 653f e37f 403f
00000070: d9b5 1a3f 930a 2d3f 8086 003f 67a0 373f
00000080: 5dde 133f 8b9c 033f 9195 423f d647 083f
00000090: cbd3 293f 8b97 3f3f 221f 183f 3057 183f
000000a0: 7b0c ea3e 39e9 2f3f b4bc 423f 52fe 483f
000000b0: 6a55 243f 6e66 3f3f f7ff f13e 6270 193f
000000c0: 8ee4 1e3f c080 e63e 3570 383f 294c 1f3f
000000d0: 5291 2a3f 22b0 623f 1d2a 1f3f 4ac0 263f
000000e0: efcb 2f3f ffe8 113f c25f 553f 04a1 183f
000000f0: 2e03 413f c284 333f 144f 3d3f 05b5 eb3e
00000100: 972f 3f3f 6a32 4e3f 8696 2b3f 9998 f23e
00000110: 45d9 363f 61a3 153f 293c 343f a745 2b3f
00000120: 9d19 313f 1131 373f 8267 2f3f 3460 333f
00000130: 6db3 2c3f 99e1 2d3f 7e85 343f 76be 093f
00000140: dfdf f83e c2d2 2a3f 3502 443f 0b41 2e3f
00000150: 5ae8 503f 31fd 393f 6750 6a3f 0037 1c3f
00000160: a3dc 2d3f cb2f 133f d52e 2e3f 88d8 3e3f
00000170: 8eab 4b3f e469 353f c142 cf3e c120 313f
00000180: 6487 573f 4e21 4a3f c168 313f 665e 3c3f
00000190: c9c2 ec3e 03ad 563f 0be0 223f 7f0d 1c3f
000001a0: 4ade 303f bbe6 3e3f fb1d 243f 6ac3 3d3f
000001b0: d7db 0b3f 079a 303f 6ccf ec3e 1c4b 263f
000001c0: a929 203f 9961 0b3f 947a fe3e bcf5 2e3f
000001d0: 88de 2a3f e3a1 1e3f 2044 253f 551f 1e3f
000001e0: 28a0 073f 3a35 503f 7e61 2a3f a8be 373f
000001f0: f2b1 463f f5b9 d13e 6b25 283f 1703 313f
00000200: 8c0b 4d3f ba92 433f d8e3 273f 69ba 503f
00000210: 0127 f93e b7f1 3f3f 0607 3f3f 46a1 333f
00000220: ee93 333f 419f 3b3f 9b9f 283f 0a32 223f
00000230: e9f7 e93e 7fdd 4d3f 9e00 2a3f 163c 4b3f
00000240: 7740 393f b855 373f c3fe c33e bd39 263f
00000250: 5e55 483f 5be5 033f 41e2 1d3f 644b 063f
00000260: cc90 043f 3417 1f3f 944e 4f3f 6965 263f
00000270: c11e 1a3f 307c 443f 86d2 473f 8806 423f
00000280: cffe 383f f5d4 2a3f 1297 3f3f 0ada 283f
00000290: 5f7f 3a3f 0b99 133f 60d6 1f3f 752e 293f
000002a0: db3c 443f 3d09 2e3f 6248 5e3f 2a51 3f3f
000002b0: 9665 1e3f 3931 273f 185f 243f 7caa 023f
000002c0: 4fe2 463f bb8f 433f c33a 0e3f 939e 093f
000002d0: 0905 453f 0596 063f 26fd 2a3f ef7d 383f
000002e0: 3948 293f 26b0 433f cf65 233f a7ab 143f
000002f0: fd48 4b3f ab11 273f 6ba9 473f 938b 2a3f
00000300: 4eab 1d3f 95ad 203f 2bbc 313f 2c52 013f
00000310: daa0 423f 20a7 213f 4878 0f3f a567 323f
00000320: 66a7 4d3f 7274 3f3f cb1a 463f 6f8f 173f
00000330: ab44 2e3f 7216 1b3f f147 393f 1cd5 313f
00000340: f2fc 223f 8053 243f 367f 453f b219 1f3f
00000350: e735 033f 0902 fe3e 7f61 023f 7ac5 273f
00000360: 9da2 f83e be8c 213f 911b 133f e6d6 3b3f
00000370: fd8b 063f 9290 343f 3fea 1f3f ac1d 1a3f
00000380: 6d67 1e3f e70e 373f 6434 2f3f 8230 103f
00000390: 00b8 043f 81fa 163f ccf6 0d3f 4b1b 2a3f
000003a0: 6558 0f3f 65ab 283f 29df 263f 5ffd 293f
000003b0: dbb3 193f 8e53 4d3f 9355 453f 1072 443f
000003c0: b6b8 0d3f fbc5 273f 6cb0 0e3f 4637 383f
000003d0: 1dd1 383f 1e18 483f 1b6e 413f cbf7 273f
000003e0: f6f3 173f bff8 213f acc9 113f 2218 493f
000003f0: b489 363f 7a6b e03e 0d59 313f 007f 163f

bn1.weight f4 [400]
1.1096562 0.8831648 0.7539563 1.5918778 2.027873 1.4895318 1.2257699 1.2213482
0.7548281 1.0546376 1.0664948 1.4842966 1.121002 0.86190623 1.2338101 3.0421624
1.2561595 1.6292825 0.7202116 0.4961112 0.6869928 2.1761782 1.3404588 0.93943995
0.72944283 1.0723352 1.1283414 1.2467651 0.46765593 1.3161539 1.2357818 1.2491605
1.0428793 1.055651 1.1262596 1.0496562 1.4049933 1.1619841 0.5495829 1.7761738
1.6256971 1.4540498 1.8079486 0.45490855 1.2573742 1.2008165 1.1325896 1.3331693
1.0361556 0.87475 0.35134158 1.1028968 1.4115418 0.78074807 1.9532717 0.9778293
1.2118834 1.0480864 1.2302125 1.4973779 0.59001917 1.8860346 1.4103765 0.92281187
1.8617885 0.85471416 1.2900786 0.827225 1.6225204 1.246574 1.0805446 1.5026263
0.8780171 2.6617732 1.782362 1.4403694 1.7411983 1.4946116 1.7992316 0.75408274
1.2717395 0.5992087 2.0628612 0.3903616 1.2940646 0.3472986 0.7185879 0.974768
0.52495676 1.7319751 1.4810951 0.88163054 0.9167227 1.1786844 1.0630939 1.3773733
0.97436553 0.98828477 1.4813817 0.8195825 0.970125 1.5178514 1.0015059 1.4734383
1.0796485 1.050712 1.8633953 1.4147729 1.3099573 1.0729672 1.1872509 1.2031208
1.0026218 0.8194256 1.1503663 1.3937396 1.5888541 0.96682143 0.82749 1.3377315
0.64018774 1.5965514 1.4709404 1.473411 0.9995427 0.5871851 1.3160676 2.6036668
1.2216227 1.0195105 1.1480682 1.6163219 1.3008691 1.0714211 0.84556806 0.9472456
1.316798 1.4310971 1.811878 1.3093954 1.3107866 0.75591373 1.0449363 1.6779702
1.0588574 1.1289077 0.6729807 0.6002455 1.3639429 1.1793472 1.1595592 1.0620425
1.1873714 0.58569473 1.8849634 0.8276837 1.0274775 0.9427002 0.7114425 0.7373203
0.8287038 1.4751053 0.8536375 0.8030442 1.0713751 2.3130004 1.2121178 1.2302592
1.0042497 1.3942513 1.5525168 0.7528349 1.3544719 1.3376794 1.4525292 0.7658369
2.3151429 0.87167996 1.379984 0.6896915 1.5451155 0.9738314 1.2893258 1.1361756
1.4128151 0.835502 2.6249313 0.5587253 0.91249865 0.9877621 1.1626158 1.1598177
1.371886 1.1534456 1.3897326 0.844579 1.0907614 1.1212215 1.2498484 0.79661
1.1406453 1.4570779 0.6337537 1.3311914 1.2223464 1.0620453 0.85469925 2.1502318
0.96637505 1.5634953 1.056628 0.9952742 0.403803 1.4138908 0.47189555 0.54152954
1.3452737 1.6712775 1.2827586 0.9082843 0.78034407 1.2870234 1.6311843 0.86040336
0.75159883 1.1148216 0.7796778 0.8508288 2.3046198 1.337681 0.8876614 0.8172019
1.4450078 0.5773005 1.1930045 1.5600202 2.7062528 0.9821033 1.0977986 0.85691553
1.3369225 1.5673964 0.5482653 0.7723347 0.70098525 1.0897238 0.5761906 1.0166306
1.1075861 0.7607195 1.0013188 2.6279027 1.5432855 1.7614223 0.62088555 2.7286658
00000000: 3709 8e3f 1717 623f 4803 413f a7c2 cb3f
00000010: acc8 0140 faa8 be3f 07e6 9c3f 2355 9c3f
00000020: 6a3c 413f 5dfe 863f e782 883f 6efd bd3f
00000030: fe7c 8f3f e3a5 5c3f 7ded 9d3f cab2 4240
00000040: d6c9 a03f 548c d03f ca5f 383f 4a02 fe3e
00000050: c3de 2f3f 8146 0b40 2794 ab3f 237f 703f
00000060: c4bc 3a3f 4842 893f 7e6d 903f 0096 9f3f
00000070: 9970 ef3e bb77 a83f 192e 9e3f 7ee4 9f3f
00000080: 127d 853f 921f 873f 4629 903f 225b 863f
00000090: d2d6 b33f e5bb 943f 77b1 0c3f aa59 e33f
000000a0: d816 d03f 4e1e ba3f dc6a e73f c6e9 e83e
000000b0: a3f1 a03f 5bb4 993f b2f8 903f 4ba5 aa3f
000000c0: bfa0 843f 9eef 5f3f 0be3 b33e b92b 8d3f
000000d0: 67ad b43f 1bdf 473f cf04 fa3f 0553 7a3f
000000e0: ff1e 9b3f b227 863f 9a77 9d3f 14aa bf3f
000000f0: 7f0b 173f 9569 f13f 3887 b43f 663d 6c3f
00000100: 164f ee3f 8cce 5a3f 4c21 a53f 05c5 533f
00000110: c0ae cf3f bd8f 9f3f 494f 8a3f 0f56 c03f
00000120: bbc5 603f 7e5a 2a40 7024 e43f 065e b83f
00000130: 96df de3f 6f4f bf3f 394d e63f 910b 413f
00000140: 5cc8 a23f be65 193f eb05 0440 7add c73e
00000150: e9a3 a53f 1fd1 b13e 60f5 373f 658a 793f
00000160: 9163 063f 5cb1 dd3f 8694 bd3f 8ab2 613f
00000170: 57ae 6a3f 21df 963f 7613 883f c54d b03f
00000180: 0570 793f 3b00 7d3f ea9d bd3f 29d0 513f
00000190: 1d5a 783f f448 c23f 5831 803f a099 bc3f
000001a0: ec31 8a3f bb7d 863f bd83 ee3f 4717 b53f
000001b0: aeac a73f fd56 893f d6f7 973f ddff 993f
000001c0: e955 803f e0c5 513f 343f 933f 0f66 b23f
000001d0: 925f cb3f 9c81 773f 62d6 533f c93a ab3f
000001e0: 58e3 233f cc5b cc3f c647 bc3f bb98 bc3f
000001f0: 08e2 7f3f c351 163f e774 a83f 7aa2 2640
00000200: 225e 9c3f 527f 823f e6f3 923f a3e3 ce3f
00000210: e182 a63f 5424 893f 2677 583f b07e 723f
00000220: d68c a83f 312e b73f 9eeb e73f 459a a73f
00000230: dbc7 a73f 9083 413f 79c0 853f bac7 d63f
00000240: a488 873f 0c80 903f 7748 2c3f b0a9 193f
00000250: ae95 ae3f d9f4 963f 706c 943f 02f1 873f
00000260: c9fb 973f 17f0 153f 7b46 f13f 14e3 533f
00000270: 6284 833f cd54 713f 1821 363f 06c1 3c3f
00000280: ef25 543f 40d0 bc3f fd87 5a3f 4e94 4d3f
00000290: d222 893f 3308 1440 ad26 9b3f 2279 9d3f
000002a0: 418b 803f d476 b23f dfb8 c63f cab9 403f
000002b0: 565f ad3f 1439 ab3f 7aec b93f e30d 443f
000002c0: 4d2b 1440 6b26 5f3f 51a3 b03f 9f8f 303f
000002d0: 58c6 c53f 044d 793f a108 a53f 346e 913f
000002e0: 20d7 b43f 76e3 553f e0fe 2740 9f08 0f3f
000002f0: 8399 693f fadd 7c3f 98d0 943f e874 943f
00000300: f699 af3f 1ba4 933f c2e2 b13f 5436 583f
00000310: 129e 8b3f 3084 8f3f 08fb 9f3f a2ee 4b3f
00000320: aa00 923f 8781 ba3f af3d 223f 7b64 aa3f
00000330: d975 9c3f 1af1 873f 92cd 5a3f 669d 0940
00000340: 5b64 773f 9d20 c83f 963f 873f 4aca 7e3f
00000350: 44bf ce3e 60fa b43f 4b9c f13e aea1 0a3f
00000360: ee31 ac3f 6cec d53f 6f31 a43f 5285 683f
00000370: a1c4 473f 2fbd a43f a6ca d03f 6543 5c3f
00000380: c868 403f 79b2 8e3f f798 473f ebcf 593f
00000390: e47e 1340 2239 ab3f c73d 633f 2534 513f
000003a0: 04f6 b83f f7c9 133f 5fb4 983f beae c73f
000003b0: 3f33 2d40 1f6b 7b3f aa84 8c3f d15e 5b3f
000003c0: 4720 ab3f 72a0 c83f 1d5b 0c3f bab7 453f
000003d0: c573 333f 127c 8b3f 3a81 133f f420 823f
000003e0: 62c5 8d3f 83be 423f 372b 803f 8f2f 2840
000003f0: 618a c53f 4976 e13f 5bf2 1e3f 76a2 2e40

bn1.bias f4 [400]
-0.3181905 -0.5947452 -0.37785277 -0.02234073 -0.15933838 0.049341697 -0.31886905 -0.3233161
-0.35098454 -0.40751472 -0.31409878 -0.050536674 -0.2868368 -0.2663678 -0.26525193 0.021206943
-0.28161108 -0.20141321 -0.40116507 -0.3822014 -0.48338455 -0.10342278 -0.33463886 -0.11141021
-0.60886246 -0.16721895 -0.2030763 -0.22786646 -0.55225074 -0.21523005 -0.076292716 0.04952373
-0.18611957 -0.4146085 -0.19981399 -0.25765726 -0.09687663 -0.34849587 -0.58498156 -0.05328916
-0.049413707 -0.14966714 0.07569686 -0.7317737 -0.12158075 0.07424618 -0.15600234 -0.30965206
-0.29625797 -0.26240116 -0.6651505 -0.044665776 -0.3807488 -0.19908765 -0.18071179 -0.22308049
-0.27812594 -0.19556817 -0.16166978 -0.18273729 -0.23848054 -0.14255796 -0.21432987 -0.43239656
-0.2189927 -0.5162968 -0.2165525 -0.32721403 -0.12779431 -0.27520946 -0.11319822 -0.11247619
-0.41574615 -0.10829135 0.09732981 -0.19222182 -0.23671426 -0.20199713 0.25161535 -0.35295552
-0.30536017 -0.41145405 0.116071805 -0.5780729 -0.31596625 -0.61666864 -0.3240184 -0.33255377
-0.5833142 0.052375376 -0.11610038 -0.36746678 -0.45219392 -0.2931204 -0.24537645 -0.35245314
-0.26228803 -0.4533557 -0.20140862 -0.44166872 -0.29228514 -0.22273082 -0.28372398 -0.2043983
-0.42647383 -0.38881344 -0.10563756 -0.19561581 -0.26959482 -0.41167015 -0.2581838 -0.17437261
-0.15578671 -0.42840615 -0.032300614 -0.17390381 -0.11387166 -0.14339305 -0.19813903 -0.2549285
-0.31197047 -0.14617503 -0.114804536 0.045798667 -0.21610671 -0.6292817 -0.25124678 -0.16411506
-0.10480725 -0.42366114 -0.39500302 -0.2359146 -0.15427203 -0.45149186 -0.12580638 -0.08829146
-0.21797231 -0.28151616 -0.13193193 -0.43296644 -0.36486265 -0.36913747 -0.50001216 -0.30282807
-0.50508195 -0.30707195 -0.29912302 -0.4072994 -0.19458862 -0.2268566 -0.17228357 -0.16036904
-0.38260376 -0.48296204 -0.1721201 -0.13436927 -0.14168517 -0.36449653 -0.32673213 -0.26112062
-0.22479232 0.007247939 -0.5000189 -0.5357145 -0.17365745 -0.07437251 -0.30661613 -0.51767296
-0.25635412 -0.29261065 -0.11800946 -0.5506391 -0.20069468 -0.2944272 -0.22169305 -0.36365655
-0.14179245 -0.3815396 -0.19471663 -0.44351256 -0.33483517 -0.5721401 -0.30164665 -0.24289149
-0.23516226 -0.4705504 0.3169136 -0.51265675 -0.18290432 -0.33303723 -0.3040179 -0.40000904
-0.2008792 -0.37706548 -0.38377076 -0.30216464 -0.27348366 -0.29881567 0.09245364 -0.3519331
-0.43617457 0.22813465 -0.32643974 -0.17923686 -0.10956499 -0.32785463 -0.21407124 0.43492368
-0.07525359 -0.14200048 -0.3498385 -0.38496 -0.65524465 -0.2422442 -0.6839443 -0.67052877
-0.41925207 -0.15296236 -0.1231264 -0.4908863 -0.37289795 -0.19460303 -0.15325725 -0.46063593
-0.444984 -0.3592612 -0.45344085 -0.49786726 -0.11664486 -0.28039986 -0.38779196 -0.14323388
-0.09649482 -0.5642001 -0.1807734 -0.13719355 0.19534282 -0.3702335 -0.3641653 -0.29760265
0.24528167 -0.07473867 -0.47074646 -0.30143207 -0.52050394 -0.29245865 -0.58362055 -0.25473753
-0.29992777 -0.40805805 -0.46541187 0.15951714 -0.18371193 -0.22933406 -0.5224616 -0.07869083
00000000: dde9 a2be 3941 18bf eb75 c1be e803 b7bc
00000010: 9a29 23be 851a 4a3d ce42 a3be b089 a5be
00000020: 3fb4 b3be c5a5 d0be 8ed1 a0be 8bff 4ebd
00000030: 46dc 92be 5c61 88be 1acf 87be 2fba ad3c
00000040: 542f 90be 443f 4ebe 8265 cdbe e7af c3be
00000050: 2e7e f7be 53cf d3bd c955 abbe 092b e4bd
00000060: 69de 1bbf 723b 2bbe 3cf3 4fbe d355 69be
00000070: 4e60 0dbf 4465 5cbe 5b3f 9cbd 65d9 4a3d
00000080: 2196 3ebe 9147 d4be 0a9c 4cbe a7eb 83be
00000090: 4167 c6bd 0d6e b2be 5ac1 15bf bc45 5abd
000000a0: 0766 4abd 5842 19be f506 9b3d 8555 3bbf
000000b0: 54ff f8bd 620e 983d 14bf 1fbe b78a 9ebe
000000c0: 20af 97be 7259 86be 4e47 2abf 76f3 36bd
000000d0: 82f1 c2be a2dd 4bbe 830c 39be 366f 64be
000000e0: 8666 8ebe 0643 48be c38c 25be 7c1f 3bbe
000000f0: 3e34 74be b7fa 11be 4a79 5bbe 1563 ddbe
00000100: 9f3f 60be 072c 04bf f0bf 5dbe 9988 a7be
00000110: 83dc 02be 41e8 8cbe 78d4 e7bd eb59 e6bd
00000120: aedc d4be dbc7 ddbd da54 c73d ccd5 44be
00000130: 3965 72be 56d8 4ebe bad3 803e 96b6 b4be
00000140: 2b58 9cbe 1baa d2be 0eb7 ed3d 96fc 13bf
00000150: 54c6 a1be ffdd 1dbf bde5 a5be 7d44 aabe
00000160: 1454 15bf 9087 563d 09c6 edbd 9b24 bcbe
00000170: f685 e7be e113 96be f743 7bbe bd74 b4be
00000180: 9e4a 86be 3d1e e8be 103e 4ebe 6722 e2be
00000190: 66a6 95be 8c13 64be 4544 91be ca4d 51be
000001a0: c75a dabe 8e12 c7be 8158 d8bd 834f 48be
000001b0: 5508 8abe 6ec6 d2be ab30 84be bc8e 32be
000001c0: 8d86 1fbe 0d58 dbbe a64d 04bd d713 32be
000001d0: 8b35 e9bd a1d5 12be f5e4 4abe fd85 82be
000001e0: 98ba 9fbe e8ae 15be a41e ebbd 6297 3b3d
000001f0: 144b 5dbe 9b18 21bf 6ba3 80be c70d 28be
00000200: 2fa5 d6bd 1dea d8be d63d cabe 9993 71be
00000210: 7df9 1dbe f129 e7be 63d3 00be 27d2 b4bd
00000220: 2234 5fbe e322 90be 2a19 07be c7ad ddbe
00000230: 47cf babe 96ff bcbe cc00 00bf 480c 9bbe
00000240: 0d4d 01bf 8938 9dbe a726 99be 8c89 d0be
00000250: 3d42 47be 194d 68be 1b6b 30be c837 24be
00000260: a4e4 c3be cd46 f7be 4040 30be 1998 09be
00000270: eb15 11be 4a9f babe 6f49 a7be 9ab1 85be
00000280: f52f 66be 1e80 ed3b 3d01 00bf 9624 09bf
00000290: 42d3 31be 9d50 98bd cafc 9cbe 3786 04bf
000002a0: d940 83be 10d1 95be f2ae f1bd aff6 0cbf
000002b0: e882 4dbe 29bf 96be 8103 63be 3131 babe
000002c0: 0a32 11be 2959 c3be cc63 47be 1414 e3be
000002d0: 846f abbe c677 12bf 6e71 9abe 8cb8 78be
000002e0: 60ce 70be fbeb f0be 8042 a23e 793d 03bf
000002f0: 454b 3bbe db83 aabe 3ca8 9bbe fccd ccbe
00000300: 47b3 4dbe ba0e c1be 9a7d c4be 53b5 9abe
00000310: 0d06 8cbe 5efe 98be 5658 bd3d 9330 b4be
00000320: 4652 dfbe 219c 693e 1c23 a7be de89 37be
00000330: 9c63 e0bd 90dc a7be 7e35 5bbe 51ae de3e
00000340: 8e1e 9abd 9368 11be 081e b3be 7a19 c5be
00000350: 1dbe 27bf dd0e 78be f916 2fbf c6a7 2bbf
00000360: 35a8 d6be 2aa2 1cbe b229 fcbd 7355 fbbe
00000370: 7bec bebe 0446 47be 78ef 1cbe 79d8 ebbe
00000380: f1d4 e3be 16f1 b7be 6629 e8be 75e8 febe
00000390: 80e3 eebd 9290 8fbe ab8c c6be e7ab 12be
000003a0: 149f c5bd 6b6f 10bf aa1c 39be 777c 0cbe
000003b0: f307 483e 3f8f bdbe e073 babe 605f 98be
000003c0: 1e2b 7b3e 9610 99bd ae05 f1be 4e55 9abe
000003d0: bf3f 05bf 24bd 95be 2868 15bf f56c 82be
000003e0: 2290 99be fcec d0be 774a eebe 7658 233e
000003f0: fb1e 3cbe 8cd6 6abe 0bc0 05bf a828 a1bd

bn2.weight f4 [300]
2.0086913 0.9555229 3.2719324 1.0455261 2.3204784 1.4888945 1.2654817 1.6382611
0.38622588 4.2256045 1.6837162 1.0203743 2.1273313 1.8778564 1.0564114 2.0935376
1.2532103 0.7139945 2.2189007 3.1671813 0.30530813 2.610431 1.0042266 0.41716766
0.4098774 3.6852386 0.6921327 1.36989 1.1420891 2.8519273 3.1194363 2.2204516
2.7506642 2.7463868 1.4211081 1.6305391 0.7076473 5.455509 1.5559019 3.7516778
1.0279564 1.9371984 0.20972078 0.24818607 1.3329309 1.9718469 2.1842525 1.0678804
1.7147305 1.1604521 0.88360125 2.372435 1.7836938 1.2618968 2.006406 2.5114787
0.2823795 1.189673 1.0567503 2.0562434 1.2343926 1.668265 1.607351 1.7050421
1.2314838 0.6326368 2.1823947 1.375576 1.0232795 1.5262039 2.0743923 2.106603
2.1638088 1.3896135 1.3532513 2.635639 1.3346595 1.8503484 1.4101163 2.0666049
1.2447679 2.2692103 0.5421293 1.2383456 0.29147518 1.588637 0.31254193 2.7178822
1.3878775 3.0835886 2.1955705 0.7235692 1.1041818 2.1595116 1.4124908 0.8959979
0.30061087 0.3032596 1.5646639 1.9837674 1.4574581 1.9116517 1.8019192 3.2207742
1.609715 1.3022116 1.7206349 2.1711314 1.3809704 2.5485833 1.764725 1.4426461
1.2198409 2.3591297 1.6799856 0.9139981 1.0757283 3.0826378 1.9387568 2.1205678
1.6058215 1.4863069 2.8217244 1.4605389 1.246434 1.012143 1.4568964 1.4944212
0.19872795 2.8299398 2.0826719 0.37593916 1.0908934 0.97427166 0.20340884 2.257199
2.5088754 1.2576851 2.5208805 1.2967695 1.5284879 0.28641522 2.3695548 0.29136342
1.1815803 1.4889376 1.5199915 0.92105687 0.26355508 1.7481625 3.6498063 1.2717077
2.9599705 0.88828593 1.5644797 1.8391137 1.8932524 0.46153313 0.43661857 1.2233864
0.9531689 0.68321127 0.769559 0.30125996 3.0334518 2.1484947 1.7946446 2.1742992
1.0550019 3.579374 1.3591601 0.28367853 0.85133344 2.8003721 2.2457817 1.6818256
1.0836445 0.7765417 1.8427048 1.1442382 1.0528119 1.2400651 1.581433 0.22303198
1.1733123 1.728079 2.2571232 1.297823 0.90008855 1.4896668 0.9184921 1.1891229
1.7384924 1.2021033 1.0948391 1.9859849 0.27349216 1.8051747 1.8042465 2.362812
1.7991103 1.1382111 0.23788312 2.364883 1.2025821 1.7209002 1.2683717 1.8080868
2.8252091 1.847886 1.2860984 2.5073984 1.6475494 1.3290666 3.1252902 2.4175525
2.2704234 1.4771564 2.3197203 2.2115116 1.4572161 1.7800837 2.2037604 1.3783208
2.5284836 4.0307302 2.4220212 0.9929702 1.8830217 1.2495152 1.348664 1.3402399
2.2003517 0.9765601 1.3533888 1.6871139 1.7163006 0.6774168 0.2599603 1.3750597
1.1210017 1.5423619 1.1849372 0.34701842 0.4189589 1.5055834 0.79298586 1.6967885
1.2154155 1.2976357 0.98767674 0.24448319 0.25085622 1.7631437 4.2927985 2.4760208
00000000: 668e 0040 269d 743f 5767 5140 cdd3 853f
00000010: b882 1440 1894 be3f 4efb a13f 8ab2 d13f
00000020: 66bf c53e 2738 8740 0384 d73f a09b 823f
00000030: 3226 0840 995d f03f 7d38 873f 85fc 0540
00000040: 3269 a03f 58c8 363f 7802 0e40 19b3 4a40
00000050: 5951 9c3e 4d11 2740 7f8a 803f 0097 d53e
00000060: 73db d13e f3da 6b40 9c2f 313f 8e58 af3f
00000070: fa2f 923f fa85 3640 d8a4 4740 e11b 0e40
00000080: e20a 3040 cdc4 2f40 dfe6 b53f 81b5 d03f
00000090: 6028 353f 8893 ae40 cb27 c73f 7d1b 7040
000000a0: 1394 833f 1ef6 f73f 0bc1 563e 7d24 7e3e
000000b0: 7b9d aa3f 7b65 fc3f cbca 0b40 4eb0 883f
000000c0: 4a7c db3f b289 943f b133 623f fad5 1740
000000d0: 1450 e43f d685 a13f f568 0040 11bc 2040
000000e0: 0c94 903e 3447 983f 9843 873f 7e99 0340
000000f0: 9400 9e3f b589 d53f adbd cd3f d23e da3f
00000100: 43a1 9d3f 7cf4 213f 5bac 0b40 e012 b03f
00000110: d3fa 823f a65a c33f d8c2 0440 95d2 0640
00000120: d87b 0a40 dbde b13f 5737 ad3f 4fae 2840
00000130: 1fd6 aa3f 37d8 ec3f b17e b43f 4143 0440
00000140: 8e54 9f3f be3a 1140 fcc8 0a3f 1c82 9e3f
00000150: 3c3c 953e 7558 cb3f 7f05 a03e c8f1 2d40
00000160: f8a5 b13f 8459 4540 3a84 0c40 d53b 393f
00000170: d455 8d3f 7035 0a40 80cc b43f 1e60 653f
00000180: abe9 993e d844 9b3e e846 c83f 17ec fd3f
00000190: fd8d ba3f 01b1 f43f 4aa5 e63f 2a21 4e40
000001a0: 240b ce3f dfae a63f c43d dc3f d1f3 0a40
000001b0: a3c3 b03f fd1b 2340 82e2 e13f a1a8 b83f
000001c0: bf23 9c3f fbfb 1640 c509 d73f c8fb 693f
000001d0: 77b1 893f f049 4540 2f29 f83f 62b7 0740
000001e0: 8f8b cd3f 4e3f be3f 2297 3440 f0f2 ba3f
000001f0: 268b 9f3f e78d 813f 957b ba3f 3249 bf3f
00000200: 577f 4b3e bc1d 3540 7f4a 0540 197b c03e
00000210: 65a2 8b3f de69 793f 684a 503e f375 1040
00000220: 6a91 2040 d3fb a03f 1b56 2140 8bfc a53f
00000230: 7ea5 c33f 04a5 923e c9a6 1740 962d 953e
00000240: 063e 973f 8295 be3f 158f c23f 62ca 6b3f
00000250: b1f0 863e cac3 df3f 6d96 6940 51c7 a23f
00000260: 2870 3d40 b566 633f df40 c83f 1468 eb3f
00000270: 1856 f23f 124e ec3e 788c df3e ed97 9c3f
00000280: e102 743f efe6 2e3f d201 453f bf3e 9a3e
00000290: 1324 4240 f080 0940 eab6 e53f b827 0b40
000002a0: 4d0a 873f 7714 6540 f5f8 ad3f 503e 913e
000002b0: fdf0 593f 4c39 3340 e3ba 0f40 1046 d73f
000002c0: ddb4 8a3f 70cb 463f c0dd eb3f 6676 923f
000002d0: 8ac2 863f 74ba 9e3f 666c ca3f 7f62 643e
000002e0: 192f 963f b131 dd3f b574 1040 101f a63f
000002f0: 346c 663f 67ad be3f 4c22 6b3f 2e35 983f
00000300: eb86 de3f 85de 993f b023 8c3f c134 fe3f
00000310: 2a07 8c3e f70f e73f 8df1 e63f 5038 1740
00000320: 3f49 e63f e7b0 913f a297 733e 3e5a 1740
00000330: 36ee 993f 7546 dc3f 015a a23f 636f e73f
00000340: 3ad0 3440 8787 ec3f df9e a43f 3779 2040
00000350: e6e2 d23f db1e aa3f c104 4840 2eb9 1a40
00000360: 9e4e 1140 7613 bd3f 4c76 1440 6889 0d40
00000370: 0f86 ba3f c8d9 e33f 690a 0d40 d16c b03f
00000380: add2 2140 befb 8040 6502 1b40 4c33 7e3f
00000390: db06 f13f 1df0 9f3f 06a1 ac3f fb8c ab3f
000003a0: 90d2 0c40 d8ff 793f d83b ad3f 59f3 d73f
000003b0: bdaf db3f 306b 2d3f 8419 853e f501 b03f
000003c0: fc7c 8f3f 1d6c c53f 06ac 973f 66ac b13e
000003d0: c881 d63e f5b6 c03f 1f01 4b3f 5e30 d93f
000003e0: bc92 9b3f ed18 a63f 62d8 7c3f cd59 7a3e
000003f0: 3a70 803e b1ae e13f 9b5e 8940 2077 1e40

bn2.bias f4 [300]
0.016247634 -0.059774574 0.011327337 -0.2254177 -0.20242526 -0.100887224 -0.4135796 -0.14781803
-0.61614025 -0.12360643 0.027622519 -0.3645761 -0.13156882 -0.22210667 -0.44847673 -0.34431887
-0.21743235 -0.38047147 -0.14757615 -0.05035818 -0.61708677 -0.0570774 -0.15744728 -0.59682447
-0.52312976 -0.07008321 -0.47905248 -0.25199577 -0.16808023 0.112791575 -0.023103198 0.07734213
-0.16445291 -0.39518157 0.16640545 -0.23415676 -0.42924902 0.0898777 -0.01905828 0.25295725
-0.32189876 0.071798675 -0.73498386 -0.7152442 -0.03648861 0.15511318 -0.14840892 -0.14500658
-0.13315734 -0.22644831 -0.13632908 -0.09397833 -0.14773588 -0.26157987 -0.40397438 -0.15122557
-0.6561173 -0.2991389 -0.49244782 -0.34933293 -0.035439517 -0.2986744 -0.13971645 0.028821751
-0.060244985 -0.42220095 0.150097 -0.024621302 -0.22635987 0.05463883 -0.11430379 -0.0515405
0.14037254 -0.29678568 -0.43655705 0.15189844 -0.1540705 -0.27211317 -0.06553984 -0.39975756
-0.11989664 0.018160067 -0.36947522 -0.5186121 -0.6760909 -0.13656275 -0.5833887 -0.08996919
-0.0016057466 -0.06776819 -0.3419792 -0.48159537 -0.23551084 -0.26302597 -0.1615102 -0.20117512
-0.6335533 -0.64503 -0.09746487 0.043242324 -0.45156348 -0.05102044 -0.0857634 0.27395567
-0.32884836 0.25013602 0.029109398 -0.1823182 0.09131798 -0.079678476 -0.053903587 0.0524863
-0.10392168 0.082429916 -0.038201254 -0.46096563 -0.25318465 0.004507185 -0.46140814 -0.14077915
0.078476146 -0.4690482 0.26425913 -0.15639167 -0.29408658 -0.3734655 -0.13737278 -0.1617824
-0.74559605 0.03553774 -0.043561406 -0.58324873 -0.2074807 -0.3497052 -0.7008013 0.051444054
-0.28627348 -0.31120732 0.24135578 -0.4150485 -0.095839255 -0.6881107 0.028625738 -0.771603
-0.29908735 -0.21130994 -0.19960673 -0.34636164 -0.7460623 -0.21584168 -0.06576323 -0.08620688
0.0009611568 -0.23668309 -0.38257906 -0.16408612 -0.6133789 -0.47376898 -0.6178378 -0.62618846
-0.3689459 -0.30871403 -0.325824 -0.70045465 0.26027763 -0.10368499 -0.32448837 -0.16752435
-0.44425523 -0.057679176 -0.4770724 -0.7057352 -0.16419053 -0.1508032 0.05112854 -0.14971423
-0.26816845 -0.629207 -0.158045 -0.42280847 -0.39999995 -0.2270523 -0.067766346 -0.742972
-0.32992136 -0.48378915 -0.17687473 -0.08347711 -0.33065835 -0.18568507 -0.13223805 0.18801005
-0.026568022 -0.17652144 -0.2543499 0.13458422 -0.7031596 -0.17827012 -0.51992154 0.056767557
-0.32418132 -0.027095418 -0.75422066 -0.022733426 -0.2577624 0.0051976256 -0.31093633 -0.25065356
0.07292238 -0.23619904 -0.11418582 -0.0033248824 -0.08309186 -0.22484775 -0.0223535 0.17664313
0.07214597 -0.616205 -0.40156832 0.3027012 -0.02702361 -0.31289935 -0.18626761 -0.09843171
-0.15368761 -0.040180728 0.15507466 0.23849641 -0.32768247 -0.21793936 -0.18715762 -0.26221895
-0.35522568 -0.34059748 -0.28095007 -0.19032112 -0.043768648 -0.4413789 -0.68977493 0.090337716
-0.0721878 -0.058477618 -0.20396405 -0.7019637 -0.5572048 -0.13916406 -0.55849385 0.024729608
0.026493385 0.027485665 -0.77517617 -0.7116234 -0.68829167 0.113750964 0.18313645 -0.17432556
00000000: c219 853c 2fd6 74bd 4b96 393c e6d3 66be
00000010: 9148 4fbe f69d cebd b5c0 d3be 9c5d 17be
00000020: 5ebb 1dbf 5e25 fdbd 9f48 e23c b8a9 babe
00000030: fab9 06be ee6f 63be be9e e5be 904a b0be
00000040: 96a6 5ebe 28cd c2be 341e 17be 6144 4ebd
00000050: 66f9 1dbf fec9 69bd dc39 21be 7dc9 18bf
00000060: d5eb 05bf c987 8fbd 5e46 f5be 9705 81be
00000070: 391d 2cbe 45ff e63d eb42 bdbc 8d65 9e3d
00000080: 5866 28be 3d55 cabe 3166 2a3e cac6 6fbe
00000090: 87c6 dbbe cd11 b83d 1c20 9cbc 9d83 813e
000000a0: eacf a4be 2f0b 933d e727 3cbf 3e1a 37bf
000000b0: 1575 15bd fdd5 1e3e 82f8 17be 9b7c 14be
000000c0: 665a 08be 11e2 67be da99 0bbe b677 c0bd
000000d0: 1348 17be cced 85be bbd5 cebe e0da 1abe
000000e0: 4ef7 27bf bc28 99be 1f22 fcbe c4db b2be
000000f0: 0729 11bd daeb 98be d411 0fbe 981b ec3c
00000100: 72c3 76bd b92a d8be 07b3 193e 9db2 c9bc
00000110: e2ca 67be f7cc 5f3d 1b18 eabd 221c 53bd
00000120: d2bd 0f3e 4bf4 97be 6884 dfbe 448b 1b3e
00000130: a8c4 1dbe 6b52 8bbe c039 86bd 06ad ccbe
00000140: 5f8c f5bd 6cc4 943c db2b bdbe c3c3 04bf
00000150: 4b14 2dbf 1bd7 0bbe f658 15bf c441 b8bd
00000160: ea77 d2ba 0cca 8abd e617 afbe ab93 f6be
00000170: c129 71be 57ab 86be ee62 25be da00 4ebe
00000180: 8d30 22bf b020 25bf a99b c7bd dd1e 313d
00000190: 5433 e7be cffa 50bd b9a4 afbd eb43 8c3e
000001a0: d05e a8be d411 803e d576 ee3c 9fb1 3abe
000001b0: ec04 bb3d 782e a3bd 02ca 5cbd e0fb 563d
000001c0: e4d4 d4bd 04d1 a83d eb78 1cbd b003 ecbe
000001d0: 6ba1 81be 02b1 933b b03d ecbe 6928 10be
000001e0: 1ab8 a03d 1627 f0be f94c 873e 2325 20be
000001f0: 8492 96be df36 bfbe 73ab 0cbe 49aa 25be
00000200: 62df 3ebf 0590 113d 726d 32bd ca4f 15bf
00000210: d275 54be 8f0c b3be b767 33bf 00b7 523d
00000220: 7092 92be 9156 9fbe f825 773e 3d81 d4be
00000230: 5f47 c4bd 0628 30bf 8680 ea3c c687 45bf
00000240: fa21 99be a261 58be b565 4cbe 5056 b1be
00000250: f0fd 3ebf 9a05 5dbe dfae 86bd 3c8d b0bd
00000260: 24f6 7b3a 0d5d 72be 67e1 c3be 3106 28be
00000270: 6606 1dbf d991 f2be 9e2a 1ebf e34d 20bf
00000280: 7ae6 bcbe c40f 9ebe 67d2 a6be ff50 33bf
00000290: 1c43 853e cc58 d4bd 5723 a6be 818b 2bbe
000002a0: 6c75 e3be 0041 6cbd d542 f4be 10ab 34bf
000002b0: 9021 28be 276c 1abe 296c 513d b04e 19be
000002c0: 604d 89be b613 21bf 8cd6 21be 5a7a d8be
000002d0: cbcc ccbe 6680 68be 15c9 8abd 6a33 3ebf
000002e0: 74eb a8be 36b3 f7be a61e 35be 0cf6 aabd
000002f0: 0d4c a9be 3a24 3ebe 6969 07be b585 403e
00000300: 2ea5 d9bc 09c2 34be 263a 82be 72d0 093e
00000310: 4402 34bf 718c 36be 9419 05bf 1985 683d
00000320: 18fb a5be 36f7 ddbc 9b14 41bf 733b babc
00000330: 6ff9 83be d850 aa3b 0c33 9fbe aa55 80be
00000340: 5458 953d 29de 71be 41da e9bd 45e6 59bb
00000350: 112c aabd 7d3e 66be b01e b7bc f0e1 343e
00000360: 44c1 933d 9cbf 1dbf 5d9a cdbe a7fb 9a3e
00000370: 9e60 ddbc 5834 a0be f0bc 3ebe 9096 c9bd
00000380: 4960 1dbe 8c94 24bd e4cb 1e3e 6738 743e
00000390: ffc5 a7be 7f2b 5fbe 3fa6 3fbe 9041 86be
000003a0: 24e0 b5be cb62 aebe b0d8 8fbe 8ae3 42be
000003b0: c146 33bd 6afc e1be 1795 30bf fb02 b93d
000003c0: 33d7 93bd 3a86 6fbd f4db 50be e5b3 33bf
000003d0: f9a4 0ebf 0681 0ebe 74f9 0ebf bf95 ca3c
000003e0: a808 d93c 9e29 e13c f271 46bf f32c 36bf
000003f0: e233 30bf 44f6 e83d 1f88 3b3e 6682 32be
