tmp/ddpg/actor_ddpg.pth (torch, 511239 bytes, 10 tensors)

fc1.weight f4 [400, 11]
0	0x3d476072	0.04867596
1	0xbeae5312	-0.34047753
2	0x3ec9a55a	0.39383966
3	0x3dd6775b	0.10471984
4	0x3ee9f7b5	0.45696798
5	0x3f44d664	0.76889634
6	0x3ef6d0a4	0.48206055
7	0x3eef0695	0.4668471
8	0x3f1c0bbc	0.60955405
9	0x3f1a6aa9	0.60319
10	0x3f189e36	0.5961641
11	0x3f12cd47	0.5734448
12	0xbf33a003	-0.70166034
13	0x3f26d2df	0.65165514
14	0xbd79b1f2	-0.060960717
15	0x3f106730	0.5640745
16	0x3f87585d	1.0573841
17	0x3f6351c4	0.8879664
18	0x3f160f37	0.58616966
19	0x3f4d3c17	0.80169815
20	0x3f3c4a57	0.73550934
21	0x3f417c21	0.7558003
22	0x3f2d9a47	0.67813534
23	0xbf3563ca	-0.7085539
24	0x3ee124fb	0.43973526
25	0xbd3b5290	-0.045733035
26	0x3f354385	0.7080615
27	0x3fa41107	1.2817696
28	0x3f11e622	0.5699178
29	0x3ecb018a	0.39649612
30	0x3ee6667a	0.45000058
31	0x3edf749f	0.43643662
32	0x3efffd7c	0.4999808
33	0x3f30985b	0.68982476
34	0xbf14290b	-0.57875127
35	0x3e6556c9	0.22396387
36	0xbd334470	-0.04376644
37	0x3f0ae6e8	0.54258585
38	0xbf0c53a5	-0.5481513
39	0x3e942160	0.28931713
40	0x3ed7b97b	0.42133698
41	0xbdbede99	-0.09319801
42	0x3e6222e3	0.2208362
43	0x3d5568e6	0.052101992
44	0xbeaabeb7	-0.3334863
45	0x3d5320ae	0.051544838
46	0xbe34f731	-0.17672421
47	0xbe437fbc	-0.19091696
48	0xbee5701b	-0.44812092
49	0x3e4953d5	0.19660886
50	0xbe4f411c	-0.20239681
51	0x3ed84eed	0.42247716
52	0x3edd445c	0.43216217
53	0x3ead25a1	0.3381777
54	0x3f069c34	0.525821
55	0xbebc1c64	-0.3674041
56	0xbe90d3d1	-0.28286603
57	0x3f4f35ea	0.8094164
58	0x3dcd118c	0.100131124
59	0x3f569bfc	0.83831763
60	0x3f1e31e1	0.6179486
61	0x3ed3e7ec	0.4138788
62	0x3ef5efce	0.4803452
63	0x3f2c5eee	0.6733235
64	0x3f24229b	0.64115304
65	0x3f1d51fa	0.6145321
66	0x3ed0243a	0.4065264
67	0xbe42f8c6	-0.19040212
68	0x3ee1f594	0.44132674
69	0xbd137dfc	-0.03600882
70	0x3f19628a	0.59915984
71	0x3f47dcfe	0.7807158
72	0x3f82abdd	1.0208699
73	0x3f598aaa	0.8497721
74	0x3f4439d4	0.7665074
75	0x3f3d78a6	0.7401222
76	0x3f2f7fef	0.68554586
77	0x3f1dbdd3	0.61617774
78	0xbf1befd5	-0.6091283
79	0x3e5a76b1	0.2133434
80	0xbdc24606	-0.09486012
81	0x3f12e94d	0.5738724
82	0x3eadd5b2	0.339521
83	0x3f306fbb	0.6892049
84	0x3f0bd096	0.5461515
85	0xbdb58b16	-0.08864419
86	0x3e4b1024	0.19830376
87	0x3d9c115b	0.07620498
88	0x3f0889ec	0.5333545
89	0xbede03ed	-0.4336237
90	0x3effb3d6	0.4994189
91	0xbe2306ee	-0.15920612
92	0x3f547547	0.8299145
93	0x3f86361a	1.048526
94	0x3f566077	0.83740944
95	0x3ed1a8ab	0.40948996
96	0x3ee9da8e	0.45674556
97	0x3ee5b401	0.44863895
98	0x3ed2fc58	0.41208148
99	0x3eba0fdf	0.36340234
100	0xbed1e68d	-0.4099621
101	0x3f11b5ce	0.56918037
102	0x3c329e1f	0.010901957
103	0x3edeb56a	0.43497783
104	0x3f8f00a7	1.1172074
105	0x3f42c239	0.7607761
106	0x3f33953b	0.7014958
107	0x3f2ffd41	0.6874581
108	0x3f2efdfd	0.68356305
109	0x3f28080c	0.6563728
110	0x3edb6c28	0.42855954
111	0xbf0c6864	-0.5484679
112	0x3efef4e7	0.4979622
113	0xbb7fa4d1	-0.003900815
114	0x3edd6b81	0.4324608
115	0x3f442610	0.7662058
116	0x3f7362c0	0.95072556
117	0x3f55ad4d	0.8346756
118	0x3f0f35d7	0.5594153
119	0x3efe0e2e	0.49620193
120	0x3ef7281c	0.4827279
121	0x3ed936ae	0.4242453
122	0xbf065ca7	-0.52485126
123	0x3f19b2fb	0.6003873
124	0xbbcb85cb	-0.0062110177
125	0x3ee4f553	0.44718418
126	0xbec26e26	-0.37974662
127	0x3f1f6aa5	0.622721
128	0x3efba1d7	0.49146912
129	0x3f26489e	0.64954555
130	0x3f212da3	0.6296026
131	0x3f1ebc96	0.6200651
132	0x3ec05ed4	0.37572348
133	0xbf1dff8c	-0.6171806
134	0x3f12d3b5	0.5735429
135	0xbd830c34	-0.06398812
136	0x3f3f6e0a	0.7477728
137	0xbe45cc59	-0.19316234
138	0x3f646cfc	0.89228797
139	0x3ed9204d	0.42407456
140	0x3ee7259a	0.45145875
141	0x3eef19d7	0.46699402
142	0x3f10caaa	0.5655924
143	0x3ec87ef6	0.39159364
144	0xbf0218f9	-0.50819355
145	0x3f3e31ba	0.74294627
146	0x3c0751a3	0.00825921
147	0x3e8c5c52	0.27414185
148	0x3faa8137	1.3320683
149	0x3f3feccb	0.7497069
150	0x3e89bcb5	0.26901785
151	0x3f6f0408	0.93365526
152	0x3f73cc35	0.9523347
153	0x3f6b5f99	0.91942745
154	0xbe78bf7b	-0.24291794
155	0x3d0837bd	0.03325628
156	0x3c89deb4	0.016829826
157	0x3e85eeeb	0.26158842
158	0x3ed0cc7b	0.40781006
159	0x3e8e4693	0.2778822
160	0x3ec352f1	0.38149217
161	0x3e44ad17	0.19206654
162	0x3e6d88a6	0.23196658
163	0x3ea74a91	0.32674077
164	0x3e49c160	0.19702673
165	0x3eb7cf17	0.35900185
166	0xbeb8817c	-0.3603629
167	0x3f00c502	0.5030061
168	0x3dcf3665	0.10117797
169	0x3f371323	0.71513575
170	0x3ee1e9f3	0.44123802
171	0x3f03943b	0.51398057
172	0x3f2dfe31	0.6796599
173	0xbef4cf0d	-0.47814217
174	0xbeaf643e	-0.34256166
175	0xbe97999e	-0.29609388
176	0x3ea58b84	0.32333004
177	0xbf364429	-0.71197754
178	0x3e9e7d69	0.30955055
179	0x3ddc7846	0.10765128
180	0x3ef266bf	0.47344014
181	0xbe8c97eb	-0.27459654
182	0x3e9f05ad	0.31059018
183	0x3ddc80df	0.10766768
184	0x3e1063a7	0.14100514
185	0x3df9054b	0.12159213
186	0x3e577968	0.21042407
187	0xbe3e4a04	-0.18582922
188	0x3cee38dd	0.029079849
189	0x3c452d25	0.012034689
190	0xbe5e5765	-0.21713026
191	0x3e70542d	0.2346961
192	0x3f02d59c	0.5110719
193	0x3e4b61a9	0.19861473
194	0x3f0db1c4	0.55349374
195	0x3ec7d891	0.39032415
196	0x3e73fe79	0.23827542
197	0x3ee4aa90	0.4466138
198	0x3f03f3de	0.51543987
199	0xbf169e3c	-0.58835196
200	0x3f394b44	0.7238047
201	0xbb18edd6	-0.002333512
202	0x3eee6626	0.46562308
203	0x3f5d932d	0.865527
204	0x3f8a5f2c	1.0810294
205	0x3f91744a	1.1363614
206	0x3f335219	0.70047146
207	0x3f1d69d7	0.61489624
208	0x3f0d0a07	0.55093426
209	0x3fc24c59	1.517955
210	0xbfc5b47e	-1.5445707
211	0x3fb4abe7	1.411496
212	0xbeb0fea0	-0.34569263
213	0x3fd9aef5	1.7006518
214	0x3fbe4dd5	1.4867502
215	0x3f948406	1.160279
216	0x3f8d5b68	1.104352
217	0x3fbbd541	1.4674455
218	0x3fd8995d	1.6921803
219	0x3fc6a98a	1.5520489
220	0x3f461e47	0.7738995
221	0xbf4aec8b	-0.79267186
222	0x3f1f5c67	0.6225037
223	0xbd4886fd	-0.04895686
224	0x3f4597d8	0.7718482
225	0x3f907ed7	1.1288708
226	0x3f837a6b	1.0271734
227	0x3efe6453	0.49685916
228	0x3f03f30a	0.51542723
229	0x3f271086	0.6525959
230	0x3f0a8ac9	0.5411802
231	0x3ebcb7c9	0.36858967
232	0xbe832863	-0.2561675
233	0x3f12c88c	0.5733726
234	0xbd2e33fa	-0.042530037
235	0x3e89d6c9	0.2692168
236	0x3f3c5c28	0.7357812
237	0x3f261226	0.6487144
238	0x3f4659d0	0.77480793
239	0x3f6f0310	0.9336405
240	0x3f617942	0.8807565
241	0x3f550644	0.83212686
242	0xbead7b88	-0.3388331
243	0xbf1dda3a	-0.6166111
244	0x3e81ed83	0.2537652
245	0x3e490b20	0.1963315
246	0x3f2b960f	0.67025846
247	0x3e49f197	0.19721065
248	0x3ee2ae64	0.44273674
249	0x3e4755f9	0.1946639
250	0x3deca9a2	0.115557924
251	0x3d6b916f	0.057511743
252	0x3e894a02	0.26814276
253	0x3f0217b1	0.508174
254	0xbedad106	-0.42737597
255	0x3ecc77fc	0.3993529

fc1.bias f4 [400]
0	0x3ebb8886	0.36627597
1	0x3f1cd57a	0.6126324
2	0x3e9b40ae	0.30322784
3	0x3f01524b	0.50516194
4	0xbde2339f	-0.11045002
5	0x3f46dc5d	0.7768
6	0x3edd6cd4	0.43247092
7	0x3f08d166	0.53444517
8	0x3ec2d156	0.38050336
9	0x3ee9bf4e	0.45653766
10	0x3eed0c64	0.46298516
11	0x3f0fd515	0.5618451
12	0x3f18e388	0.59722185
13	0x3f15dcbe	0.5853995
14	0x3d31a4fc	0.043370232
15	0x3f2b593f	0.66933054
16	0x3ea79b2f	0.32735583
17	0xbd986255	-0.0744063
18	0x3f2b0747	0.6680798
19	0x3fb61636	1.4225528
20	0x3f1062c6	0.56400716
21	0x3f02c525	0.5108207
22	0x3e30707e	0.17230412
23	0x3e989671	0.29802278
24	0x3f057054	0.52124524
25	0x3f09b162	0.5378629
26	0x3f238571	0.6387549
27	0x3ebcb339	0.36855486
28	0x3f308c7d	0.6896437
29	0x3f291a67	0.6605591
30	0x3f37639e	0.7163638
31	0x3efb5d69	0.49094704
32	0x3efcd025	0.49377552
33	0x3f0fa5f5	0.56112605
34	0x3f4067d6	0.7515844
35	0x3f0fcaac	0.5616863
36	0x3edbe6dc	0.4294957
37	0x3ef29d1b	0.47385487
38	0x3f224f7a	0.6340252
39	0x3f4c4f52	0.79808533
40	0x3ebfa4b8	0.37430358
41	0x3ef13ad2	0.4711519
42	0x3e91e946	0.28498286
43	0x3f2ba0f6	0.6704248
44	0x3eded965	0.43525234
45	0x3f04272e	0.51622283
46	0x3f183dd3	0.59469336
47	0x3f0a0a02	0.5392152
48	0x3f067399	0.5252014
49	0x3f0822a2	0.53177845
50	0x3f3a309f	0.7273044
51	0x3eb04012	0.34423882
52	0xbebda8e3	-0.37042913
53	0x3f06cc63	0.5265562
54	0x3efb8e2f	0.49131915
55	0x3f196401	0.5991822
56	0x3eb551ee	0.3541407
57	0x3ece7938	0.40326858
58	0x3ec24006	0.3793947
59	0x3eb8635c	0.36013305
60	0x3f57c894	0.8429043
61	0x3e59a41d	0.2125401
62	0x3ef09fd4	0.4699694
63	0x3f0d8a82	0.5528947
64	0x3eb327ca	0.34991294
65	0x3ef01230	0.46888876
66	0x3eff2808	0.4983523
67	0x3ed9437d	0.42434302
68	0x3efa6a52	0.4890924
69	0x3f2543fb	0.64556855
70	0x3e7ab91c	0.24484676
71	0x3ee7094f	0.4512429
72	0x3f0b04b0	0.5430403
73	0x3f0ce68a	0.55039275
74	0x3ef6fa5b	0.4823788
75	0x3e9e8623	0.30961713
76	0xbedf0006	-0.43554705
77	0x3f095056	0.5363821
78	0x3f3ded38	0.7419009
79	0x3f1d307e	0.6140212
80	0x3e970748	0.29497743
81	0x3f19b59d	0.60042745
82	0x3ed0d8c3	0.40790376
83	0x3f893c44	1.0721517
84	0x3ef929b6	0.48664635
85	0x3f95cfea	1.1704075
86	0x3f05bfbd	0.52245694
87	0xbe805252	-0.25062805
88	0x3ed28c10	0.41122484
89	0x3f2543e4	0.6455672
90	0x3e2b2f46	0.16717252
91	0x3ed49e53	0.41527042
92	0x3f1b7afc	0.60734534
93	0x3eb5037b	0.35354218
94	0x3ee5e548	0.4490149
95	0x3f26c7c8	0.6514859
96	0x3f0a184f	0.5394334
97	0x3f184c7d	0.5949171
98	0x3f023517	0.5086226
99	0x3ef08945	0.46979728
100	0x3f232f01	0.637436
101	0x3ee61a7a	0.44942075
102	0x3ecad93a	0.39618856
103	0x3e40e287	0.18836413
104	0x3f0eea69	0.5582643
105	0x3eb501bf	0.35352895
106	0x3f2e393e	0.68056095
107	0x3ef00e78	0.4688604
108	0x3f107419	0.5642715
109	0x3eea9180	0.45814133
110	0x3ef4dfa0	0.47826862
111	0x3ef6ed78	0.4822805
112	0x3ec08f09	0.37609127
113	0x3eb81eea	0.35961086
114	0x3f107f30	0.5644407
115	0x3f05c966	0.52260435
116	0x3f0b78b0	0.5448103
117	0x3f2f99fe	0.6859435
118	0x3e8ead2b	0.27866492
119	0x3f225f5d	0.6342676
120	0x3f6dd4af	0.92902654
121	0x3f0301ee	0.5117482
122	0x3ece1798	0.40252376
123	0x3ef68615	0.4814917
124	0x3f099784	0.5374682
125	0x3ee5dc2e	0.44894546
126	0x3ece9694	0.40349257
127	0x3f016e90	0.5055933
128	0x3e9263c4	0.2859174
129	0x3e3b97a8	0.18319571
130	0x3f0d1eb9	0.55125004
131	0x3e59bc41	0.2126322
132	0x3f1979b1	0.5995131
133	0x3f1e4bc4	0.6183436
134	0x3f2733ce	0.6531342
135	0x3f05f8ff	0.5233306
136	0xbe8c9aba	-0.27461797
137	0x3f0d7f84	0.552727
138	0x3f32216e	0.6958226
139	0x3ece8bd5	0.40341058
140	0x3e3f6cae	0.18693802
141	0x3e98b9b4	0.2982918
142	0x3f10a787	0.56505626
143	0x3ee74426	0.4516918
144	0x3ecdb585	0.4017755
145	0x3ee4c2a8	0.4467976
146	0x3efd3c0a	0.4945987
147	0x3f3c892e	0.7364682
148	0x3e93efeb	0.2889398
149	0x3f28b981	0.65908056
150	0x3f0663bd	0.5249594
151	0x3f0003ff	0.500061
152	0x3ed568f1	0.41681626
153	0x3ed12407	0.408478
154	0x3e8a43dd	0.270049
155	0x3f363ad3	0.7118351
156	0x3f190abd	0.5978201
157	0x3ef77364	0.48330224
158	0x3ef8112b	0.48450598
159	0x3ee06fcf	0.43835303
160	0x3f382eeb	0.7194659
161	0x3f2a60a9	0.6655374
162	0x3f213bf2	0.62982094
163	0x3f1f638f	0.6226129
164	0x3f0deef8	0.5544276
165	0x3f2dcca8	0.67890406
166	0x3ebe8d72	0.3721729
167	0x3ee8f991	0.45502904
168	0x3f06bda7	0.52633137
169	0x3e981b51	0.2970834
170	0x3f20bd15	0.62788516
171	0x3eac355c	0.3363446
172	0x3ead7a94	0.33882582
173	0x3ef0d305	0.47035995
174	0x3ebe10c6	0.37122172
175	0x3e45918d	0.19293804
176	0x3eb8ed22	0.36118418
177	0xbbad9316	-0.005297075
178	0x3eba2e14	0.3636328
179	0x3eff8e3e	0.4991321
180	0x3ecdef85	0.402218
181	0x3f0ece15	0.55783206
182	0x3f1cae42	0.61203396
183	0x3ee65104	0.44983685
184	0x3f0bca78	0.5460582
185	0x3f2b5f96	0.6694273
186	0x3f59ef86	0.8513111
187	0x3f3869da	0.72036517
188	0x3ef813a5	0.48452488
189	0xbe3bf9c9	-0.18357004
190	0x3efe7546	0.49698848
191	0x3eb35ae2	0.35030276
192	0x3ef15174	0.47132456
193	0x3ed2686b	0.4109529
194	0x3f0cd19a	0.55007327
195	0x3f109172	0.5647193
196	0x3ecb274e	0.39678425
197	0x3eb96742	0.36211592
198	0x3f2f4816	0.6846937
199	0x3ebfe6a7	0.3748066
200	0x3eef0118	0.46680522
201	0x3f3885ee	0.7207936
202	0x3fd072f3	1.628508
203	0x3eecdeec	0.46263826
204	0x3ec2acbb	0.38022408
205	0x3f2782c7	0.65433925
206	0x3f1bdb4a	0.60881484
207	0x3f801e0f	1.0009173
208	0x3f2e988f	0.68201536
209	0x3dc7bb16	0.09752481
210	0x3ee401f7	0.4453275
211	0x3e670c5c	0.22563308
212	0x3f80a9cc	1.0051818
213	0x3f2a7c19	0.6659561
214	0x3f6b0a02	0.91812146
215	0x3f1292ff	0.5725555
216	0x3eb7e337	0.3591554
217	0x3f12df80	0.57372284
218	0x3ef0222d	0.46901074
219	0x3ea1f838	0.31634688
220	0x3eb5f71d	0.35540095
221	0x3f1145f5	0.5674737
222	0x3e625962	0.2210441
223	0x3eeb75e4	0.4598838
224	0x3f20c98b	0.6280753
225	0x3edc90c8	0.4307921
226	0x3f1738ef	0.5907125
227	0x3f14c864	0.5811827
228	0x3f0a4f90	0.5402765
229	0x3e2d9acd	0.16953583
230	0x3f15af1c	0.5847032
231	0x3f3bebe9	0.73406845
232	0x3f103d73	0.56343764
233	0x3f1240a9	0.57129914
234	0x3edeefe9	0.43542412
235	0x3f1945e7	0.5987229
236	0x3ef3eff3	0.47644004
237	0x3d823ef6	0.06359665
238	0x3f01b390	0.50664616
239	0x3ea818c4	0.32831395
240	0x3f4e8809	0.80676323
241	0x3f0f0291	0.5586329
242	0x3f289ea3	0.6586706
243	0x3f682b68	0.9069123
244	0x3e87ad15	0.2649924
245	0x3e96e7eb	0.29473814
246	0x3f4ef5b7	0.8084368
247	0x3f1ff01e	0.62475765
248	0x3b8f3c91	0.0043712338
249	0x3f20573a	0.626331
250	0x3e866087	0.2624552
251	0x3eee0251	0.46486142
252	0x3e8b49b1	0.2720466
253	0x3f067e88	0.5253682
254	0x3f4bdb3c	0.796314
255	0x3f7aed10	0.9801798

fc2.weight f4 [300, 400]
0	0x3fd6c575	1.6779009
1	0x3e874a97	0.26424095
2	0x3fa18176	1.2617633
3	0x3e0317cb	0.12802045
4	0x3f9a5822	1.2058146
5	0x3fa7a32e	1.3096673
6	0x3fd4cf4c	1.6625762
7	0x3f065263	0.5246946
8	0x3fbc7238	1.4722357
9	0x3ff4aada	1.911464
10	0x3f63eda2	0.89034474
11	0x3f998f81	1.1996919
12	0x3f2555bf	0.64583963
13	0x3ff2affd	1.8959957
14	0x3f9f60e1	1.245144
15	0x3f4ccc72	0.7999946
16	0x3f6bc79d	0.9210146
17	0x3f963b05	1.1736761
18	0x3f766cfd	0.9626005
19	0x3f948017	1.160159
20	0x3f88276d	1.0637032
21	0x3ff6cade	1.928066
22	0x3f242486	0.6411823
23	0x3f9602e2	1.171963
24	0x3f486db4	0.78292394
25	0x3fdf29aa	1.743459
26	0x3fc98c3b	1.574592
27	0x400c6436	2.1936164
28	0x3fb00649	1.3751918
29	0x3f816b96	1.0110958
30	0x3fdf84f3	1.7462448
31	0x3f93abf0	1.1536846
32	0x3f7c5ca2	0.98578846
33	0x3fdc9ca0	1.7235298
34	0x4015e5bb	2.3421466
35	0x3fda80c7	1.707055
36	0xbd88a73f	-0.06672525
37	0x3fb5a054	1.4189553
38	0x3f889490	1.0670338
39	0x3f8c4d72	1.0961134
40	0x3f33fd1d	0.70308095
41	0x3fe805a1	1.8126718
42	0x3f6b00cd	0.91798097
43	0x3f9ea5e8	1.239438
44	0x3f8f9778	1.12181
45	0x3fdb956a	1.7154973
46	0x3fc6bb30	1.5525875
47	0x3f6633c9	0.8992277
48	0x3fc8137d	1.5630947
49	0x3f667e21	0.9003621
50	0x3f843c95	1.0330988
51	0x3fb39107	1.4028634
52	0x3f83ce37	1.0297307
53	0x3f6434b3	0.8914291
54	0x40150e84	2.329011
55	0x3f6f1133	0.9338562
56	0x4002dacc	2.0446043
57	0x3f324e22	0.6965047
58	0x3f18da3e	0.5970801
59	0x3fdc127c	1.7193141
60	0x3fb7e193	1.4365715
61	0x3f398acd	0.7247742
62	0x3f05435f	0.52055925
63	0x3eb3c9c1	0.35114864
64	0x3fca4c4b	1.5804533
65	0x3f83c58d	1.0294663
66	0x3fd45f2f	1.6591548
67	0x3fd31290	1.649004
68	0x3f61ff84	0.8828051
69	0x3f85b6d1	1.0446416
70	0x3fb530e4	1.4155545
71	0x3f0631de	0.5241984
72	0x3f9be37a	1.2178795
73	0xbf0257c8	-0.50915194
74	0x3f002993	0.5006344
75	0x3fd498f9	1.6609184
76	0x3f4d9160	0.8029995
77	0x3fba6d66	1.4564636
78	0x3f385d9f	0.72017854
79	0x3fd34764	1.6506162
80	0x3fc8551d	1.5650975
81	0x3fb169dd	1.3860432
82	0xbddeb4c4	-0.10874322
83	0x3ff33e7f	1.9003447
84	0x3f5a62d7	0.8530707
85	0x3f4d6dbe	0.8024558
86	0x3f9cc551	1.2247716
87	0x3f85fe95	1.0468317
88	0x3ef93249	0.48671177
89	0x3ed9dcd9	0.42551306
90	0x3fa65c26	1.2996871
91	0x3fc5bcbb	1.5448221
92	0x3f0b9fc2	0.54540646
93	0x3fe8ea04	1.8196416
94	0x3fca40be	1.5801008
95	0x3f17f231	0.5935393
96	0x3f3b4335	0.73149425
97	0x3f2e75e5	0.6814864
98	0x3ff4fec9	1.9140254
99	0x3f60a077	0.8774485
100	0x3fc6fc24	1.5545697
101	0x3f99d63f	1.2018508
102	0x3fbaa5cd	1.4581848
103	0x3fa92049	1.3212978
104	0x3f86536b	1.0494207
105	0x3fc1dbb1	1.514517
106	0x3fdc3109	1.7202464
107	0x3fe08a1a	1.7542145
108	0x3f992e83	1.1967319
109	0x3fb38ff6	1.4028308
110	0x3f72293a	0.94594157
111	0x3eddb3de	0.4330129
112	0x3fc5dfd3	1.5458931
113	0x3f7f8cac	0.99824023
114	0x3faa9ae5	1.332852
115	0x3f8abe8f	1.0839404
116	0x3fbd7d62	1.4803889
117	0x3f53c9ed	0.8272999
118	0x3fd6ff37	1.6796635
119	0x3f1c2cee	0.6100606
120	0x3fa58506	1.293122
121	0x3f41c5ea	0.7569262
122	0x3ec760d1	0.38941053
123	0x3f86a1ae	1.0518091
124	0x3fa8f3a3	1.3199352
125	0x3f800452	1.0001318
126	0x3f860dc1	1.0472947
127	0x3f1e47f0	0.6182852
128	0x3f1dc0f0	0.61622524
129	0x3f9927c2	1.1965258
130	0x3f94bb4b	1.1619657
131	0x3fb3a9cf	1.4036196
132	0x3f9d762a	1.2301686
133	0x3fac978e	1.3483751
134	0x3f19caf9	0.60075337
135	0x3f90dc3f	1.1317214
136	0x3fb09070	1.3794079
137	0x3f1755d0	0.59115314
138	0x3ff8b47d	1.9430081
139	0x3f795939	0.9740177
140	0x3ee66d18	0.45005107
141	0x3fc60710	1.5470905
142	0x3f1186fa	0.5684658
143	0x3f165c60	0.58734703
144	0x3f079135	0.52955943
145	0x3f2a1482	0.6643754
146	0x3f9a7fd0	1.2070255
147	0x3f8e020b	1.1094373
148	0x3fb9fbba	1.4529946
149	0x3fb84d5b	1.4398607
150	0x3f8be030	1.0927792
151	0x3fcfa1c8	1.6221247
152	0x3fa937f7	1.3220204
153	0x3f84f6f2	1.0387862
154	0x3fab1b3e	1.3367689
155	0x3fb26f17	1.3940152
156	0x3fd67970	1.675581
157	0x3f2219ff	0.63320917
158	0x3fad4705	1.3537298
159	0x3f64d898	0.89392996
160	0x3f44dc45	0.76898605
161	0x3fc36bb8	1.5267248
162	0x3ea0dda1	0.3141909
163	0x3f73ab6a	0.9518343
164	0x3ff8e48c	1.9444747
165	0x3c27fd58	0.010253273
166	0x3eb6ee5b	0.35728726
167	0x3f8daa1d	1.106754
168	0x3f79cbdc	0.9757669
169	0x3fa7120e	1.3052385
170	0x3ee35b6e	0.44405693
171	0x3f3bc6a9	0.73350006
172	0x3fab5aeb	1.3387121
173	0x3ff7c641	1.9357377
174	0x3fb6eb0f	1.4290484
175	0x3fa9968f	1.3249072
176	0x3f8edf57	1.1161908
177	0x3f5636b0	0.83677197
178	0x3ef9a782	0.4876061
179	0x3f6c268d	0.92246324
180	0x3f9bf845	1.2185141
181	0x3ed108ff	0.40827176
182	0x400b77b1	2.1791804
183	0x3f7d222d	0.98880273
184	0x3eba2091	0.3635297
185	0x3f9e1909	1.235139
186	0xbe94233f	-0.2893314
187	0x3f8a1247	1.0786828
188	0x3fa89b72	1.3172438
189	0x3fd0c396	1.6309688
190	0x40086ddf	2.131706
191	0x3fc33f85	1.525376
192	0x3fd66a14	1.6751122
193	0x3f80a9c6	1.0051811
194	0x3fb9fb03	1.4529728
195	0x3fbafa5a	1.4607651
196	0x3f36f510	0.71467686
197	0x3f9950ef	1.1977824
198	0x3f84aec9	1.036584
199	0x3f917bb4	1.1365876
200	0x3f2255ca	0.63412154
201	0x3f860f59	1.0473434
202	0x3f8f0db5	1.1176058
203	0x3ff3b1a7	1.903859
204	0x3f8a33f5	1.0797106
205	0x3fa67b24	1.300633
206	0x3fcc4c86	1.5960853
207	0x3f0fa88b	0.5611655
208	0x3f62366a	0.8836428
209	0x3f925a96	1.1433895
210	0x3fa4a363	1.2862362
211	0x3fd9637e	1.6983488
212	0x3fa35459	1.2760116
213	0x3f406680	0.751564
214	0x3f90e0e1	1.1318628
215	0x3eb74c0d	0.3580021
216	0x3f39b924	0.7254813
217	0x3f378950	0.716939
218	0x3f7c852c	0.98640704
219	0x3f48d9ce	0.78457344
220	0x3fc0e050	1.5068455
221	0x3eec0544	0.46097767
222	0x3fd509ec	1.6643653
223	0x3f1af3a5	0.6052802
224	0x3fb9449d	1.4474064
225	0x3f885242	1.0650103
226	0x3fa66adf	1.3001364
227	0x3faefff8	1.3671865
228	0x3f823222	1.0171549
229	0x3f66d49e	0.9016818
230	0x3fadbcec	1.3573279
231	0x3faaebb5	1.3353182
232	0x3fe960f2	1.823271
233	0x3fa7f242	1.3120806
234	0x3ffa3d66	1.9549987
235	0x3fd273c1	1.6441575
236	0xbeb71fdf	-0.35766503
237	0x3fa72bf1	1.3060285
238	0x3f42c47a	0.7608105
239	0x3fc2bbaa	1.521352
240	0x3f9a397e	1.2048795
241	0x3f666e20	0.9001179
242	0x3fcf951b	1.6217378
243	0x3fb048bf	1.37722
244	0x3fb5962e	1.4186456
245	0x3fbfb03a	1.4975655
246	0x3f3842ff	0.7197723
247	0x3fcba2f7	1.5909108
248	0x3fbab4f5	1.4586474
249	0x3fba4a3d	1.4553906
250	0x3faf7218	1.3706694
251	0xbe677af8	-0.22605503
252	0x3ff37ce0	1.9022484
253	0x3e23c461	0.15992881
254	0x3f5c91a3	0.86159724
255	0x3f6a663d	0.91562253

fc2.bias f4 [300]
0	0x3f9b23e7	1.2120332
1	0x3fb3581f	1.4011267
2	0x3fbb509b	1.4633974
3	0x3f932027	1.1494187
4	0x3fc9c63f	1.5763625
5	0x3fba46e4	1.4552884
6	0x3fc7cb6a	1.5608952
7	0x3fc361d8	1.5264235
8	0x3faf753e	1.3707654
9	0x3fbb33fa	1.4625237
10	0x3fbe83c8	1.4883966
11	0x3fcfa04a	1.6220791
12	0x3fadf7bd	1.3591229
13	0x3fb4488a	1.4084637
14	0x3fc2bcd3	1.5213875
15	0x3fcbf829	1.5935107
16	0x3faa4b61	1.3304254
17	0x3fc1f21f	1.5152014
18	0x3f8a8555	1.082194
19	0x3faf1852	1.3679297
20	0x3fc81cb2	1.5633757
21	0x3fd6c812	1.6779807
22	0x3f9fc7c2	1.2482836
23	0x3faa1dca	1.3290341
24	0x3fdaf819	1.7106963
25	0x3fb6ee65	1.4291502
26	0x3fdc840f	1.7227801
27	0x3fc34da4	1.5258069
28	0x3fb2e413	1.3975853
29	0x3fb17f89	1.3867046
30	0x3f97d62f	1.1862239
31	0x3fc8c46d	1.5684944
32	0x3fa5ef25	1.2963606
33	0x3f9d547e	1.229141
34	0x3fbccf94	1.4750848
35	0x3f9e3be8	1.2362032
36	0x3fca5dfd	1.5809933
37	0x3fc8d1b8	1.5689001
38	0x3facb386	1.3492286
39	0x3f9099b0	1.1296902
40	0x3f8c9b8d	1.098497
41	0x3fc02400	1.5010986
42	0x3fb76c42	1.4329913
43	0x3fa96f8a	1.3237164
44	0x3fb18a41	1.3870317
45	0x3fb2bb71	1.3963453
46	0x3f90f551	1.1324865
47	0x3fb7cc7b	1.4359277
48	0x3fbcf0a8	1.4760942
49	0x3fb2c871	1.396742
50	0x3fb30040	1.3984451
51	0x3fbe2fe5	1.4858366
52	0x3fb97785	1.44896
53	0x3fd4b755	1.6618448
54	0x3fb1cdd8	1.3890944
55	0x3fbdd51f	1.4830664
56	0x3fc2e641	1.5226518
57	0x3fbc769c	1.4723697
58	0x3fced0b2	1.6157439
59	0x3fa3e7ae	1.2805078
60	0x3fbd0f65	1.4770323
61	0x3fdfbec0	1.7480087
62	0x3fbecdfd	1.4906613
63	0x3fa3fd08	1.2811594
64	0x3fdefd5d	1.742107
65	0x3fbd1744	1.4772725
66	0x3fba3b74	1.4549394
67	0x3fa7180f	1.3054217
68	0x3fab8fbc	1.3403239
69	0x3fac7351	1.3472692
70	0x3fbce216	1.4756496
71	0x3facd1e8	1.3501558
72	0x3fb7a7c2	1.4348071
73	0x3fbc5230	1.4712582
74	0x3fadeccb	1.3587888
75	0x3fc1dca8	1.5145464
76	0x3fbb9939	1.4656135
77	0x3fc5ca86	1.545243
78	0x3fbc24e0	1.4698753
79	0x3f99fd67	1.2030457
80	0x3f91ed4b	1.1400541
81	0x3fb3c2ec	1.404386
82	0x3fd4cc47	1.662484
83	0x3fd4cb04	1.6624455
84	0x3fa87390	1.3160267
85	0x3fb2c38b	1.3965925
86	0x3fbee155	1.4912516
87	0x3fa00d53	1.2504066
88	0x3fc664ea	1.5499547
89	0x3f9f2625	1.2433516
90	0x3facd6aa	1.350301
91	0x3fc231b6	1.517142
92	0x3fcc40d0	1.5957279
93	0x3fb2e7ec	1.3977027
94	0x3f88ef3f	1.0698012
95	0x3fa447f7	1.2834462
96	0x3fae3786	1.3610694
97	0x3fcb4c1e	1.5882604
98	0x3fb42786	1.4074562
99	0x3fad1bdb	1.3524126
100	0x3fa545ca	1.2911923
101	0x3fd3d43d	1.6549145
102	0x3fb9423a	1.4473336
103	0x3f96ad7f	1.1771697
104	0x3fb909ed	1.4456154
105	0x3fcc07e1	1.5939904
106	0x3fb0854b	1.3790678
107	0x3fbb1ee4	1.4618802
108	0x3fadad34	1.3568482
109	0x3fbe5938	1.4870977
110	0x3fa81fd3	1.3134712
111	0x3faef544	1.3668599
112	0x3fa6edf9	1.3041373
113	0x3f9467a7	1.1594132
114	0x3f9febee	1.2493875
115	0x3fb1077e	1.3830411
116	0x3fa4d0ae	1.2876184
117	0x3fa89769	1.3171207
118	0x3fa6b68a	1.3024457
119	0x3f984d66	1.189862
120	0x3fb29c4f	1.3953952
121	0x3fce07ce	1.6096132
122	0x3faf69c0	1.3704147
123	0x3fb53c65	1.4159056
124	0x3fb817b6	1.4382236
125	0x3f88f819	1.0700713
126	0x3fbd8a38	1.4807806
127	0x3fc8abff	1.5677489
128	0x3fb5d3a9	1.4205219
129	0x3fbee7e2	1.4914515
130	0x3fb73438	1.4312811
131	0x3fd268ce	1.6438234
132	0x3f8af73c	1.08567
133	0x3fcd6b07	1.6048287
134	0x3fa9affd	1.3256832
135	0x3fc6f1fa	1.5542595
136	0x3fbb3d42	1.4628069
137	0x3fc7b392	1.5601676
138	0x3fb49ff4	1.4111314
139	0x3fe29132	1.770056
140	0x3f8f57e7	1.1198701
141	0x3fcae246	1.5850303
142	0x3fb3df21	1.4052469
143	0x3f9e7d14	1.2381921
144	0x3fb2d54c	1.3971343
145	0x3fb635d8	1.4235182
146	0x3fb1816f	1.3867625
147	0x3fb22e83	1.3920444
148	0x3fabc93d	1.3420788
149	0x3fa6f92e	1.3044794
150	0x3f9fa60e	1.2472551
151	0x3f9b2e02	1.2123415
152	0x3fa38a5c	1.2776599
153	0x3facec62	1.3509638
154	0x3fc1e2c4	1.5147328
155	0x3fb0334e	1.3765657
156	0x3fa5ff4c	1.2968535
157	0x3fba210c	1.4541335
158	0x3fcd4a63	1.6038326
159	0x3fcb689a	1.5891297
160	0x3fc76d87	1.55803
161	0x3f96c476	1.1778705
162	0x3faf056f	1.3673533
163	0x3fa2bf37	1.2714604
164	0x3fc85aef	1.5652751
165	0x3fa6773b	1.3005136
166	0x3fb8899c	1.4416995
167	0x3fb12094	1.3838067
168	0x3fca661f	1.5812415
169	0x3faaca09	1.3342906
170	0x3fcae8aa	1.5852253
171	0x3fad84de	1.3556173
172	0x3faea8e2	1.3645289
173	0x3fa18680	1.2619171
174	0x3fbcfdfb	1.4765009
175	0x3fa68916	1.3010585
176	0x3fd9ede4	1.7025723
177	0x3fc47cf2	1.535063
178	0x3fa8179a	1.3132203
179	0x3fbbaa41	1.4661332
180	0x3fc695f5	1.5514513
181	0x3fa89462	1.3170283
182	0x3fba9a84	1.4578404
183	0x3fb54607	1.4161996
184	0x3fc08e9e	1.5043523
185	0x3fc3ecdf	1.5306662
186	0x3fb43094	1.4077325
187	0x3fc3379f	1.5251349
188	0x3fcac1f9	1.5840446
189	0x3fc054af	1.5025843
190	0x3fce11d9	1.6099197
191	0x3fa907cc	1.3205504
192	0x3fb549ab	1.4163107
193	0x3fa87538	1.3160772
194	0x3fbcc5db	1.4747881
195	0x3fb3915f	1.4028739
196	0x3fa99152	1.3247473
197	0x3fc36702	1.526581
198	0x3f983ce4	1.1893582
199	0x3fa7375a	1.3063767
200	0x3fc86c1a	1.565799
201	0x3fbbb2c5	1.4663931
202	0x3fa596a0	1.2936592
203	0x3fa3024e	1.2735078
204	0x3fdf742b	1.7457327
205	0x3fb39986	1.4031227
206	0x3fb1108c	1.3833175
207	0x3fc84d30	1.5648556
208	0x3fa8d86b	1.3191046
209	0x3fc137e2	1.5095179
210	0x3fd9c746	1.7013938
211	0x3fb2bd5e	1.396404
212	0x3f9b7d23	1.2147564
213	0x3fa38180	1.2773895
214	0x3f9bba87	1.2166299
215	0x3fa530f9	1.290557
216	0x3f8d62f6	1.1045825
217	0x3fc05c61	1.5028192
218	0x3fa30a71	1.2737561
219	0x3fc1b463	1.5133175
220	0x3fb5b912	1.4197104
221	0x3fbda867	1.4817017
222	0x3fb8c9ea	1.4436619
223	0x3fb22393	1.3917106
224	0x3fa46da6	1.2845962
225	0x3fc44f35	1.5336672
226	0x3fb9acbb	1.4505838
227	0x3fb1887d	1.3869778
228	0x3fbbf6fa	1.4684746
229	0x3faf8bdf	1.371456
230	0x3fabaced	1.3412148
231	0x3fbb5083	1.4633945
232	0x3f96f67d	1.1793972
233	0x3fc73411	1.5562764
234	0x3fbd3c2b	1.4783987
235	0x3fc20f63	1.5160946
236	0x3f9f1f9f	1.2431525
237	0x3fd61d6e	1.6727731
238	0x3fbdbb49	1.482278
239	0x3fbd88eb	1.4807409
240	0x3fa5c0a0	1.294941
241	0x3faba381	1.3409272
242	0x3fc48509	1.5353099
243	0x3fb84bb3	1.4398102
244	0x3fbb6357	1.4639691
245	0x3fb8af5b	1.4428514
246	0x3fd707f1	1.6799299
247	0x3f9bb8eb	1.2165807
248	0x3fb2f103	1.3979801
249	0x3fa39bfb	1.2781976
250	0x3fa37ccb	1.2772459
251	0x3fa9c67b	1.3263696
252	0x3facefb5	1.3510653
253	0x3f9759c8	1.1824274
254	0x3fa52448	1.2901697
255	0x3f9f00c3	1.2422107

bn1.weight f4 [400]
0	0x3f84e836	1.0383365
1	0x3f5beb33	0.8590576
2	0x3f2fc6ba	0.6866261
3	0x40021a42	2.0328526
4	0x3fe17b29	1.761571
5	0x3fef4d2f	1.869543
6	0x3fd3bdde	1.6542318
7	0x3fbf28ea	1.4934361
8	0x3f207629	0.626803
9	0x3f940526	1.1564071
10	0x3f8999fa	1.0750115
11	0x3fdb9593	1.7155021
12	0x3f6ab487	0.9168171
13	0x3f85e9b0	1.0461941
14	0x3f677a54	0.9042103
15	0x4050adda	3.260611
16	0x3fb20892	1.3908865
17	0x3fa8db5b	1.3191942
18	0x3f3fdb53	0.7494404
19	0x3e0ff00b	0.14056413
20	0x3f0f16ca	0.5589415
21	0x401c4980	2.441986
22	0x3fd93146	1.6968162
23	0x3f7a5fdb	0.97802514
24	0x3f382165	0.71925956
25	0x3fbf69ca	1.4954159
26	0x3fc1eab4	1.5149751
27	0x3fb2e2a2	1.3975413
28	0x3ec7daea	0.39034206
29	0x3fba04a3	1.4532665
30	0x3fc798f0	1.5593548
31	0x3fc72314	1.555758
32	0x3f980391	1.1876088
33	0x3f9baf1e	1.2162817
34	0x3fe0dc1b	1.7567171
35	0x3fa7c539	1.3107063
36	0x4004e6e6	2.076593
37	0x3f6b8a82	0.9200822
38	0x3f156d8a	0.5837027
39	0x3fef51c6	1.869683
40	0x3ffd6822	1.9797404
41	0x3fd39e46	1.6532676
42	0x3ffa83e1	1.9571496
43	0x3edc4571	0.4302173
44	0x3fd01367	1.6255921
45	0x3fd5ae81	1.6693879
46	0x3f8cd474	1.1002336
47	0x3fbdcf92	1.482897
48	0x3f65c84e	0.89758766
49	0x3f482e61	0.7819577
50	0x3eb9b033	0.36267242
51	0x3fd21125	1.6411482
52	0x3f87561d	1.0573155
53	0x3f189fc1	0.59618765
54	0x40097426	2.1477141
55	0x3f89b2cc	1.075769
56	0x3f9d6dce	1.2299135
57	0x3fac9b8f	1.3484973
58	0x3fbdb6e9	1.4821445
59	0x3fc4f7b3	1.5388092
60	0x3ed4d23b	0.41566643
61	0x40002952	2.002522
62	0x3fa4bf9b	1.2870973
63	0x3f683a70	0.9071417
64	0x40001c95	2.0017445
65	0x3f5f14c7	0.8714108
66	0x3fd2647e	1.6436918
67	0x3f6584b6	0.89655626
68	0x3ff13681	1.8844758
69	0x3f8fb153	1.122599
70	0x3fab34f2	1.3375533
71	0x3fa78077	1.3086079
72	0x3f8599eb	1.0437597
73	0x40234136	2.5508552
74	0x3fdc2f41	1.7201921
75	0x3fcfae3c	1.6225047
76	0x3f9f8fc4	1.2465749
77	0x3ff8544a	1.9400723
78	0x400c9081	2.1963198
79	0x3f36846d	0.71295816
80	0x3fa3135f	1.2740287
81	0x3f1011eb	0.5627734
82	0x402f1c4c	2.736102
83	0x3e63b84a	0.2223827
84	0x3fafb69a	1.37276
85	0x3e7a992f	0.24472497
86	0x3f327573	0.69710463
87	0x3f5775bf	0.8416404
88	0x3f1abe57	0.60446686
89	0x3ff29d46	1.8954246
90	0x3fabd7b2	1.34252
91	0x3f513320	0.81718636
92	0x3f54378b	0.8289725
93	0x3f9caf47	1.224099
94	0x3fa38bb3	1.2777008
95	0x3fab2109	1.3369457
96	0x3f93a988	1.1536112
97	0x3f56f624	0.8396933
98	0x3fda0bcb	1.7034849
99	0x3f52b0bc	0.82300925
100	0x3f8d0ceb	1.1019567
101	0x3fcfa4d7	1.622218
102	0x3fb9b26c	1.4507575
103	0x3fdf8b32	1.7464354
104	0x3f99e3ea	1.2022679
105	0x3f777f04	0.96678185
106	0x40022796	2.0336661
107	0x3fdcf6d2	1.7262824
108	0x3fa2e5b1	1.2726346
109	0x3f963d39	1.1737434
110	0x3faf0b8f	1.3675402
111	0x3fc42fdf	1.5327109
112	0x3f99f34b	1.2027372
113	0x3f5c171d	0.8597277
114	0x3fa2ff50	1.2734165
115	0x3fd10e22	1.6332438
116	0x3fd6cfdc	1.6782184
117	0x3fa12a69	1.2591068
118	0x3f7a597d	0.977928
119	0x3fc0f486	1.5074623
120	0x3eaccd95	0.33750597
121	0x3fc2fb97	1.5233029
122	0x3fb54bd1	1.4163762
123	0x3fd4c6d5	1.6623179
124	0x3f874267	1.0567139
125	0x3f111a94	0.5668118
126	0x3f8e979b	1.1140016
127	0x407b3439	3.9250624
128	0x3fe8a3f5	1.8175036
129	0x3f805253	1.0025123
130	0x3f9b7dc3	1.2147754
131	0x3fa4b442	1.286751
132	0x3fbb19c5	1.4617239
133	0x3f872a44	1.0559773
134	0x3f69f727	0.9139275
135	0x3fa9d815	1.3269068
136	0x3f881310	1.0630817
137	0x3fbb8748	1.465066
138	0x400aa114	2.1660814
139	0x3fa56f19	1.2924529
140	0x3fc3efd9	1.5307571
141	0x3f5eb653	0.86996955
142	0x3f8367cb	1.026605
143	0x40044a2e	2.0670276
144	0x3f889439	1.0670234
145	0x3f9bfe99	1.2187072
146	0x3f28c505	0.6592563
147	0x3f105dce	0.56393135
148	0x3faf3c81	1.3690339
149	0x3fc3d385	1.5298926
150	0x3fb278e4	1.3943143
151	0x3f9085f4	1.1290879
152	0x3f890587	1.0704812
153	0x3f147ce4	0.5800307
154	0x3fcf88c8	1.6213617
155	0x3f40b639	0.7527805
156	0x3fbb4fac	1.4633689
157	0x3f593ada	0.84855425
158	0x3f2418f0	0.6410055
159	0x3f0649bc	0.5245626
160	0x3f681b9d	0.90667135
161	0x3fe37e93	1.7773002
162	0x3f47f1c0	0.78103256
163	0x3f296a83	0.6617815
164	0x3fc0583b	1.5026926
165	0x40299060	2.649437
166	0x3fa92865	1.3215452
167	0x3f727fa8	0.9472604
168	0x3f824136	1.0176151
169	0x3fc6d5ee	1.5534036
170	0x3fe74ea5	1.8070875
171	0x3f5cbd2f	0.8622617
172	0x3fd82d14	1.6888757
173	0x3fbe07ee	1.484617
174	0x3fa5ccab	1.2953085
175	0x3f36e99e	0.7145022
176	0x405a3e5f	3.4100568
177	0x3f6441ee	0.891631
178	0x3fbbec1c	1.468143
179	0x3f10e74f	0.5660295
180	0x3fd2c5df	1.6466635
181	0x3f8271cc	1.0190978
182	0x3fda50b5	1.705588
183	0x3f94cad4	1.1624398
184	0x3fd0ec5b	1.632213
185	0x3f31fab3	0.6952316
186	0x4048b2ee	3.135921
187	0x3f14ec8c	0.5817344
188	0x3f7edf21	0.9955922
189	0x3f6d0de5	0.92599326
190	0x3fb6e107	1.4287423
191	0x3f970987	1.1799783
192	0x3fdd7332	1.730078
193	0x3fa3ebc0	1.280632
194	0x3fbf0203	1.4922489
195	0x3f431ad3	0.76212806
196	0x3f80229a	1.001056
197	0x3f8c8c18	1.0980253
198	0x3f95c318	1.1700163
199	0x3f46bd42	0.77632535
200	0x3f9e9720	1.238987
201	0x3fce97fc	1.6140132
202	0x3e2a49ca	0.16629711
203	0x3fb519ff	1.4148558
204	0x3fbf99cc	1.496881
205	0x3f94de3a	1.1630318
206	0x3f8bf4f0	1.0934124
207	0x40207f93	2.5077865
208	0x3f9a3b7d	1.2049404
209	0x3fda0b25	1.7034651
210	0x3f8952b3	1.0728363
211	0x3f7a1e7b	0.9770276
212	0x3e84e7b9	0.2595804
213	0x3fb05ec5	1.3778921
214	0x3ed75688	0.42058206
215	0x3ee53217	0.44764778
216	0x3fc248c7	1.517846
217	0x3fe4b7aa	1.786855
218	0x3fa80860	1.3127556
219	0x3f54ec84	0.83173394
220	0x3f4a2b3b	0.78972214
221	0x3fcde5e1	1.6085778
222	0x3fbc8f7d	1.4731289
223	0x3f5d5566	0.8645843
224	0x3f1cdd0a	0.6127478
225	0x3f9f0761	1.2424127
226	0x3f3f0a28	0.7462487
227	0x3f50678f	0.8140802
228	0x4071a3ae	3.7756152
229	0x3fc92652	1.571482
230	0x3f805638	1.0026312
231	0x3f18fc05	0.5975955
232	0x4000b6f6	2.011167
233	0x3f0e0316	0.5547346
234	0x3fa9280b	1.3215345
235	0x3fd9ea8f	1.7024707
236	0x40483ddc	3.1287756
237	0x3f78692a	0.9703547
238	0x3f8d20a3	1.1025585
239	0x3f3bc11f	0.73341554
240	0x3ff137cf	1.8845156
241	0x3fd1a4e0	1.6378441
242	0x3f078ca2	0.52948964
243	0x3f6ee5ec	0.9331958
244	0x3f4c9f8d	0.79930955
245	0x3f89c3d2	1.0762885
246	0x3ee7ed97	0.45298454
247	0x3f8e296b	1.110639
248	0x3fa1bda9	1.2636005
249	0x3f4aa1e7	0.79153293
250	0x3f875bac	1.0574851
251	0x402da5f5	2.7132542
252	0x3fcb6265	1.5889403
253	0x3fe9a47b	1.825332
254	0x3ed22c23	0.410493
255	0x405ea052	3.4785352

bn1.bias f4 [400]
0	0xbec01d33	-0.37522277
1	0xbf38395c	-0.71962523
2	0xbef419cf	-0.4767594
3	0xbcc56a93	-0.02409867
4	0xbe8c12f0	-0.27358198
5	0x3e86c2bd	0.2632045
6	0xbe374dfb	-0.17900841
7	0xbec446aa	-0.38335162
8	0xbf0aa4d7	-0.54157776
9	0xbef2cc13	-0.4742132
10	0xbecc1c5b	-0.39865384
11	0xbde88a1f	-0.113544695
12	0xbf07c8fe	-0.53041065
13	0xbe639aae	-0.22226974
14	0xbf0478ae	-0.5174664
15	0x3e274741	0.16335775
16	0xbe4b3a71	-0.19846512
17	0xbebb4037	-0.3657243
18	0xbf004f67	-0.5012116
19	0xbf36a6bb	-0.7134816
20	0xbf35ee94	-0.71067166
21	0xbe050f9c	-0.12994236
22	0xbe8431b0	-0.2581916
23	0xbe21d728	-0.15804732
24	0xbf2acf07	-0.6672215
25	0xbd874b4d	-0.06606159
26	0xbe205574	-0.15657598
27	0xbeab6bf6	-0.33480805
28	0xbf26b940	-0.6512642
29	0xbe8cde63	-0.27513418
30	0xbd8b47c0	-0.068007946
31	0x3cf53bd6	0.029935759
32	0xbe78d724	-0.2430082
33	0xbe90aab9	-0.2825525
34	0xbdfb7b76	-0.12279408
35	0xbe55af31	-0.20867611
36	0xbdf4c79d	-0.11952136
37	0xbf211a89	-0.62931114
38	0xbf1e4950	-0.61830616
39	0x3e171f5c	0.14758056
40	0x3ca2f8f1	0.019894095
41	0xbe3764a9	-0.17909493
42	0x3d8ae823	0.06782558
43	0xbf44243d	-0.76617795
44	0xbdc6fade	-0.09715818
45	0xbc38331a	-0.011242652
46	0xbe57a16a	-0.21057668
47	0xbcad9ef7	-0.021193964
48	0xbeeca9a7	-0.46223184
49	0xbed937f1	-0.42425492
50	0xbf31f9c1	-0.6952172
51	0x3dd95ff6	0.10614006
52	0xbf2e3119	-0.6804367
53	0xbee8af91	-0.45446447
54	0xbe2fc92b	-0.17166583
55	0xbee6c672	-0.45073277
56	0xbeee9c4a	-0.46603614
57	0xbe6efa20	-0.23337603
58	0xbe8ac191	-0.27100804
59	0xbe592d05	-0.2120858
60	0xbef63931	-0.4809051
61	0xbc38ffff	-0.011291503
62	0xbed1be45	-0.40965477
63	0xbf08ffb5	-0.5351518
64	0xbe9cb8ca	-0.30609733
65	0xbf186fc6	-0.5954555
66	0xbe25b784	-0.16183287
67	0xbeb51e20	-0.35374546
68	0xbe6a9c44	-0.22911173
69	0xbe9bdd0c	-0.30442083
70	0xbdfcd752	-0.123457566
71	0xbe9cea14	-0.30647337
72	0xbecb940a	-0.39761382
73	0xbea0e79f	-0.31426713
74	0x3e3a3db3	0.18187599
75	0xbe437b42	-0.19089988
76	0xbf3b23bf	-0.7310142
77	0xbe1b11cc	-0.15143508
78	0x3ec36a39	0.3816698
79	0xbebf0620	-0.3730936
80	0xbe5288d3	-0.20560007
81	0xbefa9e7e	-0.48949045
82	0x3e8fbe73	0.2807499
83	0xbf60d006	-0.8781742
84	0xbebcecad	-0.3689932
85	0xbf42ff55	-0.76170856
86	0xbeee0022	-0.46484476
87	0xbf2365b4	-0.6382706
88	0xbf0d6da5	-0.5524543
89	0x3ea00c70	0.3125949
90	0xbe860642	-0.2617665
91	0xbf01af2c	-0.50657916
92	0xbf15798f	-0.5838861
93	0xbea0ad9e	-0.3138246
94	0xbe17644f	-0.14784358
95	0xbf086377	-0.5327677
96	0xbe77566a	-0.24154058
97	0xbf2ddbff	-0.6791381
98	0xbe277275	-0.16352256
99	0xbeff8ec0	-0.49913597
100	0xbe86faaf	-0.2636313
101	0xbec08928	-0.37604642
102	0xbd1452f9	-0.03621194
103	0xbe1d2f6f	-0.15350126
104	0xbea39761	-0.3195143
105	0xbede0a94	-0.43367445
106	0x3cd31b32	0.025769804
107	0x3c398818	0.011323951
108	0xbe98ca9a	-0.29842073
109	0xbee0b8db	-0.43891034
110	0xbe9ff15a	-0.31238824
111	0xbe3c0412	-0.18360928
112	0xbe73fc75	-0.23826773
113	0xbee33c5f	-0.44381997
114	0xbcb7ae5a	-0.022422004
115	0xbe345d43	-0.17613702
116	0xbda55785	-0.08073334
117	0xbe1161f5	-0.14197524
118	0xbe436c15	-0.19084199
119	0xbec33ca0	-0.3813219
120	0xbf0e3ea3	-0.55564326
121	0xbe4581b6	-0.19287762
122	0xbe242a97	-0.16031872
123	0x3d30b6cc	0.04314308
124	0xbeb5bc4f	-0.3549523
125	0xbf402078	-0.75049543
126	0xbed3bd5e	-0.41355413
127	0xbd3c90a7	-0.04603639
128	0xbda4ed48	-0.0805307
129	0xbf078d22	-0.52949727
130	0xbed9c3dc	-0.4253224
131	0xbe8e953c	-0.27848232
132	0xbe57fd4a	-0.21092716
133	0xbf1a82dd	-0.6035593
134	0xbe58f12b	-0.21185748
135	0xbe1953a3	-0.14973311
136	0xbe848911	-0.25885823
137	0xbea544d7	-0.32279083
138	0xbd8ec810	-0.06971753
139	0xbf053314	-0.52031064
140	0xbeba3699	-0.3636978
141	0xbef8d828	-0.48602414
142	0xbf0ed2f2	-0.55790627
143	0xbea1674b	-0.3152412
144	0xbf0cc8da	-0.54993975
145	0xbebd8f12	-0.37023216
146	0xbec30678	-0.38090873
147	0xbeed5199	-0.46351317
148	0xbea62f03	-0.32457742
149	0xbe321465	-0.17390592
150	0x3cf77587	0.030207409
151	0xbe471dbf	-0.19444941
152	0xbf03712c	-0.5134456
153	0xbf0edc8b	-0.5580527
154	0xbe5104f9	-0.20412053
155	0xbeb41705	-0.35173813
156	0xbdde839e	-0.10864948
157	0xbee2db88	-0.44308114
158	0xbee3de3a	-0.44505483
159	0xbf03cf2b	-0.5148799
160	0xbecbe66a	-0.3982423
161	0xbe1fceb0	-0.15606189
162	0xbf30609f	-0.6889743
163	0xbf4f1b70	-0.8090124
164	0xbe261827	-0.16220151
165	0xbe1a01bd	-0.15039726
166	0xbeeab57d	-0.4584159
167	0xbf585057	-0.8449759
168	0xbeba6f6b	-0.3641313
169	0xbeaf9786	-0.3429529
170	0x3d72d768	0.05928746
171	0xbf03f725	-0.5154899
172	0xbe87672c	-0.264459
173	0xbe6f6b53	-0.23380785
174	0xbf01360b	-0.5047309
175	0xbefe080e	-0.4961552
176	0xbdbf7ed9	-0.09350366
177	0xbee33371	-0.44375184
178	0xbe65a0e8	-0.22424662
179	0xbf14375c	-0.5789697
180	0xbee898fb	-0.45429215
181	0xbf14b7a4	-0.58092713
182	0xbdfadb79	-0.12248892
183	0xbeddbf16	-0.4330985
184	0xbe209726	-0.15682659
185	0xbf2333c2	-0.6375085
186	0x3f33d398	0.7024474
187	0xbf1a4e10	-0.60275364
188	0xbe6ba07e	-0.23010442
189	0xbf038a32	-0.51382744
190	0xbe495525	-0.19661386
191	0xbea42701	-0.32061008
192	0xbda03647	-0.078228526
193	0xbe7e5969	-0.24838795
194	0xbed4c547	-0.4155676
195	0xbeedd5c7	-0.46452162
196	0xbef73601	-0.4828339
197	0xbeca32fb	-0.3949202
198	0x3cf0360e	0.02932265
199	0xbec49d27	-0.38401148
200	0xbef44468	-0.4770844
201	0x3d7436dc	0.05962263
202	0xbf3e0da3	-0.7423956
203	0xbe91c05c	-0.2846707
204	0xbe38b83a	-0.18039027
205	0xbeab4ab8	-0.33455443
206	0xbe281823	-0.16415457
207	0x3f5d95a8	0.8655648
208	0xbd8acded	-0.067775585
209	0xbe5b6778	-0.21426189
210	0xbee9cdcf	-0.45664832
211	0xbed6b617	-0.419358
212	0xbf4cc233	-0.79983824
213	0xbe9a2c19	-0.3011177
214	0xbf450a83	-0.76969165
215	0xbf56c1bf	-0.83889383
216	0xbefaa3f8	-0.48953223
217	0x3dbb3339	0.09140629
218	0x3dde6a28	0.108600914
219	0xbf364cd0	-0.71210957
220	0xbef6dfef	-0.48217723
221	0xbe561241	-0.20905401
222	0xbe44a48c	-0.19203395
223	0xbf2567ba	-0.646114
224	0xbf295248	-0.66141176
225	0xbe61a542	-0.22035697
226	0xbf194cad	-0.5988262
227	0xbf1d8825	-0.61535865
228	0x3d4a197e	0.049340717
229	0xbeaed9b8	-0.3415048
230	0xbedc252f	-0.4299712
231	0xbea29f26	-0.31762046
232	0x3dd66008	0.10467535
233	0xbf22ba54	-0.63565564
234	0xbeaf6f20	-0.3426447
235	0xbe5aade3	-0.21355395
236	0x3eaaf09b	0.33386692
237	0xbee86030	-0.45385885
238	0xbebc180e	-0.36737102
239	0xbed6bd4f	-0.41941306
240	0x3d98abea	0.07454665
241	0xbe39f469	-0.18159641
242	0xbf0415d2	-0.51595795
243	0xbe18f3fb	-0.14936821
244	0xbef522e4	-0.47878182
245	0xbea06c78	-0.31332755
246	0xbf435ff4	-0.7631829
247	0xbe7321cb	-0.2374336
248	0xbeaa63c2	-0.33279234
249	0xbf0dfde3	-0.55465525
250	0xbeacdd80	-0.3376274
251	0x3ecb920b	0.3975986
252	0xbe558c11	-0.20854212
253	0xbe9a6c98	-0.30160975
254	0xbf45ddda	-0.77291644
255	0x3ebd830e	0.3701405

bn2.weight f4 [300]
0	0x400619e4	2.0953302
1	0x40315751	2.7709544
2	0x4057cf05	3.3720105
3	0x3f96c757	1.1779584
4	0x4004954a	2.071612
5	0x3ffa3de3	1.9550136
6	0x401402d9	2.3126738
7	0x403b464e	2.926166
8	0x3f281b02	0.6566621
9	0x4084c0c3	4.1485305
10	0x405df77b	3.46823
11	0x3f37f88e	0.7186364
12	0x403936b9	2.893965
13	0x4048b5a7	3.1360872
14	0x3f8b2f90	1.087389
15	0x4054cf38	3.3251476
16	0x4005a8bc	2.0884237
17	0x401ea58e	2.4788547
18	0x4063e92c	3.5611067
19	0x40637c68	3.5544682
20	0x3ebf7c8a	0.37399703
21	0x4009866f	2.1488302
22	0x3fbf5b07	1.4949654
23	0x3f8416f8	1.031951
24	0x3f14ef34	0.58177495
25	0x405d68bb	3.4595172
26	0x3fa80415	1.3126246
27	0x3fa98982	1.3245089
28	0x3fd7f4eb	1.6871618
29	0x404207f7	3.0317361
30	0x4042e035	3.0449345
31	0x40519657	3.274801
32	0x401fc662	2.4964833
33	0x402167a5	2.521951
34	0x3fd93150	1.6968174
35	0x3ffa3e1a	1.9550202
36	0x3fca0699	1.5783263
37	0x40c9afe9	6.3027234
38	0x403b8256	2.92983
39	0x40985b6c	4.76116
40	0x3fb2fcbc	1.3983378
41	0x40510a5c	3.2662573
42	0x3e4283a8	0.18995535
43	0x3e1db674	0.15401632
44	0x4004c7d7	2.0746973
45	0x4016e553	2.3577468
46	0x40108ccb	2.2585933
47	0x3fd362b5	1.6514498
48	0x40117131	2.2725337
49	0x3fb35420	1.4010048
50	0x3f9a4210	1.2051411
51	0x401c2117	2.4395196
52	0x400f10f4	2.2354097
53	0x3fdcc97c	1.7248988
54	0x40048bfd	2.0710442
55	0x400f1995	2.2359364
56	0x3eef13d4	0.46694815
57	0x3fab4258	1.3379622
58	0x3f313e25	0.6923545
59	0x401220b6	2.2832465
60	0x40162e35	2.3465703
61	0x40165ff9	2.3496077
62	0x400ab038	2.1670055
63	0x40281247	2.6261156
64	0x4005e28d	2.0919526
65	0x3fe91abb	1.8211282
66	0x4036b7ba	2.8549638
67	0x4026dbc1	2.6071627
68	0x3fe7fc3d	1.8123852
69	0x401d0dfd	2.4539788
70	0x4007b0ce	2.1201663
71	0x3ff038d2	1.876734
72	0x3fdeb7e6	1.7399871
73	0x3f9770a8	1.1831255
74	0x4017cb84	2.3717966
75	0x4098d43e	4.7759085
76	0x3fcfb1c0	1.622612
77	0x3ff7a98a	1.9348614
78	0x3fce6ebd	1.6127545
79	0x40169b13	2.353215
80	0x3fcf90a1	1.6216012
81	0x40134751	2.3012278
82	0x3f30d195	0.69069797
83	0x3fba7b3a	1.4568856
84	0x3e368324	0.17823464
85	0x40122eed	2.2841141
86	0x3f19b7ea	0.60046256
87	0x4050636d	3.2560685
88	0x3ffb315a	1.9624436
89	0x40540f1c	3.3134222
90	0x403b69f8	2.9283428
91	0x3f8c9c9b	1.0985292
92	0x3ff39358	1.9029341
93	0x400af76e	2.171352
94	0x400ad0a0	2.1689835
95	0x3fedea9d	1.8587223
96	0x3ede16c2	0.43376738
97	0x3edc044c	0.42972028
98	0x40006e0a	2.0067163
99	0x400b7d3f	2.1795194
100	0x3fac527a	1.346267
101	0x3fe32a77	1.7747334
102	0x40235960	2.55233
103	0x406dc834	3.7153444
104	0x400199f0	2.0250206
105	0x4015abf8	2.3386211
106	0x4021382c	2.5190535
107	0x400d1076	2.2041297
108	0x40227d55	2.5388997
109	0x403143d3	2.7697647
110	0x402d8ccb	2.7117183
111	0x400b0560	2.172203
112	0x3fc2f162	1.5229914
113	0x40476ebc	3.1161337
114	0x400dc549	2.2151663
115	0x3fcac4c4	1.5841298
116	0x3f97a217	1.1846341
117	0x40433881	3.0503237
118	0x400a7b26	2.1637664
119	0x400b22b9	2.1739943
120	0x4000e9f3	2.0142791
121	0x4015740b	2.3352077
122	0x4043a8a8	3.057169
123	0x4019a0a7	2.4004304
124	0x4033b6be	2.8080287
125	0x3fac589d	1.3464543
126	0x3fe5c030	1.7949276
127	0x3fc43a0c	1.5330215
128	0x3e84327a	0.2581976
129	0x4034bb52	2.8239331
130	0x400d055c	2.203452
131	0x3eacc7b0	0.337461
132	0x3fa8e786	1.3195655
133	0x3f863cbc	1.0487285
134	0x3e987a6e	0.29780906
135	0x403119d3	2.7672012
136	0x40165671	2.349026
137	0x3fcee3c0	1.6163254
138	0x403a0086	2.906282
139	0x3faff278	1.374587
140	0x3ffe3c36	1.9862125
141	0x3eed0259	0.46290854
142	0x3fec36c7	1.8454217
143	0x3e888131	0.26661065
144	0x3fc36007	1.526368
145	0x402a2d25	2.6590054
146	0x3ff65c9d	1.9247013
147	0x3f7ff772	0.99986947
148	0x3f01dac9	0.50724465
149	0x3fc5d30f	1.5455035
150	0x40837cfe	4.109008
151	0x40073d96	2.113134
152	0x402d1d77	2.7049234
153	0x3fd6ffb8	1.6796789
154	0x400f91cf	2.2432745
155	0x3fc5601a	1.5419953
156	0x3fc082fe	1.5039976
157	0x3ef5a98e	0.47980922
158	0x3f1108de	0.56654155
159	0x3f930512	1.1485922
160	0x3f71959e	0.9436892
161	0x3f84bcfd	1.0370175
162	0x3f82dfc7	1.0224541
163	0x3ede2874	0.43390238
164	0x404e6d78	3.2254314
165	0x3fec4a02	1.8460085
166	0x40086710	2.1312904
167	0x3fd363cf	1.6514834
168	0x3f8e44fa	1.11148
169	0x40ad3416	5.412608
170	0x3f98c262	1.1934321
171	0x3e9ba4d8	0.30399203
172	0x403303e6	2.797113
173	0x4022b729	2.5424292
174	0x400be47e	2.185821
175	0x401eb59b	2.4798343
176	0x3f91b07d	1.1381985
177	0x3f8fa615	1.1222559
178	0x3ffc4292	1.9707816
179	0x3f8b67cc	1.0891051
180	0x400459e7	2.0679872
181	0x40154cae	2.3328052
182	0x400b2a76	2.1744666
183	0x3ebd0d2e	0.36924118
184	0x3fb8034f	1.437601
185	0x3fee6f55	1.8627726
186	0x3fea1ff0	1.8290997
187	0x401b5ff4	2.4277315
188	0x3f8eccac	1.1156211
189	0x4004fe55	2.0780232
190	0x3f9e9a83	1.2390903
191	0x3f401b75	0.75041896
192	0x40113255	2.268697
193	0x3fc6be71	1.5526868
194	0x3fd610b7	1.6723851
195	0x402eafdf	2.7294843
196	0x3e205ee2	0.15661195
197	0x3ff361c5	1.9014212
198	0x4016ab63	2.3542106
199	0x40136f3f	2.303665
200	0x3fdc6b1a	1.7220185
201	0x3fde8fd7	1.7387646
202	0x3e48b089	0.19598593
203	0x4037db53	2.8727615
204	0x3fb1611d	1.3857762
205	0x4008f651	2.140034
206	0x400a89a0	2.16465
207	0x4006d705	2.1068738
208	0x403622bc	2.84587
209	0x40085931	2.1304438
210	0x3fa903dd	1.3204304
211	0x4028e823	2.6391685
212	0x403f1f3d	2.9862816
213	0x3fadbd40	1.357338
214	0x403f24b2	2.9866147
215	0x40739b77	3.8063638
216	0x40351d2f	2.8299062
217	0x3fb1fbfa	1.3905022
218	0x4025fcf4	2.593564
219	0x401ffe54	2.499898
220	0x400f184b	2.2358577
221	0x3ff79911	1.9343587
222	0x40155d2b	2.3338115
223	0x3ffd8625	1.9806563
224	0x4026512c	2.5987043
225	0x409767f7	4.731441
226	0x4014bad4	2.323903
227	0x3f018ede	0.50608623
228	0x3fc4772b	1.5348867
229	0x3fe36ad7	1.776698
230	0x3fb64f89	1.4243022
231	0x3fde0341	1.7344743
232	0x40149751	2.3217356
233	0x3fa27d6e	1.2694528
234	0x3fb270bc	1.3940654
235	0x3fdb208d	1.7119309
236	0x40211e46	2.5174727
237	0x3f38a2fb	0.7212369
238	0x3ee3b639	0.44474962
239	0x3ff142ef	1.8848552
240	0x3f91972e	1.1374261
241	0x3ffa6b2a	1.9563954
242	0x3f6ac306	0.9170383
243	0x3efd7736	0.49505013
244	0x3f7274cb	0.9470946
245	0x401b1354	2.4230547
246	0x3f0be7cf	0.54650587
247	0x402e5b67	2.7243288
248	0x4034ea58	2.8268032
249	0x4002530c	2.0363188
250	0x3fab6b81	1.3392183
251	0x3e86f73e	0.26360506
252	0x3e9ee219	0.31031874
253	0x403c20be	2.9394984
254	0x408ace31	4.33767
255	0x4052f309	3.2960837
