tmp/ddpg/actor_ddpg.pth (torch, 511239 bytes, 10 tensors)

fc1.weight f4 [400, 11]
000000 36 58 a8 bd f9 57 24 be 8a 1c 74 3e eb 47 dd 3d
       -0.0821995 -0.16049184 0.23839012 0.10804733
000010 4d 03 9e 3e 70 11 bb 3e 7a c8 78 3e c1 d3 71 3e
       0.30861893 0.3653674 0.24295226 0.23615934
000020 54 0a bd 3e 42 b4 cb 3e cb 00 a9 3e 2c 62 5a 3e
       0.36921942 0.39785963 0.33008417 0.21326512
000030 0a 94 83 be 99 88 6d 3e 1e 5f 84 3d 40 51 24 3e
       -0.25698882 0.23196639 0.06463455 0.1604662
000040 21 50 2f 3f 8a 49 b7 3e be 40 f9 3d b8 13 9c 3e
       0.6848164 0.35798293 0.12170552 0.30483794
000050 02 de 84 3e 07 4d 80 3e 08 65 b0 3e 0f f0 7b be
       0.2595063 0.25058767 0.3445208 -0.24603294
000060 af 4f 98 3c 1d 80 9b 3d 3b 4e a3 3e 8c 7f 5c 3f
       0.018592684 0.07592795 0.31895623 0.8613212
000070 2e ed 54 3e f2 49 06 bd e8 c0 70 3d f0 e5 e5 3d
       0.20793602 -0.032785363 0.05877772 0.11225498
000080 24 22 12 3c 54 bb 95 3e 93 9f a5 be fd 92 0c 3d
       0.008919273 0.29244483 -0.32348308 0.034319866
000090 ab c5 c0 3d ff 14 a3 3e 06 e5 29 bf 4d d3 06 bd
       0.09412702 0.31851956 -0.6636509 -0.032916356
0000a0 f0 ae e4 3d 6f ec 77 be ea 36 a1 bd bf 41 0f be
       0.11166179 -0.24211286 -0.07871802 -0.13989924
0000b0 d8 d3 89 be b4 2b 59 3d 8a 89 a6 3d 70 58 3c bd
       -0.26919436 0.053020194 0.08131702 -0.045982778
0000c0 e2 46 8e be 1c 14 5c 3e ac 14 12 3d 0e 2b f7 3e
       -0.27788454 0.21492046 0.035664245 0.48275036
0000d0 f2 13 b9 3e 74 2d b9 3e ec 82 de 3e d9 37 a4 be
       0.3614803 0.3616749 0.4345926 -0.32073858
0000e0 0a 88 0c be 31 af cf 3e 1f 63 9b 3d 62 2d d0 3e
       -0.1372377 0.40563348 0.07587265 0.40659624
0000f0 17 73 c7 3e 99 2c 88 3e 02 b1 8b 3e 7d 4d 99 3e
       0.38954994 0.26596525 0.27283484 0.2994193
000100 02 74 89 3e 90 f2 93 3e 2b 73 3c 3e b2 5f 4f bd
       0.2684632 0.28895998 0.18403308 -0.05062837
000110 da fc 64 3d 54 6e 95 3d 66 fc 80 3e 9f f1 eb 3e
       0.0559052 0.07296434 0.25192565 0.4608278
000120 aa d0 16 3f ae fd e5 3e d7 e3 9a 3e f8 19 b3 3e
       0.58912146 0.44920105 0.30251953 0.3498075
000130 61 ec 98 3e 76 9a b0 3e 2b 06 ad be 8d 90 2c 3d
       0.29867843 0.34492844 -0.33793768 0.042130042
000140 0d 2d 02 3d 1e f9 c3 3d 93 4d 3c 3d a6 5a 9d 3e
       0.031781245 0.09569 0.045972418 0.30733222
000150 1f c2 82 3e 39 5a 33 be 79 c9 9e bd 1f b3 fc bd
       0.25538728 -0.17514886 -0.077532716 -0.12338852
000160 6f 53 79 3e a8 31 46 be 99 d9 0a 3e 75 6a 82 3c
       0.24348234 -0.1935488 0.1355957 0.015919903
000170 a2 9c be 3e 5e c8 34 3f f7 7a df 3e 04 22 ab bc
       0.37228876 0.70618236 0.43648502 -0.020890243
000180 26 a1 2f 3e 58 0b 26 3e ae cf 08 3e b4 51 76 3e
       0.17151317 0.16215265 0.13360474 0.24054605
000190 48 e7 73 be fe 0d d0 3e 81 00 74 3d 61 f7 63 bd
       -0.23818696 0.40635675 0.059570793 -0.05565584
0001a0 73 57 50 3f 92 4e 0a 3f 25 cb ce 3e ad 82 cf 3e
       0.81383437 0.5402614 0.40389362 0.40529385
0001b0 f6 eb d7 3e 15 fe de 3e ef f7 ec 3d c2 a4 42 be
       0.4217221 0.43553224 0.11570727 -0.19008163
0001c0 b2 fb 7b 3e d3 1c 22 3d c8 35 0c 3e 00 6c cb 3e
       0.24607733 0.03957827 0.13692391 0.39730835
0001d0 d5 bc 11 3f fc 1b e0 3e ba 25 7d 3e cc f3 35 3e
       0.5692876 0.4377135 0.24721423 0.17768782
0001e0 fa 3b 78 3e 08 fa 86 3e 17 f0 8f be fc e3 b0 3e
       0.24241629 0.26362634 -0.28112862 0.34548938
0001f0 71 12 ad 3d fc 5e 3c bd da 25 2d bf c3 10 50 3e
       0.08450783 -0.04598902 -0.6763588 0.20318894
000200 7f 28 af 3e 2d aa cf 3e 77 2e b9 3e 19 00 bf 3e
       0.34210584 0.4055952 0.36168262 0.37304762
000210 c1 3f 78 bd fc 6f 89 be 2a 28 22 3e 1e 5f 75 bc
       -0.060607675 -0.2684325 0.15835634 -0.014976291
000220 76 ef fb 3d d0 c7 15 bf 46 ce fc 3e de 6a a5 3d
       0.12301533 -0.58508015 0.49376124 0.08077024
000230 91 d5 da 3c 03 02 b7 3d c7 bd e3 3d 0d 45 ce 3d
       0.026713165 0.089359306 0.111201815 0.10071764
000240 cd 45 8c be 8f 9e af 3e f0 ec a6 3d e4 79 53 3e
       -0.27397004 0.34300658 0.08150661 0.20651966
000250 a1 10 64 3f 58 4b 9b 3e 4f aa d1 bd 11 ca bb 3e
       0.89087874 0.3033092 -0.10237562 0.36677602
000260 3a 86 f0 3e bc 9a bb 3e f3 33 50 be 6e 40 a5 bd
       0.46977407 0.3664149 -0.20332317 -0.080689296
000270 d5 71 9f 3d f5 77 fd 3d b5 3a 0f 3e 89 80 da 3e
       0.077853836 0.123763956 0.13987239 0.4267619
000280 06 a5 e9 3e cf 7d 8b 3e ad d0 98 3e 40 3f a5 3e
       0.45633715 0.27244422 0.29846707 0.32274818
000290 b8 5e 70 3e 2e 1f 83 3e 26 50 62 be d1 ff 39 3e
       0.23473632 0.25609726 -0.22100887 0.18163992
0002a0 c3 5b a9 3d 0a cd c8 3e f0 ed 82 3e be b4 9e 3e
       0.08269455 0.39218932 0.25572157 0.3099727
0002b0 91 94 0c 3f 50 29 34 bf 8d fe 20 bf 54 94 03 bf
       0.54914194 -0.7037554 -0.62888414 -0.51398206
0002c0 87 d4 6f 3e cd 33 d6 be 58 4a 22 3e e8 59 96 3d
       0.23420916 -0.41836396 0.15848672 0.07341367
0002d0 2e d1 94 3e e4 97 84 be 39 20 82 3e d0 2e d3 bd
       0.2906584 -0.25897133 0.2541521 -0.10311663
0002e0 f2 d8 a8 bc 47 f0 b0 3b 47 39 18 bd 14 4c 37 be
       -0.02061126 0.005399737 -0.037164 -0.17900115
0002f0 8c 5c 80 3d b5 55 97 bd 6d ab b5 bd 64 8e 84 be
       0.06267652 -0.07389394 -0.088705875 -0.25889885
000300 7f c3 c1 3e fb 36 5a 3e ad fc e6 3e 4d e8 21 3e
       0.37844464 0.21310036 0.4511465 0.15811272
000310 03 87 2d 3e e4 7b 45 3e b4 94 31 3e e4 60 89 be
       0.16946034 0.19285542 0.17341882 -0.26831734
000320 97 f5 ca 3e 41 5f 57 3d b0 8b 12 3e 0b 23 e6 3e
       0.39640495 0.052581076 0.14311099 0.4494861
000330 ad 6f 14 3f 07 f9 31 3f f7 d7 b4 3e 39 e0 91 3e
       0.57982904 0.6952061 0.35321018 0.2849138
000340 91 20 90 3e 1a e6 ee 3e 80 89 cf be 7b 4f 57 3e
       0.28149846 0.4665993 -0.40534592 0.21026413
000350 1b 56 15 3d 6e 70 02 3f 89 69 d1 3e db 68 ab 3d
       0.03645907 0.50952804 0.4090083 0.08369609
000360 bd 2e 87 bd 2c 9e 90 3e 7d 7f cb 3e 49 04 a5 3e
       -0.066007115 0.28245676 0.39745703 0.32229832
000370 1d fa 96 3e 2f 86 91 be ad 60 07 3e 0c 25 93 3c
       0.29487696 -0.28422686 0.13220473 0.017962001
000380 08 ce 91 3e 7c c6 22 3f 9e fa cf 3e 19 9e 02 bb
       0.28477502 0.63584113 0.40620893 -0.001993066
000390 2f 6e 68 3d 6d 51 03 3e 62 a6 27 3d 95 d5 17 3e
       0.056745704 0.1282403 0.04093016 0.14827569
0003a0 75 0d c3 bd fd 0b 03 3f c4 10 50 3d 2f 57 fc bd
       -0.09524051 0.5119017 0.05079724 -0.123213165
0003b0 7b d0 f2 3e 98 4f b7 3e c5 b9 20 3f c4 ab 35 3f
       0.47424683 0.35802913 0.6278346 0.7096522
0003c0 6d c7 21 3f e3 e9 24 3f 23 20 fc bb b7 06 e4 be
       0.63194925 0.6441938 -0.0076942607 -0.44536373
0003d0 df 78 9d 3a 22 90 bc 3d 11 04 36 3e 70 2f 3b 3e
       0.0012014172 0.09207179 0.17774989 0.18279815
0003e0 ce ec 9d 3e a8 0a 16 bd ef ad 3e be a8 a4 1d be
       0.3084473 -0.036631256 -0.18621038 -0.15394843
0003f0 e5 88 06 be 63 a7 73 3e a9 0c 3b be 77 c5 50 3e
       -0.13138159 0.23794322 -0.18266548 0.20387827

fc1.bias f4 [400]
000000 15 c1 0a 3e 17 d2 42 3e 0d 58 49 bd 42 0d 2e 3e
       0.13550217 0.19025455 -0.049156237 0.16997245
000010 48 4a 0c 3e 90 87 cf 3e 05 72 8e 3d 17 0d 70 3e
       0.13700211 0.40533113 0.06955341 0.23442493
000020 46 77 27 3d c8 e6 a0 3e 4a 35 05 3e 24 d2 c0 3e
       0.040885232 0.31426072 0.1300861 0.37660325
000030 6c a4 59 3e fd 71 86 3e 4e ae 1c 3e 44 2f 9e 3e
       0.21254128 0.2625884 0.15300867 0.30895436
000040 7e 3a 56 3e 1a 38 52 bd 40 0b 94 3e d1 11 67 3e
       0.2092075 -0.051323034 0.28914833 0.2256539
000050 87 43 cb 3d 21 44 cf 3e 04 9d 2d 3d c9 41 ae 3d
       0.09924989 0.40481666 0.04238607 0.08508641
000060 66 e4 0d 3e 2f 3c 75 3e 5f 95 d0 3e 0f da 46 3e
       0.13856658 0.2394874 0.4073896 0.1941912
000070 5a 37 ab 3c c4 90 86 3e 51 27 d6 3e 05 14 c8 3e
       0.020900417 0.26282322 0.4182687 0.39077774
000080 19 d6 6c 3e 7f d5 af 3e 65 7f 97 3e db fb 86 3e
       0.23128547 0.34342572 0.29589382 0.26364025
000090 42 af 9b 3e 37 5a 20 3e 24 f2 33 3e c2 b7 c2 3e
       0.3040715 0.15659414 0.17572838 0.3803082
0000a0 d4 ce 1f 3e 7d 5e a5 3e e7 39 9f 3e 1c 8c 4a 3e
       0.15606242 0.3229865 0.31098863 0.1978001
0000b0 72 29 81 3e 56 f7 ca 3e f1 b1 87 3e 89 f9 6d 3e
       0.25226933 0.39641827 0.26502946 0.23239721
0000c0 b5 8a 1a 3e 2d 73 44 3e 6d b7 5f 3e c0 df dc 3d
       0.15091975 0.19184561 0.21847315 0.107848644
0000d0 e5 22 af bd 63 66 80 3e 71 57 a3 3e 96 1b 78 3e
       -0.085515775 0.25078115 0.3190265 0.24229273
0000e0 94 03 56 3e 8d 03 13 3e c1 4c 8c 3d 0e 52 44 3e
       0.20899802 0.14356823 0.06850577 0.19171926
0000f0 55 7d b7 3e 69 0a 5a 3e 30 de 80 3e 0c 41 14 3e
       0.35837808 0.21293034 0.25169516 0.14477938
000100 77 10 6a 3d 78 0f 03 3e dd 15 9f 3e 2d 82 da 3d
       0.05714461 0.1279887 0.31071368 0.1066936
000110 57 30 b7 3e fd c3 9c 3e 97 ff 22 3e f2 1e 5d 3e
       0.35779068 0.30618277 0.15917812 0.21593836
000120 bc 37 43 3e 8c f6 99 3e 64 b0 e0 3e 57 37 d6 3d
       0.1906423 0.30070913 0.43884575 0.10459774
000130 e4 f9 e7 bd c8 10 65 3e 3a 7a 04 3f 7c 96 79 3e
       -0.1132696 0.22369683 0.51749 0.24373811
000140 b7 af a2 3d bf 32 37 3e f1 d7 2f 3e fa 10 20 3e
       0.07943671 0.17890452 0.17172219 0.15631476
000150 74 9e e8 3d c7 b8 70 3e 22 c9 83 3e 0d 32 1d 3e
       0.113583475 0.23507987 0.2573939 0.15351124
000160 aa 43 d6 3c 57 bd ad 3e 3b f1 76 3e ba ef b5 3d
       0.026155312 0.33933517 0.2411546 0.08883615
000170 b2 02 9e 3e 6e 92 3f 3e 13 1e 79 3e 6a 18 9b 3e
       0.3086143 0.18708202 0.24327879 0.30292064
000180 47 99 9b 3d eb 64 65 3e 68 68 a6 3e e4 87 0a 3e
       0.07597595 0.22401778 0.3250153 0.135284
000190 e1 ed a7 3e 72 8d 96 3e 28 61 46 3d 25 fd 0b 3e
       0.32798675 0.2940479 0.0484325 0.13670786
0001a0 25 49 2f 3e b8 17 33 3e 54 2a 98 3e 95 8b da 3d
       0.17117746 0.17489517 0.29719794 0.106711544
0001b0 07 7f c5 3e 27 63 d0 3d 8e 7d c8 3d 51 46 49 3e
       0.38573477 0.10175162 0.09789573 0.1965573
0001c0 dc a9 2b 3e 30 7f c7 3d 92 39 ba 3e 97 dd bc 3e
       0.16764015 0.09741056 0.36372048 0.3688781
0001d0 06 9c c2 3e b0 8c ba 3e 08 99 2c 3d 95 92 83 3e
       0.3800966 0.3643546 0.04213813 0.2569777
0001e0 c8 19 8c 3e e7 cb 6b 3e a9 fd 5f 3e c2 7f 4c 3e
       0.2736342 0.23027001 0.21874107 0.1997061
0001f0 4f ea a9 3e cb 46 31 bc 89 59 01 3e 6c 02 96 3e
       0.33186576 -0.010820101 0.12631811 0.29298723
000200 4b e5 e5 3d a1 c4 f0 3d 83 67 60 3e f3 b7 72 3e
       0.11225375 0.11756254 0.21914487 0.23702984
000210 60 84 ab 3e 7c 1f c3 3e 44 0e b5 3e 30 be 93 3e
       0.33499432 0.38109958 0.35362446 0.2885604
000220 8b 79 d9 bc 3f 14 38 3e 15 50 f6 3e be c5 49 3e
       -0.026547214 0.17976473 0.48107973 0.19704339
000230 44 95 ae 3d 18 ed b3 3d 2b 15 48 3e 2f 03 53 3e
       0.08524564 0.087854564 0.19539325 0.20606683
000240 f5 25 f2 3d a4 57 bd 3d 13 43 d0 3d e6 b3 ed 3d
       0.11823646 0.09245232 0.101690434 0.116065785
000250 7a b1 45 bd e7 8b d2 3e aa 88 b6 3d fa 26 82 3e
       -0.048264958 0.41122362 0.08912785 0.25420362
000260 86 bf c0 3d e3 7c 1d 3e 81 99 83 3e bc 6c c7 3e
       0.0941153 0.15379672 0.25703052 0.38950145
000270 eb 51 9b 3e 12 5a 12 3e 69 2f 7e 3e db 78 d6 bb
       0.30335936 0.14292172 0.24822773 -0.006545169
000280 7e 9b 9e 3e a2 40 00 3f 4a b5 46 3e 92 44 37 3e
       0.30978006 0.5009862 0.19405094 0.17897251
000290 60 ab 9a 3e ed 48 cb 3e 5d f7 0a 3e 7f aa 2f 3d
       0.30208874 0.39704075 0.13570924 0.042887207
0002a0 a7 c6 c4 3d d4 c2 ba 3c bc f3 7c 3e a6 88 ca bc
       0.096082024 0.02279798 0.24702352 -0.024723362
0002b0 76 df 16 3e ab 3f 36 3e a7 6f 3e 3e 2a 9e 17 bb
       0.14733681 0.17797725 0.1859728 -0.0023135045
0002c0 6e 56 3e 3e 96 f8 05 3e 97 0d 6c 3e 5a 9f 04 3e
       0.18587658 0.1308311 0.23052059 0.12951413
0002d0 c7 5c e4 3d 20 7f 18 3e 28 eb d5 3e 0a 18 da 3d
       0.111505084 0.14892244 0.41780972 0.10649116
0002e0 72 c4 95 3e 62 d0 4a 3e db a3 02 3f f9 42 83 3e
       0.29251438 0.19806054 0.51031274 0.25637034
0002f0 d5 ad 8e 3e 94 fa 91 3d 5d d8 62 3e 68 b8 84 3d
       0.27866998 0.07127872 0.22152849 0.06480485
000300 c2 c1 81 3e 03 f7 89 3d 52 13 89 3e a4 a5 db 3d
       0.25343138 0.06736567 0.26772553 0.10724953
000310 5b 82 e8 3d 07 72 e9 3d 2f c6 ed 3e 10 b2 a8 3d
       0.11352988 0.11398702 0.46440265 0.08237088
000320 b0 06 55 3e 94 ee 1e 3f 78 00 06 3f 52 21 09 3e
       0.20803332 0.6208279 0.52344465 0.13391617
000330 a0 95 a5 3e 81 fe 99 3e 8c bf 42 3e 3d 7b 1b 3f
       0.32340717 0.30076984 0.19018382 0.6073492
000340 63 d7 e1 3e 72 dd 8e 3c d7 a0 73 3d ee c7 ff 3c
       0.4410964 0.017439578 0.05947956 0.031223264
000350 3e 4a 2f 3e c9 eb c1 3e 5a bb 46 3e 99 28 90 3d
       0.17118165 0.37875202 0.19407406 0.070389934
000360 8c 82 01 3e e4 98 3b 3e 1e 82 c6 3d 5f f8 ab 3d
       0.12647456 0.18320042 0.09692787 0.083969824
000370 7c 9a 39 3d fb d9 9b 3e bc 28 e9 3c 7d 79 36 3e
       0.045313343 0.30439743 0.028461806 0.17819782
000380 e2 e8 07 3e 9a 57 ed 3d 01 d2 3b 3e 1c e8 66 3e
       0.13272431 0.11588974 0.18341829 0.2254948
000390 72 2b 67 3e 7a 35 00 3e ad 4f ac 3e 9e 8a b3 3e
       0.22575167 0.125204 0.33654538 0.35066694
0003a0 2a d3 5c 3e c4 2f 28 3e 63 98 8d 3e ac ca dc 3e
       0.21564928 0.16424471 0.27655324 0.43123376
0003b0 d5 aa 74 3e 22 56 f0 3d 70 62 5e 3e 80 ff c2 bc
       0.23893292 0.117351785 0.21717238 -0.023803473
0003c0 41 ee 21 3f e4 66 8a 3e 28 87 57 3e 59 0f d7 3e
       0.6325417 0.27031624 0.21047652 0.42003897
0003d0 5b 59 e7 bb 17 df af 3c c5 87 39 3e 55 87 94 3e
       -0.0070602125 0.021468682 0.18118198 0.290095
0003e0 73 ad 01 bc 77 80 6e 3e 2f 9d 0c 3e 3f 56 3c 3e
       -0.007914889 0.23291193 0.13731836 0.18392275
0003f0 9f 35 82 3e 29 2c 5f 3e b4 e2 6e 3e 03 bd bd 3e
       0.25431535 0.2179419 0.23328668 0.37058267

fc2.weight f4 [300, 400]
000000 e4 dc 1c 3f aa 41 82 3e 74 f2 5c 3f e6 ed ab bb
       0.6127455 0.25440723 0.86307454 -0.0052468656
000010 74 ef fa 3e ca af 00 3f 6d e5 99 3f 9c cd 8d 3e
       0.49010813 0.5026823 1.202314 0.2769593
000020 1a 00 71 3f b8 7c 91 3f 40 de c3 3e 4e d9 19 3f
       0.9414078 1.1366186 0.382555 0.60097206
000030 41 e3 0f 3f 07 c5 3e 3f ee b2 05 3f 70 36 7c 3e
       0.56206137 0.7451939 0.5222615 0.24630141
000040 a0 cf 40 3e f0 62 3a 3f 3f 82 28 3f c2 21 22 3f
       0.18829203 0.72807217 0.6582374 0.6333276
000050 65 49 2d 3f dd de 30 3f 27 17 39 3e 21 ee 28 3f
       0.67690116 0.6909006 0.18075238 0.65988356
000060 1f ce 37 3f ce 37 3c 3f f6 d4 4a 3f 9a 2c 54 3f
       0.7179889 0.7352265 0.792312 0.82880557
000070 a1 3d 32 3f 63 ca a5 3e 20 47 34 3f e0 a6 50 3e
       0.6962529 0.3238097 0.7042103 0.20376158
000080 66 68 02 3f cb b1 2f 3f 6c ba 72 3f c3 81 61 3f
       0.5094055 0.68630666 0.9481571 0.88088626
000090 76 3b 26 3e a8 df 2b 3f c0 db 55 3f 72 5c fb 3e
       0.1623362 0.6713815 0.83538437 0.49093968
0000a0 4b 42 7f 3e 4f b6 55 3f 5c eb 8d 3e ed b1 46 3f
       0.24927633 0.83481306 0.27718627 0.77615243
0000b0 a9 d0 e3 3e b3 35 2a 3f b1 08 4f 3f e0 55 ba 3e
       0.44495133 0.6648819 0.8087264 0.36393642
0000c0 d6 a5 5c 3f c7 13 db 3e 8b 38 62 3f 79 e5 27 3f
       0.86190546 0.42788526 0.8836753 0.6558452
0000d0 a3 d6 e0 3e bf 81 1c 3f b0 39 89 3f 14 29 07 3f
       0.43913755 0.61135477 1.072073 0.52797055
0000e0 da 92 77 3f 84 73 ce 3e 44 e9 be 3e 40 75 53 3f
       0.9670845 0.40322506 0.37287343 0.82600784
0000f0 b2 54 0a 3f 2d f2 61 3e ec 8e 91 3e 67 f4 ac 3e
       0.54035485 0.22065039 0.28429353 0.33780214
000100 b4 31 71 3f 05 ea 38 3f 90 19 3a 3f f7 72 8c 3f
       0.94216466 0.72232085 0.72695255 1.0972584
000110 06 4f f0 3e b0 88 22 3f 17 18 12 3f b6 ca b2 3e
       0.4693529 0.6348982 0.5706801 0.3492028
000120 d9 ee 49 3f e9 90 1f bf 93 32 68 3e 34 3c 80 3f
       0.7888008 -0.6233049 0.22675543 1.0018373
000130 15 a8 23 3f 75 71 36 3f 18 84 1d 3e 9a ec 60 3f
       0.6392835 0.7126687 0.15382421 0.87861025
000140 3c 9e 41 3f 47 eb 6d 3f 2f a7 80 be 5c 1f 8b 3f
       0.7563207 0.9293713 -0.2512755 1.0868945
000150 fa 08 12 3f 1c 1b 4d 3f e7 e0 41 3f 93 c3 2a 3f
       0.5704495 0.8011949 0.757338 0.6670467
000160 98 c8 5c 3f 6c d0 fe bc 88 69 33 3f ad ed 51 3f
       0.8624358 -0.031105243 0.700829 0.8200329
000170 c7 cd ed 3e c1 ea 2e 3f 5f eb 0a 3f b6 bd 07 3d
       0.46446058 0.68326956 0.542654 0.033139907
000180 0e fb bd 3e 73 2d a1 3e 51 f8 68 3f 0e a5 26 3f
       0.37105602 0.31479988 0.910039 0.65095603
000190 06 26 34 3f 51 54 6c 3f cb 28 50 3f fd 72 0b 3f
       0.7037052 0.92316157 0.81312245 0.54472333
0001a0 86 d1 e1 3e e6 78 d7 3e f6 b1 4c 3f 8d 75 78 3f
       0.44105166 0.42084426 0.79959047 0.9705437
0001b0 cf d4 37 3f 06 e8 16 3f a4 4e 21 3f 82 b2 7c 3e
       0.71809095 0.5894779 0.6301062 0.2467747
0001c0 72 48 43 3f 31 0e 2a 3f 4e 5e 02 3f cf a1 a6 3e
       0.7628242 0.66427904 0.5092515 0.32545325
0001d0 79 27 01 3f 39 dc f0 3e aa 6f 1a 3f 9d 09 27 3e
       0.50450855 0.47043017 0.60326636 0.16312261
0001e0 45 56 3e 3f ae 1e ca 3e 0c 0f ec 3d 31 36 77 3d
       0.74350387 0.39476532 0.115263075 0.060354415
0001f0 78 25 0f 3f e7 30 fd 3e 48 db 24 3f 64 e1 67 be
       0.5591655 0.49451372 0.64397097 -0.22644573
000200 1f 10 09 3f 7f 8b c4 3e 60 e1 58 3f af cc dc 3e
       0.53540224 0.38387677 0.84718895 0.4312491
000210 ab 07 49 3f 2b 07 2a 3f 4f 54 02 3f c2 ff 31 3f
       0.78527325 0.6641719 0.50909895 0.6953088
000220 67 44 1a 3f 9a f3 7f 3e d2 05 50 3f 7a 90 e9 3e
       0.60260624 0.2499527 0.8125888 0.4561804
000230 78 27 3c 3d 83 9a 42 3f 0e 57 71 3e dd 8e 8c 3e
       0.045936078 0.76017016 0.23568365 0.27452746
000240 67 bf 8d 3e f5 55 11 3f 8e 6b 40 3f 5d 0e 44 3f
       0.2768509 0.56771785 0.75164115 0.76584417
000250 b3 ed 54 3f 93 81 2e 3f 4e a0 03 3f 9e e2 1a 3f
       0.831752 0.68166465 0.5141648 0.6050204
000260 e6 5e 2c 3f 29 78 46 3f f2 51 10 3f cb 6d 2c 3f
       0.67332304 0.775271 0.5637504 0.6735503
000270 4a f9 19 3f c5 56 ac 3e 22 cf 06 3f 24 86 00 3f
       0.6014601 0.3365995 0.5265981 0.5020468
000280 ec 3f 08 3f 34 d8 23 3f a6 e3 eb 3e ee 03 2a 3f
       0.5322254 0.64001775 0.4607212 0.66412246
000290 86 0a 4c 3f 96 74 4f be 48 73 8a 3e 2b 54 e3 3e
       0.7970356 -0.20259318 0.27041078 0.44400153
0002a0 78 ce 19 3f 2b f5 22 3f 65 93 02 be 88 f9 2c 3f
       0.6008067 0.63655347 -0.12751539 0.67568254
0002b0 d8 9f 49 3f d5 d8 98 3f 68 11 37 3f c8 41 30 3f
       0.7875953 1.1941172 0.71510935 0.68850374
0002c0 14 2c b0 3e a9 22 1b 3e b0 2f a1 3e 42 af f7 3e
       0.3440863 0.1514994 0.31481695 0.483759
0002d0 a4 8e 35 3f 8e 9e b2 3e 97 37 6c 3f f4 af 35 3f
       0.7092078 0.34886593 0.92272323 0.7097161
0002e0 8c 3f 3b bd 9a b7 25 3f d0 f8 2c be cd 22 6b 3f
       -0.0457149 0.6473328 -0.1689179 0.91849977
0002f0 2c bb 08 3f c5 73 5a 3f b1 03 8d 3f fe 5b 25 3f
       0.534106 0.853329 1.1016752 0.64593494
000300 8c 1b 2e 3f e4 25 02 3f 3b 31 24 3f 2e 85 2a 3f
       0.68010783 0.50839067 0.6413762 0.66609466
000310 78 b2 ca 3e de 10 26 3f c6 f2 db 3e 94 09 15 3f
       0.39589286 0.6486949 0.4295866 0.5821774
000320 d7 da 00 3f 5a 79 0a 3f 1b 4f 51 3f 58 df 67 3f
       0.50333923 0.5409142 0.8176133 0.9057517
000330 9a 3d 0a 3f a0 73 1f 3f 45 28 4e 3f 37 b8 51 bd
       0.54000247 0.62285805 0.80530196 -0.05120107
000340 a5 cf bb 3e b3 5b 37 3f be 6a e6 3e 66 e6 4f 3f
       0.36681858 0.71624297 0.45003313 0.81210935
000350 f4 76 76 3f d2 6c 8b 3e 04 86 8a 3f e7 bf 13 3f
       0.9627526 0.2723146 1.0822148 0.57714695
000360 71 39 f5 3e 55 ff 6c 3e 8f b5 91 3e 82 c4 e8 3e
       0.47895387 0.23144276 0.2845883 0.45462424
000370 1e 10 28 3f 46 fb 16 3f 7a e0 5b 3f 68 0f e1 3e
       0.6564959 0.5897716 0.858894 0.43957067
000380 bd ba 7d 3f 18 f5 e1 3e d2 95 56 3f 4a 9d 44 3f
       0.99113065 0.44132304 0.8382236 0.76802504
000390 50 56 f1 3e 85 81 32 3f ef 1a 38 3f be 4b 25 3f
       0.47136164 0.6972888 0.719161 0.645687
0003a0 22 f9 3a 3f fa ca 36 3f ee 5b 60 3f cd 3c 30 3f
       0.73036397 0.7140347 0.87640274 0.68842775
0003b0 90 36 12 bf 60 94 0f 3f 22 36 49 3e 54 21 30 3f
       -0.57114506 0.5608578 0.19649556 0.68800855
0003c0 fe 38 0d 3f d5 95 b3 3e 6b 83 4a 3f 1b ea 21 3f
       0.5516509 0.3507525 0.7910678 0.6324784
0003d0 b0 4c 0b 3f ea a8 86 3f 16 fb 1c 3f c6 73 2c 3f
       0.5441389 1.0520298 0.61320627 0.67364156
0003e0 3f 73 3f 3f ed d0 8e 3f fd 2f 26 3f a3 c7 05 bf
       0.74785227 1.1157509 0.64916974 -0.52257746
0003f0 1a fd 67 3f 72 ae 9c be b2 89 26 3f 9a ea c5 3e
       0.9062058 -0.3060184 0.65053856 0.3865555

fc2.bias f4 [300]
000000 64 ac 16 3f 05 34 3b 3f 8b bc 46 3f d3 37 fd 3e
       0.588568 0.7312625 0.77631444 0.49456653
000010 42 3d 2b 3f d0 0c 59 3f 47 fd 66 3f 6e 87 40 3f
       0.66890347 0.84785175 0.9023022 0.7520665
000020 00 8b 31 3f 91 75 47 3f 16 e8 31 3f 77 be 66 3f
       0.6935272 0.7791377 0.6949476 0.90134376
000030 2f 29 34 3f 9b d4 3e 3f 2c b7 4e 3f c2 ec 45 3f
       0.7037534 0.7454316 0.8074825 0.7731439
000040 51 53 12 3f 3d f9 51 3f e5 80 0c 3f e6 cf 2b 3f
       0.5715838 0.8202093 0.5488418 0.671141
000050 2b d4 6d 3f f5 c6 4e 3f 7c 0d 02 3f b9 8c 27 3f
       0.9290187 0.80772334 0.50801826 0.654491
000060 99 5a 6b 3f 79 dc 3d 3f 17 fd 73 3f 8c 3d 4d 3f
       0.91935116 0.7416454 0.9530806 0.8017204
000070 c9 88 2b 3f 98 41 38 3f 72 56 0b 3f 59 56 44 3f
       0.6700559 0.7197509 0.5442878 0.76694256
000080 69 da 1d 3f f4 d9 0a 3f a1 0e 4e 3f 5e 34 18 3f
       0.6166139 0.5423882 0.8049107 0.59454906
000090 f0 c0 3f 3f 7b 4c 4e 3f 80 84 28 3f 10 cb 24 3f
       0.74903774 0.8058545 0.6582718 0.6437235
0000a0 9d f1 ff 3e 25 13 40 3f 80 11 4e 3f 87 12 59 3f
       0.49989024 0.7502921 0.8049545 0.84793895
0000b0 94 a8 32 3f 87 c8 4b 3f e2 0a 0c 3f 82 a2 2b 3f
       0.6978848 0.79602855 0.54704106 0.6704484
0000c0 2d 1a 22 3f bc f3 f3 3e 58 54 4f 3f 15 8b 2b 3f
       0.6332119 0.47646892 0.80988073 0.670091
0000d0 da e1 38 3f 01 5c 6d 3f da 12 28 3f 61 77 35 3f
       0.7221962 0.9271851 0.65653765 0.7088528
0000e0 60 63 39 3f 2d 53 22 3f 32 4b 65 3f 5d b2 1f 3f
       0.7241726 0.63408166 0.89567864 0.62381536
0000f0 e5 2f 56 3f 5d a1 45 3f 3e 4b 47 3f ac 60 00 3f
       0.8366683 0.77199346 0.77849185 0.5014751
000100 ec 24 4e 3f 87 f5 57 3f 00 38 30 3f 2e 74 0a 3f
       0.8052509 0.8435902 0.6883545 0.54083526
000110 84 99 42 3f 3d 71 2a 3f f8 a3 44 3f 75 96 37 3f
       0.76015496 0.6657904 0.76812696 0.71713954
000120 55 6c 3f 3f 0d fe 44 3f 49 9c 3a 3f 70 2c 43 3f
       0.74774677 0.7695015 0.7289472 0.7623968
000130 a3 13 3c 3f 56 25 3a 3f c7 91 43 3f 57 1a 13 3f
       0.73467463 0.7271322 0.76394314 0.57462066
000140 47 e2 04 3f dd 55 35 3f fb 7e 51 3f d6 31 3f 3f
       0.5190777 0.7083414 0.8183438 0.7468542
000150 6a da 5f 3f 04 12 45 3f 89 4c 7b 3f 89 a1 2b 3f
       0.8744265 0.76980615 0.9816366 0.6704336
000160 e7 b7 33 3f 4a 47 19 3f a7 65 3e 3f 8f 09 49 3f
       0.7020249 0.59874403 0.7437386 0.7853021
000170 03 c1 5a 3f de 7a 43 3f 09 a0 e1 3e 57 1c 3c 3f
       0.8545076 0.76359355 0.4406741 0.73480743
000180 26 d1 66 3f 5e 5f 58 3f 24 51 3f 3f 27 73 49 3f
       0.90162885 0.8452052 0.74733186 0.78691334
000190 ce bf 06 3f 9a 4d 66 3f ea ec 35 3f 39 47 29 3f
       0.5263642 0.8996216 0.7106463 0.661243
0001a0 ee ac 3f 3f 34 76 49 3f b1 15 2e 3f ba 8b 47 3f
       0.74873245 0.7869599 0.6800185 0.7794758
0001b0 1f ca 1f 3f e8 49 38 3f e3 80 0b 3f 9b 03 2e 3f
       0.6241779 0.7198777 0.5449354 0.6797425
0001c0 41 1f 2c 3f c4 52 16 3f ca d6 11 3f f1 a9 3c 3f
       0.6723519 0.5872004 0.5696837 0.7369681
0001d0 33 b7 3a 3f f1 a9 26 3f 73 70 2d 3f f2 4e 24 3f
       0.7293579 0.6510306 0.6774971 0.6418296
0001e0 83 19 1a 3f 5b 9a 5c 3f 97 46 3a 3f af a0 42 3f
       0.6019518 0.8617303 0.7276396 0.76026434
0001f0 c2 43 55 3f b8 d6 de 3e a0 da 30 3f 01 ea 3f 3f
       0.83306515 0.43523192 0.69083595 0.74966437
000200 04 b0 59 3f fd 87 54 3f 70 ca 31 3f 9f 72 64 3f
       0.85034204 0.8302 0.6944952 0.892374
000210 f5 0f 07 3f d6 83 51 3f 38 78 4d 3f 99 1c 44 3f
       0.52758723 0.8184179 0.80261564 0.76606137
000220 e6 bc 42 3f fc 4e 49 3f 74 5c 34 3f 55 cc 34 3f
       0.76069486 0.78636146 0.7045357 0.70624286
000230 71 cd f9 3e 9b de 5b 3f 45 07 37 3f 1f b5 57 3f
       0.48789552 0.85886544 0.7149547 0.84260744
000240 0d f6 48 3f ed 3e 48 3f 4e f5 e5 3e 4f e8 31 3f
       0.78500444 0.7822102 0.44913715 0.694951
000250 f6 18 52 3f cb cd 15 3f 1b fd 2a 3f f8 cb 13 3f
       0.8206934 0.5851714 0.6679246 0.57733107
000260 38 d1 10 3f d1 4a 33 3f 21 1e 64 3f d9 2a 32 3f
       0.5656924 0.70036036 0.89108473 0.6959663
000270 17 cc 27 3f 00 22 4c 3f 65 c3 59 3f 7a 34 51 3f
       0.6554579 0.7973938 0.85063773 0.817207
000280 29 2c 4f 3f 74 33 35 3f 3d 55 49 3f 5c 3e 34 3f
       0.8092676 0.70781636 0.7864569 0.7040765
000290 d9 d2 40 3f 78 e1 21 3f 7a 02 2b 3f cb 4e 38 3f
       0.7532173 0.63234663 0.66800654 0.7199523
0002a0 1d 05 4f 3f a2 d1 38 3f d7 08 6c 3f 78 6e 43 3f
       0.8086718 0.72194874 0.9220099 0.76340437
0002b0 80 72 2b 3f a2 6f 2a 3f a4 74 2a 3f e2 a7 11 3f
       0.6697159 0.6657659 0.6658423 0.56896794
0002c0 46 25 5c 3f 6e f5 51 3f f1 e8 12 3f 3c 8c 17 3f
       0.85994375 0.8201512 0.5738669 0.59198356
0002d0 b0 4a 51 3f eb 71 10 3f 12 15 3b 3f 16 65 42 3f
       0.8175459 0.56423825 0.73079026 0.75935495
0002e0 8a 22 3b 3f 9a de 52 3f ae 57 32 3f 65 5b 23 3f
       0.7309958 0.82370913 0.6966504 0.6381133
0002f0 0d d9 5f 3f 65 34 32 3f 2c 13 5a 3f da cb 34 3f
       0.8744057 0.696112 0.85185504 0.7062355
000300 08 c2 2c 3f 93 65 2b 3f c8 ac 42 3f 4e 1c 0d 3f
       0.6748357 0.66951865 0.76044893 0.55121315
000310 0d 1b 4e 3f 4d ce 35 3f f3 05 1c 3f 48 f3 3e 3f
       0.80510026 0.71017915 0.6094658 0.7458997
000320 65 e4 56 3f 9e 4f 49 3f 37 e5 52 3f 42 cf 24 3f
       0.8394225 0.7863711 0.82381004 0.6437875
000330 b9 f8 46 3f ac 69 27 3f f9 11 43 3f 68 04 3c 3f
       0.7772327 0.6539562 0.761993 0.73444223
000340 1f 67 2e 3f e6 11 35 3f f6 aa 51 3f 3b 1d 2d 3f
       0.681261 0.70730436 0.8190149 0.6762273
000350 b5 86 13 3f d7 f2 0d 3f 4a 40 0d 3f 04 6f 33 3f
       0.5762742 0.5544867 0.5517622 0.7009127
000360 73 d6 07 3f ff 29 2f 3f 0b d4 1a 3f ac 7f 46 3f
       0.530616 0.68423456 0.604798 0.7753856
000370 9f 98 10 3f de c2 47 3f f0 71 28 3f 01 51 26 3f
       0.5648288 0.7803172 0.65798855 0.6496735
000380 03 91 30 3f ba bf 44 3f 9f d0 40 3f cc f4 23 3f
       0.6897127 0.7685505 0.7531833 0.64045405
000390 bc a9 16 3f 53 a0 26 3f 49 9b 20 3f 93 7a 3a 3f
       0.58852744 0.65088385 0.62736946 0.72843283
0003a0 24 26 19 3f eb eb 36 3f 68 e4 3b 3f 9b 6b 3b 3f
       0.5982382 0.7145373 0.73395395 0.7321107
0003b0 43 38 2f 3f 24 d8 5f 3f 26 cb 53 3f 36 e3 4f 3f
       0.68445224 0.8743918 0.82731855 0.8120607
0003c0 df 0b 12 3f 81 55 37 3f af 3b 24 3f 3a 56 42 3f
       0.57049364 0.71614844 0.6415357 0.7591282
0003d0 c1 5f 44 3f e8 80 52 3f d4 2e 54 3f 16 89 34 3f
       0.7670861 0.82227945 0.82883954 0.70521677
0003e0 11 c7 26 3f 12 35 2f 3f aa dd 1d 3f 22 84 53 3f
       0.651475 0.68440354 0.6166636 0.82623494
0003f0 18 de 45 3f 74 16 fd 3e f0 51 3d 3f 3f bb 27 3f
       0.77292013 0.49431193 0.7395315 0.6552009

bn1.weight f4 [400]
000000 3f 8e 8d 3f db 68 66 3f bc 6e 3d 3f 38 51 d0 3f
       1.1059035 0.90003747 0.7399709 1.6274786
000010 cf 9c 01 40 f6 9d c2 3f f5 73 9e 3f cd a2 a2 3f
       2.0251958 1.5204456 1.2379137 1.2705933
000020 b8 07 39 3f 12 84 89 3f e2 3f 8c 3f ec 17 c2 3f
       0.722774 1.074343 1.0956995 1.516355
000030 db 81 95 3f 74 42 5d 3f d7 99 9f 3f 25 74 41 40
       1.1680254 0.86429524 1.2468823 3.022714
000040 23 4e a6 3f 44 cc d4 3f 3a 3a 36 3f 1b 97 d9 3e
       1.2992595 1.6624837 0.71182597 0.42498097
000050 ea fa 33 3f 81 d7 0e 40 dc 51 af 3f 1f af 6b 3f
       0.7030474 2.2319033 1.3696856 0.9206409
000060 bd e4 37 3f 40 a8 88 3f 54 44 91 3f ac 9c 9e 3f
       0.718334 1.0676346 1.1348977 1.2391562
000070 10 a0 d1 3e a7 7f a6 3f bb df 9b 3f 63 eb 9f 3f
       0.4094243 1.3007706 1.2177652 1.2493709
000080 ec bc 84 3f 30 a1 8a 3f ae ff 8b 3f a2 a8 86 3f
       1.0370154 1.083044 1.0937402 1.0520213
000090 77 2e bc 3f 37 2e 94 3f d3 13 08 3f 68 9b e3 3f
       1.470168 1.1576604 0.5315525 1.7781801
0000a0 cb 8f d2 3f 46 af bb 3f c3 77 ed 3f b2 72 e6 3e
       1.6450132 1.4662864 1.8552173 0.4500938
0000b0 eb 44 9f 3f 71 34 96 3f 6b ff 93 3f af 19 ac 3f
       1.2442907 1.1734754 1.1562322 1.3445338
0000c0 3b 53 7d 3f b1 20 5e 3f aa 79 a7 3e 32 16 95 3f
       0.98955125 0.86768633 0.3271001 1.1647398
0000d0 3a 28 b2 3f 10 c8 39 3f c7 d1 fd 3f 7f 70 77 3f
       1.3918526 0.72570896 1.9829644 0.9665603
0000e0 22 88 9c 3f 3c 64 8c 3f 7d fa a4 3f 48 75 ba 3f
       1.2229044 1.0968089 1.2888943 1.4567041
0000f0 cd 7e 0a 3f ff 95 f5 3f 71 e3 b7 3f 21 9e 70 3f
       0.5409973 1.91864 1.4366285 0.93991286
000100 c8 86 f0 3f 9c 8d 56 3f 4c d4 a5 3f d0 b1 55 3f
       1.8791132 0.8380983 1.2955413 0.83474445
000110 dd a7 cd 3f f2 36 9e 3f 81 14 90 3f 0e ea c3 3f
       1.6066853 1.2360518 1.1256257 1.5305803
000120 49 9a 65 3f 2d da 2b 40 7b 4c e3 3f f7 9b b4 3f
       0.89688545 2.6851914 1.7757715 1.4110097
000130 62 08 d9 3f 46 80 c1 3f 48 46 e7 3f 1b e3 3a 3f
       1.6955683 1.5117271 1.8068323 0.73002785
000140 e1 c0 a7 3f 5f cc 1b 3f 4f b0 06 40 82 f5 b6 3e
       1.3105737 0.6085872 2.104511 0.35734183
000150 52 59 a1 3f ba 76 a4 3e 0d 39 34 3f 8e 54 7f 3f
       1.2605383 0.3212183 0.7039955 0.99738395
000160 4b 06 02 3f 21 db e0 3f db 6e bc 3f b6 fc 63 3f
       0.5079085 1.7566873 1.472133 0.8905748
000170 6b 51 69 3f 70 24 9d 3f eb aa 88 3f e4 38 b5 3f
       0.9113986 1.2276745 1.067716 1.4157987
000180 1c b5 72 3f a0 cd 77 3f 66 63 bc 3f 5e 0e 54 3f
       0.948076 0.96798134 1.4717834 0.8283442
000190 7a 2d 77 3f cb cf c3 3f a2 02 83 3f 43 ed bf 3f
       0.96553767 1.5297788 1.0235178 1.4994282
0001a0 4b 2f 89 3f 03 f0 86 3f 5f 8a ed 3f b9 4c b8 3f
       1.0717558 1.0541996 1.8557853 1.4398414
0001b0 c4 be a5 3f 23 3d 89 3f 37 fe 98 3f c9 c2 a4 3f
       1.2948842 1.0721782 1.195258 1.2871944
0001c0 41 5c 79 3f 9e 67 4f 3f 91 da 94 3f 5c 82 b3 3f
       0.97406393 0.8101748 1.1629201 1.4024158
0001d0 50 ef c8 3f 34 e3 75 3f fb 06 55 3f 08 f0 ac 3f
       1.5698032 0.9604981 0.83213776 1.3510752
0001e0 3b f3 15 3f 4c 62 cc 3f 8d 66 be 3f da db bf 3f
       0.58574265 1.5967498 1.4875046 1.4988968
0001f0 ac 6d 7a 3f 4b c2 10 3f 49 5f a7 3f 18 4a 30 40
       0.97823596 0.5654647 1.3075954 2.7545223
000200 cb bd 9a 3f 4d 77 88 3f 9b 1c 92 3f 40 c1 ce 3f
       1.208917 1.0661408 1.141498 1.6152725
000210 b7 af a1 3f 21 4f 88 3f 8d 0a 56 3f 8a e8 70 3f
       1.2631749 1.0649148 0.8360985 0.94104826
000220 e3 03 a3 3f b4 71 b7 3f 2a 41 e6 3f 13 38 a7 3f
       1.2735561 1.4331574 1.7988636 1.3063987
000230 72 00 a9 3f 3e 69 3d 3f a3 1e 83 3f d1 69 da 3f
       1.3203261 0.7398871 1.0243725 1.7063543
000240 01 6c 87 3f 59 b5 95 3f 09 5b 26 3f 54 ff 0c 3f
       1.0579835 1.1695968 0.6498266 0.550771
000250 76 9a ae 3f 1a 63 9d 3f 08 4d 9c 3f 9f 7f 8d 3f
       1.3640888 1.2295868 1.2211008 1.1054572
000260 c0 7f 95 3f cb d0 10 3f ef 69 f5 3f 5e b2 48 3f
       1.1679611 0.5656859 1.9172953 0.78397167
000270 59 2b 83 3f cd fc 6d 3f 0f 34 3b 3f cb ba 3b 3f
       1.0247604 0.9296387 0.7312631 0.733319
000280 04 bf 52 3f 48 35 c2 3f 86 d2 4d 3f 42 56 44 3f
       0.82322717 1.517251 0.8039936 0.7669412
000290 b7 fb 89 3f 92 43 1a 40 8a 54 9c 3f 1b 8e 95 3f
       1.0779942 2.4103742 1.2213299 1.1683992
0002a0 0a 2f 81 3f 3d 8c b0 3f 35 28 cc 3f 60 bf 41 3f
       1.009248 1.3792797 1.594977 0.7568264
0002b0 c9 55 b0 3f 31 23 af 3f 96 ce b3 3f 45 47 48 3f
       1.377618 1.3682615 1.404742 0.7823375
0002c0 e4 e4 17 40 05 48 67 3f 11 1f b3 3f 94 63 2d 3f
       2.3733454 0.9034427 1.3993856 0.6773007
0002d0 30 44 c2 3f ef 0a 75 3f 49 8d ac 3f 69 a0 91 3f
       1.5177059 0.9571981 1.3480617 1.1377078
0002e0 8f 4f b8 3f ae 21 54 3f 9a f2 2d 40 b7 56 0c 3f
       1.4399279 0.8286389 2.7179322 0.54819816
0002f0 ae 3b 68 3f 1a 62 82 3f d3 ed 9a 3f 6b 99 96 3f
       0.90716064 1.0186188 1.2103828 1.176557
000300 11 d4 b3 3f 8d 54 95 3f 0b 18 af 3f 2a 54 58 3f
       1.4049093 1.1666428 1.3679212 0.84503424
000310 42 7b 87 3f 9f ee 91 3f e8 8a 9e 3f c4 32 4d 3f
       1.058449 1.1400946 1.2386141 0.8015559
000320 73 eb 93 3f 8e fe b9 3f fe f9 0c 3f fa 2e ad 3f
       1.1556228 1.4530809 0.5506896 1.3529961
000330 53 c4 9a 3f 0c bf 84 3f 43 61 56 3f 1f 72 0d 40
       1.2091163 1.0370803 0.8374216 2.2100904
000340 d5 77 78 3f e9 97 c7 3f 4c a9 84 3f 9c 83 78 3f
       0.9705785 1.5593234 1.0364165 0.9707582
000350 0f 78 c9 3e 32 73 b2 3f 5f d3 ed 3e 3e 2b 04 3f
       0.3934941 1.3941405 0.46450326 0.5162848
000360 94 1f b3 3f e5 0d da 3f 53 46 a5 3f fb c1 64 3f
       1.3994012 1.703549 1.2912086 0.8935849
000370 df 9b 49 3f e0 e6 a4 3f 9e 0b d1 3f d2 3a 64 3f
       0.78753465 1.2882957 1.633167 0.8915225
000380 2a 66 3e 3f 03 12 93 3f 07 5a 43 3f ef ae 58 3f
       0.7437464 1.1489872 0.76309246 0.8464193
000390 13 a1 19 40 d4 22 b0 3f 93 cc 67 3f 80 d5 45 3f
       2.4004562 1.3760629 0.9054653 0.772789
0003a0 af 6a c1 3f 58 23 0b 3f 9c 76 96 3f 27 a8 ca 3f
       1.5110682 0.54350805 1.1754947 1.5832566
0003b0 57 b8 30 40 9b e0 81 3f 23 a2 8f 3f c7 f7 5a 3f
       2.7612512 1.0146669 1.1221355 0.8553433
0003c0 4d 99 a8 3f b6 dc cd 3f a4 0b 0b 3f 0f 77 41 3f
       1.3171784 1.6082981 0.5431464 0.75572294
0003d0 47 9f 35 3f db 87 89 3f 6a 3d 11 3f f0 f6 81 3f
       0.7094616 1.0744585 0.56734335 1.0153484
0003e0 9f 62 91 3f 02 d7 44 3f 2e 52 82 3f 1d 5f 2c 40
       1.1358222 0.76890576 1.0181329 2.6933053
0003f0 95 c8 c3 3f c0 08 e2 3f c3 1f 1f 3f c8 74 35 40
       1.5295588 1.765892 0.6215784 2.8352528

bn1.bias f4 [400]
000000 31 12 a4 be 4b 78 16 bf 5c 83 d0 be e8 2a b3 bc
       -0.3204513 -0.587773 -0.4072522 -0.021871045
000010 0f ef 21 be d9 32 02 3e a2 6f a6 be eb 73 9c be
       -0.1581385 0.1271471 -0.32507044 -0.30557188
000020 59 0b c7 be b1 cb cd be 5c ee 98 be e9 b7 73 bd
       -0.38875845 -0.40194467 -0.29869354 -0.059501562
000030 83 09 8c be 9a 18 84 be 44 b4 8a be e4 95 b9 3c
       -0.27351007 -0.2580002 -0.27090657 0.022654481
000040 11 2c 86 be fa 8a 49 be 9d 4c d9 be a8 f2 dc be
       -0.26205495 -0.19681922 -0.42441264 -0.43153882
000050 fb 0d f7 be db 09 92 bd ea 8b aa be 1d 36 cf bd
       -0.48252854 -0.07130786 -0.3330987 -0.10117743
000060 c0 72 20 bf 60 a2 2a be 22 5f 59 be 1c 9d 7c be
       -0.62675095 -0.16663504 -0.21227697 -0.24669307
000070 b2 a8 1c bf 89 01 77 be 53 12 d7 bd 2e fc 95 3d
       -0.6119491 -0.2412168 -0.10501542 0.0732349
000080 85 96 45 be 5e 7a c1 be ef 1f 75 be e5 d0 81 be
       -0.192957 -0.3778867 -0.23937963 -0.25354686
000090 d5 b3 b4 bd d1 67 b9 be 25 97 1b bf 95 85 43 bd
       -0.08823363 -0.36212018 -0.60777503 -0.047734816
0000a0 75 16 7e bd d2 f1 2c be 50 bd d4 3d 04 52 3e bf
       -0.062033135 -0.16889122 0.10387671 -0.74343896
0000b0 86 8a 00 be d0 48 2c 3d ed 66 27 be f1 9a 9c be
       -0.12552842 0.042061627 -0.16347857 -0.3058696
0000c0 67 cb ae be d5 00 8e be 0e dd 30 bf 1f d0 e2 bc
       -0.3413956 -0.2773501 -0.690873 -0.02768713
0000d0 d5 19 df be 15 8c 7e be 4c 8e 2f be a9 5a 82 be
       -0.43574396 -0.24858125 -0.17144126 -0.25459793
0000e0 7d 05 93 be 53 1f 47 be 46 0d 1a be fb 60 56 be
       -0.28715125 -0.19445543 -0.15044126 -0.20935433
0000f0 eb e3 88 be 88 ce 09 be ec c3 6e be 63 1d de be
       -0.26736388 -0.13457692 -0.23316926 -0.43381795
000100 bb c4 7f be a0 3b 0b bf 56 37 5f be c5 b7 ab be
       -0.2497739 -0.54387856 -0.21798453 -0.33538643
000110 52 6a f1 bd f9 b2 80 be fe 4f ae bd f3 ff db bd
       -0.11787857 -0.25136545 -0.08511351 -0.10742178
000120 6c 4b c9 be 77 15 dd bd 2c c5 ef 3d bc 21 6c be
       -0.39315355 -0.1079511 0.117075294 -0.23059744
000130 f7 d6 95 be b7 93 4c be d9 15 80 3e 70 2a bb be
       -0.29265568 -0.19978224 0.25016668 -0.36555815
000140 5a c5 93 be bc 99 ce be 23 f0 f9 3d 13 95 26 bf
       -0.28861505 -0.40351665 0.122040056 -0.6507122
000150 a1 b3 b3 be f9 be 25 bf 2e 1e b4 be f1 84 a6 be
       -0.35097983 -0.64744526 -0.35179275 -0.325233
000160 f5 cb 1a bf 90 e1 90 3d cd f3 e8 bd 2e 60 c0 be
       -0.60467464 0.07074273 -0.11374626 -0.3757338
000170 ce a2 eb be fa 00 8e be e7 f6 60 be f5 77 aa be
       -0.46022648 -0.2773512 -0.21969186 -0.33294645
000180 d4 a7 97 be 25 a0 f5 be a3 ee 59 be 8b 0d e4 be
       -0.2962023 -0.47973743 -0.21282439 -0.44541582
000190 a9 59 9a be 51 9f 62 be 04 cd 8c be af 03 53 be
       -0.3014653 -0.22131087 -0.27500165 -0.20606874
0001a0 29 0a e0 be 01 09 c3 be d0 c1 0f be 97 81 64 be
       -0.43757752 -0.38092807 -0.14038777 -0.2231506
0001b0 90 78 8b be 5b 9a cf be 51 67 8a be 79 6e 43 be
       -0.2724042 -0.4054745 -0.2703195 -0.1908511
0001c0 44 78 3e be 22 bc e8 be 29 05 2e bc 80 56 3e be
       -0.18600565 -0.45456034 -0.010621347 -0.18587685
0001d0 e0 3b fd bd 72 94 35 be 00 76 52 be 9d 1a 90 be
       -0.12364936 -0.17732409 -0.20552826 -0.28145304
0001e0 ce 2b a8 be 0d 81 16 be fc 5f e1 bd 2d 73 64 3d
       -0.3284592 -0.14697666 -0.11004636 0.055773903
0001f0 9b 93 89 be 9a 4b 29 bf 7a 79 84 be 84 2f 1c be
       -0.26870427 -0.66130984 -0.2587393 -0.15252501
000200 40 37 e7 bd 37 51 cc be 91 3d cb be d3 40 72 be
       -0.11289835 -0.39905712 -0.3969541 -0.23657541
000210 78 d7 2e be 43 6c f6 be 03 ce fe bd 2d c3 e5 bd
       -0.17074382 -0.48129472 -0.12441637 -0.112188675
000220 12 97 5e be 47 c7 9c be 62 3e 1d be 2f f7 e2 be
       -0.21737316 -0.30620787 -0.15355828 -0.4432921
000230 df 2b c8 be 45 41 d3 be 39 33 05 bf f2 1a a6 be
       -0.3909597 -0.41260734 -0.52031285 -0.32442433
000240 08 a8 02 bf c6 af 99 be e7 18 a9 be 23 65 e8 be
       -0.51037645 -0.30016917 -0.3302681 -0.4538966
000250 f2 e2 55 be 14 bc 5f be aa a2 37 be 69 99 0f be
       -0.20887354 -0.2184909 -0.17933145 -0.14023365
000260 87 61 cc be 0c 15 02 bf d8 13 45 be 32 08 4d be
       -0.39918157 -0.50813365 -0.19245851 -0.20022658
000270 1b 68 12 be b5 fa c7 be 8a e8 a2 be aa dc 87 be
       -0.14297526 -0.39058462 -0.31818038 -0.2653554
000280 df f5 81 be ef 58 cf 3c 11 50 0b bf 96 68 15 bf
       -0.25382897 0.025310962 -0.54419047 -0.5836271
000290 a6 66 40 be c3 6d 72 bd 3f 89 98 be 1b 4c 14 bf
       -0.18789157 -0.05918671 -0.2979221 -0.5792863
0002a0 92 4b 8e be 4b 35 9c be c6 06 d4 bd 46 b9 11 bf
       -0.2779203 -0.3050941 -0.103528544 -0.5692333
0002b0 1d 29 67 be a3 80 9d be 4d fa 69 be 51 b7 b4 be
       -0.22574277 -0.30762205 -0.22849388 -0.3529611
0002c0 07 05 29 be eb 60 be be c1 98 4a be e3 ce f4 be
       -0.16505824 -0.37183318 -0.19784833 -0.47814092
0002d0 2d 7d c3 be 45 6b 1b bf a0 58 82 be 45 30 91 be
       -0.3818144 -0.60710555 -0.2545824 -0.2835714
0002e0 54 af 54 be 78 72 f8 be 1f 5d ae 3e 28 8a 09 bf
       -0.20770007 -0.48524833 0.3405542 -0.53726435
0002f0 d3 42 37 be cc 21 a7 be 02 80 91 be 52 64 c7 be
       -0.17896585 -0.32642972 -0.28417975 -0.38943726
000300 16 2a 4d be d6 13 bb be b2 aa d1 be b1 47 a3 be
       -0.20035586 -0.3653857 -0.40950543 -0.31890634
000310 42 c5 a0 be fc f2 9a be db 27 be 3d b3 a9 b1 be
       -0.31400496 -0.30263507 0.092849456 -0.34699783
000320 c6 ac df be 01 27 79 3e 98 e2 c0 be 92 28 3e be
       -0.43686503 0.24331285 -0.37672877 -0.18570164
000330 e2 f6 19 be 18 6b b6 be 7a ef 6b be 0a bf e8 3e
       -0.15035585 -0.3562858 -0.23040572 0.4545825
000340 e6 89 ea bd af 6a 27 be 2d 52 b7 be 44 c3 c6 be
       -0.11452083 -0.1634929 -0.35804883 -0.3882085
000350 a0 ed 2b bf e8 c9 90 be 8e 1a 32 bf c9 6c 34 bf
       -0.6715946 -0.28279042 -0.6957177 -0.7047849
000360 8d b1 c6 be 1d 00 06 be e6 32 09 be 32 13 05 bf
       -0.38807335 -0.1308598 -0.13398322 -0.51982415
000370 dc 9f c2 be d8 76 74 be 54 97 27 be 96 02 e8 be
       -0.38012588 -0.2387346 -0.16366321 -0.45314473
000380 32 04 f7 be 00 41 b2 be 6a 17 f6 be 4a e0 05 bf
       -0.48245388 -0.34815216 -0.4806474 -0.5229536
000390 78 80 09 be 74 45 92 be a8 2f c7 be f1 01 23 be
       -0.13427913 -0.28568614 -0.38903546 -0.1591871
0003a0 99 fb a1 bd 5c 7a 1a bf 7f d2 61 be 8a 72 08 be
       -0.079093166 -0.60342956 -0.22052954 -0.13324943
0003b0 b9 0c 54 3e 60 06 c0 be 5e 9f ae be 18 89 8d be
       0.20707978 -0.37504864 -0.34105963 -0.27643657
0003c0 22 47 70 3e a9 8f 87 bd 3d 28 ec be 73 5d aa be
       0.23464635 -0.06619198 -0.4612445 -0.3327442
0003d0 e1 2b 06 bf b1 3c a3 be cd 5f 19 bf 49 3b 8c be
       -0.52410704 -0.3188224 -0.59911805 -0.2738898
0003e0 77 e7 9a be b3 27 d0 be 45 60 df be 9e 07 2c 3e
       -0.3025472 -0.40655288 -0.43628135 0.1679978
0003f0 3f e5 36 be b7 71 75 be 97 2f 0b bf 77 2b d1 bc
       -0.17860888 -0.2396916 -0.5436949 -0.025533421

bn2.weight f4 [300]
000000 08 ff ff 3f 59 8f 70 3f 27 f8 5c 40 e6 bd 8a 3f
       1.9999704 0.9396873 3.452646 1.0839202
000010 cd d9 12 40 b3 96 cb 3f 0c 79 a6 3f d3 d3 e5 3f
       2.2945435 1.5905365 1.300569 1.7955269
000020 89 e2 c8 3e 14 f0 86 40 52 8d fd 3f 6f cc 8a 3f
       0.39235333 4.2168064 1.9808753 1.0843638
000030 92 5a 08 40 fa 55 f4 3f d4 0c 85 3f 30 f9 09 40
       2.130528 1.9088738 1.039454 2.1558342
000040 14 1c a5 3f f2 52 45 3f e1 0f 15 40 e6 4d 58 40
       1.2899194 0.7707969 2.3290942 3.3797545
000050 c9 b2 89 3e 6a 1c 24 40 99 9c 82 3f b7 f4 e5 3e
       0.26894215 2.5642343 1.020404 0.44913265
000060 8c 22 e4 3e ad e7 6a 40 dd f2 2a 3f 76 3a b6 3f
       0.44557607 3.6703904 0.6677683 1.4236591
000070 c1 9a 8d 3f f8 90 37 40 7d 11 49 40 5e 27 18 40
       1.1062852 2.8682232 3.1416924 2.3774028
000080 aa 35 32 40 c5 c0 2c 40 85 cb b9 3f 06 46 d6 3f
       2.7845254 2.6992657 1.4515234 1.674012
000090 be 41 3a 3f 01 f1 b2 40 ff f9 cf 3f 0e ad 83 40
       0.72756565 5.5919194 1.6248168 4.114875
0000a0 4f 63 8c 3f 48 d9 03 40 d9 01 4d 3e 42 d2 77 3e
       1.0967807 2.0601368 0.20020236 0.242013
0000b0 ce 72 aa 3f 4b 7a 01 40 89 c6 09 40 d5 e5 81 3f
       1.3316286 2.0230892 2.1527426 1.0148264
0000c0 ca 84 d5 3f 4a bf 90 3f dc 8e 6b 3f 96 c5 20 40
       1.6681149 1.1308377 0.9201486 2.5120597
0000d0 f6 c0 ea 3f 9a b1 9d 3f 32 6a fc 3f 07 0d 20 40
       1.8340137 1.2319825 1.9719908 2.5007951
0000e0 45 36 8d 3e f0 56 98 3f ba 23 82 3f 19 a7 0a 40
       0.27580467 1.1901531 1.0167153 2.1664488
0000f0 2c 8b 9f 3f 9c fd df 3f a9 d4 cd 3f e2 54 e2 3f
       1.2464347 1.749927 1.6080524 1.7682154
000100 6b a6 9f 3f b2 96 24 3f 68 16 12 40 0d 41 ad 3f
       1.2472662 0.6429244 2.2826176 1.3535477
000110 a9 f8 89 3f da 9f c0 3f 8f 1b 00 40 af 6c 0a 40
       1.077901 1.5048783 2.001682 2.1628835
000120 e1 a8 08 40 d2 e5 ae 3f d0 d2 b4 3f 0f 6c 2e 40
       2.1353076 1.3663886 1.4126835 2.7253454
000130 6e e3 a7 3f e0 a8 ec 3f ad 35 b4 3f 77 c1 ff 3f
       1.3116281 1.8489037 1.407888 1.9980916
000140 bf 9f a2 3f 8f e8 11 40 e5 be 17 3f 34 02 9c 3f
       1.2705001 2.2798193 0.59275657 1.2188172
000150 47 19 89 3e e0 91 d9 3f 9f 0a 85 3e f4 86 32 40
       0.26777098 1.6997643 0.25984666 2.789487
000160 e8 c7 b1 3f c5 b8 43 40 40 4e 17 40 08 f8 47 3f
       1.3889132 3.0581524 2.364151 0.7811284
000170 e8 e1 a0 3f 51 10 0a 40 eb 7c b1 3f 73 3f 6b 3f
       1.2568941 2.1572459 1.3866247 0.9189369
000180 a4 06 8b 3e cf ed a3 3e d2 2f d6 3f 97 22 01 40
       0.27153504 0.3201737 1.6733344 2.0177362
000190 dd e0 b9 3f c9 c2 f1 3f e6 d1 e4 3f fa a5 4f 40
       1.4521748 1.8887569 1.7876556 3.2445054
0001a0 1c c3 c9 3f 14 b4 be 3f 2b b2 db 3f fa c5 08 40
       1.5762668 1.4898705 1.7163748 2.1370835
0001b0 8d 47 b2 3f f1 b6 29 40 67 74 e5 3f 60 ad c9 3f
       1.3928086 2.6517909 1.7926148 1.5756035
0001c0 e2 53 aa 3f bb 73 20 40 da 51 d8 3f 99 ff 58 3f
       1.3306849 2.5070636 1.6899979 0.8476501
0001d0 aa d7 96 3f 73 03 4f 40 dd 89 fb 3f a0 d3 08 40
       1.1784565 3.2345855 1.9651448 2.1379166
0001e0 62 cf d3 3f 1e 22 bb 3f 0d 0b 35 40 dd 69 b7 3f
       1.6547663 1.4619787 2.8287995 1.4329182
0001f0 74 2d a4 3f a1 24 80 3f 2d a8 bc 3f d0 34 b9 3f
       1.2826371 1.0011178 1.4738823 1.4469242
000200 c0 2c 47 3e ad be 24 40 ba fe 09 40 74 16 ac 3e
       0.19450665 2.574138 2.1561723 0.3361088
000210 b2 6d 8e 3f 87 0f 76 3f df 44 4d 3e 76 07 14 40
       1.1127226 0.9611744 0.20045803 2.3129554
000220 9b 7f 1f 40 86 c3 a0 3f 87 56 21 40 23 24 a8 3f
       2.4921634 1.2559669 2.5209062 1.3136028
000230 18 b5 ca 3f 4e 44 a5 3e b7 10 1a 40 d2 b7 a0 3e
       1.5836515 0.32278675 2.4072702 0.31390244
000240 d1 cd 96 3f f2 d1 bc 3f 99 e4 c2 3f 23 80 73 3f
       1.178156 1.475157 1.5226012 0.95117396
000250 33 ae 8a 3e b5 7f e0 3f 10 89 69 40 32 82 a3 3f
       0.27086028 1.7538973 3.6489906 1.2774107
000260 d3 f9 3f 40 0d 20 6f 3f f7 6b ca 3f 5c d6 df 3f
       2.999623 0.9340828 1.5814198 1.7487292
000270 24 6d ee 3f d0 7b f5 3e 55 6d fe 3e 34 c3 9e 3f
       1.8627057 0.47946024 0.4969279 1.2403321
000280 24 f3 6d 3f 20 88 31 3f 36 28 47 3f 4e db 9c 3e
       0.9294913 0.69348335 0.7779573 0.30636066
000290 1f 98 46 40 c1 16 0b 40 5c df e1 3f 87 17 0d 40
       3.1030347 2.1732638 1.7646289 2.204561
0002a0 aa 46 83 3f 37 aa 76 40 97 aa a4 3f 6b 35 85 3e
       1.025594 3.854139 1.286456 0.26017317
0002b0 6a 99 69 3f 1f 54 38 40 38 aa 17 40 be d9 dd 3f
       0.91249716 2.8801343 2.3697643 1.7332075
0002c0 0c 02 91 3f 53 a2 4c 3f 5d b5 f4 3f da 5d 9e 3f
       1.132875 0.7993519 1.9117848 1.2372391
0002d0 bb fc 93 3f a5 fb 9d 3f f6 00 c6 3f bb 81 78 3e
       1.1561502 1.2342421 1.5469043 0.24268238
0002e0 2b 31 9a 3f 33 d0 dc 3f 33 ef 0b 40 3d b7 b1 3f
       1.2046255 1.7251037 2.1864746 1.3884045
0002f0 93 7d 6d 3f d2 49 bf 3f 57 e8 77 3f 9f 40 a0 3f
       0.92769736 1.4944403 0.968389 1.2519721
000300 55 4e e2 3f b4 a1 a4 3f d2 1a 89 3f 34 ae 12 40
       1.7680155 1.2861848 1.071131 2.2918825
000310 bd aa 77 3e a2 4a e0 3f 6d f6 ed 3f e1 2a 1d 40
       0.24186225 1.7522776 1.8590828 2.4557421
000320 b0 88 e8 3f 54 6d 91 3f 4e 82 6c 3e 6e 8e 20 40
       1.8166714 1.1361489 0.23096582 2.5086932
000330 fb a9 96 3f 22 08 ed 3f 22 29 a5 3f 1a aa eb 3f
       1.1770624 1.8518107 1.2903178 1.8411286
000340 40 43 35 40 dd 83 f1 3f 15 6c ab 3f 5f 99 20 40
       2.8322296 1.8868366 1.3392359 2.509361
000350 b4 4f d6 3f 95 18 a6 3f 13 ac 47 40 d8 ce 23 40
       1.6743073 1.2976252 3.1198776 2.5594997
000360 ac b6 17 40 2d 34 cf 3f 3e 3d 15 40 75 b3 13 40
       2.3705244 1.6187798 2.331863 2.3078282
000370 40 f9 c1 3f c3 ba e1 3f 9e 51 0e 40 20 83 b5 3f
       1.515419 1.763512 2.2237315 1.4180641
000380 1b c8 1e 40 8d eb 81 40 d9 1e 16 40 30 02 5f 3f
       2.4809635 4.0600038 2.3456328 0.8711271
000390 1f 56 f2 3f 02 c5 a6 3f 7d 68 b2 3f 4a 7f ae 3f
       1.8932532 1.3028872 1.3938137 1.3632596
0003a0 04 d7 0f 40 b9 0b 86 3f 37 43 af 3f 34 e0 ce 3f
       2.2474985 1.0472327 1.3692387 1.6162171
0003b0 00 e1 fa 3f d9 20 2a 3f 86 36 94 3e 12 0c b7 3f
       1.9599915 0.6645637 0.28947848 1.4300559
0003c0 f3 15 90 3f af 9d c9 3f 41 34 9b 3f 62 52 d0 3e
       1.1256698 1.5751246 1.2125322 0.40687853
0003d0 d0 4e d1 3e ce 5a c8 3f df 88 4b 3f 7c ad e6 3f
       0.40880442 1.5652711 0.79505724 1.8021693
0003e0 3b 79 9b 3f f4 aa ab 3f fc 94 72 3f ec 32 7b 3e
       1.2146372 1.3411546 0.9475858 0.24531144
0003f0 23 70 8e 3e 08 80 ed 3f 7c 41 8b 40 fc 02 21 40
       0.2781993 1.8554697 4.3517437 2.5158072
