tmp/ddpg/actor_ddpg.pth (torch, 511239 bytes, 10 tensors)

fc1.weight f4 [400, 11]
000000 33 e9 fa 3c 96 d4 7a be 60 ab c1 3e b9 f1 f4 3d
       0.030628776 -0.24495158 0.3782606 0.119601674
000010 76 58 a1 3e 81 16 20 3f 1c a1 e1 3e cf 4d d9 3e
       0.31512803 0.6253434 0.4406823 0.42442176
000020 7a 52 0f 3f 71 70 13 3f d1 b1 04 3f b8 b4 ef 3e
       0.55985224 0.57593447 0.51833826 0.46817565
000030 f7 5b 0d bf 11 70 ff 3e a8 c5 39 bc 3a fe 81 3e
       -0.5521845 0.49890187 -0.011338629 0.25389272
000040 42 da 66 3f 7d 37 35 3f d8 d8 d7 3e f2 82 21 3f
       0.90176785 0.70787793 0.42157626 0.6309043
000050 39 82 15 3f 72 c2 16 3f d7 de 04 3f 84 f5 04 bf
       0.5840183 0.5889045 0.51902527 -0.5193713
000060 e4 5c 8b 3e e5 f9 37 3c e4 65 15 3f c3 e3 92 3f
       0.27219307 0.011229013 0.583586 1.1475757
000070 5f 81 fc 3e 4c bc 5f 3e 60 2d 9f 3e ed 8c a2 3e
       0.49317452 0.21849173 0.31089306 0.31748143
000080 00 57 94 3e 9a 91 09 3f 5a 67 ec be 09 68 ae 3d
       0.28972626 0.53737795 -0.461726 0.08515937
000090 ce 87 55 3d e9 56 ec 3e 85 a6 3a bf da 80 0e 3e
       0.052131467 0.46160057 -0.7291034 0.1391634
0000a0 ad e4 7d 3e e4 7a 84 be 8d 68 47 3d ac b9 ef bd
       0.24794264 -0.25875008 0.04868369 -0.11705336
0000b0 97 5e a3 be a7 c9 91 3d 84 32 24 be bd 41 91 bd
       -0.31908104 0.0711854 -0.16034895 -0.07092617
0000c0 8a 56 05 bf 92 1a e5 3d 43 ff 3f be bf 92 9f 3e
       -0.52085173 0.111867085 -0.18749718 0.31166646
0000d0 0a c6 c4 3e 08 62 c1 3e b1 de f1 3e fd 42 b4 be
       0.38432342 0.37770104 0.47240213 -0.35207358
0000e0 f8 94 47 be c6 bd 1a 3f 50 bf ae 3d b7 8c 2b 3f
       -0.19490421 0.6044582 0.08532584 0.6701159
0000f0 03 9e fa 3e 7a 3d a7 3e d9 76 cf 3e f7 43 00 3f
       0.48948678 0.3266409 0.4052036 0.50103706
000100 b9 7c d7 3e 57 4c f4 3e 76 9d a5 3e 75 c8 08 be
       0.42087343 0.47714493 0.32346696 -0.13357718
000110 ae 82 b5 3e 06 a4 1e 3d 27 7a f7 3e 21 6a 2c 3f
       0.35451263 0.038730644 0.48335382 0.6734944
000120 bb f9 61 3f aa 6c 43 3f c8 eb 2d 3f 83 97 24 3f
       0.88271683 0.76337683 0.679379 0.6429369
000130 17 dc 1a 3f e5 40 e6 3e ab d1 ed be b9 97 0e 3e
       0.6049208 0.44971386 -0.46449026 0.13925065
000140 4e 86 95 bc 41 cf f9 3e 29 ba 50 3e e4 37 0c 3f
       -0.018252518 0.48790935 0.20383514 0.5477278
000150 1b 78 e2 3e 30 45 69 be 66 7f 44 bd 6d c3 5a bd
       0.44232258 -0.22780299 -0.04797306 -0.05340903
000160 92 6d e5 3e a9 44 a5 be 54 fd cb 3e 09 8c a3 bd
       0.44810158 -0.32278946 0.39841712 -0.07985694
000170 91 a9 28 3f fc 77 70 3f 04 17 42 3f 8b 4e 79 3e
       0.6588374 0.9393308 0.7581637 0.24346368
000180 f7 c5 b9 3e 1f 58 b9 3e 12 3c b1 3e 7a e1 b8 3e
       0.36283848 0.36200044 0.34616143 0.36109525
000190 08 35 a2 be be 3b 06 3f 48 ab ed 3c d4 4e 66 3e
       -0.31681085 0.5243491 0.029012337 0.22491008
0001a0 4c 00 80 3f 98 d8 32 3f 88 ce 28 3f 5d 6f 1a 3f
       1.0000091 0.69861746 0.6594014 0.60326177
0001b0 75 7b 18 3f b6 b4 14 3f 7f 51 a6 3e be d7 eb be
       0.5956338 0.58088243 0.32484052 -0.46063036
0001c0 e6 52 ce 3e 40 e9 20 3d 33 f5 d6 3e 6c b7 1c 3f
       0.4029762 0.039284945 0.41983947 0.6121738
0001d0 2c b4 60 3f 0f 9a 3a 3f 99 60 e0 3e 56 5b da 3e
       0.8777492 0.72891325 0.43823698 0.4264781
0001e0 61 91 f1 3e aa ca af 3e 8d 57 d6 be 10 65 f1 3e
       0.47181228 0.34334308 -0.4186367 0.47147417
0001f0 b8 80 94 3c e0 f9 2f 3e 77 1c 2f bf 9c c2 79 3e
       0.018127784 0.17185163 -0.6840281 0.24390644
000200 2c 0e bd 3e da 35 05 3f 4d 15 f8 3e 9f 2e fc 3e
       0.36924875 0.52035296 0.4845375 0.4925432
000210 94 85 2f 3e ea ce dd be d1 70 a5 3e 5e cb 2e bd
       0.171408 -0.43321925 0.32312635 -0.042674415
000220 62 76 d3 3e 4c 70 dc be 57 4a 3e 3f a4 f6 80 3e
       0.41301256 -0.43054426 0.74332184 0.25188172
000230 58 a9 4e 3e 75 e4 78 3e 8f f0 a3 3e 71 c7 88 3e
       0.20181787 0.243059 0.3201947 0.26714662
000240 19 79 d2 be a3 30 0d 3f e2 c4 c5 3c 0c 6b 89 3e
       -0.41108015 0.5515234 0.024141733 0.26839483
000250 d2 43 8d 3f dc c9 03 3f 85 5c bd 3d cd cd 37 3f
       1.1036322 0.5147989 0.09246162 0.717984
000260 b5 cb 3f 3f 3d ff 30 3f 9f 98 33 be af 3d 03 bb
       0.7492021 0.6913946 -0.17538689 -0.002002578
000270 0f 4c 55 3d 30 85 55 3e e0 06 40 3e 2c 35 ae 3e
       0.05207449 0.20851588 0.18752623 0.34024942
000280 8c 2b de 3e d1 0e 24 3e 05 19 91 3e e7 e8 c9 3e
       0.433926 0.16021277 0.283394 0.39435503
000290 17 01 6d 3e fa 61 9d 3e 87 f7 bd be e5 ed d7 3e
       0.23144947 0.30738813 -0.3710291 0.42173687
0002a0 5c af 6a 3d e1 ef 39 3f 5f b1 cd 3e ce fa f4 3e
       0.057296142 0.7263165 0.40174386 0.478476
0002b0 27 76 29 3f d7 39 12 bf e1 a0 d8 be d2 dc 77 be
       0.6619591 -0.57119507 -0.4231024 -0.2420533
0002c0 00 f0 82 3e cf 55 31 bf 90 fa a3 3e fb 5f 99 3d
       0.2557373 -0.6927156 0.32027102 0.0748901
0002d0 21 50 b4 3e 0a 12 37 be 8a 83 d1 3e bd fd f9 3c
       0.35217384 -0.17877975 0.4092067 0.0305165
0002e0 1b ef f6 3d c5 8e 4b 3e 43 57 cc 3d a1 67 79 be
       0.120573245 0.19878681 0.09977581 -0.24355938
0002f0 40 f4 c0 3d 48 0d 36 bd 74 5c 0a be 47 43 4c bd
       0.09421587 -0.04444626 -0.1351183 -0.04986885
000300 9b 6f d2 3e 9a 0b 59 3e 4e 77 e1 3e cf 74 99 3e
       0.41100773 0.21195832 0.44036335 0.2997193
000310 da 8c 66 3e f0 4d ae 3e a1 9c c4 3e d0 e3 f8 be
       0.22514668 0.34043837 0.38400748 -0.48611307
000320 0e 1c 24 3f 5e 2c 06 bd b5 7b fa 3e 54 3e 38 3f
       0.6410531 -0.032757156 0.48922506 0.71970105
000330 29 4f 6b 3f ff 18 81 3f 95 65 10 3f 9a 2e 05 3f
       0.91917664 1.0085753 0.56405 0.52024233
000340 39 6c f3 3e ea 55 90 3f 71 80 98 bf d9 3c 82 3f
       0.47543505 1.1276219 -1.1914197 1.0174819
000350 e0 a2 0f be cb 7c a5 3f 5a 0d 91 3f fe fa 5f 3f
       -0.14026976 1.2928709 1.13322 0.8749236
000360 06 1a 4f 3f 10 c0 8a 3f 1b eb aa 3f 0d 56 90 3f
       0.80899084 1.0839863 1.3352998 1.1276261
000370 4f 3d 0c 3f 47 c2 0a bf 7e 7c be 3e 8d df 79 3d
       0.5478105 -0.54202694 0.37204355 0.06100421
000380 ad c4 00 3f f5 45 5c 3f bc 33 48 3f 28 b5 9c 3e
       0.50300103 0.86044246 0.7820394 0.3060696
000390 0c 6f 84 3e c9 36 bd 3e f4 eb 88 3e 14 7c a6 3e
       0.25865972 0.3695586 0.26742518 0.3251654
0003a0 f0 10 48 be 30 e0 04 3f 0f ce 55 3d a0 23 ca 3c
       -0.19537711 0.5190458 0.052198466 0.02467519
0003b0 fe f6 28 3f 89 e0 1a 3f a5 e9 4b 3f 48 31 61 3f
       0.6600188 0.60498863 0.7965339 0.8796582
0003c0 d8 7d 4b 3f 66 fe 44 3f d7 9e dd be 1c 9d 11 bf
       0.794889 0.7695068 -0.43285248 -0.56880355
0003d0 cb 1c 5d 3e f0 07 0d 3e 92 88 d0 3e 02 75 4a 3e
       0.21593015 0.13772559 0.40729195 0.19771197
0003e0 c6 9b ce 3e c5 5d bb 3d c5 92 ad 3d d5 5f 99 3c
       0.4035322 0.091487445 0.0847526 0.018722454
0003f0 e7 f4 10 3e b2 c0 c1 3e 3d 59 91 be 7e e2 8d 3e
       0.14155923 0.37842327 -0.28388396 0.27711862

fc1.bias f4 [400]
000000 78 44 9a 3e 87 09 f6 3e cd 35 13 3e ba ae b7 3e
       0.30130363 0.48054144 0.14375992 0.35875493
000010 bb 6e b5 bd 28 52 19 3f e8 3a af 3e ac 2e d2 3e
       -0.08859011 0.59890985 0.3422463 0.41051233
000020 0f f5 83 3e 84 9c c1 3e 45 aa bb 3e 23 f1 ec 3e
       0.25772902 0.37814724 0.36653343 0.46277723
000030 d4 9a c1 3e 3a 35 d0 3e 15 f1 0d 3e bc f7 11 3f
       0.37813437 0.4066561 0.13861497 0.5701864
000040 87 8b b9 3e ba a3 d8 bd 31 b7 09 3f 72 0a 84 3f
       0.36239263 -0.10578103 0.5379515 1.0315688
000050 73 c8 a5 3e 11 7b e6 3e a5 5c 3d 3e b8 0d 32 3e
       0.32379493 0.45015767 0.18492372 0.17388046
000060 cb b1 ca 3e 8e 56 c4 3e 6a 2d df 3e 63 6b 8d 3e
       0.3958877 0.38347286 0.43589336 0.27620992
000070 bf c0 f7 3e 0f 4a 11 3f d2 80 04 3f 08 9f ed 3e
       0.4838924 0.5675363 0.51759064 0.46410394
000080 9d 4f e1 3e 5a ce 00 3f 49 25 1b 3f e6 fd df 3e
       0.44006053 0.5031487 0.6060377 0.43748397
000090 96 61 aa 3e 9c f5 8c 3e dc 12 00 3f a1 0c 22 3f
       0.33277577 0.27531135 0.5002878 0.6330052
0000a0 12 7c a9 3e b3 42 d3 3e 61 80 88 3e 20 2b 0a 3f
       0.3310247 0.41261825 0.26660445 0.53972054
0000b0 b2 46 df 3e c3 39 cd 3e 33 93 ec 3e b8 34 1c 3f
       0.43608624 0.4008313 0.46206054 0.6101794
0000c0 0d 3e c6 3e 91 10 e1 3e a9 2d 0a 3f 5c 95 9e 3e
       0.38719216 0.43957952 0.5397592 0.30973327
0000d0 4f a3 e4 be fd 72 bf 3e a1 0e d8 3e 39 98 ea 3e
       -0.44655845 0.37392417 0.4219866 0.45819262
0000e0 41 cb b6 3e 6a e2 a2 3e 5f d8 70 3e 9d 5c af 3e
       0.35701945 0.31813365 0.23520039 0.34250346
0000f0 b2 8f 2f 3f ed 82 14 3e e1 89 9b 3e 7b 19 ca 3e
       0.68578637 0.14503069 0.3037863 0.39472565
000100 3a b1 6f 3e 7c 6f ba 3e 67 0d b4 3e 30 7a 97 3e
       0.2340745 0.3641318 0.35166475 0.2958541
000110 81 b4 e9 3e ee 35 f7 3e 31 bc 81 3e 4f e7 8d 3e
       0.45645526 0.48283333 0.2533889 0.27715537
000120 78 fe e8 3e 8c e3 e0 3e 0c 0f ef 3e 68 1b 24 3e
       0.45506644 0.43923604 0.46691167 0.1602608
000130 2f fa d1 be 67 c6 d2 3e 27 5e 29 3f f0 f6 05 3f
       -0.41011187 0.41166994 0.6615929 0.5232992
000140 23 f9 72 3e a1 a2 dd 3e 8d 7a b2 3e 29 f4 3a 3f
       0.2372785 0.43288139 0.34859124 0.7302881
000150 98 d3 ac 3e ee ca 52 3f 5d 72 df 3e 7a 19 6f bd
       0.33755183 0.82340896 0.4364194 -0.058373906
000160 9c fa 89 3e 99 64 09 3f 23 f5 51 3e df b1 93 3e
       0.26949012 0.53669125 0.20503668 0.28846642
000170 c8 b8 0a 3f 2a b5 8b 3e 89 c5 ae 3e 82 0f 04 3f
       0.54188204 0.27286655 0.34135082 0.51586163
000180 1d fc e4 3e 6e 88 f8 3e 87 18 f2 3e 0b 04 d9 3e
       0.44723597 0.48541588 0.47284338 0.42385897
000190 a3 86 04 3f c5 92 a1 3e bd a9 b7 3e 67 8b 76 3e
       0.5176794 0.3155729 0.35871688 0.24076615
0001a0 e4 1d 09 3f 39 70 8c 3e 92 e3 02 3f 44 67 c6 3e
       0.53561234 0.2742937 0.51128495 0.3875066
0001b0 5b 1e f0 3e e0 4a 9d 3e 6b ab b5 3e de b8 d6 3e
       0.4689816 0.30721188 0.35482344 0.41937917
0001c0 02 2c 82 3e 69 28 9f 3e f0 b2 f8 3e 71 2b ef 3e
       0.254242 0.31085518 0.48574018 0.4671283
0001d0 bb 19 e3 3e cc 9c f7 3e fe fe 5b 3e a0 c4 00 3f
       0.44355568 0.48361814 0.2148399 0.50300026
0001e0 2b cc 2e 3f 0c bc ce 3e f5 cb 91 3e 81 f9 b5 3e
       0.68280286 0.40377843 0.2847592 0.3554192
0001f0 11 82 ea 3e 23 53 54 3e e3 50 7b 3e ed ef c7 3e
       0.45802358 0.20734839 0.24542575 0.39050236
000200 ea 8e 90 3e 91 6c 4a 3e b6 28 e3 3e 45 5e 6f 3e
       0.28234035 0.19767977 0.44366997 0.23375805
000210 a5 0a 0d 3f b4 93 04 3f 8e ae 04 3f 30 6e cf 3e
       0.5509437 0.5178788 0.5182885 0.40513754
000220 11 7c 47 be e5 0b cb 3e 0a 15 12 3f d3 bb 3c 3e
       -0.19480921 0.39657512 0.57063353 0.18431024
000230 84 c5 5f 3e 85 63 66 3e 47 22 e1 3e 92 a1 bb 3e
       0.2185269 0.22498901 0.43971464 0.36646706
000240 f5 11 9a 3e c7 04 af 3e 58 df a8 3e 65 77 0c 3f
       0.30091825 0.34183332 0.32982898 0.5486968
000250 c8 d0 27 3e 09 55 15 3f a0 de e6 3e ac 63 b7 3e
       0.16388237 0.5833288 0.45091724 0.3581823
000260 d1 d9 7d 3e 5a de 99 3e 6d 7d a7 3e c3 5a 16 3f
       0.24790122 0.30052453 0.3271288 0.5873224
000270 58 8c d0 3e 43 c3 bf 3e 92 6d c5 3e f5 3d 7a 3e
       0.40732074 0.3745366 0.38560158 0.24437697
000280 c5 87 18 3f b5 04 06 3f cf 13 fc 3e 7d 8e ec 3e
       0.5958217 0.5235093 0.49233863 0.4620246
000290 fc a9 d3 3e 6e 43 05 3f df c4 b2 3e 3d f7 8d 3e
       0.41340625 0.52056015 0.34915826 0.2772769
0002a0 eb af c9 3e 86 c6 4e 3e 45 d8 04 3f 89 8e 62 3e
       0.39392027 0.20192918 0.518925 0.22124685
0002b0 08 b4 a5 3e e2 1d b9 3e 87 ef 91 3e b0 3b 04 3e
       0.32363915 0.3615561 0.28503057 0.12913394
0002c0 30 c5 98 3e c7 5e 04 3d cf ee 96 3e ed c7 c7 3e
       0.29837942 0.03231695 0.29479071 0.3901972
0002d0 55 47 92 3e eb 85 dc 3e 33 a0 f3 3e cd eb ab 3e
       0.28570047 0.4307092 0.4758316 0.3357834
0002e0 53 bd 03 3f 4c ae e0 3e 52 a5 48 3f 73 1f 11 3f
       0.5146076 0.43882978 0.7837726 0.5668861
0002f0 11 97 cf 3e 1f d5 bd bd 38 64 bd 3e c4 9c 84 3e
       0.40544942 -0.09269165 0.36990523 0.25900853
000300 20 4e c5 3e c7 b2 a9 3e 0a 61 ed 3e 48 cd b3 3e
       0.38536167 0.3314421 0.46363097 0.35117555
000310 a4 48 67 3e 8a 25 84 3e a3 69 11 3f d0 75 79 3e
       0.22586304 0.2580989 0.56801814 0.24361348
000320 64 3d ad 3e f2 7e 21 3f f4 36 9f 3f 11 9c ad 3e
       0.338359 0.6308433 1.2438645 0.33908132
000330 48 6f d6 3e b5 3b 06 3f f7 0b d5 3e d9 22 65 3f
       0.41881776 0.52434856 0.4161069 0.895063
000340 2a da 12 3f 46 7c 8b 3d 51 3e a4 3e 25 fd 6f 3e
       0.5736414 0.06810813 0.32078794 0.2343641
000350 f2 e9 2e 3f 2a 14 06 3f b4 22 2f 3f d5 91 88 3e
       0.6832572 0.5237452 0.6841233 0.2667376
000360 26 32 ab 3e 3d 7c ec 3e 6b e9 d7 3e 72 f9 a8 3e
       0.33436698 0.46188536 0.4217027 0.33002812
000370 7f 31 31 3e ca 41 ee 3e e6 c9 e2 3d 32 2e 9b 3e
       0.17304038 0.46534568 0.11073665 0.30308682
000380 f1 6c e7 3e b6 52 b6 3e 1a fb bd 3e 04 21 e3 3e
       0.45200303 0.35609978 0.37105638 0.44361126
000390 e7 b8 ff 3e bd 25 fd 3d d0 af f0 3e cc 86 14 3f
       0.49945757 0.12360714 0.47009134 0.58018184
0003a0 ed a4 dc 3e 36 1a dc 3e 0b 81 93 3e df e9 f4 3e
       0.43094578 0.42988747 0.2880939 0.4783468
0003b0 7f 17 eb 3e 6b 0b 0f 3e b2 75 d5 3e 2b 7c 05 3e
       0.45916364 0.139692 0.41691357 0.13035648
0003c0 ee 96 19 3f a8 8b d8 3e c5 e3 0c 3f 57 39 2d 3f
       0.59995925 0.4229405 0.5503505 0.6766562
0003d0 8a d2 3f 3e 3f c6 49 3e 5b 09 24 3f db fd 03 3f
       0.18732658 0.19704531 0.64076775 0.5155923
0003e0 f7 06 4d 3d c5 7a 08 3f 5b 18 a8 3e a3 3c cb 3e
       0.05005547 0.5331233 0.32831082 0.396947
0003f0 72 11 87 3e dc 78 de 3e ae b4 0c 3f da 08 46 3f
       0.26380497 0.43451583 0.54963195 0.77357256

fc2.weight f4 [300, 400]
000000 e3 9d ab 3f 0a 3b d4 3e 9f d2 83 3f 7b 46 6d 3d
       1.3407558 0.41451293 1.0298651 0.057928544
000010 98 f1 98 3f 33 d1 7f 3f 3a 70 c4 3f d3 ab d7 3e
       1.1948729 0.9992859 1.5346749 0.4212328
000020 55 50 b0 3f e2 f7 ed 3f d1 61 44 3f 0a 90 80 3f
       1.3774515 1.8591273 0.76711756 1.0043957
000030 a3 b6 3c 3f 6a 6f b3 3f ec 38 91 3f 61 b2 0b 3f
       0.7371618 1.4018376 1.1345496 0.5456906
000040 79 12 36 3f bf 12 97 3f 06 44 90 3f 46 dc 90 3f
       0.7112194 1.1802596 1.1270759 1.1317222
000050 a0 36 5a 3f 83 8e d6 3f 93 18 c5 3e bb 8f 67 3f
       0.852396 1.6762241 0.3849531 0.9045369
000060 a2 23 85 3f 72 84 84 3f f1 fd a6 3f fe 4b f6 3f
       1.0401499 1.0352919 1.3046247 1.9241941
000070 d8 da 90 3f 1c f5 85 3f 0b da ba 3f 1c 39 1e 3f
       1.1316786 1.0465426 1.4597791 0.6180589
000080 4c 96 57 3f ea 33 cb 3f dc d3 f2 3f e7 43 a1 3f
       0.8421371 1.5875218 1.8970904 1.2598847
000090 6e fd a7 3d 41 8f a1 3f 5f e9 81 3f a8 38 5f 3f
       0.08202635 1.2621843 1.0149344 0.87195826
0000a0 b8 ea 03 3f 5c c5 dc 3f 84 2a 5f 3f 4b 0e 9a 3f
       0.5153003 1.7247729 0.8717425 1.2035612
0000b0 ff f5 3d 3f cf e0 ad 3f c7 86 82 3f a1 35 31 3f
       0.74203485 1.3584231 1.0197381 0.69222456
0000c0 9f 03 9f 3f d0 e5 45 3f a3 ce 99 3f 30 8a 8b 3f
       1.242298 0.7730379 1.2016186 1.0901546
0000d0 85 d5 43 3f 1c f1 38 3f a6 7a 12 40 5c cf 5e 3f
       0.7649768 0.72242904 2.2887359 0.87035155
0000e0 6f 0d ad 3f e7 72 12 3f 1f 5c 85 3e a6 ac dd 3f
       1.3519725 0.5720658 0.26046845 1.7318313
0000f0 61 8c 9e 3f fb 74 1e 3f c3 2a dc 3e c0 c1 d5 3e
       1.238659 0.6189725 0.43001375 0.41749382
000100 78 71 c3 3f a2 61 54 3f 80 44 a1 3f d0 f9 a0 3f
       1.5269003 0.82961476 1.259903 1.2576237
000110 03 13 57 3f 54 37 6e 3f ce 51 84 3f d1 3c d6 3e
       0.84013385 0.93053174 1.0337465 0.41843274
000120 04 9a 94 3f 7e d8 31 bf db ed 0a 3f dc 6e bc 3f
       1.1609502 -0.69470966 0.5426919 1.4721332
000130 3c 84 60 3f 22 05 b5 3f 7b 86 0f 3f e1 13 bc 3f
       0.87701774 1.4142191 0.56064576 1.4693567
000140 e2 06 a0 3f 19 b6 9e 3f 5a 26 8f be 0f 44 cc 3f
       1.25021 1.2399322 -0.27958947 1.595827
000150 55 03 69 3f 99 41 56 3f d8 3e 96 3f 07 41 93 3f
       0.9102071 0.83693844 1.1737928 1.150422
000160 9d 15 71 3f 0b 08 a8 3e c7 05 b2 3f d1 6d 81 3f
       0.94173604 0.32818636 1.3908013 1.0111638
000170 3e 06 ea 3e de 9d aa 3f b6 7d a8 3f 26 b1 d6 3e
       0.45707887 1.3329427 1.3163364 0.4193203
000180 cb 74 1c 3f 82 a3 dc 3e f3 39 ec 3f 85 f0 78 3f
       0.6111571 0.43093497 1.8455185 0.97242004
000190 92 23 99 3f 83 94 a3 3f 7f 11 9b 3f e3 7d 90 3f
       1.196398 1.2779697 1.2114714 1.1288418
0001a0 35 f8 43 3f 05 eb a7 3f 1a 28 c1 3f 79 83 c1 3f
       0.7655061 1.3118597 1.5090363 1.5118247
0001b0 a7 00 95 3f 43 7f 83 3f 2e c6 76 3f a7 b6 d6 3e
       1.1640824 1.0273212 0.9639615 0.41936228
0001c0 b5 c4 93 3f b5 c3 75 3f 5a cc 7b 3f 0a 7e 5d 3f
       1.1544405 0.9600175 0.9835869 0.86520445
0001d0 d6 6d a4 3f d1 95 47 3f e6 28 9f 3f d0 eb 29 3f
       1.2846019 0.77962977 1.2434356 0.66375446
0001e0 bb 22 98 3f 73 b5 29 3f 63 11 a9 3e 14 73 ea 3e
       1.1885599 0.66292495 0.33021078 0.45790923
0001f0 a9 ae 71 3f 7a a7 6b 3f b6 03 79 3f e6 ee e5 3e
       0.94407135 0.92052424 0.9727129 0.44908828
000200 b7 5d 1b 3f 31 97 74 3f 07 d7 77 3f 41 55 8d 3f
       0.6068987 0.955432 0.9681248 1.1041642
000210 67 f3 90 3f e3 aa 91 3f e9 a9 30 3f f2 e6 37 3f
       1.132428 1.1380275 0.6900926 0.7183677
000220 a1 60 9a 3f 84 ef fa 3e ac be c9 3f df dc 65 3f
       1.2060739 0.4901086 1.5761313 0.8979015
000230 ce 6b 89 3e ac 4e b2 3f 80 b0 dd 3e 8f b9 21 3f
       0.2684006 1.3930259 0.4329872 0.63173765
000240 11 07 be 3e 52 f2 3c 3f 02 32 8b 3f ab e6 92 3f
       0.37114766 0.7380725 1.0874636 1.1476644
000250 e5 18 9c 3f d3 7a a5 3f 60 45 64 3f 42 ad 9b 3f
       1.2195097 1.2928108 0.8916836 1.2162249
000260 c6 76 a5 3f 41 1e a0 3f 96 5a 88 3f 3d 12 95 3f
       1.2926872 1.2509233 1.0652645 1.1646191
000270 3c d2 b3 3f 59 4b 12 3f 66 0d 5c 3f b7 60 24 3f
       1.4048533 0.5714622 0.85957944 0.64210075
000280 08 5a 1e 3f a0 1e ac 3f e6 53 04 3f 93 f9 40 3f
       0.61856127 1.3446846 0.5169052 0.7538082
000290 fa f7 d0 3f 1c 24 ff bd 7a 1f 36 3e f5 20 80 3f
       1.6325676 -0.12458059 0.17785445 1.0010058
0002a0 fa 69 37 3f a2 35 90 3f 53 c3 72 3e dd fa 5c 3f
       0.7164608 1.1266367 0.23707323 0.86320287
0002b0 1a 25 76 3f fa 93 df 3f 85 0d aa 3f 49 93 7d 3f
       0.9615036 1.7467034 1.3285376 0.99052864
0002c0 59 bb 72 3f d7 7c 3f 3f 84 f1 1a 3f 2a 1e 50 3f
       0.9481712 0.74799865 0.60524774 0.81296027
0002d0 85 82 88 3f 96 02 28 3f fa 57 ee 3f 0a 8c 42 3f
       1.0664831 0.65628946 1.8620598 0.7599493
0002e0 93 99 c0 3d c2 68 66 3f ad 81 4c be 0e de 99 3f
       0.09404292 0.900036 -0.19971342 1.2020891
0002f0 1a f1 8c 3f 99 2e df 3f 2a 99 e3 3f 13 5d 9b 3f
       1.1011078 1.7436095 1.7781117 1.2137779
000300 92 45 a6 3f b1 ce 41 3f c6 09 96 3f 28 3e 95 3f
       1.2989981 0.7570601 1.1721733 1.1659594
000310 87 7b 1d 3f e6 2d 9a 3f 02 6e 3d 3f 69 ca 7b 3f
       0.6151661 1.2045257 0.73995984 0.9835573
000320 fa 71 e8 3e 11 ed 4d 3f ad 46 91 3f 0f d9 e0 3f
       0.45399457 0.8043986 1.1349694 1.7566241
000330 b8 b8 68 3f e8 be 70 3f b3 75 c4 3f 4a 64 c4 3e
       0.9090686 0.940413 1.5348419 0.38357764
000340 96 65 36 3f 81 82 9d 3f 70 84 61 3f 82 b7 a9 3f
       0.7124876 1.2305452 0.8809271 1.3259127
000350 38 bf a0 3f 1f 90 f1 3e 1b e8 92 3f 8c 1a 0e 3f
       1.2558355 0.47180268 1.1477083 0.5550926
000360 6b 8e ef 3e 4a a7 0a 3f 30 43 3b 3f 32 57 19 3f
       0.46788344 0.5416151 0.73149395 0.59898674
000370 e7 b3 88 3f f4 31 d9 3e 4c 35 bf 3f 2e 73 11 3f
       1.0679902 0.42420924 1.493814 0.56816375
000380 af 1c ae 3f 12 8b 5a 3f ca 40 9f 3f 45 48 9d 3f
       1.3602504 0.85368454 1.2441647 1.228768
000390 ec 21 3d 3f ff 99 5a 3f a9 9a 78 3f 04 12 88 3f
       0.73879886 0.8539123 0.9711099 1.0630498
0003a0 67 8a 96 3f fc 58 ae 3f c0 9d e0 3f bd 80 bb 3f
       1.1760987 1.3620906 1.7548141 1.4648663
0003b0 ac 1c 02 bf a1 60 91 3f bf 8c e5 3e 6d 27 9f 3f
       -0.50825 1.1357614 0.44833943 1.2433907
0003c0 3e 89 71 3f 86 ed 1f 3f 93 71 ab 3f 9a eb 93 3f
       0.9435004 0.62471807 1.3394035 1.1556275
0003d0 55 f4 93 3f af 01 ac 3f 2c 60 23 3f bd b5 ae 3f
       1.1558939 1.3438014 0.6381862 1.3649212
0003e0 09 9d 9a 3f 1c b2 bc 3f af c9 8f 3f be 63 b2 be
       1.2079173 1.4741855 1.1233424 -0.34841722
0003f0 92 ee db 3f 60 b4 17 3d 89 e8 42 3f ac 32 47 3f
       1.7182181 0.037037253 0.7613607 0.77811694

fc2.bias f4 [300]
000000 ec 84 7e 3f 35 20 95 3f 84 c0 a3 3f be 26 63 3f
       0.9942157 1.1650454 1.2793126 0.8873099
000010 5f ff a8 3f 9c cb a9 3f 2a f9 ad 3f c0 45 ab 3f
       1.3202933 1.3265262 1.3591664 1.3380661
000020 01 d1 8d 3f a9 26 a0 3f 0f 64 a7 3f 49 95 bf 3f
       1.1079408 1.2511798 1.307741 1.4967433
000030 48 c7 89 3f 38 65 9f 3f f3 8a af 3f 20 d0 ae 3f
       1.0763941 1.2452765 1.3714279 1.3657265
000040 a4 1a 8d 3f 89 34 ae 3f 2d 3d 66 3f e3 c1 97 3f
       1.1023755 1.3609782 0.89937097 1.1856045
000050 03 1a bf 3f 5a d3 ba 3f b9 78 82 3f 22 e4 8e 3f
       1.4929813 1.4595749 1.0193092 1.1163371
000060 86 43 c8 3f 49 33 9f 3f 2c 2c c6 3f 85 ad a6 3f
       1.5645607 1.2437526 1.548223 1.3021704
000070 39 13 94 3f 5f fe 89 3f e9 91 75 3f 9b 6c b1 3f
       1.1568366 1.0780753 0.95925766 1.3861269
000080 db c8 7d 3f 2f 20 87 3f fe 76 9e 3f 77 8e 89 3f
       0.99134606 1.0556697 1.2380064 1.0746602
000090 19 1a b6 3f 20 d2 aa 3f 2c 42 97 3f 43 50 63 3f
       1.4226714 1.3345375 1.1817069 0.88794345
0000a0 69 8d 78 3f 71 af a7 3f b3 b4 ab 3f 9f 41 ac 3f
       0.97090775 1.3100415 1.341452 1.3457526
0000b0 5b 2a 93 3f 44 2d 9c 3f 3c 1d 5a 3f 92 b2 9e 3f
       1.1497301 1.2201314 0.8520086 1.2398245
0000c0 55 63 a3 3f a3 bf 93 3f 54 27 a2 3f 94 3b a0 3f
       1.2764689 1.1542858 1.2668252 1.2518182
0000d0 9a 32 97 3f 88 53 c1 3f ca 01 9a 3f 27 eb 9b 3f
       1.1812317 1.5103617 1.2031796 1.2181138
0000e0 d4 64 a5 3f b5 5e 9e 3f 62 17 b8 3f 9f 7f 8e 3f
       1.2921395 1.2372652 1.4382136 1.1132697
0000f0 85 d0 a3 3f 61 07 c4 3f d5 a5 a6 3f a0 80 83 3f
       1.279801 1.5314752 1.3019358 1.0273628
000100 ab 7f c0 3f d5 26 a9 3f e7 f7 9b 3f 89 5d 8f 3f
       1.5038961 1.3214976 1.2185029 1.120042
000110 ff 02 91 3f 7a ec 90 3f 3b 64 a2 3f db 50 87 3f
       1.1329039 1.1322167 1.2686838 1.057155
000120 69 f4 91 3f b3 82 ac 3f af 95 9a 3f 5a 49 a8 3f
       1.1402713 1.3477386 1.207693 1.3147385
000130 25 e7 a9 3f a9 b1 aa 3f 0f c2 97 3f b0 c2 84 3f
       1.3273665 1.3335468 1.1856097 1.0371914
000140 02 5e 70 3f 2d ba 87 3f 07 62 ad 3f 95 1d b7 3f
       0.93893445 1.0603691 1.354554 1.4305903
000150 4b 51 b0 3f a8 74 99 3f ef 26 ac 3f 34 ab 80 3f
       1.3774809 1.1988726 1.3449382 1.0052247
000160 89 d9 9c 3f 8e 79 82 3f 56 da 9d 3f 3c e7 a8 3f
       1.2253886 1.0193346 1.2332256 1.3195567
000170 85 ae b5 3f c8 ba 9d 3f 7f c0 5f 3f 3d 8c 8c 3f
       1.4193884 1.2322626 0.874031 1.0980297
000180 a2 7f 9f 3f 67 3e b9 3f 14 4b a0 3f c7 47 87 3f
       1.2460825 1.4472169 1.2522912 1.056878
000190 01 05 8a 3f 42 3a b8 3f f4 86 9b 3f ca b7 5c 3f
       1.0782777 1.4392779 1.215056 0.8621794
0001a0 f6 8a a0 3f 72 16 b0 3f fb 9f 8a 3f 25 4c 9f 3f
       1.2542408 1.375685 1.0830072 1.2445112
0001b0 3a 5c 8f 3f 5a 22 95 3f c6 6e 8b 3f 81 41 95 3f
       1.120002 1.1651108 1.089318 1.1660615
0001c0 ed 87 94 3f 16 ed 73 3f 1c 56 89 3f 37 b0 95 3f
       1.1603981 0.9528364 1.0729403 1.1694402
0001d0 2b 71 97 3f c7 e7 8b 3f 86 13 8f 3f 85 01 8a 3f
       1.1831411 1.0930108 1.1177833 1.0781714
0001e0 17 d7 9b 3f 3c 7c b4 3f 61 63 8c 3f dc 20 9a 3f
       1.2175015 1.4100413 1.0967828 1.2041278
0001f0 f3 98 a0 3f 43 b7 5e 3f 03 f3 9e 3f 6f df b3 3f
       1.2546676 0.86998385 1.2417911 1.4052562
000200 d2 50 b5 3f 80 61 a2 3f bd c7 9b 3f 19 d6 d0 3f
       1.4165289 1.2686005 1.217033 1.6315337
000210 a5 73 62 3f 26 43 af 3f 0b 3f 9f 3f 44 a2 9d 3f
       0.8845771 1.3692367 1.2441114 1.2315145
000220 15 a5 9f 3f 34 be aa 3f 46 6b 8f 3f ca be be 3f
       1.2472254 1.3339295 1.1204612 1.4901974
000230 90 37 5e 3f b4 05 b8 3f 6d dc 8e 3f 9f 69 8a 3f
       0.8680353 1.437674 1.1161019 1.0813483
000240 91 df 9d 3f 57 4a 9f 3f a0 d8 90 3f be 11 98 3f
       1.2333852 1.2444562 1.1316109 1.1880414
000250 19 b8 96 3f 7d cc 90 3f 95 df 88 3f c7 f4 83 3f
       1.1774932 1.1312405 1.0693232 1.0309075
000260 29 63 7c 3f 9e 3f 90 3f 77 37 ac 3f 08 16 9b 3f
       0.98588806 1.1269414 1.3454427 1.2116098
000270 ee 98 96 3f e6 9e a6 3f 85 4b bd 3f 86 90 ac 3f
       1.176542 1.3017242 1.4788672 1.3481605
000280 ce d3 ae 3f 55 53 85 3f 23 02 9e 3f a1 d2 93 3f
       1.3658388 1.0416056 1.2344402 1.1548654
000290 a2 ee 9f 3f 1b 49 89 3f 13 2e 97 3f 84 fe 92 3f
       1.24947 1.0725435 1.1810936 1.1483922
0002a0 c8 84 a6 3f 73 1f 90 3f 63 1e ad 3f 7b 94 a1 3f
       1.3009272 1.1259598 1.3524898 1.2623438
0002b0 50 d4 8c 3f 10 0e 84 3f d7 d9 98 3f 9c 3e 82 3f
       1.1002293 1.0316792 1.194148 1.0175357
0002c0 7f aa c2 3f 1f 36 b1 3f e9 89 8e 3f 16 fa a2 3f
       1.5208281 1.3844641 1.1135837 1.273257
0002d0 a4 07 b5 3f af f5 8d 3f af 76 9c 3f 64 56 ac 3f
       1.4142957 1.1090602 1.2223719 1.3463864
0002e0 a2 88 a1 3f 17 23 a8 3f b2 06 a0 3f 21 83 a6 3f
       1.2619822 1.3135709 1.2502043 1.3008767
0002f0 e3 d1 b3 3f 4e ec a5 3f 59 c7 aa 3f 8e ca 8e 3f
       1.4048427 1.296274 1.3342086 1.1155565
000300 84 29 9b 3f c3 dd 88 3f a1 04 a9 3f 25 a3 92 3f
       1.2122045 1.0692676 1.3204538 1.1456038
000310 bb c7 ad 3f eb 2b a9 3f 5d c8 8a 3f ec 13 81 3f
       1.3576578 1.3216528 1.0842396 1.0084205
000320 8e b9 b2 3f 5e 3d 97 3f cd 4a b2 3f 39 e8 8a 3f
       1.3962877 1.1815603 1.3929077 1.0852119
000330 1e 5d c6 3f bc 2e 95 3f 7e 94 99 3f 29 4a ac 3f
       1.5497167 1.1654887 1.1998441 1.3460132
000340 de d8 72 3f 01 03 a9 3f 29 d4 bf 3f 15 94 a0 3f
       0.94862163 1.3204042 1.4986621 1.2545191
000350 f1 19 87 3f 2a ae 87 3f 97 d4 70 3f f6 8a 84 3f
       1.0554792 1.0600026 0.94074386 1.0354908
000360 42 5c 40 3f c4 2f ad 3f 8d c6 89 3f 23 ac a1 3f
       0.75140774 1.3530202 1.0763718 1.2630657
000370 f6 b7 92 3f 2b 23 a7 3f 4b c9 9b 3f ef 0e 99 3f
       1.146239 1.3057607 1.2170805 1.1957682
000380 f0 bf 92 3f 15 fe ad 3f e8 c6 98 3f 5e fc 86 3f
       1.1464825 1.3593165 1.1935701 1.0545766
000390 16 17 9a 3f 17 bf 9c 3f 18 4b 91 3f 44 b4 9d 3f
       1.2038295 1.2245816 1.1351042 1.2320638
0003a0 91 82 85 3f c1 eb a4 3f 9b fc a0 3f 75 ce a3 3f
       1.0430471 1.2884446 1.2577089 1.2797381
0003b0 35 9e 84 3f 7f dd b6 3f df 37 b0 3f 4b f4 a2 3f
       1.0360781 1.4286345 1.376705 1.2730802
0003c0 04 76 84 3f c0 46 96 3f 4e 8c a6 3f c8 0c a2 3f
       1.0348516 1.1740341 1.3011568 1.266015
0003d0 2b fd a2 3f 44 35 a9 3f 41 45 b9 3f ea 75 79 3f
       1.2733511 1.321938 1.447426 0.9744555
0003e0 20 35 a1 3f 8d 8c 8c 3f 07 75 91 3f aa e8 a0 3f
       1.2594337 1.0980393 1.1363839 1.2571003
0003f0 26 da a2 3f aa 41 6c 3f 5f ba 8f 3f 42 66 8b 3f
       1.2722824 0.92287695 1.1228751 1.0890582

bn1.weight f4 [400]
000000 47 8e 87 3f fe 0e 55 3f c3 80 2d 3f 12 fd 08 40
       1.0590295 0.83226 0.677746 2.1404462
000010 6f 81 e5 3f a9 17 c9 3f 8f 23 c1 3f cd e9 c0 3f
       1.7930125 1.5710346 1.5088977 1.507135
000020 e7 17 16 3f 32 45 92 3f a5 9f 88 3f 89 2b db 3f
       0.5863022 1.1427367 1.067372 1.7122661
000030 21 fc 7c 3f 95 86 5d 3f 4b 7f 88 3f f4 d3 4d 40
       0.9882222 0.8653348 1.0663847 3.2160616
000040 d9 e0 b1 3f 49 b3 bc 3f 08 14 34 3f a2 29 2a 3e
       1.3896743 1.4742213 0.70343065 0.16617444
000050 50 fc 1b 3f 27 35 22 40 05 c7 d1 3f 56 60 73 3f
       0.60931873 2.5344942 1.6388861 0.9506887
000060 c3 66 36 3f 3e b5 97 3f 2b 47 9f 3f e5 27 b6 3f
       0.7125055 1.1852186 1.2443594 1.4230925
000070 41 26 af 3e e8 b2 bc 3f 71 7a ad 3f c5 a2 aa 3f
       0.34208873 1.4742098 1.3552991 1.3330923
000080 a0 f3 94 3f 2b fb 92 3f 82 00 b7 3f b0 2d 99 3f
       1.1636848 1.14829 1.429703 1.1967068
000090 5d f0 03 40 b9 35 8d 3f f3 e5 0f 3f 0c 08 f6 3f
       2.0615456 1.103202 0.5621025 1.9221206
0000a0 50 02 e9 3f 1f 6c d5 3f ee c5 e6 3f e8 53 d9 3e
       1.8203831 1.6673621 1.8029153 0.42446828
0000b0 f5 0e c7 3f 75 24 ba 3f 5e 68 87 3f 27 ae c2 3f
       1.555144 1.4542376 1.0578725 1.5209397
0000c0 a2 fa 63 3f 7c 09 4b 3f 85 cc b2 3e 12 f3 a7 3f
       0.8905431 0.79311347 0.3492166 1.3121054
0000d0 6d 83 86 3f e3 81 19 3f 0b 64 0c 40 d6 d2 9c 3f
       1.0508858 0.59963816 2.1936061 1.2251842
0000e0 3a 4c 9a 3f d1 8b ab 3f 52 4e ce 3f b9 ad bd 3f
       1.2054513 1.3402044 1.6117651 1.4818641
0000f0 19 09 dc 3e 13 7c f5 3f ec 60 a3 3f 55 44 68 3f
       0.4297569 1.917849 1.2763953 0.90729266
000100 c1 32 fb 3f dc fb 56 3f 3b ba b3 3f 47 77 58 3f
       1.9624864 0.83978057 1.4041208 0.84557
000110 65 ba cf 3f 28 ce 8f 3f 37 be 8f 3f 21 12 a8 3f
       1.6228758 1.1234789 1.1229924 1.3130533
000120 50 8a 7c 3f ee c0 29 40 b2 ca c4 3f b3 c2 cc 3f
       0.9864855 2.6524005 1.5374358 1.5996917
000130 c2 a7 a4 3f fe 5b e7 3f a1 c5 f0 3f 80 94 25 3f
       1.2863696 1.8074949 1.8810312 0.6467972
000140 3a f8 9a 3f de 57 fa 3e 9f 0f 1d 40 f4 40 8d 3e
       1.2107003 0.48895162 2.4540784 0.27588618
000150 bc 59 ac 3f d2 19 63 3e 77 66 35 3f ff 0e 52 3f
       1.3464885 0.22177818 0.70859474 0.8205413
000160 63 af 06 3f b8 21 f2 3f 3f f2 af 3f 74 9c 50 3f
       0.5261137 1.891654 1.3745803 0.8148873
000170 95 86 4f 3f 44 13 8a 3f 22 60 8f 3f ff 1f b0 3f
       0.8106473 1.0787129 1.1201212 1.3759764
000180 77 a6 98 3f aa 16 59 3f 07 f2 e3 3f 76 38 49 3f
       1.1925801 0.8480021 1.7808236 0.7860178
000190 96 9e 88 3f 9b 58 db 3f 9c 83 a6 3f 1f 9c dc 3f
       1.0673397 1.7136415 1.3008914 1.7235144
0001a0 1b 9e 9b 3f 1a c3 6d 3f 2c 4f 01 40 51 49 da 3f
       1.2157625 0.92875826 2.0204573 1.7053624
0001b0 73 d5 9b 3f e7 dc 94 3f a4 26 af 3f 6d d2 be 3f
       1.2174515 1.1629914 1.3683667 1.4907967
0001c0 86 32 8d 3f d4 3e 4b 3f ee fe 87 3f cf bc c3 3f
       1.1031044 0.79392743 1.0624673 1.5291995
0001d0 e3 eb cb 3f 6d 0d 87 3f b3 8b 80 3f 06 10 bb 3f
       1.5931362 1.0550972 1.0042633 1.4614265
0001e0 59 0d aa 3e c2 17 c6 3f 49 dc ae 3f 5f 55 d6 3f
       0.33213308 1.5476 1.3660976 1.6744803
0001f0 4e e1 76 3f fb af 10 3f 7b 92 90 3f 48 13 6f 40
       0.9643754 0.56518525 1.1294702 3.7355518
000200 ff b0 c6 3f 7e 4d 8d 3f fd d8 92 3f 90 05 a5 3f
       1.5522765 1.1039274 1.147247 1.2892323
000210 82 21 a5 3f 9b d1 7d 3f c8 8b 50 3f 96 9d 8d 3f
       1.2900851 0.9914796 0.8146329 1.1063716
000220 f4 b6 89 3f 8d 8a c2 3f ef a9 02 40 57 10 a6 3f
       1.0758958 1.5198532 2.041622 1.2973737
000230 97 06 bf 3f fd 70 5a 3f 4f 88 83 3f bd 6b fe 3f
       1.4923886 0.85328656 1.0275973 1.9876629
000240 5f 17 89 3f 6f 99 8f 3f ba f4 14 3f 40 db 05 3f
       1.0710257 1.1218699 0.58185923 0.52287674
000250 3e 0d a7 3f 45 a7 bd 3f 48 b3 b2 3f d2 4f 82 3f
       1.3050916 1.4816672 1.3960962 1.0180609
000260 6d 97 85 3f 95 cd 04 3f 7a 6b df 3f 09 37 43 3f
       1.0436836 0.51876193 1.7454674 0.7625585
000270 5d fc 94 3f 5e 8e 56 3f 92 bf 27 3f a4 62 1b 3f
       1.1639515 0.83810985 0.6552669 0.6069739
000280 89 3f 68 3f d3 ef cc 3f 6f bc 2b 3f a0 40 5b 3f
       0.90721947 1.6010689 0.670844 0.85645485
000290 f5 bd 9f 3f 82 59 29 40 35 b1 a6 3f c3 a2 81 3f
       1.2479845 2.6460881 1.3022829 1.0127796
0002a0 35 f0 7d 3f bd 8f bf 3f 1a 29 e4 3f 01 44 4f 3f
       0.9919465 1.496574 1.7825043 0.8096314
0002b0 b7 23 c8 3f 07 31 b4 3f 6b 40 a4 3f 50 73 32 3f
       1.5635899 1.4077462 1.2832159 0.697072
0002c0 56 dd 58 40 af 29 61 3f 76 1b ab 3f ce 10 13 3f
       3.3885093 0.8795423 1.3367755 0.57447517
0002d0 39 e6 d1 3f 15 43 74 3f 23 1b c4 3f c8 d5 9f 3f
       1.6398383 0.9541486 1.5320781 1.2487116
0002e0 d6 c5 c8 3f 21 f7 3c 3f 33 69 50 40 cb f6 07 3f
       1.5685375 0.7381459 3.2564209 0.5311095
0002f0 cd fd 82 3f bd 28 6f 3f 77 a7 ab 3f 85 1f 8e 3f
       1.0233704 0.93421537 1.3410481 1.1103369
000300 00 d5 c6 3f 9f 87 a6 3f 2a dc bd 3f f4 91 3d 3f
       1.5533752 1.3010138 1.4832814 0.7405083
000310 00 0d 8e 3f 65 17 89 3f 3a 87 82 3f a5 51 40 3f
       1.1097717 1.0710264 1.0197518 0.7512458
000320 2e f0 96 3f 4d 12 a2 3f ec f3 33 3e 0f 1d ba 3f
       1.1792047 1.2661835 0.17573518 1.4540118
000330 52 1c bd 3f 28 f3 85 3f ef aa 71 3f 83 62 1e 40
       1.4774268 1.046483 0.9440145 2.4747627
000340 51 e9 94 3f dc 81 dc 3f 63 fa 90 3f eb 84 7b 3f
       1.1633703 1.722713 1.1326412 0.9824969
000350 64 c0 98 3e f3 a4 a8 3f 03 79 ea 3e ec da 0a 3f
       0.29834282 1.3175339 0.4579545 0.542403
000360 d4 73 c0 3f 2c 04 e0 3f 7f f6 ac 3f b3 63 64 3f
       1.5035348 1.7501273 1.3512725 0.8921463
000370 b4 bb 3a 3f e7 1c c4 3f 9a 8a bf 3f ea 5c 74 3f
       0.7294266 1.532132 1.4964173 0.95454276
000380 e3 b3 1e 3f 90 96 8f 3f 05 c7 3d 3f 51 05 63 3f
       0.61993235 1.1217823 0.74131805 0.8867999
000390 7c 29 54 40 55 5f c1 3f 27 ea 76 3f df bd 04 3f
       3.315032 1.5107218 0.9645104 0.5185222
0003a0 36 df be 3f 4d 3b 07 3f eb 68 b0 3f 23 e4 dc 3f
       1.4911869 0.5282486 1.3782018 1.7257122
0003b0 13 45 41 40 36 3c 85 3f cd 44 8d 3f 24 ef 2e 3f
       3.019841 1.0409 1.1036621 0.6833365
0003c0 b9 b6 af 3f 06 5f d7 3f fc 74 eb 3e ab e2 40 3f
       1.3727638 1.6825874 0.4598769 0.7534587
0003d0 fd 3b 42 3f 74 ff 88 3f 06 de d1 3e c1 68 89 3f
       0.75872785 1.0702958 0.40989703 1.0735093
0003e0 fc 1b a4 3f a6 27 3e 3f d2 4c 86 3f 5c 67 3e 40
       1.282104 0.7427925 1.0492194 2.9750586
0003f0 13 61 ca 3f b4 9f e4 3f 04 24 e5 3e 68 bd 61 40
       1.5810875 1.7861238 0.4475404 3.5271854

bn1.bias f4 [400]
000000 14 72 b4 be da 4e 3f bf 76 29 f6 be 9b 86 e9 3d
       -0.35243285 -0.7472969 -0.48078507 0.11402627
000010 11 2f 7a be 27 5a 61 3e bc 59 68 be f8 0e b2 be
       -0.24432017 0.22007047 -0.22690481 -0.34777045
000020 5c 3a 10 bf 19 2b e9 be e9 d6 cc be d9 6a ad bd
       -0.5633905 -0.45540693 -0.40007713 -0.08467645
000030 a8 e7 de be a9 6f a1 be 4a 32 b1 be 44 d0 06 3e
       -0.43536115 -0.31530502 -0.3460868 0.13165385
000040 e1 79 31 be fb e8 59 be 11 04 08 bf 51 57 30 bf
       -0.1733165 -0.21280281 -0.53131205 -0.68883234
000050 9a c9 27 bf ec f4 1a bd 36 56 9b be 3e c2 13 be
       -0.65541995 -0.037831232 -0.3033921 -0.14429566
000060 38 31 2b bf 4b 89 3f be a3 f3 89 be 23 bb 9b be
       -0.66871977 -0.18704717 -0.26943693 -0.3041621
000070 99 ea 30 bf 77 ff 85 be 8a bf 38 be 77 5b 80 3d
       -0.6910797 -0.26171467 -0.18041816 0.062674455
000080 2f 10 36 be ff 53 ae be ce 2b 4a be 50 8c 97 be
       -0.17779611 -0.3404846 -0.19743273 -0.29599237
000090 4c b8 c6 bd 21 84 e3 be 79 79 22 bf 13 16 b8 3d
       -0.097031206 -0.44436744 -0.634666 0.08988585
0000a0 fa f3 7c bd be c1 33 be 6a 81 54 3d 23 74 44 bf
       -0.06175611 -0.17554376 0.05188123 -0.7673971
0000b0 8f 60 9e bd 0a 1a 94 bd ed 2e 67 be fa 6a 1c bc
       -0.07733261 -0.07231529 -0.22576495 -0.00954699
0000c0 c8 b0 e3 be a3 80 cb be bc 04 34 bf e3 86 4d 3d
       -0.4447081 -0.3974658 -0.70319724 0.050177466
0000d0 c3 6a 45 bf 06 51 dd be cf 35 0c be 36 8e 9e be
       -0.7711603 -0.43225878 -0.13692401 -0.30967873
0000e0 e8 06 cb be e3 86 54 be 88 59 01 be 6f 36 75 be
       -0.39653707 -0.2075458 -0.1263181 -0.23946546
0000f0 a2 ad da be 9d 92 ef bd e7 b9 cf be 58 7c 08 bf
       -0.42710596 -0.11697886 -0.4057152 -0.53314734
000100 9e bf 90 be 16 40 21 bf 4e b4 75 be 80 85 ba be
       -0.28271192 -0.6298841 -0.23994562 -0.36429977
000110 fd 2c 60 be 23 f5 8b be 2d 7a ea bd da 8e 8f be
       -0.21892162 -0.27335462 -0.114490844 -0.28038675
000120 85 1f be be ee 12 70 be 91 8c 0e 3e 6a 12 93 be
       -0.37133422 -0.23444721 0.1392081 -0.28724986
000130 8d 82 31 bf 58 d4 29 be 4d a7 97 3e 5c e2 dc be
       -0.6933983 -0.16584909 0.29619828 -0.43141448
000140 a1 e5 71 be 01 30 0a bf 83 8f 8d 3e 43 d7 49 bf
       -0.23622753 -0.539795 0.27648553 -0.7884409
000150 55 40 c4 be 6a f8 47 bf e2 3c e5 be 96 73 1b bf
       -0.3833033 -0.78113425 -0.44773012 -0.60723245
000160 b1 45 22 bf 89 e6 83 3e 12 8f 6d be c1 0d 00 bf
       -0.6338759 0.25761822 -0.23199108 -0.50020987
000170 c0 00 18 bf fb 35 b0 be bc d4 5a be c4 85 fc be
       -0.59376144 -0.34416184 -0.21370214 -0.49320805
000180 9a 60 3a be 8f c0 29 bf a8 42 08 be 80 c1 09 bf
       -0.18200913 -0.66309446 -0.13306677 -0.5381088
000190 72 27 a1 be 55 4c 8a be c7 bc a5 bd 81 04 27 be
       -0.31475407 -0.27011362 -0.08092647 -0.16310312
0001a0 9a 16 a4 be f4 cd d7 be 3c 3a 24 bd e6 4b f8 bc
       -0.32048494 -0.42149317 -0.0400946 -0.030309629
0001b0 6f 94 ae be 30 9f d0 be 53 10 85 be eb 67 52 be
       -0.3409762 -0.4074645 -0.25989017 -0.20547454
0001c0 ba 01 8a be 9c 81 03 bf 09 03 79 bd 3d 31 47 be
       -0.26954442 -0.51369643 -0.06079391 -0.19452377
0001d0 c6 e1 0f be 41 a5 80 be 3c 9e 6b be 56 76 cb be
       -0.1405097 -0.2512608 -0.2300958 -0.3973872
0001e0 42 f5 09 bf 15 95 11 be 58 2f 0d be 10 1a 59 3d
       -0.5388986 -0.14217027 -0.13787591 0.05300337
0001f0 2a 88 d5 be 40 08 40 bf ca a4 b9 be c7 af eb bd
       -0.41705447 -0.7501259 -0.36258537 -0.11508136
000200 38 f5 4d bd 46 ff d5 be f6 50 f7 be fd 6f 98 be
       -0.050282687 -0.4179632 -0.48303956 -0.2977294
000210 23 72 9d be e6 9c 2c bf 97 3e 96 be 83 69 32 be
       -0.30751142 -0.6742691 -0.29344627 -0.17423062
000220 69 e4 92 be d4 48 86 be 77 a1 2b be ed 5a 06 bf
       -0.28689888 -0.26227438 -0.16760813 -0.5248249
000230 dc 6f bc be da 06 fa be 0d 8d 0b bf 2b 2d ad be
       -0.36804092 -0.48833352 -0.545121 -0.33823523
000240 a2 4e 0a bf c1 a5 e5 be 93 d6 e5 be af df fb be
       -0.54026234 -0.44853023 -0.4489027 -0.49194095
000250 41 ee b6 be 8b 62 11 be b2 c3 20 3c 44 74 89 be
       -0.35728648 -0.14197747 0.009812282 -0.26846516
000260 90 84 09 bf 1d a0 19 bf 0d 61 0d be b9 c9 ac be
       -0.537179 -0.6000994 -0.13806553 -0.33747652
000270 9d ac 53 be e9 64 e7 be f0 10 cf be be 5b db be
       -0.20671315 -0.45194176 -0.4044261 -0.4284343
000280 96 dc cb be d9 05 cd bd ff 20 48 bf 88 5a 1e bf
       -0.3981673 -0.10010881 -0.7817535 -0.6185689
000290 0a 77 6c be f2 b5 ce bd 49 25 da be b0 4a 47 bf
       -0.23092285 -0.10093297 -0.4260657 -0.7784834
0002a0 79 b3 c3 be 02 3d c3 be 15 6b 27 3c 77 3d 19 bf
       -0.38222864 -0.38132483 0.010218401 -0.5985941
0002b0 53 03 97 be 0c ba 85 be d3 62 fe be a1 d0 03 bf
       -0.29494724 -0.26118505 -0.49684772 -0.5149022
0002c0 2d a4 e4 bd 4f 34 ea be e8 fc a1 be 16 43 11 bf
       -0.111641265 -0.45743033 -0.31638265 -0.5674299
0002d0 b4 6d df be 97 26 28 bf 1c 05 67 be 7d 4e a5 be
       -0.43638384 -0.65683883 -0.22560543 -0.32286444
0002e0 84 ca 1f be 58 4b 17 bf b2 a8 24 3f 9a f6 23 bf
       -0.15604597 -0.5909934 0.6431991 -0.6404816
0002f0 1e e1 5c be 70 28 e6 be d5 a4 93 be 07 13 bc be
       -0.2157025 -0.44952726 -0.28836694 -0.36733267
000300 bf f9 05 be 2f 9c 8a be ce b9 d0 be b1 0a f2 be
       -0.13083552 -0.27072284 -0.40766758 -0.47273782
000310 3d 56 ad be 48 b3 d2 be c1 3a c3 3b d4 ac d2 be
       -0.33854857 -0.41152406 0.0059579317 -0.41147482
000320 fe 88 09 bf 96 f7 e4 3c 44 79 3a bf 3e 39 80 be
       -0.5372466 0.02795009 -0.72841287 -0.25043672
000330 6f a4 23 be 7e b0 cf be 47 42 81 be 98 2f 3e 3f
       -0.15980695 -0.4056434 -0.25245878 0.7429137
000340 00 24 05 be ed 2f 3e be 08 e8 be be bf 3c c7 be
       -0.13002014 -0.1857297 -0.372864 -0.38913533
000350 36 9f 42 bf 2a a8 9f be fe 6a 39 bf 60 5b 3d bf
       -0.76024187 -0.31182986 -0.7242888 -0.7396755
000360 5b d0 f8 be c6 49 ec bb 2f c4 a6 3d f9 fe 1d bf
       -0.48596463 -0.007210943 0.08142888 -0.6171718
000370 32 e5 fa be 4a 7e 84 be 01 70 3d be 6f f3 0b bf
       -0.49002987 -0.258776 -0.18499757 -0.54668325
000380 7c 1d 26 bf 08 4e a0 be 66 17 1a bf fd 9f 08 bf
       -0.6488874 -0.31309533 -0.60191953 -0.5336912
000390 73 e5 4a bc 8b b4 b3 be cb c8 d5 be 08 ba ba be
       -0.0123838065 -0.3509868 -0.41754755 -0.36470056
0003a0 4c 81 ab 3c 34 c1 28 bf 28 24 85 be 37 1f 29 be
       0.020935677 -0.65919805 -0.26004148 -0.16515814
0003b0 86 e1 dd 3e 8b 3b cb be d0 63 ba be 30 57 e4 be
       0.43336123 -0.39693865 -0.36404276 -0.4459777
0003c0 e4 98 e2 bc d0 9d 10 be 90 f8 0a bf a9 7b a0 be
       -0.027660795 -0.141227 -0.54285526 -0.31344345
0003d0 0a 43 05 bf b8 b0 a5 be ef 0b 4d bf 56 a5 9b be
       -0.5205542 -0.32361388 -0.80096334 -0.3039958
0003e0 bd 8e b1 be 24 ad 12 bf 3d d3 96 be 78 c5 c1 3e
       -0.34679213 -0.5729544 -0.29458037 0.3784597
0003f0 81 3c 73 be de 98 ac be c1 1c 3d bf 06 e9 6a 3e
       -0.23753549 -0.33710378 -0.73872 0.22940454

bn2.weight f4 [300]
000000 d2 65 c6 3f b7 53 cc 3f 85 fc 5d 40 d1 8d 89 3f
       1.5499823 1.5963048 3.4685376 1.0746404
000010 90 ca 0b 40 a3 e5 d7 3f 03 9d 21 40 86 dc 45 40
       2.1842384 1.6866955 2.5252082 3.0915847
000020 52 ff 07 3f c0 07 86 40 00 c6 4f 40 1c a1 58 3f
       0.5312396 4.188446 3.24646 0.84620833
000030 33 e7 2b 40 16 58 44 40 98 6f 8c 3f d2 0e 5b 40
       2.6859863 3.0678763 1.0971556 3.4227796
000040 d1 34 cd 3f bc 8e 13 40 c3 ce 41 40 e2 96 5a 40
       1.6031743 2.3055868 3.0282447 3.4154592
000050 b2 7c a4 3e b6 ad 0c 40 07 8b a2 3f 54 ce 70 3f
       0.32126385 2.1981025 1.2698678 0.9406483
000060 98 82 0d 3f 92 00 5c 40 03 b9 96 3f 12 b3 9f 3f
       0.55277395 3.4375348 1.1775211 1.2476523
000070 e0 d7 a9 3f 11 21 4c 40 76 e3 3f 40 f6 5c 23 40
       1.3269005 3.1895182 2.998258 2.552549
000080 63 49 29 40 ef a5 1e 40 78 2f c5 3f 32 a9 e9 3f
       2.6451042 2.4788778 1.5405111 1.8254759
000090 a0 2a 85 3f 5d 28 c6 40 98 99 28 40 fd 50 96 40
       1.0403633 6.192427 2.6343746 4.6973863
0000a0 6c 05 94 3f f7 43 1d 40 ae 09 a6 3e 74 b6 1d 3e
       1.1564155 2.4572732 0.3242926 0.15401632
0000b0 46 ae fc 3f 06 2c 09 40 3d 7e 15 40 75 c4 95 3f
       1.9740684 2.143312 2.33583 1.1700579
0000c0 8e 9d 10 40 e2 a2 92 3f c8 a5 58 3f 5f e3 2a 40
       2.2596164 1.1455958 0.8462796 2.6701276
0000d0 7d de 03 40 6e 32 06 40 15 ff 01 40 99 08 21 40
       2.0604546 2.096828 2.031194 2.5161498
0000e0 03 c0 bb 3e 2d ba 9e 3f 28 25 1f 3f bd 5f 02 40
       0.3666993 1.2400566 0.6216607 2.0370934
0000f0 ef fa fd 3f 74 0c 21 40 47 e5 f6 3f 0b 21 1d 40
       1.9842204 2.516385 1.928872 2.4551418
000100 1a 9c 0d 40 89 0c b8 3f 25 75 30 40 7e db ba 3f
       2.2126527 1.4378825 2.75715 1.4598234
000110 09 80 d3 3f cc 2a 0b 40 33 08 fc 3f 79 8a 0c 40
       1.6523448 2.174487 1.9690002 2.1959517
000120 5a 25 0d 40 67 32 85 3f 9d 56 1a 40 da dd 8c 40
       2.2054048 1.0406007 2.4115365 4.4020815
000130 6f 41 b3 3f 5e 03 ea 3f e1 7b 9f 3f 34 1c 08 40
       1.4004344 1.8282278 1.245968 2.1267214
000140 f0 a2 af 3f 77 cd 21 40 ea 61 47 3f 9d ce b2 3f
       1.37216 2.5281656 0.7788378 1.3969303
000150 b8 16 8e 3e 37 29 fd 3f 6f 26 ec 3e d8 6b 31 40
       0.27751708 1.9778203 0.46123073 2.7722073
000160 c4 7d f2 3f 1a fd 54 40 15 ed 35 40 44 7d 90 3f
       1.8944631 3.327948 2.8425953 1.1288228
000170 82 b9 ee 3f 9c f7 f9 3f 15 fa c8 3f ea 7c ad 3f
       1.8650362 1.9528689 1.5701319 1.3553746
000180 2d c6 c1 3e 51 69 d3 3e 81 19 fd 3f 2e 52 0a 40
       0.3784651 0.41291288 1.9773408 2.1612659
000190 cb af a7 3f 32 f4 e3 3f 1e d2 13 40 52 87 71 40
       1.3100523 1.7808897 2.3096995 3.7738843
0001a0 2d 59 f6 3f e6 b2 08 40 9d 01 04 40 92 0c 08 40
       1.9245964 2.135919 2.0625985 2.1257672
0001b0 0f 93 b8 3f 5b e0 38 40 70 a4 1b 40 bf 75 01 40
       1.4419879 2.8886936 2.4319115 2.0228117
0001c0 19 9b b3 3f 0c f3 45 40 03 9b ee 3f bf c2 b0 3f
       1.4031707 3.0929594 1.8641056 1.3809432
0001d0 a8 4d a0 3f fc af 4b 40 83 da 05 40 51 2b 07 40
       1.2523699 3.1826162 2.091462 2.1120188
0001e0 64 70 ec 3f 9f bd 13 40 d1 b6 42 40 8c e6 b3 3f
       1.8471799 2.3084486 3.0424082 1.4054732
0001f0 bf 8d 2f 40 a9 b0 89 3f 2e 52 d7 3f 5f eb af 3f
       2.7430265 1.0757037 1.6821954 1.3743705
000200 88 06 59 3e 4f 07 3f 40 4a 55 06 40 3b 81 74 3e
       0.21193898 2.984821 2.0989556 0.23877423
000210 41 19 9a 3f ec 65 73 3f eb 1f 99 3e 57 ba 32 40
       1.2038957 0.95077395 0.29907164 2.7926233
000220 97 25 14 40 f6 6e cb 3f 36 79 2a 40 8a 44 c3 3f
       2.3147943 1.5893238 2.6636481 1.5255291
000230 03 a4 cf 3f c7 25 c5 3e b5 3a 12 40 0b 98 e1 3e
       1.6221927 0.38505384 2.2848332 0.44061312
000240 56 5d a5 3f 47 43 b8 3f 15 51 00 40 28 79 85 3f
       1.2919109 1.4395531 2.0049489 1.0427599
000250 eb 84 da 3e 40 d9 be 3f fc 93 67 40 e7 ee b8 3f
       0.42679533 1.491005 3.6184072 1.4447907
000260 8a 3a 43 40 22 74 b5 3f e0 20 1b 40 6d 66 ad 3f
       3.050448 1.4176066 2.4238815 1.3546883
000270 45 7b c6 3f b4 a0 22 3f aa cc 0b 3f 59 5d 92 3f
       1.5506369 0.63526464 0.5460917 1.1434737
000280 28 48 8d 3f 01 a4 79 3f 99 4b 5b 3f 09 e7 d6 3e
       1.1037645 0.97515875 0.8566223 0.4197314
000290 cd 73 66 40 3a c0 f8 3f 7f 46 f5 3f ab 85 ea 3f
       3.600818 1.9433663 1.9162139 1.8322042
0002a0 34 bf a4 3f 34 83 a6 40 2b 48 9f 3f a8 4b 8d 3e
       1.287085 5.203516 1.2443899 0.27596784
0002b0 46 34 a9 3f cc 3e 29 40 08 1d 19 40 5b 90 0d 40
       1.3219078 2.6444578 2.392397 2.2119358
0002c0 a1 02 ad 3f b1 bd 6e 3f 75 c1 fa 3f 93 06 84 3f
       1.3516427 0.93258196 1.9590288 1.0314506
0002d0 d2 0b e9 3f 50 6b b6 3f 45 e5 f1 3f 50 15 7b 3e
       1.8206732 1.4251499 1.8898093 0.24519849
0002e0 b9 49 93 3f ae e5 e8 3f 09 fc ee 3f 4c 69 02 40
       1.1506873 1.8195093 1.8670665 2.0376768
0002f0 5b 27 89 3f fe dc e8 3f 5a f7 87 3f 02 24 3f 3f
       1.0715135 1.8192441 1.0622361 0.7466432
000300 c0 74 fa 3f 85 68 ad 3f 1d 84 bc 3f 43 cd 25 40
       1.9566879 1.3547522 1.4727818 2.5906532
000310 e2 5e 20 3e 7b a3 d7 3f 94 4a 0a 40 6e 18 25 40
       0.15661195 1.6846765 2.160802 2.579616
000320 d2 8f f4 3f de 6b cb 3f 13 02 72 3e 1c d2 36 40
       1.910639 1.5892293 0.23633604 2.856574
000330 17 53 97 3f d2 e2 f5 3f 75 7a 19 40 37 87 f9 3f
       1.1822232 1.9209845 2.3980992 1.9494389
000340 59 62 34 40 3e 1d fa 3f f4 b2 c2 3f f7 cd 1d 40
       2.8185027 1.9540174 1.5210862 2.465696
000350 35 be 1c 40 da cc a0 3f 21 ce 4c 40 8d ed 5c 40
       2.4491093 1.2562516 3.200081 3.451999
000360 6b 2d 29 40 6b 51 bb 3f b7 67 22 40 90 c6 22 40
       2.643397 1.4634222 2.5375803 2.5433693
000370 f8 9e f0 3f b2 4a da 3f dc e0 05 40 db 49 b9 3f
       1.8798513 1.7054045 2.0918493 1.4475664
000380 b3 b1 1d 40 3f f9 9c 40 aa e5 14 40 88 ea 22 3f
       2.463971 4.9054255 2.3265176 0.63639116
000390 e1 e2 cf 3f 7c bc ac 3f 1e 9a c0 3f 58 f0 db 3f
       1.6241113 1.3495021 1.5047033 1.7182722
0003a0 33 a8 0d 40 b4 7c a2 3f 3a 08 b6 3f 76 20 b6 3f
       2.213391 1.2694306 1.422126 1.4228656
0003b0 eb 49 06 40 a8 4f 73 3f 25 e0 c1 3e 52 11 cb 3f
       2.0982616 0.9504342 0.3786632 1.5864661
0003c0 9a 91 7f 3f 93 ff ee 3f 23 b9 89 3f b8 5b fe 3e
       0.99831545 1.8671745 1.0759624 0.4967935
0003d0 67 36 4b 3f 2d 90 00 40 d0 c5 3f 3f 90 07 12 40
       0.79379886 2.0087998 0.7491121 2.2817116
0003e0 2d 85 11 40 a4 0c df 3f fe 42 a0 3f bf ba 96 3e
       2.2737534 1.7425733 1.2520444 0.2943935
0003f0 1f f4 7e 3e 44 d3 28 40 fb ff 89 40 f2 e1 52 40
       0.24897812 2.6378946 4.3124976 3.2950406
