tmp/ddpg/actor_ddpg.pth (torch, 511239 bytes, 10 tensors)

fc1.weight f4 [400, 11]
0.043609235 -0.33436164 0.39398047 0.10153291 0.45167986 0.75011915 0.48117092 0.46227196
0.60581666 0.60307467 0.59621274 0.56100285 -0.6913106 0.643457 -0.053688537 0.529795
1.0364069 0.86895794 0.57472676 0.78117377 0.714712 0.7359804 0.6561936 -0.69113505
0.42012835 -0.038011834 0.7001628 1.2708395 0.5861472 0.38017014 0.437729 0.42517674
0.48755556 0.67751384 -0.57961637 0.23652096 -0.033711303 0.56675637 -0.5500753 0.28979626
0.4288275 -0.086097784 0.2151455 0.05502224 -0.33761933 0.051786523 -0.17022546 -0.18328497
-0.42333418 0.1979262 -0.18410566 0.4194067 0.42410153 0.3575208 0.5151391 -0.37747395
-0.2534473 0.76232946 0.07985681 0.78603905 0.5809855 0.36755416 0.45174345 0.6267334
0.5969233 0.589745 0.3850817 -0.16516437 0.4058506 -0.03306474 0.56230086 0.75119406
0.97867453 0.8227765 0.7400161 0.72300065 0.66778684 0.58292156 -0.57999384 0.18590118
-0.062020455 0.53741384 0.3120006 0.668288 0.5217805 -0.10745356 0.16015041 0.049565163
0.5046815 -0.41403937 0.5031349 -0.14830662 0.8289716 1.0387543 0.82052433 0.40066
0.44699046 0.41937265 0.40386507 0.35871708 -0.39438108 0.56365144 0.014145828 0.40129265
1.0956919 0.74414957 0.69217753 0.6684577 0.6759304 0.6433701 0.42639032 -0.53393865
0.49035433 -0.007407756 0.43058923 0.7621913 0.9457162 0.82949626 0.54422265 0.49047026
0.4673123 0.40666154 -0.49810755 0.58248824 0.013574995 0.4651557 -0.43350214 0.5686435
0.46057338 0.6341262 0.61546177 0.6026131 0.34593865 -0.58692724 0.5373819 -0.08395532
0.720425 -0.23865372 0.8380249 0.3961974 0.41735977 0.43883824 0.52794886 0.37596002
-0.49314004 0.7397066 -0.008094316 0.29693192 1.2992316 0.72870773 0.24227837 0.9238849
0.94473845 0.91141033 -0.21379279 0.018033776 0.03017229 0.26566193 0.45919853 0.3045314
0.4098012 0.20393176 0.24653773 0.3493252 0.2091674 0.37268183 -0.35230556 0.5118048
0.09162764 0.74645776 0.44870904 0.500848 0.66908497 -0.4667726 -0.35158196 -0.2749368
0.31084228 -0.7144022 0.30871007 0.10507154 0.47302598 -0.26297638 0.31921557 0.10076784
0.14159516 0.14366983 0.1929441 -0.2078594 0.0527538 -0.008841317 -0.19669892 0.22342236
0.4849609 0.18190478 0.5270475 0.35746658 0.23212637 0.41159275 0.5111734 -0.5818469
0.73716724 0.006010712 0.49384934 0.8616483 1.074634 1.1328664 0.69611543 0.6127748
0.5587229 1.4591695 -1.4757398 1.3337079 -0.32437527 1.6240727 1.4053261 1.0850626
1.0396903 1.3973942 1.638051 1.4783424 0.7521089 -0.75411725 0.58308023 -0.047760315
0.74630886 1.0857285 0.9675206 0.4563818 0.4856771 0.6241234 0.50412714 0.34886682
-0.22430196 0.54025996 -0.015536123 0.24006712 0.69337845 0.6145005 0.7487124 0.90902096
0.8653704 0.80383146 -0.35510087 -0.6086943 0.23424703 0.1851835 0.6532845 0.18222567
0.43872726 0.17116475 0.09759266 0.06074137 0.24087483 0.48149914 -0.42413196 0.37325493
00000000: 999f 323d 7331 abbe cfb7 c93e 7cf0 cf3d
00000010: 9542 e73e cf07 403f 095c f63e e9ae ec3e
00000020: cd16 1b3f 1a63 1a3f 66a1 183f e29d 0f3f
00000030: bbf9 30bf 99b9 243f 83e8 5bbd a5a0 073f
00000040: fba8 843f 0774 5e3f 4b21 133f 01fb 473f
00000050: 5ef7 363f 3669 3c3f 4efc 273f 3aee 30bf
00000060: 101b d73e 4cb2 1bbd df3d 333f deaa a23f
00000070: be0d 163f a9a5 c23e 041e e03e c4b0 d93e
00000080: e2a0 f93e 8c71 2d3f bd61 14bf 8d32 723e
00000090: dd14 0abd f216 113f bcd1 0cbf 2d60 943e
000000a0: 478f db3e 0954 b0bd 1a4f 5c3e 005f 613d
000000b0: 71dc acbe 1b1e 543d 954f 2ebe 0eaf 3bbe
000000c0: 42bf d8be 2aad 4a3e 3286 3cbe 7abc d63e
000000d0: d623 d93e f70c b73e 28e0 033f 4444 c1be
000000e0: d8c3 81be 0628 433f f88b a33d db39 493f
000000f0: 77bb 143f 0f30 bc3e eb4a e73e 9a71 203f
00000100: f7cf 183f 87f9 163f 6e29 c53e d920 29be
00000110: a6cb cf3e e56e 07bd f3f2 0f3f 414e 403f
00000120: 6a8a 7a3f 7ba1 523f b271 3d3f 9216 393f
00000130: 14f4 2a3f 593a 153f 7a7a 14bf e15c 3e3e
00000140: 2909 7ebd f493 093f 8bbe 9f3e ec14 2b3f
00000150: 6893 053f 9d10 dcbd 78fe 233e d704 4b3d
00000160: cf32 013f f8fc d3be 73cd 003f b1dd 17be
00000170: 7c37 543f e7f5 843f e20d 523f 4f23 cd3e
00000180: efdb e43e 03b8 d63e 67c7 ce3e c4a9 b73e
00000190: 51ec c9be 764b 103f e7c3 673c 3b76 cd3e
000001a0: a23f 8c3f 9680 3e3f 8c32 313f 0b20 2b3f
000001b0: c609 2d3f e7b3 243f d54f da3e 34b0 08bf
000001c0: b90f fb3e c3bc f2bb 3176 dc3e f81e 433f
000001d0: 751a 723f de59 543f 2d52 0b3f eb1e fb3e
000001e0: 8f43 ef3e f135 d03e f407 ffbe f31d 153f
000001f0: a869 5e3c e328 ee3e fef3 ddbe 9f92 113f
00000200: 46d0 eb3e 1856 223f e78e 1d3f da44 1a3f
00000210: df1e b13e dd40 16bf dc91 093f c4f0 abbd
00000220: c66d 383f a461 74be cd88 563f 63da ca3e
00000230: 2eb0 d53e 68af e03e a827 073f d57d c03e
00000240: da7c fcbe 695d 3d3f 069e 04bc 7607 983e
00000250: 394d a63f 978c 3a3f d217 783e b983 6c3f
00000260: 61da 713f 3052 693f 7fec 5abe 92bb 933c
00000270: e12b f73c d704 883e 121c eb3e 8aeb 9b3e
00000280: 76d1 d13e 7dd3 503e 6374 7c3e c1da b23e
00000290: fb2f 563e 27d0 be3e 6561 b4be a405 033f
000002a0: 46a7 bb3d db17 3f3f 31bd e53e 9337 003f
000002b0: 2749 2b3f d1fc eebe 8d02 b4be 84c4 8cbe
000002c0: b826 9f3e 10e3 36bf 3f0f 9e3e bf2f d73d
000002d0: 7630 f23e d7a4 86be 3970 a33e 5f5f ce3d
000002e0: 52fe 103e 2f1e 133e 2393 453e 18d9 54be
000002f0: 5e14 583d 2cdb 10bc 716b 49be d5c8 643e
00000300: cc4c f83e 3f45 3a3e 96ec 063f dc05 b73e
00000310: 89b2 6d3e 49bc d23e 43dc 023f ebf3 14bf
00000320: feb6 3c3f 82f5 c43b d2d9 fc3e fc94 5c3f
00000330: 9b8d 893f c401 913f 9f34 323f cfde 1c3f
00000340: 7708 0f3f 11c6 ba3f 0be5 bcbf f1b6 aa3f
00000350: 8414 a6be 9de1 cf3f bae1 b33f 55e3 8a3f
00000360: 9214 853f d0dd b23f a8ab d13f 533a bd3f
00000370: 358a 403f d40d 41bf bf44 153f 52a0 43bd
00000380: 190e 3f3f 27f9 8a3f 6eaf 773f e0aa e93e
00000390: abaa f83e 8dc6 1f3f 7a0e 013f ac9e b23e
000003a0: 6aaf 65be 7a4e 0a3f 398b 7ebc 28d4 753e
000003b0: 4081 313f e84f 1d3f 9eab 3f3f 99b5 683f
000003c0: ea88 5d3f e6c7 4d3f c8cf b5be 64d3 1bbf
000003d0: 74de 6f3e bea0 3d3e a73d 273f 5e99 3a3e
000003e0: dca0 e03e d045 2f3e a9de c73d f1cb 783d
000003f0: e4a7 763e 0e87 f63e d327 d9be 451b bf3e

fc1.bias f4 [400]
0.35602623 0.606403 0.28430384 0.50631464 -0.10973044 0.7332164 0.401756 0.5037809
0.37097767 0.43784615 0.45261183 0.54839957 0.56341326 0.57383674 0.07056939 0.67301553
0.33679682 -0.098313 0.6607578 1.3502872 0.53028053 0.48518848 0.16604392 0.27950558
0.49782607 0.50580776 0.62413085 0.3420884 0.6771196 0.6562705 0.70767856 0.48350695
0.48573261 0.55261195 0.7336447 0.5630164 0.4389305 0.44248673 0.62764853 0.76779395
0.36852124 0.475755 0.28304273 0.6758428 0.4167843 0.4958324 0.5817616 0.5453293
0.4994504 0.5034805 0.7106159 0.3239658 -0.34571475 0.49544445 0.5118135 0.59297186
0.34706378 0.39447367 0.34458613 0.3627737 0.8166455 0.20178902 0.46089607 0.5391134
0.3365732 0.47098994 0.48899832 0.40925288 0.48972967 0.62815213 0.23229384 0.43885547
0.55006915 0.5432718 0.48757002 0.2802119 -0.42299077 0.53313243 0.7528077 0.6202384
0.2768088 0.5937328 0.41834345 1.0076345 0.46468282 1.1233166 0.5092079 -0.22338687
0.4083386 0.63665754 0.178116 0.39734238 0.6050403 0.34104803 0.4330393 0.65290284
0.51069814 0.59274226 0.52734506 0.47585952 0.6105971 0.4445319 0.38498032 0.17364061
0.51268184 0.3407241 0.63169277 0.45750493 0.56038064 0.44342664 0.42305902 0.47488472
0.37079093 0.3603304 0.5445594 0.50888956 0.52701676 0.66207874 0.26507965 0.623121
0.903344 0.5077612 0.3940473 0.46915403 0.53284556 0.430831 0.38409215 0.49630073
0.27280372 0.16723171 0.5431277 0.22008225 0.6079418 0.62373674 0.64895606 0.5103995
-0.27424806 0.5115787 0.6858569 0.38373938 0.18734767 0.2985182 0.53718084 0.45072138
0.37642178 0.44822374 0.4811115 0.7142131 0.25898868 0.63512576 0.5191655 0.47706205
0.40743443 0.4055855 0.28291562 0.67665964 0.5742052 0.4672434 0.46642515 0.4168354
0.6953934 0.6439387 0.6217385 0.5880544 0.55843794 0.6782999 0.3701298 0.4209306
0.48705485 0.2556759 0.6133609 0.31858298 0.3415977 0.47821042 0.36790562 0.18747297
0.33948687 -0.013187257 0.3627712 0.46811143 0.36754927 0.53748995 0.6270314 0.45369193
0.5338309 0.6480769 0.8292211 0.71060044 0.47924194 -0.17051595 0.48374012 0.33871204
0.4673868 0.37818193 0.54362607 0.52749866 0.36625 0.35443836 0.6578691 0.3502226
0.44554263 0.7112655 1.5529637 0.42444953 0.37532112 0.6498842 0.587726 1.0043472
0.6868642 0.10271108 0.4255478 0.21089914 0.9357831 0.6427731 0.8569181 0.52222854
0.3562273 0.5632083 0.46956435 0.30954218 0.3643069 0.5660031 0.20926851 0.4413156
0.583673 0.42785195 0.52748656 0.58538884 0.535413 0.16723321 0.56342375 0.71807784
0.53705555 0.5375036 0.40896338 0.5595359 0.48349187 0.071846195 0.49129623 0.3211484
0.80391204 0.5095292 0.6538632 0.88440526 0.264277 0.28342113 0.7924066 0.6401351
0.0007588296 0.6110436 0.25340313 0.42924348 0.25733402 0.5186553 0.77227926 0.9535465
00000000: 1249 b63e 3a3d 1b3f 4690 913e d69d 013f
00000010: 5aba e0bd 12b4 3b3f f6b2 cd3e c9f7 003f
00000020: c9f0 bd3e 5f2d e03e bdbc e73e ea63 0c3f
00000030: da3b 103f f7e6 123f af86 903d bf4a 2c3f
00000040: a270 ac3e 5358 c9bd 6c27 293f 36d6 ac3f
00000050: 77c0 073f a06a f83e 6b07 2a3e 5b1b 8f3e
00000060: 0fe3 fe3e 9e7c 013f 0ac7 1f3f 3626 af3e
00000070: b657 2d3f 5801 283f 6c2a 353f 398e f73e
00000080: f2b1 f83e fa77 0d3f 24d0 3b3f d821 103f
00000090: 80bb e03e 9f8d e23e 93ad 203f 258e 443f
000000a0: d1ae bc3e 2996 f33e faea 903e 0904 2d3f
000000b0: c064 d53e bfdd fd3e 54ee 143f b39a 0b3f
000000c0: f6b7 ff3e 19e4 003f ecea 353f d8de a53e
000000d0: 8601 b1be e5aa fd3e 3606 033f 01cd 173f
000000e0: 58b2 b13e 74f8 c93e 986d b03e 79bd b93e
000000f0: ae0f 513f c8a1 4e3e 92fa eb3e 5603 0a3f
00000100: 5353 ac3e 9825 f13e fd5d fa3e 9889 d13e
00000110: d9bd fa3e 94ce 203f 70de 6d3e aab1 e03e
00000120: 55d1 0c3f dc13 0b3f c7a2 f93e ef77 8f3e
00000130: 3f92 d8be 5e7b 083f 01b8 403f f2c7 1e3f
00000140: e2b9 8d3e dffe 173f 1d31 d63e 2bfa 803f
00000150: e8ea ed3e d7c8 8f3f 735b 023f 87bf 64be
00000160: c211 d13e fdfb 223f 0a64 363e 7670 cb3e
00000170: ece3 1a3f d99d ae3e 54b7 dd3e a424 273f
00000180: 1dbd 023f f5bd 173f 1600 073f dca3 f33e
00000190: 1750 1c3f af99 e33e 241c c53e d8ce 313e
000001a0: 1e3f 033f 6473 ae3e 9eb6 213f 163e ea3e
000001b0: 1b75 0f3f d108 e33e 319b d83e 1724 f33e
000001c0: 4fd8 bd3e 3a7d b83e 3f68 0b3f 9646 023f
000001d0: 92ea 063f fe7d 293f 85b8 873e dc84 1f3f
000001e0: 8d41 673f a3fc 013f 91c0 c93e f534 f03e
000001f0: 9168 083f e195 dc3e baa7 c43e 211b fe3e
00000200: eeac 8b3e ca3e 2b3e 6b0a 0b3f 3e5d 613e
00000210: 13a2 1b3f 36ad 1f3f fc21 263f 8ba9 023f
00000220: 3e6a 8cbe d2f6 023f 5194 2f3f 7d79 c43e
00000230: 11d8 3f3e 61d7 983e af84 093f f4c4 e63e
00000240: 5bba c03e 957d e53e 3f54 f63e abd6 363f
00000250: 2a9a 843e 9a97 223f 08e8 043f 7a41 f43e
00000260: 3f9b d03e e7a8 cf3e 51da 903e 9139 2d3f
00000270: 1dff 123f 873a ef3e 47cf ee3e 736b d53e
00000280: 4d05 323f 2bd9 243f 412a 1f3f bc8a 163f
00000290: caf5 0e3f 10a5 2d3f a781 bd3e 3784 d73e
000002a0: 415f f93e f4e7 823e 3805 1d3f 4f1d a33e
000002b0: e5e5 ae3e ffd7 f43e 205e bc3e eaf8 3f3e
000002c0: 39d1 ad3e 5d0f 58bc 26bd b93e 4dac ef3e
000002d0: 6b2f bc3e f198 093f 2185 203f 4f4a e83e
000002e0: 24a9 083f 5ee8 253f d647 543f e9e9 353f
000002f0: 335f f53e bc9b 2ebe c9ac f73e aa6b ad3e
00000300: 534d ef3e 10a1 c13e 142b 0b3f 270a 073f
00000310: 1f85 bb3e f278 b53e 1c6a 283f 6050 b33e
00000320: 2a1e e43e 7f15 363f 84c7 c63f 7351 d93e
00000330: 172a c03e d05e 263f 3675 163f 738e 803f
00000340: 55d6 2f3f 305a d23d 67e1 d93e f2f5 573e
00000350: 7b8f 6f3f c78c 243f fc5e 5b3f c5b0 053f
00000360: 6d63 b63e 6b2e 103f bd6a f03e 507c 9e3e
00000370: 6f86 ba3e 94e5 103f 7c4a 563e 1ef4 e13e
00000380: 986b 153f 690f db3e 5c09 073f 0bdc 153f
00000390: d410 093f 2f3f 2b3e 8a3c 103f f3d3 373f
000003a0: 797c 093f d699 093f a663 d13e bf3d 0f3f
000003b0: 3f8c f73e 1924 933d 2e8b fb3e 906d a43e
000003c0: 2ecd 4d3f 8170 023f 9463 273f 6268 623f
000003d0: 514f 873e 931c 913e 29db 4a3f e5df 233f
000003e0: 31ec 463a 5a6d 1c3f 0ebe 813e cdc5 db3e
000003f0: 49c1 833e 98c6 043f 18b4 453f a01b 743f

fc2.weight f4 [300, 400]
1.6310195 0.2939341 1.263115 0.12394105 1.1970469 1.2861539 1.6233264 0.48750067
1.4557174 1.8877798 0.87966806 1.1920818 0.65233123 1.8259662 1.1993489 0.76698065
0.85026574 1.1560304 0.99349654 1.160072 1.0659922 1.8789189 0.58771193 1.148786
0.76174045 1.6718421 1.527018 2.1774457 1.3378994 1.0341113 1.6976151 1.0039486
0.9521516 1.6810302 2.288911 1.6586943 -0.04014626 1.3295697 1.0701593 1.070389
0.655808 1.7911627 0.87901115 1.2424769 1.032285 1.6919361 1.5072227 0.8820004
1.5058277 0.8628715 1.0496848 1.3626955 0.99636334 0.8593301 2.3245428 0.9052331
1.9306029 0.6490624 0.5317297 1.7151833 1.3886338 0.7286742 0.52360004 0.32047147
1.6351429 1.0203829 1.5795316 1.6095687 0.85375285 0.9936278 1.3514943 0.5208146
1.1949743 -0.559626 0.49912503 1.6197844 0.86262333 1.4307116 0.6803889 1.6514012
1.5162196 1.3584292 -0.072357245 1.8533661 0.8231522 0.7979035 1.1846731 1.0518416
0.49537587 0.42085356 1.3009361 1.4937694 0.5120256 1.7883517 1.5103656 0.51408505
0.72748756 0.65618277 1.872462 0.87724197 1.5088702 1.1995784 1.4223912 1.2695783
1.024915 1.4639336 1.6807778 1.7271606 1.1493186 1.3146582 0.9450534 0.42197257
1.5268339 0.96616924 1.2892388 1.0360793 1.4304458 0.8243326 1.6323528 0.55864537
1.3259729 0.7119674 0.41349038 0.96908736 1.3135097 0.9468196 1.0518229 0.5948395
0.5789692 1.1594774 1.1121671 1.3605448 1.186751 1.2741121 0.6258839 1.1205672
1.3237032 0.52463657 1.8978338 0.90181166 0.39759502 1.5112321 0.59766054 0.565074
0.54480124 0.60714597 1.2167598 1.1034691 1.415792 1.3705736 1.0682687 1.5821952
1.3009949 1.0245675 1.2665075 1.3604025 1.6189201 0.5681366 1.2835284 0.8694325
0.765803 1.496158 0.2896733 0.93578756 1.8849689 -0.0019545753 0.31545585 1.1068686
0.9471895 1.2827353 0.39928535 0.68661666 1.2723101 1.9366076 1.3884351 1.2767844
1.1195235 0.7892216 0.4597277 0.9341081 1.2365992 0.37253812 2.135225 0.96270937
0.31349775 1.1444858 -0.3451823 1.1326504 1.2863208 1.6386471 2.0483384 1.5112078
1.635084 0.9692376 1.4321237 1.4442692 0.7146196 1.1850672 0.95514965 1.1458995
0.62930554 1.0372914 1.1008613 1.9202763 1.0214536 1.2283015 1.5922773 0.53244084
0.8792463 1.1049945 1.2597092 1.6237535 1.2672602 0.7364346 1.1802869 0.38995537
0.68268853 0.6803588 0.9600317 0.68485075 1.4084381 0.45387164 1.6258926 0.6276369
1.4139478 1.0269142 1.3201506 1.2768677 0.98300415 0.8786197 1.229573 1.328574
1.7374703 1.2938989 1.8645052 1.6740837 -0.3885769 1.2473234 0.7038079 1.4735789
1.1573256 0.8230312 1.6168268 1.363217 1.3666099 1.4473041 0.7063064 1.510665
1.3866323 1.4264922 1.2964038 -0.26207265 1.8561695 0.14439413 0.83695513 0.8946195
00000000: 3fc5 d03f 887e 963e c1ad a13f ced4 fd3d
00000010: d538 993f b1a0 a43f 29c9 cf3f b099 f93e
00000020: f354 ba3f c5a2 f13f ed31 613f 2396 983f
00000030: 2eff 263f 43b9 e93f 4484 993f d858 443f
00000040: 04ab 593f cef8 933f ca55 7e3f 3d7d 943f
00000050: 6f72 883f 6a80 f03f 4a74 163f 6b0b 933f
00000060: 6c01 433f ecfe d53f 5375 c33f 455b 0b40
00000070: 4a40 ab3f c25d 843f 744b d93f 6381 803f
00000080: 35c0 733f ff2b d73f 857d 1240 1850 d43f
00000090: 6870 24bd 572f aa3f fbfa 883f 8202 893f
000000a0: 08e3 273f d244 e53f e006 613f 7c09 9f3f
000000b0: ea21 843f 5d91 d83f acec c03f c7ca 613f
000000c0: f6be c03f 26e5 5c3f 125c 863f ce6c ae3f
000000d0: ab11 7f3f 0ffd 5b3f 4fc5 1440 5bbd 673f
000000e0: ff1d f73f f428 263f 701f 083f 208b db3f
000000f0: c1be b13f 648a 3a3f a70a 063f d614 a43e
00000100: 5d4c d13f e89b 823f 172e ca3f 5906 ce3f
00000110: 8c8f 5a3f 645e 7e3f c4fd ac3f 1b54 053f
00000120: ebf4 983f a643 0fbf 518d ff3e 1855 cf3f
00000130: e2d4 5c3f 8f21 b73f f82d 2e3f 1d61 d33f
00000140: 7c13 c23f 02e1 ad3f 0930 94bd 1a3b ed3f
00000150: 1aba 523f 6743 4c3f 5ea3 973f bfa2 863f
00000160: e8a1 fd3e 1e7a d73e 1385 a63f d633 bf3f
00000170: 1c14 033f b5e8 e43f a953 c13f 149b 033f
00000180: a03c 3a3f 98fb 273f d6ac ef3f ee92 603f
00000190: a922 c13f c98b 993f ea10 b63f 8b81 a23f
000001a0: 6a30 833f 2d62 bb3f ba23 d73f 9913 dd3f
000001b0: df1c 933f b846 a83f 05ef 713f ca0c d83e
000001c0: 4b6f c33f de56 773f c705 a53f 3f9e 843f
000001d0: d918 b73f 7607 533f f0f0 d03f 6203 0f3f
000001e0: 7bb9 a93f 7f43 363f 03b5 d33e 1c16 783f
000001f0: 1621 a83f c562 723f 22a2 863f 6747 183f
00000200: 5337 143f c169 943f 7e5b 8e3f 5526 ae3f
00000210: 75e7 973f 1b16 a33f ed39 203f bf6e 8f3f
00000220: 1b6f a93f 954e 063f 38ec f23f 21dd 663f
00000230: 9391 cb3e 0e70 c13f 4800 193f b1a8 103f
00000240: 1878 0b3f eb6d 1b3f c9be 9b3f 7a3e 8d3f
00000250: ac38 b53f f56e af3f 07bd 883f 5f85 ca3f
00000260: 0087 a63f 0725 833f eb1c a23f ab21 ae3f
00000270: c638 cf3f 6671 113f a94a a43f 2193 5e3f
00000280: aa0b 443f 1b82 bf3f 0f50 943e c68f 6f3f
00000290: a946 f13f 5518 00bb 6e83 a13e dfad 8d3f
000002a0: 037b 723f ac30 a43f 216f cc3e 1cc6 2f3f
000002b0: 0fdb a23f c2e2 f73f 3eb8 b13f ac6d a33f
000002c0: 8c4c 8f3f 6d0a 4a3f 6e61 eb3e b521 6f3f
000002d0: e248 9e3f 51bd be3e 87a7 0840 1f74 763f
000002e0: c782 a03e 837e 923f bcbb b0be b0fa 903f
000002f0: 29a6 a43f 30bf d13f fa17 0340 426f c13f
00000300: 6f4a d13f f51f 783f d44f b73f d0dd b83f
00000310: 4ff1 363f 48b0 973f b084 743f d6ac 923f
00000320: 2b1a 213f f7c5 843f 06e9 8c3f 9dcb f53f
00000330: febe 823f fc38 9d3f becf cb3f 0b4e 083f
00000340: 4916 613f 7670 8d3f 273e a13f 28d7 cf3f
00000350: 9535 a23f fa86 3c3f a413 973f 3ba8 c73e
00000360: adc4 2e3f ff2b 2e3f a3c4 753f 6152 2f3f
00000370: b347 b43f dd61 e83e 401d d03f d0ac 203f
00000380: 3efc b43f ed71 833f b2fa a83f 6770 a33f
00000390: 29a6 7b3f 38ed 603f a662 9d3f b60e aa3f
000003a0: 6d65 de3f 7b9e a53f 1ba8 ee3f 6048 d63f
000003b0: 8df3 c6be 4ba8 9f3f c12c 343f 3c9e bc3f
000003c0: 3f23 943f 2cb2 523f 2ef4 ce3f e57d ae3f
000003d0: 13ed ae3f 4341 b93f 7fd0 343f 795d c13f
000003e0: 2b7d b13f 4c97 b63f 8ff0 a53f 632e 86be
000003f0: f696 ed3f 0edc 133e b142 563f c905 653f

fc2.bias f4 [300]
1.1898382 1.3630869 1.4350951 1.1232665 1.5459071 1.4341574 1.5237206 1.5295253
1.3659829 1.4479501 1.4313124 1.5896529 1.3184446 1.3742256 1.5028452 1.5560452
1.3070102 1.4868279 1.0656841 1.3224657 1.5276079 1.6723169 1.2020544 1.3277411
1.6570665 1.3753027 1.6810938 1.5059184 1.3749697 1.3723694 1.1550697 1.5342379
1.2478058 1.2365651 1.4560041 1.2189622 1.550576 1.5253671 1.3349417 1.1084378
1.0653957 1.4813988 1.3854144 1.2747326 1.352958 1.3777968 1.0831883 1.3932518
1.4524066 1.3618639 1.4222449 1.4457737 1.4112749 1.6393977 1.3760538 1.4558306
1.4977882 1.4804474 1.6082087 1.2343928 1.4520978 1.6884787 1.4438152 1.2599503
1.7106191 1.4624215 1.4314775 1.296384 1.3044144 1.326687 1.4645692 1.3170015
1.394386 1.4529142 1.3229989 1.4948397 1.4904507 1.5206335 1.4509537 1.170596
1.1333044 1.3746789 1.5972127 1.626888 1.2665076 1.3610698 1.4813334 1.2123835
1.5335507 1.1886292 1.3494619 1.5311344 1.5860614 1.3604074 1.0623235 1.2795786
1.3515049 1.5318122 1.3969488 1.3138769 1.2642008 1.6253222 1.4252483 1.1258234
1.4192008 1.530277 1.348574 1.451005 1.3571328 1.4632388 1.2928158 1.353094
1.2863382 1.1591644 1.255054 1.3584211 1.2641124 1.288802 1.282458 1.1896958
1.3678277 1.5798249 1.3370484 1.3964287 1.3988645 1.0662087 1.4299757 1.546639
1.3747362 1.4524475 1.4052885 1.6105208 1.0666661 1.5757072 1.2998463 1.5136122
1.4140046 1.5349098 1.3916862 1.728027 1.0862261 1.5328143 1.3729266 1.1832215
1.3891634 1.4058305 1.3521626 1.3895252 1.3236399 1.3154831 1.2120196 1.1793119
1.2587261 1.3528466 1.4935989 1.3520525 1.2572738 1.408829 1.5511669 1.537348
1.5172697 1.1862851 1.3473632 1.2707253 1.5387443 1.2779132 1.411518 1.3541478
1.5344607 1.294295 1.5055205 1.3160436 1.3379046 1.2356303 1.4545795 1.2535117
1.6788372 1.5080265 1.296491 1.4481525 1.5346792 1.3251896 1.4376734 1.397254
1.4814788 1.4899521 1.3766451 1.518822 1.5849451 1.4932759 1.5563821 1.2900959
1.387229 1.3061816 1.4606328 1.3642938 1.2753297 1.5198939 1.1796824 1.2645772
1.5306727 1.4277146 1.2482363 1.2443486 1.7152402 1.383122 1.3647337 1.5320283
1.2954832 1.4869555 1.6653876 1.3859982 1.2131698 1.2455009 1.1729859 1.2553645
1.0579786 1.4759037 1.2765416 1.4728272 1.3714529 1.4478055 1.3941143 1.3656133
1.2618775 1.5004591 1.4220861 1.3474128 1.4164147 1.3604777 1.3201195 1.4378196
1.1614751 1.5151815 1.4550488 1.4990698 1.2350461 1.6270586 1.4307816 1.4850299
1.2597558 1.3206389 1.5151951 1.385391 1.4843335 1.4118317 1.6178601 1.1975145
1.3733668 1.2317783 1.2310725 1.2868613 1.3189286 1.1413147 1.2702123 1.2287272
00000000: 9e4c 983f a279 ae3f 32b1 b73f 32c7 8f3f
00000010: 49e0 c53f 7892 b73f 4709 c33f 7cc7 c33f
00000020: 87d8 ae3f 6e56 b93f 3f35 b73f bf79 cb3f
00000030: cbc2 a83f a0e6 af3f 3b5d c03f 7d2c c73f
00000040: 1c4c a73f 6050 be3f 5668 883f 8e46 a93f
00000050: a888 c33f 7b0e d63f ebdc 993f 6cf3 a93f
00000060: c11a d43f eb09 b03f 152e d73f efc1 c03f
00000070: 02ff af3f cda9 af3f 53d9 933f e861 c43f
00000080: 1ab8 9f3f c447 9e3f 585e ba3f f406 9c3f
00000090: 4679 c63f 3b3f c33f 5fdf aa3f 4ae1 8d3f
000000a0: e35e 883f 7a9e bd3f 4255 b13f 702a a33f
000000b0: ba2d ad3f a55b b03f eaa5 8a3f 1356 b23f
000000c0: 76e8 b93f 8e51 ae3f 1f0c b63f 1d0f b93f
000000d0: a8a4 b43f c9d7 d13f 8822 b03f a858 ba3f
000000e0: 86b7 bf3f 4d7f bd3f c8d9 cd3f 9500 9e3f
000000f0: 57de b93f 1220 d83f f0ce b83f 0d46 a13f
00000100: 91f5 da3f a130 bb3f a83a b73f e9ef a53f
00000110: 0df7 a63f e1d0 a93f 0177 bb3f 8193 a83f
00000120: 3e7b b23f 18f9 b93f 0758 a93f e856 bf3f
00000130: 17c7 be3f 1ea4 c23f dab8 b93f 17d6 953f
00000140: 1e10 913f 7af5 af3f 7771 cc3f de3d d03f
00000150: ec1c a23f 8937 ae3f 559c bd3f 622f 9b3f
00000160: 644b c43f 0025 983f 2bbb ac3f 36fc c33f
00000170: 0f04 cb3f d421 ae3f 37fa 873f 3bc9 a33f
00000180: 1dfe ac3f 6c12 c43f 38cf b23f 1e2d a83f
00000190: 55d1 a13f 8f0a d03f 896e b63f fb1a 903f
000001a0: 5fa8 b53f 1ee0 c33f 139e ac3f 88ba b93f
000001b0: 87b6 ad3f 694b bb3f fd7a a53f 2f32 ad3f
000001c0: bba6 a43f 805f 943f 9ca5 a03f bee0 ad3f
000001d0: 6fce a13f 77f7 a43f 9527 a43f f447 983f
000001e0: fa14 af3f b437 ca3f 6724 ab3f 2dbe b23f
000001f0: fe0d b33f 8779 883f 7209 b73f 44f8 c53f
00000200: 5bf7 af3f cde9 b93f 7ee0 b33f 8c25 ce3f
00000210: 8488 883f c6b0 c93f 5d61 a63f 0bbe c13f
00000220: 1afe b43f ed77 c43f c622 b23f fd2f dd3f
00000230: 7509 8b3f 4233 c43f 0fbc af3f cd73 973f
00000240: 1bd0 b13f 41f2 b33f aa13 ad3f f6db b13f
00000250: 086d a93f c061 a83f 7523 9b3f b1f3 963f
00000260: f01d a13f 142a ad3f 402e bf3f 0e10 ad3f
00000270: 59ee a03f 8254 b43f a38c c63f d2c7 c43f
00000280: e535 c23f 31d8 973f 6676 ac3f 20a7 a23f
00000290: 93f5 c43f a992 a33f 9fac b43f b754 ad3f
000002a0: 3569 c43f 75ab a53f e5b4 c03f 1e74 a83f
000002b0: 7540 ab3f 2229 9e3f a92f ba3f 1273 a03f
000002c0: 23e4 d63f 0307 c13f 6bf3 a53f 105d b93f
000002d0: 5e70 c43f d09f a93f af05 b83f 38d9 b23f
000002e0: 19a1 bd3f c0b6 be3f e835 b03f c268 c23f
000002f0: 7bdf ca3f aa23 bf3f 8737 c73f dd21 a53f
00000300: b890 b13f f530 a73f 04f6 ba3f 2ea1 ae3f
00000310: 013e a33f e28b c23f d5ff 963f aadd a13f
00000320: 15ed c33f 5abf b63f 35c6 9f3f d146 9f3f
00000330: fe8c db3f 240a b13f 98af ae3f 8119 c43f
00000340: 65d2 a53f 8f54 be3f 6c2b d53f 6468 b13f
00000350: 2649 9b3f 936c 9f3f 6724 963f c9af a03f
00000360: d86b 873f 6aea bc3f b765 a33f 9a85 bc3f
00000370: c58b af3f b151 b93f 5672 b23f 6bcc ae3f
00000380: 3485 a13f 0b0f c03f eb06 b63f 0678 ac3f
00000390: 144d b53f 2224 ae3f adf9 a83f 790a b83f
000003a0: 37ab 943f 78f1 c13f 0a3f ba3f 85e1 bf3f
000003b0: fe15 9e3f 7543 d03f da23 b73f 7615 be3f
000003c0: ae3f a13f b20a a93f eaf1 c13f 7e54 b13f
000003d0: a4fe bd3f e7b6 b43f 0a16 cf3f 2848 993f
000003e0: 7cca af3f e9aa 9d3f c993 9d3f dfb7 a43f
000003f0: a7d2 a83f 9a16 923f 5196 a23f ef46 9d3f

bn1.weight f4 [400]
1.0339613 0.856681 0.6814056 2.005957 1.7727295 1.7973268 1.639788 1.4620361
0.62073404 1.1583756 1.0781918 1.7115945 0.93991166 1.0268409 0.931259 3.2102602
1.3880469 1.31054 0.7551247 0.14274487 0.60151327 2.4562845 1.6918511 0.9625471
0.7296315 1.4398059 1.5014672 1.4005622 0.40836462 1.4514456 1.5438571 1.4186
1.1866015 1.2071347 1.7332888 1.31912 2.086256 0.90778077 0.59617645 1.8704928
1.9089367 1.6581734 1.9444884 0.4434581 1.5794244 1.634532 1.0972258 1.4741174
0.8886965 0.78935504 0.36666942 1.5937461 1.0671189 0.5879694 2.1611032 1.1142112
1.2857058 1.3488826 1.4657942 1.5388094 0.40995196 2.0134091 1.3148782 0.89743525
2.0046198 0.9081731 1.6197408 0.889925 1.8439103 1.1114864 1.2960818 1.2901872
1.0514827 2.5527432 1.7133538 1.6204044 1.2333539 1.9339879 2.1859913 0.72824574
1.2655693 0.5621799 2.7193246 0.23014787 1.3557053 0.2523386 0.70191205 0.8353258
0.618091 1.8515395 1.3626102 0.80461794 0.8245855 1.2053969 1.2519011 1.3407153
1.138467 0.8452695 1.7173816 0.83380806 1.0982968 1.6485953 1.3978411 1.7158664
1.1720247 0.94791764 2.0262897 1.713342 1.2721267 1.1502919 1.3924894 1.5180538
1.1975342 0.8666851 1.2293522 1.6135298 1.6713701 1.2374563 0.9764885 1.4970051
0.3498762 1.5094188 1.4471548 1.6283526 1.051731 0.55675584 1.1546247 3.8930423
1.7833282 1.0150928 1.2155553 1.2694331 1.4613478 1.0716164 0.91407424 1.2940598
1.063407 1.4379026 2.1686513 1.2745856 1.5233543 0.8833264 1.0347126 2.0597324
1.056655 1.2157389 0.6548409 0.5616892 1.3552847 1.5034919 1.359105 1.0985699
1.0770024 0.5954685 1.6237841 0.7901926 1.4257703 0.8392897 0.63760406 0.5366082
0.8980218 1.7458009 0.775289 0.6901389 1.4865558 2.6487257 1.3172302 0.9781864
0.99644834 1.5278639 1.8098541 0.8517865 1.6649044 1.5142707 1.2889435 0.7181228
3.447665 0.8885587 1.4566419 0.591109 1.6293156 1.0062636 1.7145005 1.1784778
1.617968 0.7034733 3.1484935 0.5892917 1.0159482 0.9305769 1.4134052 1.1836923
1.7324792 1.2635487 1.4846829 0.7451426 1.0547712 1.0935458 1.1500685 0.7514673
1.2458127 1.5879976 0.15541247 1.3885432 1.5020455 1.1660047 1.0881847 2.466372
1.2074407 1.7340652 1.0702516 0.9840668 0.28103125 1.3575689 0.4184612 0.47631675
1.5169722 1.7734904 1.3162549 0.8790287 0.8013795 1.601234 1.4752748 0.8617472
0.6069602 1.2411488 0.73691285 0.8252153 3.6613793 1.5683308 0.9868054 0.59697235
1.9250242 0.565935 1.2986081 1.6813295 3.0933926 0.9934678 1.0989498 0.7289083
1.8772628 1.6496193 0.53067744 0.92298704 0.80454993 1.0681143 0.45200294 1.1213118
1.2657816 0.7898675 1.0271862 2.7675867 1.5866594 1.8155674 0.4047062 3.4718142
00000000: d858 843f 724f 5b3f 9970 2e3f 9961 0040
00000010: cde8 e23f ce0e e63f 93e4 d13f 0024 bb3f
00000020: 6de8 1e3f a745 943f 3002 8a3f 8715 db3f
00000030: 0d9e 703f 866f 833f fd66 6e3f e774 4d40
00000040: 85ab b13f c6bf a73f da4f 413f b62b 123e
00000050: c6fc 193f c433 1d40 948e d83f 7d69 763f
00000060: 21c9 3a3f 8f4b b83f 1430 c03f 9f45 b33f
00000070: 2b15 d13e f8c8 b93f 1c9d c53f af94 b53f
00000080: 8fe2 973f 6483 9a3f 68dc dd3f edd8 a83f
00000090: 3885 0540 5264 683f 059f 183f 4f6c ef3f
000000a0: 0a58 f43f 073f d43f ffe4 f83f f10c e33e
000000b0: 942a ca3f 5838 d13f e571 8c3f e1af bc3f
000000c0: 9d81 633f 2c13 4a3f 18bc bb3e dfff cb3f
000000d0: 5a97 883f 2a85 163f 844f 0a40 799e 8e3f
000000e0: 0292 a43f 2fa8 ac3f 259f bb3f b5f7 c43f
000000f0: 39e5 d13e b2db 0040 ee4d a83f 51be 653f
00000100: b14b 0040 087e 683f ab53 cf3f 20d2 633f
00000110: 4105 ec3f 3045 8e3f 02e6 a53f db24 a53f
00000120: fc96 863f 2560 2340 2d4f db3f 6969 cf3f
00000130: 8ade 9d3f ea8c f73f 48e7 0b40 506e 3a3f
00000140: 2dfe a13f 06eb 0f3f 6a09 2e40 e2ab 6b3e
00000150: c087 ad3f 8632 813e 82b0 333f e9d7 553f
00000160: 363b 1e3f 3fff ec3f 036a ae3f 71fb 4d3f
00000170: 0918 533f 724a 9a3f 4c3e a03f 8f9c ab3f
00000180: 49b9 913f 9563 583f 29d3 db3f 7274 553f
00000190: fd94 8c3f 2c05 d33f 75ec b23f 83a1 db3f
000001a0: e804 963f bbaa 723f bbae 0140 ca4e db3f
000001b0: 0cd5 a23f c43c 933f 183d b23f 964f c23f
000001c0: cd48 993f 13df 5d3f 6a5b 9d3f 2588 ce3f
000001d0: 75ef d53f f864 9e3f 26fb 793f dd9d bf3f
000001e0: f922 b33e a334 c13f 5e3c b93f dc6d d03f
000001f0: 1f9f 863f 8d87 0e3f beca 933f 9b27 7940
00000200: 1944 e43f 90ee 813f 5197 9b3f c97c a23f
00000210: 720d bb3f ba2a 893f c500 6a3f c0a3 a53f
00000220: b81d 883f 310d b83f 2fcb 0a40 9f25 a33f
00000230: 46fd c23f ae21 623f 7671 843f a8d2 0340
00000240: 7940 873f 559d 9b3f a7a3 273f ddca 0f3f
00000250: f879 ad3f 6c72 c03f 27f7 ad3f f09d 8c3f
00000260: 37db 893f a070 183f 28d8 cf3f 104a 4a3f
00000270: a47f b63f b1db 563f 053a 233f 285f 093f
00000280: c2e4 653f 6776 df3f 5779 463f f1ac 303f
00000290: 7647 be3f b984 2940 009b a83f 6d6a 7a3f
000002a0: 3d17 7f3f 0b91 c33f 4da9 e73f ae0e 5a3f
000002b0: 961b d53f 9fd3 c13f 1afc a43f e5d6 373f
000002c0: 8ba6 5c40 9578 633f 3e73 ba3f eb52 173f
000002d0: 6a8d d03f 3fcd 803f c174 db3f 5cd8 963f
000002e0: 9319 cf3f d416 343f eb80 4940 d2db 163f
000002f0: 970a 823f 4a3a 6e3f 76ea b43f 3b83 973f
00000300: e1c1 dd3f f7bb a13f 170a be3f aac1 3e3f
00000310: be02 873f 4ff9 8b3f 7235 933f 2960 403f
00000320: ca76 9f3f 8143 cb3f 7224 1f3e c9bb b13f
00000330: 0743 c03f a43f 953f a349 8b3f 0ad9 1d40
00000340: 6b8d 9a3f d9f5 dd3f 01fe 883f cdeb 7b3f
00000350: 54e3 8f3e d1c4 ad3f 8c40 d63e cadf f33e
00000360: 252c c23f bc01 e33f 0a7b a83f 0608 613f
00000370: 3527 4d3f 3cf5 cc3f ced5 bc3f 779b 5c3f
00000380: be61 1b3f f7dd 9e3f 52a6 3c3f 4f41 533f
00000390: 0a54 6a40 10bf c83f 479f 7c3f 2ed3 183f
000003a0: 3167 f63f 1ee1 103f ca38 a63f ce35 d73f
000003b0: 25fa 4540 e853 7e3f 63aa 8c3f bc99 3a3f
000003c0: 264a f03f ba26 d33f 7ada 073f e148 6c3f
000003d0: fcf6 4d3f f8b7 883f ee6c e73e 2587 8f3f
000003e0: 2205 a23f c234 4a3f d67a 833f 2420 3140
000003f0: a817 cb3f 8364 e83f a735 cf3e 3432 5e40

bn1.bias f4 [400]
-0.37652755 -0.7220641 -0.48224342 -0.02775121 -0.26383492 0.2353271 -0.18980202 -0.41438925
-0.5481778 -0.46872696 -0.39173988 -0.1211158 -0.50706005 -0.23229446 -0.48981175 0.16615431
-0.19387397 -0.37612623 -0.4925629 -0.7113525 -0.66776264 -0.12056965 -0.26846537 -0.16214742
-0.6567177 -0.09736685 -0.15987466 -0.33373773 -0.6310404 -0.27783749 -0.07123411 0.034027997
-0.24175161 -0.28994125 -0.12682362 -0.2051996 -0.095847875 -0.6405949 -0.60512155 0.1201342
0.008780151 -0.16345961 0.06629283 -0.75305015 -0.09931517 -0.029041642 -0.21722776 -0.031856447
-0.46952724 -0.41512448 -0.6907703 0.09161385 -0.6726389 -0.46021783 -0.1461101 -0.41412368
-0.40502092 -0.23921949 -0.27648675 -0.20576951 -0.47813204 -0.021941517 -0.380945 -0.5456224
-0.29247007 -0.55923146 -0.16219026 -0.35544428 -0.22174343 -0.31247377 -0.13765575 -0.32051158
-0.38237795 -0.3126336 0.17973861 -0.20289627 -0.7423712 -0.13351636 0.38620847 -0.36063108
-0.21405119 -0.48893026 0.29045483 -0.8650807 -0.3797502 -0.7534817 -0.4594664 -0.6477355
-0.54695386 0.3054644 -0.24585512 -0.5187343 -0.58618635 -0.3205237 -0.15706137 -0.52999204
-0.255231 -0.6728738 -0.14078392 -0.49326363 -0.2797911 -0.35013527 -0.049695514 -0.17747918
-0.35597956 -0.44769362 -0.019950995 -0.0012744208 -0.30534005 -0.45718646 -0.28491777 -0.1903656
-0.22625113 -0.43929613 -0.03874103 -0.18576215 -0.087609105 -0.16315682 -0.1961594 -0.3897955
-0.5390053 -0.2002787 -0.13474545 0.033946145 -0.35573453 -0.76298517 -0.3721168 -0.054481205
-0.08677427 -0.5095682 -0.42635632 -0.2783247 -0.20143545 -0.58820325 -0.2106988 -0.14762753
-0.27528834 -0.35811195 -0.07591307 -0.54450727 -0.3659331 -0.4666757 -0.5499583 -0.32136914
-0.55895853 -0.37009868 -0.38289544 -0.46068248 -0.32455045 -0.1975503 0.02696933 -0.21324576
-0.5064533 -0.5420218 -0.18145286 -0.31372765 -0.12006182 -0.45014685 -0.44430262 -0.50252855
-0.40590408 -0.17156516 -0.6924396 -0.7799072 -0.16206922 -0.15240377 -0.44944957 -0.81396526
-0.38702935 -0.36910433 0.050954998 -0.5284307 -0.26782516 -0.21669295 -0.50461483 -0.49445513
-0.10782791 -0.44754773 -0.22998205 -0.5540564 -0.468604 -0.5918298 -0.11300814 -0.4130485
-0.1636714 -0.6277111 0.6854464 -0.5947439 -0.22054023 -0.5064648 -0.20373082 -0.322277
-0.06980257 -0.26893348 -0.42116016 -0.4802137 -0.42728996 -0.3963364 0.009060566 -0.4063938
-0.4686511 0.06078795 -0.7531321 -0.30623814 -0.18357478 -0.33267578 -0.18210863 0.8689114
-0.06431089 -0.20696476 -0.45877892 -0.40772057 -0.778434 -0.31009397 -0.77263075 -0.8102627
-0.48538288 0.08232313 0.10260339 -0.6651989 -0.45654333 -0.2086157 -0.19604124 -0.6519451
-0.66671115 -0.22481076 -0.607447 -0.60316277 0.03915683 -0.34478056 -0.4376549 -0.3146335
0.09429451 -0.62496316 -0.36576447 -0.22603425 0.36886802 -0.4447225 -0.3724558 -0.42397845
0.08585993 -0.18175179 -0.50973964 -0.16279215 -0.47440213 -0.32160628 -0.76320046 -0.22259235
-0.33913195 -0.5535056 -0.3544412 0.3772418 -0.2182247 -0.31358728 -0.77817446 0.34272262
00000000: 38c8 c0be 31d9 38bf 9ce8 f6be 8156 e3bc
00000010: 5f15 87be 96f9 703e 765b 42be d42a d4be
00000020: 6155 0cbf fbfc efbe 2192 c8be 900b f8bd
00000030: b0ce 01bf 99de 6dbe 9bc8 fabe 5b24 2a3e
00000040: e686 46be 9e93 c0be 3431 fcbe 331b 36bf
00000050: 7ef2 2abf 38ed f6bd 4b74 89be f909 26be
00000060: a71e 28bf 4568 c7bd 2fb6 23be acdf aabe
00000070: dd8b 21bf b740 8ebe 30e3 91bd f160 0b3d
00000080: bc8d 77be 2e73 94be 0dde 01be d81f 52be
00000090: e44b c4bd 07fe 23bf 3fe9 1abf eb08 f63d
000000a0: 9fda 0f3c f561 27be 89c4 873d e5c7 40bf
000000b0: c065 cbbd bde8 edbc f470 5ebe e87b 02bd
000000c0: e065 f0be 328b d4be 53d6 30bf 0ba0 bb3d
000000d0: 1032 2cbf aca1 ebbe e39d 15be 0508 d4be
000000e0: e75e cfbe f4f5 74be ac8f 8dbe 3eb5 52be
000000f0: b9cd f4be b2be b3bc 390b c3be e9ad 0bbf
00000100: a3be 95be cb29 0fbf 3415 26be cbfc b5be
00000110: b610 63be 90fc 9fbe a1f5 0cbe 181a a4be
00000120: 0bc7 c3be 8311 a0be 660d 383e 0ac4 4fbe
00000130: 0a0c 3ebf 83b8 08be 1ebd c53e a3a4 b8be
00000140: 3c30 5bbe 1155 fabe 7fb6 943e ee75 5dbf
00000150: 9e6e c2be 2de4 40bf 2e3f ebbe fed1 25bf
00000160: 2b05 0cbf d465 9c3e 72c1 7bbe c5cb 04bf
00000170: 4f10 16bf af1b a4be b2d4 20be 8fad 07bf
00000180: a3ad 82be 7541 2cbf a929 10be 0d8d fcbe
00000190: c740 8fbe ee44 b3be 868d 4bbd 1abd 35be
000001a0: f442 b6be 1938 e5be 4570 a3bc 770a a7ba
000001b0: 8855 9cbe 5814 eabe bee0 91be 33ef 42be
000001c0: 60ae 67be 6ceb e0be eaae 1ebd 6f38 3ebe
000001d0: 676c b3bd 9512 27be 02de 48be 4793 c7be
000001e0: 40fc 09bf dc15 4dbe b6fa 09be 1d0b 0b3d
000001f0: d622 b6be ff52 43bf 1886 bebe af27 5fbd
00000200: b5b6 b1bd 1073 02bf 604b dabe 9380 8ebe
00000210: 1845 4ebe 7d94 16bf 6dc1 57be ac2b 17be
00000220: 98f2 8cbe 735a b7be 5078 9bbd d464 0bbf
00000230: 955b bbbe 1ef0 eebe 11ca 0cbf 7f8a a4be
00000240: e817 0fbf 937d bdbe df0a c4be 93de ebbe
00000250: 7a2b a6be a04a 4abe c9ee dc3c 195d 5abe
00000260: eca6 01bf f1c1 0abf c7ce 39be e9a0 a0be
00000270: f9e2 f5bd a679 e6be a27b e3be b6a5 00bf
00000280: a9d2 cfbe c7ae 2fbe b943 31bf 00a8 47bf
00000290: 79f5 25be bc0f 1cbe 411e e6be 0760 50bf
000002a0: b628 c6be 3efb bcbe 30b6 503d 3c47 07bf
000002b0: 6120 89be c2e4 5dbe 702e 01bf 3929 fdbe
000002c0: e1d4 dcbd fa24 e5be 6a80 6bbe a4d6 0dbf
000002d0: ddec efbe 2882 17bf d070 e7bd 187b d3be
000002e0: 7a99 27be adb1 20bf 6a79 2f3f 2341 18bf
000002f0: 4cd5 61be ada7 01bf d09e 50be 7e01 a5be
00000300: a6f4 8ebd a6b1 89be 4ea2 d7be 92de f5be
00000310: c0c5 dabe 9bec cabe c572 143c d912 d0be
00000320: 09f3 efbe c9fc 783d 44cd 40bf 3fcb 9cbe
00000330: 07fb 3bbe 7b54 aabe af7a 3abe fa70 5e3f
00000340: 6eb5 83bd 92ee 53be 12e5 eabe c0c0 d0be
00000350: 7347 47bf a3c4 9ebe 21cb 45bf 606d 4fbf
00000360: 1b84 f8be 0799 a83d ba21 d23d 7a4a 2abf
00000370: 0cc0 e9be 5b9f 55be 09bf 48be e0e5 26bf
00000380: 95ad 2abf cb34 66be a681 1bbf e068 1abf
00000390: ea62 203d 1487 b0be 4e14 e0be a417 a1be
000003a0: 7b1d c13d 96fd 1fbf 7b45 bbbe 8675 67be
000003b0: 45dc bc3e abb2 e3be 87b2 bebe b413 d9be
000003c0: 55d7 af3d 241d 3abe 4c7e 02bf fcb2 26be
000003d0: d6e4 f2be 94a9 a4be 1b61 43bf 40ef 63be
000003e0: b4a2 adbe 8bb2 0dbf 5179 b5be d625 c13e
000003f0: 4c76 5fbe 838e a0be 7136 47bf 5779 af3e

bn2.weight f4 [300]
1.9956168 2.7070534 3.289011 1.154935 2.0957353 1.9506092 2.3738048 2.9625046
0.6648325 4.1549644 3.452554 0.7430499 2.9051907 3.1020014 1.1126604 3.3170404
2.0104704 2.4705012 3.4861374 3.5504382 0.40121543 2.1465938 1.4404379 1.0214598
0.58285624 3.466197 1.2921203 1.2892444 1.4684016 3.0676615 3.0307875 3.220207
2.556513 2.527387 1.6636777 1.9797419 1.3962097 6.3242764 2.9038174 4.7072115
1.351097 3.0091302 0.22460417 0.15401632 2.0576773 2.2834709 2.2457201 1.5912417
2.286148 1.3608072 1.1663281 2.3715296 2.1824532 1.7398472 2.0470965 2.2408361
0.48687318 1.3110352 0.7092998 2.2379718 2.3186674 2.3349674 2.061869 2.6424272
2.1122472 1.7421105 2.8308015 2.4336329 1.7935028 2.5203063 2.0307598 1.8991325
1.7786885 1.1957531 2.368873 4.8638163 1.6547337 1.9103785 1.6617002 2.293919
1.5930464 2.3493426 0.6900284 1.4309468 0.17875639 2.1534786 0.6206567 3.2081668
1.9362471 3.2997143 2.8774216 1.1363177 1.9221207 2.1712542 2.0740204 1.7810974
0.46443534 0.418556 1.9980977 2.199184 1.3443621 1.8577813 2.5083323 3.7350929
1.9628851 2.371053 2.5221055 2.2167137 2.3379707 2.7633646 2.6964664 2.1809704
1.5319631 3.0990999 2.165001 1.618375 1.1746875 3.0442789 2.1463463 2.2008169
2.010903 2.2837567 3.0671077 2.1014013 2.718639 1.3085165 1.7283938 1.5658652
0.26031324 2.8095005 2.1996112 0.36094123 1.2570478 1.0309392 0.29022714 2.717515
2.3068197 1.6386309 2.7477856 1.3937029 1.9387637 0.4711568 1.8986115 0.28745472
1.4753392 2.3797667 1.9197855 1.0129014 0.537636 1.5622253 4.048312 2.0329099
2.7122812 1.5918789 2.2679355 1.4747891 1.4775835 0.49649245 0.5679529 1.1214321
1.0014683 1.052492 0.9922502 0.475374 3.4809165 1.8916956 2.0629706 1.640783
1.0824378 5.454459 1.1835011 0.30023766 2.6177473 2.5977685 2.1963012 2.4140174
1.1244819 1.087516 1.9276096 1.074285 2.1194665 2.1027448 2.1585362 0.38414714
1.3673451 1.8554131 1.8494618 2.472651 1.1145514 2.0911777 1.2085364 0.7526359
2.2744403 1.5468613 1.7143418 2.7470942 0.15661195 1.930053 2.3135765 2.3044724
1.7752931 1.7341646 0.21423239 2.7910004 1.3572809 2.0727944 2.1248171 2.0763524
2.8690736 2.1032138 1.3111072 2.6518524 2.948962 1.3407989 3.0046616 3.7569396
2.755659 1.4485599 2.597479 2.510304 2.2276795 1.8375813 2.2911465 1.9087363
2.5889804 4.780796 2.4137087 0.5381938 1.4958214 1.6707512 1.4399172 1.7309895
2.3116992 1.2102511 1.3448136 1.6572434 2.5684512 0.7533072 0.45790356 1.9094278
1.1504704 1.9510692 0.90099525 0.4823269 0.9568216 2.357262 0.52799624 2.7104654
2.780232 1.9503989 1.3081386 0.26891392 0.34584755 2.843901 4.3614273 3.3201962
00000000: 5f70 ff3f 5d40 2d40 287f 5240 e9d4 933f
00000010: 8720 0640 90ad f93f 6bec 1740 ad99 3d40
00000020: 7632 2a3f 78f5 8440 a5f6 5c40 8538 3e3f
00000030: a5ee 3940 3187 4640 a86b 8e3f 644a 5440
00000040: 8cab 0040 b11c 1e40 e01c 5f40 613a 6340
00000050: 1c6c cd3e cb61 0940 4560 b83f 32bf 823f
00000060: 1136 153f 2cd6 5d40 3364 a53f f605 a53f
00000070: 95f4 bb3f 9154 4440 6cf8 4140 df17 4e40
00000080: e99d 2340 b5c0 2140 64f3 d43f 2f68 fd3f
00000090: 00b7 b23f 7960 ca40 25d8 3940 7aa1 9640
000000a0: bff0 ac3f 9795 4040 a3fe 653e 74b6 1d3e
000000b0: fcb0 0340 6324 1240 e1b9 0f40 cfad cb3f
000000c0: 4050 1240 ee2e ae3f 3d4a 953f 24c7 1740
000000d0: 50ad 0b40 50b3 de3f a103 0340 dc69 0f40
000000e0: 7147 f93e 00d0 a73f ac94 353f ee3a 0f40
000000f0: 0c65 1440 1b70 1540 a9f5 0340 871d 2940
00000100: 0f2f 0740 7afd de3f da2b 3540 a4c0 1b40
00000110: 8091 e53f b34c 2140 f8f7 0140 c616 f33f
00000120: 11ac e33f 700e 993f 9d9b 1740 62a4 9b40
00000130: 50ce d33f 4887 f43f 98b2 d43f 92cf 1240
00000140: f2e8 cb3f a15b 1640 b4a5 303f 4429 b73f
00000150: ea0b 373e 98d2 0940 5ce3 1e3f 9b52 4d40
00000160: f2d6 f73f 852e 5340 ad27 3840 dc72 913f
00000170: 0d08 f63f d4f5 0a40 c0bc 0440 00fb e33f
00000180: 78ca ed3e f94c d63e aac1 ff3f 6ebf 0c40
00000190: 0f14 ac3f c7cb ed3f 8488 2040 c30b 6f40
000001a0: d23f fb3f 55bf 1740 2d6a 2140 a3de 0d40
000001b0: 50a1 1540 f7da 3040 e892 2c40 0595 0b40
000001c0: 5e17 c43f a757 4640 608f 0a40 e926 cf3f
000001d0: 295c 963f 77d5 4240 bd5d 0940 2fda 0c40
000001e0: a2b2 0040 1229 1240 7e4b 4440 5c7d 0640
000001f0: 2efe 2d40 787d a73f 023c dd3f 456e c83f
00000200: c747 853e dbce 3340 6ec6 0c40 4acd b83e
00000210: f1e6 a03f d1f5 833f a798 943e c4eb 2d40
00000220: efa2 1340 a8be d13f b8db 2f40 db64 b23f
00000230: 6929 f83f 773b f13e b405 f33f 442d 933e
00000240: ead7 bc3f 194e 1840 88bb f53f c1a6 813f
00000250: 83a2 093f 00f7 c73f c68b 8140 321b 0240
00000260: 0496 2d40 b0c2 cb3f db25 1140 e4c5 bc3f
00000270: 7521 bd3f 4234 fe3e 5c65 113f 168b 8f3f
00000280: 1d30 803f 0fb8 863f 1c04 7e3f 3964 f33e
00000290: 56c7 5e40 1523 f23f b607 0440 2d05 d23f
000002a0: 528d 8a3f ee8a ae40 f77c 973f c0b8 993e
000002b0: 2c89 2740 d741 2640 3390 0c40 437f 1a40
000002c0: 06ef 8f3f b933 8b3f e9bb f63f 2c82 893f
000002d0: 57a5 0740 5f93 0640 7525 0a40 efae c43e
000002e0: 2a05 af3f 2d7e ed3f 2abb ec3f ea3f 1e40
000002f0: 9fa9 8e3f dbd5 0540 52b1 9a3f bfac 403f
00000300: 6e90 1140 8dff c53f 8d6f db3f 64d0 2f40
00000310: e25e 203e fa0b f73f a311 1440 7a7c 1340
00000320: ce3c e33f 1bf9 dd3f bc5f 5b3e c09f 3240
00000330: 61bb ad3f aaa8 0440 01fd 0740 f5e2 0440
00000340: e79e 3740 0e9b 0640 5cd2 a73f f3b7 2940
00000350: cbbb 3c40 4c9f ab3f 604c 4040 b371 7040
00000360: b85c 3040 696a b93f 193d 2640 d2a8 2040
00000370: 4d92 0e40 dd35 eb3f 25a2 1240 7951 f43f
00000380: dbb1 2540 48fc 9840 347a 1a40 12c7 093f
00000390: 1377 bf3f 2ddb d53f 354f b83f 1091 dd3f
000003a0: e1f2 1340 82e9 9a3f da22 ac3f 8d20 d43f
000003b0: 8161 2440 bed8 403f 5672 ea3e 2168 f43f
000003c0: 9d42 933f a3bc f93f a0a7 663f 8df3 f63e
000003d0: 43f2 743f 61dd 1640 c32a 073f 4478 2d40
000003e0: 52ef 3140 aca6 f93f 1671 a73f 16af 893e
000003f0: ee12 b13e 7902 3640 d090 8b40 187e 5440

bn2.bias f4 [300]
0.30555105 0.36130843 -0.35945868 -0.19664258 -0.5736795 -0.18480709 -0.37077454 0.20622367
-0.35615587 -0.35492587 0.1697592 -0.7488471 -0.043520257 -0.20490742 -0.5628847 -0.20138805
-0.01077841 0.0063337996 -0.04894785 -0.3946985 -0.5800784 -0.5795171 0.09769577 -0.47377464
-0.3642221 -0.5743607 -0.093599126 -0.5645903 0.08521785 0.14381808 -0.2879593 0.25074813
-0.45875698 -0.6567559 0.38546148 -0.28407592 -0.048439603 0.0039691245 -0.15927112 0.22716452
-0.17413728 0.2797494 -0.71696436 -0.8128452 -0.039568346 0.38969648 -0.38071394 -0.080347374
-0.39115512 -0.11065533 0.38436523 -0.60981417 -0.15711305 -0.4638111 -0.70264614 -0.4779742
-0.4973676 -0.32959116 -0.91196805 -0.5963655 0.20930856 -0.26721442 0.13529623 0.029322892
-0.29251772 -0.021089904 -0.11921356 0.13454257 -0.23426934 0.27768683 -0.20908049 -0.34275207
-0.57701176 -0.65550774 -0.29435244 0.5478632 -0.27502045 -0.40600982 0.3103175 -0.5358928
-0.15749747 -0.17533022 -0.24307096 -0.4211899 -0.81711316 -0.15112504 -0.38178098 -0.16256307
0.40488195 -0.2277584 -0.43142995 -0.39547035 -0.22516185 -0.46441257 0.24073404 0.19523771
-0.56158245 -0.53426945 -0.2330018 0.11645004 -0.75966966 -0.32389048 -0.053925518 0.030752407
-0.31100482 -0.07007733 0.18890911 -0.23858297 0.29271507 -0.24408944 0.08348585 -0.091144174
-0.24096498 0.3541218 0.24168372 -0.19531263 -0.41029102 -0.44984788 -0.65800244 -0.4290284
0.0025720934 -0.39253283 0.39263806 0.08932373 -0.18740495 -0.16848315 -0.1319768 -0.32334015
-0.6804282 -0.12262673 -0.41798756 -0.6471492 -0.26873866 -0.5989742 -0.64467376 0.019142684
-0.6660597 -0.27351505 0.25049925 -0.5455747 0.010635422 -0.5780326 -0.57687145 -0.9181321
-0.17350361 0.18370943 -0.29516184 -0.46533066 -0.48595807 -0.59198475 -0.19620328 0.037635207
-0.43849584 0.040208034 -0.5355654 -0.35822248 -1.1315986 -0.36416283 -0.43646437 -0.7626735
-0.49605778 -0.26321846 -0.18182528 -0.6223948 0.51632744 -0.47879523 -0.26465723 -0.7335546
-0.61072737 -0.07219131 -0.8518103 -0.71293515 0.10538586 -0.50338703 -0.16236702 0.055681307
-0.80379957 -0.53858405 -0.39156145 -0.7479217 -0.42911282 0.047124855 -0.06552492 -0.6290468
-0.17755128 -0.43013713 -0.678133 0.06267317 -0.25529897 -0.122773305 0.18582992 0.5118415
0.057553858 -0.13226736 -0.18733113 0.25296205 -0.83125407 -0.36253634 -0.3963258 -0.43897054
-0.69803774 0.021164766 -0.79539067 0.1735805 -0.32904407 -0.13618319 -0.43594202 -0.45965677
-0.04314249 -0.28705105 -0.58036685 -0.2846333 0.30319512 -0.4075063 -0.37686884 0.39885652
0.16471775 -0.9699918 -0.543743 0.40126237 0.02823598 -0.60589933 -0.14450642 -0.05709903
-0.52223206 -0.21524471 0.036974773 0.54773504 -0.7587183 -0.19707826 -0.3265789 -0.12959486
-0.4721529 -0.39461082 -0.48051408 -0.3033944 0.05763922 -0.5700152 -0.5306508 0.01419913
0.19543903 -0.07353521 0.37669578 -0.53546363 -0.33287886 0.013947123 -0.95988727 0.1323087
0.03140072 0.10239462 -0.6459057 -0.7258039 -0.6104399 0.44629142 -0.15361722 0.0070039565
00000000: 3071 9c3e 6bfd b83e f80a b8be ac5c 49be
00000010: a9dc 12bf 123e 3dbe 29d6 bdbe 4c2c 533e
00000020: 105a b6be d8b8 b5be 5bd5 2d3e 72b4 3fbf
00000030: 4c42 32bd 40d3 51be 3619 10bf ab38 4ebe
00000040: ee97 30bc c38b cf3b 8a7d 48bd ec15 cabe
00000050: 0580 14bf 3c5b 14bf b814 c83d 9792 f2be
00000060: 527b babe 4e09 13bf e6b0 bfbd fd88 10bf
00000070: b286 ae3d 0c45 133e 676f 93be 0f62 803e
00000080: 32e2 eabe 2821 28bf 355b c53e 6672 91be
00000090: 9b68 46bd 6e0f 823b f817 23be d19d 683e
000000a0: 0b51 32be 503b 8f3e fa8a 37bf 9f16 50bf
000000b0: 6b12 22bd 4c86 c73e f0ec c2be 2a8d a4bd
000000c0: 7c45 c8be 439f e2bd 85cb c43e c81c 1cbf
000000d0: 3ee2 20be a678 edbe 9ee0 33bf 09b9 f4be
000000e0: f7a6 febe 2cc0 a8be bd76 69bf 69ab 18bf
000000f0: fc54 563e 54d0 88be 188b 0a3e 9036 f03c
00000100: e2c4 95be bcc4 acbc 3d26 f4bd 87c5 093e
00000110: 4de4 6fbe f82c 8e3e 3219 56be 337d afbe
00000120: 0bb7 13bf 5bcf 27bf 5db5 96be c340 0c3f
00000130: 7bcf 8cbe 85e0 cfbe efe1 9e3e 4530 09bf
00000140: 0447 21be c489 33be 98e7 78be 34a6 d7be
00000150: 542e 51bf 86c0 1abe cc78 c3be ef76 26be
00000160: b04c cf3e 7f39 69be 63e4 dcbe 177b cabe
00000170: d490 66be 7cc7 edbe fc82 763e 65ec 473e
00000180: dec3 0fbf e2c5 08bf 0698 6ebe 5c7d ee3d
00000190: b679 42bf f9d4 a5be 01e1 5cbd 79ec fb3c
000001a0: 063c 9fbe b484 8fbd 6471 413e 184f 74be
000001b0: c0de 953e 95f2 79be a1fa aa3d cca9 babd
000001c0: 86bf 76be 744f b53e f07b 773e 0900 48be
000001d0: aa11 d2be 7652 e6be d972 28bf 9ca9 dbbe
000001e0: 9190 283b 10fa c8be db07 c93e 5cef b63d
000001f0: 15e7 3fbe d986 2cbe ed24 07be d78c a5be
00000200: 8b30 2ebf b923 fbbd 7702 d6be 92ab 25bf
00000210: 1d98 89be 6056 19bf 5709 25bf 1ed1 9c3c
00000220: e382 2abf 2a0a 8cbe 7041 803e c9aa 0bbf
00000230: 3140 2e3c f2f9 13bf d9ad 13bf b50a 6bbf
00000240: eeaa 31be 531e 3c3e 741f 97be d23f eebe
00000250: 7fcf f8be 508c 17bf 83e9 48be 6027 1a3d
00000260: 8782 e0be 2eb1 243d d01a 09bf f068 b7be
00000270: 39d8 90bf 8d73 babe 4278 dfbe 923e 43bf
00000280: 49fb fdbe 92c4 86be 6830 3abe 4455 1fbf
00000290: 092e 043f a624 f5be 2781 87be 3cca 3bbf
000002a0: a158 1cbf 0ad9 93bd 3d10 5abf eb82 36bf
000002b0: 8bd4 d73d f9dd 00bf 8a43 26be 1512 643d
000002c0: cfc5 4dbf a5e0 09bf be7a c8be cc77 3fbf
000002d0: adb4 dbbe fe05 413d ee31 86bd 3609 21bf
000002e0: 01d0 35be ef3a dcbe 209a 2dbf ca5a 803d
000002f0: 8cb6 82be 9270 fbbd 334a 3e3e 0b08 033f
00000300: 98bd 6b3d 1871 07be bbd3 3fbe 3e84 813e
00000310: 11cd 54bf 5d9e b9be 37eb cabe bfc0 e0be
00000320: 9ab2 32bf bb61 ad3c b99e 4bbf 16bf 313e
00000330: 7778 a8be 9b73 0bbe cb33 dfbe 2258 ebbe
00000340: 2eb6 30bd 5bf8 92be ec92 14bf 75bb 91be
00000350: 643c 9b3e aaa4 d0be f4f4 c0be ec36 cc3e
00000360: c5ab 283e 6251 78bf be32 0bbf 4372 cd3e
00000370: 244f e73c 381c 1bbf 7ef9 13be ace0 69bd
00000380: 00b1 05bf 1c69 5cbe dc72 173d 5d38 0c3f
00000390: 5d3b 42bf e2ce 49be 5935 a7be 84b4 04be
000003a0: 06be f1be 6e0a cabe f105 f6be 8356 9bbe
000003b0: 1a17 6c3d 84ec 11bf bbd8 07bf 78a3 683c
000003c0: 2b21 483e a199 96bd 45de c03e 2514 09bf
000003d0: 196f aabe 7982 643c 2cbb 75bf ef7b 073e
000003e0: 0b9e 003d 45b4 d13d 135a 25bf 49ce 39bf
000003f0: ca45 1cbf 4f80 e43e d54d 1dbe 7281 e53b
