tmp/ddpg/actor_ddpg.pth (torch, 511239 bytes, 10 tensors)

fc1.weight f4 [400, 11]
000000 fd e4 ab bd da ee 8b bd d0 46 06 3e a4 12 bd 3d
       -0.083932854 -0.06832667 0.1311295 0.09232071
000010 bf 45 26 3e cd 21 25 3e 6e 87 4c 3e 04 7e ec 3d
       0.16237544 0.16126175 0.19973537 0.11547473
000020 10 36 81 3e 8d df 99 3e e6 7c 5b 3e 88 8c b3 3d
       0.2523656 0.30053368 0.21434364 0.087670386
000030 66 bf 02 be 2e 87 00 3e 30 74 ba 3d 67 09 a3 3d
       -0.12768325 0.12551567 0.09104192 0.07960778
000040 a8 4a 07 3f ec 6b 3d 3e 7d 24 88 bc d3 86 32 3e
       0.5284829 0.184982 -0.016618961 0.17434244
000050 63 e4 0a 3e 48 91 d0 3d 68 ef 35 3e cd 43 b4 bd
       0.13563685 0.1018396 0.17767107 -0.088019945
000060 04 35 99 3d 2a 2f 9e 3d 1b 40 4c 3e ab 55 3f 3f
       0.07480815 0.077238396 0.1994633 0.74740094
000070 9d 15 db 3d d9 ee 47 bd db 0f 07 3e 47 24 09 3e
       0.10697482 -0.048811767 0.13189642 0.13392745
000080 a3 e8 a9 3d f7 4c bd 3d 3e 2b 2f be 38 46 ba 3c
       0.08296325 0.092431955 -0.1710634 0.022738561
000090 a5 6e cd 3d 5b e9 50 3e 2d 59 c7 be f3 bf a8 bd
       0.100308694 0.20401518 -0.38935223 -0.082397364
0000a0 5c 20 3f 3e 2e 5c 2b be f8 48 b0 bd e9 6a 95 bd
       0.18664688 -0.16734383 -0.08607668 -0.07295782
0000b0 7e 61 58 be 62 6c 15 3d fd 8a 74 3e 10 33 ba 3c
       -0.2113094 0.036480315 0.23881145 0.022729427
0000c0 3d 38 9b 3d 39 a8 e8 3d f9 27 aa 3d f4 6a f0 3e
       0.07579086 0.11360211 0.083084054 0.469566
0000d0 11 35 9b 3e 86 84 95 3e 1e f0 95 3e a5 f6 21 be
       0.30313924 0.2920267 0.29284757 -0.15816744
0000e0 ed ad 0f bd a3 c8 17 3e 8a 66 f6 3c 91 ba 4b 3e
       -0.035077978 0.1482263 0.030078191 0.19895388
0000f0 8c 90 c8 3d 13 3e 45 3d 02 ef ed bd 94 32 7d 3d
       0.09793195 0.0481549 -0.11617853 0.061815813
000100 7a 81 29 3e 5c b0 7a 3d 23 b4 e7 3c 4b 96 97 bd
       0.16553298 0.061203346 0.028284138 -0.07401713
000110 43 1b 9d 3b 8a 83 04 3d e3 24 af 3d 00 95 95 3e
       0.0047945096 0.032352008 0.085519575 0.2921524
000120 e4 6a ed 3e 12 f0 8d 3e ab ef be 3d b3 86 00 3e
       0.46370614 0.27722222 0.09323057 0.12551384
000130 32 1c 97 3d 0f 40 4e 3e 48 2f 39 be 07 5a 20 3c
       0.07378425 0.20141624 -0.18084443 0.009787089
000140 db 79 cc 3d b4 a0 05 3e c3 3f 27 be 2c 7e 9e 3d
       0.099841796 0.13049585 -0.16332917 0.07738909
000150 84 7e 33 3d 4a cb e2 bd 16 e2 be bc 21 86 ff bd
       0.043821827 -0.110739306 -0.023301166 -0.12476755
000160 d7 f8 5b 3d 6b 48 4b bd 14 fe 66 3e 41 f0 8d 3d
       0.05370411 -0.04962961 0.2255786 0.069305904
000170 9c b2 89 3e 4f 10 07 3f a6 9a c4 3e 77 5a 90 bd
       0.2689408 0.5275926 0.38399237 -0.07048505
000180 a1 9f 3c 3e c7 14 04 3e b3 5a 52 3e 80 56 92 3d
       0.18420269 0.12898551 0.20542412 0.07145405
000190 a9 cb 18 bc 94 06 14 3e 34 67 b6 3d 0a 80 0f 3e
       -0.0093259 0.14455634 0.08906403 0.14013687
0001a0 12 c1 d5 3e 46 66 82 3e d7 88 b3 3d 4b dd 22 3e
       0.41748863 0.25468653 0.087663345 0.15904729
0001b0 44 b5 70 3e ec 2e 1e 3e e4 7e 9c 3d c8 45 c5 bd
       0.23506647 0.15447587 0.0764139 -0.0963245
0001c0 62 26 0a 3e 4c 93 98 3d 11 9a b7 3d db 0f 6c 3e
       0.13491204 0.0744997 0.08964933 0.23052923
0001d0 b4 2e c9 3e a8 7c 9b 3e ee b2 03 3e a0 49 12 3e
       0.39293444 0.30368543 0.12861225 0.14285898
0001e0 85 fe f5 3d ef 99 9e 3d a2 e3 00 be c9 8b 45 3e
       0.120114364 0.07744204 -0.12586835 0.19291605
0001f0 9b 10 e2 3d a1 c8 be 3c 46 78 5d bf 9b a4 77 3c
       0.110383235 0.023289027 -0.8651165 0.015114929
000200 d5 48 54 3e cb 7a 5c 3e f1 33 2a 3e 0a c5 5a 3e
       0.20730908 0.21531217 0.16621377 0.21364227
000210 54 a9 ab bc 74 c8 5b be e8 c8 02 3e b6 85 c5 3c
       -0.020954765 -0.21463186 0.12771952 0.02411161
000220 1d 5e 15 3e a5 98 11 bf 14 c6 cd 3e 1f 5f 47 3d
       0.14586683 -0.5687354 0.40190184 0.0486747
000230 5b 39 02 3c 95 48 82 3d a0 30 ba 3d a5 8c d4 bc
       0.007948245 0.063615 0.09091306 -0.02594597
000240 93 89 1a be b5 d4 1f 3e 78 28 e5 3d fa 64 27 3e
       -0.15091543 0.15608485 0.111893594 0.16347113
000250 56 f6 d7 3e 69 c0 49 3e 5f d8 87 be 53 ab ff 3d
       0.42180127 0.19702305 -0.26532266 0.124838494
000260 b7 e6 66 3e 74 ee 23 3e c9 15 71 bc 2c 7f a1 bd
       0.22548948 0.16008931 -0.014714667 -0.07885584
000270 58 43 0e 3d 6c bf 90 3d fa fd e5 bd 76 30 f9 3e
       0.034732193 0.07067761 -0.11230083 0.48669785
000280 e5 63 b6 3e c1 b3 66 3e b4 ea 05 3e f7 95 bb 3d
       0.35623088 0.22529508 0.13077813 0.09159463
000290 0b c3 b4 3d 1c 56 6e 3e 46 9b 3e be 63 68 67 3d
       0.08826264 0.23275036 -0.1861392 0.056496035
0002a0 be 12 b8 3d 5a f0 27 3e c8 4e a5 3d fc fc 4a 3e
       0.0898795 0.1640028 0.08071667 0.19823068
0002b0 55 f0 d5 3e a5 6c ab be 6a 1e aa be c2 cb af be
       0.4178492 -0.33481327 -0.3322633 -0.34335142
0002c0 97 5a 20 3e b8 50 56 be 1d 7b 81 3c f3 68 dc 3d
       0.15659557 -0.2092923 0.015805775 0.10762205
0002d0 96 39 e5 3d 37 86 26 be ed fc 3d 3d 31 cc 04 be
       0.11192624 -0.16262136 0.046383787 -0.12968518
0002e0 bd a4 c2 bd 04 b5 26 bc 41 9d ba bd 76 ac 11 be
       -0.095040776 -0.010174993 -0.09112025 -0.14225945
0002f0 dc 45 83 3b 9a b2 1b 3e 40 d0 0d 3c 6d 1a 84 3d
       0.0040061306 0.1520485 0.008655608 0.06450353
000300 99 24 b5 3e a1 87 34 3e 48 11 ef 3e f4 7c 85 3e
       0.35379484 0.17629863 0.46692872 0.26071894
000310 46 48 83 3e ca 11 6a 3e 97 f6 61 3c c3 af 02 be
       0.25641078 0.22858348 0.013791702 -0.1276236
000320 05 e4 44 3e 87 4d a8 3d 22 42 2d 3e f5 49 45 3d
       0.19227608 0.08217912 0.16919759 0.048166234
000330 11 bc 5a 3e e6 11 97 3e 77 87 36 3e d6 ec 0e 3e
       0.21360804 0.29505843 0.17825113 0.13957533
000340 28 31 15 3e 33 f4 0d 3e 28 a8 82 be 53 e4 2e 3e
       0.14569533 0.13862686 -0.25518918 0.17079286
000350 55 21 6e 3d 76 f6 c5 3e e9 91 90 3e 66 92 75 bc
       0.058137257 0.38664597 0.2823632 -0.014988517
000360 2f 8f 7a bd 50 c9 47 3e b9 fe 89 3e f2 8a 7b 3e
       -0.061171707 0.19510388 0.2695215 0.24564722
000370 af 9d 12 3e dd 1e 1c be 92 6a 01 3e d2 1c b7 3d
       0.14317964 -0.15246148 0.1263831 0.08941044
000380 b5 8c 2b 3e 1e 63 d9 3e 23 66 81 3e 13 57 09 be
       0.16752894 0.42458433 0.25273237 -0.13412122
000390 ba 39 fd 3d f6 58 17 3e 4a 99 d9 3d be 06 7c 3b
       0.12364526 0.1478003 0.10624941 0.0038456167
0003a0 97 9a 0c bd 3c 0e 3c 3e 21 9f bc 3d 05 c7 d5 3d
       -0.034327116 0.18364805 0.09210039 0.104383506
0003b0 a5 48 03 3e 5a df e3 3d 6e fb bc 3e 76 e9 95 3e
       0.1282068 0.11126585 0.36910576 0.2927968
0003c0 9b 83 a9 3e 86 8c 76 3e 00 1c 3c 3d 1a eb 33 be
       0.3310822 0.24077043 0.04592514 -0.17570153
0003d0 71 d8 d6 3d 51 ae b8 3d ec 85 3a 3e 23 bf 5f 3e
       0.10490502 0.09017623 0.1821515 0.21850257
0003e0 c7 13 a9 3e 41 71 a7 bc 05 cb 7b bc 7f ee 4f 3c
       0.330229 -0.020439746 -0.015368228 0.012691139
0003f0 c6 21 8f 3c 20 4d c8 3d b4 cb 37 be ba 80 71 3e
       0.01747216 0.097803354 -0.179488 0.23584262

fc1.bias f4 [400]
000000 b0 1d 09 3d 20 4f df 3d ba 35 98 bc a2 d9 b9 3d
       0.033475578 0.10903764 -0.018580306 0.09074713
000010 36 32 1d 3e cb 0d 58 3e 34 8b fe bc 95 3e 2b 3e
       0.15351185 0.21099012 -0.031072237 0.16723092
000020 a9 b8 88 3d 7a c0 ff 3c 3e 73 4f 3d c9 af 5e 3e
       0.06675846 0.03121971 0.050647013 0.21746744
000030 7e e2 41 3e 79 cc 09 3e 92 6b 84 3d 41 ec 36 3e
       0.18934056 0.13456906 0.0646583 0.17863561
000040 0b af f2 3d ef 00 87 3b 02 49 ba 3d 33 02 cf 3d
       0.11849793 0.0041199843 0.090959564 0.10107841
000050 38 ad 3d 3d 84 1e f0 3d c5 52 10 3e a2 ef a7 3d
       0.046307772 0.117245704 0.14094074 0.08200003
000060 2f 88 78 3d ce 82 ef 3d e3 74 ec 3d cf 1c 82 3d
       0.06067675 0.11694871 0.11545732 0.06353151
000070 67 68 af bb b9 1b 31 3e 2f f4 43 3e eb d0 50 3e
       -0.005353022 0.17295732 0.19136117 0.20392196
000080 66 71 42 3e da e2 30 3e 7e 08 09 3e d9 c1 ae 3d
       0.1898857 0.17274037 0.13382146 0.08533067
000090 2d ad 5a 3e 5a a1 be 3d dd ca 20 3e 25 53 4c 3e
       0.21355124 0.09308119 0.15702386 0.19953592
0000a0 f0 4d e1 3d 3b e7 fc 3d a0 46 54 3e 46 e0 c1 3d
       0.110011935 0.12348791 0.20730066 0.09466605
0000b0 5d dd 98 3d 34 c6 fb 3d 73 d6 2a 3e 23 c9 16 3e
       0.07464097 0.122936636 0.16683368 0.14725165
0000c0 a3 9a a0 3d 0f d6 40 3e c7 e3 a7 3d c5 38 b6 3d
       0.078419946 0.18831657 0.08197742 0.08897547
0000d0 01 cc 26 bd e1 b5 4e 3e 02 ec 11 3d b8 4b 01 3e
       -0.040721897 0.20186569 0.035625465 0.1262654
0000e0 3b 5d 32 3e 49 8b 32 3e 68 e3 a5 3d 04 44 89 3d
       0.17418377 0.17435946 0.08100015 0.06702426
0000f0 9b b8 4b 3e 6f fc b2 3d e2 0a 4e 3e c7 1f 07 3e
       0.1989464 0.08739554 0.20121339 0.13195716
000100 84 27 0b bd e2 f6 15 3d e8 a8 e3 3d 30 d2 52 3d
       -0.033973232 0.0366124 0.11116201 0.05146998
000110 9d 0a f9 3d 44 88 36 3e 5c 3e 64 3e 31 93 42 3e
       0.121602274 0.17825419 0.22289413 0.19001462
000120 9b 57 73 bc 6a 45 4d 3e 78 bf 6c 3e 00 09 0b bc
       -0.01485243 0.2004601 0.23119915 -0.0084860325
000130 4a 90 a8 bd 44 3d 85 3c 11 67 89 3e fd cd e4 3d
       -0.08230646 0.016264565 0.26836446 0.11172102
000140 c8 13 ca bc ae c4 19 bb a3 bd f2 3c 98 fb ad 3d
       -0.024667636 -0.0023463177 0.029631441 0.08495253
000150 d3 78 d8 3d 96 e2 8a 3d 55 71 02 3e b7 60 e3 3d
       0.105699204 0.06781499 0.12738545 0.11102431
000160 4a b8 9e 3d dc 0c 65 3e 9e ad f1 3d 21 5f 66 3d
       0.07749994 0.22368187 0.11800693 0.056243066
000170 19 29 57 3e 4f 26 b9 3d 39 95 8c 3d 58 56 99 3e
       0.21011771 0.0904051 0.068643995 0.29948688
000180 9e 32 ec bb 10 d9 00 3e 58 17 22 3e 20 6b 08 3e
       -0.0072081825 0.12582803 0.15829217 0.13322115
000190 a0 05 5a 3e c5 1c 54 3e c6 12 d9 3c 1f 71 ac 3d
       0.21291208 0.207141 0.02649821 0.08420014
0001a0 2b 8d 07 3e 6e 22 b6 3d 02 a7 c7 3d 1d a4 c1 bc
       0.13237445 0.08893286 0.09748651 -0.023637826
0001b0 02 96 68 3e c9 d5 57 3d 23 bf 8b 3d e4 a7 fb 3d
       0.22713473 0.052694116 0.06823566 0.12287882
0001c0 d7 ce 86 3d 76 a4 25 3d 3d 93 5a 3e c4 ca 83 3e
       0.0658242 0.040440045 0.2134523 0.25740635
0001d0 ed aa 4a 3e ab 98 0a 3e 33 21 96 3c b7 78 0a 3e
       0.19791766 0.135348 0.018326377 0.13522612
0001e0 46 af 1c 3e 2b d1 e7 3d 68 8f fc 3d 94 d5 ec 3d
       0.15301237 0.113191925 0.1233204 0.11564174
0001f0 58 05 43 3e 0f b8 b5 3d 69 2f c5 3d ac f4 19 3e
       0.19045007 0.08872997 0.096281834 0.15034741
000200 26 09 c4 3d 98 a8 70 3b 44 3c b9 3d 8e 3b 3b 3e
       0.095720574 0.0036721583 0.09044698 0.18284437
000210 c2 70 30 3e 97 e6 75 3e b0 a0 72 3e 75 6f 39 3e
       0.17230514 0.24013744 0.2369411 0.18108924
000220 7b 36 6f 3c 41 e6 18 3e ae 13 58 3e 52 df 19 3e
       0.0146003915 0.14931585 0.21101257 0.15026596
000230 15 33 88 3d f5 ff 76 3d e7 8e 31 3e 04 9c 0f 3e
       0.06650368 0.060302693 0.17339669 0.14024359
000240 60 f3 16 3e 62 9b 0a 3e f0 05 8c 3d 73 0b 8f 3d
       0.14741278 0.13535836 0.0683707 0.06984606
000250 df c2 4a 3b bd e0 6a 3e 1c 99 1c 3d e9 03 39 3e
       0.0030938906 0.22937293 0.038231954 0.18067898
000260 a6 e5 29 bd 4e 20 a6 3d ac 5e 42 3e 63 2c 6c 3e
       -0.041478775 0.081116304 0.18981427 0.23063807
000270 8d 26 a8 3d eb 33 56 3e 0d 47 26 3e 45 1f 65 bd
       0.08210478 0.20918243 0.16238041 -0.055938024
000280 4a 69 57 3e 72 8c 4c 3e f4 d4 94 3d 76 57 a6 3d
       0.21036258 0.1997545 0.0726718 0.081221506
000290 e4 cc 3e 3d 20 56 0d 3e 37 5f 16 3e 96 c0 7d 3d
       0.046582118 0.13802385 0.14684759 0.061951242
0002a0 42 8e 97 3d 7a 23 92 3d 86 43 d4 3d c5 89 de 3c
       0.074001804 0.07135673 0.103644416 0.027165303
0002b0 db cc 91 3d 0e ea a7 3d ac d2 3c 3d 1d 60 89 bc
       0.07119151 0.08198939 0.04609935 -0.016769463
0002c0 0a b3 1b 3e 18 ec 7f 3e 7e 06 21 3e 97 72 f8 3d
       0.15205017 0.24992406 0.15725133 0.12131231
0002d0 9d 3f 1d 3e 26 86 51 3e d7 8d 10 3e e7 c8 60 3d
       0.15356298 0.2046133 0.14116608 0.054879095
0002e0 dd c6 59 3e 8b 5b 09 3e 70 02 88 3e 61 59 1f 3e
       0.21267267 0.13413827 0.2656436 0.15561439
0002f0 d1 6e 08 3e 8a 35 bf 3d e5 03 b1 3d ea c9 ed bc
       0.13323523 0.09336384 0.08643321 -0.029026944
000300 15 96 04 3e 0f e8 c3 3c ba 6c 2e 3e a7 c9 85 3d
       0.12947877 0.023914365 0.17033663 0.06532603
000310 69 7f d2 3d f6 e0 c8 3d 02 0f 90 3e 5e cf 8e 3d
       0.10278208 0.09808533 0.2813645 0.06973146
000320 b2 d8 17 3e 79 f7 97 3e 29 7c 79 3e 1c cb 3a 3d
       0.14828756 0.29680994 0.2436377 0.045603856
000330 c5 ba 94 3e 9e f4 24 3e 00 95 fe 3d c6 9a 85 3e
       0.29048744 0.16108939 0.12430763 0.26094645
000340 ef d4 96 3e f6 42 64 ba 48 19 d1 3d c2 56 c9 3b
       0.2945933 -0.0008707488 0.102099 0.0061443755
000350 84 1c 14 3c db e6 31 3e 6a 86 e1 3d 0b 4d bc bb
       0.009040002 0.1737322 0.110119656 -0.005746489
000360 d7 f7 1b 3a 4a 7f a0 3d 8e 5b 00 3e 08 dd 37 3e
       0.0005949712 0.078367785 0.12534925 0.1795541
000370 21 a8 62 bc 26 fa 56 3e bb ea e9 3c 9a d1 91 3d
       -0.01383403 0.20993862 0.028554311 0.071200565
000380 2d ce 8f 3d 0b 29 ae 3d 9d 78 1b 3e 5d 49 fb 3d
       0.07021747 0.08503922 0.15182729 0.12269852
000390 dd b6 f2 3d 1b a5 e7 3d 50 b6 29 3e b2 f4 69 3e
       0.11851285 0.11310788 0.16573453 0.2284725
0003a0 8a ba c8 3d d4 81 33 3e 81 f2 d1 3d 90 47 6c 3e
       0.098012045 0.17529994 0.10251332 0.23074174
0003b0 22 32 c8 3d 11 db ee 3d ab 61 26 3e 24 7c 23 bb
       0.09775187 0.11662877 0.16248195 -0.002494582
0003c0 4f 4d 90 3e 94 14 44 3e f9 70 27 3d 28 fd 39 3e
       0.28183982 0.19148475 0.040879223 0.18162978
0003d0 37 9c 91 3d b9 9d 21 bd fa db 0f 3e be a0 f0 3d
       0.07109874 -0.039457057 0.14048758 0.11749409
0003e0 63 87 ab 3c 6e 49 15 3e af 08 80 3d fd a1 45 3d
       0.02093858 0.14578792 0.06251656 0.048250187
0003f0 17 bb 10 3e c2 05 09 3e 24 4e 37 3e d9 4b 22 3e
       0.14133869 0.13381103 0.17900902 0.15849246

fc2.weight f4 [300, 400]
000000 23 26 7f 3e 2a a6 31 3e b9 17 ac 3e de 4a d0 bd
       0.24916892 0.17348543 0.3361185 -0.1017053
000010 4c a3 61 3e 75 10 5b 3e d0 0b b6 3e ae 62 35 3e
       0.22034949 0.21392997 0.35555887 0.17713425
000020 57 cd 00 3f 02 01 e7 3e 46 87 97 3e 61 0f 94 3e
       0.50313324 0.45117956 0.29595393 0.28917983
000030 2e 53 bc 3d 15 ed 4c 3e 4d f3 b3 3e 2f 7a 65 be
       0.09195553 0.20012315 0.3514656 -0.2240989
000040 d6 02 22 3e 42 92 a0 3e c2 64 6f 3e 15 67 66 3e
       0.15821394 0.31361586 0.2337828 0.2250026
000050 16 8a d0 3d 53 64 7a 3e 39 b9 74 3d 5c 5e 62 3e
       0.10182588 0.24452333 0.059746955 0.22106308
000060 4e 83 8c 3e e3 72 3f 3e 68 6e 72 3e 14 04 bb 3e
       0.27443928 0.1869617 0.23674929 0.3652655
000070 6a ad 3d 3e 35 1f a9 3d 2c 0c 30 3e c4 5b a1 3d
       0.18523183 0.082579054 0.17192143 0.07878831
000080 ae 7a df bc c9 aa ad 3e 61 46 98 3e 78 b5 04 3e
       -0.027280178 0.3391936 0.29741195 0.1295985
000090 00 0e 65 3c 3f 6f c0 3e b3 48 5e 3e 1a 85 e6 3d
       0.013980389 0.37584874 0.2170742 0.11255856
0000a0 e6 df 3a 3d ea ae a8 3e ba 89 1d 3e cb 67 97 3d
       0.045623682 0.3294595 0.1538457 0.07392844
0000b0 1d 33 87 3d ac 67 74 3e 46 49 69 3e 16 a4 09 3e
       0.06601546 0.23867673 0.22781858 0.134415
0000c0 c8 b0 54 3e 31 19 94 3d 7e ac a4 3e 0d 52 87 3e
       0.20770562 0.072313674 0.3216285 0.26429787
0000d0 01 82 dc 3e a6 92 2d 3e da c5 e3 3e 67 3d bb 3d
       0.43067935 0.16950473 0.44486886 0.09142571
0000e0 02 ff a7 3e cf 6c e1 3d c6 3a 35 3e 18 2e a3 3e
       0.32811743 0.11007082 0.17698202 0.31871104
0000f0 7b 7c 16 3e 6f 2e 51 3e 9e ce 8f 3d e4 61 39 3e
       0.14695923 0.2042787 0.07021831 0.18103749
000100 3e 15 b0 3e 86 67 82 3e 20 f8 92 3e 1f 78 de 3e
       0.34391207 0.25469607 0.2870493 0.4345102
000110 8d 0c 0f 3e bd 04 4e 3e 3f f3 79 3e 1c 42 3f 3d
       0.13969631 0.20118995 0.24409197 0.046693906
000120 9b 00 8a 3e 7a bc b6 be fc 83 a7 bd 6c fb b5 3e
       0.26953587 -0.3569067 -0.08179471 0.35543382
000130 08 57 f3 3e 4b 7d c8 3e d6 b3 12 bd 2b a8 89 3e
       0.47527337 0.3915809 -0.035816036 0.26886114
000140 5e 7e d4 3e 92 9a 9f 3e 77 06 8e 3c 8d 62 b3 3e
       0.4150266 0.31172615 0.017337067 0.35036126
000150 27 02 ba 3d 55 9c a1 3e c0 ba 7b 3e 04 d3 7e 3e
       0.09082442 0.31564584 0.24582958 0.24885184
000160 92 6a 6b 3e ac 80 ab 3c b5 0b a7 3e 0d db bf 3e
       0.22989872 0.020935379 0.3262612 0.3747181
000170 29 8f 00 3e ed 30 a1 3e 1a 6e 60 3e 10 84 d1 ba
       0.12554611 0.3148264 0.21917 -0.0015984792
000180 2d a4 fa 3d 44 f1 44 3e 13 70 62 3e 4f a3 50 3e
       0.12238345 0.1923266 0.22113065 0.20374797
000190 ba 16 01 3e 41 d0 90 3e da 46 3a 3e 58 76 81 3e
       0.12606326 0.28283885 0.1819109 0.25285602
0001a0 c3 05 ee 3d 0a d0 5f 3e a6 23 a8 3e 22 2c a9 3e
       0.11622193 0.21856704 0.32839698 0.33041483
0001b0 95 3b 55 3e 1d cf ed 3e d8 92 52 3e e9 63 13 3b
       0.2082351 0.46447077 0.20563829 0.002248997
0001c0 6b 1e 55 3e 9c ef 6e 3e 87 f5 39 3e 17 c3 18 bc
       0.20812385 0.23333591 0.18160067 -0.009323857
0001d0 5f bd bd 3d 11 a5 cf 3d 68 03 19 3e 33 a6 db bb
       0.09264635 0.10138906 0.14942706 -0.006703162
0001e0 e1 3c a1 3e 72 5f 3e 3d a3 2d 04 bd 8b 7b 96 be
       0.3149176 0.046477742 -0.032270085 -0.2939113
0001f0 cb 48 2c 3e 19 38 08 3e ff a9 8a 3e db f0 cf be
       0.16824643 0.1330265 0.27082822 -0.40613446
000200 c2 e8 82 3e b7 79 c6 3e 7c fb bf 3e f6 45 8d 3e
       0.25568205 0.38764736 0.37496555 0.27592438
000210 d8 79 3c 3e 5a 46 c0 3d 2d 46 d9 3d 1a 0c e9 3d
       0.18405855 0.093884185 0.10609088 0.11379261
000220 05 a7 71 3e 7e b6 a8 3e aa 39 9c 3e cd 45 2b 3c
       0.23598869 0.3295173 0.30512744 0.0104536535
000230 bd f7 a3 3d 33 8f 50 3e db 20 47 3d a8 d0 3d 3d
       0.08006237 0.20367126 0.048615318 0.04634157
000240 41 fb 4c 3e 0c 89 91 3e 38 35 8b 3e c6 e4 8a 3e
       0.20017721 0.2842487 0.2718904 0.27127665
000250 37 94 ca 3e 4d 54 3c 3e 38 b7 2a 3e 0d 4a 45 3e
       0.39566204 0.18391533 0.16671455 0.1926653
000260 9d 10 7a 3e 34 ca 2b 3e 46 87 64 3e 3c 63 ad 3d
       0.244204 0.16776353 0.22317228 0.08466193
000270 e9 60 10 3e af f7 0b 3e 91 ec f6 3d fd f4 23 3e
       0.14099468 0.13668703 0.1205684 0.16011424
000280 db c9 ad 3d 0a 73 1b 3e 15 b8 30 3e 95 26 64 3e
       0.084857665 0.15180603 0.17257722 0.22280343
000290 c4 42 ba 3e 02 ba 59 be 8b 9f 14 bd ef 20 cb 3e
       0.36379063 -0.21262363 -0.036284965 0.39673564
0002a0 ed 74 31 3e 99 ec ca 3e 2d 6d 09 be 13 cf 70 3e
       0.1732976 0.39633635 -0.13420554 0.23516493
0002b0 86 37 32 3e 7e 49 ea 3e 23 1e 92 3e 50 aa 94 3e
       0.17403993 0.45759195 0.28538617 0.29036188
0002c0 a8 b0 20 bd e7 7a 5e 3e 84 cc a8 3c 51 07 43 3e
       -0.039230973 0.21726571 0.020605333 0.1904576
0002d0 b8 c1 7c 3e ae 62 63 3e d1 f6 96 3e 9c 91 d5 3e
       0.24683273 0.22205612 0.2948518 0.41712654
0002e0 02 19 cc 3d 0f 6a 86 3e 90 d6 84 3d e5 3c 77 3e
       0.09965707 0.2625279 0.06486237 0.24144323
0002f0 72 61 1e 3d 98 fb bd 3e 46 4d b9 3e a9 72 e1 3e
       0.03866715 0.37106013 0.36191767 0.4403279
000300 90 c1 bc 3e af d2 a7 3e 25 0d bb 3e 13 53 36 3e
       0.36866426 0.32777926 0.36533466 0.17805128
000310 8c 47 18 3e c4 3a 39 3e 02 c1 c8 3d 44 ee 6b 3e
       0.14871043 0.18088824 0.09802438 0.2304011
000320 c7 c9 ec 3e 32 3d 27 3e f1 e9 a7 3e 35 fb ef 3e
       0.46247694 0.16331938 0.3279567 0.46871343
000330 a0 21 20 3e 9e a3 5f 3e 9e 86 86 3e cf c1 93 3d
       0.15637827 0.21839759 0.2627458 0.072147004
000340 1b 0f 67 3d db 49 b8 3e 3b 1e 68 3e 77 cd d1 3e
       0.05641089 0.35993847 0.22667782 0.4097707
000350 f4 b2 a8 3e 94 87 58 3d d6 de 83 3e 5b 2a 56 3e
       0.3294903 0.052863672 0.25755948 0.20914595
000360 f7 a2 9a 3e bd 77 04 3d bb f4 f3 3d 5d 53 81 3e
       0.30202457 0.032340754 0.11911913 0.25258914
000370 ea 56 97 3e 9c e4 4c 3e 5d 19 b5 3e 5d ef 6d 3e
       0.29558498 0.20009083 0.35370913 0.23235841
000380 48 b5 cc 3e c1 59 5e 3e 88 3b a1 3e ba a2 76 3e
       0.39982057 0.21713926 0.3149073 0.24085513
000390 f8 63 45 3e 90 41 dc 3e f4 e6 5a 3e 0d 50 4a 3e
       0.19276416 0.4301877 0.21377164 0.197571
0003a0 ce 21 88 3e 17 31 f2 3d 11 6f 99 3e 68 a8 9a 3e
       0.2658829 0.118257694 0.2996755 0.3020661
0003b0 5c ef 65 be 92 8e 58 3e b2 92 d3 3d 8f 86 8c 3e
       -0.2245459 0.21148136 0.10330714 0.2744641
0003c0 47 84 12 3e 53 d3 40 3d 33 7c 84 3e 93 06 69 3e
       0.14308272 0.047076534 0.25876006 0.22756414
0003d0 35 17 43 3e aa 67 c1 3e 56 a4 53 3e 60 05 58 3e
       0.19051822 0.37774402 0.20668158 0.210958
0003e0 81 1c 8e 3e 5a ea c5 3e 03 a6 7e 3e 48 01 b0 3c
       0.27756122 0.3865536 0.24868016 0.021484986
0003f0 0d 61 cd 3e fd 46 58 3e a9 cc a6 3e 0d 92 b6 bd
       0.40113106 0.2112083 0.32578018 -0.08914576

fc2.bias f4 [300]
000000 29 e7 5c 3e 44 08 a8 3e 21 13 9b 3e 7a 73 44 3e
       0.21572556 0.32818806 0.30288032 0.19184676
000010 d4 21 53 3e bf 27 c1 3e 0a 7a bf 3e 66 8f 85 3e
       0.20618373 0.37725636 0.37397796 0.26085967
000020 08 15 f1 3e 25 fd c3 3e 16 fe a6 3e c1 e2 c2 3e
       0.47086358 0.3827907 0.32615727 0.38063625
000030 6c 73 5d 3e 97 9a aa 3e a4 86 8d 3e cd 9e ac 3e
       0.21626061 0.33321068 0.27641785 0.33714905
000040 46 1b 63 3e be 58 b0 3e 6f 24 00 3e 6b 5c a0 3e
       0.22178373 0.34442705 0.12513898 0.3132051
000050 4d 61 ed 3e 52 1e 84 3e ec c3 16 3e 40 73 da 3e
       0.46363297 0.25804383 0.14723176 0.42666054
000060 35 bb d9 3e 95 c8 8a 3e 70 b6 c8 3e db 45 a0 3e
       0.4252564 0.27106157 0.3920169 0.31303295
000070 d5 39 90 3e 1d 94 ad 3e 0b 86 29 3e 65 20 95 3e
       0.28169122 0.33902064 0.1655504 0.29126278
000080 19 c9 52 3e bc ba 80 3e b6 43 af 3e f2 c4 86 3e
       0.20584525 0.25142467 0.34231347 0.26322132
000090 eb 11 78 3e eb 95 ad 3e 6f d6 62 3e 45 2a 97 3e
       0.24225585 0.3390344 0.22152112 0.29524437
0000a0 37 6a 0d 3e 44 fc 8f 3e 63 49 c9 3e 32 65 eb 3e
       0.13810049 0.2812215 0.39313802 0.45975643
0000b0 b3 61 aa 3e 44 06 ac 3e eb 60 3e 3e 53 8c 8e 3e
       0.33277664 0.3359853 0.18591659 0.27841434
0000c0 4d 0a 84 3e 1b 9a 4b 3e b3 6d a5 3e 2d 53 4d 3e
       0.2578911 0.19883005 0.32310256 0.2005126
0000d0 74 d1 83 3e cc 51 d1 3e dd 72 80 3e 8a 0a 88 3e
       0.25745738 0.4088272 0.25087634 0.2657054
0000e0 af a3 d4 3e b3 34 80 3e ad 8a bc 3e cb ff 92 3e
       0.4153113 0.25040206 0.3682455 0.2871078
0000f0 8d ea b1 3e da 77 8a 3e 67 95 9f 3e ba a6 40 3e
       0.3474926 0.27044564 0.31168672 0.18813601
000100 11 b9 a0 3e 94 62 cc 3e 86 71 8a 3e b9 f5 1d 3e
       0.31391194 0.3991896 0.27039737 0.15425767
000110 e8 31 a4 3e 19 c0 94 3e bf 8c bd 3e e5 b6 93 3e
       0.32069325 0.2905281 0.37021443 0.28850475
000120 72 48 87 3e 63 90 aa 3e 78 5a a7 3e e2 ab a1 3e
       0.2642246 0.33313283 0.3268621 0.3157645
000130 4e a3 8a 3e a2 78 71 3e 94 1c a9 3e e1 e8 68 3e
       0.27077717 0.23581174 0.33029616 0.22745086
000140 da 47 57 3e aa ee 8b 3e b9 ba 95 3e 8f 63 7d 3e
       0.21023503 0.27330524 0.2924402 0.2474501
000150 86 17 f1 3e 7d fb b3 3e 7e 52 06 3f 2f 3f 90 3e
       0.4708826 0.35152808 0.52469623 0.28173205
000160 d7 0a 8a 3e ab ac 55 3e f7 a2 89 3e d5 8d a4 3e
       0.26961395 0.20866649 0.26882145 0.3213946
000170 d6 f4 91 3e 88 59 a7 3e 8f 9c 36 3e 2d c3 a9 3e
       0.28507107 0.32685494 0.1783316 0.3315672
000180 0a 39 f5 3e d7 f3 c4 3e 7d 1a 9e 3e 19 69 92 3e
       0.4789508 0.38467285 0.30879584 0.28595808
000190 aa f6 08 3e 07 36 d1 3e 06 d5 76 3e 49 21 92 3e
       0.13375345 0.40861532 0.241047 0.2854102
0001a0 c8 3f 83 3e 27 a8 87 3e f5 2e a5 3e f1 02 cf 3e
       0.256346 0.26495478 0.32262388 0.40431932
0001b0 11 58 6c 3e 9a f2 c0 3e d1 88 39 3e 95 db 6d 3e
       0.2308047 0.3768509 0.18118598 0.23228295
0001c0 3a 30 79 3e 6a a5 72 3e e0 c0 eb 3d 60 e2 9a 3e
       0.24334803 0.23695913 0.11511397 0.30250835
0001d0 34 f1 85 3e ca e0 59 3e b2 47 57 3e f4 38 9c 3e
       0.26160586 0.21277156 0.21023443 0.30512202
0001e0 f1 2c 50 3e 43 c6 c3 3e 9a 2d 96 3e 3b 8b ae 3e
       0.20329644 0.382372 0.29331666 0.340906
0001f0 df d2 bd 3e 44 6a 16 3e 06 8b 8c 3e 65 0a 79 3e
       0.37074944 0.14688975 0.27449816 0.24320371
000200 ab 81 f6 3e c0 f0 bb 3e 6d 23 8a 3e a1 31 e8 3e
       0.48145804 0.36707115 0.26980153 0.45350364
000210 65 7e 9c 3e 11 94 a8 3e 97 8f e2 3e d5 b4 a4 3e
       0.3056518 0.32925466 0.44250175 0.32169214
000220 00 55 af 3e aa 91 89 3e 23 c3 93 3e ce 2d 80 3e
       0.34244537 0.26868945 0.28859815 0.25034946
000230 57 bf 46 3e 7e f9 f4 3e 96 04 88 3e fe f0 f1 3e
       0.19408928 0.47846597 0.26566 0.47254175
000240 56 26 a8 3e 5c 34 a5 3e 39 e3 10 3e 8d fd 87 3e
       0.32841748 0.3226651 0.14149179 0.2656063
000250 af 1d 02 3f 96 43 3e 3e 05 38 68 3e 84 f6 51 3e
       0.50826544 0.1858047 0.2267762 0.20504194
000260 f8 c2 49 3e a0 16 8d 3e 7c 35 b6 3e 2a c7 90 3e
       0.19703281 0.27556324 0.3558768 0.2827695
000270 90 2b 85 3e 70 e8 d1 3e a0 ed d7 3e 7c 39 ca 3e
       0.26009798 0.40997648 0.4217348 0.39496982
000280 b6 12 ab 3e 7b fe 82 3e 5d b1 9d 3e 61 29 d9 3e
       0.33412713 0.25584778 0.3079938 0.42414382
000290 9c 2e a6 3e 20 dd 76 3e 29 ac 74 3e b1 da 89 3e
       0.32457435 0.2410779 0.23893799 0.2692466
0002a0 1c a1 be 3e 79 e8 c1 3e 19 14 b9 3e 43 2c e3 3e
       0.37232292 0.37872675 0.36148146 0.44369707
0002b0 b9 90 90 3e 46 33 8a 3e ee 49 84 3e a3 29 21 3e
       0.28235415 0.26992244 0.25837654 0.1573854
0002c0 23 59 bf 3e bc a7 b7 3e 62 b3 79 3e 48 ac 31 3e
       0.37372693 0.3587016 0.24384835 0.17350876
0002d0 81 d0 b6 3e 7c 25 6e 3e e9 5f 89 3e d2 f5 ea 3e
       0.3570595 0.23256487 0.26830986 0.4589067
0002e0 01 ee 87 3e 5b ff a1 3e cb a6 94 3e 5f 8a 82 3e
       0.2654877 0.31640133 0.29033503 0.25496194
0002f0 8e b0 b6 3e cf 95 9c 3e b6 0d c6 3e 9a c2 9b 3e
       0.35681576 0.30583045 0.38682336 0.30421907
000300 12 ac 74 3e f8 e3 a1 3e 5d 41 99 3e 04 8b d7 3d
       0.23893765 0.3161924 0.2993268 0.10524562
000310 2e 6a d7 3e 4c 34 67 3e bb 90 84 3e 37 63 8a 3e
       0.42073196 0.22578543 0.2589167 0.2702882
000320 44 24 c4 3e b2 32 cc 3e 43 8a dd 3e 15 bb a4 3e
       0.38308918 0.39882427 0.43269548 0.32173982
000330 67 ef a0 3e 95 71 8a 3e 87 1f a2 3e 17 ec 90 3e
       0.3143265 0.2703978 0.31664678 0.28305122
000340 80 24 9e 3e 11 0e 89 3e ca da a9 3e bc 26 78 3e
       0.30887222 0.26768544 0.33174735 0.24233526
000350 98 8f 63 3e 3b 2a 3f 3e c6 2f 5d 3e 22 7f 85 3e
       0.22222745 0.18668453 0.21600255 0.26073557
000360 46 da 5f 3e 44 49 81 3e 28 57 8d 3e 3d ca a3 3e
       0.21860608 0.2525121 0.27605557 0.31990233
000370 e7 7b 5c 3e 28 e2 85 3e ea 88 8d 3e 9e df 90 3e
       0.2153164 0.26149106 0.2764352 0.28295606
000380 06 6b 8a 3e 19 22 ac 3e 32 0a 79 3e be 58 83 3e
       0.27034777 0.33619764 0.24320295 0.25653642
000390 5e 96 40 3e bc 81 76 3e be e6 86 3e 2b 3c 9a 3e
       0.1880736 0.24072927 0.26347917 0.3012403
0003a0 90 40 7c 3e 24 86 a7 3e 4d 3f 88 3e ce 69 8b 3e
       0.24634004 0.3271953 0.26610795 0.2722916
0003b0 80 15 77 3e c2 85 b3 3e b1 a4 e6 3e 3c dd ac 3e
       0.24129295 0.35062987 0.45047525 0.33762538
0003c0 ca 75 7a 3e ca 04 80 3e 25 77 7d 3e 58 e3 cb 3e
       0.24458995 0.25003654 0.24752481 0.39821887
0003d0 51 14 e8 3e 45 b8 94 3e 03 98 98 3e 6c cb 9e 3e
       0.45328 0.29046836 0.29803476 0.31014574
0003e0 22 22 77 3e 15 a8 95 3e e9 65 0a 3e 22 3b f1 3e
       0.24134114 0.292298 0.13515438 0.47115427
0003f0 e0 7a c6 3e 1c bf 01 3e fe 4b c2 3e f5 d2 93 3e
       0.3876562 0.12670559 0.37948602 0.28871885

bn1.weight f4 [400]
000000 58 0d 94 3f 3e b1 73 3f 89 3b 6a 3f 65 ea 9e 3f
       1.1566572 0.95192325 0.91497093 1.2415282
000010 5c 22 b3 3f 05 1a ad 3f d7 3a 8b 3f 07 bb 9b 3f
       1.3994861 1.3523566 1.0877331 1.2166451
000020 5b 84 73 3f bc 5b 71 3f 05 c2 83 3f 4a a6 b3 3f
       0.95123833 0.942806 1.0293585 1.4035122
000030 2a 9f 91 3f 6e e8 77 3f 64 6d 99 3f b5 0a ec 3f
       1.1376698 0.96839035 1.1986508 1.8440768
000040 46 6c 97 3f 6d b8 ab 3f 2c 4a 4e 3f 4c 49 63 3f
       1.1829917 1.3415657 0.8058193 0.8878372
000050 73 5e 69 3f 12 8c ab 3f e9 86 7b 3f 56 37 9d 3f
       0.91159743 1.3402121 0.9825273 1.2282512
000060 41 c2 79 3f 1a 26 87 3f be 99 63 3f f9 65 86 3f
       0.9756203 1.0558503 0.88906467 1.049987
000070 1d bb 4c 3f 1a 4b 9e 3f fe 50 96 3f de 06 b5 3f
       0.7997301 1.2366669 1.1743467 1.4142721
000080 54 ea 9d 3f 76 c9 7f 3f 09 9c 89 3f 73 07 91 3f
       1.2337136 0.9991678 1.0750743 1.1330398
000090 9e ce a0 3f d8 30 9f 3f f1 c3 55 3f 46 55 a6 3f
       1.2563055 1.2436781 0.8350211 1.2994773
0000a0 11 12 bd 3f 8f 43 a8 3f 91 7b b7 3f 5c 88 32 3f
       1.4771138 1.3145617 1.4334584 0.6973932
0000b0 64 b7 84 3f 0d d2 95 3f 89 b4 9e 3f 2f aa 86 3f
       1.0368466 1.1704727 1.2398845 1.0520686
0000c0 d4 47 87 3f 41 6b 85 3f 15 68 0f 3f b0 ac 98 3f
       1.0568795 1.0423356 0.5601819 1.19277
0000d0 8e 51 97 3f f2 84 7b 3f 66 d7 b5 3f c6 f4 91 3f
       1.1821764 0.98249733 1.4206359 1.1402824
0000e0 f9 66 96 3f 17 f3 83 3f d7 3c 94 3f 16 6e b5 3f
       1.1750175 1.030856 1.1581067 1.417422
0000f0 80 85 68 3f 08 a6 b6 3f df 30 97 3f b5 34 85 3f
       0.90828705 1.4269419 1.1811789 1.040671
000100 d7 42 ca 3f 72 3f 4f 3f d8 3a 9b 3f 51 85 6d 3f
       1.5801648 0.80956185 1.2127333 0.9278155
000110 4f 0e ae 3f 79 25 8f 3f fc 15 92 3f 07 0b af 3f
       1.3598117 1.1183311 1.1412959 1.367524
000120 5a 73 5e 3f 64 b4 f0 3f bb 04 b9 3f 58 f9 9d 3f
       0.8689476 1.8805051 1.4454569 1.2341719
000130 bc 28 9e 3f f8 95 b3 3f bf 74 bb 3f fa be 62 3f
       1.2356181 1.4030142 1.4645003 0.8857266
000140 cd b5 90 3f ad 4c 3c 3f f8 3d d9 3f c5 0d 32 3f
       1.1305481 0.735545 1.6972036 0.6955226
000150 a0 0b 9f 3f 7d 31 22 3f 6b c5 5b 3f 66 74 6e 3f
       1.2425423 0.63356763 0.8584811 0.9314636
000160 97 20 40 3f 6a af a6 3f 96 65 b0 3f 6d f8 74 3f
       0.7504973 1.3022282 1.3781002 0.9569157
000170 8f 10 87 3f ae 18 6f 3f ec 0a 86 3f 4f 95 af 3f
       1.0551928 0.93397033 1.0472083 1.371744
000180 83 d5 67 3f 67 c6 82 3f b8 c5 90 3f 32 3a 80 3f
       0.9056017 1.0216798 1.1310339 1.001776
000190 64 5c 8f 3f 5d 84 b1 3f 03 fe 7f 3f 09 e5 a0 3f
       1.120007 1.3868519 0.99996966 1.2569896
0001a0 d4 92 81 3f 78 d3 65 3f 5c f0 b5 3f 90 35 9e 3f
       1.0122933 0.897758 1.4213977 1.2360096
0001b0 e3 d5 87 3f 87 6a 8c 3f a2 fe 9c 3f c2 ef 9d 3f
       1.0612148 1.097001 1.2265208 1.2338793
0001c0 db 7c 84 3f 82 2c 5f 3f d8 88 9e 3f 66 98 b1 3f
       1.0350603 0.8717729 1.2385511 1.3874633
0001d0 25 b0 b0 3f d7 10 83 3f 5e 2b 86 3f cc 20 94 3f
       1.3803755 1.0239514 1.0481985 1.1572509
0001e0 39 36 77 3f 21 c8 b3 3f 29 4f a2 3f 19 bf c9 3f
       0.9656711 1.404545 1.2680408 1.5761443
0001f0 a1 91 84 3f 8d 0c 3d 3f 53 0d 9c 3f 07 8d 00 40
       1.0356942 0.73847276 1.2191566 2.0086076
000200 e3 72 ab 3f 65 72 81 3f 8b 58 90 3f 47 93 a3 3f
       1.3394436 1.0113035 1.1277021 1.277932
000210 5b 95 8f 3f b7 46 82 3f 6e 56 8b 3f eb dc 8d 3f
       1.1217455 1.017783 1.0885751 1.1083044
000220 92 ae 99 3f 92 06 af 3f 3f 37 9a 3f 1d ca c6 3f
       1.20064 1.367388 1.204811 1.553043
000230 92 c3 86 3f 4e ec 72 3f c3 fa 98 3f e2 0d a7 3f
       1.0528433 0.9489182 1.1951526 1.3051112
000240 43 13 96 3f c0 23 97 3f 91 92 72 3f ef 67 66 3f
       1.1724628 1.1807785 0.9475489 0.9000234
000250 00 e7 b5 3f 11 8c 8d 3f b7 d0 93 3f e2 43 90 3f
       1.4211121 1.105837 1.154807 1.1270716
000260 95 ed 88 3f 88 75 4a 3f f5 f3 ac 3f 09 49 79 3f
       1.0697504 0.7908559 1.351195 0.9737707
000270 26 cf 89 3f 03 74 8e 3f a0 1b 75 3f 38 9a 75 3f
       1.0766342 1.1129154 0.9574528 0.95938444
000280 e6 d7 7b 3f 97 6e a2 3f cc de 61 3f bf 3f 5c 3f
       0.9837631 1.2689999 0.88230586 0.8603477
000290 9b fe 7f 3f 92 cb b1 3f ed 72 9d 3f 2d 34 80 3f
       0.9999787 1.389025 1.2300698 1.0015923
0002a0 88 a4 86 3f 58 a7 85 3f 40 f8 b2 3f 3a b0 4b 3f
       1.0518961 1.0441694 1.398201 0.79565775
0002b0 2a 5e 8c 3f a0 73 94 3f 5a b3 8f 3f 0b 45 5b 3f
       1.0966237 1.1597786 1.1226609 0.85652226
0002c0 f1 6d b4 3f 7d 2a 71 3f 50 14 9d 3f 21 b4 79 3f
       1.4096051 0.94205457 1.2271824 0.9754048
0002d0 b2 aa a1 3f eb 32 76 3f 29 de 65 3f bb 4c 82 3f
       1.2630217 0.96171445 0.89792114 1.0179666
0002e0 7d 2f 9b 3f d0 74 67 3f cf 8b d6 3f 46 f8 34 3f
       1.2123867 0.90412617 1.6761416 0.70691335
0002f0 46 2a 83 3f 8a 9d 71 3f 0e 6c 8e 3f 90 e9 94 3f
       1.0247276 0.9438101 1.1126726 1.1633778
000300 ec 36 a8 3f 7e 77 91 3f 3b fb a1 3f 04 35 71 3f
       1.3141761 1.1364591 1.2654794 0.9422152
000310 cc 3d 8d 3f db cf 89 3f f4 a6 a6 3f 6a 32 75 3f
       1.1034484 1.0766557 1.30197 0.9578005
000320 e4 f3 86 3f 1e 8e af 3f e4 2d 78 3f 00 72 9b 3f
       1.054318 1.3715246 0.96945024 1.2144165
000330 c4 58 91 3f bc e9 72 3f fa 57 80 3f 65 63 d6 3f
       1.1355214 0.948879 1.0026848 1.6749083
000340 72 b0 93 3f 04 fc c8 3f 8d a0 75 3f 28 93 7d 3f
       1.1538222 1.5701909 0.95948106 0.9905267
000350 dc 59 2e 3f e9 38 ad 3f 01 1b 34 3f 71 31 47 3f
       0.68105865 1.3532993 0.70353705 0.77809817
000360 57 42 97 3f 95 50 9b 3f 22 ab 81 3f b7 7e 77 3f
       1.181712 1.2133967 1.013035 0.96677727
000370 56 77 5c 3f 87 b9 92 3f 2e cc c0 3f df 60 57 3f
       0.8611959 1.1462868 1.5062311 0.8413219
000380 8b bb 50 3f 5a 6c 89 3f 2c 45 5c 3f 14 a2 80 3f
       0.8153617 1.0736191 0.8604305 1.0049462
000390 2a 3f b5 3f f7 79 86 3f ec 4d 7d 3f 53 90 89 3f
       1.4159901 1.0505971 0.98947024 1.0747169
0003a0 14 4b 92 3f 60 84 3d 3f 70 58 81 3f 56 36 aa 3f
       1.1429162 0.74030113 1.0105114 1.3297832
0003b0 8b 8d fb 3f 11 0b 85 3f 2a 85 9a 3f 79 af 7d 3f
       1.965257 1.0394002 1.2071888 0.99095875
0003c0 41 2b 9d 3f 4f df 9e 3f 44 8b 42 3f 6d 72 4e 3f
       1.2278825 1.2411898 0.7599375 0.8064335
0003d0 86 48 4b 3f bd 64 96 3f 1d 6b 2b 3f 23 ef 93 3f
       0.79407537 1.1749493 0.66960317 1.1557354
0003e0 84 5e 78 3f e1 82 5f 3f 0e ed 74 3f 3b d0 ea 3f
       0.9701922 0.8730908 0.95674217 1.8344797
0003f0 c0 46 98 3f d0 b2 ae 3f b5 f1 58 3f a3 20 d3 3f
       1.1896591 1.3648319 0.84743816 1.6494335

bn1.bias f4 [400]
000000 e9 5a 60 be f6 a7 5a be da 15 10 be 94 e0 96 bd
       -0.2190968 -0.21353135 -0.14070836 -0.07367054
000010 1c e2 f7 bd 91 72 70 bc de 28 71 be a9 ca 31 be
       -0.12103674 -0.014675752 -0.23550746 -0.17362465
000020 e1 7b 46 be dd a5 98 be 1e ab 52 be 18 9f 68 bd
       -0.19383194 -0.29814044 -0.20573089 -0.05679235
000030 13 35 c9 bd f4 03 00 be b6 c6 76 be dc f6 59 3d
       -0.09824576 -0.12501508 -0.2409924 0.05321394
000040 f7 a4 26 be 8e c1 d1 bd 8c fe a2 be 14 17 0e be
       -0.16273867 -0.10241996 -0.3183483 -0.13875991
000050 19 7a 5a be 63 a1 bc bd 5b 4a 32 be d2 f9 9b 3d
       -0.21335639 -0.092104696 -0.17411177 0.07616009
000060 b2 cc aa be b0 43 d0 bd 07 e5 75 be d7 91 0a be
       -0.33359295 -0.1016916 -0.24013148 -0.13532196
000070 85 8a 2e be 04 c4 1b be ca c9 a5 bd ec c5 4a 3b
       -0.17045029 -0.15211493 -0.08095129 0.0030940725
000080 f2 5c ee bd 97 e7 90 be d6 df 08 be 6b e4 4c be
       -0.11638822 -0.2830169 -0.13366637 -0.2000901
000090 5e bf b1 bd ee ef 5d be 47 27 80 be f6 f2 76 bd
       -0.086790785 -0.21673557 -0.25029966 -0.0602903
0000a0 40 26 a5 3b cd 96 26 be 75 a0 33 3d 94 1f bd be
       0.00503996 -0.16268463 0.043854196 -0.36938155
0000b0 94 8c eb bd 52 82 5f bc 39 57 b5 bd 8b 4b 80 be
       -0.115014225 -0.013641911 -0.08854527 -0.25057635
0000c0 0e 64 05 be c0 f6 83 bd c7 0c c8 be ea 08 34 3d
       -0.13026449 -0.06443548 -0.39072248 0.043953814
0000d0 1c a3 8c be 9e 53 b3 bc 71 e5 2d be 65 10 04 be
       -0.27468193 -0.021890458 -0.16982056 -0.12896879
0000e0 a8 a7 02 be 7d 21 17 bd 2f 05 dc 3c 63 2a 3c be
       -0.12759268 -0.03689717 0.02685794 -0.18375544
0000f0 2b ae 03 be 08 bd 42 be 8a 6e 31 be 8c 32 08 be
       -0.12859409 -0.19017422 -0.17327324 -0.13300532
000100 0f 41 4a be 6e f6 c0 be 62 e8 85 be 19 83 51 be
       -0.1975138 -0.3768801 -0.26153857 -0.20460166
000110 e3 29 2b be ff 7c 73 bd 8f 92 bc 3d 06 51 8f bd
       -0.16715197 -0.059445377 0.09207641 -0.06997876
000120 4e aa 6f be b5 cd d1 bc ba 2f 6e bd f6 b2 63 be
       -0.2340481 -0.025610784 -0.058150984 -0.22236237
000130 36 7e 59 be d5 ce 2f be fd 54 55 3c 47 2a 22 be
       -0.21239552 -0.17168744 0.013020751 -0.1583644
000140 18 13 7a be e1 ca 81 be d3 6c c0 bc 45 ec 64 be
       -0.24421346 -0.25350097 -0.023489391 -0.22355755
000150 4d 87 86 bd 30 fa 92 be 00 05 47 be d8 7a 58 be
       -0.06568775 -0.28706503 -0.19435501 -0.21140611
000160 b6 ef 7d be 0d 82 24 bd d0 e1 57 bd 02 6a 58 be
       -0.24798474 -0.04016309 -0.052705586 -0.21134189
000170 d4 23 57 be 27 0c 55 be e7 f2 25 be 74 46 d9 bd
       -0.21009761 -0.20805417 -0.16205941 -0.10609141
000180 61 3b b7 bd 75 44 8e be 63 89 26 be 11 db 6d be
       -0.089468725 -0.27786604 -0.16263346 -0.23228098
000190 5e 86 1b be f9 57 02 be c1 d1 14 be 9c 70 42 bd
       -0.15187976 -0.12728871 -0.1453314 -0.047470674
0001a0 1f 82 82 be ee 10 71 be 87 23 d5 bd cc 9e 07 be
       -0.254899 -0.23541614 -0.10407167 -0.1324417
0001b0 70 8f 55 be e5 91 6e be 8e 1c 37 be b8 28 84 bd
       -0.20855498 -0.23297842 -0.17881986 -0.06453079
0001c0 4c c7 89 bd 44 9a 65 be d3 b3 b9 3c 24 fc 0e be
       -0.06727466 -0.22422129 0.022668755 -0.13963372
0001d0 b8 4e 5c bd 08 c7 f7 bd 3e f9 7d 3d da 2b 2d be
       -0.05378601 -0.12098509 0.062005274 -0.1691126
0001e0 b9 ec 12 be 9e da f1 bd b3 5a 11 be a2 c1 48 bc
       -0.14348115 -0.11809276 -0.14194755 -0.012253197
0001f0 6b be e9 bd b1 2e aa be a4 0d 4f be aa 70 44 bd
       -0.114132725 -0.33238748 -0.20220047 -0.047959007
000200 8e 94 b7 bc 0f 59 a7 be 22 0c a1 be 8c c9 15 be
       -0.022409704 -0.32685134 -0.3145457 -0.14627665
000210 93 60 fd bd 2d 06 bd be db ac cb 3b c4 fa 8a bd
       -0.12371936 -0.36918774 0.0062156743 -0.06786111
000220 a9 e2 17 be 45 9e 07 be 06 d9 ea bd 87 27 33 be
       -0.14832558 -0.13243969 -0.11467175 -0.17495547
000230 bb 35 5b be 50 45 30 be c8 3d 77 be 93 7e 05 be
       -0.21407215 -0.1721394 -0.24144661 -0.13036565
000240 9d c5 45 be ad 19 08 be d9 71 10 be ec 54 78 be
       -0.19313665 -0.13291045 -0.1410593 -0.24251145
000250 2f 52 dd bd 11 71 c0 bd 0e d2 06 be 90 f3 94 bd
       -0.10806691 -0.09396566 -0.13166067 -0.07273018
000260 b2 81 78 be e1 bb 5d be 6c 3c 1f be 55 1c 68 bd
       -0.24268225 -0.21653701 -0.15550393 -0.056667645
000270 b1 a3 43 be 45 e6 79 bd bc bd 0e be 04 36 2b be
       -0.19105412 -0.061010618 -0.13939565 -0.16719824
000280 1b d9 e6 bd 58 42 62 bd 63 a0 a4 be c6 e9 8c be
       -0.11271878 -0.05523905 -0.32153615 -0.27522105
000290 2e 72 24 be cd 60 94 bd a1 c8 1d be 66 4f bd be
       -0.16059181 -0.07245026 -0.15408565 -0.3697464
0002a0 48 8b bc bd dc a4 31 be 96 7b 08 be 3c a7 ba be
       -0.09206253 -0.17348045 -0.13328394 -0.36455715
0002b0 f1 8c e1 bd a3 9d 86 be 6b b8 06 be 79 42 39 be
       -0.110132106 -0.26292142 -0.13156287 -0.18091764
0002c0 fd 62 74 bc 15 35 c8 bd 7f 4b a6 bd 58 a0 38 be
       -0.014916179 -0.097757496 -0.081198685 -0.18029916
0002d0 42 3d 0e be cf e0 b1 be da 6d 52 be df c1 1e be
       -0.13890556 -0.34741828 -0.20549718 -0.15503643
0002e0 3a e7 7b bd 80 86 81 be 9b 09 23 3d ce 2c 9e be
       -0.06149981 -0.25297928 0.039804082 -0.30893558
0002f0 ec cb 97 bd ba 97 2c be fa 6a 5a be ae f2 4c be
       -0.07411942 -0.16854754 -0.21329871 -0.2001445
000300 b4 11 23 be e9 ac 9b be 12 b1 36 be 3e 02 f2 bd
       -0.15924722 -0.30405357 -0.17840984 -0.11816834
000310 60 fc eb bd 05 57 df bd 8d b3 f6 3b 49 a0 10 be
       -0.11522746 -0.109052695 0.0075287283 -0.14123644
000320 ca 3d 77 be 83 a2 1a 3d 69 b0 17 be a2 6a 20 be
       -0.24144664 0.03775264 -0.14813389 -0.15665677
000330 a5 56 95 bd 47 89 61 be bb 43 87 bd 9a b3 99 3d
       -0.07291917 -0.22025023 -0.066047154 0.075049594
000340 22 13 88 bd 39 5b a5 bd 89 47 6a be 16 e2 4e be
       -0.06644274 -0.0807404 -0.22878851 -0.20203432
000350 85 f9 ad be 99 0a 40 be 50 8b ad be da f0 82 be
       -0.3397943 -0.18754043 -0.3389535 -0.2557438
000360 42 2f 8a be 63 99 b8 bd 36 84 28 3d e6 40 7b be
       -0.2698918 -0.09013631 0.04114171 -0.24536476
000370 c6 c0 34 be 37 e4 00 be 31 a1 02 be 1e 0b 86 be
       -0.17651662 -0.12587057 -0.12756802 -0.26180357
000380 44 f8 6c be bd 95 89 be c1 a5 87 be 79 5e a8 be
       -0.23141581 -0.26872054 -0.26493648 -0.32884577
000390 8a 1e c2 bd 56 f9 64 be 61 35 46 be d2 79 46 bc
       -0.09478481 -0.22360739 -0.193563 -0.012114005
0003a0 b4 6f 8e bd 17 49 76 be d3 83 3c be 04 a6 6a bd
       -0.069548994 -0.24051319 -0.18409662 -0.05728723
0003b0 b3 bd f9 3c 9f c3 64 be f6 d5 42 be b0 4d f4 bd
       0.030485963 -0.22340249 -0.19026932 -0.1192888
0003c0 92 6c c6 3d 24 16 d0 bd 1a c9 84 be c5 09 6f be
       0.09688677 -0.10160473 -0.25934678 -0.2334357
0003d0 68 93 7a be 28 dd 97 be 63 cd d5 be 5f 7d 5c be
       -0.24470294 -0.29660916 -0.4175826 -0.215322
0003e0 8b 20 0d be 67 78 53 be 11 5b 4e be 71 c5 8e 3b
       -0.13781945 -0.20651399 -0.20151927 0.004357033
0003f0 41 6b 0a be c8 d8 e2 bd 57 58 82 be 76 e8 54 bd
       -0.13517477 -0.11076504 -0.25458023 -0.051979505

bn2.weight f4 [300]
000000 6f 71 9c 3f c6 4a 30 3f 6b 3b 29 40 0c 5a 7f 3f
       1.2222117 0.68864095 2.6442516 0.99746776
000010 da d4 90 3f 10 93 59 3f fd 66 45 3f fc b8 7f 3f
       1.1314957 0.84990025 0.7711027 0.9989164
000020 20 a5 74 3e 1d 46 f6 3f 0a 28 98 3f 5b fa 5c 3f
       0.23891115 1.9240147 1.1887219 0.8631951
000030 d5 5e e1 3f 78 92 a6 3f a6 40 82 3f 38 12 c5 3f
       1.7607065 1.3013449 1.0175979 1.5396185
000040 b2 d4 85 3f fb 26 31 3f 91 c2 c9 3f 2f f2 b1 3f
       1.0455534 0.69200104 1.5762502 1.3902034
000050 9c d6 d6 3e 10 f5 87 3f 0a 18 6f 3f 89 b4 79 3e
       0.4196061 1.0621662 0.93396056 0.24385275
000060 05 86 0f 3f 30 8b 88 3f 71 9e 32 3f 12 f1 71 3f
       0.5606387 1.0667477 0.6977301 0.9450847
000070 73 da 7b 3f 20 49 00 40 fd 46 24 40 5c 32 91 3f
       0.983802 2.0044632 2.5668328 1.1343493
000080 1a d0 0c 40 c0 03 2d 40 66 09 b3 3f cb a8 c3 3f
       2.2002015 2.703354 1.3987243 1.5285887
000090 ad 04 61 3f 22 ba 9a 40 16 84 8d 3f bd bd 3c 40
       0.8789776 4.8352213 1.1055934 2.9490807
0000a0 4e a7 8c 3f 9a 24 ac 3f b4 63 c2 3e e8 d3 bf 3e
       1.0988557 1.344867 0.37966692 0.3746636
0000b0 57 cd 82 3f a8 de e0 3f 0b f6 d5 3f 48 d3 78 3f
       1.0218915 1.7567949 1.6715711 0.9719739
0000c0 27 a4 a2 3f 29 bc 95 3f 21 fd 21 3f b1 0a fa 3f
       1.2706345 1.1698047 0.6327687 1.9534513
0000d0 16 72 b4 3f 99 e3 4c 3f 3b d1 e4 3f d6 05 b9 3f
       1.4097316 0.80034786 1.7876352 1.4454906
0000e0 63 8f a3 3e f2 49 92 3f 6e 26 70 3f c0 7f c9 3f
       0.31945333 1.1428816 0.9380864 1.5742111
0000f0 0e 06 5b 3f 8e 6f 73 3f 56 44 ac 3f f9 c3 9e 3f
       0.85556114 0.95092094 1.3458354 1.2403556
000100 a8 6a 56 3f e6 ac 0d 3f c3 98 c5 3f 2e 63 99 3f
       0.83756495 0.5534195 1.5437244 1.1983392
000110 fd d8 52 3f 16 ba b5 3f 95 49 94 3f 72 5e d8 3f
       0.8236235 1.4197414 1.1584955 1.6903822
000120 f6 a6 eb 3f 18 a0 92 3f a2 7a 9b 3f 98 08 aa 3f
       1.8410327 1.1455107 1.21468 1.3283873
000130 a2 65 5f 3f 11 d5 b6 3f 1c 3b 85 3f c8 8b e3 3f
       0.87264454 1.4283773 1.0408664 1.7777033
000140 a3 f3 73 3f 75 77 f9 3f 98 9b 53 3f bd f4 a4 3f
       0.95293635 1.948958 0.8265929 1.2887188
000150 2a 78 cc 3e 1a 90 4a 3f 3d 0f df 3e 7c 24 ce 3f
       0.39935428 0.7912613 0.43566313 1.6104884
000160 79 8b 94 3f 16 92 03 40 d8 ba e6 3f 6a 34 29 3f
       1.1605064 2.0557914 1.802577 0.660956
000170 34 28 5f 3f db 66 a3 3f 90 f7 9e 3f 1a 0c 4b 3f
       0.8717072 1.2765764 1.24193 0.7931534
000180 c3 7c d6 3e 22 10 00 3f 68 2a c4 3f 6f 84 cd 3f
       0.4189206 0.50024617 1.5325441 1.605604
000190 83 45 b0 3f 9c e7 db 3f 39 ac f2 3f ff 47 20 40
       1.3771213 1.7180057 1.8958808 2.5043943
0001a0 30 27 99 3f f4 49 81 3f 23 b2 b4 3f 3f 70 c9 3f
       1.1965084 1.0100694 1.4116863 1.573738
0001b0 0b d3 a5 3f 99 26 ed 3f 10 cf 9b 3f 66 da a2 3f
       1.295503 1.8527404 1.2172565 1.27229
0001c0 ed e1 6e 3f e8 51 d7 3f 24 5c b2 3f c9 ee 6c 3f
       0.93313485 1.6821871 1.3934369 0.9255186
0001d0 1f 3b 5d 3f 6b 45 a1 3f ac ab a7 3f 70 e4 b9 3f
       0.86418337 1.259931 1.3099265 1.4522839
0001e0 4b d8 b9 3f 6d 17 92 3f 27 84 fd 3f ff 23 87 3f
       1.4519132 1.1413399 1.9805955 1.055786
0001f0 78 26 39 3f ec 59 95 3f 4b 32 9e 3f 45 0c 63 3f
       0.72324324 1.1668067 1.2359098 0.88690597
000200 68 75 97 3e ab b9 0e 40 58 63 a9 3f f8 a8 04 3f
       0.2958176 2.2300823 1.3233442 0.51820326
000210 43 d0 8c 3f f0 69 67 3f 5c 27 a9 3e fc 6c d0 3f
       1.1001056 0.9039602 0.3303784 1.6283259
000220 a0 a8 97 3f 70 3e 8a 3f 82 bb cf 3f 89 fc 49 3f
       1.1848335 1.0800304 1.6229098 0.78900963
000230 63 b1 ad 3f bf 23 b5 3e 7d d0 da 3f 81 e4 0c 3f
       1.3569759 0.35378835 1.7094876 0.5503617
000240 cf c3 78 3f 16 3c 77 3f 3d 6a 6c 3f 7c 31 4d 3f
       0.9717378 0.9657606 0.92349607 0.8015363
000250 5a 41 9d 3e 7d 06 bd 3f ac eb 0c 40 e4 f6 9e 3f
       0.30713922 1.4767605 2.2018843 1.2419095
000260 b1 85 19 40 e4 47 26 3f 17 35 61 3f 6c 09 58 3f
       2.3987849 0.64953446 0.87971634 0.84389377
000270 b4 34 ee 3f fa 93 20 3f b4 d8 17 3f 5c 99 90 3f
       1.8609834 0.62725794 0.5931504 1.1296802
000280 4d a9 22 3f ac db 59 3f 70 45 21 3f 84 d9 ac 3e
       0.6353958 0.8510082 0.6299658 0.337597
000290 09 71 02 40 c9 a1 fb 3f 8e c0 e8 3f 99 b5 db 3f
       2.038149 1.9658748 1.8183763 1.7164794
0002a0 09 1d 6f 3f a7 30 04 40 26 2a 96 3f 86 7d 95 3e
       0.9340368 2.0654695 1.1731613 0.2919733
0002b0 a0 c6 55 3f 1c 3a fe 3f c3 5b c0 3f 05 63 be 3f
       0.835062 1.9861484 1.5028003 1.4873968
0002c0 d8 34 3e 3f 9d d0 45 3f f1 3c bc 3f eb 5d 83 3f
       0.74299383 0.77271444 1.4706098 1.0263036
0002d0 d3 40 6b 3f 0e 32 8f 3f 55 30 ad 3f e3 59 b6 3e
       0.9189579 1.118715 1.3530375 0.35615453
0002e0 f4 ab 67 3f 95 70 98 3f 2b 50 a9 3f 56 89 6c 3f
       0.90496755 1.1909357 1.322759 0.9239706
0002f0 74 3e 45 3f 40 f3 a9 3f 74 70 31 3f c3 de 5e 3f
       0.7704842 1.3277359 0.69312215 0.8705866
000300 e5 10 a5 3f b9 18 59 3f 77 e5 4b 3f ba b1 c6 3f
       1.2895781 0.8480335 0.7964701 1.5522988
000310 49 86 05 3f b5 3b 87 3f 2c 12 d7 3f df 69 b6 3f
       0.5215803 1.0565096 1.6802421 1.4251059
000320 58 dc 82 3f d8 82 73 3f 09 63 d7 3e b0 30 03 40
       1.0223494 0.95121527 0.42067745 2.0498466
000330 75 14 3a 3f 98 99 9b 3f 1d d7 7e 3f a5 21 c8 3f
       0.72687465 1.2156248 0.99546987 1.5635267
000340 5d 8d e9 3f a6 66 dc 3f 9c 1d 4b 3f b5 3b aa 3f
       1.8246266 1.7218826 0.79342055 1.3299471
000350 b7 25 96 3f 72 31 a3 3f a8 18 30 40 76 95 fd 3f
       1.173026 1.2749465 2.751505 1.9811237
000360 c2 17 e2 3f 93 3e b3 3f 5c 87 09 40 07 17 ea 3f
       1.76635 1.4003471 2.1488867 1.8288277
000370 dd a8 8c 3f dd ce 92 3f 66 14 f7 3f b2 f5 7f 3f
       1.0989033 1.146938 1.93031 0.99984276
000380 80 73 9d 3f 96 98 b1 3f e8 52 bd 3f ce 5c 98 3f
       1.2300873 1.387469 1.4790926 1.1903322
000390 34 f6 df 3f 1b f9 95 3f 31 50 a2 3f 51 61 9b 3f
       1.749701 1.1716646 1.2680722 1.2139074
0003a0 11 3c 03 40 3d 49 29 3f 36 62 8f 3f 6f da 5d 3f
       2.0505412 0.6612738 1.1201847 0.8666143
0003b0 b2 21 94 3f 52 2d 1a 3f 20 a7 a0 3e 7a eb 9c 3f
       1.1572783 0.60225403 0.31377506 1.2259362
0003c0 61 c9 78 3f d1 1f 6b 3f 93 bb 75 3f cb bc 14 3f
       0.9718228 0.91845423 0.9598934 0.58100575
0003d0 5b 38 8a 3e 1a da 6c 3f 92 42 4f 3f 52 cc 9a 3f
       0.2699612 0.92520297 0.80960953 1.2093604
0003e0 67 e6 7f 3f 00 ce 73 3f 20 21 af 3f d8 0e b2 3e
       0.9996094 0.95236206 1.3681984 0.3477695
0003f0 42 8f 10 3f 07 13 9f 3f ef 5c 27 40 44 2d fb 3f
       0.56468594 1.2427682 2.6150472 1.9623189
