tmp/ddpg/actor_ddpg.pth (torch, 511239 bytes, 10 tensors)

fc1.weight f4 [400, 11]
-0.036284458 -0.22561257 0.35266328 0.12271159 0.31571147 0.60268176 0.3816157 0.3508461
0.51669514 0.5271127 0.46311703 0.341258 -0.3981122 0.31124568 0.042726357 0.20368429
0.76812154 0.54173416 0.30950388 0.46338624 0.43062007 0.39739344 0.47068354 -0.43049845
0.1827621 0.04714991 0.42729187 1.0273834 0.3112019 0.14132173 0.24979798 0.24436022
0.21178521 0.46298826 -0.40652856 0.05000766 0.104641855 0.37062186 -0.66300136 0.097913474
0.18498088 -0.2774214 0.023087539 -0.13785417 -0.300009 -0.015244082 -0.0007117705 -0.120043844
-0.48895144 0.21279265 -0.065684065 0.45816815 0.44020808 0.46045485 0.53612006 -0.27051088
-0.22509266 0.5811208 0.13616647 0.57838315 0.4800023 0.26873222 0.37397397 0.47793928
0.39702848 0.46540716 0.27783728 -0.092870355 0.22326258 0.030730642 0.4379916 0.5506233
0.81276727 0.6315153 0.5334868 0.5112937 0.48699212 0.3792725 -0.40270808 0.09388697
0.032330826 0.35669404 0.082212925 0.41172355 0.33289868 -0.22387928 -0.10322884 -0.07692301
0.3522189 -0.21550192 0.2667128 -0.015644815 0.50133485 0.8356181 0.5572143 0.13775983
0.24703842 0.25408453 0.22393468 0.29930133 -0.24431793 0.4438406 0.063758604 0.13924925
0.92164075 0.649992 0.609563 0.47892305 0.5008189 0.4622358 0.26016757 -0.3056584
0.29933324 0.056617018 0.36069056 0.48696223 0.72194636 0.60267913 0.29278398 0.3074976
0.33120877 0.2650017 -0.3651544 0.42367813 0.013453523 -0.07394963 -0.7170883 0.19983089
0.31842357 0.48340175 0.4600436 0.44614998 0.06058379 -0.3229328 0.1991874 -0.038556833
0.24247564 -0.5798276 0.57779646 0.13375327 0.10162666 0.14048426 0.2240238 0.15698959
-0.34016493 0.47610548 0.061993435 0.17352505 1.0758885 0.4044907 0.026869968 0.59477913
0.66865784 0.5262403 -0.19564293 -0.038410313 0.09652059 0.17059402 0.087167494 0.35690245
0.45850843 0.17385271 0.31237656 0.40675634 0.2374084 0.32007033 -0.26895976 0.24134587
0.07891722 0.45529115 0.30420816 0.34322608 0.5304302 -0.76613355 -0.55591816 -0.44908005
0.2340356 -0.6190872 0.2899032 0.10355318 0.37615216 -0.24547078 0.36569387 -0.058972973
0.112285756 0.17471592 0.06697322 -0.25531566 0.13957055 -0.09818036 -0.11244249 -0.17356648
0.3934064 0.1911845 0.4298494 0.18351427 0.18925554 0.19397886 0.25642362 -0.33556497
0.475325 0.080063745 0.2103603 0.6077966 0.6960119 0.8447296 0.40394193 0.3464758
0.33904552 0.7272923 -0.7937558 0.5706998 -0.0010569749 0.8537317 0.7451279 0.41322434
0.29999757 0.656516 0.85840833 0.696997 0.43667126 -0.43343616 0.30894178 0.09761139
0.44070336 0.7822396 0.6719142 0.18896297 0.20003149 0.3102895 0.18271609 0.19510724
-0.1272341 0.46909985 0.068859 0.0046020476 0.5794407 0.46610606 0.71535844 0.74568343
0.6830824 0.6575685 -0.1526973 -0.5332624 0.14191674 0.14444807 0.35404226 0.18663679
0.36198407 0.034456864 0.014144343 -0.02589517 0.06344624 0.29210725 -0.23177867 0.27291086
00000000: 039f 14bd fb06 67be 4890 b43e 3750 fb3d
00000010: efa4 a13e 5a49 1a3f 2263 c33e 1aa2 b33e
00000020: 2246 043f dcf0 063f ad1d ed3e 5eb9 ae3e
00000030: 5dd5 cbbe 985b 9f3e d501 2f3d 9d92 503e
00000040: 9da3 443f 17af 0a3f 4b77 9e3e f640 ed3e
00000050: 3c7a dc3e 2777 cb3e 6ffd f03e 4b6a dcbe
00000060: fd25 3b3e 4420 413d 00c6 da3e 4d81 833f
00000070: db55 9f3e a5b6 103e 0bcb 7f3e 9139 7a3e
00000080: 39de 583e cc0c ed3e 8324 d0be d5d4 4c3d
00000090: 784e d63d 26c2 bd3e 75ba 29bf dc86 c83d
000000a0: a16b 3d3e 2e0a 8ebe 1422 bd3c a529 0dbe
000000b0: c89a 99be 50c2 79bc 1c96 3aba 8cd9 f5bd
000000c0: d857 fabe 51e6 593e 5e85 86bd 0495 ea3e
000000d0: f462 e13e bdc0 eb3e 2a3f 093f 6780 8abe
000000e0: b17e 66be 55c4 143f 396f 0b3e eb10 143f
000000f0: ddc2 f53e 4597 893e 8479 bf3e 75b4 f43e
00000100: 5147 cb3e d949 ee3e b040 8e3e d032 bebd
00000110: f29e 643e d4be fb3c 6f40 e03e a6f5 0c3f
00000120: 8411 503f fdaa 213f 9792 083f 25e4 023f
00000130: 0857 f93e 0130 c23e c12f cebe d047 c03d
00000140: 546d 043d 9aa0 b63e 405f a83d 6ecd d23e
00000150: b271 aa3e 9c40 65be a469 d3bd d089 9dbd
00000160: 0956 b43e 89ac 5cbe 958e 883e 8e29 80bc
00000170: 7b57 003f 11eb 553f 99a5 0e3f ea10 0d3e
00000180: a4f7 7c3e 5e17 823e 224f 653e 063e 993e
00000190: 7b2e 7abe 133f e33e df93 823d 5b97 0e3e
000001a0: a6f0 6b3f e065 263f 520c 1c3f 6735 f53e
000001b0: ab35 003f 2caa ec3e af34 853e 427f 9cbe
000001c0: 3542 993e 3fe7 673d 6fac b83e 1d53 f93e
000001d0: 7ad1 383f 2e49 1a3f c8e7 953e 5370 9d3e
000001e0: 3294 a93e 4eae 873e 84f5 babe 57ec d83e
000001f0: 2a6c 5c3c e772 97bd 1993 37bf 78a0 4c3e
00000200: 6a08 a33e 6f80 f73e d68a eb3e c56d e43e
00000210: b526 783d 7357 a5be c8f7 4b3e c5ed 1dbd
00000220: 894b 783e 956f 14bf 78ea 133f 9ef6 083e
00000230: a321 d03d 1bdb 0f3e 7f66 653e e1c1 203e
00000240: 192a aebe 19c4 f33e d4ec 7d3d 8db0 313e
00000250: b7b6 893f 6819 cf3e 681e dc3c 7243 183f
00000260: 292d 2b3f afb7 063f 9f56 48be 2254 1dbd
00000270: 96ac c53d 33b0 2e3e df84 b23d ebbb b63e
00000280: 9ec1 ea3e 7206 323e d2ef 9f3e 5e42 d03e
00000290: 301b 733e 42e0 a33e 18b5 89be 5f23 773e
000002a0: 5a9f a13d ec1b e93e 2cc1 9b3e 54bb af3e
000002b0: 46ca 073f 5421 44bf a750 0ebf d2ed e5be
000002c0: 07a7 6f3e 807c 1ebf 316e 943e b113 d43d
000002d0: 0497 c03e b15c 7bbe 3a3c bb3e a58d 71bd
000002e0: 13f6 e53d bbe8 323e 4129 893d bcb8 82be
000002f0: 95eb 0e3e c912 c9bd 4048 e6bd 69bb 31be
00000300: 906c c93e dfc5 433e 3815 dc3e 2aeb 3b3e
00000310: 34cc 413e 65a2 463e f549 833e 2ccf abbe
00000320: cc5d f33e 76f8 a33d b168 573e 8f98 1b3f
00000330: d62d 323f 3340 583f 7ad1 ce3e 4765 b13e
00000340: 6097 ad3e d42f 3a3f 9533 4bbf 6219 123f
00000350: 318a 8aba 298e 5a3f b4c0 3e3f 2492 d33e
00000360: 4899 993e 6f11 283f a6c0 5b3f 656e 323f
00000370: 6093 df3e 58eb ddbe 9e2d 9e3e 7be8 c73d
00000380: dfa3 e13e db40 483f 9202 2c3f 827f 413e
00000390: 0ed5 4c3e 44de 9e3e ed19 3b3e 31ca 473e
000003a0: a849 02be db2d f03e f305 8d3d c6cc 963b
000003b0: 3a56 143f 74a5 ee3e bb21 373f 1ce5 3e3f
000003c0: 7dde 2e3f 6956 283f ae5c 1cbe e283 08bf
000003d0: 9f52 113e 32ea 133e 0745 b53e b71d 3f3e
000003e0: fa55 b93e a422 0d3d adbd 673c 1c22 d4bc
000003f0: 1af0 813d 158f 953e 6357 6dbe f9ba 8b3e

fc1.bias f4 [400]
0.24339725 0.30851626 0.06489266 0.30087715 0.0597369 0.5710031 0.2223939 0.31123847
0.14900845 0.32986823 0.24899596 0.42804036 0.2564563 0.32611045 0.17784038 0.4124285
0.32794827 -0.11736593 0.36370695 0.5657185 0.2571477 0.38912898 0.11643147 0.13583726
0.27978694 0.34406763 0.41767746 0.26920688 0.28086337 0.4968574 0.467277 0.43878898
0.31254128 0.42497084 0.48002678 0.34108528 0.3158025 0.19126591 0.34894165 0.5636552
0.2511281 0.3467129 0.26135597 0.3806745 0.38380474 0.35880056 0.43487686 0.50392705
0.24592894 0.29029197 0.39589557 0.20510398 -0.32763058 0.23406917 0.38307786 0.38981178
0.22669071 0.23524937 0.14627218 0.26860937 0.5062401 0.14355603 0.23695089 0.28762954
0.12822796 0.23961183 0.3243936 0.18248828 0.3780929 0.41010538 0.2628893 0.23019853
0.39166847 0.3664709 0.41690236 0.12590608 -0.31700453 0.3389964 0.5829252 0.35328865
0.1456412 0.29526883 0.29415938 0.3998157 0.2231975 0.5289833 0.3402604 0.13422976
0.19827418 0.5058351 0.2580417 0.18252334 0.36106566 0.23241699 0.25042593 0.4154529
0.34527075 0.32976657 0.3849082 0.27365035 0.42756715 0.3004794 0.20039065 0.20155898
0.36175174 0.19232781 0.46992242 0.34604397 0.43510708 0.2066909 0.2581529 0.33418518
0.24410559 0.26071915 0.5077551 0.42988297 0.39365593 0.38029802 0.10586525 0.38762745
0.49832556 0.36604065 0.2542398 0.27883855 0.34287247 0.11022033 0.19485088 0.32614693
0.18231271 0.142429 0.30422047 0.2264214 0.4194841 0.39941385 0.41407496 0.33534804
-0.07098692 0.3577799 0.50465703 0.12115958 0.16995645 0.14020188 0.28090754 0.26088303
0.2273969 0.2418625 0.18941052 0.44277203 0.09723893 0.5487332 0.326162 0.26014516
0.12491038 0.18336263 0.30442205 0.49132183 0.3565117 0.26874515 0.39189035 0.08656872
0.449084 0.46092674 0.31071916 0.31739095 0.33733046 0.4262277 0.27219722 0.14889164
0.21003655 0.14930534 0.41092515 0.113882706 0.22358245 0.22685972 0.14978372 0.06466196
0.23281157 0.08022657 0.21504319 0.25232422 0.12817737 0.34164748 0.42534688 0.22029875
0.43533358 0.25844103 0.6788539 0.40142822 0.26880956 -0.02232317 0.31128034 0.20860697
0.34505555 0.23223133 0.368474 0.21626046 0.1357234 0.1644617 0.44493082 0.14450082
0.24370724 0.5540878 0.822291 0.21333392 0.3600138 0.39366502 0.28506944 0.8148034
0.4614045 0.05675615 0.17685688 0.1473609 0.43052733 0.46526688 0.47298938 0.17858776
0.16531809 0.36238876 0.28464088 0.24958141 0.14331499 0.3915877 0.071452044 0.24142496
0.2602764 0.24980843 0.22589688 0.32273537 0.37003952 0.17106006 0.4282295 0.46005413
0.36606744 0.28211328 0.27780953 0.4614995 0.3889998 0.116388075 0.30203366 0.023471665
0.54048526 0.3242426 0.37660462 0.6073903 0.08889858 0.12855466 0.3140101 0.4216527
0.07063251 0.3301591 0.3067108 0.3264384 0.23583117 0.3338227 0.37397695 0.66029024
00000000: 213d 793e d8f5 9d3e 71e6 843d 920c 9a3e
00000010: aeae 743d 422d 123f 3abb 633e a65a 9f3e
00000020: ac95 183e 7de4 a83e ccf8 7e3e 1b28 db3e
00000030: 3d4e 833e f3f7 a63e ca1b 363e d429 d33e
00000040: d6e8 a73e 8c5d f0bd cc37 ba3e edd2 103f
00000050: dda8 833e ea3b c73e 9f73 ee3d ec18 0b3e
00000060: 3c40 8f3e a229 b03e d2d9 d53e 7cd5 893e
00000070: 53cd 8f3e 1864 fe3e ee3e ef3e f3a8 e03e
00000080: 6905 a03e c795 d93e 12c6 f53e bba2 ae3e
00000090: deb0 a13e 36db 433e 7ba8 b23e b54b 103f
000000a0: dd93 803e 5a84 b13e 73d0 853e c5e7 c23e
000000b0: 0e82 c43e b5b4 b73e 2ea8 de3e 5d01 013f
000000c0: ccd4 7b3e 26a1 943e d3b2 ca3e c706 523e
000000d0: 32bf a7be d4af 6f3e c822 c43e 6995 c73e
000000e0: 9c21 683e 36e5 703e 60c8 153e 2b87 893e
000000f0: f498 013f 5a00 133e 41a3 723e 2e44 933e
00000100: 314e 033e ce5c 753e eb16 a63e 35de 3a3e
00000110: 6595 c13e 55f9 d13e 6d99 863e 2ab9 6b3e
00000120: c588 c83e 13a2 bb3e 3a74 d53e 86ed 003e
00000130: 6b4e a2be f090 ad3e 963a 153f 40e2 b43e
00000140: f722 153e 7a2d 973e 0f9c 963e a5b4 cc3e
00000150: e38d 643e 736b 073f 9c36 ae3e 8773 093e
00000160: 6308 4b3e 697e 013f 0b1e 843e 66e7 3a3e
00000170: 99dd b83e b8fe 6d3e d437 803e 3eb6 d43e
00000180: 54c7 b03e 2ad7 a83e b012 c53e e61b 8c3e
00000190: 15ea da3e 70d8 993e 3533 4d3e 7a65 4e3e
000001a0: 8637 b93e 95f1 443e ac99 f03e ad2c b13e
000001b0: 5bc6 de3e c7a6 533e 9e2c 843e 521a ab3e
000001c0: d1f6 793e fb7c 853e 3dfc 013f 9f19 dc3e
000001d0: 458d c93e 6cb6 c23e e1cf d83d 1b77 c63e
000001e0: 8724 ff3e ae69 bb3e b82b 823e edc3 8e3e
000001f0: fb8c af3e 32bb e13d fd86 473e bbfc a63e
00000200: 2fb0 3a3e e8d8 113e c9c2 9b3e 03db 673e
00000210: 9fc6 d63e f97f cc3e a201 d43e bdb2 ab3e
00000220: 9761 91bd ed2e b73e 3431 013f 8422 f83d
00000230: 1009 2e3e 1591 0f3e 1dd3 8f3e 7692 853e
00000240: bcda 683e ceaa 773e d5f4 413e 04b3 e23e
00000250: 3425 c73d c779 0c3f b5fe a63e bf31 853e
00000260: 03d1 ff3d 6ac3 3b3e 35dd 9b3e 898e fb3e
00000270: b488 b63e f798 893e daa5 c83e f14a b13d
00000280: 57ee e53e 97fe eb3e 9516 9f3e 1181 a23e
00000290: 94b6 ac3e 843a da3e 6f5d 8b3e 0d77 183e
000002a0: d213 573e 80e3 183e c864 d23e 563b e93d
000002b0: ccf2 643e ea4d 683e e760 193e 7d6d 843d
000002c0: 2866 6e3e d44d a43d 4834 5c3e a430 813e
000002d0: ee40 033e 6bec ae3e 11c7 d93e ff95 613e
000002e0: 0be4 de3e 6252 843e 5fc9 2d3f 0088 cd3e
000002f0: 68a1 893e 15df b6bc 2360 9f3e 119d 553e
00000300: 1fab b03e 0dce 6d3e a0a8 bc3e 6273 5d3e
00000310: 13fb 0a3e a668 283e f9cd e33e 06f8 133e
00000320: 648e 793e b3d8 0d3f aa81 523f 3574 5a3e
00000330: bb53 b83e 768e c93e 9ff4 913e f596 503f
00000340: 363d ec3e 2379 683d f819 353e c7e5 163e
00000350: 146e dc3e 7637 ee3e aa2b f23e b6df 363e
00000360: 2549 293e 058b b93e 73bc 913e 4592 7f3e
00000370: 2ac1 123e 2f7e c83e 7355 923d 1b38 773e
00000380: f342 853e c8cd 7f3e 8351 673e 923d a53e
00000390: d275 bd3e 5e2a 2f3e e640 db3e 378c eb3e
000003a0: 316d bb3e 2771 903e 0d3d 8e3e aa49 ec3e
000003b0: fb2a c73e df5c ee3d 28a4 9a3e a647 c03c
000003c0: 3e5d 0a3f 2003 a63e 52d2 c03e ee7d 1b3f
000003d0: 7510 b63d d5a3 033e efc5 a03e dde2 d73e
000003e0: c7a7 903d 9d0a a93e 3309 9d3e ef22 a73e
000003f0: ba7d 713e cfea aa3e e879 bf3e c808 293f

fc2.weight f4 [300, 400]
1.0734059 0.2963978 0.9228242 0.115214996 0.9803887 0.8355165 1.464154 0.27969614
1.1240898 1.5719975 0.5272221 0.75926435 0.5767769 1.1610011 0.844921 0.55548936
0.4490219 0.9115679 0.8991055 0.86298364 0.6919242 1.4451545 0.17084819 0.98162544
0.9254932 0.96412784 1.112945 1.6775756 0.88462615 0.72135 1.1790267 0.4493982
0.7561335 1.2132748 1.6827854 1.135879 0.027433086 1.040027 0.9296034 0.7049777
0.29526198 1.4678841 0.7198923 1.0982841 0.60938734 1.0880277 1.0006064 0.52474356
1.2989666 0.66764414 1.0733413 0.8996889 0.5979832 0.60992014 2.01225 0.70085776
1.2330303 0.59574825 0.23565981 1.4901335 0.9817095 0.50868386 0.34957466 0.48973325
1.296621 0.7875762 1.0600352 1.2583666 0.61412764 0.78394216 0.8389914 0.26554608
1.1074994 -0.6311951 0.39896727 1.2089853 0.7068095 1.1848838 0.39922073 1.1963781
0.9893937 1.0670135 -0.3108635 1.3400084 0.6688855 0.67632586 0.93842506 1.0631492
1.0216559 0.26320502 1.163164 1.2174512 0.53897417 1.2087145 0.9956576 0.29647794
0.4903681 0.43421933 1.6754766 0.82519406 0.8983017 1.2313226 1.0595498 0.959655
0.59408575 0.85106385 1.2575326 1.3641875 1.0121516 0.8457252 0.7576493 0.25893262
1.0515676 0.8316507 0.7840419 0.73707145 1.0352674 0.51887757 1.1351027 0.37813944
0.9536944 0.55607206 0.17266758 0.3162805 0.9465021 0.7968886 0.7356461 0.025248013
0.50398207 0.70964277 0.9495364 0.94824755 0.94557375 0.962267 0.6475064 0.7276583
0.9828328 0.3448396 1.4314853 0.7019049 0.16090874 1.0669527 0.32114047 0.30432478
0.23522288 0.7091599 0.97471136 0.9831774 1.0743123 1.1014702 0.7331713 1.050354
0.99763554 0.96687335 0.8352923 0.8912908 1.0711373 0.4039884 0.7180601 0.5969918
0.6687833 1.1905842 0.5904373 0.72882295 1.2814549 -0.08404887 0.18561932 0.8404502
0.5633212 0.8723316 0.18753056 0.78986204 0.9373817 1.6045774 1.4190522 0.88287187
0.4947755 0.5516503 0.31771502 0.7830567 0.93229705 0.5226657 1.6010581 0.7449094
-0.061902013 0.82761663 -0.30759227 0.94683087 1.0371921 1.5695535 1.6169508 1.0573031
0.9284685 0.579507 0.80120677 1.1385306 0.362815 1.0156254 0.67650473 0.97328246
0.41806915 0.77485216 1.0504509 1.5468696 0.76079714 0.9204289 1.3423618 0.21965726
0.5245637 1.1447192 0.6891187 1.2114363 1.2092088 0.43106437 1.0312675 0.4340288
0.4956389 0.35386285 0.532488 0.49131674 0.953434 0.52123535 1.2488517 0.4548141
1.486347 0.5714785 0.9869448 0.99376434 0.67749834 0.9226233 0.83951175 0.881927
1.0278475 1.1987194 1.4659364 1.2413745 -0.6089875 0.94400865 0.3719821 1.020075
0.833718 0.5527634 1.0653992 0.9151917 0.8412392 1.3177017 0.5336322 1.0848624
1.0520856 1.3271495 0.91291714 -0.57302225 1.591221 -0.13344146 0.63766474 0.63478476
00000000: 5d65 893f 74c1 973e 353e 6c3f d7f5 eb3d
00000010: c1fa 7a3f 69e4 553f 6669 bb3f 5534 8f3e
00000020: 2de2 8f3f 3737 c93f 07f8 063f 265f 423f
00000030: a7a7 133f af9b 943f be4c 583f 8d34 0e3f
00000040: 33e6 e53e 845c 693f c72b 663f 7fec 5c3f
00000050: f221 313f d3fa b83f d4f2 2e3e ce4b 7b3f
00000060: 1fed 6c3f 15d1 763f fb74 8e3f ccba d63f
00000070: dc76 623f 65aa 383f 59ea 963f 8517 e63e
00000080: f791 413f 974c 9b3f 8365 d73f 7c64 913f
00000090: 5abb e03c 9b1f 853f 7dfa 6d3f 6b79 343f
000000a0: 942c 973e a0e3 bb3f dd4a 383f 9394 8c3f
000000b0: cf00 1c3f 7e44 8b3f df13 803f 9855 063f
000000c0: 8a44 a63f baea 2a3f 3f63 893f 0352 663f
000000d0: 6d15 193f ba23 1c3f b4c8 0040 6a6b 333f
000000e0: f0d3 9d3f f582 183f ce50 713e b2bc be3f
000000f0: 5051 7b3f 1b39 023f 73fb b23e 51be fa3e
00000100: adf7 a53f 989e 493f 3caf 873f 2812 a13f
00000110: 7837 1d3f 6fb0 483f 24c8 563f a8f5 873e
00000120: 8ac2 8d3f 0196 21bf 7045 cc3e 08c0 9a3f
00000130: 78f1 343f 46aa 973f a966 cc3e eb22 993f
00000140: e848 7d3f e693 883f 8029 9fbe 6585 ab3f
00000150: 153c 2b3f b123 2d3f a03c 703f 4615 883f
00000160: 9fc5 823f cfc2 863e 8fe2 943f 71d5 9b3f
00000170: 36fa 093f 28b7 9a3f 6be3 7e3f f5cb 973e
00000180: 8711 fb3e ff51 de3e 0476 d63f eb3f 533f
00000190: 1af7 653f fb9b 9d3f 549f 873f f3ab 753f
000001a0: 0116 183f 52df 593f d4f6 a03f b29d ae3f
000001b0: 2f8e 813f 7281 583f 4ef5 413f d192 843e
000001c0: c499 863f 0fe7 543f f8b6 483f b7b0 3c3f
000001d0: a483 843f 29d5 043f 0c4b 913f 7e9b c13e
000001e0: 5125 743f bd5a 0e3f c5cf 303e 85ef a13e
000001f0: f64d 723f e400 4c3f 4e53 3c3f ecd4 ce3c
00000200: f804 013f 26ab 353f d114 733f 5ac0 723f
00000210: 1f11 723f 2157 763f fbc2 253f d047 3a3f
00000220: ee9a 7b3f d18e b03e e93a b73f 0ab0 333f
00000230: 43c5 243e e891 883f 866c a43e 75d0 9b3e
00000240: 44de 703e 818b 353f af86 793f 84b1 7b3f
00000250: 1183 893f fafc 8c3f 1db1 3b3f 0072 863f
00000260: 0b65 7f3f 0385 773f b7d5 553f a22b 643f
00000270: 071b 893f 91d7 ce3e c9d2 373f 74d4 183f
00000280: 6235 2b3f 1065 983f e626 173f 2494 3a3f
00000290: b706 a43f d021 acbd fe12 3e3e bf27 573f
000002a0: d135 103f 2051 5f3f 0308 403e 6634 4a3f
000002b0: 3ff8 6f3f cb62 cd3f 81a3 b53f e403 623f
000002c0: 3753 fd3e f438 0d3f 8bab a23e 6776 483f
000002d0: 05ab 6e3f 6bcd 053f 79ef cc3f 62b2 3e3f
000002e0: f78c 7dbd afde 533f bc7c 9dbe 8263 723f
000002f0: b6c2 843f 21e7 c83f 3ef8 ce3f b555 873f
00000300: 1db0 6d3f 925a 143f e31b 4d3f 5fbb 913f
00000310: e3c2 b93e 0300 823f 6a2f 2d3f 0a29 793f
00000320: 290d d63e b65c 463f 2d75 863f d3ff c53f
00000330: 9ac3 423f 3aa1 6b3f 83d2 ab3f d5ed 603e
00000340: cf49 063f 2986 923f 156a 303f 5810 9b3f
00000350: 5bc7 9a3f 78b4 dc3e 9300 843f 0639 de3e
00000360: 62c4 fd3e 832d b53e 2251 083f de8d fb3e
00000370: 4014 743f ae6f 053f 5fda 9f3f 65dd e83e
00000380: 9e40 be3f 6a4c 123f 6aa8 7c3f 5767 7e3f
00000390: 8870 2d3f 0a31 6c3f 3eea 563f f8c5 613f
000003a0: 8290 833f a36f 993f cea3 bb3f 5ce5 9e3f
000003b0: 9be6 1bbf 8daa 713f 7074 be3e d191 823f
000003c0: 8b6e 553f e781 0d3f 005f 883f 014a 6a3f
000003d0: 745b 573f 73aa a83f 1f9c 083f c5dc 8a3f
000003e0: beaa 863f 09e0 a93f f0b4 693f 96b1 12bf
000003f0: 21ad cb3f e1a4 08be ff3d 233f 4181 223f

fc2.bias f4 [300]
0.8210227 1.0180453 1.0347922 0.6774502 1.1041657 1.0957344 1.1985253 1.1506814
0.9424757 1.0913 1.0664045 1.2809949 0.93538994 1.0671847 1.1736724 1.187111
0.8448813 1.1142608 0.76223624 0.98362166 1.3198977 1.2108734 0.7651684 0.86699206
1.296096 1.0705802 1.3579074 1.1058979 0.978268 0.98542756 0.78288275 1.1432507
0.8201752 0.8665003 1.0871595 0.85863227 1.1878421 1.1738824 1.0009944 0.7959514
0.70532995 1.0846032 1.1804054 1.2012321 0.9922423 1.0749224 0.74736035 0.99344635
1.0797939 0.88758737 1.073464 1.0391924 0.99616057 1.310442 1.0172098 1.0619994
1.0281329 0.9729568 1.2306362 0.9025188 1.1177934 1.2548625 1.0894808 0.82645
1.2817508 1.1341761 0.99459267 0.89827836 0.9713506 0.9760186 1.0992424 0.9085759
0.9552913 1.1597971 1.0448102 1.1328886 1.1454428 1.1046515 1.0276527 0.9128534
0.7059629 0.910564 1.1296439 1.1379231 1.2368296 1.0352076 1.2126057 0.851741
1.0381583 0.8216112 1.026472 1.1386573 1.2470121 1.0446601 0.642047 0.901794
1.1263834 1.2238201 0.9870579 0.99752885 0.8758712 1.2410319 0.9759822 0.79553837
1.0954665 1.1728948 0.92000496 1.075664 0.8905551 1.0245581 0.87013 0.9567055
0.95425403 0.82982105 0.7954574 1.0157421 0.97552955 0.91035765 0.93810606 0.91087645
1.0112059 1.1882224 0.9241898 1.031209 1.093942 0.6720372 1.0088885 1.197524
1.2208921 1.0948827 0.9936219 1.3708601 0.68300056 1.1945094 1.0685563 1.0518448
1.0632507 1.116965 0.9679358 1.2220932 0.6572186 1.1619098 0.9322831 0.94077474
1.0862392 1.0249227 0.88690597 0.9890657 1.0155118 0.8973835 0.90619063 0.80533344
0.8291621 0.9300914 1.1639814 1.0026803 0.93873966 1.1050023 1.1892143 1.1568441
1.1334785 0.922118 1.0580666 0.9292265 1.0671988 0.852149 0.9977964 0.9266355
1.1308992 0.94156617 1.1719652 1.0217749 0.9814981 0.8550143 1.0091789 0.84376276
1.2803394 1.197001 0.87828296 1.0566653 1.2295439 0.89384234 0.98709714 1.1346565
1.0433477 1.0837756 1.0483932 1.0607634 1.2467302 1.0704232 1.1350099 0.94626564
0.98555875 0.88570154 1.1782124 0.9380937 1.1944963 1.1200824 0.9167925 0.8727428
1.1974388 1.0314566 1.2346257 0.8836691 1.284568 0.96289384 0.98041433 1.1048474
0.8080494 1.0635194 1.238916 1.0426838 0.8408801 0.76919 0.7611551 0.88829076
0.63280076 1.1470325 0.88338196 1.0982423 0.9516546 1.112566 0.9492784 1.003783
0.9919969 1.1670512 1.0115117 0.9152036 0.93716335 0.9614936 0.9402315 1.0742788
0.84660465 1.0460721 1.0295639 1.0398585 0.83991206 1.2705172 1.1610256 1.0988183
0.8176615 1.0099005 1.0940272 1.0762765 1.1002082 1.1591675 1.1918075 0.83463365
1.0602502 0.8973174 1.0167809 1.1447899 1.0053215 0.76519454 0.96993905 0.91476613
00000000: 8b2e 523f 4f4f 823f 1274 843f 606d 2d3f
00000010: 4d55 8d3f 0641 8c3f 4769 993f 8749 933f
00000020: 1646 713f b8af 8b3f f17f 883f a4f7 a33f
00000030: b775 6f3f 8299 883f e63a 963f 41f3 973f
00000040: 244a 583f 19a0 8e3f ea21 433f a1ce 7b3f
00000050: 68f2 a83f e6fd 9a3f 14e2 433f 31f3 5d3f
00000060: 79e6 a53f c608 893f e9cf ad3f 108e 8d3f
00000070: c66f 7a3f fb44 7c3f 016b 483f 0a56 923f
00000080: 00f7 513f f7d2 5d3f 0b28 8b3f 53cf 5b3f
00000090: 360b 983f c741 963f 9620 803f 79c3 4b3f
000000a0: 8190 343f 47d4 8a3f 8617 973f f9c1 993f
000000b0: 9703 7e3f 0f97 893f 0253 3f3f 8052 7e3f
000000c0: b036 8a3f ed38 633f 4567 893f 4204 853f
000000d0: 6104 7f3f 90bc a73f ee33 823f 99ef 873f
000000e0: dc99 833f b213 793f 7d85 9d3f 790b 673f
000000f0: db13 8f3f 569f a03f 1b74 8b3f 3a92 533f
00000100: 6910 a43f af2c 913f a09d 7e3f 92f5 653f
00000110: 6faa 783f 5bdc 793f fab3 8c3f 6e98 683f
00000120: f88d 743f 3b74 943f 57bc 853f 7e02 913f
00000130: df9d 923f 3865 8d3f 208a 833f c3b0 693f
00000140: fcb9 343f b91a 693f 2c98 903f 77a7 913f
00000150: 6f50 9e3f af81 843f aa36 9b3f b30b 5a3f
00000160: 5fe2 843f 1d55 523f 6f63 833f 86bf 913f
00000170: 189e 9f3f 6cb7 853f 315d 243f f9db 663f
00000180: 552d 903f 23a6 9c3f d4af 7c3f 0d5e 7f3f
00000190: 1839 603f 22da 9e3f f8d9 793f 67a8 4b3f
000001a0: 3f38 8c3f 6b21 963f 7285 6b3f 5caf 893f
000001b0: 6bfb 633f b824 833f d7c0 5e3f a7ea 743f
000001c0: fe49 743f 276f 543f 19a3 4b3f d603 823f
000001d0: 4ebc 793f 330d 693f b827 703f 332f 693f
000001e0: 326f 813f ac17 983f b497 6c3f a8fe 833f
000001f0: 4b06 8c3f a10a 2c3f 4223 813f 7748 993f
00000200: 3146 9c3f 1e25 8c3f 015e 7e3f 5878 af3f
00000210: 20d9 2e3f afe5 983f 74c6 883f daa2 863f
00000220: 9918 883f b6f8 8e3f a4ca 773f 8d6d 9c3f
00000230: 7a3f 283f 76b9 943f 1baa 6e3f 9dd6 703f
00000240: e309 8b3f ab30 833f 450c 633f 6933 7d3f
00000250: 4afc 813f edba 653f 1cfc 673f 552a 4e3f
00000260: f843 543f 781a 6e3f 58fd 943f d457 803f
00000270: 3e51 703f b770 8d3f 2d38 983f 7813 943f
00000280: d315 913f ed0f 6c3f ba6e 873f cae1 6d3f
00000290: f899 883f 7026 5a3f 966f 7f3f fc37 6d3f
000002a0: 4ec1 903f 7b0a 713f f502 963f 85c9 823f
000002b0: 7643 7b3f 38e2 5a3f c62c 813f d600 583f
000002c0: 29e2 a33f 5437 993f 27d7 603f cf40 873f
000002d0: b261 9d3f dad2 643f 66b2 7c3f 6d3c 913f
000002e0: 6b8c 853f 29b9 8a3f c031 863f 18c7 873f
000002f0: db94 9f3f a103 893f 0148 913f 773e 723f
00000300: 944d 7c3f 56bd 623f aacf 963f e926 703f
00000310: 41e5 983f dc5e 8f3f eab2 6a3f 126c 5f3f
00000320: ad45 993f c506 843f 3708 9e3f 2338 623f
00000330: b96c a43f 3680 763f 6ffc 7a3f a46b 8d3f
00000340: 53dc 4e3f 6721 883f cd94 9e3f aa76 853f
00000350: eb43 573f a3e9 443f 10db 423f 0667 633f
00000360: 3bff 213f f6d1 923f 5225 623f 3493 8c3f
00000370: a39f 733f 9068 8e3f e903 733f f67b 803f
00000380: 82f3 7d3f ef61 953f 3779 813f c84a 6a3f
00000390: f0e9 6f3f 7224 763f 03b3 703f f881 893f
000003a0: 15bb 583f b1e5 853f c0c8 833f 151a 853f
000003b0: 7a04 573f 4fa0 a23f 7d9c 943f 14a6 8c3f
000003c0: 4452 513f 6b44 813f 1509 8c3f 6ec3 893f
000003d0: 9fd3 8c3f 9a5f 943f 268d 983f 8daa 553f
000003e0: 47b6 873f 98b6 653f e025 823f 7a88 923f
000003f0: 60ae 803f cae3 433f ed4d 783f 1d2e 6a3f

bn1.weight f4 [400]
1.0663923 0.8084379 0.6779119 1.9566631 1.9929824 1.5197988 1.4086797 1.3968686
0.58361465 1.113069 1.055183 1.6279297 1.0954428 0.8858229 1.1947614 3.1491013
1.4025643 1.6270015 0.76708335 0.19851619 0.6562581 2.2973125 1.5091654 0.89220303
0.70572174 1.1394535 1.1759058 1.3959512 0.3487167 1.3725501 1.2537493 1.2719204
1.1213127 1.1469352 1.2997638 1.1165802 2.0039554 1.1515417 0.52167994 1.923787
1.7504508 1.5738374 1.8467746 0.43229416 1.4065193 1.1916168 1.0823575 1.4334757
0.8794187 0.78197616 0.34185824 1.3134748 1.1474189 0.5634909 2.1046772 1.0897568
1.173911 1.2435079 1.497585 1.5044949 0.40580416 1.9949454 1.4159901 0.92047846
1.9104818 0.8367355 1.3120149 0.810658 1.57318 1.1761745 1.243616 1.4204209
0.9693661 2.5984688 1.7456836 1.5522548 1.4700488 1.7605307 1.8035178 0.66192186
1.2046261 0.49759993 2.3288813 0.33070263 1.3301511 0.24764088 0.70110756 1.061573
0.512587 1.9312261 1.4129654 0.84184223 0.84864146 1.1364739 1.0154423 1.4065452
1.140117 0.98177373 1.5968744 0.8017762 1.0354717 1.6846588 1.2162975 1.6828618
1.1391855 0.88561755 1.951521 1.6519928 1.226356 1.1192659 1.3009111 1.3390877
1.0530709 0.78528696 1.1758363 1.5632169 1.490023 0.96785563 0.8381074 1.3903327
0.3821186 1.5423117 1.4190888 1.610382 0.9680635 0.5945415 1.1494056 3.3904335
1.468354 1.0859146 1.1381828 1.3449132 1.3423418 0.9501616 0.80306804 1.08543
1.147055 1.4985428 1.9389354 1.2736053 1.4345659 0.8104984 1.0345287 1.9119169
1.0367544 1.1486868 0.5887916 0.55012536 1.3191593 1.4007038 1.4213701 1.0268284
1.162194 0.4991688 1.7844887 0.7471792 1.0687011 0.8662306 0.7604964 0.58411175
0.9585149 1.5131612 0.77030134 0.7712657 1.130622 2.5463083 1.2650366 1.0957928
0.96925414 1.5022347 1.7268142 0.75823796 1.5674444 1.3093978 1.3808872 0.7285342
3.2352881 0.903699 1.3264084 0.61855125 1.662472 0.90865165 1.4248768 1.2912345
1.5338192 0.7867146 3.0930712 0.55668527 0.8638072 0.9480518 1.3136934 1.215466
1.4934725 1.3111166 1.4401171 0.7953352 1.0857185 1.0931884 0.9833964 0.7520472
1.1345592 1.1886733 0.21242847 1.4163777 1.4158001 1.034243 0.84041196 2.4108438
1.054535 1.7707194 1.0416913 0.9854642 0.3241657 1.3019239 0.44636825 0.5472824
1.5459422 1.7536643 1.4009471 0.8510533 0.73880994 1.4690855 1.5149382 0.9764589
0.6652498 1.1022037 0.7152173 0.85124105 3.0936532 1.5103744 0.9592266 0.54835063
1.5763532 0.52168655 1.2742893 1.6790025 2.967279 1.0251055 1.0832739 0.7598585
1.2696015 1.6017214 0.45979816 0.76406455 0.7132501 1.055894 0.5156517 1.0079398
1.3040944 0.7822517 1.109975 2.9269743 1.5891563 1.8522215 0.47847274 3.3522935
00000000: 8b7f 883f c9f5 4e3f a28b 2d3f f073 fa3f
00000010: 0c1a ff3f c488 c23f 9e4f b43f 97cc b23f
00000020: c567 153f 0c79 8e3f 3d10 873f 0060 d03f
00000030: 7837 8c3f 4ac5 623f f1ed 983f e08a 4940
00000040: 3a87 b33f 9641 d03f 935f 443f d447 4b3e
00000050: 8800 283f 2b07 1340 552c c13f 6b67 643f
00000060: 2eaa 343f 9dd9 913f 1584 963f 87ae b23f
00000070: ff8a b23e b9af af3f db7a a03f 4ace a23f
00000080: 2d87 8f3f c6ce 923f a95e a63f 1aec 8e3f
00000090: ce40 0040 b865 933f d18c 053f a73e f63f
000000a0: c60e e03f 8173 c93f 1c63 ec3f a955 dd3e
000000b0: d308 b43f e686 983f b18a 8a3f 227c b73f
000000c0: 9521 613f 972f 483f 0b08 af3e f11f a83f
000000d0: 9fde 923f f140 103f 08b3 0640 277d 8b3f
000000e0: b742 963f 442b 9f3f deb0 bf3f 4a93 c03f
000000f0: 90c5 cf3e 5f5a ff3f 2a3f b53f 7aa4 6b3f
00000100: ab8a f43f 4c34 563f 1bf0 a73f 4887 4f3f
00000110: f65d c93f e38c 963f cf2e 9f3f 5ad0 b53f
00000120: 6028 783f 504d 2640 8f72 df3f 49b0 c63f
00000130: 8f2a bc3f 1259 e13f acd9 e63f b673 293f
00000140: 3031 9a3f 6bc5 fe3e 640c 1540 db51 a93e
00000150: 6442 aa3f 9295 7d3e c97b 333f a0e1 873f
00000160: e738 033f 6b32 f73f 0ddc b43f f982 573f
00000170: 9140 593f fa77 913f 03fa 813f ac09 b43f
00000180: 5bef 913f 8655 7b3f 6166 cc3f 3441 4d3f
00000190: 568a 843f e6a2 d73f a3af 9b3f 0468 d73f
000001a0: d5d0 913f d5b7 623f 71cb f93f 8074 d33f
000001b0: 3cf9 9c3f 1b44 8f3f 4184 a63f 3a67 ab3f
000001c0: 07cb 863f 9108 493f ce81 963f 7e17 c83f
000001d0: 13b9 be3f 63c5 773f 358e 563f 6cf6 b13f
000001e0: 0da5 c33e 786a c53f b4a4 b53f ff20 ce3f
000001f0: 02d3 773f df33 183f b91f 933f ddfc 5840
00000200: 06f3 bb3f 40ff 8a3f f9af 913f 1e26 ac3f
00000210: dbd1 ab3f ca3d 733f de95 4d3f 5fef 8a3f
00000220: b3d2 923f 40d0 bf3f 092f f83f 8005 a33f
00000230: db9f b73f d37c 4f3f 706b 843f b1b9 f43f
00000240: 5eb4 843f 2b08 933f 0cbb 163f 04d5 0c3f
00000250: 36da a83f 434a b33f 75ef b53f 1d6f 833f
00000260: c6c2 943f 0e93 ff3e 206a e43f 2347 3f3f
00000270: 33cb 883f 4ac1 5d3f e4af 423f 5988 153f
00000280: 3c61 753f 44af c13f 7832 453f ab71 453f
00000290: 39b8 903f b7f6 2240 b8ec a13f f042 8c3f
000002a0: 0a21 783f 3a49 c03f 3f08 dd3f e21b 423f
000002b0: 05a2 c83f 599a a73f e9c0 b03f 3881 3a3f
000002c0: f60e 4f40 d158 673f c0c7 a93f 6059 1e3f
000002d0: e2cb d43f 659d 683f 5d62 b63f 2c47 a53f
000002e0: 3054 c43f 2166 493f e1f4 4540 ed82 0e3f
000002f0: 7822 5d3f 86b3 723f 1b27 a83f 6494 9b3f
00000300: 1b2a bf3f abd2 a73f c255 b83f 169b 4b3f
00000310: d3f8 8a3f 99ed 8b3f debf 7b3f 2a86 403f
00000320: 3c39 913f 7226 983f d986 593e dd4b b53f
00000330: f038 b53f 1362 843f 3d25 573f 444b 1a40
00000340: 01fb 863f efa6 e23f 2456 853f 6247 7c3f
00000350: 0cf9 a53e 71a5 a63f 618a e43e b31a 0c3f
00000360: 6fe1 c53f 1278 e03f 3c52 b33f a1de 593f
00000370: a622 3d3f fe0a bc3f 7fe9 c13f 36f9 793f
00000380: d04d 2a3f 0315 8d3f 7b18 373f efea 593f
00000390: 6afe 4540 f353 c13f e08f 753f b560 0c3f
000003a0: f1c5 c93f 408d 053f e91b a33f 8ee9 d63f
000003b0: e6e7 3d40 a836 833f b8a8 8a3f 1686 423f
000003c0: 4d82 a23f 3505 cd3f aa6a eb3e bc99 433f
000003d0: 8f97 363f 8927 873f c001 043f 2c04 813f
000003e0: 91ec a63f a641 483f a913 8e3f 8c53 3b40
000003f0: 7969 cb3f 9815 ed3f 61fa f43e fa8b 5640

bn1.bias f4 [400]
-0.3363147 -0.7394218 -0.46865448 0.075293206 -0.12742956 0.23628986 -0.28226578 -0.36894903
-0.55589586 -0.43227664 -0.4039284 -0.074583165 -0.30219382 -0.29175183 -0.31300429 0.03728263
-0.1720104 -0.22863188 -0.4638613 -0.64842564 -0.581985 -0.078150205 -0.2866989 -0.14145926
-0.67460066 -0.16799924 -0.24143088 -0.263196 -0.68207765 -0.25974935 -0.17993234 0.06931623
-0.22826843 -0.39234895 -0.19545221 -0.29000735 -0.07991899 -0.39968616 -0.66331744 0.07141346
-0.07713039 -0.1977921 0.07076168 -0.75759375 -0.06417244 -0.070092626 -0.16319153 -0.11630936
-0.44665745 -0.39725015 -0.7113127 -0.015415953 -0.6822764 -0.4484779 -0.14934798 -0.3171513
-0.40619615 -0.17577654 -0.15577663 -0.21420601 -0.4337673 -0.10851642 -0.2472233 -0.5002829
-0.27966762 -0.625159 -0.2530263 -0.35835293 -0.18988878 -0.26250446 -0.046027154 -0.16472162
-0.35784712 -0.2021265 0.105093904 -0.27069294 -0.520704 -0.1769758 0.26159972 -0.4306785
-0.24019106 -0.5282122 0.21800634 -0.7249224 -0.38170564 -0.7546456 -0.4149626 -0.35571295
-0.6354382 0.22441263 -0.14380269 -0.4492394 -0.5531834 -0.3226003 -0.24238428 -0.42896542
-0.21333115 -0.52480584 -0.16590019 -0.5071513 -0.30398634 -0.23627403 -0.17676635 -0.16900468
-0.40018997 -0.456763 -0.039468154 -0.057854988 -0.30809212 -0.39050686 -0.2687862 -0.27137473
-0.23635973 -0.51851124 0.0037223555 -0.16708985 -0.14627275 -0.2945221 -0.2601627 -0.37731853
-0.47675702 -0.13412848 -0.14360473 0.03107542 -0.34180894 -0.7120762 -0.3504762 -0.14921361
-0.13032597 -0.41608262 -0.4452922 -0.2649954 -0.23837978 -0.6843723 -0.25273046 -0.15326901
-0.23117888 -0.2558633 -0.16119346 -0.54729325 -0.3778308 -0.47610807 -0.5395864 -0.38544017
-0.56016964 -0.41861326 -0.4346207 -0.4515685 -0.32624552 -0.14369947 -0.033051234 -0.2265608
-0.41827708 -0.6113478 -0.08354044 -0.34095168 -0.19083934 -0.45070082 -0.3018026 -0.43765885
-0.29368168 -0.09612986 -0.67122054 -0.6563955 -0.25447494 -0.12855096 -0.41786012 -0.68693227
-0.36831522 -0.31931433 -0.02864464 -0.6386844 -0.25677723 -0.37809104 -0.33038723 -0.489433
-0.14445914 -0.43208975 -0.3015591 -0.51849926 -0.38093555 -0.69296783 -0.2294536 -0.28384367
-0.12808341 -0.5330987 0.5256119 -0.5996046 -0.26181826 -0.41836306 -0.26018485 -0.30927765
-0.1603481 -0.2955959 -0.42146468 -0.41803557 -0.3853021 -0.38265505 -0.030549103 -0.40759432
-0.5378445 0.060811102 -0.68286324 -0.23146802 -0.1902299 -0.41330308 -0.30118483 0.63329494
-0.16769223 -0.16209783 -0.39996547 -0.37700844 -0.73557657 -0.27233392 -0.7362075 -0.7193965
-0.41994947 -0.048888654 -0.0017476155 -0.62204707 -0.42267635 -0.24463491 -0.18848859 -0.5021106
-0.59077704 -0.3511198 -0.6091206 -0.5436208 -0.101371706 -0.3258193 -0.3956946 -0.31702086
0.004444902 -0.6626366 -0.25662327 -0.15266813 0.35850248 -0.4322209 -0.35256284 -0.37278005
0.001030693 -0.124043874 -0.5428646 -0.3030092 -0.5531086 -0.32165322 -0.6919112 -0.2992131
-0.28188014 -0.52339834 -0.30831087 0.3062487 -0.22500138 -0.25137043 -0.71845186 0.13968842
00000000: 7131 acbe bf4a 3dbf 7bf3 efbe 5333 9a3d
00000010: e57c 02be f8f5 713e 2485 90be e3e6 bcbe
00000020: 314f 0ebf 5d53 ddbe b4cf cebe 0fbf 98bd
00000030: 26b9 9abe 7f60 95be 1942 a0be acb5 183d
00000040: 7f23 30be 7a1e 6abe 3a7f edbe 39ff 25bf
00000050: f8fc 14bf 370d a0bd 33ca 92be b2da 10be
00000060: a1b2 2cbf fe07 2cbe a839 77be a0c1 86be
00000070: a49c 2ebf defd 84be 2f40 38be abf5 8d3d
00000080: 33bf 69be f6e1 c8be a024 48be d87b 94be
00000090: 91ac a3bd aaa3 ccbe 2ccf 29bf 3841 923d
000000a0: 8af6 9dbd 038a 4abe 80eb 903d aaf1 41bf
000000b0: d76c 83bd b98c 8fbd ae1b 27be 9a33 eebd
000000c0: 49b0 e4be 5f64 cbbe 9718 36bf 3193 7cbc
000000d0: aba9 2ebf e59e e5be adee 18be a861 a2be
000000e0: f1f8 cfbe c4fe 33be e983 1fbe d258 5bbe
000000f0: bf16 debe db3d debd 1b28 7dbe 8a12 00bf
00000100: 9830 8fbe 6c0a 20bf aa8c 81be 097a b7be
00000110: 3472 42be fc66 86be f886 3cbd c9ac 28be
00000120: bd37 b7be 40fa 4ebe 793b d73d 4498 8abe
00000130: db4c 05bf 2539 35be 66f0 853e e481 dcbe
00000140: a5f4 75be ea38 07bf 0e3d 5f3e 8494 39bf
00000150: ec6e c3be 7430 41bf fa75 d4be 0220 b6be
00000160: 14ac 22bf 6dcc 653e 0341 13be b502 e6be
00000170: 6d9d 0dbf de2b a5be 9633 78be 5ba1 dbbe
00000180: 7b73 5abe ad59 06bf bde1 29be abd4 01bf
00000190: 19a4 9bbe d2f1 71be 3d02 35be 900f 2dbe
000001a0: b3e5 ccbe d7dc e9be 5ca9 21bd 5af9 6cbd
000001b0: 40be 9dbe 84f0 c7be 589e 89be a1f1 8abe
000001c0: 4908 72be 27bd 04bf c3f2 733b 9a19 2bbe
000001d0: 86c8 15be 9acb 96be 0c34 85be e52f c1be
000001e0: 7f19 f4be fa58 09be 1e0d 13be e191 fe3c
000001f0: 9501 afbe a04a 36bf 9e71 b3be 74cb 18be
00000200: 2c74 05be c808 d5be 57fd e3be 7aad 87be
00000210: d419 74be 0633 2fbf e365 81be 8df2 1cbe
00000220: 28ba 6cbe 8400 83be e60f 25be 691b 0cbf
00000230: 0a73 c1be 70c4 f3be 5622 0abf 6a58 c5be
00000240: 4767 0fbf 7a54 d6be 9b86 debe fd33 e7be
00000250: a709 a7be f425 13be bb60 07bd 8eff 67be
00000260: 6a28 d6be 4a81 1cbf 4017 abbd 3891 aebe
00000270: 636b 43be 42c2 e6be df85 9abe d214 e0be
00000280: 725d 96be bbdf c4bd 1cd5 2bbf 8909 28bf
00000290: 8a4a 82be dda2 03be c3f1 d5be cbda 2fbf
000002a0: d093 bcbe 2b7d a3be 2aa8 eabc d280 23bf
000002b0: 4e78 83be 2695 c1be 8428 a9be f696 fabe
000002c0: 19ed 13be de3a ddbe f465 9abe 5ebc 04bf
000002d0: fc09 c3be 5766 31bf e2f5 6abe f553 91be
000002e0: 4c28 03be 2879 08bf 808e 063f b07f 19bf
000002f0: 0b0d 86be af33 d6be f336 85be a459 9ebe
00000300: 4b32 24be 5958 97be 38ca d7be c208 d6be
00000310: 5146 c5be 5deb c3be 1d42 fabc 34b0 d0be
00000320: 2db0 09bf 1015 793d 20d0 2ebf f405 6dbe
00000330: a0cb 42be 769c d3be e634 9abe 9e1f 223f
00000340: 83b7 2bbe f9fc 25be 46c8 ccbe 4007 c1be
00000350: bf4e 3cbf 5a6f 8bbe 1878 3cbf 5e2a 38bf
00000360: 9e03 d7be 783f 48bd 3f10 e5ba 7a3e 1fbf
00000370: 0969 d8be 9381 7abe 2703 41be 528a 00bf
00000380: 2a3d 17bf f9c5 b3be 54ef 1bbf bc2a 0bbf
00000390: f89b cfbd cad1 a6be 7c98 cabe 8f50 a2be
000003a0: 8aa6 913b 8da2 29bf 2064 83be 0955 1cbe
000003b0: a38d b73e 0f4c ddbe 1e83 b4be 07dd bebe
000003c0: 5118 873a b70a febd 2df9 0abf 0624 9bbe
000003d0: 8698 0dbf bbaf a4be 1821 31bf 7632 99be
000003e0: 9852 90be 6ffd 05bf ecda 9dbe a1cc 9c3e
000003f0: c366 66be a0b3 80be 76ec 37bf 7b0a 0f3e

bn2.weight f4 [300]
1.5992955 1.2804033 3.4448879 1.069395 2.043226 1.6859211 1.8313775 2.6338975
0.47625268 4.208608 2.7531052 1.0881536 2.6770017 2.6338284 1.0054764 3.069639
1.3373988 0.94310075 2.8879821 3.3603032 0.3321196 2.1810231 1.1509515 0.6457131
0.56351453 3.563932 0.87291735 1.4185538 1.1970676 3.0995252 3.101593 2.2913842
2.7074778 2.6234732 1.3743318 1.7671306 1.0623994 5.9002233 2.767188 4.6512713
1.0761739 2.2770524 0.26675606 0.1670425 1.6886445 2.2288976 2.2771735 1.2017714
2.432519 1.1437821 0.9913569 2.6611211 2.1079829 1.4522704 2.0076056 2.466195
0.37027603 1.2435734 0.75534326 2.1593926 1.7687509 2.248001 1.6630147 2.16639
1.816963 0.816133 2.6746883 1.3588387 1.4978746 1.7387139 1.9172702 2.2866485
2.317912 1.2126032 2.3764808 4.3159056 1.2395351 1.8549436 1.3794166 2.085944
1.4221255 2.4862013 0.75655514 1.3573755 0.25368994 1.9283962 0.37629843 2.820613
1.7842631 3.361194 2.9332004 1.1000266 1.7408713 1.9853733 1.3967339 1.138668
0.37164128 0.40191707 2.076639 2.133417 1.3224143 1.751784 2.2800813 3.5963218
1.8703698 1.9844369 1.9999812 2.14191 1.4103248 2.8021157 2.3055174 2.0366352
1.2837981 3.1357358 1.7500116 1.1296394 1.1785613 3.2279975 2.018046 2.1975422
1.8806864 2.0532224 2.9784145 1.4904242 1.9210219 1.1041303 1.6062175 1.4022595
0.18131867 2.7449236 2.0475326 0.27187926 1.1339651 1.0731155 0.27973288 2.6876748
2.3586636 1.4610107 2.7782423 1.5020119 1.6115254 0.42269495 2.408664 0.40274498
1.3327469 1.5074073 1.8048236 1.0582657 0.34079742 1.705364 3.5360155 1.3702352
3.0383341 1.0784978 2.0619016 1.4073405 1.7378162 0.6048454 0.5467042 1.1348176
1.0253223 0.88659674 0.7902481 0.3847585 3.4863026 2.0894654 1.8077257 1.9895035
1.0717533 4.955453 1.3011043 0.3041724 1.085845 2.693322 2.3985705 2.0750306
1.2880117 0.9506068 1.8253275 1.2551527 1.9556136 1.3860934 1.8368882 0.22330694
1.2983042 1.8758785 1.928682 1.92582 1.1381125 1.7598245 1.0326556 0.8692264
1.9218662 1.3845772 1.3556906 2.422735 0.16300376 1.7223463 2.127393 2.700913
2.0525346 1.3230975 0.1932737 2.5194757 1.181142 2.1699877 1.4139326 1.9563851
2.9015303 1.8640907 1.5772326 2.55267 2.2562451 1.3171729 3.1701624 3.162272
2.5031483 1.5929966 2.5367455 2.4782016 1.7768352 1.5931515 2.247216 1.3932813
2.4333527 4.5155163 2.2671666 0.6721261 1.7895874 1.3845718 1.4470361 1.5749174
2.090043 1.2268636 1.3699795 1.4301851 2.0159357 0.77447945 0.4053942 1.4277236
0.9834268 1.7149059 1.1280807 0.48565078 0.6403756 1.8985126 0.79537183 2.2615776
1.767017 1.4984964 1.145425 0.2809566 0.34875527 1.9741775 4.4206815 3.1897354
00000000: b7b5 cc3f 41e4 a33f 0b79 5c40 efe1 883f
00000010: 37c4 0240 43cc d73f 946a ea3f c791 2840
00000020: 64d7 f33e ebac 8640 e032 3040 9e48 8b3f
00000030: ff53 2b40 a590 2840 73b3 803f f774 4440
00000040: e22f ab3f 0d6f 713f b3d4 3840 350f 5740
00000050: 950b aa3e e295 0b40 6152 933f 744d 253f
00000060: 7d42 103f 7617 6440 8377 5f3f 2c93 b53f
00000070: 8339 993f 9f5e 4640 8080 4640 0aa6 1240
00000080: 5147 2d40 fce6 2740 1bea af3f 5631 e23f
00000090: b4fc 873f a1ce bc40 9c19 3140 37d7 9440
000000a0: 11c0 893f 3abb 1140 4094 883e 300d 2b3e
000000b0: 8125 d83f 42a6 0e40 36bd 1140 a5d3 993f
000000c0: 64ae 1b40 7467 923f 91c9 7d3f cf4f 2a40
000000d0: 31e9 0640 ffe3 b93f 9c7c 0040 24d6 1d40
000000e0: d294 bd3e 6a2d 9f3f 2d5e 413f 7d33 0a40
000000f0: 6e66 e23f 40df 0f40 aadd d43f 22a6 0a40
00000100: 3e92 e83f 18ee 503f 182e 2b40 6dee ad3f
00000110: 5bba bf3f 2d8e de3f 1c69 f53f 7358 1240
00000120: ac58 1440 9536 9b3f 4318 1840 e61b 8a40
00000130: 16a9 9e3f cb6e ed3f b990 b03f 1b80 0540
00000140: 3508 b63f ec1d 1f40 99ad 413f 7bbe ad3f
00000150: a6e3 813e b0d5 f63f 30aa c03e ec84 3440
00000160: bc62 e43f cd1d 5740 8eb9 3b40 accd 8c3f
00000170: dfd4 de3f b620 fe3f 2dc8 b23f dfbf 913f
00000180: c447 be3e 13c8 cd3e a7e7 0440 e789 0840
00000190: df44 a93f 753a e03f daec 1140 232a 6640
000001a0: 4768 ef3f 0702 fe3f 62ff ff3f 0e15 0940
000001b0: 8685 b43f dd55 3340 998d 1340 3b58 0240
000001c0: 7f53 a43f e5af 4840 6100 e03f 0698 903f
000001d0: 19db 963f 8397 4e40 aa27 0140 88a4 0c40
000001e0: 55ba f03f ff67 0340 589e 3e40 38c6 be3f
000001f0: 0ce4 f53f 2454 8d3f 8998 cd3f 3d7d b33f
00000200: 9aab 393e d4ac 2f40 c60a 0340 c233 8b3e
00000210: c525 913f d95b 893f 2639 8f3e dd02 2c40
00000220: 58f4 1640 6602 bb3f b9ce 3140 ed41 c03f
00000230: 7746 ce3f 796b d83e 8d27 1a40 9734 ce3e
00000240: 7397 aa3f b9f2 c03f 7604 e73f 4075 873f
00000250: 007d ae3e 5e49 da3f 144e 6240 de63 af3f
00000260: 1174 4240 370c 8a3f 32f6 0340 bc23 b43f
00000270: c370 de3f 26d7 1a3f cef4 0b3f b441 913f
00000280: c33d 833f 01f8 623f b34d 4a3f 11ff c43e
00000290: 951f 5f40 cdb9 0540 8e63 e73f 0da8 fe3f
000002a0: 362f 893f 1293 9e40 968a a63f 7cbc 9b3e
000002b0: f8fc 8a3f 635f 2c40 2e82 1940 4dcd 0440
000002c0: 91dd a43f f85a 733f 55a4 e93f d8a8 a03f
000002d0: 8c51 fa3f 826b b13f 271f eb3f 93aa 643e
000002e0: d52e a63f c91c f03f 0ddf f63f 4581 f63f
000002f0: acad 913f ee41 e13f 0f2e 843f 9f85 5e3f
00000300: b6ff f53f d339 b13f 4587 ad3f 170e 1b40
00000310: 75ea 263e d875 dc3f 3527 0840 c2db 2c40
00000320: ba5c 0340 425b a93f 8ae9 453e 173f 2140
00000330: a92f 973f 14e1 0a40 befb b43f d46a fa3f
00000340: acb2 3940 869a ee3f c2e2 c93f f25e 2340
00000350: 5266 1040 1f99 a83f f1e3 4a40 aa62 4a40
00000360: 9533 2040 50e7 cb3f 0a5a 2240 db9a 1e40
00000370: 566f e33f 63ec cb3f 63d2 0f40 0b57 b23f
00000380: 0dbc 1b40 1c7f 9040 4219 1140 7510 2c3f
00000390: 3311 e53f a639 b13f 7b38 b93f e596 c93f
000003a0: 44c3 0540 de09 9d3f 7d5b af3f 4e10 b73f
000003b0: 1705 0140 4944 463f d48f cf3e a6bf b63f
000003c0: dcc1 7b3f 0982 db3f f364 903f 38a7 f83e
000003d0: a8ef 233f 7602 f33f 7d9d 4b3f b0bd 1040
000003e0: 9d2d e23f bbce bf3f 499d 923f 8bd9 8f3e
000003f0: 0d90 b23e d9b1 fc3f 3976 8d40 a024 4c40

bn2.bias f4 [300]
0.19118854 0.15295392 -0.1256343 -0.2351369 -0.5401768 -0.17502365 -0.30714113 0.08112854
-0.4971332 -0.17308234 0.08889229 -0.3893043 -0.06303457 -0.19178984 -0.59216416 -0.08289954
-0.1686807 -0.09103419 -0.1039172 -0.26790082 -0.6031077 -0.49999434 0.053059347 -0.47024462
-0.38373443 -0.33906928 -0.31975704 -0.30362922 -0.08670819 0.20231831 -0.12402993 0.35022676
-0.2592952 -0.5451879 0.24313027 -0.24352019 -0.17670834 0.14007375 -0.11419396 0.40724233
-0.2967264 0.018205585 -0.6849974 -0.8007716 -0.017787091 0.27682266 -0.21580748 -0.12431239
-0.097778164 -0.21926133 0.13697302 -0.1805973 -0.1701993 -0.15747598 -0.61928785 -0.17281629
-0.5947957 -0.3222922 -0.81755877 -0.5525071 0.14877105 -0.18504544 -0.10556802 0.07550273
-0.094010696 -0.14912365 0.103702836 0.0043454277 -0.19600987 0.34383717 -0.1794438 0.051648755
-0.017440408 -0.5439824 -0.18900385 0.39457035 -0.25323293 -0.3465223 0.13226303 -0.537158
-0.11025639 0.052822124 -0.18967721 -0.44892746 -0.718999 -0.17671134 -0.56439155 -0.14783122
0.22688971 -0.05273987 -0.20765448 -0.32964653 -0.13241258 -0.52204883 -0.10086982 -0.011962571
-0.60059935 -0.5557597 -0.03349243 0.17132147 -0.6967413 -0.24751766 0.07354546 0.304017
-0.21982494 0.0470577 0.07507666 -0.27008158 0.09931756 -0.03728722 0.030895038 -0.07557819
-0.21796659 0.2621644 0.13729721 -0.28689572 -0.3160095 -0.1706284 -0.6908742 -0.27486536
0.003557617 -0.28314638 0.30193734 -0.14020233 -0.2300295 -0.28336558 -0.016103627 -0.32853284
-0.76312894 0.06212842 -0.36485744 -0.7134776 -0.24571541 -0.41602764 -0.6407583 0.11607797
-0.5241859 -0.2935192 0.26739398 -0.36803952 -0.009418965 -0.5900955 -0.10317596 -0.7699372
-0.23436782 -0.05725788 -0.11351681 -0.28169304 -0.6866694 -0.3814955 -0.27038747 -0.04342752
0.02393688 -0.057300482 -0.39542952 -0.29170582 -0.8386621 -0.30191365 -0.47446367 -0.7462225
-0.30907622 -0.31405437 -0.29921612 -0.6281741 0.20845056 -0.2162139 -0.36942822 -0.3595641
-0.48354524 -0.086664826 -0.6800473 -0.6966363 -0.12802538 -0.3981079 -0.03686476 -0.0211164
-0.46106353 -0.5179157 -0.26939467 -0.4738877 -0.31155178 -0.11490055 -0.08319393 -0.7432037
-0.17727679 -0.39453453 -0.5235299 -0.09558894 -0.11835361 -0.100295484 0.075012736 0.4072877
-0.00935971 -0.15753613 -0.26314604 0.3078799 -0.8256439 -0.3745985 -0.44892842 0.0017825982
-0.38051173 0.12668213 -0.7990452 0.024214564 -0.39850858 0.07437078 -0.19827767 -0.41222763
0.070117064 -0.3765797 -0.22609225 -0.16466469 0.15184557 -0.40566635 -0.049016837 0.28762993
0.11135192 -0.7654484 -0.43932825 0.573538 0.118878126 -0.52608776 -0.07924356 -0.2282036
-0.4805895 0.0065850285 0.38521972 0.4158638 -0.4149158 -0.1603337 -0.15808743 -0.10854302
-0.5648256 -0.3152127 -0.33683768 -0.37849817 0.08578131 -0.4238856 -0.5695291 -0.062320024
0.14410935 -0.029934142 0.17991082 -0.55332696 -0.3808451 -0.1235283 -0.6433744 0.059452713
0.15975538 -0.028772578 -0.68804467 -0.6857946 -0.613149 0.36702204 0.0902664 -0.017229995
00000000: eec6 433e f49f 1c3e 47a6 00be bac7 70be
00000010: 0749 0abf 6639 33be 9a41 9dbe b826 a63d
00000020: 3e88 febe 7f3c 31be 290d b63d e552 c7be
00000030: 4518 81bd 8e64 44be 1298 17bf 3cc7 a9bd
00000040: a2ba 2cbe 2270 babd 8ad2 d4bd 4c2a 89be
00000050: 4465 1abf 42ff ffbe c254 593d e7c3 f0be
00000060: d778 c4be 7d9a adbe 32b7 a3be 4a75 9bbe
00000070: 1094 b1bd 882c 4f3e 6703 febd ec50 b33e
00000080: 57c2 84be 6f91 0bbf 24f7 783e 5b5d 79be
00000090: 08f3 34be 7e6f 0f3e 86de e9bd 1182 d03e
000000a0: 86ec 97be e123 953c fd5b 2fbf 5eff 4cbf
000000b0: 3cb6 91bc b3bb 8d3e a3fc 5cbe 7f97 febd
000000c0: eb3f c8bd 0b86 60be a842 0c3e 80ee 38be
000000d0: ba48 2ebe 6241 21be a689 1ebf c1f6 30be
000000e0: 8844 18bf 7c03 a5be 884b 51bf 1b71 0dbf
000000f0: 7057 183e 8d7c 3dbe 0c34 d8bd 2da1 9a3d
00000100: ae88 c0bd dfb3 18be 2762 d43d 1764 8e3b
00000110: d0b6 48be 6d0b b03e 1ec0 37be a58d 533d
00000120: 30df 8ebc 6e42 0bbf 3a8a 41be 2005 ca3e
00000130: bfa7 81be 5f6b b1be f66f 073e 3083 09bf
00000140: 1ace e1bd 035c 583d be3a 42be d2d9 e5be
00000150: 5210 38bf d1f3 34be f77b 10bf 1161 17be
00000160: c755 683e c305 58bd 60a3 54be 6ec7 a8be
00000170: 2a97 07be fea4 05bf d694 cebd a9fe 43bc
00000180: e1c0 19bf 4546 0ebf 5c2f 09bd e56e 2f3e
00000190: a35d 32bf 4575 7dbe 019f 963d 1ea8 9b3e
000001a0: ca19 61be 93bf 403d cbc1 993d 2248 8abe
000001b0: 0167 cb3d 7cba 18bd 9717 fd3c bdc8 9abd
000001c0: a232 5fbe 6a3a 863e a497 0c3e ffe3 92be
000001d0: ffcb a1be 36b9 2ebe 22dd 30bf 27bb 8cbe
000001e0: e926 693b 90f8 90be 8897 9a3e 3391 0fbe
000001f0: da8c 6bbe 4b15 91be c1eb 83bc 7535 a8be
00000200: 6b5c 43bf 5f7a 7e3d 98ce babe 78a6 36bf
00000210: d29c 7bbe 9301 d5be bc08 24bf 49ba ed3d
00000220: 0c31 06bf 2648 96be dde7 883e ad6f bcbe
00000230: 0152 1abc 8010 17bf eb4d d3bd 9b1a 45bf
00000240: 1efe 6fbe 3d87 6abd 807b e8bd 123a 90be
00000250: 91c9 2fbf 6153 c3be 3a70 8abe 0ee1 31bd
00000260: 4717 c43c e9b3 6abd bd75 cabe 775a 95be
00000270: 8fb2 56bf 6d94 9abe e7ec f2be 7008 3fbf
00000280: 3d3f 9ebe bccb a0be db32 99be 05d0 20bf
00000290: 1074 553e 2d67 5dbe b225 bdbe c918 b8be
000002a0: 3e93 f7be 547d b1bd 9417 2ebf c256 32bf
000002b0: 1619 03be ccd4 cbbe 81ff 16bd 4dfc acbc
000002c0: 8510 ecbe 2096 04bf 19ee 89be 69a1 f2be
000002d0: b783 9fbe fb50 ebbd 9461 aabd 9942 3ebf
000002e0: 0c88 35be 6e00 cabe 0e06 06bf 22c4 c3bd
000002f0: 6163 f2bd b867 cdbd 47a0 993d 0388 d03e
00000300: 7859 19bc 2751 21be 14bb 86be 6fa2 9d3e
00000310: 665d 53bf 60cb bfbe f2d9 e5be 12a6 e93a
00000320: 6fd2 c2be f6b8 013e 3a8e 4cbf 9f5d c63c
00000330: 5109 ccbe b54f 983d 4d09 4bbe 800f d3be
00000340: 8999 8f3d 0ecf c0be ba84 67be dc9d 28be
00000350: 687d 1b3e 80b3 cfbe e1c5 48bd 3b44 933e
00000360: 7a0c e43d 6df4 43bf a2ef e0be 63d3 123f
00000370: 6076 f33d b0ad 06bf 734a a2bd 34ae 69be
00000380: d40f f6be 39c7 d73b 853b c53e 1aec d43e
00000390: d86f d4be 842e 24be ace1 21be ce4b debd
000003a0: 6998 10bf 8f63 a1be fd75 acbe 83ca c1be
000003b0: 1dae af3d 8907 d9be a9cc 11bf 4843 7fbd
000003c0: 6791 133e 7238 f5bc 8b3a 383e d6a6 0dbf
000003d0: 21fe c2be 68fc fcbd 2fb4 24bf b084 733d
000003e0: ea96 233e 78b4 ebbc b223 30bf 3c90 2fbf
000003f0: 55f7 1cbf 50ea bb3e 97dd b83d eb25 8dbc
