tmp/ddpg/actor_ddpg.pth (torch, 511239 bytes, 10 tensors)

fc1.weight f4 [400, 11]
0.3402084 -0.41530803 0.45300043 -0.0035653175 0.093550615 0.20568556 0.41117933 0.12446933
0.63942945 0.4506757 0.5615268 0.28290525 -0.6483142 0.72926897 -0.034103863 0.7140589
0.7413277 0.6066992 0.79529834 0.9333596 0.78555375 0.9415323 0.51022184 -0.58636314
0.46624324 -0.23122342 0.6184618 0.828753 0.56591094 0.34987226 0.47830355 0.6108605
0.55235475 0.12972395 -0.673688 0.82896215 -0.16161786 0.47548118 0.17436962 0.5860446
0.6393557 0.84684396 0.74307007 0.77625066 0.09170404 -0.61701 0.71852714 -0.108749576
0.5812475 0.1810724 0.32423785 0.6979811 0.8317945 0.78460354 1.055818 0.5103757
-0.319858 0.20727967 -0.035337515 0.64165324 0.039104164 0.60183513 0.61104697 0.6527333
0.53567284 0.55897534 0.43917757 -0.39456078 0.19179475 -0.15571214 0.36932057 0.72736925
0.3126409 0.48680076 0.07527503 0.17864037 -0.0061186906 0.5919212 -0.2867751 0.18827038
-0.08907724 0.22493899 0.66694576 0.43105072 0.107201084 -0.28341043 -0.12565014 -0.42758507
0.04669053 -0.16110216 0.31313655 -0.011437408 -0.16899353 0.06906315 -0.6397118 0.9771225
0.39377108 0.23050842 0.4240984 0.6287274 -1.4092399 1.6010808 -0.5569514 1.5393475
1.4583975 1.2361857 1.0734191 1.6128424 1.6059864 1.7235444 0.132084 -0.5645734
0.6974938 -0.15329191 0.6148415 -10.184252 0.2979748 0.0019723666 0.8063601 0.84455216
0.7805335 0.29055002 -0.6426564 0.63858116 -0.0949541 0.54519874 0.4881541 0.5929957
0.52245635 0.73666364 0.66512567 0.7381525 0.1739724 -0.75679946 0.9833567 -0.12463786
0.59570104 0.85675913 0.75213534 1.097956 1.1006764 0.985778 1.0429947 0.07239441
-0.52174664 0.59745264 -0.045015313 0.73057294 0.3764637 -0.5178447 0.9818684 0.8079058
0.6032679 0.8725102 0.4779023 -0.6941677 0.63256675 -0.19318894 0.17255192 1.020784
0.6404753 0.90631145 0.7485466 0.7733422 0.645273 0.70188004 -1.3762485 1.8032806
-0.5956906 1.5144836 0.95882857 1.0503167 1.3031423 1.8100948 1.7088637 1.8229614
0.43929598 -0.61135167 0.5392366 -0.0075225313 0.55041826 -4.7161593 0.35309422 1.1275166
0.7488793 0.70292294 0.6605219 0.16676572 -0.6723035 0.8436914 -0.29240027 0.5731555
0.20525107 0.52640545 0.6191678 0.9816636 0.903505 0.8750038 0.36372748 -0.35498053
0.23044997 -0.22869305 0.35322607 0.8063376 0.87750727 0.80590045 0.335026 0.42990947
0.23484343 0.07433145 -0.66705793 0.6507453 -0.27623484 0.7631671 0.25044307 0.5976229
0.8297682 0.7579025 0.69946533 0.8303227 0.26820007 -0.66321295 0.65517676 -0.061584063
0.9605673 0.99617773 0.70186335 0.57110417 0.7727431 0.78927416 0.78211135 0.20271616
-0.45736393 0.34357423 -0.28274834 0.7552206 -1.5290133 -0.6165693 0.7413735 0.46660888
0.4034687 0.49185413 0.5982301 -0.5644867 0.29500827 -0.098798685 0.35988495 0.25697842
0.17417873 -0.013968838 0.4389885 0.5465725 0.4194181 -0.0034084478 -0.60876876 0.4608284
00000000: cc2f ae3e 41a3 d4be acef e73e 1aa8 69bb
00000010: 7797 bf3d 3c9f 523e 1986 d23e c7e9 fe3d
00000020: a6b1 233f f7be e63e 38c0 0f3f f5d8 903e
00000030: ebf7 25bf 5fb1 3a3f 7eb0 0bbd 90cc 363f
00000040: a7c7 3d3f a450 1b3f ac98 4b3f a8f0 6e3f
00000050: 0d1a 493f 4308 713f e69d 023f e51b 16bf
00000060: 6fb7 ee3e d5c5 6cbe 8353 1e3f 2829 543f
00000070: 8adf 103f 7522 b33e 34e4 f43e 5b61 1c3f
00000080: 1f67 0d3f 5bd6 043e d176 2cbf dd36 543f
00000090: 277f 25be 4572 f33e f38d 323e 0507 163f
000000a0: d1ac 233f c4ca 583f d739 3e3f 5db8 463f
000000b0: 54cf bb3d 5ef4 1dbf 65f1 373f 19b8 debd
000000c0: a3cc 143f 0b6b 393e 8102 a63e e4ae 323f
000000d0: 7cf0 543f c7db 483f 0b25 873f fba7 023f
000000e0: 6ec4 a3be 1f41 543e 12be 10bd 6343 243f
000000f0: b02b 203d de11 1a3f 936d 1c3f 8819 273f
00000100: db21 093f 0219 0f3f e2db e03e df03 cabe
00000110: d865 443e 0173 1fbe 9617 bd3e df34 3a3f
00000120: 7812 a03e f33d f93e cc29 9a3d 80ed 363e
00000130: 4c7f c8bb 2688 173f 30d4 92be f3c9 403e
00000140: 216e b6bd 6856 663e f5bc 2a3f aeb2 dc3e
00000150: 3e8c db3d 2c1b 91be 6eaa 00be 6eec dabe
00000160: 923e 3f3d f7f7 24be 6f53 a03e f763 3bbc
00000170: a40c 2dbe fb70 8d3d 27c4 23bf b324 7a3f
00000180: 5d9c c93e 660a 6c3e 6d23 d93e 47f4 203f
00000190: f961 b4bf 37f0 cc3f 5e94 0ebf 5709 c53f
000001a0: c5ac ba3f 553b 9e3f cc65 893f 9f71 ce3f
000001b0: f690 cd3f 1a9d dc3f 0741 073e e287 10bf
000001c0: f48e 323f 8ef8 1cbe 4166 1d3f b2f2 22c1
000001d0: 2790 983e d242 013b 9e6d 4e3f 9234 583f
000001e0: 0bd1 473f f9c2 943e 2185 24bf 0e7a 233f
000001f0: 4c77 c2bd 2592 0b3f 56ef f93e 91ce 173f
00000200: b3bf 053f fd95 3c3f ad45 2a3f 90f7 3c3f
00000210: d225 323e 9cbd 41bf 44bd 7b3f 2242 ffbd
00000220: dd7f 183f 9154 5b3f f18b 403f d289 8c3f
00000230: f7e2 8c3f f25b 7c3f da80 853f 8543 943d
00000240: 3091 05bf a8f2 183f fa61 38bd d406 3b3f
00000250: dabf c03e 7891 04bf ba5b 7b3f ead2 4e3f
00000260: c46f 1a3f d45c 5f3f 9caf f43e f9b4 31bf
00000270: e5ef 213f 52d3 45be 73b1 303e 0da9 823f
00000280: 30f6 233f 0704 683f c0a0 3f3f c1f9 453f
00000290: 9c30 253f 69ae 333f e928 b0bf e6d1 e63f
000002a0: 2e7f 18bf 99da c13f ca75 753f c770 863f
000002b0: 5ecd a63f 30b1 e73f 0cbc da3f cd56 e93f
000002c0: 67eb e03e 8b81 1cbf 690b 0a3f 917f f6bb
000002d0: 36e8 0c3f c7ea 96c0 c4c8 b43e 7752 903f
000002e0: 8eb6 3f3f c2f2 333f f717 293f a2c4 2a3e
000002f0: 151c 2cbf 29fc 573f 7db5 95be 52ba 123f
00000300: 562d 523e 82c2 063f c881 1e3f 4e4e 7b3f
00000310: 1b4c 673f 4000 603f 7d3a ba3e 02c0 b5be
00000320: 14fb 6b3e 832e 6abe 0cda b43e 246c 4e3f
00000330: 51a4 603f 7e4f 4e3f 8788 ab3e 181d dc3e
00000340: cc7a 703e 163b 983d 4fc4 2abf 3e97 263f
00000350: a76e 8dbe eb5e 433f 133a 803e d0fd 183f
00000360: b06b 543f e605 423f 2910 333f 0790 543f
00000370: 8551 893e 53c8 29bf aab9 273f 923f 7cbd
00000380: bde7 753f 8105 7f3f 51ad 333f e233 123f
00000390: 7ed2 453f df0d 4a3f 7338 483f d394 4f3e
000003a0: 9b2b eabe f6e8 af3e 64c4 90be 2356 413f
000003b0: b5b6 c3bf 7cd7 1dbf a7ca 3d3f 5ce7 ee3e
000003c0: 7393 ce3e 4ed4 fb3e 9c25 193f 3382 10bf
000003d0: 530b 973e f756 cabd d742 b83e ad92 833e
000003e0: e95b 323e 8edd 64bc 1ac3 e03e 2dec 0b3f
000003f0: f8bd d63e 4460 5fbb 45d8 1bbf b3f1 eb3e

fc1.bias f4 [400]
0.15627673 0.37968922 0.51925033 0.750404 0.611056 0.3147575 0.3506929 0.38266775
0.012543462 1.3601876 0.73461175 0.15825978 0.5845417 0.461653 0.6701385 1.4901757
0.47270668 0.4494122 0.32170355 0.3767562 0.4614686 0.48398608 0.4385678 0.3313686
0.5945591 0.5958044 0.21382266 0.47713235 0.96027267 0.76902354 0.7014182 0.8594594
0.4889934 0.5850804 1.1041625 0.7345289 0.59456325 0.4065911 0.62861705 0.37624183
0.560832 0.65256304 0.39403316 0.10656666 0.7588644 0.6398713 0.79584944 0.17484102
0.1750696 0.5730222 0.71984047 0.85545 0.30105266 0.090315886 0.6838742 0.39844853
0.44091582 0.681774 0.41685286 1.0647309 1.1215388 0.6179839 0.56489617 0.6046504
0.47024128 0.93341607 0.8117628 0.6211597 0.4125072 0.5378229 0.25637314 2.2291777
0.7872086 0.8205602 0.67591906 0.5764702 0.26251918 0.2993233 0.53340036 0.60551685
0.81322527 0.20933905 0.62367916 0.41040686 0.45174935 0.7868353 0.7099987 0.8004677
0.63436407 0.47280255 0.55788183 0.6693761 0.20346755 0.22325653 0.44587216 0.51509035
2.0636508 0.6637571 0.82327324 0.61005306 0.3234162 0.5000261 0.8906029 0.8365935
0.42557546 -0.11684453 0.38786077 0.5871019 0.2856673 0.86227196 0.38969553 0.38515136
2.1121945 0.03008536 0.6224275 0.60889107 0.39747488 0.24939585 0.5419815 0.7419879
0.4613343 0.8665967 0.44963515 0.6322972 0.3820864 0.49163055 0.7099264 0.12745321
0.49900723 0.6499516 0.27764067 0.5575544 0.3498269 0.25835234 0.55240047 0.50075
0.49674454 0.84520996 0.43013138 0.59857625 0.26772135 0.664693 0.6263732 0.41273278
0.02810714 -0.022265144 0.2818433 0.4019405 0.26945564 1.1322192 0.7747098 0.8489272
0.54597414 0.57750225 0.2882912 0.59309995 0.32325825 0.42809075 0.5449861 0.6716046
0.6493642 0.45194277 0.4522428 0.31462365 0.2853178 0.9321316 0.33152795 0.88677645
0.048810698 2.8526487 0.25247157 0.4847193 0.33845302 0.705167 0.061195564 0.24684387
0.9406849 0.5424407 0.41967723 0.31924707 2.8374531 0.42932987 1.0677702 0.5130096
0.32153642 0.3979393 0.82481533 0.2944933 0.40101683 0.73083377 0.9006741 0.36623287
0.044119373 0.18883534 -0.0723371 0.33165815 0.78267 0.5216196 0.4016333 0.050078053
0.30773318 0.35840312 0.7660037 0.22216742 0.82872015 0.9122002 0.20545349 0.39861694
0.5774047 0.51414555 0.25469595 0.37314 0.6823063 0.5211679 0.48740435 0.3596392
0.3080987 0.43020827 0.33309063 0.463771 0.69479126 0.42119673 0.14656112 0.10821814
0.5674339 0.61625874 0.45791242 0.7731009 0.2177421 0.8591701 0.43858835 0.55005497
0.3188387 0.09135744 0.4737002 0.23548569 0.63050216 0.33322725 0.36112088 0.9836925
0.5186182 0.86823463 0.6450463 0.56992745 0.65938216 0.39414304 0.42003644 0.29474485
0.81997395 0.80916554 0.5152095 0.5697926 0.6063764 0.8044634 0.74797666 0.250893
00000000: 0207 203e a066 c23e 97ed 043f 7a1a 403f
00000010: 2b6e 1c3f e527 a13e 058e b33e 07ed c33e
00000020: 1883 4d3c a11a ae3f 840f 3c3f da0e 223e
00000030: 86a4 153f c85d ec3e 328e 2b3f 14be be3f
00000040: 9c06 f23e 5b19 e63e 54b6 a43e 30e6 c03e
00000050: 9d45 ec3e 06cd f73e f58b e03e 25a9 a93e
00000060: 0635 183f a386 183f 54f4 5a3e b14a f43e
00000070: 6ed4 753f bade 443f 2590 333f 8805 5c3f
00000080: 585d fa3e d4c7 153f 3255 8d3f 160a 3c3f
00000090: 4c35 183f b52c d03e 0ced 203f c5a2 c03e
000000a0: b092 0f3f 5f0e 273f b7be c93e 9f3f da3d
000000b0: f044 423f 9bce 233f cabc 4b3f 8609 333e
000000c0: 7245 333e 95b1 123f 7747 383f c5fe 5a3f
000000d0: 9323 9a3e 89f7 b83d 6112 2f3f 7201 cc3e
000000e0: b8bf e13e be88 2e3f bd6d d53e 1a49 883f
000000f0: 958e 8f3f 3134 1e3f 099d 103f 5eca 1a3f
00000100: 77c3 f03e 5bf4 6e3f b0cf 4f3f 5204 1f3f
00000110: 2534 d33e c3ae 093f 5743 833e d9aa 0e40
00000120: 8186 493f 3c10 523f 0809 2d3f 8d93 133f
00000130: ea68 863e e740 993e ed8c 083f 2703 1b3f
00000140: 882f 503f fa5c 563e 70a9 1f3f d920 d23e
00000150: b14b e73e 0a6e 493f 7ac2 353f 74eb 4c3f
00000160: af65 223f 2d13 f23e 58d1 0e3f 3b5c 2b3f
00000170: cc59 503e 5c9d 643e 5b49 e43e f6dc 033f
00000180: db12 0440 fceb 293f 09c2 523f 702c 1c3f
00000190: cf96 a53e b601 003f 8dfe 633f fe2a 563f
000001a0: 07e5 d93e 2f4c efbd b095 c63e 4f4c 163f
000001b0: fc42 923e dbbd 5c3f 2c86 c73e 8f32 c53e
000001c0: 322e 0740 9375 f63c 6957 1f3f 49e0 1b3f
000001d0: d481 cb3e a061 7f3e 4dbf 0a3f ebf2 3d3f
000001e0: 0234 ec3e 48d9 5d3f 9436 e63e 3bde 213f
000001f0: d4a0 c33e 00b7 fb3e bdbd 353f 1883 023e
00000200: e07d ff3e 3a63 263f eb26 8e3e e3bb 0e3f
00000210: 831c b33e c246 843e 1e6a 0d3f 2731 003f
00000220: 4d55 fe3e ae5f 583f 2e3a dc3e 4b3c 193f
00000230: c612 893e 5229 2a3f fe59 203f b651 d33e
00000240: f240 e63c 6465 b6bc c44d 903e 25cb cd3e
00000250: 17f6 893e 8fec 903f 6253 463f 4b53 593f
00000260: f6c4 0b3f 30d7 133f e79a 933e 66d5 173f
00000270: 1b82 a53e b62e db3e 3684 0b3f 47ee 2b3f
00000280: bb3c 263f 0b65 e73e 5e8c e73e 5a16 a13e
00000290: 2d15 923e 2da0 6e3f 08be a93e c803 633f
000002a0: baed 473d cc91 3640 f443 813e 212d f83e
000002b0: b749 ad3e d385 343f 33a8 7a3d a4c4 7c3e
000002c0: bad0 703f 65dd 0a3f efdf d63e 5a74 a33e
000002d0: d598 3540 20d1 db3e b2ac 883f 9954 033f
000002e0: 6ca0 a43e b3be cb3e 1927 533f d3c7 963e
000002f0: 1452 cd3e ec17 3b3f 9492 663f e082 bb3e
00000300: 84b6 343d 0d5e 413e 7925 94bd 19cf a93e
00000310: 105d 483f dd88 053f e1a2 cd3e a51e 4d3d
00000320: 348f 9d3e 9d80 b73e d218 443f db7f 633e
00000330: 0127 543f f485 693f 6662 523e 8517 cc3e
00000340: cbd0 133f 0b9f 033f 8267 823e 350c bf3e
00000350: a0ab 2e3f 426b 053f 108d f93e a122 b83e
00000360: 1dbf 9d3e 4244 dc3e db8a aa3e 6473 ed3e
00000370: d7dd 313f 19a7 d73e 1e14 163e 79a1 dd3d
00000380: 5943 113f 22c3 1d3f 7f73 ea3e f1e9 453f
00000390: c9f7 5e3e 92f2 5b3f a78e e03e 67d0 0c3f
000003a0: d33e a33e 9c19 bb3d d588 f23e 2923 713e
000003b0: 9768 213f c39c aa3e d6e4 b83e 46d3 7b3f
000003c0: 2ac4 043f a044 5e3f c121 253f c4e6 113f
000003d0: 45cd 283f 1ecd c93e 040f d73e cce8 963e
000003e0: d0e9 513f 7925 4f3f c5e4 033f eedd 113f
000003f0: 7c3b 1b3f 50f1 4d3f 667b 3f3f 0c75 803e

fc2.weight f4 [300, 400]
0.38593957 0.20237078 0.9320772 0.87636447 0.90820295 1.0139568 -0.30329216 -1.5736502
0.75767595 0.98709816 -0.13631047 0.7482813 1.0770538 0.7365042 1.3392967 0.9367403
0.97760886 0.029359505 2.0765686 1.0652577 0.3487281 1.2939209 0.9461847 0.6318742
1.614857 0.10558653 0.71296567 0.36591953 1.3433326 1.034238 0.93940175 0.9958105
1.2714267 1.2416475 0.63894314 1.7955945 0.010383354 0.34986058 1.5361505 0.6725124
1.1112219 0.76897335 1.1549035 0.97912765 1.0478827 1.1133628 0.981718 0.91326714
0.5735994 1.1580846 0.99738514 0.95737904 0.88256454 0.8697617 0.6655989 0.872279
1.0379794 1.4906657 1.0694973 0.9957544 0.8527766 1.7434407 0.81629276 1.3062971
1.7278664 1.1912177 1.1679826 1.4775481 0.717068 1.1228795 0.9026413 0.65921605
1.0482082 0.6143927 1.0136428 1.0326641 0.22030774 0.48683414 1.3070532 0.77892554
1.2124541 0.9153499 -0.259411 0.21904638 0.4835864 0.6025105 0.9929832 0.95641524
0.6597335 0.903652 0.4786971 0.7971131 0.4391596 0.12944284 1.2656077 1.2079412
0.55766237 0.6119475 1.3953499 0.7785805 1.291898 0.09327381 0.8013173 2.12077
0.76001257 1.046497 0.1985157 2.3103096 0.7483065 1.0690961 0.667913 0.5419796
0.89243525 -0.2582402 2.2321572 1.321697 -0.034365904 -0.022435537 1.2566081 0.67270803
1.2800387 1.1875737 0.11523879 1.2418463 0.99828905 0.67485726 0.94744754 1.4308571
0.94151264 0.92076224 0.8608613 1.1848346 1.1331669 0.6686886 0.01604103 1.1269352
1.1618093 1.6943645 0.98667926 0.8755282 0.6864509 1.0080622 1.277126 1.2654228
-0.6073669 0.16874632 1.4211526 0.66081333 0.07127569 1.3511099 0.9875056 0.5255911
1.1871756 1.4303522 0.74264264 1.2980838 1.1008352 0.38040787 0.7025566 1.1542323
1.0607384 0.20097873 1.1336585 0.91017574 1.1205852 1.7899281 1.2519734 0.89712197
0.9690997 0.37448385 -0.5711963 0.3327758 0.69676685 0.8573154 0.43974993 0.90296316
0.69870543 0.7064296 0.6736124 0.08611859 0.5231396 1.2764835 1.6392331 1.6280968
0.5143638 0.26837075 0.48216927 0.63134426 1.1925033 1.1076467 1.7148114 0.7495007
2.180092 0.5452772 1.1205282 1.1299617 0.59332395 1.3503686 1.1279975 -0.0062896665
0.40164533 0.58094275 1.3601683 -0.041092884 1.3454301 1.3739145 0.33143318 -0.84059966
0.5657105 1.6412216 1.5485077 1.2989577 1.2243623 0.5978349 -1.0801333 1.3232038
0.38916397 1.1038021 0.36386925 0.9497177 1.0567461 0.5305624 1.3321018 0.046517264
0.6284191 1.2831881 0.729591 1.1547425 0.87063205 1.1988367 1.1867878 0.92882943
0.8809042 0.26460546 -0.040983908 0.5907311 1.0123577 0.51347905 1.27811 0.5236943
0.5196912 1.241004 1.2189082 0.5614673 0.7061344 0.013320051 1.1666981 0.82902557
1.1034466 1.7553935 0.78964454 1.0087476 3.0025253 0.21482694 1.467226 0.49159488
00000000: df99 c53e 493a 4f3e 9d9c 6e3f 6c59 603f
00000010: fd7f 683f 56c9 813f 1c49 9bbe 5f6d c9bf
00000020: 0df7 413f 77b2 7c3f f994 0bbe 5d8f 3f3f
00000030: e6dc 893f 8a8b 3c3f 136e ab3f 36ce 6f3f
00000040: 9344 7a3f 5883 f03c 80e6 0440 5d5a 883f
00000050: 7d8c b23e 339f a53f 2939 723f 82c2 213f
00000060: a2b3 ce3f c03d d83d eb84 363f ce59 bb3e
00000070: 53f2 ab3f e961 843f a27c 703f 70ed 7e3f
00000080: 1cbe a23f 4eee 9e3f c791 233f 0ad6 e53f
00000090: f11e 2a3c ed20 b33e 94a0 c43f c629 2c3f
000000a0: 853c 8e3f 70db 443f e1d3 933f 1ca8 7a3f
000000b0: 0521 863f ac82 8e3f df51 7b3f e0cb 693f
000000c0: 69d7 123f 1e3c 943f a254 7f3f cb16 753f
000000d0: c0ef 613f b4a8 5e3f b164 2a3f ad4d 5f3f
000000e0: 82dc 843f 22ce be3f 4ae5 883f c3e9 7e3f
000000f0: 914f 5a3f 1129 df3f 90f8 503f be34 a73f
00000100: ba2a dd3f d279 983f 7480 953f 4c20 bd3f
00000110: c591 373f 84ba 8f3f 8013 673f 62c2 283f
00000120: b02b 863f d748 1d3f 0cbf 813f 562e 843f
00000130: 5a98 613e 5342 f93e 854d a73f aa67 473f
00000140: b231 9b3f 5f54 6a3f 85d1 84be b24d 603e
00000150: a398 f73e 213e 1a3f 2634 7e3f a1d7 743f
00000160: 4be4 283f bd55 673f c917 f53e 9b0f 4c3f
00000170: 87d9 e03e aa8c 043e 6fff a13f d19d 9a3f
00000180: f6c2 0e3f 97a8 1c3f d39a b23f 0d51 473f
00000190: ea5c a53f 5706 bf3d 2123 4d3f b2ba 0740
000001a0: 2f90 423f 9df3 853f b347 4b3e 1ddc 1340
000001b0: 0491 3f3f 24d8 883f 59fc 2a3f 2dbf 0a3f
000001c0: a376 643f 0f38 84be aadb 0e40 5e2d a93f
000001d0: 43c3 0cbd bbca b7bc 89d8 a03f 9836 2c3f
000001e0: 4fd8 a33f 6a02 983f 5102 ec3d d2f4 9e3f
000001f0: df8f 7f3f 72c3 2c3f ec8b 723f 5326 b73f
00000200: f906 713f 13b7 6b3f 6861 5c3f a9a8 973f
00000210: 9d0b 913f 2d2f 2b3f 7a68 833c 6a3f 903f
00000220: 2bb6 943f f0e0 d83f 0397 7c3f 9e22 603f
00000230: 3fbb 2f3f 2f08 813f dd78 a33f 60f9 a13f
00000240: 667c 1bbf d6cb 2c3e 54e8 b53f 102b 293f
00000250: fdf8 913d 2bf1 ac3f 2bcd 7c3f 238d 063f
00000260: 5ff5 973f c815 b73f d41d 3e3f 9c27 a63f
00000270: 2be8 8c3f d2c4 c23e c0da 333f e2bd 933f
00000280: 47c6 873f 5ecd 4d3e b91b 913f 4701 693f
00000290: 566f 8f3f 5d1c e53f aa40 a03f c9a9 653f
000002a0: eb16 783f 59bc bf3e ec39 12bf 9761 aa3e
000002b0: 505f 323f 0679 5b3f e726 e13e 9828 673f
000002c0: 5cde 323f 92d8 343f dd71 2c3f f15e b03d
000002d0: 7aec 053f d063 a33f 64d2 d13f 7a65 d03f
000002e0: 59ad 033f e467 893e e4de f63e c79f 213f
000002f0: f3a3 983f 5ec7 8d3f f17e db3f 47df 3f3f
00000300: a186 0b40 4997 0b3f 786d 8f3f 96a2 903f
00000310: 14e4 173f e1d8 ac3f 3962 903f 8c19 cebb
00000320: 75a4 cd3e aab8 143f ff19 ae3f 0351 28bd
00000330: 0e37 ac3f 6edc af3f 9cb1 a93e 8a31 57bf
00000340: 67d2 103f 8d13 d23f 8035 c63f 3f44 a63f
00000350: e7b7 9c3f b50b 193f cf41 8abf be5e a93f
00000360: 8040 c73e 6349 8d3f 124d ba3e b320 733f
00000370: 7543 873f f0d2 073f 5082 aa3f e388 3e3d
00000380: 13e0 203f 823f a43f 7ac6 3a3f 9ace 933f
00000390: bee1 5e3f 7b73 993f aae8 973f c4c7 6d3f
000003a0: f082 613f 5e7a 873e bede 27bd 273a 173f
000003b0: f094 813f 5d73 033f 1c99 a33f d410 063f
000003c0: 7c0a 053f 38d9 9e3f 2f05 9c3f 52bc 0f3f
000003d0: 39c5 343f 583c 5a3c 5d56 953f 053b 543f
000003e0: bd3d 8d3f bcb0 e03f 2526 4a3f a41e 813f
000003f0: 6029 4040 98fb 5b3e 10ce bb3f 53b2 fb3e

fc2.bias f4 [300]
1.1315192 1.0461012 1.2386149 1.2294142 1.3601656 1.3298109 1.270318 0.7482541
1.4186665 1.1137471 1.4556315 1.4050621 1.2696793 1.2978188 1.3131378 1.1254793
1.5205007 1.0530657 0.90312904 1.2818626 0.97307867 1.0543859 1.1478016 1.2385904
1.3661038 1.2206849 1.3925964 1.5152347 1.3056316 1.2918462 1.0670098 1.0399874
0.84979343 1.0705655 1.2525067 1.054433 1.2005695 1.1871367 1.0746241 0.9918074
1.3408757 1.4174006 1.475652 1.0640923 1.2683432 1.2474935 0.9937208 1.0373315
1.0769852 1.3101807 1.0100435 0.97317016 1.1714095 1.2255734 1.1517503 1.1360615
1.0184563 1.1189263 1.0734351 1.2161988 0.90118045 1.2452667 1.1164317 0.8316603
1.1526217 1.1334969 1.4263444 1.4568262 1.1843133 1.1409756 0.9846944 1.2301257
1.1662402 0.8561257 1.0941631 1.4199793 1.3652267 1.2022698 1.4557914 1.3978608
1.3612189 1.2185913 1.3065706 1.6462368 1.2852191 1.1258355 1.1516402 1.2736146
1.2959714 1.353259 1.423016 1.3230094 1.2398869 1.2943804 1.4812257 1.251183
0.95031136 1.4044724 1.390306 1.3529675 1.0332221 1.031185 0.95346 1.5310673
1.0080094 1.0781747 1.3315198 1.1923153 1.3866483 1.2091935 0.86151135 1.2407807
1.5763817 1.2003227 1.1270427 1.1783884 1.4883547 1.3293793 1.1653588 1.1208235
1.1984733 1.3441193 1.4324546 1.4908506 1.1851096 0.7482604 1.1134214 1.3966509
1.2571224 1.406583 1.2244262 0.98751074 1.3130994 0.7898827 1.3821986 1.0250028
1.249184 0.76678586 1.0925297 1.2718214 1.4637232 1.2318861 1.4903716 1.1852484
0.983417 1.016774 0.7963601 0.9120387 0.6664458 1.2549034 0.919125 0.97507435
1.203936 1.1468577 1.1103559 1.0513991 1.4167924 1.0078629 1.3378367 1.3502852
1.1896503 0.8895106 1.4439726 1.2466124 1.3116513 1.5120021 1.2630043 1.0377519
1.3251042 1.6653079 1.1214104 1.4813974 0.9601255 1.185377 1.089708 1.1079061
1.2464107 0.866882 0.91618633 1.3696271 1.2616893 1.3540138 1.044974 1.1916534
1.082774 1.1708012 1.2733593 1.1659155 1.6108212 1.2816546 1.102616 1.3153232
1.637729 1.4688758 1.1092801 1.3382437 0.9626632 1.5980334 1.288365 1.0447303
1.1007835 1.5976332 0.8490452 0.9567191 1.5665812 1.209898 1.0649202 1.158164
0.93376845 1.3421153 1.4123921 1.2630087 1.3651303 1.0804483 1.4356806 1.1175814
1.2471428 1.123222 1.3398008 1.1748934 1.2454484 0.5712323 1.128528 1.0503972
0.83964664 1.4906023 1.3566096 1.2656941 1.2294694 1.0925177 1.2445443 1.1382672
1.3096888 1.1328384 1.3520088 1.0775472 1.165608 0.9459975 1.282643 1.554469
1.4754852 1.5827132 1.3442171 1.1946874 0.9083963 1.1616162 0.7510919 1.0186265
1.2433957 1.3731341 0.9621248 0.84148735 1.219605 0.9108504 1.4954021 1.4243262
00000000: 9fd5 903f a5e6 853f ef8a 9e3f 725d 9d3f
00000010: e819 ae3f 3e37 aa3f c899 a23f 958d 3f3f
00000020: dd96 b53f 448f 8e3f 2252 ba3f 13d9 b33f
00000030: da84 a23f ed1e a63f e614 a83f b50f 903f
00000040: c49f c23f dbca 863f 7733 673f 1314 a43f
00000050: af1b 793f 1ef6 863f 2aeb 923f 218a 9e3f
00000060: 7ddc ae3f 673f 9c3f 9940 b23f 36f3 c13f
00000070: f01e a73f 375b a53f c793 883f 4f1e 853f
00000080: 108c 593f 4a08 893f 2452 a03f a9f7 863f
00000090: 43ac 993f 18f4 973f 488d 893f 17e7 7d3f
000000a0: d1a1 ab3f 626d b53f 2ae2 bc3f 2d34 883f
000000b0: 1259 a23f dead 9f3f 7d64 7e3f 47c7 843f
000000c0: a7da 893f 00b4 a73f 1b49 813f ae21 793f
000000d0: bff0 953f 97df 9c3f 8e6c 933f 776a 913f
000000e0: c75c 823f fa38 8f3f 5266 893f 67ac 9b3f
000000f0: c3b3 663f e664 9f3f 3ce7 8e3f b0e7 543f
00000100: 1c89 933f 6d16 913f 7492 b63f 4879 ba3f
00000110: 9497 973f 7d0b 923f ef14 7c3f c274 9d3f
00000120: 5c47 953f 0e2b 5b3f 890d 8c3f e2c1 b53f
00000130: c0bf ae3f fae3 993f 5f57 ba3f 1aed b23f
00000140: 6c3c ae3f cdfa 9b3f b53d a73f e3b7 d23f
00000150: 0f82 a43f 611b 903f f268 933f ce05 a33f
00000160: 64e2 a53f 9737 ad3f 6325 b63f 5f58 a93f
00000170: 9db4 9e3f 42ae a53f ce98 bd3f c426 a03f
00000180: 9b47 733f c0c5 b33f 8cf5 b13f 0a2e ad3f
00000190: 9f40 843f dffd 833f f415 743f 03fa c33f
000001a0: 7406 813f a101 8a3f 3e6f aa3f ca9d 983f
000001b0: b17d b13f dac6 9a3f 028c 5c3f e7d1 9e3f
000001c0: e0c6 c93f 2da4 993f ef42 903f 6ed5 963f
000001d0: 6882 be3f 1a29 aa3f 7a2a 953f 2577 8f3f
000001e0: 9367 993f 1a0c ac3f ac5a b73f 31d4 be3f
000001f0: acb1 973f fe8d 3f3f 9884 8e3f 75c5 b23f
00000200: 63e9 a03f e90a b43f ffb9 9c3f 81cd 7c3f
00000210: a413 a83f c135 4a3f e2eb b03f 4b33 833f
00000220: 43e5 9f3f 144c 443f 03d8 8b3f 0bcb a23f
00000230: 485b bb3f 72ae 9d3f 7fc4 be3f 38b6 973f
00000240: 37c1 7b3f a725 823f 41de 4b3f 5e7b 693f
00000250: 319c 2a3f ada0 a03f c74b 6b3f 799e 793f
00000260: 931a 9a3f 3ccc 923f 2420 8e3f 3f94 863f
00000270: 7459 b53f a701 813f 3c3e ab3f 25d6 ac3f
00000280: 7646 983f f7b6 633f 18d4 b83f ff90 9f3f
00000290: 31e4 a73f 4989 c13f 20aa a13f 0ed5 843f
000002a0: 049d a93f cf28 d53f 608a 8f3f 6e9e bd3f
000002b0: c9ca 753f 6fba 973f 8d7b 8b3f decf 8d3f
000002c0: 638a 9f3f fbeb 5d3f 308b 6a3f f14f af3f
000002d0: 097f a13f 5350 ad3f b5c1 853f 1988 983f
000002e0: 5798 8a3f d0dc 953f 70fd a23f b83c 953f
000002f0: 642f ce3f 420d a43f 8522 8d3f 835c a83f
00000300: 1ba1 d13f 1f04 bc3f e4fc 8d3f 924b ab3f
00000310: 1871 763f 5c8c cc3f 25e9 a43f b9b9 853f
00000320: 79e6 8c3f 3f7f cc3f 075b 593f 8beb 743f
00000330: bc85 c83f f0dd 9a3f 4e4f 883f b83e 943f
00000340: 730b 6f3f 6fca ab3f 44c9 b43f 45aa a13f
00000350: 97bc ae3f 214c 8a3f 62c4 b73f e80c 8f3f
00000360: 60a2 9f3f bdc5 8f3f 987e ab3f e862 963f
00000370: da6a 9f3f 483c 123f 9b73 903f 6a73 863f
00000380: 15f3 563f 0ecc be3f 62a5 ad3f 4402 a23f
00000390: 415f 9d3f 9fd7 8b3f 3a4d 9f3f bdb2 913f
000003a0: e2a3 a73f d900 913f a00e ad3f 11ed 893f
000003b0: a532 953f e42c 723f a52d a43f d7f8 c63f
000003c0: b3dc bc3f 5996 ca3f 4e0f ac3f 84eb 983f
000003d0: a98c 683f d7af 943f 8f47 403f 5a62 823f
000003e0: 9727 9f3f dcc2 af3f d04d 763f b76b 573f
000003f0: 041c 9c3f 7e2d 693f 5669 bf3f 5250 b63f

bn1.weight f4 [400]
1.1351043 0.9772097 1.1761049 0.6530662 1.053234 1.7362648 2.573409 2.8608131
1.8972527 0.24264884 4.5228996 0.7962584 0.8384107 1.8657501 1.0084243 0.30437922
2.589916 0.85054815 1.5159009 0.8657842 0.652529 1.7116386 0.9116825 1.1194161
0.81715107 1.4492728 2.9435766 1.94572 2.4915712 0.9057764 0.37487692 1.2581103
1.6496278 2.8835368 3.9337993 1.0898906 1.2843817 1.789577 1.1026849 4.076386
0.9764568 4.4377956 1.1372198 3.0560155 1.4948336 1.5056826 1.859729 1.6732626
3.4637294 0.9315505 1.4751799 0.66424876 1.0011561 1.270892 0.8726167 0.95428646
2.739463 1.6974514 0.84633523 2.759583 0.98455757 0.8848587 0.7044767 1.209057
1.1434478 1.8647096 1.0009105 1.1770719 2.0320837 1.188179 1.0940039 0.12209271
1.2282066 0.54908663 1.4704098 1.0484474 0.97478276 0.82821554 0.8628854 0.9189422
0.9563327 2.1585093 2.0304644 1.1575717 1.4854879 0.88337874 4.166828 1.6056825
0.8459931 0.66944104 1.2113932 1.3012869 4.073991 1.3393097 1.1473631 1.215457
0.14334889 1.0851654 2.1964242 1.4901763 1.5805899 1.3204083 0.5214573 1.6778661
0.8536053 1.6305059 1.7177285 1.0286707 1.0349966 1.0151173 1.66425 2.441468
0.14882137 2.4627948 1.0698277 1.014268 1.5366783 2.9930696 1.9673128 2.00343
0.9284035 1.8661916 1.1314209 1.5079619 1.0207986 1.677089 1.7197895 1.7856306
1.2371973 0.85549414 1.2428625 1.2025571 3.4809988 1.210867 0.8800925 1.6156702
1.5810047 0.49841204 0.88044393 2.3609684 3.5042105 0.865959 1.1803658 2.0421295
1.1659694 1.7902919 0.76939356 2.4915864 2.3559635 0.35098097 1.8961532 0.60027725
0.89760864 1.2642734 1.2191914 0.6197033 0.94927365 1.7861602 1.0643058 1.3186898
0.80918205 1.6897686 0.86103123 1.857728 1.061998 0.52772355 1.4031748 1.2130914
1.069298 0.085893035 0.95453554 1.196288 1.137898 0.9211217 1.3488339 0.9790733
1.1375277 0.9690505 0.9726093 1.757638 0.09326616 1.4650356 0.5427125 0.9961983
1.5984895 1.584218 0.6335171 0.7176041 1.0808593 1.4476343 0.40975437 1.6246344
1.2678807 2.8079126 1.9873556 0.9901407 1.5591832 0.8926326 1.0465366 1.3615798
2.1547284 2.8927205 1.0399332 1.389895 1.1681333 0.44624949 1.1776178 1.737105
2.0476959 1.1370987 1.2458736 1.3407878 0.6614289 2.303872 1.4457794 1.2138536
1.1870322 1.1964515 2.1680746 1.0865492 2.5571723 0.8838088 0.7327125 1.2657459
0.70172006 0.7335561 1.0535742 1.1407796 1.2555078 0.6533084 0.75857764 1.5685161
1.0799068 2.2703538 1.0693879 1.4919713 0.6388494 1.5520446 2.695749 2.3483872
1.3649173 0.97135633 1.4583501 1.728497 1.9068962 0.69070375 1.2746142 2.2275798
0.967238 0.90388805 1.4711262 1.5969744 0.89758134 2.7004812 1.4324328 1.2153645
00000000: 194b 913f 6a2a 7a3f 9b8a 963f 592f 273f
00000010: 5fd0 863f ed3d de3f bcb2 2440 9017 3740
00000020: 2dd9 f23f f078 783e 98bb 9040 97d7 4b3f
00000030: 15a2 563f e6d0 ee3f 0c14 813f 98d7 9b3e
00000040: 2fc1 2540 86bd 593f 0a09 c23f 09a4 5d3f
00000050: 240c 273f f916 db3f 0664 693f 0749 8f3f
00000060: d030 513f c581 b93f 8f63 3c40 5a0d f93f
00000070: e775 1f40 f6e0 673f deef bf3e c209 a13f
00000080: 0127 d33f de8b 3840 5ec3 7b40 8981 8b3f
00000090: 9f66 a43f dc10 e53f c724 8d3f c171 8240
000000a0: 13f9 793f 6c02 8e40 6b90 913f c295 4340
000000b0: b556 bf3f 35ba c03f 9a0b ee3f 782d d63f
000000c0: bead 5d40 187a 6e3f b2d2 bc3f 350c 2a3f
000000d0: e225 803f 97ac a23f cf63 5f3f 1e4c 743f
000000e0: 5d53 2f40 1646 d93f 6da9 583f 029d 3040
000000f0: f70b 7c3f 1a86 623f 9658 343f 61c2 9a3f
00000100: 7f5c 923f ceae ee3f d61d 803f 4baa 963f
00000110: a90d 0240 4016 983f 5208 8c3f be0b fa3d
00000120: e035 9d3f f190 0c3f 6336 bc3f 8633 863f
00000130: 5d8b 793f ef05 543f 0fe6 5c3f cc3f 6b3f
00000140: 38d2 743f 0425 0a40 21f3 0140 4f2b 943f
00000150: 7824 be3f 1c25 623f a856 8540 0187 cd3f
00000160: 0193 583f 7d60 2b3f ef0e 9b3f 9290 a63f
00000170: 225e 8240 806e ab3f cbdc 923f 1894 9b3f
00000180: 0dca 123e b3e6 8a3f 3792 0c40 19be be3f
00000190: c550 ca3f 2403 a93f 3a7e 053f 51c4 d63f
000001a0: e085 5a3f 6bb4 d03f 87de db3f 7bab 833f
000001b0: c57a 843f 5def 813f 2506 d53f 0341 1c40
000001c0: a164 183e 6e9e 1d40 1df0 883f 89d3 813f
000001d0: e0b1 c43f 748e 3f40 e8d0 fb3f 3238 0040
000001e0: daab 6d3f 5edf ee3f 66d2 903f e504 c13f
000001f0: 87a9 823f daaa d63f 1022 dc3f 8b8f e43f
00000200: 7b5c 9e3f aa01 5b3f 1e16 9f3f 64ed 993f
00000210: afc8 5e40 b1fd 9a3f be4d 613f 48ce ce3f
00000220: 5d5e ca3f dd2f ff3e c664 613f 1b1a 1740
00000230: fc44 6040 7daf 5d3f 3a16 973f 40b2 0240
00000240: 7c3e 953f 4928 e53f faf6 443f 2776 1f40
00000250: 1bc8 1640 c7b3 b33e 26b5 f23f c5ab 193f
00000260: aec9 653f b6d3 a13f 770e 9c3f e0a4 1e3f
00000270: 9903 733f e6a0 e43f 2c3b 883f d4ca a83f
00000280: 8e26 4f3f 564a d83f 8b6c 5c3f 08ca ed3f
00000290: 8def 873f e418 073f 3b9b b33f 9446 9b3f
000002a0: c2de 883f b0e8 af3d 715c 743f f71f 993f
000002b0: a4a6 913f a2ce 6b3f 97a6 ac3f 8ca4 7a3f
000002c0: 829a 913f b213 783f ecfc 783f 48fa e03f
000002d0: 5402 bf3d 4986 bb3f 35ef 0a3f da06 7f3f
000002e0: 4e9b cc3f a8c7 ca3f 2d2e 223f e7b4 373f
000002f0: 9959 8a3f 154c b93f 53cb d13e 05f4 cf3f
00000300: ea49 a23f d7b4 3340 ab61 fe3f dc79 7d3f
00000310: 5193 c73f 9283 643f e9f4 853f 3f48 ae3f
00000320: 12e7 0940 5522 3940 881c 853f 14e8 b13f
00000330: 6485 953f d07a e43e 2ebc 963f 7559 de3f
00000340: 730d 0340 738c 913f c978 9f3f ef9e ab3f
00000350: 6853 293f a472 1340 4d0f b93f 8e5f 9b3f
00000360: acf0 973f 5325 993f bcc1 0a40 0b14 8b3f
00000370: b6a8 2340 4b41 623f 0c93 3b3f f603 a23f
00000380: eda3 333f 55ca 3b3f 85db 863f 1105 923f
00000390: 7bb4 a03f 383f 273f 2532 423f 23c5 c83f
000003a0: 633a 8a3f 7a4d 1140 b4e1 883f eaf8 be3f
000003b0: a28b 233f 66a9 c63f 2787 2c40 fa4b 1640
000003c0: 9cb5 ae3f cfaa 783f 37ab ba3f 643f dd3f
000003d0: 2d15 f43f f6d1 303f 8f26 a33f ab90 0e40
000003e0: e99c 773f 3565 673f dd4d bc3f a869 cc3f
000003f0: e4c7 653f afd4 2c40 f559 b73f 1091 9b3f

bn1.bias f4 [400]
-0.6669957 -0.43832344 -0.21378951 0.023511175 -0.3004901 -0.44137245 0.05921229 -0.15473783
-0.23461948 -0.64487326 0.6000765 -0.42807883 -0.5198416 -0.13992329 -0.09121853 -0.7380318
0.09199799 -0.43812782 -0.08277075 -0.46113616 -0.33909106 0.08754314 -0.5670592 -0.25046983
-0.40170082 0.07274175 -0.31011066 0.18469766 0.071077526 -0.18448931 -0.7567574 0.15131614
-0.080401726 0.19002561 0.69165623 -0.044880796 -0.21588346 -0.19242704 -0.11895304 0.104340754
-0.29324007 0.27057904 -0.15385976 -0.09390621 -0.12338666 -0.11418991 0.27803382 -0.06331676
-0.39862013 -0.400455 0.062693976 -0.43188506 -0.37990332 -0.12945013 0.24750982 -0.5638854
0.10108671 0.074250765 -0.15280476 0.43235913 -0.047884684 -0.21406856 0.21287574 -0.10291612
-0.17474417 0.42331412 0.31075934 -0.13929719 -0.10595346 -0.36234114 -0.6754077 -0.75291723
-0.18430197 -0.70648164 0.4052973 0.08111656 -0.47528493 -0.25881693 -0.277594 -0.360133
-0.3789147 0.041715153 0.0073544052 -0.31600693 -0.50375444 -0.27407867 0.02393359 -0.09202015
-0.41962948 -0.40836433 -0.21911804 0.12173161 -0.3243904 -0.116098106 -0.17766027 -0.1940795
-0.8167661 -0.10214617 0.11331268 0.32262254 -0.08828471 -0.38190743 -0.38576388 0.042066764
-0.45218349 -0.27154884 0.0443056 -0.515496 -0.24832237 -0.011597934 0.18802431 0.028724356
-0.8073873 -0.08964695 -0.43767244 -0.30404082 0.43598628 -0.044623457 0.11014258 0.17819175
-0.3645262 0.003617205 -0.2047434 0.22378258 -0.23160508 -0.028797138 -0.050550845 -0.20880434
0.07973018 -0.6968154 -0.5940783 -0.3619648 0.34151885 -0.16559076 -0.6722702 -0.038166378
-0.39894927 -0.5553743 -0.32102332 -0.09831203 -0.26698747 0.050911717 -0.21975912 0.17129418
-0.27218413 -0.064004846 -0.345433 -0.07307081 -0.4640652 -0.8474626 0.17822576 -0.7958389
-0.42286384 -0.26891446 -0.5547213 -0.32832342 -0.28173393 0.013298429 -0.40679467 -0.016302206
-0.2599448 -0.24681813 -0.42900473 -0.19572465 -0.05106148 -0.61546856 -0.26057157 0.075444415
-0.23643075 -0.8939375 -0.38594338 -0.4292057 -0.20411935 -0.23225485 -0.28724566 -0.14967453
0.20191303 -0.17769144 -0.0572494 -0.14052896 -0.87007564 -0.0125695495 -0.5500462 -0.3186382
-0.35582435 -0.043225087 -0.57110476 -0.61476463 -0.32809204 0.18037653 -0.54738307 0.1787829
-0.29458985 -0.16399208 -0.13184159 -0.1354857 0.4810671 -0.23420484 -0.3228973 -0.48514602
-0.1830893 -0.08268662 -0.2525591 -0.09570884 -0.32133302 -0.5619659 -0.1507251 -0.27656782
0.1864474 -0.16149966 -0.22370264 -0.32031193 -0.23710221 0.0796068 -0.33017033 -0.29167742
-0.5938529 0.07567946 -0.22809818 -0.7510754 0.42784125 0.108698696 -0.4445641 -0.41061082
-0.61444026 -0.30387402 -0.39440948 -0.087692484 -0.38217667 -0.27339208 -0.31687123 -0.08785007
-0.33925796 -0.12614009 -0.2583088 -0.24183635 -0.61439836 -0.018033586 -0.27198794 0.12969832
-0.3079389 0.005646242 -0.17129171 -0.03612919 0.21237601 -0.50254697 -0.16914603 0.024590066
-0.07790105 -0.40932688 0.13630024 -0.08182045 -0.40833962 0.50072163 -0.12843345 -0.29453355
00000000: 3bc0 2abf ee6b e0be a3eb 5abe 829a c03c
00000010: d7d9 99be 92fb e1be 9688 723d 9873 1ebe
00000020: 1740 70be 6a16 25bf 9d9e 193f 262d dbbe
00000030: 5714 05bf 0d48 0fbe c8d0 babd a7ef 3cbf
00000040: 7169 bc3d 4a52 e0be b683 a9bd 0a1a ecbe
00000050: 589d adbe d149 b33d cb2a 11bf 953d 80be
00000060: bbab cdbe a0f9 943d d3c6 9ebe 6221 3d3e
00000070: 1891 913d c4ea 3cbe daba 41bf 9ef2 1a3e
00000080: a9a9 a4bd 1396 423e 6210 313f edd4 37bd
00000090: 8e10 5dbe 980b 45be a79d f3bd 9bb0 d53d
000000a0: 9023 96be 5689 8a3e 6a8d 1dbe e651 c0bd
000000b0: 25b2 fcbd 66dc e9bd 735a 8e3e 38ac 81bd
000000c0: f017 ccbe 7008 cdbe b365 803d 0a20 ddbe
000000d0: b082 c2be 938e 04be 3773 7d3e cb5a 10bf
000000e0: 8d06 cf3d c910 983d da78 1cbe 2d5e dd3e
000000f0: bb22 44bd ca34 5bbe 19fc 593e b0c5 d2bd
00000100: 23f0 32be a1bc d83e d91b 9f3e eca3 0ebe
00000110: 21fe d8bd c784 b9be 85e7 2cbf 2fbf 40bf
00000120: a8b9 3cbe fbdb 34bf 2183 cf3e 7020 a63d
00000130: 8c58 f3be a783 84be cd20 8ebe 5a63 b8be
00000140: 1c01 c2be 82dd 2a3d 39fd f03b a9cb a1be
00000150: 0df6 00bf 0a54 8cbe 6010 c43c 0f75 bcbd
00000160: add9 d6be 2115 d1be 7b60 60be 6c4e f93d
00000170: 8016 a6be d8c4 edbd 93ec 35be c7bc 46be
00000180: 9517 51bf 0332 d1bd 7a10 e83d c82e a53e
00000190: 9dce b4bd 5f89 c3be d882 c5be 334e 2c3d
000001a0: 9884 e7be 7308 8bbe ca79 353d 8cf7 03bf
000001b0: 3848 7ebe 4305 3ebc 7289 403e 574f eb3c
000001c0: efb0 4ebf d298 b7bd 9a16 e0be 3dab 9bbe
000001d0: 9839 df3e 16c7 36bd 6f92 e13d e677 363e
000001e0: 2ea3 babe a10e 6d3b 41a8 51be 4327 653e
000001f0: e229 6dbe fae7 ebbc 670e 4fbd ced0 55be
00000200: 9449 a33d 7e62 32bf 8415 18bf 7353 b9be
00000210: 8fdb ae3e a090 29be e619 2cbf 5954 1cbd
00000220: 1443 ccbe 032d 0ebf 2b5d a4be d157 c9bd
00000230: 95b2 88be ce88 503d 8908 61be be67 2f3e
00000240: b85b 8bbe f914 83bd 98dc b0be 26a6 95bd
00000250: f499 edbe 4ff3 58bf d080 363e 19bc 4bbf
00000260: 9c81 d8be 28af 89be 3702 0ebf 021a a8be
00000270: 6e3f 90be a7e1 593c 6447 d0be 348c 85bc
00000280: 7c17 85be e4bd 7cbe 82a6 dbbe 0b6c 48be
00000290: d825 51bd 598f 1dbf a369 85be 9a82 9a3d
000002a0: e71a 72be 17d9 64bf 5f9a c5be d9c0 dbbe
000002b0: aa04 51be 37d4 6dbe dd11 93be 4844 19be
000002c0: 4ac2 4e3e bff4 35be 597e 6abd d3e6 0fbe
000002d0: 47bd 5ebf 83f0 4dbc d4cf 0cbf 8c24 a3be
000002e0: 9c2e b6be ca0c 31bd ec33 12bf 3761 1dbf
000002f0: aefb a7be a0b4 383e 4c21 0cbf dd12 373e
00000300: 7bd4 96be 8aed 27be 7b01 07be c3bc 0abe
00000310: 6d4e f63e 65d3 6fbe cb52 a5be 0f65 f8be
00000320: c37b 3bbe 9a57 a9bd 6d4f 81be ff02 c4bd
00000330: c385 a4be ffdc 0fbf ae57 1abe 4c9a 8dbe
00000340: 11ec 3e3e 2b60 25be 4e12 65be edff a3be
00000350: ecca 72be e408 a33d 160c a9be be56 95be
00000360: be06 18bf d5fd 9a3d 9292 69be 7a46 40bf
00000370: 020e db3e 6c9d de3d e89d e3be 953b d2be
00000380: f54b 1dbf 6095 9bbe 0af0 c9be 1e98 b3bd
00000390: a9ac c3be 0cfa 8bbe f23c a2be bdea b3bd
000003a0: 38b3 adbe de2a 01be 0d41 84be f3a3 77be
000003b0: 3649 1dbf 2cbb 93bc 0142 8bbe a3cf 043e
000003c0: 2baa 9dbe 1c04 b93b 1867 2fbe 34fc 13bd
000003d0: 1979 593e eba6 00bf 9e34 2dbe 1b71 c93c
000003e0: 968a 9fbd 4b93 d1be 4a92 0b3e 7b91 a7bd
000003f0: e411 d1be 4b2f 003f 0f84 03be 1acd 96be

bn2.weight f4 [300]
2.389165 3.9185002 1.0182008 0.50064677 1.0300609 1.5738841 0.53122324 1.63244
0.52224696 2.234225 0.86917305 0.79053426 1.9545836 1.9224111 1.3270065 1.730463
1.754314 1.8088003 2.4024854 2.2877827 4.9818053 2.1058445 0.92310804 1.1607432
1.2639229 5.1932735 0.9073358 1.0613587 0.76154757 1.4877356 1.434264 1.7390893
2.2291152 3.3854728 1.2626488 1.4224045 0.9797476 2.2631075 0.7023037 2.7939737
1.8846847 1.0629337 0.46365282 1.4826704 0.95587724 1.3088083 0.2439137 0.50627226
1.8420805 0.99042016 1.9455014 0.4978855 1.7928329 1.6606491 1.1100926 9.112383
1.5345864 1.2674074 1.6046282 0.90348524 0.4396627 1.3848603 2.3311167 2.0800173
1.7137606 0.81466347 0.27829313 0.68257457 1.904804 1.5887887 1.7729019 2.0645895
1.17972 2.989468 2.007433 0.5047819 0.8879413 2.9439707 0.18062003 0.5236579
1.8279259 1.4042242 1.4563489 0.56139344 0.3186175 0.8220096 1.0288588 1.2183046
1.3144588 2.1821706 1.0368237 1.5478245 2.44568 3.3671076 0.6396338 0.94630015
2.49756 0.6070114 2.098961 1.010257 2.1669643 0.39002594 1.6788522 1.2993898
1.3461244 1.6931252 0.8819999 1.1342391 0.9563787 2.0773919 1.5180477 2.0777733
2.3010654 1.1330727 1.3331106 1.4267806 0.7711205 1.6052777 2.791782 3.1334746
0.7204306 1.3235662 1.2646755 1.2916992 0.99862653 1.4734136 2.8836794 3.7897263
1.4842916 0.9058147 2.1955872 1.4276321 2.115496 2.5888407 0.77620953 0.54834676
2.358133 0.37234467 1.8508183 3.173054 1.3428531 0.75415874 1.5250452 1.4923189
0.84837747 0.4030673 0.30713156 0.95168775 4.0138144 4.3650026 0.3084452 3.408553
2.6356716 0.28015292 4.3860974 1.9716228 0.96812505 1.6345832 2.2757318 1.7495242
0.7707834 0.18856448 2.5582893 2.0329478 0.884172 1.0296208 1.7186917 1.6418316
3.1653974 0.26424253 0.39868408 4.5849786 0.99190354 2.0366652 0.48239222 0.8785856
2.1628883 2.9147916 0.38343573 0.9313347 1.4620049 1.5512856 4.149764 1.2059729
1.4581321 1.765529 1.0913217 1.2216705 0.23152079 1.9676548 1.1864252 1.4480997
0.5317594 0.82785416 2.8794649 1.2067505 0.51240057 0.38679606 1.9464365 1.6943858
1.8016855 1.1261998 2.218332 3.795065 0.43820664 1.2092851 0.5485993 0.9495319
3.6227562 1.7665912 4.850086 0.5007034 1.8076699 3.1491518 0.48949924 1.826753
1.5942347 1.1326052 1.8234801 2.6291056 1.5211879 1.7517381 1.6973732 1.9488221
2.6011114 0.24884367 2.2939112 1.3632773 1.0397629 2.8255036 2.102742 4.9189544
1.5069178 1.2516521 0.16301996 2.317821 1.414996 1.9900705 5.2478085 2.0788984
0.6580647 0.8633243 2.0864513 2.3524833 3.3591938 1.8994906 3.5976262 1.7850937
0.7347237 1.3155577 1.7322747 0.7693287 0.43247616 0.29228848 1.6787645 3.1800592
00000000: 14e8 1840 b5c8 7a40 6754 823f 632a 003f
00000010: 09d9 833f 0975 c93f 3ffe 073f cbf3 d03f
00000020: fab1 053f 8bfd 0e40 2082 5e3f 7460 4a3f
00000030: cc2f fa3f 9111 f63f 59db a93f d07f dd3f
00000040: 5c8d e03f c586 e73f 52c2 1940 086b 1240
00000050: f36a 9f40 28c6 0640 cf50 6c3f 3c93 943f
00000060: 3ac8 a13f 4c2f a640 2947 683f 9ada 873f
00000070: c8f4 423f 1f6e be3f f695 b73f 7a9a de3f
00000080: d3a9 0e40 96ab 5840 7a9e a13f 5a11 b63f
00000090: bdd0 7a3f c1d6 1040 2dca 333f 77d0 3240
000000a0: 593d f13f 360e 883f e763 ed3e 25c8 bd3f
000000b0: 5fb4 743f 0887 a73f 83c4 793e 0f9b 013f
000000c0: 4bc9 eb3f 2d8c 7d3f 3106 f93f d9ea fe3e
000000d0: 8c7b e53f 2690 d43f 8417 8e3f 52cc 1141
000000e0: 546d c43f 683a a23f 7564 cd3f cf4a 673f
000000f0: 781b e13e 1a43 b13f 0431 1540 011f 0540
00000100: 825c db3f c98d 503f 707c 8e3e 35bd 2e3f
00000110: 9ed0 f33f 6e5d cb3f 73ee e23f 3c22 0440
00000120: 1101 973f 7253 3f40 c879 0040 6339 013f
00000130: 1f50 633f 046a 3c40 75f4 383e 720e 063f
00000140: 7af9 e93f 9ebd b33f a469 ba3f 7bb7 0f3f
00000150: d521 a33e 396f 523f a5b1 833f 68f1 9b3f
00000160: 3040 a83f afa8 0b40 a4b6 843f 1d1f c63f
00000170: 0586 1c40 b17e 5740 0abf 233f ba40 723f
00000180: 06d8 1f40 1965 1b3f 6155 0640 1a50 813f
00000190: 8baf 0a40 7bb1 c73e a1e4 d63f 6852 a63f
000001a0: ce4d ac3f 54b8 d83f bfca 613f bf2e 913f
000001b0: 3cd5 743f fdf3 0440 634f c23f 3dfa 0440
000001c0: a844 1340 8708 913f 5ea3 aa3f bfa0 b63f
000001d0: 2768 453f bd79 cd3f 8eac 3240 d98a 4840
000001e0: 246e 383f 9e6a a93f e3e0 a13f 6656 a53f
000001f0: fda5 7f3f d198 bc3f 348e 3840 e08a 7240
00000200: 44fd bd3f 79e3 673f 8084 0c40 a6bc b63f
00000210: 4964 0740 91af 2540 abb5 463f 7460 0c3f
00000220: a7eb 1640 f6a3 be3e 9de7 ec3f 5113 4b40
00000230: 9ce2 ab3f 8c10 413f ae34 c33f 4e04 bf3f
00000240: 442f 593f d65e ce3e 5940 9d3e cfa1 733f
00000250: 2b71 8040 1aae 8b40 87ec 9d3e bb25 5a40
00000260: d8ae 2840 3470 8f3e e95a 8c40 235e fc3f
00000270: 0bd7 773f 063a d13f 97a5 1140 69f0 df3f
00000280: 1052 453f 0c17 413e 03bb 2340 d11b 0240
00000290: 1959 623f 9dca 833f 17fe db3f 8a27 d23f
000002a0: df95 4a40 cc4a 873e 5220 cc3e 25b8 9240
000002b0: 64ed 7d3f b958 0240 1dfc f63e fcea 603f
000002c0: c36c 0a40 f28b 3a40 b051 c43e f36b 6e3f
000002d0: fa22 bb3f 8790 c63f deca 8440 525d 9a3f
000002e0: 13a4 ba3f dbfc e13f 6eb0 8b3f b35f 9c3f
000002f0: c913 6d3e 1ddc fb3f c8dc 973f 555b b93f
00000300: 6221 083f 40ee 533f 2749 3840 cd76 9a3f
00000310: af2c 033f 220a c63e d524 f93f a2e1 d83f
00000320: a19d e63f 5127 903f 27f9 0d40 58e2 7240
00000330: 9f5c e03e dbc9 9a3f 0171 0c3f 8614 733f
00000340: 3ddb 6740 a91f e23f e833 9b40 192e 003f
00000350: ba61 e73f b48b 4940 a59f fa3e 0bd3 e93f
00000360: e20f cc3f 35f9 903f cc67 e93f 4443 2840
00000370: 49b6 c23f f438 e03f 8643 d93f 0173 f93f
00000380: 9c78 2640 e0d0 7e3e 71cf 1240 df7f ae3f
00000390: f316 853f 0dd5 3440 5393 0640 1368 9d40
000003a0: afe2 c03f 2336 a03f b4ee 263e 2e57 1440
000003b0: 971e b53f a1ba fe3f 0cee a740 ac0c 0540
000003c0: ee76 283f d202 5d3f 6b88 0540 168f 1640
000003d0: 08fd 5640 8222 f33f 823f 6640 f37d e43f
000003e0: da16 3c3f 3264 a83f 2dbb dd3f baf2 443f
000003f0: 846d dd3e d6a6 953e c1e1 d63f 1786 4b40

bn2.bias f4 [300]
-0.12794535 0.18257917 -0.5470401 -0.6548988 -0.15581053 0.095606394 -0.5749062 0.3861142
-1.201826 -0.7659641 -0.794633 -1.037016 0.334019 -0.15269536 -0.004642379 -0.025896046
-0.80396914 0.20775178 0.08785504 -0.31782886 0.39825866 -0.23586959 -0.6376931 -0.6497018
-0.3426039 0.21463981 -0.27153313 -0.46371332 -0.5063458 -0.17848772 0.35134217 0.2574076
0.4122099 0.14497468 0.3109384 -0.29204196 -0.41069216 -0.28010234 0.5751686 -0.021267604
0.11278018 -0.8332016 -1.0284534 -0.7085331 -0.42753285 -0.4575864 -0.7871361 -0.57490337
0.2791269 -0.19062454 -0.66107863 -0.5489563 -0.0023649302 0.17963952 -0.48198438 -0.6145511
-0.15996417 0.53749305 -0.08704709 -0.52589947 -0.6082395 -0.04235521 0.28998733 -0.2398264
-0.55093694 -0.31893098 -0.850746 -0.7126509 0.34564203 0.18144013 -0.10259291 -0.3277865
0.39075723 -0.22337307 -0.09472741 -0.65828264 -0.19501312 -0.010100114 -0.8383006 -0.81342804
0.37487853 -0.2287606 -0.77268445 -1.2881294 -0.6928868 -0.33355245 0.035493467 0.5128138
-0.6281038 0.15551408 -0.46287477 0.3018068 -0.106163815 -0.60136944 -0.53600925 -0.42908096
0.04885157 -0.97484136 0.2988681 -0.020445421 -0.007456882 -0.64379907 0.46929818 -0.23692013
-0.19855888 0.16275702 -0.43676934 0.3155576 -0.6492592 0.47121415 0.20676991 0.13526973
-0.41127402 0.3447576 0.58971983 -0.058093533 -0.46379274 0.23068066 -0.07172158 -0.058299303
-0.6166517 -0.13220145 -0.6552718 -0.7598584 0.6257709 0.3462751 0.19169992 -0.7005073
0.08725586 -0.90062964 -0.037321307 0.46730438 -0.6691264 0.22802065 -0.428951 -0.52354515
-0.6556463 -0.6675452 -0.058934323 -0.10814942 -0.53755116 -0.24575438 -0.8902653 -0.08347819
0.38843566 -0.53667736 -0.78120667 0.72750735 0.27046946 -1.0844226 -0.74196076 0.22870028
-0.028906718 -0.5714645 0.30674383 -0.27358177 -0.49358317 0.3227275 -0.75960594 -0.6725732
-0.3417005 -0.9151323 -0.3663086 -1.1406794 -0.5519716 -0.45638922 -0.026178148 0.30048576
0.07933771 -0.8156065 -0.67639357 -0.7733542 -0.34324244 -0.19437575 -0.5210105 0.4852419
0.02796521 0.10583225 -0.61203396 -0.19673331 0.29878736 -0.09838321 0.47716227 0.5688939
-0.3165751 -0.08566766 -0.12081517 -0.3351742 -0.89694273 -0.16635896 -0.05868541 -0.4516254
-0.8487869 -0.46583188 -0.21743353 -0.6629413 -0.6314598 -0.94907033 0.11804237 -0.17829894
-0.08483508 -0.97054887 0.41857636 0.20445064 -0.743685 -0.16792801 -0.51112306 -0.299573
0.17564155 -0.08491673 -0.40685722 -0.5651835 0.51603174 0.31302443 -0.72643197 -0.56785613
-0.42019594 -0.17300564 0.09306518 -0.12874988 -0.0039778743 0.5025812 -0.15308817 0.109386474
0.15269816 -0.88959146 0.054601543 0.62077785 -1.1086577 0.07109875 -0.46532834 0.22255738
0.024291107 0.08323181 -0.82075816 -0.37265635 -0.46966332 0.23495613 -0.7435039 -1.213406
-0.4721341 -0.30362365 -0.24889317 0.23034622 -0.23159596 0.26704505 -0.08139679 -0.118001476
-0.46129686 -0.5214799 -0.06835477 -0.6537503 -0.6965063 -0.78958917 -0.753239 0.054964732
00000000: 1b04 03be 09f6 3a3e d20a 0cbf 73a7 27bf
00000010: cc8c 1fbe 49cd c33d 0d2d 13bf c3b0 c53e
00000020: 6fd5 99bf 3916 44bf 116d 4bbf f1bc 84bf
00000030: 8a04 ab3e 2c5c 1cbe 191f 98bb f223 d4bc
00000040: ecd0 4dbf e2bc 543e 58ed b33d 77ba a2be
00000050: 8fe8 cb3e cc87 71be db3f 23bf db52 26bf
00000060: c769 afbe 8aca 5b3e 6406 8bbe d56b edbe
00000070: e19f 01bf 7cc5 36be 1fe3 b33e eeca 833e
00000080: 2d0d d33e 3e74 143e 5133 9f3e 8686 95be
00000090: 3e46 d2be 9369 8fbe 403e 133f 6639 aebc
000000a0: 4cf9 e63d b34c 55bf 5ca4 83bf 6d62 35bf
000000b0: 96e5 dabe c448 eabe c081 49bf de2c 13bf
000000c0: b9e9 8e3e 1433 43be 733c 29bf 6688 0cbf
000000d0: f2fc 1abb 6cf3 373e a8c6 f6be 3953 1dbf
000000e0: a6cd 23be 2599 093f bf45 b2bd 59a1 06bf
000000f0: 95b5 1bbf a87c 2dbd 3879 943e 0d95 75be
00000100: 340a 0dbf ec4a a3be 7dca 59bf 4a70 36bf
00000110: fef7 b03e 71cb 393e 3b1c d2bd a2d3 a7be
00000120: 5511 c83e e9bb 64be 7200 c2bd 3685 28bf
00000130: 85b1 47be f37a 25bc de9a 56bf d23c 50bf
00000140: 14f0 bf3e 3840 6abe a6ce 45bf 6de1 a4bf
00000150: 0861 31bf 63c7 aabe 9961 113d c447 033f
00000160: 69cb 20bf 153f 1f3e ecfd ecbe 6c86 9a3e
00000170: 6a6c d9bd 59f3 19bf e737 09bf 80b0 dbbe
00000180: 9518 483d 348f 79bf 3d05 993e 287d a7bc
00000190: dc58 f4bb 04d0 24bf da47 f03e 319b 72be
000001a0: 0553 4bbe c7a9 263e 3ba0 dfbe c490 a13e
000001b0: da35 26bf fb42 f13e 7ebb 533e 2684 0a3e
000001c0: 8292 d2be 1184 b03e e1f7 163f 7cf3 6dbd
000001d0: 3e76 edbe 8d37 6c3e c4e2 92bd 40cb 6ebd
000001e0: e3dc 1dbf d15f 07be e5bf 27bf 1586 42bf
000001f0: 8632 203f f84a b13e fc4c 443e 7254 33bf
00000200: 33b3 b23d aa8f 66bf 3ade 18bd 8542 ef3e
00000210: de4b 2bbf 3f7e 693e 779f dbbe 0e07 06bf
00000220: 70d8 27bf 3ee4 2abf 1e65 71bd 717d ddbd
00000230: f49c 09bf 09a7 7bbe 6de8 63bf 9df6 aabd
00000240: 0ae1 c63e b063 09bf 29fd 47bf ec3d 3a3f
00000250: f97a 8a3e 5cce 8abf 24f1 3dbf 6830 6a3e
00000260: c8cd ecbc 7f4b 12bf 870d 9d3e e912 8cbe
00000270: efb6 fcbe 8a3c a53e 8975 42bf c22d 2cbf
00000280: 5ef3 aebe 1c46 6abf cd8c bbbe c801 92bf
00000290: 034e 0dbf d9ab e9be 8e73 d6bc 45d9 993e
000002a0: cf7b a23d 96cb 50bf 2128 2dbf 8afa 45bf
000002b0: 79bd afbe 700a 47be f260 05bf a071 f83e
000002c0: 4c17 e53c 94be d83d 42ae 1cbf 7574 49be
000002d0: a8fa 983e 237d c9bd 9d4e f43e 08a3 113f
000002e0: 2216 a2be 8772 afbd f26d f7bd f49b abbe
000002f0: 0a9e 65bf 015a 2abe 1d60 70bd 723b e7be
00000300: 194a 59bf 8481 eebe e5a6 5ebe 85b6 29bf
00000310: 59a7 21bf 46f6 72bf 33c0 f13d ff93 36be
00000320: 04be adbd e475 78bf a44f d63e 825b 513e
00000330: 2462 3ebf 52f5 2bbe f6d8 02bf a261 99be
00000340: 61db 333e d3e8 adbd 974f d0be deaf 10bf
00000350: a81a 043f bd44 a03e 72f7 39bf 055f 11bf
00000360: ec23 d7be 6428 31be f598 be3d 02d7 03be
00000370: d458 82bb 29a9 003f 25c3 1cbe 0406 e03d
00000380: e85c 1c3e 44bc 63bf dea5 5f3d 4ceb 1e3f
00000390: 7fe8 8dbf 399c 913d 843f eebe 15e6 633e
000003a0: 25fe c63c 7075 aa3d 351d 52bf d0cc bebe
000003b0: b677 f0be 5798 703e 4656 3ebf e350 9bbf
000003c0: 90bb f1be 8f74 9bbe dadd 7ebe e1df 6b3e
000003d0: 7e27 6dbe 21ba 883e 5cb3 a6bd c2aa f1bd
000003e0: 1a2f ecbe b57f 05bf 96fd 8bbd 2e5c 27bf
000003f0: 3d4e 32bf 8422 4abf 45d4 40bf b322 613d
