tmp/ddpg/actor_ddpg.pth (torch, 511239 bytes, 10 tensors)

fc1.weight f4 [400, 11]
0.008173513 -0.29577762 0.36666277 0.08902122 0.4191619 0.70587957 0.46642494 0.4497103
0.5760493 0.5747693 0.5661431 0.5612249 -0.67530483 0.641351 -0.05921453 0.5032574
1.0361836 0.88330275 0.55015755 0.7791479 0.71755946 0.72884375 0.64938474 -0.67790216
0.40649343 -0.03442176 0.68159807 1.2411201 0.54686725 0.34004983 0.42570877 0.4015241
0.4671613 0.6644794 -0.56188947 0.22007574 -0.030799912 0.5833485 -0.54222214 0.3088766
0.41898006 -0.09430154 0.19680694 0.056241952 -0.34528673 0.06727515 -0.16407104 -0.16268751
-0.43929455 0.18448953 -0.17535222 0.40340763 0.42751166 0.3703494 0.49371332 -0.36031342
-0.24085447 0.7230356 0.075789236 0.75272274 0.55405694 0.34937072 0.44690934 0.5970159
0.56355506 0.5750098 0.36640328 -0.14265534 0.37400168 -0.013899012 0.5290375 0.721446
0.94909173 0.79719377 0.7150317 0.70205927 0.646471 0.5803039 -0.5820812 0.1926669
-0.054202724 0.5523702 0.3153384 0.66237515 0.522068 -0.09636952 0.15232588 0.068413556
0.4982282 -0.39711678 0.47965395 -0.13833395 0.7981712 1.0169144 0.81527966 0.3806321
0.4267971 0.4089706 0.38891107 0.3646442 -0.3880483 0.5527111 0.026043586 0.35717827
1.0779716 0.7395025 0.68951017 0.6604547 0.66979766 0.63493526 0.40300435 -0.51931864
0.4578405 0.032312762 0.38500294 0.73488444 0.945098 0.8109734 0.5093578 0.46986008
0.4318216 0.3888729 -0.45551762 0.5614993 0.012061551 0.42705756 -0.5086804 0.50861526
0.39567178 0.6149605 0.5672451 0.5810072 0.2927886 -0.54236287 0.48314336 -0.06094589
0.67454475 -0.3010762 0.8141626 0.35595515 0.3630668 0.39564118 0.4689317 0.34836844
-0.467551 0.71165097 -0.0134093985 0.29569843 1.2594757 0.69182974 0.2131043 0.8993227
0.92780876 0.87880254 -0.20448883 0.009980836 0.041628588 0.2719566 0.46397004 0.32501215
0.42256245 0.20898014 0.25768012 0.3561266 0.21576001 0.39744976 -0.37153387 0.5244366
0.10718536 0.75288105 0.4686195 0.51007473 0.6922147 -0.4510874 -0.34654564 -0.2220687
0.29718536 -0.72157973 0.32639563 0.11051278 0.49205223 -0.23861185 0.33893687 0.100230575
0.14952305 0.16468617 0.16353206 -0.2352483 0.08607251 -0.023809243 -0.16911136 0.18696167
0.4528732 0.18045166 0.49532473 0.33928823 0.22696611 0.3714397 0.49890688 -0.5638456
0.72915834 0.006863375 0.49740002 0.83805764 1.0571898 1.1117508 0.6851665 0.60437995
0.55620325 1.3901716 -1.4254049 1.2622495 -0.29876497 1.5624303 1.3393447 1.0539713
0.9919732 1.3238586 1.5762043 1.406396 0.73208725 -0.7235545 0.5533857 -0.03280481
0.7052521 1.0546247 0.94791746 0.42601788 0.45940802 0.58906597 0.4534162 0.30678248
-0.17903776 0.5059756 0.0030588526 0.1644291 0.64889646 0.58587724 0.72779983 0.8662771
0.79972637 0.7648629 -0.37111798 -0.6095841 0.24407458 0.17818384 0.6622507 0.19024153
0.44629934 0.15943855 0.105128706 0.07444527 0.22395153 0.4662392 -0.41814804 0.36357972
00000000: 33ea 053c 2a70 97be 39bb bb3e c250 b63d
00000010: 639c d63e 86b4 343f 40cf ee3e 6e40 e63e
00000020: f877 133f 1524 133f c1ee 103f 6fac 0f3f
00000030: c7e0 2cbf 942f 243f ef8a 72bd 7ad5 003f
00000040: aaa1 843f 2120 623f 20d7 0c3f 3d76 473f
00000050: fab1 373f 8195 3a3f 143e 263f ff8a 2dbf
00000060: e81f d03e d5fd 0cbd 367d 2e3f 06dd 9e3f
00000070: 7eff 0b3f 031b ae3e 80f6 d93e 9194 cd3e
00000080: c42f ef3e 521b 2a3f fdd7 0fbf 895b 613e
00000090: 1950 fcbc 5456 153f 12cf 0abf 1325 9e3e
000000a0: 8e84 d63e 2a21 c1bd c287 493e f65d 663d
000000b0: 6cc9 b0be 8ec7 893d 3d02 28be 8e97 26be
000000c0: 37eb e0be d3ea 3c3e 888f 33be 728b ce3e
000000d0: cfe2 da3e 709e bd3e fec7 fc3e 007b b8be
000000e0: 8ea2 76be dc18 393f 6337 9b3d 70b2 403f
000000f0: add6 0d3f b8e0 b23e 4dd1 e43e 09d6 183f
00000100: 2545 103f d833 133f 3699 bb3e 3e14 12be
00000110: 267d bf3e aeb8 63bc 006f 073f afb0 383f
00000120: adf7 723f e414 4c3f 510c 373f 28ba 333f
00000130: 207f 253f cc8e 143f 4603 15bf 794a 453e
00000140: ad03 5ebd 2268 0d3f 0974 a13e 6b91 293f
00000150: 40a6 053f 625d c5bd 51fb 1b3e 681c 8c3d
00000160: c417 ff3e e452 cbbe 3495 f53e 6aa7 0dbe
00000170: f354 4c3f 402a 823f 2bb6 503f 36e2 c23e
00000180: 2685 da3e 9864 d13e 5a1f c73e a5b2 ba3e
00000190: 44ae c6be 7a7e 0d3f 5c59 d53c 12e0 b63e
000001a0: f9fa 893f 0950 3d3f bd83 303f 8f13 293f
000001b0: dc77 2b3f 1e8b 223f 9656 ce3e 11f2 04bf
000001c0: 126a ea3e 635a 043d 1b1f c53e 6321 3c3f
000001d0: f1f1 713f f49b 4f3f 4665 023f 8091 f03e
000001e0: b917 dd3e 591a c73e 9b39 e9be 6bbe 0f3f
000001f0: d09d 453c 4aa7 da3e e138 02bf 9c34 023f
00000200: 7e95 ca3e 0d6e 1d3f fa36 113f e3bc 143f
00000210: 63e8 953e 4bd8 0abf 915e f73e 66a2 79bd
00000220: f7ae 2c3f a926 9abe f66c 503f c13f b63e
00000230: e4e3 b93e 7b91 ca3e d117 f03e 595d b23e
00000240: d862 efbe c22e 363f 18b3 5bbc c965 973e
00000250: 8036 a13f c11b 313f 0338 5a3e 033a 663f
00000260: e084 6d3f 34f9 603f 8565 51be a986 233c
00000270: bd82 2a3d e53d 8b3e 7b8d ed3e fe67 a63e
00000280: 1b5a d83e e4fe 553e a6ee 833e 3a56 b63e
00000290: 31f0 5c3e 897e cb3e b039 bebe 7a41 063f
000002a0: ff83 db3d d0bc 403f e5ee ef3e 4294 023f
000002b0: fc34 313f edf4 e6be 6e6e b1be fa65 63be
000002c0: ae28 983e 73b9 38bf 541d a73e 8654 e23d
000002d0: 45ee fb3e aa56 74be 2289 ad3e b045 cd3d
000002e0: 921c 193e 7ea3 283e f374 273e eee4 70be
000002f0: c946 b03d 9a0b c3bc 872b 2dbe e172 3f3e
00000300: ffde e73e 52c8 383e 349b fd3e 30b7 ad3e
00000310: ce69 683e 582d be3e b970 ff3e 2f58 10bf
00000320: 1faa 3a3f 2ae6 e03b 37ab fe3e f28a 563f
00000330: ff51 873f da4d 8e3f 1267 2f3f a5b8 1a3f
00000340: 5663 0e3f 25f1 b13f ab73 b6bf 6491 a13f
00000350: b9f7 98be b7fd c73f a66f ab3f 88e8 863f
00000360: f5f1 7d3f 3374 a93f 10c1 c93f c904 b43f
00000370: 126a 3b3f de3a 39bf afaa 0d3f 565e 06bd
00000380: 678b 343f f1fd 863f b8aa 723f 041f da3e
00000390: 8737 eb3e 07cd 163f 2b26 e83e 9812 9d3e
000003a0: ad55 37be 9e87 013f 0877 483b 1a60 283e
000003b0: 141e 263f 0dfc 153f 1751 3a3f 56c4 5d3f
000003c0: deba 4c3f 0ece 433f 2d03 bebe b40d 1cbf
000003d0: b0ee 793e d375 363e 4389 293f adce 423e
000003e0: 5981 e43e dc43 233e b84d d73d c376 983d
000003f0: 8d53 653e e8b6 ee3e 8017 d6be 1f27 ba3e

fc1.bias f4 [400]
0.32263947 0.6061674 0.27160135 0.49162668 -0.105083145 0.69837666 0.37372825 0.5060567
0.34956944 0.4243305 0.4222438 0.52917784 0.50834733 0.54230857 0.086641625 0.68251646
0.35485795 -0.11547313 0.6425801 1.2778121 0.5031421 0.44825476 0.18035263 0.2704008
0.48010033 0.48610756 0.58964986 0.28415984 0.63615745 0.6341479 0.67065465 0.49233148
0.461171 0.54419327 0.7002471 0.5373805 0.41708755 0.3922548 0.6152207 0.7242938
0.3700519 0.46577924 0.28086677 0.6563014 0.40319398 0.47965536 0.54727155 0.5704323
0.46755624 0.4885283 0.6925145 0.3261071 -0.3380412 0.48182404 0.47612563 0.5392354
0.35987 0.39530566 0.32076475 0.36426502 0.7929728 0.19353443 0.44470835 0.52821517
0.27490088 0.46732324 0.46878353 0.39817515 0.4727206 0.58813125 0.23818702 0.38999352
0.52994514 0.5481496 0.48860595 0.26343375 -0.4292306 0.5034432 0.7429777 0.6141651
0.2728714 0.5657084 0.41663128 0.9394146 0.4319768 1.0725689 0.47974315 -0.2092044
0.39383852 0.64536375 0.18162625 0.37910584 0.5964063 0.32491353 0.42567506 0.6471939
0.50376415 0.59470147 0.5108888 0.47587007 0.60387224 0.43985236 0.37543073 0.17120263
0.52873635 0.3324372 0.60380745 0.43499136 0.56129336 0.43559098 0.39825493 0.47783104
0.34886461 0.35749847 0.53911567 0.49619696 0.5047072 0.63001204 0.26144767 0.5673213
0.8582607 0.5030618 0.3527459 0.4649156 0.5190396 0.40166432 0.31896394 0.50233406
0.2621979 0.16765286 0.5292297 0.22901654 0.60094786 0.599692 0.6403732 0.4949051
-0.25347364 0.48441488 0.6747982 0.34275287 0.20712319 0.27779448 0.50113124 0.4416427
0.32577103 0.45155323 0.45703128 0.69668406 0.24980535 0.61838406 0.53297526 0.46527827
0.39037898 0.3886836 0.28993395 0.6866625 0.5477857 0.45863068 0.46653697 0.38383058
0.6951346 0.63150054 0.60750896 0.5427501 0.5288552 0.66655344 0.36404875 0.38876966
0.49365252 0.24090824 0.61748457 0.3280733 0.35680094 0.46005565 0.35968125 0.18629766
0.34633347 -0.0056957467 0.37370184 0.46255827 0.34324574 0.5275197 0.6299628 0.45085412
0.5377978 0.61887753 0.81498563 0.7002355 0.4420319 -0.16485642 0.47365594 0.3261813
0.45691332 0.39076734 0.5544468 0.5196739 0.3420691 0.33086658 0.64532346 0.29830706
0.41212615 0.6891124 1.479395 0.3519388 0.38984415 0.63284606 0.5695877 0.99680275
0.6562126 0.11102654 0.39463404 0.22614977 0.86045516 0.6438832 0.78245217 0.46601006
0.37144673 0.55955064 0.46294224 0.2897146 0.3384477 0.56779677 0.17991589 0.43051973
0.5360428 0.40972665 0.47177607 0.5668359 0.54922915 0.13332295 0.55321443 0.70106727
0.5158682 0.50845003 0.34094056 0.5318927 0.46976024 0.07046118 0.48078996 0.26998603
0.77899003 0.4941997 0.64081794 0.8508382 0.25866938 0.24975356 0.7701863 0.61610585
0.024624709 0.59851944 0.27943513 0.41709957 0.27095398 0.5063268 0.74386895 0.9164705
00000000: 0031 a53e c92d 1b3f 550f 8b3e 7eb6 fb3e
00000010: d535 d7bd d0c8 323f 4f59 bf3e ef8c 013f
00000020: c4fa b23e d941 d93e 5730 d83e 3378 073f
00000030: 0d23 023f bcd4 0a3f 2a71 b13d 66b9 2e3f
00000040: f1af b53e 2d7d ecbd 2180 243f 598f a33f
00000050: eccd 003f a681 e53e 5cae 383e f971 8a3e
00000060: b6cf f53e 17e3 f83e 4bf3 163f 667d 913e
00000070: 37db 223f 8457 223f 06b0 2b3f df12 fc3e
00000080: 9b1e ec3e 4050 0b3f 6543 333f c591 093f
00000090: 808c d53e 9fd5 c83e 1b7f 1d3f 526b 393f
000000a0: 7177 bd3e 9e7a ee3e c5cd 8f3e 5e03 283f
000000b0: 716f ce3e 6395 f53e fd19 0c3f da07 123f
000000c0: 8863 ef3e 6220 fa3e a148 313f 83f7 a63e
000000d0: bc13 adbe a4b1 f63e bdc6 f33e 550b 0a3f
000000e0: e140 b83e 8165 ca3e 473b a43e f280 ba3e
000000f0: 4400 4b3f e42d 463e d0b0 e33e 1c39 073f
00000100: cfbf 8c3e fe44 ef3e 6504 f03e 9ddd cb3e
00000110: 6f08 f23e c58f 163f 4ce7 733e 3bad c73e
00000120: 7caa 073f 8853 0c3f 8f2a fa3e cae0 863e
00000130: 1dc4 dbbe a7e1 003f c933 3e3f ed39 1d3f
00000140: cdb5 8b3e 44d2 103f b250 d53e 7a7d 703f
00000150: 102c dd3e f049 893f e5a0 f53e ae39 56be
00000160: 34a5 c93e 8f36 253f 3bfc 393e 291a c23e
00000170: 15ae 183f 115b a63e 15f2 d93e 80ae 253f
00000180: b0f6 003f 5b3e 183f 9cc9 023f 3ea5 f33e
00000190: 5f97 1a3f 5434 e13e 7538 c03e be4f 2f3e
000001a0: 445b 073f 3535 aa3e 2093 1a3f 30b7 de3e
000001b0: ecb0 0f3f c805 df3e 12e8 cb3e 45a6 f43e
000001c0: 629e b23e 0a0a b73e 7c03 0a3f 870d fe3e
000001d0: 7e34 013f 7848 213f 78dc 853e f83b 113f
000001e0: f9b6 5b3f a8c8 003f 1c9b b43e 6b09 ee3e
000001f0: c7df 043f f2a6 cd3e 3e4f a33e f798 003f
00000200: ce3e 863e 31ad 2b3e 997b 073f 5083 6a3e
00000210: b8d7 193f 6a85 193f 7fef 233f 3464 fd3e
00000220: 4cc7 81be 3a05 f83e 93bf 2c3f 4e7d af3e
00000230: 1a18 543e 143b 8e3e 234a 003f fe1e e23e
00000240: 76cb a63e fc31 e73e 0100 ea3e e359 323f
00000250: f9cc 7f3e 6b4e 1e3f 1171 083f f438 ee3e
00000260: c1df c73e 8901 c73e 3972 943e 1dc9 2f3f
00000270: af3b 0c3f a4d1 ea3e efdd ee3e 7185 c43e
00000280: 57f4 313f 05aa 213f b585 1b3f acf1 0a3f
00000290: 0e63 073f 3fa3 2a3f 9964 ba3e d10c c73e
000002a0: 06c0 fc3e a6b0 763e 7813 1e3f 39f9 a73e
000002b0: 9dae b63e 6a8c eb3e 2428 b83e d0c4 3e3e
000002c0: 9f52 b13e 63a3 babb d955 bf3e 70d4 ec3e
000002d0: e8bd af3e 880b 073f 3e45 213f 5ad6 e63e
000002e0: 1ead 093f c26e 1e3f e6a2 503f a242 333f
000002f0: 0152 e23e 1fd0 28be 0883 f23e 3c01 a73e
00000300: 8bf0 e93e a812 c83e 3af0 0d3f 5909 053f
00000310: ae23 af3e 5867 a93e eb33 253f b4bb 983e
00000320: 3302 d33e ac69 303f d15c bd3f 5331 b43e
00000330: a799 c73e 3302 223f 80d0 113f 772e 7f3f
00000340: 8dfd 273f e261 e33d 790d ca3e ce93 673e
00000350: ca46 5c3f 88d5 243f c94e 483f df98 ee3e
00000360: 442e be3e b63e 0f3f c406 ed3e 7955 943e
00000370: 0449 ad3e 215b 113f df3b 383e 156d dc3e
00000380: 1a3a 093f b1c7 d13e a28c f13e 281c 113f
00000390: 489a 0c3f d085 083e 769f 0d3f 2579 333f
000003a0: f00f 043f c829 023f c38f ae3e 1f2a 083f
000003b0: 6a84 f03e f34d 903d 1a2a f63e 9c3b 8a3e
000003c0: e46b 473f be07 fd3e a50c 243f 88d0 593f
000003d0: 5070 843e 66bf 7f3e ee2a 453f 1db9 1d3f
000003e0: c2b9 c93c 9238 193f 1f12 8f3e 138e d53e
000003f0: 7bba 8a3e a29e 013f 326e 3e3f d09d 6a3f

fc2.weight f4 [300, 400]
1.5733416 0.27283493 1.2321749 0.13715436 1.1873217 1.250541 1.6248816 0.48584542
1.4356287 1.859663 0.8613927 1.1844326 0.6419687 1.7436237 1.153332 0.75615823
0.81947327 1.1526858 1.0209324 1.160072 1.0477159 1.866476 0.56369424 1.1271669
0.75320786 1.629452 1.4988618 2.1044927 1.3118812 1.0347004 1.6787244 0.9599452
0.93437827 1.6844007 2.2313657 1.5932839 -0.008868412 1.3351209 1.0480582 1.0476928
0.62226886 1.7973571 0.8521251 1.1732486 0.95666236 1.6481079 1.4791021 0.86981523
1.4617559 0.8367047 0.9770241 1.3268267 0.9752665 0.8495078 2.3124437 0.9040052
1.8898706 0.62284666 0.5018172 1.6903642 1.4198312 0.72748375 0.49717358 0.3460796
1.6485609 0.98621774 1.5300326 1.5918354 0.84700704 0.95955503 1.3052899 0.5243874
1.1794096 -0.53998286 0.49797904 1.5995853 0.8525869 1.4046668 0.6562846 1.6425865
1.501032 1.3454521 -0.068283916 1.8129383 0.8926951 0.7775504 1.1680367 1.0476187
0.4906409 0.42125937 1.2856858 1.4319481 0.48196808 1.773961 1.4725997 0.47849518
0.73850214 0.6577808 1.8503907 0.8673544 1.4710929 1.1665604 1.3937706 1.238102
0.9968607 1.3991513 1.6518453 1.7103 1.1410522 1.2295228 0.96607345 0.42267266
1.5120018 0.9378409 1.264519 0.9980835 1.3919079 0.83316904 1.5722238 0.6073857
1.3825034 0.69908065 0.4000691 0.93999773 1.2806304 0.9241105 1.0380979 0.60342926
0.5739416 1.1094766 1.0702279 1.3298221 1.1603049 1.2188417 0.643622 1.0943685
1.2872534 0.5344623 1.8500636 0.89481133 0.36903366 1.4751011 0.6113819 0.5518359
0.55432504 0.59830457 1.2034727 1.0872023 1.382373 1.3580408 1.0487128 1.5563246
1.2554561 0.99910766 1.2088385 1.3606647 1.578672 0.53580755 1.2579782 0.8244432
0.772937 1.4560406 0.34795785 0.9336182 1.8396971 -0.009418027 0.29921502 1.1074224
0.88058543 1.2437756 0.3830862 0.68669283 1.2530843 1.909339 1.3394854 1.2726214
1.1062511 0.7517786 0.4561185 0.934367 1.2744011 0.36355278 2.1174114 0.96338767
0.27207223 1.0702043 -0.3357266 1.1679466 1.2752771 1.6417178 2.0279357 1.5019487
1.5867653 0.9580506 1.4157728 1.4092097 0.69450384 1.1314056 0.89480525 1.1270025
0.64172536 1.0028144 1.1008613 1.8688257 0.9932836 1.202865 1.5948539 0.5173419
0.8530754 1.0692782 1.1081451 1.575819 1.263546 0.7052539 1.237992 0.40463105
0.65062076 0.66205436 0.9367192 0.66354394 1.3487585 0.45192036 1.6239522 0.60749483
1.4037122 0.99244726 1.3257035 1.2381483 0.97247267 0.8287048 1.146953 1.3215667
1.6703216 1.2985806 1.8447948 1.5808668 -0.4046471 1.2130119 0.640329 1.4540116
1.1056271 0.80955285 1.5989848 1.3571874 1.357903 1.3689777 0.65515375 1.4757663
1.3319956 1.4202052 1.2559423 -0.30194673 1.8097544 0.1700626 0.82139283 0.8836424
00000000: 4263 c93f 05b1 8b3e e8b7 9d3f 3172 0c3e
00000010: 28fa 973f ba11 a03f 1ffc cf3f bbc0 f83e
00000020: aec2 b73f 7009 ee3f 3b84 5c3f 7d9b 973f
00000030: 1058 243f 102f df3f 62a0 933f 9693 413f
00000040: 00c9 513f 358b 933f eaad 823f 3d7d 943f
00000050: 8e1b 863f b0e8 ee3f 444e 103f 0147 903f
00000060: 3bd2 403f e291 d03f b4da bf3f 02b0 0640
00000070: b9eb a73f 1071 843f 71e0 d63f f8be 753f
00000080: 6a33 6f3f 719a d73f b2ce 0e40 baf0 cb3f
00000090: d14c 11bc 3ee5 aa3f c526 863f cc1a 863f
000000a0: 034d 1f3f cc0f e63f df24 5a3f 032d 963f
000000b0: d3e7 743f 33f5 d23f 3853 bd3f 36ac 5e3f
000000c0: d11a bb3f 4732 563f 401e 7a3f 75d5 a93f
000000d0: 11ab 793f 5879 593f 14ff 1340 e36c 673f
000000e0: 48e7 f13f e172 1f3f 1877 003f db5d d83f
000000f0: 07bd b53f 603c 3a3f 898d fe3e 5831 b13e
00000100: 0b04 d33f c478 7c3f 1cd8 c33f 43c1 cb3f
00000110: 74d5 583f 66a5 753f bd13 a73f 413e 063f
00000120: e5f6 963f 513c 0abf 1cf7 fe3e 36bf cc3f
00000130: 2343 5a3f 1fcc b33f 4402 283f 4640 d23f
00000140: d121 c03f c637 ac3f 70d8 8bbd 5d0e e83f
00000150: ab87 643f 8b0d 473f 3a82 953f 5f18 863f
00000160: 4935 fb3e 4faf d73e 5a91 a43f 134a b73f
00000170: 85c4 f63e 2711 e33f 267e bc3f 52fd f43e
00000180: 7a0e 3d3f 5364 283f 9ad9 ec3f f00a 5e3f
00000190: c64c bc3f da51 953f 1367 b23f 207a 9e3f
000001a0: 4332 7f3f 6417 b33f ab6f d33f 1ceb da3f
000001b0: 000e 923f 0161 9d3f 9750 773f 8d68 d83e
000001c0: 4689 c13f 5716 703f c2db a13f 6682 7f3f
000001d0: 0a2a b23f 914a 553f a13e c93f a17d 1b3f
000001e0: dff5 b03f f3f6 323f dbd5 cc3e b1a3 703f
000001f0: b2eb a33f 8192 6c3f 64e0 843f 577a 1a3f
00000200: d6ed 123f 5403 8e3f 3afd 883f 9c37 aa3f
00000210: df84 943f 0103 9c3f 69c4 243f 4414 8c3f
00000220: b8c4 a43f 85d2 083f e2ce ec3f 5b12 653f
00000230: fbf1 bc3e 1dd0 bc3f 8683 1c3f 1e45 0d3f
00000240: 3fe8 0d3f 7d2a 193f 650b 9a3f 7229 8b3f
00000250: 99f1 b03f 48d4 ad3f 393c 863f a535 c73f
00000260: c9b2 a03f 85c5 7f3f 38bb 9a3f 432a ae3f
00000270: ed11 ca3f af2a 093f 6e05 a13f b60e 533f
00000280: 33df 453f 8a5f ba3f 8827 b23e 9a01 6f3f
00000290: 327b eb3f 114e 1abc b632 993e 04c0 8d3f
000002a0: 0c6e 613f 0a34 9f3f e023 c43e 1acb 2f3f
000002b0: 1165 a03f 3865 f43f 4274 ab3f 42e5 a23f
000002c0: a399 8d3f 9074 403f 5d88 e93e ad32 6f3f
000002d0: 931f a33f 9723 ba3e ab83 0740 93a0 763f
000002e0: 0d4d 8b3e 74fc 883f 5be4 abbe 467f 953f
000002f0: 483c a33f cf23 d23f b3c9 0140 db3f c03f
00000300: 201b cb3f ce42 753f 0b38 b53f fc60 b43f
00000310: 01cb 313f e6d1 903f f511 653f 9e41 903f
00000320: 1d48 243f 395c 803f 06e9 8c3f ae35 ef3f
00000330: d647 7e3f 7bf7 993f 2c24 cc3f 8570 043f
00000340: 2663 5a3f 1cde 883f b3d7 8d3f 70b4 c93f
00000350: e0bb a13f 858b 343f 8676 9e3f cd2b cf3e
00000360: 158f 263f 657c 293f d4cc 6f3f 04de 293f
00000370: 1ea4 ac3f 1b62 e73e aadd cf3f c884 1b3f
00000380: d7ac b33f 0611 7e3f a7b0 a93f a57b 9e3f
00000390: f8f3 783f ff25 543f 5bcf 923f 1929 a93f
000003a0: 19cd d53f e437 a63f 3c22 ec3f d859 ca3f
000003b0: e82d cfbe f943 9b3f 9aec 233f 0d1d ba3f
000003c0: 3085 8d3f db3e 4f3f 89ab cc3f 51b8 ad3f
000003d0: c4cf ad3f a93a af3f 28b8 273f e9e5 bc3f
000003e0: d57e aa3f 49c9 b53f b8c2 a03f c398 9abe
000003f0: 08a6 e73f e424 2e3e cd46 523f 6336 623f

fc2.bias f4 [300]
1.1779393 1.3235595 1.3968374 1.1007609 1.5153536 1.4049573 1.4955821 1.4958936
1.3270081 1.4349014 1.4459003 1.565876 1.2847353 1.3644929 1.4786152 1.5410924
1.2850713 1.4675914 1.0274471 1.3168118 1.5010622 1.6448736 1.1835318 1.3380283
1.6279591 1.3618934 1.6687287 1.4761031 1.3613994 1.3277786 1.1281048 1.5329987
1.2336314 1.2175801 1.4294523 1.1982601 1.5378397 1.5078651 1.3362892 1.1063055
1.0535475 1.4725584 1.3828843 1.2758337 1.3279128 1.3466543 1.061749 1.3734406
1.4526368 1.3372344 1.4036115 1.4015003 1.3818998 1.618398 1.3644304 1.425702
1.4566822 1.4513068 1.590091 1.2467761 1.4284277 1.6837059 1.4347364 1.2489451
1.6871917 1.4753684 1.4093846 1.2849531 1.3029481 1.3121144 1.4537503 1.2823904
1.3551662 1.4453073 1.3143514 1.4642402 1.4711453 1.4866353 1.4365093 1.1479005
1.1108047 1.332342 1.5598489 1.5960194 1.2676121 1.3502755 1.4324225 1.1805747
1.4924155 1.1716406 1.3322823 1.5044786 1.5862664 1.3629075 1.0492928 1.249935
1.3656527 1.5061026 1.3475484 1.2903672 1.2281209 1.608189 1.420955 1.0881345
1.406139 1.5257541 1.3100789 1.4280269 1.3344102 1.4324756 1.2776728 1.3261101
1.3021252 1.1125199 1.231146 1.3235335 1.257166 1.2810255 1.2700993 1.1558192
1.3409313 1.54361 1.3288636 1.3900245 1.3814751 1.0377403 1.408891 1.5562056
1.3707776 1.4260323 1.3889006 1.5875168 1.0452328 1.5415298 1.2824068 1.4885308
1.3986212 1.5234613 1.3567222 1.6985173 1.0493526 1.5131567 1.3515471 1.1862947
1.3643967 1.4031558 1.3261648 1.3721936 1.290812 1.2707984 1.1783184 1.1600169
1.217546 1.3439633 1.4720458 1.3257635 1.2234281 1.4062092 1.5332972 1.528614
1.4875355 1.1830285 1.3247306 1.2532358 1.5217502 1.2621592 1.3846127 1.3151318
1.4846528 1.282985 1.4854007 1.3275266 1.2985759 1.2087114 1.4181211 1.2420437
1.6733923 1.5103562 1.2803148 1.4303222 1.5259798 1.3003554 1.4152889 1.3704623
1.4333333 1.4622167 1.3805604 1.4843675 1.5552275 1.4730123 1.51477 1.2787832
1.3495498 1.2811974 1.4569756 1.340002 1.2767596 1.5025384 1.1603959 1.230161
1.5073317 1.3990943 1.2586441 1.2397686 1.683896 1.3687555 1.3208172 1.5233927
1.2405156 1.4867253 1.6469781 1.3734581 1.1899141 1.1970705 1.1864427 1.2179492
1.0177749 1.456072 1.2483672 1.4665072 1.3532845 1.4487562 1.3957709 1.3711553
1.2395455 1.4814912 1.4067181 1.3225332 1.4088383 1.3622435 1.3113002 1.4059596
1.1439728 1.512092 1.4324265 1.493521 1.1992065 1.6110494 1.4118582 1.464035
1.2361068 1.2906756 1.4912513 1.3666917 1.4585774 1.4046311 1.5801998 1.175149
1.3753579 1.2140483 1.2466279 1.283111 1.2983731 1.121411 1.2392848 1.2035768
00000000: b7c6 963f 666a a93f 91cb b23f bce5 8c3f
00000010: 1bf7 c13f a4d5 b33f 3c6f bf3f 7179 bf3f
00000020: 67db a93f d9aa b73f 4313 b93f a06e c83f
00000030: 3572 a43f b4a7 ae3f 4343 bd3f 8442 c53f
00000040: 377d a43f 09da bb3f 6383 833f 4a8d a83f
00000050: ce22 c03f 388b d23f f87d 973f 8344 ab3f
00000060: f760 d03f 8652 ae3f e798 d53f f2f0 bc3f
00000070: 5642 ae3f a6f4 a93f bd65 903f 4d39 c43f
00000080: a2e7 9d3f aad9 9b3f 4bf8 b63f 9660 993f
00000090: eed7 c43f b901 c13f 860b ab3f 6b9b 8d3f
000000a0: a5da 863f cb7c bc3f 5a02 b13f 854e a33f
000000b0: 0cf9 a93f 2b5f ac3f 64e7 873f e7cc af3f
000000c0: 01f0 b93f 7f2a ab3f 8ba9 b33f 5d64 b33f
000000d0: 18e2 b03f aa27 cf3f a8a5 ae3f 677d b63f
000000e0: 9074 ba3f 6cc4 b93f 1a88 cb3f 5c96 9f3f
000000f0: b8d6 b63f ad83 d73f 71a5 b73f 6fdd 9f3f
00000100: e6f5 d73f dfd8 bc3f b766 b43f 5879 a43f
00000110: 01c7 a63f 5df3 a73f 7d14 ba3f 5e25 a43f
00000120: 1676 ad3f d4ff b83f ab3c a83f 396c bb3f
00000130: 7d4e bc3f 114a be3f 89df b73f 67ee 923f
00000140: d92e 8e3f 2f8a aa3f 21a9 c73f 5d4a cc3f
00000150: 1d41 a23f d4d5 ac3f 9f59 b73f 121d 973f
00000160: 7907 bf3f 52f8 953f 3a88 aa3f c192 c03f
00000170: c70a cb3f c173 ae3f 3a4f 863f dffd 9f3f
00000180: b5cd ae3f f8c7 c03f 777c ac3f c12a a53f
00000190: 1133 9d3f 23d9 cd3f dae1 b53f fe47 8b3f
000001a0: 5dfc b33f e94b c33f aab0 a73f 96c9 b63f
000001b0: f4cd aa3f 5c5b b73f c88a a33f fabd a93f
000001c0: 0aac a63f 0d67 8e3f 3196 9d3f 8c69 a93f
000001d0: d1ea a03f a5f8 a33f 9d92 a23f e2f1 933f
000001e0: a3a3 ab3f 0395 c53f 3418 aa3f 53ec b13f
000001f0: 2dd4 b03f add4 843f 8a56 b43f bf31 c73f
00000200: a475 af3f 3a88 b63f 7fc7 b13f c033 cb3f
00000210: 30ca 853f d950 c53f e825 a43f 2d88 be3f
00000220: 0506 b33f c800 c33f 13a9 ad3f 0469 d93f
00000230: 3051 863f 1eaf c13f 7fff ac3f 81d8 973f
00000240: 8da4 ae3f 9c9a b33f c5bf a93f 0aa4 af3f
00000250: 5439 a53f 86a9 a23f 23d3 963f 6f7b 943f
00000260: 8cd8 9b3f fd06 ac3f ff6b bc3f 9eb2 a93f
00000270: 4b99 9c3f aafe b33f 1543 c43f a0a9 c33f
00000280: 9067 be3f 7a6d 973f c690 a93f 086a a03f
00000290: b6c8 c23f 6f8e a13f fd3a b13f 3d56 a83f
000002a0: 1a09 be3f da38 a43f 9c21 be3f 64ec a93f
000002b0: bc37 a63f 0eb7 9a3f fe84 b53f 4afb 9e3f
000002c0: b831 d63f 5a53 c13f 5be1 a33f cc14 b73f
000002d0: 4e53 c33f 0c72 a63f 3028 b53f 4f6b af3f
000002e0: 7777 b73f eb29 bb3f 34b6 b03f c1ff bd3f
000002f0: b211 c73f ab8b bc3f fce3 c13f 2baf a33f
00000300: 0cbe ac3f 47fe a33f 2d7e ba3f 2f85 ab3f
00000310: dc6c a33f 2e53 c03f da87 943f ea75 9d3f
00000320: 3ff0 c03f 8615 b33f 401b a13f bdb0 9e3f
00000330: e789 d73f 6133 af3f 8a10 a93f 88fe c23f
00000340: 37c9 9e3f 044d be3f 2ed0 d23f 7acd af3f
00000350: 1b4f 983f 9b39 993f 5bdd 973f c2e5 9b3f
00000360: 7346 823f 9160 ba3f 7fca 9f3f 82b6 bb3f
00000370: 6d38 ad3f d870 b93f 9fa8 b23f 0482 af3f
00000380: 6da9 9e3f 81a1 bd3f 570f b43f c548 a93f
00000390: d054 b43f ff5d ae3f afd8 a73f 7cf6 b33f
000003a0: b36d 923f 3b8c c13f c059 b73f b22b bf3f
000003b0: 997f 993f de36 ce3f c5b7 b43f 8065 bb3f
000003c0: bf38 9e3f dc34 a53f 53e1 be3f c1ef ae3f
000003d0: aab2 ba3f f4ca b33f fd43 ca3f 486b 963f
000003e0: ba0b b03f ef65 9b3f 8191 9f3f fb3c a43f
000003f0: 1731 a63f 658a 8f3f e2a0 9e3f ce0e 9a3f

bn1.weight f4 [400]
1.0212951 0.8584613 0.6780792 1.9774742 1.7756001 1.6783613 1.6053783 1.4562163
0.6186128 1.1680033 1.1173177 1.7210121 0.96331567 1.0027406 0.95006156 3.1737194
1.3887938 1.3388617 0.7484016 0.14274487 0.61536485 2.4785707 1.6949476 0.95423514
0.7476012 1.4075485 1.4639832 1.4157841 0.40070006 1.4280118 1.5328552 1.4187343
1.1654197 1.1945341 1.6895641 1.2996229 2.067406 0.95357144 0.59790117 1.865101
1.8897758 1.6638299 1.9212627 0.4292798 1.5425999 1.5988592 1.1081338 1.4925745
0.88164496 0.7899205 0.36940345 1.561681 1.0830408 0.60662293 2.1417203 1.1182053
1.3067129 1.3640258 1.4853826 1.5647807 0.4173996 2.022187 1.3050594 0.9030947
2.0411353 0.90659577 1.5767428 0.89307785 1.809025 1.0966452 1.2961797 1.271892
1.0421956 2.5549667 1.7190218 1.6258501 1.2239782 1.9064232 2.1606405 0.71378165
1.2607147 0.5499108 2.738795 0.23441882 1.350053 0.24112883 0.713603 0.8579568
0.6123019 1.8177032 1.378677 0.7949903 0.81367844 1.1792976 1.2460057 1.3376249
1.1406345 0.8561155 1.7195861 0.8385764 1.107294 1.6547146 1.3638182 1.70918
1.1954042 0.9408197 2.0372014 1.7038513 1.2702729 1.1384273 1.3926156 1.5192004
1.1954489 0.87153405 1.2044442 1.5929414 1.6566459 1.2059846 0.98356533 1.4671526
0.35869616 1.5049984 1.4311565 1.6201152 1.0382302 0.5453779 1.1679024 3.8342435
1.771024 1.0457997 1.2094691 1.2731276 1.4585481 1.0631628 0.9106261 1.2666904
1.0743405 1.4740416 2.1610675 1.2633864 1.523595 0.8783263 1.031079 2.0345666
1.0850161 1.213958 0.64054096 0.57016355 1.3621291 1.4748944 1.3587618 1.0883255
1.0572021 0.5884549 1.6459144 0.8064434 1.4042797 0.8328434 0.65349287 0.5228922
0.897827 1.7500262 0.76979446 0.7060749 1.4393138 2.6299052 1.3204175 0.9760737
1.007256 1.5264792 1.8024815 0.86514544 1.6696203 1.4991518 1.2893955 0.7188915
3.498419 0.89759725 1.4691685 0.60000086 1.6079144 1.0024614 1.7286596 1.1858304
1.610402 0.68149847 3.164546 0.59352356 0.98483574 0.9433554 1.4042877 1.1847825
1.682067 1.2792822 1.5034128 0.7419742 1.0663916 1.0812739 1.1062752 0.7731405
1.2415242 1.5007304 0.15541247 1.4401164 1.4889965 1.1509477 1.0694728 2.439632
1.1865082 1.7561045 1.0561032 1.0037699 0.28070465 1.3687351 0.43277845 0.49283093
1.5319527 1.7690508 1.3096702 0.88392705 0.78529924 1.596253 1.477071 0.8615631
0.6316751 1.229394 0.7426637 0.818524 3.6415372 1.552147 0.98047775 0.5959253
1.8119171 0.58148706 1.2514638 1.6893339 3.0818532 0.9752917 1.097747 0.7059917
1.8238363 1.6833644 0.52377456 0.90383 0.81056875 1.050713 0.436779 1.106864
1.2661381 0.7857059 1.0564276 2.8284364 1.5906264 1.8044267 0.3922881 3.4650161
00000000: ccb9 823f 1fc4 5b3f 9996 2d3f e01d fd3f
00000010: dd46 e33f 8bd4 d63f 097d cd3f 4c65 ba3f
00000020: 695d 1e3f 2281 953f 4404 8f3f 204a dc3f
00000030: db9b 763f ce59 803f 3c37 733f 381e 4b40
00000040: ffc3 b13f d25f ab3f 3f97 3f3f b62b 123e
00000050: 8d88 1d3f e7a0 1e40 0bf4 d83f c148 743f
00000060: cb62 3f3f 8d2a b43f cd63 bb3f 6a38 b53f
00000070: 8f28 cd3e 17c9 b63f 9934 c43f 1699 b53f
00000080: 792c 953f 7ee6 983f a343 d83f 0b5a a63f
00000090: 6150 0440 421d 743f 0d10 193f a1bb ee3f
000000a0: 2ce4 f13f 61f8 d43f f0eb f53f 90ca db3e
000000b0: ea73 c53f 6ba7 cc3f 54d7 8d3f ae0c bf3f
000000c0: 7cb3 613f 3b38 4a3f 7322 bd3e 2ae5 c73f
000000d0: 15a1 8a3f a44b 1b3f f211 0940 5a21 8f3f
000000e0: 5e42 a73f 6698 ae3f 0421 be3f bc4a c83f
000000f0: 66b5 d53e 836b 0140 300c a73f 3731 673f
00000100: f6a1 0240 a916 683f b5d2 c93f c0a0 643f
00000110: 228e e73f df5e 8c3f 37e9 a53f 5bcd a23f
00000120: aa66 853f 9384 2340 e808 dc3f db1b d03f
00000130: 51ab 9c3f ad05 f43f ef47 0a40 65ba 363f
00000140: 195f a13f f4c6 0c3f 6b48 2f40 7d0b 703e
00000150: 89ce ac3f 7aea 763e b0ae 363f 0fa3 5b3f
00000160: d1bf 1c3f 80aa e83f 7d78 b03f 7c84 4b3f
00000170: 3b4d 503f 39f3 963f 1d7d 9f3f 4b37 ab3f
00000180: 5000 923f 632a 5b3f 661b dc3f f1ac 563f
00000190: cfbb 8d3f b0cd d33f 9891 ae3f 69c6 da3f
000001a0: 0103 993f 8fd9 703f 8261 0240 cd17 da3f
000001b0: 4d98 a23f fcb7 913f 3a41 b23f 2975 c23f
000001c0: 7804 993f db1c 5f3f 3a2b 9a3f 81e5 cb3f
000001d0: f90c d43f b45d 9a3f f0ca 7b3f a8cb bb3f
000001e0: 06a7 b73e caa3 c03f 2330 b73f ef5f cf3f
000001f0: bae4 843f e39d 0b3f d37d 953f 3f64 7540
00000200: eab0 e23f c4dc 853f e2cf 9a3f d8f5 a23f
00000210: b4b1 ba3f b815 883f cb1e 693f e922 a23f
00000220: fd83 893f 65ad bc3f ee4e 0a40 a5b6 a13f
00000230: 2905 c33f fed9 603f 66fa 833f 5736 0240
00000240: cfe1 8a3f fa62 9b3f 7efa 233f 3df6 113f
00000250: 3f5a ae3f 57c9 bc3f e8eb ad3f 404e 8b3f
00000260: 6652 873f fba4 163f 53ad d23f 1373 4e3f
00000270: 70bf b33f 3a35 553f 4f4b 273f 43dc 053f
00000280: fed7 653f dc00 e03f 4011 453f 53c1 343f
00000290: 6f3b b83f 5e50 2840 7103 a93f f7df 793f
000002a0: c4ed 803f ac63 c33f b7b7 e63f 2c7a 5d3f
000002b0: 1eb6 d53f 35e4 bf3f e90a a53f 4609 383f
000002c0: 19e6 5f40 efc8 653f b70d bc3f a899 193f
000002d0: 24d0 cd3f a850 803f b844 dd3f 4ac9 973f
000002e0: a721 ce3f af76 2e3f ec87 4a40 29f1 173f
000002f0: 321e 7c3f bd7f 713f b3bf b33f f4a6 973f
00000300: f94d d73f 85bf a33f d56f c03f 05f2 3d3f
00000310: 857f 883f 2f67 8a3f 6d9a 8d3f 89ec 453f
00000320: 44ea 9e3f ef17 c03f 7224 1f3e bc55 b83f
00000330: 7097 be3f 4152 933f 7ce4 883f ee22 1c40
00000340: 80df 973f 08c8 e03f 642e 873f 887b 803f
00000350: 85b8 8f3e b632 af3f 2395 dd3e 5654 fc3e
00000360: 0717 c43f 4270 e23f 46a3 a73f 0b49 623f
00000370: 5f09 493f 0552 cc3f aa10 bd3f 668f 5c3f
00000380: 76b5 213f c85c 9d3f 351f 3e3f ca8a 513f
00000390: f20e 6940 c1ac c63f 9700 7b3f 8f8e 183f
000003a0: e6ec e73f 56dc 143f f72f a03f 183c d83f
000003b0: 153d 4540 b8ac 793f f982 8c3f dfbb 343f
000003c0: 7873 e93f 7c78 d73f 1716 063f 6761 673f
000003d0: 6f81 4f3f c37d 863f 7fa1 df3e b8ad 8d3f
000003e0: d010 a23f 0624 493f 0539 873f 1a05 3540
000003f0: a599 cb3f 74f7 e63f fcd9 c83e d3c2 5d40

bn1.bias f4 [400]
-0.3946302 -0.7201121 -0.48681512 -0.033394493 -0.26369587 0.22420377 -0.21630964 -0.41160595
-0.5496288 -0.4597753 -0.3521447 -0.12503418 -0.48384655 -0.25291836 -0.47374627 0.18402958
-0.18150373 -0.34902734 -0.4950628 -0.7113525 -0.65384525 -0.09476351 -0.26654726 -0.16947556
-0.63948864 -0.115014575 -0.18503974 -0.3200234 -0.63933444 -0.29752886 -0.090358235 0.048133884
-0.25041085 -0.29071096 -0.1401907 -0.21500514 -0.11822977 -0.59505546 -0.60291356 0.106858104
0.0059097055 -0.1622869 0.06415968 -0.765419 -0.10099789 -0.037175033 -0.20712142 -0.013595556
-0.47426143 -0.4153025 -0.6868758 0.095868476 -0.67285126 -0.44348183 -0.15720105 -0.40812138
-0.37227166 -0.23250611 -0.25755772 -0.19434194 -0.46842855 -0.03470144 -0.3926976 -0.5385632
-0.2491578 -0.55902857 -0.17804536 -0.3482953 -0.22466117 -0.3302248 -0.12576449 -0.33513644
-0.38510588 -0.30650836 0.17423527 -0.20831272 -0.75198793 -0.13534153 0.37043107 -0.37829593
-0.21350756 -0.49815062 0.29023603 -0.8562493 -0.3847564 -0.76617956 -0.44803968 -0.6211503
-0.5603214 0.32381114 -0.2307525 -0.52864933 -0.59538704 -0.3276632 -0.16361848 -0.5342579
-0.24889985 -0.6610568 -0.14689885 -0.49087164 -0.27963948 -0.34332815 -0.052309103 -0.18888558
-0.33808884 -0.4531328 -0.032802556 -0.013495826 -0.30504802 -0.46123323 -0.28135598 -0.17908503
-0.23017277 -0.44107693 -0.033812404 -0.19098052 -0.0958251 -0.18082407 -0.2007536 -0.41844195
-0.5291059 -0.20869678 -0.14547023 0.036915187 -0.36330703 -0.7748424 -0.35829583 -0.0429063
-0.08339536 -0.48010477 -0.4329548 -0.27530318 -0.214252 -0.6001901 -0.21145637 -0.14375076
-0.26000106 -0.32260954 -0.08303927 -0.55734265 -0.35570663 -0.4691888 -0.5528757 -0.33352703
-0.5305333 -0.36848307 -0.39487973 -0.45657897 -0.3136903 -0.21343853 0.04284257 -0.21551609
-0.5263561 -0.5476509 -0.1733805 -0.29888383 -0.14055787 -0.4552377 -0.42752695 -0.51499957
-0.40321946 -0.17145653 -0.69547176 -0.7637232 -0.1798367 -0.15406214 -0.44431376 -0.81569684
-0.37229607 -0.37414247 0.061940923 -0.52062905 -0.25773028 -0.22920796 -0.5020623 -0.4926176
-0.09570894 -0.44170225 -0.22058013 -0.5459041 -0.49006188 -0.59703106 -0.10191608 -0.4052095
-0.15761639 -0.64959925 0.6760785 -0.58877176 -0.252041 -0.4971298 -0.22128811 -0.3252265
-0.07769355 -0.23962313 -0.40894032 -0.4817556 -0.41463318 -0.40726197 0.005982999 -0.38517803
-0.4688839 0.052610986 -0.7531321 -0.2540192 -0.17354932 -0.34630492 -0.18922824 0.8590169
-0.08505069 -0.1942645 -0.47111836 -0.39456528 -0.77864903 -0.30027694 -0.75818884 -0.7923056
-0.4690182 0.07554905 0.109594114 -0.6620408 -0.47084016 -0.2020629 -0.19570637 -0.6529885
-0.64150876 -0.24609718 -0.601455 -0.6090332 0.05120942 -0.36190957 -0.44248214 -0.31360507
0.08137219 -0.6089182 -0.4071594 -0.22189653 0.38044918 -0.45097572 -0.37165314 -0.44335786
0.07003362 -0.14767614 -0.51318425 -0.18318772 -0.46607783 -0.3374878 -0.776885 -0.23166467
-0.3280668 -0.55478185 -0.32245123 0.3775161 -0.20593937 -0.32092747 -0.79087734 0.31859124
00000000: f80c cabe 4459 38bf d53f f9be aac8 08bd
00000010: 2503 87be ac95 653e 4680 5dbe 04be d2be
00000020: 79b4 0cbf ab67 ebbe 4f4c b4be f608 00be
00000030: bcba f7be 847e 81be df8e f2be 4072 3c3e
00000040: 1ddc 39be b6b3 b2be df78 fdbe 331b 36bf
00000050: 6762 27bf 5f13 c2bd e278 88be 008b 2dbe
00000060: 87b5 23bf c38c ebbd 0f7b 3dbe 1bda a3be
00000070: 6cab 23bf b455 98be bd0d b9bd 0928 453d
00000080: da35 80be 11d8 94be 278e 0fbe 4f2a 5cbe
00000090: 7322 f2bd 8e55 18bf 8b58 1abf 6cd8 da3d
000000a0: 34a6 c13b 8a2e 26be 2666 833d 80f2 43bf
000000b0: fbd7 cebd d944 18bd a317 54be e5bf 5ebc
000000c0: 65d2 f2be 87a2 d4be 18d7 2fbf b156 c43d
000000d0: fb3f 2cbf 0d10 e3be 50f9 20be 49f5 d0be
000000e0: 649a bebe 1516 6ebe 9bde 83be 9301 47be
000000f0: ded5 efbe 1923 0ebd a90f c9be 47df 09bf
00000100: 3923 7fbe 7f1c 0fbf 8651 36be c353 b2be
00000110: 940d 66be 3a13 a9be 68c8 00be 0197 abbe
00000120: 992c c5be aaee 9cbe bb6a 323e ee4f 55be
00000130: 4882 40bf f896 0abe 24a9 bd3e 01b0 c1be
00000140: baa1 5abe 990d ffbe d199 943e 2733 5bbf
00000150: cafe c4be 5824 44bf 7565 e5be b503 1fbf
00000160: 3971 0fbf 93ca a53e 624a 6cbe 9055 07bf
00000170: 496b 18bf 79c3 a7be 9a8b 27be 20c5 08bf
00000180: 9adf 7ebe 053b 29bf a76c 16be 8753 fbbe
00000190: e82c 8fbe b5c8 afbe 1242 56bd 396b 41be
000001a0: fb19 adbe 0601 e8be f95b 06bd 991d 5dbc
000001b0: 412f 9cbe c326 ecbe e40d 90be 1162 37be
000001c0: 69b2 6bbe d6d4 e1be e07e 0abd 6690 43be
000001d0: f33f c4bd f229 39be 5a92 4dbe 063e d6be
000001e0: 7c73 07bf 9cb4 55be 26f6 14be 6134 173d
000001f0: 6103 babe 125c 46bf 8d72 b7be 84be 2fbd
00000200: 30cb aabd 4bd0 f5be 40ac ddbe 8af4 8cbe
00000210: e064 5bbe 0fa6 19bf 0588 58be 6633 13be
00000220: dc1e 85be 142d a5be 7e10 aabd 02ae 0ebf
00000230: 2e1f b6be 8439 f0be 4389 0dbf 0ec4 aabe
00000240: 08d1 07bf d0a9 bcbe ad2d cabe b8c4 e9be
00000250: 049c a0be a18f 5abe b17b 2f3d 40b0 5cbe
00000260: 46bf 06bf d932 0cbf a88a 31be 4d07 99be
00000270: 67ee 0fbe ea14 e9be d0e4 dabe 03d7 03bf
00000280: c872 cebe 4d92 2fbe 700a 32bf 5d83 43bf
00000290: 1d27 38be 77c2 1dbe 187d e3be 82d1 50bf
000002a0: 979d bebe 9a8f bfbe c4b5 7d3d f247 05bf
000002b0: 39f5 83be 7eb5 6abe 2887 00bf 6038 fcbe
000002c0: 0c03 c4bd cc26 e2be c2df 61be 5fc0 0bbf
000002d0: 64e9 fabe 07d7 18bf 61b9 d0bd 9f77 cfbe
000002e0: 3166 21be 234c 26bf 7b13 2d3f bfb9 16bf
000002f0: 850b 81be cc87 febe 5a99 62be 1684 a6be
00000300: cc1d 9fbd c45f 75be a060 d1be aca8 f6be
00000310: cd4a d4be a484 d0be 090d c43b 0e36 c5be
00000320: 8d11 f0be 9e7e 573d 44cd 40bf ce0e 82be
00000330: eab6 31be e14e b1be 0cc5 41be 88e8 5b3f
00000340: 0e2f aebd 46ed 46be 6d36 f1be 7604 cabe
00000350: 8b55 47bf e6bd 99be aa18 42bf 8ad4 4abf
00000360: 2723 f0be 76b9 9a3d e172 e03d 827b 29bf
00000370: f611 f1be 94e9 4ebe 4067 48be 412a 27bf
00000380: eb39 24bf e600 7cbe f4f8 19bf 9ae9 1bbf
00000390: f8c0 513d 364c b9be 058d e2be d890 a0be
000003a0: 76a6 a63d 10e2 1bbf 3277 d0be d838 63be
000003b0: 3cca c23e 4ae6 e6be 5249 bebe cdff e2be
000003c0: c96d 8f3d 6a38 17be 0b60 03bf 9095 3bbe
000003d0: c1a1 eebe 33cb acbe efe1 46bf 8139 6dbe
000003e0: 5ff8 a7be 2f06 0ebf 5418 a5be ca49 c13e
000003f0: c5e1 52be 9b50 a4be f076 4abf 641e a33e

bn2.weight f4 [300]
1.8988376 2.5976436 3.2603333 1.1542848 2.0967484 1.9276875 2.4006174 2.9210656
0.6209395 4.1679506 3.4790733 0.76063097 2.87932 3.086264 1.0980349 3.3227096
1.9530516 2.4514503 3.443845 3.5784411 0.37112325 2.1082578 1.4902412 1.0261348
0.56023836 3.4999769 1.3157394 1.2652913 1.4340165 3.036845 3.026321 3.1830513
2.5714889 2.5071974 1.6562709 1.9688029 1.2801305 6.339327 2.9124446 4.6784844
1.3388182 2.8967035 0.25185093 0.15401632 2.0361683 2.344942 2.254012 1.5106037
2.3143694 1.3320199 1.1370963 2.334258 2.145061 1.7977482 2.0125797 2.2462475
0.4602007 1.2866569 0.70403695 2.2189655 2.2899098 2.3758335 2.0159888 2.6304395
2.1151545 1.7238743 2.8164809 2.3952794 1.7704909 2.472532 1.9904661 1.8914183
1.8123659 1.176495 2.383492 4.944046 1.6213162 1.88752 1.6383673 2.2386527
1.5538046 2.3542511 0.69170415 1.4069865 0.19656374 2.139432 0.5721033 3.1771045
1.9951444 3.303283 2.830375 1.1028504 1.930931 2.179009 2.0378227 1.7718688
0.48243943 0.3976948 1.9788932 2.184583 1.3271768 1.8826312 2.5172813 3.7192616
1.9705607 2.421228 2.5419252 2.1997712 2.1454442 2.74908 2.6802917 2.1274981
1.5585678 3.0902483 2.0883293 1.5325642 1.2061907 3.0649223 2.1209228 2.1926353
2.0070724 2.2665572 3.0513735 1.9653391 2.6892014 1.2601693 1.7144006 1.5946323
0.23641674 2.815613 2.1784873 0.32925618 1.2195573 1.0094277 0.28663665 2.7184248
2.2924619 1.6411816 2.691046 1.3974627 1.8885969 0.4515831 1.9334698 0.33205017
1.4595745 2.2797775 1.9240737 1.0133144 0.50126773 1.5279135 4.0149455 1.9576173
2.7399049 1.5794616 2.3005586 1.4453735 1.4977086 0.52403927 0.54893947 1.1629534
1.0257906 1.0735165 0.987441 0.4738687 3.5805368 1.9211466 2.0444815 1.6429508
1.0938027 5.2836723 1.214822 0.32069728 2.52106 2.6222057 2.2063835 2.4273746
1.1230204 1.0866234 1.9148079 1.0584528 2.118638 2.0917583 2.121691 0.3558755
1.2875016 1.8454874 1.8359232 2.4813795 1.0329963 2.0883186 1.1396468 0.71354085
2.2533917 1.4922302 1.6713539 2.7224388 0.15661195 1.9335902 2.2744117 2.2838068
1.7736514 1.6981106 0.20600286 2.8201761 1.3181314 2.025842 2.1146598 2.0635657
2.802385 2.0831466 1.3060558 2.644017 2.9513695 1.33767 2.9985437 3.7398894
2.7152987 1.4792 2.5522733 2.495245 2.217791 1.8131443 2.280896 1.8591406
2.5670626 4.820156 2.4494624 0.5438917 1.5548849 1.660683 1.4476644 1.7223929
2.2751987 1.2244146 1.3270386 1.6186364 2.4028823 0.7977915 0.43780205 1.8388264
1.1830196 1.928917 0.93815374 0.4649546 0.91467 2.348177 0.5641598 2.6833162
2.7458851 1.9192684 1.2910397 0.24765837 0.319168 2.7970605 4.378467 3.3053877
00000000: 1c0d f33f cb3f 2640 4da9 5040 9bbf 933f
00000010: 2031 0640 77be f63f b7a3 1940 bdf2 3a40
00000020: e4f5 1e3f da5f 8540 23a9 5e40 b6b8 423f
00000030: c746 3840 5985 4540 688c 8c3f 46a7 5440
00000040: 98fd f93f 90e4 1c40 f567 5c40 2e05 6540
00000050: de03 be3e b2ed 0640 39c0 be3f 6358 833f
00000060: c86b 0f3f 9fff 5f40 266a a83f 11f5 a13f
00000070: da8d b73f ab5b 4240 3eaf 4140 1db7 4b40
00000080: 4693 2440 ec75 2040 af00 d43f bc01 fc3f
00000090: 51db a33f c4db ca40 7e65 3a40 25b6 9540
000000a0: 655e ab3f 9763 3940 9bf2 803e 74b6 1d3e
000000b0: 9550 0240 8813 1640 bc41 1040 765b c13f
000000c0: a11e 1440 a17f aa3f 5f8c 913f 7c64 1540
000000d0: ae48 0940 9d1c e63f 1bce 0040 85c2 0f40
000000e0: 6d9f eb3e 2cb1 a43f c43b 343f 8803 0e40
000000f0: e28d 1240 a80d 1840 f605 0140 1f59 2840
00000100: b15e 0740 eaa7 dc3f 3941 3440 424c 1940
00000110: 729f e23f f73d 1e40 98c7 fe3f ff19 f23f
00000120: 9bfb e73f 6397 963f 228b 1840 a035 9e40
00000130: 4a87 cf3f 419a f13f 05b6 d13f 1646 0f40
00000140: 12e3 c63f 0dac 1640 8613 313f 2218 b43f
00000150: 0148 493e 74ec 0840 5d75 123f ae55 4b40
00000160: e460 ff3f fd68 5340 dd24 3540 342a 8d3f
00000170: bf28 f73f e274 0b40 b06b 0240 99cc e23f
00000180: 4d02 f73e a79e cb3e 5f4c fd3f 35d0 0b40
00000190: eee0 a93f 0ffa f03f 231b 2140 6208 6e40
000001a0: 553b fc3f 66f5 1a40 e7ae 2240 0dc9 0c40
000001b0: f54e 0940 edf0 2f40 e689 2b40 ee28 0840
000001c0: 267f c73f a1c6 4540 30a7 0540 102b c43f
000001d0: 7564 9a3f b027 4440 33bd 0740 2354 0c40
000001e0: e073 0040 460f 1140 b449 4340 3b90 fb3f
000001f0: e01b 2c40 3a4d a13f 7b71 db3f e91c cc3f
00000200: 3b17 723e 0133 3440 566c 0b40 4494 a83e
00000210: 741a 9c3f ed34 813f 0ac2 923e acfa 2d40
00000220: b2b7 1240 3d12 d23f 193a 2c40 0fe0 b23f
00000230: 8bbd f13f e635 e73e f07b f73f 7b02 aa3e
00000240: 56d3 ba3f e0e7 1140 0c48 f63f 49b4 813f
00000250: 1553 003f ab92 c33f 6f7a 8040 3493 fa3f
00000260: 9a5a 2f40 cc2b ca3f 5a3c 1340 0002 b93f
00000270: eab4 bf3f 7027 063f 4c87 0c3f a8db 943f
00000280: 1b4d 833f fd68 893f efc8 7c3f eb9e f23e
00000290: 8427 6540 22e8 f53f c9d8 0240 364c d23f
000002a0: ba01 8c3f d813 a940 4a7f 9b3f 6f32 a43e
000002b0: 0c59 2140 38d2 2740 6335 0d40 1b5a 1b40
000002c0: 22bf 8f3f 7a16 8b3f 6d18 f53f 627b 873f
000002d0: c497 0740 5edf 0540 c9c9 0740 5035 b63e
000002e0: dacc a43f ee38 ec3f 88ff ea3f ecce 1e40
000002f0: 3939 843f 03a7 0540 f2df 913f 9daa 363f
00000300: 9237 1040 6601 bf3f edee d53f 703c 2e40
00000310: e25e 203e e27f f73f f68f 1140 e429 1240
00000320: 0207 e33f b05b d93f 6af2 523e c47d 3440
00000330: 88b8 a83f 65a7 0140 9656 0740 7611 0440
00000340: 475a 3340 4652 0540 d62c a73f 9337 2940
00000350: 3de3 3c40 c538 ab3f 24e8 3f40 595a 6f40
00000360: 74c7 2d40 6d56 bd3f 7258 2340 18b2 1f40
00000370: 4af0 0d40 1d15 e83f 33fa 1140 52f8 ed3f
00000380: c14a 2440 b83e 9a40 fec3 1c40 7d3c 0b3f
00000390: 7806 c73f 4391 d43f 114d b93f 5f77 dc3f
000003a0: db9c 1140 9eb9 9c3f 67dc a93f 7a2f cf3f
000003b0: d3c8 1940 103c 4c3f 9727 e03e aa5e eb3f
000003c0: 306d 973f c1e6 f63f d82a 703f 880e ee3e
000003d0: d027 6a3f 8848 1640 c76c 103f 74bb 2b40
000003e0: 95bc 2f40 96aa f53f ca40 a53f 289a 7d3e
000003f0: fd69 a33e 0a03 3340 671c 8c40 798b 5340

bn2.bias f4 [300]
0.30705416 0.34049127 -0.36721495 -0.18410349 -0.56579643 -0.20092888 -0.3388437 0.19748089
-0.40861887 -0.35430557 0.18840188 -0.7319188 -0.098617665 -0.20147394 -0.57191217 -0.1862568
0.0074111884 0.008789223 -0.0748033 -0.3689179 -0.60732174 -0.6151549 0.09855847 -0.45595315
-0.3966378 -0.54215026 -0.09236529 -0.5854851 0.0890543 0.13218684 -0.29066637 0.2576268
-0.42844406 -0.67421496 0.37417555 -0.27944624 -0.063516386 0.02317687 -0.16354471 0.24318588
-0.1638217 0.27631745 -0.69222516 -0.8128452 -0.045192983 0.35567218 -0.3582168 -0.07967752
-0.36105305 -0.103014395 0.38385376 -0.6302126 -0.17353235 -0.40357 -0.7181037 -0.47013503
-0.5212167 -0.34758776 -0.91637427 -0.5950922 0.19017923 -0.22153583 0.12969077 0.04320203
-0.27368984 0.012839541 -0.10728131 0.1239534 -0.23501202 0.27409 -0.22221299 -0.34294122
-0.5451693 -0.660542 -0.2663654 0.51610756 -0.2827176 -0.43263996 0.302455 -0.57085186
-0.18247272 -0.16033383 -0.2470306 -0.44194868 -0.7975273 -0.14526308 -0.4321182 -0.174946
0.42447826 -0.2306088 -0.43146226 -0.4063362 -0.20673785 -0.45512447 0.23740953 0.19903062
-0.5441416 -0.5616182 -0.2474435 0.103929065 -0.7614358 -0.28782555 -0.03685934 0.027373428
-0.31405017 -0.023722576 0.16721076 -0.24140425 0.25555652 -0.24195763 0.068369426 -0.11354175
-0.1854119 0.33654517 0.2181554 -0.21692955 -0.3750201 -0.41869637 -0.6505201 -0.4440181
0.0084667895 -0.38824457 0.3841964 0.070466235 -0.18673098 -0.18549365 -0.12442034 -0.2932042
-0.7019087 -0.108371675 -0.4261652 -0.67804825 -0.27305368 -0.61519146 -0.6516284 0.03493713
-0.6715868 -0.26972687 0.24504916 -0.54488164 -0.011619087 -0.60852057 -0.5421395 -0.87190455
-0.18059275 0.1984831 -0.29246056 -0.45238572 -0.5194326 -0.6167093 -0.21007422 0.011107879
-0.414439 0.04358232 -0.5012492 -0.37454408 -1.1113101 -0.33962432 -0.46755686 -0.72067547
-0.46732277 -0.24754521 -0.19039829 -0.6161265 0.49805784 -0.444932 -0.2681861 -0.7286131
-0.5926938 -0.09661208 -0.81908655 -0.6886805 0.07368659 -0.47339904 -0.16559379 0.055839647
-0.7997531 -0.5342307 -0.39107174 -0.7550724 -0.42559925 0.03078384 -0.077696785 -0.6564424
-0.218053 -0.441537 -0.66966164 0.056880504 -0.286849 -0.12090031 0.16013779 0.5482303
0.027544023 -0.17192866 -0.20752247 0.23615639 -0.83125407 -0.37703484 -0.42099032 -0.43647707
-0.69868845 0.013750499 -0.80029756 0.17586166 -0.3584858 -0.14122643 -0.4419743 -0.45807323
-0.100248836 -0.29759246 -0.5826401 -0.28059724 0.2889698 -0.4339782 -0.3694227 0.38083562
0.15284473 -0.940338 -0.5637363 0.45364285 0.034369946 -0.57568645 -0.13496228 -0.0462861
-0.5214822 -0.170315 0.08130651 0.539391 -0.69986826 -0.1813897 -0.3256761 -0.10992727
-0.4930981 -0.38235942 -0.47705615 -0.30131727 0.043631528 -0.5267197 -0.56175125 0.0064451345
0.18428126 -0.065159775 0.3282295 -0.556863 -0.3507133 0.04171161 -0.9229338 0.1343686
0.04336729 0.101385474 -0.6317987 -0.74747264 -0.64309555 0.43003276 -0.12923409 -0.010558711
00000000: 3436 9d3e df54 ae3e 9903 bcbe a085 3cbe
00000010: 09d8 10bf 4dc0 4dbe ec7c adbe 6e38 4a3e
00000020: 7e36 d1be 8a67 b5be 6cec 403e 085f 3bbf
00000030: 0ff8 c9bd 2f4f 4ebe d668 12bf 1aba 3ebe
00000040: 8ed9 f23b ac00 103c 7932 99bd cfe2 bcbe
00000050: 7079 1bbf cb7a 1dbf 06d9 c93d b172 e9be
00000060: 1c14 cbbe 5cca 0abf 032a bdbd 5ae2 15bf
00000070: 1a62 b63d fd5b 073e 39d2 94be a9e7 833e
00000080: 055d dbbe 5a99 2cbf f093 bf3e 9413 8fbe
00000090: e114 82bd 6bdd bd3c 4478 27be b805 793e
000000a0: e0c0 27be 7b79 8d3e ab35 31bf 9f16 50bf
000000b0: 471c 39bd aa1a b63e 3168 b7be f82d a3bd
000000c0: f2db b8be 36f9 d2bd 7b88 c43e 9d55 21bf
000000d0: 77b2 31be baa0 cebe a5d5 37bf 8ab5 f0be
000000e0: 756e 05bf 06f7 b1be 8197 6abf f657 18bf
000000f0: 58be 423e 4ada 62be a8cd 043e 9df4 303d
00000100: 1321 8cbe f05c 523c 4eb6 dbbd 48db fd3d
00000110: fea6 70be 8655 8c3e cd8b 63be fe95 afbe
00000120: 3790 0bbf 4819 29bf 0c61 88be a01f 043f
00000130: 5cc0 90be fc82 ddbe 62db 9a3e 5923 12bf
00000140: 21da 3abe 8d2e 24be 97f5 7cbe 1947 e2be
00000150: c02a 4cbf d8bf 14be 993e ddbe 0b25 33be
00000160: 3755 d93e b724 6cbe 9fe8 dcbe 4c0b d0be
00000170: 16b3 53be 1306 e9be 7c1b 733e afce 4b3e
00000180: dd4c 0bbf 36c6 0fbf d461 7dbe c3d8 d43d
00000190: 75ed 42bf df5d 93be d2f9 16bd 3d3e e03c
000001a0: 2fcb a0be d955 c2bc 4c39 2b3e ad32 77be
000001b0: 4ed8 823e bec3 77be 4505 8c3d 9488 e8bd
000001c0: 9edc 3dbe a64f ac3e 2164 5f3e c822 5ebe
000001d0: a202 c0be 5f5f d6be 7c88 26bf 5756 e3be
000001e0: 4ab8 0a3c fec7 c6be 64b5 c43e 9a50 903d
000001f0: 6836 3fbe 0cf2 3dbe 17d0 febd dc1e 96be
00000200: 4ab0 33bf f8f1 ddbd 5332 dabe 9294 2dbf
00000210: b1cd 8bbe 307d 1dbf 1ed1 26bf 3c1a 0f3d
00000220: 1ded 2bbf a419 8abe 2bee 7a3e 5d7d 0bbf
00000230: fc5d 3ebc 01c8 1bbf a7c9 0abf 2335 5fbf
00000240: 4eed 38be 273f 4b3e 64bd 95be 1a9f e7be
00000250: 89f9 04bf a9e0 1dbf b21d 57be d2fd 353c
00000260: 5931 d4be 6083 323d de51 00bf 3ec4 bfbe
00000270: 693f 8ebf 3de3 adbe 9d63 efbe 307e 38bf
00000280: ee44 efbe 7e7c 7dbe c5f7 42be 77ba 1dbf
00000290: 7001 ff3e 21ce e3be b04f 89be 6386 3abf
000002a0: c8ba 17bf 8edc c5bd a8af 51bf 5e4d 30bf
000002b0: ffe8 963d 5c61 f2be 6b91 29be 1db8 643d
000002c0: 9fbc 4cbf 58c3 08bf 8e3a c8be 6d4c 41bf
000002d0: 25e8 d9be 642e fc3c 7e1f 9fbd 9c0c 28bf
000002e0: 4949 5fbe 2311 e2be f26e 2bbf 88fb 683d
000002f0: dfdd 92be 959a f7bd 29fb 233e d258 0c3f
00000300: 01a4 e13c 110e 30be c580 54be fbd2 713e
00000310: 11cd 54bf b60a c1be 0b8c d7be ec79 dfbe
00000320: 3fdd 32bf c649 613c 4de0 4cbf 1415 343e
00000330: 738b b7be a99d 10be 754a e2be 9388 eabe
00000340: 434f cdbd 0a5e 98be e727 15bf 71aa 8fbe
00000350: daf3 933e 6432 debe f924 bdbe e3fc c23e
00000360: 5483 1c3e feb9 70bf 0651 10bf e043 e83e
00000370: 80c7 0c3d 3060 13bf 8d33 0abe 7e96 3dbd
00000380: dc7f 05bf 0e67 2ebe 0784 a63d 8715 0a3f
00000390: 912a 33bf 39be 39be 05bf a6be 8c21 e1bd
000003a0: 5b77 fcbe 9dc4 c3be b440 f4be 4246 9abe
000003b0: f9b6 323d 1ad7 06bf eece 0fbf b531 d33b
000003c0: 3ab4 3c3e 7d72 85bd b20d a83e 938e 0ebf
000003d0: b290 b3be cbd9 2a3d 6445 6cbf ec97 093e
000003e0: e6a1 313d 30a3 cf3d 8fbd 21bf 5e5a 3fbf
000003f0: e9a1 24bf 412d dc3e f155 04be 72fe 2cbc
