tmp/ddpg/actor_ddpg.pth (torch, 511239 bytes, 10 tensors)

fc1.weight f4 [400, 11]
00000000: f5fe 8b3d a490 07bd 4b4d 8f3d b1a7 4f3d
00000010: 5d02 1dbd 1bef 243e fd5f 083e 5805 b33d
00000020: c850 2d3e 2703 5b3e 22f4 143e 7cc4 323c
00000030: 01bf 93bd 3ca8 4c3d cb96 893d 06a0 873d
00000040: ac79 e33e bbf1 043e 399e 8abd 4cc8 ae3d
00000050: 3282 ef3c 4a00 393c 641c 583d 7d37 00bd
00000060: 43a6 803d a353 363d 0e7c fc3d c115 2e3f
00000070: 626b 8b3d b9e6 253c bdf3 0f3e e2a9 b83d
00000080: 5758 933d 1e2b f63d 59d2 f1bd df0a 8b3c
00000090: c8b3 8c3d 670c 113e 4d56 c5be 18cd cfbd
000000a0: ae7d 953d 60a5 12be de2f 78bd 529d 4abd
000000b0: 1615 88bd 64fc 423a df0d 063e 50bc 6a3d
000000c0: 654e a33d 64a3 1e3d e5c7 ab3d fb2b b53e
000000d0: 4510 333e 41b4 643e 5354 353e 922a a4bd
000000e0: f854 3abc 62b5 5e3d 952a ff3c 0332 023e
000000f0: b7ed 163e cc14 433d 2a50 6bbe 9e86 1dbd
00000100: 2113 8b3d 07b5 47bd 4584 343d 8aad 2fbd
00000110: c8e0 6f3c 6d06 163d 3f00 8b3c 428d 953e
00000120: 1ff8 fd3e 7251 8c3e 3b84 c53d 287f ff3d
00000130: d454 913d ed0c 183e 2694 d3bd d31f 9f3c
00000140: 696e 963d 3226 b43d 9acb 73be d5af 09bd
00000150: dbae 29bd cfd0 f4bd e512 89bd 905a 04be
00000160: 76fb a83d 9961 af3b 806f 113e b9ba 703d
00000170: 7e40 c63d f498 ef3e efa7 9c3e 83f1 4cbd
00000180: 25ac d43d 3568 983d 62a2 f53d 8233 5e3d
00000190: 755f 01bd 92d2 a23d 2b2d 8a3d e40f 9a3d
000001a0: c5e1 d33e 5fdf 8c3e b785 533d 02d3 a83d
000001b0: d8e7 2f3e 2a48 8d3d 8c37 3abb 8b84 9ebd
000001c0: 743b dd3d f046 4c3d 7375 66bd 1cd4 463e
000001d0: b43c c33e 67f5 873e 5c5a b93d 959b be3d
000001e0: 6452 b83d 52e0 433c 1a56 92bd 1df1 023e
000001f0: e095 9a3d ec3d 2a3d c2c4 5ebf 3c40 10be
00000200: 603b 143e 2c1d 0c3e 06bc b73d c3e0 093e
00000210: 6dad b43c b7c5 d6bd cf04 8e3d 1f9a a73b
00000220: 1439 ec3d f280 12bf 0693 903e 3d6e 40bd
00000230: 80ce 89bd 461e 983c 339c b73c 920d d13c
00000240: 42fc 47bd d0d7 d53d d51d 483d 6100 943d
00000250: 3b90 b03e 8347 9f3d 6e7e 8fbe a6b9 8c3d
00000260: 08af 1f3e 11b0 d63d 087b aebb 8318 e7bc
00000270: dd64 7abb 6615 4e3d d658 b2bc 94a0 cf3e
00000280: cf4b 993e 123e 2a3e d292 853d 011b 033d
00000290: 93f5 2c3c fb44 823d 313d 0fbe 2eb1 7b3c
000002a0: ba99 7e3d f303 f63d 6f05 04bd 5d8a 243e
000002b0: 6a05 8b3e 06a0 9dbe 44e4 8cbe 6f83 91be
000002c0: a77b ea3d 2a9e 25be 4aa5 103c c52c 9c3d
000002d0: e2a2 d93d 2ff6 3ebe f8e7 00bd 1d2e 22be
000002e0: 2176 c4bd d0ac 0cbd 3bbc debd 0474 94bd
000002f0: 046e ea3b 7eef a23d a811 443d bd59 08bd
00000300: deb8 7d3e 2017 1d3e 0be9 d13e 7479 293e
00000310: 9ba1 643e 8246 0d3e 8dd0 61bd eda2 90bd
00000320: 7bd6 eb3d 602c 8a3d 7d77 993d ca16 ab3b
00000330: 521a 093e 8dc9 6e3e 350f ca3d f9fe 263d
00000340: d360 913d 8b54 0f3d 1779 0bbe 3888 af3d
00000350: 74d8 603d bb32 243e d142 7b3e cf27 cbbd
00000360: c1b8 4e3b 1403 023e f796 393e 5daf 333e
00000370: ef3f 54bb b151 b6bd 2337 d03d 2b06 573d
00000380: ea9f d73d 24ea bd3e a90e 5b3e 8735 c3bd
00000390: d898 ff3d c915 0a3e 0458 d13d ad07 f83b
000003a0: f9c1 35bc fb6f f73d 88fd 073d f5bd bebc
000003b0: 956d a63d 47ff 8d3d 13e0 b13e b1c5 683e
000003c0: 8a1d 873e b88a 313e f220 11bd 9c52 02be
000003d0: d8a4 9f3d a8d2 d73c a279 ce3d 0f4c f23d
000003e0: 0275 663e af45 f3bd 33be 64bd b2d7 1bbd
000003f0: 2529 0abc d749 9cbb fa49 abbd 1dec 1b3e
0.068357386 -0.033096924 0.06997164 0.050697032 -0.038332332 0.16106836 0.13317867 0.087412536
0.16925347 0.21387921 0.14546254 0.010911103 -0.072141655 0.04996513 0.067182146 0.06622319
0.44428766 0.12982838 -0.0676846 0.08534297 0.029236887 0.011291573 0.05276145 -0.031302918
0.06281712 0.044513356 0.12328349 0.68001944 0.06807591 0.010125809 0.14057823 0.090167776
0.07194584 0.12019943 -0.11807699 0.016972957 0.06870228 0.14164887 -0.38542405 -0.101465404
0.07299362 -0.14320898 -0.060592525 -0.04946644 -0.06644647 0.0007438122 0.13091229 0.057308495
0.07973937 0.03873004 0.08387736 0.35385117 0.17486675 0.22334386 0.17707948 -0.08015932
-0.011372797 0.0543722 0.031148234 0.1271439 0.14739119 0.047627255 -0.22979799 -0.03845846
0.06790758 -0.048756626 0.044071455 -0.04289011 0.014640994 0.03662722 0.01696789 0.29209334
0.49603364 0.27405888 0.096443616 0.12475425 0.07096258 0.14848681 -0.103309914 0.019424355
0.07345278 0.08796348 -0.23808137 -0.033614952 -0.04142652 -0.119538896 -0.06693057 -0.12925172
0.08251087 0.0053522107 0.1420269 0.058771823 0.0968027 0.4679638 0.30596873 -0.05003501
0.103843965 0.07441751 0.11993863 0.05424834 -0.031585176 0.07950319 0.06746896 0.07522562
0.41383186 0.2751417 0.051641192 0.082433715 0.17178285 0.0689853 -0.0028414456 -0.07740124
0.108023554 0.04987234 -0.056264352 0.19416851 0.3813225 0.26554415 0.09050438 0.09307019
0.0900009 0.011955338 -0.07145329 0.1278729 0.07548118 0.04156296 -0.8701898 -0.14087003
0.14475775 0.13683003 0.089714095 0.13464646 0.022055352 -0.1048693 0.06934511 0.005114808
0.11534324 -0.57228005 0.2823717 -0.04698013 -0.0672884 0.018569123 0.022413349 0.025519166
-0.048824556 0.104415536 0.048856575 0.07226635 0.3448504 0.07777312 -0.28026146 0.06871347
0.15594113 0.10482801 -0.005324725 -0.02820993 -0.0038207092 0.050313376 -0.021770876 0.405522
0.2994065 0.1662524 0.065221444 0.032008175 0.010556596 0.06360813 -0.13988186 0.015362067
0.062158324 0.12012472 -0.032231744 0.16068406 0.27152568 -0.3078615 -0.27517903 -0.28420588
0.11449366 -0.16173616 0.0088284705 0.076257266 0.106267706 -0.18648599 -0.031471223 -0.15837903
-0.09592844 -0.034344494 -0.10875746 -0.07248691 0.007154228 0.07955836 0.0478684 -0.033288706
0.24777552 0.15340853 0.4099811 0.16550237 0.22327273 0.13796428 -0.05513053 -0.070623256
0.11515518 0.06746745 0.07493494 0.0052212225 0.13388947 0.23319073 0.09866182 0.040770505
0.07098546 0.034992736 -0.13620411 0.085709035 0.054893926 0.16034977 0.24537207 -0.09919702
0.0031543227 0.12696487 0.18123995 0.17547365 -0.003238674 -0.089023 0.101667665 0.052496117
0.10528548 0.37092698 0.21392311 -0.09531694 0.124803245 0.13484873 0.10221866 0.0075692744
-0.01109361 0.120819055 0.03320077 -0.023283938 0.0812637 0.06933456 0.34741268 0.22731663
0.26389724 0.17338073 -0.03543181 -0.12726825 0.07795113 0.026345566 0.10081793 0.11830913
0.22505572 -0.118785255 -0.05584545 -0.0380475 -0.008432661 -0.0047695446 -0.08363719 0.15226789

fc1.bias f4 [400]
00000000: a35e eabc 833b 6a3c 6e4e 59bb fdd7 a93d
00000010: 8c95 663d 826e dc3d 0910 c3bc 0acb fd3d
00000020: 3dee 8e3c 4a51 b43c f6ce 133d 33ce 0f3e
00000030: d4ae 0d3e 82aa 9f3d d54d 583b 8cb9 b43d
00000040: e43c a93d 0370 74bd fe24 443c e5ae 8d3d
00000050: ed1a 363d 2b6c 9a3d 891c 8b3d 62d4 d13c
00000060: f035 2e3d f575 843d db9d 963d 080c 85bb
00000070: f8cf a33c f16c 763d 0294 a73d d22c 333e
00000080: bc28 093e 6a1e 0d3e ab01 803d 754b 313d
00000090: 4222 0c3e 3ce1 ef3c 3ec1 863d 93de 1a3e
000000a0: f11c 8e3d d789 633d 5f01 ca3d b89f 6fbc
000000b0: e8dd 0f3d 8eaa cc3d 0208 0d3e 6202 b13d
000000c0: 9131 a93c ba4d 9e3d bebd 4a3d 3241 5e3d
000000d0: ee82 94bd 0c33 373e 1fa7 c0ba c148 983d
000000e0: 560a 0d3e a218 183e 5a21 993d fb5c 423d
000000f0: 6acb f83d e1f7 9b3c 417a 0e3e a957 8c3d
00000100: 2aa9 b2bd 8ed1 fb3c 6802 c63c ea56 1d3d
00000110: 0e3d cf3d 71f4 d63d 083c 143e 8745 173e
00000120: a89f 39bd 46ae 333e 30ca 0f3e ab26 abbc
00000130: 3e3e d8bd 5e0e 0cbd efd8 293e 9b47 933d
00000140: 0550 52bd e748 60bc 8676 103d 543c 843d
00000150: cae4 833d 4837 343d 620d 283d fb18 143d
00000160: 80ad 013d f6c5 f03d a345 b33d 4af8 0a3d
00000170: 3447 d33d 74f0 a73d b458 e43b defc 2a3e
00000180: 9b5f 183d c107 e73d 869c c63d 453b 7e3d
00000190: 1e63 0f3e 8f73 d53d 7fbb 993d 4934 7d3d
000001a0: f402 b33d b89b 263d 9291 d33c 9318 83bc
000001b0: 8570 0d3e 504e 243d 4f2c 4d3d 6566 883d
000001c0: 7c66 2f3d 2033 f53c 84af 3e3e 1a33 153e
000001d0: 1096 ee3d aed1 cf3d 19fb 243c 0995 aa3d
000001e0: 1025 2d3e b0f5 c13d 5f35 8a3d 99ef bc3d
000001f0: 6128 113e e1cc 343d f05b ce3d 479c b33d
00000200: a4fe ae3d 488c 28bd 7ad7 193d 6850 e53d
00000210: 6aef 213e f737 e73d 3ddb 003e a7c0 d53d
00000220: 75ee febc 6195 a03d e877 fb3d d069 383d
00000230: a0ce fb3c b7a4 0c3d d480 c13d ffa9 e03d
00000240: 5acd 6c3d 77da 8d3d 7e62 ab3c b420 f43b
00000250: d5e6 29bd bc25 2f3e b019 2dbd 127f c73d
00000260: cac1 06bd 822d 8e3d 2569 193e 17bf 053e
00000270: f115 833d a6e6 f03d 56fc 0c3e b581 a9bd
00000280: f83a 153e c748 b03d 0993 ad3c 7d26 903d
00000290: ccb9 fa3c e41b cb3d b754 8e3d 11ff 823d
000002a0: f9d6 5e3d 07fa 24bc bb66 a23d 42ae acbc
000002b0: 89da 9e3d 9c4b 553d 4d8b 8fbc 4b09 83bc
000002c0: f2e2 943d 7d2a 0b3e b241 a53d 268b 9b3c
000002d0: 8ed2 173d 1c71 2e3e 873c c73d dbe6 673d
000002e0: dd14 243e d6d8 783d 8280 4b3e 6e28 e43d
000002f0: def9 ad3d ca13 833c 5cca c33b b364 8cbd
00000300: be0b 743d 8f83 82bc e59b 053e 52de 303d
00000310: a096 803d 75f7 5c3d 4adf 1a3e cc19 833d
00000320: 0545 4e3d cc16 e93d 4092 eb3d 3164 7fbc
00000330: 8ebe 3e3e b182 ea3d bb0d 533d ef3f 413e
00000340: 2492 f43d e10d 33bd ee48 b03d 2e7c 08bc
00000350: 1bb2 1c3c 41a1 fd3d d941 e33d 27ac ad3c
00000360: c346 03bd d7cf 603d 56c1 dd3d 7817 ed3d
00000370: 0788 a7bc c7d3 103e e8c1 443b cb3c a03d
00000380: f835 6b3d b061 233d 8b7c d33d 3245 f43d
00000390: 13c8 6a3d 5563 c43d 8476 1e3d 4939 2c3e
000003a0: 5c2d 843d e7b6 083e 4461 743d 2bd3 353e
000003b0: 1627 e63d 1964 483c a204 dc3d 3820 073a
000003c0: a84a 513e 7d26 013e 4c61 ecbc 3add 133e
000003d0: 4503 263d 37dd 0bbd 97d8 ed3d 2495 c23d
000003e0: fc72 bb3c ef43 5e3d 9db0 2d3d 6a72 7e3d
000003f0: 89ad a63d 3b3f 0d3e ba98 153e 5eaf dd3d
-0.02860958 0.014296415 -0.003315832 0.082931496 0.056294963 0.10763265 -0.023811357 0.12392242
0.017447585 0.022011418 0.036086045 0.14043503 0.13836223 0.07796194 0.0033005376 0.08824453
0.08263567 -0.059677135 0.01197171 0.06918124 0.044459272 0.07540163 0.06792552 0.025613967
0.042531908 0.06467811 0.07354327 -0.004060272 0.019996628 0.06016249 0.08182527 0.17497566
0.13394445 0.13781133 0.06250318 0.043284852 0.13684943 0.029282205 0.06579827 0.15123968
0.06939114 0.055551376 0.09863543 -0.014625482 0.035123736 0.09993468 0.13772586 0.086430326
0.020653518 0.07729669 0.04949736 0.054261394 -0.07251535 0.17890567 -0.0014698243 0.07435752
0.13773474 0.14853147 0.074770644 0.047451954 0.12148173 0.019039096 0.13913824 0.06852657
-0.08723672 0.030739572 0.02417107 0.038412966 0.10119067 0.10495842 0.14476025 0.14772616
-0.045318276 0.17546949 0.14041972 -0.020892462 -0.10558747 -0.03419339 0.1658666 0.07191392
-0.051345844 -0.013689256 0.035269283 0.06456819 0.064401224 0.043998033 0.041028388 0.036156636
0.031659603 0.11756508 0.087535165 0.033928193 0.10316315 0.0820016 0.006968582 0.16698024
0.03720055 0.11280776 0.09697823 0.062068243 0.14002654 0.10422432 0.07506465 0.06181744
0.08740798 0.04067585 0.02582625 -0.016002929 0.13812454 0.040113747 0.050091084 0.06660155
0.042822346 0.029931605 0.18621641 0.14570275 0.11649716 0.10147415 0.010069632 0.083292075
0.1690867 0.09470689 0.06748461 0.09225387 0.1417556 0.0441407 0.100761294 0.08770042
0.085446626 -0.041149408 0.03755901 0.11196977 0.15813985 0.11289971 0.12583633 0.10437136
-0.031119565 0.07840992 0.1227873 0.045022786 0.030738175 0.03433677 0.094484 0.10969924
0.057813026 0.069264345 0.020920988 0.0074501876 -0.041479904 0.17104238 -0.042260826 0.097410336
-0.032899655 0.06942274 0.14981516 0.13061176 0.06400669 0.11762743 0.13768134 -0.08276693
0.14573276 0.08607631 0.021188276 0.07038591 0.030606173 0.09917429 0.06949752 0.06396306
0.054404233 -0.010069377 0.079297505 -0.021079186 0.07756526 0.05207406 -0.017522478 -0.015995642
0.07269849 0.13590427 0.08069171 0.01898725 0.037066035 0.17035335 0.097283415 0.056616645
0.16023584 0.060753666 0.1987324 0.11140524 0.08494924 0.016000647 0.005975051 -0.06855144
0.05958151 -0.015931873 0.1304775 0.04318077 0.062787294 0.05394693 0.1512424 0.06401405
0.05035879 0.11381301 0.11502504 -0.015587852 0.18627378 0.11450709 0.051526766 0.18872045
0.119419366 -0.043714408 0.0860766 -0.008330388 0.009563948 0.12384272 0.11096544 0.021200253
-0.032049906 0.05488571 0.108278915 0.11576742 -0.020450605 0.14143287 0.0030022804 0.07824095
0.057424515 0.039888084 0.10326489 0.119272605 0.057319712 0.095892586 0.038687244 0.16818728
0.06453964 0.13351022 0.059663072 0.17756335 0.11237924 0.012230896 0.10743071 0.0005154642
0.20438635 0.12612338 -0.028854989 0.1443986 0.04053046 -0.034146514 0.11613577 0.095011026
0.022881977 0.054264005 0.04240476 0.062120833 0.08138568 0.13793652 0.14609042 0.10824464

fc2.weight f4 [300, 400]
00000000: b711 f23d 3f19 983d 6471 2e3e 7bf2 40bd
00000010: 718f 3e3e 2c06 3e3e 785d 743e f849 b53d
00000020: 4429 a23e ba68 893e e995 683e f7bd 0e3e
00000030: fd76 a7bc e19e 2b3e 4b96 1b3e 40a0 b23c
00000040: 40b0 a5bc d204 4d3e f0bf 1e3e 5143 fd3d
00000050: c88e 513b 2831 3c3e 468c 96bc 2937 cf3d
00000060: 23a0 2d3e 16d7 0a3e 22b8 0c3e 96e7 6d3e
00000070: add5 2f3d a346 af3d 65ec d83d 31cd 1b3e
00000080: 5740 253d bf4d 793e a658 363e 5d7a 973c
00000090: 9b3a 0c3b ad2b 193e 2b42 b83c fdb7 5b3d
000000a0: 281b 3f3d ee79 513e 0bd4 b63d 4f10 c93c
000000b0: af03 0c3e 524a 4c3e 7ea8 e93d cb02 4dbd
000000c0: cf2f e93d 7958 1e3d 1121 373e 34aa d73d
000000d0: bc75 833e f1fb 8c3d 890e 683e 548f 07bc
000000e0: 6d78 753e 0546 073d e3f0 7d3d 30c7 463e
000000f0: 6081 0c3e bf1b e63d 0650 383d 634b c23d
00000100: d1e5 443e de04 e83d 9655 553e 52d5 0d3e
00000110: 0272 b63d 57ff 513d ab28 143e 4a72 233d
00000120: d5d3 0b3e 86c3 11bd 7930 1abd 1b58 903e
00000130: 3eb5 803e 44d8 4d3e 5e8e 3fbc 4ac4 c43d
00000140: 0268 903e 192b 093e b8be 613d 1d7f 1b3e
00000150: f02c e9ba 4fbd 163e 7ae4 383e 37de 0b3e
00000160: e1c7 b73d 9771 813c 73dd 563e a813 3c3e
00000170: 37a6 843d b325 5c3e 764f a13d 735e f1bc
00000180: 9556 083d 2764 ea3c 8ec0 173e 6838 c03c
00000190: 8c13 1fbc 966f b13d 8160 ae3d 852b 113e
000001a0: cb74 483d f6ff 283e 6d3a 2e3e d9df 6a3e
000001b0: be25 393e c7d9 a83e 8635 0b3e 8ffd 60bd
000001c0: 6925 0e3e 3801 073d e812 d53d 562f b6bd
000001d0: d97f 393d ad86 513d 5a81 0d3d 23d9 92bd
000001e0: e8d4 443e 64d4 673d 1ded 03bd 20bf cabd
000001f0: eed4 423e c2a4 b63c f5e1 113e 7c4d f5bd
00000200: 2929 b73d 99b4 5a3e eaf9 853e c53c c03d
00000210: e171 bc3d 9b04 a0bb 829e 11bc 6c01 6f3d
00000220: f3ff 383e d359 113e 9988 5e3e e965 a53c
00000230: c108 5b3d b410 913d a466 e6bd 3f94 003d
00000240: 2d78 fa3d eb30 973e 93ff 643e d094 353e
00000250: 2c41 803e 3505 d03c b50e e23d b761 073e
00000260: ae49 1b3e cc5f 2d3c 3655 253e ab51 e53d
00000270: d76a 0c3e 9667 423d ec3c 913c 29ae d83d
00000280: 55dd 873d 079f c23d b753 d63d cb0f 113e
00000290: 66df 1f3e c492 dbbd 98c1 41bd c610 293e
000002a0: 8d1f 8a3d 2387 983e 0a30 f1bd ecbb f73d
000002b0: b4fb 943d bf40 873e 38a5 a33d c214 223e
000002c0: c4f0 d9bd 85a5 2b3e 1d10 b03c 3d49 e93d
000002d0: e6bf 323e ff42 d13d cf5e 363e 85c9 413e
000002e0: 9843 323b b6f8 383e fbaf 9b3c 53a1 463d
000002f0: 1058 d53c 8f24 6e3e f34b 2f3e 4e4b 5d3e
00000300: 5879 583e 4581 863e 7d77 2d3e 2364 c63d
00000310: 550f 543d c96d 013e 3570 dd3d b59c 043e
00000320: 1c35 993e a3a0 c13d 90cb 4c3e bb98 6b3e
00000330: d7ea 873d ef76 1a3e 3d45 fe3d c338 cf3d
00000340: cb67 143d b081 3f3e 9e6f c53d 60cc 3a3e
00000350: 1412 463e 87d4 813d 9f43 ed3d ae5a c23d
00000360: cebe 363e e42b 86bd 608e a8ba a82e 0f3e
00000370: 5d6f 2e3e 3833 ee3d 2c57 653e b452 1d3e
00000380: 2768 643e 7e98 0a3e b263 2f3e 313b 483e
00000390: 6bda 083d d07b 783e 5fad 3e3d b0f8 ca3d
000003a0: 9bf0 163e 1aeb 123d 8110 1b3e e1d0 2d3e
000003b0: 1576 e4bc 9881 053e 426e 2b3b 08ad 4a3e
000003c0: d6d1 d03d 3bcf 073b 403b 243e 0b9c ae3d
000003d0: d107 fe3d 5942 613e 2980 2e3e fc44 dc3d
000003e0: 88d7 013e e933 833e 55d5 cf3d 3f1d c83d
000003f0: 5736 1e3e 2eff c93d e07a 443e ac67 8a3b
0.11819785 0.0742669 0.17035443 -0.047106247 0.18609406 0.18557042 0.2386378 0.08851999
0.31672108 0.26837713 0.22713436 0.13939653 -0.02044248 0.16759826 0.15194051 0.021804929
-0.020225644 0.2002137 0.15502906 0.12366355 0.0031975973 0.18378127 -0.018377434 0.10117943
0.16955619 0.13558611 0.13742116 0.23232874 0.042928386 0.08558395 0.10591964 0.15214993
0.040344562 0.24346064 0.17807254 0.018490965 0.0021397236 0.14958067 0.022492489 0.05364226
0.046656758 0.20456669 0.08927163 0.02454391 0.1367328 0.19950226 0.114090905 -0.05005149
0.11386072 0.038658593 0.17883708 0.105305105 0.25675762 0.068839915 0.22661795 -0.008273918
0.2397172 0.03302576 0.061997306 0.19411922 0.13721228 0.11235761 0.04499819 0.09487035
0.19228293 0.11329053 0.2083343 0.13850906 0.08908464 0.0512689 0.14468639 0.039903916
0.13655026 -0.035586856 -0.037643883 0.2819222 0.25138277 0.2010203 -0.011691658 0.09607752
0.28204352 0.13395347 0.055113524 0.15185209 -0.0017789882 0.14720653 0.18055907 0.13658987
0.08973671 0.015801234 0.20982914 0.18366873 0.064770155 0.21498756 0.07876484 -0.029463982
0.033285696 0.02861221 0.14819548 0.023464397 -0.00970925 0.086638615 0.085145004 0.14176758
0.048939507 0.16503891 0.17014475 0.22936954 0.18080804 0.3297865 0.13594636 -0.054929312
0.13881458 0.032960147 0.10403997 -0.08895747 0.04528794 0.051153827 0.034547187 -0.07170322
0.19221842 0.056599036 -0.03220855 -0.098997355 0.19026539 0.02229536 0.14246352 -0.119776696
0.089433976 0.21357955 0.26167232 0.09386591 0.09201408 -0.0048833615 -0.008887889 0.058350965
0.18066387 0.14194421 0.21731795 0.020190196 0.053475145 0.07083264 -0.11250046 0.03139138
0.12229953 0.2952951 0.22363119 0.17732549 0.25049722 0.025393108 0.110379614 0.13220869
0.15164825 0.010581922 0.16145787 0.111972176 0.13712631 0.04746207 0.017729245 0.105800934
0.066340126 0.09502988 0.10465186 0.14166181 0.15612563 -0.10721353 -0.047303766 0.16510305
0.06744299 0.297906 -0.11776741 0.1209639 0.07274571 0.26416585 0.07990497 0.15828231
-0.106416255 0.1676236 0.021492058 0.11390922 0.17456016 0.102178566 0.17809604 0.1892453
0.0027200934 0.18063626 0.019004812 0.048493695 0.026042968 0.23256133 0.17118816 0.21610758
0.21140039 0.262705 0.16940112 0.09687068 0.051772434 0.12639536 0.108124174 0.12950404
0.29923332 0.09454467 0.19999528 0.23007481 0.06636589 0.15084432 0.1241555 0.10118248
0.036231797 0.18701816 0.0964043 0.18242025 0.19342834 0.063393645 0.11585163 0.09489952
0.17846224 -0.0655134 -0.0012859814 0.13982642 0.17034669 0.11630863 0.22396535 0.1536358
0.22305356 0.13534734 0.17127874 0.1955383 0.033411425 0.2426598 0.04655206 0.099107146
0.14740221 0.03586874 0.15143014 0.16974212 -0.027888337 0.13037717 0.0026158248 0.19792569
0.10196273 0.0020722884 0.16038227 0.085258566 0.124038346 0.21997966 0.17041077 0.10755345
0.12679875 0.25625542 0.10148112 0.09771203 0.15450417 0.09863125 0.19187498 0.0042237844

fc2.bias f4 [300]
00000000: f56d 073e 0d15 513e 149e 333e dd0d 823d
00000010: 98fc 0d3e c0b9 7b3e c55b 6d3e aba2 f93d
00000020: 232e ae3e 1191 6b3e df1f 763e 37c1 833e
00000030: 917d 103e 7531 313e 77b1 283e cb78 473e
00000040: a5c9 c33d c702 3b3e 43d3 c33c fffc 1a3e
00000050: 054c 8d3e 843e 193e d4c1 d33c 8c9a a03e
00000060: a991 783e 30f6 163e a0a4 863e 41c8 4f3e
00000070: 5cda 303e deb9 5d3e 2f13 8b3d 39db 3d3e
00000080: f7f3 d63d ca5a 263e 37bf 323e b5f3 2d3e
00000090: 222d 163e ca18 4a3e d446 9e3d cb33 243e
000000a0: 5c72 1b3d e11c 4f3e f087 523e 2e91 aa3e
000000b0: 069e 6f3e 7ffe 493e 3099 813d cf13 343e
000000c0: 1daa f93d 391e e63d 5089 433e 00f3 bd3d
000000d0: 9850 073e 8314 813e 9492 b33d 7d85 193e
000000e0: fbdb ac3e 91e7 f03d 3777 763e ed18 213e
000000f0: 6339 5c3e 9c27 2e3e 5cb8 253e d904 ad3d
00000100: 6000 273e 3a86 833e 806b 033e 9ac4 aa3d
00000110: 3e6c 4a3e 537c 203e 49ab 853e 1e27 393e
00000120: fceb 0e3e 8a41 673e 30c9 253e 211e 343e
00000130: b6a6 f83d b12c c63d 0843 463e 2b46 8c3d
00000140: 5cbd f33d fe4e 263e 7094 093e ee41 103e
00000150: 2968 963e 73c6 773e 261a bb3e ddce 433e
00000160: bcda f63d 357a f43d 33f4 563e 5eb2 403e
00000170: 5e31 0e3e 5a88 5d3e 4739 c13d fc50 3e3e
00000180: cb9e ac3e 87ca 623e a152 363e ac8c 3a3e
00000190: 4b85 9b3b 8376 873e a8b1 283e 9ade 203e
000001a0: e94e 293e 71ca 063e d959 5f3e 49ef 6a3e
000001b0: 58de 333e 9d44 7c3e 5dcd bb3d 3f74 c43d
000001c0: 46d4 e73d fb37 9e3d 3b20 1bbc 82d5 503e
000001d0: 7c9c df3d 4137 ed3d ad64 8b3d e22f 423e
000001e0: 2d90 9b3d 861e 8c3e 5da9 273e c873 6f3e
000001f0: be88 863e a020 743d c7c4 203e 4251 fa3d
00000200: 8871 b13e 0e22 713e 5dab 0c3e 78e4 b13e
00000210: ade5 e03d 4182 093e 3534 b73e 639e 423e
00000220: d6b5 413e 1dd7 253e eccc 343e 2700 153e
00000230: 8e37 883d e472 b63e ad96 1e3e 6b0a 843e
00000240: 53c4 733e 67cb 3e3e 46f3 3f3d 2aff e63d
00000250: 97e2 bf3e 0dc8 423d c049 1b3e 2cd0 d63d
00000260: 6b6f e23d 4ae5 403e 2270 7b3e f04c 223e
00000270: cfff ee3d b082 5d3e 4ca5 603e 16c3 883e
00000280: 1dcf 2f3e cb8d 063e 087c 4c3e 32c7 9a3e
00000290: 5b3b 4b3e 3fc7 1d3e 0d14 c43d d79e 2d3e
000002a0: 0cbe 663e e08f 533e d1ab 813e 400a 823e
000002b0: a131 0a3e ebc0 0f3e a92f f03d 35c8 7e3d
000002c0: 6f0b 323e 02ce 743e 0637 ec3d 802b 603c
000002d0: adfe 613e 55d5 003e 89fb 193e dfc2 993e
000002e0: 24aa 2f3e 9bcd 203e e5f4 243e e0c5 143e
000002f0: 48bc 573e 02fd 243e af01 843e dc32 433e
00000300: d257 d43d 5f10 653e ac52 453e 6467 0bbb
00000310: 73a5 533e 3ab6 323e 7fbe 083e f5bc 123e
00000320: f11e 553e 2289 6f3e 259c 993e 1592 5c3e
00000330: 3c14 493e c10f 2f3e 07a9 3b3e c055 0d3e
00000340: ffab 423e 0dd3 f63d 2ef2 403e f329 223e
00000350: 471e 193e 6bd6 e1bb 7647 0f3e 4637 2e3e
00000360: 6ff7 013e 228c 2f3e f9fd 123e 443a 3a3e
00000370: be62 c23d e2a6 e93d df2e 393e 901b 2c3e
00000380: ca7a 173e 0bf5 3a3e da68 043e b122 103e
00000390: 8f2d ee3d 5ada 103e ea41 ff3d 0aa4 3a3e
000003a0: b5cd 0d3e 5283 7f3e fbda 083e 8a73 0f3e
000003b0: faf6 ec3d c3db 4a3e c427 ac3e fe00 403e
000003c0: 9bd2 183e 9d35 0c3e dbcd 1f3e 92e1 3a3e
000003d0: 8b77 af3e deaf 193e 75fb 443e b9f1 5a3e
000003e0: 7762 013e 51ae 403e 13ea d43b 4458 9e3e
000003f0: b387 533e 5937 0bbd b6e7 713e dd4c 3e3e
0.13225539 0.20418186 0.17540771 0.063503005 0.13865888 0.24582577 0.23179539 0.121892296
0.34019575 0.23004557 0.24035595 0.2573335 0.141104 0.17304023 0.16473947 0.19479673
0.09559945 0.18262778 0.023904448 0.15135573 0.2759706 0.14965254 0.02584926 0.3136791
0.24274315 0.1474235 0.26297474 0.20291235 0.17270797 0.21652934 0.06790768 0.18540658
0.10495751 0.16245571 0.17455755 0.16987498 0.14665654 0.19736019 0.07728353 0.16035382
0.03795086 0.2022586 0.20559669 0.33313888 0.23400125 0.19725989 0.06328046 0.17585681
0.1219065 0.11236233 0.1909535 0.09274864 0.13214338 0.25210962 0.08768192 0.14992328
0.33761582 0.11762918 0.24068914 0.15732165 0.21506266 0.17007297 0.16183609 0.0844819
0.16308737 0.25688344 0.12833977 0.0833828 0.19767854 0.15672426 0.26107243 0.18081328
0.13957208 0.22583595 0.16190028 0.17589618 0.121411726 0.09676493 0.19361508 0.06849321
0.11901352 0.1624107 0.1343553 0.1408765 0.29376343 0.24196796 0.36543387 0.19121881
0.12053439 0.11937372 0.20991592 0.18818042 0.1388602 0.21634045 0.09434753 0.1858558
0.337149 0.2214757 0.17804958 0.18217725 0.0047461144 0.26457605 0.1647402 0.15709916
0.16534008 0.13163163 0.21811618 0.22942843 0.17565286 0.24635549 0.09170029 0.09592485
0.11319785 0.07725521 -0.009468134 0.20393947 0.10918519 0.115828045 0.06806312 0.18963578
0.07595859 0.27367038 0.163732 0.23384011 0.262762 0.059601426 0.15700065 0.1222253
0.3465693 0.23548147 0.13737245 0.3474462 0.10981307 0.13428594 0.35782018 0.19005732
0.18917021 0.1619534 0.17656296 0.1455084 0.06651221 0.3563453 0.15487166 0.25789198
0.2380536 0.1863228 0.046862863 0.112791374 0.37477562 0.047554065 0.15164852 0.104889244
0.110564075 0.18837467 0.24554494 0.15849662 0.11669885 0.21631885 0.21938056 0.2671134
0.17168851 0.13140027 0.19969189 0.302301 0.19846861 0.15408038 0.09574137 0.16955124
0.22533435 0.20660353 0.25326398 0.25398445 0.13495494 0.14038436 0.117278405 0.06220265
0.17387174 0.2390671 0.115339324 0.013682246 0.22069807 0.1258138 0.1503736 0.30031487
0.17154747 0.15703432 0.16109045 0.14528608 0.21067917 0.1611214 0.25782534 0.1906237
0.10368313 0.22369526 0.19269818 -0.0021271342 0.20668583 0.17452326 0.13353918 0.14329894
0.20812584 0.23392156 0.3000194 0.21540101 0.19636625 0.17095853 0.18326198 0.13802242
0.19010924 0.120519735 0.18842384 0.15836315 0.14952956 -0.0068920157 0.13992104 0.17013273
0.12692045 0.171433 0.14354695 0.18186289 0.0949149 0.114087835 0.18084286 0.1680739
0.14792934 0.18257539 0.12930623 0.14075734 0.11629783 0.14145795 0.12463744 0.18226638
0.13848002 0.24952438 0.13364784 0.14008918 0.115705445 0.19810395 0.3362409 0.18750378
0.1492409 0.13692327 0.15605871 0.18250111 0.34270892 0.15008494 0.19236548 0.21381272
0.12635218 0.18816496 0.0064976304 0.30926716 0.20657234 -0.03398833 0.23623547 0.18584009

bn1.weight f4 [400]
00000000: 2057 843f 7de0 6d3f a09f 803f 1b85 993f
00000010: d990 8a3f 5c4b 9a3f 42e4 833f 5085 953f
00000020: c5cc 7c3f aa30 7b3f bd4d 7e3f 2196 a73f
00000030: 39d5 8e3f b5bf 763f 7c40 7f3f ab07 b43f
00000040: 6c89 883f 3677 913f dadc 5a3f 4177 623f
00000050: 6761 7e3f 6542 953f b4ed 863f e414 933f
00000060: f03b 873f 72b5 843f c6b3 653f c7b9 7e3f
00000070: f5a0 6f3f 82c4 863f 67ed 8c3f 5521 9b3f
00000080: c529 953f 2d71 823f c323 803f ad22 883f
00000090: 16de 8d3f b02e 8d3f 6044 613f b623 9a3f
000000a0: 7841 b53f 2940 913f ee93 a83f a3b6 433f
000000b0: dd31 803f 4ef2 903f df4a 903f 17aa 853f
000000c0: 3321 8c3f 95dd 8d3f 14be 413f 5359 923f
000000d0: bc0d 853f cf4b 813f 015b 9f3f 77d4 933f
000000e0: 3faf 903f 4495 8f3f e8dd 973f bbf0 9e3f
000000f0: d2d2 703f bda2 aa3f 166c 8f3f ea56 913f
00000100: a98a a83f e160 723f 1186 873f b040 763f
00000110: 4858 9f3f d4e8 8c3f b5d9 893f ef0c a53f
00000120: e2b2 753f 68be b43f e948 9f3f 6c47 983f
00000130: aeb2 883f c101 933f 852a a33f aa98 863f
00000140: 621e 8b3f 39e2 5f3f f487 ab3f a9a0 643f
00000150: 10d7 903f 5128 413f 1395 5b3f 22b0 713f
00000160: c0b9 643f 874f 9a3f fd7f a43f 7ad4 6f3f
00000170: ca50 853f 2233 813f 0892 893f fbe9 953f
00000180: 303f 8f3f ee7a 753f 174f 873f e523 813f
00000190: 65b8 8f3f f4df 963f 741f 863f 0fa4 9e3f
000001a0: 95bb 6e3f dbdf 713f 41fc 9c3f 1c72 923f
000001b0: 9a75 853f 7333 813f ff6a 923f 674d 953f
000001c0: 28f7 823f cbcc 723f 28a5 943f 9b86 ab3f
000001d0: 98b2 973f 18ea 853f abb0 8c3f 9c69 8e3f
000001e0: 26e2 843f 06b9 ad3f dc13 9c3f 7e20 a53f
000001f0: b4ed 873f 0f4b 593f 4331 943f 47f9 ba3f
00000200: 31b3 973f 9621 763f 059d 783f b69f 9b3f
00000210: 3396 8b3f 282a 7f3f aa13 893f 5f93 863f
00000220: 320a 8e3f f355 9e3f b6f7 853f db00 a43f
00000230: dde0 8c3f 611d 813f 4527 8f3f b0f6 913f
00000240: 8c57 893f 4b58 993f 9a91 823f 3e5e 5d3f
00000250: b31c a73f 69af 8b3f 702f 913f 4188 843f
00000260: 1fab 773f 7d4a 6d3f 311b 9b3f 38ec 793f
00000270: 32eb 843f c5fa 913f 06c4 7a3f ddde 7b3f
00000280: ef56 8a3f 3e93 8a3f 2bfc 5b3f a12b 773f
00000290: f5ce 843f 5cea 993f f9df 953f 70c2 783f
000002a0: ce1c 913f 76d9 743f 0cdd a53f c5d7 6c3f
000002b0: df88 853f 4cde 823f 77ab 823f b244 693f
000002c0: 3862 9e3f 59c0 883f ce14 9e3f bfff 763f
000002d0: 5cc1 8c3f 4b88 823f 324a 773f 5dc4 863f
000002e0: 8e07 9e3f c70c 653f c1fe b23f 4f7a 493f
000002f0: 667a 873f 9aed 603f 9864 813f 5799 8a3f
00000300: dd4b 923f 9627 873f 7866 943f ba7d 843f
00000310: 2bfb 8d3f a8fa 8c3f a4fb 9e3f f73d 6a3f
00000320: c3a5 7c3f 5487 9e3f ac64 773f 1948 9b3f
00000330: a798 8f3f da43 7f3f 62d1 823f ac72 be3f
00000340: 49d9 963f 1b45 ab3f 7621 6c3f 98ba 873f
00000350: 7efa 553f 01f3 913f 47be 4e3f 7a9c 673f
00000360: 0b2c 853f 680e 913f 57a6 813f 7578 833f
00000370: dffa 7f3f 8080 8a3f 3e0e aa3f 58d1 653f
00000380: 62b0 733f 18e7 943f 25cc 643f 066b 6b3f
00000390: ed0d ad3f 0147 5a3f 8fc9 883f 8d25 8b3f
000003a0: 6483 853f b609 6e3f b01e 833f 632d 953f
000003b0: 2153 aa3f ea61 843f 4308 8c3f 0d24 7f3f
000003c0: 619a 9b3f eb82 9c3f 8658 4e3f cf07 5f3f
000003d0: 506c 6f3f ac32 983f 11f3 423f 87aa 8a3f
000003e0: 2d8d 763f 97b3 7b3f 2f43 743f bf43 b43f
000003f0: a2b3 833f 3ba6 ae3f 8021 603f 9d08 ac3f
1.0339088 0.92920667 1.0048714 1.1993746 1.0825454 1.2054248 1.0304034 1.1681309
0.98749954 0.9812113 0.9933737 1.3092691 1.115882 0.9638627 0.9970777 1.406484
1.0666938 1.1364505 0.8549324 0.8846322 0.99367374 1.1660887 1.0541291 1.149075
1.0565166 1.0367873 0.8972744 0.99502224 0.93604976 1.052872 1.100995 1.2119547
1.1653372 1.0190789 1.0010914 1.0635582 1.10834 1.1029873 0.87994957 1.2042148
1.4160604 1.1347705 1.3170145 0.76450557 1.0015217 1.1323946 1.1272849 1.0442532
1.0947632 1.1083246 0.7568066 1.143351 1.0394816 1.010126 1.2449647 1.1549214
1.1303481 1.1217427 1.1864595 1.2417215 0.94071686 1.3330914 1.120486 1.1354649
1.3167316 0.94679075 1.0587789 0.96192455 1.2448816 1.1008554 1.0769564 1.2894572
0.9597608 1.4120607 1.2444125 1.1896796 1.0679529 1.148491 1.2747351 1.0515339
1.0868647 0.87454563 1.3400865 0.8930765 1.1315632 0.7545214 0.85774344 0.9440938
0.8934593 1.205552 1.2851559 0.9368359 1.041528 1.009373 1.074769 1.171203
1.1191158 0.958907 1.0571011 1.0089079 1.1228148 1.1787095 1.0478349 1.2393817
0.9325498 0.944822 1.2264482 1.1441073 1.0426514 1.0093826 1.1438903 1.1664246
1.0231676 0.9484374 1.1612902 1.3400453 1.1851377 1.0462065 1.0991415 1.112598
1.0381515 1.357209 1.2193561 1.2900541 1.0619416 0.84880155 1.1577533 1.4607323
1.185156 0.96145 0.9711459 1.2158115 1.0905212 0.996737 1.0709126 1.0513724
1.1096861 1.236998 1.046622 1.2812761 1.1006123 1.0087091 1.1183859 1.1403408
1.0729842 1.198007 1.0200684 0.8647193 1.3055633 1.0912906 1.1342602 1.0354081
0.96745485 0.92691785 1.2117673 0.97626066 1.0384276 1.1404654 0.9795536 0.9838694
1.080778 1.0826185 0.8593165 0.9655095 1.0375658 1.2024646 1.1708976 0.9717169
1.1336915 0.9564432 1.2958083 0.9251674 1.0432395 1.022409 1.0208577 0.91120446
1.2373724 1.06837 1.2350099 0.9648399 1.0996509 1.0197843 0.9659759 1.0528675
1.2346056 0.8947262 1.3983995 0.78702253 1.0584228 0.8786255 1.0108824 1.0828046
1.1429402 1.0558956 1.1593771 1.0350869 1.1092275 1.1013994 1.2420545 0.915008
0.9869043 1.2385049 0.9663799 1.2131377 1.1218461 0.9971291 1.0220149 1.4878745
1.178506 1.3380464 0.9223856 1.0603819 0.83585346 1.1402284 0.8075909 0.9047314
1.0404066 1.1332521 1.0128888 1.0271136 0.99992174 1.0820465 1.3285596 0.8977256
0.95191014 1.1633024 0.89374 0.9196018 1.3519875 0.85264593 1.0686511 1.0870835
1.0430722 0.9298357 1.024374 1.1654476 1.3306619 1.0342381 1.0940021 0.99664384
1.2156488 1.2227453 0.80603826 0.8712129 0.93524647 1.1890464 0.7615214 1.0833291
0.9630917 0.9832091 0.95415014 1.4083174 1.0289195 1.364448 0.87551117 1.3440129

bn1.bias f4 [400]
00000000: 7459 12be 0494 ebbd a852 94bd 11c9 98bd
00000010: ce1b 7ebd 3938 c8bc 2a88 cfbd fa84 cdbd
00000020: c12b 23be 88a8 38be d587 a3bd 55c0 7fbd
00000030: 0ac0 2cbd 7509 f3bd a52d 31be cd72 693b
00000040: 2cf1 cdbd 9194 7dbd b2b3 47be f4cd 22be
00000050: b0b5 06be ec87 2fbc cec3 fcbd 7238 2ebc
00000060: 19b8 46be 8985 c0bd 6864 fcbd eb83 a3bd
00000070: e1bf 8ebd 96a6 07be 24f6 8ebd ad07 4dbc
00000080: 9355 7dbd a65f 1fbe 03bd 9ebd a47f e5bd
00000090: a8ab 60bd 6a45 14be 3984 34be 3f30 45bd
000000a0: 35a3 c13a 35d3 16be 2450 eabc 447e 86be
000000b0: aa48 a9bd 87f4 223d 49b6 87bd 0b1a 18be
000000c0: 29d7 8bbd 43db 82bd 8e8e 45be dccb 22bb
000000d0: 9663 12be d33e 7fbd e172 8bbd 3a6f f2bd
000000e0: 978f 84bd 46c2 8f3b cebe d3bb 50f9 c8bd
000000f0: 5e4e 37bd a20d 03be e85b 04be ea6f a8bd
00000100: 5b26 23be 6cb5 12be b6c3 3fbe 453b cebd
00000110: 7bd5 dabd bbff f0bc 1fd9 96bc a5a5 68bd
00000120: 80d9 e7bd cddc 0cbd 8b53 3dbd 73d3 8bbd
00000130: 966f a5bd eca2 93bd 5715 47bd df27 8fbd
00000140: e458 04be 2e2b 02be 314d 99bd bc5c dabd
00000150: 089f 73bd 6507 37be 1766 ffbd cfce 0bbe
00000160: 0e37 25be bd9d 37bd 1241 4abd 9f66 fdbd
00000170: 4987 31be a1e9 eebd d1e9 d6bd 1467 c3bd
00000180: fa0e 183d c08f 25be d9c7 dbbd 45e6 12be
00000190: da7f d1bd fa9f d0bd 94f1 cbbd bc9e 75bd
000001a0: e686 9ebd b4ed 06be 93f6 b8bd 0e7b 7abd
000001b0: 9cba 1dbe df3f e4bd 54e8 b5bd cc2e a7bd
000001c0: f615 cfbb 2ab0 85bd f824 0e3c 1afb 4bbd
000001d0: 6aa1 72bd 330b d1bd da3a 393d 9f75 8bbd
000001e0: fb8f 96bd 5dcd 86bd 6dd7 e4bd 36cd 22bd
000001f0: 7fee 63bd 0e05 70be 7444 abbd d34c 53bd
00000200: c509 06bd 4272 58be a1cb 53be 3565 d8bd
00000210: aa3f 95bd 95d5 89be 1b9f 00bc fdd8 e3bd
00000220: 46cf e0bd e13a 62bd 09ec e1bd 4134 0cbe
00000230: 00e0 1abe 2a87 18be efb0 1abe 0f39 bbbd
00000240: 28f8 07be 40c0 f7bd 687a ddbd ce7a 6dbe
00000250: 0ead 88bd 213b dfbc a6b3 aebd 83c7 7ebd
00000260: f36b c9bd 3bce 67bd c688 a0bd 9bb9 56bd
00000270: 372e fcbd 549b 9fbd ea29 cdbd e350 2bbe
00000280: 0cc7 01bd 3ad9 91bd 3550 2cbe 518c 10be
00000290: f61f d6bc 6ec8 97bd c0cb c9bd 13cb 01be
000002a0: 6679 e3bc bb1f 93bd 47f3 91bd ad60 55be
000002b0: 1cce 11bd 71cd 0bbe 8569 c5bd 9d88 c8bd
000002c0: 9c3f 2fbd 51fa 96bd 6933 53bd 6d1b 1ebe
000002d0: c65f 04be 4c60 60be 58f9 eebd e2e2 91bd
000002e0: 4039 62bd a96d f5bd afc4 023c 9512 22be
000002f0: c8fe 94bd 6a38 c7bd a982 2ebe 4a31 e3bd
00000300: dce0 cfbd a2d3 0dbe a1c5 4cbd 80cd 2bbd
00000310: 6a0b c9bd 3853 52bd 1a13 27bd 72c4 12be
00000320: bd55 20be e140 46bd 9abb f4bd d9db 91bd
00000330: 7ced 39bd e4f3 efbd b3c4 45bd 970d 7e3c
00000340: f00e d3bd 68a1 6cbd 3804 03be dcfd e2bc
00000350: 6cf2 43be e807 96bd 34f3 4ebe 161a b7bd
00000360: 479b 09be 3924 28bd 0da3 f33c 01e4 29be
00000370: ee97 a5bd 8973 23bd b5e8 18bd 16f2 29be
00000380: 39c0 d2bd 222c 3cbe 8347 0bbe cb87 16be
00000390: 36c1 d8bb b0e6 d5bd d6af dcbd e3fa 34bd
000003a0: 0d6b 2cbd 0525 c2bd 5111 88bd d705 f73c
000003b0: bdfd 45bc 88f5 4fbe 29d5 ecbd 5c61 d2bd
000003c0: 93c4 ba3d 86a1 54bd cc37 36be 2a09 04be
000003d0: 8902 bfbd e335 a0bd ecb7 83be 68b1 b4bd
000003e0: 63da c4bd c474 febd 3ba2 d8bd 05fb 37bd
000003f0: 5591 2abd b1d7 82bd 1649 3bbe 995e 4bbd
-0.14291936 -0.11502841 -0.07242328 -0.074602254 -0.062038235 -0.024440872 -0.10133393 -0.10035129
-0.1593466 -0.1803304 -0.07984892 -0.06243928 -0.04217533 -0.11867038 -0.17302568 0.0035621405
-0.100557655 -0.061909262 -0.19502142 -0.15898877 -0.13155246 -0.010713559 -0.12342034 -0.010633575
-0.19406165 -0.0940047 -0.123238385 -0.07984146 -0.06970192 -0.13247141 -0.06980541 -0.012514037
-0.061849188 -0.1556383 -0.07750895 -0.11205986 -0.054851204 -0.14479604 -0.17628564 -0.048141714
0.0014773371 -0.14729007 -0.028602667 -0.26268208 -0.08265813 0.03978398 -0.06626565 -0.14853685
-0.06828148 -0.06389477 -0.19292662 -0.0024840748 -0.14295802 -0.062315773 -0.06809021 -0.11837621
-0.064727 0.004387173 -0.0064619547 -0.098131776 -0.04475247 -0.1279817 -0.12925684 -0.08224471
-0.159326 -0.1432702 -0.18727002 -0.100698985 -0.106852494 -0.029418817 -0.018414078 -0.056798596
-0.11320782 -0.03439026 -0.04622225 -0.0682744 -0.08077924 -0.07208809 -0.048604336 -0.06990027
-0.12924534 -0.12711784 -0.07485426 -0.10662219 -0.059477836 -0.17873915 -0.12470644 -0.1365311
-0.16134283 -0.044828165 -0.049378462 -0.12373089 -0.17336763 -0.11665655 -0.10493816 -0.09541145
0.037123658 -0.16168118 -0.10731477 -0.14345653 -0.10229464 -0.10186763 -0.09958187 -0.059965834
-0.077405736 -0.13176614 -0.09031405 -0.06115251 -0.15403217 -0.11144995 -0.08882204 -0.08163223
-0.0063197566 -0.06527741 0.008675806 -0.049800016 -0.059235968 -0.10207214 0.04522214 -0.06809544
-0.07351681 -0.06582139 -0.11173902 -0.039746486 -0.05564737 -0.23439428 -0.08362666 -0.051586937
-0.03272416 -0.21137336 -0.20683147 -0.10566179 -0.072875336 -0.26920763 -0.007850434 -0.111253716
-0.10977034 -0.055231933 -0.11031348 -0.13691808 -0.15124512 -0.14895311 -0.15106557 -0.091417424
-0.13278258 -0.12097216 -0.10814363 -0.23191378 -0.066736326 -0.027249875 -0.08530359 -0.062201988
-0.09835043 -0.05659316 -0.078385875 -0.0524231 -0.12313502 -0.07793298 -0.1001776 -0.16730075
-0.031683967 -0.07121511 -0.16827472 -0.14116026 -0.026138287 -0.07411276 -0.09853315 -0.12675123
-0.027767848 -0.071837865 -0.071264796 -0.2083766 -0.03559695 -0.13652588 -0.09639267 -0.09791682
-0.042785272 -0.07371963 -0.0515627 -0.1544015 -0.1292716 -0.21911734 -0.11668652 -0.071233526
-0.05523038 -0.11983807 0.007981463 -0.15827401 -0.07275158 -0.09727557 -0.1704203 -0.110933855
-0.101503104 -0.13850263 -0.04999316 -0.041944027 -0.0981663 -0.051348895 -0.0407897 -0.1433275
-0.15657707 -0.048401717 -0.11949845 -0.07122011 -0.0453925 -0.1171644 -0.04828329 0.01550617
-0.103055835 -0.057771116 -0.12794578 -0.02770894 -0.19135445 -0.07325727 -0.20209962 -0.089405224
-0.1343814 -0.04105017 0.029740835 -0.16590883 -0.08085619 -0.039905105 -0.0373313 -0.16596255
-0.1029057 -0.1837621 -0.13601498 -0.14700238 -0.0066148294 -0.10444391 -0.107757255 -0.044184577
-0.04209428 -0.09479717 -0.06643928 0.030154152 -0.012084422 -0.20308506 -0.115640946 -0.10272476
0.09119525 -0.051911853 -0.17794722 -0.12894121 -0.093266554 -0.07822778 -0.2572626 -0.088229
-0.096119665 -0.12424615 -0.10577818 -0.044917125 -0.041642506 -0.06388796 -0.18289599 -0.049650762

bn2.weight f4 [300]
00000000: 8380 a03f 1630 2e3f 5dc2 d63f b6d4 7d3f
00000010: 9aee 7b3f 8c60 503f fe46 303f 0835 7d3f
00000020: 1ef4 b43e 2867 843f 2768 713f 7712 3c3f
00000030: 21ee 973f dcac 813f 4a26 603f 05f0 923f
00000040: 3667 7e3f 66cb 2a3f 44c9 bc3f 3b5e 7d3f
00000050: 5a75 153f d25b 623f 42d6 693f 23c2 c73e
00000060: 0a7e 263f cbc2 783f ae24 1e3f b969 5a3f
00000070: 3da0 753f e2d6 dc3f 2138 f83f 6b22 723f
00000080: 019a cd3f 65d9 e13f 0971 9c3f a0c8 b43f
00000090: c364 4d3f 357c a53f 98db 843f 83c0 bd3f
000000a0: 5658 8a3f 89c2 9e3f 7086 1b3f 7563 023f
000000b0: aa0f 503f a361 a63f 8bc4 af3f 9a8d 573f
000000c0: 8db2 603f 0ad8 903f 4997 1e3f 1731 b93f
000000d0: f4b2 a73f a0b2 393f 826a d13f de5c a13f
000000e0: 37ef e43e 6de4 893f f5d6 4b3f 0ab1 bd3f
000000f0: 9b54 3d3f 607d 5d3f 5ba6 933f 9047 893f
00000100: bfa0 283f 49f0 203f 52fd cb3f 9ec5 813f
00000110: 1e68 413f 3f83 843f 5293 843f 26e0 a73f
00000120: 22d7 a83f 5d59 583f 4307 853f 2298 983f
00000130: 40bd 573f 2e74 8d3f d8b7 7d3f c3b7 b33f
00000140: 6974 5b3f 851b c33f 4384 563f c5e0 8f3f
00000150: 89ac f83e efda 3c3f 5dcf 0d3f 4bba b03f
00000160: f62e 8d3f 1040 c03f 05cf a63f 4409 1f3f
00000170: ff1e 433f f3fd 773f b887 8e3f ed2b 443f
00000180: 52bb 0a3f 0748 0e3f 4538 983f 9bbd b63f
00000190: 8992 af3f f811 a43f 8c15 c93f c373 fd3f
000001a0: 4253 7b3f 464f 733f bdc2 a53f ca33 a03f
000001b0: 282e 9b3f e4a8 c33f 1481 833f d64e 933f
000001c0: 2f4c 673f fe04 a43f b206 c83f 7adc 5e3f
000001d0: 1b8a 3c3f 8f20 6f3f 2153 8e3f f3e0 903f
000001e0: dac7 b23f 6b42 593f cc7e cc3f e233 843f
000001f0: 8c9a 343f 6f1b 8c3f e0f4 913f d4a4 573f
00000200: 2d10 db3e 82ae dd3f bcee a13f 260a 1b3f
00000210: 7838 8b3f 9161 3e3f 456a ce3e b7a9 c03f
00000220: 06a0 923f dca7 7a3f 2806 bc3f 4e3f 2d3f
00000230: f65e a23f 2021 f03e 2a0b a23f d8b2 3a3f
00000240: 7452 6c3f 733e 5e3f 8eaa 643f 37f2 2f3f
00000250: cea9 ef3e 7409 8c3f fb31 c23f 0993 8c3f
00000260: 93ce eb3f 4d3b 1e3f 3589 443f b773 4b3f
00000270: 4451 c03f 1b2f 3e3f eade 3b3f 2047 6b3f
00000280: 346d 1c3f 20ad 593f a3ec 183f 68fd f63e
00000290: 2eed a23f 178b d73f 82cd ab3f 9e2f a33f
000002a0: 0343 473f fec1 b23f ac8a 6f3f 3639 f33e
000002b0: 3d8a 3a3f 1c9a b43f 599f a43f 5cb2 bd3f
000002c0: 3f33 3b3f 83ca 3c3f 4ae5 bb3f b447 753f
000002d0: 65fb 4e3f 5ea0 873f 2ed8 853f 1a64 df3e
000002e0: 80fe 503f d321 793f c320 8e3f eacf 5d3f
000002f0: 2a30 383f 6e7b 943f d49d 233f dcde 403f
00000300: d544 933f be03 5d3f baba 4d3f 8e1c d23f
00000310: 03ee 463f 0dc2 6f3f 810d aa3f c96a 983f
00000320: acc1 383f 1a61 5f3f 0988 033f f42c ab3f
00000330: 1b51 2d3f bd7c 8d3f b220 633f 9d6d c23f
00000340: 8936 b13f 0c71 af3f 7e90 433f aecd 7e3f
00000350: 5dfc 943f 54d0 b83f 0cf4 0440 3afb be3f
00000360: 11ab d63f ee74 843f e780 d23f 1b2b af3f
00000370: c60f 873f 2931 843f 2e51 c93f a14f 573f
00000380: 7070 673f 67f0 7f3f 128e 923f 4f69 893f
00000390: 0853 cd3f d883 973f 22fb 9d3f 7145 8d3f
000003a0: 8fc0 c23f 5319 193f 0105 803f 9d22 5e3f
000003b0: 4c99 923f 9ee3 093f f01a d83e a165 913f
000003c0: c9a4 793f 5976 653f 0942 613f a985 5d3f
000003d0: 8019 b63e d2ba 613f 2c68 433f 8d74 883f
000003e0: 5ef3 833f be4e 6e3f 6d7b a73f 304c de3e
000003f0: 1fad 1b3f c4f6 a43f dd8e b33f fdf5 c83f
1.2539219 0.68042123 1.6778065 0.99152696 0.9841095 0.8139732 0.68858325 0.98909044
0.35342497 1.0343981 0.9429955 0.73465675 1.1869546 1.0130877 0.87558424 1.1479498
0.9937624 0.6671661 1.4748921 0.9897191 0.5838219 0.88421357 0.91342556 0.39015302
0.6503607 0.9717223 0.6177472 0.8531757 0.9594763 1.7253077 1.9392129 0.9458377
1.6062623 1.7644469 1.2221996 1.4123726 0.80231875 1.292853 1.0379515 1.4824375
1.0808208 1.2403117 0.6075201 0.5093301 0.812739 1.2998546 1.3731855 0.8420044
0.87772447 1.131593 0.6194959 1.4468106 1.3101487 0.72538185 1.6360629 1.2606466
0.44713756 1.0772835 0.79624873 1.4819653 0.7395722 0.8651943 1.1535143 1.0724964
0.6587028 0.62866646 1.5936682 1.0138433 0.75549495 1.0352553 1.0357459 1.311528
1.3190653 0.8451136 1.0392841 1.1921427 0.8427315 1.105108 0.9910865 1.4040455
0.857245 1.5242773 0.83795565 1.1240469 0.48569134 0.73771566 0.55394536 1.3806852
1.1029956 1.501955 1.3031927 0.62123513 0.7621917 0.9687187 1.1135168 0.76629525
0.5419208 0.55578655 1.1892172 1.4276613 1.3716594 1.2817984 1.57097 1.9800953
0.98173916 0.95042837 1.2950054 1.2515805 1.2123461 1.5285916 1.0273767 1.1508434
0.9035062 1.2814023 1.5627043 0.8705517 0.7364823 0.93409055 1.1119119 1.1318649
1.396724 0.8486697 1.5976195 1.0328333 0.7054832 1.0945872 1.1402855 0.8423588
0.4278578 1.731888 1.2650981 0.6056236 1.0876608 0.74367625 0.40315452 1.5051793
1.1455085 0.97912383 1.4689379 0.6767472 1.268523 0.46900272 1.2659657 0.72929144
0.92313313 0.8681404 0.89322746 0.68728966 0.46809238 1.0940385 1.5171503 1.0982372
1.8422416 0.61809236 0.7677186 0.7947344 1.50248 0.7429063 0.73387015 0.91905403
0.6110413 0.8502979 0.5973608 0.4824021 1.2728631 1.6839322 1.3422091 1.2748907
0.77836627 1.3965452 0.9357097 0.47504586 0.72867185 1.410953 1.2861129 1.4820056
0.7312507 0.7374651 1.4679348 0.95812535 0.8085235 1.0595815 1.0456598 0.4363106
0.81638336 0.97317237 1.1103748 0.86645377 0.7194849 1.1600168 0.639127 0.75340056
1.1505381 0.86333835 0.8036305 1.6414964 0.7770693 0.93655473 1.3285371 1.1907588
0.7217052 0.8725754 0.5137945 1.3373094 0.6770188 1.1053692 0.88721764 1.5189701
1.3844768 1.3706374 0.7639235 0.9953259 1.1639515 1.4438577 2.0773954 1.4920418
1.6770955 1.0348184 1.6445588 1.368503 1.0551689 1.0327502 1.5727899 0.8410588
0.9040594 0.999762 1.1449606 1.0735263 1.6040964 1.183711 1.2342265 1.1036817
1.5215014 0.59804267 1.0001527 0.86771566 1.1453032 0.5386294 0.42208052 1.135914
0.9751707 0.8963371 0.87991387 0.86532074 0.3556633 0.8817569 0.7633083 1.0660568
1.0308645 0.930889 1.3084542 0.434175 0.60811037 1.2887807 1.4027973 1.570007

bn2.bias f4 [300]
00000000: ad3a ca3d dd0d 92be 5b85 06bb 98b5 11be
00000010: 335d 9abd ca1c 56be c154 abbe 8555 e2bd
00000020: b85a 19bf 54c7 60bd e872 03be cbec 99be
00000030: 85af 1dbd 2136 88bd 8309 39be 159b c1bc
00000040: 5a6a 10be 5ba1 96be 101e 283d 33ea 7fbd
00000050: 2e01 bcbe c889 debd 9aa4 34be cd3d 16bf
00000060: 4f85 a1be e491 8fbd 3e9e c9be 6af9 43be
00000070: d844 debd 6a15 c63d eab4 923c aaec 89bd
00000080: 0b38 b13c b4e7 50bd fb71 b23c 3bf4 b3bd
00000090: 5580 5cbe 8188 2d3d c6f5 f5bd 58dd 823d
000000a0: a7b3 dbbd 0f68 a73c d36e b6be 1afc e7be
000000b0: d47c c1bd 9997 933d 9583 1bbe 19ed 1dbe
000000c0: ea3c 11be f5c1 08bd 5bbd a7be ca1d 48bd
000000d0: 4730 a3bd e4bf 87be a35a 8abd 5db7 a9bd
000000e0: 8486 fdbe 36d5 cfbd e7a4 95be 8fb1 52bb
000000f0: a48c 54be 2a1e 13be 6f82 103b 866d debd
00000100: b87b afbe 7f8d bebe fa24 8f3c 96e8 a8bc
00000110: 29de 6bbe dfba dc3c 896f 6dbd f378 89bd
00000120: eda2 38be c531 37be 2bbb 47be 4cd8 d83c
00000130: acf0 07be ec5f e7bd 9393 1dbe 03c0 e9bc
00000140: 9201 1ebe 5256 633c 234d 08be e351 72be
00000150: e246 eebe 517b 5ebe e244 b4be 92eb b5bc
00000160: 0cd7 d8bd 6c65 d7bd 0ee2 853c ddda d4be
00000170: d2b5 43be b08c 16bd 21f1 9ebd fce8 58be
00000180: 3d24 c5be 30a0 cdbe e833 e63c fdc6 b2bc
00000190: 1298 2abd 9ee9 613a 4c34 403c c63f c93d
000001a0: 579f cbbd e1ed b3bd e17c 143d 98c3 11bd
000001b0: accf d03b 49ff 853d 4f35 b3bd 89a3 44bd
000001c0: afb7 4dbe 74c0 02bc 3a5c 223e 164b 68be
000001d0: eecc 55be 6d5c 42bd d669 94bc e6e7 dbbd
000001e0: 6eef 54bd 0605 77be 9f2f b13d 8767 6abd
000001f0: 637e 97be 7e0b 9fbd c76f acbd 41f5 d6bd
00000200: 9aa0 04bf 811c 0c3d fcab d33b 5e1b b2be
00000210: c5f4 53bd fc7f c4be 7b8c 01bf 8813 01bd
00000220: 3af9 98bd 87d4 32be 26c9 6b3d c678 96be
00000230: 84f3 cdbd 7214 febe ce3d 42be f424 a9be
00000240: b184 42be 1e08 5ebe 3394 afbd facf c2be
00000250: 44ae 08bf e956 43be df62 173d 6c6f 2bbd
00000260: 6c4a 83bd c93f c0be cfb6 9cbe 6124 2fbe
00000270: b11a f9bd b547 53be c366 9cbe 93d6 36be
00000280: 0991 acbe 423c 24be a58c c2be 95e6 02bf
00000290: de9a 5fbd ae09 02be 70c6 cbbd 95e9 42be
000002a0: 1334 84be 2b6b a93a fc84 41be cf6f 00bf
000002b0: 2c30 81be 1556 edbd 591e fdbd 2e3b 263c
000002c0: ad7d 73be f007 86be 4700 5dbd bb0f 24be
000002d0: 01bc 85be 07ba 54bd c07b 0abe b241 03bf
000002e0: 5158 1dbe 5008 18be 3916 92bd 593d dbbd
000002f0: 04d1 99be 1a8b edbd c314 b0be c7d0 35be
00000300: 4d76 54bd b06a 17be 2c83 49be dabe d83d
00000310: dbbc 73be f1ee 2abe 5af6 d6bd b93d 0ebd
00000320: b41a 87be de3d 38be 9e34 fabe 9c91 573d
00000330: d588 91be 0c2c e5bb 9f8a 66be 9afa 483c
00000340: 922c a7bd 3f10 8e3d 892c 4bbe b2d7 8dbc
00000350: 9e22 fdbc d459 1a3e 4c39 ccbc 2164 803d
00000360: 997a a23d 69e5 2ebe 8ebb 0cbd 47b1 08be
00000370: 7340 b9bd 57d8 bebd 6c9c de3c badc d9bd
00000380: a7e4 15be 3984 a3bd 38e3 87be 0e07 3c3d
00000390: db75 5f3c 7e57 eebd 0ac9 f2bd e0cb 2bbd
000003a0: cf95 46bd 41b6 c6be 8a23 06be 47c7 2dbe
000003b0: 1e5f efbd c133 cbbe 17e2 06bf 171a f9bc
000003c0: bd12 e9bd 625a c8bd 9150 73bd d553 64be
000003d0: 95d2 19bf 7575 21be c7cd 77be 7cd0 943c
000003e0: 2400 8fbd 057a d3bd d55a 52bd d31d 05bf
000003f0: e52d babe ed5b d73d 1751 2cbd da97 dfbc
0.09874473 -0.28526202 -0.0020526263 -0.14229429 -0.075373076 -0.2090942 -0.334631 -0.11051468
-0.5990405 -0.054877594 -0.12836802 -0.3006347 -0.038497467 -0.06650949 -0.18070035 -0.02363352
-0.1410307 -0.2941998 0.041044295 -0.06247921 -0.3671965 -0.108661234 -0.17640916 -0.5868805
-0.3154702 -0.07010248 -0.39378542 -0.19138113 -0.10852975 0.09672053 0.017908532 -0.06734593
0.021633169 -0.05100222 0.021782866 -0.08786818 -0.2153333 0.04236651 -0.12009768 0.06389874
-0.10727625 0.020435361 -0.35631427 -0.45309526 -0.09447637 0.07206649 -0.15186913 -0.15422477
-0.14183393 -0.033388097 -0.32761654 -0.048856534 -0.079681925 -0.26513588 -0.06755569 -0.08286927
-0.4951669 -0.10148089 -0.29227373 -0.003214929 -0.20756775 -0.14366975 0.00220504 -0.10860734
-0.34274077 -0.37217328 0.017473686 -0.020618718 -0.23033966 0.026944576 -0.057967696 -0.06712522
-0.18030901 -0.1789008 -0.19504993 0.026470326 -0.13275403 -0.112975925 -0.15388326 -0.028533941
-0.15430287 0.013875561 -0.13310675 -0.2366405 -0.46538454 -0.21726729 -0.35208803 -0.022207055
-0.10587892 -0.105173916 0.016343143 -0.4157323 -0.19112328 -0.036755264 -0.077608354 -0.21182626
-0.3850421 -0.40161276 0.028100923 -0.0218234 -0.04164893 0.00086178805 0.011731219 0.09826617
-0.09942501 -0.08785606 0.036251906 -0.035586923 0.0063724127 0.065428324 -0.08750402 -0.04800752
-0.20089601 -0.007980455 0.15855494 -0.22684893 -0.20878956 -0.047451425 -0.018116873 -0.107375905
-0.05198615 -0.2412301 0.08651661 -0.057227638 -0.29588613 -0.07765864 -0.08419757 -0.10495997
-0.5180756 0.03420687 0.006459711 -0.34786505 -0.051747102 -0.38378894 -0.5060498 -0.031512767
-0.07469411 -0.17463885 0.057564877 -0.29389018 -0.100562125 -0.49624974 -0.18968889 -0.33036005
-0.1899593 -0.21682784 -0.08573189 -0.380493 -0.5339091 -0.19076122 0.036959525 -0.041854307
-0.06410679 -0.37548664 -0.30608222 -0.17103721 -0.12163294 -0.20632823 -0.3054715 -0.17855291
-0.33704403 -0.16038612 -0.37997928 -0.5113309 -0.054591052 -0.12699005 -0.09949958 -0.19034417
-0.2582098 0.0012925615 -0.18898386 -0.50170606 -0.25232065 -0.115886845 -0.12359304 0.0101459455
-0.2377841 -0.2617793 -0.053955343 -0.16021626 -0.26119998 -0.051935222 -0.1352377 -0.5127212
-0.15365721 -0.14846921 -0.07133145 -0.107050605 -0.3004228 -0.11598797 -0.3439084 -0.17755423
-0.051870633 -0.14786792 -0.19678944 0.10583277 -0.23802511 -0.16692711 -0.104962066 -0.034726832
-0.2638756 -0.1799235 -0.4886827 0.0526291 -0.28424707 -0.006993776 -0.22513817 0.012266779
-0.08162798 0.069366924 -0.19841208 -0.017314766 -0.030900296 0.15073329 -0.024929665 0.06269098
0.0793354 -0.170797 -0.034358554 -0.13348876 -0.09045496 -0.09318607 0.027174197 -0.106378034
-0.14638005 -0.07984204 -0.26540542 0.045905165 0.013638939 -0.116377816 -0.118547514 -0.041942477
-0.048482712 -0.38810924 -0.13099495 -0.1697055 -0.11688064 -0.39687923 -0.52688736 -0.030407948
-0.11380527 -0.09782864 -0.059403006 -0.22297604 -0.6008695 -0.15767463 -0.24199592 0.01816582
-0.06982449 -0.10326008 -0.051356155 -0.51998633 -0.3636314 0.1051558 -0.04206952 -0.027294088
