tmp/ddpg/critic_ddpg.pth (torch, 514177 bytes, 11 tensors)

fc1.weight f4 [400, 11]
00000000: 5942 a13f de7b 26c0 23c0 183e 7280 f83d
00000010: 1597 0340 7a22 a53f f302 d03f 30a3 263f
00000020: 0c1b f13e 648b c93f b6a1 6f3f 8077 aa3f
00000030: 3d56 28c0 877f 083e 310b bf3d eacb fc3f
00000040: 698c a03f 4c49 bf3f 7d7d 103f eef2 c33e
00000050: f3ed c83f 5e7a 6d3f 713a a83f 145f 27c0
00000060: fe6e 0d3e 7d53 c53d 8efa fe3f 545a a83f
00000070: 693e cf3f b3c2 343f d4c7 b63e db25 cb3f
00000080: ef2c 6b3f 2b64 aa3f aeec 22c0 9f8a 063e
00000090: 37c7 ab3d 45ad f13f 6cb2 a83f 15ef d03f
000000a0: fc17 3b3f 4744 e23e 6294 d03f 2542 763f
000000b0: 5c81 a33f 36ac c2bf efdc 1a3e 14e2 a9bc
000000c0: 8bda fd3f 20ed 4d40 95f1 0340 12d4 603f
000000d0: 9262 6a3f ce80 683f 33e9 c83f 2e02 b13f
000000e0: 058f 29c0 0a75 0c3e 3078 d53d ae13 0240
000000f0: 70a9 a53f 0d7f b93f c35f 213f ba67 783e
00000100: b8cb be3f ab62 533f cc82 a13f 435f 2ec0
00000110: 2b04 213e 260e 283e 28e0 0440 e974 9e3f
00000120: 14dc cb3f c716 153f 951c cd3e 694d d33f
00000130: ef06 753f 7be5 a73f ee77 28c0 e2ce 2b3e
00000140: 5516 183e e67b 0d40 0cc4 b13f c90c b93f
00000150: 957e 3b3f e2dd 8d3c 2b39 a83f b42d 213f
00000160: bbdb 3440 2814 7ac0 4975 6f3f 0d68 223f
00000170: 9201 c9bf d700 f440 d2fd 703f e148 763f
00000180: 7f56 803c 19a3 dcbd bdad b5bf d8b3 5e40
00000190: 49bb 533e 7513 dcbf 0aa9 b73e 76e3 933f
000001a0: 59ba bd3f b318 a43f 0e8d af40 102b c93f
000001b0: 0851 d93f 6b44 8f3f 0e63 a33f 0a7c 2dc0
000001c0: f4ed 1f3e 8d56 1d3e 88a1 0340 d9af 9d3f
000001d0: ab9c b53f ad8b 113f d972 283e ead4 ba3f
000001e0: b382 4b3f 21e4 ac3f ab37 26c0 aef8 043e
000001f0: ddcb 993d 2849 f73f d1e7 9d3f 714d ce3f
00000200: 7d1c 253f 02aa c73e ffd5 ca3f fecf 6f3f
00000210: 25f7 aa3f 8a33 2cc0 fa1d 103e 484a ef3d
00000220: 92b5 0140 04f4 a63f 15b8 c03f fb71 113f
00000230: 872c 823e 49ae c53f 9e5e 793f 9c1b ab3f
00000240: 0229 22c0 71ec 093e ba4a c43d 75ce ee3f
00000250: 49ef a53f 3e06 c43f d3bd 213f be77 bf3e
00000260: 0146 c63f 5939 633f 4656 943f 3c80 38c0
00000270: 7f33 0a3e ecd8 ef3d 425c e93f b95d b63f
00000280: 9f6c 9c3f 3364 753f f7ea ce3d 772f bf3f
00000290: 2c33 473f b994 b33f bd88 25c0 3797 013e
000002a0: 354a ac3d 08b1 ff3f e30b 9e3f fbb5 cf3f
000002b0: 393a 1f3f 787f cf3e 1bc1 cd3f 1c42 703f
000002c0: bab7 af3f 702e 23c0 c1ef 0a3e 89d8 d63d
000002d0: 8012 fd3f 81e6 9e3f e318 cb3f 416b 003f
000002e0: 7d9d c43e 6e63 cf3f 0c8b 6a3f e1ce af3f
000002f0: 178a 28c0 930a 073e 751b d93d 901f 0240
00000300: 635f 9e3f 7159 bc3f 0f56 103f 2923 7c3e
00000310: d22f c03f e93c 533f 86bc b53f a19a 1fc0
00000320: c3e6 053e 3e9d 933d 967a fa3f b33f 9b3f
00000330: 76ed ce3f 08e0 ed3e a889 d73e 0478 d03f
00000340: dcdf 713f 7cdf c13f 8314 92bf 228e 62bc
00000350: c3a3 b53d 0542 ab3f b85b a240 7a94 cf3f
00000360: fc74 e43e 5ad1 cec0 d1f9 9cc0 3392 b4c0
00000370: a103 903f 9151 24c0 c992 1f3e e765 e83d
00000380: c7d8 f83f f399 a53f 0e1f c63f d9a5 413f
00000390: 442f a23e 0c27 be3f bed5 543f 398c 9c3f
000003a0: 1a32 21c0 aa43 1b3e a6bf ca3d 284f ea3f
000003b0: a09a a33f 29d3 c73f 7b11 363f 4acd c93e
000003c0: 76bc bf3f 5b5b 613f cd6f af3f e8e7 22c0
000003d0: 9775 063e de6b ad3d 21a2 fc3f 652a a23f
000003e0: 8b39 bf3f 41b6 fb3e 22a1 dd3e feba d03f
000003f0: 25e4 773f c856 a93f 6dc1 27c0 1e19 0b3e
1.2598373 -2.6013103 0.14917044 0.12133874 2.0560963 1.2901146 1.62509 0.65092754
0.47090948 1.5745664 0.93606126 1.3317719 -2.6302636 0.13329898 0.093283065 1.974973
1.254285 1.4944243 0.5644148 0.38271278 1.5697616 0.9276484 1.3142835 -2.615178
0.13811871 0.09635065 1.9920213 1.3152566 1.6190921 0.7060959 0.35699332 1.5870928
0.9186544 1.3311819 -2.5456958 0.13138817 0.083876066 1.8881003 1.317945 1.6322962
0.7308347 0.44192716 1.6295283 0.9619468 1.2773852 -1.5208805 0.15123342 -0.020737685
1.9832319 3.217598 2.06162 0.87823594 0.91556656 0.9082154 1.5696167 1.382879
-2.6493542 0.13716522 0.104233146 2.0324512 1.2942333 1.4491898 0.63036746 0.24258319
1.490592 0.8257243 1.2618041 -2.7245643 0.15724246 0.16411647 2.0761814 1.2379428
1.5926538 0.5823788 0.4006087 1.6507999 0.95713705 1.3116907 -2.63232 0.16778138
0.14852269 2.2106872 1.3887954 1.4457027 0.73240024 0.017317716 1.3142446 0.6296036
2.8259113 -3.9074802 0.9353834 0.6344002 -1.5703604 7.6251025 0.941373 0.96204954
0.015666245 -0.10773296 -1.4193646 3.4797268 0.20676912 -1.7193438 0.35871154 1.155379
1.4822494 1.2820038 5.4859686 1.5716267 1.6977854 1.1192755 1.2764604 -2.7106957
0.15618116 0.15365048 2.056734 1.231929 1.4188436 0.56853753 0.16450061 1.4596226
0.79496306 1.350712 -2.5971477 0.12985489 0.07509587 1.93192 1.233637 1.6117383
0.64496595 0.38996893 1.5846556 0.93676746 1.3356673 -2.6906457 0.14073935 0.1168409
2.0267072 1.3043218 1.5056177 0.56814545 0.25424597 1.5443813 0.9741 1.3367801
-2.533753 0.13469101 0.095845655 1.8656756 1.2963649 1.5314405 0.63180274 0.37396044
1.5490113 0.8875938 1.1588829 -2.8828268 0.13496207 0.117112964 1.823128 1.4247352
1.2220649 0.95856017 0.1010341 1.493636 0.7781246 1.4029762 -2.5864708 0.1265534
0.08412591 1.9975901 1.2347378 1.6227411 0.62198216 0.40526938 1.6074556 0.93850875
1.3727944 -2.5497093 0.13568021 0.104905196 1.9771271 1.2414094 1.586697 0.50163656
0.38401404 1.6202219 0.9161842 1.373501 -2.6334283 0.13187627 0.1060094 2.0331764
1.237286 1.4714795 0.56381315 0.24622788 1.5014594 0.82514817 1.4198158 -2.4938128
0.1307631 0.07207726 1.956866 1.2128814 1.6166217 0.46459985 0.4209721 1.6286626
0.9448221 1.5146327 -1.141251 -0.013827832 0.08869126 1.3379523 5.073696 1.6217186
0.44620502 -6.4630556 -4.905495 -5.6428466 1.1251107 -2.5674784 0.15583338 0.11347561
1.9441155 1.2937607 1.5478227 0.7564369 0.31676686 1.4855666 0.83138645 1.2230293
-2.518683 0.1516253 0.09899835 1.8305407 1.2781563 1.5611316 0.71120423 0.39414436
1.4979389 0.8803002 1.3705994 -2.5454044 0.13130794 0.0846784 1.9736978 1.2669188
1.4939436 0.49162486 0.43286997 1.6307065 0.96832496 1.3229609 -2.6211808 0.135838

fc1.bias f4 [400]
00000000: c263 d63e 30ff d03e 4c36 d63e 6c54 ce3e
00000010: 4545 523f 7f2f d93e c893 d63e 0fb9 d73e
00000020: 4d5a 993c aae2 c03f fd6b c63e 7402 d33e
00000030: 13ed d63e 0b18 c53e 7975 c13e 4649 db3e
00000040: d5d9 cc3e 1bab cf3e efaf d03e 5962 1f40
00000050: 17b4 b43e 8c28 b33e 72a0 d03e 81ef d03e
00000060: a310 c83e 301f 9d3f cd4e d43e aedc dd3e
00000070: 6c58 dd3e 627b cf3e 9b9e ca3e 749b db3e
00000080: 5568 d03e f851 d63e 07cb cb3e bb92 c93e
00000090: 8924 dd3e 4d58 ce3e bfe6 db3e 7f10 a63e
000000a0: d62d cd3e e3d6 a53e 8567 253f 97b1 763f
000000b0: 93e7 b93e 09b9 c73e e676 ba3e 9901 b13e
000000c0: 37c9 ce3e 9f6e d13e 6703 2640 3bd1 d23e
000000d0: c704 d03e 2ffb b73d 1934 ce3e b6ff d23e
000000e0: b681 cb3e 2320 cd3e bee5 ca3e 0177 cd3e
000000f0: ed23 d13e b275 a83f 3dc8 c93e 82c2 d73e
00000100: bab1 893f 8f2d d73e b147 7f3e 3098 d23e
00000110: aea4 dc3e 240d dd3e de56 d63e 2e1d c93e
00000120: e675 053f 3528 de3e 7a4b d63e 6157 cc3e
00000130: 1059 523f dede d63e eed3 d93e 7b7e be3e
00000140: 0293 c73e dc33 283f d33d d73e 5ad3 ef3e
00000150: a865 d03e 2ecf d93e 5fa9 c43e 2d7b c23e
00000160: eded d73e 1ec6 333f 5868 da3e 1fa0 873f
00000170: 3d39 c83e 436c d13e dd8f cc3e 683a d73e
00000180: cefd d53e 3d97 d83e 9ac8 d93e 4937 e03e
00000190: 1dec d33f 7ef3 d03e f1ee dd3e 3868 d63e
000001a0: 1137 dd3e 697b cd3e 2381 c93e f11e db3e
000001b0: 6f5d d63e a600 cf3e 52d0 dc3e 1085 bb3e
000001c0: 2e84 9a3f 6457 db3e db45 db3e ccbb 833f
000001d0: b249 813f eca8 d63e 4b11 dc3e 8e61 1f3e
000001e0: 5006 d73e 9809 c23e 779b bc3e 02d7 de3e
000001f0: 4c7a c73e c3c2 d83e 47d8 de3e dbfb d23e
00000200: 70fa d03e c6e6 d03e 5d77 d33e b032 ca3e
00000210: 0d5b c83e 2f1d d63f 1b0e e83f d2f0 cf3e
00000220: b4d8 ce3e b1db d23e 1adf d63e 2981 de3e
00000230: c1ca d33e e457 dc3e 454a db3e bd1d d63e
00000240: e6a4 da3e afb1 d33e cef0 553e 55fe d63e
00000250: c6e7 dc3e 3400 d93e e10c 6f3f 8f78 dc3e
00000260: 7736 cf3e 5a8f c83e 77dd b73e 1267 de3e
00000270: d541 363e 572a b53e 4231 ce3e 0756 3cbe
00000280: 11eb d33e 5f63 ce3e 50bd d03e 01fa bf3f
00000290: ac33 d53e 96e4 c13e 4570 db3f ad1e e13e
000002a0: b6b5 d53e 0780 c03e 210b e93f 18bb ce3e
000002b0: ab33 db3e 06bd 3e3e c74b da3e 78b3 c43e
000002c0: 10cb d23e 8bff cb3e 4d76 183f c7c4 db3e
000002d0: 3a8c c83e 1b6d dc3e b4b0 d23e 37a2 2340
000002e0: 7e66 cf3e c82e 1cbf b537 bf3e 5d8e d93e
000002f0: ef69 c63e 3551 d03e 95f9 d83e 2ded 0b40
00000300: 139b c23e 4695 f63f 635d f93e aa98 be3e
00000310: d9fb ad3e 4273 cf3e 7926 ff3e c127 d73e
00000320: 1341 d53e a775 d23e a4d5 cf3e 5a8f cf3e
00000330: 197d ab3e 4df7 d53e 3c61 d03e 8002 d73e
00000340: a025 003f 7264 ca3e 54bd cd3e 81ae b83e
00000350: 39ca d53e 0a01 d33e 950b b83e f34d c23e
00000360: cd39 ca3e e445 a23f e3fd c93e 9603 d63e
00000370: 1af0 c03e 73b9 c13e 575f dc3e 8a3d d23e
00000380: 52a3 c93e 1c12 e03e 7bd9 d13e b84c a53e
00000390: 8a52 d53e a7df c03e b251 a63f b241 c13e
000003a0: 3bd9 d53e e258 d83e 9684 d33e ef12 32be
000003b0: 9daf bf3e d965 ca3e b6ee c23e a35c df3e
000003c0: abde cd3e 2ddd 0a3f 99c1 bd3e 7cb6 ca3e
000003d0: 6217 d43e 08d8 da3e c138 cc3f 6920 dc3e
000003e0: f288 d33e bf60 d53e a814 7e3f d758 da3e
000003f0: 5f46 8e3d 7a47 d23e fb50 d83e 323b d53e
0.41872984 0.40819693 0.418383 0.40298784 0.82136947 0.4241905 0.41909623 0.42133376
0.018719817 1.5069172 0.38754264 0.4121281 0.41977748 0.38494906 0.37784937 0.4282934
0.40009943 0.4056023 0.40759227 2.4903777 0.35293648 0.34991872 0.4074741 0.40807727
0.39075193 1.2275143 0.4146637 0.43332428 0.43231523 0.4052382 0.3957413 0.4289204
0.407046 0.41859412 0.39803335 0.3936976 0.43191937 0.40301743 0.42949483 0.3243446
0.40074033 0.32390508 0.64611083 0.9636473 0.3630949 0.39008358 0.36418837 0.3457153
0.4038789 0.4090471 2.5939577 0.41175255 0.40628645 0.08983456 0.40274122 0.41210717
0.397474 0.4006358 0.39628404 0.40129855 0.40847722 1.3160918 0.39410582 0.42140585
1.0757363 0.42026946 0.24929692 0.41131735 0.4309439 0.43174088 0.4186315 0.39280075
0.52133024 0.4339005 0.4185446 0.39910415 0.8216715 0.4196691 0.42544502 0.37205872
0.38979346 0.6570413 0.42039356 0.46840936 0.40702558 0.42540878 0.3841047 0.379846
0.4217371 0.7022418 0.42657733 1.059574 0.3910617 0.4090291 0.3995351 0.42036748
0.417952 0.42302886 0.4253586 0.4379218 1.6556431 0.4081077 0.4334636 0.41876388
0.43206075 0.40133217 0.39356336 0.42797044 0.4186816 0.40430182 0.43127686 0.36624956
1.2071588 0.4284011 0.42826733 1.0291686 1.0100615 0.41925752 0.42981943 0.15564558
0.41997004 0.37897944 0.3683736 0.43523413 0.38960493 0.4233609 0.43524382 0.41207775
0.4081607 0.40801066 0.41302004 0.39491796 0.39131966 1.6727656 1.8129305 0.4061342
0.40399706 0.41183236 0.41967088 0.43457916 0.41365626 0.43035805 0.428301 0.41819564
0.42703933 0.413465 0.20892641 0.41990915 0.4314558 0.42382967 0.93379027 0.4306073
0.4047124 0.3917187 0.35911152 0.4343801 0.1779855 0.35383865 0.40271956 -0.18392192
0.4139028 0.4031019 0.40769434 1.499817 0.41640985 0.3786971 1.7143637 0.43968716
0.41740197 0.37597677 1.8206521 0.40377116 0.42812857 0.18626794 0.4263594 0.38418174
0.4117055 0.398434 0.5955551 0.42923567 0.39169484 0.4305199 0.4115044 2.5567758
0.40507883 -0.6100888 0.3734719 0.42491427 0.38752696 0.40686956 0.42377916 2.186351
0.38008937 1.9264305 0.4870406 0.37225848 0.33981207 0.40517622 0.4983404 0.42022517
0.4165121 0.41105387 0.40592682 0.40539056 0.3349388 0.41790238 0.40699184 0.41994095
0.5005741 0.3952976 0.40183508 0.36070636 0.41755846 0.4121173 0.35946336 0.37950096
0.39497223 1.2677579 0.39451513 0.4179961 0.37683183 0.378368 0.4304149 0.41062576
0.39382416 0.43763816 0.40986237 0.32285094 0.41664535 0.37670633 1.2993681 0.37745434
0.41767296 0.42255312 0.41312093 -0.17390035 0.3743867 0.3953083 0.38072747 0.43625364
0.40208945 0.5424374 0.37061766 0.3959235 0.4142409 0.42742944 1.595482 0.42993477
0.41315418 0.41675374 0.9925027 0.42645904 0.06947016 0.41070157 0.42249283 0.41646725

fc2.weight f4 [300, 400]
00000000: 8777 e6b7 e6e2 77b6 92fd 33b8 5730 cd1f
00000010: c416 f03d cf12 c28b 6d36 8a96 fdc5 2ab7
00000020: c50d 91be 1fd7 e1be 922e 49b1 e120 c6bc
00000030: 2af6 d5bc 7927 ddbc 1159 50af 6e79 cabc
00000040: 3258 9ebc 8964 9db8 8204 bfbc 0021 2abd
00000050: 20a4 9dbc 81e6 8f24 590e 728d 720a c0bc
00000060: 0e9f f0ab 7a93 a83d 524a a6bc 8e64 babc
00000070: 9bb9 bdb8 c250 cbbc 1df9 0b0c 2779 d6b8
00000080: 9199 afbd eda4 b2bc a67e c9bc a9ba adbc
00000090: a70f aebc f5a4 da98 5962 efb5 1573 afbe
000000a0: 1012 bbb2 449a fb3d 8b26 47bc 2742 85be
000000b0: fa86 0c8c d1fb 8eb7 2c23 0e8c 8dd7 093d
000000c0: e834 a7b8 6651 eabc 2b5b bf3d 16f3 a0b8
000000d0: c7df a0b8 3bcb aebd f357 a30d ca10 b9b8
000000e0: 6e64 c1bc 4e22 1d2f 3ebf cc31 7ba2 eabd
000000f0: c517 3bad 36d6 0bbf 806d 8abb 1fdd 678c
00000100: 09a6 9fbd 5c9c beb8 2172 163c 1fba 15bd
00000110: 3915 a3bb c128 bbbc a5ea 218d 8be1 130e
00000120: 57e9 97aa a1c6 6d8c 0c85 01bd 5ee3 0b8c
00000130: bc0a 1abf 4e49 9bbc cc60 b0bc e3a3 058c
00000140: 5a53 968c eb4e 5bbd 1f57 bdbc 413e a43d
00000150: 9cd6 bcbc a0ed 080c 6994 cb16 a54a b3bc
00000160: d82a 2293 8ccc 88bd 41e4 c4bb 007b 62bf
00000170: 44f8 bb0c 0c41 acb8 3792 b7bc 8f58 bdbc
00000180: 4dab a1bc db0b 5f0d c312 848c e4d2 aeb6
00000190: 0fcf 94bf 4563 f3bd e2ed d6bc 9a2b f1bc
000001a0: 4175 cdbc 4417 debc 979b efbc 50f6 9eb8
000001b0: d61a 1e0c aff2 cbbc 889c 9cbc f7d0 e8bc
000001c0: 9e3c 1abf 239c babc b9c5 01bd c555 723e
000001d0: 1e06 0ebd 5d9b aa0b d197 e116 5689 52bc
000001e0: aeb1 ebbc 630e 9ebc 7bbf c88d fc2c cbbc
000001f0: 1219 a9bc c284 5cb8 7fa6 df8e d03e 55ac
00000200: 6d19 bbbc f5a1 7c91 c043 ed91 2293 b2bc
00000210: 654a 15bd bf05 acbe e78e 303e a012 bfbc
00000220: 25cd bfb6 0ab2 4910 6f01 030c da20 653b
00000230: 0b98 049a ce5b 98bc 75e6 4b1b a6e2 adb8
00000240: ec66 2a8c 5eac b1b8 ac4a b8bf e22c b5bc
00000250: 03fb 9b8d 226f 680c a6ff 9fbd 8ffe fabc
00000260: d2e6 6d0c 8818 5e8c 2c4d 0fbd e440 020c
00000270: 4082 39bd 2bff 13bd 3da7 d5bc 2e51 8e3d
00000280: 70b7 b8bc 2b14 d6bc 6ad8 c2bc 0987 1fbe
00000290: aa59 afbc d0b3 7e8c d670 1dbf 5dce 560c
000002a0: 9cbb 04a0 98f8 5cbe c811 85bd 4fe6 e3bc
000002b0: 36da 8cbc 1713 c5be 74d7 90bc 5541 c5bc
000002c0: 53cf 0c0c a297 28bd 2bdd a9be c177 babc
000002d0: e7e0 a2bc f0b0 cdbc e7fa 108c 6078 29bf
000002e0: 5e6f c2bc 0465 a4bf 0599 1fbd 66a6 b5bc
000002f0: 8091 1fbd 88be 019d c962 c0b8 a22e 833e
00000300: ec35 12b6 c179 5abf 15d5 d4bc 75ec c3bc
00000310: 38de 883e 07b8 c1bc 880e 9abe ada8 a1bc
00000320: 9bcc 98bc 775d 9fbc 992c 640b 65d2 7eb4
00000330: b5dd 9fbc c001 a9bc 168f a0bc ba20 bfbc
00000340: c1c4 30be c5ef e3bc 51dd 608c 73ed ed0c
00000350: e70c 848c a178 2339 cf6d 81be 7921 a98d
00000360: 64aa b2bc 251c 86bd 1dc1 89bf 2bc7 96a1
00000370: 8e45 851b e36c 83bd e6c0 cbbc 2e0b cbbc
00000380: b60f 8ebc 4051 5bbb 012c d50c d91e cf8c
00000390: 36f1 bebc 981e ccbc db60 5a0e 531c 8b12
000003a0: 7a6a abbc 270e 86bc 8c1c cebc c164 853e
000003b0: 9bad 5abd bed9 93be bb70 0fbc 89ce 2cbd
000003c0: a933 341b 285b a83e 9dfb 1fbd 79f3 21bd
000003d0: c252 c2bd 8057 590d 321a 893e 1b3f a7bc
000003e0: 9058 b9bc c10e c7bc 7a74 7d3e a18d a0bc
000003f0: fc5e d2be 6ee2 92bc 6a06 abbc 0e84 afb8
-2.7473796e-05 -3.693794e-06 -4.291308e-05 8.690085e-20 0.11723092 -7.475438e-32 -2.232945e-25 -1.0178887e-05
-0.28330818 -0.44109437 -2.9275822e-09 -0.0241856 -0.026118357 -0.026996361 -1.8949133e-10 -0.024716105
-0.019329164 -7.5050695e-05 -0.02331758 -0.041535378 -0.0192433 6.240685e-17 -7.458928e-31 -0.02344248
-1.7097172e-12 0.08231254 -0.02029911 -0.022753026 -9.046794e-05 -0.024818782 1.0783135e-31 -0.000102268816
-0.08574212 -0.021807158 -0.024596523 -0.02120717 -0.021247698 -5.6518243e-24 -1.783551e-06 -0.34267488
-2.1777879e-08 0.12285283 -0.012155185 -0.26027033 -1.0825826e-31 -1.704498e-05 -1.0949866e-31 0.03365283
-7.973035e-05 -0.028603267 0.09343561 -7.674673e-05 -7.671076e-05 -0.08534857 1.0066824e-30 -8.8246146e-05
-0.023607459 1.4291254e-10 5.958923e-09 -0.11456772 -1.0634997e-11 -0.54623735 -0.004224479 -1.7862134e-31
-0.077953406 -9.08903e-05 0.009182484 -0.036554452 -0.004976895 -0.022846581 -4.98944e-31 1.8227744e-30
-2.69849e-13 -1.8317589e-31 -0.031621024 -1.0776591e-31 -0.6017263 -0.018955853 -0.021530531 -1.0295265e-31
-2.3161325e-31 -0.05354206 -0.023112832 0.080196865 -0.023051552 1.0548567e-31 3.289008e-25 -0.02188618
-2.0468398e-27 -0.06679639 -0.0060086553 -0.88468933 2.8961331e-31 -8.213715e-05 -0.022408588 -0.023113517
-0.019735003 6.873145e-31 -2.0349112e-31 -5.210155e-06 -1.1625689 -0.118841685 -0.026236478 -0.029439736
-0.025080325 -0.027110703 -0.029248996 -7.5799064e-05 1.2179953e-31 -0.024895994 -0.019117609 -0.028419955
-0.60248744 -0.02277953 -0.031682704 0.23665531 -0.034673803 6.571538e-32 3.644652e-25 -0.012850126
-0.028771248 -0.01929397 -1.2372049e-30 -0.024801724 -0.020641837 -5.2575728e-05 -5.5134074e-30 -3.0303988e-12
-0.022839272 -1.9929202e-28 -3.743376e-28 -0.021798674 -0.0364479 -0.33598134 0.17242013 -0.02332431
-5.7161255e-06 3.9777417e-29 1.0092304e-31 0.0034962208 -2.741978e-23 -0.018598463 1.6866231e-22 -8.2914994e-05
-1.3127296e-31 -8.4721236e-05 -1.4397788 -0.022116128 -9.613041e-31 1.7906073e-31 -0.07812433 -0.030638961
1.8327276e-31 -1.710964e-31 -0.034985706 1.0034363e-31 -0.04529023 -0.03613202 -0.026080722 0.069490775
-0.022548407 -0.026132664 -0.023784835 -0.15578856 -0.02140506 -1.9621559e-31 -0.615003 1.654806e-31
-1.124291e-19 -0.21579206 -0.06497532 -0.02781978 -0.017193895 -0.38491127 -0.017680861 -0.024079004
1.0847597e-31 -0.041160233 -0.3317655 -0.022762181 -0.019882632 -0.025108784 -1.116886e-31 -0.661993
-0.023734745 -1.2843328 -0.03896429 -0.022174072 -0.03895712 -1.717151e-21 -9.1736736e-05 0.25621516
-2.1787082e-06 -0.8534203 -0.025980512 -0.023916462 0.2673204 -0.023647321 -0.3008921 -0.019733751
-0.018652251 -0.019453747 4.3944754e-32 -2.3732134e-07 -0.019514898 -0.020630717 -0.019599479 -0.023331035
-0.17262556 -0.027824292 -1.7322932e-31 3.6658541e-31 -2.0345586e-31 0.00015589829 -0.2527909 -1.0423487e-30
-0.021809764 -0.06548337 -1.0762058 -1.0217115e-18 2.2047953e-22 -0.06417253 -0.024872255 -0.024785604
-0.017341476 -0.0033465177 3.284433e-31 -3.1911966e-31 -0.023308378 -0.024916932 2.6917209e-30 8.779116e-28
-0.020924795 -0.01636417 -0.025160097 0.26053432 -0.05338822 -0.28877062 -0.008754904 -0.042189155
1.4905943e-22 0.32882047 -0.039058316 -0.039538834 -0.09488441 6.697361e-31 0.26777798 -0.020415833
-0.022625238 -0.024299027 0.24751464 -0.019598784 -0.41088092 -0.017930236 -0.020877082 -8.3692474e-05

fc2.bias f4 [300]
00000000: 3f05 f0be ee61 463e 2ad8 edbe 7b5d debf
00000010: e833 88be e0be b4be 1374 b0be de31 1dbe
00000020: 19ed a9be 4aff 37bf 9a2c 8cbf 89bd acbe
00000030: f7cb 72bf 20d9 4bbe 3246 83bf 3a00 93be
00000040: 2ebc 27bf 5b6f 30c0 2077 1dbf 1c3a 8f3f
00000050: a7e0 2dbe dcb8 d0be 1a1d 5fbf f617 d7be
00000060: 2b23 82bf e4ff 00bf d475 95bf 4496 bdbe
00000070: 1a4d 6dbf 6355 6ebc a9d1 e1be 38f0 a4be
00000080: 4198 5dbe 2aa4 00bf 0aa0 c4be 8cd1 98bd
00000090: b934 b0be 3bcf 16bf 8f64 e1be f5b4 18bf
000000a0: a033 30bf 50fd ecbe b6a4 eabc 4d1d 37bf
000000b0: 9f31 7ebf 250a 47be f0fc 39bf 0f22 5ebf
000000c0: a36c 413e d9c5 68bf bc06 abbe 1c6e c6bd
000000d0: 3cf4 56bf fd70 07bf 1024 35bf 70a6 4bbe
000000e0: 7b1e 1ebf c809 4bbd 8edb f6be 3ddc 12bf
000000f0: fcaa 49bf 5004 e4bd e5bb 513f 5c21 6abf
00000100: 3c2e afbd b950 06bf 71e7 cdbe aa0a 82bf
00000110: dd3e 80be cab4 7ebd dcb6 553e 22d9 90bf
00000120: 7547 883e 4973 a9bf 5fd7 02bf 6884 1ebe
00000130: 443e 92be 8aec 7abe f206 2cbf c208 1bbe
00000140: b9f9 3ebe 5258 b13c 89e1 7dbe 21f5 f4be
00000150: a0d5 8bbf 464f c4bf 2370 98bf ccf8 54be
00000160: c483 233e 2b07 c8be d179 f1be 9f06 27bf
00000170: 2cbf 7dbf 5b47 3dbf 20b1 91bf 1f1b a4be
00000180: 52ce 8f3e adee 6cbe 906e 17bf 8768 a1be
00000190: 61d6 b2be 7dd4 33bf f79a 0ebe c283 4abf
000001a0: ef37 9e3e 6b8d 433f 7d2f b5be 023a 803e
000001b0: 221f 91be 2eb5 96bf ce19 26bf a643 15bf
000001c0: 3093 07bf 2b57 3d3d 91fb 83bf 9782 47be
000001d0: 4b41 8e3d f592 dcbe f744 5fbf fef1 1ebf
000001e0: 3b0c e13f f40e 80be 2f36 a4bf 14b9 2cbe
000001f0: ec7d d9be ea72 1bbf 19d7 31be 5259 20bf
00000200: 3c90 5abe 1352 e5be bc9c 04bf 3dce 74bf
00000210: 2daf 91be 2927 a1be 79a0 44be 1394 97be
00000220: 4618 70bf 2995 0ebf d291 85be 9c4b dabe
00000230: c456 87bf 7878 b3be 97e1 debd aed3 19bf
00000240: 3966 80ba 8c9a 3cbe 6c1c 8ebe be78 babe
00000250: 2a5a ecbe 5d05 83bf d1d7 d43e 67de 46bd
00000260: 66c7 0a3c c559 cabe 89ea 65bf d529 76bd
00000270: 0e30 cdbe fdf8 09bf 3520 e2bd 129a cdbe
00000280: d529 85bf 15dc ac3d 8537 7dbf 0086 09bf
00000290: 07a8 46be ce75 22bf ef9d 1fbf 9a6d cdbd
000002a0: fee6 d83f 676b 71bf 73f0 203e f233 e3be
000002b0: 5481 28bf 7a4c 66bf 1769 78bf bedd af3c
000002c0: 6eb3 9dbf 22eb 3cbd 328e 82be 2aa6 e5bd
000002d0: 765f 11be d36f 83bf 4df3 b9be c30f a2be
000002e0: 50ee 62be fdfd 03bf d727 62be fd93 febd
000002f0: 8cbf 7abe 892a 82bd 2b9f 86be 34bd 1bbf
00000300: 1d38 633f d7ba a8be 6f23 4fbe 1303 fa3e
00000310: 9513 f5bd efbe 9abd fcab db3e d130 96bf
00000320: d826 58be 8c8d 3fbe b091 fcbe ce16 10bf
00000330: 14c9 06bf 3a1d 59bf d66a 92be 88dc 05bf
00000340: 8994 77bf 82f3 dcbe 0072 11bf 3e8e 82bd
00000350: cc0f 98be a486 a7be 2f23 97be 9d67 08bf
00000360: 5328 15bf 8120 2cbf adcb 0fbf 4cc3 d3bd
00000370: 85df 12bf c830 2ebf c9f3 4fbe c1df 6fbe
00000380: 719f febe 7517 4e3f 8149 09bd 4232 1fbe
00000390: 91f3 30bf 4665 29bf 8776 14bf 16ab 44be
000003a0: 6f77 e5bd fa2c 59bf 23ee 67bd f484 acbe
000003b0: 1d1b 98bd e7bd 023f de8c 82bf c508 ccbe
000003c0: 9822 e6be a367 ebbe 1bf6 3bbf 8e93 bfbe
000003d0: 364b 18c0 636d b3be d1ba 0dbe da78 5abe
000003e0: fff7 09bf 9adc 46be 9a5e 283f 916c 313f
000003f0: a75e 4dbf edeb aabe ff55 be3f dc5f 78bf
-0.46879002 0.19373295 -0.46453983 -1.7372278 -0.266021 -0.35301876 -0.34463558 -0.15351054
-0.33188704 -0.71873915 -1.0951111 -0.33738354 -0.94842476 -0.19907045 -1.0255797 -0.2871111
-0.65521514 -2.7567966 -0.61509895 1.1189609 -0.1698023 -0.40766037 -0.8715378 -0.42010468
-1.0166982 -0.5039046 -1.1676583 -0.37028706 -0.9269577 -0.014546725 -0.4410527 -0.32214522
-0.21640112 -0.50250494 -0.3840335 -0.07461843 -0.34415224 -0.5890996 -0.44022033 -0.5965112
-0.68828773 -0.46287012 -0.028642993 -0.71529084 -0.99294466 -0.19437464 -0.72651577 -0.8677072
0.18889098 -0.9092689 -0.33403575 -0.096889704 -0.8396642 -0.5290678 -0.7075815 -0.1988771
-0.6176526 -0.049569875 -0.48214382 -0.57367307 -0.78776526 -0.11133635 0.8192733 -0.9145715
-0.085537404 -0.52466923 -0.40215638 -1.0159504 -0.2504796 -0.062184133 0.20870537 -1.1316264
0.26617017 -1.3238307 -0.5110988 -0.15480196 -0.2856313 -0.24504295 -0.671981 -0.1514006
-0.18649949 0.02164856 -0.24793066 -0.4784327 -1.0924568 -1.5336692 -1.1909221 -0.20798033
0.15968233 -0.3906797 -0.4716325 -0.6524448 -0.9911983 -0.73937005 -1.1382179 -0.32051942
0.28087097 -0.23137923 -0.5915308 -0.3152506 -0.34929183 -0.70246106 -0.13926302 -0.79107296
0.3090205 0.7638766 -0.35387793 0.25044256 -0.28344065 -1.1774042 -0.64883125 -0.5830635
-0.52958965 0.046225708 -1.0311147 -0.1948341 0.069460474 -0.4308087 -0.87214607 -0.62088
1.7581857 -0.25011408 -1.2829036 -0.16867477 -0.42478883 -0.6072222 -0.1736721 -0.6263629
-0.21344084 -0.4478918 -0.5180166 -0.95627195 -0.2845396 -0.3147519 -0.1920184 -0.2960516
-0.9378704 -0.5569635 -0.26087815 -0.4263581 -1.0573354 -0.35052848 -0.108828716 -0.6008862
-0.000979609 -0.1841833 -0.2775606 -0.36420244 -0.4616254 -1.0236012 0.41570905 -0.048551943
0.008470392 -0.39521614 -0.89811 -0.060098488 -0.40075725 -0.5389555 -0.11041299 -0.4015661
-1.0403391 0.08440415 -0.9891284 -0.5372009 -0.19400035 -0.63461006 -0.6235036 -0.100306705
1.6945493 -0.9430451 0.15716724 -0.4437557 -0.6582234 -0.89960444 -0.97035354 0.02146804
-1.2320383 -0.046122678 -0.2549911 -0.11213334 -0.14196572 -1.0268501 -0.36318436 -0.3165265
-0.22161222 -0.5155943 -0.2208551 -0.1243057 -0.24487132 -0.06355769 -0.2629331 -0.60835576
0.887575 -0.32955047 -0.2022836 0.4883047 -0.119666256 -0.07555949 0.4290465 -1.1733648
-0.21108568 -0.1870634 -0.493299 -0.562848 -0.5265057 -0.8481022 -0.28597134 -0.5228963
-0.9671102 -0.43154532 -0.56814575 -0.06374787 -0.29699552 -0.3271991 -0.2951903 -0.532831
-0.58264655 -0.672371 -0.5617016 -0.10339984 -0.57372314 -0.68043184 -0.2030784 -0.23425199
-0.4973102 0.8050454 -0.033517364 -0.15546516 -0.6912165 -0.66170156 -0.5799336 -0.19205889
-0.11204421 -0.84834254 -0.05662359 -0.33695185 -0.074270464 0.5107102 -1.0199239 -0.3985044
-0.44948268 -0.45977506 -0.734224 -0.37417263 -2.3795905 -0.35044393 -0.13840796 -0.21335164
-0.53894037 -0.1942009 0.6576935 0.69306284 -0.80222553 -0.33383122 1.4869994 -0.9702127

bn1.weight f4 [400]
00000000: 19b7 04bc a5c9 aabb 9c7f 00bc 1588 b8bb
00000010: c9d6 b7bd 29ce cf9c 3e24 12b5 3e4f 08bc
00000020: e666 0c40 20cb 2040 ce39 0abc 8889 4d3a
00000030: 5b22 ccba c62a 82ba efb8 0cbc bbed 11ba
00000040: 6bd0 5aba ab2a d5bb 72f5 a93a 0163 4c40
00000050: 2ab5 e93a 6398 c8bb 2c69 beb9 d2c9 99ba
00000060: 2a18 a4bb 4c49 fd3f 60de e5ba 8666 bf3a
00000070: d793 ecbb 726f 3cbb bb1d 34b9 1c50 dbbb
00000080: a7f5 53bc b48b cfb8 9917 04bb ccb3 38ba
00000090: e1a6 cb3d 4f7c abbb d542 03bc 49ea 453f
000000a0: d873 d6b9 4611 623f 0a4e e3bd b6d8 7c3d
000000b0: 7235 bc0f e6fc 22bc 151c 8b8d bb4f 963d
000000c0: a815 03bc c9ce ef39 9056 9b3f f9f3 01bc
000000d0: efbe 07bc 9028 5a40 9dfc 65b9 5fb5 f9bb
000000e0: e7c6 273b 7e7c 57b2 3979 c236 99c9 c23c
000000f0: 7533 92bb 83e9 0840 2ef6 d73b 6ea6 9a99
00000100: 714d b7bf 989f f3bb 1aee a23e 3e00 c63c
00000110: 6d10 b4ba 0d67 133a 8037 6abb 874f 63bb
00000120: 26c8 33ba 241a acbb cebe 4e39 fcc4 0cb9
00000130: 1ad9 4e3e 6cd4 fdba 6a43 1e3b 4757 9f90
00000140: 047a b511 b779 83be 2615 15bb e7fc afbe
00000150: e6e0 96b9 5669 7bb8 8706 11bc 2b9d e8ba
00000160: e72a c6bb acf0 0bbe 17c8 8739 5910 6340
00000170: 9e69 19ad 477d febb bd53 fbb8 a612 40bb
00000180: f32d acba 50d5 2fba 1530 20ba 6b5e d1bb
00000190: 7136 a840 4feb 603d 3aeb 9339 8127 ccba
000001a0: 3bb5 5239 c660 a2b7 01e7 22ba 5315 eebb
000001b0: ee28 21ab a914 53ba 6f0d b7ba e2cd 4cba
000001c0: 22a8 9340 2b6a af39 9048 f5ba b20b 5b3f
000001d0: 82bb a73e 8a9a 5893 30ad aabb 595e 5f3e
000001e0: 3d15 d8ba 0e10 c6ba 959f 3dbb 1d60 a238
000001f0: ed62 a13b 89fa ffbb fa97 b1bb c73b dfbb
00000200: f13d 983a c4a3 b6bb 3ef5 5abb 2cdd 96ba
00000210: 2a9a 6c3a be3b a340 edb7 2540 815b 0339
00000220: 2e6b c5bb 0eb7 a2bb 11f8 9b10 bac2 0dbd
00000230: c848 b5bb 142c 1a38 c027 92bb 9654 f9bb
00000240: ccd4 d0b8 af89 f7bb da25 3341 ae73 133b
00000250: 4b34 b0b9 dc5e f5a8 e805 4740 ca86 1f3b
00000260: 6261 fd21 079c 7d9f 36d2 533c 0207 1010
00000270: 0c25 6ec0 4e8e ce3a 335f 0dba 3c45 6f40
00000280: 7347 ae3a 5857 873a 8225 7bba b90a 0a40
00000290: 2699 35bb 42f1 a9b9 c75f 3b3f 2d1a 61bb
000002a0: db6d 9cbb aeeb 873d cd5a a13f 2adc 53ba
000002b0: 3447 a23b 3523 843f 7a67 99ba 8e50 943a
000002c0: 914b 31b9 838b c7bb 4ad7 413f 2574 343a
000002d0: 94ab 72bb d5e4 d6b9 3522 4116 b7cc bb40
000002e0: f742 303b d5ce 3c40 8fe4 c7ba 05ee 8f3a
000002f0: 1133 05bc 4e66 9abb 49ce ebbb dcbb 0940
00000300: 131a b8bb 391b 893f 9c0e 463a 0040 8fba
00000310: f426 8240 4952 0bbb c2f5 233f 5c9e 43bb
00000320: 4190 b83a c4de ffba 7e0a 86b0 b19b 9dbb
00000330: 811e 1b3b a510 12bb f779 ccb8 3a8b 59b9
00000340: 5ea5 8c3f d8da edba e181 409d b8e5 9bbb
00000350: 5a82 0bbb 1de8 cabb 6b29 033e de91 a8ba
00000360: 65e4 803a 674b 493f d852 0f40 a5b1 7fbc
00000370: 0bc0 b2bb f5e1 4c3f 854e daba 5ae4 7f39
00000380: 0e38 37bc fdf3 08bc 2343 b3b8 2819 d1b9
00000390: 3846 ea3a d9f7 e4b9 ab40 903b e8c1 a1bb
000003a0: 3971 54bb df05 16bc 6b6b abba 2551 583f
000003b0: 20bf 713c e907 103e 4306 5f3a 7166 79bb
000003c0: f64f babb 85c3 0040 4c6e f4bc 955e 413c
000003d0: fb6f c93d 10da 8cb1 76c7 8ebf 4ea9 74bb
000003e0: 10ef 303a 3235 45bb a3e3 c7bf fd50 19bb
000003f0: de8a 6840 c1a2 62bb afd5 2bba 184a 0abc
-0.0081002945 -0.005212026 -0.007842924 -0.0056314566 -0.08976514 -1.3751402e-21 -5.444198e-07 -0.008319674
2.1937804 2.5123978 -0.008436633 0.0007840623 -0.0015574204 -0.000993096 -0.0085890135 -0.00055667356
-0.0008347097 -0.0065053306 0.0012966825 3.1935427 0.001783048 -0.0061216815 -0.00036317983 -0.0011733121
-0.0050077634 1.9787993 -0.0017537586 0.0014602698 -0.0072197723 -0.002875295 -0.00017177213 -0.0066928994
-0.012936986 -9.896551e-05 -0.0020155667 -0.0007045835 0.09943939 -0.0052333246 -0.0080115395 0.77310616
-0.0004090357 0.8830761 -0.11098869 0.06173011 1.8558818e-29 -0.009947991 -8.573297e-31 0.07339426
-0.008000769 0.000457397 1.2135792 -0.007931703 -0.008285268 3.4087257 -0.00021933248 -0.007620498
0.0025600733 -1.2542953e-08 5.7957627e-06 0.02377777 -0.0044617006 2.1392524 0.006590626 -1.5990447e-23
-1.4320508 -0.0074347965 0.31822282 0.024170037 -0.0013737805 0.0005622961 -0.0035738647 -0.0034684853
-0.00068581325 -0.0052521396 0.00019716771 -0.00013424823 0.20200005 -0.0019365675 0.0024149069 -6.2848914e-29
2.8631963e-28 -0.256788 -0.00227482 -0.34372637 -0.00028777792 -5.9941165e-05 -0.008851654 -0.0017747035
-0.006047595 -0.13666028 0.00025898285 3.5478728 -8.720495e-12 -0.007766399 -0.0001198421 -0.002930799
-0.0013136253 -0.0006707506 -0.00061106804 -0.0063894293 5.2566457 0.054911908 0.00028213282 -0.0015575738
0.00020094674 -1.9356969e-05 -0.0006214232 -0.0072657256 -5.725549e-13 -0.000805209 -0.0013965796 -0.00078126614
4.614274 0.00033457702 -0.0018713642 0.8556472 0.32760245 -2.7339227e-27 -0.005208634 0.21813335
-0.0016485822 -0.0015110986 -0.002893423 7.7426645e-05 0.004925123 -0.0078118485 -0.0054197283 -0.006812546
0.001161514 -0.0055737216 -0.0033410336 -0.0011510006 0.0009025658 5.1010427 2.589351 0.00012527221
-0.0060247397 -0.0049656695 6.1518927e-29 -0.034609534 -0.005532358 3.6757512e-05 -0.004460305 -0.0076089604
-9.9578494e-05 -0.007554255 11.196741 0.002249937 -0.00033608297 -2.7241603e-14 3.1097355 0.0024341815
1.7169724e-18 -5.3703897e-20 0.012928536 2.840439e-29 -3.7210112 0.0015758963 -0.0005392909 3.7386007
0.001329644 0.0010325713 -0.0009580479 2.1569045 -0.0027709692 -0.00032413943 0.7319302 -0.0034347877
-0.004773838 0.06636749 1.2605835 -0.0008081818 0.0049523357 1.0323244 -0.0011703812 0.0011315511
-0.00016908186 -0.006089629 0.7571913 0.0006883762 -0.0037028538 -0.00040987754 1.560121e-25 5.8687396
0.0026895383 2.950124 -0.0015250611 0.001098097 -0.008129851 -0.0047119027 -0.007196222 2.152091
-0.0056183427 1.0711433 0.00075552776 -0.0010929108 4.067255 -0.0021258763 0.6404687 -0.0029849028
0.0014081077 -0.0019521345 -9.752765e-10 -0.0048098196 0.0023669305 -0.0022287753 -9.750196e-05 -0.00020746599
1.0987966 -0.0018146886 -2.5478134e-21 -0.004757609 -0.0021287412 -0.006192221 0.12808768 -0.0012860855
0.0009833692 0.7863068 2.2394314 -0.015606319 -0.005455022 0.80032283 -0.0016655481 0.00024403763
-0.011182798 -0.008358953 -8.54789e-05 -0.0003988233 0.001787371 -0.0004367221 0.0044022403 -0.0049364455
-0.0032416119 -0.009156673 -0.0013078278 0.84498817 0.01475504 0.14065517 0.0008507708 -0.0038055445
-0.0056858016 2.0119336 -0.02983775 0.011802335 0.09835812 -4.099327e-09 -1.1154621 -0.0037332359
0.000674949 -0.0030091521 -1.5616344 -0.002339422 3.6334758 -0.0034581872 -0.00065549737 -0.008440517

bn1.bias f4 [400]
00000000: e3fc 01bc 303c babb 19b2 01bc f89a a2bb
00000010: 20f9 1f3d b4bb 85b6 654a 66b9 f960 06bc
00000020: c206 76bf 6364 273f 4cbb a6bb 39db 33bb
00000030: d0c1 90ba 173d 0cbb 59a8 cabb dff0 5abb
00000040: 48ea daba 069f bfbb 6f50 daba a758 0940
00000050: d79e 13bb 5455 aebb 87d2 0bbb 9c63 00bb
00000060: 84b4 a4bb 9572 f43d bf2d 64bb 1e68 a0ba
00000070: eb79 fdbb 1fbe f1ba e105 29bb ec5d fcbb
00000080: 039a b1bb 982f a6ba 60dc bdb9 d9a0 e4ba
00000090: f3b1 003e 5a22 d8bb e5df febb 2f0f da3e
000000a0: 4f0b bbbb 56c8 223f 5fde 503e cc72 823f
000000b0: 57bc a8ad 8ca4 01bc 39e3 8ba8 a94e 9f3b
000000c0: b5c3 fbbb 0517 2ebb a1b3 873f fec8 fabb
000000d0: 42af fabb b2e4 963e b0ec d3ba 1ed1 fdbb
000000e0: 1cae 64bb dd39 7db2 94d5 b3b8 28fb 1e3d
000000f0: a42d f3bb 0ddc 763f 1d85 01bc 8cd3 d8b6
00000100: 490b 09be fd18 fdbb e49d 4d3d 7ffa 9a3c
00000110: 89cb 9dbb de50 3fbb 96e2 a2bb a11c 9fbb
00000120: f948 e6bb d2b5 9bbb 647a f7ba 9b81 9ebb
00000130: 61ce cb3d ec90 25bb 173e 10bb 12e1 84b5
00000140: b704 2baf 636f 273e a418 e3ba ad22 9f3d
00000150: 4e60 d1ba eb48 7bba 1c7e 86bb b372 77ba
00000160: eb3f d4bb 21f7 163d 2502 93bb d466 11bd
00000170: 07a8 e2ba ca58 fbbb 63e5 ddba d012 bdba
00000180: 8299 66bb 0620 16bb 09b1 46bb 029b eabb
00000190: 386c 5e40 c235 8d3c c423 3bba 6e84 87bb
000001a0: 2e87 8aba fbbb 71bb fbe7 2cbb 2db8 fdbb
000001b0: d8f0 0bb9 4cf2 12bb c821 6bbb 412e 40bb
000001c0: d9e9 943d d0da 39ba 94a3 5ebb 8466 c23e
000001d0: bd60 3b3f b3f7 06b2 6f5b a5bb cd81 64bc
000001e0: 7f58 04bb c578 7dbb e840 adbb a1dc 9eba
000001f0: b8ae 00bb c6dd c9bb 143e b9bb 8136 f0bb
00000200: a1d2 2ebb cd19 bbbb bac6 bfbb 324e 86ba
00000210: 80f3 ffba a1a4 7140 6bdc afbf 3a61 0bbb
00000220: 0fc4 00bc bc26 a7bb 4558 46af 1ce6 803c
00000230: 9acf ccbb f2fc 43bb 9260 abbb 6d79 fdbb
00000240: 34e6 10bb e0a8 fdbb 7e2c 6b40 84eb 59bb
00000250: 1304 f9ba acf1 41b8 8d0a cc3e a935 ccba
00000260: f49c 7ab8 20e2 97b8 2aa3 92bb 7307 93ad
00000270: 76ba 913f 7b33 aebb 1724 0eba 704e 7b3f
00000280: 45ba 45bb cf3f bfba 1c43 2cbb a793 013f
00000290: 3754 cfba a873 58bb 8a95 fcbe 3ad1 7ebb
000002a0: fdbf abbb 3487 9f3d 27ac 9c3e addb 56bb
000002b0: 4455 69bb b8a5 283f d809 83bb 9bb2 31bb
000002c0: d53b 0dbb 5d9f 17bc b4f3 9d3e 445b 1fbb
000002d0: dea6 3bbb 192f 14bb 377a 10b4 0a72 a540
000002e0: a036 3cbb e63a 5f3f 1092 7fbb 0f2c 6ebb
000002f0: 267e edbb 2b12 e9bb 7d7e fdbb b106 1cbf
00000300: bc06 f2bb 3cc4 e2be 6743 4abb 339e 1cbb
00000310: c87b dd3e 3f37 fdba 44ba c53e 844e 49bb
00000320: 3a0b 07bb d93a 5dbb abd2 78b9 6107 b2bb
00000330: fdbb 3bbb 7218 58bb 7053 afba cfe6 0fbb
00000340: dd86 e13f b48b 13bb 83e6 f3b8 c199 babb
00000350: 4748 92bb 21ee fabb a11d 253e 4747 8eba
00000360: f54b 80ba 70b5 bc3f 9d9b 283e 3e82 91bc
00000370: ade3 abbb 4681 a0be d7cb 86ba 7e41 14bb
00000380: e68f 22bb 5e34 83bc 9486 1cbb 4a90 5abb
00000390: 74a5 90ba 079e 92ba 862f 5dbc 9416 d1bb
000003a0: 87e6 40bb e4a4 80ba 4678 f0ba dce8 c8be
000003b0: afb7 fa3b 630c e23d 9e7a 7fbb fb50 11bb
000003c0: 98d9 e5bb e989 a13f ffb5 1ebb 990a 0f3c
000003d0: 67ed cb3d a630 f3ba 45bc df3d 48e4 42bb
000003e0: 3e01 81ba fbd7 01ba c2f0 443a bcdc 76bb
000003f0: 7b67 d03f 138f 87bb 3d11 41bb dfa2 f9bb
-0.007933828 -0.0056834444 -0.007915997 -0.0049623214 0.039055943 -3.9855604e-06 -0.00021962223 -0.008201831
-0.9610406 0.6538755 -0.0050882455 -0.00274439 -0.0011044089 -0.0021398717 -0.0061846194 -0.003340773
-0.0016701901 -0.0058478145 -0.0016656051 2.146036 -0.0022525096 -0.0053202305 -0.00213352 -0.0019590622
-0.005026402 0.11935917 -0.0034817306 -0.0012238061 -0.007735481 -0.0018443501 -0.0025790858 -0.007701626
-0.005419971 -0.0012678979 -0.0003621308 -0.0017442956 0.12567882 -0.006595892 -0.007778155 0.4258971
-0.005708135 0.6358694 0.20397328 1.0191283 -1.9183028e-11 -0.007912766 -1.5530642e-14 0.004861672
-0.007683242 -0.0026564014 1.0601693 -0.0076533547 -0.007650287 0.29471356 -0.0016168561 -0.007745876
-0.0034893816 -1.4739695e-08 -8.575167e-05 0.03881374 -0.0074212123 0.9642952 -0.007905272 -6.461929e-06
-0.13383211 -0.007723926 0.050199404 0.018918274 -0.004815523 -0.0029192488 -0.004970859 -0.0048557078
-0.007027742 -0.0047518993 -0.001888108 -0.0048372275 0.09951473 -0.0025263382 -0.0022009665 -9.90027e-07
-1.5554034e-10 0.16351084 -0.0017326069 0.07770286 -0.0015974136 -0.0009585756 -0.004104389 -0.0009439394
-0.006477346 0.036856774 -0.0044863396 -0.035498455 -0.0017292508 -0.0076704966 -0.0016929324 -0.0014425162
-0.0035186713 -0.002290727 -0.0030317924 -0.0071595917 3.4753551 0.017237548 -0.00071388134 -0.00413566
-0.0010568851 -0.0036885727 -0.0026383388 -0.0077429027 -0.00013345794 -0.0022422252 -0.003587829 -0.0029324444
0.072711654 -0.00070897955 -0.0033972012 0.37968838 0.73194486 -7.856147e-09 -0.0050463 -0.013946963
-0.002019435 -0.003867672 -0.0052872784 -0.0012120196 -0.001963539 -0.0061604707 -0.0056531522 -0.007330716
-0.0026675838 -0.005709863 -0.0058525475 -0.0010246693 -0.0019527525 3.7756732 -1.3739141 -0.0021267668
-0.007859244 -0.005101053 -1.8039355e-10 0.015734725 -0.006250334 -0.0029905406 -0.005230018 -0.0077354223
-0.0022109868 -0.0077410787 3.6745906 -0.003325195 -0.0018998407 -4.623986e-05 0.398518 -0.0015579957
-5.975082e-05 -7.24236e-05 -0.004475017 -1.6715273e-11 1.1385028 -0.0053161955 -0.0005422248 0.9816656
-0.003017084 -0.001459116 -0.0026285117 0.50615925 -0.0015817945 -0.003302792 -0.4933284 -0.0038882033
-0.0052413926 0.0778946 0.30600092 -0.0032784746 -0.00356038 0.65877867 -0.003998976 -0.0027114514
-0.0021550555 -0.009254304 0.30849993 -0.0024315873 -0.0028633396 -0.002261108 -1.3455507e-07 5.170171
-0.0028719082 0.87199247 -0.0038996972 -0.003634218 -0.007247704 -0.0071127615 -0.007736026 -0.6094771
-0.0073860567 -0.4429034 -0.0030862929 -0.0023898005 0.432585 -0.0019318833 0.38618672 -0.0030716965
-0.0020606057 -0.0033757 -0.00023729603 -0.0054330085 -0.0028645985 -0.0032973555 -0.0013376307 -0.002195764
1.7619282 -0.002251369 -0.00011630079 -0.0056945984 -0.0044641825 -0.0076577817 0.16124584 -0.0010854983
-0.0009788262 1.474287 0.16465612 -0.0177623 -0.005245647 -0.31348628 -0.0010284138 -0.0022622044
-0.0024805008 -0.016016182 -0.0023883926 -0.0033350163 -0.0011035637 -0.0011186012 -0.0135001 -0.0063808654
-0.002943428 -0.0009814766 -0.0018346391 -0.39240158 0.0076512913 0.11037519 -0.0038982998 -0.0022173512
-0.0070144646 1.2620212 -0.0024217365 0.008730554 0.0995739 -0.0018553927 0.109245814 -0.0029738117
-0.0009842289 -0.0004953143 0.00075126824 -0.003766819 1.628158 -0.004136929 -0.0029459738 -0.0076182927

bn2.weight f4 [300]
00000000: a228 8bbb 0ed6 0fc0 b53d 7f3b c04d c640
00000010: 3d98 f2be 2398 ab40 da2e 5cbb c125 2a3f
00000020: fee8 ffbf 3539 f03f 8a41 173f 674f 47bb
00000030: 57dd 16c0 fbef 45bc 1fb1 0b40 f4a0 fe3e
00000040: 4968 3b40 b88b 3b40 5258 243b 01cf 86c0
00000050: e453 d33b 0972 783a 0ab4 a9bb 7c43 9339
00000060: 3fff 1b3a 8051 d93d 266b e540 fdf1 f93c
00000070: 5eda ab34 f2c1 623b f832 d23d 1402 a840
00000080: 13b1 9f1a 7b4b 3f3d f37a fd40 de02 a440
00000090: 1aa1 c73b 8a72 65c0 cd41 0096 0750 b83e
000000a0: 6106 803f 083f 473b dc8c 9740 21b5 12bb
000000b0: 7aef 483b 03e9 5b39 93b8 ccbc 176e 1e3b
000000c0: 3ccc 7d40 f672 7940 8cd3 303d d03c 2a40
000000d0: 8313 4340 87ee adb2 d3af d43b 096f 9640
000000e0: f17c c83f a757 eb3f 9678 e240 6007 88c0
000000f0: 1f6c 0341 bb16 f5bf 2edb 0640 1a6a 13bd
00000100: f0f9 0b40 0f72 593e 5b85 28bf cfe8 64bd
00000110: 7bad f03b 1b14 e2ba 60aa 9bae a874 133b
00000120: 04fd 68c0 300a acb3 b7a5 2340 2776 693f
00000130: ee52 8d3e 625d 59be 783a 4ebe 4881 9f3f
00000140: 727c 323e 0eca b73f 4058 87c0 0a10 41b7
00000150: b2d8 4e3a 94b4 4f40 f379 33c0 aeba d03b
00000160: a0d7 e2c0 50e9 8140 54e4 0b3d c5b9 41c0
00000170: b812 f7b9 6849 003f e73c 8baf 4fbc 6c3d
00000180: d112 06c0 c7ae 8dbb a5d3 df3f 45eb 50a5
00000190: aee3 493c eef2 e83f eff5 a4bf b4ec a33f
000001a0: 922c b5bf 02f3 47c0 609b ad3b 4f9e 71c0
000001b0: 258b 9bc0 7193 e13f 0878 bb3c 36b0 62bf
000001c0: e3ec 373e a742 9d3b 0599 18c0 c633 073d
000001d0: 6d4b b43f ca72 843b 6f6f 1f3b 033b 703c
000001e0: dc08 1f41 9246 daba d5ed 4240 c3a9 6e40
000001f0: 0496 f3bb 35c9 503e af01 993b b667 8e3e
00000200: cf54 b0ba 8738 e73f e134 483d a8c6 d135
00000210: b960 69c0 d87d b43c 1d23 e33b 4edb e540
00000220: e4db d83b d3d5 3a9a ffd3 6c40 e8d3 8a24
00000230: e817 8440 01db b0ba fb9e 8d2e a41e 2140
00000240: b728 973f 7858 2bc0 f916 e418 704a b640
00000250: a1b4 7f40 2769 5f3b 378a a6c0 bb75 743d
00000260: e1ba 0d40 5ba0 40a0 931e 9b3c a567 31ba
00000270: f74a 213f dc2e aa3e c48e b240 498e 05bd
00000280: 5d88 9240 7ba4 a940 d34c 2d40 5460 5cbc
00000290: a734 6fbc 1091 313c ee93 4311 1cc9 84bb
000002a0: bbcf b940 bbe2 efad a0eb 8c40 fc34 8640
000002b0: 72f4 5c14 79cc 6b9d 0fb4 1c40 b64e b040
000002c0: e6e2 72bb d789 4140 e89c d5a0 7f9e fdbf
000002d0: 1a5a 803e 7115 890b fc08 9a3f ec4d 5d3c
000002e0: 6313 8840 65e6 9aba ad57 d140 b1e2 38c0
000002f0: c1c3 e140 0062 4e1e 8c7d 1440 5330 5440
00000300: 9216 b340 7874 9fbc 4cf3 1092 f793 ad40
00000310: 8d5f 17bd c9c9 cabf af09 abc0 7edd 2ac0
00000320: d7d8 2abe 4444 8bbd b7d1 4840 814f 413f
00000330: c236 4040 e0a0 c8be 5f4f 2340 d867 2bbc
00000340: 0116 8e3c c3ff b440 7d1b 6cb2 e689 bfbf
00000350: ae3b 573d 2e50 1094 44fe b23b 9ec5 8740
00000360: 064a 3423 e16b 803f 83fc 0140 97fc f3bf
00000370: 1b66 a63e 6b88 77b6 e448 b1bc e62f 99c0
00000380: e125 373c 1933 7340 615c de40 36f6 b940
00000390: f477 6aaa a3a7 923d 237c 543f 9831 e03f
000003a0: 3b0a b540 a4a5 523f f249 d1bf 016d ebbf
000003b0: 6b32 dd3e d0ff 83c0 acd9 7f40 1bd4 823f
000003c0: 9852 ff3f 0211 25ba 37fa 103f 5d7b de3f
000003d0: 9a71 b13c ad4f 3040 43ac a040 2f1d f63f
000003e0: 965c 0740 2c5b 20bd 537c 3440 5b14 84c0
000003f0: 83e6 983b 96d6 1abd c3e3 a640 4866 32a2
-0.004246787 -2.2474399 0.0038946692 6.196991 -0.47381774 5.3623214 -0.0033597262 0.6646386
-1.9992979 1.8767458 0.5908438 -0.0030412318 -2.3572595 -0.012081142 2.1826856 0.49732172
2.92824 2.9304028 0.0025077057 -4.212769 0.0064492095 0.0009477442 -0.005178933 0.00028088305
0.00059508154 0.10611248 7.1693296 0.030510897 3.2010115e-07 0.0034600464 0.10263628 5.2502537
6.604694e-23 0.046702843 7.9212584 5.12535 0.006092203 -3.585116 -1.0360521e-25 0.35998556
1.0001947 0.003040256 4.7359447 -0.0022385793 0.0030660317 0.00020972271 -0.024990356 0.0024174505
3.9655905 3.8976417 0.043170497 2.6599617 3.048066 -2.024832e-08 0.0064906864 4.701054
1.5663129 1.8386124 7.07722 -4.2509003 8.213897 -1.9147562 2.1071277 -0.03598986
2.18713 0.21234916 -0.65828484 -0.055886086 0.0073448992 -0.0017248424 -7.0788486e-11 0.0022499952
-3.6404428 -8.011227e-08 2.5569894 0.9119591 0.27602333 -0.21227029 -0.20139492 1.2461329
0.17430285 1.4358537 -4.2295227 -1.1507431e-05 0.00078905665 3.2453966 -2.8043182 0.00636991
-7.0888214 4.0597305 0.034153298 -3.0269635 -0.00047125458 0.5011201 -2.5327226e-10 0.057796773
-2.0948985 -0.0043238136 1.7486464 -1.8120837e-16 0.0123223495 1.8199136 -1.2887553 1.2806611
-1.4154227 -3.124207 0.005298063 -3.7752874 -4.8607354 1.762312 0.022884384 -0.88550127
0.17961459 0.0047992053 -2.3843396 0.03300836 1.4085518 0.0040420042 0.0024327894 0.014662507
9.939663 -0.0016653112 3.045766 3.7291114 -0.0074336547 0.20389254 0.00466939 0.278135
-0.0013453009 1.8064126 0.048878554 1.562953e-06 -3.6465285 0.022032663 0.006931676 7.1830206
0.00661801 -3.8636624e-23 3.7004392 6.020694e-17 4.1279182 -0.0013493003 6.440178e-11 2.5174952
1.18093 -2.6772747 5.8959815e-24 5.6965866 3.9953997 0.0034089775 -5.204372 0.05968259
2.2145312 -1.631609e-19 0.018935477 -0.00067674584 0.6300501 0.33238876 5.5799274 -0.032606397
4.579146 5.301328 2.707814 -0.013450701 -0.014599956 0.010837808 1.5428372e-28 -0.0040522944
5.8066077 -2.7271843e-11 4.403763 4.193968 1.115537e-26 -3.12077e-21 2.44849 5.5096083
-0.0037061512 3.024038 -3.6187435e-19 -1.9813994 0.25068742 5.280274e-32 1.2033992 0.013507348
4.2523665 -0.001181793 6.5419526 -2.8888361 7.0551457 1.0925815e-20 2.3201628 3.3154495
5.596505 -0.019464716 -4.5738275e-28 5.424312 -0.03695636 -1.584283 -5.344932 -2.6697688
-0.1668428 -0.0680013 3.1378 0.7551194 3.0033422 -0.39185238 2.5517194 -0.01046177
0.017344477 5.656221 -1.3743258e-08 -1.4963958 0.05254715 -7.285955e-27 0.0054624397 4.242873
9.773495e-18 1.0032922 2.031037 -1.9061459 0.32499775 -3.6885274e-06 -0.021641202 -4.787097
0.011178465 3.7999938 6.9487767 5.811305 -2.0824992e-13 0.071608804 0.8300192 1.7515135
5.657499 0.82284 -1.6350691 -1.839264 0.43202528 -4.124977 3.9976606 1.022098
1.9947081 -0.0006296785 0.566318 1.7381397 0.021660615 2.754863 5.021028 1.9227656
2.115026 -0.03914945 2.8200881 -4.127485 0.004666151 -0.0378023 5.215303 -2.4177646e-18

bn2.bias f4 [300]
00000000: c828 43bc fe53 873f ce82 2abb 3fcd 9bbf
00000010: 4271 923d 8271 b13f 64e0 3abb 7439 9740
00000020: f3be 35be cf51 d5be 5df8 88bc a7bb 63bb
00000030: 3b8b 78bc 702e d5bb 5810 c93c ad82 a73f
00000040: 22ed 173d 3ae9 6ec0 2df4 e9bb 13f5 d2bf
00000050: c93f 5abc c84d 1cbb d751 1dbc bffa 61bb
00000060: 3bc5 c2ba 837b 6f3b 4a84 1f40 bdd5 7cbc
00000070: 8848 58b5 2540 08bb 8bf1 633c 6371 a13f
00000080: e162 9ab9 fd9a a23c 478e 9240 499e 2240
00000090: 9682 87bb 91a7 9940 d3d7 b7b4 d268 9740
000000a0: e003 993c 11e8 10bc 671b f73f e95b dbb8
000000b0: 3ef2 47bb ef1e 6fbb 358d b2bc df70 54bb
000000c0: c7d8 be3d 9814 86bc 6a94 63bc 4764 c9bf
000000d0: 4212 d83d 52f3 c5bb 013b 97ba f914 ad3f
000000e0: 3f14 183e d404 8c3f a31b b73d bc3e 893f
000000f0: 03ac a73d 9075 f33e 68ce aebf 7655 b1bd
00000100: 7ba7 403d f424 aa3d d54b 92bd b16e 49bb
00000110: 03e6 44bb cff6 99ba e1af 57ba 572f 57bb
00000120: 5fac 8ec0 2a04 98b9 c232 d9bf 6342 2abd
00000130: facb a93f ec41 05be 8f7d 3f3c a3bd cf3c
00000140: f3cd a73f dbcf 5c3e 11f2 4d3f d95d d6bb
00000150: 9d12 90ba 0c2f 25c0 0cce 323f 0947 6abb
00000160: 7aa1 8f3c f304 1c3c 04f7 26bc e264 52be
00000170: 0a70 c7b9 83dc 0b40 e43d 2db8 0811 17bc
00000180: f38a bc3e 61c9 82bc d989 88bc eefe afba
00000190: c02c a3bc e761 12bb bd7b a23e ef70 973e
000001a0: 2b78 3dbd ad63 71c0 9640 ebbb 47fc 3cc0
000001b0: 7d4a 553f f81f babf c963 b3bc 9100 e63c
000001c0: 0f8b c23a b754 bfbc 1856 09be f058 6e40
000001d0: 68da 5f3d 1e22 0aba e380 57bb 169d cd38
000001e0: 0418 a640 1adc 06bb c47f 12c0 a2a8 523f
000001f0: 3288 5ebc ca5a 9f3f cdb5 99bc e627 bfbe
00000200: 16fc deba 3c37 833f 3930 a4bc bd70 9bbb
00000210: f5b0 143e b01d 35bc fedf 10bc 2af2 9040
00000220: 4c49 00bb 40b4 78ba 235c 5b3f 85df 3eba
00000230: 94b5 91bc 1863 83bb 988b ecb4 1b1d e0bf
00000240: 8d41 323e f8e8 333b e506 dcb9 d6a1 1340
00000250: 3dc8 bb3f 8483 0fbb 48f5 eb3f b7d6 2a3d
00000260: d1dc e7bf 8534 3aba fb7b 30bc 38b8 0cbc
00000270: ae64 aa3f ea9b 9740 b15d 3040 a47a 083d
00000280: 324b e6bf 51e7 0040 1241 b9bf 0253 7bbc
00000290: 917e 6cbc 3011 f2ba db48 a5b9 67f5 ccbb
000002a0: 0355 05c0 900e d5bb c2bc 1040 0cdf 2a3f
000002b0: f842 0aba 590f 32b7 09fd 26c0 30a7 f83d
000002c0: aa1c c9bb 5759 c53e caea adba 7d2e 1f3f
000002d0: 310f 6140 d1f1 20ba 4709 853d 8bdf bbbb
000002e0: db38 adbf 8075 10bc 6f21 303d 8a80 86bf
000002f0: 141d 9940 1258 05ba 7b40 97bd 1b43 1f3e
00000300: 53ab 3240 8a15 d1bb 5cc9 edb4 870e 3f40
00000310: afa0 983c a3b3 9e3f 7526 9c3d b4cb 253f
00000320: 3592 9940 9a43 d5bc ba33 ccbf 5ca8 683f
00000330: a7c3 12c0 5b79 663a 9446 f0bf b784 353c
00000340: d6fd cfbb c22d 193e a67f 1fbb 8d68 1c3f
00000350: bce6 6dbc 8feb 33bb 4b4b 4cbb fd4a 04c0
00000360: 8096 a8b9 17c4 373e d0bc e7be 208d 8bbb
00000370: c605 a53f f656 5fba 3c50 1dbc 505c 763f
00000380: d3ee 5fbb ad35 5540 45f4 9e40 70be 4e40
00000390: 6a64 27ba 6798 4d3c 5940 453e 4b02 283f
000003a0: a142 3840 eb44 c43f 57cd 4dbe c8c9 17be
000003b0: fe63 4cbd 19a8 1cc0 cdd5 4bc0 f9e3 003e
000003c0: fa2b 7d3d e086 87bb 36cd 1940 5284 4f3f
000003d0: d30a a3bb e832 3dc0 d57a 0140 008d 873d
000003e0: 20c4 fd3e 6c23 7240 4616 bebf ecd5 73bf
000003f0: 3ee7 93bc a381 f63a e377 f4bf d5af 9bb7
-0.0119115785 1.0572507 -0.0026017907 -1.2172011 0.071505085 1.3862765 -0.0028515095 4.7257633
-0.17748623 -0.41663978 -0.016719991 -0.00347493 -0.015169914 -0.00650578 0.024543926 1.3086754
0.03709138 -3.732985 -0.0071397037 -1.6481041 -0.013320872 -0.0023850072 -0.009602032 -0.0034481732
-0.0014859805 0.0036542125 2.4924493 -0.015431819 -8.057182e-07 -0.0020790186 0.013912569 1.2612728
-0.0002944684 0.019849295 4.579868 2.540911 -0.00413544 4.801705 -3.424344e-07 4.7315454
0.018678606 -0.008844391 1.9305238 -0.000104598534 -0.0030509378 -0.0036486944 -0.021795848 -0.003241591
0.09318691 -0.016367242 -0.013890365 -1.5733727 0.105503574 -0.006040969 -0.001153797 1.3522025
0.14851473 1.0938973 0.08940818 1.072227 0.081871055 0.4755063 -1.365674 -0.086588785
0.04703472 0.083078295 -0.0714337 -0.0030736143 -0.0030044324 -0.0011746528 -0.0008227807 -0.0032834613
-4.4585414 -0.00028994802 -1.6968615 -0.041567218 1.3265374 -0.13013428 0.01168765 0.02535898
1.3109726 0.21563666 0.8044749 -0.006541949 -0.0010991875 -2.5809965 0.6984565 -0.0035747907
0.017533053 0.009522664 -0.010190729 -0.20546296 -0.00038039713 2.185334 -4.1304054e-05 -0.009220369
0.3682476 -0.015965166 -0.016667293 -0.0013427415 -0.0199188 -0.0022336186 0.3173503 0.2957835
-0.04625718 -3.7717087 -0.00717933 -2.9528978 0.83316785 -1.4541006 -0.021898167 0.028076442
0.0014842468 -0.023355825 -0.13411748 3.7241783 0.054651648 -0.0005269366 -0.003288322 9.804421e-05
5.1904316 -0.0020577968 -2.2890482 0.82288563 -0.013582276 1.2449582 -0.018763447 -0.37335128
-0.0017012383 1.0251231 -0.020042526 -0.004743664 0.14520629 -0.011054441 -0.008842466 4.529561
-0.0019574938 -0.00094873086 0.85687464 -0.0007281232 -0.017786779 -0.0040096156 -4.4059993e-07 -1.7508882
0.17407818 0.0027452093 -0.00041966807 2.3067527 1.4670483 -0.0021898458 1.8434229 0.041708674
-1.8114263 -0.0007103163 -0.010771747 -0.008588843 1.3311975 4.7377825 2.7557185 0.033320084
-1.7991698 2.0141184 -1.4472983 -0.015339615 -0.014434473 -0.0018468257 -0.00031525534 -0.00625484
-2.0833137 -0.00650198 2.2615209 0.6674659 -0.00052742613 -1.06132e-05 -2.609194 0.121412635
-0.00613745 0.38544723 -0.0013268825 0.6218031 3.5165522 -0.0006139549 0.0649591 -0.0057334355
-1.3532976 -0.008817077 0.043000635 -1.0507977 4.7847996 -0.0005086671 -0.073853455 0.15552942
2.7917068 -0.0063807415 -4.4291198e-07 2.9852617 0.018631307 1.2398571 0.076245226 0.6476395
4.7990975 -0.026033211 -1.5953286 0.90881896 -2.2931917 0.0008791887 -1.8771539 0.011079005
-0.0063473983 0.14958861 -0.002433756 0.6109703 -0.014520343 -0.0027453636 -0.0031172808 -2.067077
-0.00032155588 0.17945896 -0.4526124 -0.004258767 1.2892387 -0.0008519733 -0.009601649 0.9623461
-0.003416945 3.331401 4.967318 3.2303734 -0.00063855073 0.012548543 0.19262828 0.656285
2.8790667 1.5333532 -0.20097862 -0.14823067 -0.049900047 -2.4477599 -3.1849244 0.12586965
0.061809517 -0.0041359514 2.40315 0.8106128 -0.0049756556 -2.956232 2.023122 0.066186905
0.49563694 3.783412 -1.4850547 -0.95248294 -0.0180546 0.0018806945 -1.9099087 -1.8559318e-05
