tmp/ddpg/critic_ddpg.pth (torch, 514177 bytes, 11 tensors)

fc1.weight f4 [400, 11]
0	0x3dd6a27d	0.10480211
1	0xbfa68e16	-1.3012111
2	0x3c92a75d	0.01790207
3	0x3e41e0f7	0.18933474
4	0x3f984bbc	1.1898112
5	0x3f908557	1.1290692
6	0x400c5313	2.1925704
7	0x3f0db9dd	0.5536173
8	0x3fa4b576	1.2867877
9	0x3f781e3d	0.9692114
10	0x3f8b7d32	1.0897582
11	0x3d984aa5	0.07436112
12	0xbfa7747a	-1.3082421
13	0x3c07710c	0.008266699
14	0x3e33cbd9	0.1755823
15	0x3f96fa5e	1.1795156
16	0x3fb0bde3	1.3807949
17	0x3ffe56ec	1.9870276
18	0x3ebf2925	0.37336078
19	0x3f9af92b	1.210729
20	0x3f67b567	0.90511173
21	0x3f839ba1	1.0281869
22	0x3dbdf568	0.09275323
23	0xbfa86c19	-1.3157989
24	0x3a855955	0.0010173718
25	0x3e3e504b	0.18585317
26	0x3f9bc4c0	1.2169418
27	0x3f9dff18	1.2343473
28	0x4013c07f	2.308624
29	0x3ead0cb9	0.3379877
30	0x3f8b24d4	1.0870614
31	0x3f54f2cc	0.8318298
32	0x3f65ff85	0.89843017
33	0xba9c6294	-0.0011931234
34	0xbf9c3001	-1.220215
35	0x3c3db9c1	0.011579932
36	0x3e31e50a	0.17372528
37	0x3f9b2bd8	1.2122755
38	0x3fdd5ca1	1.7293893
39	0x401a5ebb	2.412032
40	0x3fa87347	1.316018
41	0x3fb3f7eb	1.4060034
42	0x3f890743	1.0705341
43	0x3f94af97	1.1616086
44	0xbe53e0fc	-0.20691293
45	0xbe83402a	-0.2563489
46	0x3f1196d1	0.5687075
47	0x3e1c68e5	0.15274389
48	0x3f787071	0.9704657
49	0x40fb3ace	7.8509283
50	0xbec5a5fd	-0.38603202
51	0xbfe72f18	-1.8061247
52	0x3f911ff6	1.1337879
53	0xbf33f5bf	-0.70296854
54	0x3fae5faf	1.362295
55	0x3e4b2cf9	0.19841374
56	0xbfadd9ba	-1.358207
57	0x3aede444	0.0018149693
58	0x3e55b73e	0.20870683
59	0x3fa7ceb7	1.3109959
60	0x3f4ba416	0.7954725
61	0x3fee66b6	1.8625095
62	0x3ef4c6e8	0.47808003
63	0x3f3b2c6e	0.7311467
64	0x3f1821d0	0.59426594
65	0x3f255850	0.6458788
66	0x3da7756f	0.081766956
67	0xbfa92603	-1.3214725
68	0x3bb47169	0.0055066836
69	0x3e4ae55b	0.19814055
70	0x3f9987fe	1.1994627
71	0x3f925b66	1.1434143
72	0x400e3655	2.2220662
73	0x3f1ffb8b	0.624932
74	0x3fa12855	1.2590433
75	0x3f7724b3	0.96540374
76	0x3f86dd34	1.0536256
77	0x3e97f82f	0.29681537
78	0xbfb2bfc0	-1.3964767
79	0x3c58492a	0.013201037
80	0x3e8424c0	0.25809288
81	0x3fbea698	1.489459
82	0x3f839d5f	1.0282401
83	0x3fb5c9b8	1.4202185
84	0x3f6c41da	0.9228798
85	0xbdda70a2	-0.10666014
86	0xbe2c3fa1	-0.16821148
87	0xbcc48b57	-0.023992224
88	0x3fba1a5f	1.4539298
89	0xc005e36b	-2.0920055
90	0xbed0ab2c	-0.40755594
91	0x3f0f4059	0.5595756
92	0x3e6ae31f	0.22938202
93	0x401af04d	2.4209168
94	0x3f27521b	0.6535966
95	0xc00b6939	-2.1782973
96	0xbf295ff9	-0.6616207
97	0xbf218979	-0.6310039
98	0xbf9dd42d	-1.2330376
99	0x3ffd5cd9	1.979396
100	0xbeb5353f	-0.35392186
101	0x3f57325f	0.84061235
102	0x3ea061a9	0.3132451
103	0x3f1c59f5	0.61074764
104	0xc0a044be	-5.0083914
105	0xbf0a3f77	-0.5400309
106	0x4004484c	2.0669127
107	0x3f8422f8	1.0323172
108	0x3f083c42	0.53216946
109	0x3f200ebf	0.625225
110	0x3e708154	0.23486835
111	0xbfc1944d	-1.5123383
112	0x3c627eb1	0.013824151
113	0x3e8197df	0.2531118
114	0x3fa3a4f4	1.2784715
115	0x3f49430a	0.7861792
116	0x3fb8f4b6	1.444968
117	0x3d68c516	0.05682858
118	0x3ede08d8	0.43366122
119	0x3edbb473	0.4291111
120	0x3f06e565	0.5269378
121	0xbc19356c	-0.009351116
122	0xbf9e243b	-1.2354807
123	0x399b084c	0.00029570085
124	0x3e20399d	0.15646978
125	0x3f9b25b4	1.2120881
126	0x3faaf151	1.3354894
127	0x401d7f61	2.4608996
128	0x3f11809e	0.5683688
129	0x3f94a2f4	1.1612229
130	0x3f5b303d	0.8562048
131	0x3f6db451	0.92853266
132	0x3e968035	0.2939469
133	0xbfb8d333	-1.4439453
134	0x3b783227	0.003787169
135	0x3e6e8403	0.23292546
136	0x3fa42d11	1.2826253
137	0x3f2aa931	0.66664416
138	0x3fdd1106	1.727082
139	0xbf2e55fa	-0.6809994
140	0x3f15d8bb	0.5853383
141	0x3f19bae7	0.60050815
142	0x3f3d06ea	0.73838675
143	0x3daba4e8	0.08381063
144	0xbfa3ac65	-1.2786986
145	0x3c32068b	0.010865818
146	0x3e4281b3	0.18994789
147	0x3f9dba8b	1.2322553
148	0x3f92fbfb	1.1483148
149	0x400e2cb3	2.2214782
150	0x3f1505ad	0.58211786
151	0x3f9435f6	1.1578968
152	0x3f5dec6a	0.86688864
153	0x3f733fdb	0.9501931
154	0x3e978056	0.295901
155	0xbfdce78f	-1.7258166
156	0xbd14cf92	-0.036330767
157	0x3ea27bc1	0.31735042
158	0x3f8f42da	1.1192276
159	0xc036b71d	-2.8549263
160	0xbec52f25	-0.3851253
161	0x3fac5b62	1.3465388
162	0x3efd3433	0.49453887
163	0x3f465175	0.77468044
164	0x3f175a3b	0.59122056
165	0x3d942cc7	0.07235103
166	0xbf9bf031	-1.2182676
167	0x3c63a703	0.013894799
168	0x3e2cb9eb	0.16867797
169	0x3fa35886	1.276139
170	0x3f985d9c	1.1903567
171	0x40221fd1	2.533192
172	0x3f438aa5	0.7638343
173	0x3f997d9b	1.1991457
174	0x3f641fc7	0.8911099
175	0x3f67e8f0	0.9058981
176	0x3e02885c	0.1274733
177	0xbf9aaace	-1.2083375
178	0x3ba1b04e	0.0049343472
179	0x3e2e4fd5	0.17022641
180	0x3fa1884b	1.2619718
181	0x3fa1071b	1.2580293
182	0x4017ba3a	2.3707414
183	0x3dc381c6	0.09546237
184	0x3f99bb9e	1.2010381
185	0x3f6d4396	0.9268125
186	0x3f77b8af	0.9676618
187	0x3e2178c1	0.1576872
188	0xbfa6327b	-1.2984155
189	0x3bd938fd	0.006629108
190	0x3e620a93	0.22074346
191	0x3fa72d7e	1.3060758
192	0x3f57e417	0.8433241
193	0x3ff58e42	1.9184039
194	0x3f2a822c	0.66604877
195	0x3f4b31f6	0.7937311
196	0x3f1dc5cd	0.61629945
197	0x3f2255e5	0.63412315
198	0x3e17ce1f	0.14824723
199	0xbf959a39	-1.168769
200	0x3c37c970	0.01121746
201	0x3e1c3d64	0.15257794
202	0x3fa45082	1.2837069
203	0x3f94ea0c	1.1633925
204	0x4020a1bb	2.5098712
205	0xbdf73cc1	-0.12072135
206	0x3f9d60ab	1.2295126
207	0x3f80a582	1.0050509
208	0x3f812569	1.0089542
209	0x3fb17e05	1.3866583
210	0xbf744937	-0.95424217
211	0x3f35ec4e	0.710637
212	0x3e856dff	0.26060483
213	0x3fc36127	1.5264024
214	0x40757a30	3.8355827
215	0x3f813a6d	1.0095955
216	0xbee90783	-0.45513543
217	0xc08ce498	-4.4029045
218	0xc05b322f	-3.424938
219	0xc02a8c01	-2.6647952
220	0x3d839979	0.06425757
221	0xbfa3e6f3	-1.2804855
222	0x3bad3e4f	0.005286969
223	0x3e429a58	0.1900419
224	0x3f9fc4dd	1.2481953
225	0x3f579bb8	0.8422198
226	0x400815db	2.126334
227	0x3fa224fb	1.2667536
228	0x3f986186	1.1904762
229	0x3f527c80	0.8222122
230	0x3f6f6df7	0.9352717
231	0x3d5c9f9f	0.053863164
232	0xbfa5d7d1	-1.2956487
233	0x3c0241e9	0.0079502845
234	0x3e3820fd	0.17981334
235	0x3f9903b4	1.1954255
236	0x3f9d3e0e	1.2284563
237	0x40153a48	2.3316822
238	0x3f0c2859	0.54749066
239	0x3f989615	1.1920801
240	0x3f646910	0.8922281
241	0x3f7e4edb	0.99339074
242	0x3e3a9a2d	0.18222876
243	0xbf97d76b	-1.1862615
244	0xbcd7658e	-0.026293542
245	0x3e5c291d	0.21500058
246	0x3f96993c	1.1765513
247	0x3fd4e96c	1.6633735
248	0x400a2991	2.158787
249	0x3d37cfc9	0.044875894
250	0x3fae92bd	1.3638531
251	0x3f889b7c	1.067245
252	0x3f9244ee	1.1427286
253	0x3cfc3ed1	0.030791672
254	0xbfa53766	-1.2907531
255	0x3c632255	0.013863166

fc1.bias f4 [400]
0	0x3e98d76e	0.2985186
1	0x3e9786b5	0.2959496
2	0x3e9761f1	0.2956691
3	0x3eb13016	0.34607
4	0x3fb829bc	1.4387736
5	0x3e90f722	0.28313547
6	0x3e896fa3	0.26842985
7	0x3ee4278d	0.44561425
8	0x3e2c13a3	0.16804366
9	0x3fa2a94c	1.2707915
10	0x3e928cc2	0.28623015
11	0x3e9700a7	0.29492685
12	0x3e88fb2f	0.26754138
13	0x3e89d29e	0.269185
14	0x3d18c7bd	0.03729986
15	0x3ea5d007	0.32385275
16	0x3e986be3	0.2976981
17	0x3ea4530d	0.32094613
18	0x3e96a1fe	0.29420465
19	0x405300e9	3.2969306
20	0x3e8c951b	0.27457508
21	0x3e95a159	0.2922466
22	0x3eab78c5	0.33490577
23	0x3e8ec6e2	0.2788611
24	0x3e951865	0.29120174
25	0x3fb171dd	1.3862873
26	0x3eb3d4d9	0.35123327
27	0x3ea0a5b7	0.3137643
28	0x3e96d348	0.2945807
29	0x3eb2cfcb	0.34924158
30	0x3e96aa7e	0.2942695
31	0x3eac3064	0.3363067
32	0x3eb73acf	0.35787055
33	0x3e762f15	0.24041398
34	0x3e81a271	0.25319245
35	0x3eb3424a	0.35011512
36	0x3eca5e5b	0.39525113
37	0x3e961c8c	0.29318655
38	0x3f1a012d	0.60158044
39	0xbdd658d7	-0.104661636
40	0x3e8fc452	0.28079468
41	0x3e292f7f	0.16522025
42	0x3f0a7271	0.54080874
43	0x3f794cf7	0.97383064
44	0x3e92361b	0.28556904
45	0x3e87d6b7	0.26531002
46	0x3ea77c02	0.32711798
47	0x3ed61b53	0.41817722
48	0x3e8d7e3b	0.2763537
49	0x3e8485aa	0.25883228
50	0x404c4348	3.1916065
51	0x3e91c336	0.28469247
52	0x3ec80973	0.3906971
53	0x3e136077	0.14392267
54	0x3e9e1642	0.30876356
55	0x3e86a583	0.2629815
56	0x3efd385e	0.49457067
57	0x3e939bdf	0.28829858
58	0x3ea2a71b	0.31768116
59	0x3eaef20a	0.34169036
60	0x3e9c25c7	0.30497572
61	0x3f0bf175	0.5466531
62	0x3e9ab009	0.3021243
63	0x3e02591a	0.12729302
64	0x3f20558f	0.6263055
65	0x3e913860	0.28363323
66	0xbda5a456	-0.08087985
67	0x3eb311b8	0.34974456
68	0x3e9c7a28	0.30561948
69	0x3e9473a5	0.2899448
70	0x3ea63fd3	0.3247057
71	0x3e994fe3	0.2994376
72	0x3f482d97	0.78194565
73	0x3e87b64e	0.26506275
74	0x3ebe2c31	0.3714309
75	0x3f3b446e	0.7315129
76	0x3f808fa1	1.0043832
77	0x3e810077	0.25195667
78	0x3e8f1ba7	0.27950785
79	0x3e81efbf	0.25378224
80	0x3ea3b572	0.3197437
81	0x3f6fd00c	0.9367683
82	0x3e92cbf5	0.28671232
83	0x3f1c59aa	0.61074317
84	0x3e94078c	0.28912008
85	0x3ea5dea9	0.3239644
86	0x3e12b52f	0.14326929
87	0x3ea8b915	0.32953706
88	0x3ea5bac3	0.3236905
89	0x3f34da2b	0.706454
90	0x3eae41be	0.34034532
91	0x3f9e2ea8	1.2357988
92	0x3f3be6e9	0.73399216
93	0x3ea1874d	0.3154854
94	0x3e957145	0.2918798
95	0x3e9d72a8	0.30751538
96	0x3e8fd51e	0.28092283
97	0x3ea57612	0.32316643
98	0x3e82b350	0.2552743
99	0x3ed60176	0.4179799
100	0x3f873351	1.0562536
101	0x3e71f050	0.23626828
102	0x3e84554c	0.25846326
103	0x3e8f104c	0.2794212
104	0x3e9e194c	0.30878675
105	0x3eaa25fb	0.33232102
106	0x3ea569ee	0.3230738
107	0x3f31f437	0.6951327
108	0x3e895897	0.268254
109	0x3e37285e	0.17886493
110	0x3ea0c87e	0.31402963
111	0x3e959374	0.2921406
112	0x3f8a6ac6	1.0813835
113	0x3ea502ea	0.32228786
114	0x3cf292ba	0.02961098
115	0xbe893b75	-0.26803175
116	0x3f93166e	1.149122
117	0x3e1b148f	0.15144561
118	0x3e9cc11d	0.30616084
119	0x3e8a64a6	0.27029914
120	0x3eb9cd04	0.36289227
121	0x3ea0e44d	0.3142418
122	0x3e83e132	0.25757748
123	0x3e8f0be8	0.2793877
124	0x3f51a5fb	0.8189389
125	0x3eacd462	0.33755785
126	0x3ea6fa53	0.32612857
127	0x3e3d5afa	0.18491736
128	0x3ea1495b	0.31501278
129	0x3eadab28	0.33919644
130	0x3f20b9a2	0.62783253
131	0x3e9ceb62	0.30648333
132	0x3eb5184a	0.35370094
133	0x3f9c212a	1.2197621
134	0x3f375fc0	0.7163048
135	0x3ea46609	0.32109097
136	0x3e2e5c7c	0.17027467
137	0x3eaf4f5b	0.3424023
138	0x3e91f497	0.2850692
139	0x3e3b3a45	0.18283947
140	0x3e84326c	0.2581972
141	0x3f4f8231	0.8105803
142	0x3e9ac1c2	0.3022595
143	0x3ea59beb	0.32345518
144	0x3e9bb8b1	0.30414346
145	0x3e9f36c9	0.31096485
146	0x3e5cab18	0.21549642
147	0x3f093573	0.5359718
148	0x3eba1c94	0.36349928
149	0x3e963768	0.29339147
150	0x3f325d42	0.6967355
151	0x3e8bab79	0.2727926
152	0x3ea613a7	0.3243687
153	0x3eac3697	0.336354
154	0x3eb5acdf	0.35483453
155	0x3e92c90d	0.28669015
156	0x3ea8766e	0.32902855
157	0x3efb4f0b	0.49083742
158	0x3e9227f9	0.28546122
159	0xbf2736bc	-0.65317893
160	0x3eaecf31	0.3414245
161	0x3e899d36	0.26877755
162	0x3e9881fe	0.29786676
163	0x3f40f22b	0.7536952
164	0x3e954c58	0.29159808
165	0x3e970724	0.29497635
166	0x3fae6df3	1.3627304
167	0x3e7a2460	0.24427938
168	0x3e20ec46	0.15715131
169	0x3ea69acc	0.32539976
170	0x3ee15e65	0.4401733
171	0x3eab3deb	0.33445677
172	0x3e3dff1d	0.18554349
173	0x3e8ff1a6	0.2811405
174	0x3ead1094	0.3380171
175	0x3ea22b5f	0.31673715
176	0x3e98cfc5	0.29846016
177	0x3ead7036	0.33874673
178	0x3e9b7853	0.30365238
179	0x3eaffbe0	0.34371853
180	0x3eaac94a	0.33356696
181	0x3e9402a5	0.28908268
182	0x3e8b97a5	0.27264133
183	0x3fa7b9a1	1.3103524
184	0x3eb5d61a	0.3551491
185	0xbe36f5eb	-0.17867248
186	0x3ead599c	0.3385743
187	0x3dd3125a	0.10306235
188	0x3ec91914	0.39276946
189	0x3ea6eb88	0.3260157
190	0x3ea1d9df	0.31611535
191	0x3fb8f168	1.4448671
192	0x3eb46331	0.35231927
193	0x3fa17748	1.2614527
194	0x3eb91c94	0.36154616
195	0x3eba6138	0.36402297
196	0xbe1037ed	-0.14083834
197	0x3e9ee637	0.31035015
198	0x3e1d8262	0.15381768
199	0x3e9dc32b	0.30812964
200	0x3ea5a928	0.32355618
201	0x3ea18c5c	0.31552398
202	0x3eace8b1	0.3377128
203	0x3ee35901	0.44403842
204	0x3f206751	0.6265765
205	0x3e9ecccb	0.3101562
206	0x3e915282	0.2838326
207	0x3ebc30e5	0.36756054
208	0xbe8aa4be	-0.27078813
209	0x3ecdef4b	0.4022163
210	0x3ee93014	0.45544493
211	0x3e9da968	0.3079331
212	0x3ea28d42	0.31748396
213	0x3e8e5edc	0.27806747
214	0x3e837d5b	0.25681576
215	0x3eb22e52	0.34800965
216	0x3e8eaae9	0.2786477
217	0x3f8a38ed	1.0798622
218	0xbe364a80	-0.17801857
219	0x3eb721d0	0.35767984
220	0x3ee0293e	0.43781465
221	0x3e723c7c	0.23655885
222	0x3e26007e	0.16211125
223	0x3ebdecba	0.3709467
224	0x3e2b0728	0.16701949
225	0x3ec94b31	0.3931518
226	0x3eaa1254	0.33217108
227	0x3e3d4f47	0.18487273
228	0x3e8beb72	0.27328068
229	0x3e841d5a	0.25803643
230	0x3fe1ab4a	1.7630398
231	0x3e80ef42	0.2518254
232	0x3ea39aed	0.31954136
233	0x3ea899d1	0.32929853
234	0x3e874988	0.26423287
235	0x3ec6c6cf	0.38823554
236	0x3f0cf5cc	0.55062556
237	0x3f083457	0.53204864
238	0x3eb38abc	0.35066783
239	0x3eb23cb2	0.34811932
240	0x3eb05cb0	0.34445715
241	0x3e98e638	0.29863143
242	0x3e9197b0	0.2843604
243	0x3e97e5fa	0.29667646
244	0x3e8d31f4	0.27577174
245	0x3f0889b7	0.53335136
246	0x3fdedaca	1.7410519
247	0x3ebc538e	0.36782497
248	0x3ea3bf9c	0.31982124
249	0x3f43f6ea	0.76548636
250	0x3f12328a	0.57108366
251	0x3e8d1015	0.27551332
252	0x3f3c9886	0.7367023
253	0x3ea3f354	0.32021582
254	0x3e933700	0.287529
255	0x3e9a9bbd	0.30196944

fc2.weight f4 [300, 400]
0	0xb855c170	-5.096331e-05
1	0x000002a6	9.5e-43
2	0x8000010b	-3.74e-43
3	0xbc7a1a3f	-0.015265047
4	0xbe920e75	-0.28526655
5	0x9f3208f9	-3.7700388e-20
6	0xad81bf69	-1.4750605e-11
7	0xb9d0f3f3	-0.00039854608
8	0xbf017480	-0.5056839
9	0x3daf4ce5	0.08559588
10	0x00000133	4.3e-43
11	0x3be04ad2	0.006844857
12	0x3774aa9a	1.4583255e-05
13	0xb6512dc0	-3.1170057e-06
14	0x33bbb3ab	8.7405475e-08
15	0x8000019b	-5.76e-43
16	0x00000d46	4.762e-42
17	0x80000088	-1.9e-43
18	0x0000020e	7.37e-43
19	0xbf325399	-0.6965881
20	0xbb93b46b	-0.0045075915
21	0x00000180	5.38e-43
22	0x3e93cfd8	0.2886951
23	0x80000145	-4.55e-43
24	0x1ff2a536	1.02764305e-19
25	0xbee5c411	-0.4487615
26	0x36330e36	2.668135e-06
27	0x8000019a	-5.75e-43
28	0x8ebefc8c	-4.708181e-30
29	0x3da6506f	0.0812081
30	0x3d920d5f	0.071314566
31	0x800001ca	-6.42e-43
32	0xb3f2ed4c	-1.1312167e-07
33	0x800007ef	-2.846e-42
34	0x80000111	-3.83e-43
35	0x3664b3cc	3.4079303e-06
36	0xbe4019de	-0.18759868
37	0x328e481e	1.656377e-08
38	0x8edf9aa9	-5.5122677e-30
39	0xbf309bbd	-0.6898764
40	0xb2e6036f	-2.6777085e-08
41	0xbe057e29	-0.13036408
42	0xbe1f7746	-0.15572843
43	0x3d618dd9	0.055066917
44	0xbb9ec002	-0.0048446665
45	0x000002ca	1e-42
46	0x3d92deeb	0.071714245
47	0xbe654a7b	-0.22391693
48	0x3a0bd4b6	0.00053341256
49	0x3dbac88c	0.091202825
50	0xbf3bf782	-0.7342454
51	0x3a8b39bc	0.0010622065
52	0x800000b7	-2.56e-43
53	0xbf73b293	-0.9519436
54	0x3a161a53	0.00057259685
55	0x80000086	-1.88e-43
56	0xbde5f9d4	-0.112292916
57	0x287dcdcf	1.4088949e-14
58	0x09ddf914	5.3438047e-33
59	0xa7831182	-3.6378786e-15
60	0x80000203	-7.22e-43
61	0xbf26f7ab	-0.6522166
62	0x04cff738	4.88925e-36
63	0x3d148e01	0.036268238
64	0xbe43cfbe	-0.19122216
65	0xbd64dd94	-0.055875376
66	0xbe5e5827	-0.21713315
67	0x96f3bded	-3.9378627e-25
68	0x3dc9e51b	0.098581515
69	0x8000012b	-4.19e-43
70	0x800002f2	-1.057e-42
71	0x3b0f80bd	0.0021896802
72	0xbee6b1d2	-0.4505754
73	0xba80ac96	-0.000981706
74	0x80000727	-2.566e-42
75	0x000002c6	9.95e-43
76	0x3f179a68	0.5921998
77	0x8000018f	-5.59e-43
78	0x3c2ce7a5	0.010553275
79	0xbbe7d268	-0.007074643
80	0x00000126	4.12e-43
81	0xbe3e261b	-0.18569224
82	0x3d2de8af	0.042458232
83	0xbcce4791	-0.02518061
84	0x956e214d	-4.8089987e-26
85	0x3e2c7133	0.16840057
86	0x3e356377	0.17713724
87	0x3e3be928	0.18350661
88	0x3e2b1d0a	0.16710296
89	0xbc890351	-0.016725214
90	0x00000385	1.263e-42
91	0x3f0bf62e	0.54672515
92	0xb979126f	-0.00023753358
93	0x80000225	-7.7e-43
94	0xbbc34a9e	-0.005959823
95	0xb9126e28	-0.00013964681
96	0xbd2bbb58	-0.04192671
97	0x1a086de2	2.8212903e-23
98	0x800da5c2	-1.253324e-39
99	0x3d57f6ae	0.052725486
100	0xc01c3632	-2.4408078
101	0x8000032b	-1.136e-42
102	0x0000050f	1.815e-42
103	0xb55483a7	-7.9167734e-07
104	0x00000084	1.85e-43
105	0x3c883825	0.016628334
106	0x3b08dba1	0.0020882862
107	0x0000023c	8.02e-43
108	0x8000021a	-7.54e-43
109	0x800001c2	-6.3e-43
110	0x3d986d53	0.07442727
111	0x394b06cb	0.00019362119
112	0x3d90da28	0.0707286
113	0x80000250	-8.3e-43
114	0xbda87272	-0.08224954
115	0xbdd7c25d	-0.10535119
116	0xbf20d2cc	-0.6282165
117	0xbd644453	-0.05572922
118	0x8000001f	-4.3e-44
119	0x800000a5	-2.31e-43
120	0x80000067	-1.44e-43
121	0x800001a0	-5.83e-43
122	0x800005f5	-2.137e-42
123	0x00000131	4.27e-43
124	0x000010bd	6.005e-42
125	0xbddbb1e9	-0.10727293
126	0x00000152	4.74e-43
127	0x396439e7	0.00021765345
128	0x00000108	3.7e-43
129	0x00000083	1.84e-43
130	0xbcec7eed	-0.028869117
131	0x000001eb	6.88e-43
132	0x8000024b	-8.23e-43
133	0xbf132eb1	-0.5749312
134	0x3eb4b135	0.35291448
135	0x3984b89f	0.00025314555
136	0xb8a41afe	-7.825157e-05
137	0x000000b2	2.5e-43
138	0x8000023a	-7.99e-43
139	0xbec2a090	-0.38013124
140	0xbc821bc3	-0.015882378
141	0x280866b5	7.571788e-15
142	0x80000101	-3.6e-43
143	0x80000363	-1.215e-42
144	0x80000225	-7.7e-43
145	0xbc513e74	-0.012771238
146	0xbd8d70b0	-0.06906259
147	0x0b14011f	2.8504607e-32
148	0x2a08712e	1.2118494e-13
149	0x9ade9078	-9.205045e-23
150	0xbd8d5ce3	-0.06902482
151	0x3a920fb0	0.0011143591
152	0x0000018f	5.59e-43
153	0x3dc261ec	0.09491333
154	0x80000020	-4.5e-44
155	0x0000021e	7.6e-43
156	0xbf9358c5	-1.1511465
157	0xb82b54ee	-4.0848674e-05
158	0x3c54d99c	0.012991335
159	0xbeecd7c7	-0.46258375
160	0xba420e9a	-0.00074026885
161	0x3a69954b	0.0008910491
162	0x0000034b	1.181e-42
163	0xbf072f3a	-0.52806437
164	0x264eb886	7.1720683e-16
165	0xbd8df6db	-0.069318496
166	0xbea35853	-0.31903324
167	0x3dde1bae	0.10845123
168	0xbc8de5fc	-0.01732158
169	0x00000057	1.22e-43
170	0xc03ab023	-2.9170005
171	0x39f3fc36	0.00046536484
172	0xbdefbc2e	-0.11705814
173	0x80000121	-4.05e-43
174	0x800000d1	-2.93e-43
175	0x800000d8	-3.03e-43
176	0xbd8b86d9	-0.068128295
177	0x96aab9e2	-2.758229e-25
178	0xbe5344bd	-0.2063169
179	0x22999c2c	4.1636087e-18
180	0x000001fe	7.15e-43
181	0x800004c1	-1.705e-42
182	0xbc0ba431	-0.008523033
183	0xbf66ceaf	-0.90159124
184	0x3d4a4f04	0.04939176
185	0xbf15073a	-0.5821415
186	0x0000001f	4.3e-44
187	0xbe283c1a	-0.16429177
188	0x3a816b2b	0.0009873857
189	0x3bb0b6a1	0.005392865
190	0xb0a9a867	-1.2344231e-09
191	0x3f303b1b	0.6884019
192	0x80000071	-1.58e-43
193	0x3f0e33f3	0.5554802
194	0xbea8c0d7	-0.32959625
195	0x00000101	3.6e-43
196	0xbf879ad7	-1.0594128
197	0x000004b8	1.693e-42
198	0xbe49db65	-0.19712599
199	0xae0f1923	-3.253676e-11
200	0x0000072f	2.577e-42
201	0x00000615	2.182e-42
202	0x80000483	-1.618e-42
203	0x37292e4a	1.00839625e-05
204	0xbdd41757	-0.10356014
205	0x0000009d	2.2e-43
206	0x0000052f	1.86e-42
207	0x3c093433	0.008374262
208	0x3de5e9c8	0.11226231
209	0x800001a2	-5.86e-43
210	0x3c4bbc42	0.012435021
211	0x0000048e	1.634e-42
212	0x800001a6	-5.91e-43
213	0x3d18031a	0.037112333
214	0xa1bd374b	-1.2821774e-18
215	0x80000082	-1.82e-43
216	0xa80a6e25	-7.684423e-15
217	0xbf0e256a	-0.5552584
218	0xbf84983d	-1.035896
219	0x260d77a0	4.9081324e-16
220	0x9defc16f	-6.346278e-21
221	0x3cc30bef	0.023809401
222	0x357aa840	9.3377093e-07
223	0x8000056a	-1.942e-42
224	0x0000008a	1.93e-43
225	0xbce48245	-0.027894149
226	0x00000806	2.878e-42
227	0xbe0f0775	-0.13967688
228	0x800005e2	-2.11e-42
229	0xba272bd2	-0.0006377074
230	0xbe41d2bb	-0.18928044
231	0x8000037c	-1.25e-42
232	0x00000a46	3.685e-42
233	0x3958b7c7	0.00020667828
234	0x000002ed	1.05e-42
235	0xbd113e09	-0.035459552
236	0xbd364825	-0.044502396
237	0x3b0ccf55	0.0021485884
238	0x0000027b	8.9e-43
239	0x11713d0e	1.9030362e-28
240	0x8000010d	-3.77e-43
241	0xbf745aec	-0.95451236
242	0x25914ab9	2.5204124e-16
243	0x80000760	-2.646e-42
244	0x3bdfc634	0.0068290476
245	0xbbe7a5d4	-0.007069329
246	0xbf524b6b	-0.8214633
247	0x2d535ad1	1.2014127e-11
248	0x2f9f8772	2.901817e-10
249	0x3e6c9f01	0.2310753
250	0x3e2421d0	0.16028523
251	0x2ef2621e	1.1022315e-10
252	0xbe88f83b	-0.26751885
253	0x800008ba	-3.13e-42
254	0x340c7758	1.3081933e-07
255	0x39c27d4f	0.00037095926

fc2.bias f4 [300]
0	0x3e827b89	0.25484875
1	0x3efee116	0.49781102
2	0x3e7dd953	0.24789934
3	0xbf759302	-0.9592744
4	0x3f05eab2	0.5231124
5	0x3bd3b1a7	0.006460387
6	0x3e9e8642	0.30961806
7	0x3eab172e	0.33416122
8	0x3e94af19	0.2903984
9	0xbf1c0703	-0.609482
10	0xbf0392b5	-0.5139573
11	0x3e7f578c	0.2493574
12	0xbf36e814	-0.71447873
13	0x3e8a6724	0.27031815
14	0xbeda3bcb	-0.42623743
15	0x3e8ee68a	0.27910262
16	0xbe8a9ed6	-0.27074307
17	0xbf1b8410	-0.60748386
18	0x3e4ef814	0.20211822
19	0x3ee69c0b	0.45040926
20	0x3ee2c212	0.4428869
21	0x3e3ff8b4	0.18747216
22	0xbf17d744	-0.59312844
23	0x3e3a7467	0.18208466
24	0xbf3f7146	-0.74782217
25	0x3ca577be	0.0201987
26	0xbf4fe8ea	-0.81214774
27	0x3e018b83	0.12650876
28	0xbf2b7283	-0.66971606
29	0x3ec2274e	0.37920612
30	0xbdd45d3a	-0.10369344
31	0xbd57cf7e	-0.052688114
32	0x3e959789	0.29217175
33	0xbf564e49	-0.83713204
34	0xbf335afe	-0.7006072
35	0x3ba149f7	0.0049221474
36	0x3e45cccd	0.19316407
37	0x3ef32c67	0.47494814
38	0x3e0bac7d	0.13640018
39	0x3dc1603f	0.094421856
40	0xbed14df4	-0.40879786
41	0xbe0d4a8f	-0.13797973
42	0x3ea081a9	0.31348923
43	0xbf32cad3	-0.69840735
44	0xbf3dfe89	-0.74216515
45	0x3e9a5436	0.30142373
46	0xbf54b88f	-0.83094114
47	0xbf0312fa	-0.5120083
48	0x3ed3c980	0.4136467
49	0xbe0df694	-0.13863593
50	0x3e89cd5f	0.26914498
51	0x3f480ca9	0.7814432
52	0xbf152718	-0.5826278
53	0xbf795ee0	-0.9741039
54	0xbebf1367	-0.3731949
55	0x3dce3e72	0.10070504
56	0xbfa98bad	-1.3245751
57	0x3e8c4646	0.27397364
58	0xbe94a9fb	-0.29035935
59	0xbdd3f049	-0.10348565
60	0xbece37c7	-0.4027693
61	0x3e8ac3cd	0.2710251
62	0x3f596183	0.84914416
63	0xbea1a450	-0.31570673
64	0xbe8b48c5	-0.27203956
65	0xbd25824f	-0.040407475
66	0x3ee77e54	0.45213568
67	0xbf3b5b67	-0.73186344
68	0x3e86f743	0.2636052
69	0x3f17fdcd	0.59371644
70	0x3f0981dd	0.5371378
71	0xbf84ef8f	-1.0385607
72	0x3ebab02d	0.36462536
73	0xc03f39a5	-2.9878933
74	0x3f3e9664	0.7444823
75	0xbe2007e3	-0.15628009
76	0x3e8b8349	0.272486
77	0x3f0ade90	0.54245853
78	0xbf19a0e7	-0.6001114
79	0xbdf1ddc9	-0.1180988
80	0x3ea71e5d	0.32640353
81	0x3e8f1ba0	0.27950764
82	0xbe0fb825	-0.1403509
83	0xbdf58f38	-0.119902074
84	0xbf3623d8	-0.71148443
85	0x3e47c762	0.19509652
86	0xbf6c7a07	-0.923737
87	0x3e876209	0.26441982
88	0x3ee31e1d	0.44358912
89	0x3df488df	0.119401686
90	0x3e84402e	0.25830215
91	0xbed7338c	-0.42031515
92	0xbf7a08fe	-0.9766997
93	0xbed3366e	-0.41252464
94	0xbf7700b9	-0.9648548
95	0x3e84431c	0.2583245
96	0x3ed2babf	0.411581
97	0x3e54c161	0.20776893
98	0xbea92c3c	-0.3304156
99	0x3ea4e952	0.3220926
100	0xbc9d0d1f	-0.019171296
101	0xbf0aef27	-0.5427117
102	0x3e99dae2	0.30049807
103	0xbf77cf26	-0.9680046
104	0x3ee0c01c	0.43896568
105	0x3ed39cba	0.4133051
106	0xbe6ba2b2	-0.23011282
107	0xbf073864	-0.5282042
108	0x3e606176	0.21912178
109	0x3e68ada1	0.22722484
110	0xbe39619d	-0.18103643
111	0x3e5b1a8f	0.2139685
112	0xbee4c5f6	-0.44682282
113	0xbcd4e466	-0.025987815
114	0xbf59ec8c	-0.85126567
115	0x3ec2211e	0.3791589
116	0x3f11a09b	0.5688569
117	0x3e1d2d19	0.15349235
118	0xbeef9fde	-0.46801656
119	0xbe1f6f23	-0.15569739
120	0x3f93093a	1.1487191
121	0xbdbf54c6	-0.09342341
122	0x3e6e5b7b	0.23277085
123	0xbea4a6a3	-0.32158384
124	0x3e083af9	0.13303746
125	0xbd9a07a4	-0.075209886
126	0x3e967d16	0.29392308
127	0x3e422841	0.18960668
128	0x3e8afdbe	0.27146715
129	0x3da9886e	0.08277975
130	0x3ddf8ed8	0.10915917
131	0xbf355cc4	-0.70844674
132	0xbe08eb17	-0.1337093
133	0x3e61c61a	0.22048226
134	0x3e9d35dc	0.30705154
135	0xbf31a4d6	-0.69392145
136	0xc01114c7	-2.2668931
137	0x3a11cd04	0.0005561861
138	0x3e48279e	0.19546363
139	0x3deb7286	0.11496453
140	0xbf2f51c5	-0.68484145
141	0x3e7ca3e0	0.24671888
142	0x3ed598e7	0.41718218
143	0x3f39ac60	0.7252865
144	0x3eddc5da	0.4331501
145	0x3e924f87	0.285763
146	0x3e969495	0.29410234
147	0x3e8d21c3	0.2756482
148	0xbeefe534	-0.46854556
149	0xbf563626	-0.83676374
150	0x3f07bcfd	0.5302275
151	0x3e0ae2c1	0.13563062
152	0x3f3da052	0.74072754
153	0x3e29f9cd	0.16599198
154	0xbf1dff9f	-0.6171817
155	0x3e054f25	0.13018472
156	0x3e71aa76	0.23600182
157	0x3e87d09a	0.26526338
158	0xbe11042c	-0.14161748
159	0xbf1f0a91	-0.621255
160	0xbf1cbc57	-0.61224884
161	0x3c9f7310	0.019464046
162	0x3e094382	0.13404658
163	0x3e5c4b9b	0.21513216
164	0x3e97dc7f	0.29660413
165	0xbf8ca5f8	-1.098815
166	0x3ba94b87	0.0051664743
167	0x3eeac24c	0.45851362
168	0x3f987bcb	1.1912779
169	0xbf342155	-0.7036336
170	0x3e20c7bb	0.15701191
171	0xbf8cccb1	-1.0999967
172	0xbdd5eb97	-0.10445326
173	0xbf23ef2c	-0.6403682
174	0x3e208b65	0.15678175
175	0x3c3bc9f5	0.0114617245
176	0xc02f59a0	-2.7398453
177	0xbf268b01	-0.65055853
178	0x3e957b98	0.29195857
179	0x3e215d6e	0.15758297
180	0x3eb8b8eb	0.3607858
181	0xbdd5431c	-0.10413191
182	0x3e67fc51	0.22654845
183	0xbf5dbad3	-0.86613196
184	0x3e92b0f2	0.28650624
185	0x3dcb72f2	0.099340335
186	0xbc5e5e61	-0.013572306
187	0xbf900baa	-1.125356
188	0xbf303a6c	-0.68839145
189	0x3ef44186	0.4770624
190	0xbe5d4192	-0.21607044
191	0xbf4c4102	-0.79786694
192	0x3e9525e0	0.2913046
193	0xbf225a8f	-0.6341943
194	0x3ee12c02	0.43978888
195	0x3e513a0f	0.20432304
196	0x3e9ffdf3	0.31248435
197	0x3ec4a4c7	0.38406965
198	0x3f2821c2	0.6567651
199	0xbf660e84	-0.898659
200	0x3edd9196	0.43275136
201	0x3e9d92bd	0.30776015
202	0x3f368ed2	0.71311677
203	0x3d2eb936	0.0426571
204	0x3f58ab4f	0.84636396
205	0xbe17f5dd	-0.14839883
206	0x3f47ab4a	0.7799574
207	0x3e01717f	0.12640952
208	0xbf2f5fa5	-0.68505317
209	0xbe86ba92	-0.26314217
210	0x3c3c35ad	0.011487407
211	0x3ea03fcd	0.31298676
212	0x3ea78832	0.32721096
213	0x3e80206d	0.2502474
214	0x3e94edd1	0.2908769
215	0x3e54ecf3	0.20793514
216	0x3e25cb44	0.16190821
217	0xbf64680f	-0.8922128
218	0xbe887c1f	-0.26657197
219	0xbea62e17	-0.3245704
220	0x3e3fa6ef	0.18716024
221	0xbebc7f5a	-0.36815912
222	0xbcaba571	-0.020952912
223	0x3cbd4c7b	0.023107758
224	0x3e6d89e7	0.23197137
225	0x3f3089a4	0.6896002
226	0xbf2e85fd	-0.681732
227	0xbc2252f1	-0.00990747
228	0xbdf6ec3e	-0.12056778
229	0xbf5a9ec0	-0.85398483
230	0x3e57536e	0.2102792
231	0xbeaa2aea	-0.33235866
232	0xbcc28686	-0.023745786
233	0xc018f23a	-2.3897843
234	0x3e146bea	0.14494291
235	0x3e97b95b	0.29633602
236	0xbedb78e1	-0.4286566
237	0x3e8a583f	0.2702045
238	0x3dafdf84	0.08587554
239	0xbea74bbc	-0.32674968
240	0xbf2820b2	-0.6567489
241	0x3e4c5b95	0.19956811
242	0xbebeba30	-0.37251425
243	0x3e88e520	0.26737309
244	0xc03f68ac	-2.9907637
245	0x3f10c0b0	0.5654402
246	0xbf5a42c8	-0.8525815
247	0xbdd20a9d	-0.102559306
248	0xbf1589f3	-0.5841362
249	0x3ec3c892	0.3823896
250	0x3f70be88	0.9404073
251	0x3f0cdf84	0.5502856
252	0xbf003d35	-0.50093395
253	0x3e8abd71	0.27097657
254	0x3f90221b	1.1260408
255	0xbf432f3b	-0.7624394

bn1.weight f4 [400]
0	0xbbe1455c	-0.0068747234
1	0xb7a8e34b	-2.0133002e-05
2	0x3be8540b	0.007090097
3	0xbc83d1b5	-0.016091207
4	0x4031f274	2.7804232
5	0xbc1abb5c	-0.009444084
6	0xbc52d8d2	-0.012869077
7	0xbdcf86a4	-0.101331025
8	0x40050d36	2.0789313
9	0x40291024	2.6416101
10	0xadd162b9	-2.380439e-11
11	0xbd4a2e0b	-0.049360316
12	0xbd1f01fc	-0.03882025
13	0xbc2f4238	-0.01069694
14	0xbcf3115d	-0.029671365
15	0xba8d0b8e	-0.001076089
16	0x38d135e8	9.9759374e-05
17	0xbb55621c	-0.0032559698
18	0xb4fb3bff	-4.6796046e-07
19	0x40aea5ef	5.4577556
20	0xbcc6a82d	-0.024250114
21	0xa88149a8	-1.435382e-14
22	0x3d8612bc	0.06546542
23	0xbb288834	-0.002571595
24	0xbcd9cab2	-0.02658591
25	0x3f031aee	0.51212966
26	0x3b965816	0.0045881374
27	0xb9938428	-0.0002813649
28	0xbb340441	-0.0027468356
29	0x3ccc9d6d	0.02497741
30	0x3b053dc3	0.0020331002
31	0xba29dcbc	-0.00064797304
32	0xbc84d445	-0.0162145
33	0x00000014	2.8e-44
34	0xafdef69c	-4.055679e-10
35	0x3c4dfa7d	0.012571928
36	0x3f911feb	1.1337866
37	0xbc8d5b23	-0.017255371
38	0x3b4d9bc0	0.0031373352
39	0x3feddc8c	1.858293
40	0xbc7cd202	-0.015430929
41	0x40aa3358	5.3187675
42	0xbf2bbc50	-0.6708422
43	0x3ff531be	1.9155805
44	0xb9590f03	-0.00020700325
45	0x9adf4a83	-9.235102e-23
46	0xbb6cac05	-0.0036113274
47	0x3f0a39c6	0.53994405
48	0x3c2b8cc4	0.010470573
49	0x3ded3ace	0.11583482
50	0x40ac09bf	5.3761897
51	0xbb9e858f	-0.004837699
52	0xac7d25af	-3.597438e-12
53	0x4012a192	2.2911115
54	0xbc389588	-0.01126612
55	0x000000bc	2.63e-43
56	0x3f361d30	0.71138287
57	0xbc293cf8	-0.0103294775
58	0x8bdae9b9	-8.432221e-32
59	0x000000af	2.45e-43
60	0xbc6794d7	-0.014134607
61	0x3fde90c7	1.7387933
62	0xbce4a9b5	-0.027912954
63	0xbe4a6967	-0.1976677
64	0x40022a3c	2.0338278
65	0xbbb30889	-0.005463664
66	0x3f0c8634	0.5489228
67	0xbb6dc316	-0.003627961
68	0xbaa5d014	-0.0012650513
69	0xb854c353	-5.072665e-05
70	0xa4a09cc9	-6.9654543e-17
71	0xbc1a9e97	-0.009437225
72	0x3ffe7f28	1.9882555
73	0xbc894dab	-0.016760668
74	0xb8291ab9	-4.0317627e-05
75	0x000250cb	2.12654e-40
76	0x3fb9ba1f	1.4509925
77	0x9c302591	-5.828207e-22
78	0x3b379979	0.002801506
79	0x3c339953	0.010961848
80	0xb9fefcbf	-0.00048634966
81	0x3f7e9788	0.9944997
82	0xba1239f7	-0.00055780954
83	0x3f3fd6fc	0.74937415
84	0xbcc19e52	-0.023635063
85	0x3dd761ba	0.10516687
86	0x3daecb18	0.08534831
87	0x3d9bac70	0.07601249
88	0x3df3d4e2	0.119058385
89	0xbf959d56	-1.168864
90	0x8dd21e4f	-1.2949546e-30
91	0x4012d924	2.2945032
92	0x3cd8a3bf	0.026445268
93	0xbaa8365a	-0.0012833581
94	0xbcaf9a91	-0.021436008
95	0xbcb83f14	-0.022491015
96	0xbc0f2d1b	-0.008738781
97	0x194818c7	1.03447614e-23
98	0xb40b4c7b	-1.2973207e-07
99	0xbefce60d	-0.49394265
100	0x4095b72f	4.6786113
101	0x80000178	-5.27e-43
102	0x00000049	1.02e-43
103	0xbcf4572d	-0.029826725
104	0xb93f5653	-0.00018247338
105	0xbc210c7d	-0.009829638
106	0xbc141aab	-0.009039561
107	0x80000080	-1.8e-43
108	0xbab4a768	-0.0013782801
109	0xbd27d519	-0.04097471
110	0xbda653c1	-0.081214435
111	0xbc065493	-0.008198875
112	0x403d62f6	2.959165
113	0xbb6c1526	-0.0036023348
114	0x3e47713d	0.1947679
115	0x3f897715	1.0739466
116	0x3f864961	1.0491143
117	0x3d4853b2	0.048907943
118	0xb1c2016f	-5.646306e-09
119	0xbc8544fa	-0.016268242
120	0x37f22d03	2.8869608e-05
121	0xb846ed5c	-4.7427937e-05
122	0xa892f82c	-1.6316884e-14
123	0xba13a155	-0.00056316453
124	0x000001a9	5.96e-43
125	0xbf086102	-0.5327302
126	0x000001f9	7.08e-43
127	0xbd16bc3f	-0.03680062
128	0x35bd0bb9	1.4085009e-06
129	0xba7484c2	-0.0009327644
130	0x3f8c7af1	1.0975019
131	0xbbbc642d	-0.0057492466
132	0xb7be8bcf	-2.2714868e-05
133	0x4040c204	3.0118418
134	0x4017240e	2.3615756
135	0xba976441	-0.0011550264
136	0xbd57d80a	-0.052696265
137	0x80000064	-1.4e-43
138	0xb4756bd8	-2.2856636e-07
139	0x3ea9a7a1	0.33135703
140	0x3cdf0438	0.027223691
141	0x3b821127	0.00396933
142	0x3a5fedfc	0.00085422373
143	0xa818c7e7	-8.481042e-15
144	0x3a806698	0.00097962
145	0xbce3cf49	-0.027808802
146	0x411126a5	9.071935
147	0xba45f494	-0.00075513986
148	0xbc960201	-0.018311502
149	0xa75cad05	-3.0624927e-15
150	0x4023f017	2.561529
151	0xbb439cfb	-0.0029848206
152	0xb6b0c133	-5.2677e-06
153	0x3d38bd52	0.045102425
154	0x80000129	-4.16e-43
155	0x96539df5	-1.7094287e-25
156	0xbfcadbf7	-1.5848378
157	0xbc536f48	-0.0129049495
158	0xbb36de46	-0.0027903481
159	0x4019acd1	2.4011729
160	0xbc215a62	-0.009848209
161	0xbcb6b980	-0.02230525
162	0x0000019f	5.82e-43
163	0x40070382	2.109589
164	0x3ab06a15	0.0013459349
165	0x3b56f7c6	0.0032801493
166	0x3fbff447	1.4996423
167	0xbe113b4d	-0.14182778
168	0xbc638477	-0.013886563
169	0xbaed4284	-0.0018101488
170	0x4093745f	4.6079555
171	0x3b286170	0.0025692843
172	0x3f60e30d	0.8784645
173	0xb1f4c6c6	-7.1239326e-09
174	0xb47a9bc8	-2.3339737e-07
175	0xb765b59e	-1.369175e-05
176	0x3caa73dc	0.0208072
177	0xbb1daaf7	-0.0024058202
178	0x3fd778e9	1.6833774
179	0xbc9f6428	-0.019456938
180	0xb5fab4cb	-1.8679069e-06
181	0x2a79a1a2	2.217172e-13
182	0xbc6729bc	-0.014109071
183	0x40533e87	3.3006914
184	0xba9f9dde	-0.0012177785
185	0x3fcb5adf	1.5887107
186	0xb95cadac	-0.00021045533
187	0xbf42a8d2	-0.7603885
188	0xbca18bba	-0.019719947
189	0xbbbfc3f7	-0.0058522183
190	0xbc974897	-0.01846723
191	0x3fb84a9d	1.439777
192	0xbb3586ea	-0.0027698823
193	0x3ff952bd	1.9478375
194	0x3f75b1f1	0.9597464
195	0xb881fb27	-6.19798e-05
196	0x407be48a	3.935824
197	0x00000401	1.436e-42
198	0x3f51c60b	0.81942815
199	0xac8c657b	-3.990306e-12
200	0x15d2f3b1	8.52028e-26
201	0x80000025	-5.2e-44
202	0x00000113	3.85e-43
203	0xb62ab2fc	-2.5436157e-06
204	0xbf4afc11	-0.7929087
205	0xbb45f689	-0.003020676
206	0x989f5fad	-4.1197145e-24
207	0x3b83ef2d	0.0040263147
208	0x4012e41d	2.295173
209	0xb9911cab	-0.00027677914
210	0xbd0de10e	-0.034638457
211	0xa5a89cc8	-2.9249594e-16
212	0x38cba67b	9.710804e-05
213	0xbc13f3c8	-0.00903029
214	0xbbbee7bc	-0.0058259647
215	0x9a004194	-2.6522753e-23
216	0xbb0499ee	-0.002023335
217	0x402fa233	2.7442749
218	0x40230260	2.54702
219	0xbc062887	-0.008188373
220	0xa17240e5	-8.2078676e-19
221	0x3f31e37f	0.69487756
222	0x3c003f89	0.007827648
223	0x9562f63b	-4.5834578e-26
224	0xbc14df5e	-0.009086458
225	0x3edfc5a1	0.43705466
226	0x8000002b	-6e-44
227	0xbe49d24b	-0.19709127
228	0xa40cb659	-3.0512115e-17
229	0xbc656bd7	-0.014002762
230	0x3f46837a	0.7754437
231	0x0000017f	5.37e-43
232	0x00000129	4.16e-43
233	0xbc8a90fb	-0.016914835
234	0x96f54c57	-3.9630062e-25
235	0x3fb5c847	1.4201745
236	0x3e35f7ef	0.1777036
237	0xbd1a30f2	-0.037644334
238	0xab742f1f	-8.675161e-13
239	0x9349057a	-2.5372467e-27
240	0x3b116982	0.0022188132
241	0x40185e8c	2.3807707
242	0x26316a7e	6.1553535e-16
243	0x9787da65	-8.779301e-25
244	0xbc65a8dd	-0.014017311
245	0xbcb42789	-0.021991508
246	0x3fe9a95b	1.8254808
247	0x3bde8103	0.0067902817
248	0xbcd661b3	-0.026169633
249	0x3cd672b6	0.026177745
250	0x3ef1f316	0.47255772
251	0xb97a1942	-0.00023851267
252	0x4002938e	2.040256
253	0x9a427e6c	-4.0220382e-23
254	0x3c4cc4bb	0.012498076
255	0xbcca1592	-0.024668489

bn1.bias f4 [400]
0	0xb92cc648	-0.00016477064
1	0xbaec0127	-0.0018005715
2	0xbbd4a88d	-0.0064898194
3	0xbc8d77af	-0.017268984
4	0x3f2cabd8	0.6744971
5	0xbc26c0fb	-0.010177846
6	0xbc3e70c3	-0.011623564
7	0xbd830e6c	-0.06399235
8	0xbe9b8799	-0.3037689
9	0xbe789e71	-0.2427919
10	0xb7bdc299	-2.2621172e-05
11	0xbc24ffc2	-0.010070743
12	0xbc0c76bf	-0.008573233
13	0xbc37409d	-0.011184839
14	0xbce91033	-0.028450107
15	0xbb033236	-0.0020018942
16	0xbaf6c97a	-0.0018828355
17	0xbc0ef819	-0.008726143
18	0xb8ed3d91	-0.00011312508
19	0x3fe7ee78	1.811965
20	0xbcb88483	-0.022524124
21	0xb69e64e1	-4.720511e-06
22	0x3ddef5dc	0.10886738
23	0xbb6d6c48	-0.003622787
24	0xbcdc5618	-0.026896521
25	0x3ee73b11	0.45162252
26	0xbb9109e9	-0.00442623
27	0xbb38c633	-0.0028194308
28	0xb9d02b58	-0.00039705145
29	0x3b70d8b5	0.0036750261
30	0xbb9c7326	-0.004774469
31	0xbbf61332	-0.0075096125
32	0xbc942711	-0.018085035
33	0x8b90cdcf	-5.577645e-32
34	0xb9441b9a	-0.00018702299
35	0xbc8b2d03	-0.016989237
36	0x3e27b21d	0.16376539
37	0xbc83f5dd	-0.016108448
38	0xbc880d64	-0.016607948
39	0x3f3f8864	0.7481749
40	0x3ac30982	0.0014880153
41	0x3f738a9c	0.95133376
42	0x3e21f544	0.15816218
43	0xbd663f2a	-0.05621258
44	0xbb1e66e6	-0.002417022
45	0xb19a4588	-4.4898947e-09
46	0xba70c8d7	-0.0009185201
47	0x3cfdf735	0.031001667
48	0xbc07b5b8	-0.008283071
49	0x3df2f413	0.1186296
50	0x3fea6bf1	1.8314191
51	0xbb3807a2	-0.0028080721
52	0xb544ae21	-7.326908e-07
53	0x3f1b6ec3	0.60715884
54	0xbc952c84	-0.018209703
55	0xa5cb1ec7	-3.5235742e-16
56	0xbc4fe8b7	-0.012689761
57	0xbba0f7ef	-0.0049123685
58	0x8c0cd2b9	-1.084862e-31
59	0x972baad7	-5.546871e-25
60	0xbca37338	-0.019952402
61	0x3f42f4a5	0.7615455
62	0xbc75c073	-0.014999497
63	0xbd88e7fe	-0.06684874
64	0x3f103fb5	0.5634721
65	0xbb58b30f	-0.0033065712
66	0x3ea4c02c	0.32177866
67	0xbb80043f	-0.003906756
68	0xbb25c2c7	-0.0025293098
69	0xb998a914	-0.00029117672
70	0xb333f2a5	-4.189737e-08
71	0xbb6f96dd	-0.0036558427
72	0x3f48cf6b	0.78441495
73	0xbc869890	-0.01643017
74	0xbb0761f4	-0.002065775
75	0xaf209ce9	-1.4607661e-10
76	0x3ece32ce	0.40273136
77	0xae459a2b	-4.4929543e-11
78	0xbbbff937	-0.005858566
79	0xbc02fda5	-0.007995044
80	0xba0114a6	-0.00049240363
81	0x3d4f850f	0.050664004
82	0xbbe2ca64	-0.0069210995
83	0xbe0976f5	-0.13424285
84	0xbce50725	-0.027957508
85	0x3dce030a	0.100591734
86	0x3dbb49b5	0.09144918
87	0x3da9730f	0.08273899
88	0x3e03f9bb	0.12888233
89	0xbca62b87	-0.020284427
90	0xac0f3d62	-2.0355597e-12
91	0xbea0ed19	-0.3143089
92	0xbcfc172e	-0.030772772
93	0xbbde2f2c	-0.0067805257
94	0xbcb0fdde	-0.021605428
95	0xbcb4623d	-0.0220195
96	0xbb896ced	-0.004193893
97	0x9a2caa72	-3.570645e-23
98	0xb8d16126	-9.983992e-05
99	0x3dc061e0	0.09393668
100	0x40140253	2.3126419
101	0xb470aa5c	-2.2413718e-07
102	0xaa07b8aa	-1.2054477e-13
103	0x3a898c8e	0.0010494159
104	0xbb7295bf	-0.0037015525
105	0x3a7ed39c	0.00097208633
106	0xbc003f09	-0.007827529
107	0xb22eee52	-1.0182321e-08
108	0xbc09f273	-0.008419621
109	0xbd8149fc	-0.063129395
110	0x3d088010	0.033325255
111	0xbb9c1b34	-0.004763985
112	0x3da0945f	0.078407995
113	0xbc6cc415	-0.0144510465
114	0x3e16aea1	0.14715053
115	0x3f385927	0.72011036
116	0x3f35a006	0.709473
117	0x3d8791d9	0.06619615
118	0xb80344ee	-3.129703e-05
119	0xbc9f483a	-0.01944362
120	0xbb196805	-0.0023407948
121	0xba9864df	-0.0011626742
122	0xb535dd41	-6.774972e-07
123	0xbb0e4ee6	-0.0021714508
124	0x90878034	-5.344564e-29
125	0xbd0ae34d	-0.033908177
126	0x8c9c6906	-2.4098814e-31
127	0xbc266c1b	-0.01015761
128	0xb98fab9b	-0.00027402941
129	0xbbfe651f	-0.0077635194
130	0xbdafe4ea	-0.08588584
131	0xbc32ba00	-0.010908604
132	0xbb7dce72	-0.0038727787
133	0x3fd188bb	1.6369852
134	0xbf4595ee	-0.771819
135	0xbb03b8e4	-0.0020099217
136	0xbc4edf39	-0.012626463
137	0xa790cfd1	-4.0193344e-15
138	0xb9177de4	-0.0001444738
139	0x3ebde639	0.37089708
140	0x3d2f53f7	0.042804684
141	0xbc45a0db	-0.012062277
142	0xbb87253c	-0.0041243117
143	0xb3a6f950	-7.775327e-08
144	0xbb114815	-0.0022168208
145	0xbce36e3b	-0.027762523
146	0x3fb1a350	1.3877964
147	0xbc51f8d3	-0.012815672
148	0xbc2b93fb	-0.010472293
149	0xb75b1a24	-1.30595035e-05
150	0xba2ae235	-0.0006518693
151	0xba75438d	-0.0009356074
152	0xba0d3302	-0.0005386324
153	0x3d35d855	0.044395763
154	0x9d0da753	-1.87477e-21
155	0xb2b5ac44	-2.114951e-08
156	0x3f6a7e53	0.91599005
157	0xbbe49df2	-0.0069768364
158	0xbc0e3920	-0.008680612
159	0x3f7c071c	0.9844835
160	0xbbb7677a	-0.005597052
161	0xbcba3640	-0.022730947
162	0x9bc10cf9	-3.1937555e-22
163	0x3ec3716b	0.3817247
164	0xbbdf6a99	-0.0068181274
165	0xbbcbf531	-0.0062242975
166	0xbe87f436	-0.26553506
167	0xbc10726a	-0.008816341
168	0xbb26ca4b	-0.0025450166
169	0xbbc2f630	-0.005949758
170	0x401e43a6	2.472879
171	0xbb1700ed	-0.0023041323
172	0xbc769a8d	-0.015051496
173	0xb7eb2d24	-2.8035203e-05
174	0xb7073fac	-8.061452e-06
175	0xba5e0e82	-0.000847079
176	0x3cbea28e	0.023270871
177	0xbae0cf6c	-0.001715166
178	0x3f069b1e	0.5258044
179	0xbcc59cb8	-0.02412258
180	0xb9b85c4e	-0.00035163987
181	0xb5b1127c	-1.3192907e-06
182	0xbc34a5ce	-0.011025859
183	0x3fec5bd5	1.8465525
184	0xbb1a7d19	-0.00235731
185	0x3f49f13b	0.78883713
186	0xbb2cdce2	-0.0026376774
187	0xbd6e874f	-0.05823451
188	0xbc81d308	-0.015847698
189	0xbb471796	-0.0030379049
190	0xbcac58aa	-0.021038372
191	0xbef4eba2	-0.47836024
192	0xbb9df48d	-0.0048204125
193	0xbe434956	-0.19070944
194	0x3e8c5f61	0.27416518
195	0xbac0ce4b	-0.0014709918
196	0x3f53c49e	0.8272189
197	0xa96285fa	-5.0298287e-14
198	0x3e4e0eda	0.20122853
199	0xac4cd0f2	-2.9106132e-12
200	0xaffcb395	-4.5966134e-10
201	0xac18f43e	-2.173608e-12
202	0xa61aced8	-5.370981e-16
203	0x3636f9be	2.7265482e-06
204	0x3d00545b	0.031330448
205	0xbc047120	-0.008083612
206	0xafac51c2	-3.134471e-10
207	0xbc100b62	-0.008791776
208	0xbec8dea0	-0.3923235
209	0xbabe7874	-0.0014531747
210	0xbcabdd16	-0.020979445
211	0xb394ebd4	-6.934684e-08
212	0xb9eb2ccd	-0.00044856072
213	0xbac40e4d	-0.0014957875
214	0xbc24e1c0	-0.010063589
215	0xac9b4ba8	-4.4137645e-12
216	0xbab9c031	-0.0014171657
217	0x3dbeb3a8	0.093116105
218	0xbceb541d	-0.028726632
219	0xbc081489	-0.008305677
220	0x2082269c	2.2048406e-19
221	0x3e45d8d9	0.19321002
222	0xbc5d6bb8	-0.013514452
223	0xb1217ab4	-2.3498332e-09
224	0xbcaf826a	-0.021424491
225	0x3da0efbe	0.07858227
226	0x87226bfa	-1.2219257e-34
227	0x3cf765c6	0.030199897
228	0xb0a79e89	-1.2195908e-09
229	0xbccf55d0	-0.025309473
230	0x3ee5dfcb	0.44897303
231	0x9b5ee973	-1.8438841e-22
232	0xadd9562a	-2.4708308e-11
233	0xbc37f1ac	-0.011227053
234	0xadca0644	-2.2967524e-11
235	0xbe6fc978	-0.23416698
236	0xbdbf829a	-0.09351082
237	0xbcdaa970	-0.026692122
238	0xb6573868	-3.207033e-06
239	0x92b3efff	-1.1355652e-27
240	0xbb862f7a	-0.004095015
241	0x3f795f34	0.97410893
242	0xa7a74f99	-4.643811e-15
243	0xac219b91	-2.2965833e-12
244	0xbc8da4e8	-0.017290547
245	0xbd23c142	-0.039979227
246	0x3e86020b	0.26173434
247	0xbc9684dd	-0.018373901
248	0xbcb1c5ec	-0.021700822
249	0x3e09d81c	0.13461345
250	0x3e45b13c	0.19305891
251	0xbba7bc3c	-0.005118875
252	0x3f2f93a7	0.68584675
253	0xb28f7584	-1.6700831e-08
254	0xbc107dbc	-0.00881904
255	0xbcd8a012	-0.026443515

bn2.weight f4 [300]
0	0x000001db	6.66e-43
1	0xbd96ed4c	-0.073694795
2	0xc07ac00c	-3.9179716
3	0x404a4a74	3.1607943
4	0x3fe89bab	1.8172506
5	0x40ab0084	5.343813
6	0x8c514635	-1.6121901e-31
7	0x3f9c38b6	1.2204807
8	0x3d47f705	0.04881956
9	0x40629396	3.540258
10	0x40673e16	3.6131644
11	0xbb9d91c4	-0.0048086364
12	0xbd8739bc	-0.06602809
13	0x8ff213f4	-2.3870728e-29
14	0x40f7e188	7.7462807
15	0xb9e93d64	-0.00044486963
16	0x411d8def	9.847152
17	0x4031feb2	2.7811704
18	0x3f5fbb18	0.8739486
19	0xbf86c9ad	-1.0530297
20	0x3d8d294e	0.06892644
21	0x3d9fabde	0.07796453
22	0x000001a2	5.86e-43
23	0x3d15b6f3	0.036551427
24	0xb130b4b2	-2.5714084e-09
25	0xbe89a06d	-0.26880208
26	0x409953c0	4.7914734
27	0xb8e11ef9	-0.00010734605
28	0x3a76c6a2	0.0009413754
29	0xc0323fac	-2.7851362
30	0x3fc72742	1.5558856
31	0x40a53963	5.163255
32	0xbc89db7f	-0.016828297
33	0xbd926721	-0.071485765
34	0x404dc69c	3.2152472
35	0x409b7e9b	4.859205
36	0x3b543136	0.0032377965
37	0xbf504843	-0.8136026
38	0x3d3ac5bb	0.045598727
39	0x3f24243c	0.6411779
40	0xbcb79d35	-0.02241383
41	0x408f9c88	4.487858
42	0x40c15922	6.0421305
43	0x40a2bdee	5.085685
44	0xb980896a	-0.00024516444
45	0xb8aa76bd	-8.1283484e-05
46	0x408c0a81	4.376282
47	0x3e2f9819	0.17147864
48	0x40a4cd13	5.1500335
49	0x40cda7b4	6.4267216
50	0x318b7513	4.0587422e-09
51	0x402ad7c1	2.6694186
52	0x4125a9dc	10.35397
53	0x4095e36e	4.6840124
54	0x40e89d97	7.269237
55	0x40cb291a	6.3487673
56	0x40a92f12	5.286996
57	0x3e31b8b5	0.17355616
58	0x41364424	11.391636
59	0xbdb049e7	-0.08607846
60	0x4132265d	11.134366
61	0x3ca25539	0.019816028
62	0x4028e351	2.6388743
63	0x40fc6133	7.886865
64	0x40987b3a	4.7650423
65	0xba2e5973	-0.0006650902
66	0xb299c946	-1.7903073e-08
67	0x40ad8776	5.4227858
68	0xb952123e	-0.00020033956
69	0xc044a9eb	-3.072871
70	0x40bc7503	5.8892837
71	0x3c69737b	0.014248724
72	0xc0564d16	-3.348455
73	0x41115be1	9.084931
74	0x402d834c	2.7111387
75	0x408b40a8	4.3516426
76	0xbc5ab76d	-0.013349396
77	0x4077979f	3.8686292
78	0x40e5e6c8	7.1844215
79	0x9c5a53fe	-7.2238707e-22
80	0xbbc54a06	-0.006020787
81	0x3de5c9e1	0.11220146
82	0x3d534864	0.05158271
83	0xba802d35	-0.0009779098
84	0x40a1fec8	5.062351
85	0x3fc6059b	1.5470461
86	0x3dfe4902	0.12416269
87	0x2b68c845	8.2700887e-13
88	0xc0500f07	-3.2509172
89	0x4083f20a	4.123296
90	0x00000156	4.79e-43
91	0x393ae253	0.00017822655
92	0x40abe7c8	5.3720436
93	0x3f858c19	1.043338
94	0x3d9c3b3c	0.076284856
95	0x9b383ee2	-1.5240442e-22
96	0xbc09f88b	-0.008421074
97	0x40d38a11	6.610604
98	0x410acc44	8.67487
99	0x3e02723e	0.12738892
100	0xbd992d8e	-0.07479392
101	0x40f525f8	7.660885
102	0xb76097f5	-1.3386821e-05
103	0xb96fda89	-0.00022874227
104	0xc0155159	-2.33309
105	0xc040eecc	-3.014575
106	0x2946734c	4.4064836e-14
107	0xbf3e492d	-0.7433041
108	0x3d9b1506	0.07572369
109	0x3fbf0d53	1.4925941
110	0x3c566eb5	0.013087918
111	0x3f331c4d	0.6996506
112	0xb8880f7a	-6.487868e-05
113	0x40cc66cb	6.387548
114	0x3db6596c	0.089037746
115	0xbe4e8e39	-0.20171441
116	0x40c08293	6.015939
117	0x851dfca9	-7.428511e-36
118	0x3d4efc59	0.050533626
119	0x40efc202	7.4924326
120	0x40697fc7	3.648424
121	0x3cba2fc1	0.022727849
122	0x3f811ba9	1.0086566
123	0x406b5116	3.676824
124	0x8000018d	-5.56e-43
125	0x3d8f7de1	0.07006431
126	0xbb81ffc2	-0.0039672563
127	0x4007b61f	2.1204908
128	0x3ca5d84b	0.020244738
129	0xa5a78659	-2.906092e-16
130	0x3db0ff19	0.08642406
131	0x3d364338	0.0444977
132	0xbb991f6c	-0.004672935
133	0xbbb6d6dd	-0.005579813
134	0xabf53bcd	-1.7424895e-12
135	0x4042def4	3.044858
136	0x40d6c611	6.711678
137	0xa61c3a28	-5.420219e-16
138	0x40756403	3.8342292
139	0x3e1cd386	0.15315065
140	0x41012289	8.070931
141	0x2e9c53f2	7.1089704e-11
142	0xbb004501	-0.001957238
143	0x4043655f	3.0530622
144	0x40b2e9b7	5.5910296
145	0xc0bc95f4	-5.893305
146	0x3ccc20f2	0.024918053
147	0x407b82e6	3.9298644
148	0x40a5a198	5.175976
149	0x3d5e32da	0.054247715
150	0xc00b2bd7	-2.1745508
151	0x00000031	6.9e-44
152	0x40260fcf	2.5947149
153	0x3c60e4fd	0.01372647
154	0x00012722	1.05874e-40
155	0x407ea4e8	3.978815
156	0xbb85dc80	-0.0040851235
157	0x3f57bd49	0.842732
158	0x40b5fd2d	5.6871552
159	0x40702b37	3.7526376
160	0x40379025	2.868173
161	0x40a2b298	5.084301
162	0x3ff63e86	1.9237831
163	0xb9d74f9d	-0.00041067312
164	0x2d2669cf	9.459502e-12
165	0x409f1316	4.97108
166	0xbdad41cc	-0.084598154
167	0xafde883b	-4.0478362e-10
168	0x409e0b42	4.9388742
169	0x3c26a194	0.010170359
170	0x40abde3c	5.370878
171	0x40a5acb2	5.177331
172	0xbd10688e	-0.03525596
173	0x3d55437b	0.052066308
174	0x3ff55229	1.9165698
175	0x4126035c	10.37582
176	0x40e754ce	7.229102
177	0x4087694e	4.2316046
178	0xbc2b0a00	-0.010439396
179	0x9180b906	-2.0308869e-28
180	0x34051143	1.239287e-07
181	0x40f2c3f6	7.586421
182	0x3fa4a7b0	1.2863674
183	0x408e9068	4.4551277
184	0x3fc2c384	1.5215917
185	0xb88418d7	-6.298877e-05
186	0x4106d85a	8.42782
187	0x3c13141f	0.008976965
188	0x403ad353	2.9191482
189	0x3d822d93	0.06356349
190	0x406fb9cf	3.7457159
191	0x40df81a7	6.9845767
192	0x406c67c7	3.693834
193	0x40ab3341	5.3500066
194	0xbd230f34	-0.03980942
195	0x40898c64	4.2983875
196	0x40761ed2	3.8456311
197	0x3cee80f5	0.029114226
198	0xc08fb152	-4.4903955
199	0x3a341a49	0.0006870372
200	0xbe8803ac	-0.265653
201	0xb9256b1a	-0.00015775525
202	0x404691e6	3.102655
203	0xbdb00d28	-0.08596259
204	0x4056f2fd	3.3585808
205	0x410cdb5c	8.803555
206	0x403876d0	2.8822517
207	0x2bd0e5db	1.4843087e-12
208	0x3e133baa	0.14378229
209	0x41259e05	10.351079
210	0x3dbfab33	0.093588255
211	0x317184d1	3.5145613e-09
212	0xbe93c780	-0.28863144
213	0xbde7b5cd	-0.113139726
214	0x3d450cc6	0.048107885
215	0x3f6c8e91	0.9240504
216	0x3df1007d	0.11767671
217	0x40ac84e7	5.3912234
218	0x40d812c7	6.752292
219	0x40a50348	5.1566505
220	0xa0d2ebea	-3.5731499e-19
221	0x40d6eb87	6.716251
222	0x309a30d7	1.1218856e-09
223	0xbd09d5bf	-0.03365111
224	0xb4e2c6b2	-4.224035e-07
225	0x408c0a94	4.3762913
226	0x4045e9a4	3.0923853
227	0x40bf447b	5.9771094
228	0x3e354090	0.1770041
229	0x27044f58	1.8361692e-15
230	0xb977e283	-0.00023640138
231	0x40957265	4.670214
232	0x40b46663	5.6374984
233	0x40d76024	6.730486
234	0x4080e730	4.028221
235	0x3d1d6866	0.03842964
236	0x408ad8d4	4.3389683
237	0xc029cd0b	-2.6531398
238	0x4011003c	2.2656393
239	0x40408381	3.0080264
240	0x4087f290	4.2483597
241	0xb18556fe	-3.8806993e-09
242	0x3fa489f1	1.2854596
243	0xb5bd5508	-1.4106345e-06
244	0x412c0af1	10.752671
245	0x4018b2ed	2.3859208
246	0x409946cd	4.7898927
247	0x409d12d7	4.90855
248	0x40afff7a	5.499936
249	0xbe935931	-0.28778985
250	0x404131d1	3.0186656
251	0xa6597e01	-7.5457766e-16
252	0xbe0a5393	-0.13508444
253	0x3d41c062	0.04730261
254	0x408f8edf	4.4861903
255	0x3d29a622	0.041418202
