tmp/ddpg/critic_ddpg.pth (torch, 514177 bytes, 11 tensors)

fc1.weight f4 [400, 11]
000000 1a 00 0d 3d ab 73 ad be 2a ab 88 b9 0c 2a e7 3c
       0.034423925 -0.3387731 -0.0002606747 0.028218292
000010 c5 2d 32 3d 02 e6 dd 3c d4 f2 03 3c 09 b3 0a 3c
       0.04350068 0.027087215 0.0080535 0.008465537
000020 a3 12 15 3c a5 ed 1a 3c 72 63 0a 3c 66 cc 01 3d
       0.009098682 0.009456073 0.008446561 0.03168907
000030 a0 1a 81 be 1a 35 77 38 ea 36 aa 3d 99 9f f3 3c
       -0.25215626 5.8938844e-05 0.08311255 0.029739188
000040 f9 fd a1 3c e1 9e ca 3b 8c 0c db 3b 16 95 e1 3b
       0.019774424 0.0061834906 0.0066848453 0.0068842275
000050 67 0e e4 3b ce 6c ce 3b 67 b6 2b 40 64 e6 d6 bf
       0.0069597247 0.0062995916 2.683008 -1.678906
000060 c4 5e 07 bb 40 af f6 be c0 79 86 3f 62 ad 40 bf
       -0.002065585 -0.4818058 1.0505905 -0.7526456
000070 19 1c d4 be 33 6b 20 bf cf 1b 32 3f 71 ca 08 3f
       -0.41427687 -0.62663573 0.6957368 0.534339
000080 28 cc 3d 3f 66 ff fc 3c dd 8a b1 be ed 78 53 38
       0.7413964 0.030883502 -0.34676257 5.041894e-05
000090 32 9b c0 3d 43 8f fd 3c 97 87 31 3c c2 f0 c6 3b
       0.09404601 0.030952102 0.01083555 0.006071181
0000a0 b8 f1 cb 3b 1c 71 d5 3b 26 27 d1 3b 69 ce bd 3b
       0.0062238835 0.006513728 0.0063828407 0.0057924283
0000b0 4c 17 11 3d 39 87 b2 be 81 71 8a b9 a0 d3 3b 3c
       0.03542261 -0.34868792 -0.00026405978 0.01146403
0000c0 e4 a2 47 3d ca 1e cc 3c a8 81 0d 3c 5e a6 14 3c
       0.04873933 0.024917025 0.0086368695 0.009072868
0000d0 69 ca 17 3c 15 af 1c 3c fc de 10 3c 1e 30 1e 3d
       0.009264567 0.009563227 0.008842226 0.038620107
0000e0 99 df 9f be cc 70 bc b8 b8 b6 e3 bc 4a aa a6 3d
       -0.3122528 -8.9855486e-05 -0.027797088 0.08137949
0000f0 ed af 98 3c 14 1a 24 3c d7 85 2b 3c 34 5d 24 3c
       0.018638575 0.010015983 0.010468922 0.010031987
000100 58 40 24 3c 25 f4 23 3c a4 41 2d 3d e4 29 ec be
       0.010025106 0.010006939 0.042298928 -0.4612571
000110 47 74 02 38 6d 56 df bd 2d 13 89 3d a7 1f 4c 3d
       3.1102707e-05 -0.10905156 0.066931106 0.049834874
000120 cd 6f 37 3c 4a 26 40 3c 7f 01 3b 3c 97 2b 40 3c
       0.011196089 0.011727879 0.011413931 0.011729143
000130 07 06 39 3c 40 f9 10 3d 29 75 ab be 1c 6f 8d b9
       0.011292941 0.035393953 -0.33487824 -0.000269764
000140 f2 93 62 3c 8d a1 2f 3d 91 3b 16 3d 64 67 0d 3c
       0.013829218 0.042878676 0.0366779 0.008630607
000150 f2 8b 14 3c 49 df 19 3c 4d d2 1e 3c 30 4e 12 3c
       0.009066569 0.009391614 0.009693694 0.008929774
000160 a1 ac 61 3e a7 e4 2f be 60 be 7f 38 dd a6 2a bd
       0.22038509 -0.17177068 6.097404e-05 -0.04166304
000170 64 f4 59 3f fc 7c 13 3c dc 67 f1 3c 6b 4c 1a 3c
       0.85138535 0.009001967 0.02946847 0.0094176335
000180 08 46 d6 3c 43 31 44 3d fd 88 c1 3c 39 f3 80 3f
       0.02615644 0.047898542 0.023624891 1.0074226
000190 3b 39 1e c0 d6 8b 86 3a 1e 64 06 3f 1a a8 b3 3f
       -2.472243 0.0010265063 0.52496517 1.4035676
0001a0 9e 59 23 c1 14 10 1a c1 22 2c ef 3f 0b 0e f3 3f
       -10.209379 -9.628925 1.8685343 1.898866
0001b0 ed f5 09 40 9e a7 fe 3f 67 e1 35 3d 50 57 dd be
       2.155635 1.9894903 0.044404414 -0.43230677
0001c0 3a 36 a1 38 98 aa 05 be cd da a7 3d 9d 11 58 3d
       7.687179e-05 -0.13053358 0.0819603 0.052751172
0001d0 e6 bc 3e 3c 5a bf 47 3c 00 7d 43 3c 24 81 49 3c
       0.011641717 0.012191618 0.011931658 0.012298856
0001e0 9b 71 40 3c 72 55 16 3d b6 9d 9b be ba ed 4f b9
       0.011745836 0.03670258 -0.3039376 -0.00019829618
0001f0 aa 8d c2 b9 87 fa 93 3d 59 99 bb 3c d5 cb 17 3c
       -0.0003710811 0.07225519 0.02290027 0.009264906
000200 8c e4 1e 3c 24 86 19 3c 95 0a 1a 3c f7 f1 17 3c
       0.0096980445 0.0093703605 0.009401937 0.0092739975
000210 a9 d4 19 3d d0 c0 c5 be 76 8b 1d b9 6c aa e1 bc
       0.037556324 -0.38623667 -0.0001502464 -0.027547084
000220 09 31 58 3d ed 41 f5 3c 16 db 1e 3c 56 1a 26 3c
       0.05278114 0.029938662 0.009695789 0.010138115
000230 3e cc 28 3c 19 8b 2b 3c a2 88 22 3c 85 99 89 3f
       0.010302601 0.010470175 0.009920271 1.0749975
000240 56 41 1e bf a3 42 75 b9 70 ea ca be 01 3e 95 3e
       -0.61818445 -0.00023389845 -0.39631987 0.29148868
000250 bc 48 16 40 02 5e 6c 3d ef e1 a4 bc ff 5b 69 3e
       2.3481894 0.05770684 -0.020127265 0.22789
000260 18 66 f8 3e 94 4e 07 3e 52 15 22 3d 4a b2 9d be
       0.4851539 0.13213569 0.039571114 -0.30800086
000270 7e fd 58 b8 ec 42 25 bd 2d 2a 96 3d 5e 3f 1e 3d
       -5.1734496e-05 -0.040347025 0.07332263 0.03863465
000280 10 37 29 3c 6f eb 30 3c 9f 62 2a 3c 8a c4 2a 3c
       0.010328069 0.010798319 0.01039949 0.010422835
000290 ef 71 29 3c 75 a5 0d 3d 80 78 a4 be 41 09 90 b9
       0.010342105 0.03458162 -0.32123184 -0.00027472715
0002a0 29 a4 ed 3c f7 19 26 3d b1 55 e0 3c 1a cf 05 3c
       0.029008942 0.040552106 0.02738461 0.008167053
0002b0 b3 9b 0c 3c 05 ab 13 3c 71 04 19 3c 57 2b 0a 3c
       0.008582043 0.009012942 0.009339438 0.008433185
0002c0 e2 fb 67 3d dc 79 32 be 68 62 f3 37 c5 f7 bd bd
       0.0566367 -0.17429298 2.9013681e-05 -0.09275774
0002d0 5f 8a 15 3d 3c 0a 7f 3f 2d 3b 4e 3c bf 31 88 3c
       0.036508914 0.9962499 0.012587351 0.016625283
0002e0 6c 4e 6a 3d d1 e5 16 3e fb d1 0e 3d c6 09 1b 3d
       0.057203695 0.14736106 0.03486822 0.037851118
0002f0 d2 53 a8 be 0f ca 09 b9 45 9c a9 bc 39 06 8c 3d
       -0.3287645 -0.00013140611 -0.020704398 0.068371244
000300 cb 16 b0 3c 4f cb 1f 3c 51 54 27 3c 89 87 22 3c
       0.021495244 0.009753062 0.010212974 0.009920009
000310 5f 42 23 3c cb 70 20 3c 1e 11 04 3d 93 12 8a be
       0.009964555 0.009792517 0.032242887 -0.26967296
000320 72 ba ff b7 b5 a2 93 3d be e0 10 3d 72 d9 a8 3c
       -3.048519e-05 0.07208768 0.03537058 0.020611499
000330 89 4a d9 3b 09 49 e6 3b 3b d0 f0 3b 46 00 f7 3b
       0.0066311997 0.0070277494 0.0073490418 0.0075378744
000340 b7 3d dc 3b 9d 1c 01 3d d1 c0 94 be 1c 0b f9 38
       0.006721224 0.03152143 -0.29053357 0.000118753145
000350 8c f3 a3 3d 31 e0 09 3d 8f 6a a9 3c 17 4f cf 3b
       0.08005437 0.03366107 0.020680694 0.006326567
000360 bd b1 d5 3b 9d 2c f7 3b e0 61 fb 3b 7d c5 d2 3b
       0.006521432 0.00754316 0.0076715797 0.006432234
000370 71 49 0a 3d 9d f1 cc be 09 d0 53 b9 8a 06 f4 3c
       0.033761445 -0.40028086 -0.00020200027 0.029788274
000380 fc 5e 3c 3d d4 e8 6d 3c c3 2c f7 3b 67 80 03 3c
       0.04598902 0.014520843 0.007543178 0.008026219
000390 fc bd 0f 3c 4b 45 16 3c 2f b5 02 3c 69 78 fc 3c
       0.008773323 0.009171794 0.007977768 0.030819135
0003a0 a4 ee b8 be 44 10 67 38 21 fb ba 3d 67 11 ff 3c
       -0.36119568 5.508984e-05 0.0912993 0.031136228
0003b0 b7 77 26 3c 57 5d c7 3b 8a 9d cc 3b 18 fa d6 3b
       0.010160378 0.006084125 0.006244366 0.006560575
0003c0 f6 8f ce 3b aa f7 bc 3b 99 e6 0b 40 89 3f 76 c0
       0.0063037826 0.0057668285 2.1859496 -3.8476279
0003d0 75 22 08 3e 9c ba 4f 3f 8a 3a 9d bc 35 a9 52 c2
       0.13294394 0.8114412 -0.019192953 -52.66524
0003e0 e3 22 0f 40 25 a9 db c0 40 6f 35 40 20 d8 38 40
       2.2365043 -6.8643975 2.8349152 2.8881912
0003f0 2d 61 32 40 ac 60 ff 3c 2d 7a bc be 9e 8f 02 39
       2.7871811 0.031174026 -0.36811963 0.00012451268

fc1.bias f4 [400]
000000 77 d4 51 3a 93 53 5d 3a d5 24 96 3d 58 37 3e 3a
       0.0008004377 0.00084429345 0.07331244 0.00072561717
000010 fb ef 4b 3a 53 fd 56 3a 15 fa 89 3a 06 4c 4d 3a
       0.00077795953 0.00082012004 0.0010526801 0.0007831458
000020 00 78 c9 39 a6 f8 01 3f c9 88 9b 3a 94 c6 49 3a
       0.00038427114 0.5077003 0.0011866327 0.0007697132
000030 1f 1c 50 3a 08 e7 e5 39 ff eb 63 3a 38 7c 51 3a
       0.00079387607 0.00043850415 0.0008694529 0.00079912273
000040 cd 38 85 3a 7b f6 50 3a f5 54 5e 3a 4d 5e 56 3a
       0.0010164023 0.0007971299 0.00084812875 0.0008177504
000050 40 75 51 3a d4 4e 3d 3a be 89 92 3f de 7b 49 3a
       0.0007990189 0.0007221524 1.1448286 0.0007685999
000060 98 c0 97 3a b9 bb 55 3a 6f 8f a3 3a 9b 18 e5 3a
       0.0011577783 0.0008153278 0.001247866 0.0017478646
000070 73 7e 44 3a 20 a0 1e 3f bd c9 5a 3a 9c 91 50 3a
       0.0007495649 0.6196308 0.00083461014 0.0007956268
000080 6a 86 51 3a 5e 58 56 3a f8 4b 4a 3a 73 5e 55 3a
       0.00079927465 0.000817662 0.00077170087 0.0008139379
000090 85 05 4a 3a b9 dc 58 3a 22 11 78 3a 88 bd 4f 3a
       0.0007706511 0.00082726363 0.0009463002 0.00079246657
0000a0 a9 4e 51 3a bf 62 4c 3a b2 b3 4f 3a b4 51 ef 3c
       0.00079844386 0.0007796697 0.00079232 0.029213764
0000b0 af ba 59 3a d6 af 4e 3a 9f 5a 5b 3a 4a 97 49 3a
       0.0008305711 0.0007884478 0.00083676906 0.00076900853
0000c0 9e 99 4c 3a 71 31 be 3a 7d 0e 4f 3a c6 2e 86 3a
       0.0007804873 0.0014510584 0.0007898582 0.0010237328
0000d0 30 91 03 bc 2f 53 53 3a 56 ac 4e 3a ab c9 b0 3e
       -0.008030221 0.00080614066 0.00078839564 0.3452886
0000e0 6d e1 a9 3f f0 36 51 3a 52 28 3e 3d c2 2c 5a 3a
       1.327192 0.00079809036 0.04642517 0.00083227095
0000f0 ed 5e 49 3a 73 34 ba 3a b9 15 49 3a ab 41 77 3a
       0.00076816865 0.0014206305 0.00076707784 0.00094320875
000100 23 9a 59 3a 07 0f 52 3a 56 a5 50 3a 09 d6 50 3a
       0.0008300861 0.00080131035 0.0007959207 0.0007966464
000110 21 82 4c 3a 8c 0b 4a 3a 62 df ea 39 53 f9 50 3a
       0.0007801373 0.0007707409 0.0004479839 0.00079717225
000120 83 5e 41 3a 7b 56 4e 3a 14 ae 28 3d 99 10 55 3a
       0.0007376449 0.0007871163 0.04118164 0.00081277784
000130 77 cc 69 3c 6f 1a b9 bc 30 c6 54 3a 07 6e 5d 3a
       0.01426994 -0.022595612 0.00081166904 0.00084468763
000140 51 e7 84 3a 7c 0d 57 3a 92 33 4d 3a 01 88 5e 3a
       0.0010139738 0.00082036084 0.0007827814 0.0008488894
000150 eb fd 84 3a 9a 2a 4a 3a 4f bb 42 3a 29 8d 4b 3a
       0.0010146474 0.00077120366 0.0007428424 0.000776487
000160 68 31 38 3a 7f 2c 51 bc a0 6a 59 3a df fc 09 bb
       0.0007026405 -0.012766956 0.00082937814 -0.0021055264
000170 11 6d 01 3f 15 27 82 3d ed b0 aa 38 21 80 45 3a
       0.5055705 0.063551106 8.139187e-05 0.00075340463
000180 5e 3f 78 3e e3 fe 07 3e 05 c7 57 3a 82 9d a4 3e
       0.24242923 0.13280825 0.00082312553 0.3215142
000190 29 2b 87 bb 97 9b cb 3a 38 69 31 3a f4 53 5b 3a
       -0.004125018 0.001553404 0.0006767693 0.0008366697
0001a0 10 7c ca 3d 00 30 54 3a 74 a2 59 3a f7 a6 4c 3a
       0.09886944 0.0008094311 0.00083021005 0.0007806862
0001b0 df 0a 50 3a 01 d3 8c bd 79 d0 4b 3a 80 fb 02 3b
       0.000793619 -0.06876183 0.00077749003 0.0019986331
0001c0 eb fb 57 3a 8e dd 2d 3c 1b b8 71 3a ee 3c 13 3b
       0.0008239138 0.010611905 0.0009220854 0.0022466737
0001d0 8f c0 ca 3a 1b b3 54 3a 1b 12 50 3a 08 80 4d 3a
       0.0015468764 0.0008113847 0.0007937268 0.00078392075
0001e0 15 d0 5f 3a f6 62 a5 3f ee 7a 78 3b 39 35 a0 3a
       0.00085377815 1.2920825 0.0037915069 0.0012222893
0001f0 4e 38 48 3a 2f ce 97 3a 52 5c 51 3a bf 03 50 3a
       0.00076377846 0.0011581833 0.0007986474 0.00079351285
000200 f4 ca 59 3a 7f 27 5b 3a 8e 34 81 3a 5f b4 aa 3a
       0.00083081354 0.00083600724 0.0009857581 0.0013023725
000210 82 39 50 3a 32 3c 4b 3a 2f 0f 75 3a 27 9b 4b 3a
       0.00079431396 0.0007752805 0.0009348271 0.0007766955
000220 16 4d c5 bc 2c 63 92 3a ae e2 92 3c 3c 46 54 3a
       -0.024084609 0.0011168472 0.017930355 0.0008097624
000230 dd 72 60 3a 10 86 84 3a 14 e5 9f 3a 74 0a fe ba
       0.0008562038 0.0010110755 0.0012199008 -0.0019381777
000240 55 1b 5a 3a 61 7d 48 3a cd 56 4a 3a 7b 3e 52 3a
       0.0008320113 0.00076480774 0.0007718623 0.00080201746
000250 c8 de d1 bb 86 bb c2 3a 0e 74 c7 3c a6 90 4f 3a
       -0.0064047314 0.0014856912 0.024347331 0.00079179776
000260 c4 c6 4e 3a 91 b4 55 3a d8 f1 b3 3b 5c 65 73 3a
       0.0007887895 0.00081522117 0.0054914765 0.0009284818
000270 e3 b1 5a 3a 49 4b 51 3a b4 8b 4e 3a 02 11 59 3a
       0.0008342547 0.00079839356 0.0007879094 0.00082804274
000280 1f da 57 3a f9 39 5e 3a 43 1c 4b 3a 7c 97 50 3a
       0.00082341017 0.00084772665 0.0007748047 0.0007957143
000290 2e ba 49 3a 95 a8 53 3a f6 61 48 3a 78 0e 5c 3a
       0.00076952844 0.0008074132 0.0007643992 0.000839449
0002a0 27 67 54 3a 00 4a 52 3a 52 69 22 3d 3a da 00 ba
       0.0008102529 0.0008021891 0.039651223 -0.0004915331
0002b0 1a 9d 55 3a 42 ec c4 3a 53 d0 57 3a 8d 26 52 3a
       0.0008148715 0.0015024024 0.0008232642 0.0008016609
0002c0 43 ec 5e 3a 6d 19 91 3a 11 80 5b 3a d1 f3 22 bd
       0.00085038337 0.00110702 0.00083732704 -0.039783303
0002d0 cb cb 67 3a 8f 05 56 3a ef 64 e7 39 8a b7 57 3a
       0.0008842318 0.00081642804 0.00044134955 0.00082289486
0002e0 25 bd 76 3a c4 a6 3d 3a c6 7d b9 3c a2 2c 5a 3a
       0.000941234 0.0007234628 0.022642981 0.0008322691
0002f0 a3 e0 5d 3a 25 d9 75 3a 5b 72 30 3a 21 be 58 3a
       0.00084639544 0.00093783654 0.00067309075 0.00082680775
000300 55 bf 57 3a f7 fc 8a 3a 24 db 54 3a dc eb 4c 3a
       0.000823011 0.0010603954 0.00081198127 0.0007817128
000310 54 33 49 3a d0 b3 47 3a 13 fe b6 3a c1 cd 92 3a
       0.000767519 0.0007618042 0.0013961218 0.0011200235
000320 0c 02 59 3a 3f 73 5e 3a 7f a3 4c 3a d4 0c 49 3a
       0.0008278198 0.0008485801 0.0007806345 0.0007669453
000330 92 7f 2f bd 09 11 73 3a 00 f3 ea 3e a2 4c 5f 3a
       -0.04284627 0.0009272253 0.4588852 0.0008518194
000340 3f 13 5d 3a 84 18 7e 3a 58 73 4e 3a 55 4c 57 3a
       0.0008433349 0.0009692984 0.0007875464 0.00082129735
000350 eb 55 58 3a 42 9b 59 3a 2d 82 15 3b f0 0f 5e 3a
       0.0008252549 0.0008301028 0.0022813187 0.0008471003
000360 2b 6f c3 3a aa 89 90 3a 7f d0 58 3a 1c 03 58 3a
       0.001491045 0.0011027355 0.00082708144 0.00082402094
000370 77 17 3a 3a 03 38 58 3a 37 5e 7b 3a 18 81 d4 3a
       0.00070988334 0.00082480925 0.0009588929 0.0016212789
000380 0d 2d 52 3a 40 e3 3c 3b 3a 0d c2 3a 75 cb 5d 3a
       0.00080175773 0.0028821975 0.0014804967 0.00084607984
000390 8d e0 46 3a 76 b7 90 3f cb 70 53 3a c7 9c 65 3a
       0.0007586561 1.1305988 0.00080658187 0.00087590184
0003a0 1d 64 75 3a e0 fb 55 3a 60 60 5c 3a 4b 27 9b 3a
       0.00093609263 0.00081628375 0.0008406695 0.0011837272
0003b0 ee 14 1e 3f 07 80 57 3a 2d f7 70 3f 12 c0 4d 3a
       0.61750686 0.00082206767 0.9412716 0.000784875
0003c0 31 93 47 3a 0c b1 4f 3a 82 4c 1e 3a 11 19 4c 3a
       0.0007613181 0.00079228054 0.0006038622 0.00077857176
0003d0 c3 0c 9d 3a ed a7 4c 3a cd 3f 5a 3a 06 cf 5c 3a
       0.0011981953 0.00078070053 0.0008325547 0.0008423183
0003e0 c6 f7 54 3a 57 14 6e 3a c9 19 66 3a f1 12 45 3a
       0.00081240793 0.00090820104 0.0008777646 0.0007517776
0003f0 71 50 4a 3a 06 00 5c 3a 79 23 a1 3a 34 91 73 3d
       0.0007717675 0.00083923375 0.0012293897 0.05946465

fc2.weight f4 [300, 400]
000000 9a 03 00 80 56 00 00 80 16 1f bf bd bd 06 00 80
       -1.292e-42 -1.2e-43 -0.09332101 -2.417e-42
000010 bd 02 00 80 31 02 00 80 41 06 00 80 b9 04 00 80
       -9.82e-43 -7.86e-43 -2.243e-42 -1.694e-42
000020 1b a3 0e 37 65 b0 0d c0 39 03 00 80 d0 02 00 80
       8.5018355e-06 -2.2138913 -1.156e-42 -1.009e-42
000030 cd 07 00 80 ce d1 45 be ea 03 00 80 12 05 00 80
       -2.798e-42 -0.19318315 -1.404e-42 -1.819e-42
000040 fe c2 12 92 40 05 00 80 8e 06 00 00 e6 04 00 80
       -4.6309823e-28 -1.883e-42 2.351e-42 -1.757e-42
000050 ab 00 00 80 c5 00 00 80 36 d4 a6 bf 73 04 00 80
       -2.4e-43 -2.76e-43 -1.3033512 -1.596e-42
000060 56 05 00 00 c7 05 00 80 62 03 00 00 eb 85 cb bd
       1.914e-42 -2.073e-42 1.214e-42 -0.09937652
000070 4a 07 00 80 a5 5d 75 c0 41 03 00 00 8e 04 00 80
       -2.615e-42 -3.8338406 1.167e-42 -1.634e-42
000080 9b 05 00 80 d9 23 85 05 a5 4d 1f 30 7c 03 00 80
       -2.011e-42 1.2520428e-35 5.79542e-10 -1.25e-42
000090 36 00 00 00 e9 01 00 00 75 03 00 80 8f 04 00 00
       7.6e-44 6.85e-43 -1.24e-42 1.635e-42
0000a0 63 04 00 00 04 01 00 80 77 05 00 80 74 3f 10 c0
       1.574e-42 -3.64e-43 -1.96e-42 -2.2538729
0000b0 71 05 00 00 12 06 00 00 52 0d 4a ba a8 02 00 00
       1.952e-42 2.178e-42 -0.00077076734 9.53e-43
0000c0 c4 04 00 80 6e be 22 bd ec d8 b5 b9 22 02 00 00
       -1.71e-42 -0.03973239 -0.0003468463 7.65e-43
0000d0 9c 43 4e c0 d8 01 00 00 66 00 00 00 c5 97 a1 3f
       -3.2228765 6.61e-43 1.43e-43 1.2624441
0000e0 7e 42 5a 3f a1 00 00 80 7d d5 0c bf 02 04 00 00
       0.8525771 -2.26e-43 -0.5501326 1.438e-42
0000f0 d9 01 00 00 46 03 00 80 b5 01 00 00 57 05 00 00
       6.63e-43 -1.174e-42 6.12e-43 1.916e-42
000100 dc 74 88 9e 71 02 00 80 82 00 00 80 b7 04 00 80
       -1.4447892e-20 -8.76e-43 -1.82e-43 -1.691e-42
000110 1c 01 00 00 0b 03 00 00 54 03 00 00 03 05 00 80
       3.98e-43 1.092e-42 1.194e-42 -1.798e-42
000120 d2 00 00 80 2a 04 00 80 05 07 2e be c4 05 00 00
       -2.94e-43 -1.494e-42 -0.16994865 2.068e-42
000130 e8 8d d2 bf 47 84 13 bf 2c 00 00 80 ce 00 00 80
       -1.6449556 -0.57623714 -6.2e-44 -2.89e-43
000140 2e 01 00 00 4c 03 00 80 f3 01 00 00 ea 00 00 00
       4.23e-43 -1.183e-42 6.99e-43 3.28e-43
000150 78 05 00 00 13 03 00 80 6f 05 00 00 e6 06 00 80
       1.962e-42 -1.103e-42 1.949e-42 -2.475e-42
000160 4b 07 00 00 bf 29 36 be af 02 00 00 a0 f1 51 32
       2.616e-42 -0.17789362 9.63e-43 1.222034e-08
000170 aa b2 1e be 49 6d 81 bf 8b b5 dd b7 81 04 00 00
       -0.15497842 -1.0111476 -2.642979e-05 1.616e-42
000180 6a 2f 78 c0 03 89 2e c0 f7 00 00 00 0f c6 96 bf
       -3.877894 -2.7271125 3.46e-43 -1.1779193
000190 8f e9 06 c0 ac 43 01 00 b2 12 c4 bb f9 01 00 80
       -2.1080053 1.16112e-40 -0.005983674 -7.08e-43
0001a0 dc 93 aa bd 10 04 00 00 86 03 00 80 88 05 00 80
       -0.08328983 1.457e-42 -1.264e-42 -1.984e-42
0001b0 14 04 00 00 1f c5 d2 bf b1 02 00 00 a8 01 00 80
       1.463e-42 -1.6466407 9.65e-43 -5.94e-43
0001c0 11 70 56 3c 5f 5d 75 3f 87 04 00 80 6e 00 00 80
       0.013088242 0.958456 -1.624e-42 -1.54e-43
0001d0 99 06 00 00 8a 01 00 80 a5 04 00 00 48 04 00 80
       2.367e-42 -5.52e-43 1.666e-42 -1.536e-42
0001e0 5d 00 00 80 6b 79 4e c0 ce 86 e8 3e 49 01 00 00
       -1.3e-43 -3.2261608 0.45415348 4.61e-43
0001f0 11 05 00 00 c9 03 00 00 72 02 00 80 11 03 00 00
       1.817e-42 1.358e-42 -8.77e-43 1.1e-42
000200 b3 01 00 00 9c 03 00 00 a8 05 00 80 70 01 00 00
       6.1e-43 1.295e-42 -2.029e-42 5.16e-43
000210 f1 02 00 00 b1 05 00 80 66 e9 17 be 3a aa 34 16
       1.055e-42 -2.042e-42 -0.14835128 1.4593998e-25
000220 a6 10 c6 bf 62 02 00 80 f5 05 6f bf ec 6e b6 0f
       -1.5473831 -8.55e-43 -0.93368465 1.7989311e-29
000230 76 41 21 b8 4b 82 6f ba e4 ba ab 3b dd a2 7d bc
       -3.8446356e-05 -0.00091365416 0.005240785 -0.015480724
000240 97 02 00 80 a7 b0 aa 2e d1 03 00 80 0d 46 1b b6
       -9.29e-43 7.762085e-11 -1.369e-42 -2.3137575e-06
000250 04 d2 01 bf e6 03 00 80 bf 0b a4 3b b6 82 33 06
       -0.50711083 -1.398e-42 0.005006283 3.376219e-35
000260 2a 06 00 00 bc 00 00 80 29 f4 15 3d bc 01 00 80
       2.211e-42 -2.63e-43 0.036609802 -6.22e-43
000270 6b 5a e7 b9 4a 04 00 80 2f 01 00 80 eb c6 76 04
       -0.0004412712 -1.539e-42 -4.25e-43 2.90085e-36
000280 d1 4f 22 b0 a7 1b 17 b2 bd 01 00 00 95 04 00 00
       -5.904868e-10 -8.795644e-09 6.24e-43 1.644e-42
000290 9a 02 00 00 59 04 00 80 6f bf 82 05 17 03 00 80
       9.33e-43 -1.56e-42 1.2295463e-35 -1.108e-42
0002a0 42 01 00 00 ca 00 00 80 28 e2 de bf 1c b5 59 be
       4.51e-43 -2.83e-43 -1.7412767 -0.21260494
0002b0 3a 00 00 80 40 09 0b 36 50 03 00 80 94 04 00 80
       -8.1e-44 2.0717998e-06 -1.188e-42 -1.642e-42
0002c0 58 30 2a a7 bc 66 76 b6 57 03 00 00 82 5a 39 c0
       -2.3618446e-15 -3.6716656e-06 1.198e-42 -2.8961492
0002d0 43 cc 87 b3 86 03 00 80 fb 22 a7 07 2e 00 00 80
       -6.3235824e-08 -1.264e-42 2.5147927e-34 -6.4e-44
0002e0 ca 21 01 3b 47 05 00 00 ae 6d a9 bf 60 03 00 80
       0.0019703978 1.893e-42 -1.3236597 -1.211e-42
0002f0 b6 21 d3 23 38 01 7e b9 72 1e 58 3a 87 01 00 80
       2.2890943e-17 -0.00024223782 0.0008244283 -5.48e-43
000300 58 00 00 80 23 04 00 00 68 02 00 80 30 05 00 80
       -1.23e-43 1.484e-42 -8.63e-43 -1.861e-42
000310 f0 f6 5f ba f6 01 00 80 cf 0a 8f 3b f9 72 01 00
       -0.00085435715 -7.03e-43 0.004365302 1.3308e-40
000320 aa 03 00 80 c5 02 00 80 e3 00 00 80 77 05 00 00
       -1.314e-42 -9.94e-43 -3.18e-43 1.96e-42
000330 52 01 ab be b9 03 00 00 34 6b 08 3d 6c 00 00 00
       -0.33399445 1.335e-42 0.033305362 1.51e-43
000340 02 01 50 b9 6d 00 00 80 42 06 00 80 80 01 00 00
       -0.00019836801 -1.53e-43 -2.245e-42 5.38e-43
000350 05 03 00 80 4d 05 00 80 70 04 00 80 83 02 00 80
       -1.083e-42 -1.902e-42 -1.592e-42 -9.01e-43
000360 fc 03 00 00 4d 03 00 80 1b 02 00 00 ee 44 92 ba
       1.43e-42 -1.184e-42 7.55e-43 -0.0011159459
000370 e1 00 00 80 75 05 00 00 3a 01 00 80 88 74 b3 81
       -3.15e-43 1.958e-42 -4.4e-43 -6.592143e-38
000380 49 05 00 80 e1 2b bf 9c 42 0e 17 3c e2 03 00 80
       -1.896e-42 -1.2650662e-21 0.009219708 -1.393e-42
000390 28 06 00 00 0a 96 7a c0 a8 00 00 80 3b 02 00 80
       2.208e-42 -3.9154077 -2.35e-43 -8e-43
0003a0 53 03 00 80 6c 03 00 80 22 02 00 00 ea a4 ca 35
       -1.193e-42 -1.228e-42 7.65e-43 1.5098169e-06
0003b0 aa 06 b5 bf 6b 03 00 80 77 5a de 3f 26 1a 5f 8c
       -1.4142659 -1.226e-42 1.7371358 -1.7187164e-31
0003c0 64 01 00 80 7a 04 00 80 64 a6 62 18 ab 02 00 80
       -4.99e-43 -1.606e-42 2.9293821e-24 -9.57e-43
0003d0 63 7e de bb 45 00 00 00 3e 00 00 00 6d fc fb 03
       -0.006789969 9.7e-44 8.7e-44 1.4810408e-36
0003e0 ff 01 00 80 ab 04 00 00 57 e3 92 9e ee 03 00 80
       -7.16e-43 1.675e-42 -1.5552377e-20 -1.41e-42
0003f0 5d 01 00 00 a4 04 00 80 9f 02 00 80 9d 82 71 bd
       4.89e-43 -1.665e-42 -9.4e-43 -0.058962453

fc2.bias f4 [300]
000000 44 94 88 bf f5 ed e9 3c 18 3f 72 3b 6d 75 35 3d
       -1.0670247 0.02855585 0.0036963876 0.04430144
000010 f1 04 41 3d 7b 8a 95 be df ef d6 3e b5 bd b8 3f
       0.047123853 -0.29207215 0.41979882 1.4432894
000020 53 c6 a5 bd 27 fd 1b c0 97 b3 35 bc 35 ac e6 bb
       -0.08094468 -2.4373262 -0.011090181 -0.0070395716
000030 09 f1 49 3d 0b 31 2c 3e 44 b2 22 be 09 ff b1 be
       0.049302135 0.16815583 -0.15888315 -0.3476489
000040 3e 09 06 c0 7f 64 7f c0 e9 9c 7b bc 1d 32 72 3d
       -2.094314 -3.9905088 -0.0153572345 0.059129823
000050 09 9e d7 3c be cf d1 bc 13 b7 0a bf 1d fd 55 bd
       0.026320474 -0.025611755 -0.541856 -0.05224334
000060 89 8e 8f be 38 e2 89 3a 46 6f 57 3d 75 42 2e 3d
       -0.28038433 0.0010519689 0.052596353 0.042543847
000070 69 1b dc 3c d4 46 15 c0 17 e4 84 c0 93 d4 42 3d
       0.026868539 -2.332448 -4.152843 0.047566008
000080 c3 b9 fa bd 18 40 b7 bf 56 93 7e 3a 69 2f 49 bd
       -0.122424625 -1.4316435 0.0009711286 -0.04911748
000090 c7 17 01 3f 1f 5b 54 3d 60 c7 cd bb 97 1f 00 3c
       0.50426906 0.051844712 -0.006279871 0.007820032
0000a0 7c b6 a6 3e bf 57 3a 3d 05 8b 8d bf 4d 5d 73 3d
       0.325611 0.045493837 -1.105805 0.05941515
0000b0 98 fd 40 3d ce 6c aa bf 99 c3 41 3d 87 30 4c bd
       0.047116846 -1.3314455 0.047305677 -0.049850967
0000c0 8b cc aa 3e 45 b8 af bf 3d 13 44 c0 5e fc af bc
       0.3335918 -1.372811 -3.0636742 -0.021482643
0000d0 28 e0 de 3d 63 6a 35 bf d9 3a bf bc e5 7a 28 3d
       0.10882598 -0.7086546 -0.02334349 0.041132826
0000e0 af 91 30 3d 95 ce e3 be 11 ef b9 3f b3 05 ad 3d
       0.043107685 -0.44493547 1.4526082 0.08448353
0000f0 bb 1f 2e 3d 64 8f 23 bc fc 37 d5 3c 86 21 17 3c
       0.04251073 -0.009982917 0.026027672 0.009224301
000100 fa d6 04 3d 3f 76 51 3e b0 96 68 3f 2a 95 ba be
       0.03243158 0.20455264 0.9085493 -0.36441928
000110 25 d5 d3 3c c1 c8 ce 3f 7c ca 69 bf c7 fb 1b be
       0.025858471 1.6155015 -0.9132459 -0.15232764
000120 8f d2 57 3e 35 36 b5 3a 65 06 02 3d 12 8e 5a 3d
       0.21076415 0.0013825359 0.03174438 0.053358145
000130 4a d3 ec bd 8b df a6 3f 09 60 cf bc cd 7f ec 3c
       -0.11563738 1.303697 -0.025314348 0.028869534
000140 74 80 99 3c 03 8a ca be 03 17 e2 be ca 13 3f 3d
       0.018738009 -0.3955842 -0.44158182 0.04664973
000150 75 eb 30 bd 4b 9b d6 bf b2 f9 e9 3c dc eb b4 bf
       -0.0431933 -1.6766142 0.028561447 -1.4134479
000160 35 bf c5 be b8 29 fa 3f 30 74 81 3f 2d 29 19 3e
       -0.38622442 1.9543982 1.0113583 0.14957114
000170 64 4d 87 bc 67 99 08 3e 11 11 d3 bc 80 78 31 c0
       -0.016516395 0.13339768 -0.025764974 -2.7729797
000180 e6 3f 02 bd 1b 81 2a 3d 6e b9 fa 3c af f8 84 bf
       -0.03179922 0.04162703 0.030605998 -1.0388392
000190 c3 85 e1 be 48 53 18 c0 80 83 db bb f3 db 3b 3d
       -0.44047365 -2.380083 -0.0066990256 0.045864057
0001a0 61 54 4a 3d c7 a3 e7 3d 5e 27 4a 3d 64 46 2f 3d
       0.049396876 0.11310535 0.04935395 0.04279174
0001b0 ca 6d 3d 3d 36 5d e1 bf 41 d8 34 3d af 61 11 3d
       0.04624728 -1.7606571 0.04415155 0.03549355
0001c0 5d 12 d3 bc 25 09 22 bc 05 4d 6d 3f 52 c8 82 bc
       -0.025765592 -0.009889876 0.9269565 -0.01596466
0001d0 bb cd 2e 3d f7 41 16 3d 4d c6 1c bc 50 88 ba bd
       0.04267667 0.036684003 -0.009568763 -0.09108031
0001e0 cc bf 84 3e 60 40 a1 3b 8b d4 ff 3d 2d d8 3f bf
       0.2592758 0.004921004 0.12491711 -0.74939233
0001f0 ec 9b 6b 3f 1e 46 be be d4 e4 83 bc fd 04 9a 3f
       0.9203479 -0.3716287 -0.016100325 1.2032772
000200 30 d7 8c bd a4 70 dc be 71 3c e1 bf 43 8e 34 3d
       -0.06876981 -0.43054688 -1.759657 0.044080984
000210 13 f7 85 bd e1 55 d6 bc b8 5c 22 40 aa cf 06 bd
       -0.06541266 -0.026163997 2.536909 -0.032912888
000220 c2 bf 27 bd bb 07 83 bf d6 ee 15 3d 1c 90 be 3b
       -0.04095436 -1.0236734 0.036604725 0.005815519
000230 18 e5 30 bd dc 18 47 3d 27 b9 53 3d de ee 36 3d
       -0.04318723 0.048607692 0.051690247 0.044661395
000240 d4 12 91 3d 49 58 e4 bf 48 2c ec bc 18 d2 0a c0
       0.07083669 -1.7839442 -0.028829709 -2.169073
000250 9f 4e 17 be 11 eb 1c bd 2c 79 61 3c b8 aa 03 3d
       -0.14776085 -0.038310114 0.0137618 0.032145232
000260 21 d7 aa bf 02 a1 1e 3f 34 7b 37 3d 7d c9 2f 3d
       -1.3346902 0.6196443 0.04479523 0.042916764
000270 56 ae 1f 3d 10 a7 f6 3f a0 93 0e 3d d9 41 24 40
       0.03898462 1.9269733 0.034808755 2.566519
000280 6c 2a c3 bc 30 cb 4a 3d d7 4d fd 3b 03 f3 18 3d
       -0.02382394 0.04951018 0.0077302265 0.03734113
000290 68 0a 70 bf ce 05 4c 3d aa 4b ba be 68 2a 2d bc
       -0.9376588 0.049810223 -0.36385852 -0.0105691925
0002a0 8b af ca bf ba 1b e4 3c bd cc bf bb 11 5c 8a 3b
       -1.5834821 0.027845252 -0.005853264 0.004222401
0002b0 2f e4 4a bf 5a 70 71 3f 5c 7c 25 bf f2 19 10 3d
       -0.7925443 0.9431206 -0.6464288 0.035180993
0002c0 1a 95 37 3d ab 7a 1e 3d 8d 1b 3d 3d c9 b3 35 bd
       0.04481993 0.038691204 0.046168853 -0.04436091
0002d0 fe 67 d7 3e be 33 0a 3d 71 fd 00 3f 36 3c 06 3d
       0.42071527 0.03374075 0.5038672 0.032772265
0002e0 d2 7f dc bf b7 e2 93 bd 50 17 44 3d 62 b8 14 bf
       -1.7226508 -0.07220977 0.047873795 -0.58093846
0002f0 f2 ea 4c 3d 1d 8a b1 bc fb 91 49 3d 4c a1 c8 bc
       0.05002875 -0.021672303 0.049211483 -0.024490975
000300 22 70 43 3d de 79 1f 3e e3 4f 4f 3f e1 58 34 3d
       0.04771436 0.15573832 0.8098127 0.044030074
000310 5e 31 89 3d f8 08 01 3d 00 f5 1c 3d fe 82 24 3d
       0.06698869 0.031502694 0.038319588 0.040163986
000320 54 5a 9b 3e 19 d6 df bc 28 02 e8 bd ca e7 0f 3f
       0.30342352 -0.02732377 -0.11328536 0.5621306
000330 32 ae c6 bd 43 7a f3 3e 2f ac 01 3d 5f b8 35 3d
       -0.09701194 0.47554216 0.031658348 0.044365283
000340 7c 65 dd bb 6f 61 e2 3c a0 2f 38 be 8c ef 0b c0
       -0.0067564826 0.02763435 -0.17986917 -2.1864958
000350 26 56 bc be b5 ec 5e 3c 31 93 d9 bf 3b ce ce bb
       -0.36784476 0.01360624 -1.6998044 -0.0063112057
000360 8c 13 d2 bf 73 2d 1e 3d e4 86 4b 3f 43 af df ba
       -1.6412215 0.038617563 0.795027 -0.0017065782
000370 1c c6 55 bf 5d bd 37 3d b9 ee 96 3b e3 e1 1b 3d
       -0.83505416 0.044858325 0.0046060947 0.03805722
000380 48 50 47 3d 40 86 91 bf c8 9f 14 3d 2d 41 64 bf
       0.048660547 -1.1369095 0.03628519 -0.8916195
000390 09 ee 0b 3d 5a 71 3a 3d 40 e5 41 3d 24 7f 9e bc
       0.034162555 0.045518257 0.04733777 -0.019347735
0003a0 08 97 32 3d 0d b0 dd 3f c6 3e 44 bd 5d 65 05 be
       0.043601066 1.7319351 -0.047911428 -0.13026948
0003b0 9d 39 50 bd 74 19 34 3c 00 35 0d bd 42 46 b8 bd
       -0.050836194 0.010992397 -0.034474373 -0.089977756
0003c0 16 33 ca bc 3f c9 11 c0 ae 7e 7f 3f 66 03 f2 3d
       -0.024682563 -2.277908 0.9980267 0.118170545
0003d0 38 3b 05 3d 78 ef 2e 3d f7 c2 e2 3e e8 ce 1e bf
       0.03252718 0.042708844 0.4428937 -0.62034464
0003e0 47 9a cb 3e db 1f 6f be 6f 50 11 3c 4e 94 8e 3d
       0.39766142 -0.23351996 0.0088692745 0.069618806
0003f0 31 92 dd bd 19 d9 17 3e 0b 18 89 bd be cb 2a 3d
       -0.108188994 0.1482891 -0.06694039 0.04169821

bn1.weight f4 [400]
000000 a2 71 03 00 23 30 a9 27 23 e5 f6 bf 5c 42 53 18
       3.1627e-40 4.6959113e-15 -1.9288677 2.7304614e-24
000010 c3 00 00 00 f3 00 00 00 af 01 00 80 78 00 00 00
       2.73e-43 3.4e-43 -6.04e-43 1.68e-43
000020 88 48 9c bd 58 dd 85 40 d2 6a 5f 89 0f 02 00 00
       -0.07631022 4.1832695 -2.6892875e-33 7.38e-43
000030 65 00 00 80 9b df 10 3f b0 01 00 00 2c 01 00 80
       -1.42e-43 0.56591195 6.05e-43 -4.2e-43
000040 c8 42 e3 92 0f 02 00 00 c0 4d 87 03 8f 61 40 8a
       -1.4342177e-27 7.38e-43 7.952437e-37 -9.2628125e-33
000050 ee dd 8d 87 6a c7 51 b1 16 35 7a 40 32 ee d5 8f
       -2.134576e-34 -3.0526857e-09 3.90949 -2.1095171e-29
000060 a4 af a2 21 e7 68 08 87 71 68 88 07 3f bd d9 3f
       1.1024039e-18 -1.0262331e-34 2.052439e-34 1.7010878
000070 e6 d1 f1 0b a9 8b e4 3f f3 6e 04 00 f7 14 69 82
       9.3145643e-32 1.7855121 4.07143e-40 -1.7124153e-37
000080 cd 6a b4 1a fc 7d 04 b3 73 71 0e ad 61 15 30 87
       7.46188e-23 -3.0848227e-08 -8.096956e-12 -1.3247051e-34
000090 61 02 00 00 8d 1a 00 00 eb 01 00 80 b0 01 00 00
       8.53e-43 9.525e-42 -6.88e-43 6.05e-43
0000a0 20 0c 00 00 0d 02 00 80 d4 00 00 80 2b 35 20 40
       4.35e-42 -7.36e-43 -2.97e-43 2.503245
0000b0 e2 df a9 83 61 01 00 00 4f 76 b6 ba 28 03 00 80
       -9.984328e-37 4.95e-43 -0.0013920757 -1.132e-42
0000c0 e7 00 00 80 bf 56 73 bf ae ef ba 3b fc 01 00 00
       -3.24e-43 -0.9505424 0.0057048416 7.12e-43
0000d0 ad 4c b4 3f 34 02 00 00 cb 6a 1b 00 27 49 87 40
       1.40859 7.9e-43 2.517868e-39 4.2276797
0000e0 a8 39 6f 40 6e f8 02 00 b0 ae 1e 40 5e 55 e5 0e
       3.737894 2.72791e-40 2.479412 5.6535064e-30
0000f0 4f 46 31 a0 2d 73 3f 0a 96 02 00 00 21 07 00 00
       -1.5015746e-19 9.217978e-33 9.28e-43 2.557e-42
000100 41 e7 cd a0 5e 9c 1e 03 51 ca 9e 19 e9 1e 01 80
       -3.4881382e-19 4.6611528e-37 1.6418532e-23 -1.02924e-40
000110 a0 00 00 00 b0 05 00 80 aa 2b 20 bc 21 00 00 80
       2.24e-43 -2.04e-42 -0.009776035 -4.6e-44
000120 39 32 93 0b 47 00 00 00 7d bf 47 40 df ba a8 05
       5.6697907e-32 1e-43 3.1210625 1.586729e-35
000130 56 bd f7 bf 0f 32 39 40 dc 18 00 80 53 ed bf ab
       -1.9354656 2.8936803 -8.918e-42 -1.3637237e-12
000140 f6 01 00 00 cb 9d f1 05 1a 01 00 00 6e dc 93 03
       7.03e-43 2.2721495e-35 3.95e-43 8.690492e-37
000150 1a 02 00 80 b1 01 00 00 b8 09 a3 97 52 01 00 80
       -7.54e-43 6.07e-43 -1.0536081e-24 -4.74e-43
000160 2e 00 00 80 f6 17 a7 3f b4 86 03 00 82 6d 15 bb
       -6.4e-44 1.3054187 3.23829e-40 -0.0022800867
000170 30 ef ae 40 98 6a 75 3f db 23 aa bd 0d 02 00 80
       5.4666977 0.95865774 -0.0830762 -7.36e-43
000180 d2 47 35 41 8e 62 95 3f 18 02 00 80 73 8d 10 40
       11.330034 1.1670702 -7.51e-43 2.2586334
000190 8b a1 27 40 33 65 9b 8b a8 a5 1e 3d e9 e9 28 84
       2.6192348 -5.9856096e-32 0.0387322 -1.9855711e-36
0001a0 dc 67 ca 3f 46 88 2f 84 7f e5 b1 84 23 01 00 80
       1.5812945 -2.0633725e-36 -4.182326e-36 -4.08e-43
0001b0 5c e1 08 07 85 59 bc 3f 9f 00 00 00 d7 01 2f 27
       1.029773e-34 1.4714819 2.23e-43 2.4287126e-15
0001c0 d5 1e 16 bc 48 37 ae 40 af 00 00 80 0e 15 c1 32
       -0.009162624 5.444248 -2.45e-43 2.2477732e-08
0001d0 46 82 84 8f 2b d4 be 05 d2 00 00 00 bd 01 00 00
       -1.3066384e-29 1.7945452e-35 2.94e-43 6.24e-43
0001e0 78 86 00 00 0d 3d 63 40 05 a3 ef 3f b7 31 b8 86
       4.8238e-41 3.5506012 1.8721625 -6.9286157e-35
0001f0 75 00 00 00 b9 00 00 00 29 2d de aa 6e 01 00 80
       1.64e-43 2.59e-43 -3.9466458e-13 -5.13e-43
000200 cf 99 13 00 7f ea 40 14 43 01 00 80 b6 00 00 80
       1.80005e-39 9.739769e-27 -4.53e-43 -2.55e-43
000210 81 00 00 00 bf 02 00 00 06 c8 53 3c 61 7f 20 15
       1.81e-43 9.85e-43 0.012926107 3.2412227e-26
000220 9f 1c 30 40 b1 0a 00 00 a7 80 a1 3f ff 0c a9 8f
       2.751747 3.835e-42 1.2617387 -1.6669693e-29
000230 97 91 0e 34 1f 63 66 3c 06 1b ea 3d 48 e3 9d 3d
       1.3277746e-07 0.014061718 0.114309356 0.07709366
000240 f4 66 b8 81 89 94 af b1 c6 0e 00 00 7a 4b 53 36
       -6.7738656e-38 -5.110057e-09 5.3e-42 3.1485383e-06
000250 af 6e 83 40 7f c5 33 86 7e fe 40 40 76 dc e0 06
       4.107261 -3.3811255e-35 3.015533 8.4583373e-35
000260 c1 08 00 80 96 e0 b3 91 11 c6 3b 40 ae 00 00 80
       -3.14e-42 -2.8379632e-28 2.933964 -2.44e-43
000270 f8 56 ac b8 f2 00 00 00 82 00 00 00 92 8e 22 26
       -8.217798e-05 3.39e-43 1.82e-43 5.639826e-16
000280 07 4c 04 b5 32 59 ad b7 fe 01 00 00 f9 01 00 00
       -4.9284466e-07 -2.0664742e-05 7.15e-43 7.08e-43
000290 75 02 00 80 b0 02 00 80 a0 1b 23 84 34 02 00 80
       -8.81e-43 -9.64e-43 -1.9173243e-36 -7.9e-43
0002a0 bc 80 c9 80 3f 02 00 00 af ee 68 40 2a 03 38 3f
       -1.8505116e-38 8.06e-43 3.639568 0.7187983
0002b0 cf cf 1d 1e bb 77 bc 3b 50 02 00 00 65 02 00 00
       8.354485e-21 0.0057515777 8.3e-43 8.59e-43
0002c0 ac c9 97 27 d0 e1 ef b5 0b ea 82 84 3d 0f fc 3f
       4.2129572e-15 -1.7872608e-06 -3.0777788e-36 1.969215
0002d0 83 e0 87 34 f1 c5 ad 05 66 7a ae 0e ca 7f d9 08
       2.5309063e-07 1.6341554e-35 4.3012177e-30 1.30902555e-33
0002e0 5a 2a 06 3a a9 ea d7 19 38 64 05 40 2a 02 00 00
       0.0005118005 2.2325257e-23 2.0842419 7.76e-43
0002f0 ec 74 9b a3 24 63 0f 3e b9 1a 02 3d 0c cf 39 87
       -1.6854652e-17 0.14002663 0.031763766 -1.3978699e-34
000300 ce 95 5d 80 b4 00 00 80 46 01 00 00 c1 01 00 80
       -8.594441e-39 -2.52e-43 4.57e-43 -6.29e-43
000310 56 95 2e 3d 43 02 00 00 d5 f8 6f 3e d7 5e 81 2b
       0.042622887 8.11e-43 0.23434766 9.192325e-13
000320 7a 01 00 00 f2 fc 3d 80 6f 04 be b1 6e dd 03 0c
       5.3e-43 -5.692705e-39 -5.530232e-09 1.0158507e-31
000330 c1 6f c3 3f 3b 00 00 00 93 cc 3c 40 13 10 b6 23
       1.526848 8.3e-44 2.9499862 1.9739287e-17
000340 3c f4 ef 3a 74 01 00 80 04 02 00 00 35 02 00 80
       0.001830704 -5.21e-43 7.23e-43 -7.92e-43
000350 67 00 00 00 d5 45 95 84 53 ae 57 30 0f 05 00 00
       1.44e-43 -3.5093862e-36 7.8464274e-10 1.815e-42
000360 68 77 9a 0d da 00 00 80 2d ae 4d 91 b3 38 ba 3b
       9.519729e-31 -3.05e-43 -1.6225321e-28 0.0056830286
000370 06 02 00 00 da 00 00 80 3d 04 00 80 75 74 ac 82
       7.26e-43 -3.05e-43 -1.52e-42 -2.5339972e-37
000380 98 e5 09 03 98 41 b2 ac f4 c5 ba 3f 44 c9 75 00
       4.052424e-37 -5.0663466e-12 1.459166 1.0816954e-38
000390 7d 7f 22 92 21 cc ea 3f 54 02 00 80 fd 00 00 00
       -5.127533e-28 1.8343545 -8.35e-43 3.55e-43
0003a0 2d 02 00 80 3f ad 00 00 ed 00 00 80 77 5f ad 36
       -7.8e-43 6.2149e-41 -3.32e-43 5.1669153e-06
0003b0 88 f1 cf 3f 7c 00 00 80 ca 32 7e 40 09 8e b0 91
       1.6245584 -1.74e-43 3.97185 -2.785544e-28
0003c0 87 5a 64 ac 02 27 00 00 34 77 2d 9a 9c 16 1a 84
       -3.2451002e-12 1.3993e-41 -3.5871853e-23 -1.8112995e-36
0003d0 50 83 10 bf 33 03 00 80 22 ce ac 84 84 4e 69 0c
       -0.56450367 -1.148e-42 -4.062631e-36 1.7973295e-31
0003e0 ca 02 00 00 05 01 00 80 7c 74 21 9f 8d 0f eb 8d
       1e-42 -3.66e-43 -3.418943e-20 -1.4486737e-30
0003f0 22 02 00 00 e9 52 08 80 88 9a 3b 28 8d 34 82 40
       7.65e-43 -7.64427e-40 1.0414094e-14 4.068915

bn1.bias f4 [400]
000000 bc 52 4d b7 dc be 3c b9 6a 11 bd be 90 e2 a4 b6
       -1.2238215e-05 -0.00018000178 -0.36927348 -4.913956e-06
000010 af 45 9b b7 5b bd c6 b6 d8 c3 94 b7 6a 61 27 b7
       -1.8509889e-05 -5.9229037e-06 -1.7734172e-05 -9.976657e-06
000020 f7 c4 af bb 89 22 60 3f 5a 76 1e b8 d2 da 4d b7
       -0.005364056 0.87552696 -3.778036e-05 -1.22699e-05
000030 69 23 3a b5 52 94 03 3f a1 e2 94 b6 0c e2 c0 b6
       -6.934193e-07 0.51398194 -4.437127e-06 -5.748361e-06
000040 58 7c fa b7 5c 89 9d b7 44 15 0d b7 a0 a0 cd b6
       -2.9860224e-05 -1.8779821e-05 -8.409206e-06 -6.1281753e-06
000050 28 91 4d b7 27 9c 05 b9 4b b9 c1 3f e9 26 87 b7
       -1.2252749e-05 -0.0001274204 1.5134672 -1.6111373e-05
000060 ea 26 b4 b4 f9 33 ec b6 96 87 88 b7 80 9b dd 37
       -3.3555926e-07 -7.0393985e-06 -1.62756e-05 2.6417663e-05
000070 de 8c 2e b6 3b a1 57 be 67 a8 01 b7 2d 49 89 b7
       -2.6010016e-06 -0.21057598 -7.728208e-06 -1.6365748e-05
000080 1f 3d cf b6 7b 08 c0 ba da 02 27 b1 00 b5 ba b6
       -6.176196e-06 -0.0014650965 -2.430332e-09 -5.564303e-06
000090 40 c8 67 b6 18 37 67 b4 cb d7 b9 b5 4e d8 b2 ad
       -3.4538243e-06 -2.1533594e-07 -1.3846378e-06 -2.0332316e-11
0000a0 1e 97 83 b7 e9 c9 a2 b7 62 45 a1 a4 45 be 5e be
       -1.5686786e-05 -1.9405927e-05 -6.994016e-17 -0.2175227
0000b0 95 9c f0 b6 4b 43 b7 b6 55 de be 3b da ab 1c af
       -7.170786e-06 -5.461659e-06 0.005824844 -1.4249171e-10
0000c0 3e 54 ac b6 66 01 00 80 f1 c7 6d 3d 43 97 65 b7
       -5.1358065e-06 -5.02e-43 0.058052007 -1.3684682e-05
0000d0 18 6c f4 3e d5 87 ce b7 a0 f1 27 b9 44 f1 6d 3f
       0.4773872 -2.4620365e-05 -0.00016016373 0.9294627
0000e0 ff b6 15 40 e2 f4 b5 b6 5b 56 b7 3e 8d 82 28 b8
       2.3392942 -5.4227285e-06 0.35808071 -4.0175906e-05
0000f0 ff ac ad b6 f2 55 b1 b6 25 2c b7 b7 32 06 e5 b0
       -5.175941e-06 -5.2850164e-06 -2.1835856e-05 -1.6663704e-09
000100 2e 35 81 a1 fa ac ba b7 e7 d2 2a b9 69 7c f6 b6
       -8.755457e-19 -2.2253476e-05 -0.0001629103 -7.3458546e-06
000110 a0 82 18 b9 81 9a b0 b7 b5 47 8a 30 c6 47 f8 ab
       -0.00014544511 -2.1052781e-05 1.0061202e-09 -1.7641381e-12
000120 c0 a4 bc b6 ab 69 ad b6 a9 6a ea 3d 3f 13 b6 b6
       -5.622016e-06 -5.168103e-06 0.11446125 -5.426263e-06
000130 d3 c2 f8 be e4 ee 17 bf 0a 1e 99 b5 48 a0 e4 b8
       -0.4858614 -0.59348893 -1.1408131e-06 -0.00010901742
000140 7e a9 2f a1 c8 24 b8 b6 83 dc c1 aa 83 56 08 b7
       -5.9516627e-19 -5.487909e-06 -3.4436698e-13 -8.126374e-06
000150 0f 67 c1 b6 14 68 8c ae 37 ea cf b6 69 9f a0 ae
       -5.763846e-06 -6.384951e-11 -6.196347e-06 -7.3042745e-11
000160 b4 7d 8b af 70 cf a7 3f 25 10 b1 b5 cc cb b4 bb
       -2.537327e-10 1.311018 -1.3192226e-06 -0.0055174585
000170 7d 24 af 3f d1 0f b9 be 3d 4b a3 bb e9 97 48 b0
       1.368301 -0.3614488 -0.0049833343 -7.2975453e-10
000180 cb 01 8c 3f 39 e7 39 bf 13 19 d9 a0 78 6b 10 40
       1.0938047 -0.7261844 -3.6777823e-19 2.2565594
000190 7f 37 36 bf 96 a8 fe b6 7b ee 71 3e ca 52 4f b8
       -0.7117843 -7.589416e-06 0.2362613 -4.942975e-05
0001a0 bb 7c 1e 40 85 f7 3f b5 ee 0f bb b6 ce 86 a3 b7
       2.476363 -7.1513233e-07 -5.5748887e-06 -1.9493888e-05
0001b0 02 f7 52 b7 06 c4 35 40 23 9d 69 b5 84 d8 9b b6
       -1.2574486e-05 2.8400893 -8.702793e-07 -4.6445657e-06
0001c0 35 b6 22 3e ca ef 30 3e 0a f0 2b b7 cb 80 19 b7
       0.15889819 0.17278972 -1.0248283e-05 -9.149498e-06
0001d0 a5 ad 85 b6 d7 10 3f b4 7c d3 8b b7 a9 10 bf b6
       -3.9839238e-06 -1.7794387e-07 -1.6668571e-05 -5.694183e-06
0001e0 83 4b 3f b4 26 49 94 3f a5 06 8d 3c 94 a9 a6 b7
       -1.7815732e-07 1.1584823 0.017215082 -1.9867708e-05
0001f0 d2 f9 71 b7 10 4c df b6 8f 06 91 b8 e3 e8 c1 b7
       -1.4422885e-05 -6.6547727e-06 -6.9153604e-05 -2.311584e-05
000200 f7 60 bd b6 6c b8 4a b8 42 ca c0 b7 3a f6 c7 ab
       -5.643927e-06 -4.833231e-05 -2.2982367e-05 -1.4208142e-12
000210 28 32 11 af 19 2b 58 a5 82 5b fd 3b 74 80 a9 b9
       -1.3205492e-10 -1.8749616e-16 0.007731856 -0.00032329897
000220 dc ee 05 40 44 23 ce b6 ce 6d 2b c0 3e d7 7c bb
       2.0927038 -6.143384e-06 -2.678577 -0.0038580443
000230 d2 b4 66 ba 12 b2 85 3c 6f 67 05 3e 54 57 1c bd
       -0.0008800748 0.016320262 0.13027738 -0.03816922
000240 f9 bf ab b6 b3 e6 c3 b3 b0 9f bf b2 25 ea c4 b7
       -5.1185457e-06 -9.122359e-08 -2.2307944e-08 -2.3474053e-05
000250 8b 8b 6b be 14 dc b8 af ac 04 54 3c 63 b0 14 ba
       -0.2300245 -3.362578e-10 0.012940567 -0.00056720356
000260 80 b4 cb a9 fd 96 74 b7 e3 bb 98 3f ae bb 90 b7
       -9.046323e-14 -1.4578688e-05 1.1932338 -1.7253533e-05
000270 e2 18 75 3a a5 a9 89 b7 20 c6 40 b7 7e fa 11 bb
       0.0009349716 -1.641067e-05 -1.1490221e-05 -0.002227455
000280 88 e9 8d bc 83 b4 1d b9 15 a6 c8 b7 d8 32 af b7
       -0.01732327 -0.00015039933 -2.3919196e-05 -2.0885302e-05
000290 b9 1c 9f b7 02 88 f6 b5 5e f4 0f a2 5f 7a 77 af
       -1.8967652e-05 -1.8368012e-06 -1.950948e-18 -2.2507994e-10
0002a0 1f f4 c5 b6 6a 45 98 b7 14 a8 71 bf 52 f8 84 3f
       -5.899477e-06 -1.8152135e-05 -0.9439709 1.0388281
0002b0 80 2d 5a b8 79 bf cd bc 77 09 8c b7 32 f7 e4 a5
       -5.2017625e-05 -0.025115715 -1.6693708e-05 -3.97192e-16
0002c0 90 0f d8 b7 d5 60 17 b8 28 a5 b4 b6 8b d5 2a 3e
       -2.5756453e-05 -3.6091387e-05 -5.3836447e-06 0.16683023
0002d0 82 49 5d b5 4d 90 ad b6 89 07 ad ac 02 1e 82 b7
       -8.2435884e-07 -5.1726006e-06 -4.9177923e-12 -1.5511181e-05
0002e0 35 6d 94 3d 5b 2f 3e b7 07 4d 5c 3f 56 67 93 b7
       0.07247392 -1.1335908e-05 0.86055034 -1.7571885e-05
0002f0 9e ad 04 ba cb 61 94 3d 22 58 d7 3d 29 a0 c3 b6
       -0.00050612714 0.07245215 0.10514857 -5.830098e-06
000300 ff 8f b2 b6 df d9 4b b7 c0 99 2c b6 a4 59 c6 b7
       -5.3215767e-06 -1.215047e-05 -2.5719492e-06 -2.3645181e-05
000310 2d 8f 4d 3d 50 f1 bb b6 bd ec 2b 3e df a1 9a ba
       0.05018537 -5.6011268e-06 0.16789527 -0.0011797509
000320 69 23 0b b1 bd cb c6 b6 a6 fb ab b8 0c c1 d0 b6
       -2.024729e-09 -5.924578e-06 -8.2007886e-05 -6.2213567e-06
000330 e7 16 e6 3f 4b c1 c8 b7 9d a4 92 bd 57 28 2b b8
       1.7975739 -2.3931867e-05 -0.07160304 -4.0807146e-05
000340 95 d1 87 3d ea 12 8e b7 45 f1 a7 b6 6b 3c 26 b9
       0.066317715 -1.6936527e-05 -5.0050753e-06 -0.00015853501
000350 a2 7f 5c b7 2b 31 cd b6 22 bf d8 b6 c5 07 76 b5
       -1.3142739e-05 -6.1152e-06 -6.4595524e-06 -9.165345e-07
000360 ba 2b 01 b7 15 a3 c2 b6 87 f6 8a b7 7e 55 91 3c
       -7.69918e-06 -5.800636e-06 -1.656568e-05 0.017740961
000370 30 f7 ca b0 59 9d af b6 56 98 a3 aa fc 11 81 a3
       -1.4767689e-09 -5.233724e-06 -2.906032e-13 -1.3993825e-17
000380 e9 8a be b6 9a 80 cb ad 92 92 d8 bd 3f 16 06 b6
       -5.6786125e-06 -2.3135539e-11 -0.10574831 -1.9980505e-06
000390 9b 6f 82 b7 db a5 f7 be e7 d2 2a b6 03 ad b3 b2
       -1.5549178e-05 -0.48368725 -2.5454735e-06 -2.091702e-08
0003a0 42 c7 dc b6 f3 4c ca b6 e0 90 c8 b2 18 63 72 b7
       -6.5797076e-06 -6.029027e-06 -2.3348946e-08 -1.4447396e-05
0003b0 62 5a 00 bf 70 85 54 b7 0e aa d5 3f 80 99 51 b9
       -0.50137913 -1.2667253e-05 1.6692522 -0.00019988976
0003c0 52 d2 9a b8 30 9b 06 b7 d3 a1 c3 9a b9 0b f2 b7
       -7.3824674e-05 -8.023155e-06 -8.091155e-23 -2.8854107e-05
0003d0 73 9a 9f bd 6d 38 28 af b6 cb b2 b6 51 07 a5 ba
       -0.07793131 -1.5299557e-10 -5.3285285e-06 -0.0012590681
0003e0 c0 b1 8d b6 ba 3d 3d b6 ce ed e5 1e 7f 85 db b6
       -4.2228203e-06 -2.8199124e-06 2.4344672e-20 -6.5422496e-06
0003f0 ad 6f bf b7 5e a1 bd b6 96 10 23 b9 52 f2 b0 be
       -2.2820977e-05 -5.6514245e-06 -0.0001555107 -0.34559876

bn2.weight f4 [300]
000000 7b fe db 40 5a 1b 83 b1 e4 20 97 be a0 44 c2 3e
       6.8748145 -3.8157113e-09 -0.2951728 0.37942982
000010 a0 c7 98 3e 16 4a d1 c0 c7 34 be be ef e4 e3 3e
       0.29839802 -6.5402937 -0.3714964 0.445106
000020 f9 27 45 40 b2 53 e0 40 e0 45 b6 3f c9 77 0e bf
       3.0805647 7.0102167 1.4240074 -0.5565153
000030 35 bf b6 3e 1c ea 2f 40 9e d6 80 40 9c ac 6c 3f
       0.35692754 2.748664 4.0261984 0.9245088
000040 8e 9b f0 40 5b 79 a7 40 b7 02 00 80 d5 b9 23 3f
       7.5189886 5.233564 -9.74e-43 0.6395543
000050 31 a4 a0 3e 95 68 bc bd 49 69 8d 3e 90 c6 b6 37
       0.31375268 -0.09199635 0.2761939 2.1788554e-05
000060 73 4f 3b 3f 3a 54 19 a9 d5 5e d3 a8 71 39 aa 3e
       0.73168105 -3.404588e-14 -2.3466833e-14 0.3324695
000070 d9 01 00 80 6f b7 dd 3f da 9e 55 41 25 31 bf 3e
       -6.63e-43 1.7321604 13.351282 0.37342182
000080 67 ff f3 3f 7f 84 81 40 2d 81 91 be a6 61 a2 3f
       1.9062318 4.047424 -0.28418866 1.268605
000090 c5 58 bf 3f 85 41 b3 3e 76 a0 fc bd 23 eb 5c 40
       1.4948965 0.35010925 -0.12335293 3.4518516
0000a0 31 60 c8 3f 67 98 c5 3e c9 fa c9 40 d8 3c 53 40
       1.5654355 0.38592836 6.3118634 3.3005886
0000b0 f4 ca bf 3e cf b4 4e 40 28 7f bd 3e b6 10 98 3f
       0.37459528 3.2297857 0.37011075 1.18801
0000c0 1d 5f 8c 40 ea f2 d9 40 c1 38 e2 3f 1a 0c 76 29
       4.3866105 6.8109026 1.767357 5.463347e-14
0000d0 e2 86 64 c0 7b d0 2b 40 68 3f 84 32 dc 7d af 3e
       -3.5707326 2.6845996 1.5395656e-08 0.3427571
0000e0 db e2 a9 3e 54 bf 06 3f 30 ae 9d 40 1f c1 1d 40
       0.3318089 0.52635694 4.927513 2.4649122
0000f0 2c ce 61 32 72 03 0c 3e e7 b3 9f 3e 8c 45 c5 ae
       1.3143602e-08 0.1367319 0.31191942 -8.970877e-11
000100 98 b9 a4 3e 58 fc 5c 40 70 1b 9c c0 40 19 57 40
       0.32172847 3.4529018 -4.8783493 3.3609161
000110 81 ce 8c 40 6f 6d a8 40 02 47 52 40 37 f4 78 1b
       4.400208 5.2633586 3.285584 2.0592989e-22
000120 01 70 51 40 81 67 54 40 f8 d5 b2 3e 43 ce b6 3e
       3.2724612 3.3188174 0.3492887 0.3570424
000130 a0 61 3f 40 81 d6 c3 40 54 aa 00 80 c5 02 00 80
       2.9903336 6.1199346 -6.1102e-41 -9.94e-43
000140 1b 40 27 a7 01 dd ec 3f c7 70 41 3f e7 ce bb 3e
       -2.3210657e-15 1.8504945 0.7556271 0.3668129
000150 53 07 b8 3f 5e ed 95 40 47 03 00 80 ee f7 1f 3f
       1.4377235 4.6852255 -1.176e-42 0.62487686
000160 4e 50 50 40 54 cf 84 3e c6 88 37 40 e4 b0 22 40
       3.2549014 0.2593943 2.867723 2.5420465
000170 8c 32 99 3e 5d fc 94 3f d3 6e 86 3f f9 ab a3 3f
       0.29921377 1.1639515 1.0502571 1.2786857
000180 1f eb 43 3f 17 71 7b 3a e1 5c 4e 3e 65 b9 e7 3f
       0.7653064 0.0009591742 0.20152618 1.8103453
000190 ac 8b fc be 30 9e 8d 3f a4 25 01 30 0f 11 cb 3e
       -0.4932531 1.10639 4.6983417e-10 0.39661452
0001a0 e0 11 b3 3e 51 3b 26 c0 6b dc a7 3e 97 40 9a 3e
       0.34974575 -2.5973704 0.32785353 0.30127403
0001b0 3c 3b a4 3e 4f 3c e7 40 e7 37 c6 3e 7d 68 ae 3e
       0.32076442 7.226112 0.38714525 0.34064093
0001c0 f7 ee 2b 3e fa f3 ef 3d d8 0c 98 40 a3 19 87 3f
       0.16790377 0.11716457 4.751568 1.0554699
0001d0 8b de 8a 3e 0e bf 31 37 b6 ba 9d bd 40 98 8b 3f
       0.27122912 1.05945055e-05 -0.07701628 1.0905838
0001e0 c2 9d 79 bf 1e 03 00 80 22 0d a3 3f ca ce 3a 40
       -0.97506344 -1.118e-42 1.2738383 2.9188714
0001f0 d1 57 1f c0 90 93 59 40 70 f3 08 bf 99 ec da bf
       -2.489735 3.3996315 -0.53496456 -1.7103454
000200 f7 81 e3 3f 11 ee 81 40 4c 8b 91 3f 79 1d c8 3e
       1.7774037 4.060311 1.1370635 0.39084986
000210 ca 2c 9a 82 ca cd 52 3c 2a 2c b7 40 08 02 60 3e
       -2.2653974e-37 0.012866447 5.724141 0.21875775
000220 ed 4e d6 3f 9f 87 f5 3f 7e f1 f4 3e 09 01 36 40
       1.6742836 1.9182013 0.47840494 2.8438132
000230 21 a9 8c a3 90 08 af 3e 54 de 87 2d c9 b0 b4 3e
       -1.525046e-17 0.3418622 1.5446457e-11 0.35291126
000240 83 a7 79 b1 e8 6e 8f 3f ef 07 00 80 5b 69 03 40
       -3.6329488e-09 1.1205721 -2.846e-42 2.0533054
000250 de c7 96 40 88 02 00 80 b6 00 8d ad 08 94 6c 2c
       4.711898 -9.08e-43 -1.603016e-11 3.361979e-12
000260 0a e3 2b 40 6a a3 88 40 cf 03 a5 3e a3 0d be 25
       2.6857324 4.269948 0.32229468 3.2968987e-16
000270 2d 21 a9 3e c8 a3 d0 40 6b 95 4e 92 9e c5 32 40
       0.33033124 6.519993 -6.518631e-28 2.7933116
000280 ea f9 2a 36 8a 14 b2 3e 52 78 48 40 61 e3 dd 27
       2.5477443e-06 0.34781295 3.1323438 6.1586347e-15
000290 a6 51 75 40 22 80 b2 3e f1 d2 3a 40 d9 69 84 be
       3.8331084 0.34863383 2.9191248 -0.25862005
0002a0 ea 54 55 3f a0 23 15 23 64 e7 4d b5 81 27 b3 ad
       0.83332694 8.08485e-18 -7.670517e-07 -2.0367487e-11
0002b0 77 36 d4 3f 04 e8 a7 40 da c9 da 3e c1 78 26 3f
       1.6579121 5.247072 0.42732126 0.65028006
0002c0 b3 2e d3 3e fb f9 a8 3e 24 9c c0 3e f4 d7 e7 ab
       0.41246566 0.3300322 0.37619126 -1.6473476e-12
0002d0 0c c3 af 3f 1e 13 9e 39 b5 ca 0b 40 1c b8 8b 3e
       1.3731399 0.00030150352 2.1842473 0.27288902
0002e0 25 fb a7 3f 8c 3c 77 40 7a ab bd 3e 0f e4 6f 40
       1.3123518 3.8630705 0.3704489 3.7482946
0002f0 99 57 a9 3e 80 c0 91 3e e3 8f b6 3e 37 c6 f8 3d
       0.33074644 0.28467178 0.35656652 0.121471815
000300 2e ef b9 3e 17 fe e6 bf 00 a3 fe bf 19 ce c6 3e
       0.36315292 -1.8046292 -1.9893494 0.38829115
000310 c9 92 a7 3e 7b cc b1 3e d9 72 61 33 44 30 d6 3e
       0.32729176 0.3472632 5.2491348e-08 0.418337
000320 ef 65 59 c0 5a 83 84 80 8a 23 54 40 45 38 6d 40
       -3.3968465 -1.2169406e-38 3.3146691 3.7065594
000330 43 70 79 3f ba 70 78 40 3d 98 a1 3e 33 ee c5 3e
       0.9743692 3.8818803 0.3156146 0.38658294
000340 67 ef b8 91 e0 9e 6c 31 68 3f c7 3f f7 9a 08 41
       -2.9177624e-28 3.443283e-09 1.5566225 8.537833
000350 24 24 ac 3f c9 ba f1 3c 47 9c c5 40 de ae db bd
       1.3448529 0.029508011 6.175327 -0.10726713
000360 a2 f0 e6 40 a5 ab ad 3e 57 f1 b7 c0 cc 68 0d 9e
       7.216874 0.33920017 -5.7482104 -7.486149e-21
000370 cd c3 83 3f e2 97 06 af 67 71 58 3e b0 03 00 00
       1.0294129 -1.2241189e-10 0.2113701 1.323e-42
000380 4c a7 6a bf ec 02 30 40 fe 77 11 ac cb 30 77 3f
       -0.91661525 2.7501783 -2.0672348e-12 0.9655883
000390 8f b9 d2 36 62 de 5b bf 2e 63 c4 3e 08 d0 f3 3e
       6.2800896e-06 -0.85886204 0.38356918 0.47619653
0003a0 61 67 c4 3e 7f f7 69 40 bd c1 62 3f 2a 51 ad 40
       0.38360122 3.655731 0.8857687 5.4161577
0003b0 0d 41 36 2f 83 d1 35 3e d4 97 96 ae 71 69 ab 3f
       1.6575914e-10 0.17755704 -6.8481804e-11 1.3391553
0003c0 79 77 f4 2c ba 74 b5 3f 5b 08 a0 40 72 00 5b 3f
       6.9481612e-12 1.4176247 5.00102 0.85547554
0003d0 9b f5 9b a0 db 51 cb 3e d5 e6 2e c0 4b 89 03 40
       -2.642055e-19 0.39710888 -2.7328389 2.0552547
0003e0 d3 e0 51 40 c4 eb 75 c0 fb 21 68 ac 9e 76 24 40
       3.2793472 -3.842515 -3.2988046e-12 2.5697398
0003f0 5c 6f ec bf ad a1 50 40 c0 58 18 29 09 5e 10 40
       -1.8471484 3.259868 3.3827758e-14 2.2557395
