tmp/ddpg/critic_ddpg.pth (torch, 514177 bytes, 11 tensors)

fc1.weight f4 [400, 11]
000000 1b 08 89 3e c9 25 02 c0 a4 99 10 3d 1b e7 e1 3e
       0.26763996 -2.0335562 0.035302773 0.44121632
000010 4f 2b e3 3f cb 05 7b 3f d2 bc e7 3f 0c 7c 64 3f
       1.7747592 0.98055714 1.8104498 0.8925178
000020 90 fc a9 3f 65 ef 8d 3f 7c 42 96 3f 82 6c 8b 3e
       1.3280201 1.1088682 1.173904 0.27231222
000030 2f 90 02 c0 ef f9 16 3d 23 97 e0 3e 52 93 e3 3f
       -2.0400503 0.03685945 0.43865308 1.7779334
000040 47 af 7a 3f e7 68 e9 3f 8a 48 58 3f 52 9f a5 3f
       0.979237 1.8235139 0.84485686 1.2939246
000050 68 0d 8b 3f b9 b5 92 3f 7c 8b 90 3e 92 22 01 c0
       1.0863466 1.1461707 0.28231418 -2.017735
000060 25 f8 a9 3d 87 ce e0 3e 53 7f ec 3f 2f b6 8c 3f
       0.08299283 0.43907568 1.8476356 1.0993098
000070 1f 25 f0 3f 8b 58 6a 3f 19 39 a3 3f 15 76 8c 3f
       1.8761328 0.91541356 1.27518 1.0973536
000080 e6 30 90 3f c9 46 82 3e 44 49 fd bf 5a 98 45 3d
       1.1264923 0.2544463 -1.9787984 0.048240997
000090 1d 3f d8 3e 82 7f e4 3f 47 40 88 3f 99 24 02 40
       0.42235652 1.7851412 1.0644616 2.0334837
0000a0 c3 62 8c 3f 5a 26 ba 3f dd 87 99 3f 9c a6 a0 3f
       1.096764 1.4542954 1.1994587 1.2550845
0000b0 c2 1d d8 bd 43 39 f8 be 44 d2 87 3e 7b 28 57 3e
       -0.10552551 -0.48481187 0.26527607 0.21011536
0000c0 de 4e ba 3f 2a 88 a4 40 fa 08 ef 3f 21 f3 39 be
       1.4555318 5.1416216 1.8674614 -0.18159153
0000d0 d8 09 9e 3f 5c 82 15 bf 71 98 be 3f 9d 6b b9 3e
       1.2346754 -0.5840204 1.4890271 0.36214915
0000e0 90 7b 03 c0 cc 81 4c 3d d8 b8 e1 3e ce fc ed 3f
       -2.0544167 0.04992847 0.44086337 1.8592775
0000f0 f4 5e 7c 3f a3 fa da 3f e8 a6 5d 3f 50 a2 85 3f
       0.98582387 1.7107738 0.86582804 1.0440159
000100 1f ae 6d 3f 52 ab 73 3f 49 e0 8f 3e 1c 83 02 c0
       0.9284381 0.9518329 0.28100803 -2.0392523
000110 55 d5 35 3d a1 e4 df 3e d2 ef e4 3f 9a 48 81 3f
       0.044392902 0.43729118 1.7885687 1.0100281
000120 8f e8 f3 3f 16 d7 6e 3f 25 e0 aa 3f 91 f0 90 3f
       1.9055346 0.93296945 1.3349653 1.1323415
000130 ff 57 96 3f 61 ca e6 3e 8c 91 04 c0 2d 69 73 3d
       1.1745604 0.45076278 -2.0713835 0.059426475
000140 6d b9 e4 3e 0f f9 ff 3f 82 a6 7d 3f 6c 19 c8 3f
       0.4467272 1.9997882 0.99082196 1.5632758
000150 02 81 8d 3f c3 3b 27 3f 84 00 16 3f 33 99 28 3f
       1.1054995 0.65325564 0.58594537 0.65858763
000160 50 ff 0c 40 8a 80 3a c0 c3 6e b2 be b5 23 a9 3f
       2.203083 -2.9140954 -0.3485013 1.3214022
000170 12 78 21 3d 24 78 b7 40 7d de 8b 3f 2a df 2f bf
       0.03942115 5.7334156 1.0927273 -0.68699896
000180 ca 9f 5a bf 83 36 17 bf ab 73 ea bf 37 a0 2a 40
       -0.8540007 -0.59067553 -1.8316549 2.6660287
000190 29 26 e9 3b 45 54 80 3f c8 af a7 3e 1b 8d 45 3f
       0.0071151447 1.0025717 0.32751298 0.77168435
0001a0 d8 71 d6 bf 3e de e7 3f 29 20 6a 40 00 b2 f6 3f
       -1.6753492 1.8114698 3.658213 1.9273071
0001b0 99 67 c4 3f bb a1 c2 3f 28 d9 aa 3e b2 1e 09 c0
       1.5344115 1.5205606 0.33368802 -2.1424985
0001c0 81 a0 4a 3d d4 3e ea 3e d4 b2 ea 3f 0e 33 76 3f
       0.049469475 0.4575106 1.8335824 0.96171653
0001d0 93 97 c7 3f ac 17 67 3f e6 8b 65 3f d2 2b 5f 3f
       1.5593132 0.90270495 0.89666593 0.8717624
0001e0 b2 19 6c 3f e1 cc 8a 3e ef 6c f8 bf 6e 08 81 3d
       0.9222671 0.27109435 -1.9408244 0.06300436
0001f0 db 40 d4 3e aa 82 e2 3f 71 e8 86 3f 8e 1d 02 40
       0.4145573 1.7696126 1.0539685 2.0330539
000200 19 08 82 3f 72 ec a5 3f 45 ae 8a 3f a9 e1 8d 3f
       1.0158721 1.2962782 1.0834433 1.1084491
000210 e9 5a ce 3e a7 4b 05 c0 03 eb 59 3d 17 07 e2 3e
       0.40303734 -2.0827425 0.05320264 0.44146034
000220 01 a5 e9 3f 1b ee 79 3f 85 aa d0 3f 44 9e 12 3f
       1.825348 0.97628945 1.6302038 0.57272744
000230 33 d7 78 3f 5a 9e 6d 3f 0d f4 82 3f 67 7d ad 3e
       0.9720337 0.9281975 1.0230728 0.33884737
000240 84 09 01 c0 e5 1f 92 3d d6 32 d7 3e df 77 e2 3f
       -2.0162058 0.0713499 0.42030972 1.7692832
000250 e4 46 91 3f c2 b5 ec 3f b6 90 6e 3f 62 03 a3 3f
       1.1349759 1.8492968 0.9318956 1.2735407
000260 69 35 89 3f 5f 80 8e 3f 57 7d 12 3e 11 1d 18 c0
       1.0719424 1.1132926 0.14305626 -2.376774
000270 ec b0 46 3c 5a 2e 06 3f 28 2a d0 3f e2 d8 62 3f
       0.012127142 0.52414477 1.6262865 0.88612187
000280 02 c0 7a 3f 47 4d b2 3f e9 5a 53 3f fb c8 80 3f
       0.9794923 1.3929833 0.8256059 1.0061334
000290 d8 7b 65 3f 76 36 8e 3e 5a 05 f7 bf 0a b2 2a 3d
       0.89642096 0.27775925 -1.9298508 0.041673698
0002a0 cc 00 da 3e a8 b8 ea 3f cc d1 88 3f 6b e8 04 40
       0.42578733 1.8337603 1.0689025 2.0766857
0002b0 e6 0b 73 3f ac c9 a8 3f 23 2e 8c 3f c9 97 8b 3f
       0.9494003 1.3186545 1.095158 1.0905696
0002c0 5c c6 9f 3e b0 6f f3 bf 1b 65 2d 3d bf 32 d2 3e
       0.31206024 -1.9018459 0.04233275 0.4105434
0002d0 68 72 e8 3f 81 b2 82 3f a5 9a fa 3f f8 ed 2a 3f
       1.8159914 1.0210725 1.9578444 0.6676936
0002e0 ea 68 a6 3f 1b db 8c 3f 78 02 8e 3f 63 85 b6 3e
       1.3000767 1.1004366 1.1094503 0.3564864
0002f0 54 a3 02 c0 3b 51 4e 3d 1a 2e e0 3e 09 bb ef 3f
       -2.0412188 0.050370436 0.43785173 1.8728954
000300 3a 47 78 3f 6d a7 e5 3f a4 2d 6a 3f 73 d6 8c 3f
       0.96983683 1.7941719 0.9147589 1.1002945
000310 f3 50 75 3f 98 67 78 3f d1 9c cc 3e bc 48 f2 bf
       0.95826644 0.9703307 0.3996339 -1.8928447
000320 0a 92 8d 3d b5 9a c5 3e 1a c2 eb 3f 25 b0 85 3f
       0.0691262 0.38594595 1.841861 1.044438
000330 8a 10 fd 3f 15 cb 13 3f 52 d5 af 3f 8a c8 97 3f
       1.9770672 0.57731754 1.3736975 1.1858075
000340 73 f7 97 3f b5 40 e4 3f 3b f1 eb bf ff 73 fb 3d
       1.187239 1.7832247 -1.8432993 0.12277984
000350 88 f1 cb 3e b8 fb 09 40 dd c3 8f 40 51 7f 96 3f
       0.3983271 2.1559887 4.492659 1.1757604
000360 1f 17 e0 bd a0 f5 98 c0 d7 79 5c c0 32 ca 12 c0
       -0.1094191 -4.7799835 -3.4449365 -2.293591
000370 ed f9 6e 3e 9f 13 01 c0 1f 0c 28 3d d0 26 e4 3e
       0.23337527 -2.0168226 0.041027185 0.44560862
000380 c6 f6 e5 3f 28 32 84 3f e6 4f f2 3f 44 b4 8e 3f
       1.7965934 1.0327806 1.8930633 1.1148763
000390 dc 7f a2 3f 8f 69 82 3f 98 1d 8a 3f a6 fa 87 3e
       1.269527 1.0188464 1.0790281 0.26558417
0003a0 29 dd 02 c0 25 c9 39 3d f7 56 e0 3e 03 97 e4 3f
       -2.0447485 0.045357842 0.4381635 1.7858585
0003b0 a6 07 83 3f c4 8b fc 3f 51 f8 6e 3f 38 91 ab 3f
       1.0236709 1.9730153 0.9334765 1.3403692
0003c0 87 d7 90 3f 81 3d 96 3f 61 3c b3 3e ce d8 f9 bf
       1.1315774 1.173752 0.35007003 -1.9519289
0003d0 e7 ff 62 3d 4e 57 d2 3e a3 04 e7 3f 60 7c 83 3f
       0.05541983 0.41082233 1.804829 1.0272331
0003e0 92 0e ec 3f 15 31 22 3f d9 b7 b4 3f d4 83 98 3f
       1.8441947 0.63356143 1.4118606 1.1915231
0003f0 e6 05 9e 3f 92 87 6c 3e 79 c5 00 c0 2c 81 0c 3d
       1.234555 0.23098591 -2.0120528 0.034302875

fc1.bias f4 [400]
000000 6e 1b b3 3e c6 fb b1 3e e6 6c ca 3e ab 10 c5 3e
       0.34981865 0.347624 0.39536208 0.3848928
000010 de 90 98 3f 24 62 b8 3e 9a c7 bb 3e 55 c2 c9 3e
       1.191921 0.36012375 0.3667572 0.39406076
000020 e7 d0 c0 bb 95 9b f1 3f 2c ed bd 3e 8e 63 b7 3e
       -0.005884278 1.8875605 0.3709501 0.35818142
000030 7c 2a bf 3e 96 2b c0 3e d3 56 9a 3e b1 bd bd 3e
       0.373371 0.37533253 0.30144367 0.37058786
000040 67 c2 af 3e d5 6b be 3e 0e 13 c7 3e 97 37 66 40
       0.34328005 0.37191644 0.38881725 3.597143
000050 d5 6b b0 3e 8e 4c c2 3e 0d 1b bf 3e 4a 99 b1 3e
       0.3445727 0.37949032 0.37325326 0.34687263
000060 aa 18 a5 3e 3f b8 c4 3f 21 b5 bb 3e 8e a6 c3 3e
       0.3224538 1.5368727 0.36661628 0.3821301
000070 cb b2 b4 3e e8 06 bc 3e 87 f8 b8 3e f6 9f ab 3e
       0.35292658 0.3672402 0.3612711 0.33520478
000080 38 cc c2 3e b9 b2 bc 3e 59 b7 bf 3e e1 4b b4 3e
       0.38046432 0.36855105 0.3744457 0.3521414
000090 19 27 17 3f f0 42 a5 3e 35 1c c4 3e c5 8d 1a 3e
       0.59044033 0.32277632 0.3830277 0.15093143
0000a0 84 dc bf 3e 2a 5f ee 3e d1 52 b7 3e 56 d4 86 3f
       0.37472928 0.4655698 0.3580537 1.053355
0000b0 c9 c5 ba 3e 48 16 ba 3e cf 32 af 3e d6 2e f9 3e
       0.36479023 0.36345124 0.3421845 0.48668545
0000c0 22 63 c7 3e 0b 4b c1 3e 2f ac 72 40 ba 78 cc 3e
       0.3894282 0.37752566 3.7917593 0.39935857
0000d0 da e3 bd 3e 46 0c a0 3d ff dd b6 3e 0f 6e b8 3e
       0.370879 0.07814841 0.35716245 0.36021468
0000e0 03 60 d2 3e b8 15 c0 3e 6a 51 be 3e 74 30 c3 3e
       0.41088876 0.3751657 0.3717149 0.38122904
0000f0 31 35 c6 3e 4e a5 72 3f a8 30 bd 3e bd f7 bb 3e
       0.38712457 0.94783485 0.36951184 0.36712447
000100 40 41 80 3f 07 eb c1 3e 6e ea 01 3f 60 9c c1 3e
       1.0019913 0.37874624 0.50748336 0.37814617
000110 d1 b0 cf 3e 5d 47 be 3e c6 36 c2 3e 72 07 d0 3e
       0.40564588 0.3716382 0.37932414 0.4063068
000120 95 e5 7e 3f 02 d4 be 3e 4a df c5 3e 90 aa c1 3e
       0.99569064 0.37271124 0.3864692 0.3782544
000130 ae 13 b6 3f ba 83 9b 3e e3 e8 bc 3e a2 00 b8 3e
       1.4224756 0.30373937 0.36896428 0.35937983
000140 d8 9f bb 3e 45 e9 6b 3f 7d 9d c0 3e 20 b7 0c 3f
       0.3664539 0.92152816 0.37620154 0.54966927
000150 8c 85 b7 3e bc a9 c6 3e 29 92 b7 3e 76 8b c8 3e
       0.35844076 0.38801372 0.358537 0.391689
000160 3e b0 c8 3e 9e bf 80 3f 63 7e cc 3e 67 cd c7 3f
       0.39196962 1.0058477 0.39940175 1.5609559
000170 29 a2 e0 3e 67 22 bd 3e 7d 98 b8 3e 55 09 bd 3e
       0.43873718 0.3694031 0.3605384 0.36921182
000180 1c 7e c8 3e dc f1 9c 3e 8f ed bf 3e 3f b0 d4 3e
       0.39158714 0.30653274 0.3748593 0.41540715
000190 bd f0 c7 3f 10 7d c4 3e 6a 7d b1 3e c9 bc aa 3e
       1.5620342 0.38376665 0.34665996 0.33347157
0001a0 03 bb bf 3e 6b b0 bb 3e 56 8c b8 3e 20 84 bf 3e
       0.37447366 0.36658034 0.36044568 0.3740549
0001b0 9d 04 c1 3e 40 2b be 3e aa 10 b5 3e 5d fb b8 3e
       0.37698832 0.37142372 0.35364276 0.36129275
0001c0 89 5a af 3f 45 45 c3 3e 8d b3 ee 3e 54 d8 4f 3f
       1.3699504 0.38138786 0.4662136 0.81189466
0001d0 a6 8d b0 3f 5d 41 ab 3e af 57 a9 3e 0c 20 bd 3e
       1.3793228 0.33448306 0.3307471 0.36938512
0001e0 76 cc c8 3e e5 5a b2 3e aa bc b1 3e c1 b0 c4 3e
       0.3921849 0.34834972 0.34714252 0.38416103
0001f0 bc 49 e9 3e 7f bc af 3e ba 6b 82 3e a0 f2 bf 3e
       0.45564067 0.343235 0.25472814 0.37489796
000200 07 00 b4 3e c7 b9 c2 3e 36 dd f9 3e 0f 4c ba 3e
       0.3515627 0.38032362 0.48801583 0.36386153
000210 65 30 b1 3e b9 04 e1 3f c0 08 c6 3f 2a 8f c7 3e
       0.34607235 1.7579566 1.547142 0.38976413
000220 fb 4e bf 3e 2d 76 c2 3e 3b 5d bc 3e c0 0b 09 3f
       0.37364945 0.37980786 0.3678988 0.53533554
000230 7e a6 bd 3e 47 3c d1 3e e6 1e bd 3e c7 2e c0 3e
       0.37041086 0.408663 0.36937636 0.37535688
000240 c2 af cb 3e 75 30 c8 3e 97 8d 6e 3e 2d e8 c7 3e
       0.3978253 0.3909947 0.232962 0.39044324
000250 3e c3 ba 3e 30 a7 bb 3e f3 84 8f 3f 5c ac b7 3e
       0.36477083 0.3665099 1.1212448 0.35873687
000260 ae af cb 3e aa eb c3 3e fb 9f c3 3e cd 5a be 3e
       0.3978247 0.38265735 0.38207993 0.3717865
000270 a5 61 ee 3d ad 9e cd 3e 52 96 b6 3e 6a 10 76 bf
       0.11639718 0.40160123 0.3566156 -0.96118796
000280 b9 46 c8 3e cd 7e be 3e 20 45 c5 3e b6 82 cc 3f
       0.39116457 0.37206116 0.385293 1.597739
000290 b4 98 bf 3e 29 3d be 3e c1 ec ea 3f e4 21 bd 3e
       0.3742119 0.37156036 1.8353502 0.3693992
0002a0 b3 d4 b3 3e 3a f3 be 3e 93 63 80 3f ee dd c7 3e
       0.35123214 0.37294942 1.0030388 0.39036506
0002b0 61 fa f7 3e 5b 6a 9b 3e 1a c7 d1 3e 83 14 c1 3e
       0.4843321 0.3035458 0.40972215 0.37710962
0002c0 9a 1b bc 3e 78 b5 b2 3e 02 e0 48 3f 1f a9 c0 3e
       0.36739808 0.34904075 0.7846681 0.3762903
0002d0 99 c5 a3 3e d4 d2 c8 3e 28 9c b5 3e 96 6c 0e 40
       0.31986693 0.3922335 0.354707 2.2253776
0002e0 e5 9d b1 3e b6 d8 c9 be 46 b1 bf 3e 2c 95 bb 3e
       0.34690776 -0.3942315 0.37439936 0.36637247
0002f0 8a d9 c4 3e 69 33 b6 3e 1a ee be 3e f4 53 02 40
       0.3844722 0.35586098 0.37291032 2.036374
000300 8f 1b ca 3e e8 79 d8 3f 03 fd 0b 3f 81 8c c6 3e
       0.3947415 1.6912203 0.5468294 0.3877907
000310 95 eb 78 be ec b7 c1 3e 7b e0 09 3f dd a1 b7 3e
       -0.24308617 0.37835634 0.53858155 0.3586568
000320 c1 9c c3 3e e5 98 b4 3e a0 1c ce 3e b4 76 c7 3e
       0.3820553 0.352729 0.40256214 0.3895775
000330 bc 4d c0 3e f5 62 af 3e 54 13 bb 3e 72 35 c2 3e
       0.37559307 0.34255186 0.36538184 0.379314
000340 cc f4 92 3c 1f a0 bb 3e ed 01 d0 3e 7f 46 b9 3e
       0.017938994 0.366456 0.4062647 0.36186597
000350 06 f4 cf 3e fc 00 c6 3e e6 63 bd 3e fa 7d c1 3e
       0.40615863 0.38672626 0.3699028 0.37791425
000360 7e 04 c4 3e fe a1 b6 3f 09 db d7 be 7b 7a c4 3e
       0.38284677 1.4268186 -0.42159298 0.38374695
000370 6c 0e bd 3e 1f b6 cf 3e ed f9 a8 3e 72 3c cf 3e
       0.36925066 0.40568635 0.33003178 0.40475804
000380 73 cb a6 3e 5f 11 4c 3f e1 6c b5 3e 29 61 9f 3e
       0.32577094 0.79714006 0.3543463 0.31128815
000390 f2 62 bb 3e 62 03 a9 3e 1d 58 f2 3f 5f be b8 3e
       0.36598927 0.33010393 1.893314 0.36082742
0003a0 72 be c1 3e 52 8a bf 3e 03 35 c8 3e 2a 64 bd 3e
       0.3784061 0.37410218 0.39102945 0.36990482
0003b0 9c e6 c5 3e 1d 58 d7 3e 21 15 bb 3e e4 31 7a 3e
       0.38652503 0.42059413 0.36539558 0.24433094
0003c0 f1 b9 c2 3e 28 62 a3 3e 4d 36 c2 3e bc 2b be 3e
       0.38032487 0.31910825 0.37932053 0.37142742
0003d0 93 9b bb 3e 12 d4 eb 3e c7 60 06 40 91 02 ca 3e
       0.3664213 0.46060234 2.0996568 0.39455083
0003e0 d4 50 b7 3e e7 55 ca 3e e7 18 59 3f df 00 bb 3e
       0.35803854 0.39518663 0.8480362 0.36524102
0003f0 b9 20 12 3f 90 08 c4 3e 4a 26 bf 3e be 43 bc 3e
       0.5708118 0.38287783 0.373339 0.36770433

fc2.weight f4 [300, 400]
000000 78 91 e4 26 11 02 00 00 44 13 3b be 80 3e d7 bb
       1.5860107e-15 7.41e-43 -0.18269068 -0.00656873
000010 18 ac fd bd f4 be f7 0a b1 01 00 80 c9 00 00 80
       -0.1238634 2.3857063e-32 -6.07e-43 -2.82e-43
000020 23 76 43 bf e0 9f 81 3e ce 00 00 80 dd a8 a1 bd
       -0.7635214 0.25317287 -2.89e-43 -0.07893536
000030 e7 00 00 80 20 03 00 00 63 75 96 35 1a 00 0a 3e
       -3.24e-43 1.121e-42 1.1210035e-06 0.13476601
000040 45 28 e1 33 8a 04 00 80 d3 85 bc 3c 21 e5 b0 be
       1.0484704e-07 -1.628e-42 0.023013031 -0.3454981
000050 5e 71 d2 26 89 23 3c 3b 7a 7f 37 bd 15 22 61 3c
       1.4602405e-15 0.0028707704 -0.044799305 0.013741036
000060 93 26 e1 0f ec d5 cd be fb 1d cb 3d 7c 1e 8e 3b
       2.2201571e-29 -0.40202272 0.09917828 0.00433713
000070 c7 01 00 80 b6 00 00 80 79 1e fc bc 59 04 00 00
       -6.38e-43 -2.55e-43 -0.03077625 1.56e-42
000080 aa 54 66 3b 62 08 89 89 af 00 00 80 c5 00 00 00
       0.0035145679 -3.2989433e-33 -2.45e-43 2.76e-43
000090 10 02 00 00 9a 00 00 80 3a f1 9d bc 1c ca 5b bf
       7.4e-43 -2.16e-43 -0.019280065 -0.8585527
0000a0 0c 02 00 00 a4 89 cb bc 21 21 a4 91 e2 cd a3 3d
       7.34e-43 -0.024845906 -2.5895055e-28 0.079982534
0000b0 e3 07 00 80 71 23 0f 3c 74 e8 e5 bc 5c 06 00 00
       -2.829e-42 0.008736477 -0.028064944 2.281e-42
0000c0 3a a3 4d 17 1f d6 2d 36 60 34 97 bd eb 02 00 80
       6.6445093e-25 2.5903644e-06 -0.073830366 -1.047e-42
0000d0 16 02 00 00 af db 88 bf d4 01 00 80 48 01 00 80
       7.48e-43 -1.0692042 -6.56e-43 -4.6e-43
0000e0 45 e3 aa 2b b4 00 00 80 10 ad 8c bb 6e 78 4a bd
       1.2142306e-12 -2.52e-43 -0.0042930916 -0.049431257
0000f0 71 b0 23 8b 58 19 bd be 85 02 00 80 c5 00 00 00
       -3.1525398e-32 -0.36933398 -9.04e-43 2.76e-43
000100 48 16 79 bc 98 09 00 80 9c 57 3f bc 89 8a 8c 35
       -0.015203066 -3.442e-42 -0.011678603 1.0471132e-06
000110 2d 75 97 3a 17 48 0d bc 68 cc 6e bb 6a 2b 30 11
       0.0011555307 -0.008623145 -0.0036437754 1.389733e-28
000120 1b 67 99 bd 81 01 00 80 49 00 00 80 06 01 00 80
       -0.07490369 -5.4e-43 -1.02e-43 -3.67e-43
000130 09 ad 07 be 30 69 fe b9 4e 03 00 00 b3 d7 9b bd
       -0.13249601 -0.00048525026 1.185e-42 -0.07609501
000140 f2 02 00 00 30 0c b3 3c 37 02 00 00 07 32 1d 3c
       1.057e-42 0.021856397 7.95e-43 0.009594447
000150 e0 04 f5 b5 c9 2d 93 3c d4 03 00 00 ed 61 e1 bd
       -1.8255341e-06 0.017966168 1.373e-42 -0.11005006
000160 17 10 00 00 21 41 cc 3c bf 04 00 80 87 e6 bd bc
       5.772e-42 0.0249334 -1.703e-42 -0.023181213
000170 0c 04 00 00 d4 01 00 80 24 d3 d0 3c 3f 06 00 80
       1.452e-42 -6.56e-43 0.025491305 -2.24e-42
000180 2b 00 00 80 22 04 4d be a3 01 00 80 74 00 00 80
       -6e-44 -0.20021108 -5.87e-43 -1.63e-43
000190 45 9c 36 c0 8f 01 00 00 2c 14 14 32 72 5e c8 3c
       -2.853288 5.59e-43 8.61932e-09 0.024459098
0001a0 f0 01 00 00 1c 28 da 10 ee e5 43 3b 7a 73 a0 3b
       6.95e-43 8.6047637e-29 0.0029891687 0.0048965784
0001b0 48 a7 6f ba 29 08 00 80 69 00 00 00 12 01 00 00
       -0.00091420533 -2.927e-42 1.47e-43 3.84e-43
0001c0 14 ce 7b be 87 d3 69 bb d2 00 00 80 5b 2e c0 bd
       -0.24590331 -0.0035679059 -2.94e-43 -0.093838416
0001d0 e0 dd 12 be 37 00 00 00 6a 02 00 00 a2 4f 88 37
       -0.14342451 7.7e-44 8.66e-43 1.6249545e-05
0001e0 45 03 00 80 31 36 88 37 5a 04 00 00 5f 0b 00 00
       -1.173e-42 1.6237698e-05 1.561e-42 4.079e-42
0001f0 ac 05 4e bb ae a3 eb bd 5c 7c 8d bb 0f 01 00 00
       -0.0031436486 -0.11505829 -0.0043178033 3.8e-43
000200 d9 50 d5 3d 57 04 00 80 ce 8e 85 ad 07 01 00 00
       0.10415811 -1.557e-42 -1.5183767e-11 3.69e-43
000210 20 d2 80 3c 8a 09 2c bf 05 be 98 3e 01 72 47 b6
       0.015725195 -0.67202055 0.29832473 -2.971967e-06
000220 8c 06 00 00 07 5e 04 38 57 a3 c7 3b e0 79 81 bd
       2.349e-42 3.1558822e-05 0.0060924697 -0.06322074
000230 2b b5 12 b9 74 20 6d 38 99 98 63 3c 7f 42 4b be
       -0.00013991135 5.6535428e-05 0.013891363 -0.19849585
000240 a3 3c e7 3a 7c 06 00 00 c4 e6 2c bf 6e 00 00 80
       0.0017641973 2.326e-42 -0.6753962 -1.54e-43
000250 1b 21 31 3b cc fc 99 3c 0a 8e 2f bf 91 ec d3 3c
       0.002702779 0.0187973 -0.6857611 0.02586964
000260 53 d5 cb 36 b2 f3 1b 1d 21 15 dc 34 a4 07 00 00
       6.0747057e-06 2.0640067e-21 4.0993567e-07 2.741e-42
000270 18 75 d3 bf 03 15 aa bc 33 02 00 80 fa b8 91 bf
       -1.6520109 -0.020761972 -7.89e-43 -1.1384575
000280 b5 00 00 00 12 8c 0a 25 ec 06 ce 1d 17 a3 e6 3e
       2.54e-43 1.201705e-16 5.4534903e-21 0.45046303
000290 5a 00 00 00 83 2e 5e 8f 3e b6 75 bf 3e e1 b4 08
       1.26e-43 -1.0954403e-29 -0.95981205 1.088631e-33
0002a0 74 e2 93 af dc 00 00 80 05 58 2d c0 50 d6 0e bc
       -2.690005e-10 -3.08e-43 -2.7084973 -0.008718088
0002b0 1a bc a9 bb f1 a9 cf 39 10 87 17 32 5b 05 00 00
       -0.005179894 0.00039608733 8.8200665e-09 1.921e-42
0002c0 7a 3a f7 b4 b7 00 00 00 27 15 d8 bc 1d b4 25 38
       -4.6049882e-07 2.56e-43 -0.026377274 3.950681e-05
0002d0 2b e5 24 3a 38 00 00 80 c2 04 00 00 ef f3 6a bf
       0.0006290252 -7.8e-44 1.707e-42 -0.91778463
0002e0 76 05 00 80 fa 5c 9d bf b8 00 00 80 3c 8b e8 07
       -1.959e-42 -1.2293999 -2.58e-43 3.4989315e-34
0002f0 17 40 bb 3a 05 3a 39 bd e6 00 00 80 0b 05 7d 3e
       0.0014286068 -0.045221347 -3.22e-43 0.24708955
000300 87 01 00 80 76 33 b6 be cd 28 6f bd e6 01 00 80
       -5.48e-43 -0.35586137 -0.05838852 -6.81e-43
000310 3a 20 0c bd 4d 07 00 80 94 de 5e bd 68 e8 0b 28
       -0.03421042 -2.619e-42 -0.054411486 7.766445e-15
000320 a5 f1 83 bc fb 00 00 00 0b 00 00 80 16 29 98 3b
       -0.016106436 3.52e-43 -1.5e-44 0.0046435697
000330 86 5c 04 3c 11 5e 04 3d 48 74 06 3d 11 d8 0d b6
       0.0080787 0.03231627 0.03282574 -2.1136404e-06
000340 fc 19 85 3c c2 1a 54 35 61 3e 4b 3b 1a 6d f4 2e
       0.016247742 7.901509e-07 0.0031012523 1.1115216e-10
000350 1c 02 00 00 74 1d 0f be 20 30 a2 1e 47 95 4f bc
       7.57e-43 -0.13976079 1.7172321e-20 -0.012669868
000360 ca af b5 08 7f b5 28 bd 26 6f d9 bf 1a 63 31 b6
       1.0934869e-33 -0.041188713 -1.6987045 -2.643274e-06
000370 93 39 8a b7 6c 44 49 3d 73 a3 79 3d 4e 3a 39 bc
       -1.6477692e-05 0.049137518 0.060946893 -0.011305405
000380 5d a8 48 1a 0a 02 00 00 55 60 0a ba 9c 6a 09 bb
       4.1495033e-23 7.31e-43 -0.0005278637 -0.0020968085
000390 5f 76 1a bb a3 17 b8 2e 59 d3 92 be dc 47 b6 bd
       -0.002356909 8.37155e-11 -0.2867687 -0.08900425
0003a0 c6 1b e3 ba bb 00 00 00 49 87 a4 ba e1 95 41 be
       -0.0017327003 2.62e-43 -0.0012552525 -0.1890483
0003b0 cf 05 00 00 63 02 00 80 40 a4 0a 3d fe 72 ca bc
       2.084e-42 -8.56e-43 0.033848047 -0.024713036
0003c0 13 05 00 80 ae 9d 0e be 34 b0 a9 8a 75 02 00 80
       -1.82e-42 -0.13927338 -1.6340388e-32 -8.81e-43
0003d0 70 00 00 00 84 02 00 80 8f 6f 2d bf 2f a7 70 30
       1.57e-43 -9.02e-43 -0.6774835 8.7549074e-10
0003e0 8e c2 37 3b 95 01 00 00 e0 15 10 3e d0 ff 81 10
       0.0028039548 5.68e-43 0.14070845 5.127567e-29
0003f0 47 bd 96 be 7f 01 00 00 b1 ea 01 bd 64 02 00 80
       -0.29441282 5.37e-43 -0.03171796 -8.58e-43

fc2.bias f4 [300]
000000 20 50 05 3d 1e 37 04 3f b2 b9 82 3c 90 a8 a3 bf
       0.032547116 0.516466 0.015957687 -1.2785816
000010 9e 41 23 3f b5 07 84 bd 7f 07 27 3e 31 eb ba 3d
       0.63772 -0.064467825 0.16311453 0.091268905
000020 ba a6 27 3e d5 21 64 bf 5c ed c0 bf 4a 72 11 3e
       0.16372195 -0.89114124 -1.5072436 0.14203754
000030 c5 bf 15 bf 03 7a 3d 3e 91 1e fb be 9a 3a 34 3e
       -0.5849574 0.18503575 -0.49046758 0.1760048
000040 20 e4 14 bf d3 64 c2 bf 84 29 2b be f9 1f 43 3f
       -0.5816059 -1.5187019 -0.16715056 0.7622066
000050 a2 c8 4b 3e 5c e6 05 3b a8 92 39 bf 71 b2 92 bc
       0.19900754 0.0020431494 -0.72489405 -0.017907353
000060 43 50 67 bf e6 ec 1a 3e 88 d8 eb bf 67 d3 c8 3d
       -0.90356845 0.15129432 -1.8425455 0.09805947
000070 30 c6 47 bf be 84 75 3e bf bd 0b be 1c 86 19 be
       -0.78036785 0.23976418 -0.13646601 -0.14992565
000080 59 38 38 3e 55 a5 dc be b7 08 28 bf c2 b3 a7 3d
       0.17990245 -0.43094888 -0.656383 0.08188583
000090 c3 e3 ce 3d 23 93 ae 3e e7 e7 48 3e 0f 1e 08 bf
       0.10102036 0.3409663 0.19619714 -0.53170866
0000a0 0c d5 0b bf b1 55 0d bf a4 1b 99 bc fd 84 41 bf
       -0.5462196 -0.5520888 -0.018689938 -0.7559355
0000b0 a0 56 56 bf 65 5c 4d 3e 3f 51 a7 be 65 c3 29 bf
       -0.8372593 0.20054777 -0.32679173 -0.66313773
0000c0 d6 78 5e 3f d7 a5 19 bf c5 a8 2c 3e 7b 45 8d 3f
       0.8690313 -0.60018677 0.16861255 1.1036829
0000d0 2b 20 77 bf 7c 5e 0c bf 2c bf 51 bf e3 c3 1e be
       -0.9653346 -0.5483167 -0.8193233 -0.15504412
0000e0 ee b3 a9 bf 40 a5 97 3e 89 63 1b bf 0d 19 c6 be
       -1.3258035 0.29618263 -0.60698754 -0.38690987
0000f0 d6 3b 5a bf d1 69 1a 3e 37 bc c3 3f 8b e3 98 bf
       -0.8524755 0.15079428 1.5291814 -1.1944441
000100 84 e4 1a 3d c4 2c dd bd 5c 2b f4 3e 58 ef f0 bf
       0.037815586 -0.10799554 0.4768933 -1.8823042
000110 c3 d5 f8 3d 71 0f b1 3e c9 3c 61 3f 99 e2 97 bf
       0.12150147 0.34582093 0.87983376 -1.1866027
000120 f5 29 90 be f6 2b 50 c0 84 5f 4c 3f 91 f3 ae bd
       -0.2815701 -3.2526832 0.79833245 -0.0854255
000130 fa 77 fb 3d 65 28 9a 3e df 44 7d bf 5b 64 03 bd
       0.12278743 0.30108944 -0.98933214 -0.03207813
000140 5a 48 56 3e ac f9 31 3e 06 26 f9 bd be 03 8d be
       0.20926037 0.17380399 -0.121654555 -0.27541918
000150 11 4e b0 bf cd 7e 1f be 67 74 8b bf 6d d0 31 3e
       -1.3773824 -0.15575714 -1.0894898 0.17364664
000160 4f 31 c7 3e 67 63 7c be f1 4a 56 3e d6 40 28 bf
       0.38904807 -0.24647294 0.20927025 -0.6572393
000170 fa e3 df bf 5d f1 21 bf 16 cf 65 bf 5e 71 31 3e
       -1.7491448 -0.63258916 -0.89769113 0.17328402
000180 f2 28 d5 3e 8c 54 c1 bd be be 41 bf 1f 50 e9 3e
       0.416328 -0.09439954 -0.75681674 0.4556894
000190 c0 c8 61 be 57 6a f6 be 5d fe df 3d 51 93 2d bf
       -0.22049236 -0.48128006 0.10937188 -0.6780291
0001a0 26 cb 4b 3f 03 d1 68 3d 36 9d e8 bd b3 db e0 be
       0.79606855 0.056839954 -0.113581106 -0.43917617
0001b0 06 58 ad 3c 64 bb 39 be 47 ec 58 be eb 1c b3 bd
       0.021160137 -0.1813789 -0.21183883 -0.0874575
0001c0 b2 77 e8 be 89 ae 52 3e 02 d9 45 bf aa e4 3a 3e
       -0.4540382 0.20574392 -0.7728425 0.18251291
0001d0 3b 60 1f 3f 97 8c 1d 3e d8 13 32 bf 06 7d 04 bf
       0.6225621 0.15385662 -0.6956153 -0.5175327
0001e0 ff a8 5c 3f 01 d7 94 3d 37 a2 1e 3e 10 21 2d be
       0.8619537 0.07267571 0.15491568 -0.16907144
0001f0 16 09 1c 3c da ce b1 bd 01 21 1a 3e 24 8f 2b be
       0.009523651 -0.08682032 0.15051652 -0.16753823
000200 07 38 0a 3e ad 2a c4 bd 55 25 25 3e 6e 85 54 bf
       0.13497935 -0.09578452 0.16127522 -0.830161
000210 80 24 9b be 9f 60 0f 3e 42 79 54 3e 4a 5a 26 bf
       -0.30301285 0.14001702 0.20749381 -0.6498152
000220 13 12 bc bf 6c 39 4b 3d 71 ac 21 be 34 80 2a bc
       -1.4693016 0.04961531 -0.15788437 -0.010406543
000230 28 74 b2 bf e3 39 fc 3d d7 94 85 3e 16 9e 11 3f
       -1.3941698 0.123157285 0.26090118 0.56881845
000240 81 bb 50 3f b4 05 1f 3f 07 92 15 3e 44 8f d5 3d
       0.8153611 0.6211808 0.14606486 0.104277164
000250 34 2e 4e be 2e 97 75 bf 90 71 88 3f 01 df 0c 3e
       -0.20134813 -0.95933807 1.0659657 0.13756944
000260 ac d0 81 3f fe cc e2 bc a3 91 3b bf d2 44 36 be
       1.0141807 -0.027685639 -0.732691 -0.1779969
000270 12 67 55 3e 90 ca a4 bd fa 7c dc be ca 2b 67 bf
       0.208401 -0.08046448 -0.430641 -0.9030119
000280 96 63 49 bf 8e 34 bd bc 83 95 eb bd 5c d0 c4 3d
       -0.7866758 -0.02309635 -0.115031265 0.09610054
000290 e6 cd 4e 3e ce 31 28 bf 27 2a cd bd c4 31 8d 3e
       0.20195732 -0.65700996 -0.100178055 0.2757703
0002a0 80 25 fa 3f 11 b2 4e bf 85 ec 23 3e 17 8a 75 bf
       1.9542694 -0.8074046 0.16008194 -0.95913833
0002b0 7e d9 8b be e4 22 3b bf 36 53 d5 3d 44 0c 81 be
       -0.2731437 -0.73100114 0.10416262 -0.2520467
0002c0 f9 a2 37 c0 06 be 9c be 91 2d 35 3e 44 b1 04 be
       -2.869322 -0.30613726 0.17693163 -0.12958246
0002d0 ac 54 41 3e e3 6b 37 bf aa c7 b4 3d 7f 51 95 be
       0.18879956 -0.71649 0.088271454 -0.2916374
0002e0 8a 35 fd 3d d9 49 0e be d3 49 b9 be 6b 55 df be
       0.123637274 -0.13895358 -0.36189136 -0.43619856
0002f0 79 ad 19 bf 05 ff c6 3e 81 ce 06 bf 5f 21 6f bf
       -0.60030323 0.3886644 -0.5265885 -0.93410295
000300 13 4f 78 3f 29 01 07 bf 83 33 23 3e 1d 58 a7 3e
       0.9699566 -0.52736145 0.15937619 0.32684413
000310 5f ae 0b 3e 25 1f 6f 3e 49 c0 8d 3f b9 ec 85 bf
       0.13640736 0.23351724 1.1074306 -1.0462867
000320 0c 6c 88 3e a1 c5 40 3e 1f 8d f8 3e c4 25 46 be
       0.26644933 0.1882539 0.48545167 -0.19350344
000330 b8 d5 0a 3f 5f dc fd be 33 47 62 3f 6c eb 40 3d
       0.5423236 -0.49582192 0.8838989 0.047099516
000340 ee a1 58 bf ce af 33 bf d3 b5 09 3d 25 1a 65 3e
       -0.84622085 -0.7019013 0.033620667 0.22373255
000350 39 fc 6f 3d 88 64 24 3e b0 a0 73 bd 29 47 46 be
       0.058590148 0.16053975 -0.059479415 -0.19363083
000360 9e 67 1f be eb 37 dc bf 92 2a 36 be 30 9a f0 3d
       -0.1556687 -1.7204565 -0.17789677 0.11748159
000370 1a cd b0 bd a7 ff 40 bf 23 57 13 3d 21 13 78 3d
       -0.0863287 -0.75390095 0.035971772 0.060565118
000380 d9 e3 b0 bd 5b 23 61 3f c7 9e 3f bf 01 34 95 be
       -0.086372085 0.87944573 -0.7485165 -0.29141238
000390 cb 0f ca be 24 de 13 bf 16 0f 25 3e ed b3 e9 bd
       -0.39465174 -0.57760835 0.16119036 -0.11411271
0003a0 4b ca 1f be fe 07 b4 bf 0e 62 1c 3f 20 1b 51 3e
       -0.15604512 -1.4064939 0.6108712 0.20420504
0003b0 aa 5e e6 3d 18 50 b2 be 0e b1 b6 be a6 91 ca bd
       0.112485245 -0.34826732 -0.35681957 -0.098910615
0003c0 41 d3 04 bf 11 43 3f 3e ef 7b 1b bf 0b 98 43 3e
       -0.5188485 0.18677928 -0.6073598 0.19100969
0003d0 cc 46 78 c0 10 cf 01 3f 0f 00 a5 be c2 f4 d4 be
       -3.879321 0.5070658 -0.32226607 -0.41592985
0003e0 aa 17 f6 be 6d d0 44 3e 90 e2 d5 3f 30 44 3b 3f
       -0.4806493 0.19220133 1.6709766 0.7315092
0003f0 18 40 28 bf 9d f6 11 3e 51 e6 f4 3f 59 74 35 bf
       -0.657228 0.14254232 1.9132787 -0.7088066

bn1.weight f4 [400]
000000 16 e3 19 3b 4e 90 7e 39 f8 8c 4a 3e 21 d9 83 bb
       0.00234813 0.00024277085 0.19780338 -0.0040236865
000010 11 b2 85 3f 75 c8 1e 3c 01 9e cf b8 49 00 00 00
       1.0444967 0.009691347 -9.89996e-05 1.02e-43
000020 f2 6b 27 40 d6 86 5c 40 f0 0e 30 aa fa d1 88 bb
       2.6159635 3.4457297 -1.5637123e-13 -0.004175422
000030 1a 43 3d b8 72 9f 81 b0 23 33 ba 3c 02 61 bb 3d
       -4.5123605e-05 -9.431302e-10 0.022729462 0.09149362
000040 26 89 85 3c da 8a 25 80 ce c0 a2 bc 39 a4 b8 40
       0.016300749 -3.447724e-39 -0.019867327 5.7700467
000050 61 c5 bd ba 1b cb cb bc dc 55 20 bc a8 c8 bd 3c
       -0.0014478379 -0.024877122 -0.0097860955 0.02316697
000060 23 06 4a bb 50 b6 89 3e 07 83 c7 3d 76 63 08 3b
       -0.0030826412 0.26896906 0.09741788 0.0020811236
000070 f6 20 cf 36 a6 8b 62 00 31 96 ab bc f2 e7 a5 2d
       6.172918e-06 9.049975e-39 -0.02094564 1.8861333e-11
000080 f2 11 63 bc 68 cf f8 8c d4 ae d9 bb 79 e1 95 bb
       -0.013859259 -3.8335278e-31 -0.0066431556 -0.0045739976
000090 12 e6 28 bb cb 46 8d bb 08 29 e1 bc 5b f9 e6 3f
       -0.0025771898 -0.0043114177 -0.027485386 1.8044847
0000a0 df a2 46 bb b0 e1 ee 40 c6 d1 40 12 93 f0 ab 3f
       -0.003030948 7.4650497 6.0843083e-28 1.3432792
0000b0 1d 00 00 00 ad 03 dc 3b fb 9b 39 bc 12 00 00 00
       4e-44 0.0067143054 -0.011328693 2.5e-44
0000c0 c6 f6 b5 bb cc 5a 61 bc 10 f5 cc 40 c7 01 00 80
       -0.0055530993 -0.013754558 6.404915 -6.38e-43
0000d0 3b 9b 82 3a 71 f6 1e 40 31 b9 7b bc b9 27 54 bb
       0.0009964475 2.4837916 -0.015363977 -0.003237231
0000e0 1d 86 9f bc 5f 06 45 a8 10 cc 01 bc 9b d5 3d 3c
       -0.01947313 -1.0937078e-14 -0.007922187 0.011586572
0000f0 95 3b 71 0b d8 33 17 40 f5 22 52 b7 e8 1d 16 ba
       4.6459736e-32 2.3625393 -1.25251145e-05 -0.0005726502
000100 ea 3f e9 3c 95 01 00 00 cc a4 d9 3e 28 2a 4d bc
       0.02847286 5.68e-43 0.42508543 -0.012522258
000110 8c 4e b8 bc e2 73 81 bb 26 4b 69 bc 85 a0 1d bc
       -0.022498392 -0.003950582 -0.014239108 -0.00962079
000120 08 18 48 3f 9d 18 99 ac 7b 5d 98 a1 85 33 c4 b6
       0.7816167 -4.351254e-12 -1.0324665e-18 -5.847253e-06
000130 e5 78 c0 3f c1 42 03 bd 8c 00 00 00 bd a1 3a bc
       1.5036894 -0.032046083 1.96e-43 -0.0113911005
000140 08 2c d2 a2 10 6a 13 bf 4a 7f 3f af 2c 0f 97 bd
       -5.6967234e-18 -0.57583714 -1.7416571e-10 -0.07375941
000150 51 ff f5 bb 37 47 5b bb 9c cd a6 36 6b 50 25 3d
       -0.0075072427 -0.0033459195 4.9711216e-06 0.040359896
000160 09 d7 93 b0 af 03 a2 bf 37 f2 45 aa 79 26 4b 40
       -1.0756774e-09 -1.2657374 -1.758115e-13 3.1742232
000170 d9 ea 29 8c cf 86 82 bc 5e 35 e3 bb b5 df 14 a7
       -1.3089958e-31 -0.015933422 -0.006933852 -2.0660398e-15
000180 05 0a c9 ba 15 72 dc 3d 14 e2 75 b7 e8 4a bf ba
       -0.0015338069 0.10763947 -1.4655776e-05 -0.0014594467
000190 bd 84 a9 40 7a 02 fd 39 f6 ab 26 bc 85 05 d9 3d
       5.2974534 0.00048257766 -0.010172835 0.10596756
0001a0 0c 79 9a ba 3f d8 53 3a ff 59 bd ba 86 e5 60 bd
       -0.0011785342 0.00080812344 -0.0014446377 -0.05490639
0001b0 49 f8 dc 3b 7a 01 00 00 6d e8 48 bb c9 9a 3c ba
       0.006743465 5.3e-43 -0.0030656115 -0.00071946956
0001c0 7b 46 79 40 a7 66 a8 bc f3 d3 8f a7 07 ef 67 3e
       3.8949268 -0.020556761 -3.992027e-15 0.22649775
0001d0 bb 9e cf 3e d4 e9 60 34 35 73 03 bb 4b 2b 18 bc
       0.4055079 2.0946692e-07 -0.0020057682 -0.009287666
0001e0 55 00 00 80 af 0a e3 b2 e7 78 02 80 44 00 00 80
       -1.19e-43 -2.6431136e-08 -2.27043e-40 -9.5e-44
0001f0 c5 72 87 bc 74 96 05 3d 17 a6 1a 3e 64 08 72 bc
       -0.016534219 0.032614186 0.15102421 -0.014772508
000200 03 81 e5 3d a7 50 73 ae dc b0 25 af 3b 77 67 b2
       0.11206248 -5.5323437e-11 -1.5069496e-10 -1.34730795e-08
000210 5d 95 8e bc ba c6 ae 40 d6 8a 44 40 30 ee 66 bb
       -0.017405206 5.4617586 3.0709739 -0.0035237186
000220 0c 01 00 80 ec 21 d9 ba b6 a4 47 bc 44 2e f9 3e
       -3.76e-43 -0.0016565896 -0.012185266 0.4866811
000230 53 93 e2 bc 06 25 02 bd 7c dc 1b bb 2c 38 35 3e
       -0.02765814 -0.03177359 -0.0023782542 0.17697209
000240 5a 04 dd b9 ad 00 00 80 e7 ab 38 41 5a 1b 79 b5
       -0.00042155647 -2.42e-43 11.541968 -9.279953e-07
000250 b5 ad 0d 3a 3b bb dc 3a 72 de 4a 40 bc e2 17 bc
       0.00054046075 0.0016840467 3.169827 -0.009270366
000260 e9 52 95 bc a9 b2 00 3b 5f 77 10 bc ad 34 c1 91
       -0.018228011 0.001963774 -0.008817523 -3.0482495e-28
000270 1e 5f 66 c0 10 ba 81 bb 73 f8 1c b6 7a 0a 27 40
       -3.5995555 -0.003958948 -2.3390428e-06 2.6100144
000280 67 9e 93 b8 88 bf 8d 27 9e 03 c2 ba 83 9f de 3f
       -7.039011e-05 3.934302e-15 -0.0014802103 1.7392429
000290 7c b9 7b b5 91 39 97 bc 3a ec a8 3f 05 69 c4 8f
       -9.37747e-07 -0.018460067 1.3197091 -1.9367544e-29
0002a0 90 83 a3 bc 73 71 86 ba ee 93 c5 40 a8 d1 c5 bb
       -0.019960195 -0.0010257199 6.174308 -0.006036956
0002b0 28 14 86 bb 41 e9 60 bc 13 e5 7c bc 45 f3 89 ba
       -0.0040917583 -0.013727487 -0.015435475 -0.001052477
0002c0 58 f8 2e bc e6 05 a6 3b 14 02 02 3f 68 b8 dc bc
       -0.010679327 0.005066621 0.5078442 -0.0269434
0002d0 23 ba 1f bd b8 3f 10 31 c3 8b b0 94 b9 e9 bb 40
       -0.038995873 2.0990978e-09 -1.7826585e-26 5.8722806
0002e0 e7 00 00 80 bc 75 1b 40 b9 4f dd b6 f4 8e 6d ba
       -3.24e-43 2.429061 -6.595594e-06 -0.0009062134
0002f0 9d d5 39 bc de a9 dd 3a 42 e3 9e ba b9 8a 04 40
       -0.011342433 0.0016911586 -0.0012122171 2.070967
000300 f0 5a 4a b8 42 19 db 3f 62 58 99 3e 3f c8 53 b8
       -4.8245245e-05 1.7117083 0.29950243 -5.0492814e-05
000310 47 eb a3 40 66 a8 1f 0c 8a 41 32 3f 08 a1 4a bc
       5.1224704 1.229959e-31 0.69631255 -0.012367494
000320 08 75 0a bc 6b dd 67 bb 7f ed 5a ba e9 7b 8b bc
       -0.008450754 -0.0035379778 -0.000835143 -0.017026858
000330 10 10 eb bc 99 03 03 3c 9a e5 66 3b e8 e0 9d bb
       -0.028694183 0.007996463 0.0035232068 -0.0048180707
000340 88 5c 2e 40 7c 02 63 b8 25 79 0d 3b 3f 1d 63 3b
       2.7243977 -5.412333e-05 0.00215871 0.0034654883
000350 c6 8f 04 bb 69 d0 bd 3d cf 4d b7 3b 8a b2 2a 3c
       -0.0020227297 0.09268267 0.0055939923 0.010418544
000360 e3 eb a3 bb 2c 9e ae 3f 0c f2 6c 40 02 e3 58 bc
       -0.005002485 1.364202 3.7022734 -0.013237717
000370 cc 70 7f b9 ca 73 2c 3f 40 66 f0 3c 64 eb da 3a
       -0.00024360715 0.6736418 0.029345632 0.0016702232
000380 19 2f b9 3c 87 00 00 80 1d 5a a0 3c af 56 e4 3b
       0.022605466 -1.89e-43 0.01957422 0.0069683413
000390 39 12 ba bc 11 13 bd 3b 19 7a 12 3f 6a 9a d9 3d
       -0.022713767 0.005770095 0.57217556 0.10625155
0003a0 d3 d1 e5 3b 73 4f 9c 91 6e c6 12 bc e8 f0 d4 3f
       0.0070135384 -2.4661425e-28 -0.008958442 1.6636019
0003b0 88 01 00 00 00 22 8b 38 0d 91 8f bc fb 05 11 3e
       5.5e-43 6.6343695e-05 -0.01752522 0.14162438
0003c0 e3 00 00 00 9a cb df 3f 18 67 60 8d cf 34 a3 b2
       3.18e-43 1.7484009 -6.9149424e-31 -1.8999712e-08
0003d0 22 10 ae bb 16 c9 e0 b3 e4 ca 09 40 e1 3b 2d bb
       -0.005311982 -1.046739e-07 2.1530085 -0.0026433396
0003e0 d6 58 e1 bc 0d c4 7c aa 2a fd a3 bf 80 5c dc bb
       -0.02750818 -2.2450115e-13 -1.2811635 -0.006724894
0003f0 32 49 4a 40 a8 40 aa b4 21 26 87 bc 78 0d e7 38
       3.1607175 -3.171201e-07 -0.016497673 0.00011017447

bn1.bias f4 [400]
000000 99 9e e5 bb 5a ff f1 ba 20 80 59 3e fa 8f 13 b9
       -0.0070074317 -0.0018462942 0.21240282 -0.00014072648
000010 aa bf 34 3f ac 1a bf bb ec 2d b9 ba ce 33 76 b0
       0.70604956 -0.005832037 -0.0014128066 -8.95679e-10
000020 04 e7 f3 be b6 92 a3 3e bb 0a 89 bb 95 eb e7 bb
       -0.47637188 0.3194787 -0.0041821874 -0.007077644
000030 d0 21 07 bc b2 cb 56 b9 20 21 97 bc 23 55 b3 3d
       -0.008247808 -0.00020484513 -0.018448412 0.08756473
000040 a6 4f 0d bc 24 b3 f2 a8 5a a8 a7 ba 2b 9b a5 3f
       -0.008624947 -2.6945087e-14 -0.0012791262 1.2937979
000050 62 08 3b bb f0 d5 43 bc 58 f7 3c bc 8d 38 60 3c
       -0.0028538932 -0.011952862 -0.011533581 0.013685358
000060 6c 75 44 bb 04 9e 0a 3f 3a 53 b9 3d ed c5 ad bb
       -0.0029977215 0.5414736 0.09049077 -0.0053031356
000070 ac c4 2f bb 6b 99 64 ad 9c d2 12 bc 6e 50 4d b8
       -0.0026820106 -1.2994365e-11 -0.008961346 -4.8950715e-05
000080 70 7d 2e ba d8 e4 c9 8b fc d5 43 bc e2 2e b9 bb
       -0.0006656265 -7.776671e-32 -0.011952873 -0.005651341
000090 0a 6e 56 bc 61 5d 2b bc b8 cb d9 bc f1 86 06 3f
       -0.013087759 -0.010459275 -0.026586398 0.52549654
0000a0 e1 62 21 bc 56 be b6 3f bf 2a 40 94 24 e3 89 3f
       -0.009850235 1.4276836 -9.701953e-27 1.0772443
0000b0 cc f2 e3 84 00 91 a9 3b 98 da e7 b9 b9 a9 3f 92
       -5.3590417e-36 0.005174756 -0.00044222618 -6.0478172e-28
0000c0 eb 5e 19 bb 82 f4 9a bc 85 a0 69 3f 1b b1 72 9a
       -0.0023402523 -0.018915419 0.9126056 -5.0187492e-23
0000d0 82 0b e1 ba 6b 34 4d 3f 93 36 9e bc ff ae d3 b9
       -0.0017169567 0.8015811 -0.019313132 -0.00040375438
0000e0 b3 2e b3 bc f8 53 38 b5 10 c1 46 bb 48 52 bb bb
       -0.021872854 -6.866753e-07 -0.0030327477 -0.005716596
0000f0 d6 79 4e b3 56 23 4c 3f a6 2c 17 ba 95 cc 8e bb
       -4.807392e-08 0.7974142 -0.0005766846 -0.004357884
000100 e2 db 43 bd 6d 4e 5a 89 74 1b 3e bd a5 63 bf b9
       -0.04781712 -2.6277671e-33 -0.0464129 -0.000365046
000110 15 b2 a9 bc 51 6e 18 ba 27 a8 3b bc 5f eb a9 bc
       -0.020714799 -0.0005814778 -0.011453665 -0.020742116
000120 84 9b b6 3c db d2 88 ba 29 fd 79 b4 d6 2d 89 ba
       0.022290953 -0.0010438816 -2.3282031e-07 -0.0010465931
000130 0b 7c e4 3e b2 48 66 bc 60 33 05 a5 6c a0 05 bc
       0.44625887 -0.014055418 -1.1553318e-16 -0.008155923
000140 3e 76 d1 b5 54 bc 9b 3d 14 0d 5c b6 ee 8f 95 bb
       -1.5606126e-06 0.0760428 -3.2790167e-06 -0.004564277
000150 b9 3e 88 bc 58 d0 c8 bb a0 a8 37 bb f9 58 58 3d
       -0.016631471 -0.006128352 -0.0028024092 0.052819226
000160 79 7c 21 b9 d8 19 14 bf c5 8e 9e b7 96 36 1a be
       -0.00015400526 -0.57851934 -1.890155e-05 -0.15059885
000170 9a 9e d3 af 9b 28 c0 bc 70 aa a6 bc 35 2b de b6
       -3.849337e-10 -0.023456862 -0.020344943 -6.6211455e-06
000180 b9 94 8e bb 95 c4 10 3e 35 b1 be ba f0 ac e6 bb
       -0.004351225 0.1413749 -0.0014548661 -0.0070396587
000190 3e 54 6a 40 41 8d 06 bc be 73 79 bc 2f 2a ca 3d
       3.6613917 -0.0082123885 -0.015225349 0.09871327
0001a0 85 75 b3 bb 18 b6 f3 ba f8 1b 07 bb 9d 4d 9b bc
       -0.005476656 -0.0018593697 -0.0020616036 -0.018957907
0001b0 5f 47 88 bc ce 99 0a 98 65 00 dd ba aa 42 a5 ba
       -0.016635595 -1.7913733e-24 -0.001686108 -0.0012608368
0001c0 36 b3 a0 3d a6 7d 27 3a c3 ec 48 b6 4b bb 82 3e
       0.07846682 0.00063892675 -2.9940136e-06 0.25533518
0001d0 57 73 2d 3f e6 5d 0c ba 20 58 1e bc 7d be cf bb
       0.6775412 -0.0005354568 -0.009664565 -0.0063398466
0001e0 03 fc 79 84 a3 3a c8 b5 da d6 f6 ab d9 50 50 9e
       -2.9385527e-36 -1.4918227e-06 -1.7538985e-12 -1.1028147e-20
0001f0 d0 10 3f bc 88 20 7a 3d 9f 55 c5 3d da 44 89 bc
       -0.011661723 0.06106618 0.096354716 -0.016756464
000200 4d a2 e3 3d ff 6c 06 b5 99 4e 6e af 39 b1 8d b9
       0.11114941 -5.00775e-07 -2.1673897e-10 -0.00027025657
000210 c2 d2 aa bc 70 1a 5e 40 9f 6f 3f bf 2f 9b f7 bb
       -0.02085245 3.4703636 -0.74779695 -0.007556341
000220 92 fb dd a0 ca 3e 20 bc 76 d4 5c bc 0c 34 7e 3d
       -3.7605332e-19 -0.009780595 -0.013478389 0.062061355
000230 14 e9 ec bc ef da 07 bd 9d 1c d8 ba 0b 06 4e 3e
       -0.028919734 -0.033167776 -0.001648802 0.20119493
000240 0a c6 ca b9 a1 1d 16 99 dd dc 00 40 91 f0 b0 b9
       -0.00038675993 -7.760802e-24 2.0134804 -0.00033748572
000250 02 04 60 bb 9a 3e de ba f9 4d a8 3e 06 55 14 bc
       -0.0034182076 -0.0016955913 0.32871988 -0.009053474
000260 22 ef 9d bc cd 74 26 bc 45 fe d6 bb 04 49 28 b0
       -0.019279066 -0.010159683 -0.006561073 -6.1221805e-10
000270 98 1c cd 3f 75 2c c0 b9 9b e6 99 ba cb ce 92 3f
       1.6024351 -0.00036654217 -0.00117417 1.1469358
000280 fb 36 3d bb 34 2c 26 a9 c1 97 6c bb ec 31 29 3f
       -0.0028871882 -3.6897745e-14 -0.0036101195 0.660918
000290 38 a1 3d b9 f7 10 d9 bc 41 61 73 be 7b b4 15 90
       -0.00018084503 -0.026497347 -0.23767568 -2.9524106e-29
0002a0 1b cf 1e bc 52 60 13 bb ba 73 7f 40 2b 15 09 bc
       -0.0096929325 -0.0022487831 3.9914384 -0.008366863
0002b0 33 17 2c ba 63 c2 15 bb 56 9e bb bc 00 3b 1d bc
       -0.0006564736 -0.002285146 -0.022902649 -0.009596586
0002c0 25 84 04 bc 62 5a 9d bb 81 48 a7 3c a1 ef f6 bc
       -0.008088146 -0.0048020342 0.020420315 -0.03014356
0002d0 2e cf 0a bc 32 2c a9 b8 98 f7 1a b1 77 d5 75 40
       -0.008472247 -8.06678e-05 -2.255069e-09 3.8411539
0002e0 7a 91 82 92 51 bc 68 3f fd 6c 56 ba f3 c6 f3 bb
       -8.240016e-28 0.9091235 -0.00081796927 -0.007439488
0002f0 19 3b d8 bb af fb cb bb 27 ff 83 bc 35 5b 23 bf
       -0.006598842 -0.0062250714 -0.016112877 -0.63811046
000300 47 5e ab ba 64 44 98 be fa 83 30 3d 6c 41 65 b8
       -0.0013074361 -0.29739678 0.043094613 -5.4658783e-05
000310 b2 ab a6 3f fa 23 2c a2 89 d5 2e bd df 39 8c bb
       1.3021147 -2.3329393e-18 -0.04268411 -0.0042793597
000320 17 a8 63 bb 10 e8 96 bb ee 9e 80 bb a9 62 9e bc
       -0.003473764 -0.0046053007 -0.003925196 -0.019334154
000330 39 84 0a bc cf 69 aa 3c c7 b7 25 bc 83 f5 74 ba
       -0.008454376 0.020802407 -0.010114617 -0.00093444454
000340 54 b0 32 3f 35 13 97 b9 3a 64 4d bb 8d aa 00 bb
       0.69800305 -0.00028815275 -0.0031340257 -0.0019632906
000350 28 50 d6 bb 5e d5 ed 3d 45 84 9a bb 73 44 75 bc
       -0.006540317 0.11612962 -0.004715475 -0.014969933
000360 cc 14 9d bc 52 96 6a 3f 1e ed 1d 3f cb 5c 2e bc
       -0.019174956 0.9163562 0.6168994 -0.010642241
000370 69 a8 e6 b6 60 ac 2e 3e 52 63 df 3c 1a 30 53 bb
       -6.8741397e-06 0.17057943 0.02726904 -0.0032224716
000380 ba c4 87 bc df 74 58 b9 10 1c 28 3d ca 7d 21 bc
       -0.016573299 -0.00020642903 0.041042387 -0.009856651
000390 dc f7 b9 bc 05 49 6e bb 1c ba ba 3e 75 94 e3 3d
       -0.022701196 -0.003635944 0.36470115 0.111123
0003a0 9c 37 76 bb 77 67 96 b1 5c 8f e5 bc 8c 32 ad bd
       -0.0037569767 -4.377337e-09 -0.02802246 -0.08456907
0003b0 44 fc f2 96 91 ca 25 bb a6 9b a1 ba 0e a5 27 3e
       -3.925641e-25 -0.002529774 -0.0012329712 0.16371557
0003c0 a1 06 1e a5 2a 55 cb 3f d4 42 0b 8e 67 67 45 b9
       -1.3706561e-16 1.5885365 -1.716525e-30 -0.00018825904
0003d0 3e f2 ec bb a9 a4 10 ba bd 3f be 3d a1 3b 06 bc
       -0.007231026 -0.00055177003 0.09289501 -0.008192928
0003e0 b3 a0 32 bc 9e 61 19 b6 a2 d1 89 bd 96 9d 16 bc
       -0.0109025715 -2.2855597e-06 -0.067294374 -0.009192845
0003f0 ee 44 a1 3f 9f 89 05 ba ce cb 53 bc 91 36 e7 ba
       1.2599161 -0.00050940545 -0.012927009 -0.0017640163

bn2.weight f4 [300]
000000 4b 33 10 b0 20 3a ef 27 5e 00 00 00 7d 73 a7 40
       -5.2459787e-10 6.6398845e-15 1.32e-43 5.2328477
000010 3b f5 9f 3f 7a e0 4b 40 5d d2 71 3b db 3e cb 3e
       1.2496713 3.185576 0.0036899068 0.39696392
000020 66 7d b4 b9 5a 17 36 40 d1 b7 3f 40 f4 d4 3d be
       -0.00034425705 2.8451753 2.9955943 -0.18538266
000030 e8 aa f5 bf a8 00 00 00 32 e9 e8 40 3c 9b 18 bd
       -1.9192781 2.35e-43 7.278466 -0.037257418
000040 b4 62 2d 41 ca 0d 2b 40 75 f7 12 40 d6 48 38 c0
       10.836597 2.6727166 2.2963536 -2.8794456
000050 64 97 e6 3b 25 9f 1d 3e 41 0a b3 38 14 88 37 be
       0.00703709 0.1539274 8.537295e-05 -0.17923003
000060 33 9a 3d 3c ef 25 08 b8 b9 d6 da 40 57 8e f1 bd
       0.0115724085 -3.2460255e-05 6.8387113 -0.11794727
000070 25 1b 17 3d 9b 47 c0 bf 4a bf 58 3f c0 e6 4b 40
       0.03689112 -1.5021852 0.84666884 3.1859589
000080 42 29 9c bc de a5 ae 3c 90 27 a7 40 25 49 3e 40
       -0.019062642 0.021319326 5.2235794 2.9732144
000090 b7 de a1 bc 5c 98 64 3e 4c f9 87 bb 27 48 bd 3e
       -0.019759519 0.22323745 -0.0041495916 0.3696911
0000a0 a1 b5 4c bc f6 e4 15 40 7a c7 7b 40 66 b9 9d 40
       -0.012494476 2.3420997 3.93405 4.9288816
0000b0 ee 15 60 bf 99 8b 7c 39 56 34 76 40 5e 64 d4 3a
       -0.8753346 0.00024084597 3.8469443 0.0016204228
0000c0 4a dd 5e 40 98 f5 dd 40 26 23 fa bd af 2a 1a 40
       3.4822564 6.9362297 -0.12213735 2.4088552
0000d0 43 ee 2a 41 c2 6f 89 3c 5a 51 c5 40 64 00 8c 40
       10.683169 0.016776923 6.1661806 4.3750477
0000e0 4e 19 81 40 40 e1 d2 3e ca 63 4e 41 7c 06 26 be
       4.034339 0.41187477 12.899363 -0.16213411
0000f0 42 89 4c 41 86 14 18 bd dc 29 16 40 2f 32 03 41
       12.78351 -0.037128948 2.346305 8.199752
000100 15 ab f9 3f d0 d2 70 be cf 4a f0 bb f3 33 a7 40
       1.9505335 -0.23517919 -0.0073331366 5.2250915
000110 b4 af f7 3d e1 18 15 3e c7 ea d9 bd 44 2e f4 3c
       0.120940596 0.14560272 -0.10640483 0.029807217
000120 35 28 a6 c0 71 b2 9a 40 00 95 28 40 dd e3 22 40
       -5.192408 4.8342824 2.6340942 2.5451577
000130 4d 3f 07 be bf e3 89 bd 6d 24 e3 40 54 24 48 bd
       -0.13207741 -0.06732892 7.0981965 -0.04886277
000140 d7 38 dc bb 71 9e c7 3d e1 76 96 b8 af fc 1a bb
       -0.006720643 0.09747017 -7.1747e-05 -0.0023649146
000150 39 f5 89 40 e4 9c fd 3f e8 ac 8b bd 27 83 3b ba
       4.3111844 1.9813504 -0.068200886 -0.0007153027
000160 58 2e c8 c0 e5 a1 1a 40 0c 2d 6b 3d 63 7e fa 34
       -6.255657 2.4161313 0.057416007 4.6658087e-07
000170 56 97 af 40 5a b6 0e 3f e0 06 e1 bf 23 e2 53 bd
       5.4872236 0.55746996 -1.7580223 -0.051729333
000180 b3 01 00 00 0d 87 96 40 cb 76 22 41 29 54 83 3d
       6.1e-43 4.7039857 10.154002 0.06412537
000190 cb 31 cf b6 04 e0 03 41 d7 cf ad 2c 55 00 00 00
       -6.1748774e-06 8.242191 4.9400306e-12 1.19e-43
0001a0 0d 51 2d c0 bb 53 91 c0 2e 3d 4b 3a 8b 08 a6 c0
       -2.708072 -4.541471 0.0007752952 -5.188543
0001b0 68 91 e1 32 04 0d 1d 40 70 1a 38 06 56 86 e4 3f
       2.625957e-08 2.4539194 3.4625977e-35 1.7853496
0001c0 df a3 96 3e bf 10 4d 30 c0 7d cd bf 1b cb 1b 3f
       0.294219 7.4602363e-10 -1.6054001 0.6085679
0001d0 b5 79 ca 3f 0e a3 97 3d 3e 01 00 80 90 73 0d 41
       1.5818392 0.07404147 -4.46e-43 8.8407135
0001e0 fc 2a a9 40 fc 53 5f bb e1 37 e6 3f fc f6 41 be
       5.286497 -0.0034077158 1.7985803 -0.18941873
0001f0 46 1a fa 3d f2 2f 03 b9 30 0b 52 3e fb 69 28 40
       0.122120425 -0.00012510995 0.2051208 2.6314685
000200 3f 39 e5 bd 97 15 1d bd ac 1b 14 bd 51 43 e4 bb
       -0.111925595 -0.038350668 -0.036159202 -0.0069660326
000210 89 5f 72 2c 77 a0 d5 ae b0 ad 4a bb a7 97 9a 40
       3.44433e-12 -9.714623e-11 -0.003092628 4.8310122
000220 ee 21 43 40 37 3f 59 bb 18 39 28 40 58 8a c2 be
       3.048946 -0.0033149251 2.6284847 -0.37996173
000230 98 5f f4 40 d2 f1 19 bc 75 71 c4 b8 3b 71 40 40
       7.636669 -0.009396033 -9.367141e-05 3.006911
000240 62 bf 09 40 8a 52 db c0 96 6b 31 3d da c8 1b 40
       2.152306 -6.8538256 0.043315493 2.434134
000250 a4 9c 82 40 ab 3c 94 3d 5e c4 6d c0 3c 3d c5 ad
       4.081621 0.07238134 -3.7151103 -2.24235e-11
000260 cd 17 18 40 ee a3 c4 3c 0e 65 16 3d 57 14 10 40
       2.3764527 0.024003949 0.036717467 2.2512414
000270 07 11 16 a5 b2 b5 4b 3e b0 2e 5f 40 ae 79 45 40
       -1.3016195e-16 0.1989353 3.4872246 3.0855517
000280 2f d0 5c 40 8f 33 45 40 24 e9 06 40 db a8 bd ab
       3.4502065 3.081272 2.1079798 -1.3476125e-12
000290 aa 18 40 07 ee dc a2 40 1a 3b 4d 3a aa 6b 93 b8
       1.4451723e-34 5.089469 0.0007828936 -7.02956e-05
0002a0 fa 8f b6 40 c5 af 1b 3c e1 cd 47 40 6c 0e 01 40
       5.7050753 0.009502356 3.1219409 2.0165052
0002b0 ef 00 00 00 4e d1 8e bd b6 9d 0c 40 ba 46 42 41
       3.35e-43 -0.069735155 2.197126 12.142267
0002c0 26 84 57 40 23 b8 69 40 ef de 56 bd 3c 5f 86 ba
       3.3674407 3.6518638 -0.0524587 -0.0010251771
0002d0 c2 f1 3d 3f c8 8f 0b 41 7b aa 99 b8 a6 d1 88 40
       0.7419702 8.722603 -7.327363e-05 4.275592
0002e0 57 81 1d 40 d6 7a 7e a7 7c 0f fc 40 eb 4e 01 c0
       2.4610193 -3.531617e-15 7.87689 -2.0204418
0002f0 76 60 9b 40 3e 70 bd bb 3e b1 0a 40 13 d1 bc 40
       4.855525 -0.0057812026 2.167068 5.9005218
000300 4c 4c 60 40 a3 a0 04 40 cd 7c c3 bd fe 71 22 40
       3.5046568 2.0723045 -0.09545288 2.5382075
000310 96 a8 1c 40 a6 46 65 bd f8 87 f8 c0 17 03 9c 3c
       2.4477897 -0.05597558 -7.7665977 0.019044442
000320 38 0b a1 3e f1 b4 15 be bd ee 69 40 91 52 09 3d
       0.31453872 -0.14619805 3.6551964 0.033526007
000330 a0 0c 53 40 cc 75 13 41 46 3d 2a 40 95 e1 76 ae
       3.2976456 9.216259 2.6599898 -5.613428e-11
000340 ab ba f6 bb 34 0a 38 41 7f be a2 bd 54 02 00 80
       -0.007529577 11.502491 -0.079464905 -8.35e-43
000350 82 59 38 be b6 b4 ff 9f 80 23 94 3b e7 b6 2b 40
       -0.18002895 -1.0829566e-19 0.0045208335 2.6830385
000360 93 00 94 83 44 17 b8 40 e3 36 a1 40 4b 84 86 1a
       -8.69879e-37 5.75284 5.03795 5.563483e-23
000370 73 46 c7 bc 0d 7b ba 40 10 e2 46 a2 a5 24 06 be
       -0.024325585 5.827521 -2.695368e-18 -0.13099916
000380 87 01 00 80 45 5d 46 40 ae 9d 92 40 d2 11 86 40
       -5.48e-43 3.0994427 4.581748 4.1896753
000390 77 86 e5 3c 07 da 0a 2d e6 50 44 3d 3e f5 81 40
       0.02801822 7.892804e-12 0.047928713 4.061187
0003a0 bd b5 70 40 13 e1 67 40 08 0d eb bf 23 f0 13 bd
       3.7610924 3.6231124 -1.8363352 -0.036117684
0003b0 47 88 7f 3d de ee 90 c0 4c e4 14 40 cd 34 50 b8
       0.062385824 -4.5291586 2.3264341 -4.964024e-05
0003c0 ad 8f 42 40 67 46 e4 3c 42 11 3e 3f ab 77 ac bd
       3.0400193 0.027865602 0.74245083 -0.08421262
0003d0 ba 89 15 41 11 60 07 40 95 37 ee 3f 3f c9 63 40
       9.346125 2.1152384 1.8610712 3.559158
0003e0 da 8e 8b 40 7d 36 12 3f 4d bf 52 40 95 b7 2c c0
       4.361188 0.5711439 3.292926 -2.698705
0003f0 6c dd bd 3d 13 c1 2d b7 65 cf a2 40 53 51 ba bf
       0.092707485 -1.0356557e-05 5.0878167 -1.4556068
