tmp/ddpg/critic_ddpg.pth (torch, 514177 bytes, 11 tensors)

fc1.weight f4 [400, 11]
00000000: 8aaf 613e 2424 e3bf 5f26 393c 85d0 ca3e
00000010: a1f7 c53f cf0f a43f 62fd 0d40 8d3c 083f
00000020: 4436 9d3f 1d44 853f cb61 7d3f 3dd2 833e
00000030: 2ab4 e5bf b483 9e3c 55e3 c73e 2c89 c83f
00000040: 5d35 a83f a9f9 0d40 1601 f13e 4431 9a3f
00000050: 03fb 823f 9df9 783f 362d 7d3e a02d e2bf
00000060: ce4e c53c 4f6a c33e 187c c83f 7d4c a93f
00000070: 7545 1740 fa76 f23e 4e08 903f c426 7b3f
00000080: 28e6 643f 5c3f 433e abce dabf cde1 803c
00000090: df5e c23e 7348 c93f 9bb4 b93f 28c0 2240
000000a0: 8b88 643f da59 b03f c308 943f 71eb 8a3f
000000b0: a53e a1be ec39 80be aa11 423e ad56 333e
000000c0: dbc2 983f 2343 e940 ba91 863f 0483 75bf
000000d0: 1bc6 773f 535d 78bf af27 a03f d2da a03e
000000e0: 76e1 e7bf a65c 503c 6221 ca3e c8b0 d33f
000000f0: e535 973f 3eed 0340 ab15 033f a17e 5d3f
00000100: 477d 4d3f 4b82 363f 2a46 833e 1f44 e5bf
00000110: 96ad 693c c875 ca3e 834b c83f 3325 a33f
00000120: 159c 1340 303a 0d3f 9eaa 9d3f 2bcb 863f
00000130: ccaa 7c3f 5a00 a33e 5d6b e7bf 5f49 a83c
00000140: ab38 c93e 662a e63f 6edc a03f bbe4 e53f
00000150: 0e00 643f 2140 973e 1d37 913e c02a 883e
00000160: 241b fc3f 0d13 2ec0 7929 dfbe 58b8 693f
00000170: 2864 973d 0318 9940 53a5 543e aa31 f2bf
00000180: 4d8f 4abf c0fd 1cbf b773 d6bf b5ec 0f40
00000190: a89f 37be 268c 803f d837 4bbd 8013 383f
000001a0: d99e d5bf 9ac2 973f a0ed 3740 e384 c03f
000001b0: 1fe2 873f 4565 8c3f e6ff 823e 196e f4bf
000001c0: acba 1f3d e16d d53e 684f d13f 5a82 9b3f
000001d0: 3176 ee3f 9b89 dc3e ac92 253f 3452 323f
000001e0: 457c 233f 994a 723e 0f3e ddbf caf9 9b3c
000001f0: 3482 c23e b583 cd3f d0af ac3f 81b9 1f40
00000200: a913 133f dfca 9a3f 7073 823f 2832 6f3f
00000210: c7af b73e 388e edbf 69b2 7d3c a9c3 cf3e
00000220: 61c2 cf3f 6432 8a3f d4c0 fd3f acb7 2abd
00000230: b084 3f3f 5cbb 483f 4bc8 463f 79ae 7a3e
00000240: 2a95 e0bf 40e6 8c3c 7552 c53e 73f5 cc3f
00000250: e22a a53f 2e07 1340 27ce 0e3f 8651 953f
00000260: dc04 7f3f 0ca1 6a3f d8b2 013e 36d3 0dc0
00000270: 6fb3 df3c 6c9b 003f a66b bc3f 0fe9 153f
00000280: 91b3 5e3f 9abb 943f 4072 243f ba69 763f
00000290: 4c90 2c3f 78dc 5e3e 5d91 d6bf a8ae 6d3c
000002a0: 4025 bb3e 9859 d03f 4fac b13f 17e0 2340
000002b0: 6d89 213f 223c 9a3f 10b0 813f 1416 623f
000002c0: 01e6 b13e f55e d6bf dcb9 dc3c 97fb b73e
000002d0: 65c1 ce3f d2a2 ad3f f78d 1d40 a19e 973e
000002e0: d1e6 9c3f f48a 863f 31f9 713f eaa2 953e
000002f0: b35e e4bf 759c 453c e00b c83e b885 d43f
00000300: d094 9a3f d6d6 0c40 d34d 1c3f caa7 693f
00000310: bc99 513f 08fa 333f c684 b93e a08f d0bf
00000320: 83d2 f03c e9fd b03e 90ac cf3f 253c b73f
00000330: cb4a 2240 324e de3d 5e75 a23f e1a1 903f
00000340: 79df 7f3f 194e c13f a8ce 9dbf 60fb 0e3f
00000350: 6df9 bd3e 83e1 0240 9cbf 7c40 f4cb a13f
00000360: cfc6 80bf 7a39 94c0 8abf 63c0 5378 0ec0
00000370: 26a4 3c3e 76c3 e2bf 4c21 293c 32a0 c73e
00000380: 5b7d cd3f 8c46 a23f ee67 1140 3372 663f
00000390: bdfe 963f 5c89 753f bb8f 653f 570b 5d3e
000003a0: 650c e4bf 9238 a73c c563 c83e 5aa1 c93f
000003b0: 20bb aa3f 02df 1a40 aed5 0d3f 8910 9d3f
000003c0: 9de5 863f 6ff4 7a3f a18e ab3e 4f81 d7bf
000003d0: de2c e33c 9e07 b93e a949 c83f 273f b13f
000003e0: fbef 1240 a883 5d3e 95e9 aa3f c1d7 923f
000003f0: c1ff 883f fc57 623e 9c2e e2bf 072e a43c
0.22039619 -1.7745404 0.011300652 0.39612213 1.5466195 1.2817324 2.2185903 0.53217393
1.2282186 1.0411412 0.98977345 0.25746337 -1.7945607 0.01934991 0.39040628 1.5666862
1.3141285 2.218363 0.4707114 1.2046285 1.0232853 0.9725588 0.24724278 -1.7670174
0.024085429 0.38167045 1.566287 1.3226467 2.3636143 0.47356397 1.1252534 0.98106027
0.8941369 0.19067138 -1.709432 0.01573267 0.37963006 1.5725235 1.4508241 2.5429783
0.8927085 1.377742 1.1565174 1.0853101 -0.31493106 -0.2504419 0.18952051 0.17513533
1.1934465 7.2894454 1.0513222 -0.9590304 0.9678666 -0.970174 1.251211 0.31416947
-1.811568 0.012717402 0.39478594 1.6538324 1.1813322 2.061355 0.5120494 0.86521345
0.80269283 0.7129256 0.25639468 -1.7911414 0.0142625775 0.39542985 1.5648044 1.2745727
2.3064015 0.5516691 1.2317693 1.0530752 0.98698115 0.31836206 -1.807964 0.020542799
0.39301047 1.7981689 1.256727 1.7960428 0.89062583 0.29541114 0.2836236 0.26595116
1.9695783 -2.7199128 -0.4358633 0.9129691 0.0739215 4.784181 0.20766191 -1.8921406
-0.7912491 -0.6132469 -1.6754063 2.2488225 -0.17931998 1.004277 -0.049613804 0.71904755
-1.6689101 1.1856263 2.8738785 1.5040554 1.0615882 1.0968405 0.2558586 -1.9096099
0.038996384 0.41685393 1.6352358 1.2149155 1.8629819 0.43073735 0.6467693 0.6965668
0.63861495 0.23661269 -1.7284564 0.019040007 0.37989962 1.6055819 1.3491154 2.4956973
0.57451874 1.2093161 1.0191479 0.9343591 0.35876295 -1.8559027 0.015484431 0.40578964
1.6231195 1.0796628 1.9824471 -0.04167907 0.7481184 0.7841089 0.7764937 0.24480619
-1.7545521 0.017199636 0.38539472 1.6012405 1.2903712 2.2973132 0.55783314 1.1665504
0.9961679 0.9165199 0.1266588 -2.2160163 0.02730724 0.50237155 1.4720352 0.58558744
0.86992747 1.1619751 0.6423683 0.96255076 0.6740768 0.2176379 -1.6763111 0.014506973
0.36551857 1.6277342 1.388071 2.5605524 0.6310032 1.2049601 1.0131855 0.8831494
0.34745792 -1.6747729 0.026944093 0.35934135 1.6152769 1.3565314 2.4617898 0.29613212
1.225794 1.0511155 0.9452086 0.29225856 -1.78414 0.012061228 0.3907156 1.6603308
1.2076664 2.2006125 0.6105625 0.9127165 0.81875205 0.7030339 0.3623411 -1.6293831
0.029397255 0.34568718 1.6224537 1.431523 2.535815 0.10854758 1.2692068 1.1299402
0.9995037 1.5101959 -1.2328691 0.5585232 0.3710436 2.0450141 3.949195 1.2640367
-1.0060672 -4.632016 -3.5585656 -2.226094 0.18421993 -1.77159 0.01032288 0.38989407
1.605388 1.2677779 2.2719684 0.90018004 1.179649 0.9591272 0.8967244 0.21586357
-1.7816283 0.020412717 0.39138618 1.5752366 1.3338356 2.4198613 0.55404174 1.2270671
1.0538822 0.98029226 0.33507255 -1.6836337 0.027731355 0.36138624 1.5647479 1.3847398
2.2958972 0.21632254 1.3352534 1.1472093 1.070305 0.22103876 -1.7670474 0.020041479

fc1.bias f4 [400]
00000000: da7b 833e 4248 8c3e 6e45 8c3e e514 9c3e
00000010: 0a92 8e3f 9b57 893e 01df 883e 3249 9c3e
00000020: e20e 01bb 15bf ce3f 6a33 8e3e 3cbc 943e
00000030: fd3a 833e 4eb1 893e 43a2 4d3e deb4 913e
00000040: 7f82 963e 2cb4 8c3e 09e2 a03e 29d3 7d40
00000050: b1f2 873e 1132 963e 5aeb 983e 6f43 8e3e
00000060: 213d 903e b20a c63f 032b 923e 7206 9f3e
00000070: 04a8 953e 2ad0 8e3e 0639 933e 95b2 923e
00000080: 8528 a63e 2cf1 983e be68 763e 6cb1 993e
00000090: 10d0 373f f97a 873e 4ab4 c23e 6c1b 9a3d
000000a0: 029a 953e e961 d73e 499a a93e 7772 463f
000000b0: 4746 983e a67c 8c3e 42ed 9a3e f2a9 173f
000000c0: b781 843e 0082 8c3e d85b 7340 4428 953e
000000d0: a0ab 993e a49c 333d b3c3 8c3e bafe 883e
000000e0: e5de e43e ed18 9e3e 02f4 8c3e 301c 933e
000000f0: 8e2d 9e3e ad6c 3a3f 0592 8f3e f3d1 673e
00000100: 19dc 1f3f 7632 873e 734e f03e 3385 a03e
00000110: c70d 993e bec0 a03e 4e60 9b3e b1a1 913e
00000120: 655a 7f3f 2670 873e 96c8 a03e 5231 b73e
00000130: 84ea a63f a872 883e 74cf 883e f257 903e
00000140: 3150 893e 2647 723f 0c51 8d3e aedc 173f
00000150: 8791 8d3e 019e 943e f15f 663e c3b8 a43e
00000160: 78b4 983e 29d9 683f 1c16 893e c47f ad3f
00000170: 1cf8 f13e 9b9a 913e df4f 893e a928 903e
00000180: 2bb2 963e 43d3 903e aa1e 8e3e 6686 933e
00000190: 650d ad3f b655 963e 101d 893e e884 813e
000001a0: 1a73 913e 9508 903e 4c3d 813e b8ff cd3e
000001b0: 6344 8e3e 3b0c 7f3e 5c60 8b3e 6d3a 8f3e
000001c0: fc16 a03f c6e9 823e 3b1c 253f a5c5 873e
000001d0: ec91 ba3f 0d5f 6d3e 491d 913e aedc 913e
000001e0: 55c5 983e 4d03 883e c308 8c3e cf2f 8b3e
000001f0: 94d1 f03e 940b 8e3e 29c4 993e 0702 7e3e
00000200: 801f 913e dea3 8e3e aee2 0a3f 6ee8 9d3e
00000210: a96e 9a3e 7200 dc3f 964c a33f b607 943e
00000220: ee02 863e b143 913e d6f2 8a3e a280 033f
00000230: f9f0 6b3e ff17 c73e f6f2 933e 2caf 993e
00000240: 31be 913e 17c7 8d3e 5d2c 2f3e 94d4 9a3e
00000250: 788b 893e 8c62 893e 03a7 813f 7723 8b3e
00000260: e53a 963e 9597 9f3e 4c15 993e 792f 923e
00000270: 8356 423e 9407 ac3e 3957 903e 06b3 6dbf
00000280: 6d29 993e 123e 873e 4ad5 913e 43ee af3f
00000290: 6dc8 873e 7619 923e 9b82 dc3f 1196 8e3e
000002a0: ed2c 653e 19b8 9c3e 4a7c 5c3f 97e6 9b3e
000002b0: 98a9 013f b6ae 893e 6841 943e 7b7f 823e
000002c0: b608 943e 7347 963e 0093 033f 6589 983e
000002d0: 1a1b 983e 891d 903e 4060 843e 49c0 0240
000002e0: 834b 9c3e 4a41 8bbe 12eb 973e e307 9a3e
000002f0: bc42 a83e f346 953e 64cd 8c3e b7ae e73f
00000300: 656d 843e ca20 c83f 5a33 053f 2132 923e
00000310: 3da3 64be 1036 913e ae6d 0e3f 902b 933e
00000320: 5faf 9b3e fd9d a43e a172 913e b967 a63e
00000330: f2f9 933e 1d27 8c3e b23b 973e 6760 9f3e
00000340: 0990 4c3e b6df 9e3e 9aaa ae3e 1496 8a3e
00000350: f375 9a3e a4be 893e 28ca 943e 6f84 973e
00000360: 3ff5 8b3e 4edf aa3f c434 77be 9f78 963e
00000370: 310d 943e 6112 e63e fca0 683e 93fd ae3e
00000380: b006 5f3e 60b4 2f3f c2a9 853e eb9b 4c3e
00000390: a679 8c3e 96e9 843e 0ffb 0840 235c 8c3e
000003a0: 385c 963e caad 983e 9aac 8a3e 72a8 be3e
000003b0: 724b dc3e 37a2 b53e 1427 973e a9e9 973e
000003c0: b4ad 993e f2d7 9b3e 856a 993e f4d9 8d3e
000003d0: e462 8d3e 8d7f d13e 44ea 0340 bb4c 9d3e
000003e0: 432c 8f3e 3b59 d73e 1570 4d3f 865f 8b3e
000003f0: 659b 3c3f 9eba 923e a580 873e 951c 913e
0.2568043 0.27398878 0.2739672 0.3048469 1.1138318 0.2682465 0.26732638 0.30524594
-0.0019692709 1.6152064 0.277736 0.2904986 0.25630942 0.26893085 0.20081429 0.28458303
0.29396436 0.2748121 0.3142245 3.9660132 0.26552346 0.29335073 0.2986706 0.27785823
0.28171638 1.5472014 0.2854844 0.31059605 0.29229748 0.27893192 0.28754443 0.28651872
0.3245279 0.298715 0.24063393 0.30018175 0.71801853 0.26461008 0.38028175 0.075247616
0.2921906 0.42066887 0.33125523 0.7751841 0.29741117 0.2743885 0.30259138 0.5924369
0.25880215 0.27442932 3.8024807 0.29132283 0.30013752 0.043850556 0.27493057 0.2675684
0.44701305 0.30878392 0.27529913 0.28732443 0.3089413 0.72822076 0.28041092 0.22638683
0.6244522 0.26405686 0.46934852 0.31351623 0.29893324 0.3139705 0.30346912 0.28443673
0.99747306 0.2645275 0.31403035 0.35779816 1.3040318 0.26649976 0.26720774 0.28192097
0.26818994 0.94639814 0.27600896 0.59321105 0.2765009 0.29026797 0.22497536 0.32172212
0.29825187 0.9095636 0.2677468 1.3554616 0.47259605 0.28438267 0.2681875 0.2815602
0.29432806 0.2828618 0.2775777 0.28813475 1.3519713 0.29362267 0.26779985 0.25296712
0.28408128 0.28131548 0.25242078 0.4023416 0.2778655 0.2490701 0.27221954 0.27974263
1.2507014 0.2556898 0.644962 0.26517978 1.4575782 0.2318079 0.28342655 0.28488678
0.29838052 0.26565018 0.27350435 0.27184913 0.47034895 0.27743208 0.3003247 0.24805461
0.28344345 0.27859396 0.54252136 0.30841392 0.30162552 1.7187636 1.2757747 0.28912133
0.2617411 0.28371957 0.27138394 0.51368153 0.23041143 0.38885495 0.28896302 0.30016458
0.28465417 0.27690956 0.17106767 0.3024031 0.2686422 0.26832998 1.0129093 0.27175495
0.29341808 0.31170335 0.2989906 0.28551844 0.18978314 0.33599532 0.28191546 -0.92851293
0.29914418 0.26414543 0.2848304 1.3744587 0.265201 0.2853505 1.7227358 0.27848867
0.22380419 0.30609205 0.8612715 0.30449364 0.50649405 0.26891106 0.2895615 0.25487885
0.28912896 0.29351386 0.5139618 0.29792324 0.29708177 0.28147534 0.25854683 2.0429862
0.3052636 -0.2719825 0.29671532 0.30084142 0.32863414 0.29155692 0.2750045 1.8100194
0.2586471 1.5635006 0.5203148 0.2855387 -0.22327895 0.2836156 0.5563611 0.28744173
0.30407235 0.32151785 0.28407767 0.3250101 0.2890163 0.2737359 0.2953773 0.31128237
0.1997682 0.31030053 0.34114534 0.27067626 0.30168113 0.2690326 0.29060483 0.29593226
0.27335545 1.3349397 -0.24141222 0.29388902 0.28916314 0.44935897 0.2271766 0.34177837
0.21779895 0.68634605 0.26106077 0.19981353 0.2743656 0.25959462 2.1403234 0.27414045
0.29367232 0.2982009 0.2708481 0.3723789 0.4302631 0.35475323 0.29522002 0.29670456
0.30015337 0.3043819 0.2996408 0.27705348 0.2761451 0.40917626 2.0611734 0.30722603
0.27963457 0.42060265 0.8024915 0.27221316 0.73674613 0.28658003 0.26465335 0.2834212

fc2.weight f4 [300, 400]
00000000: 9d38 9d3d 1f07 f3a7 e8c5 7281 ac01 0080
00000010: 7484 0abe 1702 0080 c332 b23c e942 85aa
00000020: 1bc8 54bf 66c4 8a3e 15d2 4538 eb4f 0938
00000030: af61 3a3e 5630 6cb7 7b01 f228 619d 73b7
00000040: b251 9237 a2bd 81b6 7107 0080 56fa 66be
00000050: f370 a0bd 4c00 0000 e624 9e3a 1a47 7fbc
00000060: 0f2d afbc d960 56be 0900 0080 f2b3 aabb
00000070: 5977 a7ba 996c 94bb 534e f53a 944a aebd
00000080: 3103 0080 01b5 e439 8a01 0000 dddc 2a8e
00000090: d65e e4ba 4234 0d3d d9dc 23b6 91ab 59bf
000000a0: fe10 0000 5f34 52be eb0b 7d3d d1cc e8b9
000000b0: cf00 0000 c702 0080 c912 edb6 e875 a1bb
000000c0: f301 0000 2100 0000 b1c6 c3be 704c 5b8a
000000d0: e2da 8b3d 387b 8cbf 7900 0000 e4bb 98b6
000000e0: 3402 0080 489d 9c3b 8e64 523d 4500 0000
000000f0: 4f5a d7bb 48c8 e0be 4001 0080 0d58 8321
00000100: d4b7 a9bd f379 33bd 1f20 943d 0b6c f5bc
00000110: 3d02 0000 6f02 0000 13a5 d8b5 df3b 35bc
00000120: c964 5bbd 0100 0000 c713 be3a ac7a 73bd
00000130: c36b 9d3e 5c00 0080 ba00 0000 3500 0080
00000140: 4488 0f3c 4633 44bd 3d1c 7bbc ffec cebc
00000150: 8901 0000 ab1d 42a7 4202 0080 e527 37bc
00000160: 9003 0000 ec37 61be f000 0000 08b9 ec3d
00000170: a734 21bb 4bb1 d403 710b 0080 290a 0080
00000180: fe01 0000 2901 0000 db01 0080 58cf ab3d
00000190: cdb6 2dc0 07dd 7998 cc02 0080 7c2f 013a
000001a0: f702 0000 3b83 0080 4fdf 453d 9401 0080
000001b0: 839b f7bb e901 0080 7b02 0000 5c01 0080
000001c0: b9c1 debd f746 d736 7dd7 5c28 1037 df3d
000001d0: 938b 3cbe d46e b22e c81b 7538 29b1 6c90
000001e0: 9200 0080 fc56 2d3c fc00 0080 524e 5a35
000001f0: fa02 0000 8001 0080 40f1 283c 040f 2b39
00000200: da05 0000 5e04 0080 ec30 103e 9703 0000
00000210: e583 c732 c5eb 24bf 4a2d b53e fc0f 6939
00000220: 177c fbb9 0862 a135 41a2 b83d 2db9 013d
00000230: 9819 c2bd 62e5 39b8 b902 0000 7760 0c80
00000240: 77b7 1a31 e9a9 873d d06e d1be 1d83 4bb5
00000250: 37db a5bc 2902 0000 5ed9 17be 8803 0080
00000260: 7aee 1413 3e1a af3b 7102 0080 6000 0080
00000270: 3df3 9dbf fc01 0080 c911 9c34 8e02 85bf
00000280: 6a9a 8b3d 6701 0000 d51a 833c a2e0 873e
00000290: e403 0000 12c2 ca3b 3d62 53bf 7d01 0000
000002a0: 8161 4b3d a801 0080 da00 2bc0 d901 d73c
000002b0: aa5c dab8 ee19 a83d 3030 943c ef8b cb35
000002c0: 7f03 0000 4005 0000 90a6 bfbd af4b 1dad
000002d0: 3e03 0080 9133 292b 8000 0080 18b3 57bf
000002e0: 0101 0000 36b8 89bf 6cf6 e2bb 21a7 54bd
000002f0: 0900 0000 ec03 0000 85d6 373d 4587 e63e
00000300: e297 e739 416c 633d a561 173e 8c0f d73c
00000310: 7807 efbd 6f01 0080 64a2 273e 1654 3502
00000320: c101 0080 a412 a999 9b6d 053e 3401 0000
00000330: 3044 f6bb 6304 0080 2b72 003b 631c b2b8
00000340: 0dbd 433e 630a 0080 5d02 0000 c86e f23a
00000350: 3002 0080 5438 e53b ef01 0000 4701 0000
00000360: 2154 3039 781f 633e 7c47 cfbf 0f73 a0b9
00000370: d70b 0080 20b5 00be e001 0080 8903 0080
00000380: 09b0 903b 5ab0 ce37 b42b 6f3d 5b34 0423
00000390: 833a 343b f700 0080 7b74 b2bd f806 0000
000003a0: 0adf 203c ee01 0000 3936 40bd 365c bdbd
000003b0: b9a3 2432 cb21 443c a31b 023e 81ea 25bd
000003c0: 9435 ccaf 2971 8abe 03dc 1000 9c02 0000
000003d0: cd00 0000 be02 0080 88fd 18bf f30f 463c
000003e0: 1879 2532 20e5 1fba ee6e b58b 4a02 0080
000003f0: bc24 72be c100 0000 8ac1 4036 1b01 0000
0.07676814 -6.745377e-15 -4.459037e-38 -6e-43 -0.1352709 -7.5e-43 0.02175272 -2.3671974e-13
-0.83117837 0.27102965 4.7164114e-05 3.2737775e-05 0.18201326 -1.407795e-05 2.686804e-14 -1.4520571e-05
1.7442599e-05 -3.8665758e-06 -2.67e-42 -0.22556433 -0.07834043 1.06e-43 0.001206544 -0.015580917
-0.02138379 -0.20935382 -1.3e-44 -0.0052094394 -0.0012776657 -0.0045295474 0.0018715359 -0.085103184
-1.145e-42 0.00043622407 5.52e-43 -2.106046e-30 -0.0017423283 0.034473665 -2.4417443e-06 -0.85027415
6.096e-42 -0.2052779 0.061778944 -0.00044403088 2.9e-43 -9.96e-43 -7.0653373e-06 -0.0049273856
6.99e-43 4.6e-44 -0.38237527 -1.0558843e-32 0.06828858 -1.0975103 1.7e-43 -4.5518264e-06
-7.9e-43 0.0047794916 0.051365428 9.7e-44 -0.006572045 -0.43902802 -4.48e-43 8.900212e-19
-0.082870156 -0.04381747 0.07232689 -0.029958745 8.03e-43 8.73e-43 -1.6141297e-06 -0.011061638
-0.053562913 1e-45 0.0014501744 -0.05944316 0.30746278 -1.29e-43 2.6e-43 -7.4e-44
0.008760516 -0.04790046 -0.015326557 -0.025259493 5.51e-43 -2.6938991e-15 -8.1e-43 -0.011178945
1.278e-42 -0.21993989 3.36e-43 0.115587294 -0.0024598034 1.2500945e-36 -4.104e-42 -3.645e-42
7.15e-43 4.16e-43 -6.66e-43 0.08389157 -2.7142823 -3.2294086e-24 -1.003e-42 0.0004928035
1.064e-42 -4.7077e-41 0.048308667 -5.66e-43 -0.0075563802 -6.85e-43 8.9e-43 -4.88e-43
-0.108767934 6.4157607e-06 1.225918e-14 0.10899174 -0.18412618 8.11419e-11 5.8438425e-05 -4.6679273e-29
-2.05e-43 0.010579821 -3.53e-43 8.13253e-07 1.068e-42 -5.38e-43 0.010311425 0.00016313425
2.099e-42 -1.567e-42 0.14081162 1.288e-42 2.3226628e-08 -0.64422256 0.35386115 0.00022226566
-0.00047966905 1.2023966e-06 0.090153225 0.031670738 -0.09477538 -4.4321067e-05 9.77e-43 -1.136631e-39
2.2514237e-09 0.06624205 -0.40904856 -7.581419e-07 -0.020246131 7.75e-43 -0.14829013 -1.267e-42
1.8797804e-27 0.0053437045 -8.76e-43 -1.35e-43 -1.2339855 -7.12e-43 2.9070205e-07 -1.0391405
0.068165615 5.03e-43 0.016004005 0.2653857 1.396e-42 0.0061876858 -0.82571775 5.34e-43
0.049653534 -5.94e-43 -2.671927 0.026245998 -0.0001041231 0.08208071 0.018089384 1.5165405e-06
1.254e-42 1.883e-42 -0.09357941 -8.941222e-12 -1.163e-42 6.0112424e-13 -1.8e-43 -0.8425765
3.6e-43 -1.0759342 -0.0069263484 -0.0519172 1.3e-44 1.407e-42 0.044882316 0.45025077
0.00044172915 0.05552316 0.14783342 0.02625253 -0.116713464 -5.14e-43 0.16370541 1.3321911e-37
-6.29e-43 -1.748172e-23 0.13030092 4.32e-43 -0.007515453 -1.574e-42 0.00195993 -8.492989e-05
0.19115086 -3.726e-42 8.48e-43 0.001849615 -7.85e-43 0.00699524 6.94e-43 4.58e-43
0.00016816008 0.22179973 -1.619369 -0.00030603303 -4.247e-42 -0.12569094 -6.73e-43 -1.268e-42
0.0044155163 2.4639234e-05 0.058391288 7.166821e-18 0.0027500696 -3.46e-43 -0.08713623 2.5e-42
0.009818802 6.92e-43 -0.04692671 -0.092461035 9.583283e-09 0.0119709475 0.12705855 -0.040506843
-3.7145453e-10 -0.2703946 1.548293e-39 9.36e-43 2.87e-43 -9.84e-43 -0.5976186 0.0120887635
9.631798e-09 -0.0006099511 -6.988557e-32 -8.21e-43 -0.23646826 2.7e-43 2.8722884e-06 3.97e-43

fc2.bias f4 [300]
00000000: 10d7 843e 5c9c 0d3f 56e3 213e 6483 8dbf
00000010: 5551 1e3f 939f 6bbe 28f9 303e f15d fa3d
00000020: d2ed 7e3d 7f6f 0abf 6b47 a9bf 8c75 8f3d
00000030: 9206 19bf d3b8 ee3c 1766 debe 0288 a33d
00000040: baf3 f3be 8eb8 4bbf f1c3 0a3d 2739 373f
00000050: f8d7 bf3e 88e6 543d bbbe 07bf babc fa3c
00000060: 4b4f 26bf 094c 0a3e 4e7e bcbf 72f6 cf3d
00000070: 0b7f 11bf 5aeb 9f3e 708b ccbd 2a5a a1be
00000080: 3460 9b3d 5fcb 1abf f2af 51bf 41d6 d1bd
00000090: efc8 26bd 6aa2 b13e 9493 3a3e e763 9ebe
000000a0: 07cd c2be 0271 0bbf e5db 9fba 43be 4bbf
000000b0: 2fa6 24bf db83 703d 1463 b7be 2d64 f6be
000000c0: e9e9 263f ad3d c3be 9ed9 cd3d 7b17 923f
000000d0: 8f12 3bbf 6893 3bbf 1bfb 40bf cbe7 90be
000000e0: afac 83bf 8aab 2a3e 2748 fdbe 5e0a 4abe
000000f0: 4bb3 1fbf 37ce c4bc 718e a03f cc41 6fbf
00000100: 5078 153c f4b4 eb3b 8d96 e83e c855 9abf
00000110: c20b adbb 6fcc e03e e02c 483f 7d00 7bbf
00000120: 1838 e2bb 0a41 50c0 b04e 6c3f 50e8 a9be
00000130: eb6e 443d 33f2 b33e 438c 57bf e014 9abb
00000140: 5cd9 b53d a047 473c 42cd 46bd 4268 c4bd
00000150: 02a6 99bf 698f 53bd 23bb 5dbf ef25 f93c
00000160: 8b91 0c3f cb7a a8be a2f2 673e 66e1 ddbe
00000170: 7976 d8bf c0d3 dcbe 55e3 5abf f0c0 ba3d
00000180: b22e ea3e ea14 0ebe 908b 35bf ee63 cb3e
00000190: aae7 a3bd 3206 11bf 4d94 cebc 6453 3fbf
000001a0: 48fc ee3e 78fd 2d3e b821 d2bd 06ce a4be
000001b0: da90 2f3e ba5f a43d 3107 fbbd bee2 96bb
000001c0: a213 bebe c530 343e 8899 3dbf 2360 633e
000001d0: c246 4c3f 3f9e 033e bcaa f0be abb6 cbbe
000001e0: 446e 833f 5baa 493d 3a03 a93c 0599 a9be
000001f0: e5c9 ac3d a738 24bd 2bf3 3a3b 2680 163d
00000200: 4253 11bd c8ce d53d ce05 2e3e 3d6a 22bf
00000210: bc79 03be e156 0cbc 4c40 903d 59d1 55bf
00000220: 8f41 cfbf 8c83 be3d daae 09bb 4e91 773d
00000230: 2f0c 96bf 8b68 9d3d a2fc d53e 5230 523f
00000240: 39c4 173f d14a ea3e e71a 793d 14dd e03d
00000250: b7a4 5ebe 02d9 42bf 3198 2b3f a2e4 413e
00000260: 3daf 8b3f eaa0 383e 5b4a 0fbf f53f adbe
00000270: 9df7 603e cdd6 ca3c b455 03bf cd96 5cbf
00000280: 4093 1fbf 0bc5 1abe eece 413d 983f 253e
00000290: 5b0d 613d c047 31bf e3be e63b dc81 ac3e
000002a0: a906 e53f f722 20bf 0f0e 06be 6393 73bf
000002b0: 2464 f4bd 2394 10bf fd90 ae3d aca6 d8bc
000002c0: c42c 39c0 8a09 ebbd 7cd4 993d 177e 0f3d
000002d0: aecc 5d3e 381b cfbe 0d6a 0c3d 1bc7 9fbe
000002e0: 1bbc 3d3d 4873 93bc e2f3 afbd 4f22 53bf
000002f0: 3791 4abf 1dc2 e83e 3cf1 0abf ad7f 74bf
00000300: 2c01 0c3f 7c92 bdbe 1502 813e 43d8 743d
00000310: 4e07 b63e b056 b93e 7fb4 623f f331 57bf
00000320: c062 b03e 708e 8a3d 1b00 253f 67ef fc3c
00000330: 1020 4e3f 757e a1be 9bc3 773f e3f5 eb3d
00000340: 92c1 25bf c057 e8be ec80 c53d 6e7b a53d
00000350: 0dfd 893d 285d ab3d 54d4 0d3e dd84 eb3b
00000360: 6084 b63d 9619 c5bf 85d9 eebd 3cb3 b73d
00000370: b9b0 0e3e ca59 3dbf 5fbd 783d 4eed c93d
00000380: ec8e 843c a727 1e3f b649 61bf a0ee 9abe
00000390: 158a 23be 782c 1fbf 30c5 443e 1f61 d03d
000003a0: f8cc babe d2f2 c1bf 3ff3 023f e41a 483d
000003b0: 2144 70bd 1409 98bc 85bd e13c 9031 8fbe
000003c0: e44e 50bf ab9d 373e e2d8 dcbe 7005 f73d
000003d0: 7da8 68c0 871e 2c3f 9415 88be 8eb3 04bf
000003e0: 3de2 36bf 3271 693e 42c4 b83f 129b 133f
000003f0: 7525 ebbe 46ba 773d 0253 da3f d875 2abf
0.2594533 0.5531671 0.15809378 -1.1055722 0.6184285 -0.23010091 0.17282546 0.12224949
0.062238522 -0.5407638 -1.322492 0.07004842 -0.5977565 0.029140865 -0.43437263 0.07984926
-0.47646886 -0.79578483 0.03387827 0.7157158 0.3746946 0.051977664 -0.53025407 0.03060757
-0.6496474 0.13505568 -1.4726045 0.101544276 -0.5683448 0.31234246 -0.09987533 -0.31514102
0.07586709 -0.6046657 -0.81909096 -0.10245944 -0.04071897 0.34694225 0.18220359 -0.30935594
-0.38047048 -0.5446931 -0.0012196271 -0.7958719 -0.64316076 0.058719497 -0.35817778 -0.48123303
0.6520067 -0.38132992 0.10051273 1.1413416 -0.73075193 -0.732718 -0.75383157 -0.28301844
-1.0287074 0.16667 -0.4946911 -0.19730517 -0.62382954 -0.024024112 1.254347 -0.93459773
0.009122923 0.007193202 0.4542736 -1.2057428 -0.0052809427 0.4390597 0.78193474 -0.9804762
-0.0069036596 -3.2539697 0.9230757 -0.33185053 0.047957342 0.3514572 -0.841984 -0.0047021955
0.08879349 0.012163073 -0.048535593 -0.09590198 -1.2003787 -0.05165044 -0.8661367 0.030413596
0.5490958 -0.32906184 0.22651151 -0.43336028 -1.6911155 -0.43130302 -0.8550313 0.09118831
0.4573875 -0.13875166 -0.7091608 0.39724678 -0.08003171 -0.5665008 -0.0252172 -0.7473662
0.4667685 0.16991222 -0.102603376 -0.32188433 0.171451 0.08026071 -0.12257231 -0.0046046665
-0.37124354 0.17596729 -0.74062395 0.22204642 0.7979547 0.12853335 -0.4700526 -0.39787802
1.0268025 0.04923473 0.020631421 -0.33124557 0.08436946 -0.04009309 0.0028526287 0.036743306
-0.03547979 0.10439831 0.16994402 -0.63443357 -0.12839407 -0.008565635 0.07043514 -0.83522564
-1.6191882 0.09302434 -0.002100876 0.060441308 -1.1722468 0.076859556 0.41794306 0.8210498
0.59283787 0.45760205 0.06081667 0.10979667 -0.21742521 -0.7611238 0.670291 0.18934873
1.0912853 0.18030134 -0.5597283 -0.33837858 0.21969457 0.024760628 -0.5130265 -0.86167604
-0.6233406 -0.15114228 0.047316484 0.1613754 0.054944377 -0.69250107 0.0070417984 0.33692825
1.7892658 -0.6255335 -0.130913 -0.9514677 -0.11933163 -0.5647604 0.08523748 -0.026446663
-2.8933573 -0.11476429 0.07511231 0.035032358 0.2166011 -0.40450454 0.034280825 -0.31206593
0.04632197 -0.017999306 -0.08591439 -0.82474226 -0.7912783 0.45460597 -0.54274344 -0.9550732
0.5468929 -0.3702582 0.251969 0.059776556 0.35552448 0.3619895 0.88556665 -0.8406059
0.3445034 0.06765449 0.64453286 0.030875875 0.80517673 -0.31541792 0.96782845 0.115215085
-0.6474849 -0.45379448 0.096437305 0.08080183 0.06737719 0.083673775 0.13850528 0.0071874694
0.08911967 -1.5398433 -0.11662582 0.08969733 0.13934602 -0.7396513 0.060727473 0.098597154
0.016181432 0.61779255 -0.880031 -0.3026018 -0.15970643 -0.6217723 0.19215846 0.101747744
-0.36484504 -1.5152228 0.51152414 0.04885377 -0.058658723 -0.018559016 0.02755619 -0.279675
-0.8137038 0.1793124 -0.43134218 0.12061584 -3.6352837 0.6723408 -0.26578963 -0.5183648
-0.7143896 0.22797087 1.4434893 0.57658494 -0.45927015 0.06048038 1.7056582 -0.66586065

bn1.weight f4 [400]
00000000: 2fbf 0bbc 721c f4bc c490 2a84 de22 be90
00000010: 281b 9d3f 7800 0080 aed5 013a a0be 4fbc
00000020: d22a 1540 f4e4 3a40 1bfa 7bba e287 d0bc
00000030: 455c 043e feca c2bc 0dd0 67bc 8c6e d6bb
00000040: 09ab 28bc 283d 01bc 78b2 e596 2352 c040
00000050: 7aca d33d 49dd d68c 5b77 3cba dfc9 b6bc
00000060: 419c dd3b f285 f23e b101 0000 f407 ddba
00000070: 5b7b 56bc 450c 21bc 2adc 253b 78bf fb3d
00000080: 2900 0000 c319 b2bc 1088 24bb 51d9 90bc
00000090: 478f d2bb a753 5a3c 9108 75bc 7cbe d83f
000000a0: cc01 0000 298b ee40 9766 85be 3673 1540
000000b0: f8f6 07b0 1c5b 60a6 5945 e2ba 4290 65bc
000000c0: a7f4 dfb8 bb6b d0ba 84b6 df40 cb09 128c
000000d0: 497f 1bbb b209 2440 d29c f1b6 91c3 c0ba
000000e0: 3951 0ca3 401b 4ebc 3291 073d e201 0000
000000f0: 4777 77bc 61e7 e33f 1021 27bc f5f0 9abc
00000100: 48fc 943f a947 98bc 733e e73e 794f 61bc
00000110: c85a 46b9 68eb d2b8 771e 74bb e1b5 85bc
00000120: aa6d ce3f 8ae7 c1bc f8b6 95bc b4e3 4cba
00000130: 9218 d03f 6e43 d2bb 7bcc f9ba b42e 69b6
00000140: 4979 1cbb a1d6 243f aed6 12bc eaa4 d13c
00000150: 3f66 10b4 4fc7 ba26 f956 c0b9 6e2f aabb
00000160: 6220 e6b1 5e4e bcbf e9c9 87bc 9d85 2540
00000170: dcde 08bd 7052 93bc d700 0080 ac00 0080
00000180: 13fe 09b9 c80a 56ba 1271 5bbb 3cac 81bc
00000190: 88c7 9c40 30d7 7fbc fcde 88af 84a8 dbbc
000001a0: 2427 1621 cb0c ad3b 586c 1dbb fd25 fbb9
000001b0: ebc0 d63a 2a9d 18bc 7efd c139 4341 eaba
000001c0: b7a3 6940 d9e3 47bd 18f8 e5bb f826 d23e
000001d0: cc67 0a3f 28a5 68bc 879f a6bb d80b 1e10
000001e0: 0bad 2abb 10e6 adba 3cfc 43bc 746f 7abd
000001f0: 5802 0000 f62c 9dba feaf 2dbb 4953 8ab9
00000200: 8100 0000 2501 0000 e43e 023e 1734 6fb0
00000210: 4973 1cbc 6c5c 8f40 261d 3540 ea3a c7bc
00000220: e98b 303a 6804 bdbb 5193 c43d f1ff bb3e
00000230: 85d3 2e3d 0a63 94ba aeae 53b4 6889 42bc
00000240: 2b9e 6ebb cd59 6f38 9da2 2741 c65b ffbc
00000250: 21b6 baba 8771 2fb4 13ee 2f40 b200 0000
00000260: 8112 81bc 2145 ed3c d2af 1cb7 e09a 313b
00000270: afd1 1ec0 f70f f0bb a061 cbba c7cb 1b40
00000280: b7cb 903d 56ad 2636 25d6 bdbc 0afd ed3f
00000290: 64fb 968e bce1 c63d 6512 b23f 7100 0000
000002a0: 7a44 fe3c e9d5 85a4 05d1 ae40 d41d 433c
000002b0: 49a5 02bd b1df 4b3d 5d14 0abc f7cd 84bd
000002c0: f720 ab9a 9a00 0000 ec1d 563f cee7 0bbc
000002d0: 86a1 66b1 9231 a2b8 687a 8c23 cd2d 9740
000002e0: 88a9 d28f 872d 0840 f209 803a 293a bebe
000002f0: 845b 0dba 6f00 0000 db10 313c 3d2e ff3f
00000300: 5560 29bd 8297 e83f c48d fc3e 93f1 c1bc
00000310: a520 9a40 15e2 9a3a cf15 3f3f 6b0e 1a04
00000320: dc76 2922 eb22 b6bc 4f08 c83d a0a6 9bb9
00000330: e8ef b9bc 4c8d 0a8b d795 b3bb ede4 b1bc
00000340: 6895 3e40 1901 0080 68ee 52ac 65b6 0abc
00000350: febb 39b8 3caf 37bc 32b0 81ba c8b8 c6b6
00000360: 882d acbc 814d 7b40 5316 4940 fd58 033d
00000370: cb01 0000 b7aa 1d3f 7d06 3404 f1cf 0296
00000380: 7b23 b0bc 47a8 ac3c ede2 cc3a 7538 62bd
00000390: 80fc d4bc ffd1 d1bb 209c e83e 4edb 8a03
000003a0: a306 003b 8716 8689 1a37 8c3c 59fe e33f
000003b0: 020d 12bd d34f 7fba 821e 613d c5ea 2c3d
000003c0: c61a 04bc b662 f33f 0e3d 99ba 3b40 87b1
000003d0: 32c8 c9bc 8cbf 19b6 322e 0840 6ccf 33bc
000003e0: c065 34bc 07da 86ba 2db4 481d 45cf 3eb3
000003f0: 5610 3840 b6d5 69b6 a4be 52bc 9c92 41bc
-0.008529468 -0.02979872 -2.0049877e-36 -7.499551e-29 1.2273912 -1.68e-43 0.00049528 -0.012679726
2.3307385 2.9202242 -0.0009612159 -0.025455419 0.12925823 -0.023778435 -0.014148724 -0.00654394
-0.010294684 -0.007888116 -3.7109575e-25 6.0100265 0.10341354 -3.3105102e-31 -0.0007189416 -0.022313057
0.0067630117 0.47367817 6.07e-43 -0.0016863332 -0.013090934 -0.009829585 0.002530823 0.12292379
5.7e-44 -0.0217408 -0.0025105514 -0.01768175 -0.0064257714 0.013325608 -0.014955656 1.6933131
6.45e-43 7.4544873 -0.26054832 2.335157 -4.946368e-10 -7.783909e-16 -0.0017263099 -0.0140114445
-0.00010679039 -0.0015901247 6.9910297 -1.1250378e-31 -0.002372699 2.5630918 -7.200616e-06 -0.0014706721
-7.606615e-18 -0.012579739 0.033097453 6.75e-43 -0.0151041215 1.7804986 -0.010200754 -0.018913725
1.163949 -0.018588858 0.45164832 -0.013751858 -0.0001891657 -0.00010057428 -0.0037249604 -0.016322078
1.6127217 -0.023669977 -0.018275723 -0.0007815913 1.6257498 -0.0064167297 -0.0019058132 -3.474689e-06
-0.0023876003 0.6439 -0.008962316 0.025591332 -1.3448242e-07 1.2960365e-15 -0.00036685893 -0.0051936423
-6.6975625e-09 -1.4711416 -0.01657577 2.58628 -0.03341566 -0.017983645 -3.01e-43 -2.41e-43
-0.00013159988 -0.00081650587 -0.0033484143 -0.015829198 4.899357 -0.01561527 -2.4896696e-10 -0.026813753
5.087378e-19 0.005281066 -0.0024020877 -0.00047902754 0.0016384398 -0.009314815 0.00037000695 -0.0017872233
3.6506174 -0.048801277 -0.0070181005 0.41045356 0.5406463 -0.014199533 -0.005084935 3.116913e-29
-0.0026043083 -0.0013267417 -0.011961993 -0.061141446 8.41e-43 -0.0011991549 -0.0026502605 -0.00026383463
1.81e-43 4.1e-43 0.12719303 -8.702172e-10 -0.0095489705 4.480032 2.829904 -0.024320085
0.00067347154 -0.0057683475 0.09598411 0.36718705 0.04268219 -0.001132102 -1.9714454e-07 -0.0118735805
-0.0036410193 5.7065674e-05 10.4772005 -0.03117169 -0.0014244952 -1.6339446e-07 2.748906 2.5e-43
-0.015755894 0.028963627 -9.339261e-06 0.002710037 -2.481548 -0.007326122 -0.0015516765 2.4343126
0.070701055 2.4836822e-06 -0.023173401 1.8592846 -3.7219935e-30 0.09711024 1.3911864 1.58e-43
0.031038512 -5.8041933e-17 5.463015 0.011908967 -0.03189591 0.049773876 -0.008427707 -0.06484597
-7.07772e-23 2.16e-43 0.8363941 -0.008539153 -3.356122e-09 -7.733995e-05 1.5230671e-17 4.724341
-2.07729e-29 2.1277788 0.0009768589 -0.37153748 -0.000539236 1.56e-43 0.010807241 1.9935986
-0.041351635 1.8171237 0.4932691 -0.023674762 4.816485 0.0011816645 0.7464265 1.8109233e-36
2.2966695e-18 -0.022233447 0.0976721 -0.0002968805 -0.022697404 -2.6684133e-32 -0.005480509 -0.021715606
2.977869 -3.94e-43 -2.9975137e-12 -0.008466338 -4.428252e-05 -0.011211213 -0.0009894429 -5.922371e-06
-0.021017805 3.9266055 3.1419876 0.032067288 6.43e-43 0.61588615 2.1161878e-36 -1.0566931e-25
-0.021501293 0.021076335 0.0015631594 -0.055229623 -0.025999308 -0.0064032073 0.45431614 8.161261e-37
0.0019535206 -3.228051e-33 0.017116118 1.7811996 -0.035656936 -0.0009739373 0.054960735 0.04221608
-0.008063024 1.9014499 -0.0011691169 -3.9363193e-09 -0.024631593 -2.2910272e-06 2.1278195 -0.010974746
-0.011010587 -0.0010288366 2.6562928e-21 -4.4426333e-08 2.875997 -3.4844102e-06 -0.012862835 -0.01181474

bn1.bias f4 [400]
00000000: 196b 70ba 069a febc 81fa 3d85 808c 0faf
00000010: 4383 903f e85c 52a1 c128 a1ba 5042 8fbc
00000020: efde 11bf 84f1 e9bd e75a 14bc 3617 f4bc
00000030: c21d 083e 503d d1bb 9475 6bbc eb6f c2bb
00000040: 1865 efbb aa83 06bc 50a4 bfaf d680 a83f
00000050: 41e9 e53d ecfe 2bac af22 62bb f536 a7bc
00000060: 3b22 6cbb f863 ef3e 8e05 84a5 95c0 8abb
00000070: c133 9abc c7e9 43bc 0251 52bb 88b1 213e
00000080: d62d f19a bbfc b6bc 5408 9eba 8876 adbc
00000090: 53af 08bc c2cd c43c 0ced 9dbb 6aec 263f
000000a0: b908 37a3 63b1 a83f de4c 8c3d dfa8 683f
000000b0: fac3 4eb9 ec61 ecb4 1055 25bb 878b 8fba
000000c0: 92fd 34b9 ece1 17bb ba77 dc3f 37e5 4e8d
000000d0: d6fe 63bb c9a4 233f 4f59 59b9 26d7 61bb
000000e0: 0e7a 83b2 061e 45bc b70e 213d e81b c0a4
000000f0: 4ee1 9abb c4d7 913f a12a a1b9 9553 00bc
00000100: 0e23 2d3f 26ff 733a 0e47 613d f27d 36ba
00000110: 35a7 61ba 7a3d 91ba 9a1a deba effc 1bbc
00000120: b352 903e 4f40 8bbc a842 79bc b06b a8ba
00000130: e99e f23e 4b22 30bc 4b36 a3bb dce4 a4ba
00000140: 9092 4aba f2ef 083e 3a00 40bb 24b4 2c3d
00000150: 46f7 34b9 83e9 09a8 17c9 a0ba 8a05 28bc
00000160: 947a 11b8 c4d6 89be a173 4fbb 9124 62be
00000170: 16cf ecbb 2c1d 8ebc 2c61 8b8c 5910 3a9e
00000180: b0a1 8dbb b750 daba 1dfd 86bb 6c23 4cba
00000190: bc4d 4b40 925f bbbc 460a 9db8 e958 44bb
000001a0: 6337 bbb2 7619 b0bb 6a8e 72bb cd68 49ba
000001b0: e259 78bb 9f2f a6b8 39aa b2bb 07aa 2eba
000001c0: d67d 2e3e 36b6 30bc bdd5 69bb 8174 0d3f
000001d0: 8e7a 203f db66 8cbc 60d1 62ba 017a 8d10
000001e0: df89 38bb 4b4d a1bb 2f9e acbc 91a2 10bc
000001f0: 0275 fab5 3cd3 06bc 42f6 69bb f1c8 87bb
00000200: a169 9ca7 d2a2 9b9f e1de f33d 3e78 00b8
00000210: 90c1 56bb ff48 3540 e06c 3bbf b0b5 32bb
00000220: 69a4 e33a 09ac b6bb 5fbc c03d 297f d73d
00000230: b34d a33d 4944 6039 6e5d 6eb9 0e37 aabc
00000240: 1656 d0ba 4a6c 61bb ce14 e83f 5c10 34bc
00000250: 14a0 ec3c 879a 29b7 5966 783e 311b 91ab
00000260: 6ebc a8bc 5321 043d aa4c 9cb8 49ae 5abb
00000270: a136 a73f 31cc 8fbc fb6c 01bb 95ad 9b3f
00000280: 939a b03d 9959 9ab9 9b60 6cbb 9ff4 203f
00000290: 0910 0aaf 3a5f d53d 375f 5ebe 1cfc 379a
000002a0: fca8 173d 2829 42b2 3f68 5740 22b5 53bc
000002b0: 1e3b acbb 70b6 ab3c 755a 18bc 71e0 85bc
000002c0: af2c 1fb1 7452 c09f 9bab 6f3f bf8e a4bb
000002d0: 06df d0b8 41e3 21bb 548d 8eb4 ba8a 4640
000002e0: 0c7c a2b4 20c6 5b3f 88aa 00bb bd75 bb3d
000002f0: cc25 b6bb be64 619c 5679 943c 8ca4 0cbf
00000300: 0690 81bb a6cb 78be d0a5 e43d 1031 753a
00000310: a2da 9e3f 69be cdba 4979 2bbb bc8d b586
00000320: 3d0c d5b3 766e d5bc 392a c23d 875a adb9
00000330: 6daa e4bb f120 6dac 52d5 02bc f48b c1bc
00000340: bda2 923e 2190 9f92 330c fab6 de4a f6bb
00000350: f092 9dba 3064 8bba ffb2 52bb 818a 5dba
00000360: 1536 aebc db98 8e3e e62f d53e b59a 273d
00000370: 5847 f392 da8b a53d 970c bdac 309f 9bb0
00000380: 6d04 a2bc 7d90 b8bc 780b 733c 9a7b 14bd
00000390: 2bac b5bc e1ed 8fbb b441 143f 6ead ceab
000003a0: d771 71bb 1144 03ae fc20 1b3d cd4a 33be
000003b0: b51b efba 2824 80bb 250c be3d 586d 563d
000003c0: 0e6b edbb cc2f ac3f a5c2 7fba c476 28b9
000003d0: 232f c8bc 08f1 e6bb d4fa 603e 159c cabb
000003e0: 9b6e 66bb faf2 8dbb 23b9 b29d 75e6 78b7
000003f0: 3962 2e3f e16e 63ba ebba 38bc 074d 97bb
-0.0009171232 -0.031079303 -8.9327476e-36 -1.305569e-10 1.1290058 -7.127373e-19 -0.0012295471 -0.017487675
-0.56980795 -0.114230186 -0.009054876 -0.029796224 0.13292602 -0.006385483 -0.0143712945 -0.005933752
-0.0073057525 -0.008210102 -3.485945e-10 1.3164318 0.1122613 -2.4442072e-12 -0.0034505536 -0.020411948
-0.0036031145 0.46755958 -2.2902114e-16 -0.0042343833 -0.018823506 -0.011957592 -0.0032091741 0.15790379
-9.9749316e-23 -0.022337308 -0.0012056925 -0.021174684 -0.008342582 0.024023894 -0.004819518 0.6520449
-9.922297e-18 1.3179134 0.06850599 0.90882677 -0.00019718698 -4.4029673e-07 -0.0025227703 -0.0010951617
-0.000172606 -0.0023175431 1.7224038 -6.375456e-31 -0.0034789345 0.6392332 -0.00020728003 -0.0034460514
-1.5305911e-08 -0.012031084 0.039320674 -8.3314e-17 -0.0047265654 1.1393971 -0.00030740074 -0.0078324275
0.67631614 0.00093077344 0.054999404 -0.00069615163 -0.00086079846 -0.0011080944 -0.0016945184 -0.009520753
0.28188094 -0.016998438 -0.015213646 -0.0012849476 0.47386864 -0.010750364 -0.0049808375 -0.0012580412
-0.0007727528 0.13372782 -0.002929701 0.042163983 -0.00017258254 -7.6556625e-15 -0.0012266961 -0.010255227
-3.4684854e-05 -0.26921666 -0.0031654614 -0.22084261 -0.007226835 -0.017347895 -2.1474824e-31 -9.850139e-21
-0.004322253 -0.0016656135 -0.004119529 -0.00077872607 3.1766195 -0.02287272 -7.488257e-05 -0.002996022
-2.1794852e-08 -0.005374129 -0.0037011155 -0.0007683158 -0.0037895371 -7.924367e-05 -0.005452421 -0.0006662909
0.1704019 -0.01078563 -0.0035680376 0.55255896 0.62687004 -0.017138889 -0.0008652415 5.580267e-29
-0.002815835 -0.004922544 -0.021071522 -0.008827821 -1.8660505e-06 -0.008229073 -0.003569976 -0.004143827
-4.341322e-15 -6.591442e-20 0.11907745 -3.0629562e-05 -0.003276918 2.8325803 -0.73213005 -0.0027268939
0.0017367724 -0.0055747074 0.09410929 0.10522301 0.07973804 0.00021387743 -0.00022732254 -0.020778205
-0.0015894796 -0.003439682 1.8131349 -0.0109902285 0.028884925 -1.0109164e-05 0.24257793 -1.0310417e-12
-0.020597663 0.032258343 -7.4529395e-05 -0.0033368042 1.3063546 -0.01755342 -0.0019748795 1.2162348
0.08623233 -0.00029439924 -0.0036068324 0.6287326 -1.2556724e-10 0.10418554 -0.21716009 -3.8047165e-23
0.03702639 -1.1301644e-08 3.3657377 -0.012921603 -0.0052560708 0.020961016 -0.00929891 -0.016342374
-2.3162945e-09 -8.145157e-20 0.93621224 -0.0050218995 -9.959754e-05 -0.0024702104 -2.655239e-07 3.1022172
-3.0265107e-07 0.8584919 -0.0019632895 0.09153316 -0.005558705 -7.457646e-22 0.018124264 -0.5493858
-0.0039539365 -0.24296436 0.11164439 0.0009353319 1.2410471 -0.0015697005 -0.002616482 -6.829289e-35
-9.9208116e-08 -0.026053648 0.094807096 -0.0003306458 -0.006978324 -3.3698012e-12 -0.00798543 -0.023626305
0.28639784 -1.0069841e-27 -7.452001e-06 -0.007516249 -0.001202194 -0.0010634717 -0.0032150147 -0.00084511196
-0.021266023 0.27850994 0.41638106 0.040919024 -1.5353044e-27 0.08083315 -5.373101e-12 -1.1322978e-09
-0.019777501 -0.022529835 0.014834277 -0.036250688 -0.022176823 -0.004392371 0.57912755 -1.4685317e-12
-0.0036841535 -2.9846407e-11 0.037873253 -0.17509003 -0.001824251 -0.00391056 0.0927966 0.052350372
-0.007245428 1.3452086 -0.00097564823 -0.00016065972 -0.024436539 -0.007047776 0.21970683 -0.006183157
-0.003516114 -0.0043319436 -4.7307635e-21 -1.4835609e-05 0.68118626 -0.0008675885 -0.0112750335 -0.0046173367

bn2.weight f4 [300]
00000000: 21b0 42bd fac3 80b3 69a8 4fc0 8796 9140
00000010: f315 c23f e97a 7840 86c3 6a2d a50c 233f
00000020: 91f7 babc 10e9 5540 1d03 6640 db01 0000
00000030: b932 67bf c5cd 743c e1c6 f640 5dfc 8c98
00000040: c02e 2b41 d90f 4040 01ab 963f 681b 27c0
00000050: dbb0 782d a3c3 3732 f296 fcb6 5d4c 8ca5
00000060: 3cf3 aebc e6bb 8cbc 0dc7 c440 bdd5 25bc
00000070: 456d 86b9 96a5 20c0 1fb4 8c3f 44c4 7540
00000080: 4701 0080 dbd9 4323 61ed 8b40 0bb4 5d40
00000090: 4d99 dcbb 4605 123d 1783 7421 3d7a f03e
000000a0: 6901 0080 60c6 2a40 e9ef a540 d794 9c40
000000b0: 230c e1be f801 0000 28b0 7b40 a13a 0f3d
000000c0: ab9e a540 61ff db40 de7c 443d 54ab 1f40
000000d0: f3a0 2d41 d843 1900 d314 d440 a368 ba40
000000e0: 412f 9640 1d95 863e 633f 4741 8c18 c1bc
000000f0: 948b 4441 41c2 6cba 663b 2140 5fd8 fa40
00000100: 49eb 5540 425d 7fbd 8afe 5eb1 d663 a840
00000110: 0b5f 3abd 1f5e c6bf aac3 9540 cdb8 54bd
00000120: 5c07 9fc0 7cc8 f540 f5be 3440 b4b9 4040
00000130: 7800 0000 78d6 3c40 c75b ee40 bc44 acbb
00000140: e98e ff3b 6101 0000 32c6 d0b9 4c4b d33d
00000150: aca1 9b40 704c db3f 6d60 393d 4f35 a33d
00000160: 106e 93c0 02fb 2e40 0d0d 82bc 5672 64bb
00000170: b6a2 d240 012e 353f 1264 4abf ed36 818f
00000180: eed1 ddb9 f999 bc40 157b 1f41 9fd5 3d3e
00000190: 1301 0000 859a 0541 fba2 fa3d d2ee 8d3c
000001a0: 83ce 2bc0 b60a 99c0 3889 56b2 da63 80c0
000001b0: d075 a5bd 2d01 0440 9868 c93d e67d 6a3f
000001c0: a9f0 553e 5be9 c440 43d4 33bf fe53 353f
000001d0: 2f83 a540 fabe c23d 1284 f2bc 39b9 0541
000001e0: ec5e 8740 c5f1 c1bd d889 cd3f 310f 443d
000001f0: 639f 82bd d2d9 37bc 4660 0bbc 1171 1540
00000200: a82c 33ba d73d fcb8 62e2 e13a 81d8 0037
00000210: e1ee 30be 1c2f 043e e785 733d 194e 8240
00000220: 17c4 5b40 dcae 9ebc cc5f 5b40 c38a 2b3d
00000230: a460 0a41 c38a 642d b8bd 313d e669 4840
00000240: 0a6a 7b40 8c99 e8c0 5c2f a73d f082 1340
00000250: b4b9 8640 f8f2 933d 6be8 2fc0 9358 ae3c
00000260: 2d94 2040 0b09 dabc 8c79 cbbc 67f0 4240
00000270: bfe4 403d df6d 913e e46e 8840 a2d9 7640
00000280: b839 4840 c757 4440 93d7 0140 f455 bbb9
00000290: 9cb4 50b6 4ff8 a440 086c c4b0 7150 923e
000002a0: d8fe b340 72df 6b8d 8da9 8a40 d664 eb3f
000002b0: 1901 0080 4d72 cab4 0250 fb3f fbe2 3941
000002c0: eb1f ca40 c312 8840 9a92 e8ae f665 6bbd
000002d0: 6602 643f ae17 0941 e086 a03f 7533 8b40
000002e0: b9ec fa3f 4b7e 04b3 2c76 0641 07f5 a0bf
000002f0: 8d5a 8240 4012 41bc 35d1 4d40 ca94 ea40
00000300: 8c4e 7640 85ba 5b40 407c de3c 88c2 4240
00000310: 3e5a 5640 f3f2 553c 840a dbc0 57f4 2e3a
00000320: ead6 e63e f009 0000 4837 6140 4ca4 723d
00000330: f6d8 5b40 9a20 1541 6225 3240 4278 513b
00000340: bf35 0bbb e4d6 3441 d3b3 d7bc 9bd5 a0bc
00000350: 1fae ab3d b10d 353e 9b8d 013e 73a2 c23f
00000360: 9bd7 1aa8 a1de be40 6cf2 d840 4201 0080
00000370: c617 e0bd fc81 c440 096b 3c3e e5ad 8daf
00000380: 6562 aebb 9dd4 5f40 82c1 7840 5c08 a040
00000390: 2414 f43c 91fc 833d 3d46 d1b8 169b 9740
000003a0: 2393 8f40 ed04 8440 5bf2 a0bf f1e1 5e3c
000003b0: 7820 6db6 2a95 8bc0 82c1 1640 aa88 cdbe
000003c0: 2d4c 8040 4417 c73d 5a72 673f 3e4c 87bc
000003d0: 8080 2141 8660 1340 e3f7 8240 3d4c 6740
000003e0: dbd5 b540 bff1 233f 4d8b 5940 e745 febf
000003f0: e21e a93d 2773 8d3d d4ad a140 0f2f c9be
-0.04753125 -5.9961124e-08 -3.244654 4.549625 1.5162948 3.8825018 1.3344775e-11 0.6369117
-0.022823127 3.34235 3.59394 6.66e-43 -0.9031177 0.014941637 7.711777 -3.6443974e-24
10.698914 3.0009673 1.1770936 -2.6110477 1.4136438e-11 1.0696485e-08 -7.5277576e-06 -2.4337874e-16
-0.021356218 -0.01717944 6.149298 -0.01012176 -0.00025639884 -2.5101066 1.0992469 3.840104
-4.58e-43 1.0617104e-17 4.372727 3.464114 -0.006732142 0.03564956 8.284391e-19 0.4696826
-5.06e-43 2.6683578 5.185536 4.893169 -0.43954572 7.06e-43 3.9326267 0.034968022
5.1756186 6.874924 0.047970645 2.494832 10.851794 2.320225e-39 6.627542 5.825273
4.6932683 0.2628564 12.452975 -0.023571275 12.284077 -0.00090316316 2.5192504 7.8389125
3.3424857 -0.062344797 -3.244994e-09 5.262187 -0.045500796 -1.5497473 4.680135 -0.051934052
-4.9696484 7.680723 2.824155 3.0113344 1.68e-43 2.9505901 7.4487033 -0.005257217
0.0077990186 4.95e-43 -0.0003982052 0.10317096 4.8634853 1.7132702 0.045257974 0.07969152
-4.6071854 2.7340703 -0.015875364 -0.0034858189 6.582362 0.7077332 -0.79058945 -1.2741539e-29
-0.00042308815 5.8937955 9.967549 0.18538521 3.85e-43 8.3502245 0.12238117 0.017325792
-2.6844795 -4.7825575 -1.2487639e-08 -4.012189 -0.080791116 2.0625718 0.09834403 0.91598356
0.20892586 6.153486 -0.7024576 0.70831287 5.1722636 0.09509082 -0.029603992 8.35772
4.230337 -0.09469942 1.6057692 0.04786605 -0.06378057 -0.011221366 -0.00850684 2.335026
-0.00068349624 -0.00012027815 0.0017233605 7.679803e-06 -0.17278625 0.12908596 0.05945387 4.0720334
3.4338434 -0.019370489 3.427722 0.04188038 8.648594 1.2991111e-11 0.04339382 3.1314635
3.928347 -7.2687435 0.0816333 2.3048668 4.210169 0.07224077 -2.7485607 0.02128247
2.509044 -0.02661564 -0.024838232 3.045923 0.04709315 0.28404137 4.2635365 3.8570333
3.1285229 3.0678575 2.0287826 -0.0003573146 -3.1099544e-06 5.155311 -1.4291581e-09 0.28576997
5.624859 -7.268393e-31 4.333197 1.8390148 -3.94e-43 -3.7708597e-07 1.9633791 11.617915
6.316396 4.2522902 -1.057618e-10 -0.057470284 0.8906616 8.568281 1.254116 4.3500314
1.9603492 -3.0848508e-08 8.403851 -1.2574776 4.0735536 -0.011784136 3.215894 7.3306627
3.8485441 3.4332592 0.027158856 3.0431232 3.349258 0.013058412 -6.8450336 0.0006673983
0.4508584 3.565e-42 3.518999 0.059238717 3.4351172 9.320459 2.7835317 0.0031962548
-0.0021241752 11.302464 -0.026330864 -0.019633105 0.0838282 0.17681004 0.12651674 1.5205826
-8.595469e-15 5.9646764 6.7795925 -4.51e-43 -0.109420344 6.140867 0.18400206 -2.577131e-10
-0.005321788 3.497352 3.8868108 5.0010204 0.02979476 0.064446576 -9.9789795e-05 4.7376814
4.486711 4.1256013 -1.2573961 0.013603673 -3.5334651e-06 -4.3619585 2.3555608 -0.4014333
4.009299 0.097212344 0.9040886 -0.016515847 10.093872 2.3027663 4.0927596 3.6140282
5.6823554 0.6404075 3.3991272 -1.9865083 0.082578436 0.06906729 5.0524693 -0.39293715

bn2.bias f4 [300]
00000000: 5524 adbc ab6c bbb3 a285 f23e 55e5 13bf
00000010: 25d2 d5be 9850 e53f 96a7 1bb6 dbb3 2d40
00000020: 4e2f cabb 74a6 2c3f 1989 c83f 2e7e 3894
00000030: 4072 bdbd 109f ee3b 5ac9 203e a3a8 a198
00000040: de58 78bc f691 d4bf e6ca 01bf 21a8 9b3d
00000050: 2bbe 71ae 732f a4b9 4424 d0ba 36a8 8bb1
00000060: ec34 18bd 4296 a23c f6f1 f53f f965 833a
00000070: 303f cdbb 15f2 033f 5639 efbe b876 fe3f
00000080: 0887 109f fb66 60b0 ca53 4440 0712 e73f
00000090: 7e8d fb3a 5558 3140 1be6 33af 3a92 2d40
000000a0: 0c72 d186 dfb7 323f 4db3 2640 6c8c d23e
000000b0: b19e 373d b8ee 1993 4c1c b73e 55f6 2abd
000000c0: 2635 d63b 1847 aabe 76a8 b23b 89d6 89bf
000000d0: 0b78 febc dd9b 4c9f 3bc1 8a3e 990c 1d40
000000e0: cd54 8b3f aa9d 0e3c 104c f63d fc6b d1bc
000000f0: e059 34bc 6a1d 5dba f3f9 64bf ac76 1d3f
00000100: 6f6d 923e c137 1b3b eccd 10b2 9cb3 d93f
00000110: 106d 10bd 5265 bc3e df2a b83c d2f0 3cbc
00000120: f27f 90bf 8ace f2bd 35ad 4ebf 1007 b03f
00000130: 7324 2099 0f62 ab3e e7ef 5ebe 14ed 42bc
00000140: 6134 2e3c b9a8 6192 a9de 9eba 5224 963d
00000150: 6a65 2c40 aa35 08bf dabb bdbc 6989 a13d
00000160: 0a3d c23f cb5a 7a3f 9cf7 a3bc 6a51 96bc
00000170: 4e85 9e3f 155f 1d3f 47e5 b5bd e998 1abb
00000180: 010e ecbb cc83 2840 8f31 16be de6b 063e
00000190: 58bb 0099 2491 a1be 1fb4 0d3d 7565 c43d
000001a0: dc18 a63f fbd2 7fbf 903e 45b6 cff4 c8bd
000001b0: 648a d1ba 4981 0bbf e0c1 2d3d f2e5 04bf
000001c0: f647 7e3c 85e6 d7bd 05e9 4a3c 78e1 e43f
000001d0: e94c 98bd aa53 dfbd 0510 05bd f1b3 a8be
000001e0: 631f 4640 cc21 57bc ffa1 91be 57f1 873d
000001f0: b980 5b3d 113b af3d db5e 46bd 6695 73bf
00000200: 9159 2bba a8ef 3dbb bdd7 87bb 4e60 76b7
00000210: cdc3 c73c 6584 533d 3050 81bc 339e 3b40
00000220: 8d8e 11bf f22c 0dbc 7ff3 283f 8f4c fc3c
00000230: b2ab 6bbe effd 35af 47db d83b 0ca3 25bf
00000240: 5242 2cbd 3b19 453f fcae 733d dba7 b83f
00000250: 1fc0 9cbd 3deb d13c 9b70 e43f 87d5 20bc
00000260: 1f32 45bf 20ca f4bc 4a39 4c3c f412 203f
00000270: 5609 f83d 7501 2e40 83e4 0b40 2410 bf3e
00000280: 055d a7bf 8eff ad3f d769 72bf 6381 e1ba
00000290: 6936 d0b9 a809 433f 51dc 3ab9 8848 043e
000002a0: a4c6 52bf 8afe bd96 240e 0a40 4f75 9e3c
000002b0: ca7d 1d90 b426 22b6 cd77 2ebf 0b97 d6bd
000002c0: 8789 dabd e874 0b3f 6304 e9b7 66ff 50bd
000002d0: b111 ce3f 2275 59be 669d adbe a647 f53e
000002e0: 84a3 2abf 51f4 49b9 5171 ba3d f53b a3bc
000002f0: 8e4a 4840 2510 85bc d768 b83d 2283 573f
00000300: ffe5 d63f 3f09 b43e 8606 253d 991d c33f
00000310: a19e b23e 5139 45bb 02f9 1c40 069b 03bb
00000320: e3c0 3140 4bbd 38aa a056 0fbf 9e58 003e
00000330: 01e8 81bf d813 273c ecdc 6cbf e812 63bc
00000340: 95ae 9dbb bf0e 173e 579c d8bc e2cb 5bbc
00000350: b736 e83c fb15 093e ccac cd3d 2a79 11bf
00000360: 83e2 0cb6 9ecc 2040 5ac2 81bc d88c 549c
00000370: 441e 093d 659c ccbe ae71 873a b837 94ba
00000380: 13f2 dcbc fbd7 0940 4fed 3540 61a6 1140
00000390: 9253 943d a5c9 8a3d ddba 59bb a198 e33d
000003a0: 82bf 0740 5c78 67be ce25 bb3d 94c1 2a3c
000003b0: 3b7b 0eba 87b4 5ebf d553 7fbf fab2 68bd
000003c0: eaca 513f 0220 f0bc 41f6 2a3f b146 9ebc
000003d0: 6e08 a53e c126 e8bf 5cc2 e33e 530d 133f
000003e0: a896 963e 4349 eb3f 4785 34bf ab86 e53d
000003f0: 4763 e23d 07d1 1c3d e79c 5abf bd9b 863d
-0.021135489 -8.727633e-08 0.4736758 -0.5777181 -0.4176189 1.791522 -2.3194348e-06 2.7141025
-0.00617019 0.6744149 1.5666839 -9.3145106e-27 -0.09250307 0.0072821453 0.1570181 -4.1787804e-24
-0.015157906 -1.6607044 -0.50700223 0.076004274 -5.496596e-11 -0.0003131587 -0.0015879949 -4.064556e-09
-0.037159845 0.01984704 1.9214466 0.0010024897 -0.006263636 0.5154126 -0.4672343 1.987998
-3.060488e-20 -8.163707e-10 3.067614 1.8052377 0.0019191948 2.7710164 -1.6361705e-10 2.71205
-7.878464e-35 0.69811815 2.6046937 0.41122758 0.044829074 -1.9429012e-27 0.35763776 -0.041738827
0.0065370975 -0.33257365 0.005452211 -1.0768596 -0.0310631 -4.3327607e-20 0.27100548 2.453894
1.0885254 0.008704582 0.120262265 -0.025564186 -0.011007756 -0.0008434864 -0.8944389 0.61509204
0.28599116 0.0023684355 -8.428724e-09 1.7007937 -0.03526026 0.3679605 0.02248138 -0.011532025
-1.1289046 -0.118558004 -0.8073304 1.3752155 -8.279167e-24 0.3347325 -0.21771203 -0.011897344
0.010632605 -7.120545e-28 -0.0012120801 0.07331146 2.6936898 -0.53206885 -0.023160864 0.07887537
1.5174878 0.9779479 -0.02001553 -0.018349368 1.2384431 0.6147321 -0.08881622 -0.0023589677
-0.007203818 2.6330442 -0.14667343 0.13127086 -6.655279e-24 -0.31556046 0.034595605 0.09589664
1.2976336 -0.99931306 -2.9391704e-06 -0.098123185 -0.0015986678 -0.5449415 0.04242122 -0.5191337
0.0155200865 -0.10542015 0.012384658 1.7881308 -0.074365444 -0.109046295 -0.03248598 -0.32949784
3.0956657 -0.013130616 -0.28443906 0.06637829 0.053589556 0.08556188 -0.048430305 -0.9514984
-0.0006536479 -0.0028981958 -0.004145591 -1.4685165e-05 0.024385357 0.051639933 -0.015785307 2.9315307
-0.5685814 -0.008616673 0.65996546 0.030798225 -0.23014715 -1.655207e-10 0.006617937 -0.64701915
-0.042055435 0.76991624 0.05949305 1.4426225 -0.07653832 0.025624866 1.7846864 -0.009816534
-0.77029604 -0.029881537 0.012464831 0.6252892 0.12111156 2.718839 2.1858222 0.37317002
-1.3075262 1.3593614 -0.9469275 -0.0017204698 -0.0003971339 0.7618661 -0.00017820417 0.12918293
-0.8233435 -3.0695234e-25 2.157113 0.019343046 -3.1059695e-29 -2.416241e-06 -0.6815155 -0.10478028
-0.106707625 0.5447526 -2.7777807e-05 -0.051024817 1.6099149 -0.21236089 -0.33909148 0.47906226
-0.66655755 -0.00019259869 0.09103645 -0.01992605 3.1295505 -0.01624305 0.090043716 0.8418447
1.6788939 0.35163304 0.040289424 1.5243407 0.3488665 -0.0030093978 2.4526982 -0.0020081415
2.7773979 -1.6408157e-13 -0.55991554 0.12533805 -1.0148927 0.010197602 -0.925246 -0.013859488
-0.0048120716 0.14751719 -0.026441736 -0.013415309 0.028346403 0.13387291 0.10042724 -0.56825507
-2.0993473e-06 2.5124888 -0.015839744 -7.032695e-22 0.03347613 -0.3996307 0.0010333562 -0.0011308109
-0.026970899 2.1538074 2.8426092 2.27578 0.07242502 0.06776742 -0.0033222951 0.11113096
2.1210637 -0.22604507 0.0913807 0.010422129 -0.0005435233 -0.8699421 -0.9973729 -0.05681131
0.8195025 -0.029312138 0.66782004 -0.019320818 0.32232994 -1.8136827 0.44484222 0.57442206
0.29411817 1.8381733 -0.70515865 0.112073265 0.11054092 0.03828528 -0.85395664 0.065726735
