tmp/ddpg/critic_ddpg.pth (torch, 514177 bytes, 11 tensors)

fc1.weight f4 [400, 11]
00000000: d99a cd3e 2d49 08c0 5709 153d 63c6 053f
00000010: 3de0 fa3f 6f21 913f 1ad8 d83f 476f 383f
00000020: fd3e b43f 729e 913f e720 a53f 3aa9 c43e
00000030: bb49 08c0 9792 ca3c 6e37 053f 13c8 f93f
00000040: 6f11 8f3f 7072 d83f bee5 2a3f 098e ae3f
00000050: 3e04 8d3f aab3 9f3f 5e56 c43e 8019 07c0
00000060: 3015 1e3d b29a 043f 4f15 fc3f a616 983f
00000070: 3bc2 e73f 1039 5d3f eae4 ae3f 4d3f 933f
00000080: 3a99 9f3f 1a61 ac3e 91c1 01c0 8d7b 043d
00000090: 7b56 003f ea81 f53f 2b8b 983f 6caa f33f
000000a0: e02d 5e3f cf7a bd3f 4781 963f b995 a83f
000000b0: 4720 453e f02a 4bbf 7308 8d3e 82a3 813e
000000c0: f764 e33f 9349 7640 594a 1f40 c493 0d3f
000000d0: 90d8 d33f ac7f 84bd 5735 eb3f d30d df3e
000000e0: 1da2 07c0 1c38 0b3d 2ad8 053f dba0 fe3f
000000f0: 9be0 8e3f c095 cc3f cd75 2f3f f6ea 923f
00000100: 3a16 763f 0105 893f 4229 c83e 2a22 09c0
00000110: 6fa5 413d 2645 f23e 11c8 fc3f c0c5 933f
00000120: 7712 e03f 6bb7 3d3f 57ad b43f 343d 943f
00000130: 430e a43f 747b f03e fe6e 08c0 22e9 4e3d
00000140: 6155 073f 3cfa 0540 3434 9d3f f692 c03f
00000150: b476 703f 6507 563f 93db 353f 1898 553f
00000160: 45b3 1a40 3a06 3bc0 a7ec c8be 3667 963f
00000170: 0ade edbd 1987 d040 d1dc 8e3f 7036 a83e
00000180: e3f5 7ebf 87ba 39bf cc87 05c0 8847 3940
00000190: 5d4a be3d 388e 783f 21d3 a93e e0d2 7a3f
000001a0: 3aeb 83be 1911 0340 004e 8c40 edf1 0e40
000001b0: 75f0 e73f 501f e83f 5654 e83e 06d4 0ec0
000001c0: dd1a f83c c274 0d3f a8a3 0040 e9bb 8c3f
000001d0: 0ec8 be3f 9406 323f e0b3 863f 9d9b 703f
000001e0: be45 8b3f 4fff da3e 4faa 05c0 a22d 113d
000001f0: a4bb 033f 107d fe3f bfe6 923f 6919 ee3f
00000200: e323 4a3f 030a b63f 8593 933f c70d a33f
00000210: 9591 fa3e 39fb 0ac0 a327 163d 62c3 053f
00000220: 50d9 fd3f 212a 903f ff68 c83f f0c6 143f
00000230: 46a1 8e3f 6cfc 7e3f ce45 953f 8307 d43e
00000240: 145e 03c0 73ea 5e3d a7d6 fe3e 8b20 f33f
00000250: d7d6 963f 49f0 e33f 1765 333f b546 ad3f
00000260: 252c 8c3f bb9a 9d3f 7a0d 993e 33e2 1dc0
00000270: 94df 093d 0434 1d3f ddd7 ed3f 00a7 8d3f
00000280: fb59 8e3f e4af 8f3f 991b 833f 4dda 8a3f
00000290: a45a 8d3f bdb3 de3e af31 03c0 2a60 1e3d
000002a0: dc22 013f 9991 0040 b4f9 933f 33da f23f
000002b0: 055d 433f 32e6 b53f adb7 923f 3da6 9e3f
000002c0: 148e de3e d656 02c0 0fda 213d e011 003f
000002d0: cbe0 ff3f 825b 983f 8d50 ec3f 7eb9 223f
000002e0: 8a6d b43f c8f2 943f 45e7 a03f 0fc3 e83e
000002f0: 5c99 07c0 5144 193d 9040 063f c204 0240
00000300: 2adc 8f3f 55ac d43f e9e2 303f df73 9a3f
00000310: 2506 803f 911c 8e3f 449c 023f 9730 ffbf
00000320: f2f9 393d 028a fa3e db65 0040 9252 953f
00000330: 1487 eb3f 8ee8 033f 122f ba3f fa46 9b3f
00000340: b45e a63f 9b44 d93f cea9 15c0 4eb4 333e
00000350: 2850 c33e 9164 1740 c311 9d40 844d e93f
00000360: a64b 053f 075a 9bc0 9ff9 5bc0 ee33 18c0
00000370: 0434 9a3e dcb2 05c0 d340 103d 6b42 013f
00000380: 39a7 f93f 6ef2 903f d89c e43f 90c2 5d3f
00000390: d073 a93f c71d 833f d9e5 943f 6eb2 be3e
000003a0: b0d3 05c0 7422 293d c67f 013f e60d f53f
000003b0: 8aea 943f 5f16 e33f 0f68 4d3f 81f9 b23f
000003c0: 6308 8f3f 3689 a13f 4774 d83e b986 01c0
000003d0: 5b21 203d 4b31 013f b058 fb3f ad6e 903f
000003e0: add3 da3f e543 0d3f 4bea b83f 1bce 943f
000003f0: f53e a53f ef35 bf3e dfe6 07c0 eb41 b63c
0.40157202 -2.1294663 0.03638586 0.5225584 1.9599682 1.1338328 1.6940949 0.72044796
1.4081722 1.1376479 1.2900666 0.3841036 -2.1295002 0.024728103 0.52037704 1.9514183
1.1177195 1.6909924 0.6675681 1.3637096 1.101692 1.2476704 0.38347143 -2.1109314
0.038594425 0.51798546 1.9694003 1.1881912 1.810615 0.86415195 1.3663609 1.1503693
1.2468636 0.33667833 -2.0274394 0.03234439 0.5013196 1.9180272 1.1917471 1.9036384
0.8678875 1.4803103 1.1758202 1.3170692 0.19250594 -0.7936239 0.2754551 0.2532006
1.7765187 3.8482406 2.4889128 0.553036 1.6550465 -0.06469664 1.8375653 0.43565235
-2.1192696 0.033989057 0.52282965 1.9892839 1.1162294 1.59832 0.68539125 1.1477954
0.96127665 1.0704652 0.39093977 -2.1427102 0.04727691 0.4731838 1.9748555 1.1544724
1.7505635 0.74108 1.4115399 1.1581178 1.2816852 0.46969187 -2.1317744 0.0505153
0.5286465 2.093398 1.2281556 1.5044849 0.93931127 0.83605033 0.7103817 0.834352
2.4171917 -2.922255 -0.3924305 1.1750247 -0.11614616 6.5164914 1.1161138 0.32854033
-0.99593943 -0.72550243 -2.0864134 2.894991 0.092915274 0.9709201 0.3316889 0.9797802
-0.257654 2.0479186 4.3845215 2.233516 1.8120257 1.8134556 0.45376843 -2.231691
0.030286247 0.55256283 2.0099888 1.0994846 1.4904802 0.6954129 1.0523643 0.9398745
1.0880659 0.4277291 -2.0885198 0.03544391 0.5145819 1.9881916 1.1476668 1.8601505
0.7896101 1.4221805 1.1529394 1.273858 0.48939195 -2.1715834 0.036658894 0.52251256
1.9831944 1.1262857 1.5657042 0.58116055 1.1142967 0.99603915 1.1661928 0.4141198
-2.052617 0.054422807 0.49773142 1.8994306 1.1784314 1.7807704 0.70076126 1.3537203
1.0950972 1.2312845 0.29893094 -2.466931 0.033660486 0.61407495 1.8581501 1.1066589
1.112121 1.1225553 1.0242797 1.084787 1.1043286 0.43496504 -2.0499074 0.038665928
0.50443816 2.0088866 1.1560578 1.8972839 0.7631381 1.4210875 1.1462303 1.2394482
0.43467772 -2.03655 0.039514598 0.50027275 1.9990476 1.1902926 1.8462082 0.6356429
1.4095929 1.1636591 1.2570578 0.45461318 -2.1187353 0.037418667 0.52442265 2.0315404
1.1239064 1.6615092 0.6909624 1.2066611 1.0001875 1.1102468 0.5101969 -1.9936703
0.045404382 0.48933417 2.0062168 1.1665823 1.8400598 0.51526725 1.4545615 1.2131035
1.2997651 1.6974062 -2.338489 0.1754925 0.38147092 2.365513 4.908418 1.8226781
0.52068555 -4.8547397 -3.4371107 -2.3781695 0.3011781 -2.0890417 0.03521807 0.5049197
1.9504157 1.1323984 1.7860365 0.86625004 1.3238468 1.0243462 1.1632644 0.37245506
-2.0910454 0.041292623 0.5058559 1.9144866 1.1634076 1.7741202 0.80236906 1.3982393
1.1174434 1.2619998 0.42276213 -2.0238478 0.03909431 0.5046584 1.963644 1.1283776
1.7095848 0.55181724 1.44465 1.1625398 1.2909838 0.37345836 -2.1234663 0.022248229

fc1.bias f4 [400]
00000000: 011b c03e 75c1 b73e 38af d23e 495a bf3e
00000010: 52e0 ab3f b698 b63e fc74 c63e b04e c33e
00000020: c40f a9bd a7a9 0340 7c3a bf3e 2220 cc3e
00000030: a911 c43e b6c1 c33e ff56 c03e 56d0 cb3e
00000040: 29b1 c73e 4fd5 be3e ab4b cb3e 892b 6340
00000050: bddc af3e e5d5 c13e 7db7 ba3e f970 be3e
00000060: 1ec6 a63e 297d b83f 5a43 d13e 56f4 c23e
00000070: f67c ac3e 780a c83e 7d48 b93e 2c13 c33e
00000080: 5a3b cb3e c897 9e3e 33f3 bd3e 6c67 c83e
00000090: 7404 043f fe42 a23e 7eca c13e a034 af3e
000000a0: 4770 bd3e 29fd 943e 5170 c43e 9e6f 8f3f
000000b0: 958a c33e 620c c03e 5b80 c13e 894b dd3e
000000c0: cbed c03e cd8a c03e a85e 6540 d724 c73e
000000d0: edfa c33e 78c5 b8bb 426f 983e 6a76 c53e
000000e0: a7b5 b83e 600d a13e eeb9 a43e c11a c23e
000000f0: fc6e b63e a490 8f3f e193 cb3e ffb0 b13e
00000100: b3fb 163f 149f aa3e e4b9 073f 4054 bb3e
00000110: cbc5 b53e a98f c43e 830f bb3e d972 ce3e
00000120: e2b5 883f 616f bc3e b524 ab3e 74ad b63e
00000130: 7e49 cf3f 8c33 c93e 63af c53e 8f07 be3e
00000140: e621 ba3e fa45 093f ff70 bf3e c20d e63e
00000150: 2a0d c83e b441 c13e 23d9 c13e 16ec c83e
00000160: 73dc c43e 03a6 7c3f 4059 cd3e 9898 d33f
00000170: 4e6d d83e 45f5 c23e e75c b93e b46c c23e
00000180: d34a c13e 374a cc3e 39d2 bb3e 849f ca3e
00000190: 4715 ce3f c904 cc3e 4ada c53e 44c3 b23e
000001a0: f0b3 c23e 6087 be3e 831c c53e 5e4c de3e
000001b0: 74e6 c53e f5d8 bc3e a6b9 cc3e 7930 b83e
000001c0: efa2 ca3f 5543 c43e 0ddc e43e 7b63 523f
000001d0: ccb2 b33f 6c6a a53e d5c0 c93e 4fd6 b13e
000001e0: e7d4 d23e 0a3c a53e 33ff c23e 455d d03e
000001f0: e063 d83e f371 c13e 403b cc3e ac58 c33e
00000200: 3525 cc3e 8876 c13e 7891 e13e 8d4e c83e
00000210: a519 be3e 0de9 e13f 5ecd db3f 4796 c53e
00000220: 860c c43e ec32 be3e 2c02 c03e b2a5 323f
00000230: c5f3 bc3e e103 c63e a7ee c33e 98e7 d33e
00000240: b1d5 c73e c3da c33e 52c8 e83e e728 bd3e
00000250: 62ec ac3e 25ed c33e 580d 9f3f db67 ce3e
00000260: 2c49 c13e f941 c53e be5d cb3e 54ea c33e
00000270: 69d9 27bd a120 bd3e af22 c93e c804 32bf
00000280: 84ec c73e d456 ca3e 4674 c53e 2818 d63f
00000290: fa45 c43e 430f ba3e 713a 0440 acbb bd3e
000002a0: 79f0 aa3e 2335 cb3e 466f 833f 9a42 c73e
000002b0: e98c d33e a17f ab3e 7d34 ce3e e5c8 b13e
000002c0: 7c9c c63e bbd8 d23e 0606 553f ddae bc3e
000002d0: d7ce ca3e 3542 c53e f2a2 c23e e2bc 1940
000002e0: 4202 b03e 0d43 bbbe 7dab b83e 626c c23e
000002f0: fbac 8f3e 1bed a03e 189e bd3e f565 0f40
00000300: 617c bc3e bd16 f33f 7c67 303f 99c9 ad3e
00000310: f4f8 57be 37e8 d13e e970 253f 155e c43e
00000320: 714f c63e 9023 d73e 129e c83e a7fd ca3e
00000330: b0b8 c73e 58da cb3e c413 c13e 193d d23e
00000340: 39f6 883e 999d c33e 6df0 cb3e 6480 c33e
00000350: fad1 c23e aecf c23e 2f20 c83e 2940 b13e
00000360: 68ee c53e 9da5 c93f 032b 35bf 8200 c23e
00000370: 2296 b03e fba6 f93e 3625 c33e 517b c73e
00000380: bbd2 ba3e 7b47 1d3f de41 bd3e 03bb c13e
00000390: 4dd5 b53e 4b1c c83e 11ac f73f bb46 bd3e
000003a0: e61e bd3e 6eec c73e 9d52 c13e 72fc a73e
000003b0: 8858 b33e e4f9 c63e da41 c43e 2992 d83e
000003c0: a66b c43e dbc9 283e 29e7 ce3e 577e ce3e
000003d0: 5a83 c53e 6516 dd3e f9ab 0d40 0ffe c93e
000003e0: 828a bf3e a4c7 c63e d286 2a3f e0e4 c43e
000003f0: d60d dd3e c54d 903e 52cf c03e 02a1 c13e
0.37520602 0.35889784 0.41149306 0.3737357 1.3427832 0.35663384 0.38761127 0.3814597
-0.0825496 2.0572298 0.37349308 0.39868265 0.38294724 0.38233727 0.37566373 0.39807385
0.3900235 0.37272117 0.39706168 3.5495322 0.34348097 0.378585 0.36468115 0.37195566
0.32573026 1.4413196 0.40871698 0.3807704 0.33689088 0.39070487 0.36188117 0.38100564
0.3969372 0.30975175 0.3709961 0.39141405 0.51569295 0.31691736 0.37849802 0.34219837
0.36999723 0.29099396 0.3836694 1.1205938 0.38191667 0.37509447 0.3779324 0.4322169
0.37681422 0.37605897 3.5839024 0.38895294 0.3827738 -0.0056387745 0.29772383 0.38566905
0.3607609 0.31455517 0.32173103 0.37911037 0.3563155 1.1216016 0.3976126 0.3470535
0.5897781 0.33324492 0.5301802 0.36587715 0.35502467 0.38390854 0.36535272 0.40321997
1.0680506 0.36803725 0.33426443 0.3567921 1.6194303 0.3929714 0.38610372 0.37115142
0.36353987 0.536224 0.37390897 0.4493237 0.39072543 0.3774544 0.37860975 0.3924262
0.3844944 0.98690814 0.40107155 1.6530943 0.42270893 0.3807775 0.3620369 0.3797356
0.377524 0.3990037 0.36683825 0.39574826 1.6100243 0.398474 0.38643104 0.349146
0.38027906 0.37212658 0.38498315 0.4341764 0.38652384 0.36884275 0.3998539 0.35974482
1.5830973 0.3833262 0.44699135 0.82183045 1.403894 0.32307756 0.39404932 0.34733817
0.41178057 0.3227237 0.38085327 0.4069616 0.422637 0.3778225 0.39888954 0.3815359
0.39872137 0.37785745 0.44056296 0.3912243 0.3712894 1.7649246 1.7172048 0.38591215
0.38290805 0.37148225 0.37501657 0.6978408 0.3690473 0.38674834 0.38268015 0.4138763
0.3903022 0.3825284 0.45465332 0.3694527 0.33774096 0.38266864 1.2425947 0.4031361
0.37751138 0.38526896 0.39719957 0.38264716 -0.040978823 0.36938956 0.39284274 -0.69538546
0.39047635 0.3951937 0.38565272 1.6726122 0.38334638 0.3633977 2.066067 0.37057245
0.3338659 0.39688978 1.0268333 0.38918 0.41318443 0.3349581 0.4027442 0.34723583
0.38791263 0.41180977 0.83212316 0.3685216 0.3961093 0.38527074 0.38014942 2.4021535
0.34376723 -0.36574593 0.36068335 0.37973315 0.2806166 0.31430897 0.37034678 2.240598
0.36813644 1.8991314 0.68907905 0.3394287 -0.21091062 0.40997478 0.6462541 0.3835303
0.38732484 0.4201932 0.39183098 0.39646646 0.39008093 0.3981502 0.37710392 0.4106224
0.26750353 0.38206175 0.39831868 0.38183892 0.38050824 0.38049072 0.39087054 0.34619263
0.38658452 1.5753666 -0.70768756 0.37891012 0.34489542 0.48760208 0.38114327 0.3896127
0.364889 0.61437196 0.36964315 0.3783799 0.35514298 0.39084086 1.9349385 0.36968026
0.36937636 0.3904757 0.3775834 0.32809788 0.3502848 0.38862526 0.3833149 0.4229901
0.3836338 0.16483252 0.40410736 0.40330765 0.38576776 0.43181148 2.2136214 0.39451644
0.3741036 0.3882419 0.6661197 0.38455868 0.43174618 0.28184333 0.37658173 0.37818152

fc2.weight f4 [300, 400]
00000000: 5d00 0000 addb 4bb9 45cb 433a 4f86 18bd
00000010: 1558 ce35 8501 0000 a25a bb3d 6201 0080
00000020: 07c8 51bf 7f91 8a3d 60e3 3bb2 465c ae3c
00000030: 531a f33c 07fb 49bc 1707 0080 c901 0080
00000040: 8b02 0000 0d01 0080 d404 0000 0b41 eabe
00000050: 7100 0000 4207 0080 eb01 0080 a5a2 8fba
00000060: 9eb4 10bd df48 10bd aa01 0080 8b01 0080
00000070: 4402 0000 1c02 0080 c427 283c 9c04 0000
00000080: 5001 0080 8b00 0080 d951 3cba 0305 0080
00000090: 7833 cbb4 6500 0000 e520 6f3c 8466 55bf
000000a0: df7e c73d 9ee2 c43d 6601 0080 eaaa 30bd
000000b0: c76a 2a25 9a00 0080 1200 0000 6413 0000
000000c0: d000 0080 30fe e5b6 0b56 c8bd 8d03 0080
000000d0: 6ec9 d8bb 01d5 91bf 5f1e 553c 8402 0080
000000e0: c85a d3bd 081b 31bb 9cda 833c 56b4 0422
000000f0: fd21 2d3d ceb9 a4bd 5029 682c de04 0000
00000100: b5c8 553c e88f 70bc f640 cb3c 1d0b 5e3d
00000110: 0003 0000 f601 0080 8001 0080 0ea2 6e3d
00000120: 86c1 d13c 2585 253e a28a 523c 2ed2 f23c
00000130: 0e16 86be aadb fa39 1204 0080 d806 0080
00000140: d4de c63d f995 383c d205 0000 83a4 de3d
00000150: 5b0d 0000 7d01 0080 b67d 4738 0d02 0080
00000160: 7c42 07bb fdaf ae3d 3a00 0080 9c49 083e
00000170: 9948 a233 fe01 0080 e706 0000 1bc4 4432
00000180: ee01 0000 6c06 0000 da00 0000 9d00 0080
00000190: 8cfd 3bc0 8363 6fbc f601 0000 231b 2e3d
000001a0: 9801 0080 a101 0080 b142 a1ae 1500 0080
000001b0: a445 f1ba cd01 0000 ee02 0080 7e00 0000
000001c0: ccbc 69be 8304 0000 5001 0080 ab3b 2d3b
000001d0: 91dd ecbd d1e1 1a3b 2801 0080 0dcb 0cbe
000001e0: 0e07 0000 7e8f c0bb c361 d6bd 7e01 0000
000001f0: 4c69 56b3 eb9b 35b9 4303 0080 4906 0000
00000200: f000 0080 e701 0080 fc13 3f82 6e09 0000
00000210: c41e 6b3b 05c8 3dbf 3ef1 6e3e cb01 0000
00000220: f701 0080 be04 0000 5800 0000 ce01 0080
00000230: 9303 0080 1d85 333d 24f6 7a3d cd05 0080
00000240: fc06 0000 3b00 0080 ce70 03bf f203 0080
00000250: 4563 d92c dd00 0080 ff0b 38bf a200 0000
00000260: 5a03 0080 9f06 9bb4 1d86 883b 3400 0000
00000270: e231 e1bf 2400 0080 2955 990f ea74 99bf
00000280: dd01 0080 c1f8 6c3c e101 ceae fe21 f23e
00000290: 0602 0080 9058 b03b ff8c 6dbf 8d05 0000
000002a0: f3b2 9dbd 2e08 0000 c597 09c0 e800 0000
000002b0: a365 9bbc ec9f 803d 3603 0000 6fc4 c633
000002c0: 2305 0000 39cf 53bd 81d9 403c 6800 0000
000002d0: f284 343c 2b02 0000 1802 0080 60ea 78bf
000002e0: 0c8f 1ebc a58e 96bf 7300 0000 8f0f 3080
000002f0: a4f3 a6bd 4301 0000 5801 0080 7c1c f43d
00000300: 5815 a13d 56e7 1bbf 8291 503d 7b0e a4bb
00000310: a2ea 78be 0703 0080 fd11 883d bb5e f33c
00000320: c101 0000 716c 2c17 2508 0080 5e06 0000
00000330: f033 5dbd 0a06 0000 a602 0080 cc07 0080
00000340: 63f3 2ebd f701 0000 cb25 a03b 21e7 03bd
00000350: aa00 0080 9501 0000 261e ce3c 6196 d03c
00000360: af01 0000 1159 82bd 87f4 e1bf 8201 0000
00000370: cb9b 762f 9fe3 273d 8695 48b8 e301 0080
00000380: cc02 0080 cb01 0000 dbe5 4d33 7204 0000
00000390: 2943 0c3e dd00 0080 4f57 fdbd 624c 9c3d
000003a0: 5103 0000 4b86 ad2a 7d00 0000 13d8 1ebe
000003b0: b811 ab36 9ba7 a21c af05 0080 7200 0080
000003c0: 9503 0080 1334 a9bd 1206 0000 da93 b3bc
000003d0: 9f06 0000 a600 0000 e33e b0be 8a63 222d
000003e0: 8000 0000 a000 0000 39f6 c43d 7603 0000
000003f0: 06aa 08bf 196b edbc 1e01 0000 fa00 0000
1.3e-43 -0.00019441424 0.0007468949 -0.03723746 1.5373831e-06 5.45e-43 0.09148146 -4.96e-43
-0.8194584 0.067660324 -1.0936532e-08 0.021284234 0.029675638 -0.012327916 -2.543e-42 -6.4e-43
9.12e-43 -3.77e-43 1.732e-42 -0.4575275 1.58e-43 -2.604e-42 -6.88e-43 -0.0010958506
-0.0353285 -0.035225745 -5.97e-43 -5.54e-43 8.13e-43 -7.57e-43 0.010263387 1.654e-42
-4.71e-43 -1.95e-43 -0.0007183827 -1.798e-42 -3.7849145e-07 1.42e-43 0.014595245 -0.8335955
0.097409956 0.09613536 -5.02e-43 -0.043131746 1.4781327e-16 -2.16e-43 2.5e-44 6.956e-42
-2.91e-43 -6.854323e-06 -0.097820364 -1.274e-42 -0.006615809 -1.1393129 0.013007729 -9.02e-43
-0.103200495 -0.0027024169 0.016095452 1.7984805e-18 0.042268742 -0.08043252 3.2992116e-12 1.746e-42
0.013048341 -0.014682747 0.02481125 0.054209817 1.076e-42 -7.03e-43 -5.38e-43 0.058260016
0.025604974 0.16164072 0.012850435 0.029641237 -0.261887 0.00047847378 -1.46e-42 -2.455e-42
0.0971047 0.011266225 2.088e-42 0.10871222 4.791e-42 -5.34e-43 4.7562375e-05 -7.36e-43
-0.0020638993 0.08529661 -8.1e-44 0.1330933 7.556918e-08 -7.15e-43 2.476e-42 1.1453291e-08
6.92e-43 2.304e-42 3.05e-43 -2.2e-43 -2.9373503 -0.014611128 7.03e-43 0.04250635
-5.72e-43 -5.84e-43 -7.333279e-11 -3e-44 -0.0018407595 6.46e-43 -1.051e-42 1.77e-43
-0.22825927 1.618e-42 -4.71e-43 0.002643327 -0.11565698 0.0023633132 -4.15e-43 -0.13749333
2.531e-42 -0.0058764806 -0.10467865 5.35e-43 -4.9921525e-08 -0.00017319589 -1.17e-42 2.255e-42
-3.36e-43 -6.82e-43 -1.4038199e-37 3.383e-42 0.0035876492 -0.7413333 0.23334214 6.43e-43
-7.05e-43 1.701e-42 1.23e-43 -6.47e-43 -1.282e-42 0.04382812 0.061269894 -2.081e-42
2.506e-42 -8.3e-44 -0.51344 -1.415e-42 6.178532e-12 -3.1e-43 -0.71893305 2.27e-43
-1.202e-42 -2.8875817e-07 0.004166378 7.3e-44 -1.7593348 -5e-44 1.5119767e-29 -1.1988804
-6.68e-43 0.014463604 -9.368129e-11 0.4729156 -7.26e-43 0.005381651 -0.9279327 1.991e-42
-0.077001475 2.934e-42 -2.1498883 3.25e-43 -0.018969363 0.06280503 1.152e-42 9.2558246e-08
1.843e-42 -0.051711295 0.011770607 1.46e-43 0.011018025 7.78e-43 -7.51e-43 -0.9723263
-0.00967766 -1.1762282 1.61e-43 -4.413685e-39 -0.081519395 4.53e-43 -4.82e-43 0.119194955
0.07865399 -0.60899866 0.050920017 -0.005006609 -0.24308255 -1.086e-42 0.06644056 0.029708257
6.29e-43 5.571307e-25 -2.922e-42 2.284e-42 -0.05400461 2.166e-42 -9.5e-43 -2.797e-42
-0.04271258 7.05e-43 0.004887318 -0.032202844 -2.38e-43 5.68e-43 0.02516086 0.025462331
6.04e-43 -0.06364644 -1.7652749 5.41e-43 2.2428918e-10 0.04098856 -4.782297e-05 -6.77e-43
-1.003e-42 6.43e-43 4.7939334e-08 1.595e-42 0.13697495 -3.1e-43 -0.123701684 0.07631756
1.19e-42 3.0824158e-13 1.75e-43 -0.15512113 5.09826e-06 1.0763586e-21 -2.039e-42 -1.6e-43
-1.285e-42 -0.082618855 2.178e-42 -0.021921087 2.375e-42 2.33e-43 -0.3442298 9.230736e-12
1.8e-43 2.24e-43 0.09617276 1.242e-42 -0.53384435 -0.028981732 4.01e-43 3.5e-43

fc2.bias f4 [300]
00000000: 46fc acbc c083 033f f482 5fbe 33d9 99bf
00000010: 8244 d33e e54f a4be 3130 243d 040c e3bd
00000020: a624 d73d 3960 40bf d662 e3bf ffee 133d
00000030: 0ee6 08bf b0f2 023e a06c 57bf ce69 af3d
00000040: 7b38 32bf 77fe b3bf f5d0 d4be 2d21 213f
00000050: 7865 213e 91cb 87bd 0495 27bf 9045 f7bd
00000060: 615c 42bf a066 8a3d 69bf ffbf 9a41 5e3c
00000070: e19c 28bf e246 5c3e d6f8 29be e962 afbe
00000080: 9e2a 033e 3a25 dcbe e706 4fbf d9a1 39be
00000090: bedf 0b3c ce82 253e 2fb3 523d 9353 f3be
000000a0: df6e dcbe 6b5a 05bf 37ac c6bc 0905 32bf
000000b0: 85e8 38bf 6441 113e 197c 04bf 3c26 1dbf
000000c0: 420f 6f3f af59 70bf 56ec 413d 4423 823f
000000d0: d7fa 94bf da62 0cbf 2e6c 50bf dc00 49be
000000e0: da40 5bbf 394e 923e 0cea 28bf 4608 95be
000000f0: 0cbd 80bf 886e c83d ef2f c53f 6f05 8fbf
00000100: 5607 c33d b11f 09be 125c 873e 33b8 bdbf
00000110: 3bd1 913d 2734 4b3e e918 5b3f b664 89bf
00000120: b1a8 20bf e3fa 27c0 8bbf 463f 6c98 a7be
00000130: 6b19 883d 39e0 8b3e 3ad5 5dbf 33b9 8e3d
00000140: 2822 143e 93b8 f23d 81cc f2bc 5457 5cbe
00000150: 1f21 dbbf a422 a0be ca28 7abf c65d fc3d
00000160: 75d2 ca3e d501 a3be 113f 773d a490 12bf
00000170: 486d b9bf 9871 11bf 32b1 58bf 9cd9 753d
00000180: 1f75 cc3e 96e3 d13c b5b7 43bf 469c 8e3e
00000190: efb1 05be 72f6 15bf e224 853d 6bbb 23bf
000001a0: 2427 3b3f a18a abbe 693b 8bbc 6e4d 97be
000001b0: 21ad 3e3d de97 eabe 3ee6 5dbe 24d7 95be
000001c0: 592b 99be 5590 e33e f901 35bf 3685 5a3c
000001d0: aeb1 1b3f c501 a8bb a194 1cbf 9f59 49bf
000001e0: 83c2 933f a072 063e c077 81bd 8a90 20bd
000001f0: 1307 c0bd 208e 0bbe d973 ca3d 7371 e2be
00000200: 7616 a83d 244e c7bd 7d27 893d 78b1 3ebf
00000210: c31f 76be eda0 273d d9f4 163e 5975 53bf
00000220: ac3e b3bf c48b a2bc a8b4 c9bd 08cb 8dbd
00000230: 59bc 9fbf 0117 7e3c a81b 653e 8522 193f
00000240: 2506 4e3f 1aef 013f b151 a73d d81c 9abe
00000250: 7ced dabe 0a3c 5abf d692 843f 6ece 583e
00000260: 8e3d 713f e160 97bc f845 2ebf c051 85bc
00000270: 1708 413d cb5f 1cbe 6eff c8be 084f 25bf
00000280: 69ad 3bbf 6ea8 56be ec50 9cbe bf2d a6bc
00000290: 2e8c 123e 0d7f 4ebf b864 03be df03 693e
000002a0: 80e8 0d40 eaf1 3bbf 2e3c be3d 3d0e 5ebf
000002b0: b121 8abe 6538 2fbf f7e9 c23c 4642 80bd
000002c0: 0f86 17c0 2111 13be 3685 e23d 2fe3 adbd
000002d0: fe0d a63c 0bc4 8dbf ef7d 843b a61b 56bb
000002e0: 84a2 80bd bb90 4cbe 4ee7 69be da76 fbbe
000002f0: b1dd 3cbf 9c71 9d3e 4a55 bcbe 94aa 52bf
00000300: 4e6f 4a3f 8f29 c3be 3aeb 063e d11c 7f3e
00000310: 3ae1 cc3d 0649 6e3e 6b35 953f 17c0 70bf
00000320: b167 c83d febd 103e b271 f43e 51ad 39be
00000330: 3336 1d3f 4816 23bf b21d 643f ddf7 51bd
00000340: 3ca6 43bf a856 0cbf cc5f debc 254e 293e
00000350: c486 55bb 0685 503d 4cc3 3bbd 7012 0cbf
00000360: 34c9 35be d07d f0bf 70ae 1c3d 2cdb 6f3e
00000370: 6a94 e9bd b472 39bf 0a24 1a3e dd05 f13d
00000380: 70bd 13be 00e2 3d3f 9d58 65bf 5a37 a7be
00000390: 3840 b3be 0088 0abf 588f b03c acd0 39be
000003a0: 32b6 80be a2ba c1bf ace1 aa3e bac1 143e
000003b0: a031 5d3e f0a3 0cbf 857d 38bf e246 72bc
000003c0: 5ee8 abbe 4365 153d 4c91 0abf dac8 8f3d
000003d0: 674a 74c0 6a1e 133f 3961 cebd cf72 f9be
000003e0: ac15 bebe 3441 aa3c 6342 d23f 2ebd 083f
000003f0: 4f65 0dbf 267f 113d 03b1 0c40 b5f3 2ebf
-0.021116387 0.5137291 -0.21827298 -1.2019409 0.41263205 -0.32092205 0.04008502 -0.11086276
0.10505037 -0.75146824 -1.7764537 0.036116596 -0.53476036 0.1278789 -0.84150124 0.085651025
-0.6961743 -1.4062032 -0.41565672 0.6294125 0.15761364 -0.06630624 -0.65461755 -0.12073815
-0.7592221 0.067578554 -1.9980289 0.013565445 -0.6586438 0.21511415 -0.1659883 -0.3425515
0.12809226 -0.42997152 -0.8086991 -0.18128146 0.008537231 0.1616318 0.051440414 -0.475247
-0.43053338 -0.5209109 -0.02425204 -0.69538933 -0.72229797 0.14185101 -0.5175186 -0.61386466
0.93382657 -0.93886846 0.04734453 1.0167012 -1.163905 -0.54838336 -0.8141507 -0.19629234
-0.8564583 0.28575304 -0.6598213 -0.29107875 -1.0057693 0.09786707 1.5405253 -1.1173533
0.095228836 -0.13390996 0.26437432 -1.4821838 0.07119986 0.19844113 0.85584885 -1.073386
-0.627574 -2.624688 0.7763602 -0.32733476 0.06645473 0.27319506 -0.8665348 0.06968918
0.14466155 0.11851611 -0.02963853 -0.21517688 -1.7119483 -0.3127643 -0.9771849 0.12322573
0.3961369 -0.31837335 0.06036288 -0.57251954 -1.4486475 -0.56813955 -0.8464538 0.06002198
0.39933106 0.025621217 -0.7645219 0.27853602 -0.13056158 -0.5857917 0.065011755 -0.6395785
0.731066 -0.33504203 -0.016996102 -0.29551262 0.046551827 -0.4581899 -0.21669862 -0.29265702
-0.29915884 0.44446054 -0.70706135 0.013337424 0.6081799 -0.005127164 -0.6116429 -0.78652376
1.1543735 0.13129663 -0.063216686 -0.039200343 -0.09376349 -0.13628435 0.098853774 -0.4422718
0.08207409 -0.09731701 0.06696985 -0.74489546 -0.24035554 0.040924955 0.1474184 -0.82600933
-1.4003501 -0.019842036 -0.098489106 -0.06923491 -1.2479354 0.015508414 0.22373831 0.598183
0.80478126 0.50755465 0.08169878 -0.3010013 -0.4275931 -0.8524786 1.0357311 0.21172497
0.9423455 -0.018478813 -0.68075514 -0.016274333 0.047126856 -0.15270917 -0.39257377 -0.6457372
-0.7331148 -0.20962688 -0.30530488 -0.020285485 0.14311287 -0.80662614 -0.1283139 0.22755383
2.2173157 -0.73416007 0.09288822 -0.86740476 -0.2697883 -0.68445426 0.023793204 -0.06262641
-2.3675573 -0.14362003 0.11060564 -0.084905975 0.020270344 -1.1075453 0.0040433328 -0.0032670288
-0.062809974 -0.19977085 -0.22842142 -0.49114114 -0.73775774 0.3075074 -0.3678382 -0.8229153
0.7907609 -0.38117644 0.1317567 0.24913336 0.10003896 0.23270044 1.1656927 -0.94043106
0.097854026 0.14134976 0.47742993 -0.18132521 0.61410826 -0.63705873 0.8910781 -0.05126177
-0.7642553 -0.54819727 -0.027145289 0.16533716 -0.0032581547 0.05090811 -0.045840546 -0.54715633
-0.17752534 -1.8788395 0.038252294 0.23423451 -0.11405261 -0.7244065 0.1505281 0.117686965
-0.14427733 0.74172974 -0.8958834 -0.32659417 -0.35009933 -0.5411377 0.021552727 -0.18146008
-0.25139004 -1.5135081 0.333753 0.14527026 0.21600962 -0.5493765 -0.7206653 -0.014787408
-0.3357572 0.036473524 -0.54127955 0.07020731 -3.8170412 0.57468283 -0.100771375 -0.48720405
-0.3712591 0.020783044 1.642651 0.53413665 -0.5523271 0.03552165 2.198304 -0.6834062

bn1.weight f4 [400]
00000000: 689e d7b9 97d3 2bbc 454d 6bbc 0803 9ebc
00000010: 6a56 3abc a901 0000 1103 1a3e df38 b6b0
00000020: b4f3 2c40 4d8e 4a40 4843 55bb 5508 c0bc
00000030: 98b7 903d 8cf3 6cbc 2c00 0000 d6b2 c1b6
00000040: 4cb7 7dba 0523 1ab9 5000 0000 7a0f c040
00000050: 49e5 1ba6 1801 0000 ecde 13aa 3a3c 4abc
00000060: 6e5e 78bb 7fc0 263f 4931 0436 5791 34bc
00000070: c95a 5bb3 c66f adb5 8ab3 8d3b a300 0080
00000080: 2400 0000 657b b83c 6efb 3cbc 7600 0080
00000090: aca9 853d 9eb2 68b3 9098 1e3c d92b 0040
000000a0: 28c0 603d 9cb6 e240 4a54 caba 0a05 663f
000000b0: e34d 9a3a f721 e3b0 cdf8 8f3a f300 0080
000000c0: b339 31bb 478a e7b8 6394 ca40 3fda 81b4
000000d0: 3064 0e3c 911d 2340 3ee8 dabd 0175 a5ad
000000e0: 083f 903c d65b 2a3d c44b 173d 6a90 56bb
000000f0: 5d00 84bc 9b39 0540 478a 1ebc 5f01 0080
00000100: fe4c 66bf 6938 85bb c66d cd3e 3309 fb3d
00000110: b78e 2aa0 ccaf dfbb 563e dcbb 66aa ff3d
00000120: 1470 11bf 2280 173e 36d5 663c 3704 4ebd
00000130: d415 c33f ff9d 33bc dbc0 e9bb b700 0080
00000140: 7b69 ef3d 9f4d 9abe e8c6 0180 0d5a e1bd
00000150: 5b00 0080 0a47 a838 80a9 1cbd 92aa c73b
00000160: 88a3 05bb b614 90bf 7832 90bb c96d 6340
00000170: fd5d c2bc 1300 0080 f4f0 1a97 8f79 12bb
00000180: 3855 8cb7 1501 0000 6446 11ba 093a 5bb8
00000190: 6855 b440 f0a8 36bc 9237 efb9 4158 423d
000001a0: 7747 72b7 3b1a e539 339c f6bb 9300 0080
000001b0: e80a e2bb a701 0080 5b00 0080 3101 0000
000001c0: 3e2b 8640 c901 0080 45d6 2939 aead 883f
000001d0: 743c ce3e 7ae2 aa3c a504 02bc 8a27 483e
000001e0: 5200 0000 7196 943c cda4 083e 6566 8eae
000001f0: e0b2 3f3c b05c 6e3c 5801 0080 6901 0080
00000200: 7eaf 1ab1 7b89 b038 8e63 3d3a 0501 0080
00000210: 47b3 d73c 9129 ad40 dae0 4d40 6a70 01ba
00000220: 4dcf 54b8 b104 3fa6 b68a bd39 3a9e 0033
00000230: 2fee ceaf 852c 55bc f53c a63d b900 0080
00000240: 3400 0000 d39c 0bba 425e 4a41 db01 0000
00000250: 6d8d 84bb 1273 12bc 172c 6a40 c73b f3b7
00000260: fda4 dcab 1eb9 f3bc bd00 2a3e 6786 13b8
00000270: e763 81c0 18ce ce3c 5a71 2491 bfe1 3c40
00000280: 017a 8339 e9c0 2e3e cdde 8d3b aac7 e13f
00000290: 4f01 de38 3eca 9eba 61f4 a43f d600 0080
000002a0: 62c9 c6ba a400 0000 e4fb d140 aca6 35b3
000002b0: 1c11 b83a 371e 263d e300 0000 212b 28bd
000002c0: 5c00 0000 f4ea db3d 56a1 403f bd00 0000
000002d0: 1bb4 dd3b bf6b 5639 2fd2 2739 7546 ce40
000002e0: d080 7b3d 8007 2840 0096 3a39 9a9c b33b
000002f0: 406b 743d ba8d aa36 37e4 3738 7168 1440
00000300: fed3 a03d 76ee cf3f adc3 d53d e20d 1c3d
00000310: 381e ab40 5d00 0080 8872 8f3f 85a5 4abb
00000320: 0d72 b337 c2dd dbbb 7c01 0080 3601 0080
00000330: 020a fb3d 1f01 0080 5bc0 1d02 8001 0000
00000340: 3862 d53f a4fe 5cbb dd46 2fbc 48fa 13bc
00000350: f72b 9438 b94a d239 9663 32bd ea2a ba3c
00000360: ad12 9a3a 6afb 9d3f bd42 6340 3a55 979d
00000370: f8ab f2bb 27f7 033f 8036 b3bb b9ee dbba
00000380: 77bc 6daf 7152 9a37 1826 5b3c fc01 0080
00000390: d2d7 bd3d 3e01 0000 e035 133e ca71 b93d
000003a0: a501 0080 b47c 1f3b 8c8a 2b39 8ac4 f83f
000003b0: 8442 353c eeac 98bd 8300 0080 4b00 0000
000003c0: 136a 7bbb 865f 5f3f aa01 0080 4e2d 873d
000003d0: f200 0000 016a 64bb 2347 f93f a52d 5eaf
000003e0: 0502 0000 790e ab39 daca adbf ab6a 23ad
000003f0: b40a 3340 c7a0 703d aa2d adb9 1135 3bae
-0.00041126017 -0.010487459 -0.014361684 -0.019288555 -0.011373142 5.96e-43 0.15040232 -1.3258407e-09
2.7023745 3.1649354 -0.0032541323 -0.023441473 0.07066268 -0.014462363 6.2e-44 -5.7726675e-06
-0.00096784974 -0.0001469963 1.12e-43 6.001889 -5.4087167e-16 3.92e-43 -1.3133564e-13 -0.012343461
-0.0037898081 0.65137476 1.969822e-06 -0.01102098 -5.107248e-08 -1.2922035e-06 0.0043243812 -2.28e-43
5e-44 0.022519777 -0.011534555 -1.65e-43 0.06526503 -5.417916e-08 0.009679928 2.0026762
0.054870754 7.084791 -0.0015436497 0.8985144 0.001177248 -1.6526077e-09 0.0010984183 -3.4e-43
-0.0027042448 -0.000110406945 6.3306136 -2.4186917e-07 0.008690879 2.5486796 -0.10688828 -1.8810288e-11
0.01760818 0.041591488 0.03693749 -0.0032739886 -0.016113454 2.081641 -0.009676523 -4.92e-43
-0.8996123 -0.0040655625 0.40122813 0.12257614 -1.444678e-19 -0.0068263765 -0.006721298 0.12483673
-0.5681164 0.14794973 0.014088919 -0.05029699 1.5241036 -0.010962962 -0.007133586 -2.56e-43
0.11690041 -0.30137345 -1.6319e-40 -0.11003504 -1.28e-43 8.024096e-05 -0.038247585 0.0060933316
-0.0020391662 -1.125632 -0.0044005476 3.5535758 -0.023726458 -2.7e-44 -5.006421e-25 -0.0022350287
-1.6728984e-05 3.88e-43 -0.00055418 -5.226772e-05 5.6354256 -0.011148676 -0.00045627035 0.047447447
-1.4440963e-05 0.00043697827 -0.0075259446 -2.06e-43 -0.006898273 -5.93e-43 -1.28e-43 4.27e-43
4.1927786 -6.4e-43 0.00016196918 1.0678003 0.40280497 0.020859946 -0.007935678 0.19546333
1.15e-43 0.018138142 0.13344117 -6.475601e-11 0.011700362 0.014548466 -4.82e-43 -5.06e-43
-2.2509705e-09 8.417942e-05 0.00072246126 -3.66e-43 0.026330603 5.411324 3.2168489 -0.00049377105
-5.0737803e-05 -6.6272795e-16 0.00036152237 2.994623e-08 -3.764042e-10 -0.013011103 0.081170954 -2.59e-43
7.3e-44 -0.0005325798 12.648012 6.66e-43 -0.0040451796 -0.008938568 3.658941 -2.8995693e-05
-1.5677734e-12 -0.029751357 0.16601844 -3.5172703e-05 -4.043445 0.025244758 -1.2972248e-28 2.9512784
0.00025077167 0.17065777 0.0043295384 1.7639058 0.00010586029 -0.0012114716 1.2887079 -3e-43
-0.0015166218 2.3e-43 6.5619984 -4.2293934e-08 0.0014043185 0.04055616 3.18e-43 -0.041056756
1.29e-43 0.10738173 0.7524618 2.65e-43 0.006765855 0.00020448769 0.0001600466 6.4461007
0.061402142 2.6254578 0.00017794222 0.005481315 0.059672594 5.082894e-06 4.384314e-05 2.3188746
0.07852934 1.6244648 0.10437713 0.038099177 5.347439 -1.3e-43 1.1206827 -0.0030921411
2.1391572e-05 -0.006709785 -5.32e-43 -4.34e-43 0.12257768 -4.02e-43 1.1589742e-37 5.38e-43
1.6670599 -0.0033721114 -0.0106980475 -0.00903184 7.065379e-05 0.00040109994 -0.043552004 0.022725541
0.0011754833 1.234235 3.5509484 -4.005749e-21 -0.007405754 0.51549 -0.0054691434 -0.0016779519
-2.162198e-10 1.839662e-05 0.0133757815 -7.12e-43 0.0926968 4.46e-43 0.1437602 0.09054907
-5.9e-43 0.0024335803 0.00016359444 1.9434979 0.011063222 -0.07454859 -1.84e-43 1.05e-43
-0.0038362786 0.8725513 -5.97e-43 0.06600438 3.39e-43 -0.0034853222 1.9474834 -2.0206999e-10
7.24e-43 0.00032626445 -1.357753 -9.289162e-12 2.7975283 0.05874708 -0.00033031154 -4.256601e-11

bn1.bias f4 [400]
00000000: ca74 87bb b40c 70bc 7f59 8ebb 588f 5e39
00000010: 0b81 bcbc b218 aa92 ea84 0b3e 2961 a9b9
00000020: 0dd8 e1be 513d 373f 9bc1 c7bb 45c6 babc
00000030: d9bf 0a3c 559f 64bc 35d0 8a98 14ab 70ba
00000040: 7768 cabb e365 69ba f7aa 4f8a f48e ba3f
00000050: 3d0a c9b7 7543 9a94 fe85 62b7 7af5 0fbb
00000060: 91ac f1b9 e14d 133e 5570 71ba 7cc7 2cbb
00000070: 449b e7ba b668 90b9 7764 b4bb 54d5 e495
00000080: 7cf4 b296 526c 1bbc b053 e4bb 45ae d799
00000090: a504 88bd 9a2f a9bb 7aef a1bb 91f5 153f
000000a0: e463 8b3d b40c f43f 1557 bcba 9625 9b3f
000000b0: 70e9 d2bb f09d a0b8 cf91 38bb 2383 89ad
000000c0: f361 4abc f294 4eba 8cf8 0d3e 3d27 cdb9
000000d0: 511e 3bbc 7048 413f b597 b4bc 38e6 3eb7
000000e0: 42b9 ed3c 499e 85bc 02c9 87bc 3004 8aba
000000f0: 77e3 ce39 6d28 e53e 66fa aeba 7729 4c95
00000100: 8d2f 2d3e d6b4 1dbc 8d0e 39bc 4c30 093e
00000110: 98bc 00b6 679f 5dbb a1a5 a8bc b041 073e
00000120: b8f1 0dbb 569e 193e 331b 02bc 954f 26b9
00000130: 10f6 003f dfec d9bb 3417 40bc 7066 c6a6
00000140: 87a6 f33d b8b3 aa3d 9728 1ca8 2812 0d3e
00000150: 1d9e 99a5 5e2a 7dba 8d9b 95bb 4566 1fbc
00000160: 1cd6 4bbb d52a 43bf a876 11bb 8eee 6ebe
00000170: 5d97 ddbc 8d62 b48d 5188 05b1 de3e a8ba
00000180: 2d72 17bb 02aa b895 c167 3fbb f280 03bb
00000190: 7819 7e40 c61c 24bc 91de 93ba 4a82 543d
000001a0: 5f33 caba db7d 9fba ce94 10bb d9c5 c8a2
000001b0: 86c6 90bb 15ad aea5 faa3 89a2 7e43 a898
000001c0: ba98 dc3d b347 d3a3 dbd3 ceba 9970 7d3e
000001d0: 8b3c 023f be24 a7bc c7b7 8fbc fef5 533e
000001e0: 1923 0795 56a8 e0bb 90ae fa3d 9c6a 3cb8
000001f0: ebf0 36bc b729 0bbc ef0a 93a9 7794 7fa2
00000200: 532a 2cb9 ca94 b5ba 5af4 f4bc 6ca7 0799
00000210: f5c7 123c 5c6e 6340 891c 67bf 8687 e2b9
00000220: 3612 d6ba 6a65 55b5 d07f 70ba e579 a3b9
00000230: 44ec 02b8 e95b 5cb8 5480 8e3d 1c03 4eab
00000240: 79a5 4298 e4b6 a8bb 6797 2f40 c908 14a9
00000250: 1843 92ba 07cb 8abc 4d12 b73e 3024 bfb9
00000260: fb6c 92b8 be4d febc d1f1 083e ae66 85ba
00000270: f533 fa3f 55b3 4cbc fe16 c4ae 1ef8 a93f
00000280: f626 a6ba d5ad 1e3e 7a30 0cbb c700 293f
00000290: 7915 c6ba 300f e6ba a87c 1fbe 106b d5a2
000002a0: 970b 60ba 60ff 8098 9668 8a40 8baa 92b8
000002b0: 21ed 8aba 6926 263d 2a05 66a4 d439 a8bb
000002c0: 1c11 88a3 cbfb d63d a589 343e a2ef dbac
000002d0: 71d7 2ebc 30c0 d6ba 4f8e 80ba 3ce6 8940
000002e0: f093 a7bc 155c 8c3f 6fd0 14bb 3691 a6bb
000002f0: eae6 bb3d 388c 2fb9 6908 8fba 86c7 2ebf
00000300: c82d 923d 4147 82be 3351 8a3c d708 8ebc
00000310: d518 c53f 82be 90a0 27d5 a03e bc0f 39bb
00000320: 4781 97ba db6f 6fbc 3d5b 0da2 40e3 8c94
00000330: d2a1 103e e9c3 43ac e5f4 09ad 05e5 8ca2
00000340: 7dbe a93f 72a0 44bc d98d 1dbb 8b4f 39bb
00000350: 18c8 ebba 02e3 2ebb 6c66 1dbd a2e3 fcbb
00000360: 40d3 cbba c3f9 533f 6b13 063f c3a9 2eb1
00000370: 97dd 8bba 997e 5a3d 019b 4dbb 101d dbbb
00000380: 4e44 9eb7 d8dd 17ba 0c82 e6bb 0e2e 189d
00000390: f133 b63d ac48 26a2 58bd 093e f998 ac3d
000003a0: 283f 2593 9638 dcba 6266 adba 0256 e2bd
000003b0: 9dc4 46bc 9b40 92bc ac27 2ba3 eb4e d5a1
000003c0: e833 68bc e295 c43f 0434 5395 c415 5e3d
000003d0: 2c9b 4c94 b48e 09bb dcd9 853d d5b6 61b7
000003e0: d780 2093 c944 71ba 1e36 79be c49e 60b7
000003f0: a685 cc3f a15b 273d d7e8 3cbb dc6a c4b7
-0.0041337954 -0.014651466 -0.004344165 0.0002122497 -0.023010751 -1.0734596e-27 0.13624921 -0.00032306582
-0.44110146 0.71577936 -0.0060960776 -0.02279962 0.008468592 -0.013954003 -3.58824e-24 -0.0009180766
-0.006177004 -0.0008903427 -9.9988424e-33 1.4574876 -2.3965835e-05 -1.5576633e-26 -1.3501847e-05 -0.0021966384
-0.00046095674 0.14385177 -0.0009210159 -0.002636402 -0.0017670174 -0.00027543836 -0.0055051404 -9.242504e-26
-2.8911742e-25 -0.009486275 -0.006967984 -2.2300866e-23 -0.06641511 -0.0051631453 -0.004941878 0.5857783
0.06806162 1.9066377 -0.0014369214 1.2120845 -0.0064365193 -7.658813e-05 -0.002816308 -1.5633333e-11
-0.0123524545 -0.0007880471 0.13864344 -0.00039129882 -0.011420802 0.75501156 -0.022044996 -1.13784845e-05
0.029019002 -0.016310828 -0.01657534 -0.0010529812 0.00039460856 0.44757405 -0.0013349771 -4.1230182e-26
0.1691267 -0.009625634 -0.011294973 0.1339733 -1.9183262e-06 -0.0033816935 -0.02058679 0.13208652
-0.0021658968 0.15001807 -0.007941055 -0.0001586064 0.5037546 -0.0066505517 -0.011724282 -1.3766776e-15
0.11896997 0.0833506 -8.668541e-15 0.13776457 -2.664841e-16 -0.0009657497 -0.0045656622 -0.009728973
-0.003110296 -0.7623723 -0.0022195969 -0.23333189 -0.027049715 -1.1117082e-30 -1.9431534e-09 -0.0012836119
-0.0023108826 -7.4585233e-26 -0.002920613 -0.002006587 3.9703045 -0.010016626 -0.001128154 0.051882066
-0.0015426687 -0.0012168245 -0.002206135 -5.441959e-18 -0.004418197 -3.0301473e-16 -3.730754e-18 -4.349513e-24
0.10771318 -2.2907032e-17 -0.0015779691 0.24749984 0.5087363 -0.020403262 -0.017543687 0.20699307
-2.729072e-26 -0.0068560047 0.122403264 -4.492198e-05 -0.011165838 -0.008493832 -6.530008e-14 -3.463754e-18
-0.00016418965 -0.0013853547 -0.029901672 -7.013147e-24 0.008958806 3.5536108 -0.90277916 -0.00043207052
-0.0016332332 -7.949626e-07 -0.0009174319 -0.000311806 -3.1214455e-05 -5.2537685e-05 0.069580704 -7.3190217e-13
-2.5157455e-24 -0.0051487554 2.7436159 -3.287022e-14 -0.0011158912 -0.016942514 0.3575615 -0.0003645732
-6.982122e-05 -0.03104293 0.13373496 -0.0010177696 1.9547106 -0.012493928 -8.917132e-11 1.3278844
-0.0012676406 0.15495999 -0.00213912 0.6601681 -0.00151126 -0.0017552134 -0.15574896 -5.7847123e-18
-0.0008546649 -3.3345087e-24 4.325267 -6.9935886e-05 -0.0010599234 0.040563975 -4.9877674e-17 -0.005133847
-1.4752396e-17 0.104972444 0.17630632 -6.250959e-12 -0.010671482 -0.0016384181 -0.0009808036 4.309355
-0.020456284 1.0965601 -0.0022707244 -0.0050832285 0.09174903 -0.00016741536 -0.0010912541 -0.682732
0.07137638 -0.25444987 0.016884422 -0.0173382 1.5398203 -2.4520616e-19 0.31412622 -0.0028238138
-0.0011558913 -0.014614071 -1.9157364e-18 -1.4226022e-26 0.1412423 -2.7819919e-12 -7.841926e-12 -3.818956e-18
1.3261257 -0.012001144 -0.0024040847 -0.002827617 -0.001798871 -0.00266856 -0.038427755 -0.0077175656
-0.0015550628 0.8280298 0.5237338 -2.541683e-09 -0.0010670897 0.05334339 -0.0031372907 -0.006686814
-1.8866875e-05 -0.000579325 -0.0070345458 -2.0140842e-21 0.08896626 -2.2535667e-18 0.13451135 0.08427615
-2.0857066e-27 -0.0016801532 -0.0013229365 -0.11051561 -0.012131837 -0.017853072 -9.2783294e-18 -1.4454331e-18
-0.014172532 1.5358241 -4.2652144e-26 0.054219976 -1.032997e-26 -0.0020989599 0.06535694 -1.3453614e-05
-2.0258362e-27 -0.000920367 -0.2433705 -1.3388406e-05 1.5978286 0.04085887 -0.0028825307 -2.3414781e-05

bn2.weight f4 [300]
00000000: d665 9dbc 488d 24a0 a4e0 da3b 6159 b740
00000010: 546c 733f 2e62 4440 b49a 48bd 8407 103e
00000020: ff00 0080 b6d8 2040 d789 3340 9bd5 05a2
00000030: bb66 1dc0 c584 a8bd c46e cb40 a0ec fd8e
00000040: 1ba7 2c41 f96e 2f40 9738 2c40 e3d0 66c0
00000050: fafa 983c 2a72 7b9b bc29 34bd 68bf 36b2
00000060: f21b 80bb f262 5c3b cfea e440 aaae 8b32
00000070: 2717 4dad 317f f63c 9d44 e83e 46ac 4c40
00000080: 191c db3a 61dd 11ba 78e8 ba40 bb5c 4240
00000090: 8fc6 213c 3907 953b 5937 9c37 4ae0 5f3e
000000a0: 35e5 abb7 a084 2a40 a389 7740 551c 8c40
000000b0: 5984 6dbf cbcd ebb9 679d 7e40 a32c b1a3
000000c0: c516 5c40 9126 cc40 cf6e 93be dfb4 1540
000000d0: 253c 2a41 07b5 4f8a f97d be40 c9d1 8640
000000e0: 49cd 7040 2ed8 3b3f fee3 5041 7e1b 64bb
000000f0: 7dc9 4f41 92ea 9e3c 74d2 1a40 ff3b 0241
00000100: 70aa 0040 6baa c63d 28ca aaaa b17e 8940
00000110: 37cd 6d3a 49c0 ec3c 4af3 4b3d 4712 5e3c
00000120: 9b26 a3c0 5030 7240 68cc 2240 7c9f 2140
00000130: 4d00 0080 e51e ac3d 98f0 dd40 641f 453d
00000140: c800 0000 5365 c03d 1b12 0000 d401 0000
00000150: da9e 8240 1e75 1040 b5d8 dfad 5545 31bb
00000160: 9113 e5c0 a0a6 2440 b530 12bc 6e01 0080
00000170: e813 7540 0806 3e3e b106 0fc0 e58b ceba
00000180: e0a5 9ebd b524 8c40 f388 2641 e720 7f3c
00000190: 1689 013b 4b4e 0341 53c1 9abc cfee 8d3d
000001a0: b619 47c0 db12 8bc0 d676 cf3d 020b a6c0
000001b0: 25ea f9a8 cb4d 1740 d9a4 d8a9 adaf 0840
000001c0: e494 323f 990b 2faf b183 05c0 9801 8c3e
000001d0: f246 643f 6400 0080 21f7 f235 7c98 0a41
000001e0: 608b bf40 5604 093e 3534 0240 9278 06b7
000001f0: 6c29 ccb1 e796 cc3d 8788 94bd 4957 2840
00000200: a102 66bd 8e43 02ba 140e d6bc 0333 c33c
00000210: e2b5 18a5 2dac 4ab9 44f3 ca38 4e3c ab40
00000220: 0d66 2940 86f2 253b 5473 37bc 3a3c 763d
00000230: 2f9c de40 3745 453b da54 4bbd 4b21 3340
00000240: f296 0c40 91d5 d1c0 1df7 80ac b2c5 3240
00000250: 6c5b 7340 a1d0 43be 3d48 89c0 59f3 a53b
00000260: 4a8f 1040 5f00 0000 f98d 6c3a 5ae9 4fb3
00000270: f4a8 5b3c 9c95 b8bd c0b8 6140 f14e 5a40
00000280: 5279 7140 c71c 4740 7441 0740 8124 a93c
00000290: 0900 0000 4519 9a40 e126 4037 35b4 0dbd
000002a0: 0c89 b740 6022 563d 4d69 3740 3354 e23f
000002b0: a7cb 883c 9b56 29bc bd26 1d40 c770 4b41
000002c0: 0261 4e40 ff80 6140 2200 9894 f801 0080
000002d0: 509a c03e a98a 0441 403b f5a0 083b 0840
000002e0: 9953 3040 fa6b f9bd 2842 fb40 c70d 1fc0
000002f0: 670c ac40 863f 353d e4dc 0840 4130 9d40
00000300: 3919 5e40 7632 0740 a6bf 97bd 4c54 1640
00000310: 4309 303d 409d f5b9 78d6 00c1 1504 783d
00000320: 869e 943d d661 223e 8ec3 6040 52e9 71b1
00000330: 9ac8 4a40 51d6 1241 8470 2140 3b50 a53a
00000340: cd3d 2880 8a58 3b41 cc77 0038 da85 b3bd
00000350: f51c 769c fe1c 27bd 30af 1f3e 1d00 3740
00000360: bad4 dbbc 740a b040 d26f 8540 6c00 0000
00000370: 0423 38bd bde6 9e40 cbbb f02c f600 0000
00000380: 621b 16be dbdb 4440 e24c a140 a5c3 8240
00000390: 6f4a 29a8 c78f 78b9 3a95 d83c 207a 4e40
000003a0: 0aea 6940 e3ee d53f d6aa 0cc0 0a26 0735
000003b0: bb2d a503 a7c5 94c0 1862 2040 4b07 a8be
000003c0: 76bc 4b40 e7cc 2e98 b5e4 a93e 06cd cc3d
000003d0: 25e6 0341 1e02 1d40 4bb9 2440 626a 7640
000003e0: cc27 6f40 d8b8 803e 20af 4640 b892 3fc0
000003f0: 4e70 62bc bc6c 4fab c3cc a340 9085 08c0
-0.019213598 -1.3938086e-19 0.0066796113 5.7296605 0.9508717 3.0684924 -0.04897566 0.14065367
-3.57e-43 2.513227 2.805288 -1.8137943e-18 -2.4593952 -0.08228449 6.357271 -6.2597177e-30
10.790797 2.7411482 2.690954 -3.6064994 0.018674362 -2.0799122e-22 -0.043985114 -1.0637315e-08
-0.0039095813 0.0033628312 7.153663 1.6261158e-08 -1.1658042e-11 0.030089946 0.45364848 3.1980147
0.0016716748 -0.0005564299 5.8408775 3.0369098 0.009874 0.00454798 1.8622422e-05 0.21862903
-2.0491521e-05 2.6643448 3.8677757 4.3784585 -0.9278007 -0.0004497602 3.978357 -1.9209283e-17
3.4388897 6.379708 -0.28795478 2.3391645 10.639684 -1.0000735e-32 5.9528775 4.2131085
3.7625296 0.7337674 13.055662 -0.0034806426 12.986691 0.019398961 2.419095 8.1396475
2.0104027 0.097004734 -3.033834e-13 4.2967153 0.0009071412 0.028900282 0.049792565 0.013554162
-5.0984626 3.7841988 2.543726 2.5253592 -1.08e-43 0.0840433 6.9356194 0.04812564
2.8e-43 0.09394326 6.495e-42 6.56e-43 4.081891 2.2571483 -2.5448402e-11 -0.0027049382
-7.1586385 2.57267 -0.0089227455 -5.13e-43 3.82934 0.18556988 -2.2347834 -0.0015758245
-0.07746482 4.379481 10.408435 0.015571809 0.0019765547 8.2066145 -0.018891012 0.06930315
-3.1109443 -4.3460517 0.10130088 -5.1888437 -2.7746097e-14 2.364123 -9.6209234e-14 2.1357224
0.6975844 -1.5920278e-10 -2.0861628 0.27344966 0.89170754 -1.4e-43 1.8102329e-06 8.662228
5.9857635 0.1338056 2.0344365 -8.015095e-06 -5.9418905e-09 0.0998972 -0.07252603 2.6303275
-0.05615485 -0.0004969173 -0.02612976 0.023828035 -1.3245523e-16 -0.00019328362 9.677422e-05 5.3511114
2.6468537 0.0025321557 -0.01119693 0.06011603 6.9565654 0.003010107 -0.049641468 2.798907
2.196713 -6.55732 -3.665414e-12 2.7933164 3.802455 -0.19122554 -4.290068 0.0050644097
2.2587457 1.33e-43 0.0009023841 -4.8408175e-08 0.013406981 -0.09012911 3.5269012 3.4110682
3.7730298 3.1111314 2.11337 0.02064729 1.3e-44 4.8155847 1.1453144e-05 -0.034595687
5.7354794 0.052278876 2.865802 1.7681946 0.016698672 -0.01033559 2.4554894 12.715034
3.224671 3.5234983 -1.534813e-26 -7.06e-43 0.3761773 8.283853 -4.1543823e-19 2.128603
2.7551024 -0.12178798 7.8518257 -2.485216 5.376514 0.044250034 2.138482 4.9121404
3.4702895 2.112455 -0.07409601 2.348895 0.042977583 -0.00046847202 -8.052361 0.060550768
0.072567984 0.15857634 3.5119357 -3.5202743e-09 3.1684937 9.177323 2.5224924 0.0012612412
-3.69559e-39 11.709116 3.0629148e-05 -0.087657645 -8.1432e-22 -0.040799133 0.15594172 2.859382
-0.026834834 5.501276 4.1699 1.51e-43 -0.04495527 4.9656663 6.8420595e-12 3.45e-43
-0.14658883 3.075919 5.040635 4.0863824 -9.397525e-15 -0.00023704684 0.026438344 3.226204
3.6549096 1.6713527 -2.197927 5.0346773e-07 9.708328e-37 -4.6491275 2.5059872 -0.32818064
3.1833777 -2.2592422e-24 0.33182302 0.100000426 8.243688 2.4532542 2.5738094 3.850243
3.736804 0.25141025 3.1044388 -2.99333 -0.013820721 -7.369207e-13 5.1187453 -2.133152

bn2.bias f4 [300]
00000000: 5dda 82bc f65c cca1 9d89 46bb 02b0 6cbf
00000010: 06cd bcbe 738d 953f 2883 3b3d 45b7 5140
00000020: 06f4 67a8 ece9 dfbd 8b17 953f f1b4 cdb3
00000030: a00e c7be 14e5 2abd 8cc7 0cbe f5b1 82b5
00000040: cc51 b5be c118 1dc0 eb86 9cbf 7990 89be
00000050: cfff e1bc bb0a 0db3 b575 c9bc e653 8ab9
00000060: 166c 193e ab5e ddbb 0fca 1b40 f6be 7db9
00000070: 8ae0 1cbb 87c0 debc 27f5 25be 8ec9 9e3f
00000080: fc01 d13d 19e0 99bb 8d60 6c40 4b5b 893f
00000090: d504 21bc a549 5640 5f55 b5bc c902 5240
000000a0: 9056 23ba fcc3 593e 8d6b eb3f 0fee c13d
000000b0: da1d 55be 5554 3ebc 9374 c03c a819 aead
000000c0: 660e 16bf b27b 1ebf 3594 a53c 7824 e7bf
000000d0: 1787 febe 6f56 2aa6 5a94 60bd 701d ca3f
000000e0: e87f 893e 26ea 9bbb 822f 1cbe 2c58 76bc
000000f0: a29c 85be 86c0 cabc 0723 8dbf bdc9 6d3f
00000100: dec7 fc3d c64e 1e3e a471 bbaa d6c2 493d
00000110: ea70 80bb f325 69bc 8ec7 a2bb b47b 86bc
00000120: 33ae 40c0 a78c 44be 5e50 dbbf 4e9a 253f
00000130: d3f0 6c9e 0120 833d 6f64 d3bd a9a8 cd3c
00000140: 5a97 8494 4968 8c3c a18a ab99 0408 b2a8
00000150: 175e 2840 885f 88bf 7cdc f2ae 7986 05bc
00000160: fca6 2c40 03b2 c13e dedf 98bb 243d 398c
00000170: b9af 373c 2a2d 533f 9609 07bf 3819 573c
00000180: badb 283d ff54 0440 ebb5 1fbe 6098 11bd
00000190: a44e 08bd 63b7 33be 4e8b 6dbc bdc8 cb3c
000001a0: a144 453f 4c48 35c0 d6b8 1b3d 870b abbf
000001b0: 8ffb a8b5 7dfa b2bf 88cc baae 0cbb 0fbf
000001c0: f83d 733d 9d88 9fb4 2174 e0be b0b5 1240
000001d0: 0427 9ebd 0b8e 1593 3190 0fb8 8c35 19bf
000001e0: e54d 5540 0f2c 873d 226e 2bbf 7560 85bb
000001f0: 9ab8 7ab8 5351 5e3d 084d 523d 1fd8 00c0
00000200: 0206 c53d f89b 93b9 8ba7 65bb 02da b0bc
00000210: b1ee 20b2 684b bdbb 99b1 59bc 42ff 6240
00000220: bbf4 0cbe 82a1 c2bb 55bc 8d3b e3bd cb3d
00000230: 1e6f 71be d359 893d 1f58 ec3c c299 cbbf
00000240: c5fd 2abd 8a3f 35bb 44ad 6aad a56a c73f
00000250: ce7f 853d 7ddc eeba 7c10 0740 8136 69bc
00000260: 6173 c4bf c2d8 efa9 30a1 9fba ca02 23b9
00000270: adb3 c0bc 0568 5240 491e c43f b940 0a3e
00000280: c57a cebf e7a6 813f 7ef5 aebf b3c5 1b3c
00000290: e4ea 8ca8 b1f4 733f d150 72bb 782a 83bc
000002a0: 5678 d4bf d381 cebc 16c5 b43f b8a0 2cbe
000002b0: 909d b93d 57f9 31bd 1fcd acbf 08dc 393d
000002c0: 094f a7bc 46e4 50bd 5a05 89b2 4e6f a991
000002d0: 53c8 0540 528a 5cbf 4964 d1b4 a5f1 de3d
000002e0: 0d06 c8bf e795 a83c d239 abbd ef93 05bc
000002f0: 7e83 6f40 535e 643d f4cf 4bbd a868 bc3d
00000300: c345 f43f dd7a 1ebd 9ccc 03bd a8ae 8f3f
00000310: 0f5c 223e bd1f a7bc a634 e33f 983d 58bd
00000320: 7e4d 5640 0c0c 263e 469a 88bf 3a56 7ab9
00000330: 9240 ffbf 95eb e0be ef4c e9bf 92f1 843c
00000340: 8550 8d97 5e53 a5bd a997 4cbb fbd4 35bd
00000350: 07d4 36b6 02cd 683d a573 8e3c 9e67 b0bf
00000360: 98c5 9c3d 9705 1a40 63b5 75bd d4eb 3a96
00000370: 99d1 d8bc 9d24 08be e22e 27ae 086e 2d9b
00000380: 72a6 093e 67c8 f93f ba14 5f40 73e7 e83f
00000390: ad56 f1ba 0aec 58bc 3b6e 92bb 31c3 59be
000003a0: 5340 cc3f dc60 5dbe f57d dd3e 00bd 15b9
000003b0: 4ac0 0f9e 89a5 c7bf b9cf c7bf ee18 69bc
000003c0: 04c4 693e b89d 38b1 58fb 803f e3b5 7f3d
000003d0: c340 bfbd 7ebf fdbf 48d9 a03e bb0e 823d
000003e0: 7b3e 9b3d 0d62 1640 6a53 87bf 7985 133e
000003f0: 8cda 6c3d 6ca6 0cb8 bbc4 c9bf b3de 7bbe
-0.015973264 -1.3848184e-18 -0.0030294426 -0.92456067 -0.3687517 1.1683792 0.045779377 3.276811
-1.287599e-14 -0.10933289 1.164781 -9.5789694e-08 -0.38878345 -0.041722372 -0.13747996 -9.737547e-07
-0.3541397 -2.4546359 -1.2228674 -0.26868036 -0.0275878 -3.283888e-08 -0.02459226 -0.0002638392
0.14982638 -0.00675567 2.4342077 -0.00024199099 -0.0023937547 -0.027191414 -0.162068 1.240526
0.102054566 -0.004695904 3.693393 1.0730985 -0.009827812 3.348245 -0.022135435 3.28142
-0.00062308554 0.21266168 1.8392197 0.09469234 -0.20812169 -0.011616786 0.023493087 -1.9792903e-11
-0.5861572 -0.61907494 0.020212272 -1.8058004 -0.4971244 -5.909774e-16 -0.05482898 1.5790234
0.26855397 -0.0047581373 -0.15252498 -0.01503567 -0.26096064 -0.024750005 -1.1026314 0.92885953
0.12342809 0.15459737 -3.3296727e-13 0.049258076 -0.0039197104 -0.014230239 -0.0049676364 -0.016416408
-3.0106323 -0.1919428 -1.7133901 0.64688575 -1.2543537e-20 0.06402589 -0.103218906 0.025104837
-1.3388292e-26 0.01713957 -1.7736977e-23 -1.9765446e-14 2.6307428 -1.0654154 -1.1044052e-10 -0.008149737
2.697692 0.37831125 -0.004665359 -1.427028e-31 0.011211329 0.8249079 -0.52749 0.013128571
0.041225173 2.0676877 -0.1559674 -0.035545707 -0.033278123 -0.17550425 -0.014498545 0.024875993
0.77057844 -2.8325377 0.03801807 -1.3362893 -1.2590189e-06 -1.3982693 -8.494633e-11 -0.56144786
0.05938527 -2.9715457e-07 -0.438386 2.2923393 -0.077222854 -1.8876477e-27 -3.4228146e-05 -0.5984733
3.3328793 0.066002004 -0.66964924 -0.0040703365 -5.977657e-05 0.054276776 0.051342994 -2.013191
0.096202865 -0.0002815423 -0.003504249 -0.02158833 -9.367498e-09 -0.0057768114 -0.0132869715 3.5468297
-0.13765232 -0.0059396634 0.0043254294 0.099483274 -0.23577544 0.06706586 0.028850613 -1.5906298
-0.04174592 -0.002765628 -1.3339833e-11 1.557942 0.065185174 -0.001822367 2.1103811 -0.014234186
-1.5347711 -1.06513336e-13 -0.0012178775 -0.0001554593 -0.023523176 3.2875988 1.5321742 0.13501252
-1.6131216 1.012906 -1.3668668 0.009507584 -1.564499e-14 0.95295244 -0.003697444 -0.016011462
-1.6599224 -0.02520839 1.4122646 -0.16858184 0.09063256 -0.04345068 -1.3500098 0.045375854
-0.02042343 -0.05099895 -1.5951333e-08 -2.6732095e-28 2.0903518 -0.8614856 -3.900225e-07 0.10885934
-1.5626847 0.020579292 -0.08360638 -0.008152946 3.7424006 0.055754017 -0.049758866 0.09199649
1.908379 -0.03869139 -0.032177553 1.1225176 0.1585543 -0.020400876 1.7750442 -0.052793115
3.3484797 0.16215533 -1.067208 -0.0002387398 -1.994158 -0.43929735 -1.8226603 0.016228471
-9.132237e-25 -0.08072542 -0.0031218326 -0.044392567 -2.724353e-06 0.056836136 0.017389128 -1.3781621
0.076548755 2.4065912 -0.059987437 -1.5099375e-25 -0.026467131 -0.13295217 -3.8013044e-11 -1.4345778e-22
0.134424 1.9514283 3.48564 1.8195633 -0.0018412672 -0.01323987 -0.004468707 -0.21265866
1.595713 -0.2161898 0.4326016 -0.00014280155 -7.6101214e-21 -1.5597392 -1.5610267 -0.014227135
0.2282868 -2.6865177e-09 1.0076704 0.06242932 -0.09338524 -1.9824064 0.31415772 0.06350466
0.075802766 2.3497345 -1.0572331 0.14406385 0.05782561 -3.3533594e-05 -1.5763162 -0.24596672
