tmp/ddpg/critic_ddpg.pth (torch, 514177 bytes, 11 tensors)

fc1.weight f4 [400, 11]
0	0xbe6cf857	-0.23141609
1	0xbf1fe7a9	-0.6246286
2	0x3de634a8	0.11240512
3	0x3db8520a	0.09000023
4	0x3eff87ce	0.49908298
5	0x3e557a1b	0.20847361
6	0x3fd250b3	1.6430877
7	0xbf6b047b	-0.9180371
8	0x3f924e91	1.1430227
9	0x3f66787b	0.9002759
10	0x3f84e962	1.0383723
11	0xbe4674f8	-0.19380558
12	0xbf29f0ae	-0.66382873
13	0x3dfad6fd	0.12248037
14	0x3dcebe52	0.100948945
15	0x3efda483	0.49539575
16	0x3f90da69	1.1316653
17	0x3fb7c627	1.4357346
18	0xbfa89f0a	-1.3173535
19	0x3f87b54a	1.06022
20	0x3f594cee	0.8488301
21	0x3f77a979	0.9674297
22	0xbe40883b	-0.18801968
23	0xbf346ba9	-0.70476776
24	0x3dffc9c5	0.12489656
25	0x3ddc6e66	0.10763244
26	0x3f04ac9d	0.51825887
27	0x3f4e5042	0.80591214
28	0x40041697	2.0638788
29	0xbfaf45ea	-1.3693211
30	0x3f5730f7	0.8405909
31	0x3f310f1e	0.6916369
32	0x3f402f50	0.75072193
33	0xbe9a95d9	-0.3019245
34	0xbedf7755	-0.4364573
35	0x3e85b238	0.26112533
36	0x3d2bb802	0.04192353
37	0x3f079872	0.5296699
38	0x40546cfa	3.3191514
39	0x3fdf9a6d	1.7469002
40	0x3edd29e6	0.43196028
41	0x3f9daa35	1.2317568
42	0x3f8dcbc0	1.1077805
43	0x3f982cd4	1.188868
44	0xbeabfef7	-0.3359296
45	0xbd803f1f	-0.062620394
46	0x3ec6c901	0.3882523
47	0x3d934e3a	0.07192655
48	0x3eb5fa91	0.3554273
49	0x40cbc1c9	6.3674054
50	0x3f6c9dc8	0.92428255
51	0xbf14a4be	-0.58063877
52	0x3f6ea14b	0.93214864
53	0x3f3ac36e	0.7295445
54	0x3f75d315	0.9602521
55	0xbd4e68cb	-0.050392907
56	0xbf2c73e0	-0.6736431
57	0x3e0057df	0.1253352
58	0x3dc1cd7f	0.094630234
59	0x3f2d4d27	0.6769585
60	0xbf14ef3e	-0.58177555
61	0x3fbc0aaf	1.469076
62	0xbf965df5	-1.1747423
63	0x3ed544a1	0.41653922
64	0x3ea6e11e	0.32593626
65	0x3edad93d	0.42743865
66	0xbe960fd3	-0.29308948
67	0xbf1a7509	-0.6033483
68	0x3e07abf5	0.1324919
69	0x3dc02a45	0.09383062
70	0x3ef705b2	0.48246533
71	0x3f227a67	0.6346802
72	0x3fd6f117	1.6792325
73	0xbf6df7b8	-0.92956114
74	0x3f932417	1.1495389
75	0x3f6f0338	0.93364286
76	0x3f85cd38	1.0453253
77	0x3e147f89	0.14501776
78	0xbf2ba888	-0.67054033
79	0x3e90d6dc	0.28288925
80	0x3dd2b3e5	0.102882184
81	0x3f7fbcf5	0.998977
82	0x3f35f3b0	0.7107496
83	0x3f8bb988	1.0915995
84	0xbe897700	-0.26848602
85	0xbf8bff14	-1.0937219
86	0xbf86aaa7	-1.0520829
87	0xbf5384c1	-0.8262444
88	0x3ef935b6	0.4867379
89	0xbf57b49f	-0.8425998
90	0xbddf59ab	-0.10905775
91	0x3e27b9ec	0.16379517
92	0x3dafec9c	0.085900515
93	0xbf3074af	-0.68928045
94	0x3f36572d	0.7122677
95	0xc052f4e8	-3.296198
96	0xbead06a8	-0.3379414
97	0xbea0260e	-0.31279033
98	0xbd62962d	-0.055319
99	0x3f766e93	0.9626247
100	0xbf0f5723	-0.55992335
101	0x3eade6e7	0.33965227
102	0x3cfe369d	0.031031901
103	0x3e9e6ca4	0.3094226
104	0xc141a154	-12.101887
105	0xc04fa344	-3.24434
106	0x3fa8423b	1.3145212
107	0x3e886279	0.2663763
108	0x3ee938fe	0.45551294
109	0x3e386808	0.18008435
110	0x3e181b34	0.14854127
111	0xbf6ac6f4	-0.9170983
112	0x3e04a424	0.1295324
113	0x3e129e96	0.14318308
114	0x3f200fac	0.62523913
115	0xbf46649c	-0.7749727
116	0x3f971879	1.1804343
117	0xbff81bdc	-1.9383502
118	0x3d3260cf	0.043549355
119	0x3c9e9a73	0.019360757
120	0x3e1644f8	0.14674747
121	0xbe89a423	-0.2688304
122	0xbf1829e9	-0.5943895
123	0x3e0d6575	0.13808234
124	0x3dbc3b67	0.091910176
125	0x3f09d9f5	0.538482
126	0x3f811dff	1.0087279
127	0x3ff910d8	1.9458265
128	0xbf886c4b	-1.0658048
129	0x3f734a9d	0.95035726
130	0x3f435392	0.76299393
131	0x3f5b975d	0.8577784
132	0x3e3336af	0.17501329
133	0xbf60d91c	-0.8783128
134	0x3e487604	0.1957627
135	0x3dfcb692	0.1233951
136	0x3f15852b	0.58406323
137	0xbfa7cc0b	-1.3109144
138	0x3fb034f3	1.3766159
139	0xc03d513d	-2.9580834
140	0x3eb07616	0.34465092
141	0x3e90532a	0.2818845
142	0x3f045c2b	0.5170314
143	0xbe75b58e	-0.23995039
144	0xbf156484	-0.583565
145	0x3de6a421	0.11261774
146	0x3db0f220	0.08639932
147	0x3f0d2fe4	0.551512
148	0x3ee1d270	0.44105864
149	0x3fd204c0	1.64077
150	0xbf78f489	-0.9724813
151	0x3f80da69	1.0066653
152	0x3f483ba8	0.7821603
153	0x3f6b46ff	0.91905206
154	0x3eea80ed	0.45801488
155	0xbf55f59e	-0.8357791
156	0x3e169b89	0.1470777
157	0x3d81939f	0.063269846
158	0x3f30633b	0.68901414
159	0xc119264d	-9.571851
160	0xbfee5853	-1.8620704
161	0x3ea5ab10	0.32357073
162	0x3f1cb240	0.6120949
163	0x3f03c69d	0.51474935
164	0x3f0ac21d	0.54202443
165	0xbe65cb98	-0.22440946
166	0xbef73ce5	-0.48288646
167	0x3e0631d5	0.13104947
168	0x3d9f208e	0.07769881
169	0x3f126811	0.5719004
170	0x3f0c0038	0.54687834
171	0x4004db9e	2.0759044
172	0xbeff0f02	-0.49816138
173	0x3f651a57	0.89493316
174	0x3f34d2ca	0.7063414
175	0x3f42bd62	0.76070225
176	0xbe47c34d	-0.19508095
177	0xbf0b008a	-0.542977
178	0x3e04c78a	0.12966743
179	0x3d99d847	0.07511955
180	0x3f164433	0.58697814
181	0x3f45d361	0.77275664
182	0x3fd4e080	1.6631012
183	0xbfdadc74	-1.7098527
184	0x3f815bc0	1.0106125
185	0x3f514969	0.8175264
186	0x3f6c38b1	0.92274004
187	0xbd854ce3	-0.065088056
188	0xbf194d2a	-0.5988337
189	0x3de894ee	0.11356531
190	0x3db77048	0.08956963
191	0x3f2e632f	0.6812009
192	0xbf25f3ef	-0.6482534
193	0x3fb0a513	1.3800377
194	0xbf61b122	-0.8816091
195	0x3ed61b1b	0.41817555
196	0x3ea8fb3e	0.33004183
197	0x3ebe6449	0.37185887
198	0xbe5fb421	-0.21846057
199	0xbef25b16	-0.47335118
200	0x3e0b4fc8	0.13604653
201	0x3d72b649	0.059255872
202	0x3f16d135	0.58912975
203	0x3da1be17	0.07897585
204	0x3fe16045	1.7607504
205	0xc00275ab	-2.038432
206	0x3f8760bf	1.05764
207	0x3f6b03fc	0.91802955
208	0x3f8094f3	1.0045456
209	0x3f2d1a7b	0.6761853
210	0xbef981b6	-0.48731774
211	0x3e953c94	0.2914778
212	0x3de89de5	0.11358241
213	0x3f59b0c9	0.8503538
214	0x3ffcde3c	1.975532
215	0x3ee18ce3	0.440528
216	0x3d0367ea	0.032081522
217	0xc0440d18	-3.0632992
218	0xc03199f3	-2.7750213
219	0xbfe37bb7	-1.777213
220	0xbe89a7b4	-0.2688576
221	0xbeeb34ee	-0.4593882
222	0x3e1ca44c	0.1529705
223	0x3d66aa19	0.05631456
224	0x3f1f6108	0.6225743
225	0xbf5c1de9	-0.8598314
226	0x3fb8017b	1.4375452
227	0x3edd8e76	0.43272752
228	0x3f82a4dc	1.0206561
229	0x3f3af4bb	0.7302968
230	0x3f6fb85a	0.93640673
231	0xbe5cdf94	-0.21569663
232	0xbf1f91de	-0.6233195
233	0x3e0611b7	0.13092695
234	0x3db1101a	0.08645649
235	0x3eff52ee	0.49867958
236	0x3f2bd86f	0.67127126
237	0x3ffd1e8b	1.9774946
238	0xbf7089ec	-0.9396045
239	0x3f7a79ae	0.9784192
240	0x3f447a2a	0.7674891
241	0x3f6ae2be	0.9175223
242	0xbef69e9c	-0.48167884
243	0xbeb126fb	-0.34600052
244	0x3e80a494	0.25125563
245	0x3db7029d	0.08936045
246	0x3eb9bbb5	0.36276022
247	0x3fdef100	1.7417297
248	0x3f4b1fbe	0.7934531
249	0xbfd47440	-1.6597977
250	0x3f6e664a	0.9312483
251	0x3f37d8a2	0.7181493
252	0x3f5f6a47	0.8727154
253	0xbe8b4fa3	-0.27209195
254	0xbf17c93c	-0.59291434
255	0x3dfb152b	0.12259897

fc1.bias f4 [400]
0	0x3ecf8815	0.4053351
1	0x3ee983d1	0.4560838
2	0x3ed17339	0.4090822
3	0x3ed5a5d0	0.41728067
4	0x3e989fdd	0.29809466
5	0x3f22ac41	0.6354409
6	0x3ee43c09	0.44577053
7	0x3f51cb7b	0.8195111
8	0x3edec3b9	0.435087
9	0x3f12713e	0.57204044
10	0x3f236091	0.63819224
11	0x3edaad68	0.42710423
12	0x3f3b2e48	0.73117495
13	0x3ee1b613	0.44084224
14	0x3f3e8c2d	0.7443264
15	0x3ec7eee6	0.39049453
16	0x3ee4a9c9	0.44660786
17	0x3f205ee1	0.62644774
18	0x3efa279f	0.48858353
19	0x3f8d3aa5	1.1033522
20	0x3ede3c0c	0.43405187
21	0x3edc42c4	0.43019688
22	0x3e9577b2	0.29192883
23	0x3ec67bae	0.38766235
24	0x3ed29992	0.4113279
25	0x3e8a6de2	0.2703696
26	0x3f370308	0.71489
27	0x3ec46bc9	0.38363484
28	0x3ec15f23	0.37767896
29	0x3eee9a6d	0.46602193
30	0x3eeb04f0	0.45902205
31	0x3e8f5aaa	0.2799886
32	0x3e800dd5	0.25010553
33	0x3f04bf70	0.5185461
34	0x3f432dbd	0.76241666
35	0x3f26a564	0.65096116
36	0x3e53b3d8	0.20674074
37	0x3ee62cf0	0.4495616
38	0x3f0edf49	0.55809456
39	0xbd5cac11	-0.053875033
40	0x3ed3198d	0.4123043
41	0x3e953502	0.29142004
42	0x3f378db5	0.717006
43	0x3e9650bd	0.29358473
44	0x3efae573	0.4900318
45	0x3f0078c3	0.5018427
46	0x3ed511ba	0.41615087
47	0x3dda2885	0.1065226
48	0x3f27e820	0.6558857
49	0x3eee4cf0	0.46543074
50	0x3f8a3e95	1.0800349
51	0x3ef03e8d	0.46922722
52	0x3ec63982	0.3871575
53	0x3e34dee7	0.17663155
54	0x3f1f82a3	0.6230871
55	0x3eeb63ba	0.45974523
56	0x3ecbbc6b	0.3979219
57	0x3ef46fd1	0.4774156
58	0x3eddd3c6	0.43325633
59	0x3f2ccc0f	0.6749887
60	0x3ebe4668	0.3716309
61	0x3ec49808	0.3839724
62	0x3ee8be72	0.45457798
63	0x3f17469b	0.5909211
64	0x3f0384ba	0.513744
65	0x3ee1afb3	0.4407936
66	0x3e2b5bb7	0.16734205
67	0x3ed5b740	0.4174137
68	0x3ec97fa2	0.3935519
69	0x3ece55ed	0.4029993
70	0x3ec97017	0.3934333
71	0x3eee56a2	0.4655047
72	0x3ea127bc	0.31475627
73	0x3ef5e643	0.48027238
74	0x3eabfa98	0.33589625
75	0x3f172ab6	0.59049547
76	0x3e61e8fd	0.22061534
77	0x3f27d08c	0.6555259
78	0x3ee10138	0.43946242
79	0x3f0a27be	0.5396689
80	0x3ee19976	0.44062394
81	0x3f233493	0.63752097
82	0x3effabd5	0.49935785
83	0x3ecd07b2	0.40044934
84	0x3ee3c846	0.44488734
85	0x3f4176b3	0.75571746
86	0x3f3cfbfa	0.73821986
87	0x3eb64653	0.35600528
88	0x3ec1043d	0.37698546
89	0x3f4b601f	0.79443544
90	0x3ebddef0	0.3708415
91	0x3f009a1d	0.5023516
92	0x3ed34859	0.41266134
93	0x3ee982c2	0.45607573
94	0x3f3669b7	0.7125506
95	0x3ed71f86	0.42016238
96	0x3ee20f35	0.44152227
97	0x3ed1b4cd	0.40958253
98	0x3f04338a	0.5164114
99	0x3f37ded3	0.7182438
100	0x3ee0b439	0.438875
101	0x3f1b83f6	0.6074823
102	0x3ef8d3ae	0.48599
103	0x3ecf8e48	0.4053824
104	0x3f0bb753	0.54576606
105	0x3eec3b30	0.46138906
106	0x3ed90030	0.42382956
107	0x3f576d06	0.8415073
108	0x3f2df3a3	0.67949885
109	0x3e170d0d	0.14751072
110	0x3f30e9fd	0.6910704
111	0x3f1aa378	0.60405684
112	0x3da35eb8	0.079770505
113	0x3f0d7130	0.55250835
114	0xbe470b83	-0.19437985
115	0x3e3a3af3	0.1818655
116	0x3d711b25	0.058863778
117	0x3f346995	0.70473605
118	0x3edc2091	0.42993596
119	0x3ef4eba8	0.4783604
120	0x3ec7b2ef	0.39003703
121	0x3ee6dc8a	0.45090133
122	0x3ef63033	0.48083648
123	0x3eeffb01	0.46871188
124	0x3ebd055d	0.36918154
125	0x3ee8052b	0.45316443
126	0x3f235fbf	0.6381797
127	0x3f0d500e	0.5520028
128	0x3ec52e97	0.38512108
129	0x3efce888	0.49396157
130	0x3eb85aac	0.36006677
131	0x3ef49ee2	0.47777468
132	0x3f123363	0.5710966
133	0x3e98f3c2	0.29873472
134	0x3e6eaf04	0.2330895
135	0x3eda4d65	0.42637172
136	0x3f057b83	0.5214159
137	0x3eca011c	0.3945397
138	0x3ee2a2c4	0.44264805
139	0x3e41b6a5	0.1891733
140	0x3eda6eaa	0.42662555
141	0x3ee30bf8	0.4434507
142	0x3ed639ad	0.41840878
143	0x3ef9c568	0.48783422
144	0x3ed498be	0.41522783
145	0x3ea2601b	0.31713948
146	0x3da74f0b	0.08169373
147	0x3f1327c9	0.5748258
148	0x3ec2ab9a	0.38021547
149	0x3f085a33	0.53262633
150	0x3baf064c	0.005341327
151	0x3f28f9f5	0.66006404
152	0x3ece7485	0.40323272
153	0x3ee17001	0.44030765
154	0x3e8f6cff	0.28012845
155	0x3f1ba2c5	0.6079524
156	0x3f065448	0.52472353
157	0x3e825fb2	0.25463635
158	0x3ef093d1	0.46987775
159	0xbdd85529	-0.10563118
160	0x3edbf5f2	0.4296108
161	0x3ee8c3a1	0.45461753
162	0x3ed7140d	0.42007485
163	0x3e4be4ef	0.1991155
164	0x3ed83fd7	0.42236206
165	0x3eea73b1	0.4579139
166	0x3efa3729	0.4887021
167	0x3f25b455	0.6472829
168	0x3f03a63b	0.5142552
169	0x3ed6c21c	0.4194497
170	0x3d4f3778	0.05059001
171	0x3eb95744	0.3619939
172	0xbd196238	-0.037447184
173	0x3ee42b21	0.44564155
174	0x3eca1025	0.39465442
175	0x3f32d0b4	0.69849706
176	0x3ed79e3c	0.4211291
177	0x3eb358b2	0.35028607
178	0x3ee3d135	0.4449555
179	0x3ecc566f	0.39909694
180	0x3eb88b87	0.3604395
181	0x3ee5375c	0.44768798
182	0x3eda18c1	0.4259701
183	0x3e853b2e	0.26021713
184	0x3ef2757d	0.4735526
185	0xbd227493	-0.039661955
186	0x3f271dbb	0.6527974
187	0x3ee98b95	0.45614305
188	0x3f2a7e19	0.6659866
189	0x3ec89c2a	0.39181644
190	0x3eceac37	0.40365764
191	0x3f23bcfc	0.6396024
192	0x3eccbd4c	0.39988172
193	0x3f00d17b	0.5031964
194	0x3dd2402b	0.10266145
195	0x3e3e55b8	0.18587387
196	0xbce9bb84	-0.028531797
197	0x3eb6e052	0.35718018
198	0x3e599aeb	0.21250503
199	0x3ed753fe	0.42056268
200	0x3ebe0f23	0.37120923
201	0x3ed8bd3a	0.42331868
202	0x3ec1bfa3	0.3784152
203	0x3ea68f97	0.32531425
204	0x3f4ab242	0.7917825
205	0x3eda5ead	0.42650357
206	0x3ede62e9	0.43434837
207	0x3ebc3376	0.36758012
208	0x3e0b621f	0.13611649
209	0x3f08e596	0.5347532
210	0x3ebecd26	0.3726589
211	0x3ed0a3fb	0.40750107
212	0x3ed648f6	0.4185254
213	0x3edb1fe8	0.4279778
214	0x3f050f7e	0.51976764
215	0x3f214478	0.629951
216	0x3ef35123	0.4752284
217	0x3e94558d	0.2897152
218	0x3eebd5cf	0.4606156
219	0x3f2db03b	0.6784703
220	0x3ed86b25	0.42269245
221	0x3ecf46e7	0.40483782
222	0x3f494c98	0.786325
223	0x3eead1c4	0.45863163
224	0x3f336a45	0.7008403
225	0x3ebc988d	0.36835137
226	0x3ee733af	0.4515662
227	0x3e9c8bf6	0.30575532
228	0x3edcadf8	0.43101478
229	0x3eddda09	0.4333041
230	0x3f2addba	0.6674458
231	0x3f001640	0.5003395
232	0x3f45fc58	0.7733817
233	0x3ef02f86	0.46911258
234	0x3f22bb60	0.6356716
235	0x3eee0543	0.4648839
236	0x3d20ef80	0.039290905
237	0x3f322aca	0.6959654
238	0x3f01b6e2	0.5066968
239	0x3ece29f6	0.4026639
240	0x3f04fb31	0.5194579
241	0x3eb7d6ab	0.35905966
242	0x3eb882b8	0.3603723
243	0x3ee4d391	0.44692662
244	0x3edde8ed	0.4334177
245	0x3ef43b4c	0.4770149
246	0x3f587771	0.84557253
247	0x3eda00da	0.42578775
248	0x3ef4b9d5	0.4779803
249	0x3f0a390b	0.5399329
250	0x3edb0488	0.42776895
251	0x3ed58f28	0.41710782
252	0x3eea87bf	0.4580669
253	0x3eedc85d	0.46441928
254	0x3ece7324	0.4032222
255	0x3ecd983d	0.4015521

fc2.weight f4 [300, 400]
0	0x00000090	2.02e-43
1	0x800002c6	-9.95e-43
2	0x341cc418	1.459997e-07
3	0x80000099	-2.14e-43
4	0xbe53f048	-0.20697129
5	0x8000018a	-5.52e-43
6	0x26e7e1f6	1.6090092e-15
7	0xbaf1a717	-0.0018436637
8	0xbc70d408	-0.01469899
9	0x3eed20cd	0.46314088
10	0x0f90b4c1	1.426912e-29
11	0x80000204	-7.23e-43
12	0xb946fa3f	-0.00018975975
13	0xbb77ad34	-0.0037792446
14	0x9097d395	-5.988499e-29
15	0x0000048c	1.631e-42
16	0x00000124	4.09e-43
17	0x800003b2	-1.326e-42
18	0xba775df0	-0.00094363
19	0xbf262aa5	-0.6490882
20	0x8000021e	-7.6e-43
21	0x3be292b1	0.0069144596
22	0xbd3ea773	-0.04654641
23	0x320afe23	8.090441e-09
24	0x8000012b	-4.19e-43
25	0x3da19f32	0.07891692
26	0x31806f8e	3.7379726e-09
27	0xb0051047	-4.840825e-10
28	0x2e0f3dfc	3.256949e-11
29	0xbd8b6377	-0.06806081
30	0x2f0a9c7e	1.2606624e-10
31	0xb828d07e	-4.0248495e-05
32	0x3019af1c	5.590992e-10
33	0x80000010	-2.2e-44
34	0x8000753d	-4.2057e-41
35	0x0000056c	1.945e-42
36	0x3e57369f	0.2101693
37	0x32824a96	1.516791e-08
38	0x3be9293b	0.0071155108
39	0x3f02eebf	0.5114555
40	0x3c0fba41	0.008772434
41	0x3d757fa8	0.059936196
42	0xbe9af987	-0.302685
43	0xbe6304f1	-0.22169854
44	0x0000020e	7.37e-43
45	0x39d0a6cf	0.00039797134
46	0x00000115	3.88e-43
47	0xbe3cb475	-0.18428214
48	0x0000003c	8.4e-44
49	0x0000014b	4.64e-43
50	0xbf0f3559	-0.5594078
51	0x8000019d	-5.79e-43
52	0x0000014b	4.64e-43
53	0xbe496429	-0.19667114
54	0xbab79f64	-0.0014009294
55	0x000002b7	9.74e-43
56	0x3b16870d	0.002296868
57	0x8000013f	-4.47e-43
58	0x3995cdc5	0.00028572805
59	0x3d8f6199	0.07001037
60	0x3d8f29cf	0.06990396
61	0xbd78b22d	-0.060716797
62	0x2a7041e8	2.1339148e-13
63	0xbae4d6b5	-0.0017459007
64	0xbe0245b9	-0.1272191
65	0x376493da	1.3624283e-05
66	0x3c9a3457	0.018823786
67	0x3cd84e81	0.026404621
68	0x80000164	-4.99e-43
69	0x00001167	6.243e-42
70	0x80000248	-8.18e-43
71	0x3d1e037f	0.038577553
72	0xbdf03dc5	-0.117305316
73	0x0000013f	4.47e-43
74	0xba437974	-0.00074567576
75	0xbdf40868	-0.11915666
76	0x3e91f7f6	0.28509492
77	0xb899fd7c	-7.342824e-05
78	0x000000d1	2.93e-43
79	0x3c35b0c6	0.011089509
80	0x80000192	-5.63e-43
81	0xbf37bf2b	-0.71776074
82	0x00000038	7.8e-44
83	0x3e31b525	0.17354257
84	0x800001ce	-6.47e-43
85	0x3d988731	0.07447661
86	0x800001d9	-6.63e-43
87	0x80000081	-1.81e-43
88	0x25fb2d18	4.3572116e-16
89	0x3e19f875	0.15036185
90	0x00000058	1.23e-43
91	0x3dcabd39	0.098993726
92	0x3d9a8c49	0.075462885
93	0x00000203	7.22e-43
94	0x800001e8	-6.84e-43
95	0x00000561	1.93e-42
96	0x8000026e	-8.72e-43
97	0xb6a84861	-5.015216e-06
98	0x80000246	-8.16e-43
99	0x3d549e3e	0.051908724
100	0xc0074743	-2.1137245
101	0x35999c50	1.1444881e-06
102	0x3bc7d45b	0.006098313
103	0x800005cf	-2.084e-42
104	0x00000642	2.245e-42
105	0x00000087	1.89e-43
106	0x800000d0	-2.91e-43
107	0x3e621046	0.2207652
108	0xab8d3e5f	-1.0035964e-12
109	0xb1b5189d	-5.2705915e-09
110	0x000000f4	3.42e-43
111	0xb5a984d5	-1.263014e-06
112	0xbeb5caf3	-0.355064
113	0x3df2e0ef	0.11859309
114	0x3e7e5257	0.24836098
115	0x3e4e3f1b	0.2014126
116	0x3e34d3cd	0.1765892
117	0x3ccf962c	0.025340162
118	0x800004be	-1.701e-42
119	0x000001a2	5.86e-43
120	0xbcdf57ca	-0.02726354
121	0x3c47d975	0.012197842
122	0x00000270	8.74e-43
123	0xbd821b11	-0.06352819
124	0x3d83718a	0.0641814
125	0xbeb65ded	-0.35618535
126	0x00000323	1.125e-42
127	0xbe8017c3	-0.2501813
128	0xbbb03475	-0.005377347
129	0x80000055	-1.19e-43
130	0xbd119bee	-0.035549097
131	0x80000162	-4.96e-43
132	0x3e4236e2	0.18966249
133	0xbe041ddf	-0.1290202
134	0x3bd5c608	0.0065238513
135	0x331922e4	3.565482e-08
136	0x1600c56d	1.0402054e-25
137	0x35df79be	1.6650226e-06
138	0x00000078	1.68e-43
139	0x3db4d37d	0.08829401
140	0x3d3e9731	0.046530906
141	0x3e69f473	0.22847156
142	0x0000003a	8.1e-44
143	0x1b42c1aa	1.610988e-22
144	0x000002e7	1.041e-42
145	0x3d05a893	0.032631468
146	0x3f3ccd22	0.7375051
147	0x3d2dfb46	0.04247596
148	0x3cc6f35e	0.024285968
149	0xb9cf80f1	-0.00039578186
150	0xbfc029ad	-1.5012718
151	0x0ef11e01	5.943998e-30
152	0x000000bc	2.63e-43
153	0x80000268	-8.63e-43
154	0xbdec29a9	-0.115313835
155	0x800000f3	-3.4e-43
156	0xbe190985	-0.14945038
157	0xbd7b92ce	-0.0614193
158	0x8000009f	-2.23e-43
159	0xbd62e29c	-0.055391893
160	0xba3bbf41	-0.0007161983
161	0x00000d88	4.854e-42
162	0x00000022	4.8e-44
163	0x3ed61c26	0.4181835
164	0x80000095	-2.09e-43
165	0x2c5b6327	3.1176812e-12
166	0x3e191cf8	0.14952457
167	0x3b9b2021	0.0047340547
168	0x3a1dca62	0.0006019232
169	0x3e3992f7	0.18122469
170	0xbff7ac55	-1.9349467
171	0x00000156	4.79e-43
172	0x3cba6d6c	0.022757255
173	0x00000b9a	4.162e-42
174	0x8000023b	-8e-43
175	0x3b74fee3	0.003738337
176	0x000000b6	2.55e-43
177	0x00000096	2.1e-43
178	0x3e8fb85e	0.28070349
179	0x8000049f	-1.658e-42
180	0x000001dc	6.67e-43
181	0x9ba17c43	-2.6715518e-22
182	0x0000011f	4.02e-43
183	0xbe87ff7f	-0.26562116
184	0x2d8502ab	1.5121534e-11
185	0xbe6341e9	-0.22193111
186	0x00000216	7.48e-43
187	0xbd8d783c	-0.069076985
188	0x3cbfc2fc	0.023408405
189	0x00000356	1.197e-42
190	0xaf10bb28	-1.3163215e-10
191	0x3f0448b2	0.51673424
192	0x3da101c2	0.078616634
193	0x3f041d8b	0.5160758
194	0xbe34c0d4	-0.17651683
195	0x3d76327d	0.060106743
196	0xbf4cce71	-0.80002505
197	0x800000d8	-3.03e-43
198	0xbd4a67e7	-0.049415495
199	0xbba7ca81	-0.005120576
200	0x37dd8fda	2.641224e-05
201	0x04d371f4	4.971051e-36
202	0x80000082	-1.82e-43
203	0xbdd604b7	-0.10450118
204	0x00000286	9.05e-43
205	0x3c0b3ba4	0.008498106
206	0x000000e2	3.17e-43
207	0x800006be	-2.419e-42
208	0x3e0d6c71	0.13810898
209	0xbc1efcbc	-0.009703811
210	0x3d7540c2	0.05987621
211	0x000003b9	1.335e-42
212	0x3cbb2448	0.022844449
213	0x8000082e	-2.934e-42
214	0xb3cc59fd	-9.515859e-08
215	0x3d8300df	0.063966505
216	0x800006f2	-2.492e-42
217	0xbd850c13	-0.064964436
218	0xbbb92e9f	-0.0056513096
219	0x800002f8	-1.065e-42
220	0x3db2edb1	0.08736742
221	0xbd1f3d07	-0.03887656
222	0xa7952adb	-4.140227e-15
223	0xacef625a	-6.8037078e-12
224	0xb2d555e3	-2.483552e-08
225	0x3db6f421	0.08933283
226	0x384c2ee3	4.8681057e-05
227	0x00000179	5.28e-43
228	0xb3bfd4d2	-8.9328424e-08
229	0x0b497f17	3.8806804e-32
230	0x3dc79e97	0.097470455
231	0x80000d1d	-4.704e-42
232	0xbc44ee7d	-0.012019751
233	0xbad273bb	-0.0016056219
234	0x80000434	-1.508e-42
235	0xbd4f54bf	-0.05061793
236	0x3d8c32de	0.0684564
237	0x3d5374e3	0.051625144
238	0xbe438192	-0.19092396
239	0x36037cdb	1.9593197e-06
240	0x800001a3	-5.87e-43
241	0xbf5a0021	-0.85156447
242	0x800001d9	-6.63e-43
243	0x3daed4cb	0.08536681
244	0x381a8889	3.684362e-05
245	0x3f08f6aa	0.5350138
246	0x3da44aff	0.08022117
247	0x00000373	1.237e-42
248	0xbcd75048	-0.026283398
249	0x3e725f92	0.2366927
250	0x3e2bfd7d	0.16795917
251	0x800001fb	-7.1e-43
252	0x3e17bcfc	0.14818186
253	0xbd374be1	-0.0447501
254	0x9528ce5a	-3.4090112e-26
255	0x3c30c2c4	0.010788623

fc2.bias f4 [300]
0	0xbea015bb	-0.3126658
1	0xbe0ef698	-0.13961256
2	0x3e65442f	0.22389291
3	0xbf40a9d8	-0.7525916
4	0x3da32358	0.07965726
5	0x3eb518f2	0.35370594
6	0x3e52183a	0.20517054
7	0x3e1af04c	0.15130728
8	0x3e685d09	0.2269174
9	0x3d28cfd2	0.041213818
10	0xbd37132c	-0.044696018
11	0x3e524754	0.20535022
12	0xbefbcf42	-0.49181563
13	0x3e80b83f	0.2514057
14	0xbecf6dc9	-0.40513447
15	0x3e65fb5c	0.22459167
16	0x3ba55526	0.005045551
17	0xbec39eef	-0.38207194
18	0x3e50f8a9	0.20407356
19	0x3e177489	0.14790548
20	0xbe233ba6	-0.15940723
21	0x3df261b4	0.11835042
22	0xbeb22108	-0.34790826
23	0x3df4146d	0.119179584
24	0xbf285fec	-0.65771365
25	0xbe52f9fb	-0.20603172
26	0x3e206733	0.15664367
27	0x3ddc2593	0.10749354
28	0xbf1d1040	-0.6135292
29	0x3e230424	0.15919548
30	0x3d5d2978	0.053994626
31	0x3e6773a6	0.2260271
32	0x3e6a86f7	0.22903048
33	0xbf81166b	-1.0084966
34	0xbdfc005c	-0.12304756
35	0x3e8ad00e	0.27111858
36	0x3e3c7146	0.18402585
37	0x3e382859	0.17984141
38	0xbcd0676d	-0.025439942
39	0x3d0343c4	0.03204705
40	0xbee84730	-0.45366812
41	0x3e721fb6	0.2364491
42	0x3efbd21e	0.49183744
43	0xbd7c3dd9	-0.06158242
44	0xbf26e510	-0.6519327
45	0x3e8c6109	0.27417782
46	0x3db4a58c	0.08820638
47	0xbe6ba7a3	-0.23013167
48	0xbc54f68f	-0.012998237
49	0xbf1e2184	-0.6176989
50	0x3e5bad53	0.21452837
51	0x3e19ada7	0.1500765
52	0xbdbd6ede	-0.09249662
53	0xbf9a5958	-1.2058516
54	0xbda5f92d	-0.08104167
55	0x3ea0eb67	0.31429598
56	0xbe9ce27b	-0.3064154
57	0x3e8bcd94	0.2730528
58	0xbe8294f7	-0.25504276
59	0xbebe5885	-0.3717691
60	0xbeb5bca1	-0.35495475
61	0x3e966c62	0.29379565
62	0x3e66f7ae	0.2255542
63	0xbda5ac5b	-0.08089515
64	0xbe57c260	-0.21070242
65	0x3d02b12c	0.031907246
66	0x3dc24aca	0.09486921
67	0x3ec6dc65	0.38840023
68	0x3e8457da	0.25848275
69	0x3e628a07	0.22122966
70	0x3d291559	0.041280124
71	0xbf38e4ff	-0.7222442
72	0x3d05c568	0.032658964
73	0xbfd86210	-1.6904926
74	0x3e2501f2	0.16114023
75	0x3e04f9a0	0.1298585
76	0x3e557dff	0.20848845
77	0x3f39d676	0.72592866
78	0xbeb9dde6	-0.36302108
79	0xbee13d32	-0.43992
80	0x3e86bcfb	0.26316056
81	0x3e8af082	0.27136618
82	0xbebb0d96	-0.36533803
83	0xbe4a0347	-0.19727813
84	0xbd69b875	-0.057060678
85	0x3e5f3263	0.21796565
86	0xbf1fbb6f	-0.62395376
87	0x3e7c5c31	0.24644543
88	0x3ec5bcb1	0.38620523
89	0x3eb9d2ac	0.36293542
90	0x3d196613	0.03745086
91	0xbf0ad7c9	-0.5423551
92	0xbdc3ec27	-0.09566527
93	0xbe492648	-0.1964351
94	0xbf36490f	-0.7120523
95	0x3e5c5933	0.21518402
96	0xbe2202c0	-0.15821362
97	0x3eaf353a	0.34220296
98	0xbeb6cef7	-0.35704777
99	0x3c3a5d60	0.011374801
100	0xbee01336	-0.43764657
101	0xbe2f8c98	-0.17143476
102	0x3e9f9b21	0.3117304
103	0xbf89b99b	-1.0759767
104	0x3e25320e	0.16132376
105	0x3cb142b7	0.021638257
106	0xbf0a85cb	-0.541104
107	0xbe7e1dfd	-0.24816127
108	0xbe95d235	-0.29261938
109	0x3e684495	0.22682412
110	0xbe2d4719	-0.16921653
111	0x3e58f664	0.2118774
112	0xbf353b9b	-0.70794076
113	0xbd5db214	-0.054124907
114	0xbf194b4c	-0.5988052
115	0x3e434701	0.19070055
116	0xbd09483b	-0.03351615
117	0x3c955c83	0.01823259
118	0xbe976de7	-0.29576036
119	0xbd889f1b	-0.06670972
120	0x3f5e2769	0.86778885
121	0xbe5bc410	-0.2146151
122	0x3e77c471	0.2419603
123	0x3e3c275c	0.1837439
124	0x3d3f88c3	0.046761286
125	0xbd704738	-0.05866167
126	0x3e9f454a	0.3110755
127	0x3e952e4b	0.2913688
128	0x3e96cf6d	0.29455128
129	0xbe01578a	-0.1263105
130	0xbdbfda30	-0.09367788
131	0xbede7453	-0.43448123
132	0xbda40205	-0.08008198
133	0x3e5b7fe8	0.21435511
134	0x3e8954e5	0.26822582
135	0xbdc33507	-0.095315985
136	0xbfbd77e6	-1.4802215
137	0xbe40b351	-0.18818404
138	0x3f1cf1f3	0.61306685
139	0x3da15e4a	0.07879312
140	0xbc7d14d6	-0.015446862
141	0x3e5bf861	0.21481468
142	0xbe34e9e8	-0.17667353
143	0x3e417322	0.18891576
144	0xbbeba58b	-0.007191365
145	0x3dc8dba3	0.098075174
146	0x3e69cc84	0.22831923
147	0x3efedf3d	0.49779692
148	0x3e815358	0.252589
149	0xbf14b01d	-0.5808123
150	0x3e398a78	0.18119228
151	0xbe43635b	-0.1908087
152	0x3e70ef7d	0.23528858
153	0xbe64878b	-0.2231733
154	0xbe97dbf3	-0.29659995
155	0x3eddb6b5	0.43303457
156	0x3d9da112	0.07696737
157	0x3de72799	0.112868495
158	0x3ea958c2	0.3307553
159	0x3d40e964	0.04709758
160	0xbee78e4d	-0.45225754
161	0x3e93f5b6	0.288984
162	0x3e2e7334	0.17036134
163	0x3d3f8f75	0.04676767
164	0x3e8c3d55	0.27390543
165	0xbee5820f	-0.4482579
166	0xbe62ab1f	-0.2213559
167	0x3e54c9a2	0.20780042
168	0x3e1e0f63	0.15435557
169	0xbec18625	-0.37797657
170	0x3ec21e24	0.3791362
171	0xbfc1b978	-1.5134726
172	0xbdef5589	-0.116862364
173	0xbe9755ca	-0.2955764
174	0x3e68b4e0	0.22725248
175	0x3dc4f7ba	0.096175626
176	0xbfca1f5c	-1.579082
177	0xbe5044fd	-0.20338817
178	0x3e6d0d8d	0.231497
179	0xbea01309	-0.31264523
180	0x3e4d8522	0.20070317
181	0xbdb5c160	-0.08874774
182	0x3e653a40	0.22385502
183	0xbe2bc517	-0.16774403
184	0x3e9f005e	0.31054968
185	0x3d24b8c7	0.04021528
186	0x3d7e66e2	0.062109835
187	0xbf9d6146	-1.229531
188	0xbde7d10f	-0.11319172
189	0xbdd1b5b2	-0.10239734
190	0x3e366659	0.1781248
191	0xbe9b6130	-0.30347586
192	0x3ecbe758	0.3982494
193	0xbf3febb4	-0.7496903
194	0x3e23c7ff	0.15994261
195	0x3edb4a5f	0.42830178
196	0x3f30e9a2	0.69106495
197	0xbe2d3934	-0.16916353
198	0x3e3f35a1	0.18672802
199	0xbf158547	-0.5840649
200	0x3e0c876e	0.13723537
201	0x3e83df2a	0.25756198
202	0x3e3faba0	0.18717813
203	0xbe033bc3	-0.12815766
204	0x3e15773c	0.14596266
205	0x3d512c49	0.051067624
206	0x3e2bc00f	0.16772483
207	0xbd173d7b	-0.036923867
208	0xbed3b213	-0.41346797
209	0xbd0a86a8	-0.033819824
210	0xbe81ddae	-0.2536444
211	0x3e856980	0.26057053
212	0x3e642f0f	0.22283576
213	0x3e5ad2ba	0.21369448
214	0xbe60b875	-0.21945365
215	0x3e578b22	0.21049169
216	0xbd366eda	-0.04453931
217	0x3d933f3c	0.071897954
218	0xbebe8f92	-0.3721891
219	0xbf4b7f00	-0.7949066
220	0xbe9dab7c	-0.30794895
221	0xbd08589c	-0.03328763
222	0xbf05a0fe	-0.5219878
223	0xbe677d68	-0.22606432
224	0x3dd19457	0.10233372
225	0x3f3ed8c2	0.74549496
226	0xbe1c25c7	-0.15248786
227	0x3eab31c2	0.334364
228	0xbe358929	-0.17728104
229	0xbf6e3c92	-0.9306117
230	0x3c7bd011	0.015369431
231	0xbee423ae	-0.4455847
232	0x3e866b3a	0.26253682
233	0xbfdcec10	-1.725954
234	0xbd627473	-0.055286836
235	0x3e8f76fb	0.28020462
236	0xbf83d1a6	-1.0298355
237	0x3cb9f8ed	0.022701705
238	0x3e761580	0.24031639
239	0xbeee6bef	-0.46566722
240	0x3e26aa6e	0.16275951
241	0x3c344fc9	0.01100535
242	0xbe3fa674	-0.1871584
243	0x3e5b47b5	0.21414073
244	0xbfdb0c5c	-1.7113147
245	0x3e883636	0.2660386
246	0xbe95dadd	-0.29268542
247	0x3eb629f1	0.35578874
248	0xbe66c2c1	-0.2253523
249	0x3e40163b	0.1875848
250	0x3bc549a0	0.0060207397
251	0x3d95de6d	0.07317815
252	0xbed4bd6b	-0.41550764
253	0x3e6984d7	0.2280458
254	0x3cc5fa14	0.024167098
255	0xbecf9583	-0.40543756

bn1.weight f4 [400]
0	0x9b064077	-1.110505e-22
1	0x800000d3	-2.96e-43
2	0xb789f80a	-1.6447175e-05
3	0xbaa6702d	-0.0012698226
4	0x3f90d5b9	1.1315223
5	0xbbca242f	-0.006168864
6	0xbb355b85	-0.0027672958
7	0xbb7c2c7c	-0.0038478663
8	0x3f93d6ee	1.1549966
9	0x3f8d2cd4	1.1029305
10	0xb8432e48	-4.6534726e-05
11	0xb556a11b	-7.995565e-07
12	0x3b3555be	0.0027669515
13	0xbc576943	-0.013147655
14	0x39eaf8cb	0.00044817323
15	0x8ef4fc5a	-6.039365e-30
16	0xba39aa54	-0.0007082571
17	0xb32c05ec	-4.0052257e-08
18	0xbca6aadb	-0.020345142
19	0x4016ed14	2.35822
20	0x80000083	-1.84e-43
21	0xbbab10ba	-0.0052205
22	0x3ed4fdf7	0.4160001
23	0xbb4b68db	-0.003103784
24	0x800001bb	-6.21e-43
25	0x3fd04db1	1.627371
26	0xbbbb9084	-0.0057240147
27	0xbbc7f019	-0.00610162
28	0x39fc47fd	0.0004811882
29	0xbd6ed429	-0.0583078
30	0xa890c534	-1.6072735e-14
31	0x3e52420a	0.20533004
32	0xbaaa5d67	-0.0012997807
33	0xba2e69c9	-0.00066533365
34	0xbc4560f5	-0.012047042
35	0xbc4f1927	-0.012640274
36	0x3ea8666a	0.32890636
37	0xbc5d0c52	-0.013491707
38	0x3ee3eeb1	0.44518045
39	0x4065c3de	3.5900798
40	0xbd809c05	-0.06279758
41	0x3f3ba3ac	0.7329662
42	0x3f93374f	1.1501254
43	0x3f12f393	0.57402915
44	0xb8a60367	-7.9161306e-05
45	0xbd6bab5e	-0.057536475
46	0x38a17cbf	7.700314e-05
47	0x3eeec6e4	0.46636117
48	0xb9a51cc6	-0.0003149269
49	0x000000b3	2.51e-43
50	0x400aa902	2.1665654
51	0xba5f7e08	-0.0008525555
52	0xba6e6f7f	-0.00090955937
53	0x3fb7a033	1.4345764
54	0x3c0549be	0.008135257
55	0xb54c18f8	-7.6032256e-07
56	0x3f97353d	1.1813122
57	0xba95873a	-0.0011408099
58	0xbc8782e0	-0.016541898
59	0xbebc0b8b	-0.36727557
60	0x3d05b308	0.03264144
61	0x3ed9312c	0.42420328
62	0xbc24a272	-0.010048496
63	0xbcb04407	-0.021516813
64	0x3fc0c4ca	1.5060055
65	0xbcdf4d6a	-0.027258594
66	0x3fdc747e	1.722305
67	0xbe23682a	-0.15957704
68	0x8d17cd0c	-4.6777284e-31
69	0xba4409b9	-0.00074782554
70	0xab3fc888	-6.8135124e-13
71	0x3cd416a6	0.025889706
72	0x3f318b44	0.6935313
73	0xbc5a9fcf	-0.013343765
74	0xbd3fcfcd	-0.046829034
75	0x3f60db9a	0.87835085
76	0x3fb8d9d7	1.444148
77	0xbc4e0ad8	-0.012575828
78	0xbc11efa3	-0.0089072315
79	0xbab35f15	-0.0013684953
80	0xb6d01c67	-6.2021895e-06
81	0x3ff4e625	1.9132735
82	0xba22b275	-0.0006206402
83	0x3f66d94a	0.90175307
84	0xb9c7657d	-0.00038031852
85	0xbedb945a	-0.4288662
86	0xbb13a2c0	-0.0022527426
87	0xb4e10513	-4.1913208e-07
88	0x3a949363	0.0011335429
89	0x3f0918ed	0.5355366
90	0xbad84235	-0.0016499223
91	0x3f77d5bb	0.968105
92	0x3f45dbc6	0.7728847
93	0xb68f4d25	-4.270713e-06
94	0xb90217b9	-0.00012406603
95	0xbcb45120	-0.02201134
96	0xbb8c60d0	-0.004284002
97	0xbb867c35	-0.004104162
98	0xba6b8642	-0.00089845445
99	0xbf224ddd	-0.6340006
100	0x40593172	3.393643
101	0xbcaf2138	-0.021378145
102	0xbd20bb05	-0.039240856
103	0xba935b18	-0.0011242358
104	0x358baa52	1.0405877e-06
105	0xb9e216d0	-0.00043123076
106	0xb97780f3	-0.00023603793
107	0x3f37efc4	0.7185023
108	0xbb8189d0	-0.003953196
109	0x3b51f8f2	0.0032039252
110	0xb7302616	-1.0499285e-05
111	0xbcf8392e	-0.030300703
112	0x3ffb2f91	1.9623891
113	0x3f017ef0	0.50584316
114	0x402743b0	2.6135063
115	0x3fe06bbe	1.753288
116	0x40090ba5	2.1413357
117	0xbd30ae4f	-0.043134984
118	0x80000328	-1.132e-42
119	0xac30817b	-2.508298e-12
120	0xbd49ba38	-0.049249858
121	0xbc9a591e	-0.018841323
122	0xbbdd42fb	-0.0067523695
123	0xbe469d8d	-0.19396038
124	0x3ed764e4	0.4206916
125	0x3fa9dd1f	1.3270606
126	0xbc095b46	-0.008383578
127	0xbe940d9d	-0.28916636
128	0xbc629ebc	-0.013831791
129	0xba834ba7	-0.0010017053
130	0x3f36f334	0.7146485
131	0xb83a4c1f	-4.441675e-05
132	0x3e5624ca	0.20912471
133	0x3ed43f70	0.4145465
134	0x3fc080f6	1.5039356
135	0x3b81c918	0.00396074
136	0xbaa2415f	-0.0012379101
137	0xa3b86b02	-1.999464e-17
138	0xb9fae030	-0.00047850749
139	0x3f02aa59	0.5104118
140	0x3c992675	0.018695096
141	0x3f84e4bf	1.0382308
142	0x3a9481f2	0.0011330231
143	0xb8893212	-6.5419954e-05
144	0x918b8148	-2.201001e-28
145	0xbe45a37c	-0.19300646
146	0x409b58ae	4.854575
147	0x3f190dbd	0.5978659
148	0x3b866b5c	0.0041021537
149	0xbc36651a	-0.011132503
150	0x4065556f	3.5833395
151	0x93338a66	-2.2661212e-27
152	0xb98376bd	-0.00025074734
153	0x00001b22	9.733e-42
154	0x3eab97ef	0.33514354
155	0xb31c6887	-3.6416647e-08
156	0xbec4b102	-0.38416296
157	0x3e846976	0.2586171
158	0xba3efda6	-0.00072857214
159	0x3f64b74a	0.89342177
160	0xbcfb0696	-0.030642789
161	0xa789334e	-3.8080763e-15
162	0x000001e7	6.82e-43
163	0x404392e8	3.0558414
164	0xba1e9876	-0.000604994
165	0xbc5146c0	-0.012773216
166	0x3f92b34d	1.1460968
167	0xbe0ced22	-0.13762334
168	0xbc418a28	-0.011812724
169	0xbd6d4c28	-0.057933956
170	0x40204889	2.5044272
171	0xbb139812	-0.002252106
172	0x3f7723e6	0.9653915
173	0x800001f4	-7e-43
174	0xba2c7c91	-0.0006579841
175	0xbe3fe163	-0.18738322
176	0xbc349fa7	-0.011024392
177	0xbaeed2e7	-0.0018220813
178	0x3f1c9c7b	0.6117627
179	0x00000088	1.9e-43
180	0xbb50252f	-0.0031760444
181	0xb9e1171f	-0.0004293257
182	0xba8c1d23	-0.0010689836
183	0x3f23e417	0.6401991
184	0x39ce32a5	0.00039329115
185	0x3f731ce8	0.9496598
186	0x910bef07	-1.1038823e-28
187	0xbe5c79cc	-0.21530837
188	0x3ceda538	0.029009447
189	0x80000071	-1.58e-43
190	0xbab5332a	-0.0013824452
191	0x3f1e7411	0.61895853
192	0x3b82dd79	0.0039936868
193	0x3fbf70f8	1.495635
194	0x3f5c8a4c	0.86148524
195	0x3ef6230d	0.48073617
196	0x3fc865d6	1.5656078
197	0xba3be312	-0.000716732
198	0x3ed0ae91	0.40758184
199	0xbc7a375f	-0.015271991
200	0xbc21169e	-0.0098320525
201	0xb9eacad1	-0.00044783068
202	0x80000160	-4.93e-43
203	0x3eac5b55	0.3366343
204	0xbaa6d536	-0.0012728337
205	0xbcb2dc0e	-0.021833446
206	0xba3dc2ef	-0.0007238825
207	0xb66dc96e	-3.5433e-06
208	0x3fafab40	1.3724136
209	0x3ec3f112	0.3826986
210	0x3f2e0ce9	0.6798845
211	0xb98ed481	-0.00027242678
212	0xbbc24b79	-0.005929407
213	0x00000112	3.84e-43
214	0xbccaa6c4	-0.024737723
215	0x3d0d721b	0.034532648
216	0xb8a608e4	-7.917153e-05
217	0x3fba273c	1.4543223
218	0x3fab3f92	1.3378775
219	0xb66f4f4b	-3.565993e-06
220	0x3f3310dd	0.69947606
221	0x3f8014ac	1.0006309
222	0xbd77fb4e	-0.060542397
223	0x3b58c8c5	0.0033078652
224	0xbca8a6b7	-0.020587308
225	0x3fb9ccc6	1.4515617
226	0xbcd51b63	-0.026014036
227	0x360086e1	1.9151996e-06
228	0xbc07e6aa	-0.008294741
229	0xb97856ba	-0.00023683431
230	0x3fa22bf8	1.2669668
231	0xb35995cc	-5.066049e-08
232	0xbd21c99d	-0.039498914
233	0xbbaa0982	-0.0051891217
234	0x1583a891	5.317643e-26
235	0x3f47204b	0.7778365
236	0x3f9f5255	1.2447001
237	0x3f137b95	0.57610446
238	0x3f1df03b	0.6169469
239	0xbcce16d3	-0.025157368
240	0xb4a3354a	-3.039989e-07
241	0x3fec292e	1.8450067
242	0xbc30c7fa	-0.010789866
243	0x3c9927b6	0.018695693
244	0xb8637db9	-5.4238106e-05
245	0x3ee47315	0.4461905
246	0x3f562907	0.8365635
247	0xb901482f	-0.00012329289
248	0x3f1df026	0.6169456
249	0x3fa6a805	1.3020025
250	0x3f702ee7	0.9382157
251	0xb99ce3a2	-0.00029924238
252	0x3f016577	0.5054545
253	0xbf03bd61	-0.51460844
254	0x80000158	-4.82e-43
255	0xbcf50700	-0.029910564

bn1.bias f4 [400]
0	0xab2aede7	-6.072629e-13
1	0xad5d6d24	-1.258663e-11
2	0xbac45141	-0.0014977829
3	0xbcc03bd5	-0.02346603
4	0x3dc378e5	0.09544543
5	0xbb338e60	-0.0027398095
6	0xbb6bd6f9	-0.0035986288
7	0xbcf29583	-0.029612308
8	0xbda5cbd7	-0.0809552
9	0x3da01430	0.078163505
10	0xb93e72c2	-0.00018162563
11	0xb8fc7441	-0.000120379504
12	0xbc1abbe2	-0.009444209
13	0xbbc00e46	-0.0058610765
14	0xbb1b8bf2	-0.0023734537
15	0xb61a28ad	-2.2971465e-06
16	0xba2c1311	-0.00065641204
17	0xb988b6d9	-0.00026076174
18	0xbca72042	-0.020401124
19	0x3f33e0a5	0.70264655
20	0xb51142a5	-5.411369e-07
21	0xbc51d711	-0.0128076235
22	0xbb1cb55f	-0.0023911817
23	0xbb2306ee	-0.0024875957
24	0x9ababf9c	-7.723736e-23
25	0x3edcc7c6	0.43121165
26	0xbb690ca4	-0.0035560513
27	0xbb813377	-0.0039429027
28	0xbb112988	-0.0022149999
29	0xbd2bf1eb	-0.041978758
30	0xb487d2bc	-2.529904e-07
31	0xbe1a2788	-0.15054142
32	0xbb0a14d0	-0.0021069534
33	0xbb23e8fa	-0.002501069
34	0xbc79e722	-0.01525286
35	0xbc6d0235	-0.014465858
36	0x3ed3ec41	0.41391185
37	0xbc3575d5	-0.011075457
38	0xbd2f1bc7	-0.0427511
39	0x3efe019a	0.49610597
40	0xbbabc4ba	-0.0052419575
41	0xbe281e08	-0.16417706
42	0x3dd852d1	0.10562671
43	0x3b0b11d4	0.0021220343
44	0xba79f9ac	-0.00095358
45	0xbbbe0c08	-0.005799774
46	0xbacb3b20	-0.0015505292
47	0xbd83e11a	-0.06439419
48	0xbb0731b4	-0.002062899
49	0x8bf9141f	-9.5941586e-32
50	0x3f3380fe	0.701187
51	0xbaf593bf	-0.0018736048
52	0xbab3ce9e	-0.0013718193
53	0x3e454e66	0.19268188
54	0xbbfd0dee	-0.007722608
55	0xb88378db	-6.269078e-05
56	0x3da4e768	0.0805195
57	0xbabcdb17	-0.0014408556
58	0xbc4fcbb5	-0.012682845
59	0x3d655647	0.055990484
60	0x3b012e33	0.0019711375
61	0xbe776d39	-0.24162759
62	0xbc8f1499	-0.017465876
63	0xbda0a715	-0.07844368
64	0xbe897238	-0.26844954
65	0xbce30b3c	-0.027715318
66	0x3e5c5b23	0.21519141
67	0x3c4afe94	0.012389798
68	0xaa0d9fa9	-1.2578709e-13
69	0xbb661db1	-0.0035112912
70	0xb49db57d	-2.937558e-07
71	0x3d052271	0.03250355
72	0x3d79d5bb	0.060994845
73	0xbc8c0c27	-0.017095638
74	0xbca0ae67	-0.019614412
75	0x3dbc883a	0.09205671
76	0x3da60387	0.081061415
77	0xbc1c3a3a	-0.009535367
78	0xbc525d22	-0.012839587
79	0xbbf1d484	-0.00738007
80	0xb9009ba9	-0.00012265019
81	0x3edd9687	0.43278906
82	0xbab63655	-0.001390169
83	0xbd272a40	-0.040811777
84	0xbaef32c0	-0.0018249378
85	0x3dbf8507	0.09351545
86	0xbb8677c9	-0.004103635
87	0xb5d76b6c	-1.6050012e-06
88	0xbbdb47d3	-0.0066919117
89	0xbe52f3fa	-0.20600882
90	0xbc50b267	-0.012737847
91	0xbe5f25ce	-0.21791765
92	0xbe0fc1ca	-0.14038768
93	0xb9023bfd	-0.00012420113
94	0xbc2f5623	-0.010701689
95	0xbcd412e4	-0.025887914
96	0xbb0929b4	-0.0020929398
97	0xbb1b27dd	-0.0023674883
98	0xbb5a0052	-0.003326435
99	0xbd924e2b	-0.071438156
100	0x3f1ebffe	0.62011707
101	0xbc5cb907	-0.013471848
102	0xbcebd1d5	-0.02878658
103	0xbb67e882	-0.0035386388
104	0xbb6d23a5	-0.0036184576
105	0xbae43868	-0.001741183
106	0xbaee43dc	-0.0018178183
107	0xbe729324	-0.23688942
108	0xbbf81e0c	-0.0075719412
109	0xbb53a43a	-0.0032293932
110	0xb95daf4a	-0.00021141503
111	0xbc2346e4	-0.009965632
112	0x3cefe24a	0.029282708
113	0x3d859888	0.06523234
114	0x3ed8a997	0.42316887
115	0x3f0b2963	0.54360026
116	0x3e9bc75f	0.30425546
117	0x3cf62722	0.030047957
118	0xadf3f0e0	-2.7732872e-11
119	0xbbab5a10	-0.005229242
120	0xbc5da12f	-0.013527199
121	0xb9c08f33	-0.00036727785
122	0xbb45bab4	-0.0030171098
123	0x3d7f00b7	0.06225654
124	0xbdcf303b	-0.10116621
125	0xbc1df693	-0.009641307
126	0xbba45c47	-0.005015883
127	0x3e35bb79	0.17747296
128	0xbc6b9559	-0.014378869
129	0xbaba6443	-0.0014220554
130	0xbe4e9f17	-0.20177875
131	0xba07f4a7	-0.00051862973
132	0xba4862ba	-0.0007644106
133	0x3bf16bdb	0.0073675937
134	0xbe45920b	-0.19293992
135	0xbb9403f2	-0.004517072
136	0xbb044343	-0.0020181693
137	0xb24a886c	-1.1788966e-08
138	0xba1a0fd2	-0.0005876991
139	0xbc4a7922	-0.012357982
140	0x3cad018b	0.0211189
141	0xbdd29da6	-0.10283975
142	0xbb031c0c	-0.002000573
143	0xbb070632	-0.0020603058
144	0xaf1e2e98	-1.438657e-10
145	0xbc86458d	-0.016390586
146	0x3f50a566	0.8150238
147	0xbe14694e	-0.14493296
148	0xbbd06d2d	-0.006360671
149	0xb9dd0074	-0.00042152742
150	0x3eecd14e	0.46253437
151	0x93e616c9	-5.808263e-27
152	0xbb0c9101	-0.0021448734
153	0x9f0381b3	-2.7847614e-20
154	0x3e0c5cee	0.13707325
155	0xb8e2b2bf	-0.00010809814
156	0x3e5e06ab	0.21682231
157	0x3cd2f9f6	0.025753956
158	0xba92ec91	-0.0011209418
159	0x3ee9de54	0.45677435
160	0xbcc75913	-0.024334466
161	0xb3b92f6c	-8.62336e-08
162	0xa8a8d49c	-1.8743951e-14
163	0x3e153827	0.14572202
164	0xba893aec	-0.0010469831
165	0xbb0f8875	-0.0021901403
166	0xbe4e3221	-0.2013631
167	0x3c0ba689	0.008523592
168	0xbc12b115	-0.008953352
169	0x3e6a7cd6	0.22899184
170	0x3f7c89eb	0.98647946
171	0xbb02d099	-0.001996076
172	0xbd5ce561	-0.05392969
173	0x9b42ac72	-1.6103024e-22
174	0xba9950dc	-0.0011697072
175	0xbdadd2ee	-0.08487497
176	0xbc7692a7	-0.015049613
177	0xbc0984d6	-0.008393487
178	0x3e6f40a2	0.23364499
179	0x99739675	-1.259319e-23
180	0xbb5b40ce	-0.0033455375
181	0xbb8e7f2c	-0.004348656
182	0xba621a44	-0.00086251297
183	0x3dc30d42	0.09524013
184	0xbaa2dfc6	-0.0012426309
185	0x3f45e0d7	0.77296203
186	0xa4030ff0	-2.8419597e-17
187	0x3d44f544	0.048085466
188	0x3c00b428	0.007855453
189	0xa547d59f	-1.7332876e-16
190	0xbb1d9436	-0.002404464
191	0xbe5bc657	-0.2146238
192	0xbc5b64ac	-0.013390701
193	0xbdcae260	-0.09906459
194	0x3df8abc0	0.12142134
195	0xbdd0a3bd	-0.101874806
196	0x3e41d15c	0.1892752
197	0xbb5ebe0b	-0.0033987786
198	0xbddaf265	-0.10690764
199	0xbc48ead0	-0.012263015
200	0xbc387d49	-0.011260339
201	0xbbd59f5f	-0.0065192427
202	0x9c53c99d	-7.0074623e-22
203	0x3d6df428	0.058094174
204	0xbc1866de	-0.009301869
205	0xbcb04fd8	-0.021522447
206	0xbac1c8d9	-0.0014784589
207	0xb85f1797	-5.3189313e-05
208	0xbc5686aa	-0.01309363
209	0xbbacd985	-0.005274954
210	0xbe08bcb3	-0.13353233
211	0xbae74101	-0.0017643274
212	0xbae691dd	-0.0017591078
213	0x9840f9e0	-2.4941573e-24
214	0xbd167304	-0.03673078
215	0x3da0b5b3	0.078471564
216	0xb9cec286	-0.00039436313
217	0x3d85fbef	0.06542193
218	0x3d203b54	0.03911908
219	0xb99caaa7	-0.00029881785
220	0xbd99a5ae	-0.07502304
221	0x3c9fd44b	0.019510409
222	0xbdd53c2c	-0.104118675
223	0xbb9d3677	-0.0047977525
224	0xbd35ad04	-0.044354454
225	0x3dfdc133	0.123903655
226	0xbceed456	-0.029153984
227	0xb8e2d9fe	-0.00010817124
228	0xbbf460ae	-0.007457814
229	0xbac9e2ef	-0.0015402714
230	0x3e649535	0.22322543
231	0xbb6c8604	-0.0036090622
232	0xbbdcc231	-0.0067370166
233	0xbb10a76d	-0.002207245
234	0xa7e45c70	-6.3382933e-15
235	0xbc2731a6	-0.010204708
236	0x3eb5d3d9	0.3551319
237	0xbda8dee6	-0.082456395
238	0xbe22c9ed	-0.15897341
239	0xbccf01bc	-0.025269382
240	0xb91a72e4	-0.00014729385
241	0x3ee29711	0.4425588
242	0xbc68bbe0	-0.014204949
243	0x3c7bfcc6	0.01538009
244	0xbb16cae1	-0.002300911
245	0xbe6973c7	-0.22798072
246	0xbd994523	-0.0748389
247	0xbb0f4330	-0.0021860115
248	0xbdd1ad63	-0.10238149
249	0x3e3e8c86	0.18608293
250	0xbe768786	-0.24075136
251	0xbb0eadde	-0.0021771113
252	0x3e1b3949	0.15158571
253	0x3dc05dee	0.09392916
254	0xa17354e4	-8.2443954e-19
255	0xbcad39ee	-0.021145787

bn2.weight f4 [300]
0	0x3f8ff739	1.1247321
1	0x3fb8543f	1.440071
2	0xc02bd2b8	-2.6847363
3	0x3f2f921c	0.6858232
4	0x4003c4a0	2.058876
5	0x40b94355	5.7894692
6	0x000014f4	7.517e-42
7	0xbf3f38d0	-0.74696064
8	0xb80a6858	-3.299894e-05
9	0x40552db8	3.3309155
10	0x4048436c	3.129115
11	0x3c3a8f2c	0.011386674
12	0x8eea83f6	-5.7812527e-30
13	0x3f68dfac	0.90966296
14	0x409f51fe	4.978759
15	0xbca671f0	-0.020318002
16	0x40ad23d9	5.410626
17	0x3f55acb6	0.8346666
18	0x3f3cf537	0.7381167
19	0x3f851e36	1.0399845
20	0x3f9b01f1	1.2109967
21	0x3f91aa20	1.1380043
22	0xbc63682c	-0.013879817
23	0x3f807266	1.0034912
24	0xbf7ae238	-0.9800143
25	0x3feed975	1.8660113
26	0x40552488	3.3303547
27	0x3f95da1e	1.1707189
28	0x3c3f81f9	0.011688703
29	0xc035b003	-2.838868
30	0x3fa39018	1.2778349
31	0x40b7a456	5.7388105
32	0x3d512927	0.051064637
33	0x40d34c79	6.603085
34	0x4037f2bc	2.8741903
35	0x40b53c29	5.663594
36	0x3f6f37e4	0.9344466
37	0xbfd78308	-1.6836863
38	0x3f60f4ec	0.8787372
39	0x3eb36cc0	0.35043907
40	0xb7289a07	-1.0049443e-05
41	0x40b61c4e	5.690955
42	0x40b7ec03	5.74756
43	0x40920b45	4.5638757
44	0xbf7cddaf	-0.9877576
45	0x3a3dd181	0.00072409963
46	0x40979b52	4.73771
47	0x3cc132c4	0.023583777
48	0x408d890a	4.4229784
49	0x4099c0c4	4.804781
50	0xbca1b5cc	-0.019740008
51	0x4009daa8	2.1539707
52	0x40b77f4c	5.734289
53	0x40d74b70	6.7279587
54	0x40ad4b44	5.4154377
55	0x40c31745	6.0965905
56	0x40918ba0	4.548294
57	0xbe87b38f	-0.2650418
58	0x40a4ff66	5.1561766
59	0xbcaf84cd	-0.021425629
60	0x409b4355	4.8519692
61	0x3f801e50	1.0009251
62	0x401292a7	2.290201
63	0x40b8c81b	5.774427
64	0x409a2a4f	4.8176646
65	0xbee6cc16	-0.4507758
66	0x3ff4e612	1.9132712
67	0x409444c6	4.633395
68	0x3f8f525b	1.1197008
69	0xc030d71f	-2.76313
70	0x40ad30f7	5.412227
71	0x3f40f471	0.7537299
72	0x3fc77305	1.5581976
73	0x40fa6234	7.8244877
74	0x3fffa98b	1.9973615
75	0x40b44905	5.6339135
76	0xb85928de	-5.1774892e-05
77	0x408c110f	4.3770823
78	0x4099baee	4.8040686
79	0x3d5ef6e3	0.05443467
80	0x3c08f84e	0.008359982
81	0x3f74a773	0.9556801
82	0x9ef3932d	-2.5789496e-20
83	0x00000019	3.5e-44
84	0x409560a1	4.6680455
85	0x3f556161	0.83351713
86	0x3f281c54	0.65668225
87	0x3e454c8d	0.19267483
88	0xbf3415f7	-0.70346016
89	0x40b32057	5.5976977
90	0x3fbec47b	1.4903711
91	0xbfc769eb	-1.5579199
92	0x408c8011	4.390633
93	0x3faaafe8	1.3334932
94	0x3122c674	2.368691e-09
95	0xbbe01267	-0.006838131
96	0xba26690c	-0.00063480507
97	0x40c19567	6.0494876
98	0x409d9bac	4.925253
99	0x3fc63170	1.5483837
100	0xbc332beb	-0.010935764
101	0x40a86dda	5.2634096
102	0x3f9ba262	1.215893
103	0x40c4de9e	6.152175
104	0xbff5f8b1	-1.921652
105	0x3fc84506	1.5646064
106	0x407c3316	3.940618
107	0xae401780	-4.3676618e-11
108	0x3f23e77b	0.64025086
109	0x3f3f9c05	0.7484744
110	0x3fcde82b	1.6086477
111	0x3f32c279	0.6982799
112	0x40828a1f	4.0793605
113	0x40b77733	5.7333007
114	0x800001e4	-6.78e-43
115	0xbfd6e1e1	-1.6787683
116	0x40a66ed9	5.201031
117	0x3fa22420	1.2667274
118	0xbf8ac267	-1.0840577
119	0x40b0aeda	5.521344
120	0x409a7a3c	4.827421
121	0x40870dba	4.2204256
122	0x3f50b463	0.8152525
123	0x40aeb882	5.460023
124	0x3f928e23	1.1449627
125	0x3fd3aeac	1.6537681
126	0x3f95486f	1.166273
127	0x3f76a954	0.96352124
128	0x3f8d9848	1.1062098
129	0xba026d13	-0.000497536
130	0x3fa95f31	1.3232175
131	0x3d8bb213	0.06821074
132	0x800001f1	-6.96e-43
133	0x3f6e2f54	0.93040967
134	0x3f72a22d	0.9477871
135	0x402fab9c	2.7448492
136	0x40ebce38	7.368923
137	0x3fb612f1	1.422453
138	0x4093856a	4.610036
139	0x3f983c3d	1.1893383
140	0x40b5cb5f	5.6810756
141	0x9a826a21	-5.39382e-23
142	0x3f9bf561	1.2184259
143	0x400bbd47	2.1834276
144	0x40a1d677	5.05743
145	0xc07d2e17	-3.955938
146	0x80000197	-5.7e-43
147	0x40b080a1	5.515702
148	0x40b89501	5.768189
149	0xbca525a0	-0.020159543
150	0xbffb6317	-1.9639615
151	0x3c06679f	0.008203416
152	0x400c682e	2.1938586
153	0x3f8d1ab7	1.1023778
154	0x378dcfb4	1.690523e-05
155	0x40a709ee	5.219962
156	0xbc3aff03	-0.011413339
157	0x3d9e1cbc	0.077203244
158	0x40be3e15	5.9450784
159	0x40590c44	3.3913736
160	0x3f9bb2d0	1.2163944
161	0x40b9bb7f	5.8041377
162	0x3f86a3fb	1.0518793
163	0x3f834662	1.0255854
164	0x3f15c988	0.5851064
165	0x409f5b59	4.979901
166	0x3fc88004	1.5664067
167	0x3f878fbb	1.0590738
168	0x40151cbe	2.3298793
169	0x3d8febec	0.070274204
170	0x40b59498	5.674389
171	0x40e1ab63	7.052171
172	0x3faa4e31	1.3305112
173	0x80000108	-3.7e-43
174	0x3f5d2e7d	0.8639906
175	0x40964470	4.695854
176	0x40d40fbe	6.6269217
177	0x4088b5a0	4.272171
178	0x3f58fc35	0.8475984
179	0xb3fda657	-1.18114876e-07
180	0xbfcf5fa2	-1.620106
181	0x40bc59c4	5.8859577
182	0x3f4d4196	0.801782
183	0x409abb5d	4.8353715
184	0x3fa22b55	1.2669474
185	0x3f91dc2e	1.1395319
186	0x40a67b3b	5.202543
187	0x40d43c9c	6.6323986
188	0x402e7982	2.7261662
189	0x3faa9303	1.3326114
190	0x4086a401	4.20752
191	0x4097b30a	4.7406054
192	0x40955a43	4.6672683
193	0x40aa4cab	5.321859
194	0x40029011	2.040043
195	0x40a7824f	5.234657
196	0x408b1cdd	4.3472733
197	0x3fac3fec	1.3457007
198	0xc00b11c3	-2.172959
199	0x3f254ad1	0.64567286
200	0xbfc97796	-1.573962
201	0x3f293cc0	0.6610832
202	0x3ff41ff4	1.9072251
203	0x3df9b5b9	0.12192864
204	0x400b973b	2.1811054
205	0x40a7ae79	5.240048
206	0x400d37af	2.2065237
207	0x3e0d1144	0.13776118
208	0x3b2b2572	0.0026114848
209	0x409c167b	4.877744
210	0x3fd970d6	1.698756
211	0x800000ec	-3.31e-43
212	0xc0018314	-2.0236254
213	0xb20cec9c	-8.202871e-09
214	0x3f311ac0	0.6918144
215	0x3f3e02ce	0.7422303
216	0xb40f13bd	-1.3325094e-07
217	0x409822aa	4.7542315
218	0x40b6895e	5.7042685
219	0x40bcd06e	5.900443
220	0x3fce2123	1.6103863
221	0x40b6adb5	5.7087045
222	0x408ee050	4.464882
223	0xaf1c88af	-1.4236677e-10
224	0x3fc0a950	1.505167
225	0x40a7bfed	5.2421784
226	0x40360601	2.8441164
227	0x40bc6673	5.887506
228	0x3e2757bb	0.1634206
229	0x40cd06b9	6.4070706
230	0x3f8100ba	1.0078347
231	0x4082c209	4.086186
232	0x40baa8cf	5.8331065
233	0x40d635a3	6.6940475
234	0x40ad390b	5.4132133
235	0x3a2a50c0	0.0006497018
236	0x40c8a3b2	6.2699823
237	0x3f7790ac	0.96705127
238	0x3f8ff8a2	1.1247752
239	0x40a6fc7d	5.2183213
240	0x40834cc3	4.1031203
241	0x3fa31d93	1.27434
242	0x3fa3636b	1.2764715
243	0x3f951c16	1.1649196
244	0x40fbfe40	7.8747864
245	0x3fda644f	1.7061862
246	0x40995fb6	4.7929335
247	0x40b8285d	5.754927
248	0x40b5bc7a	5.6792574
249	0xbfd8f3eb	-1.6949438
250	0x3fcf1e95	1.6181208
251	0x3fd7d31c	1.68613
252	0xbcc8e448	-0.024522915
253	0x3c9514fd	0.018198485
254	0x40164603	2.3480232
255	0x9ceeff72	-1.581555e-21
