tmp/ddpg/critic_ddpg.pth (torch, 514177 bytes, 11 tensors)

fc1.weight f4 [400, 11]
0	0x3f6bbad9	0.9208198
1	0xc00029d7	-2.0025537
2	0x3e0935fd	0.13399501
3	0xbf9f5f0b	-1.245088
4	0x3ff44779	1.9084312
5	0x404274ec	3.0383863
6	0x3f311581	0.6917344
7	0x3f09704b	0.5368697
8	0x3fd8f75b	1.6950487
9	0x3ffdbe83	1.9823765
10	0x3fac0b3e	1.3440931
11	0x3f700f53	0.9377338
12	0xbfffbaa0	-1.9978828
13	0x3e104b68	0.14091265
14	0xbfa0ae03	-1.2553104
15	0x3ff505b3	1.9142364
16	0x40414da1	3.020363
17	0x3f2d85e4	0.67782426
18	0x3f0abe33	0.5419647
19	0x3fd9b750	1.7009068
20	0x4000a908	2.0103168
21	0x3fac09e6	1.3440521
22	0x406fee0b	3.748904
23	0xc0360e20	-2.8446121
24	0x3e7f2224	0.24915367
25	0xbf4aa0eb	-0.7915179
26	0x40002b7d	2.0026543
27	0x3fe8224a	1.8135464
28	0xbfc75956	-1.5574138
29	0xbf1d41ac	-0.6142833
30	0x3ee982b9	0.45607546
31	0x3f572cd5	0.84052783
32	0x3e882ef0	0.2659831
33	0x3f73782a	0.9510523
34	0xc0015abe	-2.0211635
35	0x3e0f8f54	0.14019519
36	0xbfa0b533	-1.2555298
37	0x3ff6deb6	1.9286716
38	0x40431b22	3.048531
39	0x3f30f49e	0.69123256
40	0x3f0e5a9f	0.55607027
41	0x3fd80c4b	1.6878752
42	0x400026c4	2.002366
43	0x3fab66e5	1.3390776
44	0x3f69412e	0.9111508
45	0xc000b848	-2.0112476
46	0x3e0b2be0	0.13590956
47	0xbfa01333	-1.2505859
48	0x3ff83063	1.9389766
49	0x40414ddf	3.0203779
50	0x3f2de22b	0.6792323
51	0x3f0811d5	0.5315221
52	0x3fd6ffa9	1.6796771
53	0x3ffcf15c	1.9761157
54	0x3fa91c77	1.3211812
55	0x3f64f513	0.89436454
56	0xbfffcdd0	-1.9984684
57	0x3e124ed1	0.14287879
58	0xbfa0f82d	-1.2575737
59	0x3ffa26d4	1.9543099
60	0x40405700	3.00531
61	0x3f2c0c77	0.6720652
62	0x3f0b109a	0.54322207
63	0x3fd764fb	1.6827692
64	0x3ffab457	1.9586285
65	0x3fa89bf9	1.3172599
66	0x3f608f81	0.8771897
67	0xbffde53e	-1.9835584
68	0x3e0e67da	0.13906804
69	0xbfa14cfb	-1.2601618
70	0x3ffe3f84	1.9863133
71	0x403da864	2.9634027
72	0x3f194c3f	0.5988197
73	0x3efb890f	0.49128005
74	0x3fdd3413	1.7281517
75	0x3ff8078a	1.9377301
76	0x3faca6e3	1.348843
77	0x3f4bfb59	0.796804
78	0xc000aafe	-2.0104365
79	0x3e0e14b3	0.13875084
80	0xbfa20a94	-1.2659478
81	0x3fff0a28	1.9924974
82	0x403e6e95	2.9754994
83	0x3f247041	0.64233786
84	0x3f0a351d	0.53987294
85	0x3fdb1bfa	1.7117913
86	0x3ffe5652	1.9870093
87	0x3fadaf6d	1.3569161
88	0x3f6be659	0.9214836
89	0xc00062fb	-2.0060413
90	0x3e0eb464	0.13936001
91	0xbfa1103c	-1.2583079
92	0x3ff58a39	1.9182807
93	0x40414271	3.0196803
94	0x3f1cc6c9	0.6124082
95	0x3efe5191	0.49671605
96	0x3fd7c71f	1.6857642
97	0x3ffebdcc	1.9901671
98	0x3fabaa23	1.3411297
99	0x3fa02997	1.2512692
100	0xc024d139	-2.57527
101	0x3e143c34	0.1447609
102	0xc0123489	-2.2844565
103	0x3fc71dcd	1.555597
104	0xc09f87db	-4.985334
105	0xc10e8cd0	-8.909378
106	0x3ef32c0b	0.4749454
107	0x3fb83752	1.4391882
108	0x401b1491	2.4231303
109	0x4005f10b	2.092837
110	0x3f628e95	0.8849881
111	0xbffff8ee	-1.9997842
112	0x3e0fcb2a	0.14042345
113	0xbfa1ce18	-1.264102
114	0x3fffc0c2	1.99807
115	0x403e389d	2.9722054
116	0x3f1b9356	0.6077169
117	0x3f01f5fe	0.5076598
118	0x3fd6981f	1.6765174
119	0x3ff3ae1c	1.9037509
120	0x3fa3a004	1.2783208
121	0x3f646ed3	0.89231604
122	0xbffef1e0	-1.9917564
123	0x3e0dd93b	0.13852398
124	0xbfa16bbc	-1.2611003
125	0x3ffa945a	1.9576523
126	0x403f1ce9	2.9861395
127	0x3f29f9d6	0.66396844
128	0x3f07a30f	0.5298318
129	0x3fdbb9cb	1.7166075
130	0x3fff2fea	1.9936497
131	0x3fae0d27	1.3597764
132	0x3f6a3424	0.9148581
133	0xbfff5808	-1.994874
134	0x3e08756f	0.13326047
135	0xbf9fffa5	-1.2499892
136	0x3ff890f0	1.9419231
137	0x40400ac0	3.0006561
138	0x3f29f7a9	0.66393524
139	0x3f06b809	0.52624565
140	0x3fd8498a	1.6897442
141	0x3ffbe7ac	1.9680076
142	0x3fa97d90	1.3241444
143	0x3f12e113	0.57374686
144	0xbfe99060	-1.8247185
145	0x3e2ecb2a	0.17069688
146	0xbfa93a3a	-1.3220894
147	0x400b0f95	2.172826
148	0x403962f8	2.8966656
149	0x3e96b563	0.29435262
150	0x3ebdc0db	0.370612
151	0x3feedfa8	1.8662004
152	0x3ffd18e3	1.977322
153	0x3fb0e076	1.38185
154	0x3f67739d	0.90410787
155	0xc001eb76	-2.0299964
156	0x3e0d2738	0.13784492
157	0xbfa1554b	-1.2604154
158	0x3ff9b8a7	1.9509476
159	0x404246f4	3.0355806
160	0x3f234250	0.6377306
161	0x3f07d92a	0.5306574
162	0x3fd8b3c3	1.6929859
163	0x3ff9fc56	1.9530132
164	0x3faba936	1.3411014
165	0x3f65db7c	0.8978803
166	0xbffca24f	-1.9737033
167	0x3ddc95d0	0.10770762
168	0xbf9c3ebb	-1.2206644
169	0x3ff1e3df	1.8897666
170	0x404108a8	3.0161533
171	0x3f2c22f2	0.6724082
172	0x3f033b14	0.5126202
173	0x3fd404d8	1.6563978
174	0x3ffa6de6	1.9564788
175	0x3fa7132f	1.3052729
176	0x3f54b414	0.8308728
177	0xbffb9622	-1.9655192
178	0x3e0f1007	0.13970958
179	0xbfa210e5	-1.2661406
180	0x400035aa	2.0032754
181	0x403ad78f	2.9194067
182	0x3f1ead16	0.6198286
183	0x3f05378f	0.520379
184	0x3fdf6d3b	1.745521
185	0x3ffaeeef	1.9604167
186	0x3fb22340	1.3917007
187	0x3f685147	0.9074902
188	0xc0003a7c	-2.0035696
189	0x3e0ff68a	0.14058891
190	0xbfa1632c	-1.260839
191	0x3ff9bdf0	1.9511089
192	0x403eef46	2.983354
193	0x3f2cafcf	0.6745576
194	0x3f10762b	0.5643031
195	0x3fd7868b	1.6837934
196	0x3ffc4072	1.9707167
197	0x3fa8b9d5	1.3181711
198	0x3f5c3aae	0.8602704
199	0xbffc72f9	-1.9722587
200	0x3e01d1d5	0.12677701
201	0xbf9ffcbb	-1.2499002
202	0x3ffa3a32	1.954901
203	0x403cd384	2.95041
204	0x3f2c9dfe	0.67428577
205	0x3f050092	0.51953995
206	0x3fe371ae	1.7769067
207	0x40027ce9	2.038874
208	0x3fbc7925	1.472447
209	0x3f6d425a	0.9267937
210	0xc000bd0b	-2.0115383
211	0x3e1104ea	0.14162031
212	0xbfa16307	-1.2608346
213	0x3ff6efeb	1.9291967
214	0x4042cf0a	3.0438867
215	0x3f31a705	0.69395477
216	0x3f101de9	0.5629564
217	0x3fd8502f	1.689947
218	0x3fff5fd8	1.9951124
219	0x3fabf1fd	1.3433224
220	0x3f699b87	0.9125294
221	0xbffedeb5	-1.9911715
222	0x3e15fd96	0.14647517
223	0xbfa2372f	-1.2673091
224	0x3ff72b38	1.9310064
225	0x403f4190	2.9883766
226	0x3f3357df	0.70055956
227	0x3f0b9a88	0.5453267
228	0x3fdc5785	1.7214209
229	0x4003169f	2.0482557
230	0x3fb117da	1.3835404
231	0x3f6854cb	0.90754384
232	0xbfff8aed	-1.9964272
233	0x3e099c18	0.13438451
234	0xbf9ee3df	-1.2413291
235	0x3ff333be	1.9000165
236	0x404236a6	3.0345855
237	0x3f2f7b1c	0.68547225
238	0x3f073081	0.52808386
239	0x3fd693ae	1.6763818
240	0x3ffcb714	1.9743371
241	0x3fa9f138	1.3276739
242	0x402a404a	2.660174
243	0xc062999f	-3.5406263
244	0x3db04730	0.08607328
245	0xbf0eef61	-0.55834013
246	0x3e3b577f	0.18295096
247	0xc28b079a	-69.51485
248	0xbf54793e	-0.829975
249	0xc092770e	-4.577033
250	0x4022cd38	2.5437756
251	0x4052c507	3.2932756
252	0x4035cb63	2.8405387
253	0x3f4cd1e1	0.8000775
254	0xc00089db	-2.008414
255	0x3e0ddeff	0.13854598

fc1.bias f4 [400]
0	0x3f08f99c	0.53505874
1	0x3f0f3a0f	0.55947965
2	0x3f50eb25	0.816088
3	0x3f0ed61c	0.55795455
4	0x3f0ae44d	0.5425461
5	0x3f0a1b33	0.5394775
6	0x3f06337a	0.52422297
7	0x3f09cc72	0.53827584
8	0x3f09f638	0.53891325
9	0x3ec77ba8	0.3896153
10	0x3f0883a3	0.5332586
11	0x3f0b48e4	0.544081
12	0x3f091117	0.535417
13	0x3f153820	0.58288765
14	0x3f0875a7	0.53304523
15	0x3f028443	0.50983065
16	0x3f045103	0.51686114
17	0x3f0bd1eb	0.54617184
18	0x3f05662e	0.5210904
19	0x3f0c2423	0.5474264
20	0x3f0ec3f3	0.55767745
21	0x3f061ada	0.5238472
22	0x3ea9a7ee	0.33135933
23	0x3f0ac1cc	0.5420196
24	0x3f07a84b	0.5299117
25	0x3f0b1567	0.5432953
26	0x3efe5e70	0.49681425
27	0x3f0c51ce	0.54812324
28	0x3f0c85ac	0.5489147
29	0x3f2ea761	0.6822415
30	0x3f0cd57f	0.5501327
31	0x3f07d782	0.53063214
32	0x3f0cf185	0.5505603
33	0x3f0ea066	0.557135
34	0x3f077405	0.52911407
35	0x3f09a5aa	0.5376841
36	0x3f0beb16	0.5465559
37	0x3f0b2e5b	0.5436761
38	0x3f09f357	0.5388693
39	0x3f08dec4	0.53464913
40	0x3f0c92b0	0.5491133
41	0x3f0d4992	0.55190384
42	0x3f0a12a9	0.53934723
43	0xbf846920	-1.0344582
44	0x3f10e617	0.5660109
45	0x3f08a93d	0.5338324
46	0x3f0d4800	0.5518799
47	0x3f07b002	0.5300294
48	0x3f06693e	0.52504337
49	0x3f602a66	0.87564695
50	0x3f0b9163	0.5451872
51	0x3f07e4af	0.5308332
52	0x3e9fb3ce	0.31191868
53	0x3f0a00f3	0.539077
54	0x3f017635	0.50570995
55	0x3cd81460	0.026376903
56	0x3fa00717	1.2502164
57	0x3f0cf7c9	0.5506559
58	0x3f3baa69	0.733069
59	0x3f0ba356	0.54546106
60	0x3f07969e	0.529642
61	0x3f05adc0	0.52218246
62	0x3f10952b	0.5647761
63	0x3f0772f9	0.5290981
64	0x3f095c04	0.5365603
65	0x3f0e286d	0.55530435
66	0x3f0cb886	0.5496906
67	0x3f0c3b3e	0.54777896
68	0x3f09fb46	0.5389904
69	0x3f0a3c7d	0.5399855
70	0x3f081fb4	0.53173375
71	0x3f0a8caa	0.54120886
72	0x3f0b19aa	0.54336035
73	0x3f0b3b0c	0.54386973
74	0xbbc213d6	-0.005922775
75	0x3f0a820e	0.541047
76	0x3ee75b77	0.4518697
77	0x3d862c69	0.06551439
78	0x3f050bd5	0.5197118
79	0x3f03e968	0.51528025
80	0x3f079ec4	0.5297663
81	0x3f23fd34	0.6405823
82	0x3f0b7ef6	0.544906
83	0x3f0cdcdc	0.55024505
84	0x3f0977ec	0.5369861
85	0x3f0eeac9	0.55827004
86	0x3f0613b1	0.52373797
87	0x3f0ab943	0.54188937
88	0x3f0a5be9	0.54046494
89	0x3f9c1c3e	1.2196119
90	0x3f139c0b	0.5765998
91	0x3fc1b26c	1.5132575
92	0x3ec34974	0.38141978
93	0x3edd0043	0.43164262
94	0x3f088d87	0.53340954
95	0x3f02ba57	0.5106558
96	0x3d994704	0.07484248
97	0x3fc4c8aa	1.5373738
98	0x3f10a343	0.5649912
99	0x3ec846cb	0.3911651
100	0x3f2d0d35	0.6759828
101	0x3f06db93	0.52678794
102	0x3f2624cb	0.6489989
103	0x3f0ba7c3	0.5455286
104	0x3de89859	0.11357183
105	0x3f06c931	0.52650744
106	0x3f09c462	0.5381528
107	0x3f0ea76a	0.55724204
108	0x3f0954a5	0.5364478
109	0x3f8c1f30	1.0947018
110	0x3f0a450a	0.54011595
111	0x3efb477a	0.4907797
112	0x3f0c289b	0.5474946
113	0x3e1aade7	0.15105401
114	0x3f0a842b	0.5410792
115	0x3f05fdbf	0.5234031
116	0x3f0663e7	0.5249619
117	0x3f03b29e	0.51444423
118	0x3f0a6fc6	0.540768
119	0x3f0cc093	0.54981345
120	0x3f0ccfbb	0.5500447
121	0x3eca85bf	0.39555165
122	0xbe115fca	-0.14196697
123	0x3f04ee1f	0.51925844
124	0x3f094509	0.53620964
125	0x3f059ea4	0.5219519
126	0x3f0d987f	0.55310816
127	0x3f0be26c	0.5464237
128	0x3f0c3757	0.5477194
129	0x3f095ced	0.5365742
130	0x3f093f0a	0.53611815
131	0x3f06c1c2	0.526394
132	0x3f0a56a7	0.5403847
133	0x3f0ce354	0.55034375
134	0x3f4de91f	0.8043384
135	0x3f090e27	0.5353722
136	0x3f8a01c2	1.0781786
137	0x3f080c50	0.5314379
138	0xbf0c6370	-0.5483923
139	0x3f077cdb	0.5292489
140	0x3f08c953	0.53432196
141	0x3eff61d6	0.4987933
142	0x3f0495ac	0.5179088
143	0x3ef538f2	0.47895008
144	0x3f0b147d	0.5432814
145	0x3f081966	0.53163755
146	0x3f06bc9f	0.5263156
147	0x3f057e80	0.5214615
148	0x3ed036c5	0.40666786
149	0x3f068302	0.5254365
150	0x3f76e066	0.96436155
151	0x3f06dc5f	0.5268001
152	0x3f0c37a8	0.54772425
153	0x3f092ae9	0.535811
154	0x3f773fc7	0.9658169
155	0x3f088c51	0.53339106
156	0x3f0e67e3	0.5562727
157	0x3f086d29	0.53291565
158	0x3f0db0fa	0.5534817
159	0x3f0afbdf	0.54290575
160	0x3e63be73	0.2224062
161	0x3f0cf64c	0.5506332
162	0x3f0d2f9f	0.5515079
163	0x3f06d27c	0.52664924
164	0x3f0877ec	0.53307986
165	0x3f0c9ff8	0.5493159
166	0x3f07b7b5	0.5301469
167	0x3f12f6a0	0.5740757
168	0x3f0c4e55	0.54807025
169	0x3f08dee7	0.5346512
170	0x3f9880b4	1.1914277
171	0x3f28c46c	0.65924716
172	0x3f0c1fa8	0.54735804
173	0x3f01600c	0.5053718
174	0x3f093963	0.5360319
175	0x3f0ae14c	0.54250026
176	0x3f127f0e	0.5722512
177	0x3f04e0d2	0.5190555
178	0x3f0d744f	0.552556
179	0x3f875af1	1.0574628
180	0x3f0a73df	0.54083055
181	0x3f097bd8	0.53704596
182	0x3f0b8b35	0.5450929
183	0x3f0b57af	0.5443067
184	0x3f052305	0.5200656
185	0x3f0bd9d7	0.5462927
186	0xbf17bbb8	-0.5927081
187	0x3f09624b	0.5366561
188	0x3f0c7a98	0.54874563
189	0x3f071344	0.5276377
190	0x3f0df09b	0.5544526
191	0x3f0685a4	0.5254767
192	0x3f108635	0.56454784
193	0x3f268038	0.65039396
194	0x3f0c445e	0.5479182
195	0x3f0b16bb	0.5433156
196	0x3f04e200	0.5190735
197	0x3f0b3714	0.5438092
198	0x3f0bb092	0.545663
199	0x3f0993f4	0.53741384
200	0x3f0a690a	0.54066527
201	0x3f0b902d	0.5451687
202	0x3f0ae2ff	0.5425262
203	0x3f04ba7b	0.51847047
204	0x3f361846	0.7113079
205	0x3f0a86de	0.5411204
206	0x3ec172f1	0.37783006
207	0x3f0a8076	0.54102266
208	0x3f09f2a0	0.5388584
209	0x3f0a2f06	0.53978
210	0x3f0d6cd2	0.5524417
211	0x3f06b52f	0.52620214
212	0x3f17f47a	0.59357417
213	0x3f067b1f	0.5253162
214	0x3ef0dab8	0.4704187
215	0x3f0d9b63	0.55315226
216	0x3f0247c2	0.50890744
217	0x3f060782	0.52355206
218	0x3f082441	0.5318032
219	0x3f0af95b	0.54286736
220	0x3f16b19c	0.5886476
221	0x3f0bf1b1	0.54665667
222	0x3f070f4d	0.5275772
223	0x3f01bd98	0.5067992
224	0x3f113777	0.5672526
225	0x3f03506f	0.51294607
226	0x3ee14bb1	0.4400306
227	0x3f04c285	0.51859313
228	0x3f089b54	0.5336201
229	0x3fb6ee66	1.4291503
230	0x3f0e21b6	0.5552019
231	0x3f05660f	0.52108854
232	0x3f061497	0.5237517
233	0x3f08d6cf	0.5345277
234	0x3f30e266	0.69095457
235	0x3f0069ed	0.5016163
236	0x3ebcd6d4	0.3688265
237	0x3f08b4f7	0.5340113
238	0x3fd5f04d	1.6713959
239	0x3f09c07a	0.5380932
240	0x3f0bd858	0.5462699
241	0x3f08d3eb	0.5344836
242	0x3f0e7bad	0.55657464
243	0x3f0ccfcc	0.5500457
244	0x3f096942	0.53676236
245	0x3f13496d	0.57533914
246	0x3f0c3dc4	0.54781747
247	0x3f0b99ec	0.5453174
248	0x3f0c46b5	0.5479539
249	0x3f080e8d	0.531472
250	0x3f09934c	0.5374038
251	0x3f0354bc	0.5130117
252	0x3f0ca064	0.54932237
253	0x3f0cfd6b	0.55074185
254	0x3f096794	0.5367367
255	0x3ecb7dba	0.3974436

fc2.weight f4 [300, 400]
0	0x000001d2	6.53e-43
1	0x3cdc6732	0.026904676
2	0xbec34ffd	-0.38146964
3	0x800000cf	-2.9e-43
4	0x3c19520f	0.009357943
5	0x800000d4	-2.97e-43
6	0xac443e27	-2.7887777e-12
7	0x2bfd85df	1.8013888e-12
8	0x3cc71902	0.024303917
9	0x3f0a66ad	0.5406292
10	0x0000043a	1.516e-42
11	0xb5b71bf4	-1.3642698e-06
12	0xbd6f76df	-0.058462974
13	0x80000257	-8.4e-43
14	0x0000016f	5.14e-43
15	0xbd4aeee8	-0.049544245
16	0x00000081	1.81e-43
17	0x80000344	-1.171e-42
18	0x8ea78bfe	-4.1303486e-30
19	0x394e9cf3	0.00019704159
20	0x36a619d4	4.9501923e-06
21	0x3238304a	1.0721189e-08
22	0x3fa656aa	1.2995198
23	0x3867416a	5.5135613e-05
24	0x274c21b6	2.8328962e-15
25	0x000000a5	2.31e-43
26	0x3d5b5351	0.053546254
27	0x3d778ebb	0.060438853
28	0x0000007c	1.74e-43
29	0xbf209ebc	-0.6274221
30	0x00000333	1.148e-42
31	0xbdfea56a	-0.12433894
32	0x0000010b	3.74e-43
33	0x2a33f575	1.5983554e-13
34	0x3dbb0db2	0.091334715
35	0xae5c1019	-5.0036506e-11
36	0x00000510	1.816e-42
37	0xa3c73ded	-2.160185e-17
38	0xa0f64689	-4.1720697e-19
39	0x80000015	-3e-44
40	0x000060f8	3.4786e-41
41	0x00000027	5.5e-44
42	0x9db0b3d2	-4.677274e-21
43	0xbf0021ce	-0.5005158
44	0x80000159	-4.83e-43
45	0x8000026a	-8.66e-43
46	0x80000012	-2.5e-44
47	0x80000572	-1.953e-42
48	0x398485c8	0.00025276677
49	0x3945a492	0.00018848691
50	0xbd79020e	-0.060792975
51	0x800000f9	-3.49e-43
52	0x3f3bf3a3	0.73418635
53	0x000000f8	3.48e-43
54	0x3b15236e	0.0022756713
55	0x3f7534e6	0.9578384
56	0xbf6146b9	-0.8799854
57	0xaf196ce8	-1.395396e-10
58	0x3f5b1b67	0.8558869
59	0x80000048	-1.01e-43
60	0x2b834133	9.326206e-13
61	0x800001d3	-6.54e-43
62	0x00000981	3.41e-42
63	0xba96bba1	-0.001150001
64	0xbdcdae67	-0.1004303
65	0x80000047	-1e-43
66	0xbd2ec751	-0.04267055
67	0xb6b0bb7a	-5.267034e-06
68	0x3c0328f2	0.008005368
69	0x00000218	7.51e-43
70	0xb002e2fd	-4.7616294e-10
71	0xa77fa15c	-3.5475832e-15
72	0x80000237	-7.95e-43
73	0xa72c3114	-2.38964e-15
74	0x3ec5db90	0.38644075
75	0x80000054	-1.18e-43
76	0x8000014f	-4.7e-43
77	0xbf552bac	-0.83269763
78	0x3ce2eabb	0.027699819
79	0x00000290	9.19e-43
80	0x3dab718c	0.08371267
81	0x3eaa9e66	0.33323973
82	0x000000cf	2.9e-43
83	0x800000a4	-2.3e-43
84	0xb8f290d2	-0.00011566434
85	0x2860544e	1.24527785e-14
86	0xb50a2ff2	-5.1478776e-07
87	0x00000262	8.55e-43
88	0xaee1994c	-1.02590464e-10
89	0x3e8302bc	0.25588024
90	0x8000015a	-4.85e-43
91	0xbd8f8ac1	-0.07008887
92	0x3f08fd24	0.5351126
93	0x0000010e	3.78e-43
94	0xbdff0f9e	-0.124541506
95	0xb0134b48	-5.358527e-10
96	0xbe8d1cd9	-0.27561072
97	0x3f4aa3ec	0.79156375
98	0x000006fa	2.503e-42
99	0xc000d606	-2.013063
100	0xbddfc66d	-0.109265186
101	0x0000015a	4.85e-43
102	0xbe11c9f9	-0.14237203
103	0x3cb63d4d	0.022246027
104	0xbd2c9a6a	-0.04213945
105	0x8000018c	-5.55e-43
106	0xbd2bcc44	-0.04194285
107	0x3c18a21f	0.009315996
108	0x392f0c18	0.00016693806
109	0xbbf0fefb	-0.007354615
110	0x000001c2	6.3e-43
111	0x00000030	6.7e-44
112	0x00000dbf	4.931e-42
113	0xbf1afe1c	-0.6054399
114	0x000004b4	1.687e-42
115	0x800000db	-3.07e-43
116	0x800002fc	-1.07e-42
117	0x800000fc	-3.53e-43
118	0x0e053566	1.6419226e-30
119	0x00000221	7.64e-43
120	0x800000e8	-3.25e-43
121	0x3f42cf41	0.76097494
122	0x3e6cf8ef	0.23141836
123	0x8000036b	-1.226e-42
124	0x000000a1	2.26e-43
125	0xbb3b175f	-0.0028547866
126	0xbb8e985b	-0.0043516583
127	0x800000c6	-2.77e-43
128	0x800002b8	-9.75e-43
129	0x00000193	5.65e-43
130	0x00000a57	3.709e-42
131	0x80004938	-2.6266e-41
132	0x3c409115	0.01175334
133	0x0000027e	8.94e-43
134	0xa2b52a91	-4.9105217e-18
135	0x3d0e8043	0.03479029
136	0x400aaa28	2.1666355
137	0x34c2c547	3.6278854e-07
138	0xbe204b4b	-0.15653722
139	0xac50d929	-2.9679126e-12
140	0xbc2da99e	-0.010599522
141	0x15652907	4.6278547e-26
142	0xbd7c9744	-0.061667696
143	0x000002d9	1.022e-42
144	0x80000169	-5.06e-43
145	0x3bd3c426	0.0064625917
146	0x80000059	-1.25e-43
147	0x00000224	7.68e-43
148	0xbf8df9c9	-1.1091853
149	0x38388051	4.3988523e-05
150	0x3a450e67	0.00075171
151	0x2e83ea9d	5.998866e-11
152	0x2186fe08	9.147435e-19
153	0x000002a6	9.5e-43
154	0xbfe1f4ab	-1.7652792
155	0x800003d4	-1.373e-42
156	0x000000d4	2.97e-43
157	0x000007f3	2.852e-42
158	0xb40a4982	-1.2878994e-07
159	0x800001ce	-6.47e-43
160	0xbf8bdecb	-1.0927366
161	0xab512d05	-7.4314193e-13
162	0x80000743	-2.605e-42
163	0xbcd4bdee	-0.025969472
164	0xb870beab	-5.7398032e-05
165	0xb7e39cae	-2.7133468e-05
166	0x00000695	2.361e-42
167	0xae2067cc	-3.6471978e-11
168	0x000001cb	6.43e-43
169	0xa3b50077	-1.9624256e-17
170	0xbf12c0dc	-0.5732553
171	0x00001082	5.922e-42
172	0x00000005	7e-45
173	0xa35fae10	-1.2125713e-17
174	0x174d6085	6.6360897e-25
175	0x8000029f	-9.4e-43
176	0x000000b7	2.56e-43
177	0x00000070	1.57e-43
178	0x8000010c	-3.76e-43
179	0x3f61b7ef	0.88171285
180	0x80000007	-1e-44
181	0xaa8b551a	-2.475041e-13
182	0x00000084	1.85e-43
183	0x3cf2a563	0.029619878
184	0x3bb4510f	0.005502827
185	0xb06f7fd6	-8.712936e-10
186	0xbf42686d	-0.7594059
187	0xbdba3e78	-0.09093946
188	0x00000927	3.283e-42
189	0x00000079	1.7e-43
190	0x3126d11c	2.4275044e-09
191	0x000002d5	1.016e-42
192	0x2cc3daad	5.5665112e-12
193	0xbb05094f	-0.0020299738
194	0x80000083	-1.84e-43
195	0xac013ac3	-1.8364622e-12
196	0x800002a0	-9.42e-43
197	0x00000905	3.236e-42
198	0x800003e6	-1.398e-42
199	0x0000126f	6.613e-42
200	0x98da69a5	-5.6458353e-24
201	0xbdfb5465	-0.12271956
202	0xbadbf2d9	-0.0016780748
203	0xbbc92506	-0.0061384467
204	0x3ca476dd	0.02007621
205	0x3d09d31e	0.033648603
206	0xbe2f7962	-0.17136148
207	0x00000037	7.7e-44
208	0x36d5bbe7	6.3697694e-06
209	0xba1ff06c	-0.00061011943
210	0x3d1b0901	0.037850384
211	0x3cd2c5f9	0.025729166
212	0x0438e4bb	2.1734124e-36
213	0x0000031f	1.12e-42
214	0x3be6b027	0.007040042
215	0x97ba608e	-1.2044342e-24
216	0xbb58e5a5	-0.0033095863
217	0x000001ae	6.03e-43
218	0x3b13e900	0.0022569299
219	0x00000205	7.24e-43
220	0x800003cd	-1.363e-42
221	0x29411313	4.2871153e-14
222	0x3d4ecf92	0.050490923
223	0x8e217bec	-1.9904448e-30
224	0xbe2c78ca	-0.16842952
225	0x2c871a84	3.8398746e-12
226	0xbc86e18d	-0.016464973
227	0x0000014e	4.68e-43
228	0xbde57994	-0.1120483
229	0x3f0d6e42	0.55246365
230	0x000001da	6.64e-43
231	0x0000016f	5.14e-43
232	0x8000011d	-4e-43
233	0xbc4407f3	-0.011964786
234	0x800000f1	-3.38e-43
235	0x1b04d337	1.0987031e-22
236	0x3e9e828e	0.3095898
237	0xbb225cc9	-0.0024774543
238	0x3f73265b	0.949804
239	0x000003c5	1.352e-42
240	0x3d08ef26	0.033431195
241	0x800000a9	-2.37e-43
242	0x0000018b	5.54e-43
243	0x0000031b	1.114e-42
244	0x80000092	-2.05e-43
245	0x000001d1	6.52e-43
246	0x3199916a	4.4694177e-09
247	0x80000768	-2.657e-42
248	0x25cd1730	3.5577544e-16
249	0xaae022db	-3.981458e-13
250	0x1ad2b498	8.714573e-23
251	0xbde28717	-0.110609226
252	0x00000828	2.926e-42
253	0xa17be820	-8.5349323e-19
254	0x000000e6	3.22e-43
255	0x3da267cd	0.07929955

fc2.bias f4 [300]
0	0x3db072f6	0.08615677
1	0xbde96fb6	-0.1139826
2	0x3efa431d	0.48879328
3	0xbf268df4	-0.65060353
4	0xbf348d9f	-0.70528597
5	0x400aa962	2.1665883
6	0x3f14d0c5	0.5813106
7	0x3f45f91c	0.77333236
8	0x3e1d7ba5	0.15379198
9	0xbeb20409	-0.34768704
10	0x4014f211	2.3272746
11	0xbe3f6e10	-0.1869433
12	0xbf2ca69f	-0.67441744
13	0x3ef2ecd9	0.47446325
14	0xbe92bfe1	-0.28662017
15	0x3f32e29c	0.6987703
16	0xbfa11df1	-1.2587262
17	0xc09bcfaf	-4.869102
18	0xbd88fc28	-0.0668872
19	0xbec95081	-0.39319232
20	0xbf2390dc	-0.6389291
21	0x3e8c8081	0.2744179
22	0xbcc5fe1a	-0.024169017
23	0xbe49009c	-0.19629139
24	0x3e551c0b	0.20811479
25	0x3f237d87	0.63863415
26	0x3e1159b9	0.14194383
27	0xbf196017	-0.59912246
28	0xbf9d9a2a	-1.2312672
29	0x3e6aa92d	0.22916098
30	0xbfcb9ed5	-1.5907847
31	0xbf28dacc	-0.6595886
32	0x3f2ed769	0.6829744
33	0xbfb7491a	-1.4319184
34	0x3ea6bc06	0.32565325
35	0x3f533c53	0.8251392
36	0xbed7794f	-0.4208474
37	0xbf2630c8	-0.64918184
38	0xbde79a59	-0.11308736
39	0xbf3ad533	-0.72981566
40	0xbfc6d4b1	-1.5533658
41	0xbf29244f	-0.6607103
42	0xbf17ea22	-0.59341633
43	0xbe691451	-0.22761656
44	0xbf29aa4d	-0.66275483
45	0xbf73cf90	-0.9523859
46	0xbf2b9262	-0.6702024
47	0x3e9ea7be	0.30987352
48	0x3d628299	0.05530033
49	0xbde56093	-0.11200061
50	0xbf0d0da6	-0.5509895
51	0xbca70fd6	-0.020393293
52	0x3f1d2fcc	0.6140106
53	0xbfc33624	-1.5250897
54	0x3eb33f12	0.35009056
55	0xbf4bea43	-0.7965433
56	0xbf1a8e57	-0.60373443
57	0x3f5ef7f6	0.8709711
58	0xbf4012b6	-0.7502855
59	0x3fe4777f	1.7848967
60	0x3ed88e62	0.4229613
61	0xbe25facb	-0.16208951
62	0xbf23acbd	-0.6393545
63	0x3f53c5aa	0.82723486
64	0xbf218840	-0.63098526
65	0x3fae1d3b	1.360267
66	0x3faf532a	1.3697255
67	0x3f4835aa	0.78206885
68	0x3acfe97a	0.0015862428
69	0xbf021b71	-0.5082312
70	0xc050b381	-3.260956
71	0x3efb5363	0.49087057
72	0x3ecf1dfe	0.4045257
73	0x3f3f8b02	0.74821484
74	0xbf1d6b1a	-0.6149155
75	0xbf2f7d48	-0.6855054
76	0xbf3d8a70	-0.74039364
77	0x3e96f307	0.2948229
78	0x3cf52e3e	0.029929277
79	0x3f44e316	0.76909006
80	0xbefa027b	-0.48830017
81	0x4009126d	2.1417496
82	0x3e0aa3c1	0.1353903
83	0xbf2bdc3f	-0.67132944
84	0xbf2960db	-0.66163415
85	0xbfdebe3a	-1.7401803
86	0x3e33b474	0.17549306
87	0x3e822d01	0.2542496
88	0xbff52dba	-1.915458
89	0x3f651cbb	0.89496964
90	0x3f49f342	0.78886807
91	0xbecdb1b7	-0.40174648
92	0x3eb423e4	0.35183632
93	0xbe2f797a	-0.17136183
94	0xbfa8447e	-1.3145902
95	0xbe6a6c42	-0.2289286
96	0x3f81937c	1.0123134
97	0xbd3863c8	-0.045017034
98	0xbf567d3a	-0.8378483
99	0x3f2c3782	0.672722
100	0x3f23e6ab	0.64023846
101	0x3c5d7916	0.013517639
102	0x3eac7718	0.3368461
103	0xbf2efec9	-0.6835752
104	0xbf2d36f0	-0.6766195
105	0xbe9a9241	-0.30189708
106	0xbf2f18b3	-0.68397063
107	0xbf3fb9b4	-0.74892735
108	0xbf348b56	-0.7052511
109	0xbee4849d	-0.44632426
110	0xbf27ce6b	-0.65549344
111	0xbf5641f1	-0.8369437
112	0x3d80b4c1	0.06284476
113	0xbf051cdc	-0.5199716
114	0xbfea8279	-1.8321067
115	0xbf9a6320	-1.20615
116	0xbf391196	-0.7229246
117	0xbece2502	-0.4026261
118	0xbf6c74a7	-0.923655
119	0xbea5662f	-0.32304522
120	0x3f04f766	0.5194
121	0x3de3cb18	0.111227214
122	0x3f95cdfc	1.1703486
123	0x3ead48dd	0.33844653
124	0x3fda9996	1.7078121
125	0x3dec17f7	0.115280084
126	0xbe4ef41e	-0.20210311
127	0x3f518f4f	0.81859297
128	0x3f4509d2	0.7696811
129	0x3f125878	0.5716624
130	0x3e3c6bd2	0.18400505
131	0xbf28b85f	-0.6590633
132	0xbde5512f	-0.11197125
133	0xbd65e862	-0.05612982
134	0x3e1be16e	0.15222713
135	0xbf679823	-0.9046652
136	0xbf2928e2	-0.6607801
137	0xbef5dafd	-0.48018637
138	0xbf2f29b1	-0.6842299
139	0x3f01eb43	0.50749606
140	0x3d26676a	0.040625967
141	0xbf2d593a	-0.67714274
142	0xbcc24705	-0.023715505
143	0xbf3c4213	-0.7353832
144	0x3e907791	0.28216222
145	0x3e6df5a8	0.23238242
146	0x3fde6361	1.7374078
147	0x3e7bd6b9	0.24593629
148	0x3e110da1	0.14165355
149	0x3e61bdce	0.22045061
150	0x3f38c613	0.7217724
151	0x3e9090aa	0.2823537
152	0x3f296307	0.6616673
153	0xbfcdd462	-1.6080439
154	0xbf47fe73	-0.78122634
155	0x3f34f272	0.7068244
156	0xbf1b3837	-0.6063265
157	0x400c2bf3	2.1901824
158	0xbec1383f	-0.37738225
159	0x3fd2171d	1.6413304
160	0x3fa6af8e	1.3022325
161	0xbf2daa58	-0.6783805
162	0x3f08499d	0.53237325
163	0x3f3f0cdc	0.74628997
164	0xbeeea413	-0.46609554
165	0xbf2b5f72	-0.66942513
166	0x3f310ddd	0.6916178
167	0x3ef5910d	0.47962227
168	0x3e82ff72	0.25585514
169	0xbf79766f	-0.9744634
170	0x3f4359da	0.7630898
171	0x3f57f94a	0.8436476
172	0xbe352cf9	-0.17692937
173	0xbf8712ba	-1.055259
174	0xbf0a4be2	-0.5402204
175	0x3e08a9af	0.13345979
176	0xbf2f479a	-0.6846863
177	0xbf1c7b9f	-0.6112613
178	0xbf29cd48	-0.6632886
179	0x3c5b3544	0.013379399
180	0xbf1aeaad	-0.60514337
181	0x3e5027be	0.2032766
182	0x3fd87243	1.690987
183	0xbf5162d4	-0.81791425
184	0x3f3b88e8	0.7325578
185	0x3e3b8e3f	0.18315981
186	0xbf2c4405	-0.6729129
187	0xbf86c602	-1.0529177
188	0xbf2fce59	-0.68674237
189	0x3e86c4f0	0.26322126
190	0xbf2f920e	-0.68582237
191	0x3f4fa7b3	0.81115264
192	0xbf2cb079	-0.67456776
193	0x3fb5eec8	1.4213495
194	0x3f1bb0fe	0.60816944
195	0xbf27acfa	-0.65498316
196	0x3fb1129d	1.3833805
197	0xbf1d70a6	-0.6150001
198	0x3dde7d6d	0.10863767
199	0xbf24b01c	-0.6433122
200	0xbe33b6c0	-0.17550182
201	0xbe393683	-0.18087201
202	0xbf0e4d47	-0.55586666
203	0xbfa0da3e	-1.2566602
204	0x3f5c504a	0.8606001
205	0x3fb11de8	1.3837252
206	0xbf21868d	-0.63095933
207	0xbf27b76c	-0.65514255
208	0xbe21bd82	-0.15794948
209	0xbfc538b9	-1.5407935
210	0xbf3dd5d9	-0.7415443
211	0xbfd33690	-1.6501026
212	0x3e895e7c	0.26829898
213	0xbf6e44f4	-0.93073964
214	0xbe0e3771	-0.13888337
215	0xbef27c9f	-0.47360703
216	0xbf264f83	-0.64965075
217	0xbf195d68	-0.5990815
218	0x3f82c027	1.021489
219	0x3db715ac	0.089396805
220	0x3f587e09	0.84567314
221	0x3fa0b900	1.2556458
222	0x3d997d3f	0.07494592
223	0x3de6ce7f	0.11269855
224	0x3f72bd32	0.9481994
225	0xbf603a82	-0.87589276
226	0xbf4db49b	-0.8035371
227	0xbe5845f9	-0.21120442
228	0xbf1bbcdc	-0.6083505
229	0x3f82e202	1.0225222
230	0xbf2f76e7	-0.68540806
231	0xbf1308fe	-0.57435596
232	0xbf2755f7	-0.65365547
233	0x3f6d21fa	0.9262997
234	0x3fba3ee1	1.4550439
235	0x3f487ced	0.7831562
236	0xbf42b003	-0.7604982
237	0x3da4be70	0.080441356
238	0x3ef043e3	0.46926793
239	0x3db4ba3f	0.08824586
240	0xbfdcb0d0	-1.7241459
241	0x3e47a46b	0.19496314
242	0x3f2208b4	0.6329453
243	0xbdcc346c	-0.09970936
244	0x3f607a5d	0.8768671
245	0xbf26b9b2	-0.651271
246	0x3f0c1281	0.54715735
247	0x3fa4b73e	1.2868421
248	0x3f5d9be0	0.8656597
249	0x3f9e5429	1.2369434
250	0x3f464795	0.77452976
251	0x3fa90f06	1.320771
252	0x3f852cc8	1.0404291
253	0xc01d188b	-2.454623
254	0x3f80d9fd	1.0066525
255	0xbefd24c7	-0.4944212

bn1.weight f4 [400]
0	0xbbfcea72	-0.0077183777
1	0xbc9712d6	-0.018441599
2	0xbfa5450f	-1.29117
3	0xbc2dcd48	-0.010608025
4	0xbc297b12	-0.010344284
5	0xbad6e5b9	-0.0016395367
6	0xa9ab9eb7	-7.621458e-14
7	0xbcc8c379	-0.024507271
8	0x3c063848	0.008192129
9	0xc090bdd8	-4.5231743
10	0xaadfe8b6	-3.9774233e-13
11	0xbb26a805	-0.0025429737
12	0x3c59414d	0.013260198
13	0xa844acac	-1.0917628e-14
14	0xb99be4a1	-0.00029734246
15	0x3c97e0ea	0.018539865
16	0x00000164	4.99e-43
17	0xb72828dd	-1.0023095e-05
18	0x3b080eb9	0.0020760729
19	0xbc8450c2	-0.01615179
20	0x000001e7	6.82e-43
21	0x8000003d	-8.5e-44
22	0x409b41d2	4.8517847
23	0xbc8ff3a1	-0.017572226
24	0xbb092630	-0.0020927303
25	0x301843ba	5.5393523e-10
26	0xbc84f0c1	-0.016228082
27	0xba21b319	-0.000616835
28	0xbbe5d299	-0.0070136306
29	0x3f94ba58	1.1619368
30	0xb9562051	-0.00020420669
31	0x3cb0dcac	0.0215896
32	0xb9d6b762	-0.00040953892
33	0xbc3e9cef	-0.011634096
34	0x3c00d0cb	0.00786228
35	0x3b1f8f1c	0.0024346774
36	0xb55b977e	-8.180431e-07
37	0xba23faff	-0.0006255358
38	0x3bf010d3	0.0073262244
39	0xb94854f0	-0.00019105128
40	0x3b6e5b93	0.00363705
41	0x92803ddd	-8.093186e-28
42	0xbc75f36e	-0.015011651
43	0x3fcfbc4b	1.6229337
44	0x3bf32b63	0.0074209436
45	0x0000018a	5.52e-43
46	0xbb637d6a	-0.0034712204
47	0x00000208	7.29e-43
48	0xb9577837	-0.00020548781
49	0xbbb257ba	-0.0054425867
50	0x3a955427	0.0011392877
51	0xb9aed35e	-0.00033345347
52	0x4069feff	3.6561887
53	0xb61f0f46	-2.3701737e-06
54	0x3bf27cf1	0.007400148
55	0x40895963	4.2921615
56	0x40136174	2.302823
57	0xbbfb2548	-0.0076643564
58	0xc01aba9f	-2.4176404
59	0x80000085	-1.86e-43
60	0x3ca91d79	0.020643936
61	0x3b5463a6	0.0032408028
62	0x80000066	-1.43e-43
63	0xbcdf8648	-0.02728571
64	0xbc1cab52	-0.00956233
65	0xb99b3dcc	-0.00029609946
66	0x3c00092a	0.007814685
67	0xbc1259d8	-0.008932553
68	0x3a1bf635	0.00059494685
69	0x800001fd	-7.13e-43
70	0x3b468b7b	0.003029554
71	0xb1dca3ce	-6.421465e-09
72	0xa91be143	-3.4612297e-14
73	0xbccc4f42	-0.024940137
74	0x404ee064	3.2324457
75	0xb568347a	-8.65031e-07
76	0xa7074f89	-1.877813e-15
77	0x40866a17	4.2004504
78	0x3c0ec66a	0.008714298
79	0x00000189	5.51e-43
80	0x3dafe687	0.085888915
81	0x3fc6bfe1	1.5527307
82	0xb90c7d55	-0.0001339813
83	0xb9f47e21	-0.0004663328
84	0xa83a7279	-1.03498964e-14
85	0xbc680af5	-0.014162769
86	0x3a59157f	0.0008281096
87	0x000000b4	2.52e-43
88	0x3b4aaf51	0.003092725
89	0x401e9087	2.4775712
90	0x9b09846b	-1.1375161e-22
91	0xc029efc7	-2.6552598
92	0x40ba4960	5.821457
93	0xb8711c96	-5.74855e-05
94	0x3bbff2fd	0.005857824
95	0x3c1f419c	0.009720232
96	0x40aa4663	5.321092
97	0x40357f8c	2.8359098
98	0x80000172	-5.18e-43
99	0x40d83645	6.7566247
100	0x411eb00a	9.917978
101	0xbbd3e11d	-0.0064660446
102	0x3c7be599	0.015374565
103	0xbbd75431	-0.0065713157
104	0x3fe3b6c6	1.7790153
105	0xbac0859d	-0.0014688257
106	0x3c37747b	0.011197205
107	0xbcba5f5b	-0.022750547
108	0xbc357af5	-0.0110766785
109	0xbbb1ced9	-0.0054262695
110	0xbc26fd08	-0.010192163
111	0xba72630f	-0.0009246328
112	0x80000026	-5.3e-44
113	0x3fd518b9	1.664817
114	0xabb71eda	-1.3011495e-12
115	0xb45521ef	-1.9849516e-07
116	0x8d207319	-4.944235e-31
117	0xbb514d74	-0.0031937035
118	0xbc690401	-0.014222146
119	0xbbc09ef2	-0.0058783228
120	0xbb57e41b	-0.0032942358
121	0x4079f8dd	3.9058144
122	0x40370e7d	2.8602593
123	0xb5b718aa	-1.3641741e-06
124	0x38d32bd8	0.000100694306
125	0xb78de571	-1.6915352e-05
126	0x3bbb35e2	0.0057132104
127	0xbb2f84e8	-0.00267821
128	0xbb834741	-0.004006297
129	0xbb6fdb81	-0.003659934
130	0x000003e4	1.396e-42
131	0x800001ca	-6.42e-43
132	0xbc2c9241	-0.0105329165
133	0xba52e8f0	-0.00080455747
134	0xbd1bf920	-0.03807938
135	0xbbb24713	-0.0054406016
136	0xbfcea2b8	-1.6143408
137	0xbc15c83f	-0.009141981
138	0x3fc8acd7	1.5677747
139	0xbc36eff8	-0.011165611
140	0xbc38a4e1	-0.011269779
141	0xbae28a65	-0.0017283676
142	0x3c0863e8	0.008324601
143	0xa13cac54	-6.392495e-19
144	0xb9382788	-0.00017562334
145	0xbc8cc1dc	-0.017182283
146	0xac058c39	-1.8978276e-12
147	0x3861a345	5.3796237e-05
148	0x40305195	2.7549794
149	0x0000006a	1.49e-43
150	0x3e8da277	0.27663013
151	0x3c1cf323	0.009579453
152	0x9061254d	-4.440216e-29
153	0xb1ad19ce	-5.0378963e-09
154	0x40ef4ac5	7.477877
155	0x927227bf	-7.6410726e-28
156	0x000000a9	2.37e-43
157	0x00000076	1.65e-43
158	0xbc6d1f2f	-0.014472767
159	0xb90ec1c1	-0.00013614354
160	0x4081ad03	4.0523696
161	0xbc9698cc	-0.018383406
162	0x04cb79da	4.7836974e-36
163	0xbb177042	-0.0023107682
164	0xbb37fe3c	-0.002807512
165	0xbaeec509	-0.001821668
166	0x000001b1	6.07e-43
167	0xbb2256ad	-0.00247709
168	0x3a95b714	0.0011422359
169	0xbc48b280	-0.012249589
170	0x409b787e	4.8584585
171	0x000003cc	1.362e-42
172	0xb6fbb0e6	-7.5009766e-06
173	0xbcc4fa93	-0.024045264
174	0xaf68db8b	-2.1178274e-10
175	0x80000076	-1.65e-43
176	0xba9ade12	-0.001181545
177	0xbca93138	-0.020653352
178	0xb1e29792	-6.5946972e-09
179	0x408ea7c9	4.4579816
180	0xb8e73cf0	-0.00011026289
181	0xa2679576	-3.1385462e-18
182	0x394e0c25	0.00019650215
183	0xbc5edad3	-0.013601976
184	0x3c0fe35c	0.008782234
185	0xbc405d12	-0.01174094
186	0x3f9f594f	1.244913
187	0x3be204f8	0.006897565
188	0x9e4a06d3	-1.0695202e-20
189	0x21c363c9	1.3240127e-18
190	0xbbb8ae60	-0.0056360215
191	0x360ff256	2.1449719e-06
192	0x00000048	1.01e-43
193	0x3b9cda04	0.0047867317
194	0xbb07f3c8	-0.002074467
195	0xbb59353f	-0.003314331
196	0xae5cc69c	-5.019861e-11
197	0xbc794a8b	-0.015215526
198	0x0000004c	1.06e-43
199	0xba141179	-0.00056483556
200	0x3af583c0	0.0018731281
201	0xbc393c6e	-0.0113059115
202	0xb5423379	-7.2345534e-07
203	0x3cde5d86	0.027144205
204	0x3d53d141	0.051713232
205	0x3b90c56d	0.0044180662
206	0x3f957b41	1.1678239
207	0x39ddf884	0.00042337563
208	0x3bd90994	0.0066234563
209	0xbb0e9078	-0.002175359
210	0xbcaf2516	-0.021379989
211	0xbb82b7c5	-0.003989192
212	0x3c45e244	0.012077872
213	0x800000d1	-2.93e-43
214	0x3ca957cd	0.02067175
215	0xbb8e6d70	-0.004346542
216	0xbb8fa540	-0.004383713
217	0xa6dae7ab	-1.5189582e-15
218	0xbc1de779	-0.009637707
219	0x800000e2	-3.17e-43
220	0x0000007d	1.75e-43
221	0xbc20bbd6	-0.009810409
222	0x3c202bc4	0.00977606
223	0xbab69d45	-0.0013932368
224	0x3d0f595d	0.034997333
225	0x3bb3c26c	0.0054858234
226	0xbd0ea615	-0.034826357
227	0xbb26ca2d	-0.0025450096
228	0x3c31198f	0.010809316
229	0x40868474	4.2036686
230	0xb9e06dbe	-0.00042806374
231	0x000001e2	6.75e-43
232	0xad789569	-1.4130344e-11
233	0x3c7533f6	0.014966002
234	0x3be7b729	0.007071395
235	0xa553007d	-1.8301498e-16
236	0x40376b7d	2.8659356
237	0xbc9c0c81	-0.019048931
238	0x405bf3ea	3.4367623
239	0x36308727	2.6304713e-06
240	0xbc793276	-0.015209785
241	0xbbf734d1	-0.007544138
242	0xbb87d129	-0.004144807
243	0xb9941813	-0.00028246696
244	0x800000a3	-2.28e-43
245	0xbbb1989c	-0.005419804
246	0xbcab302f	-0.020897
247	0x8000016a	-5.07e-43
248	0xbc847996	-0.016171258
249	0xbb8b9f67	-0.0042609456
250	0xbb3a31f3	-0.002841112
251	0x3dc6fab5	0.09715787
252	0x8671484e	-4.5380183e-35
253	0xbb78d3a0	-0.0037967935
254	0xba136373	-0.0005622424
255	0x406973af	3.6476858

bn1.bias f4 [400]
0	0xbd069e89	-0.032866035
1	0xbbcb0cc1	-0.0061965887
2	0x3e7f0370	0.24903655
3	0xbca16f41	-0.01970637
4	0xbc8b0af2	-0.016972993
5	0xbc560c0c	-0.013064396
6	0xb90116a4	-0.00012310833
7	0xbcfa99ac	-0.030590855
8	0xbb2280f5	-0.0024796103
9	0x3d21861a	0.03943453
10	0xb90769c1	-0.00012914
11	0xbad72bd8	-0.0016416265
12	0xbbb7376b	-0.005591323
13	0xb81f7185	-3.8014277e-05
14	0xbb11a265	-0.0022222039
15	0x3cc72194	0.024308003
16	0x9c202c58	-5.299687e-22
17	0xbba714c0	-0.005098909
18	0xbb101a84	-0.002198846
19	0xbc9aca8f	-0.018895416
20	0xab33f06e	-6.392724e-13
21	0xa7b5ce8d	-5.0461535e-15
22	0x4015e8cf	2.3423345
23	0xbc932c4a	-0.017965455
24	0xbb09ba32	-0.0021015522
25	0xb983b40f	-0.0002512042
26	0xba80c621	-0.0009824672
27	0xbb485c4c	-0.0030572591
28	0xbcb367a3	-0.021900004
29	0xbe8ba4cc	-0.27274168
30	0xbc1d8727	-0.009614742
31	0x3ce25fee	0.027633633
32	0xbc412c2e	-0.011790318
33	0xbc72941c	-0.01480582
34	0xbad7c245	-0.0016461095
35	0xbbd45ce8	-0.006480802
36	0xbb7085ec	-0.0036700917
37	0xbbbc9d0b	-0.0057560257
38	0xbb620a97	-0.0034491175
39	0xbbde94a6	-0.0067926226
40	0xbc0fb8a7	-0.008772052
41	0xb5fb47ad	-1.8721818e-06
42	0xbc19517e	-0.009357808
43	0xbf89bef4	-1.0761399
44	0xbc63a78a	-0.013894925
45	0xb037f9cf	-6.693001e-10
46	0xbc145fca	-0.009056041
47	0xb3b43ede	-8.393339e-08
48	0xbab9d707	-0.0014178463
49	0xbd69643d	-0.05698036
50	0xbbbbe654	-0.0057342444
51	0xbbb76803	-0.005597116
52	0x3f401ec1	0.75046927
53	0xbb9aa05b	-0.004718823
54	0xbbca0df7	-0.0061662155
55	0x3fc016ba	1.5006936
56	0x40162e3b	2.3465717
57	0xbbc1734e	-0.005903638
58	0x3e45963f	0.19295596
59	0xb4ccd0b7	-3.814982e-07
60	0xbba614a8	-0.0050683804
61	0xbb6031ee	-0.0034209448
62	0x9153861b	-1.668629e-28
63	0xbd05b107	-0.03263953
64	0xbc88db41	-0.01670611
65	0xbc949f32	-0.018142316
66	0xbba5e8db	-0.005063159
67	0xbb1d488c	-0.002399954
68	0xbb114f23	-0.0022172413
69	0xa585a5e4	-2.3184234e-16
70	0xbbc4da10	-0.0060074404
71	0xbb0e8468	-0.00217464
72	0xb9337f94	-0.00017118297
73	0xbce33667	-0.027735902
74	0xbf070f6a	-0.52757895
75	0xbb35aedb	-0.002772263
76	0xb8177b34	-3.6115947e-05
77	0x3d6895e0	0.056783557
78	0xbc01f8f6	-0.007932892
79	0xb43a469d	-1.7348289e-07
80	0x3d9ee3bd	0.077582814
81	0x3f51df2a	0.81981146
82	0xbb999ebd	-0.0046881125
83	0xbc5172fb	-0.012783761
84	0xb68b10c7	-4.144476e-06
85	0xbbc4818f	-0.00599689
86	0xba99ce1e	-0.0011734401
87	0x90325d03	-3.5175964e-29
88	0xbbdfb2fc	-0.0068267565
89	0x40188de2	2.3836598
90	0xb78501b1	-1.5855623e-05
91	0xbe033be6	-0.12815818
92	0x3ff5cd57	1.920329
93	0xbc074d09	-0.008258113
94	0xbb4476e9	-0.0029978103
95	0xbc63c764	-0.013902519
96	0x3f924430	1.1427059
97	0xbf0c04c0	-0.5469475
98	0xb17a2805	-3.6402537e-09
99	0x401ad20e	2.4190707
100	0x4005ab71	2.088589
101	0xbc09eacb	-0.008417795
102	0xbc56491d	-0.013078955
103	0x38ccf96c	9.7739365e-05
104	0x3fd8b6d9	1.6930801
105	0xbaacd2fc	-0.0013185437
106	0xbc4166de	-0.011804311
107	0xbcbfac0e	-0.023397472
108	0xbc7096a1	-0.01468435
109	0xbd2b03d1	-0.041751686
110	0xbc4b4cdc	-0.012408461
111	0xbc3ed269	-0.011646845
112	0x92572ccf	-6.789727e-28
113	0x3ee3afd2	0.44470078
114	0xb8b6617b	-8.6965934e-05
115	0xbc0b4652	-0.008500652
116	0xb3607718	-5.226238e-08
117	0xbc932af5	-0.01796482
118	0xbcca4a29	-0.024693565
119	0xbc978ee9	-0.018500762
120	0xbcbdb8bc	-0.023159377
121	0x3ff8897f	1.941696
122	0x3dd5cede	0.104398474
123	0xbb040420	-0.002014406
124	0xbb92f3f8	-0.0044846497
125	0xbc1b4ee6	-0.00947926
126	0xbb4abcc4	-0.0030935267
127	0xbca93398	-0.020654485
128	0xbc8d6de3	-0.017264312
129	0xbaae422d	-0.0013294868
130	0xb434b0d8	-1.6828142e-07
131	0x8c83a7ef	-2.0284817e-31
132	0xbc6d44c2	-0.014481725
133	0xbbd7b92e	-0.0065833544
134	0xbbc21f7a	-0.0059241625
135	0xbb917f5f	-0.0044402326
136	0xbf13ca76	-0.57730806
137	0xbc2ecd9b	-0.010669137
138	0xbfd80484	-1.6876378
139	0xbc7b1898	-0.015325688
140	0xbc64d27b	-0.013966198
141	0xbbdeeb03	-0.006802918
142	0xbb8319d3	-0.004000881
143	0xb762ae84	-1.3511282e-05
144	0xbc30a1b1	-0.010780738
145	0xbc95616c	-0.018234931
146	0xb873257d	-5.797063e-05
147	0xbbdf8e51	-0.0068223854
148	0x3f0eed82	0.5583116
149	0xa39bd8e5	-1.6896992e-17
150	0xbe4b1cc5	-0.19835193
151	0xbba1e857	-0.004941027
152	0xaf757e42	-2.2327476e-10
153	0xbae18e1a	-0.0017208487
154	0x40354a92	2.8326764
155	0xb2ef34f9	-2.7847351e-08
156	0xa86e97c7	-1.32445655e-14
157	0x91557239	-1.6837935e-28
158	0xbc8d4bb5	-0.017248014
159	0xbb7496fd	-0.0037321441
160	0x3ef53b43	0.47896776
161	0xbcefddb9	-0.02928053
162	0xb0b826aa	-1.3398751e-09
163	0xbc64b9f0	-0.013960347
164	0xba4aabe4	-0.0007731302
165	0xbbaaffdc	-0.005218489
166	0xb2d907d7	-2.526569e-08
167	0xb9aa837d	-0.00032522893
168	0xbc18a4ac	-0.009316605
169	0xbb8febab	-0.0043921075
170	0xbeb67ba6	-0.3564121
171	0x94c602b6	-1.999396e-26
172	0xbbb79327	-0.0056022587
173	0xbcf74177	-0.030182583
174	0xbb54d622	-0.0032476266
175	0xae80d316	-5.8582625e-11
176	0xbc931df6	-0.017958622
177	0xbce70942	-0.028202657
178	0xbb062104	-0.0020466456
179	0x3ecdfd9e	0.40232557
180	0xbb2e5bb2	-0.0026604948
181	0xb683abb6	-3.924094e-06
182	0xbb775228	-0.0037738178
183	0xbc708371	-0.014679776
184	0x3c4064b8	0.011742763
185	0xbd03aae2	-0.03214539
186	0x3eb8811f	0.36036012
187	0xbb890065	-0.0041809552
188	0xb57e9991	-9.484584e-07
189	0xb620a76e	-2.3939315e-06
190	0xbb48cd9c	-0.003064013
191	0xba954972	-0.0011389686
192	0x8e2f2efa	-2.1593034e-30
193	0xbb6c7d08	-0.0036085267
194	0xbbfe2950	-0.0077563897
195	0xbb130b7e	-0.002243727
196	0xb9c9099b	-0.00038344864
197	0xbce986fe	-0.028506752
198	0xb1236512	-2.3777074e-09
199	0xbc35dc21	-0.011099846
200	0xbb64e0b9	-0.0034923984
201	0xbbe91550	-0.0071131364
202	0xbbfacbd9	-0.007653695
203	0xbc57eb2f	-0.013178631
204	0x3d71f137	0.05906793
205	0xbbf7c6a9	-0.007561524
206	0x3de98352	0.114020005
207	0xbb484a90	-0.003056202
208	0xbbd19ab7	-0.0063966173
209	0xbb55792a	-0.003257344
210	0xbac5eb93	-0.0015100114
211	0xbb933c7e	-0.004493295
212	0xbc0127bb	-0.007883008
213	0xaf3b17cc	-1.7016005e-10
214	0xbc324c4d	-0.010882449
215	0xbc28c1d5	-0.010300119
216	0xba902731	-0.0010998008
217	0xb87774be	-5.8998114e-05
218	0xbae0eaef	-0.0017159859
219	0x945a2d6b	-1.10151445e-26
220	0xbab557e0	-0.0013835393
221	0xbc59301e	-0.013256101
222	0xbb7f1f10	-0.0038928427
223	0xbc4f1e77	-0.012641541
224	0xbc8b300c	-0.016990684
225	0xbbb367d2	-0.005475023
226	0xbb95f54c	-0.004576361
227	0xbc75f4e6	-0.015012002
228	0xbc13a832	-0.009012269
229	0x3ec39862	0.38202196
230	0xbb6921b4	-0.0035573067
231	0xb4cde033	-3.8347352e-07
232	0xbb0de501	-0.002165139
233	0xbb7141cd	-0.0036812902
234	0xbc962487	-0.018327964
235	0xb36a9fbf	-5.462766e-08
236	0xbf0d8d08	-0.5529332
237	0xbca1009b	-0.019653609
238	0x4007e506	2.1233535
239	0xba096db1	-0.00052424805
240	0xbcae1924	-0.021252222
241	0xbcc44cd7	-0.023962421
242	0xbcb07329	-0.021539288
243	0xbc6d3b59	-0.014479482
244	0xaca347bf	-4.640704e-12
245	0xbc6a3db9	-0.014296942
246	0xbcd5312e	-0.026024427
247	0xad15602d	-8.491025e-12
248	0xbca5b0ce	-0.020225909
249	0xbbe52733	-0.0069931983
250	0xbc78e0c1	-0.015190304
251	0x3dbccc8d	0.092187025
252	0xb3acdd5f	-8.049641e-08
253	0xbb23674f	-0.0024933403
254	0xbbee6bae	-0.00727602
255	0x3d3b39cc	0.045709416

bn2.weight f4 [300]
0	0x3d12a125	0.03579821
1	0x3f2b932d	0.6702145
2	0x3ee5853e	0.44828218
3	0x3ebc21c0	0.367445
4	0x3ee8f218	0.45497203
5	0xc11a46ef	-9.642318
6	0x3e1f97ef	0.15585302
7	0xc0d030e9	-6.5059705
8	0xbe10169c	-0.14071125
9	0x3e40843a	0.1880044
10	0xc042718d	-3.0381806
11	0x3e8dfc3c	0.27731502
12	0x3ed97d83	0.4247857
13	0xbef51d1a	-0.47873765
14	0x412fa5cb	10.977977
15	0x3f5d39e9	0.8641649
16	0x409a5bf6	4.8237257
17	0x4113e738	9.24395
18	0x3f4ff6be	0.81235874
19	0xbfa9e770	-1.3273754
20	0x3e9dbcde	0.30808157
21	0x3f2b1e3f	0.66843027
22	0x40857ea0	4.171707
23	0xbf47ca4d	-0.7804306
24	0xbd35e35e	-0.044406287
25	0x40de9110	6.955208
26	0x3e2d3aa6	0.16916904
27	0x3e8e2582	0.2776299
28	0x40aa9201	5.3303227
29	0xc086e15d	-4.21501
30	0x3f35e3b3	0.71050566
31	0x3ec85359	0.3912609
32	0x405b890f	3.4302404
33	0x401dd58a	2.4661584
34	0x3ef89f0e	0.4855885
35	0x413d2baa	11.82316
36	0xc080215d	-4.0040727
37	0x3eb54b9d	0.3540925
38	0x3f57557c	0.84114814
39	0x407b7cc1	3.9294894
40	0xc0f772be	-7.7327566
41	0x3ed07494	0.40713942
42	0x40d2f579	6.592465
43	0x408fb9dd	4.4914384
44	0x3ecf2412	0.40457207
45	0x40c4c155	6.1486
46	0x3ed7bbef	0.4213557
47	0x3e4f9ed3	0.2027543
48	0x40fc88e0	7.8917084
49	0x4113c840	9.236389
50	0x3e271c61	0.1631942
51	0xbe96c389	-0.29446056
52	0xc0c6c6d9	-6.2117734
53	0x405c75f5	3.4446995
54	0x3ea22c4f	0.3167443
55	0x3f1fc40e	0.6240853
56	0x3e913a5e	0.28364843
57	0xc0a38ec6	-5.1111784
58	0x40a72a9c	5.2239513
59	0x41024151	8.140946
60	0x41056447	8.336982
61	0x40acc417	5.3989367
62	0x3e9d7080	0.30749893
63	0x3ed829ac	0.42219293
64	0x3e9b941f	0.30386445
65	0x4108c9ce	8.549269
66	0xc0bbfe0a	-5.8747606
67	0x40f2419d	7.5705094
68	0x40dc96e6	6.89342
69	0x409ce6d4	4.9031773
70	0x410ae6d4	8.6813545
71	0xbe0a5ecc	-0.13512725
72	0x40a70071	5.218804
73	0x410de679	8.868768
74	0x3e9ca456	0.30594128
75	0x3ee8d3ee	0.4547419
76	0xc02ad2a3	-2.6691062
77	0x40c77007	6.232425
78	0x3d0aecf8	0.033917397
79	0x400d0150	2.203205
80	0xc0cbd9b1	-6.3703237
81	0xc000fea5	-2.0155423
82	0x413a9e6f	11.66368
83	0x3ed6b647	0.41935942
84	0xc0051077	-2.07913
85	0x410a47af	8.642501
86	0x36d102a3	6.2289923e-06
87	0xc0a10f70	-5.0331345
88	0x40ea7aa0	7.327469
89	0x40fd69af	7.919151
90	0x39c190df	0.00036919766
91	0x408a0b4e	4.31388
92	0x3ec5d153	0.38636264
93	0x3fa1fcc6	1.2655265
94	0x40d2c847	6.586948
95	0xc0aa965c	-5.3308544
96	0x405e0060	3.468773
97	0xc0998049	-4.79691
98	0x3f1cd92c	0.6126888
99	0x4138c7b6	11.548758
100	0xc0c713fc	-6.2211895
101	0xc0a55c96	-5.167552
102	0xbebe2c8f	-0.3714337
103	0x3eeff8f0	0.46869612
104	0x3ed905c3	0.42387208
105	0xc0d75ef7	-6.7303424
106	0x3edc8b80	0.4307518
107	0x3f0745ee	0.5284108
108	0x3eefec60	0.46860027
109	0x410d113f	8.81671
110	0x3ec4bee0	0.38426876
111	0x3f409fbd	0.7524374
112	0x3c1a164b	0.009404729
113	0x40bc0086	5.875064
114	0x40bf28f4	5.973749
115	0x40859587	4.174503
116	0x3ef09fc2	0.46996886
117	0x40ea7b86	7.3275785
118	0x3f35aa9e	0.70963466
119	0xbef15131	-0.47132257
120	0xc0ac55a7	-5.3854556
121	0x3d327c63	0.043575656
122	0x40b7f145	5.748202
123	0x40bc1fa3	5.878862
124	0xc120fa8b	-10.061168
125	0x3e8aaa39	0.27082995
126	0x3e8d5810	0.2760625
127	0x40a14880	5.0401
128	0x40eaec32	7.3413324
129	0x40afbae5	5.4915643
130	0xc08e3de8	-4.445057
131	0x3ecdb2a0	0.40175343
132	0x3fca9f3f	1.5829848
133	0xc085a40d	-4.1762757
134	0x40d13613	6.537851
135	0x3f49a7cc	0.7877166
136	0x3fd51d0c	1.6649489
137	0xc0a8fbe5	-5.280749
138	0x3f03362f	0.5125455
139	0x40baf32f	5.8421855
140	0x394ee7b2	0.00019732004
141	0x3ed6ffaa	0.4199193
142	0x3e855cec	0.26047456
143	0x3f09cbeb	0.5382678
144	0x04482898	2.3528527e-36
145	0xc0c945c8	-6.289768
146	0xc0a2f92f	-5.092918
147	0xbea8f001	-0.32995608
148	0x40937fff	4.6093745
149	0x40fdcf49	7.9315534
150	0x3eb89a6b	0.36055312
151	0x3eefab90	0.4681058
152	0xc060e597	-3.514013
153	0x40c35d42	6.105134
154	0x3f1581de	0.58401287
155	0x403acdd2	2.9188123
156	0x3e92e1d0	0.28687906
157	0x410f9c2c	8.975628
158	0x4017f682	2.3744206
159	0x409d64b0	4.918541
160	0xc10c8030	-8.781296
161	0x3edcd84f	0.4313378
162	0x40b41647	5.6277194
163	0x40504388	3.2541218
164	0xbd40c22a	-0.04706017
165	0x3ed18a64	0.40925896
166	0x3d76eb9a	0.06028328
167	0x3eb509c1	0.35359004
168	0xc0a22ffd	-5.068358
169	0x4023ecc9	2.5613272
170	0xbeffaa72	-0.49934727
171	0x40c7c246	6.242465
172	0x3ffbcee4	1.9672513
173	0x40ad0e31	5.4079823
174	0x405e028c	3.4689054
175	0x3cbdc293	0.02316407
176	0x3ef66014	0.48120177
177	0x3e94fff2	0.2910152
178	0x3ed003ec	0.40627992
179	0x3e8072e7	0.25087664
180	0xc00b50a2	-2.1767964
181	0x3ec45ed9	0.38353613
182	0xc08cd089	-4.400456
183	0x3f207080	0.6267166
184	0xc0c9554a	-6.2916613
185	0x3ed12a9a	0.40852815
186	0x3edc122a	0.42982608
187	0x40b22599	5.5670896
188	0x3ee0fbf3	0.43942222
189	0x3eca49ce	0.39509434
190	0x3ee6fa41	0.45112804
191	0xbf275a79	-0.65372425
192	0x3edcf738	0.43157363
193	0xc08f4a72	-4.4778376
194	0x40872de4	4.224352
195	0x3ec5de64	0.38646233
196	0xc0856623	-4.168718
197	0x3e9c4856	0.30523938
198	0x3eda4b4d	0.42635575
199	0x3ebf7a5f	0.3739805
200	0x4018ab19	2.385443
201	0x3e51b3af	0.204787
202	0x4108c115	8.547139
203	0x408ca356	4.3949385
204	0x3f03f8c0	0.5155144
205	0x4102e493	8.180804
206	0x3e9aa054	0.30200446
207	0x3ec53f8b	0.38525042
208	0x3efaa593	0.48954448
209	0xc0695130	-3.6455803
210	0x40d86684	6.762514
211	0x4148580f	12.521499
212	0x3e3985d7	0.18117462
213	0x3f2883ac	0.65825915
214	0xbdc7aeea	-0.09750159
215	0x3f6643cb	0.89947194
216	0x410b0287	8.688117
217	0x3e8f0e9b	0.2794083
218	0xc0e4d4ee	-7.1509924
219	0x3ec94340	0.3930912
220	0x41453b96	12.327047
221	0xbfeb3256	-1.8374736
222	0x3f51d7e9	0.8197008
223	0x3f024908	0.50892687
224	0xc09e7ef2	-4.9529963
225	0x4074de06	3.8260512
226	0xc02a0f54	-2.6571856
227	0x3ed348b8	0.41266418
228	0xbf86f8a5	-1.054463
229	0xc0cb014e	-6.3439093
230	0x3eef4677	0.46733448
231	0x40e940ec	7.289175
232	0x3ec1009b	0.37695774
233	0x4099180f	4.784187
234	0xc049dba8	-3.1540318
235	0x3f5a0969	0.8517061
236	0x3f81214e	1.0088289
237	0x37452225	1.1750065e-05
238	0x3ecf50f0	0.40491438
239	0x40175534	2.3645754
240	0xc0e22738	-7.0672874
241	0xc0f6d229	-7.7131543
242	0x40935304	4.6038837
243	0x40b395b5	5.612025
244	0x40556772	3.3344388
245	0x3ec18202	0.377945
246	0xc11ff467	-9.997169
247	0xc04ae352	-3.1701245
248	0x40b5f4e6	5.686145
249	0xbf0d9df5	-0.5531915
250	0x3ec0b5ee	0.376388
251	0x40cff850	6.4990616
252	0xc0b2bafc	-5.5853252
253	0x40e4b3c7	7.1469455
254	0x3f26b07e	0.65113056
255	0x4131b9fe	11.107908
