tmp/ddpg/critic_ddpg.pth (torch, 514177 bytes, 11 tensors)

fc1.weight f4 [400, 11]
00000000: dc40 a73d 3530 d5bf e333 8639 242c e7bd
00000010: 4198 723f 9eda 783f 2f1d cc3d 55e7 0b3d
00000020: 15b5 bb3e f21b dd3e 3358 783e 45e9 163e
00000030: e343 c4bf a7c9 6a39 1439 3cbd 8c5a 523f
00000040: 62fd 683f d576 9b3d ad36 173d f664 643e
00000050: 68c2 6d3e 0fee fa3d 7d18 4c40 f2a1 e1bf
00000060: ffeb a4bb 301f fdbe 634e 1e40 cde6 80bf
00000070: 2112 10bf c683 57bf f4e3 663f 5e9e 303f
00000080: c837 763f 7f1a c63e 1d5d debf 24de 9939
00000090: fd69 bbbc 9162 5c3f 0a52 3b3f 0878 413e
000000a0: 6f40 263d f8fc 763e 7dab 683e fd26 0e3e
000000b0: 1591 ac3d 6bbb d4bf 7c49 8439 fd91 00be
000000c0: e0e4 7a3f 970e 733f f827 943d bc1d 193d
000000d0: 1a0a a73e 826e c93e b424 553e 41c3 f03d
000000e0: 03c3 bdbf 3225 7839 48b1 15be 92e3 913f
000000f0: b5dc 5b3f 7157 c63d 042c df3c c4aa 063e
00000100: d87b f33d c138 833d 1a6c 8f3d 91df d8bf
00000110: fece a939 4022 6fbe 12e5 813f db60 8a3f
00000120: da3b 1d3d 7c84 5c3d db7f c73e 5ebb 043f
00000130: 9607 933e 8ff5 a83d 3659 d1bf dcb0 a139
00000140: d9f5 fcbd 4d6f 6d3f b38f 843f c62d 7e3d
00000150: 6596 1b3d f8aa b53e 9c02 d83e c0f2 733e
00000160: da17 bf3f c521 8ebf c685 b439 4186 e6bd
00000170: 9d22 1d40 7c01 983e dfaf 7a3f 2ab2 933b
00000180: 9aca 733f 8977 8b3f dace 6d3f 1421 8f3f
00000190: d22f 25c0 2506 043d 58ee 0d3f 3183 c93f
000001a0: 5be5 37c1 78eb 2dc1 d3a8 0e40 fd3a 1040
000001b0: 2a54 2340 c7f8 1640 ebad b53d dc1c c9bf
000001c0: bda0 a939 bc35 7fbe 0b3a 8a3f cf08 8b3f
000001d0: c6d5 923d 97a7 893d bd96 e23e a4ac 0a3f
000001e0: 7dd0 a23e 4f87 ff3d 7229 c4bf 5055 8a39
000001f0: e14e 00be 708b 8e3f 2672 6c3f c544 b93d
00000200: dce5 303d e5fc 443e e0e3 573e 159c d83d
00000210: f986 a73d fab6 d7bf 46ab a939 5bdd 26be
00000220: 6591 7b3f 6775 7b3f 5a5a d73d 2521 073d
00000230: 2632 d93e 8734 f43e 39ea 8f3e 9f3c f33f
00000240: 5ab9 55bf 0268 8939 5d25 c8be 0654 453f
00000250: ba08 8140 2aca 973e 806e 07be 0eb0 783f
00000260: 25a7 ca3f ddea 223f d652 073e 48ab b8bf
00000270: 80bf a039 20ae 22be 0aed 8b3f 7df9 833f
00000280: f54e 7c3d bd88 403d f05a 553e 854c 6e3e
00000290: 63ae ed3d e106 a03d c00a d0bf d290 f538
000002a0: 67d7 ddbd ada0 6a3f 143e 793f 33fe b93d
000002b0: fe55 f13c 0c19 ad3e 8d54 cc3e 3fbc 593e
000002c0: b80c 4a3f f675 7bbf bb76 9639 c0dc 73be
000002d0: 97a3 d93d 54d3 2840 4e37 273f 4ffa 4a3f
000002e0: 2e8c 8f3f 4dee b23f df30 803f 622d f23d
000002f0: 219a c6bf 98f0 a639 c5c4 14be 5f9b 8a3f
00000300: 21de 663f 955b 3f3d 02e9 5a3d 0803 7e3e
00000310: bdb6 8b3e d4f9 103e f135 fc3d 961c c8bf
00000320: e946 5639 db81 78bd a857 653f 9500 6b3f
00000330: 2c78 ec3d 1c31 f03c 08e0 7c3e 7836 8a3e
00000340: 0d23 123e 7521 663e ca8c cfbf a715 a239
00000350: b3a6 76bd dc45 623f 12ff 6b3f 7a9a 2e3e
00000360: 4ce0 353d a3f2 9d3e 3f59 a43e 6c7e 3f3e
00000370: 219e 9d3d 6dc6 e4bf fb49 8c39 01e1 f0bd
00000380: 0751 793f 110c 523f 4b82 443d 28d2 253d
00000390: d132 b53e 6a69 d53e 3d2c 643e e3ec b43e
000003a0: e267 e1bf 33cc 8639 6f06 0bbd 22be 5c3f
000003b0: 1e06 303f 1a37 403e 9dfe 2f3d bcbc 793e
000003c0: e704 5d3e 0fce 013e 3282 1340 09c0 7bc0
000003d0: d87a 343f fa8b 5d3f 8334 1dbd ed0a 59c2
000003e0: 2d96 1940 bb33 e6c0 2ce1 4140 e777 4540
000003f0: 68aa 3e40 9cb0 c93d 35ba e1bf dd12 3639
0.08166668 -1.6655337 0.0002559713 -0.11287716 0.9476357 0.97208583 0.09966504 0.034156162
0.36661592 0.43185383 0.24252395 0.14737423 -1.5333217 0.000223911 -0.04595287 0.82169414
0.9101163 0.07591025 0.036917377 0.22304139 0.23218691 0.12252437 3.1889946 -1.7627547
-0.0050330157 -0.49437857 2.4735343 -1.0070435 -0.5627766 -0.84185445 0.9019158 0.6899165
0.96178865 0.3869209 -1.7372166 0.00029347942 -0.022877688 0.860879 0.73172057 0.18893445
0.040588792 0.24119937 0.22721668 0.1388206 0.0842611 -1.6619695 0.00025231752 -0.1255569
0.98005486 0.9494414 0.07234186 0.037381873 0.32624894 0.39342123 0.20814782 0.11755992
-1.4825138 0.0002366498 -0.14618409 1.1397574 0.8588365 0.09684647 0.027242668 0.1315108
0.11888856 0.06407309 0.070030406 -1.6943227 0.00032388413 -0.23352909 1.0148032 1.0810808
0.038387157 0.053837284 0.38964733 0.518484 0.28716725 0.082499616 -1.635535 0.00030840083
-0.12351579 0.92747957 1.0356354 0.06205537 0.037985224 0.35482 0.4218949 0.2382307
1.4929154 -1.1104056 0.00034431944 -0.11256076 2.4552376 0.29688632 0.9792461 0.004507323
0.9523102 1.0895854 0.92893755 1.118197 -2.5810437 0.032232422 0.5544181 1.5743161
-11.493495 -10.8699875 2.2290542 2.2536004 2.552012 2.3589342 0.08871063 -1.5711932
0.0003235395 -0.24922842 1.0798963 1.0862063 0.0716968 0.06721418 0.4425563 0.5416968
0.3179969 0.1247698 -1.5325148 0.00026384974 -0.1253009 1.1136303 0.92361677 0.0904632
0.04318796 0.19237097 0.21083021 0.10576645 0.08180041 -1.6852715 0.000323618 -0.16295378
0.9826873 0.98226017 0.1051528 0.032990593 0.42421073 0.47696325 0.28108385 1.9002875
-0.8348595 0.00026208168 -0.39091006 0.77081335 4.0323153 0.29646426 -0.13225746 0.9714364
1.5832258 0.6363962 0.13215193 -1.4427271 0.00030660257 -0.15886736 1.0931714 1.0310513
0.061598737 0.047005404 0.20835471 0.23271377 0.11605527 0.07813812 -1.6253281 0.00011709485
-0.108321 0.9165142 0.9736035 0.09081688 0.02945995 0.33808172 0.39908257 0.21263216
0.7892566 -0.9822687 0.0002869869 -0.23814678 0.106269054 2.6378984 0.65318763 0.7928819
1.1214654 1.3978974 1.0014914 0.11825062 -1.5515786 0.00031841244 -0.14528187 1.0828665
0.9018269 0.0467182 0.05344487 0.24805844 0.27287856 0.14157802 0.12314976 -1.5633724
0.00020435046 -0.060670715 0.8958688 0.91797763 0.115463585 0.029320292 0.24694836 0.2699468
0.14271183 0.224737 -1.621484 0.0003091518 -0.06021757 0.88387847 0.9218608 0.17051116
0.04440336 0.3084918 0.3209934 0.1870057 0.07696176 -1.7873055 0.00026758 -0.11761666
0.9738926 0.8204966 0.04797582 0.040483624 0.35390332 0.41681987 0.222825 0.3533698
-1.7609828 0.00025710612 -0.033941682 0.8622762 0.68759334 0.1877102 0.042967428 0.24388403
0.21583901 0.12676261 2.3048215 -3.933596 0.70499945 0.8654171 -0.038380157 -54.26067
2.399791 -7.1938148 3.0293684 3.0854433 2.9791508 0.09848139 -1.7634951 0.000173639

fc1.bias f4 [400]
00000000: 9257 6e3b 2247 463b 38d4 883e fa85 523b
00000010: 71a7 703b b502 653b f3a1 833b 0dec 6f3b
00000020: 87ac d43c e1fa 8d3f c689 853b c1b3 733b
00000030: f928 7a3b 1f6d ac3c 506e 763b 3685 623b
00000040: bdc2 cc3b 73e5 733b 502c 5b3b ac84 663b
00000050: eeae 6b3b e1ed 513b 86ec c23f 52d0 5a3b
00000060: c2b1 8f3b 72e2 593b c8ed 823b 88ce c53b
00000070: 87c6 4a3b 5ce0 963f 133e 583b 6d39 723b
00000080: 1d52 583b 883b 633b d176 783b ae21 643b
00000090: 3481 733b 6aaa 6d3b 92e5 803b 0e18 713b
000000a0: 656d 653b 1af7 723b 5f11 603b df56 9a3e
000000b0: 7854 603b 98e3 673b ce08 6a3b 8f6f 753b
000000c0: ad0c 723b c879 043f 5b9a 6c3b 34ee 823b
000000d0: 85eb 253c e73f 783b 6f9e 783b 6f95 303f
000000e0: 1c08 4140 60f5 703b 435e d93e be00 4f3b
000000f0: 4271 443b 30b7 893b 28ec 6d3b fbba 8f3b
00000100: 254a 653b bf6b 653b bfe7 6e3b 05af 753b
00000110: dae4 6d3b b833 6d3b e9e0 0e3e 9cef 6a3b
00000120: f704 693b fb01 6f3b c467 163e 5ed2 593b
00000130: 2db6 3f3f 0df0 6dbc ff8b 703b c86b 5e3b
00000140: aa60 823b 4abd 5f3b 2e84 673b 4ee0 533b
00000150: 25cb 803b cf8d 773b 8454 5e3b 7305 783b
00000160: 8fd6 643b df57 01bc 3a91 683b c3ce 763a
00000170: 5496 8e3f 2e04 003f 8ccb f23d 7616 643b
00000180: 7aad 3f3e 7668 6c3f 6bd3 623b 40d0 1e3f
00000190: 4bf8 11be c4f5 a53b 5ad1 743b 56fc 653b
000001a0: 1052 883e 30dc 563b cc08 5e3b 0495 5c3b
000001b0: a0f2 4e3b 8cde 16bf 06fc 703b efb6 963b
000001c0: 5510 6c3b 20eb 483d 8b2b 703b 5b7c a73b
000001d0: d061 8c3b a5eb 423b 9666 793b d929 783b
000001e0: 5e61 413b 1c03 c83f f3a8 423e ace4 853b
000001f0: 2d8f 593b a4fa 853b 7970 623b 78cf 663b
00000200: 4202 693b c51e 683b 1a8e 813b 6eef 883b
00000210: e9bd 753b b1a3 743b 6620 0d3f c67b 733b
00000220: 6c14 9e3e e507 833b c56a 003e 9047 773b
00000230: 5e52 7e3b 6e53 7f3b 313d 6f3b 7774 883a
00000240: d0df 5c3b 2b52 743b b934 4e3b a019 663b
00000250: be56 f4bc 4849 8c3b f633 043f f536 5c3b
00000260: ecec 5f3b 36fd 5c3b 298b 693e 74e1 7e3b
00000270: ddce 463b 104d 753b 1c7f 6d3b 661c 693b
00000280: 1dc0 5d3b 4769 533b 3c0f 733b 5dea 773b
00000290: 2360 6e3b 385a 703b 6bbe 733b 8c57 603b
000002a0: 8060 4d3b d131 723b af66 c73d 6569 d43b
000002b0: 428c 6f3b 402c 8c3b d03e 773b b08a 683b
000002c0: 53b1 2f3b a4c2 803b ff8a 5a3b f944 78bd
000002d0: d529 773b b242 563b ad8b d43b 50d0 5c3b
000002e0: e170 7e3b b3f1 5b3b efc2 d93e 4268 5e3b
000002f0: 3ce6 4f3b 9866 933b 84f6 5d3b f140 683b
00000300: 071a 6f3b d20c 833b 21f1 643b 928a 6b3b
00000310: a4d6 453b d18d 703b 2aed 7d3b 6cde 823b
00000320: f0cf 6a3b abb4 653b 536c 4b3b 7cf1 683b
00000330: 5d6f e8bd 7125 7b3b 02f5 983f e5fe 433b
00000340: 790d 633b d7f7 883b 2247 6f3b 4235 763b
00000350: 3f83 6f3b 7ea1 673b b0a6 9b3b 1592 7a3b
00000360: 5ca6 8b3b 6ecd 843b bd0c 6a3b 0df4 673b
00000370: c928 6c3b 4aa8 5b3b e191 7e3b a7dc 8d3b
00000380: 97cf 683b ee62 ab3b 5388 aaba a42d 5b3b
00000390: bdd4 5b3b 80a0 ca3f 12bc 713b a9ae 783b
000003a0: 8b00 823b d0ca 683b 1029 3a3b 9246 843b
000003b0: 64e5 a83f f8d3 723b dba8 933f 2112 5f3b
000003c0: 5c7f 3e3b 39b4 6b3b f5e7 353b 7ff0 763b
000003d0: ed95 743d c6f4 623b 1f3a 613b 3967 5e3b
000003e0: d5c1 723b ad4e 7d3b 4c40 733b 1426 633b
000003f0: ce05 613b 7ed4 5f3b 7b36 813b 5ef9 843f
0.0036368114 0.00302548 0.2672441 0.0032123313 0.0036720897 0.003494424 0.0040171086 0.0036609203
0.025961174 1.1092187 0.0040752618 0.0037186 0.0038171394 0.021048127 0.0037602372 0.0034564263
0.0062488005 0.003721562 0.003344316 0.0035174293 0.003596242 0.0032032656 1.5228431 0.0033388329
0.004385204 0.0033246544 0.003995631 0.0060365833 0.0030941085 1.1787219 0.0032995983 0.0036960498
0.0033007928 0.0034672935 0.0037912617 0.0034810114 0.0037155868 0.0036264905 0.003933617 0.003678802
0.0035007831 0.0037073554 0.0034190041 0.30144402 0.0034230035 0.003538346 0.0035710814 0.0037450527
0.0036933825 0.51748323 0.0036102745 0.003995681 0.010126953 0.0037879886 0.003793623 0.6897802
3.01612 0.0036767349 0.42454728 0.0031586136 0.0029974733 0.004202746 0.003630409 0.0043863035
0.003498682 0.0035006849 0.003645405 0.0037488353 0.0036299736 0.0036194157 0.13952984 0.0035848385
0.0035555938 0.0036469686 0.14688021 0.003323696 0.74887353 -0.014522565 0.0036704538 0.0033938754
0.0039788084 0.0034139925 0.0035326588 0.003232974 0.0039304667 0.0037773733 0.0033924887 0.0037845045
0.0034917926 -0.007894485 0.0035486952 0.0009414965 1.1139627 0.5000638 0.1185523 0.0034803427
0.1871852 0.92346895 0.0034610878 0.62036514 -0.14254873 0.005064698 0.0037356229 0.003509303
0.2662511 0.003278505 0.0033879755 0.0033658156 0.0031577721 -0.5893333 0.0036771311 0.004599444
0.0036020477 0.049052358 0.0036647047 0.00511126 0.004284121 0.0029742506 0.003805553 0.003786674
0.0029507498 1.5625949 0.19009762 0.0040860977 0.0033196912 0.0040887166 0.0034551902 0.0035218876
0.0035554324 0.003541873 0.0039537074 0.004178933 0.0037497228 0.0037329013 0.5512756 0.0037152632
0.30874956 0.003998744 0.1254073 0.0037731864 0.003880642 0.003895964 0.0036504979 0.0010410686
0.0033702739 0.0037280421 0.003146453 0.0035110489 -0.029826518 0.0042811967 0.51641786 0.0033602093
0.0034168316 0.0033720261 0.22806992 0.0038891705 0.0030335702 0.0037429966 0.0036239093 0.0035569905
0.0033836432 0.0032258795 0.0037087938 0.00378289 0.003637322 0.0036674868 0.0037192355 0.003423187
0.0031338036 0.0036955962 0.09736382 0.0064822906 0.0036552106 0.004277736 0.0037726648 0.0035483055
0.0026808574 0.003929453 0.0033347008 -0.060612652 0.0037714143 0.0032693562 0.006486377 0.00336935
0.0038824605 0.0033560812 0.42531535 0.0033936654 0.0031722924 0.004498314 0.0033868859 0.0035439099
0.003648402 0.003999331 0.0034933763 0.0035940749 0.003018775 0.0036705623 0.0038746097 0.0039938
0.0035829507 0.0035050313 0.0031039908 0.0035544327 -0.11349366 0.0038321877 1.194977 0.0029906568
0.0034645482 0.0041799354 0.0036510904 0.0037568365 0.0036546735 0.003534406 0.0047500953 0.0038234044
0.004261775 0.0040528094 0.003571316 0.0035393268 0.0036035052 0.0033517056 0.0038844275 0.0043292823
0.0035524124 0.005230299 -0.0013010598 0.0033443952 0.003354355 1.5830231 0.003688578 0.0037945902
0.00396735 0.0035521276 0.0028405823 0.004036733 1.3195004 0.0037052613 1.1535906 0.0034037905
0.0029067611 0.0035965575 0.0027756665 0.0037679968 0.059713293 0.003463076 0.0034366918 0.0033936037
0.0037041802 0.003865163 0.0037117181 0.0034660148 0.0034335735 0.0034153755 0.003943262 1.0388601

fc2.weight f4 [300, 400]
00000000: 3b02 0080 02c2 0b11 8aa6 0dbf ff6c 0080
00000010: 1d00 0080 b800 0000 c102 0080 a201 0080
00000020: 7c24 c5b4 a642 12c0 cc05 0080 f200 0000
00000030: 6801 0000 eba5 80be 6b02 0080 6b01 0000
00000040: ee5e 8339 5501 0000 f701 0080 0a01 0080
00000050: 5f00 0080 e2d9 f22c 6584 b5bf 4102 0000
00000060: 53a3 5eba 3501 0080 dc01 0080 2d38 a7bf
00000070: 5600 0080 4672 81c0 29b0 0bac e401 0000
00000080: ef00 0000 ae6d 0122 6018 48b8 b4aa 3f92
00000090: 6503 0000 d870 a71d c601 0080 8a01 0000
000000a0: e801 0000 e8bb 6c36 c543 3ab3 76ce 16c0
000000b0: 7f01 0080 8d00 0080 fef7 993a c107 0080
000000c0: 5f02 0080 915e 8dbf ae96 433b 9c01 0080
000000d0: a027 75c0 5504 0080 6d01 0080 81e5 a93f
000000e0: defd 1d40 0e01 0080 a29f 1abf 0d00 0080
000000f0: 3501 0080 8b01 0000 5d01 0080 632e 34b7
00000100: ea00 0000 1311 0431 5700 0080 9301 0000
00000110: ad01 0080 0600 0000 38aa 72bc ea01 0080
00000120: fe00 0080 f701 0080 1e16 44be 4002 0000
00000130: aeec 57c0 8222 c1bf 5606 0080 dd05 0000
00000140: 3104 0000 f401 0080 4b08 0080 6801 0000
00000150: 3e00 0000 0400 0080 5102 0080 1b05 0000
00000160: 56aa 47b3 7c32 47be 98eb 548a 9830 a501
00000170: ca3e 97be fb6f f8bf d569 993d be00 0080
00000180: 1e67 79c0 5faf 39c0 033d 2a0d 9623 9cbf
00000190: 8153 15c0 0602 0000 0573 25bc dc04 0080
000001a0: 492f b6bd aa41 0000 eb04 0000 7f04 0080
000001b0: d7b8 3534 8303 e3bf cf02 0080 1d01 0000
000001c0: 41d9 e23c db28 7e3f 1202 0080 7916 a132
000001d0: 3d02 0000 ba02 0080 3502 0000 4200 0000
000001e0: 8ccf 5501 7051 5bc0 eed3 f73e 3804 0000
000001f0: c900 0000 df00 0000 7b01 0080 9f50 a99d
00000200: 3e18 0000 0005 0000 ed05 0080 b709 0080
00000210: 9305 0080 c3bb 4eac 101c afbf 11a6 8d1c
00000220: fba8 e8bf 9703 0000 38ab 8abf b701 0632
00000230: 1d1d ce38 7a7e 963b faa4 7d3c 26f4 c2bc
00000240: c607 0000 9e51 c5b5 eb02 0000 a3aa a41b
00000250: 72b2 82bf e402 0000 dfb8 563f 89a1 8732
00000260: 8205 0080 3804 0080 d8f6 fe3c 7004 0000
00000270: 9c52 49ba 4e01 0000 5b02 0000 1e07 0000
00000280: 5676 3e24 5670 393a 75b1 87b5 8402 0080
00000290: 1e02 0000 f2a4 b5b6 4084 04a3 b402 0080
000002a0: 2102 0080 3903 0000 e3de e4bf 1f25 7abe
000002b0: ed04 0000 ed03 0080 7e00 0000 0308 0000
000002c0: 7a06 0080 33c5 8130 c400 0080 4a32 5bc0
000002d0: da04 0080 ff00 0080 f70f 113a 5b1f b635
000002e0: 24ae 4a3c de02 0000 bf19 b4bf 8a02 0080
000002f0: 6b67 71b0 d59a 183c dda8 cd3b a301 0080
00000300: 6e00 0000 4302 0080 f004 0000 de02 0000
00000310: 0d02 373b 3607 0080 c51d 823c c401 0080
00000320: 9802 0080 f800 0080 5b09 0000 6302 0080
00000330: d45c bbbe 3501 0000 dcfb 233d 5e05 0000
00000340: 8264 b93b 1d02 0080 7501 0080 a304 0080
00000350: 2d01 0080 e302 0000 4000 0080 de56 bc27
00000360: 0300 0080 3002 0080 ce68 bcb9 7ca0 7abb
00000370: 840a f335 1201 0000 69ee 87ac 3a81 c8ba
00000380: a202 0000 b967 9526 58b2 b0bc 3b04 0080
00000390: c406 0000 a2cb 81c0 a9c6 f4b7 6506 0080
000003a0: 6227 609e 0102 0000 d29a c2b9 3804 0000
000003b0: e1a7 b9bf 2802 0080 99f1 eb3f 8301 0080
000003c0: 8a78 0d2a ae01 0080 51cd bfb9 9b07 0080
000003d0: 7634 57bf 1505 0000 7f02 0080 a901 0080
000003e0: 7201 0000 8e00 0000 c201 0000 03ed 6e06
000003f0: b105 0080 6902 0080 aa09 0000 6d52 d3bd
-8e-43 1.102495e-28 -0.55332243 -3.91e-41 -4e-44 2.58e-43 -9.88e-43 -5.86e-43
-3.6720655e-07 -2.285318 -2.08e-42 3.39e-43 5.04e-43 -0.25126585 -8.67e-43 5.09e-43
0.00025056995 4.78e-43 -7.05e-43 -3.73e-43 -1.33e-43 6.9022435e-12 -1.4181029 8.09e-43
-0.0008492965 -4.33e-43 -6.67e-43 -1.3064018 -1.2e-43 -4.0451994 -1.9850877e-12 6.78e-43
3.35e-43 1.7540824e-18 -4.7706417e-05 -6.047938e-28 1.218e-42 4.432121e-21 -6.36e-43 5.52e-43
6.84e-43 3.5276116e-06 -4.3368136e-08 -2.3563514 -5.37e-43 -1.98e-43 0.0011746881 -2.782e-42
-8.5e-43 -1.1044484 0.002984445 -5.77e-43 -3.8305435 -1.554e-42 -5.11e-43 1.3273164
2.4686198 -3.78e-43 -0.6039983 -1.8e-44 -4.33e-43 5.54e-43 -4.89e-43 -1.0739636e-05
3.28e-43 1.9218234e-09 -1.22e-43 5.65e-43 -6.01e-43 8e-45 -0.014811091 -6.87e-43
-3.56e-43 -7.05e-43 -0.19149062 8.07e-43 -3.3738208 -1.5088656 -2.273e-42 2.103e-42
1.504e-42 -7e-43 -2.975e-42 5.04e-43 8.7e-44 -6e-45 -8.31e-43 1.831e-42
-4.6488218e-08 -0.19452852 -1.0251739e-32 6.0681156e-38 -0.29540092 -1.9409174 0.07490889 -2.66e-43
-3.8969188 -2.9013288 5.2458735e-31 -1.219836 -2.3332217 7.26e-43 -0.010098224 -1.743e-42
-0.08895738 2.3556e-41 1.764e-42 -1.613e-42 1.6924183e-07 -1.7735447 -1.008e-42 4e-43
0.027691485 0.9928109 -7.43e-43 1.8753086e-08 8.03e-43 -9.78e-43 7.92e-43 9.2e-44
3.927083e-38 -3.4268456 0.48403877 1.513e-42 2.82e-43 3.12e-43 -5.31e-43 -4.4817288e-21
8.696e-42 1.794e-42 -2.126e-42 -3.485e-42 -2e-42 -2.937859e-12 -1.3680439 9.373524e-22
-1.8176569 1.288e-42 -1.0833502 7.8002165e-09 9.828268e-05 0.004592714 0.015481228 -0.02379806
2.789e-42 -1.4701398e-06 1.047e-42 2.7241795e-22 -1.0210707 1.037e-42 0.8387584 1.5789526e-08
-1.976e-42 -1.513e-42 0.031123564 1.592e-42 -0.0007679851 4.68e-43 8.45e-43 2.553e-42
4.1299917e-17 0.00070739293 -1.0109931e-06 -9.02e-43 7.6e-43 -5.4134225e-06 -7.183739e-18 -9.7e-43
-7.64e-43 1.156e-42 -1.788052 -0.24428223 1.767e-42 -1.408e-42 1.77e-43 2.874e-42
-2.323e-42 9.442033e-10 -2.75e-43 -3.4249444 -1.74e-42 -3.57e-43 0.000553369 1.3569182e-06
0.01237062 1.029e-42 -1.4070357 -9.11e-43 -8.7822255e-10 0.009314259 0.0062762336 -5.87e-43
1.54e-43 -8.11e-43 1.771e-42 1.029e-42 0.0027924806 -2.587e-42 0.015883336 -6.33e-43
-9.3e-43 -3.48e-43 3.356e-42 -8.56e-43 -0.3659426 4.33e-43 0.040035114 1.925e-42
0.0056577334 -7.58e-43 -5.23e-43 -1.663e-42 -4.22e-43 1.036e-42 -9e-44 5.2274664e-15
-4e-45 -7.85e-43 -0.0003593624 -0.0038242629 1.8107971e-06 3.84e-43 -3.8633996e-12 -0.0015297302
9.44e-43 1.0367066e-15 -0.021569416 -1.518e-42 2.427e-42 -4.0561075 -2.9179575e-05 -2.294e-42
-1.18666054e-20 7.19e-43 -0.00037117914 1.513e-42 -1.4504358 -7.74e-43 1.8433105 -5.42e-43
1.2565136e-13 -6.03e-43 -0.00036583332 -2.728e-42 -0.84064424 1.823e-42 -8.95e-43 -5.96e-43
5.18e-43 1.99e-43 6.3e-43 4.4936954e-35 -2.042e-42 -8.65e-43 3.467e-42 -0.10318456

fc2.bias f4 [300]
00000000: 7e6b 9dbf 6508 d53d e0d4 373d 2b94 283e
00000010: 3d0d 363e 6c8d c0be 93e0 173f 4a8e 1040
00000020: 7620 02bf f42b 33c0 d65b 9abc 69e0 b73b
00000030: 70f1 383e 81be de3e 5beb 1bbf 249a eebe
00000040: 1137 26c0 dd66 85c0 e3a1 91bc a8b6 8e3e
00000050: 436b bd3d f1ce 36bd 1946 35bf 0302 d7bd
00000060: 1308 bdbe 2003 f63c 2cad 553e 6511 0e3e
00000070: 556b df3d 3d66 3ac0 7a74 92c0 b365 323e
00000080: c5ad b7be 1b72 edbf 04d6 1e3d cf0f 97be
00000090: 0246 b03f a524 3d3e 5dbe 743c f48e 8f3c
000000a0: de77 453f 8b85 2c3e 941d e5bf 2533 043e
000000b0: d779 313e 52c5 c5bf e391 323e dc5f e8be
000000c0: 1334 d23e 019f cbbf 6076 6ac0 1d77 fbbc
000000d0: d615 023e 5eb8 75bf 06e0 17bd 39dc 243e
000000e0: 06f2 0e3e cb5e 58bf f5be c93f 8aff 983e
000000f0: 1326 143e 187e 183c 0fc3 bb3d d5dc 843d
00000100: 7952 de3d 898b 913e 94a5 813f 271a edbe
00000110: 9a81 173c 24a3 df3f a5ed 88bf 29f4 babe
00000120: ac5f cc3e fb98 9b3e 61dc e13d 22ef 443e
00000130: 9d76 0abf ced7 ad3f 425d 24bd afe3 ec3d
00000140: 85f4 b13d 26dc f0be b247 25bf 9405 313e
00000150: 6e11 2bbe d910 e2bf cb1e e43d abae 0bc0
00000160: ba02 ddbe 3c2c 1640 9a0f 9c3f 5f2f cf3e
00000170: e68f 71bc 988a e03e 51fe 22bd 917d 5dc0
00000180: 79a3 cfbd 1e9c 1b3e 1097 083e 88cb cdbf
00000190: 2a8d febe a42a 42c0 e92c 5f3c 94aa 2e3e
000001a0: 4fac 393e 8363 503e c362 3a3e 26f4 2a3e
000001b0: 7515 333e bff5 34c0 c496 283e bf10 153e
000001c0: c1f8 41bd 5d41 f0bb da47 933f 7c11 51bc
000001d0: 15d6 2a3e 53b4 0c3e 5340 a83b a90b 80be
000001e0: f70b f93e 2016 4a3d 8912 cd3e 215d 81bf
000001f0: 7ec5 853f 1e24 a7bf e95a bebc 62ae b73f
00000200: 2bcc 5abe cd55 0dbf 89c8 15c0 cd62 283e
00000210: b595 24be fb4d 34bd 9e6d 2740 a1d3 82bd
00000220: 08a7 8dbe a552 afbf 07e1 133e 2e0d 393e
00000230: 5bb3 f1bd cb95 373e 8370 3f3e 95ff 2d3e
00000240: 9d06 5f3e 7efd 1bc0 c199 45bd d83c 27c0
00000250: 2541 febe 46e7 a0bd 4185 953d 535a 003e
00000260: 748f ccbf d187 743f cf53 2f3e 7f1a 133e
00000270: 366d 043e 3c80 fc3f e625 073e 345a 4040
00000280: 6177 17bd 9f17 3a3e 7c0f 293d df1a 0e3e
00000290: 7c8f acbf dbfc 393e 9341 01bf 7e67 d6ba
000002a0: c73a 14c0 bffb e13d 62ce 963c c20e 333d
000002b0: bd06 8cbf fe07 863f 79d2 3dbf b68c ce3e
000002c0: 23ac 2b3e 4f0d 033e 58c0 2e3e 0fd6 bfbd
000002d0: 8b74 9e3f 5353 083e 66f7 773f 6531 0e3e
000002e0: 51a5 0cc0 7ed9 32be ce68 343e 0de2 71bf
000002f0: 5a28 3c3e d513 e9bc c826 393e 5e58 26bd
00000300: 7f4b 343e 5442 303e 0e53 713f e1ed 273e
00000310: 8c23 5f3e 0bc4 e03d e1f5 123e 5691 1b3e
00000320: 8383 c23e 9b73 34bd 7de3 3ebf 7414 883f
00000330: 46af 18be 1405 0c3f e347 da3d c0fa 283e
00000340: 4fc5 5e3c c3f1 df3d a85d d5be bfa4 0fc0
00000350: 933f 69bf 5904 a73d 25e1 06c0 c2d4 763c
00000360: 3579 00c0 90ff 033e db02 5d3f 71a0 dd3c
00000370: e76f 84bf 1ae4 2b3e b814 5a3d 275f 023e
00000380: 1fa3 5d3d 60ef f1bf e629 0c3e cbe8 90bf
00000390: 5023 013e adc7 503d 75ee 323e 3dc5 b3bc
000003a0: 7b80 263e ed33 0340 e774 10be 3a5f 16be
000003b0: af3d a5bd 76e7 943d f2f6 b8be 90e2 5fbe
000003c0: 50fb 1fbd 86ca 3fc0 7afa 8f3f 84d7 503f
000003d0: b961 fd3d a88c 233e c6e0 393f 9446 39bf
000003e0: 3c8d 123f cc6c 8abe 0a82 6d3d fe80 843e
000003f0: aff7 f7bd 3755 253e d302 1bbe 0f94 793d
-1.2298429 0.10401992 0.044880748 0.16462772 0.17778488 -0.37607896 0.5932705 2.2586846
-0.5083078 -2.7995577 -0.018842619 0.0056114686 0.18060851 0.43504718 -0.60906 -0.46601975
-2.597111 -4.1688066 -0.017777389 0.2787373 0.09248974 -0.04463095 -0.70810086 -0.104984306
-0.36920223 0.030030787 0.20866841 0.13873823 0.10909144 -2.9124901 -4.5767183 0.17421608
-0.35874763 -1.8550447 0.03877832 -0.29504248 1.3771365 0.1847101 0.014937964 0.01752422
0.7713603 0.16847818 -1.7899652 0.12910135 0.17331634 -1.5450842 0.17438464 -0.45385635
0.41055354 -1.5907899 -3.663475 -0.030696446 0.12703642 -0.95984447 -0.03707888 0.16099633
0.13959512 -0.8451964 1.57614 0.2988246 0.14467649 0.009307407 0.09168064 0.06487433
0.10855574 0.2842677 1.0128655 -0.46309015 0.009247208 1.7471662 -1.0697523 -0.36514404
0.39916742 0.30390152 0.11028362 0.19231847 -0.5408724 1.3581483 -0.040128 0.11566865
0.086892165 -0.4704296 -0.64562523 0.17287284 -0.16705868 -1.7661391 0.11138686 -2.182536
-0.43166143 2.3464499 1.2192261 0.4046583 -0.014743781 0.4385574 -0.039793316 -3.460789
-0.10138602 0.15196273 0.13338876 -1.6077738 -0.49717075 -3.0338526 0.013621547 0.17057258
0.18132137 0.2035046 0.18201737 0.16694698 0.17488654 -2.8274992 0.16463763 0.1455717
-0.04735637 -0.0073320107 1.1506302 -0.012760516 0.16683228 0.13740663 0.005134621 -0.25008896
0.4864194 0.049337506 0.40053204 -1.0106546 1.0450895 -1.3057897 -0.023236709 1.4350092
-0.21366946 -0.55209047 -2.3403647 0.1644394 -0.16072734 -0.04401968 2.6160655 -0.06388021
-0.27666497 -1.3697096 0.1444131 0.18071434 -0.118017875 0.17928235 0.18695264 0.16992028
0.21779867 -2.437347 -0.048242334 -2.6130886 -0.49659076 -0.07856612 0.07300807 0.12534456
-1.5981278 0.9551974 0.17121814 0.14365576 0.12932286 1.9726634 0.13198051 3.0055056
-0.036979083 0.18173073 0.041274533 0.13877438 -1.3481288 0.18162863 -0.50490683 -0.0016357747
-2.3160875 0.11034345 0.018408958 0.043715246 -1.0939556 1.0471189 -0.7414928 0.4034173
0.16764884 0.12798046 0.17065561 -0.09367 1.2379316 0.13313036 0.96861875 0.1388603
-2.19759 -0.17465779 0.17618105 -0.9448555 0.18374768 -0.02845184 0.180812 -0.040611617
0.17606924 0.17212802 0.94267356 0.16399337 0.21790904 0.10974892 0.14351608 0.1519216
0.3799096 -0.044055562 -0.7456587 1.0631242 -0.14910612 0.5469525 0.106582426 0.16501904
0.013596847 0.10934784 -0.41673017 -2.2444303 -0.9111263 0.08155126 -2.1074917 0.015065374
-2.007398 0.12890458 0.8633248 0.027054043 -1.034665 0.16786233 0.053242415 0.1273161
0.054110643 -1.8901176 0.13687858 -1.1321043 0.12611127 0.050971676 0.17473777 -0.021944636
0.16259949 2.0500443 -0.14107095 -0.14684764 -0.08068406 0.0727071 -0.36125904 -0.2186377
-0.03905803 -2.996736 1.1248314 0.8157885 0.12372155 0.15971625 0.726086 -0.7237332
0.57246757 -0.2703613 0.057985343 0.25879663 -0.12107789 0.16145788 -0.15137796 0.060932215

bn1.weight f4 [400]
00000000: 1c29 40b0 3f24 1f3c f454 08c0 445f 7838
00000010: 4d4a 90b3 8316 4da0 59bb df25 88c6 c8b3
00000020: 30dc 9ebf 1996 8b40 f400 0000 ed33 95b2
00000030: 2101 0080 187c 6e3f fe10 e881 6d1a 8135
00000040: 0150 103a 0451 a4ae bc2b 61b8 932a 2eb4
00000050: 34ba ff8a 2fbc 9a2e 7ad2 8b40 0a77 22b7
00000060: 46f6 653d 6e49 cab7 a302 0000 7424 5c40
00000070: c33e f5ac b63d e93f 5bbd 33ad 7fc5 85ae
00000080: 078a 86b7 8004 cb9f c790 94b8 f54a ff1c
00000090: 4400 0080 c24a a59e 3f00 d0ba 8702 0000
000000a0: 8c71 f6a9 39b2 0b36 4994 50b3 51f4 2140
000000b0: 4fff 12b8 c000 0000 56a9 043d f701 0080
000000c0: 6d98 de04 af92 25c0 0bbf b03c 84fe aba0
000000d0: db4c b83f 1102 0000 942e a0b1 3877 8840
000000e0: fdc0 b240 d927 32b5 09ff 3340 1700 0000
000000f0: a3cc efb2 bc52 c336 7802 0080 280a 1e3a
00000100: fabc 463a adb0 5e32 a60c afb8 fd47 79aa
00000110: ac99 a4af bddb 2ba4 bcfc 67bf 4d02 0000
00000120: 2b74 15aa d000 0000 31bd 5040 a8ba b8b4
00000130: 0c74 4cc0 3f72 6a40 a546 a283 3b8b 4096
00000140: eb01 0000 137e 4837 b300 0000 2d8d fdba
00000150: 2e34 2631 9300 0000 949b 9cb5 676e 0080
00000160: d830 5a34 8a50 b63f f131 6313 6d50 af3a
00000170: 51da c440 e424 883f 2955 a1bf 06ae 79b8
00000180: c13c 3641 b66b 9e3f e8c4 608e 9a40 1340
00000190: 3cf4 3240 9e4a 1fbd 69c5 013e 8fc4 9585
000001a0: 7ba5 ce3f ce89 7cbb a2a0 35b6 66d6 8f91
000001b0: 7272 70b9 14b1 c13f 5302 0000 dec6 48b7
000001c0: 710f c1bb 8507 ba40 3d69 7701 67af 9635
000001d0: e1f6 1338 3073 1ca3 28e7 2814 36c8 088b
000001e0: 6a02 9f3a 9ee8 6740 acf0 0840 7635 8181
000001f0: 550e d1b3 9d10 9c34 86bc 0ca7 094b 8a9e
00000200: 0305 2cac 697d 0080 6701 0080 4401 0000
00000210: a800 0000 23ef 0c2e a642 a03c d537 f535
00000220: 900e 4340 b10f 0080 116a a33f 3bbc 94b6
00000230: 6e44 663c e101 103d 09ed 283e f720 b13d
00000240: cbf6 c080 220f 38b6 af05 adaf 5406 331d
00000250: e2b8 b640 230e 0080 68cd 9a40 5d53 c6b8
00000260: 8601 1aa7 a527 8796 164a 7e40 0700 0000
00000270: 30bb 1e3d fc4f 0984 c71a 0fa9 5ef7 8615
00000280: 83f5 5ea3 eee6 22bb 2313 a8b5 3f00 0080
00000290: 5d01 0080 b60b 2ab7 40a4 e1a3 55fb 1d82
000002a0: 3823 d3b6 6702 0000 7b09 6c40 1307 863f
000002b0: 4173 4807 b966 da0e 01ac 3807 bb09 5682
000002c0: a128 883b 679a aa31 9455 c7ad 44dc 0040
000002d0: 6802 0000 2e31 3eb6 051f a3bd 6aaa 2135
000002e0: 9f23 553b f4c5 dab8 541b 0540 35d0 0aad
000002f0: 6285 b132 9c19 1a3e 2b00 af3d f322 39b7
00000300: 12e9 afb6 f541 442e 5a23 0000 c591 2500
00000310: 8671 b83d 5a88 6310 867e 813e d600 0000
00000320: d34f b2b3 de69 2ab8 8024 8fba 76ff 82b7
00000330: 1faf cd3f 0f02 0080 34c6 4540 fb09 a609
00000340: 22fe f13c c0c9 1982 b701 0080 b24d b981
00000350: 1a09 9d09 becb 30b3 15f3 5830 b32d e328
00000360: e353 e830 60bb b927 d033 d33b 4ab0 7e3c
00000370: 0156 8e3a 26b4 a9b6 7083 172b 065b 2a3c
00000380: 14f8 9387 fda1 d72e b3e0 e93f 1980 481a
00000390: 16da b6b5 0a38 e93f 5927 cd38 3803 0080
000003a0: 416c a837 c76a 18b7 de5e 9f3a 653f 0000
000003b0: 3529 d13f f169 ed96 ed98 8340 24a1 52b8
000003c0: c6a2 0db7 580a 5e93 39a2 93bc eb09 0080
000003d0: 7fcb 03c0 0c02 0000 d404 8cb5 5ac6 5bb8
000003e0: 1c62 22a7 8a15 0000 14d5 3b39 d930 9238
000003f0: edb1 0180 b0c5 2bad b146 5bb7 f85f b440
-6.9907613e-10 0.009713232 -2.1301851 5.921653e-05 -6.719038e-08 -1.7371624e-19 3.8811285e-16 -9.3493384e-08
-1.2410946 4.3620725 3.42e-43 -1.7369496e-08 -4.05e-43 0.931581 -8.5247723e-38 9.61894e-07
0.00055050856 -7.472248e-11 -5.368491e-05 -1.6220501e-07 -2.4625649e-32 7.036537e-11 4.369443 -9.683668e-06
0.056143068 -2.411447e-05 9.46e-43 3.439725 -6.9702868e-12 1.8221958 -1.0217017e-11 -6.083222e-11
-1.6038319e-05 -8.598129e-20 -7.084157e-05 1.689386e-21 -9.5e-44 -1.7500974e-20 -0.0015869214 9.07e-43
-1.0944292e-13 2.0816353e-06 -4.856364e-08 2.530537 -3.5046887e-05 2.69e-43 0.032388054 -7.05e-43
5.233193e-36 -2.5870779 0.021575471 -2.913695e-19 1.4398454 7.41e-43 -4.661908e-09 4.264553
5.586058 -6.6368153e-07 2.812441 3.2e-44 -2.791632e-08 5.8210844e-06 -8.86e-43 0.0006028735
0.000758126 1.2962272e-08 -8.347006e-05 -2.2140619e-13 -2.9940617e-10 -3.726584e-17 -0.9062002 8.25e-43
-1.3274162e-13 2.91e-43 3.2615473 -3.440848e-07 -3.194583 3.663223 -9.537723e-37 -1.555357e-25
6.88e-43 1.1950283e-05 2.51e-43 -0.0019344442 2.418584e-09 2.06e-43 -1.1668185e-06 -3.9605e-41
2.0320601e-07 1.4243329 2.8676051e-27 0.0013375409 6.15165 1.0636258 -1.2604114 -5.9528298e-05
11.3898325 1.2376621 -2.7704939e-30 2.300818 2.796157 -0.03888952 0.12672962 -1.4084097e-35
1.6144251 -0.0038534286 -2.7064602e-06 -2.2693555e-28 -0.00022930818 1.5132165 8.34e-43 -1.1967231e-05
-0.0058917333 5.813418 4.544224e-38 1.122692e-06 3.5277455e-05 -8.481169e-18 8.52742e-27 -2.634327e-32
0.0012131457 3.6235728 2.1396894 -4.746383e-38 -9.734928e-08 2.9069352e-07 -1.9531102e-15 -1.4642352e-20
-2.4445452e-12 -4.4989e-41 -5.03e-43 4.54e-43 2.35e-43 3.204471e-11 0.01956303 1.8270172e-06
3.0477638 -5.629e-42 1.2766744 -4.4326566e-06 0.014054401 0.035158042 0.16496672 0.08648866
-1.7720948e-38 -2.7426945e-06 -3.1472555e-10 2.3693724e-21 5.7100687 -5.071e-42 4.837574 -9.456903e-05
-2.137262e-15 -2.1835446e-25 3.9732718 1e-44 0.038752735 -1.6141e-36 -3.1775604e-14 5.4512446e-26
-1.2086633e-17 -0.0024856883 -1.2522545e-06 -8.8e-44 -4.89e-43 -1.0135516e-05 -2.4464111e-17 -1.1606667e-37
-6.29239e-06 8.62e-43 3.6880786 1.0470909 1.5080198e-34 5.3840067e-30 1.3893169e-34 -1.572503e-37
0.004155234 4.9652047e-09 -2.2661685e-11 2.013444 8.63e-43 -2.8340833e-06 -0.07964901 6.022516e-07
0.0032522453 -0.00010431922 2.079793 -7.890623e-12 2.0666167e-08 0.15048832 0.08544954 -1.10349965e-05
-5.2425394e-06 4.4623822e-11 1.2682e-41 3.450206e-39 0.09006028 4.4872898e-29 0.25291842 3e-43
-8.303291e-08 -4.0629755e-05 -0.0010920912 -1.5616166e-05 1.6069068 -7.38e-43 3.0902224 3.9972432e-33
0.029540125 -1.1298564e-37 -6.15e-43 -6.8069754e-38 3.7804934e-33 -4.1163496e-08 7.892578e-10 2.5221882e-14
1.6904064e-09 5.1550967e-15 0.0064453855 0.01554496 0.0010859371 -5.0575645e-06 5.3828383e-13 0.010397678
-2.226391e-34 9.805843e-11 1.8271698 4.1462507e-23 -1.3623528e-06 1.8220227 9.782491e-05 -1.155e-42
2.007757e-05 -9.084767e-06 0.001215901 2.2742e-41 1.63407 -3.8356274e-25 4.1124177 -5.0217976e-05
-8.442154e-06 -2.802544e-27 -0.01802169 -3.558e-42 -2.0592954 7.34e-43 -1.0432218e-06 -5.2398398e-05
-2.2535201e-15 7.727e-42 0.00017913088 6.970921e-05 -1.55663e-40 -9.76412e-12 -1.3069876e-05 5.636715

bn1.bias f4 [400]
00000000: e2d1 ecb9 83e7 40bb 6184 bdbe 9569 5fb9
00000010: 3762 b0b9 c05a 83bb 8991 bcb9 882e 8cb9
00000020: d004 653c 26c6 6e3f 6670 33af da41 0dba
00000030: e206 4eb5 dc8d 153f ff0d 50ba f343 37ba
00000040: b41b abbc 0c51 97b9 dfdf 3cba f9b9 35b8
00000050: cb86 20b6 36d0 4eaf cb3c ca3f 69a9 feb9
00000060: ae5d dd0a 2d3a 4bba d04f cab9 19ac 0e3f
00000070: 7426 b1b4 c2a5 55be bb9d 31ba abd5 c5b9
00000080: 0ff3 d7b7 7b1f 0522 5c3a 05ba db33 feb6
00000090: c6ff 5db1 02a9 12b2 a57e f3bb 968d 38ae
000000a0: 87ec 6db8 6659 f1b7 cf32 78b5 329e 94be
000000b0: 536f 4cba 0b89 bdb6 abf6 1d3d ccca 2eaf
000000c0: dd6c 80b6 6601 0080 9523 ca3d 1c6d 03ba
000000d0: afab 043f 6684 0fb8 4437 1dbb f50b 713f
000000e0: 410e 8440 295f 64b9 4bcf f43e d6b0 d9a2
000000f0: 65db feb5 4a11 c2b9 a43b 70a9 cdfc 2637
00000100: 24eb 9cbb 9826 eabb 3542 1dbb 8a06 51b8
00000110: ad25 1fbb c875 50b9 c9ad bf3e 466c 32af
00000120: 58eb 75b8 420d 9bb6 7f3a 0a3e f24c 83b9
00000130: e06c 15bf e55d f6be e4b3 09b3 d23c 32af
00000140: 5e0f 03b1 d2e1 2ab8 abf1 6aae 353a 83bb
00000150: 379e 5aba 5f7c 33af aa80 32b8 07c4 ebb2
00000160: 8a42 d2b5 7d22 ab3f d5cb 4ab4 9ba1 a4bb
00000170: 18b7 c63f 4e90 9abe 42c1 813d 0f5a ebb9
00000180: c836 7f3f f2d9 31bf 21f4 9aa8 79b0 1240
00000190: efcb 40bf b74d 04bd 1b0a 843e 7457 32af
000001a0: fc4c 2040 057c 95bb 3117 a0b9 5802 81b9
000001b0: 9bb5 66bc 42f2 3d40 966a 2caf 5e40 86b9
000001c0: 4d09 5b3e e84a 693e 87e8 85b8 3d89 feb5
000001d0: 17f3 3bba 3dae 9fb0 0831 c6b9 1c40 44ba
000001e0: d599 93bb baab 963f eec5 223e f171 99b0
000001f0: 2f94 05ba 8693 2ab9 168d 58b4 982d 99b8
00000200: 6d70 27b8 7a70 559f 8674 79b7 c675 44a7
00000210: 4e81 32af eb51 b3bb 96f6 dabd 6333 14b6
00000220: 97b8 2140 c71e a3b7 5d55 30c0 e770 3d32
00000230: 88c2 c63d 5786 4b3d 6555 0f3e 0f85 ffbc
00000240: de59 32af f0d4 a7b8 93d8 dbb5 a5e1 dcba
00000250: f877 52be c5f3 11a9 f74f 703f 6826 a7b7
00000260: 4702 a5b3 a06e dbae a779 b93f 4c1f 07b6
00000270: 92e2 cf3c f8ac ccb9 1fb9 89b7 5a92 99b1
00000280: 1a75 e6ba c9f5 cb3c a8e1 60b7 b204 64b9
00000290: 2537 8bb9 116c 2dbb bef9 46a3 c366 1baf
000002a0: f3e1 0db9 1380 b6b8 8038 86bf 4790 8d3f
000002b0: 83ed 0ab3 3c26 04b1 32f1 09b9 09d6 8eb2
000002c0: 1c65 05bc 41b4 91b3 3fd0 82b6 f5c2 523e
000002d0: f1e7 29aa 9060 a6b9 7f83 b23c d53b e0b7
000002e0: 63d8 db3d 7d9b 30ba 9ffa 6b3f 93a3 b2b9
000002f0: 7286 c0b3 3360 b23d b2f2 f13d efa2 0db9
00000300: 5882 92b9 5209 32ba f1cd aaae cce4 56b8
00000310: 325a 8b3d 7d36 c5b6 46dd 3a3e c246 32b2
00000320: 766c ccb9 0408 e3b7 1a1b cdba 9aab 5eba
00000330: 2722 ec3f b8c4 e7b8 55a5 afbd aa50 32af
00000340: bad1 b63d 5882 e9b8 b93c 4fb6 ec8e 19bb
00000350: 08eb ddb9 215e b6b8 65ae bcb3 e07c f9bb
00000360: 35de abb8 a8c7 26b9 2e0b cc3b adea 233d
00000370: ddba 1c38 d30d a1b9 ec86 95ad d855 7abc
00000380: b3b6 95b7 12fd 6faf 8214 85bd 6983 bab1
00000390: 60bf 05ba 579c edbe 5b52 57ba f37c 5aae
000003a0: 3775 3ebc 6f9a 51ba 1f6f 52b9 48a1 32af
000003b0: 57f5 ffbe f939 fcb9 73fe d83f 813d b4b9
000003c0: 85ad 0ebb eda9 82b7 e9d9 90ba 7663 32af
000003d0: 702d 01bf 4c71 32af 57aa 95b9 3d3d f9b9
000003e0: b875 52ba e6c2 48b4 7602 9bbb be5c a2b8
000003f0: 7902 e2b8 b46c cfb7 1fa7 24bb 3323 1fbe
-0.00045169803 -0.0029434867 -0.3701506 -0.0002130627 -0.00033642512 -0.004008621 -0.00035966586 -0.0002673755
0.013978198 0.932711 -1.6319887e-10 -0.0005388536 -7.6750996e-07 0.58419585 -0.0007936656 -0.0006991021
-0.020887233 -0.0002886135 -0.000720499 -4.3326963e-05 -2.3920318e-06 -1.8809562e-10 1.5799803 -0.00048572876
2.1316764e-32 -0.00077525043 -0.00038587907 0.5573135 -3.2996797e-07 -0.20864013 -0.0006775518 -0.00037733963
-2.574318e-05 1.8041527e-18 -0.00050822436 -7.5758267e-06 -3.2305123e-09 -8.536746e-09 -0.0074308687 -4.196251e-11
-5.6725487e-05 -2.8771068e-05 -9.2461136e-07 -0.29026943 -0.0007798571 -5.648593e-06 0.03856532 -1.5897256e-10
-3.8273706e-06 -5.02e-43 0.09870068 -0.0005013512 0.5182447 -3.4217162e-05 -0.002398924 0.9415887
4.12674 -0.00021779224 0.47814402 -5.90052e-18 -1.8988327e-06 -0.00037015445 -5.3342435e-14 9.953231e-06
-0.004788773 -0.007145714 -0.0023995761 -4.9835573e-05 -0.002428393 -0.00019880303 0.37437275 -1.6227472e-10
-5.8631733e-05 -4.6209034e-06 0.13498877 -0.00025043596 -0.58369255 -0.4811851 -3.2061408e-08 -1.6210613e-10
-1.9071744e-09 -4.074147e-05 -5.3420084e-11 -0.0040047416 -0.0008339616 -1.632414e-10 -4.2558335e-05 -2.7446744e-08
-1.5665585e-06 1.33699 -1.888687e-07 -0.0050241477 1.5524626 -0.3018822 0.06335689 -0.00044889792
0.99692965 -0.69473183 -1.7203309e-14 2.292021 -0.7531118 -0.032300677 0.2578896 -1.6220075e-10
2.5046988 -0.0045619034 -0.00030534857 -0.00024606544 -0.014081384 2.9679112 -1.5681176e-10 -0.0002560643
0.21390267 0.2278248 -6.385246e-05 -1.8964416e-06 -0.0007169707 -1.1618294e-09 -0.00037802034 -0.00074863597
-0.004504422 1.1771157 0.15895817 -1.1164599e-09 -0.00050956284 -0.0001626742 -2.0167894e-07 -7.304101e-05
-3.9920607e-05 -4.5197543e-20 -1.4868687e-05 -2.726431e-15 -1.6234944e-10 -0.005472412 -0.10691564 -2.208363e-06
2.5268915 -1.9445446e-05 -2.7552102 1.1026919e-08 0.09705073 0.049688663 0.13997419 -0.031191377
-1.6220933e-10 -8.002843e-05 -1.6379803e-06 -0.0016851915 -0.20553577 -3.2407904e-14 0.93872017 -1.9925836e-05
-7.6838255e-08 -9.978618e-11 1.449025 -2.0134785e-06 0.025376592 -0.00039038784 -1.6417876e-05 -4.4695243e-09
-0.0017582506 0.024897473 -1.340398e-05 -0.00021745524 -0.00026553232 -0.0026462118 -1.07864865e-17 -1.4133676e-10
-0.0001353098 -8.702292e-05 -1.0485992 1.1059655 -3.2346644e-08 -1.9230262e-09 -0.0001315519 -1.6628308e-08
-0.008141782 -6.784877e-08 -3.898545e-06 0.20582183 -1.5090686e-13 -0.00031733932 0.021791218 -2.6730742e-05
0.10734632 -0.0006737037 0.9217929 -0.00034072678 -8.965152e-08 0.08709755 0.118138686 -0.00013507505
-0.00027944404 -0.000679155 -7.7672875e-11 -5.123466e-05 0.06804313 -5.877401e-06 0.18248472 -1.0377052e-08
-0.00038990722 -2.7064241e-05 -0.0015648336 -0.00084941986 1.8447922 -0.0001105158 -0.085764565 -1.6217663e-10
0.08926721 -0.00011134584 -3.088075e-06 -0.0023431135 -0.00042327517 -8.695969e-05 -8.7861544e-08 -0.007613763
-8.195305e-05 -0.00015905371 0.0062269187 0.040018726 3.736733e-05 -0.00030718613 -1.6999256e-11 -0.015279256
-1.784726e-05 -2.1826832e-10 -0.06498052 -5.428252e-09 -0.00051020645 -0.4640834 -0.0008213871 -4.967844e-11
-0.011624626 -0.00079957297 -0.00020068556 -1.6246304e-10 -0.49991867 -0.00048108379 1.6952652 -0.000343781
-0.0021770906 -1.5576335e-05 -0.001105127 -1.6224341e-10 -0.5045996 -1.6229257e-10 -0.00028546408 -0.00047538607
-0.0008028406 -1.8697355e-07 -0.004730518 -7.7420365e-05 -0.0001077698 -2.4726942e-05 -0.0025124026 -0.15540771

bn2.weight f4 [300]
00000000: 8981 0c41 d087 4c2d 9b95 a3be 7cc9 c83e
00000010: 9c06 a03e f318 d9c0 078a e9bf 6c2d f43f
00000020: 32ad 9c40 5cb2 0e41 aa83 4840 82f7 13bf
00000030: 43fb bd3e 94df 9140 5f3f bc40 ab62 1140
00000040: f9eb 1641 9ab3 a840 a488 ee24 5dc9 0540
00000050: eb0d a43e bd3e c6bd 58e1 d53f 5f6c 9e2f
00000060: e0e0 903f 89df d7b6 7cae 502f 6042 ae3e
00000070: 1877 15bb 7a51 5e40 9bc9 7441 d017 c63e
00000080: d131 6a40 e1f1 bc40 0cde 9abe 3cff fe3f
00000090: 3294 4d40 636c b93e 8df1 04be 5296 5d40
000000a0: a1a7 0d40 b7d7 cc3e 6863 0341 a19f 5340
000000b0: 79e5 c63e 0bed 4e40 ebc8 c43e c761 3740
000000c0: b3f5 8c40 bb78 0b41 09c7 6040 9b85 912f
000000d0: 6bee 64c0 b2b8 8f40 d997 cc3e 97d7 b83e
000000e0: 71dd ad3e 767e b33f 9bd5 9d40 20a2 2040
000000f0: f29f 7ab6 ea78 943f 6b1a a33e 7322 3737
00000100: 9534 a83e ef53 5d40 0b28 d8c0 b4b6 5640
00000110: a478 8f40 e89a a840 d093 5240 e0a1 663e
00000120: 8fef 5140 430a 5540 74dc b63e ae80 be3e
00000130: 22f6 9940 d834 c440 6231 7839 5feb 1180
00000140: f15e 14a8 ad90 6640 d04e 1640 bf12 c33e
00000150: d22e 4940 c821 9640 f1ae dc2f c192 0b40
00000160: 3626 5f40 382b d23f 7bda 3740 806e 2440
00000170: bfdd fc3e 63fb e43f 1bbd 963f 0005 3e40
00000180: 022f 1740 e1f2 d03b d017 5e3e f3c5 6340
00000190: 2e29 00c0 5f56 3140 5536 c42a f34d d33e
000001a0: 8c40 ba3e 41a5 26c0 64f7 ae3e de66 a23e
000001b0: 83f1 ab3e 3030 1241 b21b cd3e 203e ba3e
000001c0: 0cdc bb3f 4a3e cf3e 9335 9840 3c04 993f
000001d0: 292e 923e e2b0 7332 1931 8cbd ce3d 3040
000001e0: 6bac 8abf 3443 e824 1275 bd3f 0493 9740
000001f0: 3a27 89c0 5a92 a740 2c08 0ebf 89ca 5cc0
00000200: 92e4 1e40 6c23 8240 059e 3340 5255 cf3e
00000210: c954 79b4 4fee 013d 8c45 b740 2060 753e
00000220: fa14 5140 1f42 6b40 bafc fe3e a821 3740
00000230: c25d 1600 051e b63e 2026 269d b554 bd3e
00000240: ba91 99ba 9064 3240 e8d7 403b f292 7440
00000250: 2fb8 d240 ce43 20ae 2165 35ac acc7 4837
00000260: 74c2 8f40 7acf 8840 858d ad3e c9c8 1f9c
00000270: 3c1a ad3e 24db d040 be0b 3b35 c03f 3540
00000280: 1822 fd3e 7b55 b93e f0e9 4940 bd86 393b
00000290: 7be4 b540 4a77 b93e 44c5 3f40 fdf0 abbe
000002a0: 517b 1c40 d328 bda6 1f3e 8bb4 4fdc 1fa3
000002b0: 8c1c 5940 2414 a840 f53c f43f dbb2 0d40
000002c0: 86e3 db3e 04d8 ac3e 4ac1 c73e 10ed 9439
000002d0: ecdb 4440 c63a b4bc 8e18 3840 2c85 943e
000002e0: 2b77 4040 c2e4 b640 4d10 c53e c82b 7040
000002f0: bc90 b03e 91f8 ec3e fc1e be3e 4087 ae3f
00000300: 7a4d c13e 3960 63c0 f82b 70c0 dcbe cd3e
00000310: 240e 693f 67d1 b53e 0526 27b8 9007 dd3e
00000320: c9de 5dc0 8a84 89b8 1ac1 a440 168d 6d40
00000330: b464 2740 bbf6 7840 4d1a a53e 89da cc3e
00000340: b8ac aab7 45bc 83b7 9bf6 5140 3e56 0941
00000350: 81a0 4240 fe47 2c3d a42c 0141 0eae debd
00000360: f009 1241 14ba b13e 867b f4c0 6200 0000
00000370: 2291 2b40 7606 bf1f 8296 863e bc2f 9609
00000380: 40f7 22c0 c255 3640 f569 a62e 2ab9 2640
00000390: 526f 8a32 b67b 1ec0 ab8f cc3e c20e 263f
000003a0: 0e25 cb3e 95d7 8140 f869 d23f 4caf e940
000003b0: 3ce4 a735 68d7 d53e c5c6 208f d8e6 f53f
000003c0: 7aef f230 840e 4840 7692 a040 f037 1e40
000003d0: 5b5e 2938 0b28 d23e c1fd 31c0 51b5 7440
000003e0: 243b 5240 8894 77c0 caa9 672c 8f48 2640
000003f0: 2255 66c0 28bc 5040 3ff1 d191 7bd4 1740
8.781625 1.1626214e-11 -0.31950077 0.3921622 0.31255043 -6.7842956 -1.8245248 1.9076362
4.896142 8.918545 3.1330361 -0.5779954 0.3710576 4.5585423 5.8827357 2.2716472
9.4326105 5.271924 1.03447525e-16 2.0904152 0.3204187 -0.09679935 1.6709394 2.8817035e-10
1.1318626 -6.4335222e-06 1.8979479e-10 0.34035015 -0.002280658 3.473723 15.29922 0.38690042
3.6592906 5.904526 -0.30247533 1.9921641 3.2121701 0.36215505 -0.1298277 3.4622998
2.2133563 0.40008327 8.211769 3.306618 0.3884695 3.233218 0.38434538 2.8653429
4.4049926 8.716975 3.5121481 2.647028e-10 -3.5770519 4.491296 0.399596 0.36101982
0.3395801 1.4022968 4.932325 2.5098953 -3.7346003e-06 1.15994 0.31856093 1.0915671e-05
0.32852617 3.458248 -6.754888 3.3549013 4.4834766 5.2689095 3.2902718 0.22522688
3.2802465 3.3287513 0.35715067 0.3720755 4.8112955 6.1314507 0.0002366952 -1.645639e-39
-8.2362375e-15 3.6025803 2.3485603 0.3810024 3.1434827 4.6916237 4.014207e-10 2.1808321
3.4867072 1.6419439 2.87271 2.5692444 0.4938793 1.7889217 1.177646 2.9690552
2.3622441 0.0063766097 0.21688771 3.5589569 -2.0025134 2.7708967 3.4854294e-13 0.41270408
0.3637737 -2.6038363 0.3417312 0.31719106 0.33582696 9.136765 0.40060192 0.36375523
1.4676528 0.4047721 4.75654 1.1954417 0.28550842 1.418468e-08 -0.06845302 2.7537723
-1.0833868 1.0072781e-16 1.4801352 4.7366962 -4.2860384 5.236615 -0.5548122 -3.4498618
2.4827008 4.066824 2.8065197 0.40494782 -2.3220777e-07 0.03172141 5.7272396 0.2396245
3.2669053 3.6759107 0.4980219 2.8614292 2.054015e-39 0.35569778 -2.1989627e-21 0.3697869
-0.0011716404 2.7873878 0.0029425565 3.8214688 6.5849833 -3.644001e-11 -2.5777785e-12 1.1967419e-05
4.492487 4.2753267 0.33897033 -5.2868196e-22 0.33809078 6.5267506 6.9680016e-07 2.832016
0.49440074 0.3619803 3.1549034 0.002830907 5.6841407 0.36223823 2.9964151 -0.33582297
2.4450266 -1.3125575e-15 -2.5935967e-07 -8.6660594e-18 3.3923674 5.2524586 1.9081103 2.2140415
0.42947024 0.33758557 0.39014655 0.00028405385 3.075923 -0.022000682 2.8764987 0.29007852
3.0072734 5.7154245 0.38489 3.7526722 0.34485424 0.4628339 0.37133014 1.3635025
0.37754422 -3.552748 -3.7526836 0.40184677 0.910372 0.35511324 -3.985131e-05 0.43169832
-3.4667227 -6.5573564e-05 5.148572 3.7117362 2.6155214 3.8900592 0.32246628 0.4001048
-2.0346008e-05 -1.5704087e-05 3.2806766 8.583555 3.0410464 0.042060845 8.073399 -0.10873042
9.127426 0.3471228 -7.6400785 1.37e-43 2.6807332 8.0902335e-20 0.26286703 3.6156076e-33
-2.546341 2.8489842 7.567628e-11 2.6050515 1.6115937e-08 -2.4763007 0.3995336 0.6486627
0.39676708 4.057566 1.6438589 7.3026485 1.2508895e-06 0.41765904 -7.926891e-30 1.9211073
1.7675881e-09 3.125886 5.0178785 2.4721642 4.0380615e-05 0.41046175 -2.781113 3.8235667
3.2848597 -3.8684406 3.2921326e-12 2.5981786 -3.598946 3.2614841 -3.3123065e-28 2.3723438

bn2.bias f4 [300]
00000000: a100 0080 58d3 1daf 3f28 0640 c92a 1540
00000010: fb8d 0e40 37dd 05c0 4b21 793a 1842 45bf
00000020: 68be 17bd 89a3 cf3f afce ae3c 2f87 1140
00000030: 373c 0e40 a94f 7e97 95cc fcbc d300 05b9
00000040: db4a 46be 22b3 2f40 d436 a7a4 aa23 3dbf
00000050: 4fec 6040 8b8a a63f 0d6b 1ac0 8669 762e
00000060: 46e3 a9bd 34e8 e0b8 10cf 66b1 e8d6 4d40
00000070: 2fd2 703b 5d40 2037 ec7f 8aa8 ae48 1140
00000080: fab4 32bf 3c31 37be 3934 1740 331c 03bd
00000090: 53a1 0ac0 893d 1b40 8e5c d63f 233a 33bf
000000a0: 4207 59be da12 0e40 7b62 49bf 54ca 8abf
000000b0: 72ac 0f40 7232 c4bf 1b16 0e40 9a02 0000
000000c0: bbf1 37c0 4aed 4128 8baa a03d 4699 acaf
000000d0: 29dd ccbf 26f1 e1bd d550 54bd 0555 fb3f
000000e0: 4559 4f40 359f 50bd f325 99bf 94ee 92be
000000f0: 9985 d8b7 6728 80bc 1c1e 6140 0049 83b7
00000100: 7679 5e40 91df a0bf 4610 1d40 317d 4dc0
00000110: 268c 863f 4e32 7cbf 7658 17c0 f4bd d437
00000120: 2f77 38bf 3b41 50bf db67 4c40 28b6 0a40
00000130: 8e5f 7eb7 09a4 d5bf 7caa 0a3c da0e efac
00000140: 1764 f4a9 997d 123e 6897 4a8a 2322 0d40
00000150: 6ba4 d7bd 7fb8 00c0 8071 beb1 6fd4 b1a6
00000160: ebbc b63e 15bd d2bf ca32 0dc0 0493 1fbe
00000170: 4b87 c33e f55f 03be a411 2c3f abb7 343d
00000180: 52b6 30bd 1f6c ed3c d63b 0540 64c1 2a00
00000190: 9538 933f e2db 663b 6010 e3b2 64c6 0640
000001a0: 0cdf 0e40 d4d5 26bf ee94 1040 0774 0940
000001b0: 4e49 0a40 09f9 97bb e9d4 1040 a379 e03f
000001c0: 1c21 c500 a763 afbc 732c 1ebf ed17 293f
000001d0: 0559 0e40 7e27 e8b3 4ac5 0040 82ab 48be
000001e0: 7f04 8e3a 6256 05a7 481b 0a3d 3e01 0080
000001f0: 6b21 543f ac04 0080 992c 1340 074e d33d
00000200: ba06 78bd 085d bcbf 88a7 7134 8936 0e40
00000210: 9f16 82b5 63f1 2a3d eb5e 34c0 6508 c93f
00000220: 2c26 a9be 6fcb 01bd 8ab4 f43f cb68 0cbf
00000230: 7f66 949d 8b90 0f40 5773 81a0 ce51 0340
00000240: ef29 8bbc 9b00 0000 5318 f1bb 14fc 503d
00000250: fae6 11b5 8ef7 01b0 ada6 92ad 4fcd 28b8
00000260: 40c4 0f3e 468d a9bf ad56 0540 80f8 afb6
00000270: 357a 5240 a379 bdbf 175f 0fb5 c24b 13c0
00000280: c486 50bd c26d 0e40 9d9c f9bf 7a0f 9dbb
00000290: 478f f533 0598 1140 fdf4 9fbf 791c ba3f
000002a0: f0f2 350d 9379 2ba9 23ed beb5 3b9b cba4
000002b0: a9bb 2cbc 41b1 6bbf 6a37 16c0 5623 95bf
000002c0: 0025 0340 5aec 5540 0f38 0f40 577e 29bb
000002d0: 9589 4bc0 e65d 7a3c 273f 17bf 0b38 ff3f
000002e0: 40d1 703a 3e1e 19bf cd62 0d40 2b98 d9bf
000002f0: 47cb 0f40 0768 d23e 9981 0c40 ffd0 67bd
00000300: 8271 0d40 605c 1040 5299 ae3e 91fd 1040
00000310: a14f e4bb 5eba 4d40 a916 2bb9 6884 1240
00000320: 87f1 16c0 ffe5 48ba ce5f 0bad f2a8 aabf
00000330: 9ff3 4bb9 03c5 12c0 6027 6040 1fa5 1040
00000340: e814 1fb9 854d 28b9 e484 d7bc 5b92 8140
00000350: 0876 4abe 4dbe 0c40 d8a0 063c 2e7a d73f
00000360: a09f 39be 5472 4d40 c755 2e40 3556 56a7
00000370: bc7c 0380 f16e 51a0 b900 693f c833 64ad
00000380: 7477 c63f 4dc2 423e af62 92af ca71 01b4
00000390: 5234 1db4 7b00 bc3f 030a 0840 bb7f e43e
000003a0: 2eae 1240 90c6 6ec0 1dbf 7fbd 3465 843f
000003b0: 3272 63bb 35c3 6e3c a860 a7a8 2de0 a0be
000003c0: ecc5 16b8 560f 4d28 d7bc 85c0 f843 bdbf
000003d0: 2055 3cba 90ae 1140 f87f 853f 4829 683e
000003e0: 9920 6fbf 2999 0040 cfa2 c4ad 0297 72be
000003f0: 5fe3 1b40 add3 e1bf 6b90 a1a7 6b06 8d3e
-2.26e-43 -1.4354151e-10 2.0962064 2.3307364 2.2274158 -2.091627 0.0009503557 -0.77053976
-0.03704682 1.6221782 0.021338789 2.273876 2.2224252 -8.217237e-25 -0.030859271 -0.00012684175
-0.19364493 2.7453084 -7.251759e-17 -0.73882544 3.5144231 1.301103 -2.4127839 5.6027648e-11
-0.08295302 -0.000107244035 -3.3587106e-09 3.2162418 0.0036746373 9.551729e-06 -1.5376555e-14 2.270061
-0.698074 -0.17889875 2.3625624 -0.032009315 -2.1660964 2.4256308 1.6746995 -0.70010585
-0.21194175 2.2199006 -0.78665894 -1.0842996 2.2449002 -1.5327895 2.2200992 9.33e-43
-2.874129 1.0765106e-14 0.078450285 -3.1395525e-10 -1.6004993 -0.110323235 -0.0518349 1.9635321
3.2398236 -0.05093308 -1.1964706 -0.28697646 -2.5811418e-05 -0.015644265 3.5174627 -1.565041e-05
3.4761634 -1.2568227 2.4541183 -3.210766 1.051152 -0.9851426 -2.3647742 2.5360823e-05
-0.7205686 -0.81349534 3.1938388 2.167368 -1.5161828e-05 -1.6690685 0.008463498 -6.7944374e-12
-1.08531395e-13 0.14305724 -9.7544226e-33 2.2052085 -0.10529407 -2.0112607 -5.5426312e-09 -1.2339422e-15
0.35691008 -1.6463953 -2.206225 -0.15583426 0.38189158 -0.12829573 0.6721442 0.044120472
-0.043142624 0.02898222 2.081777 3.926466e-39 1.1501642 0.0035226275 -2.6433725e-08 2.1058588
2.2323637 -0.65170026 2.25909 2.1477067 2.1607242 -0.0046378416 2.262995 1.753712
1.810347e-38 -0.021409823 -0.61786574 0.6605213 2.2241833 -1.08105255e-07 2.0120416 -0.19596675
0.001083508 -1.8504286e-15 0.033717424 -4.46e-43 0.8286349 -1.676e-42 2.299597 0.10317617
-0.06055329 -1.4715891 2.2505822e-07 2.2220786 -9.692338e-07 0.04173411 -2.8182933 1.5705687
-0.33036935 -0.03168815 1.9117596 -0.548474 -3.9281252e-21 2.2431972 -2.1929776e-19 2.051868
-0.016987769 2.17e-43 -0.007357636 0.05102165 -5.4352824e-07 -4.7281723e-10 -1.6672297e-11 -4.024553e-05
0.14039707 -1.3246238 2.0834153 -5.2443356e-06 3.288709 -1.4802746 -5.3410025e-07 -2.301499
-0.050909773 2.225449 -1.950092 -0.0047931047 1.14347635e-07 2.2749035 -1.249664 1.4539939
5.6067357e-31 -3.8075076e-14 -1.4225119e-06 -8.830019e-17 -0.010542789 -0.92067343 -2.3471322 -1.1651409
2.0491333 3.3425508 2.2377965 -0.0025862658 -3.1802723 0.015281176 -0.5908074 1.9938978
0.0009186454 -0.5981177 2.2091553 -1.6999563 2.246782 0.41094992 2.19541 -0.0565958
2.210053 2.2556381 0.3410135 2.2654765 -0.0069675003 3.2145 -0.00016316272 2.2893314
-2.3584917 -0.00076636666 -7.922508e-12 -1.3332808 -0.00019450345 -2.2932746 3.5024033 2.2600782
-0.0001517121 -0.00016050607 -0.026308484 4.0491157 -0.19771588 2.199115 0.008217059 1.6834161
-0.18127298 3.210103 2.7239854 -2.9745199e-15 -3.20253e-40 -1.7739696e-19 0.9101673 -1.2971797e-11
1.5505204 0.19019432 -2.6627364e-10 -1.2055457e-07 -1.4640798e-07 1.4687647 2.125611 0.446287
2.291881 -3.7308693 -0.06243812 1.0343385 -0.0034705517 0.014572908 -1.8582642e-14 -0.31421033
-3.5947116e-05 1.13831115e-14 -4.1793017 -1.4786367 -0.00071843155 2.2762794 1.0429678 0.22671998
-0.93409115 2.0093482 -2.2354922e-11 -0.23690417 2.4357526 -1.7642723 -4.4843055e-15 0.2754396
