tmp/ddpg/critic_ddpg.pth (torch, 514177 bytes, 11 tensors)

fc1.weight f4 [400, 11]
0	0x3caf7813	0.02141956
1	0xbd051af9	-0.032496426
2	0x38bb11dc	8.9201814e-05
3	0x3d8035c5	0.06260256
4	0x3c2364ce	0.009972764
5	0x3ba4fd39	0.0050350693
6	0x3ba4f62a	0.005034228
7	0x3ba7c9bb	0.0051204837
8	0x3ba4f62b	0.0050342283
9	0x3ba49933	0.0050231456
10	0x3ba4f62a	0.005034228
11	0x3cb07a11	0.02154258
12	0xbd032655	-0.03201898
13	0x386a059a	5.5795164e-05
14	0x3da1f98a	0.07908924
15	0x3c19ea27	0.009394205
16	0x3b8c4102	0.0042802105
17	0x3b8c3dc3	0.0042798235
18	0x3b94de6b	0.004543116
19	0x3b8c3db5	0.004279817
20	0x3b8bd6b7	0.0042675394
21	0x3b8c3dbf	0.0042798216
22	0x4006bf15	2.1054127
23	0xbfc47e2b	-1.5351003
24	0xbb908565	-0.004410433
25	0xbf0761b7	-0.52883476
26	0x3f2b6920	0.66957283
27	0xbf182654	-0.59433484
28	0xbeb06dbc	-0.3445872
29	0xbf006c11	-0.50164896
30	0x3ef255ff	0.47331235
31	0x3eb518d5	0.35370508
32	0x3f01d803	0.5072023
33	0x3cb0c60a	0.021578807
34	0xbd033eaa	-0.032042183
35	0x38192ebf	3.652158e-05
36	0x3da30958	0.079607666
37	0x3c198bcd	0.00937171
38	0x3b8a283b	0.0042162216
39	0x3b8a2803	0.0042161955
40	0x3b932d6e	0.0044914996
41	0x3b8a27f6	0.0042161895
42	0x3b89bfe9	0.0042037857
43	0x3b8a280a	0.004216199
44	0x3caf88cd	0.021427536
45	0xbd082f2b	-0.033248108
46	0x378298a6	1.556829e-05
47	0x3d5d686d	0.054054666
48	0x3c274175	0.010208477
49	0x3bac9075	0.005266244
50	0x3bac8c62	0.0052657584
51	0x3bad6769	0.0052918685
52	0x3bac8c62	0.0052657584
53	0x3bac33ef	0.0052552144
54	0x3bac8c61	0.005265758
55	0x3cb0fbe5	0.021604488
56	0xbd16c625	-0.03681006
57	0xb96f7db2	-0.00022839641
58	0x3ce1b1e7	0.02755065
59	0x3c308ce5	0.010775779
60	0x3bbab36c	0.0056976583
61	0x3bbab2f0	0.0056976005
62	0x3bb7bd0e	0.005607254
63	0x3bbab2f0	0.0056976005
64	0x3bba6700	0.005688548
65	0x3bbab2f0	0.0056976005
66	0x3cb8f822	0.022579256
67	0xbd737262	-0.059435256
68	0xb9be7626	-0.00036327651
69	0xbd12ca31	-0.035837356
70	0x3c3ebca9	0.01164166
71	0x3bc76e7b	0.0060861683
72	0x3bc77085	0.0060864114
73	0x3bc0ffc5	0.005889865
74	0x3bc77086	0.006086412
75	0x3bc73753	0.006079593
76	0x3bc77085	0.0060864114
77	0x3caf7994	0.021420278
78	0xbd078baa	-0.03309218
79	0x37d336b2	2.517863e-05
80	0x3d620268	0.055178076
81	0x3c26c94f	0.010179832
82	0x3babceb3	0.0052431463
83	0x3babc1bb	0.0052416003
84	0x3bacd5e9	0.0052745235
85	0x3babc1ba	0.0052416
86	0x3bab68d8	0.005231004
87	0x3babc1bb	0.0052416003
88	0x3cb27cc3	0.021788007
89	0xbd11b640	-0.035574198
90	0xb99a230a	-0.00029399275
91	0x3c808025	0.015686104
92	0x3c916e5c	0.017752819
93	0x3bbe5d0c	0.005809432
94	0x3bbe5e26	0.005809563
95	0x3bba5b43	0.005687149
96	0x3bbe5dd5	0.0058095255
97	0x3bbe191f	0.0058013345
98	0x3bbe5d9b	0.0058094985
99	0x3f62fa85	0.8866351
100	0xc017f5b3	-2.3743713
101	0xbb2b0acd	-0.0026098967
102	0x3f035aab	0.51310223
103	0x3f9e3e05	1.2362677
104	0xc10e2269	-8.883401
105	0xc10589a4	-8.346104
106	0x3fc1b10c	1.5132155
107	0x3fc61d2b	1.5477651
108	0x3fe135d1	1.7594548
109	0x3fcfbf01	1.6230165
110	0x3cbc38d2	0.022976313
111	0xbd867985	-0.06566147
112	0xb9b798de	-0.00035018375
113	0xbd64d53c	-0.05586742
114	0x3c422793	0.011850256
115	0x3bc9b62a	0.006155749
116	0x3bc9b942	0.0061561177
117	0x3bc2dc1c	0.0059466492
118	0x3bc9b93f	0.0061561163
119	0x3bc9857e	0.0061499467
120	0x3bc9b941	0.006156117
121	0x3cafaf61	0.021445932
122	0xbd0b0785	-0.033942718
123	0xb8883490	-6.494776e-05
124	0x3d3d5c03	0.046230327
125	0x3c2a6b57	0.010401568
126	0x3bb21c7f	0.005435526
127	0x3bb21a2c	0.005435249
128	0x3bb184d4	0.0054174457
129	0x3bb21a2e	0.00543525
130	0x3bb1c61f	0.005425229
131	0x3bb21a2c	0.005435249
132	0x3cb0ffab	0.021606287
133	0xbd18d20f	-0.037309702
134	0xb95a3f2b	-0.00020813632
135	0x3cf0033c	0.029298417
136	0x3c300676	0.010743728
137	0x3bb9d512	0.005671152
138	0x3bb9d27e	0.0056708446
139	0x3bb707da	0.005585653
140	0x3bb9d27f	0.005670845
141	0x3bb984e7	0.005661595
142	0x3bb9d27e	0.0056708446
143	0x3e1348e3	0.14383273
144	0xbe416ad6	-0.18888411
145	0xb9a64337	-0.00031712066
146	0xbeac0220	-0.3359537
147	0x3cb7ae09	0.022421854
148	0x3f45cfee	0.772704
149	0x3b5b4eeb	0.0033463787
150	0x3b793dd1	0.003803123
151	0x3b6483fc	0.0034868708
152	0x3b98dc74	0.004664952
153	0x3b5e4d48	0.0033920575
154	0x3cb1e211	0.021714242
155	0xbd1df60f	-0.038564738
156	0xb996b7eb	-0.0002874726
157	0x3c9399dd	0.018017704
158	0x3c332836	0.01093488
159	0x3bbdc123	0.005790846
160	0x3bbdbe45	0.005790504
161	0x3bb9f0ab	0.005674442
162	0x3bbdbe45	0.005790504
163	0x3bbd7616	0.005781899
164	0x3bbdbe45	0.005790504
165	0x3caf6c70	0.021414012
166	0xbd04f069	-0.032455835
167	0x38bc2a97	8.9724716e-05
168	0x3d8090f0	0.06277645
169	0x3c2352fe	0.009968517
170	0x3ba4f12c	0.0050336327
171	0x3ba4e9ad	0.005032739
172	0x3ba7c511	0.0051199277
173	0x3ba4e9ad	0.005032739
174	0x3ba48ccd	0.0050216676
175	0x3ba4e9ae	0.0050327396
176	0x3cb75af9	0.022382246
177	0xbd28db5a	-0.041224815
178	0xb9bf291e	-0.00036460994
179	0xbcc55f5b	-0.02409332
180	0x3c3c0488	0.01147569
181	0x3ce360d7	0.027756138
182	0x3bc5fadf	0.006041869
183	0x3bbfe948	0.0058566667
184	0x3bc5f8a3	0.0060416027
185	0x3bc5ab0d	0.0060323537
186	0x3bc5fa42	0.006041796
187	0x3cb0928b	0.021554252
188	0xbd1392d6	-0.036028706
189	0xb9416579	-0.00018443716
190	0x3d073269	0.03300706
191	0x3c2ee7dc	0.010675397
192	0x3bb88ee0	0.0056322664
193	0x3bb88dd5	0.005632142
194	0x3bb62c4f	0.005559481
195	0x3bb88dd7	0.005632143
196	0x3bb83f6b	0.0056227944
197	0x3bb88dd6	0.0056321425
198	0x3cb03c76	0.021513205
199	0xbd030a24	-0.031992093
200	0x38b4cb4a	8.6209344e-05
201	0x3d9e3d80	0.07726574
202	0x3c1b2bf5	0.009470929
203	0x3b902a84	0.0043995995
204	0x3b902686	0.0043991236
205	0x3b97ee15	0.004636536
206	0x3b902674	0.004399115
207	0x3b8fc0c3	0.0043869927
208	0x3b902681	0.0043991213
209	0x3cb075f3	0.021540618
210	0xbd031f01	-0.03201199
211	0x38879ae8	6.466155e-05
212	0x3da0b7c1	0.07847548
213	0x3c1a55aa	0.009419838
214	0x3b8d5853	0.0043135076
215	0x3b8d54c7	0.0043130848
216	0x3b95b474	0.004568631
217	0x3b8d54b1	0.0043130745
218	0x3b8ceded	0.004300824
219	0x3b8d54c7	0.0043130848
220	0x3cafaff4	0.021446206
221	0xbd04fe79	-0.032469247
222	0x38de9d39	0.0001061507
223	0x3d84d121	0.06485201
224	0x3c223973	0.009901392
225	0x3ba2021a	0.004944098
226	0x3ba2015a	0.004944009
227	0x3ba581cd	0.005050874
228	0x3ba20155	0.0049440064
229	0x3ba1a26b	0.004932692
230	0x3ba20155	0.0049440064
231	0x3cb0bfc8	0.021575823
232	0xbd0339cd	-0.032037545
233	0x3834e812	4.3131477e-05
234	0x3da24ea9	0.079251595
235	0x3c19cbef	0.009387
236	0x3b8adf4e	0.004238046
237	0x3b8adf3f	0.004238039
238	0x3b93bb69	0.004508425
239	0x3b8adf33	0.004238033
240	0x3b8a7750	0.004225649
241	0x3b8adf45	0.0042380416
242	0x40068ae9	2.1022284
243	0xc0724405	-3.7854016
244	0x3c669d81	0.014075638
245	0x3f48008c	0.78125834
246	0xbbee1550	-0.0072657242
247	0xc24c3f3d	-51.061756
248	0x40067483	2.1008613
249	0xc0d0d9b0	-6.526573
250	0x402ac536	2.6682868
251	0x402e00d8	2.7188015
252	0x4027df8c	2.6230192
253	0x3cb07b2a	0.021543104
254	0xbd0325ef	-0.0320186
255	0x38a3f558	7.8181445e-05

fc1.bias f4 [400]
0	0xba3216ea	-0.00067935756
1	0xba9652b5	-0.001146874
2	0xbbc8ea9d	-0.0061314837
3	0xba9a735f	-0.0011783651
4	0xba00bfe0	-0.0004911404
5	0xb87fd005	-6.099047e-05
6	0x39e654bc	0.0004393215
7	0xba0600f8	-0.00051118387
8	0x38826bb6	6.218946e-05
9	0x3e36f15a	0.17865506
10	0x3a117ab9	0.0005549598
11	0xb9aee56c	-0.000333588
12	0xb8cf2d4a	-9.878965e-05
13	0x398d80f3	0.0002698969
14	0x384e42c6	4.9176415e-05
15	0xba3232b1	-0.0006797715
16	0x39ccf69b	0.00039093648
17	0xb90dd4ae	-0.00013526037
18	0xba8e6169	-0.0010862771
19	0xba943474	-0.0011307136
20	0xba44535e	-0.00074892293
21	0xba991f47	-0.0011682295
22	0x3f5c73a8	0.8611398
23	0xba90a2c2	-0.0011034834
24	0x398fe391	0.00027444636
25	0xba92bca0	-0.0011195131
26	0x3a0cb541	0.0005367585
27	0x3a8b2a6f	0.0010617505
28	0xba99f2a0	-0.0011745282
29	0x3e81e611	0.2537084
30	0xba7a2420	-0.0009542126
31	0xba3ae961	-0.0007130113
32	0xba9e5881	-0.001208082
33	0xba839939	-0.0010040171
34	0xb9612c81	-0.00021474251
35	0xba91f750	-0.0011136327
36	0xb96526aa	-0.00021853545
37	0xba60bbb0	-0.00085728895
38	0x399b1474	0.00029579143
39	0xb8a419e0	-7.824949e-05
40	0xba47e0c9	-0.0007624743
41	0xb9634776	-0.00021675028
42	0xba294a16	-0.0006457878
43	0x3984a15c	0.00025297224
44	0xba8bdc10	-0.0010670442
45	0xb99d715c	-0.00030029833
46	0xba6a44c4	-0.00089366385
47	0xb990199a	-0.00027484895
48	0xba06112e	-0.00051142543
49	0xbaeebf98	-0.0018215058
50	0xb9c42f26	-0.00037419162
51	0x39da2985	0.00041611135
52	0x3a8e5138	0.0010857945
53	0xb8ca5ae0	-9.6490374e-05
54	0xb9148ae1	-0.00014166116
55	0x3dc41259	0.09573812
56	0x3df8d750	0.121504426
57	0xba35a5a6	-0.00069292856
58	0xbc647b2c	-0.013945382
59	0xba86b4ce	-0.0010277273
60	0xbaa115df	-0.0012289843
61	0x3a52ba8d	0.00080386625
62	0xb9c8ad94	-0.00038276298
63	0x39c4da06	0.00037546473
64	0xba6cb435	-0.00090295385
65	0xba3ea15f	-0.0007271971
66	0xba39f914	-0.00070943055
67	0xba388969	-0.00070395187
68	0xb922e3a1	-0.00015534322
69	0xb9e571f1	-0.00043763177
70	0x3801cf36	3.0948977e-05
71	0xba53a849	-0.00080740877
72	0xba89d785	-0.00105165
73	0xb948de4f	-0.00019156303
74	0x3be3d5ac	0.006952962
75	0xba8f67ee	-0.0010941008
76	0x3a39e408	0.0007091169
77	0xbc854427	-0.01626785
78	0xba54fa0c	-0.0008124418
79	0xba926d36	-0.0011171463
80	0x39d2df4d	0.00040220693
81	0xba910a80	-0.0011065751
82	0xba0ee176	-0.00054504664
83	0xba833d7f	-0.0010012834
84	0x39cc85c6	0.0003900958
85	0xb9cdcdda	-0.00039254018
86	0xba9ab0c9	-0.0011801954
87	0xb9d7ba4e	-0.00041146803
88	0xba8ea147	-0.0010881805
89	0xbc533f3a	-0.012893492
90	0xba8466e6	-0.0010101467
91	0xba6918aa	-0.000889192
92	0x3e57c182	0.21069911
93	0x3b7fd202	0.0039035087
94	0x37c3f40a	2.3359451e-05
95	0xba941b8e	-0.0011299716
96	0x3e96b24d	0.29432908
97	0xbbef08eb	-0.0072947643
98	0xba6d7ad6	-0.00090591365
99	0x3de3e116	0.11126916
100	0x3b63760a	0.0034707808
101	0x3a7f9dbd	0.0009750983
102	0xb7f605e0	-2.9328221e-05
103	0xba77a61b	-0.0009447054
104	0x3c9a2a47	0.018818988
105	0xba94ef8f	-0.0011362898
106	0xba8f87cc	-0.0010950505
107	0xb9fee795	-0.00048619197
108	0xba980369	-0.0011597696
109	0xbc809b45	-0.015699038
110	0xb9e1d0e7	-0.0004307099
111	0x3a98fc3b	0.001167185
112	0xba235520	-0.0006230641
113	0x3bcdf8de	0.006285771
114	0x3919025e	0.00014592099
115	0x3aa22fd1	0.001237387
116	0x3a60e156	0.00085784995
117	0xba9692b5	-0.0011487814
118	0xb8d41e84	-0.00010114632
119	0xb94a5c08	-0.00019298506
120	0xba94a19d	-0.0011339668
121	0x3f84356d	1.0328804
122	0x3a253e3d	0.0006303525
123	0x3a247755	0.00062738854
124	0xba2298da	-0.0006202586
125	0x3a17a26f	0.00057843974
126	0xba917d9e	-0.0011100059
127	0xba2a9403	-0.0006507041
128	0xba809c0b	-0.000981213
129	0xba85d45a	-0.001021038
130	0x39a8c7e3	0.00032192384
131	0x3a34375a	0.0006874703
132	0xb9441288	-0.0001869892
133	0xb9b34cf6	-0.0003419888
134	0x3a0a8148	0.00052835466
135	0xb9b03b47	-0.000336135
136	0xbbf9703c	-0.0076122563
137	0x39e17141	0.00042999725
138	0x3ba22c89	0.0049491567
139	0xb86fbf8a	-5.7160425e-05
140	0x396f61fb	0.00022829317
141	0x39d0dd6f	0.00039837832
142	0xb8bfe526	-9.150272e-05
143	0xba62352e	-0.000862914
144	0xba83a155	-0.0010042588
145	0xb97f097d	-0.0002432223
146	0xba9b27b3	-0.0011837393
147	0xba8df1e6	-0.0010829538
148	0xbad3a4c0	-0.0016147122
149	0x3a5a3146	0.00083233824
150	0x3bb6e8a0	0.0055819303
151	0xba6cbd59	-0.00090309005
152	0xba93d1c3	-0.0011277724
153	0xba95ddf0	-0.001143394
154	0x3bdf5d6e	0.0068165576
155	0x39855af2	0.00025435496
156	0xba6c5e50	-0.0009016739
157	0xb8a5e919	-7.911231e-05
158	0xba2dfb74	-0.00066368957
159	0xba8dd24d	-0.0010820121
160	0xba61ea6c	-0.00086180004
161	0xba8e5a27	-0.0010860608
162	0xb9b06cee	-0.00033650495
163	0xb831cd11	-4.239107e-05
164	0x395f03af	0.0002126831
165	0xba5816ab	-0.0008243124
166	0xb9e62860	-0.000438991
167	0xba801138	-0.0009770757
168	0xba9f4cf4	-0.0012153671
169	0xb85edf98	-5.3137162e-05
170	0x3b4893b4	0.0030605616
171	0xb9fd5efa	-0.00048326683
172	0xba5d5d53	-0.00084443873
173	0x3a604ee2	0.00085566763
174	0xb7827c05	-1.5554959e-05
175	0xba370889	-0.0006982168
176	0xba904f9d	-0.0011010055
177	0x3a04c27e	0.0005064382
178	0xba91dd18	-0.0011128513
179	0xbc8827e4	-0.016620584
180	0x39208c1d	0.00015310985
181	0xba9373da	-0.0011249736
182	0xba16b9c2	-0.0005749726
183	0xba8fe5f4	-0.0010978566
184	0x3965d16a	0.00021917155
185	0xba973ca4	-0.0011538458
186	0x3aab3c64	0.0013064262
187	0xb98093f5	-0.000245243
188	0xba839808	-0.0010039816
189	0x3a52efaa	0.0008046577
190	0xba566ca5	-0.00081796414
191	0xba8c43b9	-0.0010701335
192	0xba67f73a	-0.00088487903
193	0x39f1f43d	0.00046149074
194	0xba50d7d2	-0.000796673
195	0xb971b4b4	-0.00023050868
196	0xba13b18e	-0.00056340627
197	0xb9c4ef01	-0.00037562105
198	0x399b55d4	0.0002962785
199	0x39e3edbc	0.0004347394
200	0xba6c2f75	-0.0009009757
201	0xba897872	-0.0010488166
202	0xba9cfe95	-0.0011977727
203	0xba8c3017	-0.0010695484
204	0xbca28da5	-0.019842932
205	0x3964b0a9	0.00021809585
206	0x3db27b82	0.087149635
207	0xba8c1ebe	-0.0010690314
208	0xba8c2f6b	-0.0010695284
209	0x394b2523	0.00019373423
210	0xb989447d	-0.00026181704
211	0xb7157af3	-8.909718e-06
212	0xb8388f0c	-4.400224e-05
213	0xba8bb9b7	-0.0010660206
214	0x3aac260b	0.0013133896
215	0x38b7e756	8.76921e-05
216	0x3a5eb3a1	0.0008495395
217	0x39f2afd7	0.00046288848
218	0xba7406be	-0.0009308866
219	0x38334251	4.2738688e-05
220	0xba72ddb2	-0.00092646026
221	0xba6edd36	-0.00091119425
222	0x39ac8303	0.00032904008
223	0x3a72d536	0.0009263338
224	0xba6f418d	-0.00091268943
225	0x3ad34b6a	0.0016120498
226	0x3a5f84c4	0.00085265585
227	0xba9191e1	-0.0011106097
228	0xba909443	-0.0011030514
229	0x3f46abd9	0.7760597
230	0xba3fec9c	-0.00073213293
231	0x390ae05c	0.00013244286
232	0x39aca92f	0.00032932448
233	0xba687715	-0.0008867842
234	0xba96bef4	-0.0011501
235	0x3a0df4be	0.00054151926
236	0x3e2e3a7a	0.17014495
237	0xb8b19741	-8.468191e-05
238	0x3f3d3152	0.7390338
239	0xba93a118	-0.001126322
240	0xbaa16adc	-0.0012315172
241	0xba2d5da5	-0.00066133804
242	0xba28b040	-0.00064349547
243	0xb9c88e2e	-0.00038252905
244	0x39f041d9	0.00045825428
245	0xb98ec368	-0.0002722994
246	0xba902d50	-0.0010999832
247	0xba877198	-0.0010333536
248	0xb8b11706	-8.444306e-05
249	0x3976b6ed	0.00023528533
250	0x38809402	6.131084e-05
251	0xba934e6e	-0.0011238584
252	0xb9d73940	-0.0004105065
253	0xba7fd985	-0.0009759891
254	0x3a18c41f	0.0005827564
255	0x3bac10ff	0.0052510495

fc2.weight f4 [300, 400]
0	0x800001ff	-7.16e-43
1	0x8000010a	-3.73e-43
2	0x3c3ec179	0.011642807
3	0x00000512	1.819e-42
4	0x8000036f	-1.232e-42
5	0x80000509	-1.806e-42
6	0x0000059f	2.016e-42
7	0x00000007	1e-44
8	0x2126fd32	5.657809e-19
9	0xc008c5bf	-2.1370695
10	0x80000158	-4.82e-43
11	0x800001cb	-6.43e-43
12	0x00000463	1.574e-42
13	0xbdf570c3	-0.11984398
14	0x000005c3	2.067e-42
15	0x80000450	-1.547e-42
16	0x800004d8	-1.738e-42
17	0x80000523	-1.843e-42
18	0x00000365	1.218e-42
19	0x80000531	-1.862e-42
20	0x000002f5	1.061e-42
21	0x800001ed	-6.91e-43
22	0xbf996356	-1.198344
23	0x0000047b	1.607e-42
24	0x8000024e	-8.27e-43
25	0x800004b5	-1.689e-42
26	0x8000051c	-1.833e-42
27	0x80000225	-7.7e-43
28	0x00000171	5.17e-43
29	0xc06542d7	-3.5822046
30	0x00000530	1.861e-42
31	0x800004db	-1.742e-42
32	0x8000020c	-7.34e-43
33	0x819d5a89	-5.7802603e-38
34	0x000001be	6.25e-43
35	0x800002af	-9.63e-43
36	0x000006aa	2.39e-42
37	0x800002f7	-1.064e-42
38	0x0000032e	1.14e-42
39	0x0000038f	1.277e-42
40	0x80000449	-1.537e-42
41	0x000003c4	1.351e-42
42	0x800004b1	-1.683e-42
43	0xc00910d2	-2.1416516
44	0x800003e2	-1.393e-42
45	0x0000010f	3.8e-43
46	0x00000011	2.4e-44
47	0x80000045	-9.7e-44
48	0x800005d3	-2.09e-42
49	0x00000361	1.212e-42
50	0xb8d96bb4	-0.000103674276
51	0x80000558	-1.917e-42
52	0xc02526dd	-2.580497
53	0x00000069	1.47e-43
54	0x0000041d	1.476e-42
55	0x3f979689	1.1842815
56	0x3bbe336b	0.0058044693
57	0x00000128	4.15e-43
58	0xbefa0c92	-0.48837715
59	0x80000277	-8.84e-43
60	0x80000145	-4.55e-43
61	0x800001dc	-6.67e-43
62	0x00000577	1.96e-42
63	0x963966aa	-1.4976576e-25
64	0x1d060785	1.773864e-21
65	0x800003e2	-1.393e-42
66	0x00000393	1.282e-42
67	0x00000532	1.864e-42
68	0x8000008e	-1.99e-43
69	0x00000029	5.7e-44
70	0x00000055	1.19e-43
71	0x80000197	-5.7e-43
72	0x0000030f	1.097e-42
73	0x8000031a	-1.113e-42
74	0xbe1e1342	-0.15437034
75	0x800004b1	-1.683e-42
76	0xbe85e250	-0.26149225
77	0xbe6fdde2	-0.23424485
78	0x0000069d	2.372e-42
79	0x8000002f	-6.6e-44
80	0x8000018d	-5.56e-43
81	0x000004b1	1.683e-42
82	0x80000182	-5.41e-43
83	0x00000541	1.885e-42
84	0x8000035a	-1.202e-42
85	0x0000060e	2.172e-42
86	0x8000023d	-8.03e-43
87	0x9b86da5c	-2.2309552e-22
88	0x000002b7	9.74e-43
89	0xbe24ba4e	-0.16086695
90	0xa1d8fb5f	-1.4703267e-18
91	0x32d23227	2.4470024e-08
92	0xbddae9e4	-0.10689142
93	0xbe3c148a	-0.1836721
94	0x1d29c2d0	2.246768e-21
95	0x0000034d	1.184e-42
96	0xc076ceb3	-3.856366
97	0xc01ee457	-2.4826868
98	0x1b681a71	1.9199134e-22
99	0xbf90cac1	-1.1311876
100	0xbfe96e55	-1.8236796
101	0x00000609	2.165e-42
102	0xbb50a8fa	-0.0031839
103	0x8000032b	-1.136e-42
104	0xbda37238	-0.0798077
105	0x8000084e	-2.979e-42
106	0x000002f4	1.06e-42
107	0x00000222	7.65e-43
108	0x800000d1	-2.93e-43
109	0xbfc05d7b	-1.5028528
110	0x8000058f	-1.994e-42
111	0x800004d7	-1.736e-42
112	0x3b42c9c7	0.002972232
113	0x3f695701	0.9114838
114	0x00000474	1.597e-42
115	0x00000176	5.24e-43
116	0x800004fe	-1.791e-42
117	0x0000072a	2.57e-42
118	0x800004a8	-1.67e-42
119	0x000003f1	1.414e-42
120	0x000001c6	6.36e-43
121	0xc041a3f2	-3.0256314
122	0x3ed18162	0.40919024
123	0x800001b8	-6.17e-43
124	0x000003a3	1.305e-42
125	0x00000355	1.195e-42
126	0x000005bc	2.057e-42
127	0x000005df	2.106e-42
128	0x80000134	-4.32e-43
129	0x8000036a	-1.225e-42
130	0x0000015d	4.89e-43
131	0x000000ed	3.32e-43
132	0x8000032b	-1.136e-42
133	0x80000937	-3.306e-42
134	0xb5838b39	-9.80078e-07
135	0x800004e0	-1.749e-42
136	0xbfa25a86	-1.2683876
137	0x80000597	-2.005e-42
138	0xbf49dc80	-0.7885208
139	0x80000227	-7.72e-43
140	0x80000cfe	-4.661e-42
141	0x1ed6455e	2.2686821e-20
142	0x3a04ecb7	0.00050706737
143	0xbbf68499	-0.007523131
144	0x0000019e	5.8e-43
145	0x80000449	-1.537e-42
146	0x0000043a	1.516e-42
147	0x00000292	9.22e-43
148	0xbeb48259	-0.35255697
149	0xb480a26b	-2.3960033e-07
150	0x80000e7f	-5.2e-42
151	0x80000606	-2.161e-42
152	0x800002a1	-9.43e-43
153	0x80000354	-1.194e-42
154	0x3a01437a	0.0004931014
155	0x00000315	1.106e-42
156	0x800001d7	-6.6e-43
157	0x00000073	1.61e-43
158	0x800005ea	-2.122e-42
159	0x800002fe	-1.073e-42
160	0x0d74df7f	7.545733e-31
161	0xbb639e5b	-0.0034731838
162	0x0000048f	1.635e-42
163	0x800004d8	-1.738e-42
164	0x00000244	8.13e-43
165	0x00000044	9.5e-44
166	0x80000459	-1.56e-42
167	0x80000292	-9.22e-43
168	0x800003ae	-1.32e-42
169	0x80000296	-9.28e-43
170	0xbfd8de9f	-1.6942939
171	0xbe351396	-0.17683253
172	0x80000065	-1.42e-43
173	0x00000131	4.27e-43
174	0x800005a2	-2.02e-42
175	0x000005f0	2.13e-42
176	0x800004dd	-1.745e-42
177	0x80000311	-1.1e-42
178	0x800003b8	-1.334e-42
179	0xc019f799	-2.4057372
180	0x000001c3	6.32e-43
181	0x00000112	3.84e-43
182	0x00000250	8.3e-43
183	0x800001c5	-6.35e-43
184	0xb9fbc354	-0.00048019981
185	0x80000576	-1.959e-42
186	0xbf9d7e8a	-1.2304242
187	0x0000019c	5.77e-43
188	0x80000503	-1.798e-42
189	0xba69d71a	-0.0008920297
190	0xba35345e	-0.00069124054
191	0x80000466	-1.578e-42
192	0x000000da	3.05e-43
193	0x000001ed	6.91e-43
194	0x80000612	-2.178e-42
195	0x00000183	5.42e-43
196	0xba6c1aa7	-0.0009006657
197	0x80000230	-7.85e-43
198	0xba950c50	-0.0011371467
199	0x1b921aeb	2.417107e-22
200	0x0000046a	1.583e-42
201	0x00000281	8.98e-43
202	0x000004b9	1.694e-42
203	0x800005fe	-2.15e-42
204	0xbe9a7b9c	-0.3017243
205	0x0000014e	4.68e-43
206	0x3cfd5d91	0.030928405
207	0x800000ec	-3.31e-43
208	0xba7396d9	-0.00092921924
209	0x0000015d	4.89e-43
210	0x000003f0	1.413e-42
211	0x8000046e	-1.589e-42
212	0x800003ac	-1.317e-42
213	0x0000006a	1.49e-43
214	0x9b535398	-1.7480522e-22
215	0x00000057	1.22e-43
216	0x000003ca	1.359e-42
217	0x0000060a	2.166e-42
218	0x80000277	-8.84e-43
219	0xb1da4547	-6.352511e-09
220	0x979b0d5f	-1.0020016e-24
221	0x000004bf	1.703e-42
222	0x000003c1	1.347e-42
223	0x00000542	1.886e-42
224	0x000004b2	1.684e-42
225	0x000000a0	2.24e-43
226	0x3c514f8b	0.012775312
227	0x000005f3	2.134e-42
228	0x800002a2	-9.44e-43
229	0xc070e988	-3.7642536
230	0x800001fb	-7.1e-43
231	0x19f6a7da	2.5503599e-23
232	0x8000044a	-1.539e-42
233	0x80000288	-9.08e-43
234	0x8000044c	-1.541e-42
235	0x80000124	-4.09e-43
236	0xbfaf5e36	-1.3700626
237	0x000002aa	9.56e-43
238	0x3fd19471	1.6373426
239	0x8000050e	-1.813e-42
240	0x000004b0	1.682e-42
241	0x00000397	1.288e-42
242	0x392362df	0.00015581724
243	0x000004ef	1.77e-42
244	0x00000a2f	3.653e-42
245	0x800001d3	-6.54e-43
246	0x800002cc	-1.003e-42
247	0x9b0b3fb2	-1.1518392e-22
248	0x00000168	5.04e-43
249	0x00000162	4.96e-43
250	0x8089cfe4	-1.265604e-38
251	0x800004bc	-1.698e-42
252	0x0000035e	1.208e-42
253	0x80000107	-3.69e-43
254	0x00000274	8.8e-43
255	0xbd05b1a5	-0.03264012

fc2.bias f4 [300]
0	0xbf65168a	-0.89487517
1	0xb991f9c8	-0.00027842657
2	0xbbe4b880	-0.006980002
3	0x3b24eedb	0.0025166783
4	0x3b4026ca	0.0029319995
5	0xbe37e76a	-0.17959371
6	0x3e8211bb	0.25404152
7	0x3f49cd85	0.7882922
8	0xbc8e02ae	-0.017335262
9	0xc002eefd	-2.0458367
10	0xbbac9fff	-0.0052680965
11	0xbc0b3c50	-0.008498266
12	0x3b75526f	0.0037433167
13	0x3b920988	0.0044567026
14	0xbd4d1001	-0.05006409
15	0xbe7b9b8d	-0.24571057
16	0xbfd1134a	-1.6334012
17	0xc07252d5	-3.7863057
18	0xbc3309a2	-0.01092759
19	0xbb6f6ec7	-0.0036534534
20	0x3983389f	0.00025028453
21	0xbc768204	-0.015045647
22	0xbec0e3e4	-0.37673867
23	0xbcc34d96	-0.023840707
24	0xbe4ec92d	-0.2019393
25	0xbbd84f02	-0.0066012153
26	0x3ae97b08	0.0017813155
27	0x3b9390b8	0.004503336
28	0xbaf695da	-0.001881297
29	0xbfe2b5a2	-1.771168
30	0xc06c8868	-3.6958256
31	0x3b5d9c97	0.0033815259
32	0xbd2b2aca	-0.041788854
33	0xbf8721e7	-1.0557221
34	0xbbff92f9	-0.007799503
35	0xbcf9c2b1	-0.030488344
36	0x3c93bf51	0.018035563
37	0x3b9c17e9	0.0047635925
38	0xbc222a62	-0.0098978
39	0x3a00b8f4	0.00049103727
40	0x3dd38639	0.10328335
41	0x3b30a5c0	0.0026954263
42	0xbf123f96	-0.57128274
43	0x3cb005ef	0.021487204
44	0x3b501fd2	0.0031757248
45	0xbf8e1ee7	-1.1103181
46	0x3b4fb0f7	0.0031691173
47	0xbcb08589	-0.02154805
48	0x3e867993	0.2626463
49	0xbf924c1c	-1.1429477
50	0xc01e4f2c	-2.4735823
51	0xbc66b3b5	-0.014080931
52	0x3db85ab1	0.09001673
53	0xbeff1277	-0.49818775
54	0xbc7f1b70	-0.015570506
55	0x3a8d91cd	0.0010800898
56	0x3b9e9be2	0.00484036
57	0xbe2cdd5a	-0.16881314
58	0x3fa81ab4	1.3133149
59	0x3bceadbe	0.006307333
60	0x3b5e93cb	0.0033962603
61	0xbc483719	-0.012220168
62	0x3934adeb	0.00017230927
63	0xbbdd668c	-0.0067566093
64	0x3b090006	0.0020904555
65	0x3e0aa894	0.1354087
66	0x3f493c73	0.78607863
67	0xbe932bc5	-0.2874433
68	0x3d4be1c4	0.049775854
69	0x3fbb7464	1.4644895
70	0xbf3c66f8	-0.7359462
71	0xbd66e023	-0.056366097
72	0x3dcadb2e	0.099050865
73	0xbb3a43a3	-0.0028421662
74	0x3aafc378	0.0013409695
75	0x3b9aaa29	0.0047199917
76	0xbcc91b5b	-0.024549177
77	0x3f9e6d34	1.2377076
78	0xbc844069	-0.016143994
79	0xbab9ef20	-0.0014185645
80	0xbb86b01e	-0.0041103503
81	0xbea51e1b	-0.3224953
82	0xbe90a1bc	-0.28248394
83	0x3b471b6f	0.0030381342
84	0xbca6bcfe	-0.02035379
85	0xbfc98125	-1.5742537
86	0xba98c159	-0.0011654302
87	0xbf413430	-0.75470257
88	0xbe996df2	-0.29966694
89	0x3fc2f05f	1.5229605
90	0x3f4edc90	0.808053
91	0x3d1cba87	0.038263824
92	0xbc630a5d	-0.013857451
93	0x3cc6a66e	0.024249282
94	0xbc82c25a	-0.015961815
95	0xc00742ba	-2.1134477
96	0xbc9bd61f	-0.019023
97	0x3b0720c7	0.0020618902
98	0xbac2d138	-0.0014863377
99	0xbf19405b	-0.59863824
100	0xbec120da	-0.37720376
101	0xbfe1a557	-1.7628583
102	0xbc377168	-0.011196472
103	0x3b2b5d7e	0.0026148255
104	0x3b772771	0.0037712718
105	0x3d2ed931	0.0426876
106	0x3b6f9dda	0.0036562593
107	0x3acc9494	0.0015608245
108	0x3b2d9064	0.0026483769
109	0xbf57fc71	-0.8436957
110	0x3b1ce0fe	0.0023937817
111	0xba0a9913	-0.0005287092
112	0xbc9da65f	-0.019244371
113	0xbbc27ca8	-0.0059352703
114	0x3f36722b	0.71267956
115	0xbc5a367b	-0.013318653
116	0x3ad8425e	0.0016499271
117	0x3a443a39	0.00074854825
118	0xbc310451	-0.010804252
119	0xbd094370	-0.03351158
120	0x3de74cb6	0.11293928
121	0xbc0944a7	-0.008378184
122	0x3cbad42b	0.022806248
123	0xbf06b5a4	-0.5262091
124	0x3f4796f3	0.77964705
125	0xbd91c110	-0.07116902
126	0xbc343c22	-0.011000665
127	0x3f731f0e	0.9496926
128	0xbd087b8a	-0.03332094
129	0xbea4d6d9	-0.32195166
130	0xbf9bb33b	-1.2164072
131	0x3b16bea3	0.0023001812
132	0xbcd743b0	-0.026277393
133	0xbc7a74cb	-0.015286635
134	0x401c1590	2.438816
135	0xbc8de16c	-0.017319404
136	0xbc8d9aa8	-0.01728566
137	0xbf3ada66	-0.729895
138	0xb911458e	-0.00013854189
139	0xbc1c33f9	-0.009533876
140	0xbca691cb	-0.020333191
141	0x3b69b873	0.0035662919
142	0x3b63cc88	0.0034759361
143	0x3b0c1b43	0.0021378554
144	0x3c47890b	0.01217867
145	0xbf98f0c6	-1.1948478
146	0xbc907652	-0.017634545
147	0xbfdc152c	-1.7193961
148	0xbc9a186b	-0.018810472
149	0xbc9afd6a	-0.018919665
150	0xbbb897ac	-0.005633315
151	0xb948dfb3	-0.00019156821
152	0xbf889959	-1.0671798
153	0x3ebc9967	0.36835787
154	0x3b08ca2f	0.0020872464
155	0x3b5644e6	0.0032694875
156	0x3b6857f6	0.003545282
157	0x3fef3c9c	1.8690372
158	0x3963bb15	0.000217181
159	0x400627b3	2.096173
160	0xbc80220f	-0.01564124
161	0x3b75c50d	0.0037501485
162	0x3d513983	0.051080238
163	0x3a7d6a18	0.0009666993
164	0xbf0afafd	-0.5428923
165	0x3b7fd021	0.0039033967
166	0xbe7f5bc5	-0.24937351
167	0xbc2c5a2e	-0.010519547
168	0xbf6cc97b	-0.92494935
169	0xbac2a659	-0.0014850601
170	0xbc2f06ab	-0.010682742
171	0xbbd5fa1c	-0.0065300595
172	0xbf0b1dad	-0.54342157
173	0x3f5456da	0.82945025
174	0xbf0b31fc	-0.54373145
175	0xbc277051	-0.010219649
176	0x3b154817	0.0022778565
177	0x3b695f5b	0.0035609815
178	0x3b3ee084	0.002912552
179	0xbcaacf45	-0.020850787
180	0x3d9295d8	0.07157487
181	0xba8a04e1	-0.0010530018
182	0x3e520bf6	0.20512375
183	0xba84b1ca	-0.0010123786
184	0xbfa1e8a3	-1.264912
185	0xbd02cdd1	-0.031934563
186	0x3b566588	0.0032714326
187	0xbeab6b56	-0.33480328
188	0x3b79eadc	0.0038134372
189	0xbc7c402e	-0.015396161
190	0x3b6b4b56	0.0035903058
191	0xbc71ef9b	-0.014766599
192	0x3b547424	0.0032417858
193	0x3e0aba54	0.13547641
194	0x3f2a3592	0.6648799
195	0x3b1957fa	0.0023398385
196	0x3c389f81	0.011268497
197	0x3aa40baa	0.0012515683
198	0x3a90912f	0.0011029596
199	0x3aaac722	0.0013029317
200	0x3e389391	0.18025042
201	0xbc8d89c4	-0.017277606
202	0xbd086900	-0.03330326
203	0x3e807bbc	0.25094402
204	0xbd6f5556	-0.058430992
205	0x3ed42a9c	0.41438758
206	0x3af93e46	0.0019015751
207	0x3b20662b	0.002447496
208	0xbc2faf7d	-0.010722992
209	0xbaa207be	-0.0012361926
210	0xbd60c759	-0.054877613
211	0xc007e7d5	-2.123525
212	0xbe06a673	-0.13149433
213	0xbbb20121	-0.0054322635
214	0xbfa61a1f	-1.2976722
215	0xbc22d2e1	-0.009937973
216	0xbfa4ce6c	-1.2875495
217	0x3b509f8d	0.003183338
218	0x3f3706da	0.7149483
219	0xbc184320	-0.009293348
220	0xbf2665bf	-0.64999
221	0x3b47cbae	0.0030486393
222	0xbc03e4fc	-0.0080502
223	0x3b34c0e3	0.002758079
224	0x3d28a6e6	0.04117479
225	0xbf0f167e	-0.55893695
226	0x3a0f63d9	0.00054698956
227	0xbf2b4f20	-0.6691761
228	0x3a08f701	0.0005224795
229	0x3d1c9217	0.03822526
230	0x3b45f47e	0.0030205543
231	0xbc6f9d1c	-0.01462486
232	0x3b1500b3	0.0022736012
233	0x3faf62a4	1.3701978
234	0xbcc3910c	-0.023872875
235	0xbde7e7c1	-0.113235004
236	0xbcec9d31	-0.028883548
237	0xbb83ab17	-0.0040181982
238	0xbc8df2ee	-0.017327752
239	0xbd1fd2a0	-0.039019227
240	0xbc7b3fdf	-0.015335052
241	0xbfcdc6b4	-1.6076264
242	0x3f54d4ee	0.83137405
243	0xbc621257	-0.013798318
244	0xb9514f2a	-0.00019961284
245	0x3b0525e3	0.0020316772
246	0x3e553da6	0.20824298
247	0xbf045d3f	-0.5170478
248	0x3e806b59	0.250819
249	0xbe4270c8	-0.18988335
250	0xbbd5721f	-0.0065138484
251	0x3be57ebf	0.0070036347
252	0xbdc325bd	-0.095286824
253	0x3e046181	0.1292782
254	0xbce2e110	-0.027695209
255	0xbc8692ad	-0.016427362

bn1.weight f4 [400]
0	0x000001ad	6.01e-43
1	0x80000107	-3.69e-43
2	0xbfe3e120	-1.7803078
3	0x80063c43	-5.72631e-40
4	0x80000164	-4.99e-43
5	0x000000ed	3.32e-43
6	0x8000020f	-7.38e-43
7	0x800000cf	-2.9e-43
8	0xa0c17491	-3.277261e-19
9	0x4080f781	4.030213
10	0x000003ff	1.434e-42
11	0x0000037b	1.249e-42
12	0x0000016b	5.09e-43
13	0x3e867914	0.2626425
14	0x800001e5	-6.8e-43
15	0x800001cd	-6.46e-43
16	0x0000010c	3.76e-43
17	0x0000069f	2.375e-42
18	0x0000014e	4.68e-43
19	0x000003a8	1.312e-42
20	0x000000f4	3.42e-43
21	0x800973dc	-8.68082e-40
22	0x406cb9e2	3.6988454
23	0x00001ee9	1.1088e-41
24	0x800002b4	-9.7e-43
25	0x000002c8	9.98e-43
26	0x8003ff7f	-3.67161e-40
27	0x3e96923e	0.2940845
28	0x8086337e	-1.2324428e-38
29	0x3fdfcb87	1.7483987
30	0x8000012b	-4.19e-43
31	0x0000010a	3.73e-43
32	0x000012c1	6.728e-42
33	0x94585f42	-1.09239994e-26
34	0x000001dc	6.67e-43
35	0x000002ed	1.05e-42
36	0x0000057e	1.97e-42
37	0x80000026	-5.3e-44
38	0x80000177	-5.25e-43
39	0x00000954	3.346e-42
40	0x00000252	8.32e-43
41	0x00000052	1.15e-43
42	0x000001ac	6e-43
43	0x401bc23c	2.4337301
44	0x800000c5	-2.76e-43
45	0x8000006e	-1.54e-43
46	0x0f3457b5	8.891577e-30
47	0x8000000f	-2.1e-44
48	0x00000214	7.45e-43
49	0xbc6966e6	-0.014245724
50	0xbb12acba	-0.0022380785
51	0x800000b4	-2.52e-43
52	0x3fab04ed	1.3360878
53	0x000003ef	1.411e-42
54	0x0000014f	4.7e-43
55	0x4084a64e	4.145301
56	0x3ffce128	1.9756212
57	0x8000022d	-7.8e-43
58	0x4013d302	2.309754
59	0x00000093	2.06e-43
60	0x000073a7	4.1488e-41
61	0x8433c1e4	-2.1130379e-36
62	0x80000180	-5.38e-43
63	0x96365a6f	-1.4730379e-25
64	0x1e997ea3	1.6251881e-20
65	0x8000018f	-5.59e-43
66	0x80000263	-8.56e-43
67	0x80000256	-8.38e-43
68	0x0000015f	4.92e-43
69	0x800000c8	-2.8e-43
70	0xa2bb4dd5	-5.076886e-18
71	0x80000013	-2.7e-44
72	0x800016b4	-8.144e-42
73	0x80000531	-1.862e-42
74	0x40407e2c	3.007701
75	0x0000045a	1.561e-42
76	0xbf2d6489	-0.6773153
77	0x402df291	2.71793
78	0x8000020d	-7.36e-43
79	0x80000104	-3.64e-43
80	0x0000005e	1.32e-43
81	0x00000135	4.33e-43
82	0x000267b9	2.2088e-40
83	0x000000c4	2.75e-43
84	0x000001e1	6.74e-43
85	0x8000027e	-8.94e-43
86	0x80bb294c	-1.7188052e-38
87	0x1b67217f	1.9118695e-22
88	0x834da1c4	-6.0429783e-37
89	0x3f9d1cac	1.2274375
90	0xa253eddf	-2.872176e-18
91	0xb6271d8d	-2.490214e-06
92	0x40a587f9	5.172848
93	0x3f4fdd8d	0.81197435
94	0x992ed4d1	-9.038567e-24
95	0x80000082	-1.82e-43
96	0x41340288	11.250618
97	0x3f8a8a98	1.0823545
98	0x9d60e0bf	-2.9762344e-21
99	0x400c111a	2.1885438
100	0x4016e6fe	2.3578486
101	0x8ee4bc6c	-5.6387783e-30
102	0x3acccba0	0.001562465
103	0x000001ab	5.98e-43
104	0x3fc2ad5c	1.5209155
105	0x80517703	-7.481369e-39
106	0x80000197	-5.7e-43
107	0x80000186	-5.47e-43
108	0x80001680	-8.071e-42
109	0x3fb5e32e	1.4209955
110	0x00000046	9.8e-44
111	0x89256c1a	-1.9911982e-33
112	0xbbf78e98	-0.0075548403
113	0x40a8c8d7	5.2745166
114	0x000000c8	2.8e-43
115	0x2aa9c7f3	3.0159173e-13
116	0x0740a941	1.4494214e-34
117	0x00000209	7.3e-43
118	0x800003fe	-1.432e-42
119	0x800000cc	-2.86e-43
120	0x0000000a	1.4e-44
121	0x405f1a5e	3.4859843
122	0x3fe41ba9	1.7820941
123	0x00001a0b	9.342e-42
124	0x80000173	-5.2e-43
125	0x00000057	1.22e-43
126	0x800006dc	-2.46e-42
127	0x80000087	-1.89e-43
128	0x0000021d	7.58e-43
129	0x00000070	1.57e-43
130	0x00000074	1.63e-43
131	0x2116c20f	5.107881e-19
132	0x00000119	3.94e-43
133	0x800002e2	-1.034e-42
134	0x3b3b5f48	0.0028590728
135	0x000000f3	3.4e-43
136	0x400b9f4d	2.181598
137	0x80000162	-4.96e-43
138	0x3fa09886	1.2546546
139	0x0000048e	1.634e-42
140	0x0000029e	9.39e-43
141	0x30f9cce1	1.8175365e-09
142	0x3c481160	0.012211174
143	0x3d83c0c8	0.064332545
144	0x800000e2	-3.17e-43
145	0x00000030	6.7e-44
146	0x0000039d	1.296e-42
147	0x800d010b	-1.194236e-39
148	0x4026326e	2.596828
149	0x3c42c051	0.011886672
150	0x3fa8ea00	1.3196411
151	0x00000236	7.93e-43
152	0x010291c6	2.3981816e-38
153	0x800008a2	-3.097e-42
154	0x3fd93f6c	1.697248
155	0x000000bd	2.65e-43
156	0x8002dc94	-2.628e-40
157	0x800005e3	-2.112e-42
158	0x80000038	-7.8e-44
159	0x951c282f	-3.1535648e-26
160	0x0e5e4df3	2.7401144e-30
161	0xbc71c7c9	-0.014757105
162	0x8000018b	-5.54e-43
163	0x8000076f	-2.667e-42
164	0x8000013a	-4.4e-43
165	0x80000022	-4.8e-44
166	0x80000290	-9.19e-43
167	0x11cc44aa	3.2227842e-28
168	0x800003e8	-1.401e-42
169	0x00000628	2.208e-42
170	0x4062c56e	3.5433002
171	0x3f06a2a2	0.5259191
172	0x00000217	7.5e-43
173	0x2136ddc2	6.195749e-19
174	0x800000de	-3.11e-43
175	0x000002d0	1.009e-42
176	0x000001bc	6.22e-43
177	0x800001f6	-7.03e-43
178	0x00000048	1.01e-43
179	0x3ff5ce04	1.9203496
180	0x000001dc	6.67e-43
181	0x000002d4	1.015e-42
182	0x94e405ec	-2.3024452e-26
183	0x8000011b	-3.97e-43
184	0xba8a1eda	-0.0010537759
185	0x8008b8e2	-8.01007e-40
186	0x400299ce	2.0406375
187	0x0000019b	5.76e-43
188	0x800001b0	-6.05e-43
189	0x3d88ca27	0.066791825
190	0x3b6d9279	0.0036250635
191	0x80000081	-1.81e-43
192	0x8000004d	-1.08e-43
193	0x0000005a	1.26e-43
194	0x800001e4	-6.78e-43
195	0x000003ac	1.317e-42
196	0xbb61886e	-0.0034413594
197	0x8000023c	-8.02e-43
198	0x3e41fa5f	0.18943165
199	0x9c2cbad9	-5.715152e-22
200	0x8000007f	-1.78e-43
201	0x80000037	-7.7e-44
202	0x0000147f	7.353e-42
203	0x80002327	-1.261e-41
204	0x3fb3a31c	1.4034152
205	0x800000bf	-2.68e-43
206	0x4033681c	2.8032293
207	0x800001b2	-6.08e-43
208	0xbbcb7286	-0.0062087206
209	0x00000033	7.1e-44
210	0x000002fa	1.068e-42
211	0x000003a6	1.309e-42
212	0x0000030e	1.096e-42
213	0x00000083	1.84e-43
214	0x1c051f8a	4.404677e-22
215	0x800001cf	-6.49e-43
216	0x8539f020	-8.742762e-36
217	0x000000bd	2.65e-43
218	0x000000d7	3.01e-43
219	0xa8abfcff	-1.9094533e-14
220	0x96f6a575	-3.9847862e-25
221	0x00000055	1.19e-43
222	0x00000126	4.12e-43
223	0x8b0b651a	-2.6846487e-32
224	0x00000148	4.6e-43
225	0xb60d8327	-2.1086978e-06
226	0x3f954327	1.1661118
227	0x8000020a	-7.31e-43
228	0x00006187	3.4986e-41
229	0x3feb41ac	1.8379416
230	0x000000aa	2.38e-43
231	0xb4838bb5	-2.4502302e-07
232	0x80000130	-4.26e-43
233	0x000001cf	6.49e-43
234	0x80000044	-9.5e-44
235	0x802753d2	-3.611653e-39
236	0x3fcc82f6	1.5977466
237	0x80000197	-5.7e-43
238	0x40780417	3.8752496
239	0x000013d4	7.113e-42
240	0x80013b7a	-1.13172e-40
241	0x00000144	4.54e-43
242	0xb8cc972b	-9.755635e-05
243	0x8000029f	-9.4e-43
244	0xb8380ca5	-4.3880795e-05
245	0x000005ee	2.127e-42
246	0x000000c7	2.79e-43
247	0x9d47dae9	-2.6450605e-21
248	0x8000037a	-1.247e-42
249	0x00000021	4.6e-44
250	0x017b3f4e	4.6146838e-38
251	0x0000346e	1.8808e-41
252	0x0000024d	8.25e-43
253	0x00000192	5.63e-43
254	0x00003068	1.7365e-41
255	0x4018a314	2.3849535

bn1.bias f4 [400]
0	0xb4318c09	-1.6535354e-07
1	0xb40fcae2	-1.3391721e-07
2	0xbe9d97e1	-0.30779937
3	0xb40de3d5	-1.3214533e-07
4	0xb438d01a	-1.7212042e-07
5	0xb424da8e	-1.53532e-07
6	0xb431e087	-1.6566092e-07
7	0xb430d47a	-1.6468576e-07
8	0xa4519e6f	-4.545385e-17
9	0x3f54b000	0.83081055
10	0xb42e8fa4	-1.6257269e-07
11	0xb4386cb8	-1.7175887e-07
12	0xb4a9f0d1	-3.165392e-07
13	0x3e97eb2a	0.29671603
14	0xb4172f4e	-1.408018e-07
15	0xb41ffb5b	-1.4899472e-07
16	0xb4336a14	-1.6709265e-07
17	0xb43ff239	-1.7876381e-07
18	0xb4253b22	-1.5388335e-07
19	0xb41a3bfa	-1.4364187e-07
20	0xb42e51cd	-1.6234772e-07
21	0xb404ae0f	-1.235678e-07
22	0x3fbc823c	1.4727244
23	0xb42b48ba	-1.5952074e-07
24	0xb66ac6ba	-3.4984391e-06
25	0xb41e5b12	-1.4748028e-07
26	0xb4281f54	-1.5657616e-07
27	0x880947a1	-4.1311137e-34
28	0xb50a2225	-5.1458693e-07
29	0xbe57fb6c	-0.21092004
30	0xb424d2ec	-1.5350423e-07
31	0xb4328130	-1.662454e-07
32	0xb4093f98	-1.2782255e-07
33	0xb9b53d01	-0.00034568462
34	0xb220deca	-9.363882e-09
35	0xb417129b	-1.406974e-07
36	0xb411bd4b	-1.3573042e-07
37	0xb1c4f68e	-5.732381e-09
38	0xa01545e4	-1.2643916e-19
39	0xab9eadab	-1.1274778e-12
40	0xb433cfe3	-1.6746303e-07
41	0xb43cfae8	-1.7600144e-07
42	0xb1323a38	-2.5935503e-09
43	0xbe6b15f3	-0.22957592
44	0xb420b4f5	-1.4966993e-07
45	0xb4247b8a	-1.5318633e-07
46	0xb6f2ab26	-7.2320863e-06
47	0xb6de1358	-6.6183675e-06
48	0xb41ce6fe	-1.4612667e-07
49	0x80000166	-5.02e-43
50	0x3b327ab1	0.0027233774
51	0xb430036c	-1.6392522e-07
52	0x3ee647f4	0.4497677
53	0xb44124c1	-1.7987897e-07
54	0xb42250e0	-1.5116848e-07
55	0x3f60db8b	0.87834996
56	0x3f3f8d76	0.7482523
57	0xb41bb475	-1.450115e-07
58	0x3e9bfe2b	0.30467352
59	0xb4319492	-1.6538459e-07
60	0xb4128818	-1.364682e-07
61	0xb5933aad	-1.096943e-06
62	0xb439bf35	-1.7299028e-07
63	0xb8898e33	-6.559156e-05
64	0x9f2b6d8b	-3.630127e-20
65	0xb4360451	-1.6951641e-07
66	0xb41bb62c	-1.4501774e-07
67	0xb42c15b3	-1.6026642e-07
68	0xb4267275	-1.5501594e-07
69	0xb4392326	-1.7242255e-07
70	0xb46dd368	-2.2149254e-07
71	0xa34ad831	-1.0996222e-17
72	0xb413d216	-1.376687e-07
73	0xb422bb2f	-1.5155523e-07
74	0x3dcb9193	0.099398755
75	0xb415ef38	-1.3963734e-07
76	0xbe8d60e3	-0.2761298
77	0xbf160fc1	-0.5861779
78	0xb1d2586c	-6.121857e-09
79	0xb422beea	-1.515688e-07
80	0xb0ba7b82	-1.3568384e-09
81	0xb3f9731f	-1.16159065e-07
82	0xb703f963	-7.866273e-06
83	0xb426c1ee	-1.5530506e-07
84	0xb41ce0d5	-1.4610426e-07
85	0xae668237	-5.24116e-11
86	0xb51c71ca	-5.8280114e-07
87	0x9e852447	-1.4096927e-20
88	0xb45a1ac6	-2.0312572e-07
89	0x3fa4b418	1.286746
90	0xa3630ce4	-1.2308424e-17
91	0xb6a9ea37	-5.0638587e-06
92	0x3fa5d91f	1.2956885
93	0xbeaa1959	-0.33222464
94	0xb70d3f41	-8.418982e-06
95	0xb1cc3779	-5.943488e-09
96	0x3fa06f98	1.2534056
97	0xbf43f42c	-0.7654445
98	0x9ea053ea	-1.6975365e-20
99	0x400c9e42	2.1971593
100	0xbf067207	-0.5251774
101	0xb40c2c49	-1.3054627e-07
102	0x3e505f4c	0.20348853
103	0xb434493f	-1.6790453e-07
104	0x401b09f6	2.422483
105	0xb175298e	-3.5675813e-09
106	0xb3fc95ed	-1.1761936e-07
107	0xb43a7aae	-1.736723e-07
108	0xb4294f43	-1.5768187e-07
109	0x402f121a	2.7354798
110	0xb19e2191	-4.6022213e-09
111	0xb043af27	-7.1189493e-10
112	0x3dc868dc	0.09785625
113	0x3e27eff2	0.16400126
114	0xb42ea99b	-1.6266715e-07
115	0xb605b624	-1.9924564e-06
116	0xb3fb3ec3	-1.16995146e-07
117	0xb16dfd06	-3.4631866e-09
118	0xb43da89f	-1.766334e-07
119	0xb425f6bf	-1.5456588e-07
120	0xb16ed08f	-3.475211e-09
121	0x3f9262b8	1.1436377
122	0xbc5feb8f	-0.013667001
123	0xb42d96e9	-1.6166781e-07
124	0xb43b2762	-1.743006e-07
125	0xb41d21bb	-1.4634035e-07
126	0xb42a05fa	-1.5834658e-07
127	0xb43a6c94	-1.73621e-07
128	0xb41af97c	-1.443313e-07
129	0xb43260f2	-1.661281e-07
130	0xb4353865	-1.6877455e-07
131	0xb78fedc8	-1.7157654e-05
132	0xb6a9edd4	-5.0642793e-06
133	0xaf974325	-2.751445e-10
134	0xbaec1e96	-0.0018014486
135	0xb3e82f90	-1.08119934e-07
136	0x3fd40882	1.6565096
137	0xb41a989e	-1.439789e-07
138	0xc01621ac	-2.3458052
139	0xac82c468	-3.7166277e-12
140	0xb31c1eb6	-3.6349512e-08
141	0xb7e1c3be	-2.691324e-05
142	0x3de75299	0.11295051
143	0xbd3e3486	-0.04643681
144	0xb415e4a4	-1.3959885e-07
145	0xb40f272f	-1.3332168e-07
146	0xb3109149	-3.365975e-08
147	0xb531072a	-6.5948063e-07
148	0xbe56eea0	-0.20989466
149	0xbcb0aaca	-0.021565814
150	0x0000095f	3.362e-42
151	0xb453b18a	-1.9715495e-07
152	0xb3f5c6ae	-1.1444841e-07
153	0xb42c3f04	-1.6041673e-07
154	0x3f5a9ac3	0.853924
155	0xb4362c33	-1.696615e-07
156	0xb698e605	-4.556731e-06
157	0xb43e0ae4	-1.7699091e-07
158	0xb43276f2	-1.6620814e-07
159	0xb7057caf	-7.956448e-06
160	0xbaf1ede0	-0.0018457733
161	0xbcb9654c	-0.02263131
162	0xb43c710a	-1.7549988e-07
163	0xb43f7727	-1.7831609e-07
164	0xb436ee5a	-1.7036783e-07
165	0xa0cd20fa	-3.4750173e-19
166	0xb193481d	-4.2864614e-09
167	0xb6bf6918	-5.704478e-06
168	0xb4190394	-1.4250537e-07
169	0xb43eb794	-1.7761914e-07
170	0xbf65d099	-0.8977142
171	0x3f645600	0.89193726
172	0xb431ecd4	-1.6570567e-07
173	0xb79b1a73	-1.8489756e-05
174	0xb4386400	-1.7172715e-07
175	0x9f10d461	-3.0668862e-20
176	0xb432b6d2	-1.6644051e-07
177	0xb40da7cb	-1.3192691e-07
178	0xb416fbec	-1.4061487e-07
179	0x3e1d2440	0.1534586
180	0xb4b44774	-3.3579602e-07
181	0xb41419cf	-1.3792963e-07
182	0xb77c5ed4	-1.5042449e-05
183	0xb42df223	-1.619997e-07
184	0x3c5bb2fc	0.013409372
185	0xb4247d68	-1.5319313e-07
186	0x3f48a132	0.78370965
187	0xb44407af	-1.8256718e-07
188	0xb39baf49	-7.249634e-08
189	0x3cef9cc9	0.029249566
190	0x3daae652	0.08344711
191	0xb419bba9	-1.4317506e-07
192	0xb419042b	-1.4250752e-07
193	0xb42cf70a	-1.610862e-07
194	0xa16f8818	-8.115647e-19
195	0xb43e3a88	-1.7716422e-07
196	0x3cac55ae	0.021036949
197	0xb42454ff	-1.5304612e-07
198	0x3e17c3f6	0.14820847
199	0x9ea986e0	-1.7949354e-20
200	0xb21f9d0d	-9.290727e-09
201	0xb41c983c	-1.4584015e-07
202	0xb40b2f02	-1.2962485e-07
203	0xb4189556	-1.4210431e-07
204	0x3fe0cf19	1.7563201
205	0xb437aaec	-1.7105384e-07
206	0xbd9af243	-0.07565739
207	0xb433521b	-1.6700544e-07
208	0x3cfed790	0.031108648
209	0xb432b92e	-1.664491e-07
210	0xb4215345	-1.5024587e-07
211	0xb4205754	-1.4932931e-07
212	0xb4373bd8	-1.7064974e-07
213	0xb41bf428	-1.4524323e-07
214	0x9c29a5d3	-5.613173e-22
215	0xb1a7ed18	-4.887294e-09
216	0xb417321b	-1.4081199e-07
217	0xb4194371	-1.427377e-07
218	0xb5261de8	-6.188334e-07
219	0xb930e196	-0.00016868705
220	0xad8044c8	-1.458246e-11
221	0xb41ad01d	-1.4418079e-07
222	0xa0459b87	-1.6738009e-19
223	0xb27f7491	-1.4869458e-08
224	0xb418dc8d	-1.4236339e-07
225	0xb8268820	-3.970426e-05
226	0xbdbf6dc8	-0.09347111
227	0xa102ba84	-4.4292565e-19
228	0xb42a6c89	-1.5871969e-07
229	0xbef6e9b7	-0.48225185
230	0xa16a637d	-7.9413956e-19
231	0xb6926044	-4.362346e-06
232	0xb4247dd4	-1.5319466e-07
233	0xb41fedb8	-1.489451e-07
234	0xb30b5b3a	-3.244643e-08
235	0xb58c3665	-1.0446644e-06
236	0xbf0411a1	-0.515894
237	0xb435f934	-1.6947598e-07
238	0x3fd2e589	1.6476299
239	0xb40851aa	-1.2695696e-07
240	0xb4273e1a	-1.557568e-07
241	0xb4285fef	-1.568112e-07
242	0xba0794ed	-0.0005172033
243	0xb43d362b	-1.7621703e-07
244	0xb70c9612	-8.379591e-06
245	0xb00953a3	-4.9959165e-10
246	0xb4167929	-1.4013916e-07
247	0x9e20cf4c	-8.5131975e-21
248	0xb41e8406	-1.4762927e-07
249	0xa18fb894	-9.738914e-19
250	0xac7ed8b8	-3.6215874e-12
251	0xb41968f6	-1.428742e-07
252	0xb43addb4	-1.7403255e-07
253	0xb41ba969	-1.4497131e-07
254	0xb412da29	-1.3676676e-07
255	0xbe2f68da	-0.17129841

bn2.weight f4 [300]
0	0x409fdecd	4.9959474
1	0xb85120b3	-4.9859937e-05
2	0xbe88a6a8	-0.2668965
3	0x3ebb1783	0.36541376
4	0x3e90e87c	0.28302372
5	0xc0c40ea6	-6.126788
6	0xb3214f0a	-3.755762e-08
7	0x36c17c22	5.766299e-06
8	0x3fb15568	1.3854189
9	0x40a41f5c	5.128828
10	0x3e17183c	0.14755338
11	0xbf087bc7	-0.5331387
12	0x3eaec407	0.34133932
13	0x3f8b2d40	1.0873184
14	0x400faa17	2.2447565
15	0x3f2d2a85	0.67643005
16	0x40b420ac	5.6289883
17	0x40a6100a	5.189458
18	0xb6e409dd	-6.7960777e-06
19	0x3f0f53e1	0.55987364
20	0x3e9d2c91	0.30698064
21	0xbd9ae1e8	-0.075626194
22	0x2471b7bb	5.241417e-17
23	0x320251e4	7.585616e-09
24	0x3f144681	0.5792008
25	0xad90f709	-1.648061e-11
26	0x2c389bc1	2.6234433e-12
27	0x3ea5e8ec	0.32404268
28	0xa44f9957	-4.5015854e-17
29	0x3ea03c30	0.3129592
30	0x41369482	11.411257
31	0x3eb7938e	0.35854763
32	0x3eda292a	0.4260953
33	0x4010f084	2.26468
34	0xbe85b016	-0.26110905
35	0x3f850550	1.0392246
36	0x3e394686	0.18093309
37	0x3eac8208	0.33692956
38	0xbdce5712	-0.10075201
39	0x405c0f7f	3.4384458
40	0x3ed4af64	0.41540062
41	0x3ebd914c	0.37024915
42	0x408e3b55	4.4447427
43	0x4052c239	3.2931044
44	0x3eb7f19c	0.3592652
45	0x404e6c92	3.2253766
46	0x3eb5715e	0.35438055
47	0x3d78cddd	0.0607432
48	0x408bde7b	4.3709083
49	0x409ddd53	4.933267
50	0x3eab7145	0.33484855
51	0xb23c5ec8	-1.0964591e-08
52	0xc063fcff	-3.5623167
53	0x3f842f60	1.0326958
54	0xbb3c9efc	-0.0028781286
55	0x3ea51990	0.32246065
56	0x3ea5a601	0.32353213
57	0x3d481050	0.04884368
58	0x409d7912	4.921029
59	0x401a572b	2.4115703
60	0xadf1c9e0	-2.7488178e-11
61	0x3a4badff	0.0007769763
62	0x3e9c40a2	0.3051806
63	0xabba8ca9	-1.3255136e-12
64	0x3ea1277c	0.31475437
65	0x405c8d4f	3.4461248
66	0xc0437f77	-3.0546548
67	0x4056ffa3	3.3593528
68	0x4089936f	4.2992473
69	0x40a8331e	5.25624
70	0x4051fb01	3.280945
71	0x39eeaf39	0.00045525449
72	0x4050d85c	3.2632055
73	0x4053930c	3.30585
74	0x3eae947b	0.34097657
75	0x3eae4a6c	0.34041154
76	0x3fa6119a	1.2974122
77	0x40c35413	6.104013
78	0xab198c2b	-5.455104e-13
79	0xb5aa5612	-1.2691037e-06
80	0x39debae1	0.00042482375
81	0x3ec6f21c	0.3885659
82	0x3ae8ab1b	0.0017751189
83	0x3eb3c76e	0.3511309
84	0x3e1d7571	0.15376832
85	0x4095a936	4.6769056
86	0x8000004c	-1.06e-43
87	0x392c513e	0.00016433463
88	0x40421cfb	3.0330188
89	0xbca471fc	-0.020073883
90	0x4038de59	2.888571
91	0x4020a451	2.510029
92	0x3e18936f	0.14899991
93	0x3e96256e	0.29325432
94	0x3f676404	0.90386987
95	0x3db7205c	0.08941719
96	0x3b1ee161	0.0024243223
97	0x3b2d01f3	0.0026398867
98	0x3e3dbe2e	0.18529579
99	0x3eb97d34	0.36228335
100	0xb623d260	-2.4411347e-06
101	0x3d248071	0.040161554
102	0xba22a5b5	-0.0006204502
103	0x3ec1dd4a	0.37864143
104	0x3eab27d7	0.33428833
105	0xc025dca0	-2.591591
106	0x3ea01492	0.31265694
107	0x3e91503b	0.28381523
108	0x3e9bc67f	0.30424878
109	0x40aae8bd	5.3409104
110	0x3ebe99d1	0.37226728
111	0x3ea12186	0.3147089
112	0x1f5ec7fa	4.7175745e-20
113	0x3cd88c69	0.02643414
114	0x4097d941	4.7452703
115	0x3f652662	0.8951169
116	0x3e83016b	0.2558702
117	0x237989f8	1.3527533e-17
118	0xbd9c2aeb	-0.076253735
119	0x3d14a8c5	0.036293764
120	0xbf5eef5f	-0.87084
121	0xabaa168c	-1.2085485e-12
122	0x3f87599a	1.0574219
123	0x3f9e09f1	1.2346784
124	0xbf5eb07c	-0.86988044
125	0x3fd512fb	1.6646417
126	0xbf036111	-0.51319987
127	0xbe996d7c	-0.29966342
128	0x3fb69e2c	1.426702
129	0x4081a531	4.051415
130	0x3d41cb63	0.047313105
131	0x3ec01e02	0.37522894
132	0xa6815e82	-8.97679e-16
133	0x3a1e8189	0.0006046524
134	0x40b70c2b	5.7202353
135	0x3e48c985	0.19608124
136	0x3e9309ba	0.28718358
137	0x3ede5354	0.4342295
138	0x3ee993c4	0.4562055
139	0x4034a817	2.8227594
140	0x34a2e6e4	3.0342846e-07
141	0x3ea740a9	0.3266652
142	0x00a63c13	1.5266243e-38
143	0x3eab1854	0.33416998
144	0x83b76e4c	-1.0781096e-36
145	0x3d31b03e	0.04338097
146	0xb4de976d	-4.14609e-07
147	0x3f07a510	0.5298624
148	0x403949de	2.8951335
149	0x2dd05c31	2.3687803e-11
150	0x00b60c32	1.6718435e-38
151	0xab32c0a6	-6.3505657e-13
152	0x3f844eca	1.0336545
153	0x40886cc4	4.263277
154	0x3e9b9653	0.30388126
155	0xaecddb75	-9.361304e-11
156	0x3ea4e94e	0.32209247
157	0x40d06544	6.5123615
158	0x34052d1a	1.2402998e-07
159	0x400f2b6b	2.237025
160	0x172270a5	5.24872e-25
161	0x3eaa1809	0.33221462
162	0x40490945	3.1411908
163	0xb8cb1de4	-9.685362e-05
164	0x40041af8	2.064146
165	0x3eaad7fa	0.33367902
166	0x40325c4f	2.786884
167	0xbe43e6a0	-0.19130945
168	0x3b9a83dc	0.004715426
169	0x326ae08c	1.3671649e-08
170	0x3a3ef2f6	0.0007284129
171	0x2d85c78e	1.520897e-11
172	0x3e89855b	0.26859555
173	0x40a7ad0b	5.2398734
174	0x339757da	7.0474655e-08
175	0x39b13d62	0.00033805805
176	0x3ec96aa2	0.39339167
177	0x3ea4e505	0.32205978
178	0x3eb8b636	0.36076516
179	0xa0850b58	-2.2538583e-19
180	0x3e0095a8	0.1255709
181	0x3a96679f	0.0011474973
182	0x3f43994c	0.7640579
183	0x3e821d83	0.2541314
184	0x3dd00c51	0.10158599
185	0x4005e623	2.0921714
186	0x3eb57f5a	0.35448724
187	0x406f7fa5	3.7421658
188	0x3ea16bf8	0.31527686
189	0x3e154a29	0.14579071
190	0x3eae35c7	0.34025404
191	0x1a2fb441	3.633476e-23
192	0x3eb1ccbf	0.3472652
193	0xbeb79971	-0.35859254
194	0xbef7c063	-0.48388967
195	0x3ebf21a8	0.37330365
196	0x3ab1f927	0.0013578282
197	0x3ead8d92	0.33897072
198	0xa503de0e	-1.1437674e-16
199	0x3ece9922	0.40351206
200	0xc0576090	-3.3652687
201	0x2ed8bcab	9.856057e-11
202	0x3fcb2ed8	1.587367
203	0x406cd508	3.7005024
204	0x3c8c696a	0.01714011
205	0x40780d3e	3.8758082
206	0x3e9dff29	0.30858734
207	0x3ebe46cc	0.3716339
208	0x80000289	-9.1e-43
209	0xa2000547	-1.7350029e-18
210	0x3e5987ca	0.21243206
211	0x4107cba2	8.487215
212	0x3df3178f	0.11869728
213	0x3c96d5ef	0.018412558
214	0x4089f70d	4.3114076
215	0xbdbcc919	-0.09218044
216	0x40aa9e5d	5.3318315
217	0x3ea955fc	0.33073413
218	0xc0794d95	-3.8953602
219	0xa59b030d	-2.689028e-16
220	0x3de625da	0.11237688
221	0xba452511	-0.0007520477
222	0x3e2127fe	0.15737912
223	0xaab1c793	-3.1579998e-13
224	0xbc2fb171	-0.010723458
225	0x402a6db1	2.662945
226	0x35fd9f1f	1.8896279e-06
227	0x3f388466	0.72077024
228	0xb49bc700	-2.901579e-07
229	0xbbcb0a66	-0.006196308
230	0x3ebb4645	0.3657705
231	0x3ea392b3	0.3194786
232	0x3ebcf71c	0.3690728
233	0x400e878a	2.2270226
234	0x3eed6ecb	0.4637359
235	0x4064afd5	3.573232
236	0xb36c67ff	-5.5042616e-08
237	0xb76a4239	-1.39629055e-05
238	0x20c74aaa	3.376132e-19
239	0x3f27a55b	0.6548669
240	0x254f67d7	1.798957e-16
241	0x3e142cf4	0.14470273
242	0x409f37fd	4.9755845
243	0x3bc40bf5	0.0059828707
244	0xadfb92ce	-2.860059e-11
245	0x3ec3c073	0.38232765
246	0xc02ba9d2	-2.68224
247	0x3f0801db	0.5312783
248	0x40517684	3.2728586
249	0xc073ccc1	-3.8093722
250	0xb02340b3	-5.9391e-10
251	0x402248e6	2.5356994
252	0xbec5cfdc	-0.38635147
253	0x405086a2	3.2582173
254	0xa49e6893	-6.869873e-17
255	0x400b2ddc	2.174674
