tmp/ddpg/critic_ddpg.pth (torch, 514177 bytes, 11 tensors)

fc1.weight f4 [400, 11]
0	0x3e7a5afb	0.24448769
1	0xc00062e0	-2.0060349
2	0x3d716473	0.058933686
3	0x3edd0f8e	0.4317593
4	0x3fdf9cb5	1.7469698
5	0x3f986086	1.1904457
6	0x40090f0e	2.1415439
7	0x3f2f7eaf	0.6855268
8	0x3fac0cd1	1.3441411
9	0x3f953079	1.1655418
10	0x3f942b34	1.1575685
11	0x3e830cbb	0.2559565
12	0xc0007aae	-2.0074878
13	0x3d72c6f4	0.059271768
14	0x3edccb2c	0.43123758
15	0x3fdfeb0d	1.7493607
16	0x3f980149	1.1875392
17	0x40080218	2.1251278
18	0x3f1cce65	0.61252433
19	0x3fa786df	1.3088034
20	0x3f9182b0	1.1368008
21	0x3f9075b1	1.1285917
22	0x3e336062	0.17517236
23	0xbff49ee7	-1.9110993
24	0x3d57ede5	0.05271711
25	0x3eda86b4	0.42680895
26	0x3fdf3a1f	1.7439612
27	0x3fa2d996	1.2722652
28	0x4007bc7b	2.120879
29	0x3f2836bc	0.6570852
30	0x3f9a0ea7	1.2035722
31	0x3f88bf81	1.0683442
32	0x3f82e603	1.0226444
33	0x3e57ad27	0.21062146
34	0xbff6402f	-1.9238337
35	0x3d9635c6	0.07334475
36	0x3ed1b7bf	0.409605
37	0x3fddbb9a	1.7322876
38	0x3fa77c3c	1.3084788
39	0x40180574	2.3753328
40	0x3f676d48	0.90401125
41	0x3fba163d	1.4538037
42	0x3f9e7a76	1.2381122
43	0x3f9c0e8f	1.2191943
44	0xbd818e96	-0.06326024
45	0xbed14eef	-0.40880534
46	0x3e4686ce	0.19387361
47	0x3e717a0c	0.23581713
48	0x3fae0f49	1.3598415
49	0x40bc0951	5.8761373
50	0x3fdbc364	1.7169003
51	0xbf092d07	-0.5358433
52	0x3f91ec42	1.1400225
53	0xbf2b7395	-0.6697324
54	0x3fb5a4b7	1.4190892
55	0x3ea098ea	0.31366664
56	0xc000c140	-2.011795
57	0x3d8b1863	0.06791761
58	0x3ede97de	0.4347524
59	0x3fe8df83	1.819321
60	0x3f962469	1.1729861
61	0x4000f723	2.015084
62	0x3f25b65e	0.64731395
63	0x3f829dec	1.0204444
64	0x3f7397bb	0.951534
65	0x3f65ed4c	0.8981521
66	0x3e7412e2	0.23835328
67	0xbfff989b	-1.9968446
68	0x3d8323a0	0.06403279
69	0x3edbcf53	0.42931613
70	0x3fdff5b2	1.7496855
71	0x3f9dc18d	1.2324692
72	0x400f8329	2.2423804
73	0x3f36ae0a	0.7135931
74	0x3fab0903	1.3362125
75	0x3f968d1c	1.1761813
76	0x3f922a65	1.1419188
77	0x3eccbb58	0.39986682
78	0xc0019c82	-2.0251775
79	0x3d8b81c2	0.06811859
80	0x3ee622a5	0.44948307
81	0x3ffb66f5	1.9640795
82	0x3f956272	1.1670668
83	0x3febe1b1	1.842825
84	0x3f6a17a8	0.91442347
85	0x3f19fad3	0.6014835
86	0x3f1525d2	0.58260834
87	0x3f14d6be	0.5814017
88	0x4009ddec	2.15417
89	0xc030f3db	-2.7648838
90	0xbf210150	-0.6289263
91	0x3f833bbe	1.0252607
92	0xbdd13884	-0.102158576
93	0x40a61faf	5.1913676
94	0x3f2ab00d	0.6667488
95	0xbf4f3846	-0.8094524
96	0xbf89f2d7	-1.0777234
97	0xbf584820	-0.84485054
98	0xc0030f5c	-2.0478125
99	0x40302e19	2.7528136
100	0xbe690d30	-0.22758937
101	0x3f8dcb58	1.107768
102	0x3e806063	0.25073537
103	0x3f4c9f33	0.7993042
104	0xbfcb8972	-1.590132
105	0x3fe26cc9	1.7689449
106	0x4056be51	3.355366
107	0x3ffb8f5e	1.9653127
108	0x3fbeae3c	1.4896922
109	0x3fcc98b3	1.59841
110	0x3e930f10	0.2872243
111	0xc0071196	-2.1104484
112	0x3d83e83e	0.06440781
113	0x3eec05c3	0.46098146
114	0x3fe827da	1.8137162
115	0x3f90ae7f	1.1303252
116	0x3fef3a3a	1.8689644
117	0x3f248765	0.64269096
118	0x3f5f0e11	0.8713084
119	0x3f6707d9	0.9024635
120	0x3f5fce20	0.87423897
121	0x3e8184c6	0.2529661
122	0xbff66590	-1.9249744
123	0x3d81eed5	0.06344382
124	0x3ec8e337	0.3923585
125	0x3fe2230e	1.7666948
126	0x3fa60f83	1.2973484
127	0x40122209	2.2833273
128	0x3f48c312	0.78422654
129	0x3fa8ccac	1.3187461
130	0x3f919422	1.1373332
131	0x3f8c694e	1.0969636
132	0x3eb62a40	0.3557911
133	0xc002655d	-2.0374367
134	0x3d852e1f	0.065029375
135	0x3ed9544e	0.42447132
136	0x3fe31a51	1.7742406
137	0x3f948e47	1.160592
138	0x3ff59c96	1.9188411
139	0x3e9c6f75	0.30553785
140	0x3f6eba3b	0.93252915
141	0x3f70b415	0.94024783
142	0x3f76c16d	0.96388894
143	0x3e9a16b8	0.30095458
144	0xbff93af1	-1.9471112
145	0x3dc43105	0.09579662
146	0x3ecac1a9	0.39600876
147	0x3fd9883e	1.6994703
148	0x3fb0ea64	1.382153
149	0x400a367a	2.159575
150	0x3f3475c4	0.70492196
151	0x3f9ee130	1.2412472
152	0x3f8a3472	1.0797255
153	0x3f8607ae	1.0471094
154	0x3e08094f	0.13284801
155	0xc016b96c	-2.3550673
156	0x3d523a16	0.051324926
157	0x3f065ea2	0.5248815
158	0x3fceeb02	1.6165469
159	0x3f6918c5	0.9105342
160	0x3f96cdee	1.1781595
161	0x3f96a232	1.1768248
162	0x3f50b4b4	0.8152573
163	0x3f8812fc	1.0630794
164	0x3f5e3c7f	0.8681106
165	0x3e829b30	0.25509024
166	0xbff26f6e	-1.8940256
167	0x3d95784a	0.07298334
168	0x3ed19354	0.40932715
169	0x3fe61f01	1.7978212
170	0x3fa95659	1.3229476
171	0x401e121b	2.469855
172	0x3f3c8fa1	0.7365666
173	0x3fa9bfb1	1.3261625
174	0x3f92c40e	1.1466081
175	0x3f880094	1.0625176
176	0x3ea40dfa	0.32041913
177	0xbff13398	-1.884387
178	0x3d4d538f	0.050128516
179	0x3ecd703e	0.40124696
180	0x3fe5ce8b	1.7953657
181	0x3f9d96b1	1.2311612
182	0x40127583	2.2884223
183	0x3eee12cc	0.46498716
184	0x3fa93587	1.321946
185	0x3f944027	1.1582078
186	0x3f8cb431	1.099249
187	0x3e9d3ae7	0.30709
188	0xbfffa9dd	-1.9973713
189	0x3d7f3d95	0.06231459
190	0x3edf41e6	0.43604964
191	0x3feaad9f	1.8334235
192	0x3f947d88	1.1600809
193	0x4007747e	2.116485
194	0x3f329578	0.6975932
195	0x3f8a8a6d	1.0823494
196	0x3f7c4cff	0.98554987
197	0x3f6b3d5e	0.91890514
198	0x3eb27455	0.3485438
199	0xbfea32dd	-1.8296772
200	0x3d486143	0.04892088
201	0x3ebf7571	0.37394288
202	0x3fe39a43	1.7781452
203	0x3fa46726	1.2843978
204	0x40142ca7	2.3152254
205	0x3e9f2f5c	0.3109082
206	0x3facb6a1	1.3493234
207	0x3f9a782c	1.2067924
208	0x3f9097a4	1.1296277
209	0x3fdba384	1.7159276
210	0xbfea9928	-1.832799
211	0x3eb04627	0.34428522
212	0x3ecfc365	0.40578762
213	0x400d81e4	2.211053
214	0x408d3701	4.4129643
215	0x3faceb05	1.3509222
216	0xbf1c3e37	-0.6103243
217	0xc09552bc	-4.6663494
218	0xc0567d7c	-3.351409
219	0xc00bfe4a	-2.1873956
220	0x3e51ff94	0.20507652
221	0xbffd1f32	-1.9775145
222	0x3d5abdde	0.053403728
223	0x3edcc366	0.43117827
224	0x3fe1205e	1.7588003
225	0x3f9de000	1.2333984
226	0x400da9a6	2.2134795
227	0x3f6d2fe6	0.9265121
228	0x3fa2a483	1.2706455
229	0x3f87e2f2	1.0616133
230	0x3f85d69b	1.0456117
231	0x3e5f609c	0.21814197
232	0xbfff93a0	-1.9966927
233	0x3d8e66f5	0.06953231
234	0x3edc341c	0.43008506
235	0x3fdef64e	1.7418916
236	0x3fa01a04	1.2507939
237	0x4013f277	2.3116739
238	0x3f35d290	0.7102442
239	0x3fab1076	1.3364398
240	0x3f95bc10	1.1698017
241	0x3f915bc3	1.1356128
242	0x3e98f9e5	0.29878154
243	0xbff2dd7a	-1.8973839
244	0x3d83ca05	0.064350165
245	0x3ec96e8b	0.3934215
246	0x3fdf6d75	1.7455279
247	0x3fa0952a	1.2545521
248	0x4009cf12	2.1532636
249	0x3ec4eb15	0.38460603
250	0x3fb3a6ad	1.403524
251	0x3f9c8d11	1.223055
252	0x3f9861a3	1.1904796
253	0x3e6cbb15	0.23118241
254	0xbffeec50	-1.9915867
255	0x3d774e40	0.06037736

fc1.bias f4 [400]
0	0x3ebcfe3e	0.3691272
1	0x3ebc5426	0.3678295
2	0x3ea92975	0.33039442
3	0x3ec65692	0.38737923
4	0x3f9019a3	1.1257824
5	0x3eb7fa4d	0.35933152
6	0x3ebf5fb8	0.37377715
7	0x3ecfaedb	0.40563092
8	0xbe76319a	-0.24042359
9	0x3ffaa4a9	1.95815
10	0x3ec57b91	0.38570836
11	0x3ec15ccd	0.37766114
12	0x3ebc2c7d	0.36752692
13	0x3eb2dafe	0.34932703
14	0x3ea4320d	0.32069436
15	0x3ec6c261	0.38820174
16	0x3ebbf86f	0.36712977
17	0x3ec12047	0.37719938
18	0x3ebc9ec5	0.36839882
19	0x407288c8	3.7895985
20	0x3eb1f3a2	0.3475619
21	0x3ec5b1b0	0.38612127
22	0x3eba0b81	0.36336902
23	0x3ec1eb49	0.3787482
24	0x3ece00af	0.40234897
25	0x3fb77fdc	1.4335895
26	0x3ebd48ba	0.36969548
27	0x3ed30845	0.41217247
28	0x3ec229d0	0.37922525
29	0x3ebd9744	0.3702947
30	0x3eafa80e	0.34307903
31	0x3ebd950c	0.37027776
32	0x3ebb3a58	0.3656795
33	0x3eb9868c	0.36235464
34	0x3ec9ab36	0.39388436
35	0x3ebc82de	0.36818594
36	0x3f2f8371	0.6855994
37	0x3ebfaa7b	0.37434754
38	0x3ed38380	0.41311264
39	0x3e4c3fee	0.19946262
40	0x3ec31781	0.3810387
41	0x3ed562be	0.41676897
42	0x3ebdc69f	0.37065598
43	0x3f86bc0d	1.0526139
44	0x3ebf2bac	0.37338006
45	0x3eb21b58	0.34786487
46	0x3eca9c38	0.3957231
47	0x3ee9effc	0.45690906
48	0x3ecc1e7f	0.39867017
49	0x3ebfd849	0.374697
50	0x4078acce	3.8855472
51	0x3ec4204e	0.38305897
52	0x3ec6985b	0.38788113
53	0xbdf262a8	-0.118352234
54	0x3ec0dcbf	0.37668416
55	0x3ebf26bd	0.37334242
56	0x3eccdfe7	0.40014574
57	0x3eb9023c	0.36134517
58	0x3ec55933	0.38544616
59	0x3ec70d30	0.3887725
60	0x3ecd248b	0.40066943
61	0x3f80c3b3	1.0059723
62	0x3ec5776f	0.38567683
63	0x3eba832d	0.36428204
64	0x3f762620	0.96151924
65	0x3ec09ea5	0.37621036
66	0x3f04bdb1	0.51851946
67	0x3ecc4571	0.3989673
68	0x3ed4e7fd	0.41583243
69	0x3ec97d47	0.39353392
70	0x3eb49725	0.35271564
71	0x3ec6c179	0.38819483
72	0x3f8b94ed	1.0904824
73	0x3eb9186d	0.36151448
74	0x3eca2698	0.3948257
75	0x3ed744cc	0.42044675
76	0x3fb69644	1.4264607
77	0x3ebfa83c	0.3743304
78	0x3ec0b276	0.37636155
79	0x3ec3c436	0.38235635
80	0x3eb985c6	0.36234874
81	0x3f86149a	1.0475037
82	0x3ebfc0cb	0.37451777
83	0x3f089379	0.53350025
84	0x3eba09f2	0.36335713
85	0x3ec3b774	0.382259
86	0x3ebbd5d8	0.36686587
87	0x3ecb2cfe	0.39682764
88	0x3ecb68ca	0.39728385
89	0x3f7e42e5	0.9932082
90	0x3ec86cc4	0.39145482
91	0x3fcb2304	1.5870061
92	0x3edab114	0.42713225
93	0x3eb9799c	0.36225593
94	0x3ebc44dd	0.3677129
95	0x3ec4ee71	0.38463166
96	0x3ec59006	0.38586444
97	0x3ebe8ed2	0.37218338
98	0x3ebad028	0.36486936
99	0x3ecda765	0.40166774
100	0x3fbc2ac1	1.4700547
101	0x3eca7578	0.39542747
102	0x3eb93467	0.36172792
103	0x3eacdd60	0.33762646
104	0x3ec57767	0.3856766
105	0x3ec3daad	0.38252774
106	0x3ebd11f3	0.36927757
107	0x3ee00f08	0.43761468
108	0x3eb54326	0.35402793
109	0x3ec0c2d4	0.37648642
110	0x3ebc2320	0.36745548
111	0x3ec3f4cd	0.38272706
112	0x3fbb7a1e	1.4646642
113	0x3ec35f80	0.38158798
114	0x3ef8c40b	0.4858707
115	0x3f2feb44	0.6871836
116	0x3fa75a2e	1.3074396
117	0x3eb74897	0.3579757
118	0x3ebffe30	0.37498617
119	0x3ec2720b	0.37977633
120	0x3ecf0473	0.40433082
121	0x3ebb91fb	0.36634812
122	0x3ebdded8	0.3708408
123	0x3ec023d2	0.3752733
124	0x3ecd2311	0.40065816
125	0x3ec26d42	0.37973982
126	0x3ebca41d	0.36843958
127	0x3ebf733e	0.3739261
128	0x3ec05124	0.37561905
129	0x3ec4b853	0.38421878
130	0x3ee3fa65	0.44526973
131	0x3ebfd033	0.3746353
132	0x3ebeb718	0.37249064
133	0x3fdce44c	1.7257171
134	0x3fb876db	1.4411272
135	0x3ec6b28c	0.38808095
136	0x3ead5595	0.33854356
137	0x3ec63806	0.38714617
138	0x3eb8dd3f	0.36106297
139	0x3eeee735	0.46660772
140	0x3ebf6aa1	0.3738604
141	0x3ed1cab5	0.40974966
142	0x3ec6563d	0.3873767
143	0x3ec5772c	0.38567483
144	0x3ec917ce	0.39275974
145	0x3ecaf2c4	0.3963834
146	0x3e82cf42	0.2554875
147	0x3ec6b097	0.38806602
148	0x3ecc3cf0	0.39890242
149	0x3eb5481d	0.3540658
150	0x3f8b973c	1.0905528
151	0x3ebc2b63	0.3675185
152	0x3ec88e37	0.39171
153	0x3ec572d9	0.38564184
154	0x3ec5b84c	0.3861717
155	0x3eca2fc7	0.39489576
156	0x3e42eec0	0.19036388
157	0x3ec9b826	0.39398307
158	0x3ebf8a97	0.37410423
159	0xbf6b9ded	-0.9203785
160	0x3ec7cb32	0.39022213
161	0x3ebb7a95	0.3661696
162	0x3ebeaf93	0.37243327
163	0x3fc487a9	1.53539
164	0x3ea97c1a	0.33102494
165	0x3ebe79a3	0.37202176
166	0x3fe7e883	1.8117832
167	0x3eba72ab	0.3641561
168	0x3eb657ba	0.35613805
169	0x3eafe052	0.3435083
170	0x3f6f1370	0.93389034
171	0x3eb41f69	0.35180214
172	0x3f05251d	0.52009755
173	0x3ec04510	0.3755269
174	0x3ece9c08	0.40353417
175	0x3ec6a83f	0.38800237
176	0x3eaa0746	0.33208674
177	0x3ec484f3	0.38382682
178	0x3f2bc5ee	0.6709889
179	0x3eb6293a	0.35578328
180	0x3ec8c984	0.39216244
181	0x3ece9acd	0.4035248
182	0x3eb9dbd0	0.36300516
183	0x40049178	2.0713787
184	0x3eb7254a	0.35770637
185	0xbe884be2	-0.26620394
186	0x3ec67555	0.38761392
187	0x3ec01d88	0.3752253
188	0x3ed06a21	0.4070597
189	0x3ebf9ada	0.3742283
190	0x3ec1c0db	0.3784245
191	0x40032e68	2.0497074
192	0x3ec8f0d6	0.39246243
193	0x3fd3410f	1.6504229
194	0x3f07dfff	0.53076166
195	0x3ecc6aa6	0.39925116
196	0xbe127720	-0.14303255
197	0x3ece89a8	0.40339398
198	0x3f16d3e3	0.58917063
199	0x3ebe62f5	0.37184873
200	0x3ec96a69	0.39338997
201	0x3ec87979	0.39155176
202	0x3ed05d08	0.40695977
203	0x3ec87ef4	0.39159358
204	0x3eca789a	0.39545137
205	0x3ead1a75	0.33809248
206	0x3ec5660b	0.38554415
207	0x3ecd1bbf	0.4006023
208	0x3ddb68cb	0.10713347
209	0x3ec8c0c4	0.39209569
210	0x3ed218d1	0.41034558
211	0x3ec34208	0.38136315
212	0x3ecb89c2	0.39753538
213	0x3ec4a0d9	0.38403967
214	0x3ec0714a	0.37586433
215	0x3ec2b1b5	0.38026205
216	0x3ebd7465	0.37002864
217	0x3fb22adf	1.3919333
218	0xbebe6823	-0.37188825
219	0x3ec20c30	0.37899923
220	0x3ebc542d	0.3678297
221	0x3ec39e63	0.38206777
222	0x3ebdb9f5	0.37055936
223	0x3ed0589b	0.406926
224	0x3eb7b469	0.3587983
225	0x3f4326f6	0.76231325
226	0x3ec7f19e	0.39051527
227	0x3eb735c5	0.3578321
228	0x3ebfb334	0.3744141
229	0x3eb1f519	0.34757307
230	0x3ff93a41	1.9470903
231	0x3ebd76a1	0.3700457
232	0x3ec971af	0.39344546
233	0x3ec2afb4	0.38024676
234	0x3ec82c46	0.39096278
235	0x3ee5a82b	0.44854864
236	0x3ee3a208	0.44459558
237	0x3ee723e9	0.45144585
238	0x3ebd4072	0.3696323
239	0x3ec2596d	0.3795885
240	0x3ebeffb2	0.37304455
241	0x3edeb6f2	0.4349895
242	0x3ec21359	0.37905386
243	0x3ebe0ef3	0.3712078
244	0x3ebaffe5	0.36523357
245	0x3ee1a05b	0.44067654
246	0x40016eba	2.0223832
247	0x3ecad6e1	0.39617065
248	0x3eb5fa2c	0.35542428
249	0x3ed49db6	0.41526574
250	0x3f539af0	0.8265829
251	0x3ebf43cf	0.3735642
252	0x3f2692d2	0.6506778
253	0x3ecb185a	0.39667016
254	0x3eb3e519	0.35135725
255	0x3ebd7648	0.37004304

fc2.weight f4 [300, 400]
0	0x0000016c	5.1e-43
1	0xad912fdf	-1.650585e-11
2	0xbc3f333f	-0.011669933
3	0x3c050e43	0.008121076
4	0xbe59cd04	-0.21269614
5	0x0000010a	3.73e-43
6	0x00000007	1e-44
7	0xbcfc5d6b	-0.030806264
8	0xbf53fb2f	-0.8280515
9	0x3e94d37d	0.29067603
10	0x8000020d	-7.36e-43
11	0x8000078b	-2.706e-42
12	0x8000018c	-5.55e-43
13	0xbb405abd	-0.002935096
14	0x3b5cb2af	0.003367584
15	0x0000030e	1.096e-42
16	0x3997c26e	0.00028945826
17	0xaeeaea24	-1.068268e-10
18	0xbca43f37	-0.020049674
19	0xbeb05acd	-0.34444275
20	0x80000206	-7.26e-43
21	0x00000d79	4.833e-42
22	0xbba59b69	-0.0050539267
23	0x80000015	-3e-44
24	0x80000081	-1.81e-43
25	0xbe88377e	-0.26604837
26	0xbaa68a64	-0.0012706039
27	0xbbd3cc15	-0.0064635375
28	0x00000204	7.23e-43
29	0x000001b7	6.15e-43
30	0x272181c6	2.2413589e-15
31	0x2b5b79c4	7.7973413e-13
32	0xb876ccc4	-5.8841673e-05
33	0x000002d4	1.015e-42
34	0x3c3084bc	0.010773834
35	0xbe4656b9	-0.1936902
36	0xb8e90bed	-0.00011112527
37	0x80000d96	-4.874e-42
38	0xbb72fd92	-0.003707741
39	0xbf3d54ca	-0.739575
40	0x80000291	-9.2e-43
41	0xbdf8f185	-0.12155441
42	0x3ca5d02b	0.020240864
43	0xbbbb989c	-0.0057249796
44	0x00000205	7.24e-43
45	0x3b1975fb	0.002341627
46	0xb11554b2	-2.1730497e-09
47	0x3d3d4de3	0.046216857
48	0xbb8f5e1f	-0.004375234
49	0x00000324	1.127e-42
50	0xbe339b11	-0.17539622
51	0x00000407	1.445e-42
52	0x807f38f8	-1.1683545e-38
53	0xbf6fc477	-0.93659157
54	0x8001ad6e	-1.5405e-40
55	0x959669d0	-6.075146e-26
56	0x35c9b0ea	1.5027156e-06
57	0xbd26f934	-0.040765002
58	0x000001c1	6.29e-43
59	0xa56352f8	-1.9717222e-16
60	0x000008a6	3.102e-42
61	0xbeb6ff7e	-0.357418
62	0x1c80270c	8.480423e-22
63	0x80000102	-3.62e-43
64	0x80000348	-1.177e-42
65	0x3d10c5e4	0.035344973
66	0xbe1881e3	-0.14893298
67	0x3bd72f65	0.006566929
68	0x36b1022e	5.275265e-06
69	0x000002e1	1.033e-42
70	0x3d239b12	0.03994281
71	0x800003be	-1.342e-42
72	0xbe1f86ca	-0.15578762
73	0x0000017e	5.35e-43
74	0x3c4dbdad	0.012557429
75	0x000004e0	1.749e-42
76	0xbbc6e936	-0.0060702814
77	0x000002b1	9.65e-43
78	0x80000069	-1.47e-43
79	0x3c6257bf	0.013814866
80	0xb53ee5fc	-7.1115187e-07
81	0xbdbed59c	-0.093180865
82	0x0051bda9	7.506712e-39
83	0x000003d8	1.379e-42
84	0x371a9967	9.214832e-06
85	0xaecfddde	-9.452682e-11
86	0x8da2a54b	-1.0023814e-30
87	0x000001d5	6.57e-43
88	0x00000729	2.569e-42
89	0x3dfbfc82	0.123040214
90	0x3bef7291	0.0073073586
91	0x3e2b76d8	0.16744554
92	0x3c6a666b	0.014306645
93	0xba26dd33	-0.0006365359
94	0x3c25bcb7	0.010115794
95	0x80000192	-5.63e-43
96	0xbdcca411	-0.09992231
97	0xbdc6a874	-0.09700099
98	0x3ae666fd	0.00175783
99	0x800007f2	-2.85e-42
100	0xc02d0772	-2.7035794
101	0x92b49c73	-1.1398165e-27
102	0x0000004a	1.04e-43
103	0x3d16c9cf	0.036813553
104	0x000001be	6.25e-43
105	0xb584fc34	-9.908167e-07
106	0x278a92c3	3.8461814e-15
107	0xaf73e089	-2.2180492e-10
108	0xb6654363	-3.4162883e-06
109	0x00000291	9.2e-43
110	0x3b303f0e	0.0026893052
111	0xb78d3a88	-1.6835766e-05
112	0xbeb2c80c	-0.3491825
113	0x000003ac	1.317e-42
114	0x3d583f1c	0.05279456
115	0xbe9f20ad	-0.31079617
116	0xbdf71288	-0.120640814
117	0xb23b2881	-1.0894042e-08
118	0x2a50dfd7	1.8551771e-13
119	0x00000542	1.886e-42
120	0x000000d4	2.97e-43
121	0x3c2f21d2	0.010689216
122	0xb2d7eee2	-2.5137926e-08
123	0x3c709959	0.014684998
124	0x3cc81a90	0.024426728
125	0x0000002b	6e-44
126	0x000002cf	1.008e-42
127	0x000001e2	6.75e-43
128	0x800006e1	-2.468e-42
129	0x00000156	4.79e-43
130	0x3cea1741	0.028575541
131	0x2193b5ae	1.0009198e-18
132	0xb9f69838	-0.00047034188
133	0xbf229267	-0.6350464
134	0x3ec54294	0.38527358
135	0x0000022e	7.82e-43
136	0x3999ca42	0.00029333128
137	0x33c7fd08	9.312686e-08
138	0x00001e99	1.0976e-41
139	0xbe3d8f40	-0.18511677
140	0xac3e3ddc	-2.7034963e-12
141	0xbbe93817	-0.007117282
142	0x000002e2	1.034e-42
143	0x8000001d	-4e-44
144	0x1c9fb11c	1.0567519e-21
145	0x800001f1	-6.96e-43
146	0xbf101ffc	-0.56298804
147	0x349be023	2.903408e-07
148	0xbd1f9abb	-0.03896592
149	0xbcedadfd	-0.029013628
150	0xbf1e6be6	-0.6188339
151	0x3d39b617	0.04533967
152	0xbd25016e	-0.040284567
153	0x00000443	1.529e-42
154	0xba5ed5a4	-0.0008500463
155	0x3ae49cf4	0.0017441795
156	0xbfcb22cc	-1.5869994
157	0xb57973da	-9.2928315e-07
158	0x261c65c6	5.42613e-16
159	0xbf8d406b	-1.1035284
160	0x00000146	4.57e-43
161	0xbb812e6b	-0.003942301
162	0x00000029	5.7e-44
163	0x3e987b72	0.2978168
164	0xbcfbe0f1	-0.030746909
165	0x80000029	-5.7e-44
166	0xbf5ab97c	-0.85439277
167	0x0000024c	8.24e-43
168	0x29d19c93	9.308626e-14
169	0x3d838356	0.06421535
170	0xc024d6d5	-2.5756123
171	0xbbb0946c	-0.005388787
172	0x800006ef	-2.487e-42
173	0x3a25e07f	0.0006327703
174	0x000001e4	6.78e-43
175	0x3bb0b4fa	0.005392668
176	0x3d0036ec	0.031302378
177	0x3cedab89	0.029012458
178	0xbdebfd91	-0.11522973
179	0xbbc6d0e0	-0.0060673803
180	0x3e04d9e1	0.12973739
181	0x800003d0	-1.368e-42
182	0x000001bf	6.26e-43
183	0xbf555aee	-0.8334187
184	0x80000160	-4.93e-43
185	0xbfa8b6a0	-1.3180733
186	0xb029b1a2	-6.1734273e-10
187	0x00000183	5.42e-43
188	0xbb729ce4	-0.0037019784
189	0x9413b0d6	-7.456478e-27
190	0xbd06e592	-0.03293378
191	0x3e045e5d	0.12926622
192	0x800003d1	-1.369e-42
193	0xbe39782f	-0.18112253
194	0xbd661646	-0.056173585
195	0xa6323e7d	-6.1840843e-16
196	0xbd96281b	-0.07331868
197	0x000002fd	1.072e-42
198	0xbde6323a	-0.11240049
199	0x80000320	-1.121e-42
200	0x2fa2442c	2.9516067e-10
201	0xbc121c0b	-0.008917819
202	0x000004ab	1.675e-42
203	0x80000282	-9e-43
204	0xbb888431	-0.004166149
205	0x38c582b8	9.41804e-05
206	0x00000449	1.537e-42
207	0x800001c4	-6.33e-43
208	0x3e2516df	0.16122006
209	0x35a973b2	1.2625153e-06
210	0x0000055e	1.925e-42
211	0x000002eb	1.047e-42
212	0x099ab960	3.7248477e-33
213	0xb8792f01	-5.9410002e-05
214	0x394e559c	0.00019677583
215	0x8000018c	-5.55e-43
216	0x3c923439	0.017847167
217	0xbd6f5ecd	-0.05844002
218	0xbfd74476	-1.6817768
219	0x0386233e	7.883903e-37
220	0xbad3e61f	-0.0016166604
221	0x3d2b86f8	0.041876763
222	0xade280f9	-2.57505e-11
223	0xb5ff0548	-1.9000518e-06
224	0x800002b5	-9.71e-43
225	0x0000020d	7.36e-43
226	0x80000005	-7e-45
227	0x34dd3255	4.120108e-07
228	0x00000686	2.34e-42
229	0x3d9a8c2d	0.07546268
230	0xbe1ab89c	-0.15109485
231	0x0000028a	9.11e-43
232	0x3c5ca1ed	0.0134663405
233	0xbc8f233f	-0.017472861
234	0xaf4f6790	-1.8863333e-10
235	0xbe1ca98b	-0.1529905
236	0x2480add9	5.580566e-17
237	0x3e608045	0.21923931
238	0xa82da77e	-9.639748e-15
239	0x3c9013e3	0.017587608
240	0x2adc9eff	3.9190176e-13
241	0xbe58ceea	-0.21172681
242	0x3b3a954f	0.0028470343
243	0x00000258	8.41e-43
244	0x3c881ac7	0.016614331
245	0x1ba831cf	2.7825457e-22
246	0xbefa63d2	-0.48904282
247	0xa12a705a	-5.7746936e-19
248	0x370f40a0	8.538511e-06
249	0x800000ae	-2.44e-43
250	0x3d688a87	0.056772735
251	0xa4122999	-3.1693938e-17
252	0xbf058832	-0.5216094
253	0x8000015c	-4.88e-43
254	0xbc045016	-0.008075735
255	0xbb3341f7	-0.002735255

fc2.bias f4 [300]
0	0x3e1c0516	0.15236315
1	0x3f0a573e	0.5403937
2	0x3e059cc1	0.13048078
3	0xbf988914	-1.1916833
4	0x3f233de0	0.6376629
5	0xbd8bc36e	-0.06824385
6	0x3e3386d5	0.17531903
7	0x3e0aaf2e	0.13543388
8	0x3e167985	0.14694794
9	0xbf1714a9	-0.590159
10	0xbfe3e0dc	-1.7802997
11	0x3df77685	0.12083153
12	0xbf1221f3	-0.5708305
13	0x3e0d3a05	0.13791664
14	0xbf045a8b	-0.5170066
15	0x3e19fa42	0.15036872
16	0xbf33ee0c	-0.70285106
17	0xbf90140d	-1.1256119
18	0xbd8ab886	-0.06773476
19	0x3f171179	0.59011036
20	0x3e9bff3f	0.30468175
21	0x3d3699cc	0.044580266
22	0xbf0b012b	-0.5429866
23	0x3d1f3d24	0.038876668
24	0xbf34d406	-0.7063602
25	0x3e84b71a	0.25920945
26	0xbfef66ee	-1.8703287
27	0x3dd32bb0	0.10311067
28	0xbf21a299	-0.6313873
29	0x3ec1c45a	0.37845117
30	0xbdf8c89f	-0.121476404
31	0xbe26b445	-0.16279705
32	0x3e226dee	0.15862247
33	0xbef234e7	-0.47305986
34	0xbf515b22	-0.8177968
35	0x3d63ae5d	0.055586208
36	0x3d62401d	0.055236924
37	0x3ec4fa09	0.38472012
38	0x3e8a1cdf	0.26975152
39	0xbe7b6a1a	-0.24552193
40	0xbed218da	-0.41034585
41	0xbf0f7bef	-0.5604848
42	0x3d909f14	0.07061592
43	0xbf7b2ae3	-0.98112315
44	0xbf2a7f71	-0.6660071
45	0x3e236221	0.15955402
46	0xbee778ff	-0.452095
47	0xbf01aa75	-0.5065072
48	0x3f61fca4	0.88276124
49	0xbf0838c0	-0.53211594
50	0x3e1ae221	0.15125324
51	0x3f80f814	1.0075707
52	0xbf8acc60	-1.084362
53	0xbf102a5f	-0.56314653
54	0xbf806803	-1.0031742
55	0xbe402b45	-0.18766506
56	0xbfa07ba6	-1.2537735
57	0x3e7e27c7	0.24819861
58	0xbf2cfb8f	-0.6757135
59	0xbe4544a8	-0.19264472
60	0xbf60f7c3	-0.87878054
61	0x3db0cb2c	0.08632502
62	0x3fb649f4	1.4241319
63	0xbf80bc3a	-1.0057442
64	0x3e937136	0.2879731
65	0xbd2869e0	-0.041116595
66	0x3f04118c	0.51589274
67	0xbfc5f869	-1.5466434
68	0x3db128fe	0.08650397
69	0x3ec91304	0.3927232
70	0x3f7fc612	0.99911606
71	0xbf80fc72	-1.007704
72	0xbe36a395	-0.17835839
73	0xc0579556	-3.3684897
74	0x3f562328	0.83647394
75	0xbd6927d6	-0.056922756
76	0x3dfc6c58	0.123253524
77	0x3ecc2df8	0.3987882
78	0xbf76d94c	-0.9642532
79	0xbb848a19	-0.004044783
80	0x3e3b2efc	0.18279642
81	0x3df7bbd1	0.1209637
82	0xbd8707af	-0.065932624
83	0xbe231bbc	-0.15928549
84	0xbfb716b9	-1.430381
85	0xbd28a591	-0.04117352
86	0xbf694e8a	-0.91135466
87	0x3e073476	0.13203606
88	0x3ecb0673	0.39653358
89	0xbe05677f	-0.13027762
90	0x3ea35d9c	0.31907356
91	0xbed508d7	-0.41608307
92	0xbfcfa221	-1.6221353
93	0xbed1bd7b	-0.40964875
94	0xbf5660c1	-0.83741385
95	0x3e16ed11	0.14738871
96	0x3ee051a5	0.4381229
97	0xbd2444f3	-0.040104818
98	0xbf4edbd9	-0.8080421
99	0x3f05fb28	0.5233636
100	0xbdab2b0d	-0.08357821
101	0xbef84b9b	-0.48495182
102	0x3d8b524c	0.06802806
103	0xbf2ed634	-0.682956
104	0x3f3d2ec7	0.738995
105	0x3e466f06	0.1937829
106	0xbe1b37ed	-0.15158053
107	0xbeef96c2	-0.46794707
108	0x3e094dc4	0.13408571
109	0xbe31ac6a	-0.17350927
110	0xbd2855dd	-0.04109751
111	0xbd130018	-0.03588876
112	0xbed2d266	-0.41176146
113	0x3e746f6a	0.23870626
114	0xbf3b18ae	-0.73084533
115	0x3e55daf1	0.20884301
116	0x3f30218b	0.6880118
117	0x3e5eacce	0.21745607
118	0xbefe8243	-0.49708757
119	0xbf019882	-0.50623333
120	0x3f66d3e3	0.90167063
121	0x39d9a28a	0.00041510566
122	0x3d8d0245	0.068851985
123	0xbdc4cb88	-0.09609133
124	0x3d940a84	0.07228568
125	0x3d49dad3	0.049280953
126	0x3dd3807f	0.10327243
127	0xbe965529	-0.29361847
128	0x3d9a5eef	0.075376384
129	0xb96e021f	-0.00022698239
130	0x3e8f7876	0.28021592
131	0xbf280dba	-0.65645945
132	0xbe393a09	-0.18088545
133	0x3dc6d7a7	0.09709101
134	0x3e2a0443	0.16603188
135	0xbf5412e1	-0.82841307
136	0xbfb5fd97	-1.4218014
137	0x3e31f10a	0.17377105
138	0xbdbd30fa	-0.09237857
139	0x3d19ba83	0.037531387
140	0xbfa2b3f8	-1.2711172
141	0x3decb556	0.115580246
142	0x3eac8b0f	0.33699843
143	0x3f2c09b3	0.672023
144	0x3f6775f4	0.9041436
145	0x3f0d1c96	0.55121744
146	0x3e114cf5	0.14189513
147	0x3e0f6bc7	0.14005958
148	0xbeb5254f	-0.35380027
149	0xbf476375	-0.77886134
150	0x3f8b3ef1	1.0878583
151	0x3e2e5ad0	0.1702683
152	0x3f796670	0.9742193
153	0x3d9d96e8	0.07694799
154	0xbf15d311	-0.58525187
155	0xbde1fdaf	-0.110347144
156	0x3e833e69	0.25633553
157	0x3de97286	0.11398797
158	0xbed1e1af	-0.40992495
159	0xbf3aafb9	-0.7292438
160	0xbf396d52	-0.72432435
161	0xbdaa6a4f	-0.08321058
162	0xbdd8331e	-0.10556625
163	0x3e630495	0.22169717
164	0x3e22ae3f	0.15886782
165	0xbf6d1f64	-0.92626023
166	0x3db8343b	0.08994337
167	0x3eaa7675	0.332935
168	0x3fe961dc	1.8232989
169	0xbf2735d9	-0.6531654
170	0x3e3ceed8	0.18450487
171	0xbf4f4345	-0.8096202
172	0xbdaba913	-0.08381858
173	0xbf1722ad	-0.59037286
174	0x3d45b436	0.048267566
175	0xbe7c3073	-0.24627857
176	0xc037905d	-2.8681862
177	0xbe7f12d6	-0.24909529
178	0x3e22e3a8	0.15907156
179	0x3caaa052	0.0208284
180	0x3e5254bb	0.20540135
181	0xbee9abb5	-0.45638815
182	0x3d94aa52	0.072590485
183	0xbe71a4a2	-0.23597959
184	0x3d4e75bb	0.050405245
185	0xbccc23c7	-0.024919404
186	0xbdd44497	-0.10364645
187	0xbf294488	-0.66120195
188	0xbf45f1b7	-0.7732195
189	0x3ee365ef	0.44413707
190	0xbe9be369	-0.30446938
191	0xbf854229	-1.0410815
192	0x3f68d1c7	0.90945095
193	0xbea71be6	-0.32638472
194	0x3e9d97c2	0.30779845
195	0x3ee1a0c7	0.44067976
196	0x3e9937f2	0.29925495
197	0x3ea09360	0.31362438
198	0x3f87e6b7	1.0617284
199	0xbf5e3369	-0.86797196
200	0x3ea3f4b0	0.3202262
201	0x3e25cc2e	0.1619117
202	0x3f218dea	0.6310717
203	0xbd6d656a	-0.057958044
204	0x3f35714a	0.7087599
205	0xbeda78d0	-0.42670298
206	0x3f5fccf9	0.8742214
207	0x3e350d4f	0.17680858
208	0xbf2968ef	-0.6617574
209	0xbf29cbba	-0.6632649
210	0x3e3a0c70	0.18168807
211	0x3e3ba136	0.18323216
212	0x3de85523	0.113443635
213	0x3e0ca48a	0.13734642
214	0x3ddcf7bb	0.10789438
215	0xbdfa2565	-0.12214164
216	0x3cf13846	0.029445779
217	0xbfe4abf0	-1.7864971
218	0xbecb5786	-0.39715213
219	0x3e0b2f15	0.13592179
220	0x3df87a4f	0.121327035
221	0xbf219f29	-0.63133484
222	0x3c2c3c9c	0.010512497
223	0x3dc654ac	0.09684119
224	0x3ad4db1b	0.0016239615
225	0x3f61dfd7	0.8823218
226	0xbf68444b	-0.90729207
227	0xbe862dd3	-0.26206836
228	0xbe373bc9	-0.178939
229	0xbf1775b0	-0.5916395
230	0x3e84435c	0.2583264
231	0x3d341573	0.043965768
232	0xbe2d229f	-0.16907738
233	0xbfbb8582	-1.4650118
234	0x3ee4db5a	0.44698602
235	0x3e203b70	0.15647674
236	0x3d56ce9b	0.052443128
237	0xbd9bf573	-0.07615175
238	0xbe99cd73	-0.30039558
239	0xbdd4380a	-0.10362251
240	0xbf115fcf	-0.5678682
241	0x3e8e38a8	0.277776
242	0xbec4cce1	-0.3843756
243	0x3e2a66b5	0.16640742
244	0xc076ea7a	-3.8580613
245	0x3f03479b	0.51281136
246	0xbe757d3c	-0.23973554
247	0xbf022533	-0.5083801
248	0xbf1e0cb1	-0.61738116
249	0x3e5e43d6	0.21705565
250	0x3fbe45ed	1.486509
251	0x3f0d7870	0.552619
252	0xbf00c1b2	-0.50295556
253	0x3df57a76	0.11986248
254	0x3fe30ac7	1.7737664
255	0xbf2a3ee4	-0.66502213

bn1.weight f4 [400]
0	0xbb8caa9e	-0.0042928
1	0xbb66f0f6	-0.0035238839
2	0xbcabb13a	-0.020958532
3	0xbc460aa5	-0.012087499
4	0x3f810e4f	1.0082492
5	0xb98f2d16	-0.00027308677
6	0xbb9ebfab	-0.004844626
7	0xbd4cfacb	-0.050043862
8	0x4020a52c	2.5100813
9	0x40523b6b	3.2848766
10	0xb8aa869d	-8.1313054e-05
11	0x000001b3	6.1e-43
12	0x39e69c8a	0.0004398565
13	0x3a53f59b	0.00080856093
14	0xbd61ee42	-0.05515886
15	0xb9c73525	-0.00037995834
16	0x3bb6608e	0.0055657094
17	0xbc346a42	-0.011011662
18	0xba7a7d7b	-0.0009555441
19	0x40b2eece	5.591651
20	0x38907998	6.889104e-05
21	0x800001d8	-6.61e-43
22	0xbb314558	-0.0027049389
23	0xb74c532e	-1.2178714e-05
24	0xb58ab3b9	-1.0334107e-06
25	0x3ea2c076	0.3178746
26	0x3b2221f2	0.0024739471
27	0xbbb96dba	-0.0056588324
28	0xbb249ec0	-0.0025119036
29	0xba793596	-0.0009506581
30	0x3c864a1b	0.016392758
31	0x3c83fea4	0.016112633
32	0xbb464d2c	-0.00302584
33	0x16e86800	3.7547255e-25
34	0xbcf5613e	-0.029953595
35	0x3e189831	0.14901806
36	0xbc875f16	-0.016524833
37	0x800000cc	-2.86e-43
38	0xbc81b2a4	-0.015832253
39	0x3ffce746	1.9758079
40	0x9a2f05ba	-3.6193778e-23
41	0x40ef2254	7.4729404
42	0x3ce2bcf2	0.027677987
43	0x3faf31bf	1.3687056
44	0x3983fc49	0.00025174234
45	0x3c41338a	0.011792073
46	0xbc97e3dc	-0.018541269
47	0x3d9864f5	0.07441131
48	0xbcc47c4f	-0.023985056
49	0xa2f1d669	-6.5550196e-18
50	0x40d2d7c3	6.588838
51	0x824db3f9	-1.5112671e-37
52	0xbbb92ce0	-0.0056511015
53	0x40307a0b	2.757449
54	0xbc0d0067	-0.008606053
55	0xbcace523	-0.021105355
56	0x3cce049e	0.025148686
57	0x3c812a63	0.015767282
58	0xbc092ea6	-0.008372938
59	0x264c3aa1	7.0856175e-16
60	0xb4510518	-1.9466495e-07
61	0x40073d13	2.1131027
62	0x1e2bb3f2	9.0898764e-21
63	0xa37d36ef	-1.372679e-17
64	0xb31321e3	-3.4256924e-08
65	0x3cc21d6b	0.023695668
66	0x3ecebd41	0.40378764
67	0xbc7ea81d	-0.015543011
68	0xbc8f48e1	-0.017490806
69	0xb8ae82e2	-8.3213454e-05
70	0x3cac31b0	0.021019787
71	0x00000a4d	3.695e-42
72	0x3ef47382	0.47744375
73	0x385e25c9	5.2964115e-05
74	0xbbe7933c	-0.0070671123
75	0xb4b403b0	-3.3530296e-07
76	0x3fcd646f	1.6046275
77	0xb722edc9	-9.711316e-06
78	0xbc1b5223	-0.009480032
79	0xbc3e2162	-0.011604639
80	0x3b1b0091	0.002365146
81	0xbedde14a	-0.43335944
82	0x3ac9c637	0.0015394156
83	0x9daf6acd	-4.6432544e-21
84	0x3c3944e8	0.011307932
85	0xbb08695f	-0.002081476
86	0xbbcf9015	-0.0063343146
87	0x0000003c	8.4e-44
88	0x8cc87828	-3.0887196e-31
89	0xbfa7a0d9	-1.3095962
90	0xbb726b29	-0.0036990142
91	0x405bac1e	3.4323802
92	0xbd0c021c	-0.0341817
93	0xbb8257e6	-0.0039777635
94	0xbaeea6db	-0.0018207686
95	0xbb9286b5	-0.0044716247
96	0x3b9991c9	0.0046865684
97	0x3dcee4b2	0.10102214
98	0xbcbeae44	-0.023276456
99	0x00000131	4.27e-43
100	0x40a45ebb	5.136564
101	0xbc82539a	-0.015909005
102	0xb89fa789	-7.612917e-05
103	0x3d36be9c	0.044615373
104	0xbc5107f2	-0.012758242
105	0xbb991eba	-0.0046728523
106	0xbccedc24	-0.025251456
107	0xbacd086a	-0.0015642766
108	0x3b3345b1	0.0027354772
109	0xb227a467	-9.75806e-09
110	0x3bb4d7e8	0.005518902
111	0xbca6d349	-0.02036442
112	0x406e999f	3.7281263
113	0x000000cc	2.86e-43
114	0x3cbad01d	0.022804314
115	0x3f0b23fc	0.5435178
116	0x3ecd9e6d	0.40159932
117	0xbca300eb	-0.019897899
118	0xbc4426f7	-0.011972181
119	0xb4258c87	-1.5417946e-07
120	0xb7498b68	-1.2012992e-05
121	0xbc716c50	-0.014735296
122	0xbccb2f24	-0.024802752
123	0xbbd185ca	-0.0063941227
124	0x3dae79a2	0.08519293
125	0xbc367de1	-0.01113841
126	0xb7003240	-7.641094e-06
127	0xb98b8cd6	-0.00026617077
128	0x9252ec7b	-6.65558e-28
129	0xbb25e530	-0.0025313608
130	0x3da83a4b	0.082142435
131	0x3bd63ef1	0.006538265
132	0x3c09d36d	0.008412224
133	0x40aafbcf	5.3432384
134	0x4042809a	3.0390992
135	0xbabd8c43	-0.0014461357
136	0xbbe595df	-0.0070063914
137	0x3b34d17b	0.002759068
138	0x00000057	1.22e-43
139	0x3ea6c75f	0.32573983
140	0xbc79869c	-0.015229847
141	0x3c16ebd7	0.009211502
142	0xb80612b3	-3.1965505e-05
143	0xb80cf9ef	-3.361137e-05
144	0x0000004c	1.06e-43
145	0x800001c8	-6.39e-43
146	0x413761c1	11.461366
147	0xbb515656	-0.003194233
148	0x3cdee358	0.027208015
149	0xbc7ab4f0	-0.015301928
150	0x403c9442	2.946549
151	0xbcea69bd	-0.028614873
152	0xbc2bd1d9	-0.010487043
153	0x18381ef6	2.3797074e-24
154	0xbc8c7187	-0.017143978
155	0xbbb1403d	-0.005409269
156	0xc059cd01	-3.4031374
157	0x3bd24dbf	0.0064179595
158	0xbc8b236b	-0.016984662
159	0x40362399	2.8459227
160	0xaa66c44d	-2.0496209e-13
161	0xbc826fb1	-0.0159224
162	0xba49a846	-0.0007692616
163	0x3fbd570d	1.4792191
164	0xbcdc16c3	-0.026866322
165	0xbaa4110e	-0.001251729
166	0x3faba260	1.3408928
167	0x800000bb	-2.62e-43
168	0xbc358a7d	-0.011080381
169	0x3c342ec6	0.01099748
170	0x40c011f5	6.002192
171	0xbc6028ec	-0.013681632
172	0x00000138	4.37e-43
173	0xbc140318	-0.009033941
174	0xbb819d08	-0.003955487
175	0xbcd64f22	-0.02616078
176	0x3c55e449	0.013054916
177	0xbc0bc0f1	-0.008529888
178	0x3f99c188	1.2012186
179	0xbafa24de	-0.0019084474
180	0x3ddd9155	0.108187355
181	0x0000000f	2.1e-44
182	0xb7f6e700	-2.9433053e-05
183	0x40b8ef71	5.7792287
184	0xbb93ff48	-0.004516516
185	0x401faf51	2.4950755
186	0xbcfa2c20	-0.030538619
187	0xbb466b40	-0.0030276328
188	0x3cdad98e	0.026715066
189	0xbc48d08d	-0.012256754
190	0x3d0cda04	0.034387603
191	0x40056af0	2.084652
192	0x170b6fef	4.50546e-25
193	0x3fe2a87a	1.7707665
194	0x3ebe90e9	0.37219933
195	0xbc8281c6	-0.015931021
196	0x409a753d	4.8268113
197	0x80000032	-7e-44
198	0x3efc5125	0.49280658
199	0x80000188	-5.5e-43
200	0x3b44624f	0.0029965823
201	0xbc05703e	-0.008144436
202	0x000001dc	6.67e-43
203	0xb83d7535	-4.517027e-05
204	0xbc180872	-0.009279357
205	0xbc05ae0e	-0.008159174
206	0x8ac594ca	-1.9026378e-32
207	0xbb7dd20a	-0.003872993
208	0x404cc771	3.199673
209	0x3c7186f7	0.014741651
210	0x80000089	-1.92e-43
211	0xb20a65b5	-8.055783e-09
212	0xbcebd1f7	-0.028786642
213	0xbcc36ae3	-0.023854678
214	0xbc1ca1ac	-0.00956003
215	0xbb8edd4a	-0.004359876
216	0x3d95e973	0.073199175
217	0x3fde4ec3	1.7367786
218	0x4067f219	3.6241515
219	0x04aefcf9	4.1139522e-36
220	0xbca1dd6c	-0.019758902
221	0x3f1cf075	0.6130441
222	0xbc2c5785	-0.010518913
223	0x378a5804	1.6491867e-05
224	0xb3eba862	-1.0973669e-07
225	0xb8876aa3	-6.457164e-05
226	0xb62ac6e8	-2.5447753e-06
227	0xbc581ce2	-0.01319048
228	0x8000014a	-4.62e-43
229	0x3d294fb1	0.041335765
230	0x3f31d38c	0.6946342
231	0xa0ad0230	-2.9308788e-19
232	0xbc172d17	-0.009227059
233	0xbcdb57d0	-0.02677527
234	0xbbe3a7f1	-0.0069475104
235	0x3fd1ecbf	1.6400374
236	0xbcc4a67c	-0.024005167
237	0x3e558acc	0.20853728
238	0xbbdb3c9f	-0.006690576
239	0xbbb0d3c4	-0.005396338
240	0xadb541d9	-2.060656e-11
241	0x3fc642be	1.5489118
242	0xbcaaa7d9	-0.02083199
243	0xb94509b3	-0.00018790997
244	0x3a5f485b	0.00085175567
245	0x3ada1ba2	0.0016640315
246	0x4006859f	2.1019056
247	0xbc7460ff	-0.014915704
248	0xbc6c94d6	-0.014439782
249	0xb499c756	-2.8643507e-07
250	0xbf4334da	-0.7625252
251	0xbc755ef8	-0.014976256
252	0x40478d94	3.1180162
253	0xb5f382aa	-1.8142939e-06
254	0xbb9e53a6	-0.004831749
255	0xbc2c31af	-0.010509892

bn1.bias f4 [400]
0	0xbc2f2d4a	-0.01069195
1	0xbb52c84d	-0.0032162846
2	0xbbbaffe9	-0.0057067764
3	0xbba64336	-0.00507393
4	0x3f3bc8d9	0.73353344
5	0xbab66e15	-0.0013918305
6	0xbc2c26bc	-0.010507282
7	0xbb266552	-0.0025389981
8	0xbf2d1eb8	-0.67625
9	0x3ec1952b	0.3780912
10	0xbb228487	-0.002479823
11	0xa1ededb4	-1.6122664e-18
12	0xba9cc662	-0.0011960978
13	0xbaba31e5	-0.0014205544
14	0xbc890546	-0.016726147
15	0xbc0dc9e9	-0.008654096
16	0xbb8c4669	-0.0042808545
17	0xbc804663	-0.015658563
18	0xbaf619b6	-0.0018775973
19	0x3fafa97e	1.37236
20	0xbaa7f4b3	-0.0012814015
21	0xa8af0262	-1.9429936e-14
22	0xbb8b9ddc	-0.0042607617
23	0xba9cffd7	-0.0011978102
24	0xb9dd6209	-0.00042225447
25	0x3ef6682b	0.4812635
26	0xbae2a3dc	-0.0017291266
27	0xbb84e23f	-0.004055291
28	0xbc826b84	-0.015920408
29	0xbd115acb	-0.035486978
30	0xbc3d5bea	-0.011557559
31	0xbc23c16c	-0.009994846
32	0xbbe00d19	-0.006837499
33	0xb1aa3206	-4.953338e-09
34	0xbcfac2a9	-0.0306104
35	0x3e475a79	0.19468106
36	0xbcac03c1	-0.020997884
37	0xa428c6f4	-3.6597713e-17
38	0xbc6e4402	-0.0145425815
39	0x3f17bace	0.59269416
40	0xb2ce109c	-2.398911e-08
41	0x3fae1c0a	1.3602307
42	0x3cfe8623	0.03106982
43	0x3f8fcc20	1.1234169
44	0xbaf7a671	-0.0018894208
45	0xbc40062a	-0.01172022
46	0xbcb21eb7	-0.021743162
47	0x3d900ba7	0.070334725
48	0xbc980ba2	-0.018560234
49	0xb53f94c1	-7.136951e-07
50	0x3f9eb8ed	1.2400185
51	0xaf084bfc	-1.2396123e-10
52	0xbbae30e7	-0.005315888
53	0x3f26ce3b	0.6515843
54	0xbc73fed0	-0.014892295
55	0xbcc8c1e3	-0.024506515
56	0xbc711ea9	-0.014716783
57	0x3c0161df	0.007896869
58	0xbc8693ae	-0.016427841
59	0xa84636c3	-1.10030825e-14
60	0xba0b3a7a	-0.0005311143
61	0x3f6fe72f	0.93712133
62	0x9f51504a	-4.4323885e-20
63	0xba074bed	-0.0005161155
64	0xb93f1c65	-0.00018225757
65	0x3cbc1cb9	0.022962915
66	0xbc94a2ff	-0.018144129
67	0xbc79c16f	-0.015243872
68	0xbc911bd4	-0.017713465
69	0xb996e3d3	-0.00028779972
70	0xbc51e0b0	-0.012809917
71	0xb190d7dc	-4.215492e-09
72	0x3d0d6965	0.03452434
73	0xba805020	-0.0009789504
74	0xbc38d949	-0.011282274
75	0xb8376684	-4.3726075e-05
76	0x3f03dab8	0.51505613
77	0xb995565a	-0.00028483832
78	0xbbe567a8	-0.007000882
79	0xbc5a8308	-0.013336904
80	0xbba6c34d	-0.0050891996
81	0x3e4c79af	0.19968294
82	0xbb106823	-0.0022034727
83	0xb6e4880a	-6.8107665e-06
84	0xbbfff1f8	-0.0078108273
85	0xbb500099	-0.0031738637
86	0xbc57a57a	-0.013162011
87	0x9c9382bf	-9.761441e-22
88	0xaed8e87e	-9.863842e-11
89	0xbf1901b4	-0.59768224
90	0xbbbdb47f	-0.005789339
91	0xbde16aed	-0.110067226
92	0xbd075e3e	-0.03304886
93	0xbb42d109	-0.0029726645
94	0xbb2ecd19	-0.002667254
95	0xbbd34202	-0.0064470777
96	0x3c946d6e	0.018118586
97	0x3dd09c97	0.10186117
98	0xbcc388fb	-0.023869028
99	0x9a78de63	-5.146484e-23
100	0x405fee8d	3.498935
101	0xbb24842f	-0.0025103202
102	0xbaf2d927	-0.0018527851
103	0x3d273eb2	0.040831275
104	0xbd05094f	-0.03247958
105	0xbc81316b	-0.015770635
106	0xbce008e9	-0.027347999
107	0xbbdd79fa	-0.0067589255
108	0xbb53469e	-0.0032238136
109	0xbaadcc93	-0.001325982
110	0xbbe82383	-0.0070843115
111	0xbb0a955c	-0.0021146154
112	0x3e41f299	0.189402
113	0xa423883c	-3.5460386e-17
114	0x3d33e831	0.043922607
115	0x3ec113a8	0.3771031
116	0x3f21e39a	0.6323792
117	0xbca56b1e	-0.020192679
118	0xba205b0f	-0.00061170844
119	0xba0310bd	-0.00049997476
120	0xba2559fb	-0.00063076586
121	0xbc6c21fa	-0.0144123975
122	0xbcab8a43	-0.020939952
123	0xba5c9588	-0.0008414616
124	0xbd01f7bc	-0.0317304
125	0xbc55851d	-0.013032225
126	0xb8f6e4c4	-0.00011772805
127	0xbb12fd8c	-0.0022428958
128	0xb10ff492	-2.094826e-09
129	0xbbc13948	-0.005896721
130	0x3dbd3bbd	0.0923991
131	0xbbba0cc8	-0.005677793
132	0xbbac49a4	-0.005257802
133	0x4053aa90	3.3072853
134	0xbf3fd125	-0.74928504
135	0xbbb9be1b	-0.0056684143
136	0xba8e07ff	-0.0010836123
137	0xbbad8d13	-0.0052963584
138	0xaf42da18	-1.772168e-10
139	0x3d7f67c2	0.06235481
140	0xbc7e35e8	-0.015515782
141	0xbbeac9ee	-0.007165185
142	0xbb9308f6	-0.004487152
143	0xbac9bd14	-0.0015391433
144	0xac2254fd	-2.3068763e-12
145	0xa8a17693	-1.7926014e-14
146	0x3ff58bb3	1.9183258
147	0xbb782aa4	-0.0037867213
148	0x3ca5fa7a	0.020261038
149	0xbb868b32	-0.004105949
150	0x3e884c2c	0.26620615
151	0x3935f84a	0.00017354
152	0xbb2fc452	-0.0026819897
153	0xb362ab98	-5.277579e-08
154	0xbca3e784	-0.020007856
155	0xbaafdd1d	-0.0013417337
156	0x3fba4ffa	1.4555657
157	0xbb776295	-0.0037747968
158	0xbcb598f5	-0.022167662
159	0x3f9153ac	1.135366
160	0xb85335bc	-5.0356364e-05
161	0xbc8477eb	-0.016170463
162	0xbc4e6298	-0.012596749
163	0x3f1f5640	0.6224098
164	0x3abc5b22	0.0014370421
165	0xbb035692	-0.0020040614
166	0xbe5a899f	-0.21341561
167	0x99e21299	-2.3375364e-23
168	0xbc587213	-0.013210791
169	0x3c56d81d	0.013113049
170	0x4072d674	3.7943392
171	0x3a928d34	0.0011180998
172	0xa2fd52df	-6.866353e-18
173	0xbc09f1de	-0.008419482
174	0xbbd16e9d	-0.00639136
175	0xbcd45c2d	-0.02592286
176	0xbbd999e1	-0.0066406582
177	0x3a85a047	0.0010194861
178	0x3edf1303	0.43569192
179	0xbac6d678	-0.0015170118
180	0x3de72e32	0.11288108
181	0x880b437a	-4.190811e-34
182	0xba857399	-0.0010181546
183	0x4063293c	3.5493917
184	0xbaae1528	-0.0013281452
185	0x3f83a71e	1.0285375
186	0xbbbd0595	-0.0057684877
187	0xbbf16766	-0.0073670624
188	0x3d00d3ec	0.031452104
189	0xbc93b134	-0.018028833
190	0x3d181318	0.037127584
191	0xbf009688	-0.5022969
192	0xb114f251	-2.1674575e-09
193	0xbe8ec912	-0.2788778
194	0xbd50189f	-0.05080473
195	0xbc9d8fe0	-0.019233644
196	0x3fa96021	1.3232461
197	0xa6137579	-5.1160075e-16
198	0x3ceec77a	0.029147852
199	0x9105b0a0	-1.0546277e-28
200	0xbb33b240	-0.0027419478
201	0xbc070cf4	-0.008242834
202	0x97e6ea9b	-1.4922624e-24
203	0xbadc7ece	-0.0016822459
204	0xbb54d2f8	-0.003247438
205	0xbac8e1fd	-0.0015326139
206	0xb079bad9	-9.08512e-10
207	0xbabae6f8	-0.0014259508
208	0x3f29a14a	0.6626173
209	0xbc2a4dc4	-0.010394517
210	0xa8fe80ac	-2.8255467e-14
211	0xb9457ecf	-0.00018834624
212	0xbb2be33c	-0.0026227972
213	0xbcd611fd	-0.026131624
214	0xbc6c02f1	-0.014404998
215	0xbc60a9b3	-0.013712334
216	0x3d88af90	0.06674111
217	0x3f53031b	0.82426614
218	0x3f041fdb	0.5161111
219	0x86214cb5	-3.033709e-35
220	0xbcc578e7	-0.024105502
221	0x3e057b44	0.13035303
222	0xbca275b1	-0.01983151
223	0xbc3b4856	-0.01143082
224	0xb91178ae	-0.00013873234
225	0xbbe9a1b5	-0.0071298727
226	0xb97e1dc3	-0.00024234415
227	0xbcc548fb	-0.024082651
228	0xa1e976d4	-1.5820148e-18
229	0x3d23bccc	0.039974973
230	0x3eb6dac5	0.35713783
231	0xb49ed30d	-2.9583353e-07
232	0xbc65cd82	-0.014026048
233	0xbcd8158b	-0.02637746
234	0xbb1542a2	-0.0022775312
235	0xbd800c28	-0.062523186
236	0xbce109e6	-0.02747054
237	0x3e513ba8	0.20432913
238	0xbc2ab6b8	-0.01041954
239	0xbb008c46	-0.001961486
240	0xada29ba4	-1.8486386e-11
241	0x3fd2a400	1.6456299
242	0xbab15053	-0.0013527967
243	0xb8fcb780	-0.00012050476
244	0xbc0ecea0	-0.008716255
245	0xbb62b5b2	-0.0034593162
246	0x3db91421	0.090370424
247	0xbca53bd7	-0.020170135
248	0xbb592573	-0.0033133894
249	0xb9cda402	-0.00039222842
250	0x3d86d72c	0.065840095
251	0xba429e6e	-0.00074241206
252	0x3f91ec61	1.1400262
253	0xbadd7e77	-0.0016898651
254	0xbc091e1b	-0.008368994
255	0xb9a86002	-0.00032114988

bn2.weight f4 [300]
0	0xbd445ffc	-0.0479431
1	0xba8e2f1f	-0.0010847783
2	0xbd24264b	-0.04007558
3	0x40a38452	5.1099024
4	0x3fb1b278	1.3882589
5	0x405ee2d6	3.482595
6	0xbc70659a	-0.014672661
7	0x3f17f57b	0.5935895
8	0xb96b8e4d	-0.00022464358
9	0x404a3544	3.159501
10	0x404b8563	3.1800163
11	0x3d14dc2e	0.036342792
12	0xbfe56367	-1.792096
13	0xb72e5c37	-1.0392679e-05
14	0x40f29b74	7.581476
15	0xbe12db20	-0.14341402
16	0x412d3b7a	10.827021
17	0x403da8d3	2.9634292
18	0x3ffaa952	1.9582922
19	0xc0412e7f	-3.018463
20	0xbdbce9e4	-0.092242986
21	0x35df0260	1.6615486e-06
22	0x3de8b975	0.11363498
23	0x800000eb	-3.3e-43
24	0x3b87b378	0.0041412674
25	0xb94384d0	-0.00018646126
26	0x40d6c522	6.711564
27	0x30c9bdfb	1.467867e-09
28	0xbc0cc5e5	-0.008592104
29	0xbfe569c9	-1.7922908
30	0x3f851859	1.0398055
31	0x405d3f06	3.4569716
32	0x266d7ce7	8.2395167e-16
33	0xbc96e386	-0.018419039
34	0x409f1b6b	4.972097
35	0x404c7cd6	3.1951194
36	0x3c6489d2	0.013948875
37	0x3eb0eabf	0.34554097
38	0x1617ed8a	1.2272637e-25
39	0x3ea04228	0.31300473
40	0x90521105	-4.142831e-29
41	0x401109a6	2.266214
42	0x40876445	4.23099
43	0x40a66fc4	5.2011433
44	0xbf5f8545	-0.8731273
45	0x3a3f06df	0.00072870957
46	0x40739d4e	3.806476
47	0x27812cdc	3.585333e-15
48	0x406dfd3c	3.7185812
49	0x40dc65f2	6.8874445
50	0xbda1a25f	-0.07892298
51	0x4017146f	2.3606222
52	0x412dc1dd	10.85983
53	0x000030a6	1.7452e-41
54	0x40c5cf4c	6.181555
55	0x40992776	4.786067
56	0x409559af	4.6671977
57	0x3ea5f7c4	0.32415593
58	0x414d5cf3	12.835193
59	0x3e01435f	0.12623356
60	0x414af5e0	12.685028
61	0xbc91666a	-0.01774903
62	0x4013893f	2.3052518
63	0x41029b7f	8.162963
64	0x3fe6565d	1.7995106
65	0xbdec318c	-0.11532888
66	0xbbc7aebf	-0.0060938294
67	0x40ae5730	5.448143
68	0xbc61f2a9	-0.013790765
69	0x3b119da1	0.0022219198
70	0x40521475	3.2824986
71	0x3ece1657	0.4025142
72	0xc0a8dc95	-5.2769265
73	0x40cae863	6.3408675
74	0x402eb362	2.7296987
75	0x402db96c	2.7144423
76	0x80000306	-1.085e-42
77	0x800001f9	-7.08e-43
78	0x40ede71b	7.434461
79	0x3def6f59	0.1169116
80	0xbcafa57e	-0.021441218
81	0x00000207	7.27e-43
82	0x9c72e30f	-8.036455e-22
83	0x1077951a	4.8827025e-29
84	0x408f0246	4.4690275
85	0x3ffa0953	1.9534096
86	0xaa64e58c	-2.0330108e-13
87	0xaa71609d	-2.143862e-13
88	0xc0b9b7b4	-5.8036747
89	0x40276609	2.6156027
90	0x3b8c1d70	0.00427597
91	0x3d2e590a	0.042565383
92	0x40bb14b6	5.846278
93	0x3ee11b5f	0.43966195
94	0xbfd29a62	-1.6453364
95	0x3ad4e746	0.0016243241
96	0x3d3bbb43	0.045832884
97	0x40a210f5	5.06457
98	0x412182b2	10.094408
99	0xbd198da1	-0.037488583
100	0xb5d4aad6	-1.5844951e-06
101	0x4104d20e	8.301283
102	0x000001c5	6.35e-43
103	0xbbfa185d	-0.007632299
104	0xc027e99f	-2.623634
105	0xc0976491	-4.731026
106	0xbab4c363	-0.001379114
107	0xc0a2c030	-5.0859604
108	0xb1c61801	-5.7652874e-09
109	0x40160566	2.3440795
110	0x3872b91a	5.7869685e-05
111	0x3fbce2c5	1.4756705
112	0x3ea80b51	0.32821134
113	0x40871c36	4.2221937
114	0xbfc204ab	-1.5157675
115	0x3f5fd087	0.8742756
116	0x3ffae14e	1.9600008
117	0xbbec17f8	-0.0072050057
118	0x3325a1aa	3.856409e-08
119	0x410cac30	8.792038
120	0x40a0e458	5.027874
121	0xbbac8bdf	-0.0052656974
122	0x3fcf7407	1.6207284
123	0x3c8de468	0.017320827
124	0xbc98af48	-0.018638268
125	0x3d6b3509	0.057423625
126	0x3a00c1d7	0.0004911697
127	0x40216052	2.521504
128	0xb6903732	-4.29796e-06
129	0xbd7255ce	-0.05916386
130	0xb7aaa741	-2.0343463e-05
131	0x3a1673f3	0.00057393237
132	0x3a9a4e5e	0.0011772623
133	0xb5ceacec	-1.5398523e-06
134	0xbe3b2d1e	-0.1827893
135	0x40936427	4.6059756
136	0x404cdb20	3.2008743
137	0x3d4001c9	0.046876702
138	0x402ced3d	2.7019799
139	0xbbd328df	-0.006444081
140	0x40f72fb4	7.724573
141	0xb79303fb	-1.752562e-05
142	0xb7dda796	-2.6423291e-05
143	0x404426b7	3.064863
144	0x4021b695	2.526769
145	0xc0d6aab2	-6.708337
146	0x3a034734	0.00050078635
147	0x4023936a	2.5558724
148	0x407fbecc	3.9960203
149	0x37d341d9	2.5183823e-05
150	0xc061f406	-3.530519
151	0xbc9264ce	-0.017870333
152	0x401601c3	2.3438575
153	0x3d9bce6f	0.076077335
154	0x3693be62	4.403105e-06
155	0x400b305b	2.1748264
156	0x0ffc0841	2.4852298e-29
157	0x3e170db0	0.14751315
158	0x407177b6	3.7729316
159	0x40596389	3.3967001
160	0x4057b982	3.3706975
161	0x4047a83f	3.119644
162	0x4005e991	2.0923808
163	0xbcf638f4	-0.030056454
164	0xba8e7c9b	-0.0010870876
165	0x40a4a53c	5.14517
166	0x33b1ccc5	8.279452e-08
167	0x3c236465	0.009972666
168	0x40b4d976	5.6515455
169	0x3b9c662d	0.0047729225
170	0x40526431	3.2873652
171	0x3fea5c50	1.8309422
172	0xb91edfb8	-0.00015151396
173	0x3cf26361	0.029588403
174	0x4005a052	2.0879102
175	0x41403a94	12.014301
176	0x409e59a9	4.948445
177	0x40858886	4.1729155
178	0x9ccfbdf1	-1.374721e-21
179	0xb7a481e9	-1.9610818e-05
180	0x3f855568	1.0416689
181	0x410c7b25	8.780065
182	0xbd6af691	-0.05736405
183	0x40919485	4.54938
184	0x4011bb0a	2.277041
185	0xbc6a66c5	-0.014306729
186	0x4100ef3d	8.058408
187	0xc00129e8	-2.0181828
188	0x40940ca5	4.6265435
189	0x3ba1e531	0.004940652
190	0x400e83fc	2.2268057
191	0x40ed6ed0	7.419777
192	0x406a2982	3.6587834
193	0x400a8cee	2.1648517
194	0x800000b7	-2.56e-43
195	0x40284f67	2.6298463
196	0x402d50f0	2.708065
197	0x3d4a1932	0.049340434
198	0xc0f31efb	-7.597532
199	0x3c87fb05	0.016599188
200	0x3f066752	0.52501404
201	0xbdd45da5	-0.10369424
202	0x406ea9ed	3.7291214
203	0x0005c9ca	5.31566e-40
204	0x4059cb68	3.40304
205	0x4115042a	9.313517
206	0x40295b2e	2.6461902
207	0xbb898f13	-0.004197964
208	0xbe4c0093	-0.19922094
209	0x413811b9	11.504327
210	0x3d9d336b	0.07675823
211	0xbaa20780	-0.0012361854
212	0x00000055	1.19e-43
213	0xbeac86be	-0.3369655
214	0x3d67da83	0.056604873
215	0x40145531	2.3176997
216	0xaa59fb42	-1.9360644e-13
217	0x40b7a6b9	5.739102
218	0x40a8754d	5.264319
219	0x800000f6	-3.45e-43
220	0x34bb8129	3.492544e-07
221	0x40c0816b	6.015798
222	0x3cc1f8f5	0.023678282
223	0xbaccbadd	-0.0015619654
224	0x3cf631c6	0.03005303
225	0x404faa81	3.2447817
226	0x408b5ca1	4.3550572
227	0x408f71c2	4.4826365
228	0x3e518f9c	0.20464939
229	0xb1d0513b	-6.0628316e-09
230	0x23038d60	7.1314616e-18
231	0x408c0529	4.37563
232	0x40814de0	4.040756
233	0x406583ca	3.5861688
234	0xbfd7ec8a	-1.6869061
235	0xbc8c247d	-0.017107243
236	0x000001d6	6.59e-43
237	0xc0931875	-4.5967355
238	0x4013a2c6	2.30681
239	0xa006e937	-1.1427406e-19
240	0x405d7807	3.460451
241	0x3c917f44	0.01776088
242	0x3f24b7c5	0.6434291
243	0x3daeaf11	0.08529485
244	0x41188deb	9.534648
245	0x400a2edc	2.15911
246	0x4018cf61	2.3876574
247	0x40631002	3.547852
248	0x4093be0a	4.616948
249	0x3f52c39b	0.8232972
250	0x404f20ab	3.236369
251	0xc02390a0	-2.5557022
252	0xb7fd4aeb	-3.0194837e-05
253	0x000000e1	3.15e-43
254	0x40a118f8	5.034298
255	0xbfa88f56	-1.3168743
