tmp/ddpg/target_critic_ddpg.pth (torch, 514177 bytes, 11 tensors)

fc1.weight f4 [400, 11]
00000000: e774 06bb ba66 62bc 1396 1d3c cd10 2fbc
00000010: 9a46 903a 9225 493d 2d67 423d fa9a 7bbc
00000020: 3748 a9bc 4733 37bc 2b50 143d 273f 8c3c
00000030: 35de 493d cd21 863a 2047 473d 120b 0fbd
00000040: 93e6 d63c 0da4 0d3c 281b 18bd 2a6c eb3c
00000050: 90cf 2dbd 0d50 acbc cd2f 32bc 400b acbb
00000060: 4d85 b53c 52bb 083d ca2a bd3c 4009 23bd
00000070: 0ffc 44bd 00a0 763c 2d3d 35bc 8fad 0c3d
00000080: cd5e 0bbd b84b 2fbd cdc2 fdbc aaa5 f2bc
00000090: 12d2 0a3d 23e7 37bd 13d5 debc 9a9a e0ba
000000a0: 0d2f fc3b db41 15bd a740 afbc cd14 5bbb
000000b0: 1ba1 233d e8c3 3c3d 00b9 f6bc 7a2f b3bc
000000c0: 3d9e 4b3d 2abe f6bc da56 fabc ea5a 15bd
000000d0: b39b 2d3b 0a18 aa3c ff48 09bd 6dbe 0d3d
000000e0: a751 f9bb 60b4 3abc d378 7abc 62cd 303d
000000f0: cd66 cf3c 1af7 13bd 200e 44bd 6a79 02bd
00000100: cb83 1d3d 6776 f638 8d7b 2b3d 0d3d eb3b
00000110: 3fc0 103d 6a68 8a3c daab 26bc 00b0 8339
00000120: 2bed 1a3d 4dae 44bb 378f 06bd c5bf 133d
00000130: 3d7e 8b3c caae ec3c 8d4e 07bd 0292 2bbd
00000140: 47b2 2c3c cddf 0fbb 0762 213c 6da5 3d3c
00000150: c095 da3c 470a 4c3d 4dbf 9dbc da50 883b
00000160: caa5 b73c 6d42 17bc a3c6 bfbc 9a56 fc3c
00000170: b2c4 32bd 1768 df3c f3b0 743c a3c4 b33c
00000180: eab9 25bd 3076 d93c 9d70 96bc ca42 0cbd
00000190: 483f 2ebd 9a84 9aba 9d44 f43c b308 1ebb
000001a0: e0b3 16bd 0721 4c3c 1508 403d 0010 6abc
000001b0: adb6 f83c 003f 70bb 3786 06bd d328 953c
000001c0: 333b 06ba 770d fe3c da5d 19bc 9a5b 853b
000001d0: 8b03 263d 805e 3dbc 97eb be3c 402b d93c
000001e0: 0d50 043d 235c cabc f743 3b3d 4305 fcbc
000001f0: 333b 3639 bdb6 c03c 07a2 c93c 9813 11bd
00000200: 93c5 a73c 8bff 273d b08b 48bd cd7d bebc
00000210: 60b8 18bc 4080 c4bb b39f 7e3b df1a 3f3d
00000220: ad9e 05bd d00d 8bbc 3318 2fbb 1acf 05bc
00000230: e74a 1d3c d3f0 c8bc 3866 113d 5dc8 853c
00000240: 2b59 3c3d ed33 25bd 6270 473d b00d a6bc
00000250: 1a1c 7cbb b3ef 1a3c 6d87 13bd 6769 abbb
00000260: 27e9 4bbd 43fc 83bc eb91 1c3d 472c 953c
00000270: 1308 4c3c aa89 f5bc 03e6 273d 0abc e8bc
00000280: d357 6cbc 5d10 1fbd 221e 193d 9af2 b23c
00000290: 00d0 f53a d0aa 9f3c 4033 4b3d 6db4 28bc
000002a0: b35b ff3c d066 abbc 80d5 3e3c 4822 13bd
000002b0: f799 96bc 98e5 083d f57d 413d 207f 81bc
000002c0: 8007 aabc 9abe 803c da7c 06bc ff1e 3f3d
000002d0: da72 11bc 4d2e 12bd 2dee 88bc 7a7c 3d3d
000002e0: caa3 ad3c 2332 01bd 5013 07bd 9a3e 7ebb
000002f0: e71f cd3b 6dce 4e3c ed29 e23c 2f40 07bd
00000300: 7a88 9b3c 4df3 0e3b f326 85bb 9045 89bc
00000310: 53af a0bc 32ac 39bd 2adc a5bc d00f f7bc
00000320: 037a 41bd 5fdd 3a3d bd00 ad3c 777a 94bc
00000330: 2043 22bd 4d1d d23c a720 ca3b 7809 05bd
00000340: d893 15bd 97a2 3a3d 330f 193b fd13 dcbc
00000350: 9a31 5cb9 d0d0 be3c d5a6 2a3d 5575 26bd
00000360: 2867 473d f314 3e3d da2b 533c 9360 dbbc
00000370: 2002 b4bc cdae b83b 57c4 0dbd 3074 44bd
00000380: 8d3f f83c 8dee d73c a528 3cbd 8085 a7bc
00000390: c86d 40bd 9096 a2bc 53ca 283c 435a 143d
000003a0: 6712 e5ba f379 07bd 5548 0c3d 3277 293d
000003b0: af19 2c3d 9dcb 033d 2bc1 27bd 93be 07bc
000003c0: 4554 153d 4021 8fbc e0a7 133d f319 d0bb
000003d0: 20e5 f0bc 60df 4c3c 1a72 39bc 6035 303d
000003e0: f3a9 f3bc 5396 1b3d edda e1bc 07af 20bd
000003f0: 92af 2ebd b799 243d f0a6 3cbd 0a51 8abc
-0.0020516457 -0.013818437 0.0096183 -0.010685158 0.0011007369 0.049108095 0.047461677 -0.0153567735
-0.020664318 -0.011181659 0.036209267 0.017119957 0.04928418 0.0010233462 0.048651814 -0.034922667
0.026232993 0.00864507 -0.037135273 0.0287381 -0.042434275 -0.021034265 -0.010875654 -0.0052503645
0.02215829 0.033381768 0.023091692 -0.039803743 -0.048091944 0.015052795 -0.011061949 0.034345206
-0.034025956 -0.04279682 -0.030976677 -0.02962001 0.033891745 -0.044898164 -0.027201211 -0.0017135919
0.0076960386 -0.036439758 -0.021393133 -0.0033429146 0.039948564 0.04608527 -0.030117512 -0.021873225
0.049711455 -0.030119974 -0.030558992 -0.036463656 0.002649051 0.020763416 -0.03351688 0.034605432
-0.0076086107 -0.011395544 -0.015287596 0.04316462 0.025317574 -0.036124326 -0.047865033 -0.03185407
0.038455766 0.00011752248 0.041865874 0.0071789087 0.03533959 0.016895492 -0.010172809 0.00025117397
0.037823837 -0.0030011118 -0.032851424 0.036071558 0.017027969 0.02889194 -0.033033896 -0.04188729
0.0105405515 -0.0021953464 0.009850032 0.011575085 0.026682734 0.04981449 -0.019256258 0.004160029
0.022417922 -0.009232146 -0.023410147 0.030803014 -0.043644615 0.027271314 0.014934766 0.02194435
-0.040460505 0.026545614 -0.018364245 -0.034243383 -0.04254082 -0.0011788786 0.029817874 -0.0024114072
-0.036792636 0.012459046 0.046882708 -0.014286041 0.030360544 -0.0036658645 -0.03284284 0.018207943
-0.00051205157 0.03101228 -0.009360755 0.0040697576 0.040530723 -0.011558175 0.023305697 0.026509881
0.032302905 -0.024702137 0.045719113 -0.030764228 0.00017378926 0.023524636 0.024613393 -0.035419077
0.020479953 0.04101519 -0.04896134 -0.023253346 -0.009321302 -0.005996734 0.0038852512 0.046656486
-0.03262203 -0.01697436 -0.0026717305 -0.008167053 0.009600378 -0.024528896 0.035497874 0.016330892
0.045983475 -0.040332723 0.04869116 -0.020270199 -0.0038468898 0.009456563 -0.036017824 -0.005231071
-0.0497829 -0.016111499 0.038225096 0.01820959 0.012453097 -0.02997287 0.04099084 -0.028409977
-0.014425236 -0.038833965 0.037382253 0.021844197 0.0018754005 0.01949063 0.049609423 -0.010296923
0.031171655 -0.020923048 0.011647582 -0.035921365 -0.018383963 0.033422083 0.047239263 -0.015807688
-0.02075553 0.015715886 -0.008208478 0.04666042 -0.00887748 -0.035688687 -0.016715134 0.04626129
0.021196265 -0.031541955 -0.032977402 -0.0038794638 0.0062599066 0.012622458 0.027607882 -0.033020195
0.018985976 0.00218125 -0.004063481 -0.016756803 -0.019614851 -0.045330234 -0.020246584 -0.030158907
-0.0472355 0.045621272 0.021118516 -0.018124802 -0.039614797 0.025648737 0.0061684432 -0.032479733
-0.036517948 0.045565214 0.0023355007 -0.026865 -0.00020999313 0.023292929 0.04166301 -0.04063924
0.04868236 0.046406697 0.012888873 -0.026779449 -0.02197367 0.0056360723 -0.034611072 -0.047962368
0.03030374 0.026358867 -0.0459372 -0.0204494 -0.046979696 -0.019847184 0.010302144 0.036218893
-0.0017476798 -0.033075284 0.03424867 0.04137344 0.04201668 0.032176603 -0.040955704 -0.0082851825
0.03645732 -0.01747191 0.03604877 -0.0063507496 -0.02940613 0.012504429 -0.011318708 0.043019652
-0.029744124 0.037985157 -0.027570212 -0.03922942 -0.042647906 0.040185656 -0.04605764 -0.016884346

fc1.bias f4 [400]
00000000: 1353 c5bc 4d88 56bb 4020 a23c adeb fa3c
00000010: 27b1 83bc d309 463d c7e2 703c 7720 b1bc
00000020: ad39 4dbc 6712 9cba 0fb5 23bd 8d72 0a3c
00000030: 8d38 e03c c718 a53c 00ea ae3c 332d dbbc
00000040: ddd8 263d 3a20 093d 979c c73c 1a3b b5bc
00000050: e3a4 f93c d7a2 07bd 10b8 9bbc e0c9 513c
00000060: 33c6 a23c 9d91 a8bc aa27 2e3d cd14 08bc
00000070: cd88 e6b9 4d6c a9bb c77a 5a3c 7d60 0fbd
00000080: 0dd8 963c 6332 23bd cd24 05bc 9ae5 723c
00000090: c022 003c 80f7 dd3b 8d6d debc fdfc 93bc
000000a0: 00bf 44bb 43da 2cbd dbae 0e3d 5a78 a0bc
000000b0: 139b 073d aa83 813c d0d4 e63c 535b 853c
000000c0: 271b e33c b03e d8bc 4726 103d 80c8 7dbc
000000d0: cba6 24bd 602b c5bc 3731 ed3c 3a8b 1b3d
000000e0: cd65 263d aa87 4a3d f890 3abd cd4a c33c
000000f0: 00d9 f8bc e759 f7bb ea32 39bd 97d4 2abd
00000100: 8a08 30bd eb33 47bd 0006 3f3a 6db8 adbc
00000110: fa3f 46bc 1a60 113c 9d67 ccbc bac7 413c
00000120: c503 283d 5296 1bbd da8a fabc 824b 463d
00000130: 18ff 0e3d 5a44 e33b cd24 893b 400f b6bb
00000140: 57a8 ff3c 0796 0fbc e77d 26bb 4a4f 203d
00000150: dd6b fcbc 4d1d 0ebb 3708 9c3c 3f6c 3c3d
00000160: 6390 413d 5fa0 293d 60ac 5abc 95fc 44bd
00000170: 80d0 04bc c5ac 043d 6775 953b 87c5 0c3c
00000180: 572e 873c 3a65 3d3c d3fa 113c e06c f4bc
00000190: 9707 cd3c e329 8ebc 5d56 febc d09c 37bd
000001a0: 5ac6 cabc c088 adbb cb0f 46bd adf7 e8bc
000001b0: 0d04 6e3c cd27 ab3c 9a35 e93a 4dd2 1e3b
000001c0: 8226 2d3d 885b 313d 1ad1 2b3d ed0f 67bc
000001d0: 9362 5ebc 1adc 543b 1ad2 653c 6dd6 51bc
000001e0: dd2f f63c bdd4 25bd 074b 29bc d571 483d
000001f0: 731d fb3c f231 44bd 734a e0bc 50fd 933c
00000200: ab60 47bd 1332 a1bc bad5 313d 80e4 043c
00000210: 9a3d be3b c0c1 b63b e754 cb3b 52b9 1cbd
00000220: e799 ddbb 6731 433d 0527 07bd 7d06 38bd
00000230: 5065 98bc 73e1 283d 5b88 123d 67b3 fb3c
00000240: fa71 21bd e31b 1dbd 2aac 1cbd 6d2e a53c
00000250: ddfd 003d 6af3 853c 8ab8 ed3c 8a62 ce3c
00000260: 9dc2 adbc 5383 463d 3352 d7bc 43dc b43c
00000270: 8d52 373d b597 0dbd 1fa7 35bd 9d9b d4bc
00000280: 5dfb 343d d308 23bd cd5d ec3a e7b2 c8bc
00000290: e062 1ebd f7cf fcbc d3ef 793c 30db d7bc
000002a0: cd4e 91bc 4074 c4bb 8fe5 083d 3f98 3abd
000002b0: 875e 013d 17aa 3fbd f341 f7bb 0044 b8ba
000002c0: fd27 20bd 3a7e c83c d74f 05bd e774 2fbd
000002d0: 4bc2 303d 8d1a b73c 5a4d 3cbd f091 33bd
000002e0: cde3 a5bc 3bfc 173d 8067 043b cd23 2ebd
000002f0: 5a07 25bd 8d6d f4bb 577a f03c 676f 9abb
00000300: 4bac 2cbd e05b 2abc e7af 5dbb af5b 3b3d
00000310: 33d0 9d3c 40b3 d7bb 7780 08bd a8a0 44bd
00000320: b7b3 44bd ed0b 373d 8093 50bc bae2 58bc
00000330: c770 163d 1a26 053c 32c6 323d 0046 673a
00000340: 2769 ba3c 7b7d 33bd 13f7 03bc aa28 febc
00000350: 80fd 6bbb 6326 b53c f3a6 fa3b 1068 fbbc
00000360: 2264 433d 7a12 b63c 30eb cfbc 80b0 b33c
00000370: d309 353d ca05 a0bc d3fd fcbc 9db4 3abd
00000380: 8ac0 9c3c 5564 25bd d3ba 04bc aaaf 8dbc
00000390: 0db0 4a3d 9ade 05bd ea17 96bc 33ca 623c
000003a0: 4deb 77bb b3a4 82bb 2037 a83c 00a3 0dbd
000003b0: 0063 9e3b 5a55 83bb 27c6 f63c 0020 89bb
000003c0: 90ec a9bc ad30 323c 6768 99ba 8739 f93c
000003d0: f3dc 923b 7d7a afbc 73a5 f1bc a028 a9bc
000003e0: 1a1b e13b 7390 b0bb 3abe 3abd 3326 a9bb
000003f0: 5360 df3c 5ada adbc 72bf 10bd 87c5 47bd
-0.024087464 -0.003273505 0.019790769 0.030629957 -0.016075684 0.048349213 0.014702505 -0.021621926
-0.012525958 -0.001190734 -0.039967593 0.008450163 0.027370716 0.020153416 0.021351814 -0.026754951
0.04073416 0.033478 0.02436666 -0.022122908 0.030474132 -0.03311428 -0.019008666 0.012804478
0.0198699 -0.020577246 0.042518295 -0.008305741 -0.00043970943 -0.005170381 0.013334936 -0.035004128
0.018413568 -0.039842974 -0.00812645 0.014825249 0.007820785 0.006773889 -0.027151847 -0.01806497
-0.0030021071 -0.042200338 0.034834724 -0.019588638 0.033106875 0.015809853 0.028177649 0.016278898
0.027722908 -0.02639708 0.035192754 -0.015489697 -0.04019813 -0.024068534 0.028954132 0.037974574
0.04062443 0.049445786 -0.04554841 0.023839379 -0.030376911 -0.007548559 -0.04521457 -0.041706648
-0.042976893 -0.048633497 0.0007286966 -0.021206105 -0.012100214 0.00887301 -0.02495175 0.011827404
0.04101922 -0.037985153 -0.030583788 0.048411854 0.034911245 0.0069356384 0.004185295 -0.005556017
0.0312082 -0.008763797 -0.0025404633 0.039138116 -0.030813152 -0.0021684945 0.019046886 0.04600167
0.04725684 0.041412707 -0.013346761 -0.048092443 -0.008106351 0.03239133 0.0045611146 0.008592016
0.016501589 0.011559779 0.008909899 -0.029837072 0.025028033 -0.017353958 -0.03104704 -0.044827282
-0.024752785 -0.005295843 -0.048354905 -0.028438414 0.014527333 0.020893002 0.0017792464 0.0024234236
0.042273052 0.04330018 0.04194746 -0.014102918 -0.013573307 0.0032479824 0.014027143 -0.012807471
0.03005212 -0.040486086 -0.010332829 0.048936684 0.03065369 -0.047899194 -0.02737925 0.018065125
-0.048676174 -0.019677198 0.043416716 0.008111119 0.0058056833 0.005577296 0.0062051895 -0.038262673
-0.0067627314 0.047654536 -0.032996196 -0.044928063 -0.018602997 0.04123063 0.03577457 0.030725194
-0.039415337 -0.038356673 -0.038250126 0.02016374 0.031492103 0.01635142 0.02901866 0.025193471
-0.021210963 0.048465084 -0.026284313 0.022077685 0.04475646 -0.034568507 -0.044348832 -0.025953108
0.04418503 -0.039803337 0.0018033326 -0.02449937 -0.038668513 -0.030860884 0.015254932 -0.026349634
-0.01773777 -0.0059953034 0.03342205 -0.04555535 0.03158429 -0.04679307 -0.0075457036 -0.0014058352
-0.039100636 0.024474252 -0.032546844 -0.042836096 0.043154042 0.022351528 -0.045972206 -0.04384035
-0.020250225 0.03710578 0.0020203292 -0.04251461 -0.040290214 -0.0074593485 0.029355211 -0.004712987
-0.0421565 -0.010397881 -0.003382677 0.045741733 0.019264316 -0.0065826476 -0.03332564 -0.048004776
-0.048022952 0.044689108 -0.012730479 -0.01323765 0.036728647 0.00812676 0.043646045 0.00088223815
0.022755219 -0.04382084 -0.008054513 -0.03102525 -0.0036009252 0.02211303 0.0076492964 -0.03068927
0.047702916 0.022225607 -0.0253807 0.021934748 0.044198822 -0.01953401 -0.030882752 -0.045582402
0.019134779 -0.040378887 -0.008101183 -0.017295677 0.0494843 -0.032682993 -0.01832195 0.013842153
-0.003782946 -0.003986919 0.020534098 -0.034579277 0.004833579 -0.0040079774 0.030123783 -0.004184723
-0.020742685 0.010875863 -0.0011704088 0.030422939 0.0044819056 -0.021420712 -0.029497838 -0.020649254
0.006869686 -0.0053883134 -0.04559157 -0.0051620244 0.02726761 -0.021222282 -0.035338826 -0.04877236

fc2.weight f4 [300, 400]
00000000: ee47 63bd 0678 a2bc d409 eb3a 8467 a0bc
00000010: 2d45 d8bc 88ff 3abd 8103 ffbc 0321 e53c
00000020: c290 4c3c e041 52bd 6f34 d8bc 0c96 fbbc
00000030: ef0e 5d3d 010a e03c 5ef7 86bc d2a0 823a
00000040: 56a7 55bd 7c2f b9bc d80d 293d 72ca 16bc
00000050: 4c33 dcbc f06c 85bc 079c 1ebd f4d7 21bd
00000060: 175c 2ebd efbb 093d 81df 823c 632a 2ebd
00000070: 989d a7b9 0172 9d3c b3a2 ef3b 57de 443d
00000080: 6c9e 923c 442a 14bc f68d 203d 8ae2 26bd
00000090: a0d6 5abd 6b7e 18bd 1ae7 b83a 2d39 083d
000000a0: 2ca4 6e3c d5c6 10bd 6077 40bd ba11 f4bc
000000b0: 68f4 9b3b fd58 3ebd 199a 0bbb 6dc2 bc3c
000000c0: 8468 593d 3bd6 2bbd 3592 153d 19d8 243d
000000d0: a740 4dbd 7695 87bc 6fa7 473c 032b febc
000000e0: 5f44 36bd b259 e93c 1aa2 f6ba 8217 42bd
000000f0: 86df b33c f322 2abd 54ee f53c dced 45bd
00000100: 3512 16bd 8265 353d 5c6e 023b 55ba a2bc
00000110: e662 8cbb f78e 523d 000f 413d 99b4 513d
00000120: 25d5 58bd 76f7 893c ce83 6abd 7a96 3cbd
00000130: 2002 2ebc ae78 febb 0df4 8a3c 4ca0 83bb
00000140: e156 62bd 461d 60bd 483a 4fbd ec65 053b
00000150: ed18 4dbd 961d 2d3d 3b4a afbc af77 233d
00000160: 121e 11bd 569c 143d 9236 26bd 248e b5bc
00000170: ffbf 34bd 25e2 143d 3978 e9b9 913b 393d
00000180: 3386 62bd 0f25 40bd 0c3b 96bc 4280 5ebd
00000190: c80e 273d 15f9 2a3d 1562 b73b 4a62 333d
000001a0: 0fab 3e3d bb03 3dbd 7735 2ebd b380 ac3c
000001b0: 75c2 5cbd cd34 383d 7716 e3bc 7f40 8fbc
000001c0: 9fe8 3b3d f386 5e3d f810 473d bbff 383d
000001d0: 0823 c2bc 898a cd3c 502d 7c3c 07d7 40bc
000001e0: a645 07bd b723 63bd 28ef 1abb 9593 6c3a
000001f0: f1af 473d dba0 cabc b137 18bd 2858 1cbd
00000200: 5044 663d 4ab2 9a3c dec3 5d3d 40ee b6bc
00000210: 8e8f dc3c e3e9 cbbc 1f75 193d 7a23 16bd
00000220: 4b5d f63c f820 0bbb 0dd5 583d cd85 10bd
00000230: 04ab 43bd 25cd 0a3d 4472 edbc 891d 813b
00000240: aca2 0bbd ff60 90bc aa9e 983c 43c7 d53a
00000250: c662 28bd 8972 b7bb eccf 0f3d a3cb dfbc
00000260: 64f4 a0bc 0311 a7bc 6912 a7bc ad76 95bb
00000270: 6144 193c 1bdd a73c 831a dd3c 1230 6d3c
00000280: 4e53 7c3c 065c a13a b455 3f3d e004 483d
00000290: 2566 f1bc afa9 2f3d d9c9 66bd e768 f5bc
000002a0: ee0e f83b dc06 df3c 7f5f 81bc 46a1 cbbc
000002b0: 2042 f3bc d257 113d 8796 d73a 8d99 64bd
000002c0: 98a2 693d d070 4dbd 2174 d33c 1e2a f93b
000002d0: be8b 53bd 64b7 503d 9985 593d 23fe 95bc
000002e0: c4aa f5bc e2f2 a33c 87bd 3c3d 7e85 51bd
000002f0: dc96 4fbd 8167 7e3c 01d4 6f3c b5b8 c33b
00000300: 6ef9 253c be18 143d b919 29ba 3c7c 32bd
00000310: 7e97 3cbd 242f 15bc b97c 1a3b 5bbb e4bc
00000320: 3b67 2f3d 6e7c f03c ea55 08bd 76c0 3bbd
00000330: cae9 b63c 2274 52bd de06 533c 82f3 a13c
00000340: 0d73 5b3d c696 54bd 89e9 373d 0732 33bd
00000350: 6666 07bd 7543 ca3c f76d f73c 5c10 ad3b
00000360: 8c01 e0bb a10e 18bd 1cbf 14bc 02f4 41bd
00000370: e45b 5f3d 6fa9 f63c 7f7f 6a3d 3028 25bd
00000380: 80cf 0cbd d824 6c3d 75bc dd3c 3b9a 5f3c
00000390: b14a 08bc 08fa 12bd 6084 80bc dbf8 193b
000003a0: d000 3f3d 8b49 0fbd 72a5 5fbd 687a 093d
000003b0: eae1 bf3c 1a60 d13c 5449 8abc 9768 23bd
000003c0: 9223 6dbb 3466 25bd 4965 993b 0842 4dbc
000003d0: e962 643d e30b 563d ebdd 4dba 577e 5ebd
000003e0: 2509 153d 80e8 5d3d 801c e8bc 2b94 40bb
000003f0: ef7c e73c 9c9b 20bd 3af0 a3bb 9f04 083d
-0.05548852 -0.019832622 0.0017932006 -0.01958061 -0.026400173 -0.04565385 -0.0311296 0.027969843
0.012485685 -0.051332355 -0.02639219 -0.030711196 0.05396932 0.02734852 -0.016475376 0.0009966141
-0.052161537 -0.02260565 0.041272968 -0.00920354 -0.026879929 -0.016287297 -0.038723018 -0.03951259
-0.042568292 0.033626493 0.015975716 -0.042520892 -0.0003197014 0.0192194 0.0073130964 0.048063602
0.017897807 -0.00904328 0.039197885 -0.04074339 -0.05342734 -0.037229937 0.001410696 0.033257652
0.014565509 -0.03534587 -0.046988845 -0.029793609 0.00475936 -0.046471585 -0.0021301566 0.023041928
0.05307819 -0.041952353 0.036516387 0.04024515 -0.050110485 -0.01655076 0.012185915 -0.031026369
-0.044498798 0.028485153 -0.001881662 -0.0473857 0.02195717 -0.041537236 0.03002087 -0.048322544
-0.036638457 0.04428626 0.0019902205 -0.01986424 -0.0042842505 0.051405873 0.047133446 0.051197622
-0.052937645 0.016841631 -0.057254605 -0.046041943 -0.010620624 -0.007765851 0.016962076 -0.0040169116
-0.055258635 -0.054715417 -0.05059269 0.002035494 -0.0500726 0.042264543 -0.0213977 0.03990906
-0.035429068 0.036281906 -0.040579386 -0.022162504 -0.044128414 0.03634848 -0.00044530796 0.045222823
-0.055303764 -0.04691034 -0.018338703 -0.054321535 0.04078558 0.04174145 0.005596409 0.043794908
0.046549853 -0.046146136 -0.042531457 0.021057462 -0.053896386 0.04497223 -0.027720673 -0.017486809
0.04587614 0.054327916 0.048600167 0.04516576 -0.023698345 0.025090473 0.015391663 -0.0117700165
-0.033025406 -0.055453982 -0.0023641083 0.0009024677 0.048751775 -0.024734905 -0.037162486 -0.03817001
0.05621749 0.018883843 0.05414187 -0.022330403 0.026923921 -0.0248918 0.03746521 -0.036654927
0.030073782 -0.0021229368 0.052937556 -0.035283852 -0.047770515 0.033887047 -0.02898515 0.0039402884
-0.034090683 -0.017624376 0.018630344 0.0016309995 -0.041109823 -0.0055983705 0.0351104 -0.027318781
-0.019647785 -0.020393854 -0.02039452 -0.0045612664 0.009354682 0.020491173 0.02699018 0.014476793
0.015400721 0.001231075 0.046712592 0.048832774 -0.029467652 0.042886432 -0.05634484 -0.029957248
0.007570139 0.02722495 -0.015792606 -0.024857175 -0.029694617 0.035484143 0.0016448059 -0.0558105
0.057039827 -0.050156415 0.02581221 0.0076038977 -0.05164694 0.050956145 0.053105924 -0.018309658
-0.029988654 0.020013276 0.046079185 -0.0511527 -0.05068098 0.015527607 0.014637948 0.0059729465
0.010130269 0.03615641 -0.00064506714 -0.04357551 -0.04604291 -0.0091054775 0.0023572876 -0.02792137
0.042823058 0.029356208 -0.03328506 -0.045837842 0.022328276 -0.051380284 0.012880055 0.019769434
0.053576518 -0.0519016 0.04490045 -0.04374888 -0.03305664 0.02469037 0.030203803 0.005281491
-0.006836122 -0.037123326 -0.009078767 -0.047351845 0.054530993 0.03011009 0.057250496 -0.04032153
-0.034377575 0.057652324 0.027067402 0.013647611 -0.008318589 -0.03588298 -0.015688121 0.0023494277
0.046631634 -0.034982245 -0.05460114 0.033564 0.023423154 0.02555852 -0.016880669 -0.039894667
-0.0036184532 -0.04038067 0.0046812636 -0.01252795 0.05575839 0.05225743 -0.0007853198 -0.054319706
0.036385674 0.054176807 -0.028333902 -0.002938519 0.028257815 -0.0392109 -0.0050030025 0.033207532

fc2.bias f4 [300]
00000000: 3b9a 5abd 5fd8 ba3c 8e83 3b3b b014 c1bc
00000010: f94e 2d3c 65d4 95bc b2a2 91bc a2d7 893c
00000020: 183e 02bc 5e05 16bc 5427 1e3d 7006 5bbc
00000030: 9271 c63c e4b7 e4bc 7f5c 25bd d8c0 033d
00000040: 8fcf f4bc aa35 a03c e109 233d acdb 3ebd
00000050: cff8 2abd 8256 60bd 85d2 d53c f122 b43c
00000060: 42dd 0abd 5b6e b03c 872d 41bd 5f38 d93c
00000070: d073 e73c a1ce 213d d224 90bc d9b3 c1bc
00000080: 33bc 0d3d 16d7 54bd 879c 04bd 8b05 ef3c
00000090: 69d5 18bd 629c e3bc 47fc 583d 4134 eebc
000000a0: 0d16 303d 6297 c7bc 460d a138 7163 bb3c
000000b0: e4c4 a0bc b1a9 89bb 75a2 dfbc dd86 bb3c
000000c0: 7860 40bd 751b 4b3d 8809 23bd ab35 41bd
000000d0: f329 a83c 7d65 253d 4260 573b 3575 e4bc
000000e0: 81c3 be3c 0283 093c 5c60 d63c f198 33ba
000000f0: aa9e 6dbc e8d7 803c ef48 e03c 5ab4 73bb
00000100: dce9 d53c 9a5f 48bd b03f 4b3d 1852 173c
00000110: 04fe ba3c 6cf2 513d 9837 083d dc49 d1bc
00000120: 63e1 12bd 11cb 253d 86ff 1fbd c268 92bc
00000130: 227e 55bd 4e33 593c e6e9 d7bb 7f29 913a
00000140: 9b10 18bd 389f 43bc 93e3 28bd ed3b 00bd
00000150: b36f 663d 1d2e bebc ebf7 853c 396e 5e3d
00000160: bab7 2f3d 8ee8 823c aeb9 0f3d 38ac 583d
00000170: 6937 313d e3f0 1a3d c8f9 b73c 619c bc3c
00000180: ae7d 0f3d d0ee 6bbd 204c 9abc d526 bbbb
00000190: d991 3b3d 58a6 30bc 5ce7 0e3d 6b12 29bc
000001a0: 05b4 353d d73e 83bc de6d b5bc 179e bebc
000001b0: 012d fe3c cbaa 253c 24d6 01bd 538f 3ebd
000001c0: 47db eb3c d54f 1b3d aabd 50bc 6ad6 bdbc
000001d0: fc01 f23c b90c 04bd 50e0 57bb f2ee 583d
000001e0: 886f db3c 2c33 4d3d 67a2 40bc 547c fbbc
000001f0: 3c2b a83c 0313 5fbd 6728 f439 764c f7bc
00000200: dd8e d73c 6ce3 8a3c b428 c8bb b851 4e3d
00000210: 93de 36bd 3ea7 be3c 937e 00bd 3590 3ebd
00000220: dd5a 6abd 78d5 a23c 1c01 4d3d e5d6 68bd
00000230: f056 30bd 1cc6 41bd c9a1 83bc 5436 4cbd
00000240: 4209 8e3c 5214 373d 5f0b 32bd a5ce eb3c
00000250: 9174 e0bc 4140 3d3d 7d57 34bd e2fe 2f3c
00000260: 1905 b8bc 24cf 063c 4e63 a0bc 91e6 453d
00000270: 5399 76bc 04eb 3b3c 6f30 5ebd 357a e6bc
00000280: 7e77 08bc 46cc 15bd b425 65bd 4381 273d
00000290: 31d5 053d c310 5f3c 7846 643b 609f 143d
000002a0: 77b7 a6bb bc34 c03b 38a3 273d 7a27 4a3d
000002b0: e1ab 423d 1626 62bd 6e6a b03c 546c 103c
000002c0: d47f c2bc 23fa 873c 0679 833c 2dec ce3b
000002d0: e9af 933c 44c6 ee3c 80b6 6b3d 574f d73b
000002e0: 6e3e 813c 2608 ed3b 2a7c 463c 858d 033d
000002f0: d8c9 ee3b 5652 3c3d 38ef f63c b30b 89bc
00000300: abe6 5dbd 806b 17bd 4be3 bcbc c9ad 51bc
00000310: fc15 06bd cb6f 283d 134d 16bd c641 31bd
00000320: 1314 0cbd 538f d83c 6dac aa3c 1a27 103c
00000330: d433 e2bc 9647 a13b 466b d63c 6dd6 5ebd
00000340: 36ba b8bc 5b46 4f3c 7db2 d1ba 697a 75bc
00000350: 0716 4f3d 7210 503d 8b39 f1bc bb72 0d3d
00000360: c422 883b f266 adbc 12dc 593d 629b 5fbd
00000370: c5e8 443d 4ada 183c 158b 233d 12d7 04bd
00000380: 12f1 143d 2841 01bd 893a 16bd f4ec a13c
00000390: d0fd ce3c c77e cabc fa0f 96bc 63ef c13c
000003a0: dd00 3a3d 3e47 0d3c 353a 4e3c f441 8a3c
000003b0: 8150 b63c 9511 473c 207f bbbc 73aa 24bc
000003c0: 3151 51bd d2ae 3bbd 2a64 debb 36ff 84bc
000003d0: 2f04 573d b51c 45bd f6d1 d43c b51f 2ebd
000003e0: 8e92 ce3c 326c a9bc 16dd 3e3d 7b17 cdbc
000003f0: 641f 25bb 98ab 643c 9fd6 7d3b 9bd0 c0bc
-0.053369742 0.022808252 0.0028612348 -0.023569435 0.010577911 -0.018289754 -0.017777774 0.016826455
-0.007949375 -0.009156553 0.038611725 -0.013368234 0.024224076 -0.027919717 -0.040371414 0.032166332
-0.029884128 0.019556839 0.039804343 -0.046596214 -0.04174119 -0.05477 0.02610136 0.021989318
-0.033902414 0.021536997 -0.04716256 0.026516138 0.028253466 0.039503697 -0.017595682 -0.023645328
0.03460331 -0.051962934 -0.03237584 0.029177448 -0.0373129 -0.02778453 0.052974965 -0.029077651
0.04298978 -0.024364177 7.6795506e-05 0.022874566 -0.019625135 -0.004201137 -0.027299145 0.022891456
-0.046967 0.049586732 -0.03980401 -0.047170322 0.020527815 0.04037999 0.003286377 -0.02788792
0.023286583 0.008393051 0.026168995 -0.0006851098 -0.0145031605 0.015727952 0.027378527 -0.0037186355
0.02611249 -0.048919298 0.049621284 0.009235881 0.022826202 0.051256582 0.033256143 -0.025547914
-0.035859477 0.040476862 -0.039062046 -0.017872218 -0.052122243 0.013256861 -0.006589162 0.0011074989
-0.03712521 -0.011939816 -0.041232657 -0.03130715 0.05625887 -0.023215348 0.016353568 0.054304335
0.042899825 0.015980031 0.035089187 0.052898616 0.043265734 0.037827384 0.022457972 0.023023786
0.035031967 -0.057600796 -0.018835127 -0.0057114162 0.045793388 -0.010781847 0.03488861 -0.010319333
0.044361133 -0.016021175 -0.022147115 -0.023268742 0.031027319 0.010111521 -0.03169836 -0.046523403
0.028791083 0.03791793 -0.012740532 -0.02317353 0.029541962 -0.032238696 -0.0032940097 0.05296225
0.02678658 0.05009763 -0.01175747 -0.030698933 0.020528428 -0.05446149 0.0004656941 -0.030187827
0.02631324 0.016954146 -0.006108368 0.0503709 -0.044645857 0.023273107 -0.03137071 -0.046524245
-0.05721556 0.01987718 0.050049886 -0.056845564 -0.04305166 -0.047308072 -0.016068356 -0.0498565
0.017338399 0.044697113 -0.043467876 0.02878506 -0.027399333 0.046203855 -0.044028748 0.010741921
-0.022463368 0.008228097 -0.019578602 0.04831559 -0.015051204 0.011469606 -0.05424541 -0.028134445
-0.00832927 -0.036571763 -0.05594416 0.040894758 0.03267402 0.013614836 0.0034832042 0.036284804
-0.0050877887 0.0058656614 0.040927142 0.049354054 0.047527198 -0.055212103 0.021535125 0.00881489
-0.023742594 0.016598767 0.01604892 0.0063147754 0.018028216 0.029147275 0.057547092 0.0065707373
0.01577684 0.0072336374 0.012114564 0.032117385 0.0072872452 0.04597696 0.030143365 -0.016729211
-0.05417506 -0.036967754 -0.0230576 -0.012797781 -0.03273581 0.04112224 -0.036694597 -0.043275617
-0.03419883 0.02643553 0.020834172 0.008798385 -0.027612604 0.004921864 0.026174199 -0.05440371
-0.02254973 0.012651051 -0.0015998628 -0.014982798 0.050558116 0.050796933 -0.029446384 0.034533244
0.004154535 -0.021167252 0.05318839 -0.054591544 0.04807355 0.009329388 0.03992756 -0.03243167
0.036362715 -0.03155628 -0.036676917 0.019766308 0.025267512 -0.024718655 -0.018318165 0.023673719
0.04541098 0.0086229425 0.01258712 0.016877152 0.022255184 0.012150188 -0.022887766 -0.010050404
-0.05110282 -0.04582102 -0.006786843 -0.016234975 0.052494224 -0.04812308 0.025979023 -0.042510707
0.025216367 -0.020681474 0.046597563 -0.02503561 -0.0025195712 0.013956927 0.003873266 -0.02353697

bn1.weight f4 [400]
00000000: 0000 803f 0000 803f 0000 803f 0000 803f
00000010: 0000 803f 0000 803f 0000 803f 0000 803f
00000020: 0000 803f 0000 803f 0000 803f 0000 803f
00000030: 0000 803f 0000 803f 0000 803f 0000 803f
00000040: 0000 803f 0000 803f 0000 803f 0000 803f
00000050: 0000 803f 0000 803f 0000 803f 0000 803f
00000060: 0000 803f 0000 803f 0000 803f 0000 803f
00000070: 0000 803f 0000 803f 0000 803f 0000 803f
00000080: 0000 803f 0000 803f 0000 803f 0000 803f
00000090: 0000 803f 0000 803f 0000 803f 0000 803f
000000a0: 0000 803f 0000 803f 0000 803f 0000 803f
000000b0: 0000 803f 0000 803f 0000 803f 0000 803f
000000c0: 0000 803f 0000 803f 0000 803f 0000 803f
000000d0: 0000 803f 0000 803f 0000 803f 0000 803f
000000e0: 0000 803f 0000 803f 0000 803f 0000 803f
000000f0: 0000 803f 0000 803f 0000 803f 0000 803f
00000100: 0000 803f 0000 803f 0000 803f 0000 803f
00000110: 0000 803f 0000 803f 0000 803f 0000 803f
00000120: 0000 803f 0000 803f 0000 803f 0000 803f
00000130: 0000 803f 0000 803f 0000 803f 0000 803f
00000140: 0000 803f 0000 803f 0000 803f 0000 803f
00000150: 0000 803f 0000 803f 0000 803f 0000 803f
00000160: 0000 803f 0000 803f 0000 803f 0000 803f
00000170: 0000 803f 0000 803f 0000 803f 0000 803f
00000180: 0000 803f 0000 803f 0000 803f 0000 803f
00000190: 0000 803f 0000 803f 0000 803f 0000 803f
000001a0: 0000 803f 0000 803f 0000 803f 0000 803f
000001b0: 0000 803f 0000 803f 0000 803f 0000 803f
000001c0: 0000 803f 0000 803f 0000 803f 0000 803f
000001d0: 0000 803f 0000 803f 0000 803f 0000 803f
000001e0: 0000 803f 0000 803f 0000 803f 0000 803f
000001f0: 0000 803f 0000 803f 0000 803f 0000 803f
00000200: 0000 803f 0000 803f 0000 803f 0000 803f
00000210: 0000 803f 0000 803f 0000 803f 0000 803f
00000220: 0000 803f 0000 803f 0000 803f 0000 803f
00000230: 0000 803f 0000 803f 0000 803f 0000 803f
00000240: 0000 803f 0000 803f 0000 803f 0000 803f
00000250: 0000 803f 0000 803f 0000 803f 0000 803f
00000260: 0000 803f 0000 803f 0000 803f 0000 803f
00000270: 0000 803f 0000 803f 0000 803f 0000 803f
00000280: 0000 803f 0000 803f 0000 803f 0000 803f
00000290: 0000 803f 0000 803f 0000 803f 0000 803f
000002a0: 0000 803f 0000 803f 0000 803f 0000 803f
000002b0: 0000 803f 0000 803f 0000 803f 0000 803f
000002c0: 0000 803f 0000 803f 0000 803f 0000 803f
000002d0: 0000 803f 0000 803f 0000 803f 0000 803f
000002e0: 0000 803f 0000 803f 0000 803f 0000 803f
000002f0: 0000 803f 0000 803f 0000 803f 0000 803f
00000300: 0000 803f 0000 803f 0000 803f 0000 803f
00000310: 0000 803f 0000 803f 0000 803f 0000 803f
00000320: 0000 803f 0000 803f 0000 803f 0000 803f
00000330: 0000 803f 0000 803f 0000 803f 0000 803f
00000340: 0000 803f 0000 803f 0000 803f 0000 803f
00000350: 0000 803f 0000 803f 0000 803f 0000 803f
00000360: 0000 803f 0000 803f 0000 803f 0000 803f
00000370: 0000 803f 0000 803f 0000 803f 0000 803f
00000380: 0000 803f 0000 803f 0000 803f 0000 803f
00000390: 0000 803f 0000 803f 0000 803f 0000 803f
000003a0: 0000 803f 0000 803f 0000 803f 0000 803f
000003b0: 0000 803f 0000 803f 0000 803f 0000 803f
000003c0: 0000 803f 0000 803f 0000 803f 0000 803f
000003d0: 0000 803f 0000 803f 0000 803f 0000 803f
000003e0: 0000 803f 0000 803f 0000 803f 0000 803f
000003f0: 0000 803f 0000 803f 0000 803f 0000 803f
1.0 1.0 1.0 1.0 1.0 1.0 1.0 1.0
1.0 1.0 1.0 1.0 1.0 1.0 1.0 1.0
1.0 1.0 1.0 1.0 1.0 1.0 1.0 1.0
1.0 1.0 1.0 1.0 1.0 1.0 1.0 1.0
1.0 1.0 1.0 1.0 1.0 1.0 1.0 1.0
1.0 1.0 1.0 1.0 1.0 1.0 1.0 1.0
1.0 1.0 1.0 1.0 1.0 1.0 1.0 1.0
1.0 1.0 1.0 1.0 1.0 1.0 1.0 1.0
1.0 1.0 1.0 1.0 1.0 1.0 1.0 1.0
1.0 1.0 1.0 1.0 1.0 1.0 1.0 1.0
1.0 1.0 1.0 1.0 1.0 1.0 1.0 1.0
1.0 1.0 1.0 1.0 1.0 1.0 1.0 1.0
1.0 1.0 1.0 1.0 1.0 1.0 1.0 1.0
1.0 1.0 1.0 1.0 1.0 1.0 1.0 1.0
1.0 1.0 1.0 1.0 1.0 1.0 1.0 1.0
1.0 1.0 1.0 1.0 1.0 1.0 1.0 1.0
1.0 1.0 1.0 1.0 1.0 1.0 1.0 1.0
1.0 1.0 1.0 1.0 1.0 1.0 1.0 1.0
1.0 1.0 1.0 1.0 1.0 1.0 1.0 1.0
1.0 1.0 1.0 1.0 1.0 1.0 1.0 1.0
1.0 1.0 1.0 1.0 1.0 1.0 1.0 1.0
1.0 1.0 1.0 1.0 1.0 1.0 1.0 1.0
1.0 1.0 1.0 1.0 1.0 1.0 1.0 1.0
1.0 1.0 1.0 1.0 1.0 1.0 1.0 1.0
1.0 1.0 1.0 1.0 1.0 1.0 1.0 1.0
1.0 1.0 1.0 1.0 1.0 1.0 1.0 1.0
1.0 1.0 1.0 1.0 1.0 1.0 1.0 1.0
1.0 1.0 1.0 1.0 1.0 1.0 1.0 1.0
1.0 1.0 1.0 1.0 1.0 1.0 1.0 1.0
1.0 1.0 1.0 1.0 1.0 1.0 1.0 1.0
1.0 1.0 1.0 1.0 1.0 1.0 1.0 1.0
1.0 1.0 1.0 1.0 1.0 1.0 1.0 1.0

bn1.bias f4 [400]
00000000: 0000 0000 0000 0000 0000 0000 0000 0000
00000010: 0000 0000 0000 0000 0000 0000 0000 0000
00000020: 0000 0000 0000 0000 0000 0000 0000 0000
00000030: 0000 0000 0000 0000 0000 0000 0000 0000
00000040: 0000 0000 0000 0000 0000 0000 0000 0000
00000050: 0000 0000 0000 0000 0000 0000 0000 0000
00000060: 0000 0000 0000 0000 0000 0000 0000 0000
00000070: 0000 0000 0000 0000 0000 0000 0000 0000
00000080: 0000 0000 0000 0000 0000 0000 0000 0000
00000090: 0000 0000 0000 0000 0000 0000 0000 0000
000000a0: 0000 0000 0000 0000 0000 0000 0000 0000
000000b0: 0000 0000 0000 0000 0000 0000 0000 0000
000000c0: 0000 0000 0000 0000 0000 0000 0000 0000
000000d0: 0000 0000 0000 0000 0000 0000 0000 0000
000000e0: 0000 0000 0000 0000 0000 0000 0000 0000
000000f0: 0000 0000 0000 0000 0000 0000 0000 0000
00000100: 0000 0000 0000 0000 0000 0000 0000 0000
00000110: 0000 0000 0000 0000 0000 0000 0000 0000
00000120: 0000 0000 0000 0000 0000 0000 0000 0000
00000130: 0000 0000 0000 0000 0000 0000 0000 0000
00000140: 0000 0000 0000 0000 0000 0000 0000 0000
00000150: 0000 0000 0000 0000 0000 0000 0000 0000
00000160: 0000 0000 0000 0000 0000 0000 0000 0000
00000170: 0000 0000 0000 0000 0000 0000 0000 0000
00000180: 0000 0000 0000 0000 0000 0000 0000 0000
00000190: 0000 0000 0000 0000 0000 0000 0000 0000
000001a0: 0000 0000 0000 0000 0000 0000 0000 0000
000001b0: 0000 0000 0000 0000 0000 0000 0000 0000
000001c0: 0000 0000 0000 0000 0000 0000 0000 0000
000001d0: 0000 0000 0000 0000 0000 0000 0000 0000
000001e0: 0000 0000 0000 0000 0000 0000 0000 0000
000001f0: 0000 0000 0000 0000 0000 0000 0000 0000
00000200: 0000 0000 0000 0000 0000 0000 0000 0000
00000210: 0000 0000 0000 0000 0000 0000 0000 0000
00000220: 0000 0000 0000 0000 0000 0000 0000 0000
00000230: 0000 0000 0000 0000 0000 0000 0000 0000
00000240: 0000 0000 0000 0000 0000 0000 0000 0000
00000250: 0000 0000 0000 0000 0000 0000 0000 0000
00000260: 0000 0000 0000 0000 0000 0000 0000 0000
00000270: 0000 0000 0000 0000 0000 0000 0000 0000
00000280: 0000 0000 0000 0000 0000 0000 0000 0000
00000290: 0000 0000 0000 0000 0000 0000 0000 0000
000002a0: 0000 0000 0000 0000 0000 0000 0000 0000
000002b0: 0000 0000 0000 0000 0000 0000 0000 0000
000002c0: 0000 0000 0000 0000 0000 0000 0000 0000
000002d0: 0000 0000 0000 0000 0000 0000 0000 0000
000002e0: 0000 0000 0000 0000 0000 0000 0000 0000
000002f0: 0000 0000 0000 0000 0000 0000 0000 0000
00000300: 0000 0000 0000 0000 0000 0000 0000 0000
00000310: 0000 0000 0000 0000 0000 0000 0000 0000
00000320: 0000 0000 0000 0000 0000 0000 0000 0000
00000330: 0000 0000 0000 0000 0000 0000 0000 0000
00000340: 0000 0000 0000 0000 0000 0000 0000 0000
00000350: 0000 0000 0000 0000 0000 0000 0000 0000
00000360: 0000 0000 0000 0000 0000 0000 0000 0000
00000370: 0000 0000 0000 0000 0000 0000 0000 0000
00000380: 0000 0000 0000 0000 0000 0000 0000 0000
00000390: 0000 0000 0000 0000 0000 0000 0000 0000
000003a0: 0000 0000 0000 0000 0000 0000 0000 0000
000003b0: 0000 0000 0000 0000 0000 0000 0000 0000
000003c0: 0000 0000 0000 0000 0000 0000 0000 0000
000003d0: 0000 0000 0000 0000 0000 0000 0000 0000
000003e0: 0000 0000 0000 0000 0000 0000 0000 0000
000003f0: 0000 0000 0000 0000 0000 0000 0000 0000
0.0 0.0 0.0 0.0 0.0 0.0 0.0 0.0
0.0 0.0 0.0 0.0 0.0 0.0 0.0 0.0
0.0 0.0 0.0 0.0 0.0 0.0 0.0 0.0
0.0 0.0 0.0 0.0 0.0 0.0 0.0 0.0
0.0 0.0 0.0 0.0 0.0 0.0 0.0 0.0
0.0 0.0 0.0 0.0 0.0 0.0 0.0 0.0
0.0 0.0 0.0 0.0 0.0 0.0 0.0 0.0
0.0 0.0 0.0 0.0 0.0 0.0 0.0 0.0
0.0 0.0 0.0 0.0 0.0 0.0 0.0 0.0
0.0 0.0 0.0 0.0 0.0 0.0 0.0 0.0
0.0 0.0 0.0 0.0 0.0 0.0 0.0 0.0
0.0 0.0 0.0 0.0 0.0 0.0 0.0 0.0
0.0 0.0 0.0 0.0 0.0 0.0 0.0 0.0
0.0 0.0 0.0 0.0 0.0 0.0 0.0 0.0
0.0 0.0 0.0 0.0 0.0 0.0 0.0 0.0
0.0 0.0 0.0 0.0 0.0 0.0 0.0 0.0
0.0 0.0 0.0 0.0 0.0 0.0 0.0 0.0
0.0 0.0 0.0 0.0 0.0 0.0 0.0 0.0
0.0 0.0 0.0 0.0 0.0 0.0 0.0 0.0
0.0 0.0 0.0 0.0 0.0 0.0 0.0 0.0
0.0 0.0 0.0 0.0 0.0 0.0 0.0 0.0
0.0 0.0 0.0 0.0 0.0 0.0 0.0 0.0
0.0 0.0 0.0 0.0 0.0 0.0 0.0 0.0
0.0 0.0 0.0 0.0 0.0 0.0 0.0 0.0
0.0 0.0 0.0 0.0 0.0 0.0 0.0 0.0
0.0 0.0 0.0 0.0 0.0 0.0 0.0 0.0
0.0 0.0 0.0 0.0 0.0 0.0 0.0 0.0
0.0 0.0 0.0 0.0 0.0 0.0 0.0 0.0
0.0 0.0 0.0 0.0 0.0 0.0 0.0 0.0
0.0 0.0 0.0 0.0 0.0 0.0 0.0 0.0
0.0 0.0 0.0 0.0 0.0 0.0 0.0 0.0
0.0 0.0 0.0 0.0 0.0 0.0 0.0 0.0

bn2.weight f4 [300]
00000000: 0000 803f 0000 803f 0000 803f 0000 803f
00000010: 0000 803f 0000 803f 0000 803f 0000 803f
00000020: 0000 803f 0000 803f 0000 803f 0000 803f
00000030: 0000 803f 0000 803f 0000 803f 0000 803f
00000040: 0000 803f 0000 803f 0000 803f 0000 803f
00000050: 0000 803f 0000 803f 0000 803f 0000 803f
00000060: 0000 803f 0000 803f 0000 803f 0000 803f
00000070: 0000 803f 0000 803f 0000 803f 0000 803f
00000080: 0000 803f 0000 803f 0000 803f 0000 803f
00000090: 0000 803f 0000 803f 0000 803f 0000 803f
000000a0: 0000 803f 0000 803f 0000 803f 0000 803f
000000b0: 0000 803f 0000 803f 0000 803f 0000 803f
000000c0: 0000 803f 0000 803f 0000 803f 0000 803f
000000d0: 0000 803f 0000 803f 0000 803f 0000 803f
000000e0: 0000 803f 0000 803f 0000 803f 0000 803f
000000f0: 0000 803f 0000 803f 0000 803f 0000 803f
00000100: 0000 803f 0000 803f 0000 803f 0000 803f
00000110: 0000 803f 0000 803f 0000 803f 0000 803f
00000120: 0000 803f 0000 803f 0000 803f 0000 803f
00000130: 0000 803f 0000 803f 0000 803f 0000 803f
00000140: 0000 803f 0000 803f 0000 803f 0000 803f
00000150: 0000 803f 0000 803f 0000 803f 0000 803f
00000160: 0000 803f 0000 803f 0000 803f 0000 803f
00000170: 0000 803f 0000 803f 0000 803f 0000 803f
00000180: 0000 803f 0000 803f 0000 803f 0000 803f
00000190: 0000 803f 0000 803f 0000 803f 0000 803f
000001a0: 0000 803f 0000 803f 0000 803f 0000 803f
000001b0: 0000 803f 0000 803f 0000 803f 0000 803f
000001c0: 0000 803f 0000 803f 0000 803f 0000 803f
000001d0: 0000 803f 0000 803f 0000 803f 0000 803f
000001e0: 0000 803f 0000 803f 0000 803f 0000 803f
000001f0: 0000 803f 0000 803f 0000 803f 0000 803f
00000200: 0000 803f 0000 803f 0000 803f 0000 803f
00000210: 0000 803f 0000 803f 0000 803f 0000 803f
00000220: 0000 803f 0000 803f 0000 803f 0000 803f
00000230: 0000 803f 0000 803f 0000 803f 0000 803f
00000240: 0000 803f 0000 803f 0000 803f 0000 803f
00000250: 0000 803f 0000 803f 0000 803f 0000 803f
00000260: 0000 803f 0000 803f 0000 803f 0000 803f
00000270: 0000 803f 0000 803f 0000 803f 0000 803f
00000280: 0000 803f 0000 803f 0000 803f 0000 803f
00000290: 0000 803f 0000 803f 0000 803f 0000 803f
000002a0: 0000 803f 0000 803f 0000 803f 0000 803f
000002b0: 0000 803f 0000 803f 0000 803f 0000 803f
000002c0: 0000 803f 0000 803f 0000 803f 0000 803f
000002d0: 0000 803f 0000 803f 0000 803f 0000 803f
000002e0: 0000 803f 0000 803f 0000 803f 0000 803f
000002f0: 0000 803f 0000 803f 0000 803f 0000 803f
00000300: 0000 803f 0000 803f 0000 803f 0000 803f
00000310: 0000 803f 0000 803f 0000 803f 0000 803f
00000320: 0000 803f 0000 803f 0000 803f 0000 803f
00000330: 0000 803f 0000 803f 0000 803f 0000 803f
00000340: 0000 803f 0000 803f 0000 803f 0000 803f
00000350: 0000 803f 0000 803f 0000 803f 0000 803f
00000360: 0000 803f 0000 803f 0000 803f 0000 803f
00000370: 0000 803f 0000 803f 0000 803f 0000 803f
00000380: 0000 803f 0000 803f 0000 803f 0000 803f
00000390: 0000 803f 0000 803f 0000 803f 0000 803f
000003a0: 0000 803f 0000 803f 0000 803f 0000 803f
000003b0: 0000 803f 0000 803f 0000 803f 0000 803f
000003c0: 0000 803f 0000 803f 0000 803f 0000 803f
000003d0: 0000 803f 0000 803f 0000 803f 0000 803f
000003e0: 0000 803f 0000 803f 0000 803f 0000 803f
000003f0: 0000 803f 0000 803f 0000 803f 0000 803f
1.0 1.0 1.0 1.0 1.0 1.0 1.0 1.0
1.0 1.0 1.0 1.0 1.0 1.0 1.0 1.0
1.0 1.0 1.0 1.0 1.0 1.0 1.0 1.0
1.0 1.0 1.0 1.0 1.0 1.0 1.0 1.0
1.0 1.0 1.0 1.0 1.0 1.0 1.0 1.0
1.0 1.0 1.0 1.0 1.0 1.0 1.0 1.0
1.0 1.0 1.0 1.0 1.0 1.0 1.0 1.0
1.0 1.0 1.0 1.0 1.0 1.0 1.0 1.0
1.0 1.0 1.0 1.0 1.0 1.0 1.0 1.0
1.0 1.0 1.0 1.0 1.0 1.0 1.0 1.0
1.0 1.0 1.0 1.0 1.0 1.0 1.0 1.0
1.0 1.0 1.0 1.0 1.0 1.0 1.0 1.0
1.0 1.0 1.0 1.0 1.0 1.0 1.0 1.0
1.0 1.0 1.0 1.0 1.0 1.0 1.0 1.0
1.0 1.0 1.0 1.0 1.0 1.0 1.0 1.0
1.0 1.0 1.0 1.0 1.0 1.0 1.0 1.0
1.0 1.0 1.0 1.0 1.0 1.0 1.0 1.0
1.0 1.0 1.0 1.0 1.0 1.0 1.0 1.0
1.0 1.0 1.0 1.0 1.0 1.0 1.0 1.0
1.0 1.0 1.0 1.0 1.0 1.0 1.0 1.0
1.0 1.0 1.0 1.0 1.0 1.0 1.0 1.0
1.0 1.0 1.0 1.0 1.0 1.0 1.0 1.0
1.0 1.0 1.0 1.0 1.0 1.0 1.0 1.0
1.0 1.0 1.0 1.0 1.0 1.0 1.0 1.0
1.0 1.0 1.0 1.0 1.0 1.0 1.0 1.0
1.0 1.0 1.0 1.0 1.0 1.0 1.0 1.0
1.0 1.0 1.0 1.0 1.0 1.0 1.0 1.0
1.0 1.0 1.0 1.0 1.0 1.0 1.0 1.0
1.0 1.0 1.0 1.0 1.0 1.0 1.0 1.0
1.0 1.0 1.0 1.0 1.0 1.0 1.0 1.0
1.0 1.0 1.0 1.0 1.0 1.0 1.0 1.0
1.0 1.0 1.0 1.0 1.0 1.0 1.0 1.0

bn2.bias f4 [300]
00000000: 0000 0000 0000 0000 0000 0000 0000 0000
00000010: 0000 0000 0000 0000 0000 0000 0000 0000
00000020: 0000 0000 0000 0000 0000 0000 0000 0000
00000030: 0000 0000 0000 0000 0000 0000 0000 0000
00000040: 0000 0000 0000 0000 0000 0000 0000 0000
00000050: 0000 0000 0000 0000 0000 0000 0000 0000
00000060: 0000 0000 0000 0000 0000 0000 0000 0000
00000070: 0000 0000 0000 0000 0000 0000 0000 0000
00000080: 0000 0000 0000 0000 0000 0000 0000 0000
00000090: 0000 0000 0000 0000 0000 0000 0000 0000
000000a0: 0000 0000 0000 0000 0000 0000 0000 0000
000000b0: 0000 0000 0000 0000 0000 0000 0000 0000
000000c0: 0000 0000 0000 0000 0000 0000 0000 0000
000000d0: 0000 0000 0000 0000 0000 0000 0000 0000
000000e0: 0000 0000 0000 0000 0000 0000 0000 0000
000000f0: 0000 0000 0000 0000 0000 0000 0000 0000
00000100: 0000 0000 0000 0000 0000 0000 0000 0000
00000110: 0000 0000 0000 0000 0000 0000 0000 0000
00000120: 0000 0000 0000 0000 0000 0000 0000 0000
00000130: 0000 0000 0000 0000 0000 0000 0000 0000
00000140: 0000 0000 0000 0000 0000 0000 0000 0000
00000150: 0000 0000 0000 0000 0000 0000 0000 0000
00000160: 0000 0000 0000 0000 0000 0000 0000 0000
00000170: 0000 0000 0000 0000 0000 0000 0000 0000
00000180: 0000 0000 0000 0000 0000 0000 0000 0000
00000190: 0000 0000 0000 0000 0000 0000 0000 0000
000001a0: 0000 0000 0000 0000 0000 0000 0000 0000
000001b0: 0000 0000 0000 0000 0000 0000 0000 0000
000001c0: 0000 0000 0000 0000 0000 0000 0000 0000
000001d0: 0000 0000 0000 0000 0000 0000 0000 0000
000001e0: 0000 0000 0000 0000 0000 0000 0000 0000
000001f0: 0000 0000 0000 0000 0000 0000 0000 0000
00000200: 0000 0000 0000 0000 0000 0000 0000 0000
00000210: 0000 0000 0000 0000 0000 0000 0000 0000
00000220: 0000 0000 0000 0000 0000 0000 0000 0000
00000230: 0000 0000 0000 0000 0000 0000 0000 0000
00000240: 0000 0000 0000 0000 0000 0000 0000 0000
00000250: 0000 0000 0000 0000 0000 0000 0000 0000
00000260: 0000 0000 0000 0000 0000 0000 0000 0000
00000270: 0000 0000 0000 0000 0000 0000 0000 0000
00000280: 0000 0000 0000 0000 0000 0000 0000 0000
00000290: 0000 0000 0000 0000 0000 0000 0000 0000
000002a0: 0000 0000 0000 0000 0000 0000 0000 0000
000002b0: 0000 0000 0000 0000 0000 0000 0000 0000
000002c0: 0000 0000 0000 0000 0000 0000 0000 0000
000002d0: 0000 0000 0000 0000 0000 0000 0000 0000
000002e0: 0000 0000 0000 0000 0000 0000 0000 0000
000002f0: 0000 0000 0000 0000 0000 0000 0000 0000
00000300: 0000 0000 0000 0000 0000 0000 0000 0000
00000310: 0000 0000 0000 0000 0000 0000 0000 0000
00000320: 0000 0000 0000 0000 0000 0000 0000 0000
00000330: 0000 0000 0000 0000 0000 0000 0000 0000
00000340: 0000 0000 0000 0000 0000 0000 0000 0000
00000350: 0000 0000 0000 0000 0000 0000 0000 0000
00000360: 0000 0000 0000 0000 0000 0000 0000 0000
00000370: 0000 0000 0000 0000 0000 0000 0000 0000
00000380: 0000 0000 0000 0000 0000 0000 0000 0000
00000390: 0000 0000 0000 0000 0000 0000 0000 0000
000003a0: 0000 0000 0000 0000 0000 0000 0000 0000
000003b0: 0000 0000 0000 0000 0000 0000 0000 0000
000003c0: 0000 0000 0000 0000 0000 0000 0000 0000
000003d0: 0000 0000 0000 0000 0000 0000 0000 0000
000003e0: 0000 0000 0000 0000 0000 0000 0000 0000
000003f0: 0000 0000 0000 0000 0000 0000 0000 0000
0.0 0.0 0.0 0.0 0.0 0.0 0.0 0.0
0.0 0.0 0.0 0.0 0.0 0.0 0.0 0.0
0.0 0.0 0.0 0.0 0.0 0.0 0.0 0.0
0.0 0.0 0.0 0.0 0.0 0.0 0.0 0.0
0.0 0.0 0.0 0.0 0.0 0.0 0.0 0.0
0.0 0.0 0.0 0.0 0.0 0.0 0.0 0.0
0.0 0.0 0.0 0.0 0.0 0.0 0.0 0.0
0.0 0.0 0.0 0.0 0.0 0.0 0.0 0.0
0.0 0.0 0.0 0.0 0.0 0.0 0.0 0.0
0.0 0.0 0.0 0.0 0.0 0.0 0.0 0.0
0.0 0.0 0.0 0.0 0.0 0.0 0.0 0.0
0.0 0.0 0.0 0.0 0.0 0.0 0.0 0.0
0.0 0.0 0.0 0.0 0.0 0.0 0.0 0.0
0.0 0.0 0.0 0.0 0.0 0.0 0.0 0.0
0.0 0.0 0.0 0.0 0.0 0.0 0.0 0.0
0.0 0.0 0.0 0.0 0.0 0.0 0.0 0.0
0.0 0.0 0.0 0.0 0.0 0.0 0.0 0.0
0.0 0.0 0.0 0.0 0.0 0.0 0.0 0.0
0.0 0.0 0.0 0.0 0.0 0.0 0.0 0.0
0.0 0.0 0.0 0.0 0.0 0.0 0.0 0.0
0.0 0.0 0.0 0.0 0.0 0.0 0.0 0.0
0.0 0.0 0.0 0.0 0.0 0.0 0.0 0.0
0.0 0.0 0.0 0.0 0.0 0.0 0.0 0.0
0.0 0.0 0.0 0.0 0.0 0.0 0.0 0.0
0.0 0.0 0.0 0.0 0.0 0.0 0.0 0.0
0.0 0.0 0.0 0.0 0.0 0.0 0.0 0.0
0.0 0.0 0.0 0.0 0.0 0.0 0.0 0.0
0.0 0.0 0.0 0.0 0.0 0.0 0.0 0.0
0.0 0.0 0.0 0.0 0.0 0.0 0.0 0.0
0.0 0.0 0.0 0.0 0.0 0.0 0.0 0.0
0.0 0.0 0.0 0.0 0.0 0.0 0.0 0.0
0.0 0.0 0.0 0.0 0.0 0.0 0.0 0.0

action_value.weight f4 [300, 2]
00000000: 7651 443d 04ff 2a3d 71e4 143d 211e 683d
00000010: 8706 3fbd d3f7 3f3d a53c 24bd df0a 503d
00000020: d2c1 323b 1fef 583d 8b02 1f3d e01d 053d
00000030: cd98 59bc 4fc7 593d 8f5a 17bd 03e5 94bc
00000040: 59dc 493d 1cc4 f5bb 6ab2 af3b d585 2b3d
00000050: 2898 2bbd d07e 413d e21e 0e3c eee4 e73c
00000060: 4fec f4bc 8fc1 e03c d7c3 0b3c db68 123d
00000070: c274 5a3d 310e a33b 1db2 ea3c 84c4 1d3d
00000080: 4f2e 683d 556f 64bd 84fb 04bd 8fea 3a3d
00000090: 8251 0cbd 64a6 41bd db88 06bd 4f7a bf3c
000000a0: aa7e 603d ee7c 13bd 452a 40bd 0bb9 c63c
000000b0: 2bd2 be3c f378 92bc 8d9a d93c 3b7a 2c3d
000000c0: ccbd 06bd cd48 58bd 5413 293d 6219 f73c
000000d0: 04ff d73c 2c8e 823c e94e ea3c 3f1a 463c
000000e0: 69ae 0ebc e6ae 28bd 5391 593d 28af a33a
000000f0: 8b7c 15bd 54a6 a73c 4275 3bbd 3fdb 8dbc
00000100: 3789 763c 38dc 8abc 7fc5 a5bc a555 093d
00000110: 41d7 2dbd c98d cb3a 1a45 093d 80ec 1cbd
00000120: db0a 5b3d f3ce 14bd cd35 5c3d 8e86 1fbc
00000130: 8351 073d 2385 4f3d c410 243d f492 adbb
00000140: 39d2 51bd a312 b2bc 5336 71bc a6a0 8bbc
00000150: ccab c5bc b6aa 56bd 10c0 313d 1cfa 1fbc
00000160: 433b a53c d5bf e83c b530 24bd b11f 03bc
00000170: 8d63 5dbd 79ee 2cbd 9dbc b13c ea5d 62bd
00000180: 0573 af3c f5f6 d83c 628c 81bc 5ccc 163d
00000190: bedb 51bc 0eb5 553d 0446 0cbd 23fa 293c
000001a0: 521b 88bb 4601 e4bc 7f7b 47bd afb1 1e3c
000001b0: e104 b9bc f4db 573c ff63 f9bc 7ec1 ac3a
000001c0: 0db3 103d d10a 0fbc a316 9e3a 6aed fb3c
000001d0: 9e52 3c3d 6377 ca3b 427e 4b3c 97ed 33bd
000001e0: f52b 2cbb a3c4 46bd 937a 2e3d faa5 9abc
000001f0: 660f 5f3d cfef 323c ea2b f7bc 7d8a e13b
00000200: e815 293d d744 fc3b 92c9 053d 222a 8c3c
00000210: afa6 efbc bd2a 6abc bb8f 253d dc07 433d
00000220: 4e60 ccbc 793a 24bd 2524 01bd 57a4 523c
00000230: 3d9f 02bd 142c 16bd 7a66 53bc 5b9b 2abd
00000240: a052 fc3c ee21 463d 4d5a 583d 2007 bf3c
00000250: 9494 2fbd 5811 9d3c fe10 8f3c 015b 52bd
00000260: 6a4a 653d 3b38 c4bc 5f98 a6bc 70a1 b03c
00000270: 6376 4c3d e926 2a3d be02 293c 1028 673c
00000280: 1df8 533c f9e5 2c3d 18fd 553d 2ec0 9cbc
00000290: d1af 113d 87de 9abc bdb1 38bd 64c2 88bc
000002a0: 41c0 ff3c d155 67bd 7b4d 8cbc 3674 61bd
000002b0: 9e8c 46bd 31dd 033d e70f ab3b 1553 d1bc
000002c0: 32b9 053d 461b 89bc 826e bc3c d683 dc3c
000002d0: 4f69 8c3c b9cc dd3b f06a a53c 8043 ed3c
000002e0: 282f 06bc 754b 0c3b 507b d43c 64f1 1d3d
000002f0: c4e1 473d ca86 543d ca3c 17bc 0f1d e43c
00000300: 6e21 81bc 350d 91bc 93dc 3ebb 6fda 15bd
00000310: f5eb 4a3d 7cb9 083c dea7 863c 1e65 bf3c
00000320: 895b 373d 3d24 923b 20e7 afbb 4169 323c
00000330: 99e7 843b 8535 5c3d 29e8 4abd 8b4e 083d
00000340: e125 fdbc d027 0abc 27fd 3ebd 69be b4bb
00000350: 8030 28bd 8316 41bd 29ee dabc 37ee 1d3d
00000360: c4cf 453c 88a4 e03b 39bf 3a3d 6011 c33c
00000370: 0618 523d 2c14 0ebd 4851 ee3c 517e 7cbc
00000380: 382a ae3c 7315 873c 676f c1bc 6bb4 f1bb
00000390: 174f b63c f797 cf3c e283 5bbd 78b4 66bd
000003a0: fb76 3d3d 3d99 2e3d 0157 573d ccdb c2bc
000003b0: 8ea4 0bbd e798 50bd f891 60bc efd3 50bd
000003c0: b349 a43c 0c93 ce3c 14a3 59bc 868c 71bb
000003d0: 12ec 6b3d 0e73 df3b 1178 143c ce6e ab3c
000003e0: a8ef 02bd 852d 383d 0fb1 c3bc 2138 d8bc
000003f0: 1b01 583c fa16 cdbc d7f9 99bc ff4e ea3c
0.04792925 0.041747108 0.03635067 0.05666936 -0.046637084 0.046867203 -0.040096898 0.050791617
0.002727617 0.05296242 0.038820785 0.032499194 -0.013281059 0.05316859 -0.036951598 -0.018175608
0.049282406 -0.0075001847 0.005361845 0.04187568 -0.041893154 0.04724008 0.008674355 0.028307404
-0.029897837 0.027436046 0.008530579 0.03574453 0.053334005 0.004976057 0.028649384 0.03851749
0.05668479 -0.055770237 -0.032466426 0.04563385 -0.03425742 -0.047277823 -0.03284536 0.023373751
0.054808296 -0.036007814 -0.04691531 0.024258157 0.023293575 -0.017879939 0.026562953 0.042108756
-0.03289585 -0.052803803 0.0412782 0.03016347 0.026366718 0.015936933 0.02860208 0.0120912185
-0.008708575 -0.04118242 0.053117108 0.0012488114 -0.036495727 0.020465054 -0.045766123 -0.017316459
0.015047363 -0.016950712 -0.020235775 0.033528943 -0.04244161 0.0015529926 0.033513166 -0.03831148
0.05347715 -0.036330175 0.053762246 -0.00973667 0.03303672 0.05066408 0.04005505 -0.005297059
-0.051225875 -0.021737402 -0.014722425 -0.017044377 -0.02412977 -0.052408896 0.043396056 -0.009764221
0.02016986 0.028411785 -0.040085513 -0.008003161 -0.054050017 -0.042219613 0.021696383 -0.055265345
0.02141715 0.026484946 -0.01581401 0.036815986 -0.012808738 0.05217462 -0.03424646 0.010374579
-0.0041536475 -0.027832638 -0.04870176 0.009685918 -0.022585334 0.0131749995 -0.03044319 0.0013180224
0.035327006 -0.008730606 0.001206119 0.030752856 0.045977227 0.006178783 0.012420239 -0.043927755
-0.0026271318 -0.04852737 0.042597365 -0.018877972 0.054458044 0.010921433 -0.030172307 0.006882964
0.041280657 0.007698636 0.032662936 0.017109934 -0.029254286 -0.014292416 0.040420275 0.047614917
-0.024948265 -0.040094826 -0.03152861 0.0128565645 -0.031890143 -0.03666313 -0.01290285 -0.041652065
0.030801117 0.0483722 0.052820493 0.023318827 -0.042866305 0.01917331 0.017464157 -0.05135632
0.05597917 -0.023952594 -0.020336328 0.021561354 0.04991759 0.041541014 0.010315595 0.014108673
0.012937573 0.042211507 0.052243322 -0.019134607 0.035568062 -0.018904937 -0.04509138 -0.016694255
0.031219603 -0.056478325 -0.01712679 -0.055042468 -0.048473947 0.032193366 0.0052204016 -0.025552312
0.03264732 -0.016736638 0.023001913 0.026918333 0.017140059 0.0067687896 0.020192593 0.02896285
-0.008189954 0.002140728 0.025937706 0.038560286 0.04879929 0.051886357 -0.009230802 0.027845887
-0.01576301 -0.017706493 -0.0029123172 -0.036585268 0.049541432 0.008345004 0.016437467 0.023363646
0.04476503 0.0044598863 -0.0053681284 0.010889352 0.004055929 0.053761978 -0.04953781 0.03327803
-0.030901851 -0.008432344 -0.046628144 -0.0055158627 -0.04106188 -0.04714061 -0.026724892 0.038557258
0.012073461 0.006855551 0.04559252 0.023811996 0.05129244 -0.034687206 0.029091492 -0.015410976
0.021260366 0.01648972 -0.023612691 -0.007376244 0.02225451 0.025341017 -0.05359257 -0.056324452
0.046256047 0.04262661 0.052573208 -0.023786448 -0.03409248 -0.05092707 -0.013706677 -0.050983366
0.020054674 0.025216602 -0.01328351 -0.003685744 0.05759818 0.0068191355 0.009061829 0.02092686
-0.031966835 0.044965286 -0.023888139 -0.026393952 0.013183857 -0.02503537 -0.01879589 0.028602121
