tmp/ddpg/target_critic_ddpg.pth (torch, 514177 bytes, 11 tensors)

fc1.weight f4 [400, 11]
0.04335167 -0.03324921 -0.02392934 0.035543937 0.04950421 -0.047379173 0.03565765 0.03372119
0.030238628 0.045535084 -0.029692585 -0.0015227378 -0.004637641 -0.031371098 0.0021408976 0.047800858
-0.03877997 0.04454278 -0.015538329 0.020059615 -0.034799088 -0.03174265 -0.04134146 -0.041858055
-0.03990673 -0.03484989 -0.044820275 -0.03580537 -0.020438313 0.046694823 0.008395809 0.012146622
-0.01756673 -0.015135616 0.040611714 -0.024162913 0.03833477 -0.024497628 0.031030953 0.011579669
0.009515203 -3.8611888e-05 -0.02538286 0.00042706728 0.024457289 0.041879445 0.016033744 0.0010705948
-0.0014440299 0.04396222 -0.030094875 -0.039230056 0.011542899 0.028483355 -0.031826038 0.03204156
-0.028550183 -0.0032507658 -0.030502766 0.02820474 -0.04664222 -0.043770302 0.012186641 0.035627145
0.025915403 0.011722678 0.032214787 0.0019443929 0.04082165 0.018945051 0.019052643 -0.029792625
-0.008249533 -0.001789242 0.0128942905 0.016791655 -0.017861664 0.045435052 -0.004923099 -0.0451002
-0.016513152 0.009667265 -0.005015999 -0.010550231 -0.045639373 0.021571208 -0.04868135 -0.048789408
0.033153374 0.018444223 -0.030153865 -0.04551786 0.011661476 -0.028820146 -0.029530192 -0.04616758
-0.028886301 0.020565528 0.038158882 -0.034003653 -0.008385223 0.042136367 -0.035798598 -0.02350892
-0.0123202205 -0.03687648 -0.037958063 -0.0010952771 0.038359847 -0.029924 0.00055242184 0.044485833
0.036325276 -0.022835607 -0.002100259 -0.048819005 -0.039121687 -0.034710743 0.045598753 -0.031741597
0.031848025 0.048694916 -0.04479908 -0.038402032 0.017359316 -0.022486359 0.004960245 -0.041590907
0.005762464 -0.012286318 -0.012909246 0.016980022 -0.03383388 -0.0040055215 0.00432238 -0.03402812
0.04797181 -0.031058962 -0.03954653 -0.017802734 -0.04851308 -0.019553227 0.015238351 0.04465535
-0.038275775 0.026944822 0.04829324 -0.025962431 -0.01491071 -0.0039109946 0.028551871 -0.005202025
-0.018197203 -0.03026691 0.046542164 0.03331792 -0.001822275 -0.027788652 0.039593693 0.033768803
-0.00522877 -0.0069013177 -0.015793283 -0.03374511 0.016845858 -0.046097796 0.017381473 0.031193102
0.013162977 -0.03345834 0.020457124 0.0001905799 -0.025436247 -0.005038613 -0.0110089425 -0.020289201
-0.03179268 0.008659566 -0.018780548 0.048960578 0.030773073 -0.04582745 0.02267983 0.020552844
-0.011475098 -0.017466057 0.046401333 0.042512264 -0.037274774 -0.023816174 -0.042550635 0.048961636
0.009207994 -0.020703822 0.04312333 -0.011178595 0.038514066 -0.011517221 0.01606424 -0.04351587
-0.032253392 0.013787902 -0.017584575 0.046250015 0.043911666 0.015985478 0.019812012 -0.008171165
-0.023185348 -0.033412814 -0.033681776 0.026354183 -0.025212098 0.028590042 0.028768932 -0.039954286
-0.021349763 -0.011631727 -0.0150347715 -0.010780609 0.0015502631 0.03613313 0.005179453 0.039533693
-0.029872602 -0.047007956 -0.047650475 -0.03039906 0.03807069 0.040835705 0.032879222 -0.0068545523
0.038505524 0.048227545 0.01972512 -0.015008795 0.013956952 -0.017633189 -0.048004176 -0.017037094
-0.020620292 0.047610976 -0.036910336 -0.03541839 -0.035494614 0.040848922 0.0057039084 -0.029665006
-0.03940105 0.040792685 0.010814774 0.04813258 -0.025549019 -0.004290235 0.024863666 0.0066065015
00000000: 8591 313d 5330 08bd 7707 c4bc 8596 113d
00000010: edc4 4a3d aa10 42bd c20d 123d 3b1f 0a3d
00000020: 00b7 f73c ff82 3a3d dd3d f3bc 9a96 c7ba
00000030: 5af7 97bb fb7e 00bd 4d4e 0c3b d5ca 433d
00000040: bfd7 1ebd 7d72 363d 7a94 7ebc 1054 a43c
00000050: 7d89 0ebd 9504 02bd aa55 29bd 5a73 2bbd
00000060: 3d75 23bd c2be 0ebd 7795 37bd a7a8 12bd
00000070: 406e a7bc 1243 3f3d 938e 093c a002 473c
00000080: 1ae8 8fbc 60fb 77bc 7858 263d 4df1 c5bc
00000090: eb04 1d3d 40af c8bc a034 fe3c a7b8 3d3c
000000a0: a7e5 1b3c 33f3 21b8 b7ef cfbc 00e8 df39
000000b0: a75a c83c c889 2b3d 3359 833c 3353 8c3a
000000c0: 9a45 bdba bb11 343d 8789 f6bc b2af 20bd
000000d0: 6d1e 3d3c ed55 e93c 055c 02bd 033e 033d
000000e0: 13e2 e9bc cd0a 55bb f0e0 f9bc a00d e73c
000000f0: ea0b 3fbd 7d48 33bd 7aaa 473c c5ed 113d
00000100: 8a4c d43c 7a10 403c a7f3 033d 00db fe3a
00000110: 9a34 273d a732 9b3c 4a14 9c3c aa0f f4bc
00000120: 0d29 07bc 0085 eaba 9342 533c a78e 893c
00000130: a052 92bc 1b1a 3a3d f351 a1bb fdba 38bd
00000140: 9746 87bc 7363 1e3c 405d a4bb e0da 2cbc
00000150: 5af0 3abd 1ab6 b03c 1866 47bd 67d7 47bd
00000160: d5cb 073d 5718 973c 3d05 f7bc f070 3abd
00000170: c70f 3f3c 3a18 ecbc 4de9 f1bc 371a 3dbd
00000180: f7a2 ecbc 0a79 a83c 7d4c 1c3d 6a47 0bbd
00000190: 2d62 09bc 2f97 2c3d 8da1 12bd c795 c0bc
000001a0: c0da 49bc cb0b 17bd ea79 1bbd 678f 8fba
000001b0: 371f 1d3d 2d23 f5bc 67d0 103a c736 363d
000001c0: d0c9 143d bd11 bbbc 80a4 09bb 70f6 47bd
000001d0: 103e 20bd da2c 0ebd c2c5 3a3d 7a03 02bd
000001e0: 1373 023d 5274 473d 3d7f 37bd 734b 1dbd
000001f0: 2035 8e3c 5035 b8bc 8d89 a23b 3a5b 2abd
00000200: 0dd3 bc3b 8d4c 49bc 4d81 53bc b019 8b3c
00000210: 6595 0abd c040 83bb c0a2 8d3b 1261 0bbd
00000220: 177e 443d 5d6f febc 8bfb 21bd 0ad7 91bc
00000230: a7b5 46bd 172e a0bc 47aa 793c 87e8 363d
00000240: 0fc7 1cbd 63bb dc3c 22cf 453d 2aaf d4bc
00000250: 0d4c 74bc cd27 80bb 9de5 e93c c075 aabb
00000260: 4d12 95bc 50f2 f7bc ffa2 3e3d 5f78 083d
00000270: 67d9 eeba 07a5 e3bc ff2c 223d 2851 0a3d
00000280: 1a56 abbb 7324 e2bb ea60 81bc 5038 0abd
00000290: 5300 8a3c 0bd1 3cbd 9763 8e3c ad88 ff3c
000002a0: 87a9 573c 9d0b 09bd b395 a73c 67d6 4739
000002b0: ad5f d0bc f31a a5bb da5e 34bc 8a35 a6bc
000002c0: 0b39 02bd dae0 0d3c aad9 99bc e38a 483d
000002d0: d017 fc3c 90b5 3bbd 0dcb b93c 705e a83c
000002e0: 0d02 3cbc fa14 8fbc 530f 3e3d 5721 2e3d
000002f0: 6fad 18bd 231a c3bc 9349 2ebd ff8b 483d
00000300: 20dd 163c 109b a9bc 17a2 303d 6d26 37bc
00000310: edc0 1d3d bab2 3cbc 2799 833c b23d 32bd
00000320: 221c 04bd a7e6 613c 870d 90bc a870 3d3d
00000330: b8dc 333d faf3 823c cd4c a23c 5ae0 05bc
00000340: 33ef bdbc e0db 08bd e7f5 09bd bae4 d73c
00000350: 9a89 cebc aa35 ea3c d3ac eb3c 1ba7 23bd
00000360: b3e5 aebc 0093 3ebc 6754 76bc 27a1 30bc
00000370: 3332 cb3a 5500 143d 67b8 a93b 15ee 213d
00000380: 63b7 f4bc 6a8b 40bd 252d 43bd 7307 f9bc
00000390: 03f0 1b3d 5743 273d 5dac 063d 279c e0bb
000003a0: f8b7 1d3d 3f8a 453d 9396 a13c 73e7 75bc
000003b0: b3ab 643c 7a73 90bc 07a0 44bd 6091 8bbc
000003c0: e3eb a8bc ba03 433d 4b2f 17bd e012 11bd
000003d0: cd62 11bd 3351 273d dae7 ba3b 0704 f3bc
000003e0: ff62 21bd 3b16 273d 7330 313c ab26 453d
000003f0: 2d4c d1bc 1a95 8cbb e3ae cb3c 5a7b d83b

fc1.bias f4 [400]
0.044742893 0.041902464 -0.013209641 0.04570065 -0.011901885 -0.03115843 -0.03006624 -0.012266755
-0.0049572587 0.011353135 0.03504848 -0.0010196626 0.03069054 0.03602581 -0.039292123 -0.031655665
0.0471897 -0.032708652 -0.04306477 0.047135618 -0.0015618264 0.0047918144 0.012942338 -0.019903768
0.02870652 0.0042547286 0.045068104 -0.009490765 -0.048620034 -0.013997614 -0.0241561 0.032266792
-0.039078977 0.04630133 -0.024362266 -0.024173988 -0.003864354 -0.01873212 0.04129342 0.030272592
-0.037640084 -0.049402088 0.034512527 0.04754734 -0.0022996725 0.0043048263 0.015833575 -0.04134329
-0.026858354 0.027015192 -0.0118069 -0.032818824 -0.046794362 -0.01700449 -0.046825808 0.03552675
-0.02925082 0.010018224 0.0017878115 0.024976308 -0.045930274 0.0049348953 0.01284675 -0.00045090914
-0.008013988 0.0128363315 -0.009718395 0.033305135 0.048300035 -0.030424792 -0.04181183 -0.019911183
-0.034502815 0.008971256 -0.018549103 -0.042197175 -0.032915022 -0.022481008 0.017729623 0.027449924
-0.02592392 0.0026894093 0.04759718 0.036276367 0.019140089 0.0030947805 -0.03358035 0.038239546
-0.03573386 0.03880049 0.0261491 0.0030917644 0.027761256 0.028452767 0.005174303 -0.04149566
0.02789181 -0.0008140981 0.035536703 0.011409533 -0.023590147 -0.0135906935 0.0403408 -0.026545674
0.035161074 -0.048252013 0.022233147 -0.019351972 0.037925966 0.04637263 -0.027071828 -0.037398677
0.010419018 0.020178312 0.04611051 -0.0019877793 0.017893082 -0.0060262443 0.018164665 0.04159353
0.02426566 0.03957205 0.015086687 -0.004818493 -0.0029616298 0.029715216 0.037656147 -0.04180638
-0.011281848 -0.028438872 0.04510489 -0.013064277 -0.0017651677 0.0234742 -0.020623624 0.0024939717
-0.0041549564 -0.028865052 0.01071015 0.0293947 0.0020362556 -0.03815751 0.031642687 0.013111007
0.014937276 0.0354571 0.00047915577 0.039823323 -0.04587778 -0.024282599 0.042866886 0.015292674
-0.007831073 0.020260448 0.035577405 0.031056821 0.03578793 -0.0033313334 0.032827944 0.048139255
-0.039916363 0.03955267 -0.047245126 0.015125334 0.009867335 0.045046367 -0.04868061 0.034847558
-0.028630096 0.027026862 0.04831911 0.030855257 -0.0063073756 -0.025014525 0.02277468 -0.017770845
0.04277577 -0.038045544 -0.0074107586 0.040475067 -0.037845876 0.032405622 -0.04860087 0.045526784
0.02943551 -0.01895228 0.008037585 -0.009105391 0.017530465 -0.018182714 -0.01290145 0.029088432
-0.0049042525 -0.03387266 0.008778459 0.027299399 -0.010900664 -0.02721396 -0.044980466 0.020242525
-0.015242732 0.04826152 0.007500607 0.0073010507 0.019595249 0.0014282704 -0.04465868 -0.0015868247
0.007082635 -0.003508991 -0.04543031 -0.0366542 0.027821613 -0.046942633 -0.019837653 -0.046083134
-0.020749498 -0.04614485 0.023050254 0.016743029 -0.0012242377 -0.013939017 -0.02810864 -0.03984595
0.010760737 0.015933448 0.045239996 0.036403548 -0.04952085 0.012365383 0.016147394 0.0013628543
-0.039249253 0.036850877 0.023753721 -0.0132621 0.041158695 -0.014780933 -0.04434345 0.019477636
-0.0057786643 0.0064911963 -0.019710988 0.021525681 -0.014294225 0.031715196 -0.0488854 -0.0146344425
-0.015616423 0.016035527 -0.012572325 -0.035052795 -0.015743542 0.0388168 0.015075362 -0.023769725
00000000: 5344 373d eba1 2b3d 406d 58bc 9b30 3b3d
00000010: 2000 43bc f73f ffbc 7a4d f6bc 80fa 48bc
00000020: 8070 a2bb 8002 3a3c ff8e 0f3d 33a6 85ba
00000030: ba6a fb3c cd8f 133d c7f0 20bd 5fa9 01bd
00000040: fd49 413d 82f9 05bd af64 30bd 4711 413d
00000050: 33b6 ccba a704 9d3b 1a0c 543c 3a0d a3bc
00000060: f029 eb3c 406b 8b3b 5599 383d 277f 1bbc
00000070: cd25 47bd 4056 65bc 03e3 c5bc 2f2a 043d
00000080: 4711 20bd 77a6 3d3d 6093 c7bc 8708 c6bc
00000090: 1a41 7dbb 1a74 99bc 4a23 293d 3afe f73c
000000a0: 7d2c 1abd d859 4abd 025d 0d3d 00c1 423d
000000b0: 1ab6 16bb 800f 8d3b 6ab5 813c 9557 29bd
000000c0: 0d06 dcbc f74e dd3c ba71 41bc 086d 06bd
000000d0: 72ab 3fbd 004d 8bbc 6bcc 3fbd 7f84 113d
000000e0: 6a9f efbc 7a23 243c 0055 ea3a 1d9b cc3c
000000f0: 6221 3cbd e7b4 a13b 2d7b 523c 0068 ecb9
00000100: 1a4d 03bc 7a4f 523c e739 1fbc f76a 083d
00000110: 42d6 453d 6a3d f9bc e242 2bbd c71c a3bc
00000120: d352 0dbd 2dfc 123c 4af4 97bc f2d6 2cbd
00000130: e7d1 06bd 172a b8bc b73d 913c aade e03c
00000140: 675e d4bc cd40 303b 43f5 423d 8796 143d
00000150: adcb 9c3c cdd1 4a3b 8d8b 09bd 12a1 1c3d
00000160: ab5d 12bd 43ed 1e3d a336 d63c 339f 4a3b
00000170: 936b e33c c715 e93c 338d a93b 5af7 29bd
00000180: 5d7d e43c 3369 55ba ef8e 113d 0def 3a3c
00000190: 2040 c1bc 80ab 5ebc 653c 253d 5076 d9bc
000001a0: 0f05 103d e7a3 45bd 4a22 b63c 0788 9ebc
000001b0: 4258 1b3d 3af1 3d3d bdc5 ddbc 5b2f 19bd
000001c0: 87b4 2a3c fd4c a53c 60de 3c3d 6745 02bb
000001d0: 8394 923c cd77 c5bb 10ce 943c fa5d 2a3d
000001e0: c7c8 c63c 4d16 223d 272e 773c 73e4 9dbb
000001f0: e717 42bb 536d f33c 553d 1a3d 2b3d 2bbd
00000200: 80d7 38bc a3f8 e8bc e8bf 383d 8d0b 56bc
00000210: 335d e7ba f74c c03c e0f2 a8bc e771 233b
00000220: 4d26 88bb 6776 ecbc a079 2f3c 27cd f03c
00000230: b372 053b 0d4b 1cbd c39b 013d 8dcf 563c
00000240: 7abb 743c 773b 113d 3337 fb39 c81d 233d
00000250: 57ea 3bbd 4dec c6bc 3095 2f3d 208e 7a3c
00000260: e74d 00bc 3df9 a53c 9db9 113d e06a fe3c
00000270: 5d96 123d 8052 5abb 9876 063d ab2d 453d
00000280: 577f 23bd fb01 223d 1b84 41bd 40d0 773c
00000290: 9aaa 213c 8a82 383d 5265 47bd 50bc 0e3d
000002a0: aa89 eabc 7067 dd3c 42ea 453d 2ac4 fc3c
000002b0: 1aae cebb 43eb ccbc f791 ba3c 2a94 91bc
000002c0: a535 2f3d a5d5 1bbd f3d5 f2bb 2fc9 253d
000002d0: 4704 1bbd c2bb 043d b511 47bd 4b7a 3a3d
000002e0: bd22 f13c d041 9bbc 13b0 033c c72e 15bc
000002f0: 0d9c 8f3c eaf3 94bc 9a60 53bc dd4a ee3c
00000300: dab3 a0bb 0fbe 0abd 87d3 0f3c fda2 df3c
00000310: b398 32bc d0ef debc 703d 38bd a7d3 a53c
00000320: a7bc 79bc dfad 453d a7c7 f53b a73d ef3b
00000330: 3786 a03c cd34 bb3a 05ec 36bd 00fd cfba
00000340: 7315 e83b 1af7 65bb 2215 3abd b722 16bd
00000350: 27ea e33c eb46 40bd 9382 a2bc abc1 3cbd
00000360: dafa a9bc 6202 3dbd e3d3 bc3c ad28 893c
00000370: 9a76 a0ba 7a60 64bc 1744 e6bc 8235 23bd
00000380: cd4d 303c dd86 823c 934d 393d e31b 153d
00000390: 60d6 4abd 2d98 4a3c 8a47 843c cda1 b23a
000003a0: d3c3 20bd f2f0 163d 2a97 c23c 4749 59bc
000003b0: 0596 283d ba2b 72bc 7aa1 35bd 908f 9f3c
000003c0: f35a bdbb 1ab4 d43b f078 a1bc a056 b03c
000003d0: 5332 6abc cbe7 013d 0f3c 48bd 4dc5 6fbc
000003e0: 07dc 7fbc f05c 833c 27fc 4dbc 8593 0fbd
000003f0: 9af8 80bc 5dfe 1e3d a7fe 763c bab8 c2bc

fc2.weight f4 [300, 400]
0.048671767 -0.038803715 0.011384394 -0.02421559 0.022388402 0.049528245 -0.010441388 -0.040825285
0.057088632 -0.0040507256 0.044914678 0.00078006147 -0.019403372 0.016267413 0.0034440837 -0.012819213
-0.043158993 -0.04766895 0.01199478 0.011675099 0.049643863 0.05141765 -0.02047341 0.012208325
-0.05263533 -0.022187948 0.021139137 0.0021115392 -0.008557104 0.013026632 0.015930498 0.048524074
-0.045911774 0.048172817 0.028660452 0.047610316 -0.030930778 -0.00441261 0.03292016 0.042329207
-0.014419847 -0.032644425 -3.305001e-05 0.030334385 0.03434758 0.042069707 -0.0055736485 -0.050913233
0.008859172 -0.05238365 0.030552499 -0.007004689 0.024148801 0.00032204835 0.030909043 0.029383415
-0.0147603545 0.043143403 -0.05586291 -0.026669597 -0.03598087 -0.04696112 -0.054809585 0.040759172
0.006800181 0.006977083 -0.004126936 0.011342527 0.0015927944 0.008944784 0.04220609 -0.036635414
0.054839715 -0.014620673 0.017317085 -0.02151803 0.04903396 -0.018937401 0.011765666 -0.018288633
0.042977948 0.010979108 -0.023738217 -0.0035095438 0.05339007 -0.035128135 -0.024842802 -0.023011522
0.035438195 0.045518223 0.0024907128 0.03807086 -0.054223567 0.021290112 0.051701285 0.0019185112
0.056063082 -0.050267335 -0.016117532 -0.050080337 -0.034129843 -0.008085628 -0.024554322 -0.028337674
-0.017593123 -0.0042900937 0.0146003 -0.03448897 -0.0013340863 0.03761752 0.0027148842 0.022614805
-0.0015255932 -0.025259893 0.046098474 0.006343372 -0.0044748215 0.012320751 -0.04303804 0.0041972003
0.035319112 -0.0029944398 -0.0285961 0.01809976 0.03349474 0.023809437 -0.049806595 -0.009980112
-0.04344767 -0.012648127 -0.016001623 0.010147799 -0.023731519 0.031728733 -0.014920188 -0.046741843
-0.024911312 -0.023247002 0.046223946 0.00019882315 -0.0316042 -0.039033834 0.037518322 -0.021002607
0.025292268 0.031140186 0.05382351 -0.05373661 0.030166209 0.028432027 -0.037253324 -0.006871753
0.01979971 -0.05072881 0.045054544 0.042527754 -0.0016774774 -0.04813946 -0.019184189 0.053702354
-0.0020193406 0.012661926 -0.057225063 -0.007746456 0.03422388 0.03850901 -0.036789358 -0.020908633
-0.014708687 -0.011722382 0.012397409 0.027638888 -0.027429871 -0.031052455 -0.009745713 0.037819564
-0.0073198685 0.021675777 0.0027746456 0.040399455 0.048277546 -0.039711874 0.011277129 0.0020798726
-0.03531897 0.04481088 0.053719085 -0.035065822 -0.016672663 0.053381618 0.04281004 0.027238963
-0.0410147 0.05401063 0.034070365 -0.0031386637 -0.054037347 -0.038495857 0.013763389 -0.024393786
-0.005779836 -0.0532484 -0.022756908 0.014757092 0.052394986 0.053566355 0.009175095 -0.047908626
0.021632858 -0.049988102 0.057132445 -0.017517421 0.0073585967 0.041341864 -0.04087656 0.042900257
0.0058641057 -0.040061012 0.009718982 -0.0394628 0.03211572 -0.041811522 0.03925667 0.015088425
-0.024983717 -0.030599294 0.025617428 -0.02935095 0.057391193 -0.0054666866 0.048385926 0.04074661
-0.006739766 0.015314558 -0.012986198 -0.051374428 -0.026947686 0.008061945 -0.028737206 -0.0337564
0.015880235 -0.014263441 -0.018851776 0.0328407 0.0022564651 -0.015072216 -0.04859296 0.016768565
0.045508537 0.01950096 -0.0114766685 0.007582851 0.052732546 -0.014015641 0.05050693 0.01747961
00000000: 0c5c 473d a5f0 1ebd 9c85 3a3c c65f c6bc
00000010: e267 b73c 21de 4a3d 5b12 2bbc 6a38 27bd
00000020: c5d5 693d f3bb 84bb 74f8 373d 0a7d 4c3a
00000030: d2f3 9ebc 3d43 853c 23b6 613b ad07 52bc
00000040: 7cc7 30bd 8440 43bd c185 443c ea48 3f3c
00000050: 5d57 4b3d 509b 523d dab7 a7bc 6d05 483c
00000060: 2598 57bd 80c3 b5bc fc2b ad3c c061 0a3b
00000070: 1833 0cbc a86d 553c ad80 823c 2ec1 463d
00000080: fc0d 3cbd dc50 453d 53c9 ea3c 0903 433d
00000090: 8b62 fdbc a897 90bb 4ad7 063d 6461 2d3d
000000a0: 3941 6cbc 29b6 05bd 2e9f 0ab8 d17f f83c
000000b0: 0cb0 0c3d 4951 2c3d 27a3 b6bb 658a 50bd
000000c0: 1026 113c 3d90 56bd 3c49 fa3c 9787 e5bb
000000d0: b5d3 c53c 99d8 a839 f634 fd3c 7db5 f03c
000000e0: 6ad5 71bc 23b7 303d 82d0 64bd 337a dabc
000000f0: ad60 13bd 4e5a 40bd 0480 60bd 17f3 263d
00000100: 0ed4 de3b 04a0 e43b 403b 87bb 02d6 393c
00000110: 50c5 d03a 258d 123c 4be0 2c3d 040f 16bd
00000120: 9c9f 603d 8c8b 6fbc 8fdc 8d3c 9446 b0bc
00000130: d5d7 483d 9c22 9bbc c8c4 403c 0bd2 95bc
00000140: a509 303d b7e1 333c a676 c2bc 6000 66bb
00000150: 8caf 5a3d 85e2 0fbd 2283 cbbc a982 bcbc
00000160: a427 113d 5171 3a3d 3a3b 233b 31f0 1b3d
00000170: 8819 5ebd 9a68 ae3c bac4 533d 8e76 fb3a
00000180: 67a2 653d 1fe5 4dbd ea08 84bc 0a21 4dbd
00000190: bccb 0bbd 9579 04bc 2526 c9bc 6924 e8bc
000001a0: 741f 90bc ea93 8cbb 1936 6f3c 4e44 0dbd
000001b0: 82dc aeba d414 1a3d 33ec 313b af42 b93c
000001c0: 6af6 c7ba d6ed cebc c1d1 3c3d 10dc cf3b
000001d0: 86a1 92bb fadc 493c a848 30bd ab88 893b
000001e0: c6aa 103d 5d3e 44bb 5e42 eabc f345 943c
000001f0: c831 093d 020c c33c 0002 4cbd a083 23bc
00000200: 2ff6 31bd 173a 4fbc d615 83bc f442 263c
00000210: 9a68 c2bc fdf5 013d ce73 74bc 6074 3fbd
00000220: cf12 ccbc 7f70 bebc 5255 3d3d 2f7b 5039
00000230: 6873 01bd f1e1 1fbd d0ac 193d a90d acbc
00000240: bb31 cf3c b419 ff3c 0a76 5c3d eb1a 5cbd
00000250: 201f f73c 48ea e83c f196 18bd 712c e1bb
00000260: 0033 a23c 03c9 4fbd 1d8b 383d 9531 2e3d
00000270: cdde dbba e22d 45bd 2928 9dbc 00f7 5b3d
00000280: ea56 04bb f873 4f3c d464 6abd fcd5 fdbb
00000290: 572e 0c3d a0bb 1d3d 70b0 16bd 9548 abbc
000002a0: b4fc 70bc 3c0f 40bc 811e 4b3c f36a e23c
000002b0: 9cb4 e0bc b861 febc 7cac 1fbc b0e8 1a3d
000002c0: 82db efbb 6691 b13c d4d6 353b e679 253d
000002d0: adbe 453d eba8 22bd b5c3 383c 794e 083b
000002e0: a0aa 10bd 9d8b 373d 8b08 5c3d 2ea1 0fbd
000002f0: 1c95 88bc afa6 5a3d 9559 2f3d 3f24 df3c
00000300: 08ff 27bd 403a 5d3d 5e8d 0b3d 0ab2 4dbb
00000310: 4456 5dbd d5ad 1dbd d67f 613c 7ad5 c7bc
00000320: c764 bdbb ff1a 5abd b26c babc bbc7 713c
00000330: 209c 563d 6568 5b3d 2353 163c d63b 44bd
00000340: 6437 b13c 53c0 4cbd b603 6a3d b280 8fbc
00000350: 6220 f13b 1656 293d 2e6e 27bd 2eb8 2f3d
00000360: af27 c03b 0417 24bd 5d3c 1f3c bfa3 21bd
00000370: c68b 033d 8f42 2bbd 9acb 203d 7135 773c
00000380: a7aa ccbc 5fab fabc a4db d13c 6771 f0bc
00000390: 0713 6b3d e421 b3bb 5230 463d ebe5 263d
000003a0: 41d9 dcbb e9e9 7a3c 10c4 54bc fe6d 52bd
000003b0: 65c1 dcbc 4016 043c 4a6a ebbc 2744 0abd
000003c0: 4417 823c 35b1 69bc 0a6f 9abc f883 063d
000003d0: 34e1 133b 75f1 76bc 6909 47bd 3b5e 893c
000003e0: 2967 3a3d 7ac0 9f3c a308 3cbc 9179 f83b
000003f0: 15fe 573d dca1 65bc 5be0 4e3d 6631 8f3c

fc2.bias f4 [300]
0.0015486223 0.023734953 -0.0010184731 -0.021150528 0.02498777 0.054151565 -0.034158476 0.02907143
-0.048053913 -0.011910042 -0.0346326 -0.019038396 0.027986677 -0.00043481894 0.03965786 -0.03628775
-0.051195413 0.010468044 -0.05078555 -0.03685373 0.031157812 -0.032122195 -0.04037229 -0.040650476
-0.018061494 0.034185786 -0.028088517 -0.019747438 0.0034389012 0.031681422 -0.03061334 0.050795976
-0.0031488773 0.018187927 -0.02448637 0.02036984 0.018981285 -0.004958114 0.04535218 -0.035672616
0.0063227043 -0.0456271 -0.047066763 -0.0019326204 -0.051931653 0.032970987 -0.02129021 -0.0009398468
-0.05717246 0.029876124 0.022570185 -0.00871106 0.049961425 -0.002852845 -0.027851297 -0.0070696534
-0.0021289522 -0.018006489 0.039154112 -0.027452577 0.034269538 0.029790498 -0.013108487 -0.056637384
0.04422471 -0.03299159 -0.055525005 0.017588181 0.01876655 0.050913583 -0.026601585 -0.032417424
-0.038146436 -0.034614325 -0.027934603 0.033862367 -0.031169217 -0.031080632 0.02029038 -0.03466788
0.018749055 0.009152204 0.050279144 0.036975 0.0502779 0.0029787407 0.040987577 -0.041032877
-0.031179473 -0.055984262 -0.04527354 0.025914053 0.050502963 -0.018368911 -0.038316656 -0.030065978
-0.04166046 0.05664995 -0.011742747 0.030733854 0.033038057 -0.016754374 -0.037502997 -0.029292937
0.042872548 0.051764075 0.015273338 0.046227075 -0.02652333 -0.0032648072 0.047193505 0.04322572
-0.0058209524 -0.024103645 -0.039598476 0.048359368 -0.041860484 0.0162213 -0.03794246 -0.019226022
-0.030827051 0.013740126 -0.019995615 0.030208834 -0.030358989 0.0024508834 -0.019198395 0.052972432
0.01675681 -0.042687416 0.0017333843 0.013080207 -0.046395976 -0.039607506 0.049815837 0.017091976
-0.052884307 -0.05269912 0.014443207 -0.01292506 0.0121670915 0.036477998 0.011324873 0.0062698666
-0.022729192 -0.053548977 0.050812054 -0.05748143 0.04288277 -0.055918686 0.021665046 -0.028363649
-0.009433225 -0.048488222 0.033088546 0.028961604 -0.035885397 0.0038570783 -0.0412334 -0.037053015
-0.011283943 0.012683475 -0.020646326 0.029081155 0.050697293 0.012271927 -0.01805155 -0.057695623
0.0018440902 0.022330046 -0.028267162 -0.041269127 0.025306633 -0.03137548 0.018689286 -0.05311848
0.009418097 0.042426642 -0.047629237 0.0003159504 0.0055281133 0.030915774 -0.014823563 0.04184371
0.028295739 -0.057253323 0.04020737 -0.002874828 0.0027548582 -0.0008088856 0.045648087 0.019935282
0.023376277 -0.024817647 0.016340367 0.03795237 0.02353613 0.03523679 0.00455808 0.050171245
0.027720729 -0.024349585 0.044853937 -0.028237374 0.04266568 0.02735947 0.03504893 0.05465898
1.0330709e-05 0.057399288 -0.02478812 0.019759221 0.007309022 0.013806508 -0.02314386 -0.007644202
0.04105753 0.005978356 0.024760075 0.015935907 0.043848407 -0.03908615 -0.04338221 -0.04164802
-0.0026902242 -0.038798958 0.03543116 -0.015408401 -0.023225369 0.018089829 -0.022305131 -0.043830365
0.031024106 0.04529911 -0.031523902 0.012982901 -0.014880847 0.03635789 0.013376239 -0.015413701
0.014653853 0.024746323 -0.04881879 0.035593074 0.028951775 0.019225307 -0.017489726 -0.015050227
-0.056767214 0.029868374 -0.055270948 -0.04612218 -0.027885972 -0.038997687 -0.052566525 0.009345589
00000000: 24fb ca3a ce6f c23c 497e 85ba df43 adbc
00000010: 27b3 cc3c 08ce 5d3d c2e9 0bbd 3527 ee3c
00000020: 2ed4 44bd 5622 43bc eada 0dbd 69f6 9bbc
00000030: 5144 e53c 69f8 e3b9 4870 223d 77a2 14bd
00000040: 48b2 51bd 2982 2b3c 8204 50bd f0f3 16bd
00000050: ab3e ff3c 9092 03bd 6a5d 25bd 1d81 26bd
00000060: b3f5 93bc 6506 0c3d e419 e6bc 61c5 a1bc
00000070: 305f 613b 61c4 013d d4c8 fabc 710f 503d
00000080: 655d 4ebb d9fe 943c a497 c8bc a7de a63c
00000090: a47e 9b3c ad77 a2bb 35c3 393d 731d 12bd
000000a0: b02e cf3b 7be3 3abd 14c9 40bd fb4f fdba
000000b0: 49b6 54bd 960c 073d ce68 aebc 0d60 76ba
000000c0: ab2d 6abd c6be f43c 1ce5 b83c d5b8 0ebc
000000d0: 5aa4 4c3d ccf6 3abb 6728 e4bc 8da8 e7bb
000000e0: e485 0bbb 5882 93bc 1060 203d 3ae4 e0bc
000000f0: 375e 0c3d 340b f43c fbc4 56bc 9afc 67bd
00000100: f824 353d 3122 07bd 306e 63bd 1715 903c
00000110: 4fbc 993c c38a 503d 91eb d9bc 22c8 04bd
00000120: 703f 1cbd c0c7 0dbd 1cd7 e4bc 44b3 0a3d
00000130: 9656 ffbc cf9c febc 0338 a63c e8ff 0dbd
00000140: 9e97 993c 20f3 153c 81f1 4d3d 1973 173d
00000150: 33f0 4d3d fa36 433b 97e2 273d 1712 28bd
00000160: 186c ffbc c14f 65bd bf70 39bd b549 d43c
00000170: 32dc 4e3d 667a 96bc edf1 1cbd ed4c f6bc
00000180: 29a4 2abd c709 683d a764 40bc 90c5 fb3c
00000190: ea52 073d 7840 89bc be9c 19bd bef7 efbc
000001a0: 209b 2f3d 9106 543d 063d 7a3c 9a58 3d3d
000001b0: 7447 d9bc 60f6 55bb fa4d 413d 740d 313d
000001c0: b0bd bebb 0275 c5bc 0332 22bd 7914 463d
000001d0: e675 2bbd 88e2 843c 8e69 1bbd e47f 9dbc
000001e0: 0389 fcbc 441e 613c d8cd a3bc 8478 f73c
000001f0: 6ab3 f8bc 009f 203b f445 9dbc 9ff9 583d
00000200: 9445 893c 00d9 2ebd ba32 e33a 5d4e 563c
00000210: b509 3ebd 7b3b 22bd b10b 4c3d 7904 8c3c
00000220: 379d 58bd 08db 57bd 33a3 6c3c a1c3 53bc
00000230: 7b58 473c f469 153d f68b 393c 7473 cd3b
00000240: 9232 babc 2c56 5bbd 4d20 503d a671 6bbd
00000250: d8a5 2f3d fe0a 65bd e57a b13c e25a e8bc
00000260: d08d 1abc 969b 46bd db87 073d e340 ed3c
00000270: 91fc 12bd 09c7 7c3b 5be4 28bd e7c4 17bd
00000280: 4ae0 38bc 5ace 4f3c 7c22 a9bc 9a3b ee3c
00000290: f7a7 4f3d 3110 493c d8e0 93bc 3f52 6cbd
000002a0: 66b5 f13a 80ed b63c 8990 e7bc d109 29bd
000002b0: db4f cf3c 9383 00bd 461a 993c c392 59bd
000002c0: 5d4e 1a3c 8fc7 2d3d e016 43bd 25a6 a539
000002d0: 2d25 b53b 1443 fd3c 88de 72bc 4f64 2b3d
000002e0: 77cc e73c 7682 6abd 7cb0 243d 9c67 3cbb
000002f0: da8a 343b 650b 54ba 7df9 3a3d 514f a33c
00000300: 9b7f bf3c 614e cbbc 3cdc 853c f273 1b3d
00000310: d8ce c03c 7454 103d f25b 953b 5d80 4d3d
00000320: 9516 e33c c878 c7bc c3b8 373d 1152 e7bc
00000330: 35c2 2e3d f820 e03c 788f 0f3d 18e2 5f3d
00000340: 0f52 2d37 841b 6b3d 7510 cbbc 17de a13c
00000350: 8580 ef3b b134 623c 3198 bdbc 377c fabb
00000360: f12b 283d 16e6 c33b a4d5 ca3c 058c 823c
00000370: 639a 333d cc18 20bd 8bb1 31bd 1d97 2abd
00000380: 794e 30bb a8eb 1ebd 4420 113d 8573 7cbc
00000390: 2143 bebc 1f31 943c 40b9 b6bc 7887 33bd
000003a0: 4426 fe3c 8f8b 393d 351f 01bd 3cb6 543c
000003b0: ccce 73bc 03ec 143d 0328 5b3c bf89 7cbc
000003c0: b716 703c cdb8 ca3c 36f6 47bd 0bca 113d
000003d0: 462c ed3c 647e 9d3c 9d46 8fbc 3a95 76bc
000003e0: bd84 68bd 85ae f43c ca63 62bd 9cea 3cbd
000003f0: 1f71 e4bc 0abc 1fbd ff4f 57bd 3e1e 193c

bn1.weight f4 [400]
1.0 1.0 1.0 1.0 1.0 1.0 1.0 1.0
1.0 1.0 1.0 1.0 1.0 1.0 1.0 1.0
1.0 1.0 1.0 1.0 1.0 1.0 1.0 1.0
1.0 1.0 1.0 1.0 1.0 1.0 1.0 1.0
1.0 1.0 1.0 1.0 1.0 1.0 1.0 1.0
1.0 1.0 1.0 1.0 1.0 1.0 1.0 1.0
1.0 1.0 1.0 1.0 1.0 1.0 1.0 1.0
1.0 1.0 1.0 1.0 1.0 1.0 1.0 1.0
1.0 1.0 1.0 1.0 1.0 1.0 1.0 1.0
1.0 1.0 1.0 1.0 1.0 1.0 1.0 1.0
1.0 1.0 1.0 1.0 1.0 1.0 1.0 1.0
1.0 1.0 1.0 1.0 1.0 1.0 1.0 1.0
1.0 1.0 1.0 1.0 1.0 1.0 1.0 1.0
1.0 1.0 1.0 1.0 1.0 1.0 1.0 1.0
1.0 1.0 1.0 1.0 1.0 1.0 1.0 1.0
1.0 1.0 1.0 1.0 1.0 1.0 1.0 1.0
1.0 1.0 1.0 1.0 1.0 1.0 1.0 1.0
1.0 1.0 1.0 1.0 1.0 1.0 1.0 1.0
1.0 1.0 1.0 1.0 1.0 1.0 1.0 1.0
1.0 1.0 1.0 1.0 1.0 1.0 1.0 1.0
1.0 1.0 1.0 1.0 1.0 1.0 1.0 1.0
1.0 1.0 1.0 1.0 1.0 1.0 1.0 1.0
1.0 1.0 1.0 1.0 1.0 1.0 1.0 1.0
1.0 1.0 1.0 1.0 1.0 1.0 1.0 1.0
1.0 1.0 1.0 1.0 1.0 1.0 1.0 1.0
1.0 1.0 1.0 1.0 1.0 1.0 1.0 1.0
1.0 1.0 1.0 1.0 1.0 1.0 1.0 1.0
1.0 1.0 1.0 1.0 1.0 1.0 1.0 1.0
1.0 1.0 1.0 1.0 1.0 1.0 1.0 1.0
1.0 1.0 1.0 1.0 1.0 1.0 1.0 1.0
1.0 1.0 1.0 1.0 1.0 1.0 1.0 1.0
1.0 1.0 1.0 1.0 1.0 1.0 1.0 1.0
00000000: 0000 803f 0000 803f 0000 803f 0000 803f
00000010: 0000 803f 0000 803f 0000 803f 0000 803f
00000020: 0000 803f 0000 803f 0000 803f 0000 803f
00000030: 0000 803f 0000 803f 0000 803f 0000 803f
00000040: 0000 803f 0000 803f 0000 803f 0000 803f
00000050: 0000 803f 0000 803f 0000 803f 0000 803f
00000060: 0000 803f 0000 803f 0000 803f 0000 803f
00000070: 0000 803f 0000 803f 0000 803f 0000 803f
00000080: 0000 803f 0000 803f 0000 803f 0000 803f
00000090: 0000 803f 0000 803f 0000 803f 0000 803f
000000a0: 0000 803f 0000 803f 0000 803f 0000 803f
000000b0: 0000 803f 0000 803f 0000 803f 0000 803f
000000c0: 0000 803f 0000 803f 0000 803f 0000 803f
000000d0: 0000 803f 0000 803f 0000 803f 0000 803f
000000e0: 0000 803f 0000 803f 0000 803f 0000 803f
000000f0: 0000 803f 0000 803f 0000 803f 0000 803f
00000100: 0000 803f 0000 803f 0000 803f 0000 803f
00000110: 0000 803f 0000 803f 0000 803f 0000 803f
00000120: 0000 803f 0000 803f 0000 803f 0000 803f
00000130: 0000 803f 0000 803f 0000 803f 0000 803f
00000140: 0000 803f 0000 803f 0000 803f 0000 803f
00000150: 0000 803f 0000 803f 0000 803f 0000 803f
00000160: 0000 803f 0000 803f 0000 803f 0000 803f
00000170: 0000 803f 0000 803f 0000 803f 0000 803f
00000180: 0000 803f 0000 803f 0000 803f 0000 803f
00000190: 0000 803f 0000 803f 0000 803f 0000 803f
000001a0: 0000 803f 0000 803f 0000 803f 0000 803f
000001b0: 0000 803f 0000 803f 0000 803f 0000 803f
000001c0: 0000 803f 0000 803f 0000 803f 0000 803f
000001d0: 0000 803f 0000 803f 0000 803f 0000 803f
000001e0: 0000 803f 0000 803f 0000 803f 0000 803f
000001f0: 0000 803f 0000 803f 0000 803f 0000 803f
00000200: 0000 803f 0000 803f 0000 803f 0000 803f
00000210: 0000 803f 0000 803f 0000 803f 0000 803f
00000220: 0000 803f 0000 803f 0000 803f 0000 803f
00000230: 0000 803f 0000 803f 0000 803f 0000 803f
00000240: 0000 803f 0000 803f 0000 803f 0000 803f
00000250: 0000 803f 0000 803f 0000 803f 0000 803f
00000260: 0000 803f 0000 803f 0000 803f 0000 803f
00000270: 0000 803f 0000 803f 0000 803f 0000 803f
00000280: 0000 803f 0000 803f 0000 803f 0000 803f
00000290: 0000 803f 0000 803f 0000 803f 0000 803f
000002a0: 0000 803f 0000 803f 0000 803f 0000 803f
000002b0: 0000 803f 0000 803f 0000 803f 0000 803f
000002c0: 0000 803f 0000 803f 0000 803f 0000 803f
000002d0: 0000 803f 0000 803f 0000 803f 0000 803f
000002e0: 0000 803f 0000 803f 0000 803f 0000 803f
000002f0: 0000 803f 0000 803f 0000 803f 0000 803f
00000300: 0000 803f 0000 803f 0000 803f 0000 803f
00000310: 0000 803f 0000 803f 0000 803f 0000 803f
00000320: 0000 803f 0000 803f 0000 803f 0000 803f
00000330: 0000 803f 0000 803f 0000 803f 0000 803f
00000340: 0000 803f 0000 803f 0000 803f 0000 803f
00000350: 0000 803f 0000 803f 0000 803f 0000 803f
00000360: 0000 803f 0000 803f 0000 803f 0000 803f
00000370: 0000 803f 0000 803f 0000 803f 0000 803f
00000380: 0000 803f 0000 803f 0000 803f 0000 803f
00000390: 0000 803f 0000 803f 0000 803f 0000 803f
000003a0: 0000 803f 0000 803f 0000 803f 0000 803f
000003b0: 0000 803f 0000 803f 0000 803f 0000 803f
000003c0: 0000 803f 0000 803f 0000 803f 0000 803f
000003d0: 0000 803f 0000 803f 0000 803f 0000 803f
000003e0: 0000 803f 0000 803f 0000 803f 0000 803f
000003f0: 0000 803f 0000 803f 0000 803f 0000 803f

bn1.bias f4 [400]
0.0 0.0 0.0 0.0 0.0 0.0 0.0 0.0
0.0 0.0 0.0 0.0 0.0 0.0 0.0 0.0
0.0 0.0 0.0 0.0 0.0 0.0 0.0 0.0
0.0 0.0 0.0 0.0 0.0 0.0 0.0 0.0
0.0 0.0 0.0 0.0 0.0 0.0 0.0 0.0
0.0 0.0 0.0 0.0 0.0 0.0 0.0 0.0
0.0 0.0 0.0 0.0 0.0 0.0 0.0 0.0
0.0 0.0 0.0 0.0 0.0 0.0 0.0 0.0
0.0 0.0 0.0 0.0 0.0 0.0 0.0 0.0
0.0 0.0 0.0 0.0 0.0 0.0 0.0 0.0
0.0 0.0 0.0 0.0 0.0 0.0 0.0 0.0
0.0 0.0 0.0 0.0 0.0 0.0 0.0 0.0
0.0 0.0 0.0 0.0 0.0 0.0 0.0 0.0
0.0 0.0 0.0 0.0 0.0 0.0 0.0 0.0
0.0 0.0 0.0 0.0 0.0 0.0 0.0 0.0
0.0 0.0 0.0 0.0 0.0 0.0 0.0 0.0
0.0 0.0 0.0 0.0 0.0 0.0 0.0 0.0
0.0 0.0 0.0 0.0 0.0 0.0 0.0 0.0
0.0 0.0 0.0 0.0 0.0 0.0 0.0 0.0
0.0 0.0 0.0 0.0 0.0 0.0 0.0 0.0
0.0 0.0 0.0 0.0 0.0 0.0 0.0 0.0
0.0 0.0 0.0 0.0 0.0 0.0 0.0 0.0
0.0 0.0 0.0 0.0 0.0 0.0 0.0 0.0
0.0 0.0 0.0 0.0 0.0 0.0 0.0 0.0
0.0 0.0 0.0 0.0 0.0 0.0 0.0 0.0
0.0 0.0 0.0 0.0 0.0 0.0 0.0 0.0
0.0 0.0 0.0 0.0 0.0 0.0 0.0 0.0
0.0 0.0 0.0 0.0 0.0 0.0 0.0 0.0
0.0 0.0 0.0 0.0 0.0 0.0 0.0 0.0
0.0 0.0 0.0 0.0 0.0 0.0 0.0 0.0
0.0 0.0 0.0 0.0 0.0 0.0 0.0 0.0
0.0 0.0 0.0 0.0 0.0 0.0 0.0 0.0
00000000: 0000 0000 0000 0000 0000 0000 0000 0000
00000010: 0000 0000 0000 0000 0000 0000 0000 0000
00000020: 0000 0000 0000 0000 0000 0000 0000 0000
00000030: 0000 0000 0000 0000 0000 0000 0000 0000
00000040: 0000 0000 0000 0000 0000 0000 0000 0000
00000050: 0000 0000 0000 0000 0000 0000 0000 0000
00000060: 0000 0000 0000 0000 0000 0000 0000 0000
00000070: 0000 0000 0000 0000 0000 0000 0000 0000
00000080: 0000 0000 0000 0000 0000 0000 0000 0000
00000090: 0000 0000 0000 0000 0000 0000 0000 0000
000000a0: 0000 0000 0000 0000 0000 0000 0000 0000
000000b0: 0000 0000 0000 0000 0000 0000 0000 0000
000000c0: 0000 0000 0000 0000 0000 0000 0000 0000
000000d0: 0000 0000 0000 0000 0000 0000 0000 0000
000000e0: 0000 0000 0000 0000 0000 0000 0000 0000
000000f0: 0000 0000 0000 0000 0000 0000 0000 0000
00000100: 0000 0000 0000 0000 0000 0000 0000 0000
00000110: 0000 0000 0000 0000 0000 0000 0000 0000
00000120: 0000 0000 0000 0000 0000 0000 0000 0000
00000130: 0000 0000 0000 0000 0000 0000 0000 0000
00000140: 0000 0000 0000 0000 0000 0000 0000 0000
00000150: 0000 0000 0000 0000 0000 0000 0000 0000
00000160: 0000 0000 0000 0000 0000 0000 0000 0000
00000170: 0000 0000 0000 0000 0000 0000 0000 0000
00000180: 0000 0000 0000 0000 0000 0000 0000 0000
00000190: 0000 0000 0000 0000 0000 0000 0000 0000
000001a0: 0000 0000 0000 0000 0000 0000 0000 0000
000001b0: 0000 0000 0000 0000 0000 0000 0000 0000
000001c0: 0000 0000 0000 0000 0000 0000 0000 0000
000001d0: 0000 0000 0000 0000 0000 0000 0000 0000
000001e0: 0000 0000 0000 0000 0000 0000 0000 0000
000001f0: 0000 0000 0000 0000 0000 0000 0000 0000
00000200: 0000 0000 0000 0000 0000 0000 0000 0000
00000210: 0000 0000 0000 0000 0000 0000 0000 0000
00000220: 0000 0000 0000 0000 0000 0000 0000 0000
00000230: 0000 0000 0000 0000 0000 0000 0000 0000
00000240: 0000 0000 0000 0000 0000 0000 0000 0000
00000250: 0000 0000 0000 0000 0000 0000 0000 0000
00000260: 0000 0000 0000 0000 0000 0000 0000 0000
00000270: 0000 0000 0000 0000 0000 0000 0000 0000
00000280: 0000 0000 0000 0000 0000 0000 0000 0000
00000290: 0000 0000 0000 0000 0000 0000 0000 0000
000002a0: 0000 0000 0000 0000 0000 0000 0000 0000
000002b0: 0000 0000 0000 0000 0000 0000 0000 0000
000002c0: 0000 0000 0000 0000 0000 0000 0000 0000
000002d0: 0000 0000 0000 0000 0000 0000 0000 0000
000002e0: 0000 0000 0000 0000 0000 0000 0000 0000
000002f0: 0000 0000 0000 0000 0000 0000 0000 0000
00000300: 0000 0000 0000 0000 0000 0000 0000 0000
00000310: 0000 0000 0000 0000 0000 0000 0000 0000
00000320: 0000 0000 0000 0000 0000 0000 0000 0000
00000330: 0000 0000 0000 0000 0000 0000 0000 0000
00000340: 0000 0000 0000 0000 0000 0000 0000 0000
00000350: 0000 0000 0000 0000 0000 0000 0000 0000
00000360: 0000 0000 0000 0000 0000 0000 0000 0000
00000370: 0000 0000 0000 0000 0000 0000 0000 0000
00000380: 0000 0000 0000 0000 0000 0000 0000 0000
00000390: 0000 0000 0000 0000 0000 0000 0000 0000
000003a0: 0000 0000 0000 0000 0000 0000 0000 0000
000003b0: 0000 0000 0000 0000 0000 0000 0000 0000
000003c0: 0000 0000 0000 0000 0000 0000 0000 0000
000003d0: 0000 0000 0000 0000 0000 0000 0000 0000
000003e0: 0000 0000 0000 0000 0000 0000 0000 0000
000003f0: 0000 0000 0000 0000 0000 0000 0000 0000

bn2.weight f4 [300]
1.0 1.0 1.0 1.0 1.0 1.0 1.0 1.0
1.0 1.0 1.0 1.0 1.0 1.0 1.0 1.0
1.0 1.0 1.0 1.0 1.0 1.0 1.0 1.0
1.0 1.0 1.0 1.0 1.0 1.0 1.0 1.0
1.0 1.0 1.0 1.0 1.0 1.0 1.0 1.0
1.0 1.0 1.0 1.0 1.0 1.0 1.0 1.0
1.0 1.0 1.0 1.0 1.0 1.0 1.0 1.0
1.0 1.0 1.0 1.0 1.0 1.0 1.0 1.0
1.0 1.0 1.0 1.0 1.0 1.0 1.0 1.0
1.0 1.0 1.0 1.0 1.0 1.0 1.0 1.0
1.0 1.0 1.0 1.0 1.0 1.0 1.0 1.0
1.0 1.0 1.0 1.0 1.0 1.0 1.0 1.0
1.0 1.0 1.0 1.0 1.0 1.0 1.0 1.0
1.0 1.0 1.0 1.0 1.0 1.0 1.0 1.0
1.0 1.0 1.0 1.0 1.0 1.0 1.0 1.0
1.0 1.0 1.0 1.0 1.0 1.0 1.0 1.0
1.0 1.0 1.0 1.0 1.0 1.0 1.0 1.0
1.0 1.0 1.0 1.0 1.0 1.0 1.0 1.0
1.0 1.0 1.0 1.0 1.0 1.0 1.0 1.0
1.0 1.0 1.0 1.0 1.0 1.0 1.0 1.0
1.0 1.0 1.0 1.0 1.0 1.0 1.0 1.0
1.0 1.0 1.0 1.0 1.0 1.0 1.0 1.0
1.0 1.0 1.0 1.0 1.0 1.0 1.0 1.0
1.0 1.0 1.0 1.0 1.0 1.0 1.0 1.0
1.0 1.0 1.0 1.0 1.0 1.0 1.0 1.0
1.0 1.0 1.0 1.0 1.0 1.0 1.0 1.0
1.0 1.0 1.0 1.0 1.0 1.0 1.0 1.0
1.0 1.0 1.0 1.0 1.0 1.0 1.0 1.0
1.0 1.0 1.0 1.0 1.0 1.0 1.0 1.0
1.0 1.0 1.0 1.0 1.0 1.0 1.0 1.0
1.0 1.0 1.0 1.0 1.0 1.0 1.0 1.0
1.0 1.0 1.0 1.0 1.0 1.0 1.0 1.0
00000000: 0000 803f 0000 803f 0000 803f 0000 803f
00000010: 0000 803f 0000 803f 0000 803f 0000 803f
00000020: 0000 803f 0000 803f 0000 803f 0000 803f
00000030: 0000 803f 0000 803f 0000 803f 0000 803f
00000040: 0000 803f 0000 803f 0000 803f 0000 803f
00000050: 0000 803f 0000 803f 0000 803f 0000 803f
00000060: 0000 803f 0000 803f 0000 803f 0000 803f
00000070: 0000 803f 0000 803f 0000 803f 0000 803f
00000080: 0000 803f 0000 803f 0000 803f 0000 803f
00000090: 0000 803f 0000 803f 0000 803f 0000 803f
000000a0: 0000 803f 0000 803f 0000 803f 0000 803f
000000b0: 0000 803f 0000 803f 0000 803f 0000 803f
000000c0: 0000 803f 0000 803f 0000 803f 0000 803f
000000d0: 0000 803f 0000 803f 0000 803f 0000 803f
000000e0: 0000 803f 0000 803f 0000 803f 0000 803f
000000f0: 0000 803f 0000 803f 0000 803f 0000 803f
00000100: 0000 803f 0000 803f 0000 803f 0000 803f
00000110: 0000 803f 0000 803f 0000 803f 0000 803f
00000120: 0000 803f 0000 803f 0000 803f 0000 803f
00000130: 0000 803f 0000 803f 0000 803f 0000 803f
00000140: 0000 803f 0000 803f 0000 803f 0000 803f
00000150: 0000 803f 0000 803f 0000 803f 0000 803f
00000160: 0000 803f 0000 803f 0000 803f 0000 803f
00000170: 0000 803f 0000 803f 0000 803f 0000 803f
00000180: 0000 803f 0000 803f 0000 803f 0000 803f
00000190: 0000 803f 0000 803f 0000 803f 0000 803f
000001a0: 0000 803f 0000 803f 0000 803f 0000 803f
000001b0: 0000 803f 0000 803f 0000 803f 0000 803f
000001c0: 0000 803f 0000 803f 0000 803f 0000 803f
000001d0: 0000 803f 0000 803f 0000 803f 0000 803f
000001e0: 0000 803f 0000 803f 0000 803f 0000 803f
000001f0: 0000 803f 0000 803f 0000 803f 0000 803f
00000200: 0000 803f 0000 803f 0000 803f 0000 803f
00000210: 0000 803f 0000 803f 0000 803f 0000 803f
00000220: 0000 803f 0000 803f 0000 803f 0000 803f
00000230: 0000 803f 0000 803f 0000 803f 0000 803f
00000240: 0000 803f 0000 803f 0000 803f 0000 803f
00000250: 0000 803f 0000 803f 0000 803f 0000 803f
00000260: 0000 803f 0000 803f 0000 803f 0000 803f
00000270: 0000 803f 0000 803f 0000 803f 0000 803f
00000280: 0000 803f 0000 803f 0000 803f 0000 803f
00000290: 0000 803f 0000 803f 0000 803f 0000 803f
000002a0: 0000 803f 0000 803f 0000 803f 0000 803f
000002b0: 0000 803f 0000 803f 0000 803f 0000 803f
000002c0: 0000 803f 0000 803f 0000 803f 0000 803f
000002d0: 0000 803f 0000 803f 0000 803f 0000 803f
000002e0: 0000 803f 0000 803f 0000 803f 0000 803f
000002f0: 0000 803f 0000 803f 0000 803f 0000 803f
00000300: 0000 803f 0000 803f 0000 803f 0000 803f
00000310: 0000 803f 0000 803f 0000 803f 0000 803f
00000320: 0000 803f 0000 803f 0000 803f 0000 803f
00000330: 0000 803f 0000 803f 0000 803f 0000 803f
00000340: 0000 803f 0000 803f 0000 803f 0000 803f
00000350: 0000 803f 0000 803f 0000 803f 0000 803f
00000360: 0000 803f 0000 803f 0000 803f 0000 803f
00000370: 0000 803f 0000 803f 0000 803f 0000 803f
00000380: 0000 803f 0000 803f 0000 803f 0000 803f
00000390: 0000 803f 0000 803f 0000 803f 0000 803f
000003a0: 0000 803f 0000 803f 0000 803f 0000 803f
000003b0: 0000 803f 0000 803f 0000 803f 0000 803f
000003c0: 0000 803f 0000 803f 0000 803f 0000 803f
000003d0: 0000 803f 0000 803f 0000 803f 0000 803f
000003e0: 0000 803f 0000 803f 0000 803f 0000 803f
000003f0: 0000 803f 0000 803f 0000 803f 0000 803f

bn2.bias f4 [300]
0.0 0.0 0.0 0.0 0.0 0.0 0.0 0.0
0.0 0.0 0.0 0.0 0.0 0.0 0.0 0.0
0.0 0.0 0.0 0.0 0.0 0.0 0.0 0.0
0.0 0.0 0.0 0.0 0.0 0.0 0.0 0.0
0.0 0.0 0.0 0.0 0.0 0.0 0.0 0.0
0.0 0.0 0.0 0.0 0.0 0.0 0.0 0.0
0.0 0.0 0.0 0.0 0.0 0.0 0.0 0.0
0.0 0.0 0.0 0.0 0.0 0.0 0.0 0.0
0.0 0.0 0.0 0.0 0.0 0.0 0.0 0.0
0.0 0.0 0.0 0.0 0.0 0.0 0.0 0.0
0.0 0.0 0.0 0.0 0.0 0.0 0.0 0.0
0.0 0.0 0.0 0.0 0.0 0.0 0.0 0.0
0.0 0.0 0.0 0.0 0.0 0.0 0.0 0.0
0.0 0.0 0.0 0.0 0.0 0.0 0.0 0.0
0.0 0.0 0.0 0.0 0.0 0.0 0.0 0.0
0.0 0.0 0.0 0.0 0.0 0.0 0.0 0.0
0.0 0.0 0.0 0.0 0.0 0.0 0.0 0.0
0.0 0.0 0.0 0.0 0.0 0.0 0.0 0.0
0.0 0.0 0.0 0.0 0.0 0.0 0.0 0.0
0.0 0.0 0.0 0.0 0.0 0.0 0.0 0.0
0.0 0.0 0.0 0.0 0.0 0.0 0.0 0.0
0.0 0.0 0.0 0.0 0.0 0.0 0.0 0.0
0.0 0.0 0.0 0.0 0.0 0.0 0.0 0.0
0.0 0.0 0.0 0.0 0.0 0.0 0.0 0.0
0.0 0.0 0.0 0.0 0.0 0.0 0.0 0.0
0.0 0.0 0.0 0.0 0.0 0.0 0.0 0.0
0.0 0.0 0.0 0.0 0.0 0.0 0.0 0.0
0.0 0.0 0.0 0.0 0.0 0.0 0.0 0.0
0.0 0.0 0.0 0.0 0.0 0.0 0.0 0.0
0.0 0.0 0.0 0.0 0.0 0.0 0.0 0.0
0.0 0.0 0.0 0.0 0.0 0.0 0.0 0.0
0.0 0.0 0.0 0.0 0.0 0.0 0.0 0.0
00000000: 0000 0000 0000 0000 0000 0000 0000 0000
00000010: 0000 0000 0000 0000 0000 0000 0000 0000
00000020: 0000 0000 0000 0000 0000 0000 0000 0000
00000030: 0000 0000 0000 0000 0000 0000 0000 0000
00000040: 0000 0000 0000 0000 0000 0000 0000 0000
00000050: 0000 0000 0000 0000 0000 0000 0000 0000
00000060: 0000 0000 0000 0000 0000 0000 0000 0000
00000070: 0000 0000 0000 0000 0000 0000 0000 0000
00000080: 0000 0000 0000 0000 0000 0000 0000 0000
00000090: 0000 0000 0000 0000 0000 0000 0000 0000
000000a0: 0000 0000 0000 0000 0000 0000 0000 0000
000000b0: 0000 0000 0000 0000 0000 0000 0000 0000
000000c0: 0000 0000 0000 0000 0000 0000 0000 0000
000000d0: 0000 0000 0000 0000 0000 0000 0000 0000
000000e0: 0000 0000 0000 0000 0000 0000 0000 0000
000000f0: 0000 0000 0000 0000 0000 0000 0000 0000
00000100: 0000 0000 0000 0000 0000 0000 0000 0000
00000110: 0000 0000 0000 0000 0000 0000 0000 0000
00000120: 0000 0000 0000 0000 0000 0000 0000 0000
00000130: 0000 0000 0000 0000 0000 0000 0000 0000
00000140: 0000 0000 0000 0000 0000 0000 0000 0000
00000150: 0000 0000 0000 0000 0000 0000 0000 0000
00000160: 0000 0000 0000 0000 0000 0000 0000 0000
00000170: 0000 0000 0000 0000 0000 0000 0000 0000
00000180: 0000 0000 0000 0000 0000 0000 0000 0000
00000190: 0000 0000 0000 0000 0000 0000 0000 0000
000001a0: 0000 0000 0000 0000 0000 0000 0000 0000
000001b0: 0000 0000 0000 0000 0000 0000 0000 0000
000001c0: 0000 0000 0000 0000 0000 0000 0000 0000
000001d0: 0000 0000 0000 0000 0000 0000 0000 0000
000001e0: 0000 0000 0000 0000 0000 0000 0000 0000
000001f0: 0000 0000 0000 0000 0000 0000 0000 0000
00000200: 0000 0000 0000 0000 0000 0000 0000 0000
00000210: 0000 0000 0000 0000 0000 0000 0000 0000
00000220: 0000 0000 0000 0000 0000 0000 0000 0000
00000230: 0000 0000 0000 0000 0000 0000 0000 0000
00000240: 0000 0000 0000 0000 0000 0000 0000 0000
00000250: 0000 0000 0000 0000 0000 0000 0000 0000
00000260: 0000 0000 0000 0000 0000 0000 0000 0000
00000270: 0000 0000 0000 0000 0000 0000 0000 0000
00000280: 0000 0000 0000 0000 0000 0000 0000 0000
00000290: 0000 0000 0000 0000 0000 0000 0000 0000
000002a0: 0000 0000 0000 0000 0000 0000 0000 0000
000002b0: 0000 0000 0000 0000 0000 0000 0000 0000
000002c0: 0000 0000 0000 0000 0000 0000 0000 0000
000002d0: 0000 0000 0000 0000 0000 0000 0000 0000
000002e0: 0000 0000 0000 0000 0000 0000 0000 0000
000002f0: 0000 0000 0000 0000 0000 0000 0000 0000
00000300: 0000 0000 0000 0000 0000 0000 0000 0000
00000310: 0000 0000 0000 0000 0000 0000 0000 0000
00000320: 0000 0000 0000 0000 0000 0000 0000 0000
00000330: 0000 0000 0000 0000 0000 0000 0000 0000
00000340: 0000 0000 0000 0000 0000 0000 0000 0000
00000350: 0000 0000 0000 0000 0000 0000 0000 0000
00000360: 0000 0000 0000 0000 0000 0000 0000 0000
00000370: 0000 0000 0000 0000 0000 0000 0000 0000
00000380: 0000 0000 0000 0000 0000 0000 0000 0000
00000390: 0000 0000 0000 0000 0000 0000 0000 0000
000003a0: 0000 0000 0000 0000 0000 0000 0000 0000
000003b0: 0000 0000 0000 0000 0000 0000 0000 0000
000003c0: 0000 0000 0000 0000 0000 0000 0000 0000
000003d0: 0000 0000 0000 0000 0000 0000 0000 0000
000003e0: 0000 0000 0000 0000 0000 0000 0000 0000
000003f0: 0000 0000 0000 0000 0000 0000 0000 0000

action_value.weight f4 [300, 2]
0.020455163 -0.004317039 0.0126048215 0.026969656 0.01484673 -0.027673556 -0.05074483 0.057726387
-0.04533198 0.05246273 -0.041534785 -0.047258392 0.048432637 0.04542551 -0.008237582 0.042056397
0.0063114236 0.0432455 -0.043075204 0.054796495 0.009147854 -0.016476374 -0.016867826 0.025333764
-0.02225071 -0.009757276 0.052231442 0.015702238 -0.041496444 0.046389293 0.03563082 -0.028129924
-0.038413145 -0.0003107472 -0.012480433 -0.015602868 0.006275524 -0.026790317 0.03972045 0.00907706
0.040753644 0.042943206 0.0045784246 0.0016530168 -0.04163625 -0.016884262 -0.054801505 -0.030427685
-0.020541966 0.040061556 0.0052062096 0.010165817 0.012801642 -0.04134531 -0.0341719 0.03140123
0.029934095 0.032706834 0.014014272 0.0141326375 0.0029826087 -0.039416082 0.004876205 0.03488032
0.007048249 -0.029267183 0.048411418 -0.028214406 -0.023027468 -0.008252819 0.04940804 -0.023780234
-0.044375464 -0.035210997 -0.010422028 -0.011254059 -0.023003917 0.035994023 0.0015215325 -0.039164547
-0.036211018 0.02448765 0.05558268 0.007056274 0.022852872 -0.021994205 -0.0039460766 -0.047381397
-0.056983933 -0.046306267 0.054182686 -0.025929848 0.04198375 0.019576427 -0.019168414 -0.05215223
-0.04433262 0.022889426 0.025732132 -0.004603587 -0.046104066 0.054588456 0.0009921129 -0.02462071
-0.041262526 -0.008823541 0.0015003068 -0.045146026 -0.04593863 0.049387544 -0.00879672 -0.009065945
-0.004862495 0.029841311 -0.019419216 -0.01455438 0.041910022 0.04856393 0.03817364 0.036648773
-0.030644374 -0.030592823 0.03372153 0.002532304 0.052817304 0.0047649075 -0.020091455 -0.045064896
0.04808471 0.049728163 -0.0150582725 0.016305866 0.035033308 0.019190852 -0.042774726 -0.039408993
-0.0106341755 0.03448618 -0.039625656 -0.047058325 -0.048962656 0.05385109 0.02899771 0.026481587
-0.04270246 0.0053377147 0.018251095 -0.018474152 -0.018354656 0.024005879 0.01778295 0.00044161204
-0.013522541 -0.046588384 0.051427603 -0.04216644 -0.03390932 0.03883049 -0.051995795 0.023299081
0.026184289 0.0380636 -0.032135773 -0.04808288 -0.01271146 0.031104865 -0.0515627 0.039878804
-0.05426585 0.056464933 0.050498128 0.010607994 -0.033164036 0.0007539835 -0.052764922 0.003268971
0.008282291 0.057485197 -0.031247294 -0.0343631 0.047949675 0.056949258 -0.05599585 0.046376295
-0.017944483 -0.00080911274 -0.031100199 0.016152143 -0.014640494 -0.005437945 -0.007348211 0.029711273
0.018210528 0.048276994 0.028733613 0.012875313 0.027874725 0.0215288 -0.0053007277 0.044658467
0.020657614 -0.011103325 0.027579878 -0.038410377 -0.002434028 -0.01738293 -0.045533963 0.017067041
0.043997895 0.029948775 0.011066956 0.0003081387 -0.038085733 0.032248758 -0.033064086 -0.02253013
-0.0019533162 -0.046237133 0.053669393 -0.046732888 -0.00776581 -0.048248693 -0.04156724 0.054299764
0.006457299 -0.050505992 0.04312469 0.03470349 -0.02934331 -0.013000899 0.048597608 -0.0415025
0.028779306 0.025012974 -0.0539834 0.043012135 -0.028568445 0.03672414 0.037295155 -0.035878714
0.01975061 -0.008345011 0.038718242 0.046126626 0.029261855 0.021113245 -0.039381202 -0.054124128
-0.033205673 0.0022899762 0.03962115 0.05588103 0.043684646 0.011197299 -0.037034404 -0.05526712
00000000: 9691 a73c f375 8dbb 7484 4e3c 78ef dc3c
00000010: b33f 733c a7b3 e2bc d0d9 4fbd 8172 6c3d
00000020: 07ae 39bd 29e3 563d 6120 2abd 0492 41bd
00000030: 4d61 463d 1910 3a3d ecf6 06bc 5443 2c3d
00000040: 0fd0 ce3b 3222 313d a06f 30bd 4a72 603d
00000050: e1e0 153c 76f9 86bc 652e 8abc c188 cf3c
00000060: 1f47 b6bc fbdc 1fbc a3f0 553d fba1 803c
00000070: 2df8 29bd b302 3e3d 9ff1 113d ba70 e6bc
00000080: 1a57 1dbd c8eb a2b9 bb7a 4cbc 2ca3 7fbc
00000090: e9a2 cd3b 5e77 dbbc e9b1 223d f3b7 143c
000000a0: 4bed 263d 37e5 2f3d 9c06 963b 0aaa d83a
000000b0: c68a 2abd dd50 8abc 8b77 60bd 7b43 f9bc
000000c0: a047 a8bc 9617 243d da98 aa3b 878e 263c
000000d0: fabd 513c b359 29bd d6f7 0bbd 939e 003d
000000e0: 5938 f53c 9af7 053d 1e9c 653c 948c 673c
000000f0: df77 433b c272 21bd 93c8 9f3b abde 0e3d
00000100: fff4 e63b bbc1 efbc 0d4b 463d e621 e7bc
00000110: 1aa4 bcbc d536 07bc 1660 4a3d c4ce c2bc
00000120: 0cc3 35bd 6839 10bd 27c1 2abc f262 38bc
00000130: b672 bcbc 786e 133d 296e c73a 016b 20bd
00000140: 0152 14bd 539a c83c aaaa 633d 5138 e73b
00000150: f235 bb3c 312d b4bc 174e 81bb ff12 42bd
00000160: fc67 69bd a4ab 3dbd aaee 5d3d d56a d4bc
00000170: 27f7 2b3d be5e a03c 1407 9dbc 949d 55bd
00000180: 1f96 35bd 9b82 bb3c 31cc d23c b0d9 96bb
00000190: 9ed7 3cbd 2598 5f3d c909 823a 5fb1 c9bc
000001a0: e502 29bd 9d90 10bc f1a5 c43a 0aeb 38bd
000001b0: 252a 3cbd 984a 4a3d 1e20 10bc 5489 14bc
000001c0: 9155 9fbb c475 f43c 0c15 9fbc 7f75 6ebc
000001d0: d8a9 2b3d f9ea 463d f65b 1c3d 061d 163d
000001e0: e909 fbbc cd9d fabc 961f 0a3d 03f5 253b
000001f0: f556 583d f122 9c3b d696 a4bc f895 38bd
00000200: 79f4 443d c2af 4b3d f9b6 76bc e193 853c
00000210: 167f 0f3d 2236 9d3c 8d34 2fbd 536b 21bd
00000220: f73a 2ebc 6141 0d3d 834e 22bd 3bc0 40bd
00000230: 118d 48bd f692 5c3d 9b8c ed3c eaef d83c
00000240: c6e8 2ebd ffe7 ae3b 5283 953c 1b57 97bc
00000250: 815c 96bc faa7 c43c 8dad 913c 2a88 e739
00000260: a68d 5dbc 76d3 3ebd c0a5 523d b8b6 2cbd
00000270: 80e4 0abd b80c 1f3d 8bf9 54bd b7dd be3c
00000280: 6f80 d63c 94e8 1b3d cda0 03bd 8ef2 44bd
00000290: ba43 50bc a1cf fe3c 6933 53bd f557 233d
000002a0: de45 5ebd c647 673d 20d7 4e3d 27cd 2d3c
000002b0: 03d7 07bd faa6 453a 0820 58bd 3c3c 563b
000002c0: 72b2 073c 9975 6b3d 53fa ffbc 52c0 0cbd
000002d0: e166 443d a043 693d e85b 65bd 12f5 3d3d
000002e0: 4f00 93bc a31a 54ba d8c5 febc 8051 843c
000002f0: afde 6fbc ca30 b2bb 43c9 f0bb 0e65 f33c
00000300: 3f2e 953c 19be 453d c162 eb3c faf2 523c
00000310: 8959 e43c 2a5d b03c bab1 adbb cceb 363d
00000320: 283a a93c b8ea 35bc 32ef e13c 3354 1dbd
00000330: 3784 1fbb a566 8ebc d281 3abd 2ed0 8b3c
00000340: 2337 343d 2257 f53c 2e52 353c ad8d a139
00000350: c9ff 1bbd 4617 043d 356e 07bd 1b91 b8bc
00000360: 3503 00bb 2663 3dbd 70d4 5b3d fc6a 3fbd
00000370: 5678 febb 6ca0 45bd 6942 2abd 6e69 5e3d
00000380: c097 d33b 5fdf 4ebd 84a3 303d 3f25 0e3d
00000390: 6261 f0bc b901 55bc 490e 473d 87fe 29bd
000003a0: 94c2 eb3c 02e8 cc3c b31d 5dbd 7e2d 303d
000003b0: 5f08 eabc 0d6c 163d cec2 183d 8ff5 12bd
000003c0: 08cc a13c 83b9 08bc 0597 1e3d 46ef 3c3d
000003d0: 8fb6 ef3c aff5 ac3c 2f4e 21bd 43b1 5dbd
000003e0: ac02 08bd 6d13 163b c949 223d 82e3 643d
000003f0: acee 323d e074 373c 63b1 17bd c75f 62bd
